…
    downsample_rate: 32
    downsample_rate: 32
    downsample_rate: 64
    coord_num: 4
    field_h: 60
    field_h: 84
    field_h: 120
    field_h: 168
    field_h: 240
    field_h: 336
    field_h: 480
    field_w: 30
    field_w: 42
    field_w: 60
    field_w: 84
    field_w: 120
    field_w: 168
    field_w: 240
    fg_threshold: 0.5
    resize_width: 960
    resize_height: 720
    crop_width: 576
    crop_height: 576
    do_multiple_scale: true
    min_scale: 40
    max_scale: 340
    min_gt_height: 65
    shuffle: true
    output_gt_boxes: true
  }
}
layer {
  name: "conv1_1"
  type: "Convolution"
  bottom: "data"
  top: "conv1_1"
  param {
    lr_mult: 0
    decay_mult: 0
  }
  param {
    lr_mult: 0
    decay_mult: 0
  }
  convolution_param {
    num_output: 64
    pad: 1
    kernel_size: 3
  }
}
layer {
  name: "relu1_1"
  type: "ReLU"
  bottom: "conv1_1"
  top: "conv1_1"
}
layer {
  name: "conv1_2"
  type: "Convolution"
  bottom: "conv1_1"
  top: "conv1_2"
  param {
    lr_mult: 0
    decay_mult: 0
  }
  param {
    lr_mult: 0
    decay_mult: 0
  }
  convolution_param {
    num_output: 64
    pad: 1
    kernel_size: 3
  }
}
layer {
  name: "relu1_2"
  type: "ReLU"
  bottom: "conv1_2"
  top: "conv1_2"
}
layer {
  name: "pool1"
  type: "Pooling"
  bottom: "conv1_2"
  top: "pool1"
  pooling_param {
    pool: MAX
    kernel_size: 2
    stride: 2
  }
}
layer {
  name: "conv2_1"
  type: "Convolution"
  bottom: "pool1"
  top: "conv2_1"
  param {
    lr_mult: 0
    decay_mult: 0
  }
  param {
    lr_mult: 0
    decay_mult: 0
  }
  convolution_param {
    num_output: 128
    pad: 1
    kernel_size: 3
  }
}
layer {
  name: "relu2_1"
  type: "ReLU"
  bottom: "conv2_1"
  top: "conv2_1"
}
layer {
  name: "conv2_2"
  type: "Convolution"
  bottom: "conv2_1"
  top: "conv2_2"
  param {
    lr_mult: 0
    decay_mult: 0
  }
  param {
    lr_mult: 0
    decay_mult: 0
  }
  convolution_param {
    num_output: 128
    pad: 1
    kernel_size: 3
  }
}
layer {
  name: "relu2_2"
  type: "ReLU"
  bottom: "conv2_2"
  top: "conv2_2"
}
layer {
  name: "pool2"
  type: "Pooling"
  bottom: "conv2_2"
  top: "pool2"
  pooling_param {
    pool: MAX
    kernel_size: 2
    stride: 2
  }
}
layer {
  name: "conv3_1"
  type: "Convolution"
  bottom: "pool2"
  top: "conv3_1"
  convolution_param {
    num_output: 256
    pad: 1
    kernel_size: 3
  }
}
layer {
  name: "relu3_1"
  type: "ReLU"
  bottom: "conv3_1"
  top: "conv3_1"
}
layer {
  name: "conv3_2"
  type: "Convolution"
  bottom: "conv3_1"
  top: "conv3_2"
  convolution_param {
    num_output: 256
    pad: 1
    kernel_size: 3
  }
}
layer {
  name: "relu3_2"
  type: "ReLU"
  bottom: "conv3_2"
  top: "conv3_2"
}
layer {
  name: "conv3_3"
  type: "Convolution"
  bottom: "conv3_2"
  top: "conv3_3"
  convolution_param {
    num_output: 256
    pad: 1
    kernel_size: 3
  }
}
layer {
  name: "relu3_3"
  type: "ReLU"
  bottom: "conv3_3"
  top: "conv3_3"
}
layer {
  name: "pool3"
  type: "Pooling"
  bottom: "conv3_3"
  top: "pool3"
  pooling_param {
    pool: MAX
    kernel_size: 2
    stride: 2
  }
}
layer {
  name: "conv4_1"
  type: "Convolution"
  bottom: "pool3"
  top: "conv4_1"
  convolution_param {
    num_output: 512
    pad: 1
    kernel_size: 3
  }
}
layer {
  name: "relu4_1"
  type: "ReLU"
  bottom: "conv4_1"
  top: "conv4_1"
}
layer {
  name: "conv4_2"
  type: "Convolution"
  bottom: "conv4_1"
  top: "conv4_2"
  convolution_param {
    num_output: 512
    pad: 1
    kernel_size: 3
  }
}
layer {
  name: "relu4_2"
  type: "ReLU"
  bottom: "conv4_2"
  top: "conv4_2"
}
layer {
  name: "conv4_3"
  type: "Convolution"
  bottom: "conv4_2"
  top: "conv4_3"
  convolution_param {
    num_output: 512
    pad: 1
    kernel_size: 3
  }
}
layer {
  name: "relu4_3"
  type: "ReLU"
  bottom: "conv4_3"
  top: "conv4_3"
}
layer {
  name: "loss1_conv1"
  type: "Convolution"
  bottom: "conv4_3"
  top: "loss1_conv1"
  param {
    lr_mult: 1
    decay_mult: 1
  }
  param {
    lr_mult: 2
    decay_mult: 0
  }
  convolution_param {
    num_output: 512
    pad: 1
    kernel_size: 3
    weight_filler {
      type: "gaussian"
      std: 0.01
    }
    bias_filler {
      type: "constant"
    }
  }
}
layer {
  name: "loss_relu1"
  type: "ReLU"
  bottom: "loss1_conv1"
  top: "loss1_conv1"
}
layer {
  name: "LFCN_1_3x5"
  type: "Convolution"
  bottom: "loss1_conv1"
  top: "LFCN_1_3x5"
  param {
    lr_mult: 1
    decay_mult: 1
  }
  param {
    lr_mult: 2
    decay_mult: 0
  }
  convolution_param {
    num_output: 6
    weight_filler {
      type: "gaussian"
      std: 0.001
    }
    bias_filler {
      type: "constant"
    }
    pad_h: 2
    pad_w: 1
    kernel_h: 5
    kernel_w: 3
  }
}
layer {
  name: "detection_loss_1_3x5"
  type: "Detection"
  bottom: "LFCN_1_3x5"
  bottom: "label_1_3x5"
  top: "loss_1_3x5"
  loss_weight: 0.9
  detection_param {
    cls_num: 2
    coord_num: 4
    lambda: 1
    field_h: 60
    field_w: 30
    downsample_rate: 8
    bb_smooth: true
    field_whr: 2
    field_xyr: 2
    bg_threshold: 0.2
    bg_multiple: 2
    sample_mode: "bootstrap"
    pos_neg_weighted: true
  }
}
layer {
  name: "detection_accuracy_1_3x5"
  type: "DetectionAccuracy"
  bottom: "LFCN_1_3x5"
  bottom: "label_1_3x5"
  top: "accuracy_1_3x5"
  top: "boxiou_1_3x5"
  detection_accuracy_param {
    cls_num: 2
    coord_num: 4
    field_h: 60
    field_w: 30
    downsample_rate: 8
    field_whr: 2
    field_xyr: 2
  }
}
layer {
  name: "LFCN_1_5x7"
  type: "Convolution"
  bottom: "loss1_conv1"
  top: "LFCN_1_5x7"
  param {
    lr_mult: 1
    decay_mult: 1
  }
  param {
    lr_mult: 2
    decay_mult: 0
  }
  convolution_param {
    num_output: 6
    weight_filler {
      type: "gaussian"
      std: 0.001
    }
    bias_filler {
      type: "constant"
    }
    pad_h: 3
    pad_w: 2
    kernel_h: 7
    kernel_w: 5
  }
}
layer {
  name: "detection_loss_1_5x7"
  type: "Detection"
  bottom: "LFCN_1_5x7"
  bottom: "label_1_5x7"
  top: "loss_1_5x7"
  loss_weight: 0.9
  detection_param {
    cls_num: 2
    coord_num: 4
    lambda: 1
    field_h: 84
    field_w: 42
    downsample_rate: 8
    bb_smooth: true
    field_whr: 2
    field_xyr: 2
    bg_threshold: 0.2
    bg_multiple: 2
    sample_mode: "bootstrap"
    pos_neg_weighted: true
  }
}
layer {
  name: "detection_accuracy_1_5x7"
  type: "DetectionAccuracy"
  bottom: "LFCN_1_5x7"
  bottom: "label_1_5x7"
  top: "accuracy_1_5x7"
  top: "boxiou_1_5x7"
  detection_accuracy_param {
    cls_num: 2
    coord_num: 4
    field_h: 84
    field_w: 42
    downsample_rate: 8
    field_whr: 2
    field_xyr: 2
  }
}
layer {
  name: "pool4"
  type: "Pooling"
  bottom: "conv4_3"
  top: "pool4"
  pooling_param {
    pool: MAX
    kernel_size: 2
    stride: 2
  }
}
layer {
  name: "conv5_1"
  type: "Convolution"
  bottom: "pool4"
  top: "conv5_1"
  convolution_param {
    num_output: 512
    pad: 1
    kernel_size: 3
  }
}
layer {
  name: "relu5_1"
  type: "ReLU"
  bottom: "conv5_1"
  top: "conv5_1"
}
layer {
  name: "conv5_2"
  type: "Convolution"
  bottom: "conv5_1"
  top: "conv5_2"
  convolution_param {
    num_output: 512
    pad: 1
    kernel_size: 3
  }
}
layer {
  name: "relu5_2"
  type: "ReLU"
  bottom: "conv5_2"
  top: "conv5_2"
}
layer {
  name: "conv5_3"
  type: "Convolution"
  bottom: "conv5_2"
  top: "conv5_3"
  convolution_param {
    num_output: 512
    pad: 1
    kernel_size: 3
  }
}
layer {
  name: "relu5_3"
  type: "ReLU"
  bottom: "conv5_3"
  top: "conv5_3"
}
layer {
  name: "LFCN_2_3x5"
  type: "Convolution"
  bottom: "conv5_3"
  top: "LFCN_2_3x5"
  param {
    lr_mult: 1
    decay_mult: 1
  }
  param {
    lr_mult: 2
    decay_mult: 0
  }
  convolution_param {
    num_output: 6
    weight_filler {
      type: "gaussian"
      std: 0.001
    }
    bias_filler {
      type: "constant"
    }
    pad_h: 2
    pad_w: 1
    kernel_h: 5
    kernel_w: 3
  }
}
layer {
  name: "detection_loss_2_3x5"
  type: "Detection"
  bottom: "LFCN_2_3x5"
  bottom: "label_2_3x5"
  top: "loss_2_3x5"
  detection_param {
    cls_num: 2
    coord_num: 4
    lambda: 1
    field_h: 120
    field_w: 60
    downsample_rate: 16
    bb_smooth: true
    field_whr: 2
    field_xyr: 2
    bg_threshold: 0.2
    bg_multiple: 2
    sample_mode: "bootstrap"
    pos_neg_weighted: true
  }
}
layer {
  name: "detection_accuracy_2_3x5"
  type: "DetectionAccuracy"
  bottom: "LFCN_2_3x5"
  bottom: "label_2_3x5"
  top: "accuracy_2_3x5"
  top: "boxiou_2_3x5"
  detection_accuracy_param {
    cls_num: 2
    coord_num: 4
    field_h: 120
    field_w: 60
    downsample_rate: 16
    field_whr: 2
    field_xyr: 2
  }
}
layer {
  name: "LFCN_2_5x7"
  type: "Convolution"
  bottom: "conv5_3"
  top: "LFCN_2_5x7"
  param {
    lr_mult: 1
    decay_mult: 1
  }
  param {
    lr_mult: 2
    decay_mult: 0
  }
  convolution_param {
    num_output: 6
    weight_filler {
      type: "gaussian"
      std: 0.001
    }
    bias_filler {
      type: "constant"
    }
    pad_h: 3
    pad_w: 2
    kernel_h: 7
    kernel_w: 5
  }
}
layer {
  name: "detection_loss_2_5x7"
  type: "Detection"
  bottom: "LFCN_2_5x7"
  bottom: "label_2_5x7"
  top: "loss_2_5x7"
  detection_param {
    cls_num: 2
    coord_num: 4
    lambda: 1
    field_h: 168
    field_w: 84
    downsample_rate: 16
    bb_smooth: true
    field_whr: 2
    field_xyr: 2
    bg_threshold: 0.2
    bg_multiple: 2
    sample_mode: "bootstrap"
    pos_neg_weighted: true
  }
}
layer {
  name: "detection_accuracy_2_5x7"
  type: "DetectionAccuracy"
  bottom: "LFCN_2_5x7"
  bottom: "label_2_5x7"
  top: "accuracy_2_5x7"
  top: "boxiou_2_5x7"
  detection_accuracy_param {
    cls_num: 2
    coord_num: 4
    field_h: 168
    field_w: 84
    downsample_rate: 16
    field_whr: 2
    field_xyr: 2
  }
}
layer {
  name: "pool5"
  type: "Pooling"
  bottom: "conv5_3"
  top: "pool5"
  pooling_param {
    pool: MAX
    kernel_size: 2
    stride: 2
  }
}
layer {
  name: "conv6_1"
  type: "Convolution"
  bottom: "pool5"
  top: "conv6_1"
  param {
    lr_mult: 1
    decay_mult: 1
  }
  param {
    lr_mult: 2
    decay_mult: 0
  }
  convolution_param {
    num_output: 512
    pad: 1
    kernel_size: 3
    weight_filler {
      type: "gaussian"
      std: 0.01
    }
    bias_filler {
      type: "constant"
    }
  }
}
layer {
  name: "relu6_1"
  type: "ReLU"
  bottom: "conv6_1"
  top: "conv6_1"
}
layer {
  name: "LFCN_3_3x5"
  type: "Convolution"
  bottom: "conv6_1"
  top: "LFCN_3_3x5"
  param {
    lr_mult: 1
    decay_mult: 1
  }
  param {
    lr_mult: 2
    decay_mult: 0
  }
  convolution_param {
    num_output: 6
    weight_filler {
      type: "gaussian"
      std: 0.001
    }
    bias_filler {
      type: "constant"
    }
    pad_h: 2
    pad_w: 1
    kernel_h: 5
    kernel_w: 3
  }
}
layer {
  name: "detection_loss_3_3x5"
  type: "Detection"
  bottom: "LFCN_3_3x5"
  bottom: "label_3_3x5"
  top: "loss_3_3x5"
  detection_param {
    cls_num: 2
    coord_num: 4
    lambda: 1
    field_h: 240
    field_w: 120
    downsample_rate: 32
    bb_smooth: true
    field_whr: 2
    field_xyr: 2
    bg_threshold: 0.2
    bg_multiple: 2
    sample_mode: "bootstrap"
    pos_neg_weighted: true
  }
}
layer {
  name: "detection_accuracy_3_3x5"
  type: "DetectionAccuracy"
  bottom: "LFCN_3_3x5"
  bottom: "label_3_3x5"
  top: "accuracy_3_3x5"
  top: "boxiou_3_3x5"
  detection_accuracy_param {
    cls_num: 2
    coord_num: 4
    field_h: 240
    field_w: 120
    downsample_rate: 32
    field_whr: 2
    field_xyr: 2
  }
}
layer {
  name: "LFCN_3_5x7"
  type: "Convolution"
  bottom: "conv6_1"
  top: "LFCN_3_5x7"
  param {
    lr_mult: 1
    decay_mult: 1
  }
  param {
    lr_mult: 2
    decay_mult: 0
  }
  convolution_param {
    num_output: 6
    weight_filler {
      type: "gaussian"
      std: 0.001
    }
    bias_filler {
      type: "constant"
    }
    pad_h: 3
    pad_w: 2
    kernel_h: 7
    kernel_w: 5
  }
}
layer {
  name: "detection_loss_3_5x7"
  type: "Detection"
  bottom: "LFCN_3_5x7"
  bottom: "label_3_5x7"
  top: "loss_3_5x7"
  detection_param {
    cls_num: 2
    coord_num: 4
    lambda: 1
    field_h: 336
    field_w: 168
    downsample_rate: 32
    bb_smooth: true
    field_whr: 2
    field_xyr: 2
    bg_threshold: 0.2
    bg_multiple: 2
    sample_mode: "bootstrap"
    pos_neg_weighted: true
  }
}
layer {
  name: "detection_accuracy_3_5x7"
  type: "DetectionAccuracy"
  bottom: "LFCN_3_5x7"
  bottom: "label_3_5x7"
  top: "accuracy_3_5x7"
  top: "boxiou_3_5x7"
  detection_accuracy_param {
    cls_num: 2
    coord_num: 4
    field_h: 336
    field_w: 168
    downsample_rate: 32
    field_whr: 2
    field_xyr: 2
  }
}
layer {
  name: "pool6"
  type: "Pooling"
  bottom: "conv6_1"
  top: "pool6"
  pooling_param {
    pool: MAX
    kernel_size: 2
    stride: 2
  }
}
layer {
  name: "LFCN_4_3x5"
  type: "Convolution"
  bottom: "pool6"
  top: "LFCN_4_3x5"
  param {
    lr_mult: 1
    decay_mult: 1
  }
  param {
    lr_mult: 2
    decay_mult: 0
  }
  convolution_param {
    num_output: 6
    weight_filler {
      type: "gaussian"
      std: 0.001
    }
    bias_filler {
      type: "constant"
    }
    pad_h: 2
    pad_w: 1
    kernel_h: 5
    kernel_w: 3
  }
}
layer {
  name: "detection_loss_4_3x5"
  type: "Detection"
  bottom: "LFCN_4_3x5"
  bottom: "label_4_3x5"
  top: "loss_4_3x5"
  detection_param {
    cls_num: 2
    coord_num: 4
    lambda: 1
    field_h: 480
    field_w: 240
    downsample_rate: 64
    bb_smooth: true
    field_whr: 2
    field_xyr: 2
    bg_threshold: 0.2
    bg_multiple: 2
    sample_mode: "bootstrap"
    pos_neg_weighted: true
  }
}
layer {
  name: "detection_accuracy_4_3x5"
  type: "DetectionAccuracy"
  bottom: "LFCN_4_3x5"
  bottom: "label_4_3x5"
  top: "accuracy_4_3x5"
  top: "boxiou_4_3x5"
  detection_accuracy_param {
    cls_num: 2
    coord_num: 4
    field_h: 480
    field_w: 240
    downsample_rate: 64
    field_whr: 2
    field_xyr: 2
  }
}
layer {
  name: "proposals"
  type: "BoxOutput"
  bottom: "LFCN_1_3x5"
  bottom: "LFCN_1_5x7"
  bottom: "LFCN_2_3x5"
  bottom: "LFCN_2_5x7"
  bottom: "LFCN_3_3x5"
  bottom: "LFCN_3_5x7"
  bottom: "LFCN_4_3x5"
  top: "proposals"
  propagate_down: false
  propagate_down: false
  propagate_down: false
  propagate_down: false
  propagate_down: false
  propagate_down: false
  propagate_down: false
  box_output_param {
    fg_thr: -10
    iou_thr: 0.65
    nms_type: "IOU"
    field_h: 60
    field_h: 84
    field_h: 120
    field_h: 168
    field_h: 240
    field_h: 336
    field_h: 480
    field_w: 30
    field_w: 42
    field_w: 60
    field_w: 84
    field_w: 120
    field_w: 168
    field_w: 240
    downsample_rate: 8
    downsample_rate: 8
    downsample_rate: 16
    downsample_rate: 16
    downsample_rate: 32
    downsample_rate: 32
    downsample_rate: 64
    field_whr: 2
    field_xyr: 2
    max_nms_num: 3000
  }
}
layer {
  name: "proposal_info"
  type: "ProposalTarget"
  bottom: "proposals"
  bottom: "gt_boxes"
  top: "rois"
  top: "proposal_labels"
  top: "proposal_targets"
  top: "box_inside_weights"
  top: "box_outside_weights"
  top: "match_gt_boxes"
  include {
    phase: TRAIN
  }
  propagate_down: false
  propagate_down: false
  proposal_target_param {
    cls_num: 2
    batch_size: 128
    fg_fraction: 0.25
    num_img_per_batch: 4
    fg_thr: 0.45
    bg_thr_hg: 0.44
    bg_thr_lw: 0.05
    img_width: 576
    img_height: 576
    bbox_mean: 0
    bbox_mean: 0
    bbox_mean: 0
    bbox_mean: 0
    bbox_std: 0.1
    bbox_std: 0.1
    bbox_std: 0.2
    bbox_std: 0.2
  }
}
layer {
  name: "roi_pool_org"
  type: "ROIPooling"
  bottom: "conv4_3"
  bottom: "rois"
  top: "roi_pool_org"
  roi_pooling_param {
    pooled_h: 8
    pooled_w: 4
    spatial_scale: 0.125
    pad_ratio: 0
  }
}
layer {
  name: "roi_pool_ctx"
  type: "ROIPooling"
  bottom: "conv4_3"
  bottom: "rois"
  top: "roi_pool_ctx"
  roi_pooling_param {
    pooled_h: 8
    pooled_w: 4
    spatial_scale: 0.125
    pad_ratio: 0.25
  }
}
layer {
  name: "roi_pool"
  type: "Concat"
  bottom: "roi_pool_org"
  bottom: "roi_pool_ctx"
  top: "roi_pool"
}
layer {
  name: "roi_c1"
  type: "Convolution"
  bottom: "roi_pool"
  top: "roi_c1"
  param {
    lr_mult: 1
    decay_mult: 1
  }
  param {
    lr_mult: 2
    decay_mult: 0
  }
  convolution_param {
    num_output: 512
    pad: 1
    kernel_size: 3
    weight_filler {
      type: "gaussian"
      std: 0.01
    }
    bias_filler {
      type: "constant"
    }
  }
}
layer {
  name: "roi_c1_relu"
  type: "ReLU"
  bottom: "roi_c1"
  top: "roi_c1"
}
layer {
  name: "fc6"
  type: "InnerProduct"
  bottom: "roi_c1"
  top: "fc6"
  param {
    lr_mult: 1
  }
  param {
    lr_mult: 2
  }
  inner_product_param {
    num_output: 2048
    weight_filler {
      type: "gaussian"
      std: 0.001
    }
    bias_filler {
      type: "constant"
      value: 0
    }
  }
}
layer {
  name: "relu6"
  type: "ReLU"
  bottom: "fc6"
  top: "fc6"
}
layer {
  name: "drop6"
  type: "Dropout"
  bottom: "fc6"
  top: "fc6"
  dropout_param {
    dropout_ratio: 0.5
  }
}
layer {
  name: "cls_pred"
  type: "InnerProduct"
  bottom: "fc6"
  top: "cls_pred"
  param {
    lr_mult: 1
  }
  param {
    lr_mult: 2
  }
  inner_product_param {
    num_output: 2
    weight_filler {
      type: "gaussian"
      std: 0.01
    }
    bias_filler {
      type: "constant"
      value: 0
    }
  }
}
layer {
  name: "bbox_pred"
  type: "InnerProduct"
  bottom: "fc6"
  top: "bbox_pred"
  param {
    lr_mult: 1
  }
  param {
    lr_mult: 2
  }
  inner_product_param {
    num_output: 8
    weight_filler {
      type: "gaussian"
      std: 0.001
    }
    bias_filler {
      type: "constant"
      value: 0
    }
  }
}
layer {
  name: "loss_cls"
  type: "SoftmaxWithLoss"
  bottom: "cls_pred"
  bottom: "proposal_labels"
  top: "loss_cls"
  loss_weight: 1
  propagate_down: true
  propagate_down: false
}
layer {
  name: "cls_accuracy"
  type: "Accuracy"
  bottom: "cls_pred"
  bottom: "proposal_labels"
  top: "cls_accuracy"
}
layer {
  name: "loss_bbox"
  type: "SmoothL1Loss"
  bottom: "bbox_pred"
  bottom: "proposal_targets"
  bottom: "box_inside_weights"
  bottom: "box_outside_weights"
  top: "loss_bbox"
  loss_weight: 1
}
layer {
  name: "bbox_iou"
  type: "BboxAccuracy"
  bottom: "bbox_pred"
  bottom: "rois"
  bottom: "match_gt_boxes"
  top: "bbox_iou"
  top: "bbox_iou_pre"
  bbox_accuracy_param {
    bbox_mean: 0
    bbox_mean: 0
    bbox_mean: 0
    bbox_mean: 0
    bbox_std: 0.1
    bbox_std: 0.1
    bbox_std: 0.2
    bbox_std: 0.2
  }
}
I1006 11:36:39.800779 18726 layer_factory.hpp:76] Creating layer data
I1006 11:36:39.800834 18726 net.cpp:106] Creating Layer data
I1006 11:36:39.800844 18726 net.cpp:411] data -> data
…
I1006 11:36:40.302348 18726 image_gt_data_layer.cpp:234] output label size 2 : 4,6,36,36
I1006 11:36:40.302417 18726 image_gt_data_layer.cpp:234] output label size 3 : 4,6,36,36
I1006 11:36:40.302467 18726 image_gt_data_layer.cpp:234] output label size 4 : 4,6,18,18
I1006 11:36:40.302512 18726 image_gt_data_layer.cpp:234] output label size 5 : 4,6,18,18
I1006 11:36:40.302561 18726 image_gt_data_layer.cpp:234] output label size 6 : 4,6,9,9
I1006 11:36:40.302608 18726 image_gt_data_layer.cpp:249] output gt boxes size: 1,7,1,1
I1006 11:36:40.339022 18726 net.cpp:150] Setting up data
I1006 11:36:40.339052 18726 net.cpp:157] Top shape: 4 3 576 576 (3981312)
I1006 11:36:40.339057 18726 net.cpp:157] Top shape: 4 6 72 72 (124416)
I1006 11:36:40.339061 18726 net.cpp:157] Top shape: 4 6 72 72 (124416)
I1006 11:36:40.339066 18726 net.cpp:157] Top shape: 4 6 36 36 (31104)
I1006 11:36:40.339069 18726 net.cpp:157] Top shape: 4 6 36 36 (31104)
I1006 11:36:40.339072 18726 net.cpp:157] Top shape: 4 6 18 18 (7776)
I1006 11:36:40.339077 18726 net.cpp:157] Top shape: 4 6 18 18 (7776)
I1006 11:36:40.339083 18726 net.cpp:157] Top shape: 4 6 9 9 (1944)
I1006 11:36:40.339089 18726 net.cpp:157] Top shape: 1 7 1 1 (7)
I1006 11:36:40.339093 18726 net.cpp:165] Memory required for data: 17239420
I1006 11:36:40.339104 18726 layer_factory.hpp:76] Creating layer label_1_3x5_data_1_split
I1006 11:36:40.339129 18726 net.cpp:106] Creating Layer label_1_3x5_data_1_split
I1006 11:36:40.339138 18726 net.cpp:454] label_1_3x5_data_1_split <- label_1_3x5
I1006 11:36:40.339155 18726 net.cpp:411] label_1_3x5_data_1_split -> label_1_3x5_data_1_split_0
I1006 11:36:40.339169 18726 net.cpp:411] label_1_3x5_data_1_split -> label_1_3x5_data_1_split_1
I1006 11:36:40.339280 18726 net.cpp:150] Setting up label_1_3x5_data_1_split
I1006 11:36:40.339290 18726 net.cpp:157] Top shape: 4 6 72 72 (124416)
I1006 11:36:40.339293 18726 net.cpp:157] Top shape: 4 6 72 72 (124416)
I1006 11:36:40.339296 18726 net.cpp:165] Memory required for data: 18234748
I1006 11:36:40.339299 18726 layer_factory.hpp:76] Creating layer label_1_5x7_data_2_split
I1006 11:36:40.339305 18726 net.cpp:106] Creating Layer label_1_5x7_data_2_split
I1006 11:36:40.339309 18726 net.cpp:454] label_1_5x7_data_2_split <- label_1_5x7
I1006 11:36:40.339316 18726 net.cpp:411] label_1_5x7_data_2_split -> label_1_5x7_data_2_split_0
I1006 11:36:40.339324 18726 net.cpp:411] label_1_5x7_data_2_split -> label_1_5x7_data_2_split_1
I1006 11:36:40.339370 18726 net.cpp:150] Setting up label_1_5x7_data_2_split
I1006 11:36:40.339376 18726 net.cpp:157] Top shape: 4 6 72 72 (124416)
I1006 11:36:40.339380 18726 net.cpp:157] Top shape: 4 6 72 72 (124416)
I1006 11:36:40.339382 18726 net.cpp:165] Memory required for data: 19230076
I1006 11:36:40.339385 18726 layer_factory.hpp:76] Creating layer label_2_3x5_data_3_split
I1006 11:36:40.339390 18726 net.cpp:106] Creating Layer label_2_3x5_data_3_split
I1006 11:36:40.339392 18726 net.cpp:454] label_2_3x5_data_3_split <- label_2_3x5
I1006 11:36:40.339401 18726 net.cpp:411] label_2_3x5_data_3_split -> label_2_3x5_data_3_split_0
I1006 11:36:40.339408 18726 net.cpp:411] label_2_3x5_data_3_split -> label_2_3x5_data_3_split_1
I1006 11:36:40.339440 18726 net.cpp:150] Setting up label_2_3x5_data_3_split
I1006 11:36:40.339447 18726 net.cpp:157] Top shape: 4 6 36 36 (31104)
I1006 11:36:40.339452 18726 net.cpp:157] Top shape: 4 6 36 36 (31104)
I1006 11:36:40.339455 18726 net.cpp:165] Memory required for data: 19478908
I1006 11:36:40.339458 18726 layer_factory.hpp:76] Creating layer label_2_5x7_data_4_split
I1006 11:36:40.339463 18726 net.cpp:106] Creating Layer label_2_5x7_data_4_split
I1006 11:36:40.339467 18726 net.cpp:454] label_2_5x7_data_4_split <- label_2_5x7
I1006 11:36:40.339473 18726 net.cpp:411] label_2_5x7_data_4_split -> label_2_5x7_data_4_split_0
I1006 11:36:40.339478 18726 net.cpp:411] label_2_5x7_data_4_split -> label_2_5x7_data_4_split_1
I1006 11:36:40.339517 18726 net.cpp:150] Setting up label_2_5x7_data_4_split
I1006 11:36:40.339525 18726 net.cpp:157] Top shape: 4 6 36 36 (31104)
I1006 11:36:40.339529 18726 net.cpp:157] Top shape: 4 6 36 36 (31104)
I1006 11:36:40.339531 18726 net.cpp:165] Memory required for data: 19727740
I1006 11:36:40.339534 18726 layer_factory.hpp:76] Creating layer label_3_3x5_data_5_split
I1006 11:36:40.339539 18726 net.cpp:106] Creating Layer label_3_3x5_data_5_split
I1006 11:36:40.339542 18726 net.cpp:454] label_3_3x5_data_5_split <- label_3_3x5
I1006 11:36:40.339551 18726 net.cpp:411] label_3_3x5_data_5_split -> label_3_3x5_data_5_split_0
I1006 11:36:40.339557 18726 net.cpp:411] label_3_3x5_data_5_split -> label_3_3x5_data_5_split_1
I1006 11:36:40.339597 18726 net.cpp:150] Setting up label_3_3x5_data_5_split
I1006 11:36:40.339602 18726 net.cpp:157] Top shape: 4 6 18 18 (7776)
I1006 11:36:40.339606 18726 net.cpp:157] Top shape: 4 6 18 18 (7776)
I1006 11:36:40.339609 18726 net.cpp:165] Memory required for data: 19789948
I1006 11:36:40.339613 18726 layer_factory.hpp:76] Creating layer label_3_5x7_data_6_split
I1006 11:36:40.339617 18726 net.cpp:106] Creating Layer label_3_5x7_data_6_split
I1006 11:36:40.339620 18726 net.cpp:454] label_3_5x7_data_6_split <- label_3_5x7
I1006 11:36:40.339633 18726 net.cpp:411] label_3_5x7_data_6_split -> label_3_5x7_data_6_split_0
I1006 11:36:40.339643 18726 net.cpp:411] label_3_5x7_data_6_split -> label_3_5x7_data_6_split_1
I1006 11:36:40.339679 18726 net.cpp:150] Setting up label_3_5x7_data_6_split
I1006 11:36:40.339684 18726 net.cpp:157] Top shape: 4 6 18 18 (7776)
I1006 11:36:40.339687 18726 net.cpp:157] Top shape: 4 6 18 18 (7776)
I1006 11:36:40.339690 18726 net.cpp:165] Memory required for data: 19852156
I1006 11:36:40.339694 18726 layer_factory.hpp:76] Creating layer label_4_3x5_data_7_split
I1006 11:36:40.339697 18726 net.cpp:106] Creating Layer label_4_3x5_data_7_split
I1006 11:36:40.339700 18726 net.cpp:454] label_4_3x5_data_7_split <- label_4_3x5
I1006 11:36:40.339709 18726 net.cpp:411] label_4_3x5_data_7_split -> label_4_3x5_data_7_split_0
I1006 11:36:40.339716 18726 net.cpp:411] label_4_3x5_data_7_split -> label_4_3x5_data_7_split_1
I1006 11:36:40.339750 18726 net.cpp:150] Setting up label_4_3x5_data_7_split
I1006 11:36:40.339754 18726 net.cpp:157] Top shape: 4 6 9 9 (1944)
I1006 11:36:40.339758 18726 net.cpp:157] Top shape: 4 6 9 9 (1944)
I1006 11:36:40.339762 18726 net.cpp:165] Memory required for data: 19867708
I1006 11:36:40.339766 18726 layer_factory.hpp:76] Creating layer conv1_1
I1006 11:36:40.339778 18726 net.cpp:106] Creating Layer conv1_1
I1006 11:36:40.339782 18726 net.cpp:454] conv1_1 <- data
I1006 11:36:40.339787 18726 net.cpp:411] conv1_1 -> conv1_1
I1006 11:36:40.501929 18726 net.cpp:150] Setting up conv1_1
I1006 11:36:40.501969 18726 net.cpp:157] Top shape: 4 64 576 576 (84934656)
I1006 11:36:40.501973 18726 net.cpp:165] Memory required for data: 359606332
I1006 11:36:40.501998 18726 layer_factory.hpp:76] Creating layer relu1_1
I1006 11:36:40.502013 18726 net.cpp:106] Creating Layer relu1_1
I1006 11:36:40.502019 18726 net.cpp:454] relu1_1 <- conv1_1
I1006 11:36:40.502027 18726 net.cpp:397] relu1_1 -> conv1_1 (in-place)
I1006 11:36:40.502213 18726 net.cpp:150] Setting up relu1_1
I1006 11:36:40.502225 18726 net.cpp:157] Top shape: 4 64 576 576 (84934656)
I1006 11:36:40.502229 18726 net.cpp:165] Memory required for data: 699344956
I1006 11:36:40.502233 18726 layer_factory.hpp:76] Creating layer conv1_2
I1006 11:36:40.502249 18726 net.cpp:106] Creating Layer conv1_2
I1006 11:36:40.502251 18726 net.cpp:454] conv1_2 <- conv1_1
I1006 11:36:40.502259 18726 net.cpp:411] conv1_2 -> conv1_2
I1006 11:36:40.504245 18726 net.cpp:150] Setting up conv1_2
I1006 11:36:40.504262 18726 net.cpp:157] Top shape: 4 64 576 576 (84934656)
I1006 11:36:40.504266 18726 net.cpp:165] Memory required for data: 1039083580
I1006 11:36:40.504276 18726 layer_factory.hpp:76] Creating layer relu1_2
I1006 11:36:40.504283 18726 net.cpp:106] Creating Layer relu1_2
I1006 11:36:40.504287 18726 net.cpp:454] relu1_2 <- conv1_2
I1006 11:36:40.504293 18726 net.cpp:397] relu1_2 -> conv1_2 (in-place)
I1006 11:36:40.504634 18726 net.cpp:150] Setting up relu1_2
I1006 11:36:40.504649 18726 net.cpp:157] Top shape: 4 64 576 576 (84934656)
I1006 11:36:40.504652 18726 net.cpp:165] Memory required for data: 1378822204
I1006 11:36:40.504657 18726 layer_factory.hpp:76] Creating layer pool1
I1006 11:36:40.504667 18726 net.cpp:106] Creating Layer pool1
I1006 11:36:40.504669 18726 net.cpp:454] pool1 <- conv1_2
I1006 11:36:40.504676 18726 net.cpp:411] pool1 -> pool1
I1006 11:36:40.505103 18726 net.cpp:150] Setting up pool1
I1006 11:36:40.505122 18726 net.cpp:157] Top shape: 4 64 288 288 (21233664)
I1006 11:36:40.505125 18726 net.cpp:165] Memory required for data: 1463756860
I1006 11:36:40.505128 18726 layer_factory.hpp:76] Creating layer conv2_1
I1006 11:36:40.505138 18726 net.cpp:106] Creating Layer conv2_1
I1006 11:36:40.505142 18726 net.cpp:454] conv2_1 <- pool1
I1006 11:36:40.505148 18726 net.cpp:411] conv2_1 -> conv2_1
I1006 11:36:40.506906 18726 net.cpp:150] Setting up conv2_1
I1006 11:36:40.506922 18726 net.cpp:157] Top shape: 4 128 288 288 (42467328)
I1006 11:36:40.506932 18726 net.cpp:165] Memory required for data: 1633626172
I1006 11:36:40.506942 18726 layer_factory.hpp:76] Creating layer relu2_1
I1006 11:36:40.506952 18726 net.cpp:106] Creating Layer relu2_1
I1006 11:36:40.506955 18726 net.cpp:454] relu2_1 <- conv2_1
I1006 11:36:40.506961 18726 net.cpp:397] relu2_1 -> conv2_1 (in-place)
I1006 11:36:40.507302 18726 net.cpp:150] Setting up relu2_1
I1006 11:36:40.507316 18726 net.cpp:157] Top shape: 4 128 288 288 (42467328)
I1006 11:36:40.507319 18726 net.cpp:165] Memory required for data: 1803495484
I1006 11:36:40.507323 18726 layer_factory.hpp:76] Creating layer conv2_2
I1006 11:36:40.507334 18726 net.cpp:106] Creating Layer conv2_2
I1006 11:36:40.507339 18726 net.cpp:454] conv2_2 <- conv2_1
I1006 11:36:40.507344 18726 net.cpp:411] conv2_2 -> conv2_2
I1006 11:36:40.509032 18726 net.cpp:150] Setting up conv2_2
I1006 11:36:40.509047 18726 net.cpp:157] Top shape: 4 128 288 288 (42467328)
I1006 11:36:40.509050 18726 net.cpp:165] Memory required for data: 1973364796
I1006 11:36:40.509057 18726 layer_factory.hpp:76] Creating layer relu2_2
I1006 11:36:40.509068 18726 net.cpp:106] Creating Layer relu2_2
I1006 11:36:40.509073 18726 net.cpp:454] relu2_2 <- conv2_2
I1006 11:36:40.509078 18726 net.cpp:397] relu2_2 -> conv2_2 (in-place)
I1006 11:36:40.509413 18726 net.cpp:150] Setting up relu2_2
I1006 11:36:40.509426 18726 net.cpp:157] Top shape: 4 128 288 288 (42467328)
I1006 11:36:40.509430 18726 net.cpp:165] Memory required for data: 2143234108
I1006 11:36:40.509433 18726 layer_factory.hpp:76] Creating layer pool2
I1006 11:36:40.509445 18726 net.cpp:106] Creating Layer pool2
I1006 11:36:40.509449 18726 net.cpp:454] pool2 <- conv2_2
I1006 11:36:40.509454 18726 net.cpp:411] pool2 -> pool2
I1006 11:36:40.509675 18726 net.cpp:150] Setting up pool2
I1006 11:36:40.509686 18726 net.cpp:157] Top shape: 4 128 144 144 (10616832)
I1006 11:36:40.509690 18726 net.cpp:165] Memory required for data: 2185701436
I1006 11:36:40.509692 18726 layer_factory.hpp:76] Creating layer conv3_1
I1006 11:36:40.509702 18726 net.cpp:106] Creating Layer conv3_1
I1006 11:36:40.509706 18726 net.cpp:454] conv3_1 <- pool2
I1006 11:36:40.509711 18726 net.cpp:411] conv3_1 -> conv3_1
I1006 11:36:40.511662 18726 net.cpp:150] Setting up conv3_1
I1006 11:36:40.511678 18726 net.cpp:157] Top shape: 4 256 144 144 (21233664)
I1006 11:36:40.511682 18726 net.cpp:165] Memory required for data: 2270636092
I1006 11:36:40.511693 18726 layer_factory.hpp:76] Creating layer relu3_1
I1006 11:36:40.511699 18726 net.cpp:106] Creating Layer relu3_1
I1006 11:36:40.511703 18726 net.cpp:454] relu3_1 <- conv3_1
I1006 11:36:40.511711 18726 net.cpp:397] relu3_1 -> conv3_1 (in-place)
I1006 11:36:40.512044 18726 net.cpp:150] Setting up relu3_1
I1006 11:36:40.512058 18726 net.cpp:157] Top shape: 4 256 144 144 (21233664)
I1006 11:36:40.512061 18726 net.cpp:165] Memory required for data: 2355570748
I1006 11:36:40.512065 18726 layer_factory.hpp:76] Creating layer conv3_2
I1006 11:36:40.512074 18726 net.cpp:106] Creating Layer conv3_2
I1006 11:36:40.512079 18726 net.cpp:454] conv3_2 <- conv3_1
I1006 11:36:40.512085 18726 net.cpp:411] conv3_2 -> conv3_2
I1006 11:36:40.515658 18726 net.cpp:150] Setting up conv3_2
I1006 11:36:40.515676 18726 net.cpp:157] Top shape: 4 256 144 144 (21233664)
I1006 11:36:40.515681 18726 net.cpp:165] Memory required for data: 2440505404
I1006 11:36:40.515689 18726 layer_factory.hpp:76] Creating layer relu3_2
I1006 11:36:40.515702 18726 net.cpp:106] Creating Layer relu3_2
I1006 11:36:40.515707 18726 net.cpp:454] relu3_2 <- conv3_2
I1006 11:36:40.515717 18726 net.cpp:397] relu3_2 -> conv3_2 (in-place)
I1006 11:36:40.515965 18726 net.cpp:150] Setting up relu3_2
I1006 11:36:40.515979 18726 net.cpp:157] Top shape: 4 256 144 144 (21233664)
I1006 11:36:40.515982 18726 net.cpp:165] Memory required for data: 2525440060
I1006 11:36:40.515986 18726 layer_factory.hpp:76] Creating layer conv3_3
I1006 11:36:40.515998 18726 net.cpp:106] Creating Layer conv3_3
I1006 11:36:40.516003 18726 net.cpp:454] conv3_3 <- conv3_2
I1006 11:36:40.516013 18726 net.cpp:411] conv3_3 -> conv3_3
I1006 11:36:40.518622 18726 net.cpp:150] Setting up conv3_3
I1006 11:36:40.518638 18726 net.cpp:157] Top shape: 4 256 144 144 (21233664)
I1006 11:36:40.518642 18726 net.cpp:165] Memory required for data: 2610374716
I1006 11:36:40.518649 18726 layer_factory.hpp:76] Creating layer relu3_3
I1006 11:36:40.518656 18726 net.cpp:106] Creating Layer relu3_3
I1006 11:36:40.518659 18726 net.cpp:454] relu3_3 <- conv3_3
I1006 11:36:40.518666 18726 net.cpp:397] relu3_3 -> conv3_3 (in-place)
I1006 11:36:40.518853 18726 net.cpp:150] Setting up relu3_3
I1006 11:36:40.518864 18726 net.cpp:157] Top shape: 4 256 144 144 (21233664)
I1006 11:36:40.518867 18726 net.cpp:165] Memory required for data: 2695309372
I1006 11:36:40.518870 18726 layer_factory.hpp:76] Creating layer pool3
I1006 11:36:40.518878 18726 net.cpp:106] Creating Layer pool3
I1006 11:36:40.518882 18726 net.cpp:454] pool3 <- conv3_3
I1006 11:36:40.518910 18726 net.cpp:411] pool3 -> pool3
I1006 11:36:40.519724 18726 net.cpp:150] Setting up pool3
I1006 11:36:40.519763 18726 net.cpp:157] Top shape: 4 256 72 72 (5308416)
I1006 11:36:40.519770 18726 net.cpp:165] Memory required for data: 2716543036
I1006 11:36:40.519778 18726 layer_factory.hpp:76] Creating layer conv4_1
I1006 11:36:40.519799 18726 net.cpp:106] Creating Layer conv4_1
I1006 11:36:40.519807 18726 net.cpp:454] conv4_1 <- pool3
I1006 11:36:40.519824 18726 net.cpp:411] conv4_1 -> conv4_1
I1006 11:36:40.527204 18726 net.cpp:150] Setting up conv4_1
I1006 11:36:40.527235 18726 net.cpp:157] Top shape: 4 512 72 72 (10616832)
I1006 11:36:40.527241 18726 net.cpp:165] Memory required for data: 2759010364
I1006 11:36:40.527261 18726 layer_factory.hpp:76] Creating layer relu4_1
I1006 11:36:40.527273 18726 net.cpp:106] Creating Layer relu4_1
I1006 11:36:40.527281 18726 net.cpp:454] relu4_1 <- conv4_1
I1006 11:36:40.527294 18726 net.cpp:397] relu4_1 -> conv4_1 (in-place)
I1006 11:36:40.527647 18726 net.cpp:150] Setting up relu4_1
I1006 11:36:40.527663 18726 net.cpp:157] Top shape: 4 512 72 72 (10616832)
I1006 11:36:40.527669 18726 net.cpp:165] Memory required for data: 2801477692
I1006 11:36:40.527675 18726 layer_factory.hpp:76] Creating layer conv4_2
I1006 11:36:40.527689 18726 net.cpp:106] Creating Layer conv4_2
I1006 11:36:40.527696 18726 net.cpp:454] conv4_2 <- conv4_1
I1006 11:36:40.527709 18726 net.cpp:411] conv4_2 -> conv4_2
I1006 11:36:40.538276 18726 net.cpp:150] Setting up conv4_2
I1006 11:36:40.538305 18726 net.cpp:157] Top shape: 4 512 72 72 (10616832)
I1006 11:36:40.538311 18726 net.cpp:165] Memory required for data: 2843945020
I1006 11:36:40.538341 18726 layer_factory.hpp:76] Creating layer relu4_2
I1006 11:36:40.538358 18726 net.cpp:106] Creating Layer relu4_2
I1006 11:36:40.538365 18726 net.cpp:454] relu4_2 <- conv4_2
I1006 11:36:40.538378 18726 net.cpp:397] relu4_2 -> conv4_2 (in-place)
I1006 11:36:40.538930 18726 net.cpp:150] Setting up relu4_2
I1006 11:36:40.538954 18726 net.cpp:157] Top shape: 4 512 72 72 (10616832)
I1006 11:36:40.538959 18726 net.cpp:165] Memory required for data: 2886412348
I1006 11:36:40.538965 18726 layer_factory.hpp:76] Creating layer conv4_3
I1006 11:36:40.538980 18726 net.cpp:106] Creating Layer conv4_3
I1006 11:36:40.538986 18726 net.cpp:454] conv4_3 <- conv4_2
I1006 11:36:40.538996 18726 net.cpp:411] conv4_3 -> conv4_3
I1006 11:36:40.549141 18726 net.cpp:150] Setting up conv4_3
I1006 11:36:40.549171 18726 net.cpp:157] Top shape: 4 512 72 72 (10616832)
I1006 11:36:40.549177 18726 net.cpp:165] Memory required for data: 2928879676
I1006 11:36:40.549195 18726 layer_factory.hpp:76] Creating layer relu4_3
I1006 11:36:40.549207 18726 net.cpp:106] Creating Layer relu4_3
I1006 11:36:40.549214 18726 net.cpp:454] relu4_3 <- conv4_3
I1006 11:36:40.549222 18726 net.cpp:397] relu4_3 -> conv4_3 (in-place)
I1006 11:36:40.549728 18726 net.cpp:150] Setting up relu4_3
I1006 11:36:40.549749 18726 net.cpp:157] Top shape: 4 512 72 72 (10616832)
I1006 11:36:40.549757 18726 net.cpp:165] Memory required for data: 2971347004
I1006 11:36:40.549763 18726 layer_factory.hpp:76] Creating layer conv4_3_relu4_3_0_split
I1006 11:36:40.549782 18726 net.cpp:106] Creating Layer conv4_3_relu4_3_0_split
I1006 11:36:40.549788 18726 net.cpp:454] conv4_3_relu4_3_0_split <- conv4_3
I1006 11:36:40.549798 18726 net.cpp:411] conv4_3_relu4_3_0_split -> conv4_3_relu4_3_0_split_0
I1006 11:36:40.549811 18726 net.cpp:411] conv4_3_relu4_3_0_split -> conv4_3_relu4_3_0_split_1
I1006 11:36:40.549820 18726 net.cpp:411] conv4_3_relu4_3_0_split -> conv4_3_relu4_3_0_split_2
I1006 11:36:40.549829 18726 net.cpp:411] conv4_3_relu4_3_0_split -> conv4_3_relu4_3_0_split_3
I1006 11:36:40.549947 18726 net.cpp:150] Setting up conv4_3_relu4_3_0_split
I1006 11:36:40.549957 18726 net.cpp:157] Top shape: 4 512 72 72 (10616832)
I1006 11:36:40.549964 18726 net.cpp:157] Top shape: 4 512 72 72 (10616832)
I1006 11:36:40.549969 18726 net.cpp:157] Top shape: 4 512 72 72 (10616832)
I1006 11:36:40.549975 18726 net.cpp:157] Top shape: 4 512 72 72 (10616832)
I1006 11:36:40.549979 18726 net.cpp:165] Memory required for data: 3141216316
I1006 11:36:40.549984 18726 layer_factory.hpp:76] Creating layer loss1_conv1
I1006 11:36:40.550007 18726 net.cpp:106] Creating Layer loss1_conv1
I1006 11:36:40.550014 18726 net.cpp:454] loss1_conv1 <- conv4_3_relu4_3_0_split_0
I1006 11:36:40.550024 18726 net.cpp:411] loss1_conv1 -> loss1_conv1
I1006 11:36:40.663820 18726 net.cpp:150] Setting up loss1_conv1
I1006 11:36:40.663851 18726 net.cpp:157] Top shape: 4 512 72 72 (10616832)
I1006 11:36:40.663854 18726 net.cpp:165] Memory required for data: 3183683644
I1006 11:36:40.663863 18726 layer_factory.hpp:76] Creating layer loss_relu1
I1006 11:36:40.663872 18726 net.cpp:106] Creating Layer loss_relu1
I1006 11:36:40.663877 18726 net.cpp:454] loss_relu1 <- loss1_conv1
I1006 11:36:40.663892 18726 net.cpp:397] loss_relu1 -> loss1_conv1 (in-place)
I1006 11:36:40.664093 18726 net.cpp:150] Setting up loss_relu1
I1006 11:36:40.664104 18726 net.cpp:157] Top shape: 4 512 72 72 (10616832)
I1006 11:36:40.664108 18726 net.cpp:165] Memory required for data: 3226150972
I1006 11:36:40.664111 18726 layer_factory.hpp:76] Creating layer loss1_conv1_loss_relu1_0_split
I1006 11:36:40.664119 18726 net.cpp:106] Creating Layer loss1_conv1_loss_relu1_0_split
I1006 11:36:40.664122 18726 net.cpp:454] loss1_conv1_loss_relu1_0_split <- loss1_conv1
I1006 11:36:40.664127 18726 net.cpp:411] loss1_conv1_loss_relu1_0_split -> loss1_conv1_loss_relu1_0_split_0
I1006 11:36:40.664134 18726 net.cpp:411] loss1_conv1_loss_relu1_0_split -> loss1_conv1_loss_relu1_0_split_1
I1006 11:36:40.664182 18726 net.cpp:150] Setting up loss1_conv1_loss_relu1_0_split
I1006 11:36:40.664187 18726 net.cpp:157] Top shape: 4 512 72 72 (10616832)
I1006 11:36:40.664191 18726 net.cpp:157] Top shape: 4 512 72 72 (10616832)
I1006 11:36:40.664194 18726 net.cpp:165] Memory required for data: 3311085628
I1006 11:36:40.664197 18726 layer_factory.hpp:76] Creating layer LFCN_1_3x5
I1006 11:36:40.664207 18726 net.cpp:106] Creating Layer LFCN_1_3x5
I1006 11:36:40.664211 18726 net.cpp:454] LFCN_1_3x5 <- loss1_conv1_loss_relu1_0_split_0
I1006 11:36:40.664217 18726 net.cpp:411] LFCN_1_3x5 -> LFCN_1_3x5
I1006 11:36:40.667318 18726 net.cpp:150] Setting up LFCN_1_3x5
I1006 11:36:40.667332 18726 net.cpp:157] Top shape: 4 6 72 72 (124416)
I1006 11:36:40.667336 18726 net.cpp:165] Memory required for data: 3311583292
I1006 11:36:40.667342 18726 layer_factory.hpp:76] Creating layer LFCN_1_3x5_LFCN_1_3x5_0_split
I1006 11:36:40.667351 18726 net.cpp:106] Creating Layer LFCN_1_3x5_LFCN_1_3x5_0_split
I1006 11:36:40.667354 18726 net.cpp:454] LFCN_1_3x5_LFCN_1_3x5_0_split <- LFCN_1_3x5
I1006 11:36:40.667361 18726 net.cpp:411] LFCN_1_3x5_LFCN_1_3x5_0_split -> LFCN_1_3x5_LFCN_1_3x5_0_split_0
I1006 11:36:40.667367 18726 net.cpp:411] LFCN_1_3x5_LFCN_1_3x5_0_split -> LFCN_1_3x5_LFCN_1_3x5_0_split_1
I1006 11:36:40.667372 18726 net.cpp:411] LFCN_1_3x5_LFCN_1_3x5_0_split -> LFCN_1_3x5_LFCN_1_3x5_0_split_2
I1006 11:36:40.667431 18726 net.cpp:150] Setting up LFCN_1_3x5_LFCN_1_3x5_0_split
I1006 11:36:40.667436 18726 net.cpp:157] Top shape: 4 6 72 72 (124416)
I1006 11:36:40.667440 18726 net.cpp:157] Top shape: 4 6 72 72 (124416)
I1006 11:36:40.667443 18726 net.cpp:157] Top shape: 4 6 72 72 (124416)
I1006 11:36:40.667446 18726 net.cpp:165] Memory required for data: 3313076284
I1006 11:36:40.667449 18726 layer_factory.hpp:76] Creating layer detection_loss_1_3x5
I1006 11:36:40.667457 18726 net.cpp:106] Creating Layer detection_loss_1_3x5
I1006 11:36:40.667460 18726 net.cpp:454] detection_loss_1_3x5 <- LFCN_1_3x5_LFCN_1_3x5_0_split_0
I1006 11:36:40.667465 18726 net.cpp:454] detection_loss_1_3x5 <- label_1_3x5_data_1_split_0
I1006 11:36:40.667470 18726 net.cpp:411] detection_loss_1_3x5 -> loss_1_3x5
I1006 11:36:40.667482 18726 layer_factory.hpp:76] Creating layer detection_loss_1_3x5
I1006 11:36:40.668058 18726 net.cpp:150] Setting up detection_loss_1_3x5
I1006 11:36:40.668072 18726 net.cpp:157] Top shape: 1 1 1 2 (2)
I1006 11:36:40.668076 18726 net.cpp:160]     with loss weight 0.9
I1006 11:36:40.668095 18726 net.cpp:165] Memory required for data: 3313076292
I1006 11:36:40.668098 18726 layer_factory.hpp:76] Creating layer detection_accuracy_1_3x5
I1006 11:36:40.668107 18726 net.cpp:106] Creating Layer detection_accuracy_1_3x5
I1006 11:36:40.668112 18726 net.cpp:454] detection_accuracy_1_3x5 <- LFCN_1_3x5_LFCN_1_3x5_0_split_1
I1006 11:36:40.668115 18726 net.cpp:454] detection_accuracy_1_3x5 <- label_1_3x5_data_1_split_1
I1006 11:36:40.668123 18726 net.cpp:411] detection_accuracy_1_3x5 -> accuracy_1_3x5
I1006 11:36:40.668131 18726 net.cpp:411] detection_accuracy_1_3x5 -> boxiou_1_3x5
I1006 11:36:40.668174 18726 net.cpp:150] Setting up detection_accuracy_1_3x5
I1006 11:36:40.668181 18726 net.cpp:157] Top shape: 1 1 1 2 (2)
I1006 11:36:40.668185 18726 net.cpp:157] Top shape: 1 1 1 1 (1)
I1006 11:36:40.668189 18726 net.cpp:165] Memory required for data: 3313076304
I1006 11:36:40.668191 18726 layer_factory.hpp:76] Creating layer LFCN_1_5x7
I1006 11:36:40.668200 18726 net.cpp:106] Creating Layer LFCN_1_5x7
I1006 11:36:40.668203 18726 net.cpp:454] LFCN_1_5x7 <- loss1_conv1_loss_relu1_0_split_1
I1006 11:36:40.668210 18726 net.cpp:411] LFCN_1_5x7 -> LFCN_1_5x7
I1006 11:36:40.673765 18726 net.cpp:150] Setting up LFCN_1_5x7
I1006 11:36:40.673780 18726 net.cpp:157] Top shape: 4 6 72 72 (124416)
I1006 11:36:40.673784 18726 net.cpp:165] Memory required for data: 3313573968
I1006 11:36:40.673790 18726 layer_factory.hpp:76] Creating layer LFCN_1_5x7_LFCN_1_5x7_0_split
I1006 11:36:40.673799 18726 net.cpp:106] Creating Layer LFCN_1_5x7_LFCN_1_5x7_0_split
I1006 11:36:40.673804 18726 net.cpp:454] LFCN_1_5x7_LFCN_1_5x7_0_split <- LFCN_1_5x7
I1006 11:36:40.673809 18726 net.cpp:411] LFCN_1_5x7_LFCN_1_5x7_0_split -> LFCN_1_5x7_LFCN_1_5x7_0_split_0
I1006 11:36:40.673816 18726 net.cpp:411] LFCN_1_5x7_LFCN_1_5x7_0_split -> LFCN_1_5x7_LFCN_1_5x7_0_split_1
I1006 11:36:40.673821 18726 net.cpp:411] LFCN_1_5x7_LFCN_1_5x7_0_split -> LFCN_1_5x7_LFCN_1_5x7_0_split_2
I1006 11:36:40.673882 18726 net.cpp:150] Setting up LFCN_1_5x7_LFCN_1_5x7_0_split
I1006 11:36:40.673893 18726 net.cpp:157] Top shape: 4 6 72 72 (124416)
I1006 11:36:40.673897 18726 net.cpp:157] Top shape: 4 6 72 72 (124416)
I1006 11:36:40.673900 18726 net.cpp:157] Top shape: 4 6 72 72 (124416)
I1006 11:36:40.673902 18726 net.cpp:165] Memory required for data: 3315066960
I1006 11:36:40.673905 18726 layer_factory.hpp:76] Creating layer detection_loss_1_5x7
I1006 11:36:40.673913 18726 net.cpp:106] Creating Layer detection_loss_1_5x7
I1006 11:36:40.673916 18726 net.cpp:454] detection_loss_1_5x7 <- LFCN_1_5x7_LFCN_1_5x7_0_split_0
I1006 11:36:40.673921 18726 net.cpp:454] detection_loss_1_5x7 <- label_1_5x7_data_2_split_0
I1006 11:36:40.673926 18726 net.cpp:411] detection_loss_1_5x7 -> loss_1_5x7
I1006 11:36:40.673933 18726 layer_factory.hpp:76] Creating layer detection_loss_1_5x7
I1006 11:36:40.674492 18726 net.cpp:150] Setting up detection_loss_1_5x7
I1006 11:36:40.674505 18726 net.cpp:157] Top shape: 1 1 1 2 (2)
I1006 11:36:40.674509 18726 net.cpp:160]     with loss weight 0.9
I1006 11:36:40.674515 18726 net.cpp:165] Memory required for data: 3315066968
I1006 11:36:40.674518 18726 layer_factory.hpp:76] Creating layer detection_accuracy_1_5x7
I1006 11:36:40.674526 18726 net.cpp:106] Creating Layer detection_accuracy_1_5x7
I1006 11:36:40.674530 18726 net.cpp:454] detection_accuracy_1_5x7 <- LFCN_1_5x7_LFCN_1_5x7_0_split_1
I1006 11:36:40.674535 18726 net.cpp:454] detection_accuracy_1_5x7 <- label_1_5x7_data_2_split_1
I1006 11:36:40.674540 18726 net.cpp:411] detection_accuracy_1_5x7 -> accuracy_1_5x7
I1006 11:36:40.674547 18726 net.cpp:411] detection_accuracy_1_5x7 -> boxiou_1_5x7
I1006 11:36:40.674590 18726 net.cpp:150] Setting up detection_accuracy_1_5x7
I1006 11:36:40.674608 18726 net.cpp:157] Top shape: 1 1 1 2 (2)
I1006 11:36:40.674612 18726 net.cpp:157] Top shape: 1 1 1 1 (1)
I1006 11:36:40.674614 18726 net.cpp:165] Memory required for data: 3315066980
I1006 11:36:40.674617 18726 layer_factory.hpp:76] Creating layer pool4
I1006 11:36:40.674624 18726 net.cpp:106] Creating Layer pool4
I1006 11:36:40.674628 18726 net.cpp:454] pool4 <- conv4_3_relu4_3_0_split_1
I1006 11:36:40.674633 18726 net.cpp:411] pool4 -> pool4
I1006 11:36:40.675010 18726 net.cpp:150] Setting up pool4
I1006 11:36:40.675024 18726 net.cpp:157] Top shape: 4 512 36 36 (2654208)
I1006 11:36:40.675026 18726 net.cpp:165] Memory required for data: 3325683812
I1006 11:36:40.675029 18726 layer_factory.hpp:76] Creating layer conv5_1
I1006 11:36:40.675038 18726 net.cpp:106] Creating Layer conv5_1
I1006 11:36:40.675041 18726 net.cpp:454] conv5_1 <- pool4
I1006 11:36:40.675048 18726 net.cpp:411] conv5_1 -> conv5_1
I1006 11:36:40.681713 18726 net.cpp:150] Setting up conv5_1
I1006 11:36:40.681735 18726 net.cpp:157] Top shape: 4 512 36 36 (2654208)
I1006 11:36:40.681740 18726 net.cpp:165] Memory required for data: 3336300644
I1006 11:36:40.681747 18726 layer_factory.hpp:76] Creating layer relu5_1
I1006 11:36:40.681758 18726 net.cpp:106] Creating Layer relu5_1
I1006 11:36:40.681763 18726 net.cpp:454] relu5_1 <- conv5_1
I1006 11:36:40.681771 18726 net.cpp:397] relu5_1 -> conv5_1 (in-place)
I1006 11:36:40.682116 18726 net.cpp:150] Setting up relu5_1
I1006 11:36:40.682129 18726 net.cpp:157] Top shape: 4 512 36 36 (2654208)
I1006 11:36:40.682132 18726 net.cpp:165] Memory required for data: 3346917476
I1006 11:36:40.682135 18726 layer_factory.hpp:76] Creating layer conv5_2
I1006 11:36:40.682145 18726 net.cpp:106] Creating Layer conv5_2
I1006 11:36:40.682148 18726 net.cpp:454] conv5_2 <- conv5_1
I1006 11:36:40.682155 18726 net.cpp:411] conv5_2 -> conv5_2
I1006 11:36:40.688840 18726 net.cpp:150] Setting up conv5_2
I1006 11:36:40.688860 18726 net.cpp:157] Top shape: 4 512 36 36 (2654208)
I1006 11:36:40.688868 18726 net.cpp:165] Memory required for data: 3357534308
I1006 11:36:40.688876 18726 layer_factory.hpp:76] Creating layer relu5_2
I1006 11:36:40.688884 18726 net.cpp:106] Creating Layer relu5_2
I1006 11:36:40.688887 18726 net.cpp:454] relu5_2 <- conv5_2
I1006 11:36:40.688897 18726 net.cpp:397] relu5_2 -> conv5_2 (in-place)
I1006 11:36:40.689088 18726 net.cpp:150] Setting up relu5_2
I1006 11:36:40.689100 18726 net.cpp:157] Top shape: 4 512 36 36 (2654208)
I1006 11:36:40.689102 18726 net.cpp:165] Memory required for data: 3368151140
I1006 11:36:40.689105 18726 layer_factory.hpp:76] Creating layer conv5_3
I1006 11:36:40.689112 18726 net.cpp:106] Creating Layer conv5_3
I1006 11:36:40.689116 18726 net.cpp:454] conv5_3 <- conv5_2
I1006 11:36:40.689122 18726 net.cpp:411] conv5_3 -> conv5_3
I1006 11:36:40.695672 18726 net.cpp:150] Setting up conv5_3
I1006 11:36:40.695688 18726 net.cpp:157] Top shape: 4 512 36 36 (2654208)
I1006 11:36:40.695691 18726 net.cpp:165] Memory required for data: 3378767972
I1006 11:36:40.695698 18726 layer_factory.hpp:76] Creating layer relu5_3
I1006 11:36:40.695704 18726 net.cpp:106] Creating Layer relu5_3
I1006 11:36:40.695708 18726 net.cpp:454] relu5_3 <- conv5_3
I1006 11:36:40.695715 18726 net.cpp:397] relu5_3 -> conv5_3 (in-place)
I1006 11:36:40.696058 18726 net.cpp:150] Setting up relu5_3
I1006 11:36:40.696070 18726 net.cpp:157] Top shape: 4 512 36 36 (2654208)
I1006 11:36:40.696074 18726 net.cpp:165] Memory required for data: 3389384804
I1006 11:36:40.696077 18726 layer_factory.hpp:76] Creating layer conv5_3_relu5_3_0_split
I1006 11:36:40.696085 18726 net.cpp:106] Creating Layer conv5_3_relu5_3_0_split
I1006 11:36:40.696089 18726 net.cpp:454] conv5_3_relu5_3_0_split <- conv5_3
I1006 11:36:40.696094 18726 net.cpp:411] conv5_3_relu5_3_0_split -> conv5_3_relu5_3_0_split_0
I1006 11:36:40.696101 18726 net.cpp:411] conv5_3_relu5_3_0_split -> conv5_3_relu5_3_0_split_1
I1006 11:36:40.696106 18726 net.cpp:411] conv5_3_relu5_3_0_split -> conv5_3_relu5_3_0_split_2
I1006 11:36:40.696169 18726 net.cpp:150] Setting up conv5_3_relu5_3_0_split
I1006 11:36:40.696174 18726 net.cpp:157] Top shape: 4 512 36 36 (2654208)
I1006 11:36:40.696178 18726 net.cpp:157] Top shape: 4 512 36 36 (2654208)
I1006 11:36:40.696182 18726 net.cpp:157] Top shape: 4 512 36 36 (2654208)
I1006 11:36:40.696184 18726 net.cpp:165] Memory required for data: 3421235300
I1006 11:36:40.696187 18726 layer_factory.hpp:76] Creating layer LFCN_2_3x5
I1006 11:36:40.696197 18726 net.cpp:106] Creating Layer LFCN_2_3x5
I1006 11:36:40.696199 18726 net.cpp:454] LFCN_2_3x5 <- conv5_3_relu5_3_0_split_0
I1006 11:36:40.696207 18726 net.cpp:411] LFCN_2_3x5 -> LFCN_2_3x5
I1006 11:36:40.698846 18726 net.cpp:150] Setting up LFCN_2_3x5
I1006 11:36:40.698860 18726 net.cpp:157] Top shape: 4 6 36 36 (31104)
I1006 11:36:40.698863 18726 net.cpp:165] Memory required for data: 3421359716
I1006 11:36:40.698880 18726 layer_factory.hpp:76] Creating layer LFCN_2_3x5_LFCN_2_3x5_0_split
I1006 11:36:40.698899 18726 net.cpp:106] Creating Layer LFCN_2_3x5_LFCN_2_3x5_0_split
I1006 11:36:40.698904 18726 net.cpp:454] LFCN_2_3x5_LFCN_2_3x5_0_split <- LFCN_2_3x5
I1006 11:36:40.698909 18726 net.cpp:411] LFCN_2_3x5_LFCN_2_3x5_0_split -> LFCN_2_3x5_LFCN_2_3x5_0_split_0
I1006 11:36:40.698920 18726 net.cpp:411] LFCN_2_3x5_LFCN_2_3x5_0_split -> LFCN_2_3x5_LFCN_2_3x5_0_split_1
I1006 11:36:40.698926 18726 net.cpp:411] LFCN_2_3x5_LFCN_2_3x5_0_split -> LFCN_2_3x5_LFCN_2_3x5_0_split_2
I1006 11:36:40.698987 18726 net.cpp:150] Setting up LFCN_2_3x5_LFCN_2_3x5_0_split
I1006 11:36:40.698992 18726 net.cpp:157] Top shape: 4 6 36 36 (31104)
I1006 11:36:40.698994 18726 net.cpp:157] Top shape: 4 6 36 36 (31104)
I1006 11:36:40.698998 18726 net.cpp:157] Top shape: 4 6 36 36 (31104)
I1006 11:36:40.699002 18726 net.cpp:165] Memory required for data: 3421732964
I1006 11:36:40.699004 18726 layer_factory.hpp:76] Creating layer detection_loss_2_3x5
I1006 11:36:40.699012 18726 net.cpp:106] Creating Layer detection_loss_2_3x5
I1006 11:36:40.699014 18726 net.cpp:454] detection_loss_2_3x5 <- LFCN_2_3x5_LFCN_2_3x5_0_split_0
I1006 11:36:40.699019 18726 net.cpp:454] detection_loss_2_3x5 <- label_2_3x5_data_3_split_0
I1006 11:36:40.699024 18726 net.cpp:411] detection_loss_2_3x5 -> loss_2_3x5
I1006 11:36:40.699039 18726 layer_factory.hpp:76] Creating layer detection_loss_2_3x5
I1006 11:36:40.699591 18726 net.cpp:150] Setting up detection_loss_2_3x5
I1006 11:36:40.699604 18726 net.cpp:157] Top shape: 1 1 1 2 (2)
I1006 11:36:40.699607 18726 net.cpp:160]     with loss weight 1
I1006 11:36:40.699620 18726 net.cpp:165] Memory required for data: 3421732972
I1006 11:36:40.699623 18726 layer_factory.hpp:76] Creating layer detection_accuracy_2_3x5
I1006 11:36:40.699632 18726 net.cpp:106] Creating Layer detection_accuracy_2_3x5
I1006 11:36:40.699636 18726 net.cpp:454] detection_accuracy_2_3x5 <- LFCN_2_3x5_LFCN_2_3x5_0_split_1
I1006 11:36:40.699641 18726 net.cpp:454] detection_accuracy_2_3x5 <- label_2_3x5_data_3_split_1
I1006 11:36:40.699646 18726 net.cpp:411] detection_accuracy_2_3x5 -> accuracy_2_3x5
I1006 11:36:40.699653 18726 net.cpp:411] detection_accuracy_2_3x5 -> boxiou_2_3x5
I1006 11:36:40.699702 18726 net.cpp:150] Setting up detection_accuracy_2_3x5
I1006 11:36:40.699707 18726 net.cpp:157] Top shape: 1 1 1 2 (2)
I1006 11:36:40.699710 18726 net.cpp:157] Top shape: 1 1 1 1 (1)
I1006 11:36:40.699712 18726 net.cpp:165] Memory required for data: 3421732984
I1006 11:36:40.699715 18726 layer_factory.hpp:76] Creating layer LFCN_2_5x7
I1006 11:36:40.699723 18726 net.cpp:106] Creating Layer LFCN_2_5x7
I1006 11:36:40.699728 18726 net.cpp:454] LFCN_2_5x7 <- conv5_3_relu5_3_0_split_1
I1006 11:36:40.699733 18726 net.cpp:411] LFCN_2_5x7 -> LFCN_2_5x7
I1006 11:36:40.704690 18726 net.cpp:150] Setting up LFCN_2_5x7
I1006 11:36:40.704705 18726 net.cpp:157] Top shape: 4 6 36 36 (31104)
I1006 11:36:40.704710 18726 net.cpp:165] Memory required for data: 3421857400
I1006 11:36:40.704715 18726 layer_factory.hpp:76] Creating layer LFCN_2_5x7_LFCN_2_5x7_0_split
I1006 11:36:40.704721 18726 net.cpp:106] Creating Layer LFCN_2_5x7_LFCN_2_5x7_0_split
I1006 11:36:40.704725 18726 net.cpp:454] LFCN_2_5x7_LFCN_2_5x7_0_split <- LFCN_2_5x7
I1006 11:36:40.704732 18726 net.cpp:411] LFCN_2_5x7_LFCN_2_5x7_0_split -> LFCN_2_5x7_LFCN_2_5x7_0_split_0
I1006 11:36:40.704740 18726 net.cpp:411] LFCN_2_5x7_LFCN_2_5x7_0_split -> LFCN_2_5x7_LFCN_2_5x7_0_split_1
I1006 11:36:40.704746 18726 net.cpp:411] LFCN_2_5x7_LFCN_2_5x7_0_split -> LFCN_2_5x7_LFCN_2_5x7_0_split_2
I1006 11:36:40.704805 18726 net.cpp:150] Setting up LFCN_2_5x7_LFCN_2_5x7_0_split
I1006 11:36:40.704810 18726 net.cpp:157] Top shape: 4 6 36 36 (31104)
I1006 11:36:40.704814 18726 net.cpp:157] Top shape: 4 6 36 36 (31104)
I1006 11:36:40.704818 18726 net.cpp:157] Top shape: 4 6 36 36 (31104)
I1006 11:36:40.704820 18726 net.cpp:165] Memory required for data: 3422230648
I1006 11:36:40.704823 18726 layer_factory.hpp:76] Creating layer detection_loss_2_5x7
I1006 11:36:40.704830 18726 net.cpp:106] Creating Layer detection_loss_2_5x7
I1006 11:36:40.704833 18726 net.cpp:454] detection_loss_2_5x7 <- LFCN_2_5x7_LFCN_2_5x7_0_split_0
I1006 11:36:40.704838 18726 net.cpp:454] detection_loss_2_5x7 <- label_2_5x7_data_4_split_0
I1006 11:36:40.704844 18726 net.cpp:411] detection_loss_2_5x7 -> loss_2_5x7
I1006 11:36:40.704851 18726 layer_factory.hpp:76] Creating layer detection_loss_2_5x7
I1006 11:36:40.705229 18726 net.cpp:150] Setting up detection_loss_2_5x7
I1006 11:36:40.705240 18726 net.cpp:157] Top shape: 1 1 1 2 (2)
I1006 11:36:40.705242 18726 net.cpp:160]     with loss weight 1
I1006 11:36:40.705248 18726 net.cpp:165] Memory required for data: 3422230656
I1006 11:36:40.705251 18726 layer_factory.hpp:76] Creating layer detection_accuracy_2_5x7
I1006 11:36:40.705257 18726 net.cpp:106] Creating Layer detection_accuracy_2_5x7
I1006 11:36:40.705260 18726 net.cpp:454] detection_accuracy_2_5x7 <- LFCN_2_5x7_LFCN_2_5x7_0_split_1
I1006 11:36:40.705265 18726 net.cpp:454] detection_accuracy_2_5x7 <- label_2_5x7_data_4_split_1
I1006 11:36:40.705271 18726 net.cpp:411] detection_accuracy_2_5x7 -> accuracy_2_5x7
I1006 11:36:40.705277 18726 net.cpp:411] detection_accuracy_2_5x7 -> boxiou_2_5x7
I1006 11:36:40.705320 18726 net.cpp:150] Setting up detection_accuracy_2_5x7
I1006 11:36:40.705325 18726 net.cpp:157] Top shape: 1 1 1 2 (2)
I1006 11:36:40.705329 18726 net.cpp:157] Top shape: 1 1 1 1 (1)
I1006 11:36:40.705332 18726 net.cpp:165] Memory required for data: 3422230668
I1006 11:36:40.705334 18726 layer_factory.hpp:76] Creating layer pool5
I1006 11:36:40.705341 18726 net.cpp:106] Creating Layer pool5
I1006 11:36:40.705345 18726 net.cpp:454] pool5 <- conv5_3_relu5_3_0_split_2
I1006 11:36:40.705349 18726 net.cpp:411] pool5 -> pool5
I1006 11:36:40.705730 18726 net.cpp:150] Setting up pool5
I1006 11:36:40.705744 18726 net.cpp:157] Top shape: 4 512 18 18 (663552)
I1006 11:36:40.705747 18726 net.cpp:165] Memory required for data: 3424884876
I1006 11:36:40.705750 18726 layer_factory.hpp:76] Creating layer conv6_1
I1006 11:36:40.705762 18726 net.cpp:106] Creating Layer conv6_1
I1006 11:36:40.705765 18726 net.cpp:454] conv6_1 <- pool5
I1006 11:36:40.705771 18726 net.cpp:411] conv6_1 -> conv6_1
I1006 11:36:40.822201 18726 net.cpp:150] Setting up conv6_1
I1006 11:36:40.822233 18726 net.cpp:157] Top shape: 4 512 18 18 (663552)
I1006 11:36:40.822243 18726 net.cpp:165] Memory required for data: 3427539084
I1006 11:36:40.822254 18726 layer_factory.hpp:76] Creating layer relu6_1
I1006 11:36:40.822264 18726 net.cpp:106] Creating Layer relu6_1
I1006 11:36:40.822273 18726 net.cpp:454] relu6_1 <- conv6_1
I1006 11:36:40.822283 18726 net.cpp:397] relu6_1 -> conv6_1 (in-place)
I1006 11:36:40.822777 18726 net.cpp:150] Setting up relu6_1
I1006 11:36:40.822799 18726 net.cpp:157] Top shape: 4 512 18 18 (663552)
I1006 11:36:40.822804 18726 net.cpp:165] Memory required for data: 3430193292
I1006 11:36:40.822811 18726 layer_factory.hpp:76] Creating layer conv6_1_relu6_1_0_split
I1006 11:36:40.822824 18726 net.cpp:106] Creating Layer conv6_1_relu6_1_0_split
I1006 11:36:40.822829 18726 net.cpp:454] conv6_1_relu6_1_0_split <- conv6_1
I1006 11:36:40.822837 18726 net.cpp:411] conv6_1_relu6_1_0_split -> conv6_1_relu6_1_0_split_0
I1006 11:36:40.822847 18726 net.cpp:411] conv6_1_relu6_1_0_split -> conv6_1_relu6_1_0_split_1
I1006 11:36:40.822856 18726 net.cpp:411] conv6_1_relu6_1_0_split -> conv6_1_relu6_1_0_split_2
I1006 11:36:40.822969 18726 net.cpp:150] Setting up conv6_1_relu6_1_0_split
I1006 11:36:40.822979 18726 net.cpp:157] Top shape: 4 512 18 18 (663552)
I1006 11:36:40.822984 18726 net.cpp:157] Top shape: 4 512 18 18 (663552)
I1006 11:36:40.822989 18726 net.cpp:157] Top shape: 4 512 18 18 (663552)
I1006 11:36:40.822993 18726 net.cpp:165] Memory required for data: 3438155916
I1006 11:36:40.822998 18726 layer_factory.hpp:76] Creating layer LFCN_3_3x5
I1006 11:36:40.823010 18726 net.cpp:106] Creating Layer LFCN_3_3x5
I1006 11:36:40.823015 18726 net.cpp:454] LFCN_3_3x5 <- conv6_1_relu6_1_0_split_0
I1006 11:36:40.823024 18726 net.cpp:411] LFCN_3_3x5 -> LFCN_3_3x5
I1006 11:36:40.827594 18726 net.cpp:150] Setting up LFCN_3_3x5
I1006 11:36:40.827612 18726 net.cpp:157] Top shape: 4 6 18 18 (7776)
I1006 11:36:40.827617 18726 net.cpp:165] Memory required for data: 3438187020
I1006 11:36:40.827627 18726 layer_factory.hpp:76] Creating layer LFCN_3_3x5_LFCN_3_3x5_0_split
I1006 11:36:40.827651 18726 net.cpp:106] Creating Layer LFCN_3_3x5_LFCN_3_3x5_0_split
I1006 11:36:40.827657 18726 net.cpp:454] LFCN_3_3x5_LFCN_3_3x5_0_split <- LFCN_3_3x5
I1006 11:36:40.827666 18726 net.cpp:411] LFCN_3_3x5_LFCN_3_3x5_0_split -> LFCN_3_3x5_LFCN_3_3x5_0_split_0
I1006 11:36:40.827677 18726 net.cpp:411] LFCN_3_3x5_LFCN_3_3x5_0_split -> LFCN_3_3x5_LFCN_3_3x5_0_split_1
I1006 11:36:40.827684 18726 net.cpp:411] LFCN_3_3x5_LFCN_3_3x5_0_split -> LFCN_3_3x5_LFCN_3_3x5_0_split_2
I1006 11:36:40.827766 18726 net.cpp:150] Setting up LFCN_3_3x5_LFCN_3_3x5_0_split
I1006 11:36:40.827778 18726 net.cpp:157] Top shape: 4 6 18 18 (7776)
I1006 11:36:40.827783 18726 net.cpp:157] Top shape: 4 6 18 18 (7776)
I1006 11:36:40.827788 18726 net.cpp:157] Top shape: 4 6 18 18 (7776)
I1006 11:36:40.827792 18726 net.cpp:165] Memory required for data: 3438280332
I1006 11:36:40.827797 18726 layer_factory.hpp:76] Creating layer detection_loss_3_3x5
I1006 11:36:40.827807 18726 net.cpp:106] Creating Layer detection_loss_3_3x5
I1006 11:36:40.827812 18726 net.cpp:454] detection_loss_3_3x5 <- LFCN_3_3x5_LFCN_3_3x5_0_split_0
I1006 11:36:40.827819 18726 net.cpp:454] detection_loss_3_3x5 <- label_3_3x5_data_5_split_0
I1006 11:36:40.827829 18726 net.cpp:411] detection_loss_3_3x5 -> loss_3_3x5
I1006 11:36:40.827841 18726 layer_factory.hpp:76] Creating layer detection_loss_3_3x5
I1006 11:36:40.828351 18726 net.cpp:150] Setting up detection_loss_3_3x5
I1006 11:36:40.828363 18726 net.cpp:157] Top shape: 1 1 1 2 (2)
I1006 11:36:40.828367 18726 net.cpp:160]     with loss weight 1
I1006 11:36:40.828380 18726 net.cpp:165] Memory required for data: 3438280340
I1006 11:36:40.828384 18726 layer_factory.hpp:76] Creating layer detection_accuracy_3_3x5
I1006 11:36:40.828394 18726 net.cpp:106] Creating Layer detection_accuracy_3_3x5
I1006 11:36:40.828399 18726 net.cpp:454] detection_accuracy_3_3x5 <- LFCN_3_3x5_LFCN_3_3x5_0_split_1
I1006 11:36:40.828407 18726 net.cpp:454] detection_accuracy_3_3x5 <- label_3_3x5_data_5_split_1
I1006 11:36:40.828416 18726 net.cpp:411] detection_accuracy_3_3x5 -> accuracy_3_3x5
I1006 11:36:40.828428 18726 net.cpp:411] detection_accuracy_3_3x5 -> boxiou_3_3x5
I1006 11:36:40.828485 18726 net.cpp:150] Setting up detection_accuracy_3_3x5
I1006 11:36:40.828492 18726 net.cpp:157] Top shape: 1 1 1 2 (2)
I1006 11:36:40.828497 18726 net.cpp:157] Top shape: 1 1 1 1 (1)
I1006 11:36:40.828500 18726 net.cpp:165] Memory required for data: 3438280352
I1006 11:36:40.828505 18726 layer_factory.hpp:76] Creating layer LFCN_3_5x7
I1006 11:36:40.828516 18726 net.cpp:106] Creating Layer LFCN_3_5x7
I1006 11:36:40.828521 18726 net.cpp:454] LFCN_3_5x7 <- conv6_1_relu6_1_0_split_1
I1006 11:36:40.828533 18726 net.cpp:411] LFCN_3_5x7 -> LFCN_3_5x7
I1006 11:36:40.835768 18726 net.cpp:150] Setting up LFCN_3_5x7
I1006 11:36:40.835790 18726 net.cpp:157] Top shape: 4 6 18 18 (7776)
I1006 11:36:40.835795 18726 net.cpp:165] Memory required for data: 3438311456
I1006 11:36:40.835805 18726 layer_factory.hpp:76] Creating layer LFCN_3_5x7_LFCN_3_5x7_0_split
I1006 11:36:40.835818 18726 net.cpp:106] Creating Layer LFCN_3_5x7_LFCN_3_5x7_0_split
I1006 11:36:40.835824 18726 net.cpp:454] LFCN_3_5x7_LFCN_3_5x7_0_split <- LFCN_3_5x7
I1006 11:36:40.835831 18726 net.cpp:411] LFCN_3_5x7_LFCN_3_5x7_0_split -> LFCN_3_5x7_LFCN_3_5x7_0_split_0
I1006 11:36:40.835841 18726 net.cpp:411] LFCN_3_5x7_LFCN_3_5x7_0_split -> LFCN_3_5x7_LFCN_3_5x7_0_split_1
I1006 11:36:40.835850 18726 net.cpp:411] LFCN_3_5x7_LFCN_3_5x7_0_split -> LFCN_3_5x7_LFCN_3_5x7_0_split_2
I1006 11:36:40.835934 18726 net.cpp:150] Setting up LFCN_3_5x7_LFCN_3_5x7_0_split
I1006 11:36:40.835942 18726 net.cpp:157] Top shape: 4 6 18 18 (7776)
I1006 11:36:40.835947 18726 net.cpp:157] Top shape: 4 6 18 18 (7776)
I1006 11:36:40.835952 18726 net.cpp:157] Top shape: 4 6 18 18 (7776)
I1006 11:36:40.835954 18726 net.cpp:165] Memory required for data: 3438404768
I1006 11:36:40.835958 18726 layer_factory.hpp:76] Creating layer detection_loss_3_5x7
I1006 11:36:40.835969 18726 net.cpp:106] Creating Layer detection_loss_3_5x7
I1006 11:36:40.835974 18726 net.cpp:454] detection_loss_3_5x7 <- LFCN_3_5x7_LFCN_3_5x7_0_split_0
I1006 11:36:40.835980 18726 net.cpp:454] detection_loss_3_5x7 <- label_3_5x7_data_6_split_0
I1006 11:36:40.835988 18726 net.cpp:411] detection_loss_3_5x7 -> loss_3_5x7
I1006 11:36:40.835999 18726 layer_factory.hpp:76] Creating layer detection_loss_3_5x7
I1006 11:36:40.836697 18726 net.cpp:150] Setting up detection_loss_3_5x7
I1006 11:36:40.836715 18726 net.cpp:157] Top shape: 1 1 1 2 (2)
I1006 11:36:40.836719 18726 net.cpp:160]     with loss weight 1
I1006 11:36:40.836729 18726 net.cpp:165] Memory required for data: 3438404776
I1006 11:36:40.836732 18726 layer_factory.hpp:76] Creating layer detection_accuracy_3_5x7
I1006 11:36:40.836742 18726 net.cpp:106] Creating Layer detection_accuracy_3_5x7
I1006 11:36:40.836747 18726 net.cpp:454] detection_accuracy_3_5x7 <- LFCN_3_5x7_LFCN_3_5x7_0_split_1
I1006 11:36:40.836755 18726 net.cpp:454] detection_accuracy_3_5x7 <- label_3_5x7_data_6_split_1
I1006 11:36:40.836765 18726 net.cpp:411] detection_accuracy_3_5x7 -> accuracy_3_5x7
I1006 11:36:40.836774 18726 net.cpp:411] detection_accuracy_3_5x7 -> boxiou_3_5x7
I1006 11:36:40.836835 18726 net.cpp:150] Setting up detection_accuracy_3_5x7
I1006 11:36:40.836843 18726 net.cpp:157] Top shape: 1 1 1 2 (2)
I1006 11:36:40.836848 18726 net.cpp:157] Top shape: 1 1 1 1 (1)
I1006 11:36:40.836851 18726 net.cpp:165] Memory required for data: 3438404788
I1006 11:36:40.836855 18726 layer_factory.hpp:76] Creating layer pool6
I1006 11:36:40.836865 18726 net.cpp:106] Creating Layer pool6
I1006 11:36:40.836870 18726 net.cpp:454] pool6 <- conv6_1_relu6_1_0_split_2
I1006 11:36:40.836879 18726 net.cpp:411] pool6 -> pool6
I1006 11:36:40.837182 18726 net.cpp:150] Setting up pool6
I1006 11:36:40.837194 18726 net.cpp:157] Top shape: 4 512 9 9 (165888)
I1006 11:36:40.837198 18726 net.cpp:165] Memory required for data: 3439068340
I1006 11:36:40.837203 18726 layer_factory.hpp:76] Creating layer LFCN_4_3x5
I1006 11:36:40.837215 18726 net.cpp:106] Creating Layer LFCN_4_3x5
I1006 11:36:40.837220 18726 net.cpp:454] LFCN_4_3x5 <- pool6
I1006 11:36:40.837230 18726 net.cpp:411] LFCN_4_3x5 -> LFCN_4_3x5
I1006 11:36:40.840813 18726 net.cpp:150] Setting up LFCN_4_3x5
I1006 11:36:40.840831 18726 net.cpp:157] Top shape: 4 6 9 9 (1944)
I1006 11:36:40.840834 18726 net.cpp:165] Memory required for data: 3439076116
I1006 11:36:40.840843 18726 layer_factory.hpp:76] Creating layer LFCN_4_3x5_LFCN_4_3x5_0_split
I1006 11:36:40.840854 18726 net.cpp:106] Creating Layer LFCN_4_3x5_LFCN_4_3x5_0_split
I1006 11:36:40.840859 18726 net.cpp:454] LFCN_4_3x5_LFCN_4_3x5_0_split <- LFCN_4_3x5
I1006 11:36:40.840869 18726 net.cpp:411] LFCN_4_3x5_LFCN_4_3x5_0_split -> LFCN_4_3x5_LFCN_4_3x5_0_split_0
I1006 11:36:40.840878 18726 net.cpp:411] LFCN_4_3x5_LFCN_4_3x5_0_split -> LFCN_4_3x5_LFCN_4_3x5_0_split_1
I1006 11:36:40.840885 18726 net.cpp:411] LFCN_4_3x5_LFCN_4_3x5_0_split -> LFCN_4_3x5_LFCN_4_3x5_0_split_2
I1006 11:36:40.840965 18726 net.cpp:150] Setting up LFCN_4_3x5_LFCN_4_3x5_0_split
I1006 11:36:40.840971 18726 net.cpp:157] Top shape: 4 6 9 9 (1944)
I1006 11:36:40.840975 18726 net.cpp:157] Top shape: 4 6 9 9 (1944)
I1006 11:36:40.840981 18726 net.cpp:157] Top shape: 4 6 9 9 (1944)
I1006 11:36:40.840983 18726 net.cpp:165] Memory required for data: 3439099444
I1006 11:36:40.840988 18726 layer_factory.hpp:76] Creating layer detection_loss_4_3x5
I1006 11:36:40.840998 18726 net.cpp:106] Creating Layer detection_loss_4_3x5
I1006 11:36:40.841002 18726 net.cpp:454] detection_loss_4_3x5 <- LFCN_4_3x5_LFCN_4_3x5_0_split_0
I1006 11:36:40.841009 18726 net.cpp:454] detection_loss_4_3x5 <- label_4_3x5_data_7_split_0
I1006 11:36:40.841017 18726 net.cpp:411] detection_loss_4_3x5 -> loss_4_3x5
I1006 11:36:40.841027 18726 layer_factory.hpp:76] Creating layer detection_loss_4_3x5
I1006 11:36:40.841689 18726 net.cpp:150] Setting up detection_loss_4_3x5
I1006 11:36:40.841704 18726 net.cpp:157] Top shape: 1 1 1 2 (2)
I1006 11:36:40.841708 18726 net.cpp:160]     with loss weight 1
I1006 11:36:40.841717 18726 net.cpp:165] Memory required for data: 3439099452
I1006 11:36:40.841720 18726 layer_factory.hpp:76] Creating layer detection_accuracy_4_3x5
I1006 11:36:40.841732 18726 net.cpp:106] Creating Layer detection_accuracy_4_3x5
I1006 11:36:40.841737 18726 net.cpp:454] detection_accuracy_4_3x5 <- LFCN_4_3x5_LFCN_4_3x5_0_split_1
I1006 11:36:40.841743 18726 net.cpp:454] detection_accuracy_4_3x5 <- label_4_3x5_data_7_split_1
I1006 11:36:40.841750 18726 net.cpp:411] detection_accuracy_4_3x5 -> accuracy_4_3x5
I1006 11:36:40.841759 18726 net.cpp:411] detection_accuracy_4_3x5 -> boxiou_4_3x5
I1006 11:36:40.841821 18726 net.cpp:150] Setting up detection_accuracy_4_3x5
I1006 11:36:40.841828 18726 net.cpp:157] Top shape: 1 1 1 2 (2)
I1006 11:36:40.841833 18726 net.cpp:157] Top shape: 1 1 1 1 (1)
I1006 11:36:40.841836 18726 net.cpp:165] Memory required for data: 3439099464
I1006 11:36:40.841840 18726 layer_factory.hpp:76] Creating layer proposals
I1006 11:36:40.841856 18726 net.cpp:106] Creating Layer proposals
I1006 11:36:40.841861 18726 net.cpp:454] proposals <- LFCN_1_3x5_LFCN_1_3x5_0_split_2
I1006 11:36:40.841867 18726 net.cpp:454] proposals <- LFCN_1_5x7_LFCN_1_5x7_0_split_2
I1006 11:36:40.841871 18726 net.cpp:454] proposals <- LFCN_2_3x5_LFCN_2_3x5_0_split_2
I1006 11:36:40.841876 18726 net.cpp:454] proposals <- LFCN_2_5x7_LFCN_2_5x7_0_split_2
I1006 11:36:40.841881 18726 net.cpp:454] proposals <- LFCN_3_3x5_LFCN_3_3x5_0_split_2
I1006 11:36:40.841886 18726 net.cpp:454] proposals <- LFCN_3_5x7_LFCN_3_5x7_0_split_2
I1006 11:36:40.841889 18726 net.cpp:454] proposals <- LFCN_4_3x5_LFCN_4_3x5_0_split_2
I1006 11:36:40.841897 18726 net.cpp:411] proposals -> proposals
I1006 11:36:40.841938 18726 net.cpp:150] Setting up proposals
I1006 11:36:40.841944 18726 net.cpp:157] Top shape: 1 5 1 1 (5)
I1006 11:36:40.841948 18726 net.cpp:165] Memory required for data: 3439099484
I1006 11:36:40.841953 18726 layer_factory.hpp:76] Creating layer proposal_info
I1006 11:36:40.841964 18726 net.cpp:106] Creating Layer proposal_info
I1006 11:36:40.841969 18726 net.cpp:454] proposal_info <- proposals
I1006 11:36:40.841974 18726 net.cpp:454] proposal_info <- gt_boxes
I1006 11:36:40.841982 18726 net.cpp:411] proposal_info -> rois
I1006 11:36:40.841995 18726 net.cpp:411] proposal_info -> proposal_labels
I1006 11:36:40.842002 18726 net.cpp:411] proposal_info -> proposal_targets
I1006 11:36:40.842010 18726 net.cpp:411] proposal_info -> box_inside_weights
I1006 11:36:40.842020 18726 net.cpp:411] proposal_info -> box_outside_weights
I1006 11:36:40.842028 18726 net.cpp:411] proposal_info -> match_gt_boxes
I1006 11:36:40.842159 18726 net.cpp:150] Setting up proposal_info
I1006 11:36:40.842169 18726 net.cpp:157] Top shape: 128 5 1 1 (640)
I1006 11:36:40.842173 18726 net.cpp:157] Top shape: 128 1 1 1 (128)
I1006 11:36:40.842178 18726 net.cpp:157] Top shape: 128 8 1 1 (1024)
I1006 11:36:40.842182 18726 net.cpp:157] Top shape: 128 8 1 1 (1024)
I1006 11:36:40.842186 18726 net.cpp:157] Top shape: 128 8 1 1 (1024)
I1006 11:36:40.842191 18726 net.cpp:157] Top shape: 128 6 1 1 (768)
I1006 11:36:40.842195 18726 net.cpp:165] Memory required for data: 3439117916
I1006 11:36:40.842198 18726 layer_factory.hpp:76] Creating layer rois_proposal_info_0_split
I1006 11:36:40.842205 18726 net.cpp:106] Creating Layer rois_proposal_info_0_split
I1006 11:36:40.842208 18726 net.cpp:454] rois_proposal_info_0_split <- rois
I1006 11:36:40.842214 18726 net.cpp:411] rois_proposal_info_0_split -> rois_proposal_info_0_split_0
I1006 11:36:40.842221 18726 net.cpp:411] rois_proposal_info_0_split -> rois_proposal_info_0_split_1
I1006 11:36:40.842228 18726 net.cpp:411] rois_proposal_info_0_split -> rois_proposal_info_0_split_2
I1006 11:36:40.842295 18726 net.cpp:150] Setting up rois_proposal_info_0_split
I1006 11:36:40.842303 18726 net.cpp:157] Top shape: 128 5 1 1 (640)
I1006 11:36:40.842306 18726 net.cpp:157] Top shape: 128 5 1 1 (640)
I1006 11:36:40.842311 18726 net.cpp:157] Top shape: 128 5 1 1 (640)
I1006 11:36:40.842314 18726 net.cpp:165] Memory required for data: 3439125596
I1006 11:36:40.842317 18726 layer_factory.hpp:76] Creating layer proposal_labels_proposal_info_1_split
I1006 11:36:40.842324 18726 net.cpp:106] Creating Layer proposal_labels_proposal_info_1_split
I1006 11:36:40.842327 18726 net.cpp:454] proposal_labels_proposal_info_1_split <- proposal_labels
I1006 11:36:40.842334 18726 net.cpp:411] proposal_labels_proposal_info_1_split -> proposal_labels_proposal_info_1_split_0
I1006 11:36:40.842341 18726 net.cpp:411] proposal_labels_proposal_info_1_split -> proposal_labels_proposal_info_1_split_1
I1006 11:36:40.842387 18726 net.cpp:150] Setting up proposal_labels_proposal_info_1_split
I1006 11:36:40.842394 18726 net.cpp:157] Top shape: 128 1 1 1 (128)
I1006 11:36:40.842398 18726 net.cpp:157] Top shape: 128 1 1 1 (128)
I1006 11:36:40.842401 18726 net.cpp:165] Memory required for data: 3439126620
I1006 11:36:40.842406 18726 layer_factory.hpp:76] Creating layer roi_pool_org
I1006 11:36:40.842412 18726 net.cpp:106] Creating Layer roi_pool_org
I1006 11:36:40.842417 18726 net.cpp:454] roi_pool_org <- conv4_3_relu4_3_0_split_2
I1006 11:36:40.842424 18726 net.cpp:454] roi_pool_org <- rois_proposal_info_0_split_0
I1006 11:36:40.842430 18726 net.cpp:411] roi_pool_org -> roi_pool_org
I1006 11:36:40.842442 18726 roi_pooling_layer.cpp:35] Spatial scale: 0.125
I1006 11:36:40.842496 18726 net.cpp:150] Setting up roi_pool_org
I1006 11:36:40.842504 18726 net.cpp:157] Top shape: 128 512 8 4 (2097152)
I1006 11:36:40.842507 18726 net.cpp:165] Memory required for data: 3447515228
I1006 11:36:40.842510 18726 layer_factory.hpp:76] Creating layer roi_pool_ctx
I1006 11:36:40.842517 18726 net.cpp:106] Creating Layer roi_pool_ctx
I1006 11:36:40.842521 18726 net.cpp:454] roi_pool_ctx <- conv4_3_relu4_3_0_split_3
I1006 11:36:40.842527 18726 net.cpp:454] roi_pool_ctx <- rois_proposal_info_0_split_1
I1006 11:36:40.842535 18726 net.cpp:411] roi_pool_ctx -> roi_pool_ctx
I1006 11:36:40.842542 18726 roi_pooling_layer.cpp:35] Spatial scale: 0.125
I1006 11:36:40.842593 18726 net.cpp:150] Setting up roi_pool_ctx
I1006 11:36:40.842599 18726 net.cpp:157] Top shape: 128 512 8 4 (2097152)
I1006 11:36:40.842603 18726 net.cpp:165] Memory required for data: 3455903836
I1006 11:36:40.842607 18726 layer_factory.hpp:76] Creating layer roi_pool
I1006 11:36:40.842617 18726 net.cpp:106] Creating Layer roi_pool
I1006 11:36:40.842620 18726 net.cpp:454] roi_pool <- roi_pool_org
I1006 11:36:40.842625 18726 net.cpp:454] roi_pool <- roi_pool_ctx
I1006 11:36:40.842633 18726 net.cpp:411] roi_pool -> roi_pool
I1006 11:36:40.842664 18726 net.cpp:150] Setting up roi_pool
I1006 11:36:40.842670 18726 net.cpp:157] Top shape: 128 1024 8 4 (4194304)
I1006 11:36:40.842674 18726 net.cpp:165] Memory required for data: 3472681052
I1006 11:36:40.842677 18726 layer_factory.hpp:76] Creating layer roi_c1
I1006 11:36:40.842689 18726 net.cpp:106] Creating Layer roi_c1
I1006 11:36:40.842694 18726 net.cpp:454] roi_c1 <- roi_pool
I1006 11:36:40.842700 18726 net.cpp:411] roi_c1 -> roi_c1
I1006 11:36:41.033875 18726 net.cpp:150] Setting up roi_c1
I1006 11:36:41.033943 18726 net.cpp:157] Top shape: 128 512 8 4 (2097152)
I1006 11:36:41.033948 18726 net.cpp:165] Memory required for data: 3481069660
I1006 11:36:41.034001 18726 layer_factory.hpp:76] Creating layer roi_c1_relu
I1006 11:36:41.034046 18726 net.cpp:106] Creating Layer roi_c1_relu
I1006 11:36:41.034113 18726 net.cpp:454] roi_c1_relu <- roi_c1
I1006 11:36:41.034126 18726 net.cpp:397] roi_c1_relu -> roi_c1 (in-place)
I1006 11:36:41.034481 18726 net.cpp:150] Setting up roi_c1_relu
I1006 11:36:41.034495 18726 net.cpp:157] Top shape: 128 512 8 4 (2097152)
I1006 11:36:41.034499 18726 net.cpp:165] Memory required for data: 3489458268
I1006 11:36:41.034502 18726 layer_factory.hpp:76] Creating layer fc6
I1006 11:36:41.034521 18726 net.cpp:106] Creating Layer fc6
I1006 11:36:41.034526 18726 net.cpp:454] fc6 <- roi_c1
I1006 11:36:41.034555 18726 net.cpp:411] fc6 -> fc6
I1006 11:36:42.381759 18726 net.cpp:150] Setting up fc6
I1006 11:36:42.381799 18726 net.cpp:157] Top shape: 128 2048 (262144)
I1006 11:36:42.381803 18726 net.cpp:165] Memory required for data: 3490506844
I1006 11:36:42.381811 18726 layer_factory.hpp:76] Creating layer relu6
I1006 11:36:42.381824 18726 net.cpp:106] Creating Layer relu6
I1006 11:36:42.381830 18726 net.cpp:454] relu6 <- fc6
I1006 11:36:42.381836 18726 net.cpp:397] relu6 -> fc6 (in-place)
I1006 11:36:42.382169 18726 net.cpp:150] Setting up relu6
I1006 11:36:42.382184 18726 net.cpp:157] Top shape: 128 2048 (262144)
I1006 11:36:42.382186 18726 net.cpp:165] Memory required for data: 3491555420
I1006 11:36:42.382189 18726 layer_factory.hpp:76] Creating layer drop6
I1006 11:36:42.382200 18726 net.cpp:106] Creating Layer drop6
I1006 11:36:42.382202 18726 net.cpp:454] drop6 <- fc6
I1006 11:36:42.382207 18726 net.cpp:397] drop6 -> fc6 (in-place)
I1006 11:36:42.382242 18726 net.cpp:150] Setting up drop6
I1006 11:36:42.382247 18726 net.cpp:157] Top shape: 128 2048 (262144)
I1006 11:36:42.382249 18726 net.cpp:165] Memory required for data: 3492603996
I1006 11:36:42.382253 18726 layer_factory.hpp:76] Creating layer fc6_drop6_0_split
I1006 11:36:42.382259 18726 net.cpp:106] Creating Layer fc6_drop6_0_split
I1006 11:36:42.382262 18726 net.cpp:454] fc6_drop6_0_split <- fc6
I1006 11:36:42.382268 18726 net.cpp:411] fc6_drop6_0_split -> fc6_drop6_0_split_0
I1006 11:36:42.382275 18726 net.cpp:411] fc6_drop6_0_split -> fc6_drop6_0_split_1
I1006 11:36:42.382349 18726 net.cpp:150] Setting up fc6_drop6_0_split
I1006 11:36:42.382355 18726 net.cpp:157] Top shape: 128 2048 (262144)
I1006 11:36:42.382359 18726 net.cpp:157] Top shape: 128 2048 (262144)
I1006 11:36:42.382361 18726 net.cpp:165] Memory required for data: 3494701148
I1006 11:36:42.382364 18726 layer_factory.hpp:76] Creating layer cls_pred
I1006 11:36:42.382375 18726 net.cpp:106] Creating Layer cls_pred
I1006 11:36:42.382378 18726 net.cpp:454] cls_pred <- fc6_drop6_0_split_0
I1006 11:36:42.382397 18726 net.cpp:411] cls_pred -> cls_pred
I1006 11:36:42.382714 18726 net.cpp:150] Setting up cls_pred
I1006 11:36:42.382728 18726 net.cpp:157] Top shape: 128 2 (256)
I1006 11:36:42.382731 18726 net.cpp:165] Memory required for data: 3494702172
I1006 11:36:42.382737 18726 layer_factory.hpp:76] Creating layer cls_pred_cls_pred_0_split
I1006 11:36:42.382742 18726 net.cpp:106] Creating Layer cls_pred_cls_pred_0_split
I1006 11:36:42.382746 18726 net.cpp:454] cls_pred_cls_pred_0_split <- cls_pred
I1006 11:36:42.382751 18726 net.cpp:411] cls_pred_cls_pred_0_split -> cls_pred_cls_pred_0_split_0
I1006 11:36:42.382757 18726 net.cpp:411] cls_pred_cls_pred_0_split -> cls_pred_cls_pred_0_split_1
I1006 11:36:42.382794 18726 net.cpp:150] Setting up cls_pred_cls_pred_0_split
I1006 11:36:42.382799 18726 net.cpp:157] Top shape: 128 2 (256)
I1006 11:36:42.382802 18726 net.cpp:157] Top shape: 128 2 (256)
I1006 11:36:42.382804 18726 net.cpp:165] Memory required for data: 3494704220
I1006 11:36:42.382807 18726 layer_factory.hpp:76] Creating layer bbox_pred
I1006 11:36:42.382812 18726 net.cpp:106] Creating Layer bbox_pred
I1006 11:36:42.382815 18726 net.cpp:454] bbox_pred <- fc6_drop6_0_split_1
I1006 11:36:42.382824 18726 net.cpp:411] bbox_pred -> bbox_pred
I1006 11:36:42.383549 18726 net.cpp:150] Setting up bbox_pred
I1006 11:36:42.383563 18726 net.cpp:157] Top shape: 128 8 (1024)
I1006 11:36:42.383566 18726 net.cpp:165] Memory required for data: 3494708316
I1006 11:36:42.383572 18726 layer_factory.hpp:76] Creating layer bbox_pred_bbox_pred_0_split
I1006 11:36:42.383577 18726 net.cpp:106] Creating Layer bbox_pred_bbox_pred_0_split
I1006 11:36:42.383581 18726 net.cpp:454] bbox_pred_bbox_pred_0_split <- bbox_pred
I1006 11:36:42.383587 18726 net.cpp:411] bbox_pred_bbox_pred_0_split -> bbox_pred_bbox_pred_0_split_0
I1006 11:36:42.383671 18726 net.cpp:411] bbox_pred_bbox_pred_0_split -> bbox_pred_bbox_pred_0_split_1
I1006 11:36:42.383714 18726 net.cpp:150] Setting up bbox_pred_bbox_pred_0_split
I1006 11:36:42.383723 18726 net.cpp:157] Top shape: 128 8 (1024)
I1006 11:36:42.383726 18726 net.cpp:157] Top shape: 128 8 (1024)
I1006 11:36:42.383729 18726 net.cpp:165] Memory required for data: 3494716508
I1006 11:36:42.383733 18726 layer_factory.hpp:76] Creating layer loss_cls
I1006 11:36:42.383738 18726 net.cpp:106] Creating Layer loss_cls
I1006 11:36:42.383744 18726 net.cpp:454] loss_cls <- cls_pred_cls_pred_0_split_0
I1006 11:36:42.383750 18726 net.cpp:454] loss_cls <- proposal_labels_proposal_info_1_split_0
…
I1006 11:36:42.395926 18726 image_gt_data_layer.cpp:234] output label size 2 : 2,6,36,36
I1006 11:36:42.396020 18726 image_gt_data_layer.cpp:234] output label size 3 : 2,6,36,36
I1006 11:36:42.396126 18726 image_gt_data_layer.cpp:234] output label size 4 : 2,6,18,18
I1006 11:36:42.396229 18726 image_gt_data_layer.cpp:234] output label size 5 : 2,6,18,18
I1006 11:36:42.396330 18726 image_gt_data_layer.cpp:234] output label size 6 : 2,6,9,9
I1006 11:36:42.396409 18726 image_gt_data_layer.cpp:249] output gt boxes size: 1,7,1,1
I1006 11:36:42.413218 18726 net.cpp:150] Setting up data
I1006 11:36:42.413257 18726 net.cpp:157] Top shape: 2 3 576 576 (1990656)
I1006 11:36:42.413262 18726 net.cpp:157] Top shape: 2 6 72 72 (62208)
I1006 11:36:42.413266 18726 net.cpp:157] Top shape: 2 6 72 72 (62208)
I1006 11:36:42.413269 18726 net.cpp:157] Top shape: 2 6 36 36 (15552)
I1006 11:36:42.413275 18726 net.cpp:157] Top shape: 2 6 36 36 (15552)
I1006 11:36:42.413277 18726 net.cpp:157] Top shape: 2 6 18 18 (3888)
I1006 11:36:42.413281 18726 net.cpp:157] Top shape: 2 6 18 18 (3888)
I1006 11:36:42.413285 18726 net.cpp:157] Top shape: 2 6 9 9 (972)
I1006 11:36:42.413290 18726 net.cpp:157] Top shape: 1 7 1 1 (7)
I1006 11:36:42.413291 18726 net.cpp:165] Memory required for data: 8619724
I1006 11:36:42.413297 18726 layer_factory.hpp:76] Creating layer label_1_3x5_data_1_split
I1006 11:36:42.413310 18726 net.cpp:106] Creating Layer label_1_3x5_data_1_split
I1006 11:36:42.413313 18726 net.cpp:454] label_1_3x5_data_1_split <- label_1_3x5
I1006 11:36:42.413321 18726 net.cpp:411] label_1_3x5_data_1_split -> label_1_3x5_data_1_split_0
I1006 11:36:42.413329 18726 net.cpp:411] label_1_3x5_data_1_split -> label_1_3x5_data_1_split_1
I1006 11:36:42.413544 18726 net.cpp:150] Setting up label_1_3x5_data_1_split
I1006 11:36:42.413573 18726 net.cpp:157] Top shape: 2 6 72 72 (62208)
I1006 11:36:42.413585 18726 net.cpp:157] Top shape: 2 6 72 72 (62208)
I1006 11:36:42.413594 18726 net.cpp:165] Memory required for data: 9117388
I1006 11:36:42.413605 18726 layer_factory.hpp:76] Creating layer label_1_5x7_data_2_split
I1006 11:36:42.413624 18726 net.cpp:106] Creating Layer label_1_5x7_data_2_split
I1006 11:36:42.413633 18726 net.cpp:454] label_1_5x7_data_2_split <- label_1_5x7
I1006 11:36:42.413648 18726 net.cpp:411] label_1_5x7_data_2_split -> label_1_5x7_data_2_split_0
I1006 11:36:42.413671 18726 net.cpp:411] label_1_5x7_data_2_split -> label_1_5x7_data_2_split_1
I1006 11:36:42.414013 18726 net.cpp:150] Setting up label_1_5x7_data_2_split
I1006 11:36:42.414031 18726 net.cpp:157] Top shape: 2 6 72 72 (62208)
I1006 11:36:42.414044 18726 net.cpp:157] Top shape: 2 6 72 72 (62208)
I1006 11:36:42.414052 18726 net.cpp:165] Memory required for data: 9615052
I1006 11:36:42.414062 18726 layer_factory.hpp:76] Creating layer label_2_3x5_data_3_split
I1006 11:36:42.414078 18726 net.cpp:106] Creating Layer label_2_3x5_data_3_split
I1006 11:36:42.414088 18726 net.cpp:454] label_2_3x5_data_3_split <- label_2_3x5
I1006 11:36:42.414103 18726 net.cpp:411] label_2_3x5_data_3_split -> label_2_3x5_data_3_split_0
I1006 11:36:42.414119 18726 net.cpp:411] label_2_3x5_data_3_split -> label_2_3x5_data_3_split_1
I1006 11:36:42.414230 18726 net.cpp:150] Setting up label_2_3x5_data_3_split
I1006 11:36:42.414247 18726 net.cpp:157] Top shape: 2 6 36 36 (15552)
I1006 11:36:42.414259 18726 net.cpp:157] Top shape: 2 6 36 36 (15552)
I1006 11:36:42.414266 18726 net.cpp:165] Memory required for data: 9739468
I1006 11:36:42.414275 18726 layer_factory.hpp:76] Creating layer label_2_5x7_data_4_split
I1006 11:36:42.414290 18726 net.cpp:106] Creating Layer label_2_5x7_data_4_split
I1006 11:36:42.414304 18726 net.cpp:454] label_2_5x7_data_4_split <- label_2_5x7
I1006 11:36:42.414319 18726 net.cpp:411] label_2_5x7_data_4_split -> label_2_5x7_data_4_split_0
I1006 11:36:42.414333 18726 net.cpp:411] label_2_5x7_data_4_split -> label_2_5x7_data_4_split_1
I1006 11:36:42.414444 18726 net.cpp:150] Setting up label_2_5x7_data_4_split
I1006 11:36:42.414461 18726 net.cpp:157] Top shape: 2 6 36 36 (15552)
I1006 11:36:42.414474 18726 net.cpp:157] Top shape: 2 6 36 36 (15552)
I1006 11:36:42.414482 18726 net.cpp:165] Memory required for data: 9863884
I1006 11:36:42.414490 18726 layer_factory.hpp:76] Creating layer label_3_3x5_data_5_split
I1006 11:36:42.414504 18726 net.cpp:106] Creating Layer label_3_3x5_data_5_split
I1006 11:36:42.414512 18726 net.cpp:454] label_3_3x5_data_5_split <- label_3_3x5
I1006 11:36:42.414530 18726 net.cpp:411] label_3_3x5_data_5_split -> label_3_3x5_data_5_split_0
I1006 11:36:42.414544 18726 net.cpp:411] label_3_3x5_data_5_split -> label_3_3x5_data_5_split_1
I1006 11:36:42.414644 18726 net.cpp:150] Setting up label_3_3x5_data_5_split
I1006 11:36:42.414661 18726 net.cpp:157] Top shape: 2 6 18 18 (3888)
I1006 11:36:42.414674 18726 net.cpp:157] Top shape: 2 6 18 18 (3888)
I1006 11:36:42.414680 18726 net.cpp:165] Memory required for data: 9894988
I1006 11:36:42.414690 18726 layer_factory.hpp:76] Creating layer label_3_5x7_data_6_split
I1006 11:36:42.414705 18726 net.cpp:106] Creating Layer label_3_5x7_data_6_split
I1006 11:36:42.414715 18726 net.cpp:454] label_3_5x7_data_6_split <- label_3_5x7
I1006 11:36:42.414728 18726 net.cpp:411] label_3_5x7_data_6_split -> label_3_5x7_data_6_split_0
I1006 11:36:42.414743 18726 net.cpp:411] label_3_5x7_data_6_split -> label_3_5x7_data_6_split_1
I1006 11:36:42.414839 18726 net.cpp:150] Setting up label_3_5x7_data_6_split
I1006 11:36:42.414856 18726 net.cpp:157] Top shape: 2 6 18 18 (3888)
I1006 11:36:42.414868 18726 net.cpp:157] Top shape: 2 6 18 18 (3888)
I1006 11:36:42.414875 18726 net.cpp:165] Memory required for data: 9926092
I1006 11:36:42.414901 18726 layer_factory.hpp:76] Creating layer label_4_3x5_data_7_split
I1006 11:36:42.414914 18726 net.cpp:106] Creating Layer label_4_3x5_data_7_split
I1006 11:36:42.414923 18726 net.cpp:454] label_4_3x5_data_7_split <- label_4_3x5
I1006 11:36:42.414937 18726 net.cpp:411] label_4_3x5_data_7_split -> label_4_3x5_data_7_split_0
I1006 11:36:42.414953 18726 net.cpp:411] label_4_3x5_data_7_split -> label_4_3x5_data_7_split_1
I1006 11:36:42.415055 18726 net.cpp:150] Setting up label_4_3x5_data_7_split
I1006 11:36:42.415071 18726 net.cpp:157] Top shape: 2 6 9 9 (972)
I1006 11:36:42.415082 18726 net.cpp:157] Top shape: 2 6 9 9 (972)
I1006 11:36:42.415091 18726 net.cpp:165] Memory required for data: 9933868
I1006 11:36:42.415099 18726 layer_factory.hpp:76] Creating layer conv1_1
I1006 11:36:42.415125 18726 net.cpp:106] Creating Layer conv1_1
I1006 11:36:42.415136 18726 net.cpp:454] conv1_1 <- data
I1006 11:36:42.415158 18726 net.cpp:411] conv1_1 -> conv1_1
I1006 11:36:42.419950 18726 net.cpp:150] Setting up conv1_1
I1006 11:36:42.419980 18726 net.cpp:157] Top shape: 2 64 576 576 (42467328)
I1006 11:36:42.419989 18726 net.cpp:165] Memory required for data: 179803180
I1006 11:36:42.420022 18726 layer_factory.hpp:76] Creating layer relu1_1
I1006 11:36:42.420042 18726 net.cpp:106] Creating Layer relu1_1
I1006 11:36:42.420053 18726 net.cpp:454] relu1_1 <- conv1_1
I1006 11:36:42.420068 18726 net.cpp:397] relu1_1 -> conv1_1 (in-place)
I1006 11:36:42.420438 18726 net.cpp:150] Setting up relu1_1
I1006 11:36:42.420460 18726 net.cpp:157] Top shape: 2 64 576 576 (42467328)
I1006 11:36:42.420469 18726 net.cpp:165] Memory required for data: 349672492
I1006 11:36:42.420480 18726 layer_factory.hpp:76] Creating layer conv1_2
I1006 11:36:42.420501 18726 net.cpp:106] Creating Layer conv1_2
I1006 11:36:42.420511 18726 net.cpp:454] conv1_2 <- conv1_1
I1006 11:36:42.420526 18726 net.cpp:411] conv1_2 -> conv1_2
I1006 11:36:42.423857 18726 net.cpp:150] Setting up conv1_2
I1006 11:36:42.423883 18726 net.cpp:157] Top shape: 2 64 576 576 (42467328)
I1006 11:36:42.423892 18726 net.cpp:165] Memory required for data: 519541804
I1006 11:36:42.423914 18726 layer_factory.hpp:76] Creating layer relu1_2
I1006 11:36:42.423934 18726 net.cpp:106] Creating Layer relu1_2
I1006 11:36:42.423944 18726 net.cpp:454] relu1_2 <- conv1_2
I1006 11:36:42.423957 18726 net.cpp:397] relu1_2 -> conv1_2 (in-place)
I1006 11:36:42.424501 18726 net.cpp:150] Setting up relu1_2
I1006 11:36:42.424525 18726 net.cpp:157] Top shape: 2 64 576 576 (42467328)
I1006 11:36:42.424532 18726 net.cpp:165] Memory required for data: 689411116
I1006 11:36:42.424541 18726 layer_factory.hpp:76] Creating layer pool1
I1006 11:36:42.424561 18726 net.cpp:106] Creating Layer pool1
I1006 11:36:42.424571 18726 net.cpp:454] pool1 <- conv1_2
I1006 11:36:42.424584 18726 net.cpp:411] pool1 -> pool1
I1006 11:36:42.424983 18726 net.cpp:150] Setting up pool1
I1006 11:36:42.425004 18726 net.cpp:157] Top shape: 2 64 288 288 (10616832)
I1006 11:36:42.425012 18726 net.cpp:165] Memory required for data: 731878444
I1006 11:36:42.425020 18726 layer_factory.hpp:76] Creating layer conv2_1
I1006 11:36:42.425040 18726 net.cpp:106] Creating Layer conv2_1
I1006 11:36:42.425050 18726 net.cpp:454] conv2_1 <- pool1
I1006 11:36:42.425066 18726 net.cpp:411] conv2_1 -> conv2_1
I1006 11:36:42.427141 18726 net.cpp:150] Setting up conv2_1
I1006 11:36:42.427167 18726 net.cpp:157] Top shape: 2 128 288 288 (21233664)
I1006 11:36:42.427176 18726 net.cpp:165] Memory required for data: 816813100
I1006 11:36:42.427199 18726 layer_factory.hpp:76] Creating layer relu2_1
I1006 11:36:42.427218 18726 net.cpp:106] Creating Layer relu2_1
I1006 11:36:42.427227 18726 net.cpp:454] relu2_1 <- conv2_1
I1006 11:36:42.427239 18726 net.cpp:397] relu2_1 -> conv2_1 (in-place)
I1006 11:36:42.427779 18726 net.cpp:150] Setting up relu2_1
I1006 11:36:42.427803 18726 net.cpp:157] Top shape: 2 128 288 288 (21233664)
I1006 11:36:42.427811 18726 net.cpp:165] Memory required for data: 901747756
I1006 11:36:42.427820 18726 layer_factory.hpp:76] Creating layer conv2_2
I1006 11:36:42.427847 18726 net.cpp:106] Creating Layer conv2_2
I1006 11:36:42.427857 18726 net.cpp:454] conv2_2 <- conv2_1
I1006 11:36:42.427872 18726 net.cpp:411] conv2_2 -> conv2_2
I1006 11:36:42.430567 18726 net.cpp:150] Setting up conv2_2
I1006 11:36:42.430591 18726 net.cpp:157] Top shape: 2 128 288 288 (21233664)
I1006 11:36:42.430600 18726 net.cpp:165] Memory required for data: 986682412
I1006 11:36:42.430618 18726 layer_factory.hpp:76] Creating layer relu2_2
I1006 11:36:42.430640 18726 net.cpp:106] Creating Layer relu2_2
I1006 11:36:42.430651 18726 net.cpp:454] relu2_2 <- conv2_2
I1006 11:36:42.430668 18726 net.cpp:397] relu2_2 -> conv2_2 (in-place)
I1006 11:36:42.431301 18726 net.cpp:150] Setting up relu2_2
I1006 11:36:42.431325 18726 net.cpp:157] Top shape: 2 128 288 288 (21233664)
I1006 11:36:42.431334 18726 net.cpp:165] Memory required for data: 1071617068
I1006 11:36:42.431350 18726 layer_factory.hpp:76] Creating layer pool2
I1006 11:36:42.431365 18726 net.cpp:106] Creating Layer pool2
I1006 11:36:42.431375 18726 net.cpp:454] pool2 <- conv2_2
I1006 11:36:42.431388 18726 net.cpp:411] pool2 -> pool2
I1006 11:36:42.431771 18726 net.cpp:150] Setting up pool2
I1006 11:36:42.431792 18726 net.cpp:157] Top shape: 2 128 144 144 (5308416)
I1006 11:36:42.431799 18726 net.cpp:165] Memory required for data: 1092850732
I1006 11:36:42.431808 18726 layer_factory.hpp:76] Creating layer conv3_1
I1006 11:36:42.431828 18726 net.cpp:106] Creating Layer conv3_1
I1006 11:36:42.431836 18726 net.cpp:454] conv3_1 <- pool2
I1006 11:36:42.431850 18726 net.cpp:411] conv3_1 -> conv3_1
I1006 11:36:42.434833 18726 net.cpp:150] Setting up conv3_1
I1006 11:36:42.434857 18726 net.cpp:157] Top shape: 2 256 144 144 (10616832)
I1006 11:36:42.434866 18726 net.cpp:165] Memory required for data: 1135318060
I1006 11:36:42.434909 18726 layer_factory.hpp:76] Creating layer relu3_1
I1006 11:36:42.434931 18726 net.cpp:106] Creating Layer relu3_1
I1006 11:36:42.434942 18726 net.cpp:454] relu3_1 <- conv3_1
I1006 11:36:42.434954 18726 net.cpp:397] relu3_1 -> conv3_1 (in-place)
I1006 11:36:42.435489 18726 net.cpp:150] Setting up relu3_1
I1006 11:36:42.435511 18726 net.cpp:157] Top shape: 2 256 144 144 (10616832)
I1006 11:36:42.435519 18726 net.cpp:165] Memory required for data: 1177785388
I1006 11:36:42.435528 18726 layer_factory.hpp:76] Creating layer conv3_2
I1006 11:36:42.435545 18726 net.cpp:106] Creating Layer conv3_2
I1006 11:36:42.435555 18726 net.cpp:454] conv3_2 <- conv3_1
I1006 11:36:42.435570 18726 net.cpp:411] conv3_2 -> conv3_2
I1006 11:36:42.439275 18726 net.cpp:150] Setting up conv3_2
I1006 11:36:42.439299 18726 net.cpp:157] Top shape: 2 256 144 144 (10616832)
I1006 11:36:42.439307 18726 net.cpp:165] Memory required for data: 1220252716
I1006 11:36:42.439323 18726 layer_factory.hpp:76] Creating layer relu3_2
I1006 11:36:42.439342 18726 net.cpp:106] Creating Layer relu3_2
I1006 11:36:42.439352 18726 net.cpp:454] relu3_2 <- conv3_2
I1006 11:36:42.439363 18726 net.cpp:397] relu3_2 -> conv3_2 (in-place)
I1006 11:36:42.439690 18726 net.cpp:150] Setting up relu3_2
I1006 11:36:42.439709 18726 net.cpp:157] Top shape: 2 256 144 144 (10616832)
I1006 11:36:42.439718 18726 net.cpp:165] Memory required for data: 1262720044
I1006 11:36:42.439726 18726 layer_factory.hpp:76] Creating layer conv3_3
I1006 11:36:42.439749 18726 net.cpp:106] Creating Layer conv3_3
I1006 11:36:42.439757 18726 net.cpp:454] conv3_3 <- conv3_2
I1006 11:36:42.439770 18726 net.cpp:411] conv3_3 -> conv3_3
I1006 11:36:42.445184 18726 net.cpp:150] Setting up conv3_3
I1006 11:36:42.445225 18726 net.cpp:157] Top shape: 2 256 144 144 (10616832)
I1006 11:36:42.445233 18726 net.cpp:165] Memory required for data: 1305187372
I1006 11:36:42.445250 18726 layer_factory.hpp:76] Creating layer relu3_3
I1006 11:36:42.445263 18726 net.cpp:106] Creating Layer relu3_3
I1006 11:36:42.445273 18726 net.cpp:454] relu3_3 <- conv3_3
I1006 11:36:42.445291 18726 net.cpp:397] relu3_3 -> conv3_3 (in-place)
I1006 11:36:42.446027 18726 net.cpp:150] Setting up relu3_3
I1006 11:36:42.446058 18726 net.cpp:157] Top shape: 2 256 144 144 (10616832)
I1006 11:36:42.446065 18726 net.cpp:165] Memory required for data: 1347654700
I1006 11:36:42.446074 18726 layer_factory.hpp:76] Creating layer pool3
I1006 11:36:42.446097 18726 net.cpp:106] Creating Layer pool3
I1006 11:36:42.446106 18726 net.cpp:454] pool3 <- conv3_3
I1006 11:36:42.446118 18726 net.cpp:411] pool3 -> pool3
I1006 11:36:42.446916 18726 net.cpp:150] Setting up pool3
I1006 11:36:42.446943 18726 net.cpp:157] Top shape: 2 256 72 72 (2654208)
I1006 11:36:42.446955 18726 net.cpp:165] Memory required for data: 1358271532
I1006 11:36:42.446964 18726 layer_factory.hpp:76] Creating layer conv4_1
I1006 11:36:42.446982 18726 net.cpp:106] Creating Layer conv4_1
I1006 11:36:42.446995 18726 net.cpp:454] conv4_1 <- pool3
I1006 11:36:42.447007 18726 net.cpp:411] conv4_1 -> conv4_1
I1006 11:36:42.454474 18726 net.cpp:150] Setting up conv4_1
I1006 11:36:42.454510 18726 net.cpp:157] Top shape: 2 512 72 72 (5308416)
I1006 11:36:42.454519 18726 net.cpp:165] Memory required for data: 1379505196
I1006 11:36:42.454532 18726 layer_factory.hpp:76] Creating layer relu4_1
I1006 11:36:42.454552 18726 net.cpp:106] Creating Layer relu4_1
I1006 11:36:42.454560 18726 net.cpp:454] relu4_1 <- conv4_1
I1006 11:36:42.454571 18726 net.cpp:397] relu4_1 -> conv4_1 (in-place)
I1006 11:36:42.455003 18726 net.cpp:150] Setting up relu4_1
I1006 11:36:42.455027 18726 net.cpp:157] Top shape: 2 512 72 72 (5308416)
I1006 11:36:42.455039 18726 net.cpp:165] Memory required for data: 1400738860
I1006 11:36:42.455049 18726 layer_factory.hpp:76] Creating layer conv4_2
I1006 11:36:42.455070 18726 net.cpp:106] Creating Layer conv4_2
I1006 11:36:42.455080 18726 net.cpp:454] conv4_2 <- conv4_1
I1006 11:36:42.455091 18726 net.cpp:411] conv4_2 -> conv4_2
I1006 11:36:42.466943 18726 net.cpp:150] Setting up conv4_2
I1006 11:36:42.466976 18726 net.cpp:157] Top shape: 2 512 72 72 (5308416)
I1006 11:36:42.466980 18726 net.cpp:165] Memory required for data: 1421972524
I1006 11:36:42.467000 18726 layer_factory.hpp:76] Creating layer relu4_2
I1006 11:36:42.467012 18726 net.cpp:106] Creating Layer relu4_2
I1006 11:36:42.467018 18726 net.cpp:454] relu4_2 <- conv4_2
I1006 11:36:42.467027 18726 net.cpp:397] relu4_2 -> conv4_2 (in-place)
I1006 11:36:42.467494 18726 net.cpp:150] Setting up relu4_2
I1006 11:36:42.467510 18726 net.cpp:157] Top shape: 2 512 72 72 (5308416)
I1006 11:36:42.467514 18726 net.cpp:165] Memory required for data: 1443206188
I1006 11:36:42.467519 18726 layer_factory.hpp:76] Creating layer conv4_3
I1006 11:36:42.467530 18726 net.cpp:106] Creating Layer conv4_3
I1006 11:36:42.467535 18726 net.cpp:454] conv4_3 <- conv4_2
I1006 11:36:42.467545 18726 net.cpp:411] conv4_3 -> conv4_3
I1006 11:36:42.475395 18726 net.cpp:150] Setting up conv4_3
I1006 11:36:42.475414 18726 net.cpp:157] Top shape: 2 512 72 72 (5308416)
I1006 11:36:42.475417 18726 net.cpp:165] Memory required for data: 1464439852
I1006 11:36:42.475426 18726 layer_factory.hpp:76] Creating layer relu4_3
I1006 11:36:42.475435 18726 net.cpp:106] Creating Layer relu4_3
I1006 11:36:42.475440 18726 net.cpp:454] relu4_3 <- conv4_3
I1006 11:36:42.475445 18726 net.cpp:397] relu4_3 -> conv4_3 (in-place)
I1006 11:36:42.475888 18726 net.cpp:150] Setting up relu4_3
I1006 11:36:42.475903 18726 net.cpp:157] Top shape: 2 512 72 72 (5308416)
I1006 11:36:42.475906 18726 net.cpp:165] Memory required for data: 1485673516
I1006 11:36:42.475911 18726 layer_factory.hpp:76] Creating layer conv4_3_relu4_3_0_split
I1006 11:36:42.475919 18726 net.cpp:106] Creating Layer conv4_3_relu4_3_0_split
I1006 11:36:42.475924 18726 net.cpp:454] conv4_3_relu4_3_0_split <- conv4_3
I1006 11:36:42.475932 18726 net.cpp:411] conv4_3_relu4_3_0_split -> conv4_3_relu4_3_0_split_0
I1006 11:36:42.475949 18726 net.cpp:411] conv4_3_relu4_3_0_split -> conv4_3_relu4_3_0_split_1
I1006 11:36:42.475955 18726 net.cpp:411] conv4_3_relu4_3_0_split -> conv4_3_relu4_3_0_split_2
I1006 11:36:42.475961 18726 net.cpp:411] conv4_3_relu4_3_0_split -> conv4_3_relu4_3_0_split_3
I1006 11:36:42.476083 18726 net.cpp:150] Setting up conv4_3_relu4_3_0_split
I1006 11:36:42.476094 18726 net.cpp:157] Top shape: 2 512 72 72 (5308416)
I1006 11:36:42.476099 18726 net.cpp:157] Top shape: 2 512 72 72 (5308416)
I1006 11:36:42.476104 18726 net.cpp:157] Top shape: 2 512 72 72 (5308416)
I1006 11:36:42.476107 18726 net.cpp:157] Top shape: 2 512 72 72 (5308416)
I1006 11:36:42.476110 18726 net.cpp:165] Memory required for data: 1570608172
I1006 11:36:42.476114 18726 layer_factory.hpp:76] Creating layer loss1_conv1
I1006 11:36:42.476131 18726 net.cpp:106] Creating Layer loss1_conv1
I1006 11:36:42.476136 18726 net.cpp:454] loss1_conv1 <- conv4_3_relu4_3_0_split_0
I1006 11:36:42.476148 18726 net.cpp:411] loss1_conv1 -> loss1_conv1
I1006 11:36:42.570670 18726 net.cpp:150] Setting up loss1_conv1
I1006 11:36:42.570698 18726 net.cpp:157] Top shape: 2 512 72 72 (5308416)
I1006 11:36:42.570701 18726 net.cpp:165] Memory required for data: 1591841836
I1006 11:36:42.570710 18726 layer_factory.hpp:76] Creating layer loss_relu1
I1006 11:36:42.570722 18726 net.cpp:106] Creating Layer loss_relu1
I1006 11:36:42.570727 18726 net.cpp:454] loss_relu1 <- loss1_conv1
I1006 11:36:42.570734 18726 net.cpp:397] loss_relu1 -> loss1_conv1 (in-place)
I1006 11:36:42.570947 18726 net.cpp:150] Setting up loss_relu1
I1006 11:36:42.570958 18726 net.cpp:157] Top shape: 2 512 72 72 (5308416)
I1006 11:36:42.570960 18726 net.cpp:165] Memory required for data: 1613075500
I1006 11:36:42.570965 18726 layer_factory.hpp:76] Creating layer loss1_conv1_loss_relu1_0_split
I1006 11:36:42.570971 18726 net.cpp:106] Creating Layer loss1_conv1_loss_relu1_0_split
I1006 11:36:42.570973 18726 net.cpp:454] loss1_conv1_loss_relu1_0_split <- loss1_conv1
I1006 11:36:42.570978 18726 net.cpp:411] loss1_conv1_loss_relu1_0_split -> loss1_conv1_loss_relu1_0_split_0
I1006 11:36:42.570987 18726 net.cpp:411] loss1_conv1_loss_relu1_0_split -> loss1_conv1_loss_relu1_0_split_1
I1006 11:36:42.571043 18726 net.cpp:150] Setting up loss1_conv1_loss_relu1_0_split
I1006 11:36:42.571048 18726 net.cpp:157] Top shape: 2 512 72 72 (5308416)
I1006 11:36:42.571051 18726 net.cpp:157] Top shape: 2 512 72 72 (5308416)
I1006 11:36:42.571053 18726 net.cpp:165] Memory required for data: 1655542828
I1006 11:36:42.571056 18726 layer_factory.hpp:76] Creating layer LFCN_1_3x5
I1006 11:36:42.571068 18726 net.cpp:106] Creating Layer LFCN_1_3x5
I1006 11:36:42.571071 18726 net.cpp:454] LFCN_1_3x5 <- loss1_conv1_loss_relu1_0_split_0
I1006 11:36:42.571077 18726 net.cpp:411] LFCN_1_3x5 -> LFCN_1_3x5
I1006 11:36:42.573990 18726 net.cpp:150] Setting up LFCN_1_3x5
I1006 11:36:42.574004 18726 net.cpp:157] Top shape: 2 6 72 72 (62208)
I1006 11:36:42.574007 18726 net.cpp:165] Memory required for data: 1655791660
I1006 11:36:42.574014 18726 layer_factory.hpp:76] Creating layer LFCN_1_3x5_LFCN_1_3x5_0_split
I1006 11:36:42.574019 18726 net.cpp:106] Creating Layer LFCN_1_3x5_LFCN_1_3x5_0_split
I1006 11:36:42.574023 18726 net.cpp:454] LFCN_1_3x5_LFCN_1_3x5_0_split <- LFCN_1_3x5
I1006 11:36:42.574030 18726 net.cpp:411] LFCN_1_3x5_LFCN_1_3x5_0_split -> LFCN_1_3x5_LFCN_1_3x5_0_split_0
I1006 11:36:42.574036 18726 net.cpp:411] LFCN_1_3x5_LFCN_1_3x5_0_split -> LFCN_1_3x5_LFCN_1_3x5_0_split_1
I1006 11:36:42.574043 18726 net.cpp:411] LFCN_1_3x5_LFCN_1_3x5_0_split -> LFCN_1_3x5_LFCN_1_3x5_0_split_2
I1006 11:36:42.574115 18726 net.cpp:150] Setting up LFCN_1_3x5_LFCN_1_3x5_0_split
I1006 11:36:42.574121 18726 net.cpp:157] Top shape: 2 6 72 72 (62208)
I1006 11:36:42.574126 18726 net.cpp:157] Top shape: 2 6 72 72 (62208)
I1006 11:36:42.574128 18726 net.cpp:157] Top shape: 2 6 72 72 (62208)
I1006 11:36:42.574131 18726 net.cpp:165] Memory required for data: 1656538156
I1006 11:36:42.574134 18726 layer_factory.hpp:76] Creating layer detection_loss_1_3x5
I1006 11:36:42.574143 18726 net.cpp:106] Creating Layer detection_loss_1_3x5
I1006 11:36:42.574146 18726 net.cpp:454] detection_loss_1_3x5 <- LFCN_1_3x5_LFCN_1_3x5_0_split_0
I1006 11:36:42.574152 18726 net.cpp:454] detection_loss_1_3x5 <- label_1_3x5_data_1_split_0
I1006 11:36:42.574157 18726 net.cpp:411] detection_loss_1_3x5 -> loss_1_3x5
I1006 11:36:42.574165 18726 layer_factory.hpp:76] Creating layer detection_loss_1_3x5
I1006 11:36:42.574767 18726 net.cpp:150] Setting up detection_loss_1_3x5
I1006 11:36:42.574780 18726 net.cpp:157] Top shape: 1 1 1 2 (2)
I1006 11:36:42.574784 18726 net.cpp:160]     with loss weight 0.9
I1006 11:36:42.574796 18726 net.cpp:165] Memory required for data: 1656538164
I1006 11:36:42.574800 18726 layer_factory.hpp:76] Creating layer detection_accuracy_1_3x5
I1006 11:36:42.574810 18726 net.cpp:106] Creating Layer detection_accuracy_1_3x5
I1006 11:36:42.574813 18726 net.cpp:454] detection_accuracy_1_3x5 <- LFCN_1_3x5_LFCN_1_3x5_0_split_1
I1006 11:36:42.574818 18726 net.cpp:454] detection_accuracy_1_3x5 <- label_1_3x5_data_1_split_1
I1006 11:36:42.574823 18726 net.cpp:411] detection_accuracy_1_3x5 -> accuracy_1_3x5
I1006 11:36:42.574831 18726 net.cpp:411] detection_accuracy_1_3x5 -> boxiou_1_3x5
I1006 11:36:42.574890 18726 net.cpp:150] Setting up detection_accuracy_1_3x5
I1006 11:36:42.574900 18726 net.cpp:157] Top shape: 1 1 1 2 (2)
I1006 11:36:42.574904 18726 net.cpp:157] Top shape: 1 1 1 1 (1)
I1006 11:36:42.574906 18726 net.cpp:165] Memory required for data: 1656538176
I1006 11:36:42.574909 18726 layer_factory.hpp:76] Creating layer LFCN_1_5x7
I1006 11:36:42.574918 18726 net.cpp:106] Creating Layer LFCN_1_5x7
I1006 11:36:42.574921 18726 net.cpp:454] LFCN_1_5x7 <- loss1_conv1_loss_relu1_0_split_1
I1006 11:36:42.574928 18726 net.cpp:411] LFCN_1_5x7 -> LFCN_1_5x7
I1006 11:36:42.580343 18726 net.cpp:150] Setting up LFCN_1_5x7
I1006 11:36:42.580358 18726 net.cpp:157] Top shape: 2 6 72 72 (62208)
I1006 11:36:42.580360 18726 net.cpp:165] Memory required for data: 1656787008
I1006 11:36:42.580368 18726 layer_factory.hpp:76] Creating layer LFCN_1_5x7_LFCN_1_5x7_0_split
I1006 11:36:42.580374 18726 net.cpp:106] Creating Layer LFCN_1_5x7_LFCN_1_5x7_0_split
I1006 11:36:42.580377 18726 net.cpp:454] LFCN_1_5x7_LFCN_1_5x7_0_split <- LFCN_1_5x7
I1006 11:36:42.580389 18726 net.cpp:411] LFCN_1_5x7_LFCN_1_5x7_0_split -> LFCN_1_5x7_LFCN_1_5x7_0_split_0
I1006 11:36:42.580395 18726 net.cpp:411] LFCN_1_5x7_LFCN_1_5x7_0_split -> LFCN_1_5x7_LFCN_1_5x7_0_split_1
I1006 11:36:42.580401 18726 net.cpp:411] LFCN_1_5x7_LFCN_1_5x7_0_split -> LFCN_1_5x7_LFCN_1_5x7_0_split_2
I1006 11:36:42.580473 18726 net.cpp:150] Setting up LFCN_1_5x7_LFCN_1_5x7_0_split
I1006 11:36:42.580483 18726 net.cpp:157] Top shape: 2 6 72 72 (62208)
I1006 11:36:42.580487 18726 net.cpp:157] Top shape: 2 6 72 72 (62208)
I1006 11:36:42.580492 18726 net.cpp:157] Top shape: 2 6 72 72 (62208)
I1006 11:36:42.580493 18726 net.cpp:165] Memory required for data: 1657533504
I1006 11:36:42.580497 18726 layer_factory.hpp:76] Creating layer detection_loss_1_5x7
I1006 11:36:42.580502 18726 net.cpp:106] Creating Layer detection_loss_1_5x7
I1006 11:36:42.580507 18726 net.cpp:454] detection_loss_1_5x7 <- LFCN_1_5x7_LFCN_1_5x7_0_split_0
I1006 11:36:42.580512 18726 net.cpp:454] detection_loss_1_5x7 <- label_1_5x7_data_2_split_0
I1006 11:36:42.580518 18726 net.cpp:411] detection_loss_1_5x7 -> loss_1_5x7
I1006 11:36:42.580525 18726 layer_factory.hpp:76] Creating layer detection_loss_1_5x7
I1006 11:36:42.581131 18726 net.cpp:150] Setting up detection_loss_1_5x7
I1006 11:36:42.581145 18726 net.cpp:157] Top shape: 1 1 1 2 (2)
I1006 11:36:42.581147 18726 net.cpp:160]     with loss weight 0.9
I1006 11:36:42.581161 18726 net.cpp:165] Memory required for data: 1657533512
I1006 11:36:42.581164 18726 layer_factory.hpp:76] Creating layer detection_accuracy_1_5x7
I1006 11:36:42.581172 18726 net.cpp:106] Creating Layer detection_accuracy_1_5x7
I1006 11:36:42.581176 18726 net.cpp:454] detection_accuracy_1_5x7 <- LFCN_1_5x7_LFCN_1_5x7_0_split_1
I1006 11:36:42.581182 18726 net.cpp:454] detection_accuracy_1_5x7 <- label_1_5x7_data_2_split_1
I1006 11:36:42.581187 18726 net.cpp:411] detection_accuracy_1_5x7 -> accuracy_1_5x7
I1006 11:36:42.581193 18726 net.cpp:411] detection_accuracy_1_5x7 -> boxiou_1_5x7
I1006 11:36:42.581246 18726 net.cpp:150] Setting up detection_accuracy_1_5x7
I1006 11:36:42.581254 18726 net.cpp:157] Top shape: 1 1 1 2 (2)
I1006 11:36:42.581257 18726 net.cpp:157] Top shape: 1 1 1 1 (1)
I1006 11:36:42.581259 18726 net.cpp:165] Memory required for data: 1657533524
I1006 11:36:42.581262 18726 layer_factory.hpp:76] Creating layer pool4
I1006 11:36:42.581269 18726 net.cpp:106] Creating Layer pool4
I1006 11:36:42.581274 18726 net.cpp:454] pool4 <- conv4_3_relu4_3_0_split_1
I1006 11:36:42.581279 18726 net.cpp:411] pool4 -> pool4
I1006 11:36:42.581878 18726 net.cpp:150] Setting up pool4
I1006 11:36:42.581892 18726 net.cpp:157] Top shape: 2 512 36 36 (1327104)
I1006 11:36:42.581895 18726 net.cpp:165] Memory required for data: 1662841940
I1006 11:36:42.581899 18726 layer_factory.hpp:76] Creating layer conv5_1
I1006 11:36:42.581907 18726 net.cpp:106] Creating Layer conv5_1
I1006 11:36:42.581912 18726 net.cpp:454] conv5_1 <- pool4
I1006 11:36:42.581917 18726 net.cpp:411] conv5_1 -> conv5_1
I1006 11:36:42.588361 18726 net.cpp:150] Setting up conv5_1
I1006 11:36:42.588376 18726 net.cpp:157] Top shape: 2 512 36 36 (1327104)
I1006 11:36:42.588381 18726 net.cpp:165] Memory required for data: 1668150356
I1006 11:36:42.588387 18726 layer_factory.hpp:76] Creating layer relu5_1
I1006 11:36:42.588399 18726 net.cpp:106] Creating Layer relu5_1
I1006 11:36:42.588403 18726 net.cpp:454] relu5_1 <- conv5_1
I1006 11:36:42.588410 18726 net.cpp:397] relu5_1 -> conv5_1 (in-place)
I1006 11:36:42.588780 18726 net.cpp:150] Setting up relu5_1
I1006 11:36:42.588800 18726 net.cpp:157] Top shape: 2 512 36 36 (1327104)
I1006 11:36:42.588804 18726 net.cpp:165] Memory required for data: 1673458772
I1006 11:36:42.588807 18726 layer_factory.hpp:76] Creating layer conv5_2
I1006 11:36:42.588819 18726 net.cpp:106] Creating Layer conv5_2
I1006 11:36:42.588822 18726 net.cpp:454] conv5_2 <- conv5_1
I1006 11:36:42.588829 18726 net.cpp:411] conv5_2 -> conv5_2
I1006 11:36:42.595515 18726 net.cpp:150] Setting up conv5_2
I1006 11:36:42.595540 18726 net.cpp:157] Top shape: 2 512 36 36 (1327104)
I1006 11:36:42.595543 18726 net.cpp:165] Memory required for data: 1678767188
I1006 11:36:42.595549 18726 layer_factory.hpp:76] Creating layer relu5_2
I1006 11:36:42.595563 18726 net.cpp:106] Creating Layer relu5_2
I1006 11:36:42.595567 18726 net.cpp:454] relu5_2 <- conv5_2
I1006 11:36:42.595574 18726 net.cpp:397] relu5_2 -> conv5_2 (in-place)
I1006 11:36:42.595779 18726 net.cpp:150] Setting up relu5_2
I1006 11:36:42.595789 18726 net.cpp:157] Top shape: 2 512 36 36 (1327104)
I1006 11:36:42.595793 18726 net.cpp:165] Memory required for data: 1684075604
I1006 11:36:42.595795 18726 layer_factory.hpp:76] Creating layer conv5_3
I1006 11:36:42.595804 18726 net.cpp:106] Creating Layer conv5_3
I1006 11:36:42.595808 18726 net.cpp:454] conv5_3 <- conv5_2
I1006 11:36:42.595814 18726 net.cpp:411] conv5_3 -> conv5_3
I1006 11:36:42.602634 18726 net.cpp:150] Setting up conv5_3
I1006 11:36:42.602651 18726 net.cpp:157] Top shape: 2 512 36 36 (1327104)
I1006 11:36:42.602655 18726 net.cpp:165] Memory required for data: 1689384020
I1006 11:36:42.602663 18726 layer_factory.hpp:76] Creating layer relu5_3
I1006 11:36:42.602676 18726 net.cpp:106] Creating Layer relu5_3
I1006 11:36:42.602680 18726 net.cpp:454] relu5_3 <- conv5_3
I1006 11:36:42.602685 18726 net.cpp:397] relu5_3 -> conv5_3 (in-place)
I1006 11:36:42.603070 18726 net.cpp:150] Setting up relu5_3
I1006 11:36:42.603082 18726 net.cpp:157] Top shape: 2 512 36 36 (1327104)
I1006 11:36:42.603087 18726 net.cpp:165] Memory required for data: 1694692436
I1006 11:36:42.603091 18726 layer_factory.hpp:76] Creating layer conv5_3_relu5_3_0_split
I1006 11:36:42.603097 18726 net.cpp:106] Creating Layer conv5_3_relu5_3_0_split
I1006 11:36:42.603101 18726 net.cpp:454] conv5_3_relu5_3_0_split <- conv5_3
I1006 11:36:42.603106 18726 net.cpp:411] conv5_3_relu5_3_0_split -> conv5_3_relu5_3_0_split_0
I1006 11:36:42.603113 18726 net.cpp:411] conv5_3_relu5_3_0_split -> conv5_3_relu5_3_0_split_1
I1006 11:36:42.603118 18726 net.cpp:411] conv5_3_relu5_3_0_split -> conv5_3_relu5_3_0_split_2
I1006 11:36:42.603195 18726 net.cpp:150] Setting up conv5_3_relu5_3_0_split
I1006 11:36:42.603204 18726 net.cpp:157] Top shape: 2 512 36 36 (1327104)
I1006 11:36:42.603207 18726 net.cpp:157] Top shape: 2 512 36 36 (1327104)
I1006 11:36:42.603210 18726 net.cpp:157] Top shape: 2 512 36 36 (1327104)
I1006 11:36:42.603212 18726 net.cpp:165] Memory required for data: 1710617684
I1006 11:36:42.603215 18726 layer_factory.hpp:76] Creating layer LFCN_2_3x5
I1006 11:36:42.603225 18726 net.cpp:106] Creating Layer LFCN_2_3x5
I1006 11:36:42.603229 18726 net.cpp:454] LFCN_2_3x5 <- conv5_3_relu5_3_0_split_0
I1006 11:36:42.603235 18726 net.cpp:411] LFCN_2_3x5 -> LFCN_2_3x5
I1006 11:36:42.606000 18726 net.cpp:150] Setting up LFCN_2_3x5
I1006 11:36:42.606015 18726 net.cpp:157] Top shape: 2 6 36 36 (15552)
I1006 11:36:42.606019 18726 net.cpp:165] Memory required for data: 1710679892
I1006 11:36:42.606034 18726 layer_factory.hpp:76] Creating layer LFCN_2_3x5_LFCN_2_3x5_0_split
I1006 11:36:42.606046 18726 net.cpp:106] Creating Layer LFCN_2_3x5_LFCN_2_3x5_0_split
I1006 11:36:42.606050 18726 net.cpp:454] LFCN_2_3x5_LFCN_2_3x5_0_split <- LFCN_2_3x5
I1006 11:36:42.606056 18726 net.cpp:411] LFCN_2_3x5_LFCN_2_3x5_0_split -> LFCN_2_3x5_LFCN_2_3x5_0_split_0
I1006 11:36:42.606063 18726 net.cpp:411] LFCN_2_3x5_LFCN_2_3x5_0_split -> LFCN_2_3x5_LFCN_2_3x5_0_split_1
I1006 11:36:42.606075 18726 net.cpp:411] LFCN_2_3x5_LFCN_2_3x5_0_split -> LFCN_2_3x5_LFCN_2_3x5_0_split_2
I1006 11:36:42.606155 18726 net.cpp:150] Setting up LFCN_2_3x5_LFCN_2_3x5_0_split
I1006 11:36:42.606163 18726 net.cpp:157] Top shape: 2 6 36 36 (15552)
I1006 11:36:42.606168 18726 net.cpp:157] Top shape: 2 6 36 36 (15552)
I1006 11:36:42.606170 18726 net.cpp:157] Top shape: 2 6 36 36 (15552)
I1006 11:36:42.606173 18726 net.cpp:165] Memory required for data: 1710866516
I1006 11:36:42.606175 18726 layer_factory.hpp:76] Creating layer detection_loss_2_3x5
I1006 11:36:42.606184 18726 net.cpp:106] Creating Layer detection_loss_2_3x5
I1006 11:36:42.606187 18726 net.cpp:454] detection_loss_2_3x5 <- LFCN_2_3x5_LFCN_2_3x5_0_split_0
I1006 11:36:42.606192 18726 net.cpp:454] detection_loss_2_3x5 <- label_2_3x5_data_3_split_0
I1006 11:36:42.606197 18726 net.cpp:411] detection_loss_2_3x5 -> loss_2_3x5
I1006 11:36:42.606206 18726 layer_factory.hpp:76] Creating layer detection_loss_2_3x5
I1006 11:36:42.606842 18726 net.cpp:150] Setting up detection_loss_2_3x5
I1006 11:36:42.606854 18726 net.cpp:157] Top shape: 1 1 1 2 (2)
I1006 11:36:42.606858 18726 net.cpp:160]     with loss weight 1
I1006 11:36:42.606869 18726 net.cpp:165] Memory required for data: 1710866524
I1006 11:36:42.606873 18726 layer_factory.hpp:76] Creating layer detection_accuracy_2_3x5
I1006 11:36:42.606894 18726 net.cpp:106] Creating Layer detection_accuracy_2_3x5
I1006 11:36:42.606897 18726 net.cpp:454] detection_accuracy_2_3x5 <- LFCN_2_3x5_LFCN_2_3x5_0_split_1
I1006 11:36:42.606902 18726 net.cpp:454] detection_accuracy_2_3x5 <- label_2_3x5_data_3_split_1
I1006 11:36:42.606909 18726 net.cpp:411] detection_accuracy_2_3x5 -> accuracy_2_3x5
I1006 11:36:42.606917 18726 net.cpp:411] detection_accuracy_2_3x5 -> boxiou_2_3x5
I1006 11:36:42.606969 18726 net.cpp:150] Setting up detection_accuracy_2_3x5
I1006 11:36:42.606979 18726 net.cpp:157] Top shape: 1 1 1 2 (2)
I1006 11:36:42.606982 18726 net.cpp:157] Top shape: 1 1 1 1 (1)
I1006 11:36:42.606986 18726 net.cpp:165] Memory required for data: 1710866536
I1006 11:36:42.606987 18726 layer_factory.hpp:76] Creating layer LFCN_2_5x7
I1006 11:36:42.606994 18726 net.cpp:106] Creating Layer LFCN_2_5x7
I1006 11:36:42.606998 18726 net.cpp:454] LFCN_2_5x7 <- conv5_3_relu5_3_0_split_1
I1006 11:36:42.607010 18726 net.cpp:411] LFCN_2_5x7 -> LFCN_2_5x7
I1006 11:36:42.612290 18726 net.cpp:150] Setting up LFCN_2_5x7
I1006 11:36:42.612305 18726 net.cpp:157] Top shape: 2 6 36 36 (15552)
I1006 11:36:42.612308 18726 net.cpp:165] Memory required for data: 1710928744
I1006 11:36:42.612315 18726 layer_factory.hpp:76] Creating layer LFCN_2_5x7_LFCN_2_5x7_0_split
I1006 11:36:42.612321 18726 net.cpp:106] Creating Layer LFCN_2_5x7_LFCN_2_5x7_0_split
I1006 11:36:42.612325 18726 net.cpp:454] LFCN_2_5x7_LFCN_2_5x7_0_split <- LFCN_2_5x7
I1006 11:36:42.612340 18726 net.cpp:411] LFCN_2_5x7_LFCN_2_5x7_0_split -> LFCN_2_5x7_LFCN_2_5x7_0_split_0
I1006 11:36:42.612347 18726 net.cpp:411] LFCN_2_5x7_LFCN_2_5x7_0_split -> LFCN_2_5x7_LFCN_2_5x7_0_split_1
I1006 11:36:42.612352 18726 net.cpp:411] LFCN_2_5x7_LFCN_2_5x7_0_split -> LFCN_2_5x7_LFCN_2_5x7_0_split_2
I1006 11:36:42.612438 18726 net.cpp:150] Setting up LFCN_2_5x7_LFCN_2_5x7_0_split
I1006 11:36:42.612447 18726 net.cpp:157] Top shape: 2 6 36 36 (15552)
I1006 11:36:42.612449 18726 net.cpp:157] Top shape: 2 6 36 36 (15552)
I1006 11:36:42.612453 18726 net.cpp:157] Top shape: 2 6 36 36 (15552)
I1006 11:36:42.612455 18726 net.cpp:165] Memory required for data: 1711115368
I1006 11:36:42.612458 18726 layer_factory.hpp:76] Creating layer detection_loss_2_5x7
I1006 11:36:42.612465 18726 net.cpp:106] Creating Layer detection_loss_2_5x7
I1006 11:36:42.612468 18726 net.cpp:454] detection_loss_2_5x7 <- LFCN_2_5x7_LFCN_2_5x7_0_split_0
I1006 11:36:42.612473 18726 net.cpp:454] detection_loss_2_5x7 <- label_2_5x7_data_4_split_0
I1006 11:36:42.612480 18726 net.cpp:411] detection_loss_2_5x7 -> loss_2_5x7
I1006 11:36:42.612488 18726 layer_factory.hpp:76] Creating layer detection_loss_2_5x7
I1006 11:36:42.612953 18726 net.cpp:150] Setting up detection_loss_2_5x7
I1006 11:36:42.612972 18726 net.cpp:157] Top shape: 1 1 1 2 (2)
I1006 11:36:42.612974 18726 net.cpp:160]     with loss weight 1
I1006 11:36:42.612980 18726 net.cpp:165] Memory required for data: 1711115376
I1006 11:36:42.612984 18726 layer_factory.hpp:76] Creating layer detection_accuracy_2_5x7
I1006 11:36:42.612990 18726 net.cpp:106] Creating Layer detection_accuracy_2_5x7
I1006 11:36:42.613001 18726 net.cpp:454] detection_accuracy_2_5x7 <- LFCN_2_5x7_LFCN_2_5x7_0_split_1
I1006 11:36:42.613005 18726 net.cpp:454] detection_accuracy_2_5x7 <- label_2_5x7_data_4_split_1
I1006 11:36:42.613013 18726 net.cpp:411] detection_accuracy_2_5x7 -> accuracy_2_5x7
I1006 11:36:42.613019 18726 net.cpp:411] detection_accuracy_2_5x7 -> boxiou_2_5x7
I1006 11:36:42.613080 18726 net.cpp:150] Setting up detection_accuracy_2_5x7
I1006 11:36:42.613095 18726 net.cpp:157] Top shape: 1 1 1 2 (2)
I1006 11:36:42.613100 18726 net.cpp:157] Top shape: 1 1 1 1 (1)
I1006 11:36:42.613101 18726 net.cpp:165] Memory required for data: 1711115388
I1006 11:36:42.613104 18726 layer_factory.hpp:76] Creating layer pool5
I1006 11:36:42.613113 18726 net.cpp:106] Creating Layer pool5
I1006 11:36:42.613116 18726 net.cpp:454] pool5 <- conv5_3_relu5_3_0_split_2
I1006 11:36:42.613123 18726 net.cpp:411] pool5 -> pool5
I1006 11:36:42.613554 18726 net.cpp:150] Setting up pool5
I1006 11:36:42.613566 18726 net.cpp:157] Top shape: 2 512 18 18 (331776)
I1006 11:36:42.613569 18726 net.cpp:165] Memory required for data: 1712442492
I1006 11:36:42.613574 18726 layer_factory.hpp:76] Creating layer conv6_1
I1006 11:36:42.613582 18726 net.cpp:106] Creating Layer conv6_1
I1006 11:36:42.613586 18726 net.cpp:454] conv6_1 <- pool5
I1006 11:36:42.613592 18726 net.cpp:411] conv6_1 -> conv6_1
I1006 11:36:42.707630 18726 net.cpp:150] Setting up conv6_1
I1006 11:36:42.707665 18726 net.cpp:157] Top shape: 2 512 18 18 (331776)
I1006 11:36:42.707669 18726 net.cpp:165] Memory required for data: 1713769596
I1006 11:36:42.707679 18726 layer_factory.hpp:76] Creating layer relu6_1
I1006 11:36:42.707690 18726 net.cpp:106] Creating Layer relu6_1
I1006 11:36:42.707696 18726 net.cpp:454] relu6_1 <- conv6_1
I1006 11:36:42.707705 18726 net.cpp:397] relu6_1 -> conv6_1 (in-place)
I1006 11:36:42.708133 18726 net.cpp:150] Setting up relu6_1
I1006 11:36:42.708148 18726 net.cpp:157] Top shape: 2 512 18 18 (331776)
I1006 11:36:42.708150 18726 net.cpp:165] Memory required for data: 1715096700
I1006 11:36:42.708154 18726 layer_factory.hpp:76] Creating layer conv6_1_relu6_1_0_split
I1006 11:36:42.708160 18726 net.cpp:106] Creating Layer conv6_1_relu6_1_0_split
I1006 11:36:42.708164 18726 net.cpp:454] conv6_1_relu6_1_0_split <- conv6_1
I1006 11:36:42.708171 18726 net.cpp:411] conv6_1_relu6_1_0_split -> conv6_1_relu6_1_0_split_0
I1006 11:36:42.708179 18726 net.cpp:411] conv6_1_relu6_1_0_split -> conv6_1_relu6_1_0_split_1
I1006 11:36:42.708184 18726 net.cpp:411] conv6_1_relu6_1_0_split -> conv6_1_relu6_1_0_split_2
I1006 11:36:42.708267 18726 net.cpp:150] Setting up conv6_1_relu6_1_0_split
I1006 11:36:42.708287 18726 net.cpp:157] Top shape: 2 512 18 18 (331776)
I1006 11:36:42.708290 18726 net.cpp:157] Top shape: 2 512 18 18 (331776)
I1006 11:36:42.708293 18726 net.cpp:157] Top shape: 2 512 18 18 (331776)
I1006 11:36:42.708297 18726 net.cpp:165] Memory required for data: 1719078012
I1006 11:36:42.708298 18726 layer_factory.hpp:76] Creating layer LFCN_3_3x5
I1006 11:36:42.708309 18726 net.cpp:106] Creating Layer LFCN_3_3x5
I1006 11:36:42.708313 18726 net.cpp:454] LFCN_3_3x5 <- conv6_1_relu6_1_0_split_0
I1006 11:36:42.708320 18726 net.cpp:411] LFCN_3_3x5 -> LFCN_3_3x5
I1006 11:36:42.711383 18726 net.cpp:150] Setting up LFCN_3_3x5
I1006 11:36:42.711397 18726 net.cpp:157] Top shape: 2 6 18 18 (3888)
I1006 11:36:42.711401 18726 net.cpp:165] Memory required for data: 1719093564
I1006 11:36:42.711407 18726 layer_factory.hpp:76] Creating layer LFCN_3_3x5_LFCN_3_3x5_0_split
I1006 11:36:42.711434 18726 net.cpp:106] Creating Layer LFCN_3_3x5_LFCN_3_3x5_0_split
I1006 11:36:42.711438 18726 net.cpp:454] LFCN_3_3x5_LFCN_3_3x5_0_split <- LFCN_3_3x5
I1006 11:36:42.711444 18726 net.cpp:411] LFCN_3_3x5_LFCN_3_3x5_0_split -> LFCN_3_3x5_LFCN_3_3x5_0_split_0
I1006 11:36:42.711452 18726 net.cpp:411] LFCN_3_3x5_LFCN_3_3x5_0_split -> LFCN_3_3x5_LFCN_3_3x5_0_split_1
I1006 11:36:42.711458 18726 net.cpp:411] LFCN_3_3x5_LFCN_3_3x5_0_split -> LFCN_3_3x5_LFCN_3_3x5_0_split_2
I1006 11:36:42.711536 18726 net.cpp:150] Setting up LFCN_3_3x5_LFCN_3_3x5_0_split
I1006 11:36:42.711544 18726 net.cpp:157] Top shape: 2 6 18 18 (3888)
I1006 11:36:42.711549 18726 net.cpp:157] Top shape: 2 6 18 18 (3888)
I1006 11:36:42.711552 18726 net.cpp:157] Top shape: 2 6 18 18 (3888)
I1006 11:36:42.711555 18726 net.cpp:165] Memory required for data: 1719140220
I1006 11:36:42.711558 18726 layer_factory.hpp:76] Creating layer detection_loss_3_3x5
I1006 11:36:42.711566 18726 net.cpp:106] Creating Layer detection_loss_3_3x5
I1006 11:36:42.711570 18726 net.cpp:454] detection_loss_3_3x5 <- LFCN_3_3x5_LFCN_3_3x5_0_split_0
I1006 11:36:42.711575 18726 net.cpp:454] detection_loss_3_3x5 <- label_3_3x5_data_5_split_0
I1006 11:36:42.711580 18726 net.cpp:411] detection_loss_3_3x5 -> loss_3_3x5
I1006 11:36:42.711590 18726 layer_factory.hpp:76] Creating layer detection_loss_3_3x5
I1006 11:36:42.712046 18726 net.cpp:150] Setting up detection_loss_3_3x5
I1006 11:36:42.712056 18726 net.cpp:157] Top shape: 1 1 1 2 (2)
I1006 11:36:42.712059 18726 net.cpp:160]     with loss weight 1
I1006 11:36:42.712072 18726 net.cpp:165] Memory required for data: 1719140228
I1006 11:36:42.712075 18726 layer_factory.hpp:76] Creating layer detection_accuracy_3_3x5
I1006 11:36:42.712082 18726 net.cpp:106] Creating Layer detection_accuracy_3_3x5
I1006 11:36:42.712086 18726 net.cpp:454] detection_accuracy_3_3x5 <- LFCN_3_3x5_LFCN_3_3x5_0_split_1
I1006 11:36:42.712091 18726 net.cpp:454] detection_accuracy_3_3x5 <- label_3_3x5_data_5_split_1
I1006 11:36:42.712098 18726 net.cpp:411] detection_accuracy_3_3x5 -> accuracy_3_3x5
I1006 11:36:42.712107 18726 net.cpp:411] detection_accuracy_3_3x5 -> boxiou_3_3x5
I1006 11:36:42.712164 18726 net.cpp:150] Setting up detection_accuracy_3_3x5
I1006 11:36:42.712172 18726 net.cpp:157] Top shape: 1 1 1 2 (2)
I1006 11:36:42.712175 18726 net.cpp:157] Top shape: 1 1 1 1 (1)
I1006 11:36:42.712177 18726 net.cpp:165] Memory required for data: 1719140240
I1006 11:36:42.712180 18726 layer_factory.hpp:76] Creating layer LFCN_3_5x7
I1006 11:36:42.712190 18726 net.cpp:106] Creating Layer LFCN_3_5x7
I1006 11:36:42.712193 18726 net.cpp:454] LFCN_3_5x7 <- conv6_1_relu6_1_0_split_1
I1006 11:36:42.712199 18726 net.cpp:411] LFCN_3_5x7 -> LFCN_3_5x7
I1006 11:36:42.717854 18726 net.cpp:150] Setting up LFCN_3_5x7
I1006 11:36:42.717869 18726 net.cpp:157] Top shape: 2 6 18 18 (3888)
I1006 11:36:42.717872 18726 net.cpp:165] Memory required for data: 1719155792
I1006 11:36:42.717880 18726 layer_factory.hpp:76] Creating layer LFCN_3_5x7_LFCN_3_5x7_0_split
I1006 11:36:42.717887 18726 net.cpp:106] Creating Layer LFCN_3_5x7_LFCN_3_5x7_0_split
I1006 11:36:42.717891 18726 net.cpp:454] LFCN_3_5x7_LFCN_3_5x7_0_split <- LFCN_3_5x7
I1006 11:36:42.717897 18726 net.cpp:411] LFCN_3_5x7_LFCN_3_5x7_0_split -> LFCN_3_5x7_LFCN_3_5x7_0_split_0
I1006 11:36:42.717905 18726 net.cpp:411] LFCN_3_5x7_LFCN_3_5x7_0_split -> LFCN_3_5x7_LFCN_3_5x7_0_split_1
I1006 11:36:42.717911 18726 net.cpp:411] LFCN_3_5x7_LFCN_3_5x7_0_split -> LFCN_3_5x7_LFCN_3_5x7_0_split_2
I1006 11:36:42.717986 18726 net.cpp:150] Setting up LFCN_3_5x7_LFCN_3_5x7_0_split
I1006 11:36:42.717994 18726 net.cpp:157] Top shape: 2 6 18 18 (3888)
I1006 11:36:42.717998 18726 net.cpp:157] Top shape: 2 6 18 18 (3888)
I1006 11:36:42.718003 18726 net.cpp:157] Top shape: 2 6 18 18 (3888)
I1006 11:36:42.718004 18726 net.cpp:165] Memory required for data: 1719202448
I1006 11:36:42.718008 18726 layer_factory.hpp:76] Creating layer detection_loss_3_5x7
I1006 11:36:42.718015 18726 net.cpp:106] Creating Layer detection_loss_3_5x7
I1006 11:36:42.718019 18726 net.cpp:454] detection_loss_3_5x7 <- LFCN_3_5x7_LFCN_3_5x7_0_split_0
I1006 11:36:42.718024 18726 net.cpp:454] detection_loss_3_5x7 <- label_3_5x7_data_6_split_0
I1006 11:36:42.718027 18726 net.cpp:411] detection_loss_3_5x7 -> loss_3_5x7
I1006 11:36:42.718034 18726 layer_factory.hpp:76] Creating layer detection_loss_3_5x7
I1006 11:36:42.718652 18726 net.cpp:150] Setting up detection_loss_3_5x7
I1006 11:36:42.718665 18726 net.cpp:157] Top shape: 1 1 1 2 (2)
I1006 11:36:42.718668 18726 net.cpp:160]     with loss weight 1
I1006 11:36:42.718674 18726 net.cpp:165] Memory required for data: 1719202456
I1006 11:36:42.718677 18726 layer_factory.hpp:76] Creating layer detection_accuracy_3_5x7
I1006 11:36:42.718684 18726 net.cpp:106] Creating Layer detection_accuracy_3_5x7
I1006 11:36:42.718688 18726 net.cpp:454] detection_accuracy_3_5x7 <- LFCN_3_5x7_LFCN_3_5x7_0_split_1
I1006 11:36:42.718693 18726 net.cpp:454] detection_accuracy_3_5x7 <- label_3_5x7_data_6_split_1
I1006 11:36:42.718699 18726 net.cpp:411] detection_accuracy_3_5x7 -> accuracy_3_5x7
I1006 11:36:42.718706 18726 net.cpp:411] detection_accuracy_3_5x7 -> boxiou_3_5x7
I1006 11:36:42.718762 18726 net.cpp:150] Setting up detection_accuracy_3_5x7
I1006 11:36:42.718777 18726 net.cpp:157] Top shape: 1 1 1 2 (2)
I1006 11:36:42.718781 18726 net.cpp:157] Top shape: 1 1 1 1 (1)
I1006 11:36:42.718783 18726 net.cpp:165] Memory required for data: 1719202468
I1006 11:36:42.718786 18726 layer_factory.hpp:76] Creating layer pool6
I1006 11:36:42.718794 18726 net.cpp:106] Creating Layer pool6
I1006 11:36:42.718798 18726 net.cpp:454] pool6 <- conv6_1_relu6_1_0_split_2
I1006 11:36:42.718804 18726 net.cpp:411] pool6 -> pool6
I1006 11:36:42.719064 18726 net.cpp:150] Setting up pool6
I1006 11:36:42.719075 18726 net.cpp:157] Top shape: 2 512 9 9 (82944)
I1006 11:36:42.719079 18726 net.cpp:165] Memory required for data: 1719534244
I1006 11:36:42.719081 18726 layer_factory.hpp:76] Creating layer LFCN_4_3x5
I1006 11:36:42.719091 18726 net.cpp:106] Creating Layer LFCN_4_3x5
I1006 11:36:42.719095 18726 net.cpp:454] LFCN_4_3x5 <- pool6
I1006 11:36:42.719102 18726 net.cpp:411] LFCN_4_3x5 -> LFCN_4_3x5
I1006 11:36:42.722209 18726 net.cpp:150] Setting up LFCN_4_3x5
I1006 11:36:42.722223 18726 net.cpp:157] Top shape: 2 6 9 9 (972)
I1006 11:36:42.722226 18726 net.cpp:165] Memory required for data: 1719538132
I1006 11:36:42.722234 18726 layer_factory.hpp:76] Creating layer LFCN_4_3x5_LFCN_4_3x5_0_split
I1006 11:36:42.722239 18726 net.cpp:106] Creating Layer LFCN_4_3x5_LFCN_4_3x5_0_split
I1006 11:36:42.722249 18726 net.cpp:454] LFCN_4_3x5_LFCN_4_3x5_0_split <- LFCN_4_3x5
I1006 11:36:42.722257 18726 net.cpp:411] LFCN_4_3x5_LFCN_4_3x5_0_split -> LFCN_4_3x5_LFCN_4_3x5_0_split_0
I1006 11:36:42.722265 18726 net.cpp:411] LFCN_4_3x5_LFCN_4_3x5_0_split -> LFCN_4_3x5_LFCN_4_3x5_0_split_1
I1006 11:36:42.722270 18726 net.cpp:411] LFCN_4_3x5_LFCN_4_3x5_0_split -> LFCN_4_3x5_LFCN_4_3x5_0_split_2
I1006 11:36:42.722403 18726 net.cpp:150] Setting up LFCN_4_3x5_LFCN_4_3x5_0_split
I1006 11:36:42.722411 18726 net.cpp:157] Top shape: 2 6 9 9 (972)
I1006 11:36:42.722415 18726 net.cpp:157] Top shape: 2 6 9 9 (972)
I1006 11:36:42.722419 18726 net.cpp:157] Top shape: 2 6 9 9 (972)
I1006 11:36:42.722421 18726 net.cpp:165] Memory required for data: 1719549796
I1006 11:36:42.722424 18726 layer_factory.hpp:76] Creating layer detection_loss_4_3x5
I1006 11:36:42.722430 18726 net.cpp:106] Creating Layer detection_loss_4_3x5
I1006 11:36:42.722434 18726 net.cpp:454] detection_loss_4_3x5 <- LFCN_4_3x5_LFCN_4_3x5_0_split_0
I1006 11:36:42.722440 18726 net.cpp:454] detection_loss_4_3x5 <- label_4_3x5_data_7_split_0
I1006 11:36:42.722445 18726 net.cpp:411] detection_loss_4_3x5 -> loss_4_3x5
I1006 11:36:42.722453 18726 layer_factory.hpp:76] Creating layer detection_loss_4_3x5
I1006 11:36:42.723103 18726 net.cpp:150] Setting up detection_loss_4_3x5
I1006 11:36:42.723116 18726 net.cpp:157] Top shape: 1 1 1 2 (2)
I1006 11:36:42.723119 18726 net.cpp:160]     with loss weight 1
I1006 11:36:42.723125 18726 net.cpp:165] Memory required for data: 1719549804
I1006 11:36:42.723129 18726 layer_factory.hpp:76] Creating layer detection_accuracy_4_3x5
I1006 11:36:42.723134 18726 net.cpp:106] Creating Layer detection_accuracy_4_3x5
I1006 11:36:42.723142 18726 net.cpp:454] detection_accuracy_4_3x5 <- LFCN_4_3x5_LFCN_4_3x5_0_split_1
I1006 11:36:42.723147 18726 net.cpp:454] detection_accuracy_4_3x5 <- label_4_3x5_data_7_split_1
I1006 11:36:42.723152 18726 net.cpp:411] detection_accuracy_4_3x5 -> accuracy_4_3x5
I1006 11:36:42.723161 18726 net.cpp:411] detection_accuracy_4_3x5 -> boxiou_4_3x5
I1006 11:36:42.723217 18726 net.cpp:150] Setting up detection_accuracy_4_3x5
I1006 11:36:42.723230 18726 net.cpp:157] Top shape: 1 1 1 2 (2)
I1006 11:36:42.723233 18726 net.cpp:157] Top shape: 1 1 1 1 (1)
I1006 11:36:42.723237 18726 net.cpp:165] Memory required for data: 1719549816
I1006 11:36:42.723239 18726 layer_factory.hpp:76] Creating layer proposals
I1006 11:36:42.723248 18726 net.cpp:106] Creating Layer proposals
I1006 11:36:42.723253 18726 net.cpp:454] proposals <- LFCN_1_3x5_LFCN_1_3x5_0_split_2
I1006 11:36:42.723256 18726 net.cpp:454] proposals <- LFCN_1_5x7_LFCN_1_5x7_0_split_2
I1006 11:36:42.723260 18726 net.cpp:454] proposals <- LFCN_2_3x5_LFCN_2_3x5_0_split_2
I1006 11:36:42.723264 18726 net.cpp:454] proposals <- LFCN_2_5x7_LFCN_2_5x7_0_split_2
I1006 11:36:42.723268 18726 net.cpp:454] proposals <- LFCN_3_3x5_LFCN_3_3x5_0_split_2
I1006 11:36:42.723270 18726 net.cpp:454] proposals <- LFCN_3_5x7_LFCN_3_5x7_0_split_2
I1006 11:36:42.723273 18726 net.cpp:454] proposals <- LFCN_4_3x5_LFCN_4_3x5_0_split_2
I1006 11:36:42.723280 18726 net.cpp:411] proposals -> proposals
I1006 11:36:42.723314 18726 net.cpp:150] Setting up proposals
I1006 11:36:42.723317 18726 net.cpp:157] Top shape: 1 5 1 1 (5)
I1006 11:36:42.723320 18726 net.cpp:165] Memory required for data: 1719549836
I1006 11:36:42.723323 18726 layer_factory.hpp:76] Creating layer proposal_info
I1006 11:36:42.723333 18726 net.cpp:106] Creating Layer proposal_info
I1006 11:36:42.723337 18726 net.cpp:454] proposal_info <- proposals
I1006 11:36:42.723341 18726 net.cpp:454] proposal_info <- gt_boxes
I1006 11:36:42.723347 18726 net.cpp:411] proposal_info -> rois
I1006 11:36:42.723354 18726 net.cpp:411] proposal_info -> proposal_labels
I1006 11:36:42.723361 18726 net.cpp:411] proposal_info -> proposal_targets
I1006 11:36:42.723367 18726 net.cpp:411] proposal_info -> box_inside_weights
I1006 11:36:42.723372 18726 net.cpp:411] proposal_info -> box_outside_weights
I1006 11:36:42.723378 18726 net.cpp:411] proposal_info -> match_gt_boxes
I1006 11:36:42.723508 18726 net.cpp:150] Setting up proposal_info
I1006 11:36:42.723516 18726 net.cpp:157] Top shape: 64 5 1 1 (320)
I1006 11:36:42.723520 18726 net.cpp:157] Top shape: 64 1 1 1 (64)
I1006 11:36:42.723523 18726 net.cpp:157] Top shape: 64 8 1 1 (512)
I1006 11:36:42.723526 18726 net.cpp:157] Top shape: 64 8 1 1 (512)
I1006 11:36:42.723529 18726 net.cpp:157] Top shape: 64 8 1 1 (512)
I1006 11:36:42.723533 18726 net.cpp:157] Top shape: 64 6 1 1 (384)
I1006 11:36:42.723536 18726 net.cpp:165] Memory required for data: 1719559052
I1006 11:36:42.723539 18726 layer_factory.hpp:76] Creating layer rois_proposal_info_0_split
I1006 11:36:42.723546 18726 net.cpp:106] Creating Layer rois_proposal_info_0_split
I1006 11:36:42.723548 18726 net.cpp:454] rois_proposal_info_0_split <- rois
I1006 11:36:42.723553 18726 net.cpp:411] rois_proposal_info_0_split -> rois_proposal_info_0_split_0
I1006 11:36:42.723558 18726 net.cpp:411] rois_proposal_info_0_split -> rois_proposal_info_0_split_1
I1006 11:36:42.723563 18726 net.cpp:411] rois_proposal_info_0_split -> rois_proposal_info_0_split_2
I1006 11:36:42.723628 18726 net.cpp:150] Setting up rois_proposal_info_0_split
I1006 11:36:42.723634 18726 net.cpp:157] Top shape: 64 5 1 1 (320)
I1006 11:36:42.723637 18726 net.cpp:157] Top shape: 64 5 1 1 (320)
I1006 11:36:42.723640 18726 net.cpp:157] Top shape: 64 5 1 1 (320)
I1006 11:36:42.723644 18726 net.cpp:165] Memory required for data: 1719562892
I1006 11:36:42.723645 18726 layer_factory.hpp:76] Creating layer proposal_labels_proposal_info_1_split
I1006 11:36:42.723650 18726 net.cpp:106] Creating Layer proposal_labels_proposal_info_1_split
I1006 11:36:42.723654 18726 net.cpp:454] proposal_labels_proposal_info_1_split <- proposal_labels
I1006 11:36:42.723659 18726 net.cpp:411] proposal_labels_proposal_info_1_split -> proposal_labels_proposal_info_1_split_0
I1006 11:36:42.723665 18726 net.cpp:411] proposal_labels_proposal_info_1_split -> proposal_labels_proposal_info_1_split_1
I1006 11:36:42.723711 18726 net.cpp:150] Setting up proposal_labels_proposal_info_1_split
I1006 11:36:42.723716 18726 net.cpp:157] Top shape: 64 1 1 1 (64)
I1006 11:36:42.723718 18726 net.cpp:157] Top shape: 64 1 1 1 (64)
I1006 11:36:42.723722 18726 net.cpp:165] Memory required for data: 1719563404
I1006 11:36:42.723724 18726 layer_factory.hpp:76] Creating layer roi_pool_org
I1006 11:36:42.723731 18726 net.cpp:106] Creating Layer roi_pool_org
I1006 11:36:42.723734 18726 net.cpp:454] roi_pool_org <- conv4_3_relu4_3_0_split_2
I1006 11:36:42.723738 18726 net.cpp:454] roi_pool_org <- rois_proposal_info_0_split_0
I1006 11:36:42.723743 18726 net.cpp:411] roi_pool_org -> roi_pool_org
I1006 11:36:42.723750 18726 roi_pooling_layer.cpp:35] Spatial scale: 0.125
I1006 11:36:42.723800 18726 net.cpp:150] Setting up roi_pool_org
I1006 11:36:42.723808 18726 net.cpp:157] Top shape: 64 512 8 4 (1048576)
I1006 11:36:42.723810 18726 net.cpp:165] Memory required for data: 1723757708
I1006 11:36:42.723814 18726 layer_factory.hpp:76] Creating layer roi_pool_ctx
I1006 11:36:42.723817 18726 net.cpp:106] Creating Layer roi_pool_ctx
I1006 11:36:42.723820 18726 net.cpp:454] roi_pool_ctx <- conv4_3_relu4_3_0_split_3
I1006 11:36:42.723825 18726 net.cpp:454] roi_pool_ctx <- rois_proposal_info_0_split_1
I1006 11:36:42.723829 18726 net.cpp:411] roi_pool_ctx -> roi_pool_ctx
I1006 11:36:42.723834 18726 roi_pooling_layer.cpp:35] Spatial scale: 0.125
I1006 11:36:42.723883 18726 net.cpp:150] Setting up roi_pool_ctx
I1006 11:36:42.723888 18726 net.cpp:157] Top shape: 64 512 8 4 (1048576)
I1006 11:36:42.723891 18726 net.cpp:165] Memory required for data: 1727952012
I1006 11:36:42.723894 18726 layer_factory.hpp:76] Creating layer roi_pool
I1006 11:36:42.723899 18726 net.cpp:106] Creating Layer roi_pool
I1006 11:36:42.723902 18726 net.cpp:454] roi_pool <- roi_pool_org
I1006 11:36:42.723906 18726 net.cpp:454] roi_pool <- roi_pool_ctx
I1006 11:36:42.723912 18726 net.cpp:411] roi_pool -> roi_pool
I1006 11:36:42.723942 18726 net.cpp:150] Setting up roi_pool
I1006 11:36:42.723947 18726 net.cpp:157] Top shape: 64 1024 8 4 (2097152)
I1006 11:36:42.723949 18726 net.cpp:165] Memory required for data: 1736340620
I1006 11:36:42.723951 18726 layer_factory.hpp:76] Creating layer roi_c1
I1006 11:36:42.723961 18726 net.cpp:106] Creating Layer roi_c1
I1006 11:36:42.723964 18726 net.cpp:454] roi_c1 <- roi_pool
I1006 11:36:42.723969 18726 net.cpp:411] roi_c1 -> roi_c1
I1006 11:36:42.948849 18726 net.cpp:150] Setting up roi_c1
I1006 11:36:42.948902 18726 net.cpp:157] Top shape: 64 512 8 4 (1048576)
I1006 11:36:42.948909 18726 net.cpp:165] Memory required for data: 1740534924
I1006 11:36:42.948943 18726 layer_factory.hpp:76] Creating layer roi_c1_relu
I1006 11:36:42.948971 18726 net.cpp:106] Creating Layer roi_c1_relu
I1006 11:36:42.949018 18726 net.cpp:454] roi_c1_relu <- roi_c1
I1006 11:36:42.949043 18726 net.cpp:397] roi_c1_relu -> roi_c1 (in-place)
I1006 11:36:42.949439 18726 net.cpp:150] Setting up roi_c1_relu
I1006 11:36:42.949455 18726 net.cpp:157] Top shape: 64 512 8 4 (1048576)
I1006 11:36:42.949458 18726 net.cpp:165] Memory required for data: 1744729228
I1006 11:36:42.949462 18726 layer_factory.hpp:76] Creating layer fc6
I1006 11:36:42.949486 18726 net.cpp:106] Creating Layer fc6
I1006 11:36:42.949491 18726 net.cpp:454] fc6 <- roi_c1
I1006 11:36:42.949517 18726 net.cpp:411] fc6 -> fc6
I1006 11:36:44.022377 18726 net.cpp:150] Setting up fc6
I1006 11:36:44.022414 18726 net.cpp:157] Top shape: 64 2048 (131072)
I1006 11:36:44.022418 18726 net.cpp:165] Memory required for data: 1745253516
I1006 11:36:44.022426 18726 layer_factory.hpp:76] Creating layer relu6
I1006 11:36:44.022436 18726 net.cpp:106] Creating Layer relu6
I1006 11:36:44.022442 18726 net.cpp:454] relu6 <- fc6
I1006 11:36:44.022449 18726 net.cpp:397] relu6 -> fc6 (in-place)
I1006 11:36:44.022692 18726 net.cpp:150] Setting up relu6
I1006 11:36:44.022702 18726 net.cpp:157] Top shape: 64 2048 (131072)
I1006 11:36:44.022704 18726 net.cpp:165] Memory required for data: 1745777804
I1006 11:36:44.022707 18726 layer_factory.hpp:76] Creating layer drop6
I1006 11:36:44.022717 18726 net.cpp:106] Creating Layer drop6
I1006 11:36:44.022721 18726 net.cpp:454] drop6 <- fc6
I1006 11:36:44.022724 18726 net.cpp:397] drop6 -> fc6 (in-place)
I1006 11:36:44.022758 18726 net.cpp:150] Setting up drop6
I1006 11:36:44.022764 18726 net.cpp:157] Top shape: 64 2048 (131072)
I1006 11:36:44.022766 18726 net.cpp:165] Memory required for data: 1746302092
I1006 11:36:44.022769 18726 layer_factory.hpp:76] Creating layer fc6_drop6_0_split
I1006 11:36:44.022775 18726 net.cpp:106] Creating Layer fc6_drop6_0_split
I1006 11:36:44.022778 18726 net.cpp:454] fc6_drop6_0_split <- fc6
I1006 11:36:44.022783 18726 net.cpp:411] fc6_drop6_0_split -> fc6_drop6_0_split_0
I1006 11:36:44.022789 18726 net.cpp:411] fc6_drop6_0_split -> fc6_drop6_0_split_1
I1006 11:36:44.022841 18726 net.cpp:150] Setting up fc6_drop6_0_split
I1006 11:36:44.022847 18726 net.cpp:157] Top shape: 64 2048 (131072)
I1006 11:36:44.022850 18726 net.cpp:157] Top shape: 64 2048 (131072)
I1006 11:36:44.022852 18726 net.cpp:165] Memory required for data: 1747350668
I1006 11:36:44.022860 18726 layer_factory.hpp:76] Creating layer cls_pred
I1006 11:36:44.022868 18726 net.cpp:106] Creating Layer cls_pred
I1006 11:36:44.022872 18726 net.cpp:454] cls_pred <- fc6_drop6_0_split_0
I1006 11:36:44.022896 18726 net.cpp:411] cls_pred -> cls_pred
I1006 11:36:44.023142 18726 net.cpp:150] Setting up cls_pred
I1006 11:36:44.023151 18726 net.cpp:157] Top shape: 64 2 (128)
I1006 11:36:44.023154 18726 net.cpp:165] Memory required for data: 1747351180
I1006 11:36:44.023159 18726 layer_factory.hpp:76] Creating layer cls_pred_cls_pred_0_split
I1006 11:36:44.023162 18726 net.cpp:106] Creating Layer cls_pred_cls_pred_0_split
I1006 11:36:44.023164 18726 net.cpp:454] cls_pred_cls_pred_0_split <- cls_pred
I1006 11:36:44.023170 18726 net.cpp:411] cls_pred_cls_pred_0_split -> cls_pred_cls_pred_0_split_0
I1006 11:36:44.023175 18726 net.cpp:411] cls_pred_cls_pred_0_split -> cls_pred_cls_pred_0_split_1
I1006 11:36:44.023222 18726 net.cpp:150] Setting up cls_pred_cls_pred_0_split
I1006 11:36:44.023229 18726 net.cpp:157] Top shape: 64 2 (128)
I1006 11:36:44.023231 18726 net.cpp:157] Top shape: 64 2 (128)
I1006 11:36:44.023234 18726 net.cpp:165] Memory required for data: 1747352204
I1006 11:36:44.023236 18726 layer_factory.hpp:76] Creating layer bbox_pred
I1006 11:36:44.023241 18726 net.cpp:106] Creating Layer bbox_pred
I1006 11:36:44.023244 18726 net.cpp:454] bbox_pred <- fc6_drop6_0_split_1
I1006 11:36:44.023250 18726 net.cpp:411] bbox_pred -> bbox_pred
I1006 11:36:44.024433 18726 net.cpp:150] Setting up bbox_pred
I1006 11:36:44.024444 18726 net.cpp:157] Top shape: 64 8 (512)
I1006 11:36:44.024447 18726 net.cpp:165] Memory required for data: 1747354252
I1006 11:36:44.024452 18726 layer_factory.hpp:76] Creating layer bbox_pred_bbox_pred_0_split
I1006 11:36:44.024458 18726 net.cpp:106] Creating Layer bbox_pred_bbox_pred_0_split
I1006 11:36:44.024462 18726 net.cpp:454] bbox_pred_bbox_pred_0_split <- bbox_pred
I1006 11:36:44.024467 18726 net.cpp:411] bbox_pred_bbox_pred_0_split -> bbox_pred_bbox_pred_0_split_0
I1006 11:36:44.024613 18726 net.cpp:411] bbox_pred_bbox_pred_0_split -> bbox_pred_bbox_pred_0_split_1
I1006 11:36:44.024663 18726 net.cpp:150] Setting up bbox_pred_bbox_pred_0_split
I1006 11:36:44.024677 18726 net.cpp:157] Top shape: 64 8 (512)
I1006 11:36:44.024680 18726 net.cpp:157] Top shape: 64 8 (512)
I1006 11:36:44.024682 18726 net.cpp:165] Memory required for data: 1747358348
I1006 11:36:44.024684 18726 layer_factory.hpp:76] Creating layer loss_cls
I1006 11:36:44.024690 18726 net.cpp:106] Creating Layer loss_cls
I1006 11:36:44.024693 18726 net.cpp:454] loss_cls <- cls_pred_cls_pred_0_split_0
I1006 11:36:44.024698 18726 net.cpp:454] loss_cls <- proposal_labels_proposal_info_1_split_0
…
