…
    downsample_rate: 32
    downsample_rate: 32
    downsample_rate: 64
    coord_num: 4
    field_h: 60
    field_h: 84
    field_h: 120
    field_h: 168
    field_h: 240
    field_h: 336
    field_h: 480
    field_w: 30
    field_w: 42
    field_w: 60
    field_w: 84
    field_w: 120
    field_w: 168
    field_w: 240
    fg_threshold: 0.5
    resize_width: 960
    resize_height: 720
    crop_width: 576
    crop_height: 576
    do_multiple_scale: true
    min_scale: 40
    max_scale: 340
    min_gt_height: 65
    shuffle: true
    output_gt_boxes: true
  }
}
layer {
  name: "conv1_1"
  type: "Convolution"
  bottom: "data"
  top: "conv1_1"
  param {
    lr_mult: 0
    decay_mult: 0
  }
  param {
    lr_mult: 0
    decay_mult: 0
  }
  convolution_param {
    num_output: 64
    pad: 1
    kernel_size: 3
  }
}
layer {
  name: "relu1_1"
  type: "ReLU"
  bottom: "conv1_1"
  top: "conv1_1"
}
layer {
  name: "conv1_2"
  type: "Convolution"
  bottom: "conv1_1"
  top: "conv1_2"
  param {
    lr_mult: 0
    decay_mult: 0
  }
  param {
    lr_mult: 0
    decay_mult: 0
  }
  convolution_param {
    num_output: 64
    pad: 1
    kernel_size: 3
  }
}
layer {
  name: "relu1_2"
  type: "ReLU"
  bottom: "conv1_2"
  top: "conv1_2"
}
layer {
  name: "pool1"
  type: "Pooling"
  bottom: "conv1_2"
  top: "pool1"
  pooling_param {
    pool: MAX
    kernel_size: 2
    stride: 2
  }
}
layer {
  name: "conv2_1"
  type: "Convolution"
  bottom: "pool1"
  top: "conv2_1"
  param {
    lr_mult: 0
    decay_mult: 0
  }
  param {
    lr_mult: 0
    decay_mult: 0
  }
  convolution_param {
    num_output: 128
    pad: 1
    kernel_size: 3
  }
}
layer {
  name: "relu2_1"
  type: "ReLU"
  bottom: "conv2_1"
  top: "conv2_1"
}
layer {
  name: "conv2_2"
  type: "Convolution"
  bottom: "conv2_1"
  top: "conv2_2"
  param {
    lr_mult: 0
    decay_mult: 0
  }
  param {
    lr_mult: 0
    decay_mult: 0
  }
  convolution_param {
    num_output: 128
    pad: 1
    kernel_size: 3
  }
}
layer {
  name: "relu2_2"
  type: "ReLU"
  bottom: "conv2_2"
  top: "conv2_2"
}
layer {
  name: "pool2"
  type: "Pooling"
  bottom: "conv2_2"
  top: "pool2"
  pooling_param {
    pool: MAX
    kernel_size: 2
    stride: 2
  }
}
layer {
  name: "conv3_1"
  type: "Convolution"
  bottom: "pool2"
  top: "conv3_1"
  convolution_param {
    num_output: 256
    pad: 1
    kernel_size: 3
  }
}
layer {
  name: "relu3_1"
  type: "ReLU"
  bottom: "conv3_1"
  top: "conv3_1"
}
layer {
  name: "conv3_2"
  type: "Convolution"
  bottom: "conv3_1"
  top: "conv3_2"
  convolution_param {
    num_output: 256
    pad: 1
    kernel_size: 3
  }
}
layer {
  name: "relu3_2"
  type: "ReLU"
  bottom: "conv3_2"
  top: "conv3_2"
}
layer {
  name: "conv3_3"
  type: "Convolution"
  bottom: "conv3_2"
  top: "conv3_3"
  convolution_param {
    num_output: 256
    pad: 1
    kernel_size: 3
  }
}
layer {
  name: "relu3_3"
  type: "ReLU"
  bottom: "conv3_3"
  top: "conv3_3"
}
layer {
  name: "pool3"
  type: "Pooling"
  bottom: "conv3_3"
  top: "pool3"
  pooling_param {
    pool: MAX
    kernel_size: 2
    stride: 2
  }
}
layer {
  name: "conv4_1"
  type: "Convolution"
  bottom: "pool3"
  top: "conv4_1"
  convolution_param {
    num_output: 512
    pad: 1
    kernel_size: 3
  }
}
layer {
  name: "relu4_1"
  type: "ReLU"
  bottom: "conv4_1"
  top: "conv4_1"
}
layer {
  name: "conv4_2"
  type: "Convolution"
  bottom: "conv4_1"
  top: "conv4_2"
  convolution_param {
    num_output: 512
    pad: 1
    kernel_size: 3
  }
}
layer {
  name: "relu4_2"
  type: "ReLU"
  bottom: "conv4_2"
  top: "conv4_2"
}
layer {
  name: "conv4_3"
  type: "Convolution"
  bottom: "conv4_2"
  top: "conv4_3"
  convolution_param {
    num_output: 512
    pad: 1
    kernel_size: 3
  }
}
layer {
  name: "relu4_3"
  type: "ReLU"
  bottom: "conv4_3"
  top: "conv4_3"
}
layer {
  name: "loss1_conv1"
  type: "Convolution"
  bottom: "conv4_3"
  top: "loss1_conv1"
  param {
    lr_mult: 1
    decay_mult: 1
  }
  param {
    lr_mult: 2
    decay_mult: 0
  }
  convolution_param {
    num_output: 512
    pad: 1
    kernel_size: 3
    weight_filler {
      type: "gaussian"
      std: 0.01
    }
    bias_filler {
      type: "constant"
    }
  }
}
layer {
  name: "loss_relu1"
  type: "ReLU"
  bottom: "loss1_conv1"
  top: "loss1_conv1"
}
layer {
  name: "LFCN_1_3x5"
  type: "Convolution"
  bottom: "loss1_conv1"
  top: "LFCN_1_3x5"
  param {
    lr_mult: 1
    decay_mult: 1
  }
  param {
    lr_mult: 2
    decay_mult: 0
  }
  convolution_param {
    num_output: 6
    weight_filler {
      type: "gaussian"
      std: 0.001
    }
    bias_filler {
      type: "constant"
    }
    pad_h: 2
    pad_w: 1
    kernel_h: 5
    kernel_w: 3
  }
}
layer {
  name: "detection_loss_1_3x5"
  type: "Detection"
  bottom: "LFCN_1_3x5"
  bottom: "label_1_3x5"
  top: "loss_1_3x5"
  loss_weight: 0.9
  detection_param {
    cls_num: 2
    coord_num: 4
    lambda: 1
    field_h: 60
    field_w: 30
    downsample_rate: 8
    bb_smooth: true
    field_whr: 2
    field_xyr: 2
    bg_threshold: 0.2
    bg_multiple: 2
    sample_mode: "bootstrap"
    pos_neg_weighted: true
  }
}
layer {
  name: "detection_accuracy_1_3x5"
  type: "DetectionAccuracy"
  bottom: "LFCN_1_3x5"
  bottom: "label_1_3x5"
  top: "accuracy_1_3x5"
  top: "boxiou_1_3x5"
  detection_accuracy_param {
    cls_num: 2
    coord_num: 4
    field_h: 60
    field_w: 30
    downsample_rate: 8
    field_whr: 2
    field_xyr: 2
  }
}
layer {
  name: "LFCN_1_5x7"
  type: "Convolution"
  bottom: "loss1_conv1"
  top: "LFCN_1_5x7"
  param {
    lr_mult: 1
    decay_mult: 1
  }
  param {
    lr_mult: 2
    decay_mult: 0
  }
  convolution_param {
    num_output: 6
    weight_filler {
      type: "gaussian"
      std: 0.001
    }
    bias_filler {
      type: "constant"
    }
    pad_h: 3
    pad_w: 2
    kernel_h: 7
    kernel_w: 5
  }
}
layer {
  name: "detection_loss_1_5x7"
  type: "Detection"
  bottom: "LFCN_1_5x7"
  bottom: "label_1_5x7"
  top: "loss_1_5x7"
  loss_weight: 0.9
  detection_param {
    cls_num: 2
    coord_num: 4
    lambda: 1
    field_h: 84
    field_w: 42
    downsample_rate: 8
    bb_smooth: true
    field_whr: 2
    field_xyr: 2
    bg_threshold: 0.2
    bg_multiple: 2
    sample_mode: "bootstrap"
    pos_neg_weighted: true
  }
}
layer {
  name: "detection_accuracy_1_5x7"
  type: "DetectionAccuracy"
  bottom: "LFCN_1_5x7"
  bottom: "label_1_5x7"
  top: "accuracy_1_5x7"
  top: "boxiou_1_5x7"
  detection_accuracy_param {
    cls_num: 2
    coord_num: 4
    field_h: 84
    field_w: 42
    downsample_rate: 8
    field_whr: 2
    field_xyr: 2
  }
}
layer {
  name: "pool4"
  type: "Pooling"
  bottom: "conv4_3"
  top: "pool4"
  pooling_param {
    pool: MAX
    kernel_size: 2
    stride: 2
  }
}
layer {
  name: "conv5_1"
  type: "Convolution"
  bottom: "pool4"
  top: "conv5_1"
  convolution_param {
    num_output: 512
    pad: 1
    kernel_size: 3
  }
}
layer {
  name: "relu5_1"
  type: "ReLU"
  bottom: "conv5_1"
  top: "conv5_1"
}
layer {
  name: "conv5_2"
  type: "Convolution"
  bottom: "conv5_1"
  top: "conv5_2"
  convolution_param {
    num_output: 512
    pad: 1
    kernel_size: 3
  }
}
layer {
  name: "relu5_2"
  type: "ReLU"
  bottom: "conv5_2"
  top: "conv5_2"
}
layer {
  name: "conv5_3"
  type: "Convolution"
  bottom: "conv5_2"
  top: "conv5_3"
  convolution_param {
    num_output: 512
    pad: 1
    kernel_size: 3
  }
}
layer {
  name: "relu5_3"
  type: "ReLU"
  bottom: "conv5_3"
  top: "conv5_3"
}
layer {
  name: "LFCN_2_3x5"
  type: "Convolution"
  bottom: "conv5_3"
  top: "LFCN_2_3x5"
  param {
    lr_mult: 1
    decay_mult: 1
  }
  param {
    lr_mult: 2
    decay_mult: 0
  }
  convolution_param {
    num_output: 6
    weight_filler {
      type: "gaussian"
      std: 0.001
    }
    bias_filler {
      type: "constant"
    }
    pad_h: 2
    pad_w: 1
    kernel_h: 5
    kernel_w: 3
  }
}
layer {
  name: "detection_loss_2_3x5"
  type: "Detection"
  bottom: "LFCN_2_3x5"
  bottom: "label_2_3x5"
  top: "loss_2_3x5"
  detection_param {
    cls_num: 2
    coord_num: 4
    lambda: 1
    field_h: 120
    field_w: 60
    downsample_rate: 16
    bb_smooth: true
    field_whr: 2
    field_xyr: 2
    bg_threshold: 0.2
    bg_multiple: 2
    sample_mode: "bootstrap"
    pos_neg_weighted: true
  }
}
layer {
  name: "detection_accuracy_2_3x5"
  type: "DetectionAccuracy"
  bottom: "LFCN_2_3x5"
  bottom: "label_2_3x5"
  top: "accuracy_2_3x5"
  top: "boxiou_2_3x5"
  detection_accuracy_param {
    cls_num: 2
    coord_num: 4
    field_h: 120
    field_w: 60
    downsample_rate: 16
    field_whr: 2
    field_xyr: 2
  }
}
layer {
  name: "LFCN_2_5x7"
  type: "Convolution"
  bottom: "conv5_3"
  top: "LFCN_2_5x7"
  param {
    lr_mult: 1
    decay_mult: 1
  }
  param {
    lr_mult: 2
    decay_mult: 0
  }
  convolution_param {
    num_output: 6
    weight_filler {
      type: "gaussian"
      std: 0.001
    }
    bias_filler {
      type: "constant"
    }
    pad_h: 3
    pad_w: 2
    kernel_h: 7
    kernel_w: 5
  }
}
layer {
  name: "detection_loss_2_5x7"
  type: "Detection"
  bottom: "LFCN_2_5x7"
  bottom: "label_2_5x7"
  top: "loss_2_5x7"
  detection_param {
    cls_num: 2
    coord_num: 4
    lambda: 1
    field_h: 168
    field_w: 84
    downsample_rate: 16
    bb_smooth: true
    field_whr: 2
    field_xyr: 2
    bg_threshold: 0.2
    bg_multiple: 2
    sample_mode: "bootstrap"
    pos_neg_weighted: true
  }
}
layer {
  name: "detection_accuracy_2_5x7"
  type: "DetectionAccuracy"
  bottom: "LFCN_2_5x7"
  bottom: "label_2_5x7"
  top: "accuracy_2_5x7"
  top: "boxiou_2_5x7"
  detection_accuracy_param {
    cls_num: 2
    coord_num: 4
    field_h: 168
    field_w: 84
    downsample_rate: 16
    field_whr: 2
    field_xyr: 2
  }
}
layer {
  name: "pool5"
  type: "Pooling"
  bottom: "conv5_3"
  top: "pool5"
  pooling_param {
    pool: MAX
    kernel_size: 2
    stride: 2
  }
}
layer {
  name: "conv6_1"
  type: "Convolution"
  bottom: "pool5"
  top: "conv6_1"
  param {
    lr_mult: 1
    decay_mult: 1
  }
  param {
    lr_mult: 2
    decay_mult: 0
  }
  convolution_param {
    num_output: 512
    pad: 1
    kernel_size: 3
    weight_filler {
      type: "gaussian"
      std: 0.01
    }
    bias_filler {
      type: "constant"
    }
  }
}
layer {
  name: "relu6_1"
  type: "ReLU"
  bottom: "conv6_1"
  top: "conv6_1"
}
layer {
  name: "LFCN_3_3x5"
  type: "Convolution"
  bottom: "conv6_1"
  top: "LFCN_3_3x5"
  param {
    lr_mult: 1
    decay_mult: 1
  }
  param {
    lr_mult: 2
    decay_mult: 0
  }
  convolution_param {
    num_output: 6
    weight_filler {
      type: "gaussian"
      std: 0.001
    }
    bias_filler {
      type: "constant"
    }
    pad_h: 2
    pad_w: 1
    kernel_h: 5
    kernel_w: 3
  }
}
layer {
  name: "detection_loss_3_3x5"
  type: "Detection"
  bottom: "LFCN_3_3x5"
  bottom: "label_3_3x5"
  top: "loss_3_3x5"
  detection_param {
    cls_num: 2
    coord_num: 4
    lambda: 1
    field_h: 240
    field_w: 120
    downsample_rate: 32
    bb_smooth: true
    field_whr: 2
    field_xyr: 2
    bg_threshold: 0.2
    bg_multiple: 2
    sample_mode: "bootstrap"
    pos_neg_weighted: true
  }
}
layer {
  name: "detection_accuracy_3_3x5"
  type: "DetectionAccuracy"
  bottom: "LFCN_3_3x5"
  bottom: "label_3_3x5"
  top: "accuracy_3_3x5"
  top: "boxiou_3_3x5"
  detection_accuracy_param {
    cls_num: 2
    coord_num: 4
    field_h: 240
    field_w: 120
    downsample_rate: 32
    field_whr: 2
    field_xyr: 2
  }
}
layer {
  name: "LFCN_3_5x7"
  type: "Convolution"
  bottom: "conv6_1"
  top: "LFCN_3_5x7"
  param {
    lr_mult: 1
    decay_mult: 1
  }
  param {
    lr_mult: 2
    decay_mult: 0
  }
  convolution_param {
    num_output: 6
    weight_filler {
      type: "gaussian"
      std: 0.001
    }
    bias_filler {
      type: "constant"
    }
    pad_h: 3
    pad_w: 2
    kernel_h: 7
    kernel_w: 5
  }
}
layer {
  name: "detection_loss_3_5x7"
  type: "Detection"
  bottom: "LFCN_3_5x7"
  bottom: "label_3_5x7"
  top: "loss_3_5x7"
  detection_param {
    cls_num: 2
    coord_num: 4
    lambda: 1
    field_h: 336
    field_w: 168
    downsample_rate: 32
    bb_smooth: true
    field_whr: 2
    field_xyr: 2
    bg_threshold: 0.2
    bg_multiple: 2
    sample_mode: "bootstrap"
    pos_neg_weighted: true
  }
}
layer {
  name: "detection_accuracy_3_5x7"
  type: "DetectionAccuracy"
  bottom: "LFCN_3_5x7"
  bottom: "label_3_5x7"
  top: "accuracy_3_5x7"
  top: "boxiou_3_5x7"
  detection_accuracy_param {
    cls_num: 2
    coord_num: 4
    field_h: 336
    field_w: 168
    downsample_rate: 32
    field_whr: 2
    field_xyr: 2
  }
}
layer {
  name: "pool6"
  type: "Pooling"
  bottom: "conv6_1"
  top: "pool6"
  pooling_param {
    pool: MAX
    kernel_size: 2
    stride: 2
  }
}
layer {
  name: "LFCN_4_3x5"
  type: "Convolution"
  bottom: "pool6"
  top: "LFCN_4_3x5"
  param {
    lr_mult: 1
    decay_mult: 1
  }
  param {
    lr_mult: 2
    decay_mult: 0
  }
  convolution_param {
    num_output: 6
    weight_filler {
      type: "gaussian"
      std: 0.001
    }
    bias_filler {
      type: "constant"
    }
    pad_h: 2
    pad_w: 1
    kernel_h: 5
    kernel_w: 3
  }
}
layer {
  name: "detection_loss_4_3x5"
  type: "Detection"
  bottom: "LFCN_4_3x5"
  bottom: "label_4_3x5"
  top: "loss_4_3x5"
  detection_param {
    cls_num: 2
    coord_num: 4
    lambda: 1
    field_h: 480
    field_w: 240
    downsample_rate: 64
    bb_smooth: true
    field_whr: 2
    field_xyr: 2
    bg_threshold: 0.2
    bg_multiple: 2
    sample_mode: "bootstrap"
    pos_neg_weighted: true
  }
}
layer {
  name: "detection_accuracy_4_3x5"
  type: "DetectionAccuracy"
  bottom: "LFCN_4_3x5"
  bottom: "label_4_3x5"
  top: "accuracy_4_3x5"
  top: "boxiou_4_3x5"
  detection_accuracy_param {
    cls_num: 2
    coord_num: 4
    field_h: 480
    field_w: 240
    downsample_rate: 64
    field_whr: 2
    field_xyr: 2
  }
}
layer {
  name: "proposals"
  type: "BoxOutput"
  bottom: "LFCN_1_3x5"
  bottom: "LFCN_1_5x7"
  bottom: "LFCN_2_3x5"
  bottom: "LFCN_2_5x7"
  bottom: "LFCN_3_3x5"
  bottom: "LFCN_3_5x7"
  bottom: "LFCN_4_3x5"
  top: "proposals"
  propagate_down: false
  propagate_down: false
  propagate_down: false
  propagate_down: false
  propagate_down: false
  propagate_down: false
  propagate_down: false
  box_output_param {
    fg_thr: -10
    iou_thr: 0.65
    nms_type: "IOU"
    field_h: 60
    field_h: 84
    field_h: 120
    field_h: 168
    field_h: 240
    field_h: 336
    field_h: 480
    field_w: 30
    field_w: 42
    field_w: 60
    field_w: 84
    field_w: 120
    field_w: 168
    field_w: 240
    downsample_rate: 8
    downsample_rate: 8
    downsample_rate: 16
    downsample_rate: 16
    downsample_rate: 32
    downsample_rate: 32
    downsample_rate: 64
    field_whr: 2
    field_xyr: 2
    max_nms_num: 3000
  }
}
layer {
  name: "proposal_info"
  type: "ProposalTarget"
  bottom: "proposals"
  bottom: "gt_boxes"
  top: "rois"
  top: "proposal_labels"
  top: "proposal_targets"
  top: "box_inside_weights"
  top: "box_outside_weights"
  top: "match_gt_boxes"
  include {
    phase: TRAIN
  }
  propagate_down: false
  propagate_down: false
  proposal_target_param {
    cls_num: 2
    batch_size: 128
    fg_fraction: 0.25
    num_img_per_batch: 4
    fg_thr: 0.45
    bg_thr_hg: 0.44
    bg_thr_lw: 0.05
    img_width: 576
    img_height: 576
    bbox_mean: 0
    bbox_mean: 0
    bbox_mean: 0
    bbox_mean: 0
    bbox_std: 0.1
    bbox_std: 0.1
    bbox_std: 0.2
    bbox_std: 0.2
  }
}
layer {
  name: "roi_pool_org"
  type: "ROIPooling"
  bottom: "conv4_3"
  bottom: "rois"
  top: "roi_pool_org"
  roi_pooling_param {
    pooled_h: 8
    pooled_w: 4
    spatial_scale: 0.125
    pad_ratio: 0
  }
}
layer {
  name: "roi_pool_ctx"
  type: "ROIPooling"
  bottom: "conv4_3"
  bottom: "rois"
  top: "roi_pool_ctx"
  roi_pooling_param {
    pooled_h: 8
    pooled_w: 4
    spatial_scale: 0.125
    pad_ratio: 0.25
  }
}
layer {
  name: "roi_pool"
  type: "Concat"
  bottom: "roi_pool_org"
  bottom: "roi_pool_ctx"
  top: "roi_pool"
}
layer {
  name: "roi_c1"
  type: "Convolution"
  bottom: "roi_pool"
  top: "roi_c1"
  param {
    lr_mult: 1
    decay_mult: 1
  }
  param {
    lr_mult: 2
    decay_mult: 0
  }
  convolution_param {
    num_output: 512
    pad: 1
    kernel_size: 3
    weight_filler {
      type: "gaussian"
      std: 0.01
    }
    bias_filler {
      type: "constant"
    }
  }
}
layer {
  name: "roi_c1_relu"
  type: "ReLU"
  bottom: "roi_c1"
  top: "roi_c1"
}
layer {
  name: "fc6"
  type: "InnerProduct"
  bottom: "roi_c1"
  top: "fc6"
  param {
    lr_mult: 1
  }
  param {
    lr_mult: 2
  }
  inner_product_param {
    num_output: 2048
    weight_filler {
      type: "gaussian"
      std: 0.001
    }
    bias_filler {
      type: "constant"
      value: 0
    }
  }
}
layer {
  name: "relu6"
  type: "ReLU"
  bottom: "fc6"
  top: "fc6"
}
layer {
  name: "drop6"
  type: "Dropout"
  bottom: "fc6"
  top: "fc6"
  dropout_param {
    dropout_ratio: 0.5
  }
}
layer {
  name: "cls_pred"
  type: "InnerProduct"
  bottom: "fc6"
  top: "cls_pred"
  param {
    lr_mult: 1
  }
  param {
    lr_mult: 2
  }
  inner_product_param {
    num_output: 2
    weight_filler {
      type: "gaussian"
      std: 0.01
    }
    bias_filler {
      type: "constant"
      value: 0
    }
  }
}
layer {
  name: "bbox_pred"
  type: "InnerProduct"
  bottom: "fc6"
  top: "bbox_pred"
  param {
    lr_mult: 1
  }
  param {
    lr_mult: 2
  }
  inner_product_param {
    num_output: 8
    weight_filler {
      type: "gaussian"
      std: 0.001
    }
    bias_filler {
      type: "constant"
      value: 0
    }
  }
}
layer {
  name: "loss_cls"
  type: "SoftmaxWithLoss"
  bottom: "cls_pred"
  bottom: "proposal_labels"
  top: "loss_cls"
  loss_weight: 1
  propagate_down: true
  propagate_down: false
}
layer {
  name: "cls_accuracy"
  type: "Accuracy"
  bottom: "cls_pred"
  bottom: "proposal_labels"
  top: "cls_accuracy"
}
layer {
  name: "loss_bbox"
  type: "SmoothL1Loss"
  bottom: "bbox_pred"
  bottom: "proposal_targets"
  bottom: "box_inside_weights"
  bottom: "box_outside_weights"
  top: "loss_bbox"
  loss_weight: 1
}
layer {
  name: "bbox_iou"
  type: "BboxAccuracy"
  bottom: "bbox_pred"
  bottom: "rois"
  bottom: "match_gt_boxes"
  top: "bbox_iou"
  top: "bbox_iou_pre"
  bbox_accuracy_param {
    bbox_mean: 0
    bbox_mean: 0
    bbox_mean: 0
    bbox_mean: 0
    bbox_std: 0.1
    bbox_std: 0.1
    bbox_std: 0.2
    bbox_std: 0.2
  }
}
I1012 12:15:19.020853 19362 layer_factory.hpp:76] Creating layer data
I1012 12:15:19.020906 19362 net.cpp:106] Creating Layer data
I1012 12:15:19.020915 19362 net.cpp:411] data -> data
…
I1012 12:15:19.222996 19362 image_gt_data_layer.cpp:234] output label size 2 : 4,6,36,36
I1012 12:15:19.223058 19362 image_gt_data_layer.cpp:234] output label size 3 : 4,6,36,36
I1012 12:15:19.223124 19362 image_gt_data_layer.cpp:234] output label size 4 : 4,6,18,18
I1012 12:15:19.223186 19362 image_gt_data_layer.cpp:234] output label size 5 : 4,6,18,18
I1012 12:15:19.223233 19362 image_gt_data_layer.cpp:234] output label size 6 : 4,6,9,9
I1012 12:15:19.223278 19362 image_gt_data_layer.cpp:249] output gt boxes size: 1,7,1,1
I1012 12:15:19.256880 19362 net.cpp:150] Setting up data
I1012 12:15:19.256911 19362 net.cpp:157] Top shape: 4 3 576 576 (3981312)
I1012 12:15:19.256916 19362 net.cpp:157] Top shape: 4 6 72 72 (124416)
I1012 12:15:19.256922 19362 net.cpp:157] Top shape: 4 6 72 72 (124416)
I1012 12:15:19.256924 19362 net.cpp:157] Top shape: 4 6 36 36 (31104)
I1012 12:15:19.256928 19362 net.cpp:157] Top shape: 4 6 36 36 (31104)
I1012 12:15:19.256932 19362 net.cpp:157] Top shape: 4 6 18 18 (7776)
I1012 12:15:19.256935 19362 net.cpp:157] Top shape: 4 6 18 18 (7776)
I1012 12:15:19.256939 19362 net.cpp:157] Top shape: 4 6 9 9 (1944)
I1012 12:15:19.256944 19362 net.cpp:157] Top shape: 1 7 1 1 (7)
I1012 12:15:19.256947 19362 net.cpp:165] Memory required for data: 17239420
I1012 12:15:19.256954 19362 layer_factory.hpp:76] Creating layer label_1_3x5_data_1_split
I1012 12:15:19.256975 19362 net.cpp:106] Creating Layer label_1_3x5_data_1_split
I1012 12:15:19.256983 19362 net.cpp:454] label_1_3x5_data_1_split <- label_1_3x5
I1012 12:15:19.256995 19362 net.cpp:411] label_1_3x5_data_1_split -> label_1_3x5_data_1_split_0
I1012 12:15:19.257004 19362 net.cpp:411] label_1_3x5_data_1_split -> label_1_3x5_data_1_split_1
I1012 12:15:19.257060 19362 net.cpp:150] Setting up label_1_3x5_data_1_split
I1012 12:15:19.257068 19362 net.cpp:157] Top shape: 4 6 72 72 (124416)
I1012 12:15:19.257074 19362 net.cpp:157] Top shape: 4 6 72 72 (124416)
I1012 12:15:19.257078 19362 net.cpp:165] Memory required for data: 18234748
I1012 12:15:19.257083 19362 layer_factory.hpp:76] Creating layer label_1_5x7_data_2_split
I1012 12:15:19.257091 19362 net.cpp:106] Creating Layer label_1_5x7_data_2_split
I1012 12:15:19.257097 19362 net.cpp:454] label_1_5x7_data_2_split <- label_1_5x7
I1012 12:15:19.257107 19362 net.cpp:411] label_1_5x7_data_2_split -> label_1_5x7_data_2_split_0
I1012 12:15:19.257117 19362 net.cpp:411] label_1_5x7_data_2_split -> label_1_5x7_data_2_split_1
I1012 12:15:19.257160 19362 net.cpp:150] Setting up label_1_5x7_data_2_split
I1012 12:15:19.257166 19362 net.cpp:157] Top shape: 4 6 72 72 (124416)
I1012 12:15:19.257170 19362 net.cpp:157] Top shape: 4 6 72 72 (124416)
I1012 12:15:19.257172 19362 net.cpp:165] Memory required for data: 19230076
I1012 12:15:19.257175 19362 layer_factory.hpp:76] Creating layer label_2_3x5_data_3_split
I1012 12:15:19.257182 19362 net.cpp:106] Creating Layer label_2_3x5_data_3_split
I1012 12:15:19.257186 19362 net.cpp:454] label_2_3x5_data_3_split <- label_2_3x5
I1012 12:15:19.257197 19362 net.cpp:411] label_2_3x5_data_3_split -> label_2_3x5_data_3_split_0
I1012 12:15:19.257205 19362 net.cpp:411] label_2_3x5_data_3_split -> label_2_3x5_data_3_split_1
I1012 12:15:19.257236 19362 net.cpp:150] Setting up label_2_3x5_data_3_split
I1012 12:15:19.257241 19362 net.cpp:157] Top shape: 4 6 36 36 (31104)
I1012 12:15:19.257243 19362 net.cpp:157] Top shape: 4 6 36 36 (31104)
I1012 12:15:19.257246 19362 net.cpp:165] Memory required for data: 19478908
I1012 12:15:19.257249 19362 layer_factory.hpp:76] Creating layer label_2_5x7_data_4_split
I1012 12:15:19.257254 19362 net.cpp:106] Creating Layer label_2_5x7_data_4_split
I1012 12:15:19.257257 19362 net.cpp:454] label_2_5x7_data_4_split <- label_2_5x7
I1012 12:15:19.257263 19362 net.cpp:411] label_2_5x7_data_4_split -> label_2_5x7_data_4_split_0
I1012 12:15:19.257268 19362 net.cpp:411] label_2_5x7_data_4_split -> label_2_5x7_data_4_split_1
I1012 12:15:19.257297 19362 net.cpp:150] Setting up label_2_5x7_data_4_split
I1012 12:15:19.257302 19362 net.cpp:157] Top shape: 4 6 36 36 (31104)
I1012 12:15:19.257305 19362 net.cpp:157] Top shape: 4 6 36 36 (31104)
I1012 12:15:19.257308 19362 net.cpp:165] Memory required for data: 19727740
I1012 12:15:19.257311 19362 layer_factory.hpp:76] Creating layer label_3_3x5_data_5_split
I1012 12:15:19.257318 19362 net.cpp:106] Creating Layer label_3_3x5_data_5_split
I1012 12:15:19.257323 19362 net.cpp:454] label_3_3x5_data_5_split <- label_3_3x5
I1012 12:15:19.257330 19362 net.cpp:411] label_3_3x5_data_5_split -> label_3_3x5_data_5_split_0
I1012 12:15:19.257340 19362 net.cpp:411] label_3_3x5_data_5_split -> label_3_3x5_data_5_split_1
I1012 12:15:19.257382 19362 net.cpp:150] Setting up label_3_3x5_data_5_split
I1012 12:15:19.257390 19362 net.cpp:157] Top shape: 4 6 18 18 (7776)
I1012 12:15:19.257396 19362 net.cpp:157] Top shape: 4 6 18 18 (7776)
I1012 12:15:19.257400 19362 net.cpp:165] Memory required for data: 19789948
I1012 12:15:19.257405 19362 layer_factory.hpp:76] Creating layer label_3_5x7_data_6_split
I1012 12:15:19.257411 19362 net.cpp:106] Creating Layer label_3_5x7_data_6_split
I1012 12:15:19.257423 19362 net.cpp:454] label_3_5x7_data_6_split <- label_3_5x7
I1012 12:15:19.257428 19362 net.cpp:411] label_3_5x7_data_6_split -> label_3_5x7_data_6_split_0
I1012 12:15:19.257433 19362 net.cpp:411] label_3_5x7_data_6_split -> label_3_5x7_data_6_split_1
I1012 12:15:19.257464 19362 net.cpp:150] Setting up label_3_5x7_data_6_split
I1012 12:15:19.257469 19362 net.cpp:157] Top shape: 4 6 18 18 (7776)
I1012 12:15:19.257475 19362 net.cpp:157] Top shape: 4 6 18 18 (7776)
I1012 12:15:19.257479 19362 net.cpp:165] Memory required for data: 19852156
I1012 12:15:19.257483 19362 layer_factory.hpp:76] Creating layer label_4_3x5_data_7_split
I1012 12:15:19.257490 19362 net.cpp:106] Creating Layer label_4_3x5_data_7_split
I1012 12:15:19.257495 19362 net.cpp:454] label_4_3x5_data_7_split <- label_4_3x5
I1012 12:15:19.257504 19362 net.cpp:411] label_4_3x5_data_7_split -> label_4_3x5_data_7_split_0
I1012 12:15:19.257514 19362 net.cpp:411] label_4_3x5_data_7_split -> label_4_3x5_data_7_split_1
I1012 12:15:19.257547 19362 net.cpp:150] Setting up label_4_3x5_data_7_split
I1012 12:15:19.257555 19362 net.cpp:157] Top shape: 4 6 9 9 (1944)
I1012 12:15:19.257560 19362 net.cpp:157] Top shape: 4 6 9 9 (1944)
I1012 12:15:19.257565 19362 net.cpp:165] Memory required for data: 19867708
I1012 12:15:19.257570 19362 layer_factory.hpp:76] Creating layer conv1_1
I1012 12:15:19.257578 19362 net.cpp:106] Creating Layer conv1_1
I1012 12:15:19.257582 19362 net.cpp:454] conv1_1 <- data
I1012 12:15:19.257587 19362 net.cpp:411] conv1_1 -> conv1_1
I1012 12:15:19.373240 19362 net.cpp:150] Setting up conv1_1
I1012 12:15:19.373281 19362 net.cpp:157] Top shape: 4 64 576 576 (84934656)
I1012 12:15:19.373284 19362 net.cpp:165] Memory required for data: 359606332
I1012 12:15:19.373304 19362 layer_factory.hpp:76] Creating layer relu1_1
I1012 12:15:19.373314 19362 net.cpp:106] Creating Layer relu1_1
I1012 12:15:19.373319 19362 net.cpp:454] relu1_1 <- conv1_1
I1012 12:15:19.373324 19362 net.cpp:397] relu1_1 -> conv1_1 (in-place)
I1012 12:15:19.373500 19362 net.cpp:150] Setting up relu1_1
I1012 12:15:19.373515 19362 net.cpp:157] Top shape: 4 64 576 576 (84934656)
I1012 12:15:19.373519 19362 net.cpp:165] Memory required for data: 699344956
I1012 12:15:19.373522 19362 layer_factory.hpp:76] Creating layer conv1_2
I1012 12:15:19.373533 19362 net.cpp:106] Creating Layer conv1_2
I1012 12:15:19.373535 19362 net.cpp:454] conv1_2 <- conv1_1
I1012 12:15:19.373545 19362 net.cpp:411] conv1_2 -> conv1_2
I1012 12:15:19.375488 19362 net.cpp:150] Setting up conv1_2
I1012 12:15:19.375501 19362 net.cpp:157] Top shape: 4 64 576 576 (84934656)
I1012 12:15:19.375505 19362 net.cpp:165] Memory required for data: 1039083580
I1012 12:15:19.375514 19362 layer_factory.hpp:76] Creating layer relu1_2
I1012 12:15:19.375520 19362 net.cpp:106] Creating Layer relu1_2
I1012 12:15:19.375524 19362 net.cpp:454] relu1_2 <- conv1_2
I1012 12:15:19.375529 19362 net.cpp:397] relu1_2 -> conv1_2 (in-place)
I1012 12:15:19.375912 19362 net.cpp:150] Setting up relu1_2
I1012 12:15:19.375926 19362 net.cpp:157] Top shape: 4 64 576 576 (84934656)
I1012 12:15:19.375928 19362 net.cpp:165] Memory required for data: 1378822204
I1012 12:15:19.375932 19362 layer_factory.hpp:76] Creating layer pool1
I1012 12:15:19.375938 19362 net.cpp:106] Creating Layer pool1
I1012 12:15:19.375942 19362 net.cpp:454] pool1 <- conv1_2
I1012 12:15:19.375949 19362 net.cpp:411] pool1 -> pool1
I1012 12:15:19.376174 19362 net.cpp:150] Setting up pool1
I1012 12:15:19.376188 19362 net.cpp:157] Top shape: 4 64 288 288 (21233664)
I1012 12:15:19.376191 19362 net.cpp:165] Memory required for data: 1463756860
I1012 12:15:19.376194 19362 layer_factory.hpp:76] Creating layer conv2_1
I1012 12:15:19.376201 19362 net.cpp:106] Creating Layer conv2_1
I1012 12:15:19.376205 19362 net.cpp:454] conv2_1 <- pool1
I1012 12:15:19.376211 19362 net.cpp:411] conv2_1 -> conv2_1
I1012 12:15:19.377882 19362 net.cpp:150] Setting up conv2_1
I1012 12:15:19.377897 19362 net.cpp:157] Top shape: 4 128 288 288 (42467328)
I1012 12:15:19.377899 19362 net.cpp:165] Memory required for data: 1633626172
I1012 12:15:19.377908 19362 layer_factory.hpp:76] Creating layer relu2_1
I1012 12:15:19.377917 19362 net.cpp:106] Creating Layer relu2_1
I1012 12:15:19.377920 19362 net.cpp:454] relu2_1 <- conv2_1
I1012 12:15:19.377925 19362 net.cpp:397] relu2_1 -> conv2_1 (in-place)
I1012 12:15:19.378250 19362 net.cpp:150] Setting up relu2_1
I1012 12:15:19.378263 19362 net.cpp:157] Top shape: 4 128 288 288 (42467328)
I1012 12:15:19.378267 19362 net.cpp:165] Memory required for data: 1803495484
I1012 12:15:19.378270 19362 layer_factory.hpp:76] Creating layer conv2_2
I1012 12:15:19.378279 19362 net.cpp:106] Creating Layer conv2_2
I1012 12:15:19.378283 19362 net.cpp:454] conv2_2 <- conv2_1
I1012 12:15:19.378289 19362 net.cpp:411] conv2_2 -> conv2_2
I1012 12:15:19.379910 19362 net.cpp:150] Setting up conv2_2
I1012 12:15:19.379926 19362 net.cpp:157] Top shape: 4 128 288 288 (42467328)
I1012 12:15:19.379930 19362 net.cpp:165] Memory required for data: 1973364796
I1012 12:15:19.379936 19362 layer_factory.hpp:76] Creating layer relu2_2
I1012 12:15:19.379945 19362 net.cpp:106] Creating Layer relu2_2
I1012 12:15:19.379950 19362 net.cpp:454] relu2_2 <- conv2_2
I1012 12:15:19.379954 19362 net.cpp:397] relu2_2 -> conv2_2 (in-place)
I1012 12:15:19.380317 19362 net.cpp:150] Setting up relu2_2
I1012 12:15:19.380331 19362 net.cpp:157] Top shape: 4 128 288 288 (42467328)
I1012 12:15:19.380334 19362 net.cpp:165] Memory required for data: 2143234108
I1012 12:15:19.380337 19362 layer_factory.hpp:76] Creating layer pool2
I1012 12:15:19.380344 19362 net.cpp:106] Creating Layer pool2
I1012 12:15:19.380347 19362 net.cpp:454] pool2 <- conv2_2
I1012 12:15:19.380354 19362 net.cpp:411] pool2 -> pool2
I1012 12:15:19.380594 19362 net.cpp:150] Setting up pool2
I1012 12:15:19.380607 19362 net.cpp:157] Top shape: 4 128 144 144 (10616832)
I1012 12:15:19.380610 19362 net.cpp:165] Memory required for data: 2185701436
I1012 12:15:19.380614 19362 layer_factory.hpp:76] Creating layer conv3_1
I1012 12:15:19.380620 19362 net.cpp:106] Creating Layer conv3_1
I1012 12:15:19.380625 19362 net.cpp:454] conv3_1 <- pool2
I1012 12:15:19.380631 19362 net.cpp:411] conv3_1 -> conv3_1
I1012 12:15:19.382555 19362 net.cpp:150] Setting up conv3_1
I1012 12:15:19.382570 19362 net.cpp:157] Top shape: 4 256 144 144 (21233664)
I1012 12:15:19.382575 19362 net.cpp:165] Memory required for data: 2270636092
I1012 12:15:19.382586 19362 layer_factory.hpp:76] Creating layer relu3_1
I1012 12:15:19.382592 19362 net.cpp:106] Creating Layer relu3_1
I1012 12:15:19.382596 19362 net.cpp:454] relu3_1 <- conv3_1
I1012 12:15:19.382602 19362 net.cpp:397] relu3_1 -> conv3_1 (in-place)
I1012 12:15:19.382954 19362 net.cpp:150] Setting up relu3_1
I1012 12:15:19.382967 19362 net.cpp:157] Top shape: 4 256 144 144 (21233664)
I1012 12:15:19.382972 19362 net.cpp:165] Memory required for data: 2355570748
I1012 12:15:19.382974 19362 layer_factory.hpp:76] Creating layer conv3_2
I1012 12:15:19.382983 19362 net.cpp:106] Creating Layer conv3_2
I1012 12:15:19.382987 19362 net.cpp:454] conv3_2 <- conv3_1
I1012 12:15:19.382992 19362 net.cpp:411] conv3_2 -> conv3_2
I1012 12:15:19.388593 19362 net.cpp:150] Setting up conv3_2
I1012 12:15:19.388608 19362 net.cpp:157] Top shape: 4 256 144 144 (21233664)
I1012 12:15:19.388612 19362 net.cpp:165] Memory required for data: 2440505404
I1012 12:15:19.388618 19362 layer_factory.hpp:76] Creating layer relu3_2
I1012 12:15:19.388624 19362 net.cpp:106] Creating Layer relu3_2
I1012 12:15:19.388628 19362 net.cpp:454] relu3_2 <- conv3_2
I1012 12:15:19.388633 19362 net.cpp:397] relu3_2 -> conv3_2 (in-place)
I1012 12:15:19.388844 19362 net.cpp:150] Setting up relu3_2
I1012 12:15:19.388861 19362 net.cpp:157] Top shape: 4 256 144 144 (21233664)
I1012 12:15:19.388866 19362 net.cpp:165] Memory required for data: 2525440060
I1012 12:15:19.388872 19362 layer_factory.hpp:76] Creating layer conv3_3
I1012 12:15:19.388885 19362 net.cpp:106] Creating Layer conv3_3
I1012 12:15:19.388890 19362 net.cpp:454] conv3_3 <- conv3_2
I1012 12:15:19.388900 19362 net.cpp:411] conv3_3 -> conv3_3
I1012 12:15:19.391839 19362 net.cpp:150] Setting up conv3_3
I1012 12:15:19.391857 19362 net.cpp:157] Top shape: 4 256 144 144 (21233664)
I1012 12:15:19.391863 19362 net.cpp:165] Memory required for data: 2610374716
I1012 12:15:19.391875 19362 layer_factory.hpp:76] Creating layer relu3_3
I1012 12:15:19.391885 19362 net.cpp:106] Creating Layer relu3_3
I1012 12:15:19.391892 19362 net.cpp:454] relu3_3 <- conv3_3
I1012 12:15:19.391904 19362 net.cpp:397] relu3_3 -> conv3_3 (in-place)
I1012 12:15:19.392107 19362 net.cpp:150] Setting up relu3_3
I1012 12:15:19.392124 19362 net.cpp:157] Top shape: 4 256 144 144 (21233664)
I1012 12:15:19.392129 19362 net.cpp:165] Memory required for data: 2695309372
I1012 12:15:19.392135 19362 layer_factory.hpp:76] Creating layer pool3
I1012 12:15:19.392144 19362 net.cpp:106] Creating Layer pool3
I1012 12:15:19.392151 19362 net.cpp:454] pool3 <- conv3_3
I1012 12:15:19.392159 19362 net.cpp:411] pool3 -> pool3
I1012 12:15:19.392544 19362 net.cpp:150] Setting up pool3
I1012 12:15:19.392560 19362 net.cpp:157] Top shape: 4 256 72 72 (5308416)
I1012 12:15:19.392565 19362 net.cpp:165] Memory required for data: 2716543036
I1012 12:15:19.392571 19362 layer_factory.hpp:76] Creating layer conv4_1
I1012 12:15:19.392585 19362 net.cpp:106] Creating Layer conv4_1
I1012 12:15:19.392591 19362 net.cpp:454] conv4_1 <- pool3
I1012 12:15:19.392602 19362 net.cpp:411] conv4_1 -> conv4_1
I1012 12:15:19.396942 19362 net.cpp:150] Setting up conv4_1
I1012 12:15:19.396960 19362 net.cpp:157] Top shape: 4 512 72 72 (10616832)
I1012 12:15:19.396965 19362 net.cpp:165] Memory required for data: 2759010364
I1012 12:15:19.396975 19362 layer_factory.hpp:76] Creating layer relu4_1
I1012 12:15:19.396986 19362 net.cpp:106] Creating Layer relu4_1
I1012 12:15:19.396992 19362 net.cpp:454] relu4_1 <- conv4_1
I1012 12:15:19.397002 19362 net.cpp:397] relu4_1 -> conv4_1 (in-place)
I1012 12:15:19.397210 19362 net.cpp:150] Setting up relu4_1
I1012 12:15:19.397228 19362 net.cpp:157] Top shape: 4 512 72 72 (10616832)
I1012 12:15:19.397233 19362 net.cpp:165] Memory required for data: 2801477692
I1012 12:15:19.397239 19362 layer_factory.hpp:76] Creating layer conv4_2
I1012 12:15:19.397248 19362 net.cpp:106] Creating Layer conv4_2
I1012 12:15:19.397254 19362 net.cpp:454] conv4_2 <- conv4_1
I1012 12:15:19.397266 19362 net.cpp:411] conv4_2 -> conv4_2
I1012 12:15:19.403481 19362 net.cpp:150] Setting up conv4_2
I1012 12:15:19.403501 19362 net.cpp:157] Top shape: 4 512 72 72 (10616832)
I1012 12:15:19.403506 19362 net.cpp:165] Memory required for data: 2843945020
I1012 12:15:19.403537 19362 layer_factory.hpp:76] Creating layer relu4_2
I1012 12:15:19.403549 19362 net.cpp:106] Creating Layer relu4_2
I1012 12:15:19.403558 19362 net.cpp:454] relu4_2 <- conv4_2
I1012 12:15:19.403566 19362 net.cpp:397] relu4_2 -> conv4_2 (in-place)
I1012 12:15:19.403929 19362 net.cpp:150] Setting up relu4_2
I1012 12:15:19.403944 19362 net.cpp:157] Top shape: 4 512 72 72 (10616832)
I1012 12:15:19.403949 19362 net.cpp:165] Memory required for data: 2886412348
I1012 12:15:19.403955 19362 layer_factory.hpp:76] Creating layer conv4_3
I1012 12:15:19.403969 19362 net.cpp:106] Creating Layer conv4_3
I1012 12:15:19.403975 19362 net.cpp:454] conv4_3 <- conv4_2
I1012 12:15:19.403985 19362 net.cpp:411] conv4_3 -> conv4_3
I1012 12:15:19.410117 19362 net.cpp:150] Setting up conv4_3
I1012 12:15:19.410141 19362 net.cpp:157] Top shape: 4 512 72 72 (10616832)
I1012 12:15:19.410146 19362 net.cpp:165] Memory required for data: 2928879676
I1012 12:15:19.410168 19362 layer_factory.hpp:76] Creating layer relu4_3
I1012 12:15:19.410178 19362 net.cpp:106] Creating Layer relu4_3
I1012 12:15:19.410186 19362 net.cpp:454] relu4_3 <- conv4_3
I1012 12:15:19.410194 19362 net.cpp:397] relu4_3 -> conv4_3 (in-place)
I1012 12:15:19.410548 19362 net.cpp:150] Setting up relu4_3
I1012 12:15:19.410565 19362 net.cpp:157] Top shape: 4 512 72 72 (10616832)
I1012 12:15:19.410570 19362 net.cpp:165] Memory required for data: 2971347004
I1012 12:15:19.410575 19362 layer_factory.hpp:76] Creating layer conv4_3_relu4_3_0_split
I1012 12:15:19.410585 19362 net.cpp:106] Creating Layer conv4_3_relu4_3_0_split
I1012 12:15:19.410590 19362 net.cpp:454] conv4_3_relu4_3_0_split <- conv4_3
I1012 12:15:19.410598 19362 net.cpp:411] conv4_3_relu4_3_0_split -> conv4_3_relu4_3_0_split_0
I1012 12:15:19.410611 19362 net.cpp:411] conv4_3_relu4_3_0_split -> conv4_3_relu4_3_0_split_1
I1012 12:15:19.410621 19362 net.cpp:411] conv4_3_relu4_3_0_split -> conv4_3_relu4_3_0_split_2
I1012 12:15:19.410630 19362 net.cpp:411] conv4_3_relu4_3_0_split -> conv4_3_relu4_3_0_split_3
I1012 12:15:19.410727 19362 net.cpp:150] Setting up conv4_3_relu4_3_0_split
I1012 12:15:19.410742 19362 net.cpp:157] Top shape: 4 512 72 72 (10616832)
I1012 12:15:19.410748 19362 net.cpp:157] Top shape: 4 512 72 72 (10616832)
I1012 12:15:19.410754 19362 net.cpp:157] Top shape: 4 512 72 72 (10616832)
I1012 12:15:19.410760 19362 net.cpp:157] Top shape: 4 512 72 72 (10616832)
I1012 12:15:19.410764 19362 net.cpp:165] Memory required for data: 3141216316
I1012 12:15:19.410769 19362 layer_factory.hpp:76] Creating layer loss1_conv1
I1012 12:15:19.410794 19362 net.cpp:106] Creating Layer loss1_conv1
I1012 12:15:19.410801 19362 net.cpp:454] loss1_conv1 <- conv4_3_relu4_3_0_split_0
I1012 12:15:19.410811 19362 net.cpp:411] loss1_conv1 -> loss1_conv1
I1012 12:15:19.492255 19362 net.cpp:150] Setting up loss1_conv1
I1012 12:15:19.492285 19362 net.cpp:157] Top shape: 4 512 72 72 (10616832)
I1012 12:15:19.492290 19362 net.cpp:165] Memory required for data: 3183683644
I1012 12:15:19.492301 19362 layer_factory.hpp:76] Creating layer loss_relu1
I1012 12:15:19.492314 19362 net.cpp:106] Creating Layer loss_relu1
I1012 12:15:19.492321 19362 net.cpp:454] loss_relu1 <- loss1_conv1
I1012 12:15:19.492333 19362 net.cpp:397] loss_relu1 -> loss1_conv1 (in-place)
I1012 12:15:19.492537 19362 net.cpp:150] Setting up loss_relu1
I1012 12:15:19.492550 19362 net.cpp:157] Top shape: 4 512 72 72 (10616832)
I1012 12:15:19.492557 19362 net.cpp:165] Memory required for data: 3226150972
I1012 12:15:19.492561 19362 layer_factory.hpp:76] Creating layer loss1_conv1_loss_relu1_0_split
I1012 12:15:19.492573 19362 net.cpp:106] Creating Layer loss1_conv1_loss_relu1_0_split
I1012 12:15:19.492578 19362 net.cpp:454] loss1_conv1_loss_relu1_0_split <- loss1_conv1
I1012 12:15:19.492586 19362 net.cpp:411] loss1_conv1_loss_relu1_0_split -> loss1_conv1_loss_relu1_0_split_0
I1012 12:15:19.492597 19362 net.cpp:411] loss1_conv1_loss_relu1_0_split -> loss1_conv1_loss_relu1_0_split_1
I1012 12:15:19.492660 19362 net.cpp:150] Setting up loss1_conv1_loss_relu1_0_split
I1012 12:15:19.492671 19362 net.cpp:157] Top shape: 4 512 72 72 (10616832)
I1012 12:15:19.492677 19362 net.cpp:157] Top shape: 4 512 72 72 (10616832)
I1012 12:15:19.492681 19362 net.cpp:165] Memory required for data: 3311085628
I1012 12:15:19.492686 19362 layer_factory.hpp:76] Creating layer LFCN_1_3x5
I1012 12:15:19.492702 19362 net.cpp:106] Creating Layer LFCN_1_3x5
I1012 12:15:19.492707 19362 net.cpp:454] LFCN_1_3x5 <- loss1_conv1_loss_relu1_0_split_0
I1012 12:15:19.492718 19362 net.cpp:411] LFCN_1_3x5 -> LFCN_1_3x5
I1012 12:15:19.495501 19362 net.cpp:150] Setting up LFCN_1_3x5
I1012 12:15:19.495517 19362 net.cpp:157] Top shape: 4 6 72 72 (124416)
I1012 12:15:19.495522 19362 net.cpp:165] Memory required for data: 3311583292
I1012 12:15:19.495532 19362 layer_factory.hpp:76] Creating layer LFCN_1_3x5_LFCN_1_3x5_0_split
I1012 12:15:19.495544 19362 net.cpp:106] Creating Layer LFCN_1_3x5_LFCN_1_3x5_0_split
I1012 12:15:19.495551 19362 net.cpp:454] LFCN_1_3x5_LFCN_1_3x5_0_split <- LFCN_1_3x5
I1012 12:15:19.495560 19362 net.cpp:411] LFCN_1_3x5_LFCN_1_3x5_0_split -> LFCN_1_3x5_LFCN_1_3x5_0_split_0
I1012 12:15:19.495569 19362 net.cpp:411] LFCN_1_3x5_LFCN_1_3x5_0_split -> LFCN_1_3x5_LFCN_1_3x5_0_split_1
I1012 12:15:19.495581 19362 net.cpp:411] LFCN_1_3x5_LFCN_1_3x5_0_split -> LFCN_1_3x5_LFCN_1_3x5_0_split_2
I1012 12:15:19.495657 19362 net.cpp:150] Setting up LFCN_1_3x5_LFCN_1_3x5_0_split
I1012 12:15:19.495669 19362 net.cpp:157] Top shape: 4 6 72 72 (124416)
I1012 12:15:19.495676 19362 net.cpp:157] Top shape: 4 6 72 72 (124416)
I1012 12:15:19.495682 19362 net.cpp:157] Top shape: 4 6 72 72 (124416)
I1012 12:15:19.495687 19362 net.cpp:165] Memory required for data: 3313076284
I1012 12:15:19.495692 19362 layer_factory.hpp:76] Creating layer detection_loss_1_3x5
I1012 12:15:19.495704 19362 net.cpp:106] Creating Layer detection_loss_1_3x5
I1012 12:15:19.495710 19362 net.cpp:454] detection_loss_1_3x5 <- LFCN_1_3x5_LFCN_1_3x5_0_split_0
I1012 12:15:19.495718 19362 net.cpp:454] detection_loss_1_3x5 <- label_1_3x5_data_1_split_0
I1012 12:15:19.495728 19362 net.cpp:411] detection_loss_1_3x5 -> loss_1_3x5
I1012 12:15:19.495745 19362 layer_factory.hpp:76] Creating layer detection_loss_1_3x5
I1012 12:15:19.496297 19362 net.cpp:150] Setting up detection_loss_1_3x5
I1012 12:15:19.496311 19362 net.cpp:157] Top shape: 1 1 1 2 (2)
I1012 12:15:19.496316 19362 net.cpp:160]     with loss weight 0.9
I1012 12:15:19.496340 19362 net.cpp:165] Memory required for data: 3313076292
I1012 12:15:19.496347 19362 layer_factory.hpp:76] Creating layer detection_accuracy_1_3x5
I1012 12:15:19.496357 19362 net.cpp:106] Creating Layer detection_accuracy_1_3x5
I1012 12:15:19.496364 19362 net.cpp:454] detection_accuracy_1_3x5 <- LFCN_1_3x5_LFCN_1_3x5_0_split_1
I1012 12:15:19.496371 19362 net.cpp:454] detection_accuracy_1_3x5 <- label_1_3x5_data_1_split_1
I1012 12:15:19.496381 19362 net.cpp:411] detection_accuracy_1_3x5 -> accuracy_1_3x5
I1012 12:15:19.496397 19362 net.cpp:411] detection_accuracy_1_3x5 -> boxiou_1_3x5
I1012 12:15:19.496462 19362 net.cpp:150] Setting up detection_accuracy_1_3x5
I1012 12:15:19.496479 19362 net.cpp:157] Top shape: 1 1 1 2 (2)
I1012 12:15:19.496484 19362 net.cpp:157] Top shape: 1 1 1 1 (1)
I1012 12:15:19.496489 19362 net.cpp:165] Memory required for data: 3313076304
I1012 12:15:19.496495 19362 layer_factory.hpp:76] Creating layer LFCN_1_5x7
I1012 12:15:19.496507 19362 net.cpp:106] Creating Layer LFCN_1_5x7
I1012 12:15:19.496515 19362 net.cpp:454] LFCN_1_5x7 <- loss1_conv1_loss_relu1_0_split_1
I1012 12:15:19.496526 19362 net.cpp:411] LFCN_1_5x7 -> LFCN_1_5x7
I1012 12:15:19.501638 19362 net.cpp:150] Setting up LFCN_1_5x7
I1012 12:15:19.501655 19362 net.cpp:157] Top shape: 4 6 72 72 (124416)
I1012 12:15:19.501660 19362 net.cpp:165] Memory required for data: 3313573968
I1012 12:15:19.501672 19362 layer_factory.hpp:76] Creating layer LFCN_1_5x7_LFCN_1_5x7_0_split
I1012 12:15:19.501683 19362 net.cpp:106] Creating Layer LFCN_1_5x7_LFCN_1_5x7_0_split
I1012 12:15:19.501689 19362 net.cpp:454] LFCN_1_5x7_LFCN_1_5x7_0_split <- LFCN_1_5x7
I1012 12:15:19.501698 19362 net.cpp:411] LFCN_1_5x7_LFCN_1_5x7_0_split -> LFCN_1_5x7_LFCN_1_5x7_0_split_0
I1012 12:15:19.501709 19362 net.cpp:411] LFCN_1_5x7_LFCN_1_5x7_0_split -> LFCN_1_5x7_LFCN_1_5x7_0_split_1
I1012 12:15:19.501719 19362 net.cpp:411] LFCN_1_5x7_LFCN_1_5x7_0_split -> LFCN_1_5x7_LFCN_1_5x7_0_split_2
I1012 12:15:19.501793 19362 net.cpp:150] Setting up LFCN_1_5x7_LFCN_1_5x7_0_split
I1012 12:15:19.501806 19362 net.cpp:157] Top shape: 4 6 72 72 (124416)
I1012 12:15:19.501812 19362 net.cpp:157] Top shape: 4 6 72 72 (124416)
I1012 12:15:19.501817 19362 net.cpp:157] Top shape: 4 6 72 72 (124416)
I1012 12:15:19.501822 19362 net.cpp:165] Memory required for data: 3315066960
I1012 12:15:19.501827 19362 layer_factory.hpp:76] Creating layer detection_loss_1_5x7
I1012 12:15:19.501837 19362 net.cpp:106] Creating Layer detection_loss_1_5x7
I1012 12:15:19.501843 19362 net.cpp:454] detection_loss_1_5x7 <- LFCN_1_5x7_LFCN_1_5x7_0_split_0
I1012 12:15:19.501853 19362 net.cpp:454] detection_loss_1_5x7 <- label_1_5x7_data_2_split_0
I1012 12:15:19.501863 19362 net.cpp:411] detection_loss_1_5x7 -> loss_1_5x7
I1012 12:15:19.501875 19362 layer_factory.hpp:76] Creating layer detection_loss_1_5x7
I1012 12:15:19.502432 19362 net.cpp:150] Setting up detection_loss_1_5x7
I1012 12:15:19.502449 19362 net.cpp:157] Top shape: 1 1 1 2 (2)
I1012 12:15:19.502454 19362 net.cpp:160]     with loss weight 0.9
I1012 12:15:19.502465 19362 net.cpp:165] Memory required for data: 3315066968
I1012 12:15:19.502471 19362 layer_factory.hpp:76] Creating layer detection_accuracy_1_5x7
I1012 12:15:19.502481 19362 net.cpp:106] Creating Layer detection_accuracy_1_5x7
I1012 12:15:19.502488 19362 net.cpp:454] detection_accuracy_1_5x7 <- LFCN_1_5x7_LFCN_1_5x7_0_split_1
I1012 12:15:19.502496 19362 net.cpp:454] detection_accuracy_1_5x7 <- label_1_5x7_data_2_split_1
I1012 12:15:19.502506 19362 net.cpp:411] detection_accuracy_1_5x7 -> accuracy_1_5x7
I1012 12:15:19.502517 19362 net.cpp:411] detection_accuracy_1_5x7 -> boxiou_1_5x7
I1012 12:15:19.502586 19362 net.cpp:150] Setting up detection_accuracy_1_5x7
I1012 12:15:19.502604 19362 net.cpp:157] Top shape: 1 1 1 2 (2)
I1012 12:15:19.502610 19362 net.cpp:157] Top shape: 1 1 1 1 (1)
I1012 12:15:19.502615 19362 net.cpp:165] Memory required for data: 3315066980
I1012 12:15:19.502621 19362 layer_factory.hpp:76] Creating layer pool4
I1012 12:15:19.502635 19362 net.cpp:106] Creating Layer pool4
I1012 12:15:19.502642 19362 net.cpp:454] pool4 <- conv4_3_relu4_3_0_split_1
I1012 12:15:19.502650 19362 net.cpp:411] pool4 -> pool4
I1012 12:15:19.504360 19362 net.cpp:150] Setting up pool4
I1012 12:15:19.504375 19362 net.cpp:157] Top shape: 4 512 36 36 (2654208)
I1012 12:15:19.504379 19362 net.cpp:165] Memory required for data: 3325683812
I1012 12:15:19.504382 19362 layer_factory.hpp:76] Creating layer conv5_1
I1012 12:15:19.504391 19362 net.cpp:106] Creating Layer conv5_1
I1012 12:15:19.504395 19362 net.cpp:454] conv5_1 <- pool4
I1012 12:15:19.504402 19362 net.cpp:411] conv5_1 -> conv5_1
I1012 12:15:19.510668 19362 net.cpp:150] Setting up conv5_1
I1012 12:15:19.510684 19362 net.cpp:157] Top shape: 4 512 36 36 (2654208)
I1012 12:15:19.510687 19362 net.cpp:165] Memory required for data: 3336300644
I1012 12:15:19.510694 19362 layer_factory.hpp:76] Creating layer relu5_1
I1012 12:15:19.510704 19362 net.cpp:106] Creating Layer relu5_1
I1012 12:15:19.510709 19362 net.cpp:454] relu5_1 <- conv5_1
I1012 12:15:19.510713 19362 net.cpp:397] relu5_1 -> conv5_1 (in-place)
I1012 12:15:19.511080 19362 net.cpp:150] Setting up relu5_1
I1012 12:15:19.511096 19362 net.cpp:157] Top shape: 4 512 36 36 (2654208)
I1012 12:15:19.511098 19362 net.cpp:165] Memory required for data: 3346917476
I1012 12:15:19.511102 19362 layer_factory.hpp:76] Creating layer conv5_2
I1012 12:15:19.511111 19362 net.cpp:106] Creating Layer conv5_2
I1012 12:15:19.511116 19362 net.cpp:454] conv5_2 <- conv5_1
I1012 12:15:19.511122 19362 net.cpp:411] conv5_2 -> conv5_2
I1012 12:15:19.517619 19362 net.cpp:150] Setting up conv5_2
I1012 12:15:19.517637 19362 net.cpp:157] Top shape: 4 512 36 36 (2654208)
I1012 12:15:19.517642 19362 net.cpp:165] Memory required for data: 3357534308
I1012 12:15:19.517648 19362 layer_factory.hpp:76] Creating layer relu5_2
I1012 12:15:19.517657 19362 net.cpp:106] Creating Layer relu5_2
I1012 12:15:19.517662 19362 net.cpp:454] relu5_2 <- conv5_2
I1012 12:15:19.517666 19362 net.cpp:397] relu5_2 -> conv5_2 (in-place)
I1012 12:15:19.517863 19362 net.cpp:150] Setting up relu5_2
I1012 12:15:19.517877 19362 net.cpp:157] Top shape: 4 512 36 36 (2654208)
I1012 12:15:19.517882 19362 net.cpp:165] Memory required for data: 3368151140
I1012 12:15:19.517889 19362 layer_factory.hpp:76] Creating layer conv5_3
I1012 12:15:19.517901 19362 net.cpp:106] Creating Layer conv5_3
I1012 12:15:19.517909 19362 net.cpp:454] conv5_3 <- conv5_2
I1012 12:15:19.517915 19362 net.cpp:411] conv5_3 -> conv5_3
I1012 12:15:19.524575 19362 net.cpp:150] Setting up conv5_3
I1012 12:15:19.524592 19362 net.cpp:157] Top shape: 4 512 36 36 (2654208)
I1012 12:15:19.524595 19362 net.cpp:165] Memory required for data: 3378767972
I1012 12:15:19.524605 19362 layer_factory.hpp:76] Creating layer relu5_3
I1012 12:15:19.524613 19362 net.cpp:106] Creating Layer relu5_3
I1012 12:15:19.524618 19362 net.cpp:454] relu5_3 <- conv5_3
I1012 12:15:19.524623 19362 net.cpp:397] relu5_3 -> conv5_3 (in-place)
I1012 12:15:19.524984 19362 net.cpp:150] Setting up relu5_3
I1012 12:15:19.525001 19362 net.cpp:157] Top shape: 4 512 36 36 (2654208)
I1012 12:15:19.525003 19362 net.cpp:165] Memory required for data: 3389384804
I1012 12:15:19.525007 19362 layer_factory.hpp:76] Creating layer conv5_3_relu5_3_0_split
I1012 12:15:19.525014 19362 net.cpp:106] Creating Layer conv5_3_relu5_3_0_split
I1012 12:15:19.525018 19362 net.cpp:454] conv5_3_relu5_3_0_split <- conv5_3
I1012 12:15:19.525023 19362 net.cpp:411] conv5_3_relu5_3_0_split -> conv5_3_relu5_3_0_split_0
I1012 12:15:19.525032 19362 net.cpp:411] conv5_3_relu5_3_0_split -> conv5_3_relu5_3_0_split_1
I1012 12:15:19.525037 19362 net.cpp:411] conv5_3_relu5_3_0_split -> conv5_3_relu5_3_0_split_2
I1012 12:15:19.525108 19362 net.cpp:150] Setting up conv5_3_relu5_3_0_split
I1012 12:15:19.525123 19362 net.cpp:157] Top shape: 4 512 36 36 (2654208)
I1012 12:15:19.525130 19362 net.cpp:157] Top shape: 4 512 36 36 (2654208)
I1012 12:15:19.525133 19362 net.cpp:157] Top shape: 4 512 36 36 (2654208)
I1012 12:15:19.525135 19362 net.cpp:165] Memory required for data: 3421235300
I1012 12:15:19.525140 19362 layer_factory.hpp:76] Creating layer LFCN_2_3x5
I1012 12:15:19.525152 19362 net.cpp:106] Creating Layer LFCN_2_3x5
I1012 12:15:19.525159 19362 net.cpp:454] LFCN_2_3x5 <- conv5_3_relu5_3_0_split_0
I1012 12:15:19.525172 19362 net.cpp:411] LFCN_2_3x5 -> LFCN_2_3x5
I1012 12:15:19.527878 19362 net.cpp:150] Setting up LFCN_2_3x5
I1012 12:15:19.527894 19362 net.cpp:157] Top shape: 4 6 36 36 (31104)
I1012 12:15:19.527897 19362 net.cpp:165] Memory required for data: 3421359716
I1012 12:15:19.527912 19362 layer_factory.hpp:76] Creating layer LFCN_2_3x5_LFCN_2_3x5_0_split
I1012 12:15:19.527920 19362 net.cpp:106] Creating Layer LFCN_2_3x5_LFCN_2_3x5_0_split
I1012 12:15:19.527923 19362 net.cpp:454] LFCN_2_3x5_LFCN_2_3x5_0_split <- LFCN_2_3x5
I1012 12:15:19.527931 19362 net.cpp:411] LFCN_2_3x5_LFCN_2_3x5_0_split -> LFCN_2_3x5_LFCN_2_3x5_0_split_0
I1012 12:15:19.527940 19362 net.cpp:411] LFCN_2_3x5_LFCN_2_3x5_0_split -> LFCN_2_3x5_LFCN_2_3x5_0_split_1
I1012 12:15:19.527945 19362 net.cpp:411] LFCN_2_3x5_LFCN_2_3x5_0_split -> LFCN_2_3x5_LFCN_2_3x5_0_split_2
I1012 12:15:19.528004 19362 net.cpp:150] Setting up LFCN_2_3x5_LFCN_2_3x5_0_split
I1012 12:15:19.528023 19362 net.cpp:157] Top shape: 4 6 36 36 (31104)
I1012 12:15:19.528029 19362 net.cpp:157] Top shape: 4 6 36 36 (31104)
I1012 12:15:19.528035 19362 net.cpp:157] Top shape: 4 6 36 36 (31104)
I1012 12:15:19.528040 19362 net.cpp:165] Memory required for data: 3421732964
I1012 12:15:19.528045 19362 layer_factory.hpp:76] Creating layer detection_loss_2_3x5
I1012 12:15:19.528059 19362 net.cpp:106] Creating Layer detection_loss_2_3x5
I1012 12:15:19.528065 19362 net.cpp:454] detection_loss_2_3x5 <- LFCN_2_3x5_LFCN_2_3x5_0_split_0
I1012 12:15:19.528074 19362 net.cpp:454] detection_loss_2_3x5 <- label_2_3x5_data_3_split_0
I1012 12:15:19.528084 19362 net.cpp:411] detection_loss_2_3x5 -> loss_2_3x5
I1012 12:15:19.528095 19362 layer_factory.hpp:76] Creating layer detection_loss_2_3x5
I1012 12:15:19.528687 19362 net.cpp:150] Setting up detection_loss_2_3x5
I1012 12:15:19.528700 19362 net.cpp:157] Top shape: 1 1 1 2 (2)
I1012 12:15:19.528704 19362 net.cpp:160]     with loss weight 1
I1012 12:15:19.528717 19362 net.cpp:165] Memory required for data: 3421732972
I1012 12:15:19.528720 19362 layer_factory.hpp:76] Creating layer detection_accuracy_2_3x5
I1012 12:15:19.528729 19362 net.cpp:106] Creating Layer detection_accuracy_2_3x5
I1012 12:15:19.528734 19362 net.cpp:454] detection_accuracy_2_3x5 <- LFCN_2_3x5_LFCN_2_3x5_0_split_1
I1012 12:15:19.528739 19362 net.cpp:454] detection_accuracy_2_3x5 <- label_2_3x5_data_3_split_1
I1012 12:15:19.528745 19362 net.cpp:411] detection_accuracy_2_3x5 -> accuracy_2_3x5
I1012 12:15:19.528753 19362 net.cpp:411] detection_accuracy_2_3x5 -> boxiou_2_3x5
I1012 12:15:19.528802 19362 net.cpp:150] Setting up detection_accuracy_2_3x5
I1012 12:15:19.528813 19362 net.cpp:157] Top shape: 1 1 1 2 (2)
I1012 12:15:19.528820 19362 net.cpp:157] Top shape: 1 1 1 1 (1)
I1012 12:15:19.528825 19362 net.cpp:165] Memory required for data: 3421732984
I1012 12:15:19.528830 19362 layer_factory.hpp:76] Creating layer LFCN_2_5x7
I1012 12:15:19.528843 19362 net.cpp:106] Creating Layer LFCN_2_5x7
I1012 12:15:19.528851 19362 net.cpp:454] LFCN_2_5x7 <- conv5_3_relu5_3_0_split_1
I1012 12:15:19.528863 19362 net.cpp:411] LFCN_2_5x7 -> LFCN_2_5x7
I1012 12:15:19.533870 19362 net.cpp:150] Setting up LFCN_2_5x7
I1012 12:15:19.533885 19362 net.cpp:157] Top shape: 4 6 36 36 (31104)
I1012 12:15:19.533890 19362 net.cpp:165] Memory required for data: 3421857400
I1012 12:15:19.533896 19362 layer_factory.hpp:76] Creating layer LFCN_2_5x7_LFCN_2_5x7_0_split
I1012 12:15:19.533902 19362 net.cpp:106] Creating Layer LFCN_2_5x7_LFCN_2_5x7_0_split
I1012 12:15:19.533906 19362 net.cpp:454] LFCN_2_5x7_LFCN_2_5x7_0_split <- LFCN_2_5x7
I1012 12:15:19.533915 19362 net.cpp:411] LFCN_2_5x7_LFCN_2_5x7_0_split -> LFCN_2_5x7_LFCN_2_5x7_0_split_0
I1012 12:15:19.533923 19362 net.cpp:411] LFCN_2_5x7_LFCN_2_5x7_0_split -> LFCN_2_5x7_LFCN_2_5x7_0_split_1
I1012 12:15:19.533929 19362 net.cpp:411] LFCN_2_5x7_LFCN_2_5x7_0_split -> LFCN_2_5x7_LFCN_2_5x7_0_split_2
I1012 12:15:19.533996 19362 net.cpp:150] Setting up LFCN_2_5x7_LFCN_2_5x7_0_split
I1012 12:15:19.534010 19362 net.cpp:157] Top shape: 4 6 36 36 (31104)
I1012 12:15:19.534018 19362 net.cpp:157] Top shape: 4 6 36 36 (31104)
I1012 12:15:19.534024 19362 net.cpp:157] Top shape: 4 6 36 36 (31104)
I1012 12:15:19.534029 19362 net.cpp:165] Memory required for data: 3422230648
I1012 12:15:19.534035 19362 layer_factory.hpp:76] Creating layer detection_loss_2_5x7
I1012 12:15:19.534044 19362 net.cpp:106] Creating Layer detection_loss_2_5x7
I1012 12:15:19.534049 19362 net.cpp:454] detection_loss_2_5x7 <- LFCN_2_5x7_LFCN_2_5x7_0_split_0
I1012 12:15:19.534054 19362 net.cpp:454] detection_loss_2_5x7 <- label_2_5x7_data_4_split_0
I1012 12:15:19.534061 19362 net.cpp:411] detection_loss_2_5x7 -> loss_2_5x7
I1012 12:15:19.534070 19362 layer_factory.hpp:76] Creating layer detection_loss_2_5x7
I1012 12:15:19.534488 19362 net.cpp:150] Setting up detection_loss_2_5x7
I1012 12:15:19.534502 19362 net.cpp:157] Top shape: 1 1 1 2 (2)
I1012 12:15:19.534504 19362 net.cpp:160]     with loss weight 1
I1012 12:15:19.534510 19362 net.cpp:165] Memory required for data: 3422230656
I1012 12:15:19.534514 19362 layer_factory.hpp:76] Creating layer detection_accuracy_2_5x7
I1012 12:15:19.534523 19362 net.cpp:106] Creating Layer detection_accuracy_2_5x7
I1012 12:15:19.534528 19362 net.cpp:454] detection_accuracy_2_5x7 <- LFCN_2_5x7_LFCN_2_5x7_0_split_1
I1012 12:15:19.534533 19362 net.cpp:454] detection_accuracy_2_5x7 <- label_2_5x7_data_4_split_1
I1012 12:15:19.534540 19362 net.cpp:411] detection_accuracy_2_5x7 -> accuracy_2_5x7
I1012 12:15:19.534548 19362 net.cpp:411] detection_accuracy_2_5x7 -> boxiou_2_5x7
I1012 12:15:19.534601 19362 net.cpp:150] Setting up detection_accuracy_2_5x7
I1012 12:15:19.534616 19362 net.cpp:157] Top shape: 1 1 1 2 (2)
I1012 12:15:19.534623 19362 net.cpp:157] Top shape: 1 1 1 1 (1)
I1012 12:15:19.534628 19362 net.cpp:165] Memory required for data: 3422230668
I1012 12:15:19.534633 19362 layer_factory.hpp:76] Creating layer pool5
I1012 12:15:19.534643 19362 net.cpp:106] Creating Layer pool5
I1012 12:15:19.534647 19362 net.cpp:454] pool5 <- conv5_3_relu5_3_0_split_2
I1012 12:15:19.534652 19362 net.cpp:411] pool5 -> pool5
I1012 12:15:19.535070 19362 net.cpp:150] Setting up pool5
I1012 12:15:19.535085 19362 net.cpp:157] Top shape: 4 512 18 18 (663552)
I1012 12:15:19.535089 19362 net.cpp:165] Memory required for data: 3424884876
I1012 12:15:19.535094 19362 layer_factory.hpp:76] Creating layer conv6_1
I1012 12:15:19.535104 19362 net.cpp:106] Creating Layer conv6_1
I1012 12:15:19.535109 19362 net.cpp:454] conv6_1 <- pool5
I1012 12:15:19.535115 19362 net.cpp:411] conv6_1 -> conv6_1
I1012 12:15:19.623018 19362 net.cpp:150] Setting up conv6_1
I1012 12:15:19.623035 19362 net.cpp:157] Top shape: 4 512 18 18 (663552)
I1012 12:15:19.623039 19362 net.cpp:165] Memory required for data: 3427539084
I1012 12:15:19.623046 19362 layer_factory.hpp:76] Creating layer relu6_1
I1012 12:15:19.623052 19362 net.cpp:106] Creating Layer relu6_1
I1012 12:15:19.623057 19362 net.cpp:454] relu6_1 <- conv6_1
I1012 12:15:19.623065 19362 net.cpp:397] relu6_1 -> conv6_1 (in-place)
I1012 12:15:19.623481 19362 net.cpp:150] Setting up relu6_1
I1012 12:15:19.623494 19362 net.cpp:157] Top shape: 4 512 18 18 (663552)
I1012 12:15:19.623497 19362 net.cpp:165] Memory required for data: 3430193292
I1012 12:15:19.623502 19362 layer_factory.hpp:76] Creating layer conv6_1_relu6_1_0_split
I1012 12:15:19.623509 19362 net.cpp:106] Creating Layer conv6_1_relu6_1_0_split
I1012 12:15:19.623513 19362 net.cpp:454] conv6_1_relu6_1_0_split <- conv6_1
I1012 12:15:19.623519 19362 net.cpp:411] conv6_1_relu6_1_0_split -> conv6_1_relu6_1_0_split_0
I1012 12:15:19.623527 19362 net.cpp:411] conv6_1_relu6_1_0_split -> conv6_1_relu6_1_0_split_1
I1012 12:15:19.623533 19362 net.cpp:411] conv6_1_relu6_1_0_split -> conv6_1_relu6_1_0_split_2
I1012 12:15:19.623605 19362 net.cpp:150] Setting up conv6_1_relu6_1_0_split
I1012 12:15:19.623620 19362 net.cpp:157] Top shape: 4 512 18 18 (663552)
I1012 12:15:19.623626 19362 net.cpp:157] Top shape: 4 512 18 18 (663552)
I1012 12:15:19.623633 19362 net.cpp:157] Top shape: 4 512 18 18 (663552)
I1012 12:15:19.623638 19362 net.cpp:165] Memory required for data: 3438155916
I1012 12:15:19.623644 19362 layer_factory.hpp:76] Creating layer LFCN_3_3x5
I1012 12:15:19.623657 19362 net.cpp:106] Creating Layer LFCN_3_3x5
I1012 12:15:19.623661 19362 net.cpp:454] LFCN_3_3x5 <- conv6_1_relu6_1_0_split_0
I1012 12:15:19.623670 19362 net.cpp:411] LFCN_3_3x5 -> LFCN_3_3x5
I1012 12:15:19.627100 19362 net.cpp:150] Setting up LFCN_3_3x5
I1012 12:15:19.627115 19362 net.cpp:157] Top shape: 4 6 18 18 (7776)
I1012 12:15:19.627120 19362 net.cpp:165] Memory required for data: 3438187020
I1012 12:15:19.627126 19362 layer_factory.hpp:76] Creating layer LFCN_3_3x5_LFCN_3_3x5_0_split
I1012 12:15:19.627142 19362 net.cpp:106] Creating Layer LFCN_3_3x5_LFCN_3_3x5_0_split
I1012 12:15:19.627146 19362 net.cpp:454] LFCN_3_3x5_LFCN_3_3x5_0_split <- LFCN_3_3x5
I1012 12:15:19.627154 19362 net.cpp:411] LFCN_3_3x5_LFCN_3_3x5_0_split -> LFCN_3_3x5_LFCN_3_3x5_0_split_0
I1012 12:15:19.627163 19362 net.cpp:411] LFCN_3_3x5_LFCN_3_3x5_0_split -> LFCN_3_3x5_LFCN_3_3x5_0_split_1
I1012 12:15:19.627169 19362 net.cpp:411] LFCN_3_3x5_LFCN_3_3x5_0_split -> LFCN_3_3x5_LFCN_3_3x5_0_split_2
I1012 12:15:19.627243 19362 net.cpp:150] Setting up LFCN_3_3x5_LFCN_3_3x5_0_split
I1012 12:15:19.627260 19362 net.cpp:157] Top shape: 4 6 18 18 (7776)
I1012 12:15:19.627267 19362 net.cpp:157] Top shape: 4 6 18 18 (7776)
I1012 12:15:19.627271 19362 net.cpp:157] Top shape: 4 6 18 18 (7776)
I1012 12:15:19.627274 19362 net.cpp:165] Memory required for data: 3438280332
I1012 12:15:19.627280 19362 layer_factory.hpp:76] Creating layer detection_loss_3_3x5
I1012 12:15:19.627290 19362 net.cpp:106] Creating Layer detection_loss_3_3x5
I1012 12:15:19.627296 19362 net.cpp:454] detection_loss_3_3x5 <- LFCN_3_3x5_LFCN_3_3x5_0_split_0
I1012 12:15:19.627305 19362 net.cpp:454] detection_loss_3_3x5 <- label_3_3x5_data_5_split_0
I1012 12:15:19.627317 19362 net.cpp:411] detection_loss_3_3x5 -> loss_3_3x5
I1012 12:15:19.627331 19362 layer_factory.hpp:76] Creating layer detection_loss_3_3x5
I1012 12:15:19.627756 19362 net.cpp:150] Setting up detection_loss_3_3x5
I1012 12:15:19.627769 19362 net.cpp:157] Top shape: 1 1 1 2 (2)
I1012 12:15:19.627773 19362 net.cpp:160]     with loss weight 1
I1012 12:15:19.627780 19362 net.cpp:165] Memory required for data: 3438280340
I1012 12:15:19.627784 19362 layer_factory.hpp:76] Creating layer detection_accuracy_3_3x5
I1012 12:15:19.627790 19362 net.cpp:106] Creating Layer detection_accuracy_3_3x5
I1012 12:15:19.627794 19362 net.cpp:454] detection_accuracy_3_3x5 <- LFCN_3_3x5_LFCN_3_3x5_0_split_1
I1012 12:15:19.627800 19362 net.cpp:454] detection_accuracy_3_3x5 <- label_3_3x5_data_5_split_1
I1012 12:15:19.627807 19362 net.cpp:411] detection_accuracy_3_3x5 -> accuracy_3_3x5
I1012 12:15:19.627815 19362 net.cpp:411] detection_accuracy_3_3x5 -> boxiou_3_3x5
I1012 12:15:19.627859 19362 net.cpp:150] Setting up detection_accuracy_3_3x5
I1012 12:15:19.627869 19362 net.cpp:157] Top shape: 1 1 1 2 (2)
I1012 12:15:19.627873 19362 net.cpp:157] Top shape: 1 1 1 1 (1)
I1012 12:15:19.627876 19362 net.cpp:165] Memory required for data: 3438280352
I1012 12:15:19.627879 19362 layer_factory.hpp:76] Creating layer LFCN_3_5x7
I1012 12:15:19.627887 19362 net.cpp:106] Creating Layer LFCN_3_5x7
I1012 12:15:19.627892 19362 net.cpp:454] LFCN_3_5x7 <- conv6_1_relu6_1_0_split_1
I1012 12:15:19.627904 19362 net.cpp:411] LFCN_3_5x7 -> LFCN_3_5x7
I1012 12:15:19.638864 19362 net.cpp:150] Setting up LFCN_3_5x7
I1012 12:15:19.638911 19362 net.cpp:157] Top shape: 4 6 18 18 (7776)
I1012 12:15:19.638921 19362 net.cpp:165] Memory required for data: 3438311456
I1012 12:15:19.638938 19362 layer_factory.hpp:76] Creating layer LFCN_3_5x7_LFCN_3_5x7_0_split
I1012 12:15:19.638952 19362 net.cpp:106] Creating Layer LFCN_3_5x7_LFCN_3_5x7_0_split
I1012 12:15:19.638962 19362 net.cpp:454] LFCN_3_5x7_LFCN_3_5x7_0_split <- LFCN_3_5x7
I1012 12:15:19.638979 19362 net.cpp:411] LFCN_3_5x7_LFCN_3_5x7_0_split -> LFCN_3_5x7_LFCN_3_5x7_0_split_0
I1012 12:15:19.638996 19362 net.cpp:411] LFCN_3_5x7_LFCN_3_5x7_0_split -> LFCN_3_5x7_LFCN_3_5x7_0_split_1
I1012 12:15:19.639009 19362 net.cpp:411] LFCN_3_5x7_LFCN_3_5x7_0_split -> LFCN_3_5x7_LFCN_3_5x7_0_split_2
I1012 12:15:19.639137 19362 net.cpp:150] Setting up LFCN_3_5x7_LFCN_3_5x7_0_split
I1012 12:15:19.639152 19362 net.cpp:157] Top shape: 4 6 18 18 (7776)
I1012 12:15:19.639160 19362 net.cpp:157] Top shape: 4 6 18 18 (7776)
I1012 12:15:19.639168 19362 net.cpp:157] Top shape: 4 6 18 18 (7776)
I1012 12:15:19.639173 19362 net.cpp:165] Memory required for data: 3438404768
I1012 12:15:19.639180 19362 layer_factory.hpp:76] Creating layer detection_loss_3_5x7
I1012 12:15:19.639194 19362 net.cpp:106] Creating Layer detection_loss_3_5x7
I1012 12:15:19.639204 19362 net.cpp:454] detection_loss_3_5x7 <- LFCN_3_5x7_LFCN_3_5x7_0_split_0
I1012 12:15:19.639214 19362 net.cpp:454] detection_loss_3_5x7 <- label_3_5x7_data_6_split_0
I1012 12:15:19.639225 19362 net.cpp:411] detection_loss_3_5x7 -> loss_3_5x7
I1012 12:15:19.639242 19362 layer_factory.hpp:76] Creating layer detection_loss_3_5x7
I1012 12:15:19.640259 19362 net.cpp:150] Setting up detection_loss_3_5x7
I1012 12:15:19.640283 19362 net.cpp:157] Top shape: 1 1 1 2 (2)
I1012 12:15:19.640290 19362 net.cpp:160]     with loss weight 1
I1012 12:15:19.640305 19362 net.cpp:165] Memory required for data: 3438404776
I1012 12:15:19.640312 19362 layer_factory.hpp:76] Creating layer detection_accuracy_3_5x7
I1012 12:15:19.640326 19362 net.cpp:106] Creating Layer detection_accuracy_3_5x7
I1012 12:15:19.640337 19362 net.cpp:454] detection_accuracy_3_5x7 <- LFCN_3_5x7_LFCN_3_5x7_0_split_1
I1012 12:15:19.640350 19362 net.cpp:454] detection_accuracy_3_5x7 <- label_3_5x7_data_6_split_1
I1012 12:15:19.640362 19362 net.cpp:411] detection_accuracy_3_5x7 -> accuracy_3_5x7
I1012 12:15:19.640378 19362 net.cpp:411] detection_accuracy_3_5x7 -> boxiou_3_5x7
I1012 12:15:19.640470 19362 net.cpp:150] Setting up detection_accuracy_3_5x7
I1012 12:15:19.640485 19362 net.cpp:157] Top shape: 1 1 1 2 (2)
I1012 12:15:19.640492 19362 net.cpp:157] Top shape: 1 1 1 1 (1)
I1012 12:15:19.640499 19362 net.cpp:165] Memory required for data: 3438404788
I1012 12:15:19.640506 19362 layer_factory.hpp:76] Creating layer pool6
I1012 12:15:19.640517 19362 net.cpp:106] Creating Layer pool6
I1012 12:15:19.640527 19362 net.cpp:454] pool6 <- conv6_1_relu6_1_0_split_2
I1012 12:15:19.640539 19362 net.cpp:411] pool6 -> pool6
I1012 12:15:19.640990 19362 net.cpp:150] Setting up pool6
I1012 12:15:19.641010 19362 net.cpp:157] Top shape: 4 512 9 9 (165888)
I1012 12:15:19.641016 19362 net.cpp:165] Memory required for data: 3439068340
I1012 12:15:19.641023 19362 layer_factory.hpp:76] Creating layer LFCN_4_3x5
I1012 12:15:19.641041 19362 net.cpp:106] Creating Layer LFCN_4_3x5
I1012 12:15:19.641048 19362 net.cpp:454] LFCN_4_3x5 <- pool6
I1012 12:15:19.641063 19362 net.cpp:411] LFCN_4_3x5 -> LFCN_4_3x5
I1012 12:15:19.646236 19362 net.cpp:150] Setting up LFCN_4_3x5
I1012 12:15:19.646261 19362 net.cpp:157] Top shape: 4 6 9 9 (1944)
I1012 12:15:19.646268 19362 net.cpp:165] Memory required for data: 3439076116
I1012 12:15:19.646281 19362 layer_factory.hpp:76] Creating layer LFCN_4_3x5_LFCN_4_3x5_0_split
I1012 12:15:19.646292 19362 net.cpp:106] Creating Layer LFCN_4_3x5_LFCN_4_3x5_0_split
I1012 12:15:19.646301 19362 net.cpp:454] LFCN_4_3x5_LFCN_4_3x5_0_split <- LFCN_4_3x5
I1012 12:15:19.646314 19362 net.cpp:411] LFCN_4_3x5_LFCN_4_3x5_0_split -> LFCN_4_3x5_LFCN_4_3x5_0_split_0
I1012 12:15:19.646329 19362 net.cpp:411] LFCN_4_3x5_LFCN_4_3x5_0_split -> LFCN_4_3x5_LFCN_4_3x5_0_split_1
I1012 12:15:19.646340 19362 net.cpp:411] LFCN_4_3x5_LFCN_4_3x5_0_split -> LFCN_4_3x5_LFCN_4_3x5_0_split_2
I1012 12:15:19.646450 19362 net.cpp:150] Setting up LFCN_4_3x5_LFCN_4_3x5_0_split
I1012 12:15:19.646467 19362 net.cpp:157] Top shape: 4 6 9 9 (1944)
I1012 12:15:19.646476 19362 net.cpp:157] Top shape: 4 6 9 9 (1944)
I1012 12:15:19.646482 19362 net.cpp:157] Top shape: 4 6 9 9 (1944)
I1012 12:15:19.646487 19362 net.cpp:165] Memory required for data: 3439099444
I1012 12:15:19.646493 19362 layer_factory.hpp:76] Creating layer detection_loss_4_3x5
I1012 12:15:19.646504 19362 net.cpp:106] Creating Layer detection_loss_4_3x5
I1012 12:15:19.646512 19362 net.cpp:454] detection_loss_4_3x5 <- LFCN_4_3x5_LFCN_4_3x5_0_split_0
I1012 12:15:19.646520 19362 net.cpp:454] detection_loss_4_3x5 <- label_4_3x5_data_7_split_0
I1012 12:15:19.646533 19362 net.cpp:411] detection_loss_4_3x5 -> loss_4_3x5
I1012 12:15:19.646548 19362 layer_factory.hpp:76] Creating layer detection_loss_4_3x5
I1012 12:15:19.647472 19362 net.cpp:150] Setting up detection_loss_4_3x5
I1012 12:15:19.647500 19362 net.cpp:157] Top shape: 1 1 1 2 (2)
I1012 12:15:19.647505 19362 net.cpp:160]     with loss weight 1
I1012 12:15:19.647518 19362 net.cpp:165] Memory required for data: 3439099452
I1012 12:15:19.647524 19362 layer_factory.hpp:76] Creating layer detection_accuracy_4_3x5
I1012 12:15:19.647536 19362 net.cpp:106] Creating Layer detection_accuracy_4_3x5
I1012 12:15:19.647544 19362 net.cpp:454] detection_accuracy_4_3x5 <- LFCN_4_3x5_LFCN_4_3x5_0_split_1
I1012 12:15:19.647554 19362 net.cpp:454] detection_accuracy_4_3x5 <- label_4_3x5_data_7_split_1
I1012 12:15:19.647565 19362 net.cpp:411] detection_accuracy_4_3x5 -> accuracy_4_3x5
I1012 12:15:19.647579 19362 net.cpp:411] detection_accuracy_4_3x5 -> boxiou_4_3x5
I1012 12:15:19.647665 19362 net.cpp:150] Setting up detection_accuracy_4_3x5
I1012 12:15:19.647678 19362 net.cpp:157] Top shape: 1 1 1 2 (2)
I1012 12:15:19.647686 19362 net.cpp:157] Top shape: 1 1 1 1 (1)
I1012 12:15:19.647691 19362 net.cpp:165] Memory required for data: 3439099464
I1012 12:15:19.647697 19362 layer_factory.hpp:76] Creating layer proposals
I1012 12:15:19.647716 19362 net.cpp:106] Creating Layer proposals
I1012 12:15:19.647724 19362 net.cpp:454] proposals <- LFCN_1_3x5_LFCN_1_3x5_0_split_2
I1012 12:15:19.647733 19362 net.cpp:454] proposals <- LFCN_1_5x7_LFCN_1_5x7_0_split_2
I1012 12:15:19.647742 19362 net.cpp:454] proposals <- LFCN_2_3x5_LFCN_2_3x5_0_split_2
I1012 12:15:19.647748 19362 net.cpp:454] proposals <- LFCN_2_5x7_LFCN_2_5x7_0_split_2
I1012 12:15:19.647755 19362 net.cpp:454] proposals <- LFCN_3_3x5_LFCN_3_3x5_0_split_2
I1012 12:15:19.647763 19362 net.cpp:454] proposals <- LFCN_3_5x7_LFCN_3_5x7_0_split_2
I1012 12:15:19.647769 19362 net.cpp:454] proposals <- LFCN_4_3x5_LFCN_4_3x5_0_split_2
I1012 12:15:19.647778 19362 net.cpp:411] proposals -> proposals
I1012 12:15:19.647835 19362 net.cpp:150] Setting up proposals
I1012 12:15:19.647848 19362 net.cpp:157] Top shape: 1 5 1 1 (5)
I1012 12:15:19.647855 19362 net.cpp:165] Memory required for data: 3439099484
I1012 12:15:19.647861 19362 layer_factory.hpp:76] Creating layer proposal_info
I1012 12:15:19.647883 19362 net.cpp:106] Creating Layer proposal_info
I1012 12:15:19.647891 19362 net.cpp:454] proposal_info <- proposals
I1012 12:15:19.647899 19362 net.cpp:454] proposal_info <- gt_boxes
I1012 12:15:19.647912 19362 net.cpp:411] proposal_info -> rois
I1012 12:15:19.647929 19362 net.cpp:411] proposal_info -> proposal_labels
I1012 12:15:19.647945 19362 net.cpp:411] proposal_info -> proposal_targets
I1012 12:15:19.647965 19362 net.cpp:411] proposal_info -> box_inside_weights
I1012 12:15:19.647976 19362 net.cpp:411] proposal_info -> box_outside_weights
I1012 12:15:19.647989 19362 net.cpp:411] proposal_info -> match_gt_boxes
I1012 12:15:19.648175 19362 net.cpp:150] Setting up proposal_info
I1012 12:15:19.648188 19362 net.cpp:157] Top shape: 128 5 1 1 (640)
I1012 12:15:19.648196 19362 net.cpp:157] Top shape: 128 1 1 1 (128)
I1012 12:15:19.648203 19362 net.cpp:157] Top shape: 128 8 1 1 (1024)
I1012 12:15:19.648211 19362 net.cpp:157] Top shape: 128 8 1 1 (1024)
I1012 12:15:19.648218 19362 net.cpp:157] Top shape: 128 8 1 1 (1024)
I1012 12:15:19.648226 19362 net.cpp:157] Top shape: 128 6 1 1 (768)
I1012 12:15:19.648231 19362 net.cpp:165] Memory required for data: 3439117916
I1012 12:15:19.648237 19362 layer_factory.hpp:76] Creating layer rois_proposal_info_0_split
I1012 12:15:19.648249 19362 net.cpp:106] Creating Layer rois_proposal_info_0_split
I1012 12:15:19.648255 19362 net.cpp:454] rois_proposal_info_0_split <- rois
I1012 12:15:19.648265 19362 net.cpp:411] rois_proposal_info_0_split -> rois_proposal_info_0_split_0
I1012 12:15:19.648277 19362 net.cpp:411] rois_proposal_info_0_split -> rois_proposal_info_0_split_1
I1012 12:15:19.648286 19362 net.cpp:411] rois_proposal_info_0_split -> rois_proposal_info_0_split_2
I1012 12:15:19.648380 19362 net.cpp:150] Setting up rois_proposal_info_0_split
I1012 12:15:19.648393 19362 net.cpp:157] Top shape: 128 5 1 1 (640)
I1012 12:15:19.648401 19362 net.cpp:157] Top shape: 128 5 1 1 (640)
I1012 12:15:19.648408 19362 net.cpp:157] Top shape: 128 5 1 1 (640)
I1012 12:15:19.648413 19362 net.cpp:165] Memory required for data: 3439125596
I1012 12:15:19.648419 19362 layer_factory.hpp:76] Creating layer proposal_labels_proposal_info_1_split
I1012 12:15:19.648428 19362 net.cpp:106] Creating Layer proposal_labels_proposal_info_1_split
I1012 12:15:19.648434 19362 net.cpp:454] proposal_labels_proposal_info_1_split <- proposal_labels
I1012 12:15:19.648447 19362 net.cpp:411] proposal_labels_proposal_info_1_split -> proposal_labels_proposal_info_1_split_0
I1012 12:15:19.648458 19362 net.cpp:411] proposal_labels_proposal_info_1_split -> proposal_labels_proposal_info_1_split_1
I1012 12:15:19.648524 19362 net.cpp:150] Setting up proposal_labels_proposal_info_1_split
I1012 12:15:19.648535 19362 net.cpp:157] Top shape: 128 1 1 1 (128)
I1012 12:15:19.648542 19362 net.cpp:157] Top shape: 128 1 1 1 (128)
I1012 12:15:19.648547 19362 net.cpp:165] Memory required for data: 3439126620
I1012 12:15:19.648553 19362 layer_factory.hpp:76] Creating layer roi_pool_org
I1012 12:15:19.648568 19362 net.cpp:106] Creating Layer roi_pool_org
I1012 12:15:19.648576 19362 net.cpp:454] roi_pool_org <- conv4_3_relu4_3_0_split_2
I1012 12:15:19.648583 19362 net.cpp:454] roi_pool_org <- rois_proposal_info_0_split_0
I1012 12:15:19.648593 19362 net.cpp:411] roi_pool_org -> roi_pool_org
I1012 12:15:19.648609 19362 roi_pooling_layer.cpp:35] Spatial scale: 0.125
I1012 12:15:19.648690 19362 net.cpp:150] Setting up roi_pool_org
I1012 12:15:19.648704 19362 net.cpp:157] Top shape: 128 512 8 4 (2097152)
I1012 12:15:19.648710 19362 net.cpp:165] Memory required for data: 3447515228
I1012 12:15:19.648715 19362 layer_factory.hpp:76] Creating layer roi_pool_ctx
I1012 12:15:19.648726 19362 net.cpp:106] Creating Layer roi_pool_ctx
I1012 12:15:19.648732 19362 net.cpp:454] roi_pool_ctx <- conv4_3_relu4_3_0_split_3
I1012 12:15:19.648741 19362 net.cpp:454] roi_pool_ctx <- rois_proposal_info_0_split_1
I1012 12:15:19.648749 19362 net.cpp:411] roi_pool_ctx -> roi_pool_ctx
I1012 12:15:19.648761 19362 roi_pooling_layer.cpp:35] Spatial scale: 0.125
I1012 12:15:19.648836 19362 net.cpp:150] Setting up roi_pool_ctx
I1012 12:15:19.648849 19362 net.cpp:157] Top shape: 128 512 8 4 (2097152)
I1012 12:15:19.648854 19362 net.cpp:165] Memory required for data: 3455903836
I1012 12:15:19.648859 19362 layer_factory.hpp:76] Creating layer roi_pool
I1012 12:15:19.648869 19362 net.cpp:106] Creating Layer roi_pool
I1012 12:15:19.648874 19362 net.cpp:454] roi_pool <- roi_pool_org
I1012 12:15:19.648882 19362 net.cpp:454] roi_pool <- roi_pool_ctx
I1012 12:15:19.648890 19362 net.cpp:411] roi_pool -> roi_pool
I1012 12:15:19.648939 19362 net.cpp:150] Setting up roi_pool
I1012 12:15:19.648952 19362 net.cpp:157] Top shape: 128 1024 8 4 (4194304)
I1012 12:15:19.648957 19362 net.cpp:165] Memory required for data: 3472681052
I1012 12:15:19.648962 19362 layer_factory.hpp:76] Creating layer roi_c1
I1012 12:15:19.648974 19362 net.cpp:106] Creating Layer roi_c1
I1012 12:15:19.648982 19362 net.cpp:454] roi_c1 <- roi_pool
I1012 12:15:19.648994 19362 net.cpp:411] roi_c1 -> roi_c1
I1012 12:15:19.868693 19362 net.cpp:150] Setting up roi_c1
I1012 12:15:19.868713 19362 net.cpp:157] Top shape: 128 512 8 4 (2097152)
I1012 12:15:19.868718 19362 net.cpp:165] Memory required for data: 3481069660
I1012 12:15:19.868726 19362 layer_factory.hpp:76] Creating layer roi_c1_relu
I1012 12:15:19.868736 19362 net.cpp:106] Creating Layer roi_c1_relu
I1012 12:15:19.868742 19362 net.cpp:454] roi_c1_relu <- roi_c1
I1012 12:15:19.868752 19362 net.cpp:397] roi_c1_relu -> roi_c1 (in-place)
I1012 12:15:19.869150 19362 net.cpp:150] Setting up roi_c1_relu
I1012 12:15:19.869164 19362 net.cpp:157] Top shape: 128 512 8 4 (2097152)
I1012 12:15:19.869168 19362 net.cpp:165] Memory required for data: 3489458268
I1012 12:15:19.869173 19362 layer_factory.hpp:76] Creating layer fc6
I1012 12:15:19.869184 19362 net.cpp:106] Creating Layer fc6
I1012 12:15:19.869189 19362 net.cpp:454] fc6 <- roi_c1
I1012 12:15:19.869200 19362 net.cpp:411] fc6 -> fc6
I1012 12:15:20.990152 19362 net.cpp:150] Setting up fc6
I1012 12:15:20.990205 19362 net.cpp:157] Top shape: 128 2048 (262144)
I1012 12:15:20.990208 19362 net.cpp:165] Memory required for data: 3490506844
I1012 12:15:20.990234 19362 layer_factory.hpp:76] Creating layer relu6
I1012 12:15:20.990249 19362 net.cpp:106] Creating Layer relu6
I1012 12:15:20.990304 19362 net.cpp:454] relu6 <- fc6
I1012 12:15:20.990314 19362 net.cpp:397] relu6 -> fc6 (in-place)
I1012 12:15:20.990890 19362 net.cpp:150] Setting up relu6
I1012 12:15:20.990911 19362 net.cpp:157] Top shape: 128 2048 (262144)
I1012 12:15:20.990916 19362 net.cpp:165] Memory required for data: 3491555420
I1012 12:15:20.990918 19362 layer_factory.hpp:76] Creating layer drop6
I1012 12:15:20.990924 19362 net.cpp:106] Creating Layer drop6
I1012 12:15:20.990928 19362 net.cpp:454] drop6 <- fc6
I1012 12:15:20.990938 19362 net.cpp:397] drop6 -> fc6 (in-place)
I1012 12:15:20.990978 19362 net.cpp:150] Setting up drop6
I1012 12:15:20.990983 19362 net.cpp:157] Top shape: 128 2048 (262144)
I1012 12:15:20.990985 19362 net.cpp:165] Memory required for data: 3492603996
I1012 12:15:20.990988 19362 layer_factory.hpp:76] Creating layer fc6_drop6_0_split
I1012 12:15:20.990998 19362 net.cpp:106] Creating Layer fc6_drop6_0_split
I1012 12:15:20.991000 19362 net.cpp:454] fc6_drop6_0_split <- fc6
I1012 12:15:20.991006 19362 net.cpp:411] fc6_drop6_0_split -> fc6_drop6_0_split_0
I1012 12:15:20.991014 19362 net.cpp:411] fc6_drop6_0_split -> fc6_drop6_0_split_1
I1012 12:15:20.991106 19362 net.cpp:150] Setting up fc6_drop6_0_split
I1012 12:15:20.991114 19362 net.cpp:157] Top shape: 128 2048 (262144)
I1012 12:15:20.991122 19362 net.cpp:157] Top shape: 128 2048 (262144)
I1012 12:15:20.991125 19362 net.cpp:165] Memory required for data: 3494701148
I1012 12:15:20.991130 19362 layer_factory.hpp:76] Creating layer cls_pred
I1012 12:15:20.991148 19362 net.cpp:106] Creating Layer cls_pred
I1012 12:15:20.991156 19362 net.cpp:454] cls_pred <- fc6_drop6_0_split_0
I1012 12:15:20.991178 19362 net.cpp:411] cls_pred -> cls_pred
I1012 12:15:20.991489 19362 net.cpp:150] Setting up cls_pred
I1012 12:15:20.991502 19362 net.cpp:157] Top shape: 128 2 (256)
I1012 12:15:20.991504 19362 net.cpp:165] Memory required for data: 3494702172
I1012 12:15:20.991510 19362 layer_factory.hpp:76] Creating layer cls_pred_cls_pred_0_split
I1012 12:15:20.991518 19362 net.cpp:106] Creating Layer cls_pred_cls_pred_0_split
I1012 12:15:20.991521 19362 net.cpp:454] cls_pred_cls_pred_0_split <- cls_pred
I1012 12:15:20.991526 19362 net.cpp:411] cls_pred_cls_pred_0_split -> cls_pred_cls_pred_0_split_0
I1012 12:15:20.991534 19362 net.cpp:411] cls_pred_cls_pred_0_split -> cls_pred_cls_pred_0_split_1
I1012 12:15:20.991592 19362 net.cpp:150] Setting up cls_pred_cls_pred_0_split
I1012 12:15:20.991605 19362 net.cpp:157] Top shape: 128 2 (256)
I1012 12:15:20.991611 19362 net.cpp:157] Top shape: 128 2 (256)
I1012 12:15:20.991614 19362 net.cpp:165] Memory required for data: 3494704220
I1012 12:15:20.991619 19362 layer_factory.hpp:76] Creating layer bbox_pred
I1012 12:15:20.991637 19362 net.cpp:106] Creating Layer bbox_pred
I1012 12:15:20.991644 19362 net.cpp:454] bbox_pred <- fc6_drop6_0_split_1
I1012 12:15:20.991663 19362 net.cpp:411] bbox_pred -> bbox_pred
I1012 12:15:20.992398 19362 net.cpp:150] Setting up bbox_pred
I1012 12:15:20.992410 19362 net.cpp:157] Top shape: 128 8 (1024)
I1012 12:15:20.992413 19362 net.cpp:165] Memory required for data: 3494708316
I1012 12:15:20.992419 19362 layer_factory.hpp:76] Creating layer bbox_pred_bbox_pred_0_split
I1012 12:15:20.992425 19362 net.cpp:106] Creating Layer bbox_pred_bbox_pred_0_split
I1012 12:15:20.992429 19362 net.cpp:454] bbox_pred_bbox_pred_0_split <- bbox_pred
I1012 12:15:20.992434 19362 net.cpp:411] bbox_pred_bbox_pred_0_split -> bbox_pred_bbox_pred_0_split_0
I1012 12:15:20.992548 19362 net.cpp:411] bbox_pred_bbox_pred_0_split -> bbox_pred_bbox_pred_0_split_1
I1012 12:15:20.992599 19362 net.cpp:150] Setting up bbox_pred_bbox_pred_0_split
I1012 12:15:20.992609 19362 net.cpp:157] Top shape: 128 8 (1024)
I1012 12:15:20.992612 19362 net.cpp:157] Top shape: 128 8 (1024)
I1012 12:15:20.992615 19362 net.cpp:165] Memory required for data: 3494716508
I1012 12:15:20.992619 19362 layer_factory.hpp:76] Creating layer loss_cls
I1012 12:15:20.992630 19362 net.cpp:106] Creating Layer loss_cls
I1012 12:15:20.992636 19362 net.cpp:454] loss_cls <- cls_pred_cls_pred_0_split_0
I1012 12:15:20.992643 19362 net.cpp:454] loss_cls <- proposal_labels_proposal_info_1_split_0
…
I1012 12:15:21.002732 19362 image_gt_data_layer.cpp:234] output label size 2 : 2,6,36,36
I1012 12:15:21.002801 19362 image_gt_data_layer.cpp:234] output label size 3 : 2,6,36,36
I1012 12:15:21.002874 19362 image_gt_data_layer.cpp:234] output label size 4 : 2,6,18,18
I1012 12:15:21.002949 19362 image_gt_data_layer.cpp:234] output label size 5 : 2,6,18,18
I1012 12:15:21.003016 19362 image_gt_data_layer.cpp:234] output label size 6 : 2,6,9,9
I1012 12:15:21.003078 19362 image_gt_data_layer.cpp:249] output gt boxes size: 1,7,1,1
I1012 12:15:21.019636 19362 net.cpp:150] Setting up data
I1012 12:15:21.019665 19362 net.cpp:157] Top shape: 2 3 576 576 (1990656)
I1012 12:15:21.019670 19362 net.cpp:157] Top shape: 2 6 72 72 (62208)
I1012 12:15:21.019675 19362 net.cpp:157] Top shape: 2 6 72 72 (62208)
I1012 12:15:21.019678 19362 net.cpp:157] Top shape: 2 6 36 36 (15552)
I1012 12:15:21.019683 19362 net.cpp:157] Top shape: 2 6 36 36 (15552)
I1012 12:15:21.019687 19362 net.cpp:157] Top shape: 2 6 18 18 (3888)
I1012 12:15:21.019691 19362 net.cpp:157] Top shape: 2 6 18 18 (3888)
I1012 12:15:21.019695 19362 net.cpp:157] Top shape: 2 6 9 9 (972)
I1012 12:15:21.019700 19362 net.cpp:157] Top shape: 1 7 1 1 (7)
I1012 12:15:21.019702 19362 net.cpp:165] Memory required for data: 8619724
I1012 12:15:21.019708 19362 layer_factory.hpp:76] Creating layer label_1_3x5_data_1_split
I1012 12:15:21.019721 19362 net.cpp:106] Creating Layer label_1_3x5_data_1_split
I1012 12:15:21.019726 19362 net.cpp:454] label_1_3x5_data_1_split <- label_1_3x5
I1012 12:15:21.019734 19362 net.cpp:411] label_1_3x5_data_1_split -> label_1_3x5_data_1_split_0
I1012 12:15:21.019743 19362 net.cpp:411] label_1_3x5_data_1_split -> label_1_3x5_data_1_split_1
I1012 12:15:21.019829 19362 net.cpp:150] Setting up label_1_3x5_data_1_split
I1012 12:15:21.019836 19362 net.cpp:157] Top shape: 2 6 72 72 (62208)
I1012 12:15:21.019841 19362 net.cpp:157] Top shape: 2 6 72 72 (62208)
I1012 12:15:21.019846 19362 net.cpp:165] Memory required for data: 9117388
I1012 12:15:21.019850 19362 layer_factory.hpp:76] Creating layer label_1_5x7_data_2_split
I1012 12:15:21.019860 19362 net.cpp:106] Creating Layer label_1_5x7_data_2_split
I1012 12:15:21.019865 19362 net.cpp:454] label_1_5x7_data_2_split <- label_1_5x7
I1012 12:15:21.019878 19362 net.cpp:411] label_1_5x7_data_2_split -> label_1_5x7_data_2_split_0
I1012 12:15:21.019886 19362 net.cpp:411] label_1_5x7_data_2_split -> label_1_5x7_data_2_split_1
I1012 12:15:21.019963 19362 net.cpp:150] Setting up label_1_5x7_data_2_split
I1012 12:15:21.019973 19362 net.cpp:157] Top shape: 2 6 72 72 (62208)
I1012 12:15:21.019976 19362 net.cpp:157] Top shape: 2 6 72 72 (62208)
I1012 12:15:21.019979 19362 net.cpp:165] Memory required for data: 9615052
I1012 12:15:21.019982 19362 layer_factory.hpp:76] Creating layer label_2_3x5_data_3_split
I1012 12:15:21.019989 19362 net.cpp:106] Creating Layer label_2_3x5_data_3_split
I1012 12:15:21.019994 19362 net.cpp:454] label_2_3x5_data_3_split <- label_2_3x5
I1012 12:15:21.020002 19362 net.cpp:411] label_2_3x5_data_3_split -> label_2_3x5_data_3_split_0
I1012 12:15:21.020011 19362 net.cpp:411] label_2_3x5_data_3_split -> label_2_3x5_data_3_split_1
I1012 12:15:21.020373 19362 net.cpp:150] Setting up label_2_3x5_data_3_split
I1012 12:15:21.020385 19362 net.cpp:157] Top shape: 2 6 36 36 (15552)
I1012 12:15:21.020390 19362 net.cpp:157] Top shape: 2 6 36 36 (15552)
I1012 12:15:21.020392 19362 net.cpp:165] Memory required for data: 9739468
I1012 12:15:21.020395 19362 layer_factory.hpp:76] Creating layer label_2_5x7_data_4_split
I1012 12:15:21.020401 19362 net.cpp:106] Creating Layer label_2_5x7_data_4_split
I1012 12:15:21.020406 19362 net.cpp:454] label_2_5x7_data_4_split <- label_2_5x7
I1012 12:15:21.020412 19362 net.cpp:411] label_2_5x7_data_4_split -> label_2_5x7_data_4_split_0
I1012 12:15:21.020418 19362 net.cpp:411] label_2_5x7_data_4_split -> label_2_5x7_data_4_split_1
I1012 12:15:21.020465 19362 net.cpp:150] Setting up label_2_5x7_data_4_split
I1012 12:15:21.020474 19362 net.cpp:157] Top shape: 2 6 36 36 (15552)
I1012 12:15:21.020481 19362 net.cpp:157] Top shape: 2 6 36 36 (15552)
I1012 12:15:21.020483 19362 net.cpp:165] Memory required for data: 9863884
I1012 12:15:21.020486 19362 layer_factory.hpp:76] Creating layer label_3_3x5_data_5_split
I1012 12:15:21.020491 19362 net.cpp:106] Creating Layer label_3_3x5_data_5_split
I1012 12:15:21.020494 19362 net.cpp:454] label_3_3x5_data_5_split <- label_3_3x5
I1012 12:15:21.020500 19362 net.cpp:411] label_3_3x5_data_5_split -> label_3_3x5_data_5_split_0
I1012 12:15:21.020505 19362 net.cpp:411] label_3_3x5_data_5_split -> label_3_3x5_data_5_split_1
I1012 12:15:21.020553 19362 net.cpp:150] Setting up label_3_3x5_data_5_split
I1012 12:15:21.020561 19362 net.cpp:157] Top shape: 2 6 18 18 (3888)
I1012 12:15:21.020565 19362 net.cpp:157] Top shape: 2 6 18 18 (3888)
I1012 12:15:21.020567 19362 net.cpp:165] Memory required for data: 9894988
I1012 12:15:21.020570 19362 layer_factory.hpp:76] Creating layer label_3_5x7_data_6_split
I1012 12:15:21.020575 19362 net.cpp:106] Creating Layer label_3_5x7_data_6_split
I1012 12:15:21.020578 19362 net.cpp:454] label_3_5x7_data_6_split <- label_3_5x7
I1012 12:15:21.020582 19362 net.cpp:411] label_3_5x7_data_6_split -> label_3_5x7_data_6_split_0
I1012 12:15:21.020587 19362 net.cpp:411] label_3_5x7_data_6_split -> label_3_5x7_data_6_split_1
I1012 12:15:21.020630 19362 net.cpp:150] Setting up label_3_5x7_data_6_split
I1012 12:15:21.020637 19362 net.cpp:157] Top shape: 2 6 18 18 (3888)
I1012 12:15:21.020640 19362 net.cpp:157] Top shape: 2 6 18 18 (3888)
I1012 12:15:21.020642 19362 net.cpp:165] Memory required for data: 9926092
I1012 12:15:21.020645 19362 layer_factory.hpp:76] Creating layer label_4_3x5_data_7_split
I1012 12:15:21.020649 19362 net.cpp:106] Creating Layer label_4_3x5_data_7_split
I1012 12:15:21.020653 19362 net.cpp:454] label_4_3x5_data_7_split <- label_4_3x5
I1012 12:15:21.020660 19362 net.cpp:411] label_4_3x5_data_7_split -> label_4_3x5_data_7_split_0
I1012 12:15:21.020666 19362 net.cpp:411] label_4_3x5_data_7_split -> label_4_3x5_data_7_split_1
I1012 12:15:21.020705 19362 net.cpp:150] Setting up label_4_3x5_data_7_split
I1012 12:15:21.020710 19362 net.cpp:157] Top shape: 2 6 9 9 (972)
I1012 12:15:21.020714 19362 net.cpp:157] Top shape: 2 6 9 9 (972)
I1012 12:15:21.020716 19362 net.cpp:165] Memory required for data: 9933868
I1012 12:15:21.020720 19362 layer_factory.hpp:76] Creating layer conv1_1
I1012 12:15:21.020728 19362 net.cpp:106] Creating Layer conv1_1
I1012 12:15:21.020733 19362 net.cpp:454] conv1_1 <- data
I1012 12:15:21.020740 19362 net.cpp:411] conv1_1 -> conv1_1
I1012 12:15:21.023042 19362 net.cpp:150] Setting up conv1_1
I1012 12:15:21.023056 19362 net.cpp:157] Top shape: 2 64 576 576 (42467328)
I1012 12:15:21.023059 19362 net.cpp:165] Memory required for data: 179803180
I1012 12:15:21.023071 19362 layer_factory.hpp:76] Creating layer relu1_1
I1012 12:15:21.023079 19362 net.cpp:106] Creating Layer relu1_1
I1012 12:15:21.023083 19362 net.cpp:454] relu1_1 <- conv1_1
I1012 12:15:21.023090 19362 net.cpp:397] relu1_1 -> conv1_1 (in-place)
I1012 12:15:21.024092 19362 net.cpp:150] Setting up relu1_1
I1012 12:15:21.024106 19362 net.cpp:157] Top shape: 2 64 576 576 (42467328)
I1012 12:15:21.024108 19362 net.cpp:165] Memory required for data: 349672492
I1012 12:15:21.024112 19362 layer_factory.hpp:76] Creating layer conv1_2
I1012 12:15:21.024121 19362 net.cpp:106] Creating Layer conv1_2
I1012 12:15:21.024124 19362 net.cpp:454] conv1_2 <- conv1_1
I1012 12:15:21.024130 19362 net.cpp:411] conv1_2 -> conv1_2
I1012 12:15:21.026381 19362 net.cpp:150] Setting up conv1_2
I1012 12:15:21.026396 19362 net.cpp:157] Top shape: 2 64 576 576 (42467328)
I1012 12:15:21.026410 19362 net.cpp:165] Memory required for data: 519541804
I1012 12:15:21.026422 19362 layer_factory.hpp:76] Creating layer relu1_2
I1012 12:15:21.026430 19362 net.cpp:106] Creating Layer relu1_2
I1012 12:15:21.026433 19362 net.cpp:454] relu1_2 <- conv1_2
I1012 12:15:21.026438 19362 net.cpp:397] relu1_2 -> conv1_2 (in-place)
I1012 12:15:21.026813 19362 net.cpp:150] Setting up relu1_2
I1012 12:15:21.026825 19362 net.cpp:157] Top shape: 2 64 576 576 (42467328)
I1012 12:15:21.026829 19362 net.cpp:165] Memory required for data: 689411116
I1012 12:15:21.026832 19362 layer_factory.hpp:76] Creating layer pool1
I1012 12:15:21.026841 19362 net.cpp:106] Creating Layer pool1
I1012 12:15:21.026844 19362 net.cpp:454] pool1 <- conv1_2
I1012 12:15:21.026849 19362 net.cpp:411] pool1 -> pool1
I1012 12:15:21.027123 19362 net.cpp:150] Setting up pool1
I1012 12:15:21.027137 19362 net.cpp:157] Top shape: 2 64 288 288 (10616832)
I1012 12:15:21.027140 19362 net.cpp:165] Memory required for data: 731878444
I1012 12:15:21.027143 19362 layer_factory.hpp:76] Creating layer conv2_1
I1012 12:15:21.027153 19362 net.cpp:106] Creating Layer conv2_1
I1012 12:15:21.027158 19362 net.cpp:454] conv2_1 <- pool1
I1012 12:15:21.027166 19362 net.cpp:411] conv2_1 -> conv2_1
I1012 12:15:21.028461 19362 net.cpp:150] Setting up conv2_1
I1012 12:15:21.028476 19362 net.cpp:157] Top shape: 2 128 288 288 (21233664)
I1012 12:15:21.028491 19362 net.cpp:165] Memory required for data: 816813100
I1012 12:15:21.028501 19362 layer_factory.hpp:76] Creating layer relu2_1
I1012 12:15:21.028506 19362 net.cpp:106] Creating Layer relu2_1
I1012 12:15:21.028509 19362 net.cpp:454] relu2_1 <- conv2_1
I1012 12:15:21.028514 19362 net.cpp:397] relu2_1 -> conv2_1 (in-place)
I1012 12:15:21.028867 19362 net.cpp:150] Setting up relu2_1
I1012 12:15:21.028882 19362 net.cpp:157] Top shape: 2 128 288 288 (21233664)
I1012 12:15:21.028884 19362 net.cpp:165] Memory required for data: 901747756
I1012 12:15:21.028887 19362 layer_factory.hpp:76] Creating layer conv2_2
I1012 12:15:21.028895 19362 net.cpp:106] Creating Layer conv2_2
I1012 12:15:21.028898 19362 net.cpp:454] conv2_2 <- conv2_1
I1012 12:15:21.028905 19362 net.cpp:411] conv2_2 -> conv2_2
I1012 12:15:21.030640 19362 net.cpp:150] Setting up conv2_2
I1012 12:15:21.030655 19362 net.cpp:157] Top shape: 2 128 288 288 (21233664)
I1012 12:15:21.030658 19362 net.cpp:165] Memory required for data: 986682412
I1012 12:15:21.030664 19362 layer_factory.hpp:76] Creating layer relu2_2
I1012 12:15:21.030674 19362 net.cpp:106] Creating Layer relu2_2
I1012 12:15:21.030678 19362 net.cpp:454] relu2_2 <- conv2_2
I1012 12:15:21.030683 19362 net.cpp:397] relu2_2 -> conv2_2 (in-place)
I1012 12:15:21.032727 19362 net.cpp:150] Setting up relu2_2
I1012 12:15:21.032742 19362 net.cpp:157] Top shape: 2 128 288 288 (21233664)
I1012 12:15:21.032757 19362 net.cpp:165] Memory required for data: 1071617068
I1012 12:15:21.032759 19362 layer_factory.hpp:76] Creating layer pool2
I1012 12:15:21.032766 19362 net.cpp:106] Creating Layer pool2
I1012 12:15:21.032769 19362 net.cpp:454] pool2 <- conv2_2
I1012 12:15:21.032775 19362 net.cpp:411] pool2 -> pool2
I1012 12:15:21.033036 19362 net.cpp:150] Setting up pool2
I1012 12:15:21.033049 19362 net.cpp:157] Top shape: 2 128 144 144 (5308416)
I1012 12:15:21.033052 19362 net.cpp:165] Memory required for data: 1092850732
I1012 12:15:21.033056 19362 layer_factory.hpp:76] Creating layer conv3_1
I1012 12:15:21.033064 19362 net.cpp:106] Creating Layer conv3_1
I1012 12:15:21.033067 19362 net.cpp:454] conv3_1 <- pool2
I1012 12:15:21.033073 19362 net.cpp:411] conv3_1 -> conv3_1
I1012 12:15:21.035136 19362 net.cpp:150] Setting up conv3_1
I1012 12:15:21.035151 19362 net.cpp:157] Top shape: 2 256 144 144 (10616832)
I1012 12:15:21.035156 19362 net.cpp:165] Memory required for data: 1135318060
I1012 12:15:21.035164 19362 layer_factory.hpp:76] Creating layer relu3_1
I1012 12:15:21.035172 19362 net.cpp:106] Creating Layer relu3_1
I1012 12:15:21.035176 19362 net.cpp:454] relu3_1 <- conv3_1
I1012 12:15:21.035182 19362 net.cpp:397] relu3_1 -> conv3_1 (in-place)
I1012 12:15:21.035565 19362 net.cpp:150] Setting up relu3_1
I1012 12:15:21.035580 19362 net.cpp:157] Top shape: 2 256 144 144 (10616832)
I1012 12:15:21.035583 19362 net.cpp:165] Memory required for data: 1177785388
I1012 12:15:21.035588 19362 layer_factory.hpp:76] Creating layer conv3_2
I1012 12:15:21.035593 19362 net.cpp:106] Creating Layer conv3_2
I1012 12:15:21.035598 19362 net.cpp:454] conv3_2 <- conv3_1
I1012 12:15:21.035604 19362 net.cpp:411] conv3_2 -> conv3_2
I1012 12:15:21.038305 19362 net.cpp:150] Setting up conv3_2
I1012 12:15:21.038321 19362 net.cpp:157] Top shape: 2 256 144 144 (10616832)
I1012 12:15:21.038323 19362 net.cpp:165] Memory required for data: 1220252716
I1012 12:15:21.038331 19362 layer_factory.hpp:76] Creating layer relu3_2
I1012 12:15:21.038338 19362 net.cpp:106] Creating Layer relu3_2
I1012 12:15:21.038342 19362 net.cpp:454] relu3_2 <- conv3_2
I1012 12:15:21.038347 19362 net.cpp:397] relu3_2 -> conv3_2 (in-place)
I1012 12:15:21.038563 19362 net.cpp:150] Setting up relu3_2
I1012 12:15:21.038579 19362 net.cpp:157] Top shape: 2 256 144 144 (10616832)
I1012 12:15:21.038583 19362 net.cpp:165] Memory required for data: 1262720044
I1012 12:15:21.038588 19362 layer_factory.hpp:76] Creating layer conv3_3
I1012 12:15:21.038594 19362 net.cpp:106] Creating Layer conv3_3
I1012 12:15:21.038597 19362 net.cpp:454] conv3_3 <- conv3_2
I1012 12:15:21.038605 19362 net.cpp:411] conv3_3 -> conv3_3
I1012 12:15:21.041924 19362 net.cpp:150] Setting up conv3_3
I1012 12:15:21.041939 19362 net.cpp:157] Top shape: 2 256 144 144 (10616832)
I1012 12:15:21.041942 19362 net.cpp:165] Memory required for data: 1305187372
I1012 12:15:21.041949 19362 layer_factory.hpp:76] Creating layer relu3_3
I1012 12:15:21.041955 19362 net.cpp:106] Creating Layer relu3_3
I1012 12:15:21.041960 19362 net.cpp:454] relu3_3 <- conv3_3
I1012 12:15:21.041966 19362 net.cpp:397] relu3_3 -> conv3_3 (in-place)
I1012 12:15:21.042388 19362 net.cpp:150] Setting up relu3_3
I1012 12:15:21.042402 19362 net.cpp:157] Top shape: 2 256 144 144 (10616832)
I1012 12:15:21.042405 19362 net.cpp:165] Memory required for data: 1347654700
I1012 12:15:21.042408 19362 layer_factory.hpp:76] Creating layer pool3
I1012 12:15:21.042418 19362 net.cpp:106] Creating Layer pool3
I1012 12:15:21.042420 19362 net.cpp:454] pool3 <- conv3_3
I1012 12:15:21.042426 19362 net.cpp:411] pool3 -> pool3
I1012 12:15:21.042825 19362 net.cpp:150] Setting up pool3
I1012 12:15:21.042840 19362 net.cpp:157] Top shape: 2 256 72 72 (2654208)
I1012 12:15:21.042842 19362 net.cpp:165] Memory required for data: 1358271532
I1012 12:15:21.042846 19362 layer_factory.hpp:76] Creating layer conv4_1
I1012 12:15:21.042855 19362 net.cpp:106] Creating Layer conv4_1
I1012 12:15:21.042858 19362 net.cpp:454] conv4_1 <- pool3
I1012 12:15:21.042865 19362 net.cpp:411] conv4_1 -> conv4_1
I1012 12:15:21.046638 19362 net.cpp:150] Setting up conv4_1
I1012 12:15:21.046666 19362 net.cpp:157] Top shape: 2 512 72 72 (5308416)
I1012 12:15:21.046670 19362 net.cpp:165] Memory required for data: 1379505196
I1012 12:15:21.046677 19362 layer_factory.hpp:76] Creating layer relu4_1
I1012 12:15:21.046684 19362 net.cpp:106] Creating Layer relu4_1
I1012 12:15:21.046687 19362 net.cpp:454] relu4_1 <- conv4_1
I1012 12:15:21.046692 19362 net.cpp:397] relu4_1 -> conv4_1 (in-place)
I1012 12:15:21.046900 19362 net.cpp:150] Setting up relu4_1
I1012 12:15:21.046912 19362 net.cpp:157] Top shape: 2 512 72 72 (5308416)
I1012 12:15:21.046919 19362 net.cpp:165] Memory required for data: 1400738860
I1012 12:15:21.046922 19362 layer_factory.hpp:76] Creating layer conv4_2
I1012 12:15:21.046931 19362 net.cpp:106] Creating Layer conv4_2
I1012 12:15:21.046934 19362 net.cpp:454] conv4_2 <- conv4_1
I1012 12:15:21.046939 19362 net.cpp:411] conv4_2 -> conv4_2
I1012 12:15:21.053112 19362 net.cpp:150] Setting up conv4_2
I1012 12:15:21.053128 19362 net.cpp:157] Top shape: 2 512 72 72 (5308416)
I1012 12:15:21.053143 19362 net.cpp:165] Memory required for data: 1421972524
I1012 12:15:21.053153 19362 layer_factory.hpp:76] Creating layer relu4_2
I1012 12:15:21.053163 19362 net.cpp:106] Creating Layer relu4_2
I1012 12:15:21.053166 19362 net.cpp:454] relu4_2 <- conv4_2
I1012 12:15:21.053174 19362 net.cpp:397] relu4_2 -> conv4_2 (in-place)
I1012 12:15:21.053535 19362 net.cpp:150] Setting up relu4_2
I1012 12:15:21.053550 19362 net.cpp:157] Top shape: 2 512 72 72 (5308416)
I1012 12:15:21.053552 19362 net.cpp:165] Memory required for data: 1443206188
I1012 12:15:21.053556 19362 layer_factory.hpp:76] Creating layer conv4_3
I1012 12:15:21.053566 19362 net.cpp:106] Creating Layer conv4_3
I1012 12:15:21.053570 19362 net.cpp:454] conv4_3 <- conv4_2
I1012 12:15:21.053575 19362 net.cpp:411] conv4_3 -> conv4_3
I1012 12:15:21.059999 19362 net.cpp:150] Setting up conv4_3
I1012 12:15:21.060019 19362 net.cpp:157] Top shape: 2 512 72 72 (5308416)
I1012 12:15:21.060034 19362 net.cpp:165] Memory required for data: 1464439852
I1012 12:15:21.060040 19362 layer_factory.hpp:76] Creating layer relu4_3
I1012 12:15:21.060050 19362 net.cpp:106] Creating Layer relu4_3
I1012 12:15:21.060055 19362 net.cpp:454] relu4_3 <- conv4_3
I1012 12:15:21.060061 19362 net.cpp:397] relu4_3 -> conv4_3 (in-place)
I1012 12:15:21.060436 19362 net.cpp:150] Setting up relu4_3
I1012 12:15:21.060449 19362 net.cpp:157] Top shape: 2 512 72 72 (5308416)
I1012 12:15:21.060452 19362 net.cpp:165] Memory required for data: 1485673516
I1012 12:15:21.060456 19362 layer_factory.hpp:76] Creating layer conv4_3_relu4_3_0_split
I1012 12:15:21.060462 19362 net.cpp:106] Creating Layer conv4_3_relu4_3_0_split
I1012 12:15:21.060467 19362 net.cpp:454] conv4_3_relu4_3_0_split <- conv4_3
I1012 12:15:21.060473 19362 net.cpp:411] conv4_3_relu4_3_0_split -> conv4_3_relu4_3_0_split_0
I1012 12:15:21.060480 19362 net.cpp:411] conv4_3_relu4_3_0_split -> conv4_3_relu4_3_0_split_1
I1012 12:15:21.060487 19362 net.cpp:411] conv4_3_relu4_3_0_split -> conv4_3_relu4_3_0_split_2
I1012 12:15:21.060493 19362 net.cpp:411] conv4_3_relu4_3_0_split -> conv4_3_relu4_3_0_split_3
I1012 12:15:21.060613 19362 net.cpp:150] Setting up conv4_3_relu4_3_0_split
I1012 12:15:21.060626 19362 net.cpp:157] Top shape: 2 512 72 72 (5308416)
I1012 12:15:21.060633 19362 net.cpp:157] Top shape: 2 512 72 72 (5308416)
I1012 12:15:21.060639 19362 net.cpp:157] Top shape: 2 512 72 72 (5308416)
I1012 12:15:21.060645 19362 net.cpp:157] Top shape: 2 512 72 72 (5308416)
I1012 12:15:21.060649 19362 net.cpp:165] Memory required for data: 1570608172
I1012 12:15:21.060654 19362 layer_factory.hpp:76] Creating layer loss1_conv1
I1012 12:15:21.060675 19362 net.cpp:106] Creating Layer loss1_conv1
I1012 12:15:21.060683 19362 net.cpp:454] loss1_conv1 <- conv4_3_relu4_3_0_split_0
I1012 12:15:21.060690 19362 net.cpp:411] loss1_conv1 -> loss1_conv1
I1012 12:15:21.140862 19362 net.cpp:150] Setting up loss1_conv1
I1012 12:15:21.140900 19362 net.cpp:157] Top shape: 2 512 72 72 (5308416)
I1012 12:15:21.140904 19362 net.cpp:165] Memory required for data: 1591841836
I1012 12:15:21.140913 19362 layer_factory.hpp:76] Creating layer loss_relu1
I1012 12:15:21.140924 19362 net.cpp:106] Creating Layer loss_relu1
I1012 12:15:21.140930 19362 net.cpp:454] loss_relu1 <- loss1_conv1
I1012 12:15:21.140936 19362 net.cpp:397] loss_relu1 -> loss1_conv1 (in-place)
I1012 12:15:21.141156 19362 net.cpp:150] Setting up loss_relu1
I1012 12:15:21.141168 19362 net.cpp:157] Top shape: 2 512 72 72 (5308416)
I1012 12:15:21.141171 19362 net.cpp:165] Memory required for data: 1613075500
I1012 12:15:21.141175 19362 layer_factory.hpp:76] Creating layer loss1_conv1_loss_relu1_0_split
I1012 12:15:21.141182 19362 net.cpp:106] Creating Layer loss1_conv1_loss_relu1_0_split
I1012 12:15:21.141186 19362 net.cpp:454] loss1_conv1_loss_relu1_0_split <- loss1_conv1
I1012 12:15:21.141192 19362 net.cpp:411] loss1_conv1_loss_relu1_0_split -> loss1_conv1_loss_relu1_0_split_0
I1012 12:15:21.141199 19362 net.cpp:411] loss1_conv1_loss_relu1_0_split -> loss1_conv1_loss_relu1_0_split_1
I1012 12:15:21.141268 19362 net.cpp:150] Setting up loss1_conv1_loss_relu1_0_split
I1012 12:15:21.141278 19362 net.cpp:157] Top shape: 2 512 72 72 (5308416)
I1012 12:15:21.141288 19362 net.cpp:157] Top shape: 2 512 72 72 (5308416)
I1012 12:15:21.141291 19362 net.cpp:165] Memory required for data: 1655542828
I1012 12:15:21.141296 19362 layer_factory.hpp:76] Creating layer LFCN_1_3x5
I1012 12:15:21.141309 19362 net.cpp:106] Creating Layer LFCN_1_3x5
I1012 12:15:21.141314 19362 net.cpp:454] LFCN_1_3x5 <- loss1_conv1_loss_relu1_0_split_0
I1012 12:15:21.141324 19362 net.cpp:411] LFCN_1_3x5 -> LFCN_1_3x5
I1012 12:15:21.144096 19362 net.cpp:150] Setting up LFCN_1_3x5
I1012 12:15:21.144111 19362 net.cpp:157] Top shape: 2 6 72 72 (62208)
I1012 12:15:21.144115 19362 net.cpp:165] Memory required for data: 1655791660
I1012 12:15:21.144121 19362 layer_factory.hpp:76] Creating layer LFCN_1_3x5_LFCN_1_3x5_0_split
I1012 12:15:21.144127 19362 net.cpp:106] Creating Layer LFCN_1_3x5_LFCN_1_3x5_0_split
I1012 12:15:21.144131 19362 net.cpp:454] LFCN_1_3x5_LFCN_1_3x5_0_split <- LFCN_1_3x5
I1012 12:15:21.144140 19362 net.cpp:411] LFCN_1_3x5_LFCN_1_3x5_0_split -> LFCN_1_3x5_LFCN_1_3x5_0_split_0
I1012 12:15:21.144146 19362 net.cpp:411] LFCN_1_3x5_LFCN_1_3x5_0_split -> LFCN_1_3x5_LFCN_1_3x5_0_split_1
I1012 12:15:21.144151 19362 net.cpp:411] LFCN_1_3x5_LFCN_1_3x5_0_split -> LFCN_1_3x5_LFCN_1_3x5_0_split_2
I1012 12:15:21.144248 19362 net.cpp:150] Setting up LFCN_1_3x5_LFCN_1_3x5_0_split
I1012 12:15:21.144274 19362 net.cpp:157] Top shape: 2 6 72 72 (62208)
I1012 12:15:21.144281 19362 net.cpp:157] Top shape: 2 6 72 72 (62208)
I1012 12:15:21.144287 19362 net.cpp:157] Top shape: 2 6 72 72 (62208)
I1012 12:15:21.144291 19362 net.cpp:165] Memory required for data: 1656538156
I1012 12:15:21.144294 19362 layer_factory.hpp:76] Creating layer detection_loss_1_3x5
I1012 12:15:21.144302 19362 net.cpp:106] Creating Layer detection_loss_1_3x5
I1012 12:15:21.144307 19362 net.cpp:454] detection_loss_1_3x5 <- LFCN_1_3x5_LFCN_1_3x5_0_split_0
I1012 12:15:21.144315 19362 net.cpp:454] detection_loss_1_3x5 <- label_1_3x5_data_1_split_0
I1012 12:15:21.144323 19362 net.cpp:411] detection_loss_1_3x5 -> loss_1_3x5
I1012 12:15:21.144332 19362 layer_factory.hpp:76] Creating layer detection_loss_1_3x5
I1012 12:15:21.144934 19362 net.cpp:150] Setting up detection_loss_1_3x5
I1012 12:15:21.144948 19362 net.cpp:157] Top shape: 1 1 1 2 (2)
I1012 12:15:21.144950 19362 net.cpp:160]     with loss weight 0.9
I1012 12:15:21.144963 19362 net.cpp:165] Memory required for data: 1656538164
I1012 12:15:21.144966 19362 layer_factory.hpp:76] Creating layer detection_accuracy_1_3x5
I1012 12:15:21.144975 19362 net.cpp:106] Creating Layer detection_accuracy_1_3x5
I1012 12:15:21.144979 19362 net.cpp:454] detection_accuracy_1_3x5 <- LFCN_1_3x5_LFCN_1_3x5_0_split_1
I1012 12:15:21.144984 19362 net.cpp:454] detection_accuracy_1_3x5 <- label_1_3x5_data_1_split_1
I1012 12:15:21.144989 19362 net.cpp:411] detection_accuracy_1_3x5 -> accuracy_1_3x5
I1012 12:15:21.144996 19362 net.cpp:411] detection_accuracy_1_3x5 -> boxiou_1_3x5
I1012 12:15:21.145067 19362 net.cpp:150] Setting up detection_accuracy_1_3x5
I1012 12:15:21.145081 19362 net.cpp:157] Top shape: 1 1 1 2 (2)
I1012 12:15:21.145083 19362 net.cpp:157] Top shape: 1 1 1 1 (1)
I1012 12:15:21.145087 19362 net.cpp:165] Memory required for data: 1656538176
I1012 12:15:21.145089 19362 layer_factory.hpp:76] Creating layer LFCN_1_5x7
I1012 12:15:21.145099 19362 net.cpp:106] Creating Layer LFCN_1_5x7
I1012 12:15:21.145105 19362 net.cpp:454] LFCN_1_5x7 <- loss1_conv1_loss_relu1_0_split_1
I1012 12:15:21.145112 19362 net.cpp:411] LFCN_1_5x7 -> LFCN_1_5x7
I1012 12:15:21.150161 19362 net.cpp:150] Setting up LFCN_1_5x7
I1012 12:15:21.150177 19362 net.cpp:157] Top shape: 2 6 72 72 (62208)
I1012 12:15:21.150179 19362 net.cpp:165] Memory required for data: 1656787008
I1012 12:15:21.150185 19362 layer_factory.hpp:76] Creating layer LFCN_1_5x7_LFCN_1_5x7_0_split
I1012 12:15:21.150192 19362 net.cpp:106] Creating Layer LFCN_1_5x7_LFCN_1_5x7_0_split
I1012 12:15:21.150195 19362 net.cpp:454] LFCN_1_5x7_LFCN_1_5x7_0_split <- LFCN_1_5x7
I1012 12:15:21.150202 19362 net.cpp:411] LFCN_1_5x7_LFCN_1_5x7_0_split -> LFCN_1_5x7_LFCN_1_5x7_0_split_0
I1012 12:15:21.150209 19362 net.cpp:411] LFCN_1_5x7_LFCN_1_5x7_0_split -> LFCN_1_5x7_LFCN_1_5x7_0_split_1
I1012 12:15:21.150215 19362 net.cpp:411] LFCN_1_5x7_LFCN_1_5x7_0_split -> LFCN_1_5x7_LFCN_1_5x7_0_split_2
I1012 12:15:21.150286 19362 net.cpp:150] Setting up LFCN_1_5x7_LFCN_1_5x7_0_split
I1012 12:15:21.150295 19362 net.cpp:157] Top shape: 2 6 72 72 (62208)
I1012 12:15:21.150301 19362 net.cpp:157] Top shape: 2 6 72 72 (62208)
I1012 12:15:21.150307 19362 net.cpp:157] Top shape: 2 6 72 72 (62208)
I1012 12:15:21.150312 19362 net.cpp:165] Memory required for data: 1657533504
I1012 12:15:21.150316 19362 layer_factory.hpp:76] Creating layer detection_loss_1_5x7
I1012 12:15:21.150326 19362 net.cpp:106] Creating Layer detection_loss_1_5x7
I1012 12:15:21.150333 19362 net.cpp:454] detection_loss_1_5x7 <- LFCN_1_5x7_LFCN_1_5x7_0_split_0
I1012 12:15:21.150341 19362 net.cpp:454] detection_loss_1_5x7 <- label_1_5x7_data_2_split_0
I1012 12:15:21.150351 19362 net.cpp:411] detection_loss_1_5x7 -> loss_1_5x7
I1012 12:15:21.150362 19362 layer_factory.hpp:76] Creating layer detection_loss_1_5x7
I1012 12:15:21.151021 19362 net.cpp:150] Setting up detection_loss_1_5x7
I1012 12:15:21.151034 19362 net.cpp:157] Top shape: 1 1 1 2 (2)
I1012 12:15:21.151037 19362 net.cpp:160]     with loss weight 0.9
I1012 12:15:21.151043 19362 net.cpp:165] Memory required for data: 1657533512
I1012 12:15:21.151046 19362 layer_factory.hpp:76] Creating layer detection_accuracy_1_5x7
I1012 12:15:21.151056 19362 net.cpp:106] Creating Layer detection_accuracy_1_5x7
I1012 12:15:21.151059 19362 net.cpp:454] detection_accuracy_1_5x7 <- LFCN_1_5x7_LFCN_1_5x7_0_split_1
I1012 12:15:21.151064 19362 net.cpp:454] detection_accuracy_1_5x7 <- label_1_5x7_data_2_split_1
I1012 12:15:21.151069 19362 net.cpp:411] detection_accuracy_1_5x7 -> accuracy_1_5x7
I1012 12:15:21.151077 19362 net.cpp:411] detection_accuracy_1_5x7 -> boxiou_1_5x7
I1012 12:15:21.151136 19362 net.cpp:150] Setting up detection_accuracy_1_5x7
I1012 12:15:21.151142 19362 net.cpp:157] Top shape: 1 1 1 2 (2)
I1012 12:15:21.151147 19362 net.cpp:157] Top shape: 1 1 1 1 (1)
I1012 12:15:21.151151 19362 net.cpp:165] Memory required for data: 1657533524
I1012 12:15:21.151156 19362 layer_factory.hpp:76] Creating layer pool4
I1012 12:15:21.151166 19362 net.cpp:106] Creating Layer pool4
I1012 12:15:21.151175 19362 net.cpp:454] pool4 <- conv4_3_relu4_3_0_split_1
I1012 12:15:21.151182 19362 net.cpp:411] pool4 -> pool4
I1012 12:15:21.151801 19362 net.cpp:150] Setting up pool4
I1012 12:15:21.151815 19362 net.cpp:157] Top shape: 2 512 36 36 (1327104)
I1012 12:15:21.151818 19362 net.cpp:165] Memory required for data: 1662841940
I1012 12:15:21.151821 19362 layer_factory.hpp:76] Creating layer conv5_1
I1012 12:15:21.151830 19362 net.cpp:106] Creating Layer conv5_1
I1012 12:15:21.151834 19362 net.cpp:454] conv5_1 <- pool4
I1012 12:15:21.151839 19362 net.cpp:411] conv5_1 -> conv5_1
I1012 12:15:21.158095 19362 net.cpp:150] Setting up conv5_1
I1012 12:15:21.158115 19362 net.cpp:157] Top shape: 2 512 36 36 (1327104)
I1012 12:15:21.158119 19362 net.cpp:165] Memory required for data: 1668150356
I1012 12:15:21.158126 19362 layer_factory.hpp:76] Creating layer relu5_1
I1012 12:15:21.158133 19362 net.cpp:106] Creating Layer relu5_1
I1012 12:15:21.158136 19362 net.cpp:454] relu5_1 <- conv5_1
I1012 12:15:21.158143 19362 net.cpp:397] relu5_1 -> conv5_1 (in-place)
I1012 12:15:21.158522 19362 net.cpp:150] Setting up relu5_1
I1012 12:15:21.158536 19362 net.cpp:157] Top shape: 2 512 36 36 (1327104)
I1012 12:15:21.158540 19362 net.cpp:165] Memory required for data: 1673458772
I1012 12:15:21.158543 19362 layer_factory.hpp:76] Creating layer conv5_2
I1012 12:15:21.158551 19362 net.cpp:106] Creating Layer conv5_2
I1012 12:15:21.158556 19362 net.cpp:454] conv5_2 <- conv5_1
I1012 12:15:21.158561 19362 net.cpp:411] conv5_2 -> conv5_2
I1012 12:15:21.165199 19362 net.cpp:150] Setting up conv5_2
I1012 12:15:21.165217 19362 net.cpp:157] Top shape: 2 512 36 36 (1327104)
I1012 12:15:21.165220 19362 net.cpp:165] Memory required for data: 1678767188
I1012 12:15:21.165227 19362 layer_factory.hpp:76] Creating layer relu5_2
I1012 12:15:21.165235 19362 net.cpp:106] Creating Layer relu5_2
I1012 12:15:21.165238 19362 net.cpp:454] relu5_2 <- conv5_2
I1012 12:15:21.165244 19362 net.cpp:397] relu5_2 -> conv5_2 (in-place)
I1012 12:15:21.165498 19362 net.cpp:150] Setting up relu5_2
I1012 12:15:21.165511 19362 net.cpp:157] Top shape: 2 512 36 36 (1327104)
I1012 12:15:21.165514 19362 net.cpp:165] Memory required for data: 1684075604
I1012 12:15:21.165519 19362 layer_factory.hpp:76] Creating layer conv5_3
I1012 12:15:21.165529 19362 net.cpp:106] Creating Layer conv5_3
I1012 12:15:21.165532 19362 net.cpp:454] conv5_3 <- conv5_2
I1012 12:15:21.165539 19362 net.cpp:411] conv5_3 -> conv5_3
I1012 12:15:21.172099 19362 net.cpp:150] Setting up conv5_3
I1012 12:15:21.172116 19362 net.cpp:157] Top shape: 2 512 36 36 (1327104)
I1012 12:15:21.172132 19362 net.cpp:165] Memory required for data: 1689384020
I1012 12:15:21.172138 19362 layer_factory.hpp:76] Creating layer relu5_3
I1012 12:15:21.172147 19362 net.cpp:106] Creating Layer relu5_3
I1012 12:15:21.172150 19362 net.cpp:454] relu5_3 <- conv5_3
I1012 12:15:21.172155 19362 net.cpp:397] relu5_3 -> conv5_3 (in-place)
I1012 12:15:21.172544 19362 net.cpp:150] Setting up relu5_3
I1012 12:15:21.172557 19362 net.cpp:157] Top shape: 2 512 36 36 (1327104)
I1012 12:15:21.172561 19362 net.cpp:165] Memory required for data: 1694692436
I1012 12:15:21.172564 19362 layer_factory.hpp:76] Creating layer conv5_3_relu5_3_0_split
I1012 12:15:21.172574 19362 net.cpp:106] Creating Layer conv5_3_relu5_3_0_split
I1012 12:15:21.172577 19362 net.cpp:454] conv5_3_relu5_3_0_split <- conv5_3
I1012 12:15:21.172582 19362 net.cpp:411] conv5_3_relu5_3_0_split -> conv5_3_relu5_3_0_split_0
I1012 12:15:21.172590 19362 net.cpp:411] conv5_3_relu5_3_0_split -> conv5_3_relu5_3_0_split_1
I1012 12:15:21.172598 19362 net.cpp:411] conv5_3_relu5_3_0_split -> conv5_3_relu5_3_0_split_2
I1012 12:15:21.172713 19362 net.cpp:150] Setting up conv5_3_relu5_3_0_split
I1012 12:15:21.172725 19362 net.cpp:157] Top shape: 2 512 36 36 (1327104)
I1012 12:15:21.172729 19362 net.cpp:157] Top shape: 2 512 36 36 (1327104)
I1012 12:15:21.172734 19362 net.cpp:157] Top shape: 2 512 36 36 (1327104)
I1012 12:15:21.172737 19362 net.cpp:165] Memory required for data: 1710617684
I1012 12:15:21.172744 19362 layer_factory.hpp:76] Creating layer LFCN_2_3x5
I1012 12:15:21.172756 19362 net.cpp:106] Creating Layer LFCN_2_3x5
I1012 12:15:21.172762 19362 net.cpp:454] LFCN_2_3x5 <- conv5_3_relu5_3_0_split_0
I1012 12:15:21.172773 19362 net.cpp:411] LFCN_2_3x5 -> LFCN_2_3x5
I1012 12:15:21.175379 19362 net.cpp:150] Setting up LFCN_2_3x5
I1012 12:15:21.175393 19362 net.cpp:157] Top shape: 2 6 36 36 (15552)
I1012 12:15:21.175396 19362 net.cpp:165] Memory required for data: 1710679892
I1012 12:15:21.175410 19362 layer_factory.hpp:76] Creating layer LFCN_2_3x5_LFCN_2_3x5_0_split
I1012 12:15:21.175418 19362 net.cpp:106] Creating Layer LFCN_2_3x5_LFCN_2_3x5_0_split
I1012 12:15:21.175422 19362 net.cpp:454] LFCN_2_3x5_LFCN_2_3x5_0_split <- LFCN_2_3x5
I1012 12:15:21.175428 19362 net.cpp:411] LFCN_2_3x5_LFCN_2_3x5_0_split -> LFCN_2_3x5_LFCN_2_3x5_0_split_0
I1012 12:15:21.175436 19362 net.cpp:411] LFCN_2_3x5_LFCN_2_3x5_0_split -> LFCN_2_3x5_LFCN_2_3x5_0_split_1
I1012 12:15:21.175441 19362 net.cpp:411] LFCN_2_3x5_LFCN_2_3x5_0_split -> LFCN_2_3x5_LFCN_2_3x5_0_split_2
I1012 12:15:21.175530 19362 net.cpp:150] Setting up LFCN_2_3x5_LFCN_2_3x5_0_split
I1012 12:15:21.175541 19362 net.cpp:157] Top shape: 2 6 36 36 (15552)
I1012 12:15:21.175546 19362 net.cpp:157] Top shape: 2 6 36 36 (15552)
I1012 12:15:21.175549 19362 net.cpp:157] Top shape: 2 6 36 36 (15552)
I1012 12:15:21.175554 19362 net.cpp:165] Memory required for data: 1710866516
I1012 12:15:21.175559 19362 layer_factory.hpp:76] Creating layer detection_loss_2_3x5
I1012 12:15:21.175567 19362 net.cpp:106] Creating Layer detection_loss_2_3x5
I1012 12:15:21.175573 19362 net.cpp:454] detection_loss_2_3x5 <- LFCN_2_3x5_LFCN_2_3x5_0_split_0
I1012 12:15:21.175581 19362 net.cpp:454] detection_loss_2_3x5 <- label_2_3x5_data_3_split_0
I1012 12:15:21.175592 19362 net.cpp:411] detection_loss_2_3x5 -> loss_2_3x5
I1012 12:15:21.175606 19362 layer_factory.hpp:76] Creating layer detection_loss_2_3x5
I1012 12:15:21.176246 19362 net.cpp:150] Setting up detection_loss_2_3x5
I1012 12:15:21.176260 19362 net.cpp:157] Top shape: 1 1 1 2 (2)
I1012 12:15:21.176264 19362 net.cpp:160]     with loss weight 1
I1012 12:15:21.176275 19362 net.cpp:165] Memory required for data: 1710866524
I1012 12:15:21.176278 19362 layer_factory.hpp:76] Creating layer detection_accuracy_2_3x5
I1012 12:15:21.176286 19362 net.cpp:106] Creating Layer detection_accuracy_2_3x5
I1012 12:15:21.176290 19362 net.cpp:454] detection_accuracy_2_3x5 <- LFCN_2_3x5_LFCN_2_3x5_0_split_1
I1012 12:15:21.176295 19362 net.cpp:454] detection_accuracy_2_3x5 <- label_2_3x5_data_3_split_1
I1012 12:15:21.176302 19362 net.cpp:411] detection_accuracy_2_3x5 -> accuracy_2_3x5
I1012 12:15:21.176309 19362 net.cpp:411] detection_accuracy_2_3x5 -> boxiou_2_3x5
I1012 12:15:21.176384 19362 net.cpp:150] Setting up detection_accuracy_2_3x5
I1012 12:15:21.176394 19362 net.cpp:157] Top shape: 1 1 1 2 (2)
I1012 12:15:21.176400 19362 net.cpp:157] Top shape: 1 1 1 1 (1)
I1012 12:15:21.176404 19362 net.cpp:165] Memory required for data: 1710866536
I1012 12:15:21.176410 19362 layer_factory.hpp:76] Creating layer LFCN_2_5x7
I1012 12:15:21.176427 19362 net.cpp:106] Creating Layer LFCN_2_5x7
I1012 12:15:21.176434 19362 net.cpp:454] LFCN_2_5x7 <- conv5_3_relu5_3_0_split_1
I1012 12:15:21.176448 19362 net.cpp:411] LFCN_2_5x7 -> LFCN_2_5x7
I1012 12:15:21.181427 19362 net.cpp:150] Setting up LFCN_2_5x7
I1012 12:15:21.181442 19362 net.cpp:157] Top shape: 2 6 36 36 (15552)
I1012 12:15:21.181445 19362 net.cpp:165] Memory required for data: 1710928744
I1012 12:15:21.181452 19362 layer_factory.hpp:76] Creating layer LFCN_2_5x7_LFCN_2_5x7_0_split
I1012 12:15:21.181458 19362 net.cpp:106] Creating Layer LFCN_2_5x7_LFCN_2_5x7_0_split
I1012 12:15:21.181463 19362 net.cpp:454] LFCN_2_5x7_LFCN_2_5x7_0_split <- LFCN_2_5x7
I1012 12:15:21.181470 19362 net.cpp:411] LFCN_2_5x7_LFCN_2_5x7_0_split -> LFCN_2_5x7_LFCN_2_5x7_0_split_0
I1012 12:15:21.181478 19362 net.cpp:411] LFCN_2_5x7_LFCN_2_5x7_0_split -> LFCN_2_5x7_LFCN_2_5x7_0_split_1
I1012 12:15:21.181483 19362 net.cpp:411] LFCN_2_5x7_LFCN_2_5x7_0_split -> LFCN_2_5x7_LFCN_2_5x7_0_split_2
I1012 12:15:21.181591 19362 net.cpp:150] Setting up LFCN_2_5x7_LFCN_2_5x7_0_split
I1012 12:15:21.181602 19362 net.cpp:157] Top shape: 2 6 36 36 (15552)
I1012 12:15:21.181608 19362 net.cpp:157] Top shape: 2 6 36 36 (15552)
I1012 12:15:21.181614 19362 net.cpp:157] Top shape: 2 6 36 36 (15552)
I1012 12:15:21.181618 19362 net.cpp:165] Memory required for data: 1711115368
I1012 12:15:21.181624 19362 layer_factory.hpp:76] Creating layer detection_loss_2_5x7
I1012 12:15:21.181632 19362 net.cpp:106] Creating Layer detection_loss_2_5x7
I1012 12:15:21.181638 19362 net.cpp:454] detection_loss_2_5x7 <- LFCN_2_5x7_LFCN_2_5x7_0_split_0
I1012 12:15:21.181646 19362 net.cpp:454] detection_loss_2_5x7 <- label_2_5x7_data_4_split_0
I1012 12:15:21.181661 19362 net.cpp:411] detection_loss_2_5x7 -> loss_2_5x7
I1012 12:15:21.181674 19362 layer_factory.hpp:76] Creating layer detection_loss_2_5x7
I1012 12:15:21.182152 19362 net.cpp:150] Setting up detection_loss_2_5x7
I1012 12:15:21.182164 19362 net.cpp:157] Top shape: 1 1 1 2 (2)
I1012 12:15:21.182168 19362 net.cpp:160]     with loss weight 1
I1012 12:15:21.182173 19362 net.cpp:165] Memory required for data: 1711115376
I1012 12:15:21.182176 19362 layer_factory.hpp:76] Creating layer detection_accuracy_2_5x7
I1012 12:15:21.182183 19362 net.cpp:106] Creating Layer detection_accuracy_2_5x7
I1012 12:15:21.182186 19362 net.cpp:454] detection_accuracy_2_5x7 <- LFCN_2_5x7_LFCN_2_5x7_0_split_1
I1012 12:15:21.182193 19362 net.cpp:454] detection_accuracy_2_5x7 <- label_2_5x7_data_4_split_1
I1012 12:15:21.182199 19362 net.cpp:411] detection_accuracy_2_5x7 -> accuracy_2_5x7
I1012 12:15:21.182206 19362 net.cpp:411] detection_accuracy_2_5x7 -> boxiou_2_5x7
I1012 12:15:21.182272 19362 net.cpp:150] Setting up detection_accuracy_2_5x7
I1012 12:15:21.182286 19362 net.cpp:157] Top shape: 1 1 1 2 (2)
I1012 12:15:21.182291 19362 net.cpp:157] Top shape: 1 1 1 1 (1)
I1012 12:15:21.182296 19362 net.cpp:165] Memory required for data: 1711115388
I1012 12:15:21.182301 19362 layer_factory.hpp:76] Creating layer pool5
I1012 12:15:21.182307 19362 net.cpp:106] Creating Layer pool5
I1012 12:15:21.182313 19362 net.cpp:454] pool5 <- conv5_3_relu5_3_0_split_2
I1012 12:15:21.182322 19362 net.cpp:411] pool5 -> pool5
I1012 12:15:21.182771 19362 net.cpp:150] Setting up pool5
I1012 12:15:21.182785 19362 net.cpp:157] Top shape: 2 512 18 18 (331776)
I1012 12:15:21.182788 19362 net.cpp:165] Memory required for data: 1712442492
I1012 12:15:21.182792 19362 layer_factory.hpp:76] Creating layer conv6_1
I1012 12:15:21.182801 19362 net.cpp:106] Creating Layer conv6_1
I1012 12:15:21.182806 19362 net.cpp:454] conv6_1 <- pool5
I1012 12:15:21.182812 19362 net.cpp:411] conv6_1 -> conv6_1
I1012 12:15:21.262326 19362 net.cpp:150] Setting up conv6_1
I1012 12:15:21.262344 19362 net.cpp:157] Top shape: 2 512 18 18 (331776)
I1012 12:15:21.262359 19362 net.cpp:165] Memory required for data: 1713769596
I1012 12:15:21.262367 19362 layer_factory.hpp:76] Creating layer relu6_1
I1012 12:15:21.262374 19362 net.cpp:106] Creating Layer relu6_1
I1012 12:15:21.262379 19362 net.cpp:454] relu6_1 <- conv6_1
I1012 12:15:21.262385 19362 net.cpp:397] relu6_1 -> conv6_1 (in-place)
I1012 12:15:21.262784 19362 net.cpp:150] Setting up relu6_1
I1012 12:15:21.262796 19362 net.cpp:157] Top shape: 2 512 18 18 (331776)
I1012 12:15:21.262799 19362 net.cpp:165] Memory required for data: 1715096700
I1012 12:15:21.262804 19362 layer_factory.hpp:76] Creating layer conv6_1_relu6_1_0_split
I1012 12:15:21.262810 19362 net.cpp:106] Creating Layer conv6_1_relu6_1_0_split
I1012 12:15:21.262814 19362 net.cpp:454] conv6_1_relu6_1_0_split <- conv6_1
I1012 12:15:21.262820 19362 net.cpp:411] conv6_1_relu6_1_0_split -> conv6_1_relu6_1_0_split_0
I1012 12:15:21.262826 19362 net.cpp:411] conv6_1_relu6_1_0_split -> conv6_1_relu6_1_0_split_1
I1012 12:15:21.262831 19362 net.cpp:411] conv6_1_relu6_1_0_split -> conv6_1_relu6_1_0_split_2
I1012 12:15:21.262953 19362 net.cpp:150] Setting up conv6_1_relu6_1_0_split
I1012 12:15:21.262965 19362 net.cpp:157] Top shape: 2 512 18 18 (331776)
I1012 12:15:21.262970 19362 net.cpp:157] Top shape: 2 512 18 18 (331776)
I1012 12:15:21.262974 19362 net.cpp:157] Top shape: 2 512 18 18 (331776)
I1012 12:15:21.262976 19362 net.cpp:165] Memory required for data: 1719078012
I1012 12:15:21.262979 19362 layer_factory.hpp:76] Creating layer LFCN_3_3x5
I1012 12:15:21.262990 19362 net.cpp:106] Creating Layer LFCN_3_3x5
I1012 12:15:21.262995 19362 net.cpp:454] LFCN_3_3x5 <- conv6_1_relu6_1_0_split_0
I1012 12:15:21.263005 19362 net.cpp:411] LFCN_3_3x5 -> LFCN_3_3x5
I1012 12:15:21.265897 19362 net.cpp:150] Setting up LFCN_3_3x5
I1012 12:15:21.265911 19362 net.cpp:157] Top shape: 2 6 18 18 (3888)
I1012 12:15:21.265914 19362 net.cpp:165] Memory required for data: 1719093564
I1012 12:15:21.265921 19362 layer_factory.hpp:76] Creating layer LFCN_3_3x5_LFCN_3_3x5_0_split
I1012 12:15:21.265936 19362 net.cpp:106] Creating Layer LFCN_3_3x5_LFCN_3_3x5_0_split
I1012 12:15:21.265940 19362 net.cpp:454] LFCN_3_3x5_LFCN_3_3x5_0_split <- LFCN_3_3x5
I1012 12:15:21.265949 19362 net.cpp:411] LFCN_3_3x5_LFCN_3_3x5_0_split -> LFCN_3_3x5_LFCN_3_3x5_0_split_0
I1012 12:15:21.265957 19362 net.cpp:411] LFCN_3_3x5_LFCN_3_3x5_0_split -> LFCN_3_3x5_LFCN_3_3x5_0_split_1
I1012 12:15:21.265965 19362 net.cpp:411] LFCN_3_3x5_LFCN_3_3x5_0_split -> LFCN_3_3x5_LFCN_3_3x5_0_split_2
I1012 12:15:21.266077 19362 net.cpp:150] Setting up LFCN_3_3x5_LFCN_3_3x5_0_split
I1012 12:15:21.266089 19362 net.cpp:157] Top shape: 2 6 18 18 (3888)
I1012 12:15:21.266095 19362 net.cpp:157] Top shape: 2 6 18 18 (3888)
I1012 12:15:21.266101 19362 net.cpp:157] Top shape: 2 6 18 18 (3888)
I1012 12:15:21.266105 19362 net.cpp:165] Memory required for data: 1719140220
I1012 12:15:21.266113 19362 layer_factory.hpp:76] Creating layer detection_loss_3_3x5
I1012 12:15:21.266121 19362 net.cpp:106] Creating Layer detection_loss_3_3x5
I1012 12:15:21.266129 19362 net.cpp:454] detection_loss_3_3x5 <- LFCN_3_3x5_LFCN_3_3x5_0_split_0
I1012 12:15:21.266135 19362 net.cpp:454] detection_loss_3_3x5 <- label_3_3x5_data_5_split_0
I1012 12:15:21.266146 19362 net.cpp:411] detection_loss_3_3x5 -> loss_3_3x5
I1012 12:15:21.266160 19362 layer_factory.hpp:76] Creating layer detection_loss_3_3x5
I1012 12:15:21.266633 19362 net.cpp:150] Setting up detection_loss_3_3x5
I1012 12:15:21.266646 19362 net.cpp:157] Top shape: 1 1 1 2 (2)
I1012 12:15:21.266649 19362 net.cpp:160]     with loss weight 1
I1012 12:15:21.266656 19362 net.cpp:165] Memory required for data: 1719140228
I1012 12:15:21.266659 19362 layer_factory.hpp:76] Creating layer detection_accuracy_3_3x5
I1012 12:15:21.266665 19362 net.cpp:106] Creating Layer detection_accuracy_3_3x5
I1012 12:15:21.266671 19362 net.cpp:454] detection_accuracy_3_3x5 <- LFCN_3_3x5_LFCN_3_3x5_0_split_1
I1012 12:15:21.266677 19362 net.cpp:454] detection_accuracy_3_3x5 <- label_3_3x5_data_5_split_1
I1012 12:15:21.266682 19362 net.cpp:411] detection_accuracy_3_3x5 -> accuracy_3_3x5
I1012 12:15:21.266690 19362 net.cpp:411] detection_accuracy_3_3x5 -> boxiou_3_3x5
I1012 12:15:21.266753 19362 net.cpp:150] Setting up detection_accuracy_3_3x5
I1012 12:15:21.266762 19362 net.cpp:157] Top shape: 1 1 1 2 (2)
I1012 12:15:21.266767 19362 net.cpp:157] Top shape: 1 1 1 1 (1)
I1012 12:15:21.266768 19362 net.cpp:165] Memory required for data: 1719140240
I1012 12:15:21.266772 19362 layer_factory.hpp:76] Creating layer LFCN_3_5x7
I1012 12:15:21.266784 19362 net.cpp:106] Creating Layer LFCN_3_5x7
I1012 12:15:21.266790 19362 net.cpp:454] LFCN_3_5x7 <- conv6_1_relu6_1_0_split_1
I1012 12:15:21.266799 19362 net.cpp:411] LFCN_3_5x7 -> LFCN_3_5x7
I1012 12:15:21.272114 19362 net.cpp:150] Setting up LFCN_3_5x7
I1012 12:15:21.272128 19362 net.cpp:157] Top shape: 2 6 18 18 (3888)
I1012 12:15:21.272132 19362 net.cpp:165] Memory required for data: 1719155792
I1012 12:15:21.272138 19362 layer_factory.hpp:76] Creating layer LFCN_3_5x7_LFCN_3_5x7_0_split
I1012 12:15:21.272146 19362 net.cpp:106] Creating Layer LFCN_3_5x7_LFCN_3_5x7_0_split
I1012 12:15:21.272150 19362 net.cpp:454] LFCN_3_5x7_LFCN_3_5x7_0_split <- LFCN_3_5x7
I1012 12:15:21.272156 19362 net.cpp:411] LFCN_3_5x7_LFCN_3_5x7_0_split -> LFCN_3_5x7_LFCN_3_5x7_0_split_0
I1012 12:15:21.272163 19362 net.cpp:411] LFCN_3_5x7_LFCN_3_5x7_0_split -> LFCN_3_5x7_LFCN_3_5x7_0_split_1
I1012 12:15:21.272168 19362 net.cpp:411] LFCN_3_5x7_LFCN_3_5x7_0_split -> LFCN_3_5x7_LFCN_3_5x7_0_split_2
I1012 12:15:21.272258 19362 net.cpp:150] Setting up LFCN_3_5x7_LFCN_3_5x7_0_split
I1012 12:15:21.272265 19362 net.cpp:157] Top shape: 2 6 18 18 (3888)
I1012 12:15:21.272269 19362 net.cpp:157] Top shape: 2 6 18 18 (3888)
I1012 12:15:21.272272 19362 net.cpp:157] Top shape: 2 6 18 18 (3888)
I1012 12:15:21.272275 19362 net.cpp:165] Memory required for data: 1719202448
I1012 12:15:21.272279 19362 layer_factory.hpp:76] Creating layer detection_loss_3_5x7
I1012 12:15:21.272285 19362 net.cpp:106] Creating Layer detection_loss_3_5x7
I1012 12:15:21.272289 19362 net.cpp:454] detection_loss_3_5x7 <- LFCN_3_5x7_LFCN_3_5x7_0_split_0
I1012 12:15:21.272294 19362 net.cpp:454] detection_loss_3_5x7 <- label_3_5x7_data_6_split_0
I1012 12:15:21.272300 19362 net.cpp:411] detection_loss_3_5x7 -> loss_3_5x7
I1012 12:15:21.272306 19362 layer_factory.hpp:76] Creating layer detection_loss_3_5x7
I1012 12:15:21.272941 19362 net.cpp:150] Setting up detection_loss_3_5x7
I1012 12:15:21.272954 19362 net.cpp:157] Top shape: 1 1 1 2 (2)
I1012 12:15:21.272958 19362 net.cpp:160]     with loss weight 1
I1012 12:15:21.272964 19362 net.cpp:165] Memory required for data: 1719202456
I1012 12:15:21.272967 19362 layer_factory.hpp:76] Creating layer detection_accuracy_3_5x7
I1012 12:15:21.272974 19362 net.cpp:106] Creating Layer detection_accuracy_3_5x7
I1012 12:15:21.272977 19362 net.cpp:454] detection_accuracy_3_5x7 <- LFCN_3_5x7_LFCN_3_5x7_0_split_1
I1012 12:15:21.272984 19362 net.cpp:454] detection_accuracy_3_5x7 <- label_3_5x7_data_6_split_1
I1012 12:15:21.272990 19362 net.cpp:411] detection_accuracy_3_5x7 -> accuracy_3_5x7
I1012 12:15:21.272997 19362 net.cpp:411] detection_accuracy_3_5x7 -> boxiou_3_5x7
I1012 12:15:21.273059 19362 net.cpp:150] Setting up detection_accuracy_3_5x7
I1012 12:15:21.273066 19362 net.cpp:157] Top shape: 1 1 1 2 (2)
I1012 12:15:21.273069 19362 net.cpp:157] Top shape: 1 1 1 1 (1)
I1012 12:15:21.273072 19362 net.cpp:165] Memory required for data: 1719202468
I1012 12:15:21.273074 19362 layer_factory.hpp:76] Creating layer pool6
I1012 12:15:21.273080 19362 net.cpp:106] Creating Layer pool6
I1012 12:15:21.273084 19362 net.cpp:454] pool6 <- conv6_1_relu6_1_0_split_2
I1012 12:15:21.273090 19362 net.cpp:411] pool6 -> pool6
I1012 12:15:21.273357 19362 net.cpp:150] Setting up pool6
I1012 12:15:21.273370 19362 net.cpp:157] Top shape: 2 512 9 9 (82944)
I1012 12:15:21.273372 19362 net.cpp:165] Memory required for data: 1719534244
I1012 12:15:21.273375 19362 layer_factory.hpp:76] Creating layer LFCN_4_3x5
I1012 12:15:21.273385 19362 net.cpp:106] Creating Layer LFCN_4_3x5
I1012 12:15:21.273387 19362 net.cpp:454] LFCN_4_3x5 <- pool6
I1012 12:15:21.273396 19362 net.cpp:411] LFCN_4_3x5 -> LFCN_4_3x5
I1012 12:15:21.276322 19362 net.cpp:150] Setting up LFCN_4_3x5
I1012 12:15:21.276336 19362 net.cpp:157] Top shape: 2 6 9 9 (972)
I1012 12:15:21.276340 19362 net.cpp:165] Memory required for data: 1719538132
I1012 12:15:21.276346 19362 layer_factory.hpp:76] Creating layer LFCN_4_3x5_LFCN_4_3x5_0_split
I1012 12:15:21.276355 19362 net.cpp:106] Creating Layer LFCN_4_3x5_LFCN_4_3x5_0_split
I1012 12:15:21.276360 19362 net.cpp:454] LFCN_4_3x5_LFCN_4_3x5_0_split <- LFCN_4_3x5
I1012 12:15:21.276365 19362 net.cpp:411] LFCN_4_3x5_LFCN_4_3x5_0_split -> LFCN_4_3x5_LFCN_4_3x5_0_split_0
I1012 12:15:21.276372 19362 net.cpp:411] LFCN_4_3x5_LFCN_4_3x5_0_split -> LFCN_4_3x5_LFCN_4_3x5_0_split_1
I1012 12:15:21.276377 19362 net.cpp:411] LFCN_4_3x5_LFCN_4_3x5_0_split -> LFCN_4_3x5_LFCN_4_3x5_0_split_2
I1012 12:15:21.276499 19362 net.cpp:150] Setting up LFCN_4_3x5_LFCN_4_3x5_0_split
I1012 12:15:21.276506 19362 net.cpp:157] Top shape: 2 6 9 9 (972)
I1012 12:15:21.276510 19362 net.cpp:157] Top shape: 2 6 9 9 (972)
I1012 12:15:21.276513 19362 net.cpp:157] Top shape: 2 6 9 9 (972)
I1012 12:15:21.276516 19362 net.cpp:165] Memory required for data: 1719549796
I1012 12:15:21.276520 19362 layer_factory.hpp:76] Creating layer detection_loss_4_3x5
I1012 12:15:21.276527 19362 net.cpp:106] Creating Layer detection_loss_4_3x5
I1012 12:15:21.276532 19362 net.cpp:454] detection_loss_4_3x5 <- LFCN_4_3x5_LFCN_4_3x5_0_split_0
I1012 12:15:21.276537 19362 net.cpp:454] detection_loss_4_3x5 <- label_4_3x5_data_7_split_0
I1012 12:15:21.276542 19362 net.cpp:411] detection_loss_4_3x5 -> loss_4_3x5
I1012 12:15:21.276551 19362 layer_factory.hpp:76] Creating layer detection_loss_4_3x5
I1012 12:15:21.277180 19362 net.cpp:150] Setting up detection_loss_4_3x5
I1012 12:15:21.277194 19362 net.cpp:157] Top shape: 1 1 1 2 (2)
I1012 12:15:21.277197 19362 net.cpp:160]     with loss weight 1
I1012 12:15:21.277204 19362 net.cpp:165] Memory required for data: 1719549804
I1012 12:15:21.277206 19362 layer_factory.hpp:76] Creating layer detection_accuracy_4_3x5
I1012 12:15:21.277217 19362 net.cpp:106] Creating Layer detection_accuracy_4_3x5
I1012 12:15:21.277222 19362 net.cpp:454] detection_accuracy_4_3x5 <- LFCN_4_3x5_LFCN_4_3x5_0_split_1
I1012 12:15:21.277226 19362 net.cpp:454] detection_accuracy_4_3x5 <- label_4_3x5_data_7_split_1
I1012 12:15:21.277233 19362 net.cpp:411] detection_accuracy_4_3x5 -> accuracy_4_3x5
I1012 12:15:21.277240 19362 net.cpp:411] detection_accuracy_4_3x5 -> boxiou_4_3x5
I1012 12:15:21.277294 19362 net.cpp:150] Setting up detection_accuracy_4_3x5
I1012 12:15:21.277303 19362 net.cpp:157] Top shape: 1 1 1 2 (2)
I1012 12:15:21.277307 19362 net.cpp:157] Top shape: 1 1 1 1 (1)
I1012 12:15:21.277309 19362 net.cpp:165] Memory required for data: 1719549816
I1012 12:15:21.277313 19362 layer_factory.hpp:76] Creating layer proposals
I1012 12:15:21.277323 19362 net.cpp:106] Creating Layer proposals
I1012 12:15:21.277325 19362 net.cpp:454] proposals <- LFCN_1_3x5_LFCN_1_3x5_0_split_2
I1012 12:15:21.277330 19362 net.cpp:454] proposals <- LFCN_1_5x7_LFCN_1_5x7_0_split_2
I1012 12:15:21.277333 19362 net.cpp:454] proposals <- LFCN_2_3x5_LFCN_2_3x5_0_split_2
I1012 12:15:21.277338 19362 net.cpp:454] proposals <- LFCN_2_5x7_LFCN_2_5x7_0_split_2
I1012 12:15:21.277340 19362 net.cpp:454] proposals <- LFCN_3_3x5_LFCN_3_3x5_0_split_2
I1012 12:15:21.277343 19362 net.cpp:454] proposals <- LFCN_3_5x7_LFCN_3_5x7_0_split_2
I1012 12:15:21.277346 19362 net.cpp:454] proposals <- LFCN_4_3x5_LFCN_4_3x5_0_split_2
I1012 12:15:21.277351 19362 net.cpp:411] proposals -> proposals
I1012 12:15:21.277395 19362 net.cpp:150] Setting up proposals
I1012 12:15:21.277401 19362 net.cpp:157] Top shape: 1 5 1 1 (5)
I1012 12:15:21.277405 19362 net.cpp:165] Memory required for data: 1719549836
I1012 12:15:21.277407 19362 layer_factory.hpp:76] Creating layer proposal_info
I1012 12:15:21.277417 19362 net.cpp:106] Creating Layer proposal_info
I1012 12:15:21.277420 19362 net.cpp:454] proposal_info <- proposals
I1012 12:15:21.277426 19362 net.cpp:454] proposal_info <- gt_boxes
I1012 12:15:21.277432 19362 net.cpp:411] proposal_info -> rois
I1012 12:15:21.277439 19362 net.cpp:411] proposal_info -> proposal_labels
I1012 12:15:21.277448 19362 net.cpp:411] proposal_info -> proposal_targets
I1012 12:15:21.277458 19362 net.cpp:411] proposal_info -> box_inside_weights
I1012 12:15:21.277464 19362 net.cpp:411] proposal_info -> box_outside_weights
I1012 12:15:21.277469 19362 net.cpp:411] proposal_info -> match_gt_boxes
I1012 12:15:21.277619 19362 net.cpp:150] Setting up proposal_info
I1012 12:15:21.277627 19362 net.cpp:157] Top shape: 64 5 1 1 (320)
I1012 12:15:21.277632 19362 net.cpp:157] Top shape: 64 1 1 1 (64)
I1012 12:15:21.277638 19362 net.cpp:157] Top shape: 64 8 1 1 (512)
I1012 12:15:21.277644 19362 net.cpp:157] Top shape: 64 8 1 1 (512)
I1012 12:15:21.277648 19362 net.cpp:157] Top shape: 64 8 1 1 (512)
I1012 12:15:21.277652 19362 net.cpp:157] Top shape: 64 6 1 1 (384)
I1012 12:15:21.277653 19362 net.cpp:165] Memory required for data: 1719559052
I1012 12:15:21.277657 19362 layer_factory.hpp:76] Creating layer rois_proposal_info_0_split
I1012 12:15:21.277664 19362 net.cpp:106] Creating Layer rois_proposal_info_0_split
I1012 12:15:21.277668 19362 net.cpp:454] rois_proposal_info_0_split <- rois
I1012 12:15:21.277673 19362 net.cpp:411] rois_proposal_info_0_split -> rois_proposal_info_0_split_0
I1012 12:15:21.277679 19362 net.cpp:411] rois_proposal_info_0_split -> rois_proposal_info_0_split_1
I1012 12:15:21.277684 19362 net.cpp:411] rois_proposal_info_0_split -> rois_proposal_info_0_split_2
I1012 12:15:21.277766 19362 net.cpp:150] Setting up rois_proposal_info_0_split
I1012 12:15:21.277773 19362 net.cpp:157] Top shape: 64 5 1 1 (320)
I1012 12:15:21.277777 19362 net.cpp:157] Top shape: 64 5 1 1 (320)
I1012 12:15:21.277781 19362 net.cpp:157] Top shape: 64 5 1 1 (320)
I1012 12:15:21.277783 19362 net.cpp:165] Memory required for data: 1719562892
I1012 12:15:21.277786 19362 layer_factory.hpp:76] Creating layer proposal_labels_proposal_info_1_split
I1012 12:15:21.277791 19362 net.cpp:106] Creating Layer proposal_labels_proposal_info_1_split
I1012 12:15:21.277794 19362 net.cpp:454] proposal_labels_proposal_info_1_split <- proposal_labels
I1012 12:15:21.277799 19362 net.cpp:411] proposal_labels_proposal_info_1_split -> proposal_labels_proposal_info_1_split_0
I1012 12:15:21.277806 19362 net.cpp:411] proposal_labels_proposal_info_1_split -> proposal_labels_proposal_info_1_split_1
I1012 12:15:21.277864 19362 net.cpp:150] Setting up proposal_labels_proposal_info_1_split
I1012 12:15:21.277871 19362 net.cpp:157] Top shape: 64 1 1 1 (64)
I1012 12:15:21.277874 19362 net.cpp:157] Top shape: 64 1 1 1 (64)
I1012 12:15:21.277876 19362 net.cpp:165] Memory required for data: 1719563404
I1012 12:15:21.277879 19362 layer_factory.hpp:76] Creating layer roi_pool_org
I1012 12:15:21.277886 19362 net.cpp:106] Creating Layer roi_pool_org
I1012 12:15:21.277891 19362 net.cpp:454] roi_pool_org <- conv4_3_relu4_3_0_split_2
I1012 12:15:21.277897 19362 net.cpp:454] roi_pool_org <- rois_proposal_info_0_split_0
I1012 12:15:21.277906 19362 net.cpp:411] roi_pool_org -> roi_pool_org
I1012 12:15:21.277914 19362 roi_pooling_layer.cpp:35] Spatial scale: 0.125
I1012 12:15:21.277976 19362 net.cpp:150] Setting up roi_pool_org
I1012 12:15:21.277982 19362 net.cpp:157] Top shape: 64 512 8 4 (1048576)
I1012 12:15:21.277986 19362 net.cpp:165] Memory required for data: 1723757708
I1012 12:15:21.277988 19362 layer_factory.hpp:76] Creating layer roi_pool_ctx
I1012 12:15:21.277999 19362 net.cpp:106] Creating Layer roi_pool_ctx
I1012 12:15:21.278003 19362 net.cpp:454] roi_pool_ctx <- conv4_3_relu4_3_0_split_3
I1012 12:15:21.278009 19362 net.cpp:454] roi_pool_ctx <- rois_proposal_info_0_split_1
I1012 12:15:21.278017 19362 net.cpp:411] roi_pool_ctx -> roi_pool_ctx
I1012 12:15:21.278023 19362 roi_pooling_layer.cpp:35] Spatial scale: 0.125
I1012 12:15:21.278089 19362 net.cpp:150] Setting up roi_pool_ctx
I1012 12:15:21.278095 19362 net.cpp:157] Top shape: 64 512 8 4 (1048576)
I1012 12:15:21.278097 19362 net.cpp:165] Memory required for data: 1727952012
I1012 12:15:21.278100 19362 layer_factory.hpp:76] Creating layer roi_pool
I1012 12:15:21.278105 19362 net.cpp:106] Creating Layer roi_pool
I1012 12:15:21.278110 19362 net.cpp:454] roi_pool <- roi_pool_org
I1012 12:15:21.278112 19362 net.cpp:454] roi_pool <- roi_pool_ctx
I1012 12:15:21.278120 19362 net.cpp:411] roi_pool -> roi_pool
I1012 12:15:21.278162 19362 net.cpp:150] Setting up roi_pool
I1012 12:15:21.278168 19362 net.cpp:157] Top shape: 64 1024 8 4 (2097152)
I1012 12:15:21.278170 19362 net.cpp:165] Memory required for data: 1736340620
I1012 12:15:21.278173 19362 layer_factory.hpp:76] Creating layer roi_c1
I1012 12:15:21.278182 19362 net.cpp:106] Creating Layer roi_c1
I1012 12:15:21.278187 19362 net.cpp:454] roi_c1 <- roi_pool
I1012 12:15:21.278192 19362 net.cpp:411] roi_c1 -> roi_c1
I1012 12:15:21.440343 19362 net.cpp:150] Setting up roi_c1
I1012 12:15:21.440368 19362 net.cpp:157] Top shape: 64 512 8 4 (1048576)
I1012 12:15:21.440372 19362 net.cpp:165] Memory required for data: 1740534924
I1012 12:15:21.440381 19362 layer_factory.hpp:76] Creating layer roi_c1_relu
I1012 12:15:21.440389 19362 net.cpp:106] Creating Layer roi_c1_relu
I1012 12:15:21.440397 19362 net.cpp:454] roi_c1_relu <- roi_c1
I1012 12:15:21.440404 19362 net.cpp:397] roi_c1_relu -> roi_c1 (in-place)
I1012 12:15:21.440773 19362 net.cpp:150] Setting up roi_c1_relu
I1012 12:15:21.440785 19362 net.cpp:157] Top shape: 64 512 8 4 (1048576)
I1012 12:15:21.440788 19362 net.cpp:165] Memory required for data: 1744729228
I1012 12:15:21.440793 19362 layer_factory.hpp:76] Creating layer fc6
I1012 12:15:21.440803 19362 net.cpp:106] Creating Layer fc6
I1012 12:15:21.440807 19362 net.cpp:454] fc6 <- roi_c1
I1012 12:15:21.440812 19362 net.cpp:411] fc6 -> fc6
I1012 12:15:22.561517 19362 net.cpp:150] Setting up fc6
I1012 12:15:22.561564 19362 net.cpp:157] Top shape: 64 2048 (131072)
I1012 12:15:22.561568 19362 net.cpp:165] Memory required for data: 1745253516
I1012 12:15:22.561583 19362 layer_factory.hpp:76] Creating layer relu6
I1012 12:15:22.561600 19362 net.cpp:106] Creating Layer relu6
I1012 12:15:22.561619 19362 net.cpp:454] relu6 <- fc6
I1012 12:15:22.561627 19362 net.cpp:397] relu6 -> fc6 (in-place)
I1012 12:15:22.562074 19362 net.cpp:150] Setting up relu6
I1012 12:15:22.562086 19362 net.cpp:157] Top shape: 64 2048 (131072)
I1012 12:15:22.562090 19362 net.cpp:165] Memory required for data: 1745777804
I1012 12:15:22.562094 19362 layer_factory.hpp:76] Creating layer drop6
I1012 12:15:22.562103 19362 net.cpp:106] Creating Layer drop6
I1012 12:15:22.562106 19362 net.cpp:454] drop6 <- fc6
I1012 12:15:22.562113 19362 net.cpp:397] drop6 -> fc6 (in-place)
I1012 12:15:22.562158 19362 net.cpp:150] Setting up drop6
I1012 12:15:22.562167 19362 net.cpp:157] Top shape: 64 2048 (131072)
I1012 12:15:22.562171 19362 net.cpp:165] Memory required for data: 1746302092
I1012 12:15:22.562175 19362 layer_factory.hpp:76] Creating layer fc6_drop6_0_split
I1012 12:15:22.562180 19362 net.cpp:106] Creating Layer fc6_drop6_0_split
I1012 12:15:22.562183 19362 net.cpp:454] fc6_drop6_0_split <- fc6
I1012 12:15:22.562188 19362 net.cpp:411] fc6_drop6_0_split -> fc6_drop6_0_split_0
I1012 12:15:22.562194 19362 net.cpp:411] fc6_drop6_0_split -> fc6_drop6_0_split_1
I1012 12:15:22.562288 19362 net.cpp:150] Setting up fc6_drop6_0_split
I1012 12:15:22.562294 19362 net.cpp:157] Top shape: 64 2048 (131072)
I1012 12:15:22.562299 19362 net.cpp:157] Top shape: 64 2048 (131072)
I1012 12:15:22.562300 19362 net.cpp:165] Memory required for data: 1747350668
I1012 12:15:22.562304 19362 layer_factory.hpp:76] Creating layer cls_pred
I1012 12:15:22.562315 19362 net.cpp:106] Creating Layer cls_pred
I1012 12:15:22.562319 19362 net.cpp:454] cls_pred <- fc6_drop6_0_split_0
I1012 12:15:22.562328 19362 net.cpp:411] cls_pred -> cls_pred
I1012 12:15:22.562654 19362 net.cpp:150] Setting up cls_pred
I1012 12:15:22.562664 19362 net.cpp:157] Top shape: 64 2 (128)
I1012 12:15:22.562667 19362 net.cpp:165] Memory required for data: 1747351180
I1012 12:15:22.562674 19362 layer_factory.hpp:76] Creating layer cls_pred_cls_pred_0_split
I1012 12:15:22.562680 19362 net.cpp:106] Creating Layer cls_pred_cls_pred_0_split
I1012 12:15:22.562685 19362 net.cpp:454] cls_pred_cls_pred_0_split <- cls_pred
I1012 12:15:22.562690 19362 net.cpp:411] cls_pred_cls_pred_0_split -> cls_pred_cls_pred_0_split_0
I1012 12:15:22.562695 19362 net.cpp:411] cls_pred_cls_pred_0_split -> cls_pred_cls_pred_0_split_1
I1012 12:15:22.562752 19362 net.cpp:150] Setting up cls_pred_cls_pred_0_split
I1012 12:15:22.562759 19362 net.cpp:157] Top shape: 64 2 (128)
I1012 12:15:22.562763 19362 net.cpp:157] Top shape: 64 2 (128)
I1012 12:15:22.562767 19362 net.cpp:165] Memory required for data: 1747352204
I1012 12:15:22.562769 19362 layer_factory.hpp:76] Creating layer bbox_pred
I1012 12:15:22.562777 19362 net.cpp:106] Creating Layer bbox_pred
I1012 12:15:22.562779 19362 net.cpp:454] bbox_pred <- fc6_drop6_0_split_1
I1012 12:15:22.562789 19362 net.cpp:411] bbox_pred -> bbox_pred
I1012 12:15:22.564182 19362 net.cpp:150] Setting up bbox_pred
I1012 12:15:22.564196 19362 net.cpp:157] Top shape: 64 8 (512)
I1012 12:15:22.564200 19362 net.cpp:165] Memory required for data: 1747354252
I1012 12:15:22.564205 19362 layer_factory.hpp:76] Creating layer bbox_pred_bbox_pred_0_split
I1012 12:15:22.564211 19362 net.cpp:106] Creating Layer bbox_pred_bbox_pred_0_split
I1012 12:15:22.564215 19362 net.cpp:454] bbox_pred_bbox_pred_0_split <- bbox_pred
I1012 12:15:22.564220 19362 net.cpp:411] bbox_pred_bbox_pred_0_split -> bbox_pred_bbox_pred_0_split_0
I1012 12:15:22.564280 19362 net.cpp:411] bbox_pred_bbox_pred_0_split -> bbox_pred_bbox_pred_0_split_1
I1012 12:15:22.564337 19362 net.cpp:150] Setting up bbox_pred_bbox_pred_0_split
I1012 12:15:22.564344 19362 net.cpp:157] Top shape: 64 8 (512)
I1012 12:15:22.564350 19362 net.cpp:157] Top shape: 64 8 (512)
I1012 12:15:22.564355 19362 net.cpp:165] Memory required for data: 1747358348
I1012 12:15:22.564360 19362 layer_factory.hpp:76] Creating layer loss_cls
I1012 12:15:22.564371 19362 net.cpp:106] Creating Layer loss_cls
I1012 12:15:22.564375 19362 net.cpp:454] loss_cls <- cls_pred_cls_pred_0_split_0
I1012 12:15:22.564380 19362 net.cpp:454] loss_cls <- proposal_labels_proposal_info_1_split_0
…
