…
    downsample_rate: 16
    downsample_rate: 32
    downsample_rate: 32
    downsample_rate: 64
    coord_num: 4
    field_h: 60
    field_h: 84
    field_h: 120
    field_h: 168
    field_h: 240
    field_h: 336
    field_h: 480
    field_w: 30
    field_w: 42
    field_w: 60
    field_w: 84
    field_w: 120
    field_w: 168
    field_w: 240
    fg_threshold: 0.5
    resize_width: 960
    resize_height: 720
    crop_width: 576
    crop_height: 576
    do_multiple_scale: true
    min_scale: 40
    max_scale: 340
    min_gt_height: 65
    shuffle: true
  }
}
layer {
  name: "conv1_1"
  type: "Convolution"
  bottom: "data"
  top: "conv1_1"
  convolution_param {
    num_output: 64
    pad: 1
    kernel_size: 3
  }
}
layer {
  name: "relu1_1"
  type: "ReLU"
  bottom: "conv1_1"
  top: "conv1_1"
}
layer {
  name: "conv1_2"
  type: "Convolution"
  bottom: "conv1_1"
  top: "conv1_2"
  convolution_param {
    num_output: 64
    pad: 1
    kernel_size: 3
  }
}
layer {
  name: "relu1_2"
  type: "ReLU"
  bottom: "conv1_2"
  top: "conv1_2"
}
layer {
  name: "pool1"
  type: "Pooling"
  bottom: "conv1_2"
  top: "pool1"
  pooling_param {
    pool: MAX
    kernel_size: 2
    stride: 2
  }
}
layer {
  name: "conv2_1"
  type: "Convolution"
  bottom: "pool1"
  top: "conv2_1"
  convolution_param {
    num_output: 128
    pad: 1
    kernel_size: 3
  }
}
layer {
  name: "relu2_1"
  type: "ReLU"
  bottom: "conv2_1"
  top: "conv2_1"
}
layer {
  name: "conv2_2"
  type: "Convolution"
  bottom: "conv2_1"
  top: "conv2_2"
  convolution_param {
    num_output: 128
    pad: 1
    kernel_size: 3
  }
}
layer {
  name: "relu2_2"
  type: "ReLU"
  bottom: "conv2_2"
  top: "conv2_2"
}
layer {
  name: "pool2"
  type: "Pooling"
  bottom: "conv2_2"
  top: "pool2"
  pooling_param {
    pool: MAX
    kernel_size: 2
    stride: 2
  }
}
layer {
  name: "conv3_1"
  type: "Convolution"
  bottom: "pool2"
  top: "conv3_1"
  convolution_param {
    num_output: 256
    pad: 1
    kernel_size: 3
  }
}
layer {
  name: "relu3_1"
  type: "ReLU"
  bottom: "conv3_1"
  top: "conv3_1"
}
layer {
  name: "conv3_2"
  type: "Convolution"
  bottom: "conv3_1"
  top: "conv3_2"
  convolution_param {
    num_output: 256
    pad: 1
    kernel_size: 3
  }
}
layer {
  name: "relu3_2"
  type: "ReLU"
  bottom: "conv3_2"
  top: "conv3_2"
}
layer {
  name: "conv3_3"
  type: "Convolution"
  bottom: "conv3_2"
  top: "conv3_3"
  convolution_param {
    num_output: 256
    pad: 1
    kernel_size: 3
  }
}
layer {
  name: "relu3_3"
  type: "ReLU"
  bottom: "conv3_3"
  top: "conv3_3"
}
layer {
  name: "pool3"
  type: "Pooling"
  bottom: "conv3_3"
  top: "pool3"
  pooling_param {
    pool: MAX
    kernel_size: 2
    stride: 2
  }
}
layer {
  name: "conv4_1"
  type: "Convolution"
  bottom: "pool3"
  top: "conv4_1"
  convolution_param {
    num_output: 512
    pad: 1
    kernel_size: 3
  }
}
layer {
  name: "relu4_1"
  type: "ReLU"
  bottom: "conv4_1"
  top: "conv4_1"
}
layer {
  name: "conv4_2"
  type: "Convolution"
  bottom: "conv4_1"
  top: "conv4_2"
  convolution_param {
    num_output: 512
    pad: 1
    kernel_size: 3
  }
}
layer {
  name: "relu4_2"
  type: "ReLU"
  bottom: "conv4_2"
  top: "conv4_2"
}
layer {
  name: "conv4_3"
  type: "Convolution"
  bottom: "conv4_2"
  top: "conv4_3"
  convolution_param {
    num_output: 512
    pad: 1
    kernel_size: 3
  }
}
layer {
  name: "relu4_3"
  type: "ReLU"
  bottom: "conv4_3"
  top: "conv4_3"
}
layer {
  name: "loss1_conv1"
  type: "Convolution"
  bottom: "conv4_3"
  top: "loss1_conv1"
  param {
    lr_mult: 1
    decay_mult: 1
  }
  param {
    lr_mult: 2
    decay_mult: 0
  }
  convolution_param {
    num_output: 512
    pad: 1
    kernel_size: 3
    weight_filler {
      type: "gaussian"
      std: 0.01
    }
    bias_filler {
      type: "constant"
    }
  }
}
layer {
  name: "loss_relu1"
  type: "ReLU"
  bottom: "loss1_conv1"
  top: "loss1_conv1"
}
layer {
  name: "LFCN_1_3x5"
  type: "Convolution"
  bottom: "loss1_conv1"
  top: "LFCN_1_3x5"
  param {
    lr_mult: 1
    decay_mult: 1
  }
  param {
    lr_mult: 2
    decay_mult: 0
  }
  convolution_param {
    num_output: 6
    weight_filler {
      type: "gaussian"
      std: 0.001
    }
    bias_filler {
      type: "constant"
    }
    pad_h: 2
    pad_w: 1
    kernel_h: 5
    kernel_w: 3
  }
}
layer {
  name: "detection_loss_1_3x5"
  type: "Detection"
  bottom: "LFCN_1_3x5"
  bottom: "label_1_3x5"
  top: "loss_1_3x5"
  loss_weight: 0.9
  detection_param {
    cls_num: 2
    coord_num: 4
    lambda: 0.5
    field_h: 60
    field_w: 30
    downsample_rate: 8
    bb_smooth: true
    field_whr: 2
    field_xyr: 2
    bg_threshold: 0.2
    bg_multiple: 2
    sample_mode: "random"
    pos_neg_weighted: true
  }
}
layer {
  name: "detection_accuracy_1_3x5"
  type: "DetectionAccuracy"
  bottom: "LFCN_1_3x5"
  bottom: "label_1_3x5"
  top: "accuracy_1_3x5"
  top: "boxiou_1_3x5"
  detection_accuracy_param {
    cls_num: 2
    coord_num: 4
    field_h: 60
    field_w: 30
    downsample_rate: 8
    field_whr: 2
    field_xyr: 2
  }
}
layer {
  name: "LFCN_1_5x7"
  type: "Convolution"
  bottom: "loss1_conv1"
  top: "LFCN_1_5x7"
  param {
    lr_mult: 1
    decay_mult: 1
  }
  param {
    lr_mult: 2
    decay_mult: 0
  }
  convolution_param {
    num_output: 6
    weight_filler {
      type: "gaussian"
      std: 0.001
    }
    bias_filler {
      type: "constant"
    }
    pad_h: 3
    pad_w: 2
    kernel_h: 7
    kernel_w: 5
  }
}
layer {
  name: "detection_loss_1_5x7"
  type: "Detection"
  bottom: "LFCN_1_5x7"
  bottom: "label_1_5x7"
  top: "loss_1_5x7"
  loss_weight: 0.9
  detection_param {
    cls_num: 2
    coord_num: 4
    lambda: 0.5
    field_h: 84
    field_w: 42
    downsample_rate: 8
    bb_smooth: true
    field_whr: 2
    field_xyr: 2
    bg_threshold: 0.2
    bg_multiple: 2
    sample_mode: "random"
    pos_neg_weighted: true
  }
}
layer {
  name: "detection_accuracy_1_5x7"
  type: "DetectionAccuracy"
  bottom: "LFCN_1_5x7"
  bottom: "label_1_5x7"
  top: "accuracy_1_5x7"
  top: "boxiou_1_5x7"
  detection_accuracy_param {
    cls_num: 2
    coord_num: 4
    field_h: 84
    field_w: 42
    downsample_rate: 8
    field_whr: 2
    field_xyr: 2
  }
}
layer {
  name: "pool4"
  type: "Pooling"
  bottom: "conv4_3"
  top: "pool4"
  pooling_param {
    pool: MAX
    kernel_size: 2
    stride: 2
  }
}
layer {
  name: "conv5_1"
  type: "Convolution"
  bottom: "pool4"
  top: "conv5_1"
  convolution_param {
    num_output: 512
    pad: 1
    kernel_size: 3
  }
}
layer {
  name: "relu5_1"
  type: "ReLU"
  bottom: "conv5_1"
  top: "conv5_1"
}
layer {
  name: "conv5_2"
  type: "Convolution"
  bottom: "conv5_1"
  top: "conv5_2"
  convolution_param {
    num_output: 512
    pad: 1
    kernel_size: 3
  }
}
layer {
  name: "relu5_2"
  type: "ReLU"
  bottom: "conv5_2"
  top: "conv5_2"
}
layer {
  name: "conv5_3"
  type: "Convolution"
  bottom: "conv5_2"
  top: "conv5_3"
  convolution_param {
    num_output: 512
    pad: 1
    kernel_size: 3
  }
}
layer {
  name: "relu5_3"
  type: "ReLU"
  bottom: "conv5_3"
  top: "conv5_3"
}
layer {
  name: "LFCN_2_3x5"
  type: "Convolution"
  bottom: "conv5_3"
  top: "LFCN_2_3x5"
  param {
    lr_mult: 1
    decay_mult: 1
  }
  param {
    lr_mult: 2
    decay_mult: 0
  }
  convolution_param {
    num_output: 6
    weight_filler {
      type: "gaussian"
      std: 0.001
    }
    bias_filler {
      type: "constant"
    }
    pad_h: 2
    pad_w: 1
    kernel_h: 5
    kernel_w: 3
  }
}
layer {
  name: "detection_loss_2_3x5"
  type: "Detection"
  bottom: "LFCN_2_3x5"
  bottom: "label_2_3x5"
  top: "loss_2_3x5"
  detection_param {
    cls_num: 2
    coord_num: 4
    lambda: 0.5
    field_h: 120
    field_w: 60
    downsample_rate: 16
    bb_smooth: true
    field_whr: 2
    field_xyr: 2
    bg_threshold: 0.2
    bg_multiple: 2
    sample_mode: "random"
    pos_neg_weighted: true
  }
}
layer {
  name: "detection_accuracy_2_3x5"
  type: "DetectionAccuracy"
  bottom: "LFCN_2_3x5"
  bottom: "label_2_3x5"
  top: "accuracy_2_3x5"
  top: "boxiou_2_3x5"
  detection_accuracy_param {
    cls_num: 2
    coord_num: 4
    field_h: 120
    field_w: 60
    downsample_rate: 16
    field_whr: 2
    field_xyr: 2
  }
}
layer {
  name: "LFCN_2_5x7"
  type: "Convolution"
  bottom: "conv5_3"
  top: "LFCN_2_5x7"
  param {
    lr_mult: 1
    decay_mult: 1
  }
  param {
    lr_mult: 2
    decay_mult: 0
  }
  convolution_param {
    num_output: 6
    weight_filler {
      type: "gaussian"
      std: 0.001
    }
    bias_filler {
      type: "constant"
    }
    pad_h: 3
    pad_w: 2
    kernel_h: 7
    kernel_w: 5
  }
}
layer {
  name: "detection_loss_2_5x7"
  type: "Detection"
  bottom: "LFCN_2_5x7"
  bottom: "label_2_5x7"
  top: "loss_2_5x7"
  detection_param {
    cls_num: 2
    coord_num: 4
    lambda: 0.5
    field_h: 168
    field_w: 84
    downsample_rate: 16
    bb_smooth: true
    field_whr: 2
    field_xyr: 2
    bg_threshold: 0.2
    bg_multiple: 2
    sample_mode: "random"
    pos_neg_weighted: true
  }
}
layer {
  name: "detection_accuracy_2_5x7"
  type: "DetectionAccuracy"
  bottom: "LFCN_2_5x7"
  bottom: "label_2_5x7"
  top: "accuracy_2_5x7"
  top: "boxiou_2_5x7"
  detection_accuracy_param {
    cls_num: 2
    coord_num: 4
    field_h: 168
    field_w: 84
    downsample_rate: 16
    field_whr: 2
    field_xyr: 2
  }
}
layer {
  name: "pool5"
  type: "Pooling"
  bottom: "conv5_3"
  top: "pool5"
  pooling_param {
    pool: MAX
    kernel_size: 2
    stride: 2
  }
}
layer {
  name: "conv6_1"
  type: "Convolution"
  bottom: "pool5"
  top: "conv6_1"
  param {
    lr_mult: 1
    decay_mult: 1
  }
  param {
    lr_mult: 2
    decay_mult: 0
  }
  convolution_param {
    num_output: 512
    pad: 1
    kernel_size: 3
    weight_filler {
      type: "gaussian"
      std: 0.01
    }
    bias_filler {
      type: "constant"
    }
  }
}
layer {
  name: "relu6_1"
  type: "ReLU"
  bottom: "conv6_1"
  top: "conv6_1"
}
layer {
  name: "LFCN_3_3x5"
  type: "Convolution"
  bottom: "conv6_1"
  top: "LFCN_3_3x5"
  param {
    lr_mult: 1
    decay_mult: 1
  }
  param {
    lr_mult: 2
    decay_mult: 0
  }
  convolution_param {
    num_output: 6
    weight_filler {
      type: "gaussian"
      std: 0.001
    }
    bias_filler {
      type: "constant"
    }
    pad_h: 2
    pad_w: 1
    kernel_h: 5
    kernel_w: 3
  }
}
layer {
  name: "detection_loss_3_3x5"
  type: "Detection"
  bottom: "LFCN_3_3x5"
  bottom: "label_3_3x5"
  top: "loss_3_3x5"
  detection_param {
    cls_num: 2
    coord_num: 4
    lambda: 0.5
    field_h: 240
    field_w: 120
    downsample_rate: 32
    bb_smooth: true
    field_whr: 2
    field_xyr: 2
    bg_threshold: 0.2
    bg_multiple: 2
    sample_mode: "random"
    pos_neg_weighted: true
  }
}
layer {
  name: "detection_accuracy_3_3x5"
  type: "DetectionAccuracy"
  bottom: "LFCN_3_3x5"
  bottom: "label_3_3x5"
  top: "accuracy_3_3x5"
  top: "boxiou_3_3x5"
  detection_accuracy_param {
    cls_num: 2
    coord_num: 4
    field_h: 240
    field_w: 120
    downsample_rate: 32
    field_whr: 2
    field_xyr: 2
  }
}
layer {
  name: "LFCN_3_5x7"
  type: "Convolution"
  bottom: "conv6_1"
  top: "LFCN_3_5x7"
  param {
    lr_mult: 1
    decay_mult: 1
  }
  param {
    lr_mult: 2
    decay_mult: 0
  }
  convolution_param {
    num_output: 6
    weight_filler {
      type: "gaussian"
      std: 0.001
    }
    bias_filler {
      type: "constant"
    }
    pad_h: 3
    pad_w: 2
    kernel_h: 7
    kernel_w: 5
  }
}
layer {
  name: "detection_loss_3_5x7"
  type: "Detection"
  bottom: "LFCN_3_5x7"
  bottom: "label_3_5x7"
  top: "loss_3_5x7"
  detection_param {
    cls_num: 2
    coord_num: 4
    lambda: 0.5
    field_h: 336
    field_w: 168
    downsample_rate: 32
    bb_smooth: true
    field_whr: 2
    field_xyr: 2
    bg_threshold: 0.2
    bg_multiple: 2
    sample_mode: "random"
    pos_neg_weighted: true
  }
}
layer {
  name: "detection_accuracy_3_5x7"
  type: "DetectionAccuracy"
  bottom: "LFCN_3_5x7"
  bottom: "label_3_5x7"
  top: "accuracy_3_5x7"
  top: "boxiou_3_5x7"
  detection_accuracy_param {
    cls_num: 2
    coord_num: 4
    field_h: 336
    field_w: 168
    downsample_rate: 32
    field_whr: 2
    field_xyr: 2
  }
}
layer {
  name: "pool6"
  type: "Pooling"
  bottom: "conv6_1"
  top: "pool6"
  pooling_param {
    pool: MAX
    kernel_size: 2
    stride: 2
  }
}
layer {
  name: "LFCN_4_3x5"
  type: "Convolution"
  bottom: "pool6"
  top: "LFCN_4_3x5"
  param {
    lr_mult: 1
    decay_mult: 1
  }
  param {
    lr_mult: 2
    decay_mult: 0
  }
  convolution_param {
    num_output: 6
    weight_filler {
      type: "gaussian"
      std: 0.001
    }
    bias_filler {
      type: "constant"
    }
    pad_h: 2
    pad_w: 1
    kernel_h: 5
    kernel_w: 3
  }
}
layer {
  name: "detection_loss_4_3x5"
  type: "Detection"
  bottom: "LFCN_4_3x5"
  bottom: "label_4_3x5"
  top: "loss_4_3x5"
  detection_param {
    cls_num: 2
    coord_num: 4
    lambda: 0.5
    field_h: 480
    field_w: 240
    downsample_rate: 64
    bb_smooth: true
    field_whr: 2
    field_xyr: 2
    bg_threshold: 0.2
    bg_multiple: 2
    sample_mode: "random"
    pos_neg_weighted: true
  }
}
layer {
  name: "detection_accuracy_4_3x5"
  type: "DetectionAccuracy"
  bottom: "LFCN_4_3x5"
  bottom: "label_4_3x5"
  top: "accuracy_4_3x5"
  top: "boxiou_4_3x5"
  detection_accuracy_param {
    cls_num: 2
    coord_num: 4
    field_h: 480
    field_w: 240
    downsample_rate: 64
    field_whr: 2
    field_xyr: 2
  }
}
I1007 03:18:42.274771 18845 layer_factory.hpp:76] Creating layer data
I1007 03:18:42.274823 18845 net.cpp:106] Creating Layer data
I1007 03:18:42.274832 18845 net.cpp:411] data -> data
…
I1007 03:18:42.492549 18845 image_gt_data_layer.cpp:234] output label size 1 : 4,6,72,72
I1007 03:18:42.492609 18845 image_gt_data_layer.cpp:234] output label size 2 : 4,6,36,36
I1007 03:18:42.492666 18845 image_gt_data_layer.cpp:234] output label size 3 : 4,6,36,36
I1007 03:18:42.492714 18845 image_gt_data_layer.cpp:234] output label size 4 : 4,6,18,18
I1007 03:18:42.492769 18845 image_gt_data_layer.cpp:234] output label size 5 : 4,6,18,18
I1007 03:18:42.492821 18845 image_gt_data_layer.cpp:234] output label size 6 : 4,6,9,9
I1007 03:18:42.527367 18845 net.cpp:150] Setting up data
I1007 03:18:42.527405 18845 net.cpp:157] Top shape: 4 3 576 576 (3981312)
I1007 03:18:42.527410 18845 net.cpp:157] Top shape: 4 6 72 72 (124416)
I1007 03:18:42.527415 18845 net.cpp:157] Top shape: 4 6 72 72 (124416)
I1007 03:18:42.527418 18845 net.cpp:157] Top shape: 4 6 36 36 (31104)
I1007 03:18:42.527422 18845 net.cpp:157] Top shape: 4 6 36 36 (31104)
I1007 03:18:42.527426 18845 net.cpp:157] Top shape: 4 6 18 18 (7776)
I1007 03:18:42.527429 18845 net.cpp:157] Top shape: 4 6 18 18 (7776)
I1007 03:18:42.527433 18845 net.cpp:157] Top shape: 4 6 9 9 (1944)
I1007 03:18:42.527436 18845 net.cpp:165] Memory required for data: 17239392
I1007 03:18:42.527446 18845 layer_factory.hpp:76] Creating layer label_1_3x5_data_1_split
I1007 03:18:42.527470 18845 net.cpp:106] Creating Layer label_1_3x5_data_1_split
I1007 03:18:42.527477 18845 net.cpp:454] label_1_3x5_data_1_split <- label_1_3x5
I1007 03:18:42.527493 18845 net.cpp:411] label_1_3x5_data_1_split -> label_1_3x5_data_1_split_0
I1007 03:18:42.527508 18845 net.cpp:411] label_1_3x5_data_1_split -> label_1_3x5_data_1_split_1
I1007 03:18:42.527559 18845 net.cpp:150] Setting up label_1_3x5_data_1_split
I1007 03:18:42.527565 18845 net.cpp:157] Top shape: 4 6 72 72 (124416)
I1007 03:18:42.527568 18845 net.cpp:157] Top shape: 4 6 72 72 (124416)
I1007 03:18:42.527572 18845 net.cpp:165] Memory required for data: 18234720
I1007 03:18:42.527577 18845 layer_factory.hpp:76] Creating layer label_1_5x7_data_2_split
I1007 03:18:42.527585 18845 net.cpp:106] Creating Layer label_1_5x7_data_2_split
I1007 03:18:42.527590 18845 net.cpp:454] label_1_5x7_data_2_split <- label_1_5x7
I1007 03:18:42.527597 18845 net.cpp:411] label_1_5x7_data_2_split -> label_1_5x7_data_2_split_0
I1007 03:18:42.527608 18845 net.cpp:411] label_1_5x7_data_2_split -> label_1_5x7_data_2_split_1
I1007 03:18:42.527643 18845 net.cpp:150] Setting up label_1_5x7_data_2_split
I1007 03:18:42.527648 18845 net.cpp:157] Top shape: 4 6 72 72 (124416)
I1007 03:18:42.527652 18845 net.cpp:157] Top shape: 4 6 72 72 (124416)
I1007 03:18:42.527655 18845 net.cpp:165] Memory required for data: 19230048
I1007 03:18:42.527665 18845 layer_factory.hpp:76] Creating layer label_2_3x5_data_3_split
I1007 03:18:42.527673 18845 net.cpp:106] Creating Layer label_2_3x5_data_3_split
I1007 03:18:42.527678 18845 net.cpp:454] label_2_3x5_data_3_split <- label_2_3x5
I1007 03:18:42.527683 18845 net.cpp:411] label_2_3x5_data_3_split -> label_2_3x5_data_3_split_0
I1007 03:18:42.527689 18845 net.cpp:411] label_2_3x5_data_3_split -> label_2_3x5_data_3_split_1
I1007 03:18:42.527726 18845 net.cpp:150] Setting up label_2_3x5_data_3_split
I1007 03:18:42.527731 18845 net.cpp:157] Top shape: 4 6 36 36 (31104)
I1007 03:18:42.527734 18845 net.cpp:157] Top shape: 4 6 36 36 (31104)
I1007 03:18:42.527737 18845 net.cpp:165] Memory required for data: 19478880
I1007 03:18:42.527741 18845 layer_factory.hpp:76] Creating layer label_2_5x7_data_4_split
I1007 03:18:42.527752 18845 net.cpp:106] Creating Layer label_2_5x7_data_4_split
I1007 03:18:42.527757 18845 net.cpp:454] label_2_5x7_data_4_split <- label_2_5x7
I1007 03:18:42.527762 18845 net.cpp:411] label_2_5x7_data_4_split -> label_2_5x7_data_4_split_0
I1007 03:18:42.527768 18845 net.cpp:411] label_2_5x7_data_4_split -> label_2_5x7_data_4_split_1
I1007 03:18:42.527799 18845 net.cpp:150] Setting up label_2_5x7_data_4_split
I1007 03:18:42.527804 18845 net.cpp:157] Top shape: 4 6 36 36 (31104)
I1007 03:18:42.527807 18845 net.cpp:157] Top shape: 4 6 36 36 (31104)
I1007 03:18:42.527811 18845 net.cpp:165] Memory required for data: 19727712
I1007 03:18:42.527813 18845 layer_factory.hpp:76] Creating layer label_3_3x5_data_5_split
I1007 03:18:42.527820 18845 net.cpp:106] Creating Layer label_3_3x5_data_5_split
I1007 03:18:42.527825 18845 net.cpp:454] label_3_3x5_data_5_split <- label_3_3x5
I1007 03:18:42.527832 18845 net.cpp:411] label_3_3x5_data_5_split -> label_3_3x5_data_5_split_0
I1007 03:18:42.527842 18845 net.cpp:411] label_3_3x5_data_5_split -> label_3_3x5_data_5_split_1
I1007 03:18:42.527881 18845 net.cpp:150] Setting up label_3_3x5_data_5_split
I1007 03:18:42.527887 18845 net.cpp:157] Top shape: 4 6 18 18 (7776)
I1007 03:18:42.527890 18845 net.cpp:157] Top shape: 4 6 18 18 (7776)
I1007 03:18:42.527894 18845 net.cpp:165] Memory required for data: 19789920
I1007 03:18:42.527896 18845 layer_factory.hpp:76] Creating layer label_3_5x7_data_6_split
I1007 03:18:42.527900 18845 net.cpp:106] Creating Layer label_3_5x7_data_6_split
I1007 03:18:42.527904 18845 net.cpp:454] label_3_5x7_data_6_split <- label_3_5x7
I1007 03:18:42.527909 18845 net.cpp:411] label_3_5x7_data_6_split -> label_3_5x7_data_6_split_0
I1007 03:18:42.527915 18845 net.cpp:411] label_3_5x7_data_6_split -> label_3_5x7_data_6_split_1
I1007 03:18:42.527952 18845 net.cpp:150] Setting up label_3_5x7_data_6_split
I1007 03:18:42.527961 18845 net.cpp:157] Top shape: 4 6 18 18 (7776)
I1007 03:18:42.527966 18845 net.cpp:157] Top shape: 4 6 18 18 (7776)
I1007 03:18:42.527971 18845 net.cpp:165] Memory required for data: 19852128
I1007 03:18:42.527976 18845 layer_factory.hpp:76] Creating layer label_4_3x5_data_7_split
I1007 03:18:42.527982 18845 net.cpp:106] Creating Layer label_4_3x5_data_7_split
I1007 03:18:42.527987 18845 net.cpp:454] label_4_3x5_data_7_split <- label_4_3x5
I1007 03:18:42.527997 18845 net.cpp:411] label_4_3x5_data_7_split -> label_4_3x5_data_7_split_0
I1007 03:18:42.528007 18845 net.cpp:411] label_4_3x5_data_7_split -> label_4_3x5_data_7_split_1
I1007 03:18:42.528055 18845 net.cpp:150] Setting up label_4_3x5_data_7_split
I1007 03:18:42.528064 18845 net.cpp:157] Top shape: 4 6 9 9 (1944)
I1007 03:18:42.528071 18845 net.cpp:157] Top shape: 4 6 9 9 (1944)
I1007 03:18:42.528075 18845 net.cpp:165] Memory required for data: 19867680
I1007 03:18:42.528080 18845 layer_factory.hpp:76] Creating layer conv1_1
I1007 03:18:42.528102 18845 net.cpp:106] Creating Layer conv1_1
I1007 03:18:42.528107 18845 net.cpp:454] conv1_1 <- data
I1007 03:18:42.528116 18845 net.cpp:411] conv1_1 -> conv1_1
I1007 03:18:42.647456 18845 net.cpp:150] Setting up conv1_1
I1007 03:18:42.647495 18845 net.cpp:157] Top shape: 4 64 576 576 (84934656)
I1007 03:18:42.647500 18845 net.cpp:165] Memory required for data: 359606304
I1007 03:18:42.647521 18845 layer_factory.hpp:76] Creating layer relu1_1
I1007 03:18:42.647533 18845 net.cpp:106] Creating Layer relu1_1
I1007 03:18:42.647538 18845 net.cpp:454] relu1_1 <- conv1_1
I1007 03:18:42.647547 18845 net.cpp:397] relu1_1 -> conv1_1 (in-place)
I1007 03:18:42.647770 18845 net.cpp:150] Setting up relu1_1
I1007 03:18:42.647783 18845 net.cpp:157] Top shape: 4 64 576 576 (84934656)
I1007 03:18:42.647786 18845 net.cpp:165] Memory required for data: 699344928
I1007 03:18:42.647790 18845 layer_factory.hpp:76] Creating layer conv1_2
I1007 03:18:42.647801 18845 net.cpp:106] Creating Layer conv1_2
I1007 03:18:42.647807 18845 net.cpp:454] conv1_2 <- conv1_1
I1007 03:18:42.647817 18845 net.cpp:411] conv1_2 -> conv1_2
I1007 03:18:42.649824 18845 net.cpp:150] Setting up conv1_2
I1007 03:18:42.649838 18845 net.cpp:157] Top shape: 4 64 576 576 (84934656)
I1007 03:18:42.649842 18845 net.cpp:165] Memory required for data: 1039083552
I1007 03:18:42.649857 18845 layer_factory.hpp:76] Creating layer relu1_2
I1007 03:18:42.649870 18845 net.cpp:106] Creating Layer relu1_2
I1007 03:18:42.649876 18845 net.cpp:454] relu1_2 <- conv1_2
I1007 03:18:42.649884 18845 net.cpp:397] relu1_2 -> conv1_2 (in-place)
I1007 03:18:42.650228 18845 net.cpp:150] Setting up relu1_2
I1007 03:18:42.650245 18845 net.cpp:157] Top shape: 4 64 576 576 (84934656)
I1007 03:18:42.650249 18845 net.cpp:165] Memory required for data: 1378822176
I1007 03:18:42.650257 18845 layer_factory.hpp:76] Creating layer pool1
I1007 03:18:42.650267 18845 net.cpp:106] Creating Layer pool1
I1007 03:18:42.650274 18845 net.cpp:454] pool1 <- conv1_2
I1007 03:18:42.650285 18845 net.cpp:411] pool1 -> pool1
I1007 03:18:42.650550 18845 net.cpp:150] Setting up pool1
I1007 03:18:42.650563 18845 net.cpp:157] Top shape: 4 64 288 288 (21233664)
I1007 03:18:42.650568 18845 net.cpp:165] Memory required for data: 1463756832
I1007 03:18:42.650573 18845 layer_factory.hpp:76] Creating layer conv2_1
I1007 03:18:42.650581 18845 net.cpp:106] Creating Layer conv2_1
I1007 03:18:42.650588 18845 net.cpp:454] conv2_1 <- pool1
I1007 03:18:42.650599 18845 net.cpp:411] conv2_1 -> conv2_1
I1007 03:18:42.652364 18845 net.cpp:150] Setting up conv2_1
I1007 03:18:42.652384 18845 net.cpp:157] Top shape: 4 128 288 288 (42467328)
I1007 03:18:42.652387 18845 net.cpp:165] Memory required for data: 1633626144
I1007 03:18:42.652400 18845 layer_factory.hpp:76] Creating layer relu2_1
I1007 03:18:42.652416 18845 net.cpp:106] Creating Layer relu2_1
I1007 03:18:42.652422 18845 net.cpp:454] relu2_1 <- conv2_1
I1007 03:18:42.652429 18845 net.cpp:397] relu2_1 -> conv2_1 (in-place)
I1007 03:18:42.652771 18845 net.cpp:150] Setting up relu2_1
I1007 03:18:42.652784 18845 net.cpp:157] Top shape: 4 128 288 288 (42467328)
I1007 03:18:42.652787 18845 net.cpp:165] Memory required for data: 1803495456
I1007 03:18:42.652791 18845 layer_factory.hpp:76] Creating layer conv2_2
I1007 03:18:42.652799 18845 net.cpp:106] Creating Layer conv2_2
I1007 03:18:42.652802 18845 net.cpp:454] conv2_2 <- conv2_1
I1007 03:18:42.652807 18845 net.cpp:411] conv2_2 -> conv2_2
I1007 03:18:42.654582 18845 net.cpp:150] Setting up conv2_2
I1007 03:18:42.654597 18845 net.cpp:157] Top shape: 4 128 288 288 (42467328)
I1007 03:18:42.654599 18845 net.cpp:165] Memory required for data: 1973364768
I1007 03:18:42.654606 18845 layer_factory.hpp:76] Creating layer relu2_2
I1007 03:18:42.654614 18845 net.cpp:106] Creating Layer relu2_2
I1007 03:18:42.654618 18845 net.cpp:454] relu2_2 <- conv2_2
I1007 03:18:42.654623 18845 net.cpp:397] relu2_2 -> conv2_2 (in-place)
I1007 03:18:42.655001 18845 net.cpp:150] Setting up relu2_2
I1007 03:18:42.655015 18845 net.cpp:157] Top shape: 4 128 288 288 (42467328)
I1007 03:18:42.655019 18845 net.cpp:165] Memory required for data: 2143234080
I1007 03:18:42.655022 18845 layer_factory.hpp:76] Creating layer pool2
I1007 03:18:42.655030 18845 net.cpp:106] Creating Layer pool2
I1007 03:18:42.655035 18845 net.cpp:454] pool2 <- conv2_2
I1007 03:18:42.655045 18845 net.cpp:411] pool2 -> pool2
I1007 03:18:42.655277 18845 net.cpp:150] Setting up pool2
I1007 03:18:42.655287 18845 net.cpp:157] Top shape: 4 128 144 144 (10616832)
I1007 03:18:42.655292 18845 net.cpp:165] Memory required for data: 2185701408
I1007 03:18:42.655297 18845 layer_factory.hpp:76] Creating layer conv3_1
I1007 03:18:42.655306 18845 net.cpp:106] Creating Layer conv3_1
I1007 03:18:42.655313 18845 net.cpp:454] conv3_1 <- pool2
I1007 03:18:42.655324 18845 net.cpp:411] conv3_1 -> conv3_1
I1007 03:18:42.657305 18845 net.cpp:150] Setting up conv3_1
I1007 03:18:42.657320 18845 net.cpp:157] Top shape: 4 256 144 144 (21233664)
I1007 03:18:42.657323 18845 net.cpp:165] Memory required for data: 2270636064
I1007 03:18:42.657335 18845 layer_factory.hpp:76] Creating layer relu3_1
I1007 03:18:42.657342 18845 net.cpp:106] Creating Layer relu3_1
I1007 03:18:42.657346 18845 net.cpp:454] relu3_1 <- conv3_1
I1007 03:18:42.657351 18845 net.cpp:397] relu3_1 -> conv3_1 (in-place)
I1007 03:18:42.657703 18845 net.cpp:150] Setting up relu3_1
I1007 03:18:42.657717 18845 net.cpp:157] Top shape: 4 256 144 144 (21233664)
I1007 03:18:42.657721 18845 net.cpp:165] Memory required for data: 2355570720
I1007 03:18:42.657723 18845 layer_factory.hpp:76] Creating layer conv3_2
I1007 03:18:42.657734 18845 net.cpp:106] Creating Layer conv3_2
I1007 03:18:42.657740 18845 net.cpp:454] conv3_2 <- conv3_1
I1007 03:18:42.657749 18845 net.cpp:411] conv3_2 -> conv3_2
I1007 03:18:42.660907 18845 net.cpp:150] Setting up conv3_2
I1007 03:18:42.660923 18845 net.cpp:157] Top shape: 4 256 144 144 (21233664)
I1007 03:18:42.660926 18845 net.cpp:165] Memory required for data: 2440505376
I1007 03:18:42.660939 18845 layer_factory.hpp:76] Creating layer relu3_2
I1007 03:18:42.660946 18845 net.cpp:106] Creating Layer relu3_2
I1007 03:18:42.660949 18845 net.cpp:454] relu3_2 <- conv3_2
I1007 03:18:42.660958 18845 net.cpp:397] relu3_2 -> conv3_2 (in-place)
I1007 03:18:42.661188 18845 net.cpp:150] Setting up relu3_2
I1007 03:18:42.661201 18845 net.cpp:157] Top shape: 4 256 144 144 (21233664)
I1007 03:18:42.661203 18845 net.cpp:165] Memory required for data: 2525440032
I1007 03:18:42.661207 18845 layer_factory.hpp:76] Creating layer conv3_3
I1007 03:18:42.661217 18845 net.cpp:106] Creating Layer conv3_3
I1007 03:18:42.661223 18845 net.cpp:454] conv3_3 <- conv3_2
I1007 03:18:42.661236 18845 net.cpp:411] conv3_3 -> conv3_3
I1007 03:18:42.663902 18845 net.cpp:150] Setting up conv3_3
I1007 03:18:42.663916 18845 net.cpp:157] Top shape: 4 256 144 144 (21233664)
I1007 03:18:42.663929 18845 net.cpp:165] Memory required for data: 2610374688
I1007 03:18:42.663935 18845 layer_factory.hpp:76] Creating layer relu3_3
I1007 03:18:42.663943 18845 net.cpp:106] Creating Layer relu3_3
I1007 03:18:42.663946 18845 net.cpp:454] relu3_3 <- conv3_3
I1007 03:18:42.663951 18845 net.cpp:397] relu3_3 -> conv3_3 (in-place)
I1007 03:18:42.664186 18845 net.cpp:150] Setting up relu3_3
I1007 03:18:42.664198 18845 net.cpp:157] Top shape: 4 256 144 144 (21233664)
I1007 03:18:42.664201 18845 net.cpp:165] Memory required for data: 2695309344
I1007 03:18:42.664204 18845 layer_factory.hpp:76] Creating layer pool3
I1007 03:18:42.664212 18845 net.cpp:106] Creating Layer pool3
I1007 03:18:42.664218 18845 net.cpp:454] pool3 <- conv3_3
I1007 03:18:42.664229 18845 net.cpp:411] pool3 -> pool3
I1007 03:18:42.664607 18845 net.cpp:150] Setting up pool3
I1007 03:18:42.664619 18845 net.cpp:157] Top shape: 4 256 72 72 (5308416)
I1007 03:18:42.664623 18845 net.cpp:165] Memory required for data: 2716543008
I1007 03:18:42.664625 18845 layer_factory.hpp:76] Creating layer conv4_1
I1007 03:18:42.664636 18845 net.cpp:106] Creating Layer conv4_1
I1007 03:18:42.664639 18845 net.cpp:454] conv4_1 <- pool3
I1007 03:18:42.664645 18845 net.cpp:411] conv4_1 -> conv4_1
I1007 03:18:42.671380 18845 net.cpp:150] Setting up conv4_1
I1007 03:18:42.671406 18845 net.cpp:157] Top shape: 4 512 72 72 (10616832)
I1007 03:18:42.671409 18845 net.cpp:165] Memory required for data: 2759010336
I1007 03:18:42.671416 18845 layer_factory.hpp:76] Creating layer relu4_1
I1007 03:18:42.671425 18845 net.cpp:106] Creating Layer relu4_1
I1007 03:18:42.671429 18845 net.cpp:454] relu4_1 <- conv4_1
I1007 03:18:42.671434 18845 net.cpp:397] relu4_1 -> conv4_1 (in-place)
I1007 03:18:42.671658 18845 net.cpp:150] Setting up relu4_1
I1007 03:18:42.671669 18845 net.cpp:157] Top shape: 4 512 72 72 (10616832)
I1007 03:18:42.671671 18845 net.cpp:165] Memory required for data: 2801477664
I1007 03:18:42.671675 18845 layer_factory.hpp:76] Creating layer conv4_2
I1007 03:18:42.671685 18845 net.cpp:106] Creating Layer conv4_2
I1007 03:18:42.671691 18845 net.cpp:454] conv4_2 <- conv4_1
I1007 03:18:42.671700 18845 net.cpp:411] conv4_2 -> conv4_2
I1007 03:18:42.678457 18845 net.cpp:150] Setting up conv4_2
I1007 03:18:42.678480 18845 net.cpp:157] Top shape: 4 512 72 72 (10616832)
I1007 03:18:42.678483 18845 net.cpp:165] Memory required for data: 2843944992
I1007 03:18:42.678498 18845 layer_factory.hpp:76] Creating layer relu4_2
I1007 03:18:42.678510 18845 net.cpp:106] Creating Layer relu4_2
I1007 03:18:42.678514 18845 net.cpp:454] relu4_2 <- conv4_2
I1007 03:18:42.678520 18845 net.cpp:397] relu4_2 -> conv4_2 (in-place)
I1007 03:18:42.678910 18845 net.cpp:150] Setting up relu4_2
I1007 03:18:42.678922 18845 net.cpp:157] Top shape: 4 512 72 72 (10616832)
I1007 03:18:42.678932 18845 net.cpp:165] Memory required for data: 2886412320
I1007 03:18:42.678936 18845 layer_factory.hpp:76] Creating layer conv4_3
I1007 03:18:42.678948 18845 net.cpp:106] Creating Layer conv4_3
I1007 03:18:42.678954 18845 net.cpp:454] conv4_3 <- conv4_2
I1007 03:18:42.678968 18845 net.cpp:411] conv4_3 -> conv4_3
I1007 03:18:42.685576 18845 net.cpp:150] Setting up conv4_3
I1007 03:18:42.685611 18845 net.cpp:157] Top shape: 4 512 72 72 (10616832)
I1007 03:18:42.685613 18845 net.cpp:165] Memory required for data: 2928879648
I1007 03:18:42.685621 18845 layer_factory.hpp:76] Creating layer relu4_3
I1007 03:18:42.685629 18845 net.cpp:106] Creating Layer relu4_3
I1007 03:18:42.685634 18845 net.cpp:454] relu4_3 <- conv4_3
I1007 03:18:42.685642 18845 net.cpp:397] relu4_3 -> conv4_3 (in-place)
I1007 03:18:42.686019 18845 net.cpp:150] Setting up relu4_3
I1007 03:18:42.686033 18845 net.cpp:157] Top shape: 4 512 72 72 (10616832)
I1007 03:18:42.686038 18845 net.cpp:165] Memory required for data: 2971346976
I1007 03:18:42.686040 18845 layer_factory.hpp:76] Creating layer conv4_3_relu4_3_0_split
I1007 03:18:42.686049 18845 net.cpp:106] Creating Layer conv4_3_relu4_3_0_split
I1007 03:18:42.686055 18845 net.cpp:454] conv4_3_relu4_3_0_split <- conv4_3
I1007 03:18:42.686067 18845 net.cpp:411] conv4_3_relu4_3_0_split -> conv4_3_relu4_3_0_split_0
I1007 03:18:42.686079 18845 net.cpp:411] conv4_3_relu4_3_0_split -> conv4_3_relu4_3_0_split_1
I1007 03:18:42.686144 18845 net.cpp:150] Setting up conv4_3_relu4_3_0_split
I1007 03:18:42.686154 18845 net.cpp:157] Top shape: 4 512 72 72 (10616832)
I1007 03:18:42.686158 18845 net.cpp:157] Top shape: 4 512 72 72 (10616832)
I1007 03:18:42.686161 18845 net.cpp:165] Memory required for data: 3056281632
I1007 03:18:42.686164 18845 layer_factory.hpp:76] Creating layer loss1_conv1
I1007 03:18:42.686184 18845 net.cpp:106] Creating Layer loss1_conv1
I1007 03:18:42.686189 18845 net.cpp:454] loss1_conv1 <- conv4_3_relu4_3_0_split_0
I1007 03:18:42.686206 18845 net.cpp:411] loss1_conv1 -> loss1_conv1
I1007 03:18:42.774389 18845 net.cpp:150] Setting up loss1_conv1
I1007 03:18:42.774418 18845 net.cpp:157] Top shape: 4 512 72 72 (10616832)
I1007 03:18:42.774422 18845 net.cpp:165] Memory required for data: 3098748960
I1007 03:18:42.774431 18845 layer_factory.hpp:76] Creating layer loss_relu1
I1007 03:18:42.774443 18845 net.cpp:106] Creating Layer loss_relu1
I1007 03:18:42.774449 18845 net.cpp:454] loss_relu1 <- loss1_conv1
I1007 03:18:42.774456 18845 net.cpp:397] loss_relu1 -> loss1_conv1 (in-place)
I1007 03:18:42.774679 18845 net.cpp:150] Setting up loss_relu1
I1007 03:18:42.774691 18845 net.cpp:157] Top shape: 4 512 72 72 (10616832)
I1007 03:18:42.774694 18845 net.cpp:165] Memory required for data: 3141216288
I1007 03:18:42.774698 18845 layer_factory.hpp:76] Creating layer loss1_conv1_loss_relu1_0_split
I1007 03:18:42.774708 18845 net.cpp:106] Creating Layer loss1_conv1_loss_relu1_0_split
I1007 03:18:42.774714 18845 net.cpp:454] loss1_conv1_loss_relu1_0_split <- loss1_conv1
I1007 03:18:42.774724 18845 net.cpp:411] loss1_conv1_loss_relu1_0_split -> loss1_conv1_loss_relu1_0_split_0
I1007 03:18:42.774734 18845 net.cpp:411] loss1_conv1_loss_relu1_0_split -> loss1_conv1_loss_relu1_0_split_1
I1007 03:18:42.774796 18845 net.cpp:150] Setting up loss1_conv1_loss_relu1_0_split
I1007 03:18:42.774804 18845 net.cpp:157] Top shape: 4 512 72 72 (10616832)
I1007 03:18:42.774809 18845 net.cpp:157] Top shape: 4 512 72 72 (10616832)
I1007 03:18:42.774813 18845 net.cpp:165] Memory required for data: 3226150944
I1007 03:18:42.774817 18845 layer_factory.hpp:76] Creating layer LFCN_1_3x5
I1007 03:18:42.774830 18845 net.cpp:106] Creating Layer LFCN_1_3x5
I1007 03:18:42.774837 18845 net.cpp:454] LFCN_1_3x5 <- loss1_conv1_loss_relu1_0_split_0
I1007 03:18:42.774852 18845 net.cpp:411] LFCN_1_3x5 -> LFCN_1_3x5
I1007 03:18:42.777832 18845 net.cpp:150] Setting up LFCN_1_3x5
I1007 03:18:42.777848 18845 net.cpp:157] Top shape: 4 6 72 72 (124416)
I1007 03:18:42.777853 18845 net.cpp:165] Memory required for data: 3226648608
I1007 03:18:42.777861 18845 layer_factory.hpp:76] Creating layer LFCN_1_3x5_LFCN_1_3x5_0_split
I1007 03:18:42.777869 18845 net.cpp:106] Creating Layer LFCN_1_3x5_LFCN_1_3x5_0_split
I1007 03:18:42.777875 18845 net.cpp:454] LFCN_1_3x5_LFCN_1_3x5_0_split <- LFCN_1_3x5
I1007 03:18:42.777887 18845 net.cpp:411] LFCN_1_3x5_LFCN_1_3x5_0_split -> LFCN_1_3x5_LFCN_1_3x5_0_split_0
I1007 03:18:42.777899 18845 net.cpp:411] LFCN_1_3x5_LFCN_1_3x5_0_split -> LFCN_1_3x5_LFCN_1_3x5_0_split_1
I1007 03:18:42.777957 18845 net.cpp:150] Setting up LFCN_1_3x5_LFCN_1_3x5_0_split
I1007 03:18:42.777967 18845 net.cpp:157] Top shape: 4 6 72 72 (124416)
I1007 03:18:42.777971 18845 net.cpp:157] Top shape: 4 6 72 72 (124416)
I1007 03:18:42.777976 18845 net.cpp:165] Memory required for data: 3227643936
I1007 03:18:42.777981 18845 layer_factory.hpp:76] Creating layer detection_loss_1_3x5
I1007 03:18:42.777990 18845 net.cpp:106] Creating Layer detection_loss_1_3x5
I1007 03:18:42.777997 18845 net.cpp:454] detection_loss_1_3x5 <- LFCN_1_3x5_LFCN_1_3x5_0_split_0
I1007 03:18:42.778003 18845 net.cpp:454] detection_loss_1_3x5 <- label_1_3x5_data_1_split_0
I1007 03:18:42.778012 18845 net.cpp:411] detection_loss_1_3x5 -> loss_1_3x5
I1007 03:18:42.778031 18845 layer_factory.hpp:76] Creating layer detection_loss_1_3x5
I1007 03:18:42.778622 18845 net.cpp:150] Setting up detection_loss_1_3x5
I1007 03:18:42.778636 18845 net.cpp:157] Top shape: 1 1 1 2 (2)
I1007 03:18:42.778640 18845 net.cpp:160]     with loss weight 0.9
I1007 03:18:42.778667 18845 net.cpp:165] Memory required for data: 3227643944
I1007 03:18:42.778672 18845 layer_factory.hpp:76] Creating layer detection_accuracy_1_3x5
I1007 03:18:42.778683 18845 net.cpp:106] Creating Layer detection_accuracy_1_3x5
I1007 03:18:42.778690 18845 net.cpp:454] detection_accuracy_1_3x5 <- LFCN_1_3x5_LFCN_1_3x5_0_split_1
I1007 03:18:42.778697 18845 net.cpp:454] detection_accuracy_1_3x5 <- label_1_3x5_data_1_split_1
I1007 03:18:42.778705 18845 net.cpp:411] detection_accuracy_1_3x5 -> accuracy_1_3x5
I1007 03:18:42.778717 18845 net.cpp:411] detection_accuracy_1_3x5 -> boxiou_1_3x5
I1007 03:18:42.778776 18845 net.cpp:150] Setting up detection_accuracy_1_3x5
I1007 03:18:42.778786 18845 net.cpp:157] Top shape: 1 1 1 2 (2)
I1007 03:18:42.778790 18845 net.cpp:157] Top shape: 1 1 1 1 (1)
I1007 03:18:42.778792 18845 net.cpp:165] Memory required for data: 3227643956
I1007 03:18:42.778795 18845 layer_factory.hpp:76] Creating layer LFCN_1_5x7
I1007 03:18:42.778807 18845 net.cpp:106] Creating Layer LFCN_1_5x7
I1007 03:18:42.778813 18845 net.cpp:454] LFCN_1_5x7 <- loss1_conv1_loss_relu1_0_split_1
I1007 03:18:42.778825 18845 net.cpp:411] LFCN_1_5x7 -> LFCN_1_5x7
I1007 03:18:42.784296 18845 net.cpp:150] Setting up LFCN_1_5x7
I1007 03:18:42.784313 18845 net.cpp:157] Top shape: 4 6 72 72 (124416)
I1007 03:18:42.784317 18845 net.cpp:165] Memory required for data: 3228141620
I1007 03:18:42.784323 18845 layer_factory.hpp:76] Creating layer LFCN_1_5x7_LFCN_1_5x7_0_split
I1007 03:18:42.784330 18845 net.cpp:106] Creating Layer LFCN_1_5x7_LFCN_1_5x7_0_split
I1007 03:18:42.784333 18845 net.cpp:454] LFCN_1_5x7_LFCN_1_5x7_0_split <- LFCN_1_5x7
I1007 03:18:42.784339 18845 net.cpp:411] LFCN_1_5x7_LFCN_1_5x7_0_split -> LFCN_1_5x7_LFCN_1_5x7_0_split_0
I1007 03:18:42.784346 18845 net.cpp:411] LFCN_1_5x7_LFCN_1_5x7_0_split -> LFCN_1_5x7_LFCN_1_5x7_0_split_1
I1007 03:18:42.784412 18845 net.cpp:150] Setting up LFCN_1_5x7_LFCN_1_5x7_0_split
I1007 03:18:42.784422 18845 net.cpp:157] Top shape: 4 6 72 72 (124416)
I1007 03:18:42.784428 18845 net.cpp:157] Top shape: 4 6 72 72 (124416)
I1007 03:18:42.784430 18845 net.cpp:165] Memory required for data: 3229136948
I1007 03:18:42.784435 18845 layer_factory.hpp:76] Creating layer detection_loss_1_5x7
I1007 03:18:42.784443 18845 net.cpp:106] Creating Layer detection_loss_1_5x7
I1007 03:18:42.784449 18845 net.cpp:454] detection_loss_1_5x7 <- LFCN_1_5x7_LFCN_1_5x7_0_split_0
I1007 03:18:42.784456 18845 net.cpp:454] detection_loss_1_5x7 <- label_1_5x7_data_2_split_0
I1007 03:18:42.784467 18845 net.cpp:411] detection_loss_1_5x7 -> loss_1_5x7
I1007 03:18:42.784479 18845 layer_factory.hpp:76] Creating layer detection_loss_1_5x7
I1007 03:18:42.785053 18845 net.cpp:150] Setting up detection_loss_1_5x7
I1007 03:18:42.785066 18845 net.cpp:157] Top shape: 1 1 1 2 (2)
I1007 03:18:42.785069 18845 net.cpp:160]     with loss weight 0.9
I1007 03:18:42.785075 18845 net.cpp:165] Memory required for data: 3229136956
I1007 03:18:42.785079 18845 layer_factory.hpp:76] Creating layer detection_accuracy_1_5x7
I1007 03:18:42.785085 18845 net.cpp:106] Creating Layer detection_accuracy_1_5x7
I1007 03:18:42.785089 18845 net.cpp:454] detection_accuracy_1_5x7 <- LFCN_1_5x7_LFCN_1_5x7_0_split_1
I1007 03:18:42.785095 18845 net.cpp:454] detection_accuracy_1_5x7 <- label_1_5x7_data_2_split_1
I1007 03:18:42.785102 18845 net.cpp:411] detection_accuracy_1_5x7 -> accuracy_1_5x7
I1007 03:18:42.785109 18845 net.cpp:411] detection_accuracy_1_5x7 -> boxiou_1_5x7
I1007 03:18:42.785171 18845 net.cpp:150] Setting up detection_accuracy_1_5x7
I1007 03:18:42.785178 18845 net.cpp:157] Top shape: 1 1 1 2 (2)
I1007 03:18:42.785186 18845 net.cpp:157] Top shape: 1 1 1 1 (1)
I1007 03:18:42.785189 18845 net.cpp:165] Memory required for data: 3229136968
I1007 03:18:42.785194 18845 layer_factory.hpp:76] Creating layer pool4
I1007 03:18:42.785209 18845 net.cpp:106] Creating Layer pool4
I1007 03:18:42.785214 18845 net.cpp:454] pool4 <- conv4_3_relu4_3_0_split_1
I1007 03:18:42.785224 18845 net.cpp:411] pool4 -> pool4
I1007 03:18:42.785614 18845 net.cpp:150] Setting up pool4
I1007 03:18:42.785627 18845 net.cpp:157] Top shape: 4 512 36 36 (2654208)
I1007 03:18:42.785630 18845 net.cpp:165] Memory required for data: 3239753800
I1007 03:18:42.785634 18845 layer_factory.hpp:76] Creating layer conv5_1
I1007 03:18:42.785641 18845 net.cpp:106] Creating Layer conv5_1
I1007 03:18:42.785645 18845 net.cpp:454] conv5_1 <- pool4
I1007 03:18:42.785650 18845 net.cpp:411] conv5_1 -> conv5_1
I1007 03:18:42.792248 18845 net.cpp:150] Setting up conv5_1
I1007 03:18:42.792265 18845 net.cpp:157] Top shape: 4 512 36 36 (2654208)
I1007 03:18:42.792268 18845 net.cpp:165] Memory required for data: 3250370632
I1007 03:18:42.792275 18845 layer_factory.hpp:76] Creating layer relu5_1
I1007 03:18:42.792284 18845 net.cpp:106] Creating Layer relu5_1
I1007 03:18:42.792289 18845 net.cpp:454] relu5_1 <- conv5_1
I1007 03:18:42.792295 18845 net.cpp:397] relu5_1 -> conv5_1 (in-place)
I1007 03:18:42.792659 18845 net.cpp:150] Setting up relu5_1
I1007 03:18:42.792673 18845 net.cpp:157] Top shape: 4 512 36 36 (2654208)
I1007 03:18:42.792676 18845 net.cpp:165] Memory required for data: 3260987464
I1007 03:18:42.792680 18845 layer_factory.hpp:76] Creating layer conv5_2
I1007 03:18:42.792688 18845 net.cpp:106] Creating Layer conv5_2
I1007 03:18:42.792692 18845 net.cpp:454] conv5_2 <- conv5_1
I1007 03:18:42.792700 18845 net.cpp:411] conv5_2 -> conv5_2
I1007 03:18:42.799170 18845 net.cpp:150] Setting up conv5_2
I1007 03:18:42.799190 18845 net.cpp:157] Top shape: 4 512 36 36 (2654208)
I1007 03:18:42.799195 18845 net.cpp:165] Memory required for data: 3271604296
I1007 03:18:42.799201 18845 layer_factory.hpp:76] Creating layer relu5_2
I1007 03:18:42.799208 18845 net.cpp:106] Creating Layer relu5_2
I1007 03:18:42.799212 18845 net.cpp:454] relu5_2 <- conv5_2
I1007 03:18:42.799217 18845 net.cpp:397] relu5_2 -> conv5_2 (in-place)
I1007 03:18:42.799455 18845 net.cpp:150] Setting up relu5_2
I1007 03:18:42.799468 18845 net.cpp:157] Top shape: 4 512 36 36 (2654208)
I1007 03:18:42.799470 18845 net.cpp:165] Memory required for data: 3282221128
I1007 03:18:42.799475 18845 layer_factory.hpp:76] Creating layer conv5_3
I1007 03:18:42.799486 18845 net.cpp:106] Creating Layer conv5_3
I1007 03:18:42.799494 18845 net.cpp:454] conv5_3 <- conv5_2
I1007 03:18:42.799501 18845 net.cpp:411] conv5_3 -> conv5_3
I1007 03:18:42.806027 18845 net.cpp:150] Setting up conv5_3
I1007 03:18:42.806046 18845 net.cpp:157] Top shape: 4 512 36 36 (2654208)
I1007 03:18:42.806049 18845 net.cpp:165] Memory required for data: 3292837960
I1007 03:18:42.806056 18845 layer_factory.hpp:76] Creating layer relu5_3
I1007 03:18:42.806062 18845 net.cpp:106] Creating Layer relu5_3
I1007 03:18:42.806066 18845 net.cpp:454] relu5_3 <- conv5_3
I1007 03:18:42.806071 18845 net.cpp:397] relu5_3 -> conv5_3 (in-place)
I1007 03:18:42.806438 18845 net.cpp:150] Setting up relu5_3
I1007 03:18:42.806452 18845 net.cpp:157] Top shape: 4 512 36 36 (2654208)
I1007 03:18:42.806454 18845 net.cpp:165] Memory required for data: 3303454792
I1007 03:18:42.806457 18845 layer_factory.hpp:76] Creating layer conv5_3_relu5_3_0_split
I1007 03:18:42.806464 18845 net.cpp:106] Creating Layer conv5_3_relu5_3_0_split
I1007 03:18:42.806468 18845 net.cpp:454] conv5_3_relu5_3_0_split <- conv5_3
I1007 03:18:42.806475 18845 net.cpp:411] conv5_3_relu5_3_0_split -> conv5_3_relu5_3_0_split_0
I1007 03:18:42.806483 18845 net.cpp:411] conv5_3_relu5_3_0_split -> conv5_3_relu5_3_0_split_1
I1007 03:18:42.806488 18845 net.cpp:411] conv5_3_relu5_3_0_split -> conv5_3_relu5_3_0_split_2
I1007 03:18:42.806574 18845 net.cpp:150] Setting up conv5_3_relu5_3_0_split
I1007 03:18:42.806586 18845 net.cpp:157] Top shape: 4 512 36 36 (2654208)
I1007 03:18:42.806592 18845 net.cpp:157] Top shape: 4 512 36 36 (2654208)
I1007 03:18:42.806598 18845 net.cpp:157] Top shape: 4 512 36 36 (2654208)
I1007 03:18:42.806603 18845 net.cpp:165] Memory required for data: 3335305288
I1007 03:18:42.806608 18845 layer_factory.hpp:76] Creating layer LFCN_2_3x5
I1007 03:18:42.806619 18845 net.cpp:106] Creating Layer LFCN_2_3x5
I1007 03:18:42.806624 18845 net.cpp:454] LFCN_2_3x5 <- conv5_3_relu5_3_0_split_0
I1007 03:18:42.806637 18845 net.cpp:411] LFCN_2_3x5 -> LFCN_2_3x5
I1007 03:18:42.809334 18845 net.cpp:150] Setting up LFCN_2_3x5
I1007 03:18:42.809348 18845 net.cpp:157] Top shape: 4 6 36 36 (31104)
I1007 03:18:42.809351 18845 net.cpp:165] Memory required for data: 3335429704
I1007 03:18:42.809367 18845 layer_factory.hpp:76] Creating layer LFCN_2_3x5_LFCN_2_3x5_0_split
I1007 03:18:42.809377 18845 net.cpp:106] Creating Layer LFCN_2_3x5_LFCN_2_3x5_0_split
I1007 03:18:42.809384 18845 net.cpp:454] LFCN_2_3x5_LFCN_2_3x5_0_split <- LFCN_2_3x5
I1007 03:18:42.809392 18845 net.cpp:411] LFCN_2_3x5_LFCN_2_3x5_0_split -> LFCN_2_3x5_LFCN_2_3x5_0_split_0
I1007 03:18:42.809399 18845 net.cpp:411] LFCN_2_3x5_LFCN_2_3x5_0_split -> LFCN_2_3x5_LFCN_2_3x5_0_split_1
I1007 03:18:42.809478 18845 net.cpp:150] Setting up LFCN_2_3x5_LFCN_2_3x5_0_split
I1007 03:18:42.809486 18845 net.cpp:157] Top shape: 4 6 36 36 (31104)
I1007 03:18:42.809491 18845 net.cpp:157] Top shape: 4 6 36 36 (31104)
I1007 03:18:42.809495 18845 net.cpp:165] Memory required for data: 3335678536
I1007 03:18:42.809500 18845 layer_factory.hpp:76] Creating layer detection_loss_2_3x5
I1007 03:18:42.809512 18845 net.cpp:106] Creating Layer detection_loss_2_3x5
I1007 03:18:42.809518 18845 net.cpp:454] detection_loss_2_3x5 <- LFCN_2_3x5_LFCN_2_3x5_0_split_0
I1007 03:18:42.809525 18845 net.cpp:454] detection_loss_2_3x5 <- label_2_3x5_data_3_split_0
I1007 03:18:42.809532 18845 net.cpp:411] detection_loss_2_3x5 -> loss_2_3x5
I1007 03:18:42.809546 18845 layer_factory.hpp:76] Creating layer detection_loss_2_3x5
I1007 03:18:42.810123 18845 net.cpp:150] Setting up detection_loss_2_3x5
I1007 03:18:42.810137 18845 net.cpp:157] Top shape: 1 1 1 2 (2)
I1007 03:18:42.810140 18845 net.cpp:160]     with loss weight 1
I1007 03:18:42.810151 18845 net.cpp:165] Memory required for data: 3335678544
I1007 03:18:42.810154 18845 layer_factory.hpp:76] Creating layer detection_accuracy_2_3x5
I1007 03:18:42.810163 18845 net.cpp:106] Creating Layer detection_accuracy_2_3x5
I1007 03:18:42.810166 18845 net.cpp:454] detection_accuracy_2_3x5 <- LFCN_2_3x5_LFCN_2_3x5_0_split_1
I1007 03:18:42.810171 18845 net.cpp:454] detection_accuracy_2_3x5 <- label_2_3x5_data_3_split_1
I1007 03:18:42.810179 18845 net.cpp:411] detection_accuracy_2_3x5 -> accuracy_2_3x5
I1007 03:18:42.810189 18845 net.cpp:411] detection_accuracy_2_3x5 -> boxiou_2_3x5
I1007 03:18:42.810263 18845 net.cpp:150] Setting up detection_accuracy_2_3x5
I1007 03:18:42.810273 18845 net.cpp:157] Top shape: 1 1 1 2 (2)
I1007 03:18:42.810278 18845 net.cpp:157] Top shape: 1 1 1 1 (1)
I1007 03:18:42.810282 18845 net.cpp:165] Memory required for data: 3335678556
I1007 03:18:42.810287 18845 layer_factory.hpp:76] Creating layer LFCN_2_5x7
I1007 03:18:42.810302 18845 net.cpp:106] Creating Layer LFCN_2_5x7
I1007 03:18:42.810308 18845 net.cpp:454] LFCN_2_5x7 <- conv5_3_relu5_3_0_split_1
I1007 03:18:42.810319 18845 net.cpp:411] LFCN_2_5x7 -> LFCN_2_5x7
I1007 03:18:42.815320 18845 net.cpp:150] Setting up LFCN_2_5x7
I1007 03:18:42.815333 18845 net.cpp:157] Top shape: 4 6 36 36 (31104)
I1007 03:18:42.815336 18845 net.cpp:165] Memory required for data: 3335802972
I1007 03:18:42.815343 18845 layer_factory.hpp:76] Creating layer LFCN_2_5x7_LFCN_2_5x7_0_split
I1007 03:18:42.815351 18845 net.cpp:106] Creating Layer LFCN_2_5x7_LFCN_2_5x7_0_split
I1007 03:18:42.815356 18845 net.cpp:454] LFCN_2_5x7_LFCN_2_5x7_0_split <- LFCN_2_5x7
I1007 03:18:42.815362 18845 net.cpp:411] LFCN_2_5x7_LFCN_2_5x7_0_split -> LFCN_2_5x7_LFCN_2_5x7_0_split_0
I1007 03:18:42.815369 18845 net.cpp:411] LFCN_2_5x7_LFCN_2_5x7_0_split -> LFCN_2_5x7_LFCN_2_5x7_0_split_1
I1007 03:18:42.815435 18845 net.cpp:150] Setting up LFCN_2_5x7_LFCN_2_5x7_0_split
I1007 03:18:42.815444 18845 net.cpp:157] Top shape: 4 6 36 36 (31104)
I1007 03:18:42.815448 18845 net.cpp:157] Top shape: 4 6 36 36 (31104)
I1007 03:18:42.815451 18845 net.cpp:165] Memory required for data: 3336051804
I1007 03:18:42.815462 18845 layer_factory.hpp:76] Creating layer detection_loss_2_5x7
I1007 03:18:42.815474 18845 net.cpp:106] Creating Layer detection_loss_2_5x7
I1007 03:18:42.815486 18845 net.cpp:454] detection_loss_2_5x7 <- LFCN_2_5x7_LFCN_2_5x7_0_split_0
I1007 03:18:42.815495 18845 net.cpp:454] detection_loss_2_5x7 <- label_2_5x7_data_4_split_0
I1007 03:18:42.815500 18845 net.cpp:411] detection_loss_2_5x7 -> loss_2_5x7
I1007 03:18:42.815512 18845 layer_factory.hpp:76] Creating layer detection_loss_2_5x7
I1007 03:18:42.815933 18845 net.cpp:150] Setting up detection_loss_2_5x7
I1007 03:18:42.815945 18845 net.cpp:157] Top shape: 1 1 1 2 (2)
I1007 03:18:42.815948 18845 net.cpp:160]     with loss weight 1
I1007 03:18:42.815953 18845 net.cpp:165] Memory required for data: 3336051812
I1007 03:18:42.815958 18845 layer_factory.hpp:76] Creating layer detection_accuracy_2_5x7
I1007 03:18:42.815963 18845 net.cpp:106] Creating Layer detection_accuracy_2_5x7
I1007 03:18:42.815966 18845 net.cpp:454] detection_accuracy_2_5x7 <- LFCN_2_5x7_LFCN_2_5x7_0_split_1
I1007 03:18:42.815973 18845 net.cpp:454] detection_accuracy_2_5x7 <- label_2_5x7_data_4_split_1
I1007 03:18:42.815979 18845 net.cpp:411] detection_accuracy_2_5x7 -> accuracy_2_5x7
I1007 03:18:42.815986 18845 net.cpp:411] detection_accuracy_2_5x7 -> boxiou_2_5x7
I1007 03:18:42.816063 18845 net.cpp:150] Setting up detection_accuracy_2_5x7
I1007 03:18:42.816069 18845 net.cpp:157] Top shape: 1 1 1 2 (2)
I1007 03:18:42.816073 18845 net.cpp:157] Top shape: 1 1 1 1 (1)
I1007 03:18:42.816076 18845 net.cpp:165] Memory required for data: 3336051824
I1007 03:18:42.816079 18845 layer_factory.hpp:76] Creating layer pool5
I1007 03:18:42.816087 18845 net.cpp:106] Creating Layer pool5
I1007 03:18:42.816092 18845 net.cpp:454] pool5 <- conv5_3_relu5_3_0_split_2
I1007 03:18:42.816099 18845 net.cpp:411] pool5 -> pool5
I1007 03:18:42.816510 18845 net.cpp:150] Setting up pool5
I1007 03:18:42.816524 18845 net.cpp:157] Top shape: 4 512 18 18 (663552)
I1007 03:18:42.816527 18845 net.cpp:165] Memory required for data: 3338706032
I1007 03:18:42.816530 18845 layer_factory.hpp:76] Creating layer conv6_1
I1007 03:18:42.816540 18845 net.cpp:106] Creating Layer conv6_1
I1007 03:18:42.816545 18845 net.cpp:454] conv6_1 <- pool5
I1007 03:18:42.816553 18845 net.cpp:411] conv6_1 -> conv6_1
I1007 03:18:42.904585 18845 net.cpp:150] Setting up conv6_1
I1007 03:18:42.904603 18845 net.cpp:157] Top shape: 4 512 18 18 (663552)
I1007 03:18:42.904606 18845 net.cpp:165] Memory required for data: 3341360240
I1007 03:18:42.904613 18845 layer_factory.hpp:76] Creating layer relu6_1
I1007 03:18:42.904623 18845 net.cpp:106] Creating Layer relu6_1
I1007 03:18:42.904626 18845 net.cpp:454] relu6_1 <- conv6_1
I1007 03:18:42.904633 18845 net.cpp:397] relu6_1 -> conv6_1 (in-place)
I1007 03:18:42.905047 18845 net.cpp:150] Setting up relu6_1
I1007 03:18:42.905061 18845 net.cpp:157] Top shape: 4 512 18 18 (663552)
I1007 03:18:42.905064 18845 net.cpp:165] Memory required for data: 3344014448
I1007 03:18:42.905068 18845 layer_factory.hpp:76] Creating layer conv6_1_relu6_1_0_split
I1007 03:18:42.905079 18845 net.cpp:106] Creating Layer conv6_1_relu6_1_0_split
I1007 03:18:42.905086 18845 net.cpp:454] conv6_1_relu6_1_0_split <- conv6_1
I1007 03:18:42.905094 18845 net.cpp:411] conv6_1_relu6_1_0_split -> conv6_1_relu6_1_0_split_0
I1007 03:18:42.905117 18845 net.cpp:411] conv6_1_relu6_1_0_split -> conv6_1_relu6_1_0_split_1
I1007 03:18:42.905133 18845 net.cpp:411] conv6_1_relu6_1_0_split -> conv6_1_relu6_1_0_split_2
I1007 03:18:42.905242 18845 net.cpp:150] Setting up conv6_1_relu6_1_0_split
I1007 03:18:42.905251 18845 net.cpp:157] Top shape: 4 512 18 18 (663552)
I1007 03:18:42.905256 18845 net.cpp:157] Top shape: 4 512 18 18 (663552)
I1007 03:18:42.905261 18845 net.cpp:157] Top shape: 4 512 18 18 (663552)
I1007 03:18:42.905266 18845 net.cpp:165] Memory required for data: 3351977072
I1007 03:18:42.905270 18845 layer_factory.hpp:76] Creating layer LFCN_3_3x5
I1007 03:18:42.905282 18845 net.cpp:106] Creating Layer LFCN_3_3x5
I1007 03:18:42.905287 18845 net.cpp:454] LFCN_3_3x5 <- conv6_1_relu6_1_0_split_0
I1007 03:18:42.905298 18845 net.cpp:411] LFCN_3_3x5 -> LFCN_3_3x5
I1007 03:18:42.908679 18845 net.cpp:150] Setting up LFCN_3_3x5
I1007 03:18:42.908695 18845 net.cpp:157] Top shape: 4 6 18 18 (7776)
I1007 03:18:42.908699 18845 net.cpp:165] Memory required for data: 3352008176
I1007 03:18:42.908707 18845 layer_factory.hpp:76] Creating layer LFCN_3_3x5_LFCN_3_3x5_0_split
I1007 03:18:42.908730 18845 net.cpp:106] Creating Layer LFCN_3_3x5_LFCN_3_3x5_0_split
I1007 03:18:42.908736 18845 net.cpp:454] LFCN_3_3x5_LFCN_3_3x5_0_split <- LFCN_3_3x5
I1007 03:18:42.908746 18845 net.cpp:411] LFCN_3_3x5_LFCN_3_3x5_0_split -> LFCN_3_3x5_LFCN_3_3x5_0_split_0
I1007 03:18:42.908756 18845 net.cpp:411] LFCN_3_3x5_LFCN_3_3x5_0_split -> LFCN_3_3x5_LFCN_3_3x5_0_split_1
I1007 03:18:42.908818 18845 net.cpp:150] Setting up LFCN_3_3x5_LFCN_3_3x5_0_split
I1007 03:18:42.908828 18845 net.cpp:157] Top shape: 4 6 18 18 (7776)
I1007 03:18:42.908833 18845 net.cpp:157] Top shape: 4 6 18 18 (7776)
I1007 03:18:42.908835 18845 net.cpp:165] Memory required for data: 3352070384
I1007 03:18:42.908841 18845 layer_factory.hpp:76] Creating layer detection_loss_3_3x5
I1007 03:18:42.908854 18845 net.cpp:106] Creating Layer detection_loss_3_3x5
I1007 03:18:42.908859 18845 net.cpp:454] detection_loss_3_3x5 <- LFCN_3_3x5_LFCN_3_3x5_0_split_0
I1007 03:18:42.908866 18845 net.cpp:454] detection_loss_3_3x5 <- label_3_3x5_data_5_split_0
I1007 03:18:42.908875 18845 net.cpp:411] detection_loss_3_3x5 -> loss_3_3x5
I1007 03:18:42.908887 18845 layer_factory.hpp:76] Creating layer detection_loss_3_3x5
I1007 03:18:42.909308 18845 net.cpp:150] Setting up detection_loss_3_3x5
I1007 03:18:42.909320 18845 net.cpp:157] Top shape: 1 1 1 2 (2)
I1007 03:18:42.909323 18845 net.cpp:160]     with loss weight 1
I1007 03:18:42.909332 18845 net.cpp:165] Memory required for data: 3352070392
I1007 03:18:42.909337 18845 layer_factory.hpp:76] Creating layer detection_accuracy_3_3x5
I1007 03:18:42.909345 18845 net.cpp:106] Creating Layer detection_accuracy_3_3x5
I1007 03:18:42.909351 18845 net.cpp:454] detection_accuracy_3_3x5 <- LFCN_3_3x5_LFCN_3_3x5_0_split_1
I1007 03:18:42.909359 18845 net.cpp:454] detection_accuracy_3_3x5 <- label_3_3x5_data_5_split_1
I1007 03:18:42.909369 18845 net.cpp:411] detection_accuracy_3_3x5 -> accuracy_3_3x5
I1007 03:18:42.909380 18845 net.cpp:411] detection_accuracy_3_3x5 -> boxiou_3_3x5
I1007 03:18:42.909442 18845 net.cpp:150] Setting up detection_accuracy_3_3x5
I1007 03:18:42.909451 18845 net.cpp:157] Top shape: 1 1 1 2 (2)
I1007 03:18:42.909456 18845 net.cpp:157] Top shape: 1 1 1 1 (1)
I1007 03:18:42.909459 18845 net.cpp:165] Memory required for data: 3352070404
I1007 03:18:42.909464 18845 layer_factory.hpp:76] Creating layer LFCN_3_5x7
I1007 03:18:42.909476 18845 net.cpp:106] Creating Layer LFCN_3_5x7
I1007 03:18:42.909482 18845 net.cpp:454] LFCN_3_5x7 <- conv6_1_relu6_1_0_split_1
I1007 03:18:42.909492 18845 net.cpp:411] LFCN_3_5x7 -> LFCN_3_5x7
I1007 03:18:42.915035 18845 net.cpp:150] Setting up LFCN_3_5x7
I1007 03:18:42.915050 18845 net.cpp:157] Top shape: 4 6 18 18 (7776)
I1007 03:18:42.915053 18845 net.cpp:165] Memory required for data: 3352101508
I1007 03:18:42.915060 18845 layer_factory.hpp:76] Creating layer LFCN_3_5x7_LFCN_3_5x7_0_split
I1007 03:18:42.915067 18845 net.cpp:106] Creating Layer LFCN_3_5x7_LFCN_3_5x7_0_split
I1007 03:18:42.915071 18845 net.cpp:454] LFCN_3_5x7_LFCN_3_5x7_0_split <- LFCN_3_5x7
I1007 03:18:42.915079 18845 net.cpp:411] LFCN_3_5x7_LFCN_3_5x7_0_split -> LFCN_3_5x7_LFCN_3_5x7_0_split_0
I1007 03:18:42.915086 18845 net.cpp:411] LFCN_3_5x7_LFCN_3_5x7_0_split -> LFCN_3_5x7_LFCN_3_5x7_0_split_1
I1007 03:18:42.915153 18845 net.cpp:150] Setting up LFCN_3_5x7_LFCN_3_5x7_0_split
I1007 03:18:42.915160 18845 net.cpp:157] Top shape: 4 6 18 18 (7776)
I1007 03:18:42.915164 18845 net.cpp:157] Top shape: 4 6 18 18 (7776)
I1007 03:18:42.915169 18845 net.cpp:165] Memory required for data: 3352163716
I1007 03:18:42.915174 18845 layer_factory.hpp:76] Creating layer detection_loss_3_5x7
I1007 03:18:42.915185 18845 net.cpp:106] Creating Layer detection_loss_3_5x7
I1007 03:18:42.915191 18845 net.cpp:454] detection_loss_3_5x7 <- LFCN_3_5x7_LFCN_3_5x7_0_split_0
I1007 03:18:42.915199 18845 net.cpp:454] detection_loss_3_5x7 <- label_3_5x7_data_6_split_0
I1007 03:18:42.915206 18845 net.cpp:411] detection_loss_3_5x7 -> loss_3_5x7
I1007 03:18:42.915218 18845 layer_factory.hpp:76] Creating layer detection_loss_3_5x7
I1007 03:18:42.915801 18845 net.cpp:150] Setting up detection_loss_3_5x7
I1007 03:18:42.915814 18845 net.cpp:157] Top shape: 1 1 1 2 (2)
I1007 03:18:42.915817 18845 net.cpp:160]     with loss weight 1
I1007 03:18:42.915823 18845 net.cpp:165] Memory required for data: 3352163724
I1007 03:18:42.915827 18845 layer_factory.hpp:76] Creating layer detection_accuracy_3_5x7
I1007 03:18:42.915834 18845 net.cpp:106] Creating Layer detection_accuracy_3_5x7
I1007 03:18:42.915838 18845 net.cpp:454] detection_accuracy_3_5x7 <- LFCN_3_5x7_LFCN_3_5x7_0_split_1
I1007 03:18:42.915844 18845 net.cpp:454] detection_accuracy_3_5x7 <- label_3_5x7_data_6_split_1
I1007 03:18:42.915849 18845 net.cpp:411] detection_accuracy_3_5x7 -> accuracy_3_5x7
I1007 03:18:42.915858 18845 net.cpp:411] detection_accuracy_3_5x7 -> boxiou_3_5x7
I1007 03:18:42.915923 18845 net.cpp:150] Setting up detection_accuracy_3_5x7
I1007 03:18:42.915930 18845 net.cpp:157] Top shape: 1 1 1 2 (2)
I1007 03:18:42.915935 18845 net.cpp:157] Top shape: 1 1 1 1 (1)
I1007 03:18:42.915940 18845 net.cpp:165] Memory required for data: 3352163736
I1007 03:18:42.915944 18845 layer_factory.hpp:76] Creating layer pool6
I1007 03:18:42.915952 18845 net.cpp:106] Creating Layer pool6
I1007 03:18:42.915958 18845 net.cpp:454] pool6 <- conv6_1_relu6_1_0_split_2
I1007 03:18:42.915968 18845 net.cpp:411] pool6 -> pool6
I1007 03:18:42.916223 18845 net.cpp:150] Setting up pool6
I1007 03:18:42.916235 18845 net.cpp:157] Top shape: 4 512 9 9 (165888)
I1007 03:18:42.916239 18845 net.cpp:165] Memory required for data: 3352827288
I1007 03:18:42.916244 18845 layer_factory.hpp:76] Creating layer LFCN_4_3x5
I1007 03:18:42.916254 18845 net.cpp:106] Creating Layer LFCN_4_3x5
I1007 03:18:42.916260 18845 net.cpp:454] LFCN_4_3x5 <- pool6
I1007 03:18:42.916272 18845 net.cpp:411] LFCN_4_3x5 -> LFCN_4_3x5
I1007 03:18:42.919075 18845 net.cpp:150] Setting up LFCN_4_3x5
I1007 03:18:42.919090 18845 net.cpp:157] Top shape: 4 6 9 9 (1944)
I1007 03:18:42.919093 18845 net.cpp:165] Memory required for data: 3352835064
I1007 03:18:42.919100 18845 layer_factory.hpp:76] Creating layer LFCN_4_3x5_LFCN_4_3x5_0_split
I1007 03:18:42.919106 18845 net.cpp:106] Creating Layer LFCN_4_3x5_LFCN_4_3x5_0_split
I1007 03:18:42.919111 18845 net.cpp:454] LFCN_4_3x5_LFCN_4_3x5_0_split <- LFCN_4_3x5
I1007 03:18:42.919118 18845 net.cpp:411] LFCN_4_3x5_LFCN_4_3x5_0_split -> LFCN_4_3x5_LFCN_4_3x5_0_split_0
I1007 03:18:42.919126 18845 net.cpp:411] LFCN_4_3x5_LFCN_4_3x5_0_split -> LFCN_4_3x5_LFCN_4_3x5_0_split_1
I1007 03:18:42.919198 18845 net.cpp:150] Setting up LFCN_4_3x5_LFCN_4_3x5_0_split
I1007 03:18:42.919211 18845 net.cpp:157] Top shape: 4 6 9 9 (1944)
I1007 03:18:42.919215 18845 net.cpp:157] Top shape: 4 6 9 9 (1944)
I1007 03:18:42.919219 18845 net.cpp:165] Memory required for data: 3352850616
I1007 03:18:42.919229 18845 layer_factory.hpp:76] Creating layer detection_loss_4_3x5
I1007 03:18:42.919247 18845 net.cpp:106] Creating Layer detection_loss_4_3x5
I1007 03:18:42.919253 18845 net.cpp:454] detection_loss_4_3x5 <- LFCN_4_3x5_LFCN_4_3x5_0_split_0
I1007 03:18:42.919260 18845 net.cpp:454] detection_loss_4_3x5 <- label_4_3x5_data_7_split_0
I1007 03:18:42.919268 18845 net.cpp:411] detection_loss_4_3x5 -> loss_4_3x5
I1007 03:18:42.919280 18845 layer_factory.hpp:76] Creating layer detection_loss_4_3x5
I1007 03:18:42.919855 18845 net.cpp:150] Setting up detection_loss_4_3x5
I1007 03:18:42.919869 18845 net.cpp:157] Top shape: 1 1 1 2 (2)
I1007 03:18:42.919872 18845 net.cpp:160]     with loss weight 1
I1007 03:18:42.919878 18845 net.cpp:165] Memory required for data: 3352850624
I1007 03:18:42.919881 18845 layer_factory.hpp:76] Creating layer detection_accuracy_4_3x5
I1007 03:18:42.919889 18845 net.cpp:106] Creating Layer detection_accuracy_4_3x5
I1007 03:18:42.919894 18845 net.cpp:454] detection_accuracy_4_3x5 <- LFCN_4_3x5_LFCN_4_3x5_0_split_1
I1007 03:18:42.919899 18845 net.cpp:454] detection_accuracy_4_3x5 <- label_4_3x5_data_7_split_1
I1007 03:18:42.919905 18845 net.cpp:411] detection_accuracy_4_3x5 -> accuracy_4_3x5
I1007 03:18:42.919914 18845 net.cpp:411] detection_accuracy_4_3x5 -> boxiou_4_3x5
I1007 03:18:42.919977 18845 net.cpp:150] Setting up detection_accuracy_4_3x5
I1007 03:18:42.919986 18845 net.cpp:157] Top shape: 1 1 1 2 (2)
I1007 03:18:42.919992 18845 net.cpp:157] Top shape: 1 1 1 1 (1)
I1007 03:18:42.919998 18845 net.cpp:165] Memory required for data: 3352850636
I1007 03:18:42.920003 18845 net.cpp:228] detection_accuracy_4_3x5 does not need backward computation.
I1007 03:18:42.920008 18845 net.cpp:226] detection_loss_4_3x5 needs backward computation.
I1007 03:18:42.920019 18845 net.cpp:226] LFCN_4_3x5_LFCN_4_3x5_0_split needs backward computation.
I1007 03:18:42.920023 18845 net.cpp:226] LFCN_4_3x5 needs backward computation.
…
I1007 03:18:42.930743 18845 image_gt_data_layer.cpp:234] output label size 1 : 2,6,72,72
I1007 03:18:42.930821 18845 image_gt_data_layer.cpp:234] output label size 2 : 2,6,36,36
I1007 03:18:42.930907 18845 image_gt_data_layer.cpp:234] output label size 3 : 2,6,36,36
I1007 03:18:42.930986 18845 image_gt_data_layer.cpp:234] output label size 4 : 2,6,18,18
I1007 03:18:42.931062 18845 image_gt_data_layer.cpp:234] output label size 5 : 2,6,18,18
I1007 03:18:42.931133 18845 image_gt_data_layer.cpp:234] output label size 6 : 2,6,9,9
I1007 03:18:42.947772 18845 net.cpp:150] Setting up data
I1007 03:18:42.947803 18845 net.cpp:157] Top shape: 2 3 576 576 (1990656)
I1007 03:18:42.947808 18845 net.cpp:157] Top shape: 2 6 72 72 (62208)
I1007 03:18:42.947813 18845 net.cpp:157] Top shape: 2 6 72 72 (62208)
I1007 03:18:42.947818 18845 net.cpp:157] Top shape: 2 6 36 36 (15552)
I1007 03:18:42.947824 18845 net.cpp:157] Top shape: 2 6 36 36 (15552)
I1007 03:18:42.947829 18845 net.cpp:157] Top shape: 2 6 18 18 (3888)
I1007 03:18:42.947834 18845 net.cpp:157] Top shape: 2 6 18 18 (3888)
I1007 03:18:42.947840 18845 net.cpp:157] Top shape: 2 6 9 9 (972)
I1007 03:18:42.947844 18845 net.cpp:165] Memory required for data: 8619696
I1007 03:18:42.947854 18845 layer_factory.hpp:76] Creating layer label_1_3x5_data_1_split
I1007 03:18:42.947875 18845 net.cpp:106] Creating Layer label_1_3x5_data_1_split
I1007 03:18:42.947882 18845 net.cpp:454] label_1_3x5_data_1_split <- label_1_3x5
I1007 03:18:42.947895 18845 net.cpp:411] label_1_3x5_data_1_split -> label_1_3x5_data_1_split_0
I1007 03:18:42.947911 18845 net.cpp:411] label_1_3x5_data_1_split -> label_1_3x5_data_1_split_1
I1007 03:18:42.948007 18845 net.cpp:150] Setting up label_1_3x5_data_1_split
I1007 03:18:42.948016 18845 net.cpp:157] Top shape: 2 6 72 72 (62208)
I1007 03:18:42.948020 18845 net.cpp:157] Top shape: 2 6 72 72 (62208)
I1007 03:18:42.948025 18845 net.cpp:165] Memory required for data: 9117360
I1007 03:18:42.948030 18845 layer_factory.hpp:76] Creating layer label_1_5x7_data_2_split
I1007 03:18:42.948040 18845 net.cpp:106] Creating Layer label_1_5x7_data_2_split
I1007 03:18:42.948046 18845 net.cpp:454] label_1_5x7_data_2_split <- label_1_5x7
I1007 03:18:42.948055 18845 net.cpp:411] label_1_5x7_data_2_split -> label_1_5x7_data_2_split_0
I1007 03:18:42.948063 18845 net.cpp:411] label_1_5x7_data_2_split -> label_1_5x7_data_2_split_1
I1007 03:18:42.948138 18845 net.cpp:150] Setting up label_1_5x7_data_2_split
I1007 03:18:42.948148 18845 net.cpp:157] Top shape: 2 6 72 72 (62208)
I1007 03:18:42.948151 18845 net.cpp:157] Top shape: 2 6 72 72 (62208)
I1007 03:18:42.948155 18845 net.cpp:165] Memory required for data: 9615024
I1007 03:18:42.948160 18845 layer_factory.hpp:76] Creating layer label_2_3x5_data_3_split
I1007 03:18:42.948171 18845 net.cpp:106] Creating Layer label_2_3x5_data_3_split
I1007 03:18:42.948177 18845 net.cpp:454] label_2_3x5_data_3_split <- label_2_3x5
I1007 03:18:42.948185 18845 net.cpp:411] label_2_3x5_data_3_split -> label_2_3x5_data_3_split_0
I1007 03:18:42.948194 18845 net.cpp:411] label_2_3x5_data_3_split -> label_2_3x5_data_3_split_1
I1007 03:18:42.948256 18845 net.cpp:150] Setting up label_2_3x5_data_3_split
I1007 03:18:42.948266 18845 net.cpp:157] Top shape: 2 6 36 36 (15552)
I1007 03:18:42.948269 18845 net.cpp:157] Top shape: 2 6 36 36 (15552)
I1007 03:18:42.948273 18845 net.cpp:165] Memory required for data: 9739440
I1007 03:18:42.948278 18845 layer_factory.hpp:76] Creating layer label_2_5x7_data_4_split
I1007 03:18:42.948287 18845 net.cpp:106] Creating Layer label_2_5x7_data_4_split
I1007 03:18:42.948292 18845 net.cpp:454] label_2_5x7_data_4_split <- label_2_5x7
I1007 03:18:42.948302 18845 net.cpp:411] label_2_5x7_data_4_split -> label_2_5x7_data_4_split_0
I1007 03:18:42.948310 18845 net.cpp:411] label_2_5x7_data_4_split -> label_2_5x7_data_4_split_1
I1007 03:18:42.948369 18845 net.cpp:150] Setting up label_2_5x7_data_4_split
I1007 03:18:42.948382 18845 net.cpp:157] Top shape: 2 6 36 36 (15552)
I1007 03:18:42.948386 18845 net.cpp:157] Top shape: 2 6 36 36 (15552)
I1007 03:18:42.948390 18845 net.cpp:165] Memory required for data: 9863856
I1007 03:18:42.948395 18845 layer_factory.hpp:76] Creating layer label_3_3x5_data_5_split
I1007 03:18:42.948405 18845 net.cpp:106] Creating Layer label_3_3x5_data_5_split
I1007 03:18:42.948410 18845 net.cpp:454] label_3_3x5_data_5_split <- label_3_3x5
I1007 03:18:42.948416 18845 net.cpp:411] label_3_3x5_data_5_split -> label_3_3x5_data_5_split_0
I1007 03:18:42.948427 18845 net.cpp:411] label_3_3x5_data_5_split -> label_3_3x5_data_5_split_1
I1007 03:18:42.948485 18845 net.cpp:150] Setting up label_3_3x5_data_5_split
I1007 03:18:42.948493 18845 net.cpp:157] Top shape: 2 6 18 18 (3888)
I1007 03:18:42.948500 18845 net.cpp:157] Top shape: 2 6 18 18 (3888)
I1007 03:18:42.948504 18845 net.cpp:165] Memory required for data: 9894960
I1007 03:18:42.948509 18845 layer_factory.hpp:76] Creating layer label_3_5x7_data_6_split
I1007 03:18:42.948516 18845 net.cpp:106] Creating Layer label_3_5x7_data_6_split
I1007 03:18:42.948521 18845 net.cpp:454] label_3_5x7_data_6_split <- label_3_5x7
I1007 03:18:42.948529 18845 net.cpp:411] label_3_5x7_data_6_split -> label_3_5x7_data_6_split_0
I1007 03:18:42.948535 18845 net.cpp:411] label_3_5x7_data_6_split -> label_3_5x7_data_6_split_1
I1007 03:18:42.948595 18845 net.cpp:150] Setting up label_3_5x7_data_6_split
I1007 03:18:42.948602 18845 net.cpp:157] Top shape: 2 6 18 18 (3888)
I1007 03:18:42.948606 18845 net.cpp:157] Top shape: 2 6 18 18 (3888)
I1007 03:18:42.948611 18845 net.cpp:165] Memory required for data: 9926064
I1007 03:18:42.948616 18845 layer_factory.hpp:76] Creating layer label_4_3x5_data_7_split
I1007 03:18:42.948621 18845 net.cpp:106] Creating Layer label_4_3x5_data_7_split
I1007 03:18:42.948626 18845 net.cpp:454] label_4_3x5_data_7_split <- label_4_3x5
I1007 03:18:42.948635 18845 net.cpp:411] label_4_3x5_data_7_split -> label_4_3x5_data_7_split_0
I1007 03:18:42.948643 18845 net.cpp:411] label_4_3x5_data_7_split -> label_4_3x5_data_7_split_1
I1007 03:18:42.948696 18845 net.cpp:150] Setting up label_4_3x5_data_7_split
I1007 03:18:42.948705 18845 net.cpp:157] Top shape: 2 6 9 9 (972)
I1007 03:18:42.948709 18845 net.cpp:157] Top shape: 2 6 9 9 (972)
I1007 03:18:42.948714 18845 net.cpp:165] Memory required for data: 9933840
I1007 03:18:42.948717 18845 layer_factory.hpp:76] Creating layer conv1_1
I1007 03:18:42.948734 18845 net.cpp:106] Creating Layer conv1_1
I1007 03:18:42.948740 18845 net.cpp:454] conv1_1 <- data
I1007 03:18:42.948747 18845 net.cpp:411] conv1_1 -> conv1_1
I1007 03:18:42.951933 18845 net.cpp:150] Setting up conv1_1
I1007 03:18:42.951951 18845 net.cpp:157] Top shape: 2 64 576 576 (42467328)
I1007 03:18:42.951956 18845 net.cpp:165] Memory required for data: 179803152
I1007 03:18:42.951975 18845 layer_factory.hpp:76] Creating layer relu1_1
I1007 03:18:42.951987 18845 net.cpp:106] Creating Layer relu1_1
I1007 03:18:42.951992 18845 net.cpp:454] relu1_1 <- conv1_1
I1007 03:18:42.951999 18845 net.cpp:397] relu1_1 -> conv1_1 (in-place)
I1007 03:18:42.952376 18845 net.cpp:150] Setting up relu1_1
I1007 03:18:42.952390 18845 net.cpp:157] Top shape: 2 64 576 576 (42467328)
I1007 03:18:42.952394 18845 net.cpp:165] Memory required for data: 349672464
I1007 03:18:42.952399 18845 layer_factory.hpp:76] Creating layer conv1_2
I1007 03:18:42.952409 18845 net.cpp:106] Creating Layer conv1_2
I1007 03:18:42.952415 18845 net.cpp:454] conv1_2 <- conv1_1
I1007 03:18:42.952430 18845 net.cpp:411] conv1_2 -> conv1_2
I1007 03:18:42.954756 18845 net.cpp:150] Setting up conv1_2
I1007 03:18:42.954771 18845 net.cpp:157] Top shape: 2 64 576 576 (42467328)
I1007 03:18:42.954776 18845 net.cpp:165] Memory required for data: 519541776
I1007 03:18:42.954789 18845 layer_factory.hpp:76] Creating layer relu1_2
I1007 03:18:42.954799 18845 net.cpp:106] Creating Layer relu1_2
I1007 03:18:42.954805 18845 net.cpp:454] relu1_2 <- conv1_2
I1007 03:18:42.954814 18845 net.cpp:397] relu1_2 -> conv1_2 (in-place)
I1007 03:18:42.955041 18845 net.cpp:150] Setting up relu1_2
I1007 03:18:42.955054 18845 net.cpp:157] Top shape: 2 64 576 576 (42467328)
I1007 03:18:42.955057 18845 net.cpp:165] Memory required for data: 689411088
I1007 03:18:42.955060 18845 layer_factory.hpp:76] Creating layer pool1
I1007 03:18:42.955070 18845 net.cpp:106] Creating Layer pool1
I1007 03:18:42.955076 18845 net.cpp:454] pool1 <- conv1_2
I1007 03:18:42.955086 18845 net.cpp:411] pool1 -> pool1
I1007 03:18:42.955497 18845 net.cpp:150] Setting up pool1
I1007 03:18:42.955509 18845 net.cpp:157] Top shape: 2 64 288 288 (10616832)
I1007 03:18:42.955513 18845 net.cpp:165] Memory required for data: 731878416
I1007 03:18:42.955516 18845 layer_factory.hpp:76] Creating layer conv2_1
I1007 03:18:42.955524 18845 net.cpp:106] Creating Layer conv2_1
I1007 03:18:42.955528 18845 net.cpp:454] conv2_1 <- pool1
I1007 03:18:42.955533 18845 net.cpp:411] conv2_1 -> conv2_1
I1007 03:18:42.956907 18845 net.cpp:150] Setting up conv2_1
I1007 03:18:42.956921 18845 net.cpp:157] Top shape: 2 128 288 288 (21233664)
I1007 03:18:42.956924 18845 net.cpp:165] Memory required for data: 816813072
I1007 03:18:42.956934 18845 layer_factory.hpp:76] Creating layer relu2_1
I1007 03:18:42.956940 18845 net.cpp:106] Creating Layer relu2_1
I1007 03:18:42.956943 18845 net.cpp:454] relu2_1 <- conv2_1
I1007 03:18:42.956950 18845 net.cpp:397] relu2_1 -> conv2_1 (in-place)
I1007 03:18:42.957168 18845 net.cpp:150] Setting up relu2_1
I1007 03:18:42.957181 18845 net.cpp:157] Top shape: 2 128 288 288 (21233664)
I1007 03:18:42.957185 18845 net.cpp:165] Memory required for data: 901747728
I1007 03:18:42.957190 18845 layer_factory.hpp:76] Creating layer conv2_2
I1007 03:18:42.957200 18845 net.cpp:106] Creating Layer conv2_2
I1007 03:18:42.957204 18845 net.cpp:454] conv2_2 <- conv2_1
I1007 03:18:42.957214 18845 net.cpp:411] conv2_2 -> conv2_2
I1007 03:18:42.959156 18845 net.cpp:150] Setting up conv2_2
I1007 03:18:42.959172 18845 net.cpp:157] Top shape: 2 128 288 288 (21233664)
I1007 03:18:42.959175 18845 net.cpp:165] Memory required for data: 986682384
I1007 03:18:42.959182 18845 layer_factory.hpp:76] Creating layer relu2_2
I1007 03:18:42.959192 18845 net.cpp:106] Creating Layer relu2_2
I1007 03:18:42.959195 18845 net.cpp:454] relu2_2 <- conv2_2
I1007 03:18:42.959202 18845 net.cpp:397] relu2_2 -> conv2_2 (in-place)
I1007 03:18:42.959564 18845 net.cpp:150] Setting up relu2_2
I1007 03:18:42.959578 18845 net.cpp:157] Top shape: 2 128 288 288 (21233664)
I1007 03:18:42.959581 18845 net.cpp:165] Memory required for data: 1071617040
I1007 03:18:42.959584 18845 layer_factory.hpp:76] Creating layer pool2
I1007 03:18:42.959596 18845 net.cpp:106] Creating Layer pool2
I1007 03:18:42.959602 18845 net.cpp:454] pool2 <- conv2_2
I1007 03:18:42.959610 18845 net.cpp:411] pool2 -> pool2
I1007 03:18:42.959874 18845 net.cpp:150] Setting up pool2
I1007 03:18:42.959885 18845 net.cpp:157] Top shape: 2 128 144 144 (5308416)
I1007 03:18:42.959888 18845 net.cpp:165] Memory required for data: 1092850704
I1007 03:18:42.959893 18845 layer_factory.hpp:76] Creating layer conv3_1
I1007 03:18:42.959904 18845 net.cpp:106] Creating Layer conv3_1
I1007 03:18:42.959910 18845 net.cpp:454] conv3_1 <- pool2
I1007 03:18:42.959919 18845 net.cpp:411] conv3_1 -> conv3_1
I1007 03:18:42.961964 18845 net.cpp:150] Setting up conv3_1
I1007 03:18:42.961980 18845 net.cpp:157] Top shape: 2 256 144 144 (10616832)
I1007 03:18:42.961983 18845 net.cpp:165] Memory required for data: 1135318032
I1007 03:18:42.961993 18845 layer_factory.hpp:76] Creating layer relu3_1
I1007 03:18:42.962000 18845 net.cpp:106] Creating Layer relu3_1
I1007 03:18:42.962003 18845 net.cpp:454] relu3_1 <- conv3_1
I1007 03:18:42.962008 18845 net.cpp:397] relu3_1 -> conv3_1 (in-place)
I1007 03:18:42.962230 18845 net.cpp:150] Setting up relu3_1
I1007 03:18:42.962242 18845 net.cpp:157] Top shape: 2 256 144 144 (10616832)
I1007 03:18:42.962245 18845 net.cpp:165] Memory required for data: 1177785360
I1007 03:18:42.962249 18845 layer_factory.hpp:76] Creating layer conv3_2
I1007 03:18:42.962261 18845 net.cpp:106] Creating Layer conv3_2
I1007 03:18:42.962265 18845 net.cpp:454] conv3_2 <- conv3_1
I1007 03:18:42.962271 18845 net.cpp:411] conv3_2 -> conv3_2
I1007 03:18:42.965095 18845 net.cpp:150] Setting up conv3_2
I1007 03:18:42.965111 18845 net.cpp:157] Top shape: 2 256 144 144 (10616832)
I1007 03:18:42.965114 18845 net.cpp:165] Memory required for data: 1220252688
I1007 03:18:42.965121 18845 layer_factory.hpp:76] Creating layer relu3_2
I1007 03:18:42.965127 18845 net.cpp:106] Creating Layer relu3_2
I1007 03:18:42.965131 18845 net.cpp:454] relu3_2 <- conv3_2
I1007 03:18:42.965138 18845 net.cpp:397] relu3_2 -> conv3_2 (in-place)
I1007 03:18:42.965512 18845 net.cpp:150] Setting up relu3_2
I1007 03:18:42.965524 18845 net.cpp:157] Top shape: 2 256 144 144 (10616832)
I1007 03:18:42.965528 18845 net.cpp:165] Memory required for data: 1262720016
I1007 03:18:42.965530 18845 layer_factory.hpp:76] Creating layer conv3_3
I1007 03:18:42.965539 18845 net.cpp:106] Creating Layer conv3_3
I1007 03:18:42.965543 18845 net.cpp:454] conv3_3 <- conv3_2
I1007 03:18:42.965549 18845 net.cpp:411] conv3_3 -> conv3_3
I1007 03:18:42.968883 18845 net.cpp:150] Setting up conv3_3
I1007 03:18:42.968899 18845 net.cpp:157] Top shape: 2 256 144 144 (10616832)
I1007 03:18:42.968901 18845 net.cpp:165] Memory required for data: 1305187344
I1007 03:18:42.968909 18845 layer_factory.hpp:76] Creating layer relu3_3
I1007 03:18:42.968914 18845 net.cpp:106] Creating Layer relu3_3
I1007 03:18:42.968919 18845 net.cpp:454] relu3_3 <- conv3_3
I1007 03:18:42.968924 18845 net.cpp:397] relu3_3 -> conv3_3 (in-place)
I1007 03:18:42.969154 18845 net.cpp:150] Setting up relu3_3
I1007 03:18:42.969166 18845 net.cpp:157] Top shape: 2 256 144 144 (10616832)
I1007 03:18:42.969171 18845 net.cpp:165] Memory required for data: 1347654672
I1007 03:18:42.969174 18845 layer_factory.hpp:76] Creating layer pool3
I1007 03:18:42.969187 18845 net.cpp:106] Creating Layer pool3
I1007 03:18:42.969193 18845 net.cpp:454] pool3 <- conv3_3
I1007 03:18:42.969202 18845 net.cpp:411] pool3 -> pool3
I1007 03:18:42.969604 18845 net.cpp:150] Setting up pool3
I1007 03:18:42.969619 18845 net.cpp:157] Top shape: 2 256 72 72 (2654208)
I1007 03:18:42.969622 18845 net.cpp:165] Memory required for data: 1358271504
I1007 03:18:42.969626 18845 layer_factory.hpp:76] Creating layer conv4_1
I1007 03:18:42.969632 18845 net.cpp:106] Creating Layer conv4_1
I1007 03:18:42.969636 18845 net.cpp:454] conv4_1 <- pool3
I1007 03:18:42.969643 18845 net.cpp:411] conv4_1 -> conv4_1
I1007 03:18:42.973665 18845 net.cpp:150] Setting up conv4_1
I1007 03:18:42.973682 18845 net.cpp:157] Top shape: 2 512 72 72 (5308416)
I1007 03:18:42.973685 18845 net.cpp:165] Memory required for data: 1379505168
I1007 03:18:42.973692 18845 layer_factory.hpp:76] Creating layer relu4_1
I1007 03:18:42.973701 18845 net.cpp:106] Creating Layer relu4_1
I1007 03:18:42.973704 18845 net.cpp:454] relu4_1 <- conv4_1
I1007 03:18:42.973709 18845 net.cpp:397] relu4_1 -> conv4_1 (in-place)
I1007 03:18:42.974256 18845 net.cpp:150] Setting up relu4_1
I1007 03:18:42.974272 18845 net.cpp:157] Top shape: 2 512 72 72 (5308416)
I1007 03:18:42.974275 18845 net.cpp:165] Memory required for data: 1400738832
I1007 03:18:42.974278 18845 layer_factory.hpp:76] Creating layer conv4_2
I1007 03:18:42.974285 18845 net.cpp:106] Creating Layer conv4_2
I1007 03:18:42.974289 18845 net.cpp:454] conv4_2 <- conv4_1
I1007 03:18:42.974298 18845 net.cpp:411] conv4_2 -> conv4_2
I1007 03:18:42.980756 18845 net.cpp:150] Setting up conv4_2
I1007 03:18:42.980772 18845 net.cpp:157] Top shape: 2 512 72 72 (5308416)
I1007 03:18:42.980777 18845 net.cpp:165] Memory required for data: 1421972496
I1007 03:18:42.980790 18845 layer_factory.hpp:76] Creating layer relu4_2
I1007 03:18:42.980798 18845 net.cpp:106] Creating Layer relu4_2
I1007 03:18:42.980803 18845 net.cpp:454] relu4_2 <- conv4_2
I1007 03:18:42.980808 18845 net.cpp:397] relu4_2 -> conv4_2 (in-place)
I1007 03:18:42.981040 18845 net.cpp:150] Setting up relu4_2
I1007 03:18:42.981051 18845 net.cpp:157] Top shape: 2 512 72 72 (5308416)
I1007 03:18:42.981055 18845 net.cpp:165] Memory required for data: 1443206160
I1007 03:18:42.981058 18845 layer_factory.hpp:76] Creating layer conv4_3
I1007 03:18:42.981071 18845 net.cpp:106] Creating Layer conv4_3
I1007 03:18:42.981077 18845 net.cpp:454] conv4_3 <- conv4_2
I1007 03:18:42.981087 18845 net.cpp:411] conv4_3 -> conv4_3
I1007 03:18:42.988039 18845 net.cpp:150] Setting up conv4_3
I1007 03:18:42.988059 18845 net.cpp:157] Top shape: 2 512 72 72 (5308416)
I1007 03:18:42.988062 18845 net.cpp:165] Memory required for data: 1464439824
I1007 03:18:42.988070 18845 layer_factory.hpp:76] Creating layer relu4_3
I1007 03:18:42.988076 18845 net.cpp:106] Creating Layer relu4_3
I1007 03:18:42.988080 18845 net.cpp:454] relu4_3 <- conv4_3
I1007 03:18:42.988086 18845 net.cpp:397] relu4_3 -> conv4_3 (in-place)
I1007 03:18:42.988474 18845 net.cpp:150] Setting up relu4_3
I1007 03:18:42.988488 18845 net.cpp:157] Top shape: 2 512 72 72 (5308416)
I1007 03:18:42.988492 18845 net.cpp:165] Memory required for data: 1485673488
I1007 03:18:42.988494 18845 layer_factory.hpp:76] Creating layer conv4_3_relu4_3_0_split
I1007 03:18:42.988502 18845 net.cpp:106] Creating Layer conv4_3_relu4_3_0_split
I1007 03:18:42.988505 18845 net.cpp:454] conv4_3_relu4_3_0_split <- conv4_3
I1007 03:18:42.988513 18845 net.cpp:411] conv4_3_relu4_3_0_split -> conv4_3_relu4_3_0_split_0
I1007 03:18:42.988526 18845 net.cpp:411] conv4_3_relu4_3_0_split -> conv4_3_relu4_3_0_split_1
I1007 03:18:42.988603 18845 net.cpp:150] Setting up conv4_3_relu4_3_0_split
I1007 03:18:42.988612 18845 net.cpp:157] Top shape: 2 512 72 72 (5308416)
I1007 03:18:42.988616 18845 net.cpp:157] Top shape: 2 512 72 72 (5308416)
I1007 03:18:42.988621 18845 net.cpp:165] Memory required for data: 1528140816
I1007 03:18:42.988626 18845 layer_factory.hpp:76] Creating layer loss1_conv1
I1007 03:18:42.988648 18845 net.cpp:106] Creating Layer loss1_conv1
I1007 03:18:42.988654 18845 net.cpp:454] loss1_conv1 <- conv4_3_relu4_3_0_split_0
I1007 03:18:42.988664 18845 net.cpp:411] loss1_conv1 -> loss1_conv1
I1007 03:18:43.076853 18845 net.cpp:150] Setting up loss1_conv1
I1007 03:18:43.076884 18845 net.cpp:157] Top shape: 2 512 72 72 (5308416)
I1007 03:18:43.076887 18845 net.cpp:165] Memory required for data: 1549374480
I1007 03:18:43.076896 18845 layer_factory.hpp:76] Creating layer loss_relu1
I1007 03:18:43.076907 18845 net.cpp:106] Creating Layer loss_relu1
I1007 03:18:43.076913 18845 net.cpp:454] loss_relu1 <- loss1_conv1
I1007 03:18:43.076922 18845 net.cpp:397] loss_relu1 -> loss1_conv1 (in-place)
I1007 03:18:43.077306 18845 net.cpp:150] Setting up loss_relu1
I1007 03:18:43.077320 18845 net.cpp:157] Top shape: 2 512 72 72 (5308416)
I1007 03:18:43.077323 18845 net.cpp:165] Memory required for data: 1570608144
I1007 03:18:43.077328 18845 layer_factory.hpp:76] Creating layer loss1_conv1_loss_relu1_0_split
I1007 03:18:43.077337 18845 net.cpp:106] Creating Layer loss1_conv1_loss_relu1_0_split
I1007 03:18:43.077345 18845 net.cpp:454] loss1_conv1_loss_relu1_0_split <- loss1_conv1
I1007 03:18:43.077353 18845 net.cpp:411] loss1_conv1_loss_relu1_0_split -> loss1_conv1_loss_relu1_0_split_0
I1007 03:18:43.077364 18845 net.cpp:411] loss1_conv1_loss_relu1_0_split -> loss1_conv1_loss_relu1_0_split_1
I1007 03:18:43.077441 18845 net.cpp:150] Setting up loss1_conv1_loss_relu1_0_split
I1007 03:18:43.077451 18845 net.cpp:157] Top shape: 2 512 72 72 (5308416)
I1007 03:18:43.077455 18845 net.cpp:157] Top shape: 2 512 72 72 (5308416)
I1007 03:18:43.077458 18845 net.cpp:165] Memory required for data: 1613075472
I1007 03:18:43.077463 18845 layer_factory.hpp:76] Creating layer LFCN_1_3x5
I1007 03:18:43.077479 18845 net.cpp:106] Creating Layer LFCN_1_3x5
I1007 03:18:43.077486 18845 net.cpp:454] LFCN_1_3x5 <- loss1_conv1_loss_relu1_0_split_0
I1007 03:18:43.077497 18845 net.cpp:411] LFCN_1_3x5 -> LFCN_1_3x5
I1007 03:18:43.080379 18845 net.cpp:150] Setting up LFCN_1_3x5
I1007 03:18:43.080395 18845 net.cpp:157] Top shape: 2 6 72 72 (62208)
I1007 03:18:43.080399 18845 net.cpp:165] Memory required for data: 1613324304
I1007 03:18:43.080406 18845 layer_factory.hpp:76] Creating layer LFCN_1_3x5_LFCN_1_3x5_0_split
I1007 03:18:43.080418 18845 net.cpp:106] Creating Layer LFCN_1_3x5_LFCN_1_3x5_0_split
I1007 03:18:43.080425 18845 net.cpp:454] LFCN_1_3x5_LFCN_1_3x5_0_split <- LFCN_1_3x5
I1007 03:18:43.080435 18845 net.cpp:411] LFCN_1_3x5_LFCN_1_3x5_0_split -> LFCN_1_3x5_LFCN_1_3x5_0_split_0
I1007 03:18:43.080446 18845 net.cpp:411] LFCN_1_3x5_LFCN_1_3x5_0_split -> LFCN_1_3x5_LFCN_1_3x5_0_split_1
I1007 03:18:43.080520 18845 net.cpp:150] Setting up LFCN_1_3x5_LFCN_1_3x5_0_split
I1007 03:18:43.080529 18845 net.cpp:157] Top shape: 2 6 72 72 (62208)
I1007 03:18:43.080533 18845 net.cpp:157] Top shape: 2 6 72 72 (62208)
I1007 03:18:43.080538 18845 net.cpp:165] Memory required for data: 1613821968
I1007 03:18:43.080543 18845 layer_factory.hpp:76] Creating layer detection_loss_1_3x5
I1007 03:18:43.080554 18845 net.cpp:106] Creating Layer detection_loss_1_3x5
I1007 03:18:43.080561 18845 net.cpp:454] detection_loss_1_3x5 <- LFCN_1_3x5_LFCN_1_3x5_0_split_0
I1007 03:18:43.080569 18845 net.cpp:454] detection_loss_1_3x5 <- label_1_3x5_data_1_split_0
I1007 03:18:43.080577 18845 net.cpp:411] detection_loss_1_3x5 -> loss_1_3x5
I1007 03:18:43.080590 18845 layer_factory.hpp:76] Creating layer detection_loss_1_3x5
I1007 03:18:43.081053 18845 net.cpp:150] Setting up detection_loss_1_3x5
I1007 03:18:43.081064 18845 net.cpp:157] Top shape: 1 1 1 2 (2)
I1007 03:18:43.081068 18845 net.cpp:160]     with loss weight 0.9
I1007 03:18:43.081085 18845 net.cpp:165] Memory required for data: 1613821976
I1007 03:18:43.081090 18845 layer_factory.hpp:76] Creating layer detection_accuracy_1_3x5
I1007 03:18:43.081104 18845 net.cpp:106] Creating Layer detection_accuracy_1_3x5
I1007 03:18:43.081110 18845 net.cpp:454] detection_accuracy_1_3x5 <- LFCN_1_3x5_LFCN_1_3x5_0_split_1
I1007 03:18:43.081117 18845 net.cpp:454] detection_accuracy_1_3x5 <- label_1_3x5_data_1_split_1
I1007 03:18:43.081125 18845 net.cpp:411] detection_accuracy_1_3x5 -> accuracy_1_3x5
I1007 03:18:43.081135 18845 net.cpp:411] detection_accuracy_1_3x5 -> boxiou_1_3x5
I1007 03:18:43.081202 18845 net.cpp:150] Setting up detection_accuracy_1_3x5
I1007 03:18:43.081212 18845 net.cpp:157] Top shape: 1 1 1 2 (2)
I1007 03:18:43.081214 18845 net.cpp:157] Top shape: 1 1 1 1 (1)
I1007 03:18:43.081218 18845 net.cpp:165] Memory required for data: 1613821988
I1007 03:18:43.081223 18845 layer_factory.hpp:76] Creating layer LFCN_1_5x7
I1007 03:18:43.081236 18845 net.cpp:106] Creating Layer LFCN_1_5x7
I1007 03:18:43.081243 18845 net.cpp:454] LFCN_1_5x7 <- loss1_conv1_loss_relu1_0_split_1
I1007 03:18:43.081253 18845 net.cpp:411] LFCN_1_5x7 -> LFCN_1_5x7
I1007 03:18:43.086778 18845 net.cpp:150] Setting up LFCN_1_5x7
I1007 03:18:43.086793 18845 net.cpp:157] Top shape: 2 6 72 72 (62208)
I1007 03:18:43.086796 18845 net.cpp:165] Memory required for data: 1614070820
I1007 03:18:43.086803 18845 layer_factory.hpp:76] Creating layer LFCN_1_5x7_LFCN_1_5x7_0_split
I1007 03:18:43.086810 18845 net.cpp:106] Creating Layer LFCN_1_5x7_LFCN_1_5x7_0_split
I1007 03:18:43.086814 18845 net.cpp:454] LFCN_1_5x7_LFCN_1_5x7_0_split <- LFCN_1_5x7
I1007 03:18:43.086820 18845 net.cpp:411] LFCN_1_5x7_LFCN_1_5x7_0_split -> LFCN_1_5x7_LFCN_1_5x7_0_split_0
I1007 03:18:43.086827 18845 net.cpp:411] LFCN_1_5x7_LFCN_1_5x7_0_split -> LFCN_1_5x7_LFCN_1_5x7_0_split_1
I1007 03:18:43.086915 18845 net.cpp:150] Setting up LFCN_1_5x7_LFCN_1_5x7_0_split
I1007 03:18:43.086925 18845 net.cpp:157] Top shape: 2 6 72 72 (62208)
I1007 03:18:43.086930 18845 net.cpp:157] Top shape: 2 6 72 72 (62208)
I1007 03:18:43.086932 18845 net.cpp:165] Memory required for data: 1614568484
I1007 03:18:43.086935 18845 layer_factory.hpp:76] Creating layer detection_loss_1_5x7
I1007 03:18:43.086946 18845 net.cpp:106] Creating Layer detection_loss_1_5x7
I1007 03:18:43.086951 18845 net.cpp:454] detection_loss_1_5x7 <- LFCN_1_5x7_LFCN_1_5x7_0_split_0
I1007 03:18:43.086957 18845 net.cpp:454] detection_loss_1_5x7 <- label_1_5x7_data_2_split_0
I1007 03:18:43.086966 18845 net.cpp:411] detection_loss_1_5x7 -> loss_1_5x7
I1007 03:18:43.086977 18845 layer_factory.hpp:76] Creating layer detection_loss_1_5x7
I1007 03:18:43.087605 18845 net.cpp:150] Setting up detection_loss_1_5x7
I1007 03:18:43.087618 18845 net.cpp:157] Top shape: 1 1 1 2 (2)
I1007 03:18:43.087621 18845 net.cpp:160]     with loss weight 0.9
I1007 03:18:43.087628 18845 net.cpp:165] Memory required for data: 1614568492
I1007 03:18:43.087631 18845 layer_factory.hpp:76] Creating layer detection_accuracy_1_5x7
I1007 03:18:43.087641 18845 net.cpp:106] Creating Layer detection_accuracy_1_5x7
I1007 03:18:43.087646 18845 net.cpp:454] detection_accuracy_1_5x7 <- LFCN_1_5x7_LFCN_1_5x7_0_split_1
I1007 03:18:43.087651 18845 net.cpp:454] detection_accuracy_1_5x7 <- label_1_5x7_data_2_split_1
I1007 03:18:43.087656 18845 net.cpp:411] detection_accuracy_1_5x7 -> accuracy_1_5x7
I1007 03:18:43.087666 18845 net.cpp:411] detection_accuracy_1_5x7 -> boxiou_1_5x7
I1007 03:18:43.087736 18845 net.cpp:150] Setting up detection_accuracy_1_5x7
I1007 03:18:43.087746 18845 net.cpp:157] Top shape: 1 1 1 2 (2)
I1007 03:18:43.087754 18845 net.cpp:157] Top shape: 1 1 1 1 (1)
I1007 03:18:43.087757 18845 net.cpp:165] Memory required for data: 1614568504
I1007 03:18:43.087762 18845 layer_factory.hpp:76] Creating layer pool4
I1007 03:18:43.087772 18845 net.cpp:106] Creating Layer pool4
I1007 03:18:43.087779 18845 net.cpp:454] pool4 <- conv4_3_relu4_3_0_split_1
I1007 03:18:43.087786 18845 net.cpp:411] pool4 -> pool4
I1007 03:18:43.088050 18845 net.cpp:150] Setting up pool4
I1007 03:18:43.088063 18845 net.cpp:157] Top shape: 2 512 36 36 (1327104)
I1007 03:18:43.088066 18845 net.cpp:165] Memory required for data: 1619876920
I1007 03:18:43.088069 18845 layer_factory.hpp:76] Creating layer conv5_1
I1007 03:18:43.088078 18845 net.cpp:106] Creating Layer conv5_1
I1007 03:18:43.088083 18845 net.cpp:454] conv5_1 <- pool4
I1007 03:18:43.088090 18845 net.cpp:411] conv5_1 -> conv5_1
I1007 03:18:43.094597 18845 net.cpp:150] Setting up conv5_1
I1007 03:18:43.094614 18845 net.cpp:157] Top shape: 2 512 36 36 (1327104)
I1007 03:18:43.094617 18845 net.cpp:165] Memory required for data: 1625185336
I1007 03:18:43.094624 18845 layer_factory.hpp:76] Creating layer relu5_1
I1007 03:18:43.094631 18845 net.cpp:106] Creating Layer relu5_1
I1007 03:18:43.094635 18845 net.cpp:454] relu5_1 <- conv5_1
I1007 03:18:43.094642 18845 net.cpp:397] relu5_1 -> conv5_1 (in-place)
I1007 03:18:43.095073 18845 net.cpp:150] Setting up relu5_1
I1007 03:18:43.095088 18845 net.cpp:157] Top shape: 2 512 36 36 (1327104)
I1007 03:18:43.095090 18845 net.cpp:165] Memory required for data: 1630493752
I1007 03:18:43.095094 18845 layer_factory.hpp:76] Creating layer conv5_2
I1007 03:18:43.095106 18845 net.cpp:106] Creating Layer conv5_2
I1007 03:18:43.095113 18845 net.cpp:454] conv5_2 <- conv5_1
I1007 03:18:43.095124 18845 net.cpp:411] conv5_2 -> conv5_2
I1007 03:18:43.101747 18845 net.cpp:150] Setting up conv5_2
I1007 03:18:43.101768 18845 net.cpp:157] Top shape: 2 512 36 36 (1327104)
I1007 03:18:43.101771 18845 net.cpp:165] Memory required for data: 1635802168
I1007 03:18:43.101778 18845 layer_factory.hpp:76] Creating layer relu5_2
I1007 03:18:43.101785 18845 net.cpp:106] Creating Layer relu5_2
I1007 03:18:43.101790 18845 net.cpp:454] relu5_2 <- conv5_2
I1007 03:18:43.101799 18845 net.cpp:397] relu5_2 -> conv5_2 (in-place)
I1007 03:18:43.102188 18845 net.cpp:150] Setting up relu5_2
I1007 03:18:43.102201 18845 net.cpp:157] Top shape: 2 512 36 36 (1327104)
I1007 03:18:43.102205 18845 net.cpp:165] Memory required for data: 1641110584
I1007 03:18:43.102208 18845 layer_factory.hpp:76] Creating layer conv5_3
I1007 03:18:43.102216 18845 net.cpp:106] Creating Layer conv5_3
I1007 03:18:43.102219 18845 net.cpp:454] conv5_3 <- conv5_2
I1007 03:18:43.102226 18845 net.cpp:411] conv5_3 -> conv5_3
I1007 03:18:43.108885 18845 net.cpp:150] Setting up conv5_3
I1007 03:18:43.108902 18845 net.cpp:157] Top shape: 2 512 36 36 (1327104)
I1007 03:18:43.108906 18845 net.cpp:165] Memory required for data: 1646419000
I1007 03:18:43.108912 18845 layer_factory.hpp:76] Creating layer relu5_3
I1007 03:18:43.108922 18845 net.cpp:106] Creating Layer relu5_3
I1007 03:18:43.108925 18845 net.cpp:454] relu5_3 <- conv5_3
I1007 03:18:43.108930 18845 net.cpp:397] relu5_3 -> conv5_3 (in-place)
I1007 03:18:43.109171 18845 net.cpp:150] Setting up relu5_3
I1007 03:18:43.109184 18845 net.cpp:157] Top shape: 2 512 36 36 (1327104)
I1007 03:18:43.109187 18845 net.cpp:165] Memory required for data: 1651727416
I1007 03:18:43.109191 18845 layer_factory.hpp:76] Creating layer conv5_3_relu5_3_0_split
I1007 03:18:43.109200 18845 net.cpp:106] Creating Layer conv5_3_relu5_3_0_split
I1007 03:18:43.109206 18845 net.cpp:454] conv5_3_relu5_3_0_split <- conv5_3
I1007 03:18:43.109217 18845 net.cpp:411] conv5_3_relu5_3_0_split -> conv5_3_relu5_3_0_split_0
I1007 03:18:43.109228 18845 net.cpp:411] conv5_3_relu5_3_0_split -> conv5_3_relu5_3_0_split_1
I1007 03:18:43.109237 18845 net.cpp:411] conv5_3_relu5_3_0_split -> conv5_3_relu5_3_0_split_2
I1007 03:18:43.109333 18845 net.cpp:150] Setting up conv5_3_relu5_3_0_split
I1007 03:18:43.109344 18845 net.cpp:157] Top shape: 2 512 36 36 (1327104)
I1007 03:18:43.109347 18845 net.cpp:157] Top shape: 2 512 36 36 (1327104)
I1007 03:18:43.109351 18845 net.cpp:157] Top shape: 2 512 36 36 (1327104)
I1007 03:18:43.109356 18845 net.cpp:165] Memory required for data: 1667652664
I1007 03:18:43.109361 18845 layer_factory.hpp:76] Creating layer LFCN_2_3x5
I1007 03:18:43.109372 18845 net.cpp:106] Creating Layer LFCN_2_3x5
I1007 03:18:43.109378 18845 net.cpp:454] LFCN_2_3x5 <- conv5_3_relu5_3_0_split_0
I1007 03:18:43.109390 18845 net.cpp:411] LFCN_2_3x5 -> LFCN_2_3x5
I1007 03:18:43.112320 18845 net.cpp:150] Setting up LFCN_2_3x5
I1007 03:18:43.112334 18845 net.cpp:157] Top shape: 2 6 36 36 (15552)
I1007 03:18:43.112339 18845 net.cpp:165] Memory required for data: 1667714872
I1007 03:18:43.112355 18845 layer_factory.hpp:76] Creating layer LFCN_2_3x5_LFCN_2_3x5_0_split
I1007 03:18:43.112366 18845 net.cpp:106] Creating Layer LFCN_2_3x5_LFCN_2_3x5_0_split
I1007 03:18:43.112370 18845 net.cpp:454] LFCN_2_3x5_LFCN_2_3x5_0_split <- LFCN_2_3x5
I1007 03:18:43.112375 18845 net.cpp:411] LFCN_2_3x5_LFCN_2_3x5_0_split -> LFCN_2_3x5_LFCN_2_3x5_0_split_0
I1007 03:18:43.112382 18845 net.cpp:411] LFCN_2_3x5_LFCN_2_3x5_0_split -> LFCN_2_3x5_LFCN_2_3x5_0_split_1
I1007 03:18:43.112458 18845 net.cpp:150] Setting up LFCN_2_3x5_LFCN_2_3x5_0_split
I1007 03:18:43.112469 18845 net.cpp:157] Top shape: 2 6 36 36 (15552)
I1007 03:18:43.112474 18845 net.cpp:157] Top shape: 2 6 36 36 (15552)
I1007 03:18:43.112478 18845 net.cpp:165] Memory required for data: 1667839288
I1007 03:18:43.112483 18845 layer_factory.hpp:76] Creating layer detection_loss_2_3x5
I1007 03:18:43.112496 18845 net.cpp:106] Creating Layer detection_loss_2_3x5
I1007 03:18:43.112503 18845 net.cpp:454] detection_loss_2_3x5 <- LFCN_2_3x5_LFCN_2_3x5_0_split_0
I1007 03:18:43.112509 18845 net.cpp:454] detection_loss_2_3x5 <- label_2_3x5_data_3_split_0
I1007 03:18:43.112519 18845 net.cpp:411] detection_loss_2_3x5 -> loss_2_3x5
I1007 03:18:43.112532 18845 layer_factory.hpp:76] Creating layer detection_loss_2_3x5
I1007 03:18:43.113003 18845 net.cpp:150] Setting up detection_loss_2_3x5
I1007 03:18:43.113016 18845 net.cpp:157] Top shape: 1 1 1 2 (2)
I1007 03:18:43.113019 18845 net.cpp:160]     with loss weight 1
I1007 03:18:43.113031 18845 net.cpp:165] Memory required for data: 1667839296
I1007 03:18:43.113034 18845 layer_factory.hpp:76] Creating layer detection_accuracy_2_3x5
I1007 03:18:43.113041 18845 net.cpp:106] Creating Layer detection_accuracy_2_3x5
I1007 03:18:43.113045 18845 net.cpp:454] detection_accuracy_2_3x5 <- LFCN_2_3x5_LFCN_2_3x5_0_split_1
I1007 03:18:43.113050 18845 net.cpp:454] detection_accuracy_2_3x5 <- label_2_3x5_data_3_split_1
I1007 03:18:43.113055 18845 net.cpp:411] detection_accuracy_2_3x5 -> accuracy_2_3x5
I1007 03:18:43.113065 18845 net.cpp:411] detection_accuracy_2_3x5 -> boxiou_2_3x5
I1007 03:18:43.113154 18845 net.cpp:150] Setting up detection_accuracy_2_3x5
I1007 03:18:43.113175 18845 net.cpp:157] Top shape: 1 1 1 2 (2)
I1007 03:18:43.113180 18845 net.cpp:157] Top shape: 1 1 1 1 (1)
I1007 03:18:43.113184 18845 net.cpp:165] Memory required for data: 1667839308
I1007 03:18:43.113190 18845 layer_factory.hpp:76] Creating layer LFCN_2_5x7
I1007 03:18:43.113204 18845 net.cpp:106] Creating Layer LFCN_2_5x7
I1007 03:18:43.113209 18845 net.cpp:454] LFCN_2_5x7 <- conv5_3_relu5_3_0_split_1
I1007 03:18:43.113222 18845 net.cpp:411] LFCN_2_5x7 -> LFCN_2_5x7
I1007 03:18:43.118507 18845 net.cpp:150] Setting up LFCN_2_5x7
I1007 03:18:43.118522 18845 net.cpp:157] Top shape: 2 6 36 36 (15552)
I1007 03:18:43.118525 18845 net.cpp:165] Memory required for data: 1667901516
I1007 03:18:43.118535 18845 layer_factory.hpp:76] Creating layer LFCN_2_5x7_LFCN_2_5x7_0_split
I1007 03:18:43.118541 18845 net.cpp:106] Creating Layer LFCN_2_5x7_LFCN_2_5x7_0_split
I1007 03:18:43.118546 18845 net.cpp:454] LFCN_2_5x7_LFCN_2_5x7_0_split <- LFCN_2_5x7
I1007 03:18:43.118552 18845 net.cpp:411] LFCN_2_5x7_LFCN_2_5x7_0_split -> LFCN_2_5x7_LFCN_2_5x7_0_split_0
I1007 03:18:43.118559 18845 net.cpp:411] LFCN_2_5x7_LFCN_2_5x7_0_split -> LFCN_2_5x7_LFCN_2_5x7_0_split_1
I1007 03:18:43.118645 18845 net.cpp:150] Setting up LFCN_2_5x7_LFCN_2_5x7_0_split
I1007 03:18:43.118657 18845 net.cpp:157] Top shape: 2 6 36 36 (15552)
I1007 03:18:43.118664 18845 net.cpp:157] Top shape: 2 6 36 36 (15552)
I1007 03:18:43.118669 18845 net.cpp:165] Memory required for data: 1668025932
I1007 03:18:43.118672 18845 layer_factory.hpp:76] Creating layer detection_loss_2_5x7
I1007 03:18:43.118681 18845 net.cpp:106] Creating Layer detection_loss_2_5x7
I1007 03:18:43.118686 18845 net.cpp:454] detection_loss_2_5x7 <- LFCN_2_5x7_LFCN_2_5x7_0_split_0
I1007 03:18:43.118695 18845 net.cpp:454] detection_loss_2_5x7 <- label_2_5x7_data_4_split_0
I1007 03:18:43.118705 18845 net.cpp:411] detection_loss_2_5x7 -> loss_2_5x7
I1007 03:18:43.118717 18845 layer_factory.hpp:76] Creating layer detection_loss_2_5x7
I1007 03:18:43.119369 18845 net.cpp:150] Setting up detection_loss_2_5x7
I1007 03:18:43.119385 18845 net.cpp:157] Top shape: 1 1 1 2 (2)
I1007 03:18:43.119387 18845 net.cpp:160]     with loss weight 1
I1007 03:18:43.119393 18845 net.cpp:165] Memory required for data: 1668025940
I1007 03:18:43.119396 18845 layer_factory.hpp:76] Creating layer detection_accuracy_2_5x7
I1007 03:18:43.119403 18845 net.cpp:106] Creating Layer detection_accuracy_2_5x7
I1007 03:18:43.119407 18845 net.cpp:454] detection_accuracy_2_5x7 <- LFCN_2_5x7_LFCN_2_5x7_0_split_1
I1007 03:18:43.119412 18845 net.cpp:454] detection_accuracy_2_5x7 <- label_2_5x7_data_4_split_1
I1007 03:18:43.119417 18845 net.cpp:411] detection_accuracy_2_5x7 -> accuracy_2_5x7
I1007 03:18:43.119426 18845 net.cpp:411] detection_accuracy_2_5x7 -> boxiou_2_5x7
I1007 03:18:43.119503 18845 net.cpp:150] Setting up detection_accuracy_2_5x7
I1007 03:18:43.119513 18845 net.cpp:157] Top shape: 1 1 1 2 (2)
I1007 03:18:43.119518 18845 net.cpp:157] Top shape: 1 1 1 1 (1)
I1007 03:18:43.119523 18845 net.cpp:165] Memory required for data: 1668025952
I1007 03:18:43.119527 18845 layer_factory.hpp:76] Creating layer pool5
I1007 03:18:43.119537 18845 net.cpp:106] Creating Layer pool5
I1007 03:18:43.119542 18845 net.cpp:454] pool5 <- conv5_3_relu5_3_0_split_2
I1007 03:18:43.119552 18845 net.cpp:411] pool5 -> pool5
I1007 03:18:43.119819 18845 net.cpp:150] Setting up pool5
I1007 03:18:43.119830 18845 net.cpp:157] Top shape: 2 512 18 18 (331776)
I1007 03:18:43.119833 18845 net.cpp:165] Memory required for data: 1669353056
I1007 03:18:43.119837 18845 layer_factory.hpp:76] Creating layer conv6_1
I1007 03:18:43.119848 18845 net.cpp:106] Creating Layer conv6_1
I1007 03:18:43.119853 18845 net.cpp:454] conv6_1 <- pool5
I1007 03:18:43.119863 18845 net.cpp:411] conv6_1 -> conv6_1
I1007 03:18:43.197202 18845 net.cpp:150] Setting up conv6_1
I1007 03:18:43.197229 18845 net.cpp:157] Top shape: 2 512 18 18 (331776)
I1007 03:18:43.197232 18845 net.cpp:165] Memory required for data: 1670680160
I1007 03:18:43.197238 18845 layer_factory.hpp:76] Creating layer relu6_1
I1007 03:18:43.197252 18845 net.cpp:106] Creating Layer relu6_1
I1007 03:18:43.197255 18845 net.cpp:454] relu6_1 <- conv6_1
I1007 03:18:43.197259 18845 net.cpp:397] relu6_1 -> conv6_1 (in-place)
I1007 03:18:43.197664 18845 net.cpp:150] Setting up relu6_1
I1007 03:18:43.197677 18845 net.cpp:157] Top shape: 2 512 18 18 (331776)
I1007 03:18:43.197680 18845 net.cpp:165] Memory required for data: 1672007264
I1007 03:18:43.197685 18845 layer_factory.hpp:76] Creating layer conv6_1_relu6_1_0_split
I1007 03:18:43.197695 18845 net.cpp:106] Creating Layer conv6_1_relu6_1_0_split
I1007 03:18:43.197700 18845 net.cpp:454] conv6_1_relu6_1_0_split <- conv6_1
I1007 03:18:43.197708 18845 net.cpp:411] conv6_1_relu6_1_0_split -> conv6_1_relu6_1_0_split_0
I1007 03:18:43.197718 18845 net.cpp:411] conv6_1_relu6_1_0_split -> conv6_1_relu6_1_0_split_1
I1007 03:18:43.197728 18845 net.cpp:411] conv6_1_relu6_1_0_split -> conv6_1_relu6_1_0_split_2
I1007 03:18:43.197821 18845 net.cpp:150] Setting up conv6_1_relu6_1_0_split
I1007 03:18:43.197830 18845 net.cpp:157] Top shape: 2 512 18 18 (331776)
I1007 03:18:43.197834 18845 net.cpp:157] Top shape: 2 512 18 18 (331776)
I1007 03:18:43.197839 18845 net.cpp:157] Top shape: 2 512 18 18 (331776)
I1007 03:18:43.197842 18845 net.cpp:165] Memory required for data: 1675988576
I1007 03:18:43.197847 18845 layer_factory.hpp:76] Creating layer LFCN_3_3x5
I1007 03:18:43.197860 18845 net.cpp:106] Creating Layer LFCN_3_3x5
I1007 03:18:43.197865 18845 net.cpp:454] LFCN_3_3x5 <- conv6_1_relu6_1_0_split_0
I1007 03:18:43.197875 18845 net.cpp:411] LFCN_3_3x5 -> LFCN_3_3x5
I1007 03:18:43.200331 18845 net.cpp:150] Setting up LFCN_3_3x5
I1007 03:18:43.200345 18845 net.cpp:157] Top shape: 2 6 18 18 (3888)
I1007 03:18:43.200348 18845 net.cpp:165] Memory required for data: 1676004128
I1007 03:18:43.200356 18845 layer_factory.hpp:76] Creating layer LFCN_3_3x5_LFCN_3_3x5_0_split
I1007 03:18:43.200387 18845 net.cpp:106] Creating Layer LFCN_3_3x5_LFCN_3_3x5_0_split
I1007 03:18:43.200393 18845 net.cpp:454] LFCN_3_3x5_LFCN_3_3x5_0_split <- LFCN_3_3x5
I1007 03:18:43.200402 18845 net.cpp:411] LFCN_3_3x5_LFCN_3_3x5_0_split -> LFCN_3_3x5_LFCN_3_3x5_0_split_0
I1007 03:18:43.200410 18845 net.cpp:411] LFCN_3_3x5_LFCN_3_3x5_0_split -> LFCN_3_3x5_LFCN_3_3x5_0_split_1
I1007 03:18:43.200486 18845 net.cpp:150] Setting up LFCN_3_3x5_LFCN_3_3x5_0_split
I1007 03:18:43.200495 18845 net.cpp:157] Top shape: 2 6 18 18 (3888)
I1007 03:18:43.200500 18845 net.cpp:157] Top shape: 2 6 18 18 (3888)
I1007 03:18:43.200502 18845 net.cpp:165] Memory required for data: 1676035232
I1007 03:18:43.200507 18845 layer_factory.hpp:76] Creating layer detection_loss_3_3x5
I1007 03:18:43.200515 18845 net.cpp:106] Creating Layer detection_loss_3_3x5
I1007 03:18:43.200521 18845 net.cpp:454] detection_loss_3_3x5 <- LFCN_3_3x5_LFCN_3_3x5_0_split_0
I1007 03:18:43.200527 18845 net.cpp:454] detection_loss_3_3x5 <- label_3_3x5_data_5_split_0
I1007 03:18:43.200538 18845 net.cpp:411] detection_loss_3_3x5 -> loss_3_3x5
I1007 03:18:43.200549 18845 layer_factory.hpp:76] Creating layer detection_loss_3_3x5
I1007 03:18:43.201140 18845 net.cpp:150] Setting up detection_loss_3_3x5
I1007 03:18:43.201153 18845 net.cpp:157] Top shape: 1 1 1 2 (2)
I1007 03:18:43.201156 18845 net.cpp:160]     with loss weight 1
I1007 03:18:43.201164 18845 net.cpp:165] Memory required for data: 1676035240
I1007 03:18:43.201169 18845 layer_factory.hpp:76] Creating layer detection_accuracy_3_3x5
I1007 03:18:43.201189 18845 net.cpp:106] Creating Layer detection_accuracy_3_3x5
I1007 03:18:43.201194 18845 net.cpp:454] detection_accuracy_3_3x5 <- LFCN_3_3x5_LFCN_3_3x5_0_split_1
I1007 03:18:43.201200 18845 net.cpp:454] detection_accuracy_3_3x5 <- label_3_3x5_data_5_split_1
I1007 03:18:43.201208 18845 net.cpp:411] detection_accuracy_3_3x5 -> accuracy_3_3x5
I1007 03:18:43.201221 18845 net.cpp:411] detection_accuracy_3_3x5 -> boxiou_3_3x5
I1007 03:18:43.201287 18845 net.cpp:150] Setting up detection_accuracy_3_3x5
I1007 03:18:43.201297 18845 net.cpp:157] Top shape: 1 1 1 2 (2)
I1007 03:18:43.201300 18845 net.cpp:157] Top shape: 1 1 1 1 (1)
I1007 03:18:43.201303 18845 net.cpp:165] Memory required for data: 1676035252
I1007 03:18:43.201308 18845 layer_factory.hpp:76] Creating layer LFCN_3_5x7
I1007 03:18:43.201318 18845 net.cpp:106] Creating Layer LFCN_3_5x7
I1007 03:18:43.201324 18845 net.cpp:454] LFCN_3_5x7 <- conv6_1_relu6_1_0_split_1
I1007 03:18:43.201333 18845 net.cpp:411] LFCN_3_5x7 -> LFCN_3_5x7
I1007 03:18:43.206605 18845 net.cpp:150] Setting up LFCN_3_5x7
I1007 03:18:43.206619 18845 net.cpp:157] Top shape: 2 6 18 18 (3888)
I1007 03:18:43.206621 18845 net.cpp:165] Memory required for data: 1676050804
I1007 03:18:43.206629 18845 layer_factory.hpp:76] Creating layer LFCN_3_5x7_LFCN_3_5x7_0_split
I1007 03:18:43.206635 18845 net.cpp:106] Creating Layer LFCN_3_5x7_LFCN_3_5x7_0_split
I1007 03:18:43.206639 18845 net.cpp:454] LFCN_3_5x7_LFCN_3_5x7_0_split <- LFCN_3_5x7
I1007 03:18:43.206645 18845 net.cpp:411] LFCN_3_5x7_LFCN_3_5x7_0_split -> LFCN_3_5x7_LFCN_3_5x7_0_split_0
I1007 03:18:43.206655 18845 net.cpp:411] LFCN_3_5x7_LFCN_3_5x7_0_split -> LFCN_3_5x7_LFCN_3_5x7_0_split_1
I1007 03:18:43.206745 18845 net.cpp:150] Setting up LFCN_3_5x7_LFCN_3_5x7_0_split
I1007 03:18:43.206755 18845 net.cpp:157] Top shape: 2 6 18 18 (3888)
I1007 03:18:43.206759 18845 net.cpp:157] Top shape: 2 6 18 18 (3888)
I1007 03:18:43.206763 18845 net.cpp:165] Memory required for data: 1676081908
I1007 03:18:43.206766 18845 layer_factory.hpp:76] Creating layer detection_loss_3_5x7
I1007 03:18:43.206776 18845 net.cpp:106] Creating Layer detection_loss_3_5x7
I1007 03:18:43.206781 18845 net.cpp:454] detection_loss_3_5x7 <- LFCN_3_5x7_LFCN_3_5x7_0_split_0
I1007 03:18:43.206789 18845 net.cpp:454] detection_loss_3_5x7 <- label_3_5x7_data_6_split_0
I1007 03:18:43.206796 18845 net.cpp:411] detection_loss_3_5x7 -> loss_3_5x7
I1007 03:18:43.206806 18845 layer_factory.hpp:76] Creating layer detection_loss_3_5x7
I1007 03:18:43.207283 18845 net.cpp:150] Setting up detection_loss_3_5x7
I1007 03:18:43.207294 18845 net.cpp:157] Top shape: 1 1 1 2 (2)
I1007 03:18:43.207309 18845 net.cpp:160]     with loss weight 1
I1007 03:18:43.207314 18845 net.cpp:165] Memory required for data: 1676081916
I1007 03:18:43.207317 18845 layer_factory.hpp:76] Creating layer detection_accuracy_3_5x7
I1007 03:18:43.207324 18845 net.cpp:106] Creating Layer detection_accuracy_3_5x7
I1007 03:18:43.207329 18845 net.cpp:454] detection_accuracy_3_5x7 <- LFCN_3_5x7_LFCN_3_5x7_0_split_1
I1007 03:18:43.207332 18845 net.cpp:454] detection_accuracy_3_5x7 <- label_3_5x7_data_6_split_1
I1007 03:18:43.207337 18845 net.cpp:411] detection_accuracy_3_5x7 -> accuracy_3_5x7
I1007 03:18:43.207345 18845 net.cpp:411] detection_accuracy_3_5x7 -> boxiou_3_5x7
I1007 03:18:43.207429 18845 net.cpp:150] Setting up detection_accuracy_3_5x7
I1007 03:18:43.207453 18845 net.cpp:157] Top shape: 1 1 1 2 (2)
I1007 03:18:43.207456 18845 net.cpp:157] Top shape: 1 1 1 1 (1)
I1007 03:18:43.207460 18845 net.cpp:165] Memory required for data: 1676081928
I1007 03:18:43.207465 18845 layer_factory.hpp:76] Creating layer pool6
I1007 03:18:43.207474 18845 net.cpp:106] Creating Layer pool6
I1007 03:18:43.207480 18845 net.cpp:454] pool6 <- conv6_1_relu6_1_0_split_2
I1007 03:18:43.207487 18845 net.cpp:411] pool6 -> pool6
I1007 03:18:43.207901 18845 net.cpp:150] Setting up pool6
I1007 03:18:43.207912 18845 net.cpp:157] Top shape: 2 512 9 9 (82944)
I1007 03:18:43.207927 18845 net.cpp:165] Memory required for data: 1676413704
I1007 03:18:43.207931 18845 layer_factory.hpp:76] Creating layer LFCN_4_3x5
I1007 03:18:43.207938 18845 net.cpp:106] Creating Layer LFCN_4_3x5
I1007 03:18:43.207942 18845 net.cpp:454] LFCN_4_3x5 <- pool6
I1007 03:18:43.207949 18845 net.cpp:411] LFCN_4_3x5 -> LFCN_4_3x5
I1007 03:18:43.210747 18845 net.cpp:150] Setting up LFCN_4_3x5
I1007 03:18:43.210772 18845 net.cpp:157] Top shape: 2 6 9 9 (972)
I1007 03:18:43.210774 18845 net.cpp:165] Memory required for data: 1676417592
I1007 03:18:43.210780 18845 layer_factory.hpp:76] Creating layer LFCN_4_3x5_LFCN_4_3x5_0_split
I1007 03:18:43.210785 18845 net.cpp:106] Creating Layer LFCN_4_3x5_LFCN_4_3x5_0_split
I1007 03:18:43.210789 18845 net.cpp:454] LFCN_4_3x5_LFCN_4_3x5_0_split <- LFCN_4_3x5
I1007 03:18:43.210796 18845 net.cpp:411] LFCN_4_3x5_LFCN_4_3x5_0_split -> LFCN_4_3x5_LFCN_4_3x5_0_split_0
I1007 03:18:43.210804 18845 net.cpp:411] LFCN_4_3x5_LFCN_4_3x5_0_split -> LFCN_4_3x5_LFCN_4_3x5_0_split_1
I1007 03:18:43.210899 18845 net.cpp:150] Setting up LFCN_4_3x5_LFCN_4_3x5_0_split
I1007 03:18:43.210911 18845 net.cpp:157] Top shape: 2 6 9 9 (972)
I1007 03:18:43.210917 18845 net.cpp:157] Top shape: 2 6 9 9 (972)
I1007 03:18:43.210922 18845 net.cpp:165] Memory required for data: 1676425368
I1007 03:18:43.210927 18845 layer_factory.hpp:76] Creating layer detection_loss_4_3x5
I1007 03:18:43.210933 18845 net.cpp:106] Creating Layer detection_loss_4_3x5
I1007 03:18:43.210937 18845 net.cpp:454] detection_loss_4_3x5 <- LFCN_4_3x5_LFCN_4_3x5_0_split_0
I1007 03:18:43.210943 18845 net.cpp:454] detection_loss_4_3x5 <- label_4_3x5_data_7_split_0
I1007 03:18:43.210955 18845 net.cpp:411] detection_loss_4_3x5 -> loss_4_3x5
I1007 03:18:43.210973 18845 layer_factory.hpp:76] Creating layer detection_loss_4_3x5
I1007 03:18:43.211455 18845 net.cpp:150] Setting up detection_loss_4_3x5
I1007 03:18:43.211465 18845 net.cpp:157] Top shape: 1 1 1 2 (2)
I1007 03:18:43.211479 18845 net.cpp:160]     with loss weight 1
I1007 03:18:43.211485 18845 net.cpp:165] Memory required for data: 1676425376
I1007 03:18:43.211488 18845 layer_factory.hpp:76] Creating layer detection_accuracy_4_3x5
I1007 03:18:43.211494 18845 net.cpp:106] Creating Layer detection_accuracy_4_3x5
I1007 03:18:43.211498 18845 net.cpp:454] detection_accuracy_4_3x5 <- LFCN_4_3x5_LFCN_4_3x5_0_split_1
I1007 03:18:43.211501 18845 net.cpp:454] detection_accuracy_4_3x5 <- label_4_3x5_data_7_split_1
I1007 03:18:43.211508 18845 net.cpp:411] detection_accuracy_4_3x5 -> accuracy_4_3x5
I1007 03:18:43.211516 18845 net.cpp:411] detection_accuracy_4_3x5 -> boxiou_4_3x5
I1007 03:18:43.211601 18845 net.cpp:150] Setting up detection_accuracy_4_3x5
I1007 03:18:43.211621 18845 net.cpp:157] Top shape: 1 1 1 2 (2)
I1007 03:18:43.211624 18845 net.cpp:157] Top shape: 1 1 1 1 (1)
I1007 03:18:43.211628 18845 net.cpp:165] Memory required for data: 1676425388
I1007 03:18:43.211633 18845 net.cpp:228] detection_accuracy_4_3x5 does not need backward computation.
I1007 03:18:43.211637 18845 net.cpp:226] detection_loss_4_3x5 needs backward computation.
I1007 03:18:43.211642 18845 net.cpp:226] LFCN_4_3x5_LFCN_4_3x5_0_split needs backward computation.
I1007 03:18:43.211647 18845 net.cpp:226] LFCN_4_3x5 needs backward computation.
…
