…
    downsample_rate: 16
    downsample_rate: 32
    downsample_rate: 32
    downsample_rate: 64
    coord_num: 4
    field_h: 60
    field_h: 84
    field_h: 120
    field_h: 168
    field_h: 240
    field_h: 336
    field_h: 480
    field_w: 30
    field_w: 42
    field_w: 60
    field_w: 84
    field_w: 120
    field_w: 168
    field_w: 240
    fg_threshold: 0.5
    resize_width: 960
    resize_height: 720
    crop_width: 576
    crop_height: 576
    do_multiple_scale: true
    min_scale: 40
    max_scale: 340
    min_gt_height: 65
    shuffle: true
  }
}
layer {
  name: "conv1_1"
  type: "Convolution"
  bottom: "data"
  top: "conv1_1"
  convolution_param {
    num_output: 64
    pad: 1
    kernel_size: 3
  }
}
layer {
  name: "relu1_1"
  type: "ReLU"
  bottom: "conv1_1"
  top: "conv1_1"
}
layer {
  name: "conv1_2"
  type: "Convolution"
  bottom: "conv1_1"
  top: "conv1_2"
  convolution_param {
    num_output: 64
    pad: 1
    kernel_size: 3
  }
}
layer {
  name: "relu1_2"
  type: "ReLU"
  bottom: "conv1_2"
  top: "conv1_2"
}
layer {
  name: "pool1"
  type: "Pooling"
  bottom: "conv1_2"
  top: "pool1"
  pooling_param {
    pool: MAX
    kernel_size: 2
    stride: 2
  }
}
layer {
  name: "conv2_1"
  type: "Convolution"
  bottom: "pool1"
  top: "conv2_1"
  convolution_param {
    num_output: 128
    pad: 1
    kernel_size: 3
  }
}
layer {
  name: "relu2_1"
  type: "ReLU"
  bottom: "conv2_1"
  top: "conv2_1"
}
layer {
  name: "conv2_2"
  type: "Convolution"
  bottom: "conv2_1"
  top: "conv2_2"
  convolution_param {
    num_output: 128
    pad: 1
    kernel_size: 3
  }
}
layer {
  name: "relu2_2"
  type: "ReLU"
  bottom: "conv2_2"
  top: "conv2_2"
}
layer {
  name: "pool2"
  type: "Pooling"
  bottom: "conv2_2"
  top: "pool2"
  pooling_param {
    pool: MAX
    kernel_size: 2
    stride: 2
  }
}
layer {
  name: "conv3_1"
  type: "Convolution"
  bottom: "pool2"
  top: "conv3_1"
  convolution_param {
    num_output: 256
    pad: 1
    kernel_size: 3
  }
}
layer {
  name: "relu3_1"
  type: "ReLU"
  bottom: "conv3_1"
  top: "conv3_1"
}
layer {
  name: "conv3_2"
  type: "Convolution"
  bottom: "conv3_1"
  top: "conv3_2"
  convolution_param {
    num_output: 256
    pad: 1
    kernel_size: 3
  }
}
layer {
  name: "relu3_2"
  type: "ReLU"
  bottom: "conv3_2"
  top: "conv3_2"
}
layer {
  name: "conv3_3"
  type: "Convolution"
  bottom: "conv3_2"
  top: "conv3_3"
  convolution_param {
    num_output: 256
    pad: 1
    kernel_size: 3
  }
}
layer {
  name: "relu3_3"
  type: "ReLU"
  bottom: "conv3_3"
  top: "conv3_3"
}
layer {
  name: "pool3"
  type: "Pooling"
  bottom: "conv3_3"
  top: "pool3"
  pooling_param {
    pool: MAX
    kernel_size: 2
    stride: 2
  }
}
layer {
  name: "conv4_1"
  type: "Convolution"
  bottom: "pool3"
  top: "conv4_1"
  convolution_param {
    num_output: 512
    pad: 1
    kernel_size: 3
  }
}
layer {
  name: "relu4_1"
  type: "ReLU"
  bottom: "conv4_1"
  top: "conv4_1"
}
layer {
  name: "conv4_2"
  type: "Convolution"
  bottom: "conv4_1"
  top: "conv4_2"
  convolution_param {
    num_output: 512
    pad: 1
    kernel_size: 3
  }
}
layer {
  name: "relu4_2"
  type: "ReLU"
  bottom: "conv4_2"
  top: "conv4_2"
}
layer {
  name: "conv4_3"
  type: "Convolution"
  bottom: "conv4_2"
  top: "conv4_3"
  convolution_param {
    num_output: 512
    pad: 1
    kernel_size: 3
  }
}
layer {
  name: "relu4_3"
  type: "ReLU"
  bottom: "conv4_3"
  top: "conv4_3"
}
layer {
  name: "loss1_conv1"
  type: "Convolution"
  bottom: "conv4_3"
  top: "loss1_conv1"
  param {
    lr_mult: 1
    decay_mult: 1
  }
  param {
    lr_mult: 2
    decay_mult: 0
  }
  convolution_param {
    num_output: 512
    pad: 1
    kernel_size: 3
    weight_filler {
      type: "gaussian"
      std: 0.01
    }
    bias_filler {
      type: "constant"
    }
  }
}
layer {
  name: "loss_relu1"
  type: "ReLU"
  bottom: "loss1_conv1"
  top: "loss1_conv1"
}
layer {
  name: "LFCN_1_3x5"
  type: "Convolution"
  bottom: "loss1_conv1"
  top: "LFCN_1_3x5"
  param {
    lr_mult: 1
    decay_mult: 1
  }
  param {
    lr_mult: 2
    decay_mult: 0
  }
  convolution_param {
    num_output: 6
    weight_filler {
      type: "gaussian"
      std: 0.001
    }
    bias_filler {
      type: "constant"
    }
    pad_h: 2
    pad_w: 1
    kernel_h: 5
    kernel_w: 3
  }
}
layer {
  name: "detection_loss_1_3x5"
  type: "Detection"
  bottom: "LFCN_1_3x5"
  bottom: "label_1_3x5"
  top: "loss_1_3x5"
  loss_weight: 0.9
  detection_param {
    cls_num: 2
    coord_num: 4
    lambda: 0.5
    field_h: 60
    field_w: 30
    downsample_rate: 8
    bb_smooth: true
    field_whr: 2
    field_xyr: 2
    bg_threshold: 0.2
    bg_multiple: 2
    sample_mode: "random"
    pos_neg_weighted: true
  }
}
layer {
  name: "detection_accuracy_1_3x5"
  type: "DetectionAccuracy"
  bottom: "LFCN_1_3x5"
  bottom: "label_1_3x5"
  top: "accuracy_1_3x5"
  top: "boxiou_1_3x5"
  detection_accuracy_param {
    cls_num: 2
    coord_num: 4
    field_h: 60
    field_w: 30
    downsample_rate: 8
    field_whr: 2
    field_xyr: 2
  }
}
layer {
  name: "LFCN_1_5x7"
  type: "Convolution"
  bottom: "loss1_conv1"
  top: "LFCN_1_5x7"
  param {
    lr_mult: 1
    decay_mult: 1
  }
  param {
    lr_mult: 2
    decay_mult: 0
  }
  convolution_param {
    num_output: 6
    weight_filler {
      type: "gaussian"
      std: 0.001
    }
    bias_filler {
      type: "constant"
    }
    pad_h: 3
    pad_w: 2
    kernel_h: 7
    kernel_w: 5
  }
}
layer {
  name: "detection_loss_1_5x7"
  type: "Detection"
  bottom: "LFCN_1_5x7"
  bottom: "label_1_5x7"
  top: "loss_1_5x7"
  loss_weight: 0.9
  detection_param {
    cls_num: 2
    coord_num: 4
    lambda: 0.5
    field_h: 84
    field_w: 42
    downsample_rate: 8
    bb_smooth: true
    field_whr: 2
    field_xyr: 2
    bg_threshold: 0.2
    bg_multiple: 2
    sample_mode: "random"
    pos_neg_weighted: true
  }
}
layer {
  name: "detection_accuracy_1_5x7"
  type: "DetectionAccuracy"
  bottom: "LFCN_1_5x7"
  bottom: "label_1_5x7"
  top: "accuracy_1_5x7"
  top: "boxiou_1_5x7"
  detection_accuracy_param {
    cls_num: 2
    coord_num: 4
    field_h: 84
    field_w: 42
    downsample_rate: 8
    field_whr: 2
    field_xyr: 2
  }
}
layer {
  name: "pool4"
  type: "Pooling"
  bottom: "conv4_3"
  top: "pool4"
  pooling_param {
    pool: MAX
    kernel_size: 2
    stride: 2
  }
}
layer {
  name: "conv5_1"
  type: "Convolution"
  bottom: "pool4"
  top: "conv5_1"
  convolution_param {
    num_output: 512
    pad: 1
    kernel_size: 3
  }
}
layer {
  name: "relu5_1"
  type: "ReLU"
  bottom: "conv5_1"
  top: "conv5_1"
}
layer {
  name: "conv5_2"
  type: "Convolution"
  bottom: "conv5_1"
  top: "conv5_2"
  convolution_param {
    num_output: 512
    pad: 1
    kernel_size: 3
  }
}
layer {
  name: "relu5_2"
  type: "ReLU"
  bottom: "conv5_2"
  top: "conv5_2"
}
layer {
  name: "conv5_3"
  type: "Convolution"
  bottom: "conv5_2"
  top: "conv5_3"
  convolution_param {
    num_output: 512
    pad: 1
    kernel_size: 3
  }
}
layer {
  name: "relu5_3"
  type: "ReLU"
  bottom: "conv5_3"
  top: "conv5_3"
}
layer {
  name: "LFCN_2_3x5"
  type: "Convolution"
  bottom: "conv5_3"
  top: "LFCN_2_3x5"
  param {
    lr_mult: 1
    decay_mult: 1
  }
  param {
    lr_mult: 2
    decay_mult: 0
  }
  convolution_param {
    num_output: 6
    weight_filler {
      type: "gaussian"
      std: 0.001
    }
    bias_filler {
      type: "constant"
    }
    pad_h: 2
    pad_w: 1
    kernel_h: 5
    kernel_w: 3
  }
}
layer {
  name: "detection_loss_2_3x5"
  type: "Detection"
  bottom: "LFCN_2_3x5"
  bottom: "label_2_3x5"
  top: "loss_2_3x5"
  detection_param {
    cls_num: 2
    coord_num: 4
    lambda: 0.5
    field_h: 120
    field_w: 60
    downsample_rate: 16
    bb_smooth: true
    field_whr: 2
    field_xyr: 2
    bg_threshold: 0.2
    bg_multiple: 2
    sample_mode: "random"
    pos_neg_weighted: true
  }
}
layer {
  name: "detection_accuracy_2_3x5"
  type: "DetectionAccuracy"
  bottom: "LFCN_2_3x5"
  bottom: "label_2_3x5"
  top: "accuracy_2_3x5"
  top: "boxiou_2_3x5"
  detection_accuracy_param {
    cls_num: 2
    coord_num: 4
    field_h: 120
    field_w: 60
    downsample_rate: 16
    field_whr: 2
    field_xyr: 2
  }
}
layer {
  name: "LFCN_2_5x7"
  type: "Convolution"
  bottom: "conv5_3"
  top: "LFCN_2_5x7"
  param {
    lr_mult: 1
    decay_mult: 1
  }
  param {
    lr_mult: 2
    decay_mult: 0
  }
  convolution_param {
    num_output: 6
    weight_filler {
      type: "gaussian"
      std: 0.001
    }
    bias_filler {
      type: "constant"
    }
    pad_h: 3
    pad_w: 2
    kernel_h: 7
    kernel_w: 5
  }
}
layer {
  name: "detection_loss_2_5x7"
  type: "Detection"
  bottom: "LFCN_2_5x7"
  bottom: "label_2_5x7"
  top: "loss_2_5x7"
  detection_param {
    cls_num: 2
    coord_num: 4
    lambda: 0.5
    field_h: 168
    field_w: 84
    downsample_rate: 16
    bb_smooth: true
    field_whr: 2
    field_xyr: 2
    bg_threshold: 0.2
    bg_multiple: 2
    sample_mode: "random"
    pos_neg_weighted: true
  }
}
layer {
  name: "detection_accuracy_2_5x7"
  type: "DetectionAccuracy"
  bottom: "LFCN_2_5x7"
  bottom: "label_2_5x7"
  top: "accuracy_2_5x7"
  top: "boxiou_2_5x7"
  detection_accuracy_param {
    cls_num: 2
    coord_num: 4
    field_h: 168
    field_w: 84
    downsample_rate: 16
    field_whr: 2
    field_xyr: 2
  }
}
layer {
  name: "pool5"
  type: "Pooling"
  bottom: "conv5_3"
  top: "pool5"
  pooling_param {
    pool: MAX
    kernel_size: 2
    stride: 2
  }
}
layer {
  name: "conv6_1"
  type: "Convolution"
  bottom: "pool5"
  top: "conv6_1"
  param {
    lr_mult: 1
    decay_mult: 1
  }
  param {
    lr_mult: 2
    decay_mult: 0
  }
  convolution_param {
    num_output: 512
    pad: 1
    kernel_size: 3
    weight_filler {
      type: "gaussian"
      std: 0.01
    }
    bias_filler {
      type: "constant"
    }
  }
}
layer {
  name: "relu6_1"
  type: "ReLU"
  bottom: "conv6_1"
  top: "conv6_1"
}
layer {
  name: "LFCN_3_3x5"
  type: "Convolution"
  bottom: "conv6_1"
  top: "LFCN_3_3x5"
  param {
    lr_mult: 1
    decay_mult: 1
  }
  param {
    lr_mult: 2
    decay_mult: 0
  }
  convolution_param {
    num_output: 6
    weight_filler {
      type: "gaussian"
      std: 0.001
    }
    bias_filler {
      type: "constant"
    }
    pad_h: 2
    pad_w: 1
    kernel_h: 5
    kernel_w: 3
  }
}
layer {
  name: "detection_loss_3_3x5"
  type: "Detection"
  bottom: "LFCN_3_3x5"
  bottom: "label_3_3x5"
  top: "loss_3_3x5"
  detection_param {
    cls_num: 2
    coord_num: 4
    lambda: 0.5
    field_h: 240
    field_w: 120
    downsample_rate: 32
    bb_smooth: true
    field_whr: 2
    field_xyr: 2
    bg_threshold: 0.2
    bg_multiple: 2
    sample_mode: "random"
    pos_neg_weighted: true
  }
}
layer {
  name: "detection_accuracy_3_3x5"
  type: "DetectionAccuracy"
  bottom: "LFCN_3_3x5"
  bottom: "label_3_3x5"
  top: "accuracy_3_3x5"
  top: "boxiou_3_3x5"
  detection_accuracy_param {
    cls_num: 2
    coord_num: 4
    field_h: 240
    field_w: 120
    downsample_rate: 32
    field_whr: 2
    field_xyr: 2
  }
}
layer {
  name: "LFCN_3_5x7"
  type: "Convolution"
  bottom: "conv6_1"
  top: "LFCN_3_5x7"
  param {
    lr_mult: 1
    decay_mult: 1
  }
  param {
    lr_mult: 2
    decay_mult: 0
  }
  convolution_param {
    num_output: 6
    weight_filler {
      type: "gaussian"
      std: 0.001
    }
    bias_filler {
      type: "constant"
    }
    pad_h: 3
    pad_w: 2
    kernel_h: 7
    kernel_w: 5
  }
}
layer {
  name: "detection_loss_3_5x7"
  type: "Detection"
  bottom: "LFCN_3_5x7"
  bottom: "label_3_5x7"
  top: "loss_3_5x7"
  detection_param {
    cls_num: 2
    coord_num: 4
    lambda: 0.5
    field_h: 336
    field_w: 168
    downsample_rate: 32
    bb_smooth: true
    field_whr: 2
    field_xyr: 2
    bg_threshold: 0.2
    bg_multiple: 2
    sample_mode: "random"
    pos_neg_weighted: true
  }
}
layer {
  name: "detection_accuracy_3_5x7"
  type: "DetectionAccuracy"
  bottom: "LFCN_3_5x7"
  bottom: "label_3_5x7"
  top: "accuracy_3_5x7"
  top: "boxiou_3_5x7"
  detection_accuracy_param {
    cls_num: 2
    coord_num: 4
    field_h: 336
    field_w: 168
    downsample_rate: 32
    field_whr: 2
    field_xyr: 2
  }
}
layer {
  name: "pool6"
  type: "Pooling"
  bottom: "conv6_1"
  top: "pool6"
  pooling_param {
    pool: MAX
    kernel_size: 2
    stride: 2
  }
}
layer {
  name: "LFCN_4_3x5"
  type: "Convolution"
  bottom: "pool6"
  top: "LFCN_4_3x5"
  param {
    lr_mult: 1
    decay_mult: 1
  }
  param {
    lr_mult: 2
    decay_mult: 0
  }
  convolution_param {
    num_output: 6
    weight_filler {
      type: "gaussian"
      std: 0.001
    }
    bias_filler {
      type: "constant"
    }
    pad_h: 2
    pad_w: 1
    kernel_h: 5
    kernel_w: 3
  }
}
layer {
  name: "detection_loss_4_3x5"
  type: "Detection"
  bottom: "LFCN_4_3x5"
  bottom: "label_4_3x5"
  top: "loss_4_3x5"
  detection_param {
    cls_num: 2
    coord_num: 4
    lambda: 0.5
    field_h: 480
    field_w: 240
    downsample_rate: 64
    bb_smooth: true
    field_whr: 2
    field_xyr: 2
    bg_threshold: 0.2
    bg_multiple: 2
    sample_mode: "random"
    pos_neg_weighted: true
  }
}
layer {
  name: "detection_accuracy_4_3x5"
  type: "DetectionAccuracy"
  bottom: "LFCN_4_3x5"
  bottom: "label_4_3x5"
  top: "accuracy_4_3x5"
  top: "boxiou_4_3x5"
  detection_accuracy_param {
    cls_num: 2
    coord_num: 4
    field_h: 480
    field_w: 240
    downsample_rate: 64
    field_whr: 2
    field_xyr: 2
  }
}
I1012 02:58:51.100183 19298 layer_factory.hpp:76] Creating layer data
I1012 02:58:51.100227 19298 net.cpp:106] Creating Layer data
I1012 02:58:51.100237 19298 net.cpp:411] data -> data
…
I1012 02:58:51.426098 19298 image_gt_data_layer.cpp:234] output label size 1 : 4,6,72,72
I1012 02:58:51.426154 19298 image_gt_data_layer.cpp:234] output label size 2 : 4,6,36,36
I1012 02:58:51.426209 19298 image_gt_data_layer.cpp:234] output label size 3 : 4,6,36,36
I1012 02:58:51.426259 19298 image_gt_data_layer.cpp:234] output label size 4 : 4,6,18,18
I1012 02:58:51.426308 19298 image_gt_data_layer.cpp:234] output label size 5 : 4,6,18,18
I1012 02:58:51.426357 19298 image_gt_data_layer.cpp:234] output label size 6 : 4,6,9,9
I1012 02:58:51.460927 19298 net.cpp:150] Setting up data
I1012 02:58:51.460958 19298 net.cpp:157] Top shape: 4 3 576 576 (3981312)
I1012 02:58:51.460963 19298 net.cpp:157] Top shape: 4 6 72 72 (124416)
I1012 02:58:51.460966 19298 net.cpp:157] Top shape: 4 6 72 72 (124416)
I1012 02:58:51.460970 19298 net.cpp:157] Top shape: 4 6 36 36 (31104)
I1012 02:58:51.460973 19298 net.cpp:157] Top shape: 4 6 36 36 (31104)
I1012 02:58:51.460978 19298 net.cpp:157] Top shape: 4 6 18 18 (7776)
I1012 02:58:51.460980 19298 net.cpp:157] Top shape: 4 6 18 18 (7776)
I1012 02:58:51.460984 19298 net.cpp:157] Top shape: 4 6 9 9 (1944)
I1012 02:58:51.460988 19298 net.cpp:165] Memory required for data: 17239392
I1012 02:58:51.460995 19298 layer_factory.hpp:76] Creating layer label_1_3x5_data_1_split
I1012 02:58:51.461014 19298 net.cpp:106] Creating Layer label_1_3x5_data_1_split
I1012 02:58:51.461019 19298 net.cpp:454] label_1_3x5_data_1_split <- label_1_3x5
I1012 02:58:51.461031 19298 net.cpp:411] label_1_3x5_data_1_split -> label_1_3x5_data_1_split_0
I1012 02:58:51.461041 19298 net.cpp:411] label_1_3x5_data_1_split -> label_1_3x5_data_1_split_1
I1012 02:58:51.461129 19298 net.cpp:150] Setting up label_1_3x5_data_1_split
I1012 02:58:51.461136 19298 net.cpp:157] Top shape: 4 6 72 72 (124416)
I1012 02:58:51.461139 19298 net.cpp:157] Top shape: 4 6 72 72 (124416)
I1012 02:58:51.461141 19298 net.cpp:165] Memory required for data: 18234720
I1012 02:58:51.461144 19298 layer_factory.hpp:76] Creating layer label_1_5x7_data_2_split
I1012 02:58:51.461153 19298 net.cpp:106] Creating Layer label_1_5x7_data_2_split
I1012 02:58:51.461155 19298 net.cpp:454] label_1_5x7_data_2_split <- label_1_5x7
I1012 02:58:51.461160 19298 net.cpp:411] label_1_5x7_data_2_split -> label_1_5x7_data_2_split_0
I1012 02:58:51.461166 19298 net.cpp:411] label_1_5x7_data_2_split -> label_1_5x7_data_2_split_1
I1012 02:58:51.461196 19298 net.cpp:150] Setting up label_1_5x7_data_2_split
I1012 02:58:51.461201 19298 net.cpp:157] Top shape: 4 6 72 72 (124416)
I1012 02:58:51.461205 19298 net.cpp:157] Top shape: 4 6 72 72 (124416)
I1012 02:58:51.461207 19298 net.cpp:165] Memory required for data: 19230048
I1012 02:58:51.461210 19298 layer_factory.hpp:76] Creating layer label_2_3x5_data_3_split
I1012 02:58:51.461216 19298 net.cpp:106] Creating Layer label_2_3x5_data_3_split
I1012 02:58:51.461218 19298 net.cpp:454] label_2_3x5_data_3_split <- label_2_3x5
I1012 02:58:51.461222 19298 net.cpp:411] label_2_3x5_data_3_split -> label_2_3x5_data_3_split_0
I1012 02:58:51.461228 19298 net.cpp:411] label_2_3x5_data_3_split -> label_2_3x5_data_3_split_1
I1012 02:58:51.461254 19298 net.cpp:150] Setting up label_2_3x5_data_3_split
I1012 02:58:51.461258 19298 net.cpp:157] Top shape: 4 6 36 36 (31104)
I1012 02:58:51.461261 19298 net.cpp:157] Top shape: 4 6 36 36 (31104)
I1012 02:58:51.461263 19298 net.cpp:165] Memory required for data: 19478880
I1012 02:58:51.461266 19298 layer_factory.hpp:76] Creating layer label_2_5x7_data_4_split
I1012 02:58:51.461272 19298 net.cpp:106] Creating Layer label_2_5x7_data_4_split
I1012 02:58:51.461274 19298 net.cpp:454] label_2_5x7_data_4_split <- label_2_5x7
I1012 02:58:51.461279 19298 net.cpp:411] label_2_5x7_data_4_split -> label_2_5x7_data_4_split_0
I1012 02:58:51.461284 19298 net.cpp:411] label_2_5x7_data_4_split -> label_2_5x7_data_4_split_1
I1012 02:58:51.461309 19298 net.cpp:150] Setting up label_2_5x7_data_4_split
I1012 02:58:51.461314 19298 net.cpp:157] Top shape: 4 6 36 36 (31104)
I1012 02:58:51.461318 19298 net.cpp:157] Top shape: 4 6 36 36 (31104)
I1012 02:58:51.461319 19298 net.cpp:165] Memory required for data: 19727712
I1012 02:58:51.461321 19298 layer_factory.hpp:76] Creating layer label_3_3x5_data_5_split
I1012 02:58:51.461325 19298 net.cpp:106] Creating Layer label_3_3x5_data_5_split
I1012 02:58:51.461328 19298 net.cpp:454] label_3_3x5_data_5_split <- label_3_3x5
I1012 02:58:51.461333 19298 net.cpp:411] label_3_3x5_data_5_split -> label_3_3x5_data_5_split_0
I1012 02:58:51.461339 19298 net.cpp:411] label_3_3x5_data_5_split -> label_3_3x5_data_5_split_1
I1012 02:58:51.461365 19298 net.cpp:150] Setting up label_3_3x5_data_5_split
I1012 02:58:51.461369 19298 net.cpp:157] Top shape: 4 6 18 18 (7776)
I1012 02:58:51.461372 19298 net.cpp:157] Top shape: 4 6 18 18 (7776)
I1012 02:58:51.461374 19298 net.cpp:165] Memory required for data: 19789920
I1012 02:58:51.461377 19298 layer_factory.hpp:76] Creating layer label_3_5x7_data_6_split
I1012 02:58:51.461382 19298 net.cpp:106] Creating Layer label_3_5x7_data_6_split
I1012 02:58:51.461385 19298 net.cpp:454] label_3_5x7_data_6_split <- label_3_5x7
I1012 02:58:51.461390 19298 net.cpp:411] label_3_5x7_data_6_split -> label_3_5x7_data_6_split_0
I1012 02:58:51.461395 19298 net.cpp:411] label_3_5x7_data_6_split -> label_3_5x7_data_6_split_1
I1012 02:58:51.461422 19298 net.cpp:150] Setting up label_3_5x7_data_6_split
I1012 02:58:51.461426 19298 net.cpp:157] Top shape: 4 6 18 18 (7776)
I1012 02:58:51.461429 19298 net.cpp:157] Top shape: 4 6 18 18 (7776)
I1012 02:58:51.461431 19298 net.cpp:165] Memory required for data: 19852128
I1012 02:58:51.461433 19298 layer_factory.hpp:76] Creating layer label_4_3x5_data_7_split
I1012 02:58:51.461439 19298 net.cpp:106] Creating Layer label_4_3x5_data_7_split
I1012 02:58:51.461441 19298 net.cpp:454] label_4_3x5_data_7_split <- label_4_3x5
I1012 02:58:51.461447 19298 net.cpp:411] label_4_3x5_data_7_split -> label_4_3x5_data_7_split_0
I1012 02:58:51.461452 19298 net.cpp:411] label_4_3x5_data_7_split -> label_4_3x5_data_7_split_1
I1012 02:58:51.461477 19298 net.cpp:150] Setting up label_4_3x5_data_7_split
I1012 02:58:51.461482 19298 net.cpp:157] Top shape: 4 6 9 9 (1944)
I1012 02:58:51.461484 19298 net.cpp:157] Top shape: 4 6 9 9 (1944)
I1012 02:58:51.461486 19298 net.cpp:165] Memory required for data: 19867680
I1012 02:58:51.461488 19298 layer_factory.hpp:76] Creating layer conv1_1
I1012 02:58:51.461499 19298 net.cpp:106] Creating Layer conv1_1
I1012 02:58:51.461503 19298 net.cpp:454] conv1_1 <- data
I1012 02:58:51.461506 19298 net.cpp:411] conv1_1 -> conv1_1
I1012 02:58:51.576127 19298 net.cpp:150] Setting up conv1_1
I1012 02:58:51.576165 19298 net.cpp:157] Top shape: 4 64 576 576 (84934656)
I1012 02:58:51.576169 19298 net.cpp:165] Memory required for data: 359606304
I1012 02:58:51.576189 19298 layer_factory.hpp:76] Creating layer relu1_1
I1012 02:58:51.576200 19298 net.cpp:106] Creating Layer relu1_1
I1012 02:58:51.576205 19298 net.cpp:454] relu1_1 <- conv1_1
I1012 02:58:51.576210 19298 net.cpp:397] relu1_1 -> conv1_1 (in-place)
I1012 02:58:51.576398 19298 net.cpp:150] Setting up relu1_1
I1012 02:58:51.576409 19298 net.cpp:157] Top shape: 4 64 576 576 (84934656)
I1012 02:58:51.576412 19298 net.cpp:165] Memory required for data: 699344928
I1012 02:58:51.576416 19298 layer_factory.hpp:76] Creating layer conv1_2
I1012 02:58:51.576423 19298 net.cpp:106] Creating Layer conv1_2
I1012 02:58:51.576426 19298 net.cpp:454] conv1_2 <- conv1_1
I1012 02:58:51.576431 19298 net.cpp:411] conv1_2 -> conv1_2
I1012 02:58:51.578279 19298 net.cpp:150] Setting up conv1_2
I1012 02:58:51.578294 19298 net.cpp:157] Top shape: 4 64 576 576 (84934656)
I1012 02:58:51.578296 19298 net.cpp:165] Memory required for data: 1039083552
I1012 02:58:51.578306 19298 layer_factory.hpp:76] Creating layer relu1_2
I1012 02:58:51.578312 19298 net.cpp:106] Creating Layer relu1_2
I1012 02:58:51.578315 19298 net.cpp:454] relu1_2 <- conv1_2
I1012 02:58:51.578320 19298 net.cpp:397] relu1_2 -> conv1_2 (in-place)
I1012 02:58:51.578621 19298 net.cpp:150] Setting up relu1_2
I1012 02:58:51.578634 19298 net.cpp:157] Top shape: 4 64 576 576 (84934656)
I1012 02:58:51.578637 19298 net.cpp:165] Memory required for data: 1378822176
I1012 02:58:51.578640 19298 layer_factory.hpp:76] Creating layer pool1
I1012 02:58:51.578649 19298 net.cpp:106] Creating Layer pool1
I1012 02:58:51.578651 19298 net.cpp:454] pool1 <- conv1_2
I1012 02:58:51.578656 19298 net.cpp:411] pool1 -> pool1
I1012 02:58:51.578850 19298 net.cpp:150] Setting up pool1
I1012 02:58:51.578858 19298 net.cpp:157] Top shape: 4 64 288 288 (21233664)
I1012 02:58:51.578862 19298 net.cpp:165] Memory required for data: 1463756832
I1012 02:58:51.578866 19298 layer_factory.hpp:76] Creating layer conv2_1
I1012 02:58:51.578871 19298 net.cpp:106] Creating Layer conv2_1
I1012 02:58:51.578874 19298 net.cpp:454] conv2_1 <- pool1
I1012 02:58:51.578879 19298 net.cpp:411] conv2_1 -> conv2_1
I1012 02:58:51.580476 19298 net.cpp:150] Setting up conv2_1
I1012 02:58:51.580489 19298 net.cpp:157] Top shape: 4 128 288 288 (42467328)
I1012 02:58:51.580493 19298 net.cpp:165] Memory required for data: 1633626144
I1012 02:58:51.580502 19298 layer_factory.hpp:76] Creating layer relu2_1
I1012 02:58:51.580508 19298 net.cpp:106] Creating Layer relu2_1
I1012 02:58:51.580512 19298 net.cpp:454] relu2_1 <- conv2_1
I1012 02:58:51.580516 19298 net.cpp:397] relu2_1 -> conv2_1 (in-place)
I1012 02:58:51.580821 19298 net.cpp:150] Setting up relu2_1
I1012 02:58:51.580834 19298 net.cpp:157] Top shape: 4 128 288 288 (42467328)
I1012 02:58:51.580837 19298 net.cpp:165] Memory required for data: 1803495456
I1012 02:58:51.580842 19298 layer_factory.hpp:76] Creating layer conv2_2
I1012 02:58:51.580847 19298 net.cpp:106] Creating Layer conv2_2
I1012 02:58:51.580850 19298 net.cpp:454] conv2_2 <- conv2_1
I1012 02:58:51.580857 19298 net.cpp:411] conv2_2 -> conv2_2
I1012 02:58:51.582468 19298 net.cpp:150] Setting up conv2_2
I1012 02:58:51.582480 19298 net.cpp:157] Top shape: 4 128 288 288 (42467328)
I1012 02:58:51.582484 19298 net.cpp:165] Memory required for data: 1973364768
I1012 02:58:51.582490 19298 layer_factory.hpp:76] Creating layer relu2_2
I1012 02:58:51.582499 19298 net.cpp:106] Creating Layer relu2_2
I1012 02:58:51.582502 19298 net.cpp:454] relu2_2 <- conv2_2
I1012 02:58:51.582509 19298 net.cpp:397] relu2_2 -> conv2_2 (in-place)
I1012 02:58:51.582830 19298 net.cpp:150] Setting up relu2_2
I1012 02:58:51.582842 19298 net.cpp:157] Top shape: 4 128 288 288 (42467328)
I1012 02:58:51.582845 19298 net.cpp:165] Memory required for data: 2143234080
I1012 02:58:51.582849 19298 layer_factory.hpp:76] Creating layer pool2
I1012 02:58:51.582855 19298 net.cpp:106] Creating Layer pool2
I1012 02:58:51.582859 19298 net.cpp:454] pool2 <- conv2_2
I1012 02:58:51.582865 19298 net.cpp:411] pool2 -> pool2
I1012 02:58:51.583082 19298 net.cpp:150] Setting up pool2
I1012 02:58:51.583094 19298 net.cpp:157] Top shape: 4 128 144 144 (10616832)
I1012 02:58:51.583097 19298 net.cpp:165] Memory required for data: 2185701408
I1012 02:58:51.583101 19298 layer_factory.hpp:76] Creating layer conv3_1
I1012 02:58:51.583106 19298 net.cpp:106] Creating Layer conv3_1
I1012 02:58:51.583109 19298 net.cpp:454] conv3_1 <- pool2
I1012 02:58:51.583118 19298 net.cpp:411] conv3_1 -> conv3_1
I1012 02:58:51.584992 19298 net.cpp:150] Setting up conv3_1
I1012 02:58:51.585006 19298 net.cpp:157] Top shape: 4 256 144 144 (21233664)
I1012 02:58:51.585011 19298 net.cpp:165] Memory required for data: 2270636064
I1012 02:58:51.585021 19298 layer_factory.hpp:76] Creating layer relu3_1
I1012 02:58:51.585027 19298 net.cpp:106] Creating Layer relu3_1
I1012 02:58:51.585031 19298 net.cpp:454] relu3_1 <- conv3_1
I1012 02:58:51.585037 19298 net.cpp:397] relu3_1 -> conv3_1 (in-place)
I1012 02:58:51.585353 19298 net.cpp:150] Setting up relu3_1
I1012 02:58:51.585366 19298 net.cpp:157] Top shape: 4 256 144 144 (21233664)
I1012 02:58:51.585368 19298 net.cpp:165] Memory required for data: 2355570720
I1012 02:58:51.585372 19298 layer_factory.hpp:76] Creating layer conv3_2
I1012 02:58:51.585381 19298 net.cpp:106] Creating Layer conv3_2
I1012 02:58:51.585383 19298 net.cpp:454] conv3_2 <- conv3_1
I1012 02:58:51.585389 19298 net.cpp:411] conv3_2 -> conv3_2
I1012 02:58:51.588598 19298 net.cpp:150] Setting up conv3_2
I1012 02:58:51.588613 19298 net.cpp:157] Top shape: 4 256 144 144 (21233664)
I1012 02:58:51.588615 19298 net.cpp:165] Memory required for data: 2440505376
I1012 02:58:51.588623 19298 layer_factory.hpp:76] Creating layer relu3_2
I1012 02:58:51.588627 19298 net.cpp:106] Creating Layer relu3_2
I1012 02:58:51.588634 19298 net.cpp:454] relu3_2 <- conv3_2
I1012 02:58:51.588639 19298 net.cpp:397] relu3_2 -> conv3_2 (in-place)
I1012 02:58:51.588825 19298 net.cpp:150] Setting up relu3_2
I1012 02:58:51.588835 19298 net.cpp:157] Top shape: 4 256 144 144 (21233664)
I1012 02:58:51.588837 19298 net.cpp:165] Memory required for data: 2525440032
I1012 02:58:51.588840 19298 layer_factory.hpp:76] Creating layer conv3_3
I1012 02:58:51.588848 19298 net.cpp:106] Creating Layer conv3_3
I1012 02:58:51.588851 19298 net.cpp:454] conv3_3 <- conv3_2
I1012 02:58:51.588858 19298 net.cpp:411] conv3_3 -> conv3_3
I1012 02:58:51.591348 19298 net.cpp:150] Setting up conv3_3
I1012 02:58:51.591375 19298 net.cpp:157] Top shape: 4 256 144 144 (21233664)
I1012 02:58:51.591378 19298 net.cpp:165] Memory required for data: 2610374688
I1012 02:58:51.591384 19298 layer_factory.hpp:76] Creating layer relu3_3
I1012 02:58:51.591390 19298 net.cpp:106] Creating Layer relu3_3
I1012 02:58:51.591394 19298 net.cpp:454] relu3_3 <- conv3_3
I1012 02:58:51.591398 19298 net.cpp:397] relu3_3 -> conv3_3 (in-place)
I1012 02:58:51.591572 19298 net.cpp:150] Setting up relu3_3
I1012 02:58:51.591580 19298 net.cpp:157] Top shape: 4 256 144 144 (21233664)
I1012 02:58:51.591583 19298 net.cpp:165] Memory required for data: 2695309344
I1012 02:58:51.591586 19298 layer_factory.hpp:76] Creating layer pool3
I1012 02:58:51.591593 19298 net.cpp:106] Creating Layer pool3
I1012 02:58:51.591596 19298 net.cpp:454] pool3 <- conv3_3
I1012 02:58:51.591600 19298 net.cpp:411] pool3 -> pool3
I1012 02:58:51.591944 19298 net.cpp:150] Setting up pool3
I1012 02:58:51.591955 19298 net.cpp:157] Top shape: 4 256 72 72 (5308416)
I1012 02:58:51.591958 19298 net.cpp:165] Memory required for data: 2716543008
I1012 02:58:51.591961 19298 layer_factory.hpp:76] Creating layer conv4_1
I1012 02:58:51.591969 19298 net.cpp:106] Creating Layer conv4_1
I1012 02:58:51.591972 19298 net.cpp:454] conv4_1 <- pool3
I1012 02:58:51.591979 19298 net.cpp:411] conv4_1 -> conv4_1
I1012 02:58:51.596165 19298 net.cpp:150] Setting up conv4_1
I1012 02:58:51.596182 19298 net.cpp:157] Top shape: 4 512 72 72 (10616832)
I1012 02:58:51.596185 19298 net.cpp:165] Memory required for data: 2759010336
I1012 02:58:51.596191 19298 layer_factory.hpp:76] Creating layer relu4_1
I1012 02:58:51.596197 19298 net.cpp:106] Creating Layer relu4_1
I1012 02:58:51.596200 19298 net.cpp:454] relu4_1 <- conv4_1
I1012 02:58:51.596205 19298 net.cpp:397] relu4_1 -> conv4_1 (in-place)
I1012 02:58:51.596374 19298 net.cpp:150] Setting up relu4_1
I1012 02:58:51.596384 19298 net.cpp:157] Top shape: 4 512 72 72 (10616832)
I1012 02:58:51.596386 19298 net.cpp:165] Memory required for data: 2801477664
I1012 02:58:51.596390 19298 layer_factory.hpp:76] Creating layer conv4_2
I1012 02:58:51.596397 19298 net.cpp:106] Creating Layer conv4_2
I1012 02:58:51.596400 19298 net.cpp:454] conv4_2 <- conv4_1
I1012 02:58:51.596405 19298 net.cpp:411] conv4_2 -> conv4_2
I1012 02:58:51.602599 19298 net.cpp:150] Setting up conv4_2
I1012 02:58:51.602614 19298 net.cpp:157] Top shape: 4 512 72 72 (10616832)
I1012 02:58:51.602617 19298 net.cpp:165] Memory required for data: 2843944992
I1012 02:58:51.602629 19298 layer_factory.hpp:76] Creating layer relu4_2
I1012 02:58:51.602638 19298 net.cpp:106] Creating Layer relu4_2
I1012 02:58:51.602643 19298 net.cpp:454] relu4_2 <- conv4_2
I1012 02:58:51.602648 19298 net.cpp:397] relu4_2 -> conv4_2 (in-place)
I1012 02:58:51.602974 19298 net.cpp:150] Setting up relu4_2
I1012 02:58:51.602987 19298 net.cpp:157] Top shape: 4 512 72 72 (10616832)
I1012 02:58:51.602989 19298 net.cpp:165] Memory required for data: 2886412320
I1012 02:58:51.602993 19298 layer_factory.hpp:76] Creating layer conv4_3
I1012 02:58:51.603001 19298 net.cpp:106] Creating Layer conv4_3
I1012 02:58:51.603004 19298 net.cpp:454] conv4_3 <- conv4_2
I1012 02:58:51.603011 19298 net.cpp:411] conv4_3 -> conv4_3
I1012 02:58:51.608777 19298 net.cpp:150] Setting up conv4_3
I1012 02:58:51.608793 19298 net.cpp:157] Top shape: 4 512 72 72 (10616832)
I1012 02:58:51.608808 19298 net.cpp:165] Memory required for data: 2928879648
I1012 02:58:51.608814 19298 layer_factory.hpp:76] Creating layer relu4_3
I1012 02:58:51.608821 19298 net.cpp:106] Creating Layer relu4_3
I1012 02:58:51.608825 19298 net.cpp:454] relu4_3 <- conv4_3
I1012 02:58:51.608830 19298 net.cpp:397] relu4_3 -> conv4_3 (in-place)
I1012 02:58:51.609163 19298 net.cpp:150] Setting up relu4_3
I1012 02:58:51.609174 19298 net.cpp:157] Top shape: 4 512 72 72 (10616832)
I1012 02:58:51.609177 19298 net.cpp:165] Memory required for data: 2971346976
I1012 02:58:51.609180 19298 layer_factory.hpp:76] Creating layer conv4_3_relu4_3_0_split
I1012 02:58:51.609189 19298 net.cpp:106] Creating Layer conv4_3_relu4_3_0_split
I1012 02:58:51.609191 19298 net.cpp:454] conv4_3_relu4_3_0_split <- conv4_3
I1012 02:58:51.609196 19298 net.cpp:411] conv4_3_relu4_3_0_split -> conv4_3_relu4_3_0_split_0
I1012 02:58:51.609202 19298 net.cpp:411] conv4_3_relu4_3_0_split -> conv4_3_relu4_3_0_split_1
I1012 02:58:51.609251 19298 net.cpp:150] Setting up conv4_3_relu4_3_0_split
I1012 02:58:51.609256 19298 net.cpp:157] Top shape: 4 512 72 72 (10616832)
I1012 02:58:51.609258 19298 net.cpp:157] Top shape: 4 512 72 72 (10616832)
I1012 02:58:51.609261 19298 net.cpp:165] Memory required for data: 3056281632
I1012 02:58:51.609263 19298 layer_factory.hpp:76] Creating layer loss1_conv1
I1012 02:58:51.609277 19298 net.cpp:106] Creating Layer loss1_conv1
I1012 02:58:51.609282 19298 net.cpp:454] loss1_conv1 <- conv4_3_relu4_3_0_split_0
I1012 02:58:51.609288 19298 net.cpp:411] loss1_conv1 -> loss1_conv1
I1012 02:58:51.688877 19298 net.cpp:150] Setting up loss1_conv1
I1012 02:58:51.688905 19298 net.cpp:157] Top shape: 4 512 72 72 (10616832)
I1012 02:58:51.688908 19298 net.cpp:165] Memory required for data: 3098748960
I1012 02:58:51.688916 19298 layer_factory.hpp:76] Creating layer loss_relu1
I1012 02:58:51.688938 19298 net.cpp:106] Creating Layer loss_relu1
I1012 02:58:51.688943 19298 net.cpp:454] loss_relu1 <- loss1_conv1
I1012 02:58:51.688951 19298 net.cpp:397] loss_relu1 -> loss1_conv1 (in-place)
I1012 02:58:51.689131 19298 net.cpp:150] Setting up loss_relu1
I1012 02:58:51.689141 19298 net.cpp:157] Top shape: 4 512 72 72 (10616832)
I1012 02:58:51.689144 19298 net.cpp:165] Memory required for data: 3141216288
I1012 02:58:51.689147 19298 layer_factory.hpp:76] Creating layer loss1_conv1_loss_relu1_0_split
I1012 02:58:51.689152 19298 net.cpp:106] Creating Layer loss1_conv1_loss_relu1_0_split
I1012 02:58:51.689157 19298 net.cpp:454] loss1_conv1_loss_relu1_0_split <- loss1_conv1
I1012 02:58:51.689162 19298 net.cpp:411] loss1_conv1_loss_relu1_0_split -> loss1_conv1_loss_relu1_0_split_0
I1012 02:58:51.689168 19298 net.cpp:411] loss1_conv1_loss_relu1_0_split -> loss1_conv1_loss_relu1_0_split_1
I1012 02:58:51.689211 19298 net.cpp:150] Setting up loss1_conv1_loss_relu1_0_split
I1012 02:58:51.689218 19298 net.cpp:157] Top shape: 4 512 72 72 (10616832)
I1012 02:58:51.689221 19298 net.cpp:157] Top shape: 4 512 72 72 (10616832)
I1012 02:58:51.689224 19298 net.cpp:165] Memory required for data: 3226150944
I1012 02:58:51.689226 19298 layer_factory.hpp:76] Creating layer LFCN_1_3x5
I1012 02:58:51.689234 19298 net.cpp:106] Creating Layer LFCN_1_3x5
I1012 02:58:51.689237 19298 net.cpp:454] LFCN_1_3x5 <- loss1_conv1_loss_relu1_0_split_0
I1012 02:58:51.689244 19298 net.cpp:411] LFCN_1_3x5 -> LFCN_1_3x5
I1012 02:58:51.691995 19298 net.cpp:150] Setting up LFCN_1_3x5
I1012 02:58:51.692009 19298 net.cpp:157] Top shape: 4 6 72 72 (124416)
I1012 02:58:51.692013 19298 net.cpp:165] Memory required for data: 3226648608
I1012 02:58:51.692018 19298 layer_factory.hpp:76] Creating layer LFCN_1_3x5_LFCN_1_3x5_0_split
I1012 02:58:51.692035 19298 net.cpp:106] Creating Layer LFCN_1_3x5_LFCN_1_3x5_0_split
I1012 02:58:51.692044 19298 net.cpp:454] LFCN_1_3x5_LFCN_1_3x5_0_split <- LFCN_1_3x5
I1012 02:58:51.692049 19298 net.cpp:411] LFCN_1_3x5_LFCN_1_3x5_0_split -> LFCN_1_3x5_LFCN_1_3x5_0_split_0
I1012 02:58:51.692055 19298 net.cpp:411] LFCN_1_3x5_LFCN_1_3x5_0_split -> LFCN_1_3x5_LFCN_1_3x5_0_split_1
I1012 02:58:51.692097 19298 net.cpp:150] Setting up LFCN_1_3x5_LFCN_1_3x5_0_split
I1012 02:58:51.692108 19298 net.cpp:157] Top shape: 4 6 72 72 (124416)
I1012 02:58:51.692111 19298 net.cpp:157] Top shape: 4 6 72 72 (124416)
I1012 02:58:51.692114 19298 net.cpp:165] Memory required for data: 3227643936
I1012 02:58:51.692116 19298 layer_factory.hpp:76] Creating layer detection_loss_1_3x5
I1012 02:58:51.692123 19298 net.cpp:106] Creating Layer detection_loss_1_3x5
I1012 02:58:51.692126 19298 net.cpp:454] detection_loss_1_3x5 <- LFCN_1_3x5_LFCN_1_3x5_0_split_0
I1012 02:58:51.692131 19298 net.cpp:454] detection_loss_1_3x5 <- label_1_3x5_data_1_split_0
I1012 02:58:51.692137 19298 net.cpp:411] detection_loss_1_3x5 -> loss_1_3x5
I1012 02:58:51.692149 19298 layer_factory.hpp:76] Creating layer detection_loss_1_3x5
I1012 02:58:51.692703 19298 net.cpp:150] Setting up detection_loss_1_3x5
I1012 02:58:51.692714 19298 net.cpp:157] Top shape: 1 1 1 2 (2)
I1012 02:58:51.692729 19298 net.cpp:160]     with loss weight 0.9
I1012 02:58:51.692749 19298 net.cpp:165] Memory required for data: 3227643944
I1012 02:58:51.692752 19298 layer_factory.hpp:76] Creating layer detection_accuracy_1_3x5
I1012 02:58:51.692761 19298 net.cpp:106] Creating Layer detection_accuracy_1_3x5
I1012 02:58:51.692765 19298 net.cpp:454] detection_accuracy_1_3x5 <- LFCN_1_3x5_LFCN_1_3x5_0_split_1
I1012 02:58:51.692770 19298 net.cpp:454] detection_accuracy_1_3x5 <- label_1_3x5_data_1_split_1
I1012 02:58:51.692775 19298 net.cpp:411] detection_accuracy_1_3x5 -> accuracy_1_3x5
I1012 02:58:51.692781 19298 net.cpp:411] detection_accuracy_1_3x5 -> boxiou_1_3x5
I1012 02:58:51.692824 19298 net.cpp:150] Setting up detection_accuracy_1_3x5
I1012 02:58:51.692829 19298 net.cpp:157] Top shape: 1 1 1 2 (2)
I1012 02:58:51.692832 19298 net.cpp:157] Top shape: 1 1 1 1 (1)
I1012 02:58:51.692836 19298 net.cpp:165] Memory required for data: 3227643956
I1012 02:58:51.692837 19298 layer_factory.hpp:76] Creating layer LFCN_1_5x7
I1012 02:58:51.692845 19298 net.cpp:106] Creating Layer LFCN_1_5x7
I1012 02:58:51.692849 19298 net.cpp:454] LFCN_1_5x7 <- loss1_conv1_loss_relu1_0_split_1
I1012 02:58:51.692855 19298 net.cpp:411] LFCN_1_5x7 -> LFCN_1_5x7
I1012 02:58:51.697918 19298 net.cpp:150] Setting up LFCN_1_5x7
I1012 02:58:51.697932 19298 net.cpp:157] Top shape: 4 6 72 72 (124416)
I1012 02:58:51.697947 19298 net.cpp:165] Memory required for data: 3228141620
I1012 02:58:51.697953 19298 layer_factory.hpp:76] Creating layer LFCN_1_5x7_LFCN_1_5x7_0_split
I1012 02:58:51.697959 19298 net.cpp:106] Creating Layer LFCN_1_5x7_LFCN_1_5x7_0_split
I1012 02:58:51.697962 19298 net.cpp:454] LFCN_1_5x7_LFCN_1_5x7_0_split <- LFCN_1_5x7
I1012 02:58:51.697971 19298 net.cpp:411] LFCN_1_5x7_LFCN_1_5x7_0_split -> LFCN_1_5x7_LFCN_1_5x7_0_split_0
I1012 02:58:51.697978 19298 net.cpp:411] LFCN_1_5x7_LFCN_1_5x7_0_split -> LFCN_1_5x7_LFCN_1_5x7_0_split_1
I1012 02:58:51.698019 19298 net.cpp:150] Setting up LFCN_1_5x7_LFCN_1_5x7_0_split
I1012 02:58:51.698024 19298 net.cpp:157] Top shape: 4 6 72 72 (124416)
I1012 02:58:51.698029 19298 net.cpp:157] Top shape: 4 6 72 72 (124416)
I1012 02:58:51.698031 19298 net.cpp:165] Memory required for data: 3229136948
I1012 02:58:51.698035 19298 layer_factory.hpp:76] Creating layer detection_loss_1_5x7
I1012 02:58:51.698040 19298 net.cpp:106] Creating Layer detection_loss_1_5x7
I1012 02:58:51.698043 19298 net.cpp:454] detection_loss_1_5x7 <- LFCN_1_5x7_LFCN_1_5x7_0_split_0
I1012 02:58:51.698048 19298 net.cpp:454] detection_loss_1_5x7 <- label_1_5x7_data_2_split_0
I1012 02:58:51.698055 19298 net.cpp:411] detection_loss_1_5x7 -> loss_1_5x7
I1012 02:58:51.698061 19298 layer_factory.hpp:76] Creating layer detection_loss_1_5x7
I1012 02:58:51.698593 19298 net.cpp:150] Setting up detection_loss_1_5x7
I1012 02:58:51.698616 19298 net.cpp:157] Top shape: 1 1 1 2 (2)
I1012 02:58:51.698619 19298 net.cpp:160]     with loss weight 0.9
I1012 02:58:51.698637 19298 net.cpp:165] Memory required for data: 3229136956
I1012 02:58:51.698639 19298 layer_factory.hpp:76] Creating layer detection_accuracy_1_5x7
I1012 02:58:51.698645 19298 net.cpp:106] Creating Layer detection_accuracy_1_5x7
I1012 02:58:51.698648 19298 net.cpp:454] detection_accuracy_1_5x7 <- LFCN_1_5x7_LFCN_1_5x7_0_split_1
I1012 02:58:51.698652 19298 net.cpp:454] detection_accuracy_1_5x7 <- label_1_5x7_data_2_split_1
I1012 02:58:51.698659 19298 net.cpp:411] detection_accuracy_1_5x7 -> accuracy_1_5x7
I1012 02:58:51.698665 19298 net.cpp:411] detection_accuracy_1_5x7 -> boxiou_1_5x7
I1012 02:58:51.698719 19298 net.cpp:150] Setting up detection_accuracy_1_5x7
I1012 02:58:51.698724 19298 net.cpp:157] Top shape: 1 1 1 2 (2)
I1012 02:58:51.698726 19298 net.cpp:157] Top shape: 1 1 1 1 (1)
I1012 02:58:51.698729 19298 net.cpp:165] Memory required for data: 3229136968
I1012 02:58:51.698731 19298 layer_factory.hpp:76] Creating layer pool4
I1012 02:58:51.698737 19298 net.cpp:106] Creating Layer pool4
I1012 02:58:51.698740 19298 net.cpp:454] pool4 <- conv4_3_relu4_3_0_split_1
I1012 02:58:51.698746 19298 net.cpp:411] pool4 -> pool4
I1012 02:58:51.699113 19298 net.cpp:150] Setting up pool4
I1012 02:58:51.699126 19298 net.cpp:157] Top shape: 4 512 36 36 (2654208)
I1012 02:58:51.699129 19298 net.cpp:165] Memory required for data: 3239753800
I1012 02:58:51.699132 19298 layer_factory.hpp:76] Creating layer conv5_1
I1012 02:58:51.699141 19298 net.cpp:106] Creating Layer conv5_1
I1012 02:58:51.699143 19298 net.cpp:454] conv5_1 <- pool4
I1012 02:58:51.699148 19298 net.cpp:411] conv5_1 -> conv5_1
I1012 02:58:51.704756 19298 net.cpp:150] Setting up conv5_1
I1012 02:58:51.704771 19298 net.cpp:157] Top shape: 4 512 36 36 (2654208)
I1012 02:58:51.704785 19298 net.cpp:165] Memory required for data: 3250370632
I1012 02:58:51.704792 19298 layer_factory.hpp:76] Creating layer relu5_1
I1012 02:58:51.704798 19298 net.cpp:106] Creating Layer relu5_1
I1012 02:58:51.704803 19298 net.cpp:454] relu5_1 <- conv5_1
I1012 02:58:51.704809 19298 net.cpp:397] relu5_1 -> conv5_1 (in-place)
I1012 02:58:51.705132 19298 net.cpp:150] Setting up relu5_1
I1012 02:58:51.705143 19298 net.cpp:157] Top shape: 4 512 36 36 (2654208)
I1012 02:58:51.705147 19298 net.cpp:165] Memory required for data: 3260987464
I1012 02:58:51.705149 19298 layer_factory.hpp:76] Creating layer conv5_2
I1012 02:58:51.705157 19298 net.cpp:106] Creating Layer conv5_2
I1012 02:58:51.705162 19298 net.cpp:454] conv5_2 <- conv5_1
I1012 02:58:51.705166 19298 net.cpp:411] conv5_2 -> conv5_2
I1012 02:58:51.711251 19298 net.cpp:150] Setting up conv5_2
I1012 02:58:51.711266 19298 net.cpp:157] Top shape: 4 512 36 36 (2654208)
I1012 02:58:51.711280 19298 net.cpp:165] Memory required for data: 3271604296
I1012 02:58:51.711287 19298 layer_factory.hpp:76] Creating layer relu5_2
I1012 02:58:51.711292 19298 net.cpp:106] Creating Layer relu5_2
I1012 02:58:51.711295 19298 net.cpp:454] relu5_2 <- conv5_2
I1012 02:58:51.711300 19298 net.cpp:397] relu5_2 -> conv5_2 (in-place)
I1012 02:58:51.711489 19298 net.cpp:150] Setting up relu5_2
I1012 02:58:51.711498 19298 net.cpp:157] Top shape: 4 512 36 36 (2654208)
I1012 02:58:51.711501 19298 net.cpp:165] Memory required for data: 3282221128
I1012 02:58:51.711504 19298 layer_factory.hpp:76] Creating layer conv5_3
I1012 02:58:51.711513 19298 net.cpp:106] Creating Layer conv5_3
I1012 02:58:51.711515 19298 net.cpp:454] conv5_3 <- conv5_2
I1012 02:58:51.711520 19298 net.cpp:411] conv5_3 -> conv5_3
I1012 02:58:51.717444 19298 net.cpp:150] Setting up conv5_3
I1012 02:58:51.717458 19298 net.cpp:157] Top shape: 4 512 36 36 (2654208)
I1012 02:58:51.717473 19298 net.cpp:165] Memory required for data: 3292837960
I1012 02:58:51.717479 19298 layer_factory.hpp:76] Creating layer relu5_3
I1012 02:58:51.717484 19298 net.cpp:106] Creating Layer relu5_3
I1012 02:58:51.717489 19298 net.cpp:454] relu5_3 <- conv5_3
I1012 02:58:51.717497 19298 net.cpp:397] relu5_3 -> conv5_3 (in-place)
I1012 02:58:51.717844 19298 net.cpp:150] Setting up relu5_3
I1012 02:58:51.717855 19298 net.cpp:157] Top shape: 4 512 36 36 (2654208)
I1012 02:58:51.717864 19298 net.cpp:165] Memory required for data: 3303454792
I1012 02:58:51.717867 19298 layer_factory.hpp:76] Creating layer conv5_3_relu5_3_0_split
I1012 02:58:51.717875 19298 net.cpp:106] Creating Layer conv5_3_relu5_3_0_split
I1012 02:58:51.717877 19298 net.cpp:454] conv5_3_relu5_3_0_split <- conv5_3
I1012 02:58:51.717885 19298 net.cpp:411] conv5_3_relu5_3_0_split -> conv5_3_relu5_3_0_split_0
I1012 02:58:51.717890 19298 net.cpp:411] conv5_3_relu5_3_0_split -> conv5_3_relu5_3_0_split_1
I1012 02:58:51.717895 19298 net.cpp:411] conv5_3_relu5_3_0_split -> conv5_3_relu5_3_0_split_2
I1012 02:58:51.717955 19298 net.cpp:150] Setting up conv5_3_relu5_3_0_split
I1012 02:58:51.717960 19298 net.cpp:157] Top shape: 4 512 36 36 (2654208)
I1012 02:58:51.717964 19298 net.cpp:157] Top shape: 4 512 36 36 (2654208)
I1012 02:58:51.717967 19298 net.cpp:157] Top shape: 4 512 36 36 (2654208)
I1012 02:58:51.717969 19298 net.cpp:165] Memory required for data: 3335305288
I1012 02:58:51.717972 19298 layer_factory.hpp:76] Creating layer LFCN_2_3x5
I1012 02:58:51.717981 19298 net.cpp:106] Creating Layer LFCN_2_3x5
I1012 02:58:51.717984 19298 net.cpp:454] LFCN_2_3x5 <- conv5_3_relu5_3_0_split_0
I1012 02:58:51.717989 19298 net.cpp:411] LFCN_2_3x5 -> LFCN_2_3x5
I1012 02:58:51.720456 19298 net.cpp:150] Setting up LFCN_2_3x5
I1012 02:58:51.720471 19298 net.cpp:157] Top shape: 4 6 36 36 (31104)
I1012 02:58:51.720475 19298 net.cpp:165] Memory required for data: 3335429704
I1012 02:58:51.720489 19298 layer_factory.hpp:76] Creating layer LFCN_2_3x5_LFCN_2_3x5_0_split
I1012 02:58:51.720495 19298 net.cpp:106] Creating Layer LFCN_2_3x5_LFCN_2_3x5_0_split
I1012 02:58:51.720499 19298 net.cpp:454] LFCN_2_3x5_LFCN_2_3x5_0_split <- LFCN_2_3x5
I1012 02:58:51.720504 19298 net.cpp:411] LFCN_2_3x5_LFCN_2_3x5_0_split -> LFCN_2_3x5_LFCN_2_3x5_0_split_0
I1012 02:58:51.720511 19298 net.cpp:411] LFCN_2_3x5_LFCN_2_3x5_0_split -> LFCN_2_3x5_LFCN_2_3x5_0_split_1
I1012 02:58:51.720554 19298 net.cpp:150] Setting up LFCN_2_3x5_LFCN_2_3x5_0_split
I1012 02:58:51.720559 19298 net.cpp:157] Top shape: 4 6 36 36 (31104)
I1012 02:58:51.720563 19298 net.cpp:157] Top shape: 4 6 36 36 (31104)
I1012 02:58:51.720566 19298 net.cpp:165] Memory required for data: 3335678536
I1012 02:58:51.720568 19298 layer_factory.hpp:76] Creating layer detection_loss_2_3x5
I1012 02:58:51.720576 19298 net.cpp:106] Creating Layer detection_loss_2_3x5
I1012 02:58:51.720578 19298 net.cpp:454] detection_loss_2_3x5 <- LFCN_2_3x5_LFCN_2_3x5_0_split_0
I1012 02:58:51.720583 19298 net.cpp:454] detection_loss_2_3x5 <- label_2_3x5_data_3_split_0
I1012 02:58:51.720588 19298 net.cpp:411] detection_loss_2_3x5 -> loss_2_3x5
I1012 02:58:51.720597 19298 layer_factory.hpp:76] Creating layer detection_loss_2_3x5
I1012 02:58:51.721122 19298 net.cpp:150] Setting up detection_loss_2_3x5
I1012 02:58:51.721134 19298 net.cpp:157] Top shape: 1 1 1 2 (2)
I1012 02:58:51.721138 19298 net.cpp:160]     with loss weight 1
I1012 02:58:51.721149 19298 net.cpp:165] Memory required for data: 3335678544
I1012 02:58:51.721153 19298 layer_factory.hpp:76] Creating layer detection_accuracy_2_3x5
I1012 02:58:51.721160 19298 net.cpp:106] Creating Layer detection_accuracy_2_3x5
I1012 02:58:51.721165 19298 net.cpp:454] detection_accuracy_2_3x5 <- LFCN_2_3x5_LFCN_2_3x5_0_split_1
I1012 02:58:51.721170 19298 net.cpp:454] detection_accuracy_2_3x5 <- label_2_3x5_data_3_split_1
I1012 02:58:51.721175 19298 net.cpp:411] detection_accuracy_2_3x5 -> accuracy_2_3x5
I1012 02:58:51.721182 19298 net.cpp:411] detection_accuracy_2_3x5 -> boxiou_2_3x5
I1012 02:58:51.721233 19298 net.cpp:150] Setting up detection_accuracy_2_3x5
I1012 02:58:51.721240 19298 net.cpp:157] Top shape: 1 1 1 2 (2)
I1012 02:58:51.721243 19298 net.cpp:157] Top shape: 1 1 1 1 (1)
I1012 02:58:51.721246 19298 net.cpp:165] Memory required for data: 3335678556
I1012 02:58:51.721248 19298 layer_factory.hpp:76] Creating layer LFCN_2_5x7
I1012 02:58:51.721261 19298 net.cpp:106] Creating Layer LFCN_2_5x7
I1012 02:58:51.721263 19298 net.cpp:454] LFCN_2_5x7 <- conv5_3_relu5_3_0_split_1
I1012 02:58:51.721268 19298 net.cpp:411] LFCN_2_5x7 -> LFCN_2_5x7
I1012 02:58:51.725878 19298 net.cpp:150] Setting up LFCN_2_5x7
I1012 02:58:51.725893 19298 net.cpp:157] Top shape: 4 6 36 36 (31104)
I1012 02:58:51.725896 19298 net.cpp:165] Memory required for data: 3335802972
I1012 02:58:51.725903 19298 layer_factory.hpp:76] Creating layer LFCN_2_5x7_LFCN_2_5x7_0_split
I1012 02:58:51.725908 19298 net.cpp:106] Creating Layer LFCN_2_5x7_LFCN_2_5x7_0_split
I1012 02:58:51.725911 19298 net.cpp:454] LFCN_2_5x7_LFCN_2_5x7_0_split <- LFCN_2_5x7
I1012 02:58:51.725917 19298 net.cpp:411] LFCN_2_5x7_LFCN_2_5x7_0_split -> LFCN_2_5x7_LFCN_2_5x7_0_split_0
I1012 02:58:51.725924 19298 net.cpp:411] LFCN_2_5x7_LFCN_2_5x7_0_split -> LFCN_2_5x7_LFCN_2_5x7_0_split_1
I1012 02:58:51.725967 19298 net.cpp:150] Setting up LFCN_2_5x7_LFCN_2_5x7_0_split
I1012 02:58:51.725972 19298 net.cpp:157] Top shape: 4 6 36 36 (31104)
I1012 02:58:51.725975 19298 net.cpp:157] Top shape: 4 6 36 36 (31104)
I1012 02:58:51.725978 19298 net.cpp:165] Memory required for data: 3336051804
I1012 02:58:51.725980 19298 layer_factory.hpp:76] Creating layer detection_loss_2_5x7
I1012 02:58:51.725987 19298 net.cpp:106] Creating Layer detection_loss_2_5x7
I1012 02:58:51.725991 19298 net.cpp:454] detection_loss_2_5x7 <- LFCN_2_5x7_LFCN_2_5x7_0_split_0
I1012 02:58:51.725994 19298 net.cpp:454] detection_loss_2_5x7 <- label_2_5x7_data_4_split_0
I1012 02:58:51.726001 19298 net.cpp:411] detection_loss_2_5x7 -> loss_2_5x7
I1012 02:58:51.726009 19298 layer_factory.hpp:76] Creating layer detection_loss_2_5x7
I1012 02:58:51.726366 19298 net.cpp:150] Setting up detection_loss_2_5x7
I1012 02:58:51.726377 19298 net.cpp:157] Top shape: 1 1 1 2 (2)
I1012 02:58:51.726379 19298 net.cpp:160]     with loss weight 1
I1012 02:58:51.726385 19298 net.cpp:165] Memory required for data: 3336051812
I1012 02:58:51.726388 19298 layer_factory.hpp:76] Creating layer detection_accuracy_2_5x7
I1012 02:58:51.726395 19298 net.cpp:106] Creating Layer detection_accuracy_2_5x7
I1012 02:58:51.726399 19298 net.cpp:454] detection_accuracy_2_5x7 <- LFCN_2_5x7_LFCN_2_5x7_0_split_1
I1012 02:58:51.726403 19298 net.cpp:454] detection_accuracy_2_5x7 <- label_2_5x7_data_4_split_1
I1012 02:58:51.726408 19298 net.cpp:411] detection_accuracy_2_5x7 -> accuracy_2_5x7
I1012 02:58:51.726414 19298 net.cpp:411] detection_accuracy_2_5x7 -> boxiou_2_5x7
I1012 02:58:51.726456 19298 net.cpp:150] Setting up detection_accuracy_2_5x7
I1012 02:58:51.726461 19298 net.cpp:157] Top shape: 1 1 1 2 (2)
I1012 02:58:51.726465 19298 net.cpp:157] Top shape: 1 1 1 1 (1)
I1012 02:58:51.726467 19298 net.cpp:165] Memory required for data: 3336051824
I1012 02:58:51.726470 19298 layer_factory.hpp:76] Creating layer pool5
I1012 02:58:51.726476 19298 net.cpp:106] Creating Layer pool5
I1012 02:58:51.726480 19298 net.cpp:454] pool5 <- conv5_3_relu5_3_0_split_2
I1012 02:58:51.726485 19298 net.cpp:411] pool5 -> pool5
I1012 02:58:51.726850 19298 net.cpp:150] Setting up pool5
I1012 02:58:51.726862 19298 net.cpp:157] Top shape: 4 512 18 18 (663552)
I1012 02:58:51.726866 19298 net.cpp:165] Memory required for data: 3338706032
I1012 02:58:51.726868 19298 layer_factory.hpp:76] Creating layer conv6_1
I1012 02:58:51.726878 19298 net.cpp:106] Creating Layer conv6_1
I1012 02:58:51.726881 19298 net.cpp:454] conv6_1 <- pool5
I1012 02:58:51.726894 19298 net.cpp:411] conv6_1 -> conv6_1
I1012 02:58:51.801831 19298 net.cpp:150] Setting up conv6_1
I1012 02:58:51.801846 19298 net.cpp:157] Top shape: 4 512 18 18 (663552)
I1012 02:58:51.801848 19298 net.cpp:165] Memory required for data: 3341360240
I1012 02:58:51.801867 19298 layer_factory.hpp:76] Creating layer relu6_1
I1012 02:58:51.801873 19298 net.cpp:106] Creating Layer relu6_1
I1012 02:58:51.801877 19298 net.cpp:454] relu6_1 <- conv6_1
I1012 02:58:51.801882 19298 net.cpp:397] relu6_1 -> conv6_1 (in-place)
I1012 02:58:51.802278 19298 net.cpp:150] Setting up relu6_1
I1012 02:58:51.802292 19298 net.cpp:157] Top shape: 4 512 18 18 (663552)
I1012 02:58:51.802295 19298 net.cpp:165] Memory required for data: 3344014448
I1012 02:58:51.802299 19298 layer_factory.hpp:76] Creating layer conv6_1_relu6_1_0_split
I1012 02:58:51.802304 19298 net.cpp:106] Creating Layer conv6_1_relu6_1_0_split
I1012 02:58:51.802307 19298 net.cpp:454] conv6_1_relu6_1_0_split <- conv6_1
I1012 02:58:51.802314 19298 net.cpp:411] conv6_1_relu6_1_0_split -> conv6_1_relu6_1_0_split_0
I1012 02:58:51.802320 19298 net.cpp:411] conv6_1_relu6_1_0_split -> conv6_1_relu6_1_0_split_1
I1012 02:58:51.802325 19298 net.cpp:411] conv6_1_relu6_1_0_split -> conv6_1_relu6_1_0_split_2
I1012 02:58:51.802386 19298 net.cpp:150] Setting up conv6_1_relu6_1_0_split
I1012 02:58:51.802392 19298 net.cpp:157] Top shape: 4 512 18 18 (663552)
I1012 02:58:51.802395 19298 net.cpp:157] Top shape: 4 512 18 18 (663552)
I1012 02:58:51.802398 19298 net.cpp:157] Top shape: 4 512 18 18 (663552)
I1012 02:58:51.802402 19298 net.cpp:165] Memory required for data: 3351977072
I1012 02:58:51.802403 19298 layer_factory.hpp:76] Creating layer LFCN_3_3x5
I1012 02:58:51.802417 19298 net.cpp:106] Creating Layer LFCN_3_3x5
I1012 02:58:51.802419 19298 net.cpp:454] LFCN_3_3x5 <- conv6_1_relu6_1_0_split_0
I1012 02:58:51.802424 19298 net.cpp:411] LFCN_3_3x5 -> LFCN_3_3x5
I1012 02:58:51.805543 19298 net.cpp:150] Setting up LFCN_3_3x5
I1012 02:58:51.805557 19298 net.cpp:157] Top shape: 4 6 18 18 (7776)
I1012 02:58:51.805572 19298 net.cpp:165] Memory required for data: 3352008176
I1012 02:58:51.805578 19298 layer_factory.hpp:76] Creating layer LFCN_3_3x5_LFCN_3_3x5_0_split
I1012 02:58:51.805593 19298 net.cpp:106] Creating Layer LFCN_3_3x5_LFCN_3_3x5_0_split
I1012 02:58:51.805598 19298 net.cpp:454] LFCN_3_3x5_LFCN_3_3x5_0_split <- LFCN_3_3x5
I1012 02:58:51.805603 19298 net.cpp:411] LFCN_3_3x5_LFCN_3_3x5_0_split -> LFCN_3_3x5_LFCN_3_3x5_0_split_0
I1012 02:58:51.805609 19298 net.cpp:411] LFCN_3_3x5_LFCN_3_3x5_0_split -> LFCN_3_3x5_LFCN_3_3x5_0_split_1
I1012 02:58:51.805655 19298 net.cpp:150] Setting up LFCN_3_3x5_LFCN_3_3x5_0_split
I1012 02:58:51.805661 19298 net.cpp:157] Top shape: 4 6 18 18 (7776)
I1012 02:58:51.805665 19298 net.cpp:157] Top shape: 4 6 18 18 (7776)
I1012 02:58:51.805666 19298 net.cpp:165] Memory required for data: 3352070384
I1012 02:58:51.805670 19298 layer_factory.hpp:76] Creating layer detection_loss_3_3x5
I1012 02:58:51.805676 19298 net.cpp:106] Creating Layer detection_loss_3_3x5
I1012 02:58:51.805680 19298 net.cpp:454] detection_loss_3_3x5 <- LFCN_3_3x5_LFCN_3_3x5_0_split_0
I1012 02:58:51.805685 19298 net.cpp:454] detection_loss_3_3x5 <- label_3_3x5_data_5_split_0
I1012 02:58:51.805690 19298 net.cpp:411] detection_loss_3_3x5 -> loss_3_3x5
I1012 02:58:51.805696 19298 layer_factory.hpp:76] Creating layer detection_loss_3_3x5
I1012 02:58:51.806062 19298 net.cpp:150] Setting up detection_loss_3_3x5
I1012 02:58:51.806073 19298 net.cpp:157] Top shape: 1 1 1 2 (2)
I1012 02:58:51.806077 19298 net.cpp:160]     with loss weight 1
I1012 02:58:51.806082 19298 net.cpp:165] Memory required for data: 3352070392
I1012 02:58:51.806085 19298 layer_factory.hpp:76] Creating layer detection_accuracy_3_3x5
I1012 02:58:51.806092 19298 net.cpp:106] Creating Layer detection_accuracy_3_3x5
I1012 02:58:51.806097 19298 net.cpp:454] detection_accuracy_3_3x5 <- LFCN_3_3x5_LFCN_3_3x5_0_split_1
I1012 02:58:51.806100 19298 net.cpp:454] detection_accuracy_3_3x5 <- label_3_3x5_data_5_split_1
I1012 02:58:51.806105 19298 net.cpp:411] detection_accuracy_3_3x5 -> accuracy_3_3x5
I1012 02:58:51.806113 19298 net.cpp:411] detection_accuracy_3_3x5 -> boxiou_3_3x5
I1012 02:58:51.806156 19298 net.cpp:150] Setting up detection_accuracy_3_3x5
I1012 02:58:51.806161 19298 net.cpp:157] Top shape: 1 1 1 2 (2)
I1012 02:58:51.806164 19298 net.cpp:157] Top shape: 1 1 1 1 (1)
I1012 02:58:51.806167 19298 net.cpp:165] Memory required for data: 3352070404
I1012 02:58:51.806169 19298 layer_factory.hpp:76] Creating layer LFCN_3_5x7
I1012 02:58:51.806180 19298 net.cpp:106] Creating Layer LFCN_3_5x7
I1012 02:58:51.806185 19298 net.cpp:454] LFCN_3_5x7 <- conv6_1_relu6_1_0_split_1
I1012 02:58:51.806190 19298 net.cpp:411] LFCN_3_5x7 -> LFCN_3_5x7
I1012 02:58:51.811369 19298 net.cpp:150] Setting up LFCN_3_5x7
I1012 02:58:51.811383 19298 net.cpp:157] Top shape: 4 6 18 18 (7776)
I1012 02:58:51.811386 19298 net.cpp:165] Memory required for data: 3352101508
I1012 02:58:51.811393 19298 layer_factory.hpp:76] Creating layer LFCN_3_5x7_LFCN_3_5x7_0_split
I1012 02:58:51.811398 19298 net.cpp:106] Creating Layer LFCN_3_5x7_LFCN_3_5x7_0_split
I1012 02:58:51.811403 19298 net.cpp:454] LFCN_3_5x7_LFCN_3_5x7_0_split <- LFCN_3_5x7
I1012 02:58:51.811409 19298 net.cpp:411] LFCN_3_5x7_LFCN_3_5x7_0_split -> LFCN_3_5x7_LFCN_3_5x7_0_split_0
I1012 02:58:51.811415 19298 net.cpp:411] LFCN_3_5x7_LFCN_3_5x7_0_split -> LFCN_3_5x7_LFCN_3_5x7_0_split_1
I1012 02:58:51.811458 19298 net.cpp:150] Setting up LFCN_3_5x7_LFCN_3_5x7_0_split
I1012 02:58:51.811465 19298 net.cpp:157] Top shape: 4 6 18 18 (7776)
I1012 02:58:51.811470 19298 net.cpp:157] Top shape: 4 6 18 18 (7776)
I1012 02:58:51.811471 19298 net.cpp:165] Memory required for data: 3352163716
I1012 02:58:51.811475 19298 layer_factory.hpp:76] Creating layer detection_loss_3_5x7
I1012 02:58:51.811480 19298 net.cpp:106] Creating Layer detection_loss_3_5x7
I1012 02:58:51.811482 19298 net.cpp:454] detection_loss_3_5x7 <- LFCN_3_5x7_LFCN_3_5x7_0_split_0
I1012 02:58:51.811486 19298 net.cpp:454] detection_loss_3_5x7 <- label_3_5x7_data_6_split_0
I1012 02:58:51.811492 19298 net.cpp:411] detection_loss_3_5x7 -> loss_3_5x7
I1012 02:58:51.811499 19298 layer_factory.hpp:76] Creating layer detection_loss_3_5x7
I1012 02:58:51.812019 19298 net.cpp:150] Setting up detection_loss_3_5x7
I1012 02:58:51.812033 19298 net.cpp:157] Top shape: 1 1 1 2 (2)
I1012 02:58:51.812036 19298 net.cpp:160]     with loss weight 1
I1012 02:58:51.812042 19298 net.cpp:165] Memory required for data: 3352163724
I1012 02:58:51.812046 19298 layer_factory.hpp:76] Creating layer detection_accuracy_3_5x7
I1012 02:58:51.812052 19298 net.cpp:106] Creating Layer detection_accuracy_3_5x7
I1012 02:58:51.812055 19298 net.cpp:454] detection_accuracy_3_5x7 <- LFCN_3_5x7_LFCN_3_5x7_0_split_1
I1012 02:58:51.812060 19298 net.cpp:454] detection_accuracy_3_5x7 <- label_3_5x7_data_6_split_1
I1012 02:58:51.812065 19298 net.cpp:411] detection_accuracy_3_5x7 -> accuracy_3_5x7
I1012 02:58:51.812072 19298 net.cpp:411] detection_accuracy_3_5x7 -> boxiou_3_5x7
I1012 02:58:51.812116 19298 net.cpp:150] Setting up detection_accuracy_3_5x7
I1012 02:58:51.812122 19298 net.cpp:157] Top shape: 1 1 1 2 (2)
I1012 02:58:51.812125 19298 net.cpp:157] Top shape: 1 1 1 1 (1)
I1012 02:58:51.812129 19298 net.cpp:165] Memory required for data: 3352163736
I1012 02:58:51.812130 19298 layer_factory.hpp:76] Creating layer pool6
I1012 02:58:51.812136 19298 net.cpp:106] Creating Layer pool6
I1012 02:58:51.812139 19298 net.cpp:454] pool6 <- conv6_1_relu6_1_0_split_2
I1012 02:58:51.812145 19298 net.cpp:411] pool6 -> pool6
I1012 02:58:51.812363 19298 net.cpp:150] Setting up pool6
I1012 02:58:51.812373 19298 net.cpp:157] Top shape: 4 512 9 9 (165888)
I1012 02:58:51.812376 19298 net.cpp:165] Memory required for data: 3352827288
I1012 02:58:51.812379 19298 layer_factory.hpp:76] Creating layer LFCN_4_3x5
I1012 02:58:51.812387 19298 net.cpp:106] Creating Layer LFCN_4_3x5
I1012 02:58:51.812391 19298 net.cpp:454] LFCN_4_3x5 <- pool6
I1012 02:58:51.812397 19298 net.cpp:411] LFCN_4_3x5 -> LFCN_4_3x5
I1012 02:58:51.814998 19298 net.cpp:150] Setting up LFCN_4_3x5
I1012 02:58:51.815012 19298 net.cpp:157] Top shape: 4 6 9 9 (1944)
I1012 02:58:51.815016 19298 net.cpp:165] Memory required for data: 3352835064
I1012 02:58:51.815021 19298 layer_factory.hpp:76] Creating layer LFCN_4_3x5_LFCN_4_3x5_0_split
I1012 02:58:51.815029 19298 net.cpp:106] Creating Layer LFCN_4_3x5_LFCN_4_3x5_0_split
I1012 02:58:51.815032 19298 net.cpp:454] LFCN_4_3x5_LFCN_4_3x5_0_split <- LFCN_4_3x5
I1012 02:58:51.815038 19298 net.cpp:411] LFCN_4_3x5_LFCN_4_3x5_0_split -> LFCN_4_3x5_LFCN_4_3x5_0_split_0
I1012 02:58:51.815044 19298 net.cpp:411] LFCN_4_3x5_LFCN_4_3x5_0_split -> LFCN_4_3x5_LFCN_4_3x5_0_split_1
I1012 02:58:51.815093 19298 net.cpp:150] Setting up LFCN_4_3x5_LFCN_4_3x5_0_split
I1012 02:58:51.815099 19298 net.cpp:157] Top shape: 4 6 9 9 (1944)
I1012 02:58:51.815101 19298 net.cpp:157] Top shape: 4 6 9 9 (1944)
I1012 02:58:51.815104 19298 net.cpp:165] Memory required for data: 3352850616
I1012 02:58:51.815106 19298 layer_factory.hpp:76] Creating layer detection_loss_4_3x5
I1012 02:58:51.815114 19298 net.cpp:106] Creating Layer detection_loss_4_3x5
I1012 02:58:51.815116 19298 net.cpp:454] detection_loss_4_3x5 <- LFCN_4_3x5_LFCN_4_3x5_0_split_0
I1012 02:58:51.815120 19298 net.cpp:454] detection_loss_4_3x5 <- label_4_3x5_data_7_split_0
I1012 02:58:51.815125 19298 net.cpp:411] detection_loss_4_3x5 -> loss_4_3x5
I1012 02:58:51.815132 19298 layer_factory.hpp:76] Creating layer detection_loss_4_3x5
I1012 02:58:51.815649 19298 net.cpp:150] Setting up detection_loss_4_3x5
I1012 02:58:51.815661 19298 net.cpp:157] Top shape: 1 1 1 2 (2)
I1012 02:58:51.815663 19298 net.cpp:160]     with loss weight 1
I1012 02:58:51.815670 19298 net.cpp:165] Memory required for data: 3352850624
I1012 02:58:51.815672 19298 layer_factory.hpp:76] Creating layer detection_accuracy_4_3x5
I1012 02:58:51.815678 19298 net.cpp:106] Creating Layer detection_accuracy_4_3x5
I1012 02:58:51.815681 19298 net.cpp:454] detection_accuracy_4_3x5 <- LFCN_4_3x5_LFCN_4_3x5_0_split_1
I1012 02:58:51.815686 19298 net.cpp:454] detection_accuracy_4_3x5 <- label_4_3x5_data_7_split_1
I1012 02:58:51.815693 19298 net.cpp:411] detection_accuracy_4_3x5 -> accuracy_4_3x5
I1012 02:58:51.815699 19298 net.cpp:411] detection_accuracy_4_3x5 -> boxiou_4_3x5
I1012 02:58:51.815744 19298 net.cpp:150] Setting up detection_accuracy_4_3x5
I1012 02:58:51.815752 19298 net.cpp:157] Top shape: 1 1 1 2 (2)
I1012 02:58:51.815754 19298 net.cpp:157] Top shape: 1 1 1 1 (1)
I1012 02:58:51.815757 19298 net.cpp:165] Memory required for data: 3352850636
I1012 02:58:51.815759 19298 net.cpp:228] detection_accuracy_4_3x5 does not need backward computation.
I1012 02:58:51.815763 19298 net.cpp:226] detection_loss_4_3x5 needs backward computation.
I1012 02:58:51.815767 19298 net.cpp:226] LFCN_4_3x5_LFCN_4_3x5_0_split needs backward computation.
I1012 02:58:51.815769 19298 net.cpp:226] LFCN_4_3x5 needs backward computation.
…
I1012 02:58:51.823027 19298 image_gt_data_layer.cpp:234] output label size 1 : 2,6,72,72
I1012 02:58:51.823096 19298 image_gt_data_layer.cpp:234] output label size 2 : 2,6,36,36
I1012 02:58:51.823158 19298 image_gt_data_layer.cpp:234] output label size 3 : 2,6,36,36
I1012 02:58:51.823221 19298 image_gt_data_layer.cpp:234] output label size 4 : 2,6,18,18
I1012 02:58:51.823283 19298 image_gt_data_layer.cpp:234] output label size 5 : 2,6,18,18
I1012 02:58:51.823341 19298 image_gt_data_layer.cpp:234] output label size 6 : 2,6,9,9
I1012 02:58:51.839633 19298 net.cpp:150] Setting up data
I1012 02:58:51.839663 19298 net.cpp:157] Top shape: 2 3 576 576 (1990656)
I1012 02:58:51.839668 19298 net.cpp:157] Top shape: 2 6 72 72 (62208)
I1012 02:58:51.839670 19298 net.cpp:157] Top shape: 2 6 72 72 (62208)
I1012 02:58:51.839674 19298 net.cpp:157] Top shape: 2 6 36 36 (15552)
I1012 02:58:51.839678 19298 net.cpp:157] Top shape: 2 6 36 36 (15552)
I1012 02:58:51.839681 19298 net.cpp:157] Top shape: 2 6 18 18 (3888)
I1012 02:58:51.839684 19298 net.cpp:157] Top shape: 2 6 18 18 (3888)
I1012 02:58:51.839687 19298 net.cpp:157] Top shape: 2 6 9 9 (972)
I1012 02:58:51.839690 19298 net.cpp:165] Memory required for data: 8619696
I1012 02:58:51.839697 19298 layer_factory.hpp:76] Creating layer label_1_3x5_data_1_split
I1012 02:58:51.839711 19298 net.cpp:106] Creating Layer label_1_3x5_data_1_split
I1012 02:58:51.839715 19298 net.cpp:454] label_1_3x5_data_1_split <- label_1_3x5
I1012 02:58:51.839723 19298 net.cpp:411] label_1_3x5_data_1_split -> label_1_3x5_data_1_split_0
I1012 02:58:51.839733 19298 net.cpp:411] label_1_3x5_data_1_split -> label_1_3x5_data_1_split_1
I1012 02:58:51.839918 19298 net.cpp:150] Setting up label_1_3x5_data_1_split
I1012 02:58:51.839951 19298 net.cpp:157] Top shape: 2 6 72 72 (62208)
I1012 02:58:51.839959 19298 net.cpp:157] Top shape: 2 6 72 72 (62208)
I1012 02:58:51.839964 19298 net.cpp:165] Memory required for data: 9117360
I1012 02:58:51.839972 19298 layer_factory.hpp:76] Creating layer label_1_5x7_data_2_split
I1012 02:58:51.839985 19298 net.cpp:106] Creating Layer label_1_5x7_data_2_split
I1012 02:58:51.839993 19298 net.cpp:454] label_1_5x7_data_2_split <- label_1_5x7
I1012 02:58:51.840004 19298 net.cpp:411] label_1_5x7_data_2_split -> label_1_5x7_data_2_split_0
I1012 02:58:51.840018 19298 net.cpp:411] label_1_5x7_data_2_split -> label_1_5x7_data_2_split_1
I1012 02:58:51.840113 19298 net.cpp:150] Setting up label_1_5x7_data_2_split
I1012 02:58:51.840131 19298 net.cpp:157] Top shape: 2 6 72 72 (62208)
I1012 02:58:51.840139 19298 net.cpp:157] Top shape: 2 6 72 72 (62208)
I1012 02:58:51.840144 19298 net.cpp:165] Memory required for data: 9615024
I1012 02:58:51.840149 19298 layer_factory.hpp:76] Creating layer label_2_3x5_data_3_split
I1012 02:58:51.840158 19298 net.cpp:106] Creating Layer label_2_3x5_data_3_split
I1012 02:58:51.840164 19298 net.cpp:454] label_2_3x5_data_3_split <- label_2_3x5
I1012 02:58:51.840174 19298 net.cpp:411] label_2_3x5_data_3_split -> label_2_3x5_data_3_split_0
I1012 02:58:51.840185 19298 net.cpp:411] label_2_3x5_data_3_split -> label_2_3x5_data_3_split_1
I1012 02:58:51.840270 19298 net.cpp:150] Setting up label_2_3x5_data_3_split
I1012 02:58:51.840282 19298 net.cpp:157] Top shape: 2 6 36 36 (15552)
I1012 02:58:51.840291 19298 net.cpp:157] Top shape: 2 6 36 36 (15552)
I1012 02:58:51.840296 19298 net.cpp:165] Memory required for data: 9739440
I1012 02:58:51.840301 19298 layer_factory.hpp:76] Creating layer label_2_5x7_data_4_split
I1012 02:58:51.840311 19298 net.cpp:106] Creating Layer label_2_5x7_data_4_split
I1012 02:58:51.840317 19298 net.cpp:454] label_2_5x7_data_4_split <- label_2_5x7
I1012 02:58:51.840328 19298 net.cpp:411] label_2_5x7_data_4_split -> label_2_5x7_data_4_split_0
I1012 02:58:51.840339 19298 net.cpp:411] label_2_5x7_data_4_split -> label_2_5x7_data_4_split_1
I1012 02:58:51.840417 19298 net.cpp:150] Setting up label_2_5x7_data_4_split
I1012 02:58:51.840430 19298 net.cpp:157] Top shape: 2 6 36 36 (15552)
I1012 02:58:51.840436 19298 net.cpp:157] Top shape: 2 6 36 36 (15552)
I1012 02:58:51.840441 19298 net.cpp:165] Memory required for data: 9863856
I1012 02:58:51.840446 19298 layer_factory.hpp:76] Creating layer label_3_3x5_data_5_split
I1012 02:58:51.840457 19298 net.cpp:106] Creating Layer label_3_3x5_data_5_split
I1012 02:58:51.840463 19298 net.cpp:454] label_3_3x5_data_5_split <- label_3_3x5
I1012 02:58:51.840474 19298 net.cpp:411] label_3_3x5_data_5_split -> label_3_3x5_data_5_split_0
I1012 02:58:51.840488 19298 net.cpp:411] label_3_3x5_data_5_split -> label_3_3x5_data_5_split_1
I1012 02:58:51.840565 19298 net.cpp:150] Setting up label_3_3x5_data_5_split
I1012 02:58:51.840579 19298 net.cpp:157] Top shape: 2 6 18 18 (3888)
I1012 02:58:51.840586 19298 net.cpp:157] Top shape: 2 6 18 18 (3888)
I1012 02:58:51.840591 19298 net.cpp:165] Memory required for data: 9894960
I1012 02:58:51.840596 19298 layer_factory.hpp:76] Creating layer label_3_5x7_data_6_split
I1012 02:58:51.840605 19298 net.cpp:106] Creating Layer label_3_5x7_data_6_split
I1012 02:58:51.840610 19298 net.cpp:454] label_3_5x7_data_6_split <- label_3_5x7
I1012 02:58:51.840618 19298 net.cpp:411] label_3_5x7_data_6_split -> label_3_5x7_data_6_split_0
I1012 02:58:51.840627 19298 net.cpp:411] label_3_5x7_data_6_split -> label_3_5x7_data_6_split_1
I1012 02:58:51.840700 19298 net.cpp:150] Setting up label_3_5x7_data_6_split
I1012 02:58:51.840709 19298 net.cpp:157] Top shape: 2 6 18 18 (3888)
I1012 02:58:51.840716 19298 net.cpp:157] Top shape: 2 6 18 18 (3888)
I1012 02:58:51.840721 19298 net.cpp:165] Memory required for data: 9926064
I1012 02:58:51.840726 19298 layer_factory.hpp:76] Creating layer label_4_3x5_data_7_split
I1012 02:58:51.840734 19298 net.cpp:106] Creating Layer label_4_3x5_data_7_split
I1012 02:58:51.840739 19298 net.cpp:454] label_4_3x5_data_7_split <- label_4_3x5
I1012 02:58:51.840750 19298 net.cpp:411] label_4_3x5_data_7_split -> label_4_3x5_data_7_split_0
I1012 02:58:51.840759 19298 net.cpp:411] label_4_3x5_data_7_split -> label_4_3x5_data_7_split_1
I1012 02:58:51.840831 19298 net.cpp:150] Setting up label_4_3x5_data_7_split
I1012 02:58:51.840842 19298 net.cpp:157] Top shape: 2 6 9 9 (972)
I1012 02:58:51.840848 19298 net.cpp:157] Top shape: 2 6 9 9 (972)
I1012 02:58:51.840853 19298 net.cpp:165] Memory required for data: 9933840
I1012 02:58:51.840858 19298 layer_factory.hpp:76] Creating layer conv1_1
I1012 02:58:51.840873 19298 net.cpp:106] Creating Layer conv1_1
I1012 02:58:51.840878 19298 net.cpp:454] conv1_1 <- data
I1012 02:58:51.840888 19298 net.cpp:411] conv1_1 -> conv1_1
I1012 02:58:51.844717 19298 net.cpp:150] Setting up conv1_1
I1012 02:58:51.844750 19298 net.cpp:157] Top shape: 2 64 576 576 (42467328)
I1012 02:58:51.844761 19298 net.cpp:165] Memory required for data: 179803152
I1012 02:58:51.844790 19298 layer_factory.hpp:76] Creating layer relu1_1
I1012 02:58:51.844807 19298 net.cpp:106] Creating Layer relu1_1
I1012 02:58:51.844818 19298 net.cpp:454] relu1_1 <- conv1_1
I1012 02:58:51.844835 19298 net.cpp:397] relu1_1 -> conv1_1 (in-place)
I1012 02:58:51.845784 19298 net.cpp:150] Setting up relu1_1
I1012 02:58:51.845818 19298 net.cpp:157] Top shape: 2 64 576 576 (42467328)
I1012 02:58:51.845829 19298 net.cpp:165] Memory required for data: 349672464
I1012 02:58:51.845839 19298 layer_factory.hpp:76] Creating layer conv1_2
I1012 02:58:51.845866 19298 net.cpp:106] Creating Layer conv1_2
I1012 02:58:51.845880 19298 net.cpp:454] conv1_2 <- conv1_1
I1012 02:58:51.845902 19298 net.cpp:411] conv1_2 -> conv1_2
I1012 02:58:51.853484 19298 net.cpp:150] Setting up conv1_2
I1012 02:58:51.853523 19298 net.cpp:157] Top shape: 2 64 576 576 (42467328)
I1012 02:58:51.853535 19298 net.cpp:165] Memory required for data: 519541776
I1012 02:58:51.853569 19298 layer_factory.hpp:76] Creating layer relu1_2
I1012 02:58:51.853586 19298 net.cpp:106] Creating Layer relu1_2
I1012 02:58:51.853597 19298 net.cpp:454] relu1_2 <- conv1_2
I1012 02:58:51.853617 19298 net.cpp:397] relu1_2 -> conv1_2 (in-place)
I1012 02:58:51.854158 19298 net.cpp:150] Setting up relu1_2
I1012 02:58:51.854187 19298 net.cpp:157] Top shape: 2 64 576 576 (42467328)
I1012 02:58:51.854195 19298 net.cpp:165] Memory required for data: 689411088
I1012 02:58:51.854207 19298 layer_factory.hpp:76] Creating layer pool1
I1012 02:58:51.854228 19298 net.cpp:106] Creating Layer pool1
I1012 02:58:51.854243 19298 net.cpp:454] pool1 <- conv1_2
I1012 02:58:51.854259 19298 net.cpp:411] pool1 -> pool1
I1012 02:58:51.855234 19298 net.cpp:150] Setting up pool1
I1012 02:58:51.855265 19298 net.cpp:157] Top shape: 2 64 288 288 (10616832)
I1012 02:58:51.855274 19298 net.cpp:165] Memory required for data: 731878416
I1012 02:58:51.855284 19298 layer_factory.hpp:76] Creating layer conv2_1
I1012 02:58:51.855304 19298 net.cpp:106] Creating Layer conv2_1
I1012 02:58:51.855314 19298 net.cpp:454] conv2_1 <- pool1
I1012 02:58:51.855336 19298 net.cpp:411] conv2_1 -> conv2_1
I1012 02:58:51.858500 19298 net.cpp:150] Setting up conv2_1
I1012 02:58:51.858532 19298 net.cpp:157] Top shape: 2 128 288 288 (21233664)
I1012 02:58:51.858542 19298 net.cpp:165] Memory required for data: 816813072
I1012 02:58:51.858567 19298 layer_factory.hpp:76] Creating layer relu2_1
I1012 02:58:51.858585 19298 net.cpp:106] Creating Layer relu2_1
I1012 02:58:51.858597 19298 net.cpp:454] relu2_1 <- conv2_1
I1012 02:58:51.858609 19298 net.cpp:397] relu2_1 -> conv2_1 (in-place)
I1012 02:58:51.859124 19298 net.cpp:150] Setting up relu2_1
I1012 02:58:51.859151 19298 net.cpp:157] Top shape: 2 128 288 288 (21233664)
I1012 02:58:51.859160 19298 net.cpp:165] Memory required for data: 901747728
I1012 02:58:51.859169 19298 layer_factory.hpp:76] Creating layer conv2_2
I1012 02:58:51.859190 19298 net.cpp:106] Creating Layer conv2_2
I1012 02:58:51.859200 19298 net.cpp:454] conv2_2 <- conv2_1
I1012 02:58:51.859215 19298 net.cpp:411] conv2_2 -> conv2_2
I1012 02:58:51.863720 19298 net.cpp:150] Setting up conv2_2
I1012 02:58:51.863759 19298 net.cpp:157] Top shape: 2 128 288 288 (21233664)
I1012 02:58:51.863770 19298 net.cpp:165] Memory required for data: 986682384
I1012 02:58:51.863787 19298 layer_factory.hpp:76] Creating layer relu2_2
I1012 02:58:51.863806 19298 net.cpp:106] Creating Layer relu2_2
I1012 02:58:51.863818 19298 net.cpp:454] relu2_2 <- conv2_2
I1012 02:58:51.863831 19298 net.cpp:397] relu2_2 -> conv2_2 (in-place)
I1012 02:58:51.864562 19298 net.cpp:150] Setting up relu2_2
I1012 02:58:51.864589 19298 net.cpp:157] Top shape: 2 128 288 288 (21233664)
I1012 02:58:51.864598 19298 net.cpp:165] Memory required for data: 1071617040
I1012 02:58:51.864608 19298 layer_factory.hpp:76] Creating layer pool2
I1012 02:58:51.864622 19298 net.cpp:106] Creating Layer pool2
I1012 02:58:51.864631 19298 net.cpp:454] pool2 <- conv2_2
I1012 02:58:51.864647 19298 net.cpp:411] pool2 -> pool2
I1012 02:58:51.865217 19298 net.cpp:150] Setting up pool2
I1012 02:58:51.865242 19298 net.cpp:157] Top shape: 2 128 144 144 (5308416)
I1012 02:58:51.865257 19298 net.cpp:165] Memory required for data: 1092850704
I1012 02:58:51.865265 19298 layer_factory.hpp:76] Creating layer conv3_1
I1012 02:58:51.865280 19298 net.cpp:106] Creating Layer conv3_1
I1012 02:58:51.865289 19298 net.cpp:454] conv3_1 <- pool2
I1012 02:58:51.865306 19298 net.cpp:411] conv3_1 -> conv3_1
I1012 02:58:51.869798 19298 net.cpp:150] Setting up conv3_1
I1012 02:58:51.869830 19298 net.cpp:157] Top shape: 2 256 144 144 (10616832)
I1012 02:58:51.869839 19298 net.cpp:165] Memory required for data: 1135318032
I1012 02:58:51.869863 19298 layer_factory.hpp:76] Creating layer relu3_1
I1012 02:58:51.869879 19298 net.cpp:106] Creating Layer relu3_1
I1012 02:58:51.869887 19298 net.cpp:454] relu3_1 <- conv3_1
I1012 02:58:51.869904 19298 net.cpp:397] relu3_1 -> conv3_1 (in-place)
I1012 02:58:51.870360 19298 net.cpp:150] Setting up relu3_1
I1012 02:58:51.870383 19298 net.cpp:157] Top shape: 2 256 144 144 (10616832)
I1012 02:58:51.870391 19298 net.cpp:165] Memory required for data: 1177785360
I1012 02:58:51.870399 19298 layer_factory.hpp:76] Creating layer conv3_2
I1012 02:58:51.870419 19298 net.cpp:106] Creating Layer conv3_2
I1012 02:58:51.870427 19298 net.cpp:454] conv3_2 <- conv3_1
I1012 02:58:51.870443 19298 net.cpp:411] conv3_2 -> conv3_2
I1012 02:58:51.876250 19298 net.cpp:150] Setting up conv3_2
I1012 02:58:51.876278 19298 net.cpp:157] Top shape: 2 256 144 144 (10616832)
I1012 02:58:51.876286 19298 net.cpp:165] Memory required for data: 1220252688
I1012 02:58:51.876302 19298 layer_factory.hpp:76] Creating layer relu3_2
I1012 02:58:51.876317 19298 net.cpp:106] Creating Layer relu3_2
I1012 02:58:51.876327 19298 net.cpp:454] relu3_2 <- conv3_2
I1012 02:58:51.876338 19298 net.cpp:397] relu3_2 -> conv3_2 (in-place)
I1012 02:58:51.877022 19298 net.cpp:150] Setting up relu3_2
I1012 02:58:51.877046 19298 net.cpp:157] Top shape: 2 256 144 144 (10616832)
I1012 02:58:51.877056 19298 net.cpp:165] Memory required for data: 1262720016
I1012 02:58:51.877063 19298 layer_factory.hpp:76] Creating layer conv3_3
I1012 02:58:51.877087 19298 net.cpp:106] Creating Layer conv3_3
I1012 02:58:51.877097 19298 net.cpp:454] conv3_3 <- conv3_2
I1012 02:58:51.877110 19298 net.cpp:411] conv3_3 -> conv3_3
I1012 02:58:51.883492 19298 net.cpp:150] Setting up conv3_3
I1012 02:58:51.883522 19298 net.cpp:157] Top shape: 2 256 144 144 (10616832)
I1012 02:58:51.883532 19298 net.cpp:165] Memory required for data: 1305187344
I1012 02:58:51.883546 19298 layer_factory.hpp:76] Creating layer relu3_3
I1012 02:58:51.883563 19298 net.cpp:106] Creating Layer relu3_3
I1012 02:58:51.883572 19298 net.cpp:454] relu3_3 <- conv3_3
I1012 02:58:51.883585 19298 net.cpp:397] relu3_3 -> conv3_3 (in-place)
I1012 02:58:51.884039 19298 net.cpp:150] Setting up relu3_3
I1012 02:58:51.884062 19298 net.cpp:157] Top shape: 2 256 144 144 (10616832)
I1012 02:58:51.884069 19298 net.cpp:165] Memory required for data: 1347654672
I1012 02:58:51.884078 19298 layer_factory.hpp:76] Creating layer pool3
I1012 02:58:51.884090 19298 net.cpp:106] Creating Layer pool3
I1012 02:58:51.884106 19298 net.cpp:454] pool3 <- conv3_3
I1012 02:58:51.884124 19298 net.cpp:411] pool3 -> pool3
I1012 02:58:51.884896 19298 net.cpp:150] Setting up pool3
I1012 02:58:51.884923 19298 net.cpp:157] Top shape: 2 256 72 72 (2654208)
I1012 02:58:51.884932 19298 net.cpp:165] Memory required for data: 1358271504
I1012 02:58:51.884940 19298 layer_factory.hpp:76] Creating layer conv4_1
I1012 02:58:51.884958 19298 net.cpp:106] Creating Layer conv4_1
I1012 02:58:51.884966 19298 net.cpp:454] conv4_1 <- pool3
I1012 02:58:51.884979 19298 net.cpp:411] conv4_1 -> conv4_1
I1012 02:58:51.892496 19298 net.cpp:150] Setting up conv4_1
I1012 02:58:51.892525 19298 net.cpp:157] Top shape: 2 512 72 72 (5308416)
I1012 02:58:51.892534 19298 net.cpp:165] Memory required for data: 1379505168
I1012 02:58:51.892549 19298 layer_factory.hpp:76] Creating layer relu4_1
I1012 02:58:51.892562 19298 net.cpp:106] Creating Layer relu4_1
I1012 02:58:51.892570 19298 net.cpp:454] relu4_1 <- conv4_1
I1012 02:58:51.892585 19298 net.cpp:397] relu4_1 -> conv4_1 (in-place)
I1012 02:58:51.893518 19298 net.cpp:150] Setting up relu4_1
I1012 02:58:51.893544 19298 net.cpp:157] Top shape: 2 512 72 72 (5308416)
I1012 02:58:51.893551 19298 net.cpp:165] Memory required for data: 1400738832
I1012 02:58:51.893559 19298 layer_factory.hpp:76] Creating layer conv4_2
I1012 02:58:51.893581 19298 net.cpp:106] Creating Layer conv4_2
I1012 02:58:51.893590 19298 net.cpp:454] conv4_2 <- conv4_1
I1012 02:58:51.893610 19298 net.cpp:411] conv4_2 -> conv4_2
I1012 02:58:51.903847 19298 net.cpp:150] Setting up conv4_2
I1012 02:58:51.903882 19298 net.cpp:157] Top shape: 2 512 72 72 (5308416)
I1012 02:58:51.903887 19298 net.cpp:165] Memory required for data: 1421972496
I1012 02:58:51.903904 19298 layer_factory.hpp:76] Creating layer relu4_2
I1012 02:58:51.903915 19298 net.cpp:106] Creating Layer relu4_2
I1012 02:58:51.903921 19298 net.cpp:454] relu4_2 <- conv4_2
I1012 02:58:51.903928 19298 net.cpp:397] relu4_2 -> conv4_2 (in-place)
I1012 02:58:51.904213 19298 net.cpp:150] Setting up relu4_2
I1012 02:58:51.904227 19298 net.cpp:157] Top shape: 2 512 72 72 (5308416)
I1012 02:58:51.904232 19298 net.cpp:165] Memory required for data: 1443206160
I1012 02:58:51.904237 19298 layer_factory.hpp:76] Creating layer conv4_3
I1012 02:58:51.904247 19298 net.cpp:106] Creating Layer conv4_3
I1012 02:58:51.904253 19298 net.cpp:454] conv4_3 <- conv4_2
I1012 02:58:51.904259 19298 net.cpp:411] conv4_3 -> conv4_3
I1012 02:58:51.913164 19298 net.cpp:150] Setting up conv4_3
I1012 02:58:51.913193 19298 net.cpp:157] Top shape: 2 512 72 72 (5308416)
I1012 02:58:51.913198 19298 net.cpp:165] Memory required for data: 1464439824
I1012 02:58:51.913216 19298 layer_factory.hpp:76] Creating layer relu4_3
I1012 02:58:51.913228 19298 net.cpp:106] Creating Layer relu4_3
I1012 02:58:51.913233 19298 net.cpp:454] relu4_3 <- conv4_3
I1012 02:58:51.913244 19298 net.cpp:397] relu4_3 -> conv4_3 (in-place)
I1012 02:58:51.913739 19298 net.cpp:150] Setting up relu4_3
I1012 02:58:51.913756 19298 net.cpp:157] Top shape: 2 512 72 72 (5308416)
I1012 02:58:51.913761 19298 net.cpp:165] Memory required for data: 1485673488
I1012 02:58:51.913766 19298 layer_factory.hpp:76] Creating layer conv4_3_relu4_3_0_split
I1012 02:58:51.913782 19298 net.cpp:106] Creating Layer conv4_3_relu4_3_0_split
I1012 02:58:51.913787 19298 net.cpp:454] conv4_3_relu4_3_0_split <- conv4_3
I1012 02:58:51.913795 19298 net.cpp:411] conv4_3_relu4_3_0_split -> conv4_3_relu4_3_0_split_0
I1012 02:58:51.913805 19298 net.cpp:411] conv4_3_relu4_3_0_split -> conv4_3_relu4_3_0_split_1
I1012 02:58:51.913883 19298 net.cpp:150] Setting up conv4_3_relu4_3_0_split
I1012 02:58:51.913894 19298 net.cpp:157] Top shape: 2 512 72 72 (5308416)
I1012 02:58:51.913899 19298 net.cpp:157] Top shape: 2 512 72 72 (5308416)
I1012 02:58:51.913903 19298 net.cpp:165] Memory required for data: 1528140816
I1012 02:58:51.913908 19298 layer_factory.hpp:76] Creating layer loss1_conv1
I1012 02:58:51.913926 19298 net.cpp:106] Creating Layer loss1_conv1
I1012 02:58:51.913931 19298 net.cpp:454] loss1_conv1 <- conv4_3_relu4_3_0_split_0
I1012 02:58:51.913941 19298 net.cpp:411] loss1_conv1 -> loss1_conv1
I1012 02:58:52.012523 19298 net.cpp:150] Setting up loss1_conv1
I1012 02:58:52.012555 19298 net.cpp:157] Top shape: 2 512 72 72 (5308416)
I1012 02:58:52.012559 19298 net.cpp:165] Memory required for data: 1549374480
I1012 02:58:52.012567 19298 layer_factory.hpp:76] Creating layer loss_relu1
I1012 02:58:52.012583 19298 net.cpp:106] Creating Layer loss_relu1
I1012 02:58:52.012588 19298 net.cpp:454] loss_relu1 <- loss1_conv1
I1012 02:58:52.012593 19298 net.cpp:397] loss_relu1 -> loss1_conv1 (in-place)
I1012 02:58:52.012964 19298 net.cpp:150] Setting up loss_relu1
I1012 02:58:52.012977 19298 net.cpp:157] Top shape: 2 512 72 72 (5308416)
I1012 02:58:52.012980 19298 net.cpp:165] Memory required for data: 1570608144
I1012 02:58:52.012984 19298 layer_factory.hpp:76] Creating layer loss1_conv1_loss_relu1_0_split
I1012 02:58:52.012990 19298 net.cpp:106] Creating Layer loss1_conv1_loss_relu1_0_split
I1012 02:58:52.012995 19298 net.cpp:454] loss1_conv1_loss_relu1_0_split <- loss1_conv1
I1012 02:58:52.013000 19298 net.cpp:411] loss1_conv1_loss_relu1_0_split -> loss1_conv1_loss_relu1_0_split_0
I1012 02:58:52.013007 19298 net.cpp:411] loss1_conv1_loss_relu1_0_split -> loss1_conv1_loss_relu1_0_split_1
I1012 02:58:52.013064 19298 net.cpp:150] Setting up loss1_conv1_loss_relu1_0_split
I1012 02:58:52.013072 19298 net.cpp:157] Top shape: 2 512 72 72 (5308416)
I1012 02:58:52.013077 19298 net.cpp:157] Top shape: 2 512 72 72 (5308416)
I1012 02:58:52.013079 19298 net.cpp:165] Memory required for data: 1613075472
I1012 02:58:52.013082 19298 layer_factory.hpp:76] Creating layer LFCN_1_3x5
I1012 02:58:52.013092 19298 net.cpp:106] Creating Layer LFCN_1_3x5
I1012 02:58:52.013097 19298 net.cpp:454] LFCN_1_3x5 <- loss1_conv1_loss_relu1_0_split_0
I1012 02:58:52.013103 19298 net.cpp:411] LFCN_1_3x5 -> LFCN_1_3x5
I1012 02:58:52.015998 19298 net.cpp:150] Setting up LFCN_1_3x5
I1012 02:58:52.016013 19298 net.cpp:157] Top shape: 2 6 72 72 (62208)
I1012 02:58:52.016016 19298 net.cpp:165] Memory required for data: 1613324304
I1012 02:58:52.016023 19298 layer_factory.hpp:76] Creating layer LFCN_1_3x5_LFCN_1_3x5_0_split
I1012 02:58:52.016037 19298 net.cpp:106] Creating Layer LFCN_1_3x5_LFCN_1_3x5_0_split
I1012 02:58:52.016041 19298 net.cpp:454] LFCN_1_3x5_LFCN_1_3x5_0_split <- LFCN_1_3x5
I1012 02:58:52.016047 19298 net.cpp:411] LFCN_1_3x5_LFCN_1_3x5_0_split -> LFCN_1_3x5_LFCN_1_3x5_0_split_0
I1012 02:58:52.016053 19298 net.cpp:411] LFCN_1_3x5_LFCN_1_3x5_0_split -> LFCN_1_3x5_LFCN_1_3x5_0_split_1
I1012 02:58:52.016109 19298 net.cpp:150] Setting up LFCN_1_3x5_LFCN_1_3x5_0_split
I1012 02:58:52.016119 19298 net.cpp:157] Top shape: 2 6 72 72 (62208)
I1012 02:58:52.016122 19298 net.cpp:157] Top shape: 2 6 72 72 (62208)
I1012 02:58:52.016124 19298 net.cpp:165] Memory required for data: 1613821968
I1012 02:58:52.016129 19298 layer_factory.hpp:76] Creating layer detection_loss_1_3x5
I1012 02:58:52.016135 19298 net.cpp:106] Creating Layer detection_loss_1_3x5
I1012 02:58:52.016139 19298 net.cpp:454] detection_loss_1_3x5 <- LFCN_1_3x5_LFCN_1_3x5_0_split_0
I1012 02:58:52.016144 19298 net.cpp:454] detection_loss_1_3x5 <- label_1_3x5_data_1_split_0
I1012 02:58:52.016149 19298 net.cpp:411] detection_loss_1_3x5 -> loss_1_3x5
I1012 02:58:52.016157 19298 layer_factory.hpp:76] Creating layer detection_loss_1_3x5
I1012 02:58:52.016607 19298 net.cpp:150] Setting up detection_loss_1_3x5
I1012 02:58:52.016619 19298 net.cpp:157] Top shape: 1 1 1 2 (2)
I1012 02:58:52.016623 19298 net.cpp:160]     with loss weight 0.9
I1012 02:58:52.016634 19298 net.cpp:165] Memory required for data: 1613821976
I1012 02:58:52.016638 19298 layer_factory.hpp:76] Creating layer detection_accuracy_1_3x5
I1012 02:58:52.016645 19298 net.cpp:106] Creating Layer detection_accuracy_1_3x5
I1012 02:58:52.016649 19298 net.cpp:454] detection_accuracy_1_3x5 <- LFCN_1_3x5_LFCN_1_3x5_0_split_1
I1012 02:58:52.016654 19298 net.cpp:454] detection_accuracy_1_3x5 <- label_1_3x5_data_1_split_1
I1012 02:58:52.016661 19298 net.cpp:411] detection_accuracy_1_3x5 -> accuracy_1_3x5
I1012 02:58:52.016669 19298 net.cpp:411] detection_accuracy_1_3x5 -> boxiou_1_3x5
I1012 02:58:52.016721 19298 net.cpp:150] Setting up detection_accuracy_1_3x5
I1012 02:58:52.016729 19298 net.cpp:157] Top shape: 1 1 1 2 (2)
I1012 02:58:52.016733 19298 net.cpp:157] Top shape: 1 1 1 1 (1)
I1012 02:58:52.016736 19298 net.cpp:165] Memory required for data: 1613821988
I1012 02:58:52.016739 19298 layer_factory.hpp:76] Creating layer LFCN_1_5x7
I1012 02:58:52.016746 19298 net.cpp:106] Creating Layer LFCN_1_5x7
I1012 02:58:52.016749 19298 net.cpp:454] LFCN_1_5x7 <- loss1_conv1_loss_relu1_0_split_1
I1012 02:58:52.016755 19298 net.cpp:411] LFCN_1_5x7 -> LFCN_1_5x7
I1012 02:58:52.022299 19298 net.cpp:150] Setting up LFCN_1_5x7
I1012 02:58:52.022313 19298 net.cpp:157] Top shape: 2 6 72 72 (62208)
I1012 02:58:52.022317 19298 net.cpp:165] Memory required for data: 1614070820
I1012 02:58:52.022323 19298 layer_factory.hpp:76] Creating layer LFCN_1_5x7_LFCN_1_5x7_0_split
I1012 02:58:52.022338 19298 net.cpp:106] Creating Layer LFCN_1_5x7_LFCN_1_5x7_0_split
I1012 02:58:52.022342 19298 net.cpp:454] LFCN_1_5x7_LFCN_1_5x7_0_split <- LFCN_1_5x7
I1012 02:58:52.022349 19298 net.cpp:411] LFCN_1_5x7_LFCN_1_5x7_0_split -> LFCN_1_5x7_LFCN_1_5x7_0_split_0
I1012 02:58:52.022356 19298 net.cpp:411] LFCN_1_5x7_LFCN_1_5x7_0_split -> LFCN_1_5x7_LFCN_1_5x7_0_split_1
I1012 02:58:52.022410 19298 net.cpp:150] Setting up LFCN_1_5x7_LFCN_1_5x7_0_split
I1012 02:58:52.022418 19298 net.cpp:157] Top shape: 2 6 72 72 (62208)
I1012 02:58:52.022423 19298 net.cpp:157] Top shape: 2 6 72 72 (62208)
I1012 02:58:52.022426 19298 net.cpp:165] Memory required for data: 1614568484
I1012 02:58:52.022429 19298 layer_factory.hpp:76] Creating layer detection_loss_1_5x7
I1012 02:58:52.022435 19298 net.cpp:106] Creating Layer detection_loss_1_5x7
I1012 02:58:52.022439 19298 net.cpp:454] detection_loss_1_5x7 <- LFCN_1_5x7_LFCN_1_5x7_0_split_0
I1012 02:58:52.022444 19298 net.cpp:454] detection_loss_1_5x7 <- label_1_5x7_data_2_split_0
I1012 02:58:52.022450 19298 net.cpp:411] detection_loss_1_5x7 -> loss_1_5x7
I1012 02:58:52.022457 19298 layer_factory.hpp:76] Creating layer detection_loss_1_5x7
I1012 02:58:52.023079 19298 net.cpp:150] Setting up detection_loss_1_5x7
I1012 02:58:52.023093 19298 net.cpp:157] Top shape: 1 1 1 2 (2)
I1012 02:58:52.023097 19298 net.cpp:160]     with loss weight 0.9
I1012 02:58:52.023102 19298 net.cpp:165] Memory required for data: 1614568492
I1012 02:58:52.023107 19298 layer_factory.hpp:76] Creating layer detection_accuracy_1_5x7
I1012 02:58:52.023113 19298 net.cpp:106] Creating Layer detection_accuracy_1_5x7
I1012 02:58:52.023119 19298 net.cpp:454] detection_accuracy_1_5x7 <- LFCN_1_5x7_LFCN_1_5x7_0_split_1
I1012 02:58:52.023125 19298 net.cpp:454] detection_accuracy_1_5x7 <- label_1_5x7_data_2_split_1
I1012 02:58:52.023130 19298 net.cpp:411] detection_accuracy_1_5x7 -> accuracy_1_5x7
I1012 02:58:52.023136 19298 net.cpp:411] detection_accuracy_1_5x7 -> boxiou_1_5x7
I1012 02:58:52.023190 19298 net.cpp:150] Setting up detection_accuracy_1_5x7
I1012 02:58:52.023200 19298 net.cpp:157] Top shape: 1 1 1 2 (2)
I1012 02:58:52.023203 19298 net.cpp:157] Top shape: 1 1 1 1 (1)
I1012 02:58:52.023205 19298 net.cpp:165] Memory required for data: 1614568504
I1012 02:58:52.023208 19298 layer_factory.hpp:76] Creating layer pool4
I1012 02:58:52.023214 19298 net.cpp:106] Creating Layer pool4
I1012 02:58:52.023218 19298 net.cpp:454] pool4 <- conv4_3_relu4_3_0_split_1
I1012 02:58:52.023224 19298 net.cpp:411] pool4 -> pool4
I1012 02:58:52.023473 19298 net.cpp:150] Setting up pool4
I1012 02:58:52.023483 19298 net.cpp:157] Top shape: 2 512 36 36 (1327104)
I1012 02:58:52.023488 19298 net.cpp:165] Memory required for data: 1619876920
I1012 02:58:52.023490 19298 layer_factory.hpp:76] Creating layer conv5_1
I1012 02:58:52.023497 19298 net.cpp:106] Creating Layer conv5_1
I1012 02:58:52.023501 19298 net.cpp:454] conv5_1 <- pool4
I1012 02:58:52.023507 19298 net.cpp:411] conv5_1 -> conv5_1
I1012 02:58:52.030107 19298 net.cpp:150] Setting up conv5_1
I1012 02:58:52.030125 19298 net.cpp:157] Top shape: 2 512 36 36 (1327104)
I1012 02:58:52.030129 19298 net.cpp:165] Memory required for data: 1625185336
I1012 02:58:52.030136 19298 layer_factory.hpp:76] Creating layer relu5_1
I1012 02:58:52.030151 19298 net.cpp:106] Creating Layer relu5_1
I1012 02:58:52.030156 19298 net.cpp:454] relu5_1 <- conv5_1
I1012 02:58:52.030164 19298 net.cpp:397] relu5_1 -> conv5_1 (in-place)
I1012 02:58:52.030580 19298 net.cpp:150] Setting up relu5_1
I1012 02:58:52.030594 19298 net.cpp:157] Top shape: 2 512 36 36 (1327104)
I1012 02:58:52.030603 19298 net.cpp:165] Memory required for data: 1630493752
I1012 02:58:52.030606 19298 layer_factory.hpp:76] Creating layer conv5_2
I1012 02:58:52.030616 19298 net.cpp:106] Creating Layer conv5_2
I1012 02:58:52.030625 19298 net.cpp:454] conv5_2 <- conv5_1
I1012 02:58:52.030630 19298 net.cpp:411] conv5_2 -> conv5_2
I1012 02:58:52.037277 19298 net.cpp:150] Setting up conv5_2
I1012 02:58:52.037295 19298 net.cpp:157] Top shape: 2 512 36 36 (1327104)
I1012 02:58:52.037298 19298 net.cpp:165] Memory required for data: 1635802168
I1012 02:58:52.037305 19298 layer_factory.hpp:76] Creating layer relu5_2
I1012 02:58:52.037312 19298 net.cpp:106] Creating Layer relu5_2
I1012 02:58:52.037318 19298 net.cpp:454] relu5_2 <- conv5_2
I1012 02:58:52.037325 19298 net.cpp:397] relu5_2 -> conv5_2 (in-place)
I1012 02:58:52.037714 19298 net.cpp:150] Setting up relu5_2
I1012 02:58:52.037727 19298 net.cpp:157] Top shape: 2 512 36 36 (1327104)
I1012 02:58:52.037735 19298 net.cpp:165] Memory required for data: 1641110584
I1012 02:58:52.037739 19298 layer_factory.hpp:76] Creating layer conv5_3
I1012 02:58:52.037747 19298 net.cpp:106] Creating Layer conv5_3
I1012 02:58:52.037758 19298 net.cpp:454] conv5_3 <- conv5_2
I1012 02:58:52.037765 19298 net.cpp:411] conv5_3 -> conv5_3
I1012 02:58:52.044407 19298 net.cpp:150] Setting up conv5_3
I1012 02:58:52.044425 19298 net.cpp:157] Top shape: 2 512 36 36 (1327104)
I1012 02:58:52.044427 19298 net.cpp:165] Memory required for data: 1646419000
I1012 02:58:52.044435 19298 layer_factory.hpp:76] Creating layer relu5_3
I1012 02:58:52.044447 19298 net.cpp:106] Creating Layer relu5_3
I1012 02:58:52.044451 19298 net.cpp:454] relu5_3 <- conv5_3
I1012 02:58:52.044458 19298 net.cpp:397] relu5_3 -> conv5_3 (in-place)
I1012 02:58:52.044670 19298 net.cpp:150] Setting up relu5_3
I1012 02:58:52.044680 19298 net.cpp:157] Top shape: 2 512 36 36 (1327104)
I1012 02:58:52.044684 19298 net.cpp:165] Memory required for data: 1651727416
I1012 02:58:52.044687 19298 layer_factory.hpp:76] Creating layer conv5_3_relu5_3_0_split
I1012 02:58:52.044694 19298 net.cpp:106] Creating Layer conv5_3_relu5_3_0_split
I1012 02:58:52.044698 19298 net.cpp:454] conv5_3_relu5_3_0_split <- conv5_3
I1012 02:58:52.044703 19298 net.cpp:411] conv5_3_relu5_3_0_split -> conv5_3_relu5_3_0_split_0
I1012 02:58:52.044709 19298 net.cpp:411] conv5_3_relu5_3_0_split -> conv5_3_relu5_3_0_split_1
I1012 02:58:52.044716 19298 net.cpp:411] conv5_3_relu5_3_0_split -> conv5_3_relu5_3_0_split_2
I1012 02:58:52.044793 19298 net.cpp:150] Setting up conv5_3_relu5_3_0_split
I1012 02:58:52.044801 19298 net.cpp:157] Top shape: 2 512 36 36 (1327104)
I1012 02:58:52.044806 19298 net.cpp:157] Top shape: 2 512 36 36 (1327104)
I1012 02:58:52.044808 19298 net.cpp:157] Top shape: 2 512 36 36 (1327104)
I1012 02:58:52.044811 19298 net.cpp:165] Memory required for data: 1667652664
I1012 02:58:52.044814 19298 layer_factory.hpp:76] Creating layer LFCN_2_3x5
I1012 02:58:52.044823 19298 net.cpp:106] Creating Layer LFCN_2_3x5
I1012 02:58:52.044826 19298 net.cpp:454] LFCN_2_3x5 <- conv5_3_relu5_3_0_split_0
I1012 02:58:52.044833 19298 net.cpp:411] LFCN_2_3x5 -> LFCN_2_3x5
I1012 02:58:52.047775 19298 net.cpp:150] Setting up LFCN_2_3x5
I1012 02:58:52.047791 19298 net.cpp:157] Top shape: 2 6 36 36 (15552)
I1012 02:58:52.047794 19298 net.cpp:165] Memory required for data: 1667714872
I1012 02:58:52.047811 19298 layer_factory.hpp:76] Creating layer LFCN_2_3x5_LFCN_2_3x5_0_split
I1012 02:58:52.047816 19298 net.cpp:106] Creating Layer LFCN_2_3x5_LFCN_2_3x5_0_split
I1012 02:58:52.047821 19298 net.cpp:454] LFCN_2_3x5_LFCN_2_3x5_0_split <- LFCN_2_3x5
I1012 02:58:52.047828 19298 net.cpp:411] LFCN_2_3x5_LFCN_2_3x5_0_split -> LFCN_2_3x5_LFCN_2_3x5_0_split_0
I1012 02:58:52.047835 19298 net.cpp:411] LFCN_2_3x5_LFCN_2_3x5_0_split -> LFCN_2_3x5_LFCN_2_3x5_0_split_1
I1012 02:58:52.047893 19298 net.cpp:150] Setting up LFCN_2_3x5_LFCN_2_3x5_0_split
I1012 02:58:52.047900 19298 net.cpp:157] Top shape: 2 6 36 36 (15552)
I1012 02:58:52.047904 19298 net.cpp:157] Top shape: 2 6 36 36 (15552)
I1012 02:58:52.047907 19298 net.cpp:165] Memory required for data: 1667839288
I1012 02:58:52.047910 19298 layer_factory.hpp:76] Creating layer detection_loss_2_3x5
I1012 02:58:52.047919 19298 net.cpp:106] Creating Layer detection_loss_2_3x5
I1012 02:58:52.047921 19298 net.cpp:454] detection_loss_2_3x5 <- LFCN_2_3x5_LFCN_2_3x5_0_split_0
I1012 02:58:52.047926 19298 net.cpp:454] detection_loss_2_3x5 <- label_2_3x5_data_3_split_0
I1012 02:58:52.047935 19298 net.cpp:411] detection_loss_2_3x5 -> loss_2_3x5
I1012 02:58:52.047945 19298 layer_factory.hpp:76] Creating layer detection_loss_2_3x5
I1012 02:58:52.048405 19298 net.cpp:150] Setting up detection_loss_2_3x5
I1012 02:58:52.048418 19298 net.cpp:157] Top shape: 1 1 1 2 (2)
I1012 02:58:52.048420 19298 net.cpp:160]     with loss weight 1
I1012 02:58:52.048437 19298 net.cpp:165] Memory required for data: 1667839296
I1012 02:58:52.048440 19298 layer_factory.hpp:76] Creating layer detection_accuracy_2_3x5
I1012 02:58:52.048449 19298 net.cpp:106] Creating Layer detection_accuracy_2_3x5
I1012 02:58:52.048451 19298 net.cpp:454] detection_accuracy_2_3x5 <- LFCN_2_3x5_LFCN_2_3x5_0_split_1
I1012 02:58:52.048457 19298 net.cpp:454] detection_accuracy_2_3x5 <- label_2_3x5_data_3_split_1
I1012 02:58:52.048465 19298 net.cpp:411] detection_accuracy_2_3x5 -> accuracy_2_3x5
I1012 02:58:52.048471 19298 net.cpp:411] detection_accuracy_2_3x5 -> boxiou_2_3x5
I1012 02:58:52.048534 19298 net.cpp:150] Setting up detection_accuracy_2_3x5
I1012 02:58:52.048545 19298 net.cpp:157] Top shape: 1 1 1 2 (2)
I1012 02:58:52.048552 19298 net.cpp:157] Top shape: 1 1 1 1 (1)
I1012 02:58:52.048553 19298 net.cpp:165] Memory required for data: 1667839308
I1012 02:58:52.048557 19298 layer_factory.hpp:76] Creating layer LFCN_2_5x7
I1012 02:58:52.048564 19298 net.cpp:106] Creating Layer LFCN_2_5x7
I1012 02:58:52.048568 19298 net.cpp:454] LFCN_2_5x7 <- conv5_3_relu5_3_0_split_1
I1012 02:58:52.048578 19298 net.cpp:411] LFCN_2_5x7 -> LFCN_2_5x7
I1012 02:58:52.053858 19298 net.cpp:150] Setting up LFCN_2_5x7
I1012 02:58:52.053872 19298 net.cpp:157] Top shape: 2 6 36 36 (15552)
I1012 02:58:52.053876 19298 net.cpp:165] Memory required for data: 1667901516
I1012 02:58:52.053884 19298 layer_factory.hpp:76] Creating layer LFCN_2_5x7_LFCN_2_5x7_0_split
I1012 02:58:52.053891 19298 net.cpp:106] Creating Layer LFCN_2_5x7_LFCN_2_5x7_0_split
I1012 02:58:52.053895 19298 net.cpp:454] LFCN_2_5x7_LFCN_2_5x7_0_split <- LFCN_2_5x7
I1012 02:58:52.053901 19298 net.cpp:411] LFCN_2_5x7_LFCN_2_5x7_0_split -> LFCN_2_5x7_LFCN_2_5x7_0_split_0
I1012 02:58:52.053908 19298 net.cpp:411] LFCN_2_5x7_LFCN_2_5x7_0_split -> LFCN_2_5x7_LFCN_2_5x7_0_split_1
I1012 02:58:52.053972 19298 net.cpp:150] Setting up LFCN_2_5x7_LFCN_2_5x7_0_split
I1012 02:58:52.053979 19298 net.cpp:157] Top shape: 2 6 36 36 (15552)
I1012 02:58:52.053983 19298 net.cpp:157] Top shape: 2 6 36 36 (15552)
I1012 02:58:52.053985 19298 net.cpp:165] Memory required for data: 1668025932
I1012 02:58:52.053988 19298 layer_factory.hpp:76] Creating layer detection_loss_2_5x7
I1012 02:58:52.053997 19298 net.cpp:106] Creating Layer detection_loss_2_5x7
I1012 02:58:52.054000 19298 net.cpp:454] detection_loss_2_5x7 <- LFCN_2_5x7_LFCN_2_5x7_0_split_0
I1012 02:58:52.054004 19298 net.cpp:454] detection_loss_2_5x7 <- label_2_5x7_data_4_split_0
I1012 02:58:52.054010 19298 net.cpp:411] detection_loss_2_5x7 -> loss_2_5x7
I1012 02:58:52.054018 19298 layer_factory.hpp:76] Creating layer detection_loss_2_5x7
I1012 02:58:52.054652 19298 net.cpp:150] Setting up detection_loss_2_5x7
I1012 02:58:52.054666 19298 net.cpp:157] Top shape: 1 1 1 2 (2)
I1012 02:58:52.054669 19298 net.cpp:160]     with loss weight 1
I1012 02:58:52.054675 19298 net.cpp:165] Memory required for data: 1668025940
I1012 02:58:52.054684 19298 layer_factory.hpp:76] Creating layer detection_accuracy_2_5x7
I1012 02:58:52.054692 19298 net.cpp:106] Creating Layer detection_accuracy_2_5x7
I1012 02:58:52.054695 19298 net.cpp:454] detection_accuracy_2_5x7 <- LFCN_2_5x7_LFCN_2_5x7_0_split_1
I1012 02:58:52.054700 19298 net.cpp:454] detection_accuracy_2_5x7 <- label_2_5x7_data_4_split_1
I1012 02:58:52.054708 19298 net.cpp:411] detection_accuracy_2_5x7 -> accuracy_2_5x7
I1012 02:58:52.054714 19298 net.cpp:411] detection_accuracy_2_5x7 -> boxiou_2_5x7
I1012 02:58:52.054770 19298 net.cpp:150] Setting up detection_accuracy_2_5x7
I1012 02:58:52.054778 19298 net.cpp:157] Top shape: 1 1 1 2 (2)
I1012 02:58:52.054782 19298 net.cpp:157] Top shape: 1 1 1 1 (1)
I1012 02:58:52.054785 19298 net.cpp:165] Memory required for data: 1668025952
I1012 02:58:52.054788 19298 layer_factory.hpp:76] Creating layer pool5
I1012 02:58:52.054796 19298 net.cpp:106] Creating Layer pool5
I1012 02:58:52.054800 19298 net.cpp:454] pool5 <- conv5_3_relu5_3_0_split_2
I1012 02:58:52.054806 19298 net.cpp:411] pool5 -> pool5
I1012 02:58:52.055074 19298 net.cpp:150] Setting up pool5
I1012 02:58:52.055085 19298 net.cpp:157] Top shape: 2 512 18 18 (331776)
I1012 02:58:52.055088 19298 net.cpp:165] Memory required for data: 1669353056
I1012 02:58:52.055091 19298 layer_factory.hpp:76] Creating layer conv6_1
I1012 02:58:52.055101 19298 net.cpp:106] Creating Layer conv6_1
I1012 02:58:52.055104 19298 net.cpp:454] conv6_1 <- pool5
I1012 02:58:52.055114 19298 net.cpp:411] conv6_1 -> conv6_1
I1012 02:58:52.143254 19298 net.cpp:150] Setting up conv6_1
I1012 02:58:52.143271 19298 net.cpp:157] Top shape: 2 512 18 18 (331776)
I1012 02:58:52.143275 19298 net.cpp:165] Memory required for data: 1670680160
I1012 02:58:52.143282 19298 layer_factory.hpp:76] Creating layer relu6_1
I1012 02:58:52.143292 19298 net.cpp:106] Creating Layer relu6_1
I1012 02:58:52.143296 19298 net.cpp:454] relu6_1 <- conv6_1
I1012 02:58:52.143303 19298 net.cpp:397] relu6_1 -> conv6_1 (in-place)
I1012 02:58:52.143678 19298 net.cpp:150] Setting up relu6_1
I1012 02:58:52.143692 19298 net.cpp:157] Top shape: 2 512 18 18 (331776)
I1012 02:58:52.143694 19298 net.cpp:165] Memory required for data: 1672007264
I1012 02:58:52.143698 19298 layer_factory.hpp:76] Creating layer conv6_1_relu6_1_0_split
I1012 02:58:52.143704 19298 net.cpp:106] Creating Layer conv6_1_relu6_1_0_split
I1012 02:58:52.143708 19298 net.cpp:454] conv6_1_relu6_1_0_split <- conv6_1
I1012 02:58:52.143715 19298 net.cpp:411] conv6_1_relu6_1_0_split -> conv6_1_relu6_1_0_split_0
I1012 02:58:52.143723 19298 net.cpp:411] conv6_1_relu6_1_0_split -> conv6_1_relu6_1_0_split_1
I1012 02:58:52.143728 19298 net.cpp:411] conv6_1_relu6_1_0_split -> conv6_1_relu6_1_0_split_2
I1012 02:58:52.143807 19298 net.cpp:150] Setting up conv6_1_relu6_1_0_split
I1012 02:58:52.143815 19298 net.cpp:157] Top shape: 2 512 18 18 (331776)
I1012 02:58:52.143820 19298 net.cpp:157] Top shape: 2 512 18 18 (331776)
I1012 02:58:52.143822 19298 net.cpp:157] Top shape: 2 512 18 18 (331776)
I1012 02:58:52.143826 19298 net.cpp:165] Memory required for data: 1675988576
I1012 02:58:52.143828 19298 layer_factory.hpp:76] Creating layer LFCN_3_3x5
I1012 02:58:52.143839 19298 net.cpp:106] Creating Layer LFCN_3_3x5
I1012 02:58:52.143843 19298 net.cpp:454] LFCN_3_3x5 <- conv6_1_relu6_1_0_split_0
I1012 02:58:52.143848 19298 net.cpp:411] LFCN_3_3x5 -> LFCN_3_3x5
I1012 02:58:52.146625 19298 net.cpp:150] Setting up LFCN_3_3x5
I1012 02:58:52.146639 19298 net.cpp:157] Top shape: 2 6 18 18 (3888)
I1012 02:58:52.146642 19298 net.cpp:165] Memory required for data: 1676004128
I1012 02:58:52.146648 19298 layer_factory.hpp:76] Creating layer LFCN_3_3x5_LFCN_3_3x5_0_split
I1012 02:58:52.146664 19298 net.cpp:106] Creating Layer LFCN_3_3x5_LFCN_3_3x5_0_split
I1012 02:58:52.146670 19298 net.cpp:454] LFCN_3_3x5_LFCN_3_3x5_0_split <- LFCN_3_3x5
I1012 02:58:52.146677 19298 net.cpp:411] LFCN_3_3x5_LFCN_3_3x5_0_split -> LFCN_3_3x5_LFCN_3_3x5_0_split_0
I1012 02:58:52.146683 19298 net.cpp:411] LFCN_3_3x5_LFCN_3_3x5_0_split -> LFCN_3_3x5_LFCN_3_3x5_0_split_1
I1012 02:58:52.146744 19298 net.cpp:150] Setting up LFCN_3_3x5_LFCN_3_3x5_0_split
I1012 02:58:52.146751 19298 net.cpp:157] Top shape: 2 6 18 18 (3888)
I1012 02:58:52.146755 19298 net.cpp:157] Top shape: 2 6 18 18 (3888)
I1012 02:58:52.146757 19298 net.cpp:165] Memory required for data: 1676035232
I1012 02:58:52.146761 19298 layer_factory.hpp:76] Creating layer detection_loss_3_3x5
I1012 02:58:52.146769 19298 net.cpp:106] Creating Layer detection_loss_3_3x5
I1012 02:58:52.146772 19298 net.cpp:454] detection_loss_3_3x5 <- LFCN_3_3x5_LFCN_3_3x5_0_split_0
I1012 02:58:52.146776 19298 net.cpp:454] detection_loss_3_3x5 <- label_3_3x5_data_5_split_0
I1012 02:58:52.146783 19298 net.cpp:411] detection_loss_3_3x5 -> loss_3_3x5
I1012 02:58:52.146791 19298 layer_factory.hpp:76] Creating layer detection_loss_3_3x5
I1012 02:58:52.147420 19298 net.cpp:150] Setting up detection_loss_3_3x5
I1012 02:58:52.147434 19298 net.cpp:157] Top shape: 1 1 1 2 (2)
I1012 02:58:52.147438 19298 net.cpp:160]     with loss weight 1
I1012 02:58:52.147444 19298 net.cpp:165] Memory required for data: 1676035240
I1012 02:58:52.147447 19298 layer_factory.hpp:76] Creating layer detection_accuracy_3_3x5
I1012 02:58:52.147454 19298 net.cpp:106] Creating Layer detection_accuracy_3_3x5
I1012 02:58:52.147457 19298 net.cpp:454] detection_accuracy_3_3x5 <- LFCN_3_3x5_LFCN_3_3x5_0_split_1
I1012 02:58:52.147465 19298 net.cpp:454] detection_accuracy_3_3x5 <- label_3_3x5_data_5_split_1
I1012 02:58:52.147470 19298 net.cpp:411] detection_accuracy_3_3x5 -> accuracy_3_3x5
I1012 02:58:52.147477 19298 net.cpp:411] detection_accuracy_3_3x5 -> boxiou_3_3x5
I1012 02:58:52.147536 19298 net.cpp:150] Setting up detection_accuracy_3_3x5
I1012 02:58:52.147543 19298 net.cpp:157] Top shape: 1 1 1 2 (2)
I1012 02:58:52.147547 19298 net.cpp:157] Top shape: 1 1 1 1 (1)
I1012 02:58:52.147549 19298 net.cpp:165] Memory required for data: 1676035252
I1012 02:58:52.147552 19298 layer_factory.hpp:76] Creating layer LFCN_3_5x7
I1012 02:58:52.147562 19298 net.cpp:106] Creating Layer LFCN_3_5x7
I1012 02:58:52.147565 19298 net.cpp:454] LFCN_3_5x7 <- conv6_1_relu6_1_0_split_1
I1012 02:58:52.147570 19298 net.cpp:411] LFCN_3_5x7 -> LFCN_3_5x7
I1012 02:58:52.153489 19298 net.cpp:150] Setting up LFCN_3_5x7
I1012 02:58:52.153506 19298 net.cpp:157] Top shape: 2 6 18 18 (3888)
I1012 02:58:52.153508 19298 net.cpp:165] Memory required for data: 1676050804
I1012 02:58:52.153515 19298 layer_factory.hpp:76] Creating layer LFCN_3_5x7_LFCN_3_5x7_0_split
I1012 02:58:52.153522 19298 net.cpp:106] Creating Layer LFCN_3_5x7_LFCN_3_5x7_0_split
I1012 02:58:52.153525 19298 net.cpp:454] LFCN_3_5x7_LFCN_3_5x7_0_split <- LFCN_3_5x7
I1012 02:58:52.153533 19298 net.cpp:411] LFCN_3_5x7_LFCN_3_5x7_0_split -> LFCN_3_5x7_LFCN_3_5x7_0_split_0
I1012 02:58:52.153540 19298 net.cpp:411] LFCN_3_5x7_LFCN_3_5x7_0_split -> LFCN_3_5x7_LFCN_3_5x7_0_split_1
I1012 02:58:52.153597 19298 net.cpp:150] Setting up LFCN_3_5x7_LFCN_3_5x7_0_split
I1012 02:58:52.153607 19298 net.cpp:157] Top shape: 2 6 18 18 (3888)
I1012 02:58:52.153611 19298 net.cpp:157] Top shape: 2 6 18 18 (3888)
I1012 02:58:52.153614 19298 net.cpp:165] Memory required for data: 1676081908
I1012 02:58:52.153616 19298 layer_factory.hpp:76] Creating layer detection_loss_3_5x7
I1012 02:58:52.153622 19298 net.cpp:106] Creating Layer detection_loss_3_5x7
I1012 02:58:52.153625 19298 net.cpp:454] detection_loss_3_5x7 <- LFCN_3_5x7_LFCN_3_5x7_0_split_0
I1012 02:58:52.153630 19298 net.cpp:454] detection_loss_3_5x7 <- label_3_5x7_data_6_split_0
I1012 02:58:52.153637 19298 net.cpp:411] detection_loss_3_5x7 -> loss_3_5x7
I1012 02:58:52.153645 19298 layer_factory.hpp:76] Creating layer detection_loss_3_5x7
I1012 02:58:52.154105 19298 net.cpp:150] Setting up detection_loss_3_5x7
I1012 02:58:52.154117 19298 net.cpp:157] Top shape: 1 1 1 2 (2)
I1012 02:58:52.154120 19298 net.cpp:160]     with loss weight 1
I1012 02:58:52.154126 19298 net.cpp:165] Memory required for data: 1676081916
I1012 02:58:52.154129 19298 layer_factory.hpp:76] Creating layer detection_accuracy_3_5x7
I1012 02:58:52.154136 19298 net.cpp:106] Creating Layer detection_accuracy_3_5x7
I1012 02:58:52.154139 19298 net.cpp:454] detection_accuracy_3_5x7 <- LFCN_3_5x7_LFCN_3_5x7_0_split_1
I1012 02:58:52.154145 19298 net.cpp:454] detection_accuracy_3_5x7 <- label_3_5x7_data_6_split_1
I1012 02:58:52.154158 19298 net.cpp:411] detection_accuracy_3_5x7 -> accuracy_3_5x7
I1012 02:58:52.154165 19298 net.cpp:411] detection_accuracy_3_5x7 -> boxiou_3_5x7
I1012 02:58:52.154222 19298 net.cpp:150] Setting up detection_accuracy_3_5x7
I1012 02:58:52.154230 19298 net.cpp:157] Top shape: 1 1 1 2 (2)
I1012 02:58:52.154234 19298 net.cpp:157] Top shape: 1 1 1 1 (1)
I1012 02:58:52.154237 19298 net.cpp:165] Memory required for data: 1676081928
I1012 02:58:52.154240 19298 layer_factory.hpp:76] Creating layer pool6
I1012 02:58:52.154245 19298 net.cpp:106] Creating Layer pool6
I1012 02:58:52.154249 19298 net.cpp:454] pool6 <- conv6_1_relu6_1_0_split_2
I1012 02:58:52.154254 19298 net.cpp:411] pool6 -> pool6
I1012 02:58:52.154678 19298 net.cpp:150] Setting up pool6
I1012 02:58:52.154691 19298 net.cpp:157] Top shape: 2 512 9 9 (82944)
I1012 02:58:52.154695 19298 net.cpp:165] Memory required for data: 1676413704
I1012 02:58:52.154697 19298 layer_factory.hpp:76] Creating layer LFCN_4_3x5
I1012 02:58:52.154708 19298 net.cpp:106] Creating Layer LFCN_4_3x5
I1012 02:58:52.154712 19298 net.cpp:454] LFCN_4_3x5 <- pool6
I1012 02:58:52.154719 19298 net.cpp:411] LFCN_4_3x5 -> LFCN_4_3x5
I1012 02:58:52.159056 19298 net.cpp:150] Setting up LFCN_4_3x5
I1012 02:58:52.159096 19298 net.cpp:157] Top shape: 2 6 9 9 (972)
I1012 02:58:52.159102 19298 net.cpp:165] Memory required for data: 1676417592
I1012 02:58:52.159121 19298 layer_factory.hpp:76] Creating layer LFCN_4_3x5_LFCN_4_3x5_0_split
I1012 02:58:52.159137 19298 net.cpp:106] Creating Layer LFCN_4_3x5_LFCN_4_3x5_0_split
I1012 02:58:52.159152 19298 net.cpp:454] LFCN_4_3x5_LFCN_4_3x5_0_split <- LFCN_4_3x5
I1012 02:58:52.159165 19298 net.cpp:411] LFCN_4_3x5_LFCN_4_3x5_0_split -> LFCN_4_3x5_LFCN_4_3x5_0_split_0
I1012 02:58:52.159186 19298 net.cpp:411] LFCN_4_3x5_LFCN_4_3x5_0_split -> LFCN_4_3x5_LFCN_4_3x5_0_split_1
I1012 02:58:52.159309 19298 net.cpp:150] Setting up LFCN_4_3x5_LFCN_4_3x5_0_split
I1012 02:58:52.159323 19298 net.cpp:157] Top shape: 2 6 9 9 (972)
I1012 02:58:52.159332 19298 net.cpp:157] Top shape: 2 6 9 9 (972)
I1012 02:58:52.159337 19298 net.cpp:165] Memory required for data: 1676425368
I1012 02:58:52.159343 19298 layer_factory.hpp:76] Creating layer detection_loss_4_3x5
I1012 02:58:52.159358 19298 net.cpp:106] Creating Layer detection_loss_4_3x5
I1012 02:58:52.159366 19298 net.cpp:454] detection_loss_4_3x5 <- LFCN_4_3x5_LFCN_4_3x5_0_split_0
I1012 02:58:52.159378 19298 net.cpp:454] detection_loss_4_3x5 <- label_4_3x5_data_7_split_0
I1012 02:58:52.159387 19298 net.cpp:411] detection_loss_4_3x5 -> loss_4_3x5
I1012 02:58:52.159409 19298 layer_factory.hpp:76] Creating layer detection_loss_4_3x5
I1012 02:58:52.160312 19298 net.cpp:150] Setting up detection_loss_4_3x5
I1012 02:58:52.160333 19298 net.cpp:157] Top shape: 1 1 1 2 (2)
I1012 02:58:52.160339 19298 net.cpp:160]     with loss weight 1
I1012 02:58:52.160354 19298 net.cpp:165] Memory required for data: 1676425376
I1012 02:58:52.160362 19298 layer_factory.hpp:76] Creating layer detection_accuracy_4_3x5
I1012 02:58:52.160374 19298 net.cpp:106] Creating Layer detection_accuracy_4_3x5
I1012 02:58:52.160382 19298 net.cpp:454] detection_accuracy_4_3x5 <- LFCN_4_3x5_LFCN_4_3x5_0_split_1
I1012 02:58:52.160392 19298 net.cpp:454] detection_accuracy_4_3x5 <- label_4_3x5_data_7_split_1
I1012 02:58:52.160401 19298 net.cpp:411] detection_accuracy_4_3x5 -> accuracy_4_3x5
I1012 02:58:52.160415 19298 net.cpp:411] detection_accuracy_4_3x5 -> boxiou_4_3x5
I1012 02:58:52.160526 19298 net.cpp:150] Setting up detection_accuracy_4_3x5
I1012 02:58:52.160538 19298 net.cpp:157] Top shape: 1 1 1 2 (2)
I1012 02:58:52.160545 19298 net.cpp:157] Top shape: 1 1 1 1 (1)
I1012 02:58:52.160552 19298 net.cpp:165] Memory required for data: 1676425388
I1012 02:58:52.160557 19298 net.cpp:228] detection_accuracy_4_3x5 does not need backward computation.
I1012 02:58:52.160564 19298 net.cpp:226] detection_loss_4_3x5 needs backward computation.
I1012 02:58:52.160573 19298 net.cpp:226] LFCN_4_3x5_LFCN_4_3x5_0_split needs backward computation.
I1012 02:58:52.160578 19298 net.cpp:226] LFCN_4_3x5 needs backward computation.
…
