…
    downsample_rate: 16
    downsample_rate: 32
    downsample_rate: 32
    downsample_rate: 64
    coord_num: 4
    field_h: 40
    field_h: 56
    field_h: 80
    field_h: 112
    field_h: 160
    field_h: 224
    field_h: 320
    field_w: 20
    field_w: 28
    field_w: 40
    field_w: 56
    field_w: 80
    field_w: 112
    field_w: 160
    fg_threshold: 0.5
    resize_width: 640
    resize_height: 480
    crop_width: 448
    crop_height: 448
    do_multiple_scale: true
    min_scale: 30
    max_scale: 240
    min_gt_height: 45
    shuffle: true
  }
}
layer {
  name: "conv1_1"
  type: "Convolution"
  bottom: "data"
  top: "conv1_1"
  convolution_param {
    num_output: 64
    pad: 1
    kernel_size: 3
  }
}
layer {
  name: "relu1_1"
  type: "ReLU"
  bottom: "conv1_1"
  top: "conv1_1"
}
layer {
  name: "conv1_2"
  type: "Convolution"
  bottom: "conv1_1"
  top: "conv1_2"
  convolution_param {
    num_output: 64
    pad: 1
    kernel_size: 3
  }
}
layer {
  name: "relu1_2"
  type: "ReLU"
  bottom: "conv1_2"
  top: "conv1_2"
}
layer {
  name: "pool1"
  type: "Pooling"
  bottom: "conv1_2"
  top: "pool1"
  pooling_param {
    pool: MAX
    kernel_size: 2
    stride: 2
  }
}
layer {
  name: "conv2_1"
  type: "Convolution"
  bottom: "pool1"
  top: "conv2_1"
  convolution_param {
    num_output: 128
    pad: 1
    kernel_size: 3
  }
}
layer {
  name: "relu2_1"
  type: "ReLU"
  bottom: "conv2_1"
  top: "conv2_1"
}
layer {
  name: "conv2_2"
  type: "Convolution"
  bottom: "conv2_1"
  top: "conv2_2"
  convolution_param {
    num_output: 128
    pad: 1
    kernel_size: 3
  }
}
layer {
  name: "relu2_2"
  type: "ReLU"
  bottom: "conv2_2"
  top: "conv2_2"
}
layer {
  name: "pool2"
  type: "Pooling"
  bottom: "conv2_2"
  top: "pool2"
  pooling_param {
    pool: MAX
    kernel_size: 2
    stride: 2
  }
}
layer {
  name: "conv3_1"
  type: "Convolution"
  bottom: "pool2"
  top: "conv3_1"
  convolution_param {
    num_output: 256
    pad: 1
    kernel_size: 3
  }
}
layer {
  name: "relu3_1"
  type: "ReLU"
  bottom: "conv3_1"
  top: "conv3_1"
}
layer {
  name: "conv3_2"
  type: "Convolution"
  bottom: "conv3_1"
  top: "conv3_2"
  convolution_param {
    num_output: 256
    pad: 1
    kernel_size: 3
  }
}
layer {
  name: "relu3_2"
  type: "ReLU"
  bottom: "conv3_2"
  top: "conv3_2"
}
layer {
  name: "conv3_3"
  type: "Convolution"
  bottom: "conv3_2"
  top: "conv3_3"
  convolution_param {
    num_output: 256
    pad: 1
    kernel_size: 3
  }
}
layer {
  name: "relu3_3"
  type: "ReLU"
  bottom: "conv3_3"
  top: "conv3_3"
}
layer {
  name: "pool3"
  type: "Pooling"
  bottom: "conv3_3"
  top: "pool3"
  pooling_param {
    pool: MAX
    kernel_size: 2
    stride: 2
  }
}
layer {
  name: "conv4_1"
  type: "Convolution"
  bottom: "pool3"
  top: "conv4_1"
  convolution_param {
    num_output: 512
    pad: 1
    kernel_size: 3
  }
}
layer {
  name: "relu4_1"
  type: "ReLU"
  bottom: "conv4_1"
  top: "conv4_1"
}
layer {
  name: "conv4_2"
  type: "Convolution"
  bottom: "conv4_1"
  top: "conv4_2"
  convolution_param {
    num_output: 512
    pad: 1
    kernel_size: 3
  }
}
layer {
  name: "relu4_2"
  type: "ReLU"
  bottom: "conv4_2"
  top: "conv4_2"
}
layer {
  name: "conv4_3"
  type: "Convolution"
  bottom: "conv4_2"
  top: "conv4_3"
  convolution_param {
    num_output: 512
    pad: 1
    kernel_size: 3
  }
}
layer {
  name: "relu4_3"
  type: "ReLU"
  bottom: "conv4_3"
  top: "conv4_3"
}
layer {
  name: "loss1_conv1"
  type: "Convolution"
  bottom: "conv4_3"
  top: "loss1_conv1"
  param {
    lr_mult: 1
    decay_mult: 1
  }
  param {
    lr_mult: 2
    decay_mult: 0
  }
  convolution_param {
    num_output: 512
    pad: 1
    kernel_size: 3
    weight_filler {
      type: "gaussian"
      std: 0.01
    }
    bias_filler {
      type: "constant"
    }
  }
}
layer {
  name: "loss_relu1"
  type: "ReLU"
  bottom: "loss1_conv1"
  top: "loss1_conv1"
}
layer {
  name: "LFCN_1_3x5"
  type: "Convolution"
  bottom: "loss1_conv1"
  top: "LFCN_1_3x5"
  param {
    lr_mult: 1
    decay_mult: 1
  }
  param {
    lr_mult: 2
    decay_mult: 0
  }
  convolution_param {
    num_output: 6
    weight_filler {
      type: "gaussian"
      std: 0.001
    }
    bias_filler {
      type: "constant"
    }
    pad_h: 2
    pad_w: 1
    kernel_h: 5
    kernel_w: 3
  }
}
layer {
  name: "detection_loss_1_3x5"
  type: "Detection"
  bottom: "LFCN_1_3x5"
  bottom: "label_1_3x5"
  top: "loss_1_3x5"
  loss_weight: 0.9
  detection_param {
    cls_num: 2
    coord_num: 4
    lambda: 0.5
    field_h: 40
    field_w: 20
    downsample_rate: 8
    bb_smooth: true
    field_whr: 2
    field_xyr: 2
    bg_threshold: 0.2
    bg_multiple: 2
    sample_mode: "random"
    pos_neg_weighted: true
  }
}
layer {
  name: "detection_accuracy_1_3x5"
  type: "DetectionAccuracy"
  bottom: "LFCN_1_3x5"
  bottom: "label_1_3x5"
  top: "accuracy_1_3x5"
  top: "boxiou_1_3x5"
  detection_accuracy_param {
    cls_num: 2
    coord_num: 4
    field_h: 40
    field_w: 20
    downsample_rate: 8
    field_whr: 2
    field_xyr: 2
  }
}
layer {
  name: "LFCN_1_5x7"
  type: "Convolution"
  bottom: "loss1_conv1"
  top: "LFCN_1_5x7"
  param {
    lr_mult: 1
    decay_mult: 1
  }
  param {
    lr_mult: 2
    decay_mult: 0
  }
  convolution_param {
    num_output: 6
    weight_filler {
      type: "gaussian"
      std: 0.001
    }
    bias_filler {
      type: "constant"
    }
    pad_h: 3
    pad_w: 2
    kernel_h: 7
    kernel_w: 5
  }
}
layer {
  name: "detection_loss_1_5x7"
  type: "Detection"
  bottom: "LFCN_1_5x7"
  bottom: "label_1_5x7"
  top: "loss_1_5x7"
  loss_weight: 0.9
  detection_param {
    cls_num: 2
    coord_num: 4
    lambda: 0.5
    field_h: 56
    field_w: 28
    downsample_rate: 8
    bb_smooth: true
    field_whr: 2
    field_xyr: 2
    bg_threshold: 0.2
    bg_multiple: 2
    sample_mode: "random"
    pos_neg_weighted: true
  }
}
layer {
  name: "detection_accuracy_1_5x7"
  type: "DetectionAccuracy"
  bottom: "LFCN_1_5x7"
  bottom: "label_1_5x7"
  top: "accuracy_1_5x7"
  top: "boxiou_1_5x7"
  detection_accuracy_param {
    cls_num: 2
    coord_num: 4
    field_h: 56
    field_w: 28
    downsample_rate: 8
    field_whr: 2
    field_xyr: 2
  }
}
layer {
  name: "pool4"
  type: "Pooling"
  bottom: "conv4_3"
  top: "pool4"
  pooling_param {
    pool: MAX
    kernel_size: 2
    stride: 2
  }
}
layer {
  name: "conv5_1"
  type: "Convolution"
  bottom: "pool4"
  top: "conv5_1"
  convolution_param {
    num_output: 512
    pad: 1
    kernel_size: 3
  }
}
layer {
  name: "relu5_1"
  type: "ReLU"
  bottom: "conv5_1"
  top: "conv5_1"
}
layer {
  name: "conv5_2"
  type: "Convolution"
  bottom: "conv5_1"
  top: "conv5_2"
  convolution_param {
    num_output: 512
    pad: 1
    kernel_size: 3
  }
}
layer {
  name: "relu5_2"
  type: "ReLU"
  bottom: "conv5_2"
  top: "conv5_2"
}
layer {
  name: "conv5_3"
  type: "Convolution"
  bottom: "conv5_2"
  top: "conv5_3"
  convolution_param {
    num_output: 512
    pad: 1
    kernel_size: 3
  }
}
layer {
  name: "relu5_3"
  type: "ReLU"
  bottom: "conv5_3"
  top: "conv5_3"
}
layer {
  name: "LFCN_2_3x5"
  type: "Convolution"
  bottom: "conv5_3"
  top: "LFCN_2_3x5"
  param {
    lr_mult: 1
    decay_mult: 1
  }
  param {
    lr_mult: 2
    decay_mult: 0
  }
  convolution_param {
    num_output: 6
    weight_filler {
      type: "gaussian"
      std: 0.001
    }
    bias_filler {
      type: "constant"
    }
    pad_h: 2
    pad_w: 1
    kernel_h: 5
    kernel_w: 3
  }
}
layer {
  name: "detection_loss_2_3x5"
  type: "Detection"
  bottom: "LFCN_2_3x5"
  bottom: "label_2_3x5"
  top: "loss_2_3x5"
  detection_param {
    cls_num: 2
    coord_num: 4
    lambda: 0.5
    field_h: 80
    field_w: 40
    downsample_rate: 16
    bb_smooth: true
    field_whr: 2
    field_xyr: 2
    bg_threshold: 0.2
    bg_multiple: 2
    sample_mode: "random"
    pos_neg_weighted: true
  }
}
layer {
  name: "detection_accuracy_2_3x5"
  type: "DetectionAccuracy"
  bottom: "LFCN_2_3x5"
  bottom: "label_2_3x5"
  top: "accuracy_2_3x5"
  top: "boxiou_2_3x5"
  detection_accuracy_param {
    cls_num: 2
    coord_num: 4
    field_h: 80
    field_w: 40
    downsample_rate: 16
    field_whr: 2
    field_xyr: 2
  }
}
layer {
  name: "LFCN_2_5x7"
  type: "Convolution"
  bottom: "conv5_3"
  top: "LFCN_2_5x7"
  param {
    lr_mult: 1
    decay_mult: 1
  }
  param {
    lr_mult: 2
    decay_mult: 0
  }
  convolution_param {
    num_output: 6
    weight_filler {
      type: "gaussian"
      std: 0.001
    }
    bias_filler {
      type: "constant"
    }
    pad_h: 3
    pad_w: 2
    kernel_h: 7
    kernel_w: 5
  }
}
layer {
  name: "detection_loss_2_5x7"
  type: "Detection"
  bottom: "LFCN_2_5x7"
  bottom: "label_2_5x7"
  top: "loss_2_5x7"
  detection_param {
    cls_num: 2
    coord_num: 4
    lambda: 0.5
    field_h: 112
    field_w: 56
    downsample_rate: 16
    bb_smooth: true
    field_whr: 2
    field_xyr: 2
    bg_threshold: 0.2
    bg_multiple: 2
    sample_mode: "random"
    pos_neg_weighted: true
  }
}
layer {
  name: "detection_accuracy_2_5x7"
  type: "DetectionAccuracy"
  bottom: "LFCN_2_5x7"
  bottom: "label_2_5x7"
  top: "accuracy_2_5x7"
  top: "boxiou_2_5x7"
  detection_accuracy_param {
    cls_num: 2
    coord_num: 4
    field_h: 112
    field_w: 56
    downsample_rate: 16
    field_whr: 2
    field_xyr: 2
  }
}
layer {
  name: "pool5"
  type: "Pooling"
  bottom: "conv5_3"
  top: "pool5"
  pooling_param {
    pool: MAX
    kernel_size: 2
    stride: 2
  }
}
layer {
  name: "conv6_1"
  type: "Convolution"
  bottom: "pool5"
  top: "conv6_1"
  param {
    lr_mult: 1
    decay_mult: 1
  }
  param {
    lr_mult: 2
    decay_mult: 0
  }
  convolution_param {
    num_output: 512
    pad: 1
    kernel_size: 3
    weight_filler {
      type: "gaussian"
      std: 0.01
    }
    bias_filler {
      type: "constant"
    }
  }
}
layer {
  name: "relu6_1"
  type: "ReLU"
  bottom: "conv6_1"
  top: "conv6_1"
}
layer {
  name: "LFCN_3_3x5"
  type: "Convolution"
  bottom: "conv6_1"
  top: "LFCN_3_3x5"
  param {
    lr_mult: 1
    decay_mult: 1
  }
  param {
    lr_mult: 2
    decay_mult: 0
  }
  convolution_param {
    num_output: 6
    weight_filler {
      type: "gaussian"
      std: 0.001
    }
    bias_filler {
      type: "constant"
    }
    pad_h: 2
    pad_w: 1
    kernel_h: 5
    kernel_w: 3
  }
}
layer {
  name: "detection_loss_3_3x5"
  type: "Detection"
  bottom: "LFCN_3_3x5"
  bottom: "label_3_3x5"
  top: "loss_3_3x5"
  detection_param {
    cls_num: 2
    coord_num: 4
    lambda: 0.5
    field_h: 160
    field_w: 80
    downsample_rate: 32
    bb_smooth: true
    field_whr: 2
    field_xyr: 2
    bg_threshold: 0.2
    bg_multiple: 2
    sample_mode: "random"
    pos_neg_weighted: true
  }
}
layer {
  name: "detection_accuracy_3_3x5"
  type: "DetectionAccuracy"
  bottom: "LFCN_3_3x5"
  bottom: "label_3_3x5"
  top: "accuracy_3_3x5"
  top: "boxiou_3_3x5"
  detection_accuracy_param {
    cls_num: 2
    coord_num: 4
    field_h: 160
    field_w: 80
    downsample_rate: 32
    field_whr: 2
    field_xyr: 2
  }
}
layer {
  name: "LFCN_3_5x7"
  type: "Convolution"
  bottom: "conv6_1"
  top: "LFCN_3_5x7"
  param {
    lr_mult: 1
    decay_mult: 1
  }
  param {
    lr_mult: 2
    decay_mult: 0
  }
  convolution_param {
    num_output: 6
    weight_filler {
      type: "gaussian"
      std: 0.001
    }
    bias_filler {
      type: "constant"
    }
    pad_h: 3
    pad_w: 2
    kernel_h: 7
    kernel_w: 5
  }
}
layer {
  name: "detection_loss_3_5x7"
  type: "Detection"
  bottom: "LFCN_3_5x7"
  bottom: "label_3_5x7"
  top: "loss_3_5x7"
  detection_param {
    cls_num: 2
    coord_num: 4
    lambda: 0.5
    field_h: 224
    field_w: 112
    downsample_rate: 32
    bb_smooth: true
    field_whr: 2
    field_xyr: 2
    bg_threshold: 0.2
    bg_multiple: 2
    sample_mode: "random"
    pos_neg_weighted: true
  }
}
layer {
  name: "detection_accuracy_3_5x7"
  type: "DetectionAccuracy"
  bottom: "LFCN_3_5x7"
  bottom: "label_3_5x7"
  top: "accuracy_3_5x7"
  top: "boxiou_3_5x7"
  detection_accuracy_param {
    cls_num: 2
    coord_num: 4
    field_h: 224
    field_w: 112
    downsample_rate: 32
    field_whr: 2
    field_xyr: 2
  }
}
layer {
  name: "pool6"
  type: "Pooling"
  bottom: "conv6_1"
  top: "pool6"
  pooling_param {
    pool: MAX
    kernel_size: 2
    stride: 2
  }
}
layer {
  name: "LFCN_4_3x5"
  type: "Convolution"
  bottom: "pool6"
  top: "LFCN_4_3x5"
  param {
    lr_mult: 1
    decay_mult: 1
  }
  param {
    lr_mult: 2
    decay_mult: 0
  }
  convolution_param {
    num_output: 6
    weight_filler {
      type: "gaussian"
      std: 0.001
    }
    bias_filler {
      type: "constant"
    }
    pad_h: 2
    pad_w: 1
    kernel_h: 5
    kernel_w: 3
  }
}
layer {
  name: "detection_loss_4_3x5"
  type: "Detection"
  bottom: "LFCN_4_3x5"
  bottom: "label_4_3x5"
  top: "loss_4_3x5"
  detection_param {
    cls_num: 2
    coord_num: 4
    lambda: 0.5
    field_h: 320
    field_w: 160
    downsample_rate: 64
    bb_smooth: true
    field_whr: 2
    field_xyr: 2
    bg_threshold: 0.2
    bg_multiple: 2
    sample_mode: "random"
    pos_neg_weighted: true
  }
}
layer {
  name: "detection_accuracy_4_3x5"
  type: "DetectionAccuracy"
  bottom: "LFCN_4_3x5"
  bottom: "label_4_3x5"
  top: "accuracy_4_3x5"
  top: "boxiou_4_3x5"
  detection_accuracy_param {
    cls_num: 2
    coord_num: 4
    field_h: 320
    field_w: 160
    downsample_rate: 64
    field_whr: 2
    field_xyr: 2
  }
}
I1007 03:34:48.289943 19084 layer_factory.hpp:76] Creating layer data
I1007 03:34:48.289988 19084 net.cpp:106] Creating Layer data
I1007 03:34:48.289997 19084 net.cpp:411] data -> data
…
I1007 03:34:48.508080 19084 image_gt_data_layer.cpp:234] output label size 1 : 4,6,56,56
I1007 03:34:48.508144 19084 image_gt_data_layer.cpp:234] output label size 2 : 4,6,28,28
I1007 03:34:48.508203 19084 image_gt_data_layer.cpp:234] output label size 3 : 4,6,28,28
I1007 03:34:48.508255 19084 image_gt_data_layer.cpp:234] output label size 4 : 4,6,14,14
I1007 03:34:48.508311 19084 image_gt_data_layer.cpp:234] output label size 5 : 4,6,14,14
I1007 03:34:48.508361 19084 image_gt_data_layer.cpp:234] output label size 6 : 4,6,7,7
I1007 03:34:48.530558 19084 net.cpp:150] Setting up data
I1007 03:34:48.530589 19084 net.cpp:157] Top shape: 4 3 448 448 (2408448)
I1007 03:34:48.530596 19084 net.cpp:157] Top shape: 4 6 56 56 (75264)
I1007 03:34:48.530599 19084 net.cpp:157] Top shape: 4 6 56 56 (75264)
I1007 03:34:48.530602 19084 net.cpp:157] Top shape: 4 6 28 28 (18816)
I1007 03:34:48.530606 19084 net.cpp:157] Top shape: 4 6 28 28 (18816)
I1007 03:34:48.530611 19084 net.cpp:157] Top shape: 4 6 14 14 (4704)
I1007 03:34:48.530614 19084 net.cpp:157] Top shape: 4 6 14 14 (4704)
I1007 03:34:48.530618 19084 net.cpp:157] Top shape: 4 6 7 7 (1176)
I1007 03:34:48.530622 19084 net.cpp:165] Memory required for data: 10428768
I1007 03:34:48.530628 19084 layer_factory.hpp:76] Creating layer label_1_3x5_data_1_split
I1007 03:34:48.530648 19084 net.cpp:106] Creating Layer label_1_3x5_data_1_split
I1007 03:34:48.530653 19084 net.cpp:454] label_1_3x5_data_1_split <- label_1_3x5
I1007 03:34:48.530666 19084 net.cpp:411] label_1_3x5_data_1_split -> label_1_3x5_data_1_split_0
I1007 03:34:48.530678 19084 net.cpp:411] label_1_3x5_data_1_split -> label_1_3x5_data_1_split_1
I1007 03:34:48.530745 19084 net.cpp:150] Setting up label_1_3x5_data_1_split
I1007 03:34:48.530753 19084 net.cpp:157] Top shape: 4 6 56 56 (75264)
I1007 03:34:48.530757 19084 net.cpp:157] Top shape: 4 6 56 56 (75264)
I1007 03:34:48.530760 19084 net.cpp:165] Memory required for data: 11030880
I1007 03:34:48.530762 19084 layer_factory.hpp:76] Creating layer label_1_5x7_data_2_split
I1007 03:34:48.530771 19084 net.cpp:106] Creating Layer label_1_5x7_data_2_split
I1007 03:34:48.530774 19084 net.cpp:454] label_1_5x7_data_2_split <- label_1_5x7
I1007 03:34:48.530781 19084 net.cpp:411] label_1_5x7_data_2_split -> label_1_5x7_data_2_split_0
I1007 03:34:48.530786 19084 net.cpp:411] label_1_5x7_data_2_split -> label_1_5x7_data_2_split_1
I1007 03:34:48.530832 19084 net.cpp:150] Setting up label_1_5x7_data_2_split
I1007 03:34:48.530836 19084 net.cpp:157] Top shape: 4 6 56 56 (75264)
I1007 03:34:48.530840 19084 net.cpp:157] Top shape: 4 6 56 56 (75264)
I1007 03:34:48.530843 19084 net.cpp:165] Memory required for data: 11632992
I1007 03:34:48.530845 19084 layer_factory.hpp:76] Creating layer label_2_3x5_data_3_split
I1007 03:34:48.530851 19084 net.cpp:106] Creating Layer label_2_3x5_data_3_split
I1007 03:34:48.530854 19084 net.cpp:454] label_2_3x5_data_3_split <- label_2_3x5
I1007 03:34:48.530859 19084 net.cpp:411] label_2_3x5_data_3_split -> label_2_3x5_data_3_split_0
I1007 03:34:48.530865 19084 net.cpp:411] label_2_3x5_data_3_split -> label_2_3x5_data_3_split_1
I1007 03:34:48.530920 19084 net.cpp:150] Setting up label_2_3x5_data_3_split
I1007 03:34:48.530930 19084 net.cpp:157] Top shape: 4 6 28 28 (18816)
I1007 03:34:48.530937 19084 net.cpp:157] Top shape: 4 6 28 28 (18816)
I1007 03:34:48.530941 19084 net.cpp:165] Memory required for data: 11783520
I1007 03:34:48.530946 19084 layer_factory.hpp:76] Creating layer label_2_5x7_data_4_split
I1007 03:34:48.530958 19084 net.cpp:106] Creating Layer label_2_5x7_data_4_split
I1007 03:34:48.530963 19084 net.cpp:454] label_2_5x7_data_4_split <- label_2_5x7
I1007 03:34:48.530972 19084 net.cpp:411] label_2_5x7_data_4_split -> label_2_5x7_data_4_split_0
I1007 03:34:48.530982 19084 net.cpp:411] label_2_5x7_data_4_split -> label_2_5x7_data_4_split_1
I1007 03:34:48.531031 19084 net.cpp:150] Setting up label_2_5x7_data_4_split
I1007 03:34:48.531044 19084 net.cpp:157] Top shape: 4 6 28 28 (18816)
I1007 03:34:48.531051 19084 net.cpp:157] Top shape: 4 6 28 28 (18816)
I1007 03:34:48.531055 19084 net.cpp:165] Memory required for data: 11934048
I1007 03:34:48.531060 19084 layer_factory.hpp:76] Creating layer label_3_3x5_data_5_split
I1007 03:34:48.531070 19084 net.cpp:106] Creating Layer label_3_3x5_data_5_split
I1007 03:34:48.531076 19084 net.cpp:454] label_3_3x5_data_5_split <- label_3_3x5
I1007 03:34:48.531085 19084 net.cpp:411] label_3_3x5_data_5_split -> label_3_3x5_data_5_split_0
I1007 03:34:48.531096 19084 net.cpp:411] label_3_3x5_data_5_split -> label_3_3x5_data_5_split_1
I1007 03:34:48.531149 19084 net.cpp:150] Setting up label_3_3x5_data_5_split
I1007 03:34:48.531159 19084 net.cpp:157] Top shape: 4 6 14 14 (4704)
I1007 03:34:48.531163 19084 net.cpp:157] Top shape: 4 6 14 14 (4704)
I1007 03:34:48.531167 19084 net.cpp:165] Memory required for data: 11971680
I1007 03:34:48.531169 19084 layer_factory.hpp:76] Creating layer label_3_5x7_data_6_split
I1007 03:34:48.531173 19084 net.cpp:106] Creating Layer label_3_5x7_data_6_split
I1007 03:34:48.531177 19084 net.cpp:454] label_3_5x7_data_6_split <- label_3_5x7
I1007 03:34:48.531185 19084 net.cpp:411] label_3_5x7_data_6_split -> label_3_5x7_data_6_split_0
I1007 03:34:48.531201 19084 net.cpp:411] label_3_5x7_data_6_split -> label_3_5x7_data_6_split_1
I1007 03:34:48.531250 19084 net.cpp:150] Setting up label_3_5x7_data_6_split
I1007 03:34:48.531260 19084 net.cpp:157] Top shape: 4 6 14 14 (4704)
I1007 03:34:48.531265 19084 net.cpp:157] Top shape: 4 6 14 14 (4704)
I1007 03:34:48.531267 19084 net.cpp:165] Memory required for data: 12009312
I1007 03:34:48.531270 19084 layer_factory.hpp:76] Creating layer label_4_3x5_data_7_split
I1007 03:34:48.531275 19084 net.cpp:106] Creating Layer label_4_3x5_data_7_split
I1007 03:34:48.531278 19084 net.cpp:454] label_4_3x5_data_7_split <- label_4_3x5
I1007 03:34:48.531283 19084 net.cpp:411] label_4_3x5_data_7_split -> label_4_3x5_data_7_split_0
I1007 03:34:48.531288 19084 net.cpp:411] label_4_3x5_data_7_split -> label_4_3x5_data_7_split_1
I1007 03:34:48.531322 19084 net.cpp:150] Setting up label_4_3x5_data_7_split
I1007 03:34:48.531327 19084 net.cpp:157] Top shape: 4 6 7 7 (1176)
I1007 03:34:48.531330 19084 net.cpp:157] Top shape: 4 6 7 7 (1176)
I1007 03:34:48.531332 19084 net.cpp:165] Memory required for data: 12018720
I1007 03:34:48.531335 19084 layer_factory.hpp:76] Creating layer conv1_1
I1007 03:34:48.531345 19084 net.cpp:106] Creating Layer conv1_1
I1007 03:34:48.531348 19084 net.cpp:454] conv1_1 <- data
I1007 03:34:48.531354 19084 net.cpp:411] conv1_1 -> conv1_1
I1007 03:34:48.655477 19084 net.cpp:150] Setting up conv1_1
I1007 03:34:48.655506 19084 net.cpp:157] Top shape: 4 64 448 448 (51380224)
I1007 03:34:48.655515 19084 net.cpp:165] Memory required for data: 217539616
I1007 03:34:48.655534 19084 layer_factory.hpp:76] Creating layer relu1_1
I1007 03:34:48.655544 19084 net.cpp:106] Creating Layer relu1_1
I1007 03:34:48.655550 19084 net.cpp:454] relu1_1 <- conv1_1
I1007 03:34:48.655555 19084 net.cpp:397] relu1_1 -> conv1_1 (in-place)
I1007 03:34:48.655737 19084 net.cpp:150] Setting up relu1_1
I1007 03:34:48.655748 19084 net.cpp:157] Top shape: 4 64 448 448 (51380224)
I1007 03:34:48.655751 19084 net.cpp:165] Memory required for data: 423060512
I1007 03:34:48.655755 19084 layer_factory.hpp:76] Creating layer conv1_2
I1007 03:34:48.655763 19084 net.cpp:106] Creating Layer conv1_2
I1007 03:34:48.655767 19084 net.cpp:454] conv1_2 <- conv1_1
I1007 03:34:48.655772 19084 net.cpp:411] conv1_2 -> conv1_2
I1007 03:34:48.657601 19084 net.cpp:150] Setting up conv1_2
I1007 03:34:48.657616 19084 net.cpp:157] Top shape: 4 64 448 448 (51380224)
I1007 03:34:48.657619 19084 net.cpp:165] Memory required for data: 628581408
I1007 03:34:48.657629 19084 layer_factory.hpp:76] Creating layer relu1_2
I1007 03:34:48.657635 19084 net.cpp:106] Creating Layer relu1_2
I1007 03:34:48.657639 19084 net.cpp:454] relu1_2 <- conv1_2
I1007 03:34:48.657644 19084 net.cpp:397] relu1_2 -> conv1_2 (in-place)
I1007 03:34:48.658030 19084 net.cpp:150] Setting up relu1_2
I1007 03:34:48.658043 19084 net.cpp:157] Top shape: 4 64 448 448 (51380224)
I1007 03:34:48.658046 19084 net.cpp:165] Memory required for data: 834102304
I1007 03:34:48.658051 19084 layer_factory.hpp:76] Creating layer pool1
I1007 03:34:48.658061 19084 net.cpp:106] Creating Layer pool1
I1007 03:34:48.658067 19084 net.cpp:454] pool1 <- conv1_2
I1007 03:34:48.658077 19084 net.cpp:411] pool1 -> pool1
I1007 03:34:48.658321 19084 net.cpp:150] Setting up pool1
I1007 03:34:48.658334 19084 net.cpp:157] Top shape: 4 64 224 224 (12845056)
I1007 03:34:48.658336 19084 net.cpp:165] Memory required for data: 885482528
I1007 03:34:48.658340 19084 layer_factory.hpp:76] Creating layer conv2_1
I1007 03:34:48.658350 19084 net.cpp:106] Creating Layer conv2_1
I1007 03:34:48.658354 19084 net.cpp:454] conv2_1 <- pool1
I1007 03:34:48.658360 19084 net.cpp:411] conv2_1 -> conv2_1
I1007 03:34:48.660164 19084 net.cpp:150] Setting up conv2_1
I1007 03:34:48.660179 19084 net.cpp:157] Top shape: 4 128 224 224 (25690112)
I1007 03:34:48.660183 19084 net.cpp:165] Memory required for data: 988242976
I1007 03:34:48.660193 19084 layer_factory.hpp:76] Creating layer relu2_1
I1007 03:34:48.660202 19084 net.cpp:106] Creating Layer relu2_1
I1007 03:34:48.660205 19084 net.cpp:454] relu2_1 <- conv2_1
I1007 03:34:48.660213 19084 net.cpp:397] relu2_1 -> conv2_1 (in-place)
I1007 03:34:48.660583 19084 net.cpp:150] Setting up relu2_1
I1007 03:34:48.660598 19084 net.cpp:157] Top shape: 4 128 224 224 (25690112)
I1007 03:34:48.660600 19084 net.cpp:165] Memory required for data: 1091003424
I1007 03:34:48.660604 19084 layer_factory.hpp:76] Creating layer conv2_2
I1007 03:34:48.660611 19084 net.cpp:106] Creating Layer conv2_2
I1007 03:34:48.660615 19084 net.cpp:454] conv2_2 <- conv2_1
I1007 03:34:48.660624 19084 net.cpp:411] conv2_2 -> conv2_2
I1007 03:34:48.661747 19084 net.cpp:150] Setting up conv2_2
I1007 03:34:48.661761 19084 net.cpp:157] Top shape: 4 128 224 224 (25690112)
I1007 03:34:48.661764 19084 net.cpp:165] Memory required for data: 1193763872
I1007 03:34:48.661772 19084 layer_factory.hpp:76] Creating layer relu2_2
I1007 03:34:48.661779 19084 net.cpp:106] Creating Layer relu2_2
I1007 03:34:48.661782 19084 net.cpp:454] relu2_2 <- conv2_2
I1007 03:34:48.661789 19084 net.cpp:397] relu2_2 -> conv2_2 (in-place)
I1007 03:34:48.662158 19084 net.cpp:150] Setting up relu2_2
I1007 03:34:48.662170 19084 net.cpp:157] Top shape: 4 128 224 224 (25690112)
I1007 03:34:48.662173 19084 net.cpp:165] Memory required for data: 1296524320
I1007 03:34:48.662178 19084 layer_factory.hpp:76] Creating layer pool2
I1007 03:34:48.662184 19084 net.cpp:106] Creating Layer pool2
I1007 03:34:48.662186 19084 net.cpp:454] pool2 <- conv2_2
I1007 03:34:48.662195 19084 net.cpp:411] pool2 -> pool2
I1007 03:34:48.662428 19084 net.cpp:150] Setting up pool2
I1007 03:34:48.662441 19084 net.cpp:157] Top shape: 4 128 112 112 (6422528)
I1007 03:34:48.662443 19084 net.cpp:165] Memory required for data: 1322214432
I1007 03:34:48.662446 19084 layer_factory.hpp:76] Creating layer conv3_1
I1007 03:34:48.662453 19084 net.cpp:106] Creating Layer conv3_1
I1007 03:34:48.662456 19084 net.cpp:454] conv3_1 <- pool2
I1007 03:34:48.662464 19084 net.cpp:411] conv3_1 -> conv3_1
I1007 03:34:48.664479 19084 net.cpp:150] Setting up conv3_1
I1007 03:34:48.664494 19084 net.cpp:157] Top shape: 4 256 112 112 (12845056)
I1007 03:34:48.664497 19084 net.cpp:165] Memory required for data: 1373594656
I1007 03:34:48.664506 19084 layer_factory.hpp:76] Creating layer relu3_1
I1007 03:34:48.664515 19084 net.cpp:106] Creating Layer relu3_1
I1007 03:34:48.664518 19084 net.cpp:454] relu3_1 <- conv3_1
I1007 03:34:48.664522 19084 net.cpp:397] relu3_1 -> conv3_1 (in-place)
I1007 03:34:48.664880 19084 net.cpp:150] Setting up relu3_1
I1007 03:34:48.664892 19084 net.cpp:157] Top shape: 4 256 112 112 (12845056)
I1007 03:34:48.664896 19084 net.cpp:165] Memory required for data: 1424974880
I1007 03:34:48.664901 19084 layer_factory.hpp:76] Creating layer conv3_2
I1007 03:34:48.664909 19084 net.cpp:106] Creating Layer conv3_2
I1007 03:34:48.664914 19084 net.cpp:454] conv3_2 <- conv3_1
I1007 03:34:48.664926 19084 net.cpp:411] conv3_2 -> conv3_2
I1007 03:34:48.667569 19084 net.cpp:150] Setting up conv3_2
I1007 03:34:48.667584 19084 net.cpp:157] Top shape: 4 256 112 112 (12845056)
I1007 03:34:48.667587 19084 net.cpp:165] Memory required for data: 1476355104
I1007 03:34:48.667594 19084 layer_factory.hpp:76] Creating layer relu3_2
I1007 03:34:48.667600 19084 net.cpp:106] Creating Layer relu3_2
I1007 03:34:48.667603 19084 net.cpp:454] relu3_2 <- conv3_2
I1007 03:34:48.667610 19084 net.cpp:397] relu3_2 -> conv3_2 (in-place)
I1007 03:34:48.668022 19084 net.cpp:150] Setting up relu3_2
I1007 03:34:48.668035 19084 net.cpp:157] Top shape: 4 256 112 112 (12845056)
I1007 03:34:48.668040 19084 net.cpp:165] Memory required for data: 1527735328
I1007 03:34:48.668042 19084 layer_factory.hpp:76] Creating layer conv3_3
I1007 03:34:48.668052 19084 net.cpp:106] Creating Layer conv3_3
I1007 03:34:48.668056 19084 net.cpp:454] conv3_3 <- conv3_2
I1007 03:34:48.668063 19084 net.cpp:411] conv3_3 -> conv3_3
I1007 03:34:48.670722 19084 net.cpp:150] Setting up conv3_3
I1007 03:34:48.670737 19084 net.cpp:157] Top shape: 4 256 112 112 (12845056)
I1007 03:34:48.670740 19084 net.cpp:165] Memory required for data: 1579115552
I1007 03:34:48.670747 19084 layer_factory.hpp:76] Creating layer relu3_3
I1007 03:34:48.670753 19084 net.cpp:106] Creating Layer relu3_3
I1007 03:34:48.670756 19084 net.cpp:454] relu3_3 <- conv3_3
I1007 03:34:48.670763 19084 net.cpp:397] relu3_3 -> conv3_3 (in-place)
I1007 03:34:48.670960 19084 net.cpp:150] Setting up relu3_3
I1007 03:34:48.670972 19084 net.cpp:157] Top shape: 4 256 112 112 (12845056)
I1007 03:34:48.670975 19084 net.cpp:165] Memory required for data: 1630495776
I1007 03:34:48.670979 19084 layer_factory.hpp:76] Creating layer pool3
I1007 03:34:48.670987 19084 net.cpp:106] Creating Layer pool3
I1007 03:34:48.670992 19084 net.cpp:454] pool3 <- conv3_3
I1007 03:34:48.671001 19084 net.cpp:411] pool3 -> pool3
I1007 03:34:48.671406 19084 net.cpp:150] Setting up pool3
I1007 03:34:48.671421 19084 net.cpp:157] Top shape: 4 256 56 56 (3211264)
I1007 03:34:48.671423 19084 net.cpp:165] Memory required for data: 1643340832
I1007 03:34:48.671427 19084 layer_factory.hpp:76] Creating layer conv4_1
I1007 03:34:48.671437 19084 net.cpp:106] Creating Layer conv4_1
I1007 03:34:48.671440 19084 net.cpp:454] conv4_1 <- pool3
I1007 03:34:48.671447 19084 net.cpp:411] conv4_1 -> conv4_1
I1007 03:34:48.675925 19084 net.cpp:150] Setting up conv4_1
I1007 03:34:48.675940 19084 net.cpp:157] Top shape: 4 512 56 56 (6422528)
I1007 03:34:48.675943 19084 net.cpp:165] Memory required for data: 1669030944
I1007 03:34:48.675951 19084 layer_factory.hpp:76] Creating layer relu4_1
I1007 03:34:48.675956 19084 net.cpp:106] Creating Layer relu4_1
I1007 03:34:48.675961 19084 net.cpp:454] relu4_1 <- conv4_1
I1007 03:34:48.675968 19084 net.cpp:397] relu4_1 -> conv4_1 (in-place)
I1007 03:34:48.676172 19084 net.cpp:150] Setting up relu4_1
I1007 03:34:48.676183 19084 net.cpp:157] Top shape: 4 512 56 56 (6422528)
I1007 03:34:48.676187 19084 net.cpp:165] Memory required for data: 1694721056
I1007 03:34:48.676189 19084 layer_factory.hpp:76] Creating layer conv4_2
I1007 03:34:48.676198 19084 net.cpp:106] Creating Layer conv4_2
I1007 03:34:48.676203 19084 net.cpp:454] conv4_2 <- conv4_1
I1007 03:34:48.676213 19084 net.cpp:411] conv4_2 -> conv4_2
I1007 03:34:48.682736 19084 net.cpp:150] Setting up conv4_2
I1007 03:34:48.682752 19084 net.cpp:157] Top shape: 4 512 56 56 (6422528)
I1007 03:34:48.682756 19084 net.cpp:165] Memory required for data: 1720411168
I1007 03:34:48.682770 19084 layer_factory.hpp:76] Creating layer relu4_2
I1007 03:34:48.682776 19084 net.cpp:106] Creating Layer relu4_2
I1007 03:34:48.682780 19084 net.cpp:454] relu4_2 <- conv4_2
I1007 03:34:48.682787 19084 net.cpp:397] relu4_2 -> conv4_2 (in-place)
I1007 03:34:48.683176 19084 net.cpp:150] Setting up relu4_2
I1007 03:34:48.683189 19084 net.cpp:157] Top shape: 4 512 56 56 (6422528)
I1007 03:34:48.683193 19084 net.cpp:165] Memory required for data: 1746101280
I1007 03:34:48.683197 19084 layer_factory.hpp:76] Creating layer conv4_3
I1007 03:34:48.683205 19084 net.cpp:106] Creating Layer conv4_3
I1007 03:34:48.683210 19084 net.cpp:454] conv4_3 <- conv4_2
I1007 03:34:48.683218 19084 net.cpp:411] conv4_3 -> conv4_3
I1007 03:34:48.689705 19084 net.cpp:150] Setting up conv4_3
I1007 03:34:48.689723 19084 net.cpp:157] Top shape: 4 512 56 56 (6422528)
I1007 03:34:48.689728 19084 net.cpp:165] Memory required for data: 1771791392
I1007 03:34:48.689733 19084 layer_factory.hpp:76] Creating layer relu4_3
I1007 03:34:48.689743 19084 net.cpp:106] Creating Layer relu4_3
I1007 03:34:48.689748 19084 net.cpp:454] relu4_3 <- conv4_3
I1007 03:34:48.689752 19084 net.cpp:397] relu4_3 -> conv4_3 (in-place)
I1007 03:34:48.690112 19084 net.cpp:150] Setting up relu4_3
I1007 03:34:48.690126 19084 net.cpp:157] Top shape: 4 512 56 56 (6422528)
I1007 03:34:48.690129 19084 net.cpp:165] Memory required for data: 1797481504
I1007 03:34:48.690132 19084 layer_factory.hpp:76] Creating layer conv4_3_relu4_3_0_split
I1007 03:34:48.690140 19084 net.cpp:106] Creating Layer conv4_3_relu4_3_0_split
I1007 03:34:48.690143 19084 net.cpp:454] conv4_3_relu4_3_0_split <- conv4_3
I1007 03:34:48.690148 19084 net.cpp:411] conv4_3_relu4_3_0_split -> conv4_3_relu4_3_0_split_0
I1007 03:34:48.690158 19084 net.cpp:411] conv4_3_relu4_3_0_split -> conv4_3_relu4_3_0_split_1
I1007 03:34:48.690224 19084 net.cpp:150] Setting up conv4_3_relu4_3_0_split
I1007 03:34:48.690234 19084 net.cpp:157] Top shape: 4 512 56 56 (6422528)
I1007 03:34:48.690238 19084 net.cpp:157] Top shape: 4 512 56 56 (6422528)
I1007 03:34:48.690240 19084 net.cpp:165] Memory required for data: 1848861728
I1007 03:34:48.690243 19084 layer_factory.hpp:76] Creating layer loss1_conv1
I1007 03:34:48.690263 19084 net.cpp:106] Creating Layer loss1_conv1
I1007 03:34:48.690270 19084 net.cpp:454] loss1_conv1 <- conv4_3_relu4_3_0_split_0
I1007 03:34:48.690281 19084 net.cpp:411] loss1_conv1 -> loss1_conv1
I1007 03:34:48.796777 19084 net.cpp:150] Setting up loss1_conv1
I1007 03:34:48.796826 19084 net.cpp:157] Top shape: 4 512 56 56 (6422528)
I1007 03:34:48.796834 19084 net.cpp:165] Memory required for data: 1874551840
I1007 03:34:48.796849 19084 layer_factory.hpp:76] Creating layer loss_relu1
I1007 03:34:48.796865 19084 net.cpp:106] Creating Layer loss_relu1
I1007 03:34:48.796874 19084 net.cpp:454] loss_relu1 <- loss1_conv1
I1007 03:34:48.796888 19084 net.cpp:397] loss_relu1 -> loss1_conv1 (in-place)
I1007 03:34:48.797296 19084 net.cpp:150] Setting up loss_relu1
I1007 03:34:48.797318 19084 net.cpp:157] Top shape: 4 512 56 56 (6422528)
I1007 03:34:48.797324 19084 net.cpp:165] Memory required for data: 1900241952
I1007 03:34:48.797330 19084 layer_factory.hpp:76] Creating layer loss1_conv1_loss_relu1_0_split
I1007 03:34:48.797348 19084 net.cpp:106] Creating Layer loss1_conv1_loss_relu1_0_split
I1007 03:34:48.797358 19084 net.cpp:454] loss1_conv1_loss_relu1_0_split <- loss1_conv1
I1007 03:34:48.797368 19084 net.cpp:411] loss1_conv1_loss_relu1_0_split -> loss1_conv1_loss_relu1_0_split_0
I1007 03:34:48.797381 19084 net.cpp:411] loss1_conv1_loss_relu1_0_split -> loss1_conv1_loss_relu1_0_split_1
I1007 03:34:48.797497 19084 net.cpp:150] Setting up loss1_conv1_loss_relu1_0_split
I1007 03:34:48.797513 19084 net.cpp:157] Top shape: 4 512 56 56 (6422528)
I1007 03:34:48.797520 19084 net.cpp:157] Top shape: 4 512 56 56 (6422528)
I1007 03:34:48.797526 19084 net.cpp:165] Memory required for data: 1951622176
I1007 03:34:48.797533 19084 layer_factory.hpp:76] Creating layer LFCN_1_3x5
I1007 03:34:48.797550 19084 net.cpp:106] Creating Layer LFCN_1_3x5
I1007 03:34:48.797557 19084 net.cpp:454] LFCN_1_3x5 <- loss1_conv1_loss_relu1_0_split_0
I1007 03:34:48.797577 19084 net.cpp:411] LFCN_1_3x5 -> LFCN_1_3x5
I1007 03:34:48.803884 19084 net.cpp:150] Setting up LFCN_1_3x5
I1007 03:34:48.803910 19084 net.cpp:157] Top shape: 4 6 56 56 (75264)
I1007 03:34:48.803916 19084 net.cpp:165] Memory required for data: 1951923232
I1007 03:34:48.803927 19084 layer_factory.hpp:76] Creating layer LFCN_1_3x5_LFCN_1_3x5_0_split
I1007 03:34:48.803938 19084 net.cpp:106] Creating Layer LFCN_1_3x5_LFCN_1_3x5_0_split
I1007 03:34:48.803944 19084 net.cpp:454] LFCN_1_3x5_LFCN_1_3x5_0_split <- LFCN_1_3x5
I1007 03:34:48.803957 19084 net.cpp:411] LFCN_1_3x5_LFCN_1_3x5_0_split -> LFCN_1_3x5_LFCN_1_3x5_0_split_0
I1007 03:34:48.803971 19084 net.cpp:411] LFCN_1_3x5_LFCN_1_3x5_0_split -> LFCN_1_3x5_LFCN_1_3x5_0_split_1
I1007 03:34:48.804065 19084 net.cpp:150] Setting up LFCN_1_3x5_LFCN_1_3x5_0_split
I1007 03:34:48.804085 19084 net.cpp:157] Top shape: 4 6 56 56 (75264)
I1007 03:34:48.804097 19084 net.cpp:157] Top shape: 4 6 56 56 (75264)
I1007 03:34:48.804106 19084 net.cpp:165] Memory required for data: 1952525344
I1007 03:34:48.804116 19084 layer_factory.hpp:76] Creating layer detection_loss_1_3x5
I1007 03:34:48.804137 19084 net.cpp:106] Creating Layer detection_loss_1_3x5
I1007 03:34:48.804148 19084 net.cpp:454] detection_loss_1_3x5 <- LFCN_1_3x5_LFCN_1_3x5_0_split_0
I1007 03:34:48.804162 19084 net.cpp:454] detection_loss_1_3x5 <- label_1_3x5_data_1_split_0
I1007 03:34:48.804177 19084 net.cpp:411] detection_loss_1_3x5 -> loss_1_3x5
I1007 03:34:48.804208 19084 layer_factory.hpp:76] Creating layer detection_loss_1_3x5
I1007 03:34:48.805454 19084 net.cpp:150] Setting up detection_loss_1_3x5
I1007 03:34:48.805479 19084 net.cpp:157] Top shape: 1 1 1 2 (2)
I1007 03:34:48.805485 19084 net.cpp:160]     with loss weight 0.9
I1007 03:34:48.805517 19084 net.cpp:165] Memory required for data: 1952525352
I1007 03:34:48.805527 19084 layer_factory.hpp:76] Creating layer detection_accuracy_1_3x5
I1007 03:34:48.805551 19084 net.cpp:106] Creating Layer detection_accuracy_1_3x5
I1007 03:34:48.805570 19084 net.cpp:454] detection_accuracy_1_3x5 <- LFCN_1_3x5_LFCN_1_3x5_0_split_1
I1007 03:34:48.805585 19084 net.cpp:454] detection_accuracy_1_3x5 <- label_1_3x5_data_1_split_1
I1007 03:34:48.805600 19084 net.cpp:411] detection_accuracy_1_3x5 -> accuracy_1_3x5
I1007 03:34:48.805627 19084 net.cpp:411] detection_accuracy_1_3x5 -> boxiou_1_3x5
I1007 03:34:48.805744 19084 net.cpp:150] Setting up detection_accuracy_1_3x5
I1007 03:34:48.805761 19084 net.cpp:157] Top shape: 1 1 1 2 (2)
I1007 03:34:48.805768 19084 net.cpp:157] Top shape: 1 1 1 1 (1)
I1007 03:34:48.805773 19084 net.cpp:165] Memory required for data: 1952525364
I1007 03:34:48.805779 19084 layer_factory.hpp:76] Creating layer LFCN_1_5x7
I1007 03:34:48.805794 19084 net.cpp:106] Creating Layer LFCN_1_5x7
I1007 03:34:48.805801 19084 net.cpp:454] LFCN_1_5x7 <- loss1_conv1_loss_relu1_0_split_1
I1007 03:34:48.805820 19084 net.cpp:411] LFCN_1_5x7 -> LFCN_1_5x7
I1007 03:34:48.815464 19084 net.cpp:150] Setting up LFCN_1_5x7
I1007 03:34:48.815488 19084 net.cpp:157] Top shape: 4 6 56 56 (75264)
I1007 03:34:48.815493 19084 net.cpp:165] Memory required for data: 1952826420
I1007 03:34:48.815505 19084 layer_factory.hpp:76] Creating layer LFCN_1_5x7_LFCN_1_5x7_0_split
I1007 03:34:48.815524 19084 net.cpp:106] Creating Layer LFCN_1_5x7_LFCN_1_5x7_0_split
I1007 03:34:48.815533 19084 net.cpp:454] LFCN_1_5x7_LFCN_1_5x7_0_split <- LFCN_1_5x7
I1007 03:34:48.815543 19084 net.cpp:411] LFCN_1_5x7_LFCN_1_5x7_0_split -> LFCN_1_5x7_LFCN_1_5x7_0_split_0
I1007 03:34:48.815557 19084 net.cpp:411] LFCN_1_5x7_LFCN_1_5x7_0_split -> LFCN_1_5x7_LFCN_1_5x7_0_split_1
I1007 03:34:48.815676 19084 net.cpp:150] Setting up LFCN_1_5x7_LFCN_1_5x7_0_split
I1007 03:34:48.815693 19084 net.cpp:157] Top shape: 4 6 56 56 (75264)
I1007 03:34:48.815701 19084 net.cpp:157] Top shape: 4 6 56 56 (75264)
I1007 03:34:48.815704 19084 net.cpp:165] Memory required for data: 1953428532
I1007 03:34:48.815711 19084 layer_factory.hpp:76] Creating layer detection_loss_1_5x7
I1007 03:34:48.815722 19084 net.cpp:106] Creating Layer detection_loss_1_5x7
I1007 03:34:48.815740 19084 net.cpp:454] detection_loss_1_5x7 <- LFCN_1_5x7_LFCN_1_5x7_0_split_0
I1007 03:34:48.815754 19084 net.cpp:454] detection_loss_1_5x7 <- label_1_5x7_data_2_split_0
I1007 03:34:48.815768 19084 net.cpp:411] detection_loss_1_5x7 -> loss_1_5x7
I1007 03:34:48.815790 19084 layer_factory.hpp:76] Creating layer detection_loss_1_5x7
I1007 03:34:48.816704 19084 net.cpp:150] Setting up detection_loss_1_5x7
I1007 03:34:48.816725 19084 net.cpp:157] Top shape: 1 1 1 2 (2)
I1007 03:34:48.816731 19084 net.cpp:160]     with loss weight 0.9
I1007 03:34:48.816745 19084 net.cpp:165] Memory required for data: 1953428540
I1007 03:34:48.816751 19084 layer_factory.hpp:76] Creating layer detection_accuracy_1_5x7
I1007 03:34:48.816761 19084 net.cpp:106] Creating Layer detection_accuracy_1_5x7
I1007 03:34:48.816767 19084 net.cpp:454] detection_accuracy_1_5x7 <- LFCN_1_5x7_LFCN_1_5x7_0_split_1
I1007 03:34:48.816778 19084 net.cpp:454] detection_accuracy_1_5x7 <- label_1_5x7_data_2_split_1
I1007 03:34:48.816787 19084 net.cpp:411] detection_accuracy_1_5x7 -> accuracy_1_5x7
I1007 03:34:48.816798 19084 net.cpp:411] detection_accuracy_1_5x7 -> boxiou_1_5x7
I1007 03:34:48.816897 19084 net.cpp:150] Setting up detection_accuracy_1_5x7
I1007 03:34:48.816916 19084 net.cpp:157] Top shape: 1 1 1 2 (2)
I1007 03:34:48.816926 19084 net.cpp:157] Top shape: 1 1 1 1 (1)
I1007 03:34:48.816931 19084 net.cpp:165] Memory required for data: 1953428552
I1007 03:34:48.816936 19084 layer_factory.hpp:76] Creating layer pool4
I1007 03:34:48.816947 19084 net.cpp:106] Creating Layer pool4
I1007 03:34:48.816954 19084 net.cpp:454] pool4 <- conv4_3_relu4_3_0_split_1
I1007 03:34:48.816965 19084 net.cpp:411] pool4 -> pool4
I1007 03:34:48.817598 19084 net.cpp:150] Setting up pool4
I1007 03:34:48.817620 19084 net.cpp:157] Top shape: 4 512 28 28 (1605632)
I1007 03:34:48.817627 19084 net.cpp:165] Memory required for data: 1959851080
I1007 03:34:48.817633 19084 layer_factory.hpp:76] Creating layer conv5_1
I1007 03:34:48.817646 19084 net.cpp:106] Creating Layer conv5_1
I1007 03:34:48.817654 19084 net.cpp:454] conv5_1 <- pool4
I1007 03:34:48.817667 19084 net.cpp:411] conv5_1 -> conv5_1
I1007 03:34:48.827281 19084 net.cpp:150] Setting up conv5_1
I1007 03:34:48.827304 19084 net.cpp:157] Top shape: 4 512 28 28 (1605632)
I1007 03:34:48.827309 19084 net.cpp:165] Memory required for data: 1966273608
I1007 03:34:48.827323 19084 layer_factory.hpp:76] Creating layer relu5_1
I1007 03:34:48.827335 19084 net.cpp:106] Creating Layer relu5_1
I1007 03:34:48.827342 19084 net.cpp:454] relu5_1 <- conv5_1
I1007 03:34:48.827350 19084 net.cpp:397] relu5_1 -> conv5_1 (in-place)
I1007 03:34:48.827870 19084 net.cpp:150] Setting up relu5_1
I1007 03:34:48.827890 19084 net.cpp:157] Top shape: 4 512 28 28 (1605632)
I1007 03:34:48.827894 19084 net.cpp:165] Memory required for data: 1972696136
I1007 03:34:48.827900 19084 layer_factory.hpp:76] Creating layer conv5_2
I1007 03:34:48.827913 19084 net.cpp:106] Creating Layer conv5_2
I1007 03:34:48.827920 19084 net.cpp:454] conv5_2 <- conv5_1
I1007 03:34:48.827929 19084 net.cpp:411] conv5_2 -> conv5_2
I1007 03:34:48.837251 19084 net.cpp:150] Setting up conv5_2
I1007 03:34:48.837276 19084 net.cpp:157] Top shape: 4 512 28 28 (1605632)
I1007 03:34:48.837282 19084 net.cpp:165] Memory required for data: 1979118664
I1007 03:34:48.837292 19084 layer_factory.hpp:76] Creating layer relu5_2
I1007 03:34:48.837302 19084 net.cpp:106] Creating Layer relu5_2
I1007 03:34:48.837309 19084 net.cpp:454] relu5_2 <- conv5_2
I1007 03:34:48.837316 19084 net.cpp:397] relu5_2 -> conv5_2 (in-place)
I1007 03:34:48.837626 19084 net.cpp:150] Setting up relu5_2
I1007 03:34:48.837643 19084 net.cpp:157] Top shape: 4 512 28 28 (1605632)
I1007 03:34:48.837647 19084 net.cpp:165] Memory required for data: 1985541192
I1007 03:34:48.837652 19084 layer_factory.hpp:76] Creating layer conv5_3
I1007 03:34:48.837666 19084 net.cpp:106] Creating Layer conv5_3
I1007 03:34:48.837673 19084 net.cpp:454] conv5_3 <- conv5_2
I1007 03:34:48.837685 19084 net.cpp:411] conv5_3 -> conv5_3
I1007 03:34:48.846635 19084 net.cpp:150] Setting up conv5_3
I1007 03:34:48.846659 19084 net.cpp:157] Top shape: 4 512 28 28 (1605632)
I1007 03:34:48.846663 19084 net.cpp:165] Memory required for data: 1991963720
I1007 03:34:48.846673 19084 layer_factory.hpp:76] Creating layer relu5_3
I1007 03:34:48.846685 19084 net.cpp:106] Creating Layer relu5_3
I1007 03:34:48.846691 19084 net.cpp:454] relu5_3 <- conv5_3
I1007 03:34:48.846698 19084 net.cpp:397] relu5_3 -> conv5_3 (in-place)
I1007 03:34:48.847209 19084 net.cpp:150] Setting up relu5_3
I1007 03:34:48.847229 19084 net.cpp:157] Top shape: 4 512 28 28 (1605632)
I1007 03:34:48.847234 19084 net.cpp:165] Memory required for data: 1998386248
I1007 03:34:48.847239 19084 layer_factory.hpp:76] Creating layer conv5_3_relu5_3_0_split
I1007 03:34:48.847249 19084 net.cpp:106] Creating Layer conv5_3_relu5_3_0_split
I1007 03:34:48.847254 19084 net.cpp:454] conv5_3_relu5_3_0_split <- conv5_3
I1007 03:34:48.847262 19084 net.cpp:411] conv5_3_relu5_3_0_split -> conv5_3_relu5_3_0_split_0
I1007 03:34:48.847272 19084 net.cpp:411] conv5_3_relu5_3_0_split -> conv5_3_relu5_3_0_split_1
I1007 03:34:48.847283 19084 net.cpp:411] conv5_3_relu5_3_0_split -> conv5_3_relu5_3_0_split_2
I1007 03:34:48.847386 19084 net.cpp:150] Setting up conv5_3_relu5_3_0_split
I1007 03:34:48.847404 19084 net.cpp:157] Top shape: 4 512 28 28 (1605632)
I1007 03:34:48.847424 19084 net.cpp:157] Top shape: 4 512 28 28 (1605632)
I1007 03:34:48.847430 19084 net.cpp:157] Top shape: 4 512 28 28 (1605632)
I1007 03:34:48.847434 19084 net.cpp:165] Memory required for data: 2017653832
I1007 03:34:48.847440 19084 layer_factory.hpp:76] Creating layer LFCN_2_3x5
I1007 03:34:48.847455 19084 net.cpp:106] Creating Layer LFCN_2_3x5
I1007 03:34:48.847463 19084 net.cpp:454] LFCN_2_3x5 <- conv5_3_relu5_3_0_split_0
I1007 03:34:48.847479 19084 net.cpp:411] LFCN_2_3x5 -> LFCN_2_3x5
I1007 03:34:48.851420 19084 net.cpp:150] Setting up LFCN_2_3x5
I1007 03:34:48.851439 19084 net.cpp:157] Top shape: 4 6 28 28 (18816)
I1007 03:34:48.851449 19084 net.cpp:165] Memory required for data: 2017729096
I1007 03:34:48.851469 19084 layer_factory.hpp:76] Creating layer LFCN_2_3x5_LFCN_2_3x5_0_split
I1007 03:34:48.851477 19084 net.cpp:106] Creating Layer LFCN_2_3x5_LFCN_2_3x5_0_split
I1007 03:34:48.851482 19084 net.cpp:454] LFCN_2_3x5_LFCN_2_3x5_0_split <- LFCN_2_3x5
I1007 03:34:48.851492 19084 net.cpp:411] LFCN_2_3x5_LFCN_2_3x5_0_split -> LFCN_2_3x5_LFCN_2_3x5_0_split_0
I1007 03:34:48.851502 19084 net.cpp:411] LFCN_2_3x5_LFCN_2_3x5_0_split -> LFCN_2_3x5_LFCN_2_3x5_0_split_1
I1007 03:34:48.851562 19084 net.cpp:150] Setting up LFCN_2_3x5_LFCN_2_3x5_0_split
I1007 03:34:48.851574 19084 net.cpp:157] Top shape: 4 6 28 28 (18816)
I1007 03:34:48.851579 19084 net.cpp:157] Top shape: 4 6 28 28 (18816)
I1007 03:34:48.851583 19084 net.cpp:165] Memory required for data: 2017879624
I1007 03:34:48.851588 19084 layer_factory.hpp:76] Creating layer detection_loss_2_3x5
I1007 03:34:48.851599 19084 net.cpp:106] Creating Layer detection_loss_2_3x5
I1007 03:34:48.851608 19084 net.cpp:454] detection_loss_2_3x5 <- LFCN_2_3x5_LFCN_2_3x5_0_split_0
I1007 03:34:48.851618 19084 net.cpp:454] detection_loss_2_3x5 <- label_2_3x5_data_3_split_0
I1007 03:34:48.851632 19084 net.cpp:411] detection_loss_2_3x5 -> loss_2_3x5
I1007 03:34:48.851651 19084 layer_factory.hpp:76] Creating layer detection_loss_2_3x5
I1007 03:34:48.852417 19084 net.cpp:150] Setting up detection_loss_2_3x5
I1007 03:34:48.852435 19084 net.cpp:157] Top shape: 1 1 1 2 (2)
I1007 03:34:48.852439 19084 net.cpp:160]     with loss weight 1
I1007 03:34:48.852463 19084 net.cpp:165] Memory required for data: 2017879632
I1007 03:34:48.852468 19084 layer_factory.hpp:76] Creating layer detection_accuracy_2_3x5
I1007 03:34:48.852479 19084 net.cpp:106] Creating Layer detection_accuracy_2_3x5
I1007 03:34:48.852488 19084 net.cpp:454] detection_accuracy_2_3x5 <- LFCN_2_3x5_LFCN_2_3x5_0_split_1
I1007 03:34:48.852495 19084 net.cpp:454] detection_accuracy_2_3x5 <- label_2_3x5_data_3_split_1
I1007 03:34:48.852502 19084 net.cpp:411] detection_accuracy_2_3x5 -> accuracy_2_3x5
I1007 03:34:48.852512 19084 net.cpp:411] detection_accuracy_2_3x5 -> boxiou_2_3x5
I1007 03:34:48.852610 19084 net.cpp:150] Setting up detection_accuracy_2_3x5
I1007 03:34:48.852628 19084 net.cpp:157] Top shape: 1 1 1 2 (2)
I1007 03:34:48.852640 19084 net.cpp:157] Top shape: 1 1 1 1 (1)
I1007 03:34:48.852658 19084 net.cpp:165] Memory required for data: 2017879644
I1007 03:34:48.852663 19084 layer_factory.hpp:76] Creating layer LFCN_2_5x7
I1007 03:34:48.852679 19084 net.cpp:106] Creating Layer LFCN_2_5x7
I1007 03:34:48.852686 19084 net.cpp:454] LFCN_2_5x7 <- conv5_3_relu5_3_0_split_1
I1007 03:34:48.852697 19084 net.cpp:411] LFCN_2_5x7 -> LFCN_2_5x7
I1007 03:34:48.859922 19084 net.cpp:150] Setting up LFCN_2_5x7
I1007 03:34:48.859942 19084 net.cpp:157] Top shape: 4 6 28 28 (18816)
I1007 03:34:48.859947 19084 net.cpp:165] Memory required for data: 2017954908
I1007 03:34:48.859957 19084 layer_factory.hpp:76] Creating layer LFCN_2_5x7_LFCN_2_5x7_0_split
I1007 03:34:48.859967 19084 net.cpp:106] Creating Layer LFCN_2_5x7_LFCN_2_5x7_0_split
I1007 03:34:48.859978 19084 net.cpp:454] LFCN_2_5x7_LFCN_2_5x7_0_split <- LFCN_2_5x7
I1007 03:34:48.859987 19084 net.cpp:411] LFCN_2_5x7_LFCN_2_5x7_0_split -> LFCN_2_5x7_LFCN_2_5x7_0_split_0
I1007 03:34:48.859998 19084 net.cpp:411] LFCN_2_5x7_LFCN_2_5x7_0_split -> LFCN_2_5x7_LFCN_2_5x7_0_split_1
I1007 03:34:48.860072 19084 net.cpp:150] Setting up LFCN_2_5x7_LFCN_2_5x7_0_split
I1007 03:34:48.860088 19084 net.cpp:157] Top shape: 4 6 28 28 (18816)
I1007 03:34:48.860098 19084 net.cpp:157] Top shape: 4 6 28 28 (18816)
I1007 03:34:48.860116 19084 net.cpp:165] Memory required for data: 2018105436
I1007 03:34:48.860123 19084 layer_factory.hpp:76] Creating layer detection_loss_2_5x7
I1007 03:34:48.860138 19084 net.cpp:106] Creating Layer detection_loss_2_5x7
I1007 03:34:48.860149 19084 net.cpp:454] detection_loss_2_5x7 <- LFCN_2_5x7_LFCN_2_5x7_0_split_0
I1007 03:34:48.860160 19084 net.cpp:454] detection_loss_2_5x7 <- label_2_5x7_data_4_split_0
I1007 03:34:48.860172 19084 net.cpp:411] detection_loss_2_5x7 -> loss_2_5x7
I1007 03:34:48.860188 19084 layer_factory.hpp:76] Creating layer detection_loss_2_5x7
I1007 03:34:48.860741 19084 net.cpp:150] Setting up detection_loss_2_5x7
I1007 03:34:48.860756 19084 net.cpp:157] Top shape: 1 1 1 2 (2)
I1007 03:34:48.860760 19084 net.cpp:160]     with loss weight 1
I1007 03:34:48.860769 19084 net.cpp:165] Memory required for data: 2018105444
I1007 03:34:48.860772 19084 layer_factory.hpp:76] Creating layer detection_accuracy_2_5x7
I1007 03:34:48.860780 19084 net.cpp:106] Creating Layer detection_accuracy_2_5x7
I1007 03:34:48.860785 19084 net.cpp:454] detection_accuracy_2_5x7 <- LFCN_2_5x7_LFCN_2_5x7_0_split_1
I1007 03:34:48.860795 19084 net.cpp:454] detection_accuracy_2_5x7 <- label_2_5x7_data_4_split_1
I1007 03:34:48.860802 19084 net.cpp:411] detection_accuracy_2_5x7 -> accuracy_2_5x7
I1007 03:34:48.860811 19084 net.cpp:411] detection_accuracy_2_5x7 -> boxiou_2_5x7
I1007 03:34:48.860884 19084 net.cpp:150] Setting up detection_accuracy_2_5x7
I1007 03:34:48.860901 19084 net.cpp:157] Top shape: 1 1 1 2 (2)
I1007 03:34:48.860911 19084 net.cpp:157] Top shape: 1 1 1 1 (1)
I1007 03:34:48.860921 19084 net.cpp:165] Memory required for data: 2018105456
I1007 03:34:48.860929 19084 layer_factory.hpp:76] Creating layer pool5
I1007 03:34:48.860941 19084 net.cpp:106] Creating Layer pool5
I1007 03:34:48.860949 19084 net.cpp:454] pool5 <- conv5_3_relu5_3_0_split_2
I1007 03:34:48.860967 19084 net.cpp:411] pool5 -> pool5
I1007 03:34:48.861759 19084 net.cpp:150] Setting up pool5
I1007 03:34:48.861778 19084 net.cpp:157] Top shape: 4 512 14 14 (401408)
I1007 03:34:48.861783 19084 net.cpp:165] Memory required for data: 2019711088
I1007 03:34:48.861786 19084 layer_factory.hpp:76] Creating layer conv6_1
I1007 03:34:48.861799 19084 net.cpp:106] Creating Layer conv6_1
I1007 03:34:48.861806 19084 net.cpp:454] conv6_1 <- pool5
I1007 03:34:48.861817 19084 net.cpp:411] conv6_1 -> conv6_1
I1007 03:34:48.962116 19084 net.cpp:150] Setting up conv6_1
I1007 03:34:48.962141 19084 net.cpp:157] Top shape: 4 512 14 14 (401408)
I1007 03:34:48.962144 19084 net.cpp:165] Memory required for data: 2021316720
I1007 03:34:48.962152 19084 layer_factory.hpp:76] Creating layer relu6_1
I1007 03:34:48.962159 19084 net.cpp:106] Creating Layer relu6_1
I1007 03:34:48.962164 19084 net.cpp:454] relu6_1 <- conv6_1
I1007 03:34:48.962170 19084 net.cpp:397] relu6_1 -> conv6_1 (in-place)
I1007 03:34:48.962364 19084 net.cpp:150] Setting up relu6_1
I1007 03:34:48.962381 19084 net.cpp:157] Top shape: 4 512 14 14 (401408)
I1007 03:34:48.962386 19084 net.cpp:165] Memory required for data: 2022922352
I1007 03:34:48.962389 19084 layer_factory.hpp:76] Creating layer conv6_1_relu6_1_0_split
I1007 03:34:48.962396 19084 net.cpp:106] Creating Layer conv6_1_relu6_1_0_split
I1007 03:34:48.962401 19084 net.cpp:454] conv6_1_relu6_1_0_split <- conv6_1
I1007 03:34:48.962406 19084 net.cpp:411] conv6_1_relu6_1_0_split -> conv6_1_relu6_1_0_split_0
I1007 03:34:48.962414 19084 net.cpp:411] conv6_1_relu6_1_0_split -> conv6_1_relu6_1_0_split_1
I1007 03:34:48.962419 19084 net.cpp:411] conv6_1_relu6_1_0_split -> conv6_1_relu6_1_0_split_2
I1007 03:34:48.962503 19084 net.cpp:150] Setting up conv6_1_relu6_1_0_split
I1007 03:34:48.962517 19084 net.cpp:157] Top shape: 4 512 14 14 (401408)
I1007 03:34:48.962522 19084 net.cpp:157] Top shape: 4 512 14 14 (401408)
I1007 03:34:48.962525 19084 net.cpp:157] Top shape: 4 512 14 14 (401408)
I1007 03:34:48.962528 19084 net.cpp:165] Memory required for data: 2027739248
I1007 03:34:48.962532 19084 layer_factory.hpp:76] Creating layer LFCN_3_3x5
I1007 03:34:48.962543 19084 net.cpp:106] Creating Layer LFCN_3_3x5
I1007 03:34:48.962549 19084 net.cpp:454] LFCN_3_3x5 <- conv6_1_relu6_1_0_split_0
I1007 03:34:48.962556 19084 net.cpp:411] LFCN_3_3x5 -> LFCN_3_3x5
I1007 03:34:48.965418 19084 net.cpp:150] Setting up LFCN_3_3x5
I1007 03:34:48.965432 19084 net.cpp:157] Top shape: 4 6 14 14 (4704)
I1007 03:34:48.965436 19084 net.cpp:165] Memory required for data: 2027758064
I1007 03:34:48.965443 19084 layer_factory.hpp:76] Creating layer LFCN_3_3x5_LFCN_3_3x5_0_split
I1007 03:34:48.965458 19084 net.cpp:106] Creating Layer LFCN_3_3x5_LFCN_3_3x5_0_split
I1007 03:34:48.965462 19084 net.cpp:454] LFCN_3_3x5_LFCN_3_3x5_0_split <- LFCN_3_3x5
I1007 03:34:48.965469 19084 net.cpp:411] LFCN_3_3x5_LFCN_3_3x5_0_split -> LFCN_3_3x5_LFCN_3_3x5_0_split_0
I1007 03:34:48.965477 19084 net.cpp:411] LFCN_3_3x5_LFCN_3_3x5_0_split -> LFCN_3_3x5_LFCN_3_3x5_0_split_1
I1007 03:34:48.965529 19084 net.cpp:150] Setting up LFCN_3_3x5_LFCN_3_3x5_0_split
I1007 03:34:48.965539 19084 net.cpp:157] Top shape: 4 6 14 14 (4704)
I1007 03:34:48.965545 19084 net.cpp:157] Top shape: 4 6 14 14 (4704)
I1007 03:34:48.965550 19084 net.cpp:165] Memory required for data: 2027795696
I1007 03:34:48.965556 19084 layer_factory.hpp:76] Creating layer detection_loss_3_3x5
I1007 03:34:48.965567 19084 net.cpp:106] Creating Layer detection_loss_3_3x5
I1007 03:34:48.965574 19084 net.cpp:454] detection_loss_3_3x5 <- LFCN_3_3x5_LFCN_3_3x5_0_split_0
I1007 03:34:48.965580 19084 net.cpp:454] detection_loss_3_3x5 <- label_3_3x5_data_5_split_0
I1007 03:34:48.965590 19084 net.cpp:411] detection_loss_3_3x5 -> loss_3_3x5
I1007 03:34:48.965597 19084 layer_factory.hpp:76] Creating layer detection_loss_3_3x5
I1007 03:34:48.966028 19084 net.cpp:150] Setting up detection_loss_3_3x5
I1007 03:34:48.966042 19084 net.cpp:157] Top shape: 1 1 1 2 (2)
I1007 03:34:48.966044 19084 net.cpp:160]     with loss weight 1
I1007 03:34:48.966053 19084 net.cpp:165] Memory required for data: 2027795704
I1007 03:34:48.966056 19084 layer_factory.hpp:76] Creating layer detection_accuracy_3_3x5
I1007 03:34:48.966063 19084 net.cpp:106] Creating Layer detection_accuracy_3_3x5
I1007 03:34:48.966068 19084 net.cpp:454] detection_accuracy_3_3x5 <- LFCN_3_3x5_LFCN_3_3x5_0_split_1
I1007 03:34:48.966073 19084 net.cpp:454] detection_accuracy_3_3x5 <- label_3_3x5_data_5_split_1
I1007 03:34:48.966084 19084 net.cpp:411] detection_accuracy_3_3x5 -> accuracy_3_3x5
I1007 03:34:48.966095 19084 net.cpp:411] detection_accuracy_3_3x5 -> boxiou_3_3x5
I1007 03:34:48.966166 19084 net.cpp:150] Setting up detection_accuracy_3_3x5
I1007 03:34:48.966176 19084 net.cpp:157] Top shape: 1 1 1 2 (2)
I1007 03:34:48.966179 19084 net.cpp:157] Top shape: 1 1 1 1 (1)
I1007 03:34:48.966182 19084 net.cpp:165] Memory required for data: 2027795716
I1007 03:34:48.966186 19084 layer_factory.hpp:76] Creating layer LFCN_3_5x7
I1007 03:34:48.966197 19084 net.cpp:106] Creating Layer LFCN_3_5x7
I1007 03:34:48.966200 19084 net.cpp:454] LFCN_3_5x7 <- conv6_1_relu6_1_0_split_1
I1007 03:34:48.966205 19084 net.cpp:411] LFCN_3_5x7 -> LFCN_3_5x7
I1007 03:34:48.971824 19084 net.cpp:150] Setting up LFCN_3_5x7
I1007 03:34:48.971839 19084 net.cpp:157] Top shape: 4 6 14 14 (4704)
I1007 03:34:48.971843 19084 net.cpp:165] Memory required for data: 2027814532
I1007 03:34:48.971849 19084 layer_factory.hpp:76] Creating layer LFCN_3_5x7_LFCN_3_5x7_0_split
I1007 03:34:48.971858 19084 net.cpp:106] Creating Layer LFCN_3_5x7_LFCN_3_5x7_0_split
I1007 03:34:48.971861 19084 net.cpp:454] LFCN_3_5x7_LFCN_3_5x7_0_split <- LFCN_3_5x7
I1007 03:34:48.971868 19084 net.cpp:411] LFCN_3_5x7_LFCN_3_5x7_0_split -> LFCN_3_5x7_LFCN_3_5x7_0_split_0
I1007 03:34:48.971879 19084 net.cpp:411] LFCN_3_5x7_LFCN_3_5x7_0_split -> LFCN_3_5x7_LFCN_3_5x7_0_split_1
I1007 03:34:48.971954 19084 net.cpp:150] Setting up LFCN_3_5x7_LFCN_3_5x7_0_split
I1007 03:34:48.971964 19084 net.cpp:157] Top shape: 4 6 14 14 (4704)
I1007 03:34:48.971971 19084 net.cpp:157] Top shape: 4 6 14 14 (4704)
I1007 03:34:48.971976 19084 net.cpp:165] Memory required for data: 2027852164
I1007 03:34:48.971981 19084 layer_factory.hpp:76] Creating layer detection_loss_3_5x7
I1007 03:34:48.971992 19084 net.cpp:106] Creating Layer detection_loss_3_5x7
I1007 03:34:48.971998 19084 net.cpp:454] detection_loss_3_5x7 <- LFCN_3_5x7_LFCN_3_5x7_0_split_0
I1007 03:34:48.972007 19084 net.cpp:454] detection_loss_3_5x7 <- label_3_5x7_data_6_split_0
I1007 03:34:48.972018 19084 net.cpp:411] detection_loss_3_5x7 -> loss_3_5x7
I1007 03:34:48.972028 19084 layer_factory.hpp:76] Creating layer detection_loss_3_5x7
I1007 03:34:48.972645 19084 net.cpp:150] Setting up detection_loss_3_5x7
I1007 03:34:48.972658 19084 net.cpp:157] Top shape: 1 1 1 2 (2)
I1007 03:34:48.972661 19084 net.cpp:160]     with loss weight 1
I1007 03:34:48.972667 19084 net.cpp:165] Memory required for data: 2027852172
I1007 03:34:48.972671 19084 layer_factory.hpp:76] Creating layer detection_accuracy_3_5x7
I1007 03:34:48.972677 19084 net.cpp:106] Creating Layer detection_accuracy_3_5x7
I1007 03:34:48.972681 19084 net.cpp:454] detection_accuracy_3_5x7 <- LFCN_3_5x7_LFCN_3_5x7_0_split_1
I1007 03:34:48.972687 19084 net.cpp:454] detection_accuracy_3_5x7 <- label_3_5x7_data_6_split_1
I1007 03:34:48.972693 19084 net.cpp:411] detection_accuracy_3_5x7 -> accuracy_3_5x7
I1007 03:34:48.972700 19084 net.cpp:411] detection_accuracy_3_5x7 -> boxiou_3_5x7
I1007 03:34:48.972754 19084 net.cpp:150] Setting up detection_accuracy_3_5x7
I1007 03:34:48.972765 19084 net.cpp:157] Top shape: 1 1 1 2 (2)
I1007 03:34:48.972772 19084 net.cpp:157] Top shape: 1 1 1 1 (1)
I1007 03:34:48.972776 19084 net.cpp:165] Memory required for data: 2027852184
I1007 03:34:48.972780 19084 layer_factory.hpp:76] Creating layer pool6
I1007 03:34:48.972790 19084 net.cpp:106] Creating Layer pool6
I1007 03:34:48.972795 19084 net.cpp:454] pool6 <- conv6_1_relu6_1_0_split_2
I1007 03:34:48.972803 19084 net.cpp:411] pool6 -> pool6
I1007 03:34:48.973057 19084 net.cpp:150] Setting up pool6
I1007 03:34:48.973068 19084 net.cpp:157] Top shape: 4 512 7 7 (100352)
I1007 03:34:48.973072 19084 net.cpp:165] Memory required for data: 2028253592
I1007 03:34:48.973074 19084 layer_factory.hpp:76] Creating layer LFCN_4_3x5
I1007 03:34:48.973083 19084 net.cpp:106] Creating Layer LFCN_4_3x5
I1007 03:34:48.973088 19084 net.cpp:454] LFCN_4_3x5 <- pool6
I1007 03:34:48.973094 19084 net.cpp:411] LFCN_4_3x5 -> LFCN_4_3x5
I1007 03:34:48.976191 19084 net.cpp:150] Setting up LFCN_4_3x5
I1007 03:34:48.976207 19084 net.cpp:157] Top shape: 4 6 7 7 (1176)
I1007 03:34:48.976210 19084 net.cpp:165] Memory required for data: 2028258296
I1007 03:34:48.976217 19084 layer_factory.hpp:76] Creating layer LFCN_4_3x5_LFCN_4_3x5_0_split
I1007 03:34:48.976225 19084 net.cpp:106] Creating Layer LFCN_4_3x5_LFCN_4_3x5_0_split
I1007 03:34:48.976230 19084 net.cpp:454] LFCN_4_3x5_LFCN_4_3x5_0_split <- LFCN_4_3x5
I1007 03:34:48.976235 19084 net.cpp:411] LFCN_4_3x5_LFCN_4_3x5_0_split -> LFCN_4_3x5_LFCN_4_3x5_0_split_0
I1007 03:34:48.976243 19084 net.cpp:411] LFCN_4_3x5_LFCN_4_3x5_0_split -> LFCN_4_3x5_LFCN_4_3x5_0_split_1
I1007 03:34:48.976320 19084 net.cpp:150] Setting up LFCN_4_3x5_LFCN_4_3x5_0_split
I1007 03:34:48.976335 19084 net.cpp:157] Top shape: 4 6 7 7 (1176)
I1007 03:34:48.976339 19084 net.cpp:157] Top shape: 4 6 7 7 (1176)
I1007 03:34:48.976341 19084 net.cpp:165] Memory required for data: 2028267704
I1007 03:34:48.976346 19084 layer_factory.hpp:76] Creating layer detection_loss_4_3x5
I1007 03:34:48.976352 19084 net.cpp:106] Creating Layer detection_loss_4_3x5
I1007 03:34:48.976357 19084 net.cpp:454] detection_loss_4_3x5 <- LFCN_4_3x5_LFCN_4_3x5_0_split_0
I1007 03:34:48.976364 19084 net.cpp:454] detection_loss_4_3x5 <- label_4_3x5_data_7_split_0
I1007 03:34:48.976372 19084 net.cpp:411] detection_loss_4_3x5 -> loss_4_3x5
I1007 03:34:48.976384 19084 layer_factory.hpp:76] Creating layer detection_loss_4_3x5
I1007 03:34:48.976996 19084 net.cpp:150] Setting up detection_loss_4_3x5
I1007 03:34:48.977010 19084 net.cpp:157] Top shape: 1 1 1 2 (2)
I1007 03:34:48.977013 19084 net.cpp:160]     with loss weight 1
I1007 03:34:48.977020 19084 net.cpp:165] Memory required for data: 2028267712
I1007 03:34:48.977023 19084 layer_factory.hpp:76] Creating layer detection_accuracy_4_3x5
I1007 03:34:48.977031 19084 net.cpp:106] Creating Layer detection_accuracy_4_3x5
I1007 03:34:48.977035 19084 net.cpp:454] detection_accuracy_4_3x5 <- LFCN_4_3x5_LFCN_4_3x5_0_split_1
I1007 03:34:48.977041 19084 net.cpp:454] detection_accuracy_4_3x5 <- label_4_3x5_data_7_split_1
I1007 03:34:48.977047 19084 net.cpp:411] detection_accuracy_4_3x5 -> accuracy_4_3x5
I1007 03:34:48.977056 19084 net.cpp:411] detection_accuracy_4_3x5 -> boxiou_4_3x5
I1007 03:34:48.977131 19084 net.cpp:150] Setting up detection_accuracy_4_3x5
I1007 03:34:48.977143 19084 net.cpp:157] Top shape: 1 1 1 2 (2)
I1007 03:34:48.977146 19084 net.cpp:157] Top shape: 1 1 1 1 (1)
I1007 03:34:48.977149 19084 net.cpp:165] Memory required for data: 2028267724
I1007 03:34:48.977152 19084 net.cpp:228] detection_accuracy_4_3x5 does not need backward computation.
I1007 03:34:48.977156 19084 net.cpp:226] detection_loss_4_3x5 needs backward computation.
I1007 03:34:48.977159 19084 net.cpp:226] LFCN_4_3x5_LFCN_4_3x5_0_split needs backward computation.
I1007 03:34:48.977162 19084 net.cpp:226] LFCN_4_3x5 needs backward computation.
…
I1007 03:34:48.987761 19084 image_gt_data_layer.cpp:234] output label size 1 : 2,6,56,56
I1007 03:34:48.987898 19084 image_gt_data_layer.cpp:234] output label size 2 : 2,6,28,28
I1007 03:34:48.988026 19084 image_gt_data_layer.cpp:234] output label size 3 : 2,6,28,28
I1007 03:34:48.988160 19084 image_gt_data_layer.cpp:234] output label size 4 : 2,6,14,14
I1007 03:34:48.988288 19084 image_gt_data_layer.cpp:234] output label size 5 : 2,6,14,14
I1007 03:34:48.988409 19084 image_gt_data_layer.cpp:234] output label size 6 : 2,6,7,7
I1007 03:34:49.009074 19084 net.cpp:150] Setting up data
I1007 03:34:49.009129 19084 net.cpp:157] Top shape: 2 3 448 448 (1204224)
I1007 03:34:49.009140 19084 net.cpp:157] Top shape: 2 6 56 56 (37632)
I1007 03:34:49.009148 19084 net.cpp:157] Top shape: 2 6 56 56 (37632)
I1007 03:34:49.009155 19084 net.cpp:157] Top shape: 2 6 28 28 (9408)
I1007 03:34:49.009163 19084 net.cpp:157] Top shape: 2 6 28 28 (9408)
I1007 03:34:49.009176 19084 net.cpp:157] Top shape: 2 6 14 14 (2352)
I1007 03:34:49.009183 19084 net.cpp:157] Top shape: 2 6 14 14 (2352)
I1007 03:34:49.009191 19084 net.cpp:157] Top shape: 2 6 7 7 (588)
I1007 03:34:49.009196 19084 net.cpp:165] Memory required for data: 5214384
I1007 03:34:49.009207 19084 layer_factory.hpp:76] Creating layer label_1_3x5_data_1_split
I1007 03:34:49.009232 19084 net.cpp:106] Creating Layer label_1_3x5_data_1_split
I1007 03:34:49.009248 19084 net.cpp:454] label_1_3x5_data_1_split <- label_1_3x5
I1007 03:34:49.009263 19084 net.cpp:411] label_1_3x5_data_1_split -> label_1_3x5_data_1_split_0
I1007 03:34:49.009282 19084 net.cpp:411] label_1_3x5_data_1_split -> label_1_3x5_data_1_split_1
I1007 03:34:49.009544 19084 net.cpp:150] Setting up label_1_3x5_data_1_split
I1007 03:34:49.009567 19084 net.cpp:157] Top shape: 2 6 56 56 (37632)
I1007 03:34:49.009574 19084 net.cpp:157] Top shape: 2 6 56 56 (37632)
I1007 03:34:49.009579 19084 net.cpp:165] Memory required for data: 5515440
I1007 03:34:49.009587 19084 layer_factory.hpp:76] Creating layer label_1_5x7_data_2_split
I1007 03:34:49.009613 19084 net.cpp:106] Creating Layer label_1_5x7_data_2_split
I1007 03:34:49.009627 19084 net.cpp:454] label_1_5x7_data_2_split <- label_1_5x7
I1007 03:34:49.009647 19084 net.cpp:411] label_1_5x7_data_2_split -> label_1_5x7_data_2_split_0
I1007 03:34:49.009670 19084 net.cpp:411] label_1_5x7_data_2_split -> label_1_5x7_data_2_split_1
I1007 03:34:49.009776 19084 net.cpp:150] Setting up label_1_5x7_data_2_split
I1007 03:34:49.009793 19084 net.cpp:157] Top shape: 2 6 56 56 (37632)
I1007 03:34:49.009800 19084 net.cpp:157] Top shape: 2 6 56 56 (37632)
I1007 03:34:49.009805 19084 net.cpp:165] Memory required for data: 5816496
I1007 03:34:49.009811 19084 layer_factory.hpp:76] Creating layer label_2_3x5_data_3_split
I1007 03:34:49.009834 19084 net.cpp:106] Creating Layer label_2_3x5_data_3_split
I1007 03:34:49.009846 19084 net.cpp:454] label_2_3x5_data_3_split <- label_2_3x5
I1007 03:34:49.009866 19084 net.cpp:411] label_2_3x5_data_3_split -> label_2_3x5_data_3_split_0
I1007 03:34:49.009889 19084 net.cpp:411] label_2_3x5_data_3_split -> label_2_3x5_data_3_split_1
I1007 03:34:49.010018 19084 net.cpp:150] Setting up label_2_3x5_data_3_split
I1007 03:34:49.010036 19084 net.cpp:157] Top shape: 2 6 28 28 (9408)
I1007 03:34:49.010045 19084 net.cpp:157] Top shape: 2 6 28 28 (9408)
I1007 03:34:49.010051 19084 net.cpp:165] Memory required for data: 5891760
I1007 03:34:49.010062 19084 layer_factory.hpp:76] Creating layer label_2_5x7_data_4_split
I1007 03:34:49.010082 19084 net.cpp:106] Creating Layer label_2_5x7_data_4_split
I1007 03:34:49.010094 19084 net.cpp:454] label_2_5x7_data_4_split <- label_2_5x7
I1007 03:34:49.010118 19084 net.cpp:411] label_2_5x7_data_4_split -> label_2_5x7_data_4_split_0
I1007 03:34:49.010140 19084 net.cpp:411] label_2_5x7_data_4_split -> label_2_5x7_data_4_split_1
I1007 03:34:49.010267 19084 net.cpp:150] Setting up label_2_5x7_data_4_split
I1007 03:34:49.010288 19084 net.cpp:157] Top shape: 2 6 28 28 (9408)
I1007 03:34:49.010295 19084 net.cpp:157] Top shape: 2 6 28 28 (9408)
I1007 03:34:49.010300 19084 net.cpp:165] Memory required for data: 5967024
I1007 03:34:49.010306 19084 layer_factory.hpp:76] Creating layer label_3_3x5_data_5_split
I1007 03:34:49.010318 19084 net.cpp:106] Creating Layer label_3_3x5_data_5_split
I1007 03:34:49.010329 19084 net.cpp:454] label_3_3x5_data_5_split <- label_3_3x5
I1007 03:34:49.010345 19084 net.cpp:411] label_3_3x5_data_5_split -> label_3_3x5_data_5_split_0
I1007 03:34:49.010376 19084 net.cpp:411] label_3_3x5_data_5_split -> label_3_3x5_data_5_split_1
I1007 03:34:49.010489 19084 net.cpp:150] Setting up label_3_3x5_data_5_split
I1007 03:34:49.010509 19084 net.cpp:157] Top shape: 2 6 14 14 (2352)
I1007 03:34:49.010515 19084 net.cpp:157] Top shape: 2 6 14 14 (2352)
I1007 03:34:49.010520 19084 net.cpp:165] Memory required for data: 5985840
I1007 03:34:49.010527 19084 layer_factory.hpp:76] Creating layer label_3_5x7_data_6_split
I1007 03:34:49.010540 19084 net.cpp:106] Creating Layer label_3_5x7_data_6_split
I1007 03:34:49.010545 19084 net.cpp:454] label_3_5x7_data_6_split <- label_3_5x7
I1007 03:34:49.010555 19084 net.cpp:411] label_3_5x7_data_6_split -> label_3_5x7_data_6_split_0
I1007 03:34:49.010565 19084 net.cpp:411] label_3_5x7_data_6_split -> label_3_5x7_data_6_split_1
I1007 03:34:49.010640 19084 net.cpp:150] Setting up label_3_5x7_data_6_split
I1007 03:34:49.010659 19084 net.cpp:157] Top shape: 2 6 14 14 (2352)
I1007 03:34:49.010666 19084 net.cpp:157] Top shape: 2 6 14 14 (2352)
I1007 03:34:49.010671 19084 net.cpp:165] Memory required for data: 6004656
I1007 03:34:49.010677 19084 layer_factory.hpp:76] Creating layer label_4_3x5_data_7_split
I1007 03:34:49.010686 19084 net.cpp:106] Creating Layer label_4_3x5_data_7_split
I1007 03:34:49.010692 19084 net.cpp:454] label_4_3x5_data_7_split <- label_4_3x5
I1007 03:34:49.010700 19084 net.cpp:411] label_4_3x5_data_7_split -> label_4_3x5_data_7_split_0
I1007 03:34:49.010710 19084 net.cpp:411] label_4_3x5_data_7_split -> label_4_3x5_data_7_split_1
I1007 03:34:49.010782 19084 net.cpp:150] Setting up label_4_3x5_data_7_split
I1007 03:34:49.010795 19084 net.cpp:157] Top shape: 2 6 7 7 (588)
I1007 03:34:49.010802 19084 net.cpp:157] Top shape: 2 6 7 7 (588)
I1007 03:34:49.010808 19084 net.cpp:165] Memory required for data: 6009360
I1007 03:34:49.010814 19084 layer_factory.hpp:76] Creating layer conv1_1
I1007 03:34:49.010833 19084 net.cpp:106] Creating Layer conv1_1
I1007 03:34:49.010840 19084 net.cpp:454] conv1_1 <- data
I1007 03:34:49.010850 19084 net.cpp:411] conv1_1 -> conv1_1
I1007 03:34:49.015525 19084 net.cpp:150] Setting up conv1_1
I1007 03:34:49.015578 19084 net.cpp:157] Top shape: 2 64 448 448 (25690112)
I1007 03:34:49.015584 19084 net.cpp:165] Memory required for data: 108769808
I1007 03:34:49.015612 19084 layer_factory.hpp:76] Creating layer relu1_1
I1007 03:34:49.015635 19084 net.cpp:106] Creating Layer relu1_1
I1007 03:34:49.015645 19084 net.cpp:454] relu1_1 <- conv1_1
I1007 03:34:49.015657 19084 net.cpp:397] relu1_1 -> conv1_1 (in-place)
I1007 03:34:49.016391 19084 net.cpp:150] Setting up relu1_1
I1007 03:34:49.016418 19084 net.cpp:157] Top shape: 2 64 448 448 (25690112)
I1007 03:34:49.016425 19084 net.cpp:165] Memory required for data: 211530256
I1007 03:34:49.016433 19084 layer_factory.hpp:76] Creating layer conv1_2
I1007 03:34:49.016453 19084 net.cpp:106] Creating Layer conv1_2
I1007 03:34:49.016460 19084 net.cpp:454] conv1_2 <- conv1_1
I1007 03:34:49.016471 19084 net.cpp:411] conv1_2 -> conv1_2
I1007 03:34:49.021301 19084 net.cpp:150] Setting up conv1_2
I1007 03:34:49.021358 19084 net.cpp:157] Top shape: 2 64 448 448 (25690112)
I1007 03:34:49.021365 19084 net.cpp:165] Memory required for data: 314290704
I1007 03:34:49.021392 19084 layer_factory.hpp:76] Creating layer relu1_2
I1007 03:34:49.021415 19084 net.cpp:106] Creating Layer relu1_2
I1007 03:34:49.021423 19084 net.cpp:454] relu1_2 <- conv1_2
I1007 03:34:49.021436 19084 net.cpp:397] relu1_2 -> conv1_2 (in-place)
I1007 03:34:49.021839 19084 net.cpp:150] Setting up relu1_2
I1007 03:34:49.021859 19084 net.cpp:157] Top shape: 2 64 448 448 (25690112)
I1007 03:34:49.021864 19084 net.cpp:165] Memory required for data: 417051152
I1007 03:34:49.021870 19084 layer_factory.hpp:76] Creating layer pool1
I1007 03:34:49.021883 19084 net.cpp:106] Creating Layer pool1
I1007 03:34:49.021888 19084 net.cpp:454] pool1 <- conv1_2
I1007 03:34:49.021903 19084 net.cpp:411] pool1 -> pool1
I1007 03:34:49.022663 19084 net.cpp:150] Setting up pool1
I1007 03:34:49.022687 19084 net.cpp:157] Top shape: 2 64 224 224 (6422528)
I1007 03:34:49.022693 19084 net.cpp:165] Memory required for data: 442741264
I1007 03:34:49.022701 19084 layer_factory.hpp:76] Creating layer conv2_1
I1007 03:34:49.022717 19084 net.cpp:106] Creating Layer conv2_1
I1007 03:34:49.022724 19084 net.cpp:454] conv2_1 <- pool1
I1007 03:34:49.022735 19084 net.cpp:411] conv2_1 -> conv2_1
I1007 03:34:49.025065 19084 net.cpp:150] Setting up conv2_1
I1007 03:34:49.025112 19084 net.cpp:157] Top shape: 2 128 224 224 (12845056)
I1007 03:34:49.025118 19084 net.cpp:165] Memory required for data: 494121488
I1007 03:34:49.025143 19084 layer_factory.hpp:76] Creating layer relu2_1
I1007 03:34:49.025159 19084 net.cpp:106] Creating Layer relu2_1
I1007 03:34:49.025167 19084 net.cpp:454] relu2_1 <- conv2_1
I1007 03:34:49.025179 19084 net.cpp:397] relu2_1 -> conv2_1 (in-place)
I1007 03:34:49.025529 19084 net.cpp:150] Setting up relu2_1
I1007 03:34:49.025547 19084 net.cpp:157] Top shape: 2 128 224 224 (12845056)
I1007 03:34:49.025552 19084 net.cpp:165] Memory required for data: 545501712
I1007 03:34:49.025558 19084 layer_factory.hpp:76] Creating layer conv2_2
I1007 03:34:49.025571 19084 net.cpp:106] Creating Layer conv2_2
I1007 03:34:49.025578 19084 net.cpp:454] conv2_2 <- conv2_1
I1007 03:34:49.025609 19084 net.cpp:411] conv2_2 -> conv2_2
I1007 03:34:49.028837 19084 net.cpp:150] Setting up conv2_2
I1007 03:34:49.028872 19084 net.cpp:157] Top shape: 2 128 224 224 (12845056)
I1007 03:34:49.028878 19084 net.cpp:165] Memory required for data: 596881936
I1007 03:34:49.028892 19084 layer_factory.hpp:76] Creating layer relu2_2
I1007 03:34:49.028913 19084 net.cpp:106] Creating Layer relu2_2
I1007 03:34:49.028919 19084 net.cpp:454] relu2_2 <- conv2_2
I1007 03:34:49.028929 19084 net.cpp:397] relu2_2 -> conv2_2 (in-place)
I1007 03:34:49.029495 19084 net.cpp:150] Setting up relu2_2
I1007 03:34:49.029516 19084 net.cpp:157] Top shape: 2 128 224 224 (12845056)
I1007 03:34:49.029525 19084 net.cpp:165] Memory required for data: 648262160
I1007 03:34:49.029531 19084 layer_factory.hpp:76] Creating layer pool2
I1007 03:34:49.029542 19084 net.cpp:106] Creating Layer pool2
I1007 03:34:49.029549 19084 net.cpp:454] pool2 <- conv2_2
I1007 03:34:49.029558 19084 net.cpp:411] pool2 -> pool2
I1007 03:34:49.029959 19084 net.cpp:150] Setting up pool2
I1007 03:34:49.029978 19084 net.cpp:157] Top shape: 2 128 112 112 (3211264)
I1007 03:34:49.029983 19084 net.cpp:165] Memory required for data: 661107216
I1007 03:34:49.029988 19084 layer_factory.hpp:76] Creating layer conv3_1
I1007 03:34:49.030004 19084 net.cpp:106] Creating Layer conv3_1
I1007 03:34:49.030009 19084 net.cpp:454] conv3_1 <- pool2
I1007 03:34:49.030019 19084 net.cpp:411] conv3_1 -> conv3_1
I1007 03:34:49.033308 19084 net.cpp:150] Setting up conv3_1
I1007 03:34:49.033362 19084 net.cpp:157] Top shape: 2 256 112 112 (6422528)
I1007 03:34:49.033368 19084 net.cpp:165] Memory required for data: 686797328
I1007 03:34:49.033391 19084 layer_factory.hpp:76] Creating layer relu3_1
I1007 03:34:49.033407 19084 net.cpp:106] Creating Layer relu3_1
I1007 03:34:49.033416 19084 net.cpp:454] relu3_1 <- conv3_1
I1007 03:34:49.033426 19084 net.cpp:397] relu3_1 -> conv3_1 (in-place)
I1007 03:34:49.033757 19084 net.cpp:150] Setting up relu3_1
I1007 03:34:49.033774 19084 net.cpp:157] Top shape: 2 256 112 112 (6422528)
I1007 03:34:49.033779 19084 net.cpp:165] Memory required for data: 712487440
I1007 03:34:49.033784 19084 layer_factory.hpp:76] Creating layer conv3_2
I1007 03:34:49.033800 19084 net.cpp:106] Creating Layer conv3_2
I1007 03:34:49.033807 19084 net.cpp:454] conv3_2 <- conv3_1
I1007 03:34:49.033816 19084 net.cpp:411] conv3_2 -> conv3_2
I1007 03:34:49.039690 19084 net.cpp:150] Setting up conv3_2
I1007 03:34:49.039734 19084 net.cpp:157] Top shape: 2 256 112 112 (6422528)
I1007 03:34:49.039741 19084 net.cpp:165] Memory required for data: 738177552
I1007 03:34:49.039757 19084 layer_factory.hpp:76] Creating layer relu3_2
I1007 03:34:49.039775 19084 net.cpp:106] Creating Layer relu3_2
I1007 03:34:49.039783 19084 net.cpp:454] relu3_2 <- conv3_2
I1007 03:34:49.039799 19084 net.cpp:397] relu3_2 -> conv3_2 (in-place)
I1007 03:34:49.040482 19084 net.cpp:150] Setting up relu3_2
I1007 03:34:49.040506 19084 net.cpp:157] Top shape: 2 256 112 112 (6422528)
I1007 03:34:49.040511 19084 net.cpp:165] Memory required for data: 763867664
I1007 03:34:49.040518 19084 layer_factory.hpp:76] Creating layer conv3_3
I1007 03:34:49.040535 19084 net.cpp:106] Creating Layer conv3_3
I1007 03:34:49.040542 19084 net.cpp:454] conv3_3 <- conv3_2
I1007 03:34:49.040555 19084 net.cpp:411] conv3_3 -> conv3_3
I1007 03:34:49.045351 19084 net.cpp:150] Setting up conv3_3
I1007 03:34:49.045403 19084 net.cpp:157] Top shape: 2 256 112 112 (6422528)
I1007 03:34:49.045409 19084 net.cpp:165] Memory required for data: 789557776
I1007 03:34:49.045426 19084 layer_factory.hpp:76] Creating layer relu3_3
I1007 03:34:49.045444 19084 net.cpp:106] Creating Layer relu3_3
I1007 03:34:49.045456 19084 net.cpp:454] relu3_3 <- conv3_3
I1007 03:34:49.045469 19084 net.cpp:397] relu3_3 -> conv3_3 (in-place)
I1007 03:34:49.045804 19084 net.cpp:150] Setting up relu3_3
I1007 03:34:49.045821 19084 net.cpp:157] Top shape: 2 256 112 112 (6422528)
I1007 03:34:49.045827 19084 net.cpp:165] Memory required for data: 815247888
I1007 03:34:49.045832 19084 layer_factory.hpp:76] Creating layer pool3
I1007 03:34:49.045846 19084 net.cpp:106] Creating Layer pool3
I1007 03:34:49.045852 19084 net.cpp:454] pool3 <- conv3_3
I1007 03:34:49.045866 19084 net.cpp:411] pool3 -> pool3
I1007 03:34:49.046540 19084 net.cpp:150] Setting up pool3
I1007 03:34:49.046561 19084 net.cpp:157] Top shape: 2 256 56 56 (1605632)
I1007 03:34:49.046566 19084 net.cpp:165] Memory required for data: 821670416
I1007 03:34:49.046572 19084 layer_factory.hpp:76] Creating layer conv4_1
I1007 03:34:49.046591 19084 net.cpp:106] Creating Layer conv4_1
I1007 03:34:49.046597 19084 net.cpp:454] conv4_1 <- pool3
I1007 03:34:49.046607 19084 net.cpp:411] conv4_1 -> conv4_1
I1007 03:34:49.053105 19084 net.cpp:150] Setting up conv4_1
I1007 03:34:49.053154 19084 net.cpp:157] Top shape: 2 512 56 56 (3211264)
I1007 03:34:49.053161 19084 net.cpp:165] Memory required for data: 834515472
I1007 03:34:49.053177 19084 layer_factory.hpp:76] Creating layer relu4_1
I1007 03:34:49.053194 19084 net.cpp:106] Creating Layer relu4_1
I1007 03:34:49.053202 19084 net.cpp:454] relu4_1 <- conv4_1
I1007 03:34:49.053216 19084 net.cpp:397] relu4_1 -> conv4_1 (in-place)
I1007 03:34:49.054141 19084 net.cpp:150] Setting up relu4_1
I1007 03:34:49.054167 19084 net.cpp:157] Top shape: 2 512 56 56 (3211264)
I1007 03:34:49.054173 19084 net.cpp:165] Memory required for data: 847360528
I1007 03:34:49.054179 19084 layer_factory.hpp:76] Creating layer conv4_2
I1007 03:34:49.054198 19084 net.cpp:106] Creating Layer conv4_2
I1007 03:34:49.054205 19084 net.cpp:454] conv4_2 <- conv4_1
I1007 03:34:49.054216 19084 net.cpp:411] conv4_2 -> conv4_2
I1007 03:34:49.064617 19084 net.cpp:150] Setting up conv4_2
I1007 03:34:49.064666 19084 net.cpp:157] Top shape: 2 512 56 56 (3211264)
I1007 03:34:49.064671 19084 net.cpp:165] Memory required for data: 860205584
I1007 03:34:49.064698 19084 layer_factory.hpp:76] Creating layer relu4_2
I1007 03:34:49.064718 19084 net.cpp:106] Creating Layer relu4_2
I1007 03:34:49.064726 19084 net.cpp:454] relu4_2 <- conv4_2
I1007 03:34:49.064738 19084 net.cpp:397] relu4_2 -> conv4_2 (in-place)
I1007 03:34:49.065042 19084 net.cpp:150] Setting up relu4_2
I1007 03:34:49.065057 19084 net.cpp:157] Top shape: 2 512 56 56 (3211264)
I1007 03:34:49.065062 19084 net.cpp:165] Memory required for data: 873050640
I1007 03:34:49.065065 19084 layer_factory.hpp:76] Creating layer conv4_3
I1007 03:34:49.065083 19084 net.cpp:106] Creating Layer conv4_3
I1007 03:34:49.065088 19084 net.cpp:454] conv4_3 <- conv4_2
I1007 03:34:49.065095 19084 net.cpp:411] conv4_3 -> conv4_3
I1007 03:34:49.075623 19084 net.cpp:150] Setting up conv4_3
I1007 03:34:49.075670 19084 net.cpp:157] Top shape: 2 512 56 56 (3211264)
I1007 03:34:49.075676 19084 net.cpp:165] Memory required for data: 885895696
I1007 03:34:49.075692 19084 layer_factory.hpp:76] Creating layer relu4_3
I1007 03:34:49.075708 19084 net.cpp:106] Creating Layer relu4_3
I1007 03:34:49.075717 19084 net.cpp:454] relu4_3 <- conv4_3
I1007 03:34:49.075727 19084 net.cpp:397] relu4_3 -> conv4_3 (in-place)
I1007 03:34:49.076272 19084 net.cpp:150] Setting up relu4_3
I1007 03:34:49.076294 19084 net.cpp:157] Top shape: 2 512 56 56 (3211264)
I1007 03:34:49.076299 19084 net.cpp:165] Memory required for data: 898740752
I1007 03:34:49.076304 19084 layer_factory.hpp:76] Creating layer conv4_3_relu4_3_0_split
I1007 03:34:49.076314 19084 net.cpp:106] Creating Layer conv4_3_relu4_3_0_split
I1007 03:34:49.076319 19084 net.cpp:454] conv4_3_relu4_3_0_split <- conv4_3
I1007 03:34:49.076328 19084 net.cpp:411] conv4_3_relu4_3_0_split -> conv4_3_relu4_3_0_split_0
I1007 03:34:49.076339 19084 net.cpp:411] conv4_3_relu4_3_0_split -> conv4_3_relu4_3_0_split_1
I1007 03:34:49.076434 19084 net.cpp:150] Setting up conv4_3_relu4_3_0_split
I1007 03:34:49.076463 19084 net.cpp:157] Top shape: 2 512 56 56 (3211264)
I1007 03:34:49.076468 19084 net.cpp:157] Top shape: 2 512 56 56 (3211264)
I1007 03:34:49.076472 19084 net.cpp:165] Memory required for data: 924430864
I1007 03:34:49.076477 19084 layer_factory.hpp:76] Creating layer loss1_conv1
I1007 03:34:49.076500 19084 net.cpp:106] Creating Layer loss1_conv1
I1007 03:34:49.076505 19084 net.cpp:454] loss1_conv1 <- conv4_3_relu4_3_0_split_0
I1007 03:34:49.076515 19084 net.cpp:411] loss1_conv1 -> loss1_conv1
I1007 03:34:49.171634 19084 net.cpp:150] Setting up loss1_conv1
I1007 03:34:49.171689 19084 net.cpp:157] Top shape: 2 512 56 56 (3211264)
I1007 03:34:49.171694 19084 net.cpp:165] Memory required for data: 937275920
I1007 03:34:49.171706 19084 layer_factory.hpp:76] Creating layer loss_relu1
I1007 03:34:49.171722 19084 net.cpp:106] Creating Layer loss_relu1
I1007 03:34:49.171731 19084 net.cpp:454] loss_relu1 <- loss1_conv1
I1007 03:34:49.171739 19084 net.cpp:397] loss_relu1 -> loss1_conv1 (in-place)
I1007 03:34:49.172205 19084 net.cpp:150] Setting up loss_relu1
I1007 03:34:49.172220 19084 net.cpp:157] Top shape: 2 512 56 56 (3211264)
I1007 03:34:49.172224 19084 net.cpp:165] Memory required for data: 950120976
I1007 03:34:49.172227 19084 layer_factory.hpp:76] Creating layer loss1_conv1_loss_relu1_0_split
I1007 03:34:49.172236 19084 net.cpp:106] Creating Layer loss1_conv1_loss_relu1_0_split
I1007 03:34:49.172240 19084 net.cpp:454] loss1_conv1_loss_relu1_0_split <- loss1_conv1
I1007 03:34:49.172246 19084 net.cpp:411] loss1_conv1_loss_relu1_0_split -> loss1_conv1_loss_relu1_0_split_0
I1007 03:34:49.172255 19084 net.cpp:411] loss1_conv1_loss_relu1_0_split -> loss1_conv1_loss_relu1_0_split_1
I1007 03:34:49.172322 19084 net.cpp:150] Setting up loss1_conv1_loss_relu1_0_split
I1007 03:34:49.172330 19084 net.cpp:157] Top shape: 2 512 56 56 (3211264)
I1007 03:34:49.172334 19084 net.cpp:157] Top shape: 2 512 56 56 (3211264)
I1007 03:34:49.172336 19084 net.cpp:165] Memory required for data: 975811088
I1007 03:34:49.172340 19084 layer_factory.hpp:76] Creating layer LFCN_1_3x5
I1007 03:34:49.172354 19084 net.cpp:106] Creating Layer LFCN_1_3x5
I1007 03:34:49.172358 19084 net.cpp:454] LFCN_1_3x5 <- loss1_conv1_loss_relu1_0_split_0
I1007 03:34:49.172366 19084 net.cpp:411] LFCN_1_3x5 -> LFCN_1_3x5
I1007 03:34:49.175619 19084 net.cpp:150] Setting up LFCN_1_3x5
I1007 03:34:49.175665 19084 net.cpp:157] Top shape: 2 6 56 56 (37632)
I1007 03:34:49.175669 19084 net.cpp:165] Memory required for data: 975961616
I1007 03:34:49.175681 19084 layer_factory.hpp:76] Creating layer LFCN_1_3x5_LFCN_1_3x5_0_split
I1007 03:34:49.175693 19084 net.cpp:106] Creating Layer LFCN_1_3x5_LFCN_1_3x5_0_split
I1007 03:34:49.175699 19084 net.cpp:454] LFCN_1_3x5_LFCN_1_3x5_0_split <- LFCN_1_3x5
I1007 03:34:49.175707 19084 net.cpp:411] LFCN_1_3x5_LFCN_1_3x5_0_split -> LFCN_1_3x5_LFCN_1_3x5_0_split_0
I1007 03:34:49.175721 19084 net.cpp:411] LFCN_1_3x5_LFCN_1_3x5_0_split -> LFCN_1_3x5_LFCN_1_3x5_0_split_1
I1007 03:34:49.175778 19084 net.cpp:150] Setting up LFCN_1_3x5_LFCN_1_3x5_0_split
I1007 03:34:49.175784 19084 net.cpp:157] Top shape: 2 6 56 56 (37632)
I1007 03:34:49.175788 19084 net.cpp:157] Top shape: 2 6 56 56 (37632)
I1007 03:34:49.175791 19084 net.cpp:165] Memory required for data: 976262672
I1007 03:34:49.175793 19084 layer_factory.hpp:76] Creating layer detection_loss_1_3x5
I1007 03:34:49.175804 19084 net.cpp:106] Creating Layer detection_loss_1_3x5
I1007 03:34:49.175808 19084 net.cpp:454] detection_loss_1_3x5 <- LFCN_1_3x5_LFCN_1_3x5_0_split_0
I1007 03:34:49.175818 19084 net.cpp:454] detection_loss_1_3x5 <- label_1_3x5_data_1_split_0
I1007 03:34:49.175827 19084 net.cpp:411] detection_loss_1_3x5 -> loss_1_3x5
I1007 03:34:49.175837 19084 layer_factory.hpp:76] Creating layer detection_loss_1_3x5
I1007 03:34:49.176285 19084 net.cpp:150] Setting up detection_loss_1_3x5
I1007 03:34:49.176297 19084 net.cpp:157] Top shape: 1 1 1 2 (2)
I1007 03:34:49.176301 19084 net.cpp:160]     with loss weight 0.9
I1007 03:34:49.176321 19084 net.cpp:165] Memory required for data: 976262680
I1007 03:34:49.176324 19084 layer_factory.hpp:76] Creating layer detection_accuracy_1_3x5
I1007 03:34:49.176334 19084 net.cpp:106] Creating Layer detection_accuracy_1_3x5
I1007 03:34:49.176338 19084 net.cpp:454] detection_accuracy_1_3x5 <- LFCN_1_3x5_LFCN_1_3x5_0_split_1
I1007 03:34:49.176343 19084 net.cpp:454] detection_accuracy_1_3x5 <- label_1_3x5_data_1_split_1
I1007 03:34:49.176348 19084 net.cpp:411] detection_accuracy_1_3x5 -> accuracy_1_3x5
I1007 03:34:49.176355 19084 net.cpp:411] detection_accuracy_1_3x5 -> boxiou_1_3x5
I1007 03:34:49.176409 19084 net.cpp:150] Setting up detection_accuracy_1_3x5
I1007 03:34:49.176416 19084 net.cpp:157] Top shape: 1 1 1 2 (2)
I1007 03:34:49.176420 19084 net.cpp:157] Top shape: 1 1 1 1 (1)
I1007 03:34:49.176422 19084 net.cpp:165] Memory required for data: 976262692
I1007 03:34:49.176425 19084 layer_factory.hpp:76] Creating layer LFCN_1_5x7
I1007 03:34:49.176439 19084 net.cpp:106] Creating Layer LFCN_1_5x7
I1007 03:34:49.176442 19084 net.cpp:454] LFCN_1_5x7 <- loss1_conv1_loss_relu1_0_split_1
I1007 03:34:49.176450 19084 net.cpp:411] LFCN_1_5x7 -> LFCN_1_5x7
I1007 03:34:49.182066 19084 net.cpp:150] Setting up LFCN_1_5x7
I1007 03:34:49.182117 19084 net.cpp:157] Top shape: 2 6 56 56 (37632)
I1007 03:34:49.182121 19084 net.cpp:165] Memory required for data: 976413220
I1007 03:34:49.182133 19084 layer_factory.hpp:76] Creating layer LFCN_1_5x7_LFCN_1_5x7_0_split
I1007 03:34:49.182147 19084 net.cpp:106] Creating Layer LFCN_1_5x7_LFCN_1_5x7_0_split
I1007 03:34:49.182154 19084 net.cpp:454] LFCN_1_5x7_LFCN_1_5x7_0_split <- LFCN_1_5x7
I1007 03:34:49.182174 19084 net.cpp:411] LFCN_1_5x7_LFCN_1_5x7_0_split -> LFCN_1_5x7_LFCN_1_5x7_0_split_0
I1007 03:34:49.182184 19084 net.cpp:411] LFCN_1_5x7_LFCN_1_5x7_0_split -> LFCN_1_5x7_LFCN_1_5x7_0_split_1
I1007 03:34:49.182240 19084 net.cpp:150] Setting up LFCN_1_5x7_LFCN_1_5x7_0_split
I1007 03:34:49.182268 19084 net.cpp:157] Top shape: 2 6 56 56 (37632)
I1007 03:34:49.182272 19084 net.cpp:157] Top shape: 2 6 56 56 (37632)
I1007 03:34:49.182274 19084 net.cpp:165] Memory required for data: 976714276
I1007 03:34:49.182277 19084 layer_factory.hpp:76] Creating layer detection_loss_1_5x7
I1007 03:34:49.182291 19084 net.cpp:106] Creating Layer detection_loss_1_5x7
I1007 03:34:49.182294 19084 net.cpp:454] detection_loss_1_5x7 <- LFCN_1_5x7_LFCN_1_5x7_0_split_0
I1007 03:34:49.182299 19084 net.cpp:454] detection_loss_1_5x7 <- label_1_5x7_data_2_split_0
I1007 03:34:49.182307 19084 net.cpp:411] detection_loss_1_5x7 -> loss_1_5x7
I1007 03:34:49.182317 19084 layer_factory.hpp:76] Creating layer detection_loss_1_5x7
I1007 03:34:49.183020 19084 net.cpp:150] Setting up detection_loss_1_5x7
I1007 03:34:49.183035 19084 net.cpp:157] Top shape: 1 1 1 2 (2)
I1007 03:34:49.183038 19084 net.cpp:160]     with loss weight 0.9
I1007 03:34:49.183058 19084 net.cpp:165] Memory required for data: 976714284
I1007 03:34:49.183061 19084 layer_factory.hpp:76] Creating layer detection_accuracy_1_5x7
I1007 03:34:49.183079 19084 net.cpp:106] Creating Layer detection_accuracy_1_5x7
I1007 03:34:49.183084 19084 net.cpp:454] detection_accuracy_1_5x7 <- LFCN_1_5x7_LFCN_1_5x7_0_split_1
I1007 03:34:49.183089 19084 net.cpp:454] detection_accuracy_1_5x7 <- label_1_5x7_data_2_split_1
I1007 03:34:49.183094 19084 net.cpp:411] detection_accuracy_1_5x7 -> accuracy_1_5x7
I1007 03:34:49.183109 19084 net.cpp:411] detection_accuracy_1_5x7 -> boxiou_1_5x7
I1007 03:34:49.183172 19084 net.cpp:150] Setting up detection_accuracy_1_5x7
I1007 03:34:49.183179 19084 net.cpp:157] Top shape: 1 1 1 2 (2)
I1007 03:34:49.183182 19084 net.cpp:157] Top shape: 1 1 1 1 (1)
I1007 03:34:49.183185 19084 net.cpp:165] Memory required for data: 976714296
I1007 03:34:49.183188 19084 layer_factory.hpp:76] Creating layer pool4
I1007 03:34:49.183197 19084 net.cpp:106] Creating Layer pool4
I1007 03:34:49.183202 19084 net.cpp:454] pool4 <- conv4_3_relu4_3_0_split_1
I1007 03:34:49.183207 19084 net.cpp:411] pool4 -> pool4
I1007 03:34:49.183456 19084 net.cpp:150] Setting up pool4
I1007 03:34:49.183467 19084 net.cpp:157] Top shape: 2 512 28 28 (802816)
I1007 03:34:49.183470 19084 net.cpp:165] Memory required for data: 979925560
I1007 03:34:49.183473 19084 layer_factory.hpp:76] Creating layer conv5_1
I1007 03:34:49.183485 19084 net.cpp:106] Creating Layer conv5_1
I1007 03:34:49.183490 19084 net.cpp:454] conv5_1 <- pool4
I1007 03:34:49.183495 19084 net.cpp:411] conv5_1 -> conv5_1
I1007 03:34:49.190373 19084 net.cpp:150] Setting up conv5_1
I1007 03:34:49.190403 19084 net.cpp:157] Top shape: 2 512 28 28 (802816)
I1007 03:34:49.190407 19084 net.cpp:165] Memory required for data: 983136824
I1007 03:34:49.190418 19084 layer_factory.hpp:76] Creating layer relu5_1
I1007 03:34:49.190428 19084 net.cpp:106] Creating Layer relu5_1
I1007 03:34:49.190433 19084 net.cpp:454] relu5_1 <- conv5_1
I1007 03:34:49.190438 19084 net.cpp:397] relu5_1 -> conv5_1 (in-place)
I1007 03:34:49.190649 19084 net.cpp:150] Setting up relu5_1
I1007 03:34:49.190660 19084 net.cpp:157] Top shape: 2 512 28 28 (802816)
I1007 03:34:49.190663 19084 net.cpp:165] Memory required for data: 986348088
I1007 03:34:49.190666 19084 layer_factory.hpp:76] Creating layer conv5_2
I1007 03:34:49.190676 19084 net.cpp:106] Creating Layer conv5_2
I1007 03:34:49.190680 19084 net.cpp:454] conv5_2 <- conv5_1
I1007 03:34:49.190687 19084 net.cpp:411] conv5_2 -> conv5_2
I1007 03:34:49.198684 19084 net.cpp:150] Setting up conv5_2
I1007 03:34:49.198739 19084 net.cpp:157] Top shape: 2 512 28 28 (802816)
I1007 03:34:49.198743 19084 net.cpp:165] Memory required for data: 989559352
I1007 03:34:49.198756 19084 layer_factory.hpp:76] Creating layer relu5_2
I1007 03:34:49.198772 19084 net.cpp:106] Creating Layer relu5_2
I1007 03:34:49.198781 19084 net.cpp:454] relu5_2 <- conv5_2
I1007 03:34:49.198788 19084 net.cpp:397] relu5_2 -> conv5_2 (in-place)
I1007 03:34:49.199218 19084 net.cpp:150] Setting up relu5_2
I1007 03:34:49.199234 19084 net.cpp:157] Top shape: 2 512 28 28 (802816)
I1007 03:34:49.199237 19084 net.cpp:165] Memory required for data: 992770616
I1007 03:34:49.199241 19084 layer_factory.hpp:76] Creating layer conv5_3
I1007 03:34:49.199254 19084 net.cpp:106] Creating Layer conv5_3
I1007 03:34:49.199257 19084 net.cpp:454] conv5_3 <- conv5_2
I1007 03:34:49.199265 19084 net.cpp:411] conv5_3 -> conv5_3
I1007 03:34:49.207463 19084 net.cpp:150] Setting up conv5_3
I1007 03:34:49.207512 19084 net.cpp:157] Top shape: 2 512 28 28 (802816)
I1007 03:34:49.207516 19084 net.cpp:165] Memory required for data: 995981880
I1007 03:34:49.207530 19084 layer_factory.hpp:76] Creating layer relu5_3
I1007 03:34:49.207545 19084 net.cpp:106] Creating Layer relu5_3
I1007 03:34:49.207552 19084 net.cpp:454] relu5_3 <- conv5_3
I1007 03:34:49.207561 19084 net.cpp:397] relu5_3 -> conv5_3 (in-place)
I1007 03:34:49.207798 19084 net.cpp:150] Setting up relu5_3
I1007 03:34:49.207809 19084 net.cpp:157] Top shape: 2 512 28 28 (802816)
I1007 03:34:49.207813 19084 net.cpp:165] Memory required for data: 999193144
I1007 03:34:49.207815 19084 layer_factory.hpp:76] Creating layer conv5_3_relu5_3_0_split
I1007 03:34:49.207823 19084 net.cpp:106] Creating Layer conv5_3_relu5_3_0_split
I1007 03:34:49.207826 19084 net.cpp:454] conv5_3_relu5_3_0_split <- conv5_3
I1007 03:34:49.207833 19084 net.cpp:411] conv5_3_relu5_3_0_split -> conv5_3_relu5_3_0_split_0
I1007 03:34:49.207841 19084 net.cpp:411] conv5_3_relu5_3_0_split -> conv5_3_relu5_3_0_split_1
I1007 03:34:49.207847 19084 net.cpp:411] conv5_3_relu5_3_0_split -> conv5_3_relu5_3_0_split_2
I1007 03:34:49.207926 19084 net.cpp:150] Setting up conv5_3_relu5_3_0_split
I1007 03:34:49.207932 19084 net.cpp:157] Top shape: 2 512 28 28 (802816)
I1007 03:34:49.207937 19084 net.cpp:157] Top shape: 2 512 28 28 (802816)
I1007 03:34:49.207940 19084 net.cpp:157] Top shape: 2 512 28 28 (802816)
I1007 03:34:49.207942 19084 net.cpp:165] Memory required for data: 1008826936
I1007 03:34:49.207945 19084 layer_factory.hpp:76] Creating layer LFCN_2_3x5
I1007 03:34:49.207958 19084 net.cpp:106] Creating Layer LFCN_2_3x5
I1007 03:34:49.207962 19084 net.cpp:454] LFCN_2_3x5 <- conv5_3_relu5_3_0_split_0
I1007 03:34:49.207969 19084 net.cpp:411] LFCN_2_3x5 -> LFCN_2_3x5
I1007 03:34:49.211228 19084 net.cpp:150] Setting up LFCN_2_3x5
I1007 03:34:49.211269 19084 net.cpp:157] Top shape: 2 6 28 28 (9408)
I1007 03:34:49.211273 19084 net.cpp:165] Memory required for data: 1008864568
I1007 03:34:49.211294 19084 layer_factory.hpp:76] Creating layer LFCN_2_3x5_LFCN_2_3x5_0_split
I1007 03:34:49.211308 19084 net.cpp:106] Creating Layer LFCN_2_3x5_LFCN_2_3x5_0_split
I1007 03:34:49.211314 19084 net.cpp:454] LFCN_2_3x5_LFCN_2_3x5_0_split <- LFCN_2_3x5
I1007 03:34:49.211324 19084 net.cpp:411] LFCN_2_3x5_LFCN_2_3x5_0_split -> LFCN_2_3x5_LFCN_2_3x5_0_split_0
I1007 03:34:49.211335 19084 net.cpp:411] LFCN_2_3x5_LFCN_2_3x5_0_split -> LFCN_2_3x5_LFCN_2_3x5_0_split_1
I1007 03:34:49.211391 19084 net.cpp:150] Setting up LFCN_2_3x5_LFCN_2_3x5_0_split
I1007 03:34:49.211402 19084 net.cpp:157] Top shape: 2 6 28 28 (9408)
I1007 03:34:49.211406 19084 net.cpp:157] Top shape: 2 6 28 28 (9408)
I1007 03:34:49.211408 19084 net.cpp:165] Memory required for data: 1008939832
I1007 03:34:49.211411 19084 layer_factory.hpp:76] Creating layer detection_loss_2_3x5
I1007 03:34:49.211421 19084 net.cpp:106] Creating Layer detection_loss_2_3x5
I1007 03:34:49.211423 19084 net.cpp:454] detection_loss_2_3x5 <- LFCN_2_3x5_LFCN_2_3x5_0_split_0
I1007 03:34:49.211429 19084 net.cpp:454] detection_loss_2_3x5 <- label_2_3x5_data_3_split_0
I1007 03:34:49.211436 19084 net.cpp:411] detection_loss_2_3x5 -> loss_2_3x5
I1007 03:34:49.211447 19084 layer_factory.hpp:76] Creating layer detection_loss_2_3x5
I1007 03:34:49.211906 19084 net.cpp:150] Setting up detection_loss_2_3x5
I1007 03:34:49.211918 19084 net.cpp:157] Top shape: 1 1 1 2 (2)
I1007 03:34:49.211921 19084 net.cpp:160]     with loss weight 1
I1007 03:34:49.211935 19084 net.cpp:165] Memory required for data: 1008939840
I1007 03:34:49.211940 19084 layer_factory.hpp:76] Creating layer detection_accuracy_2_3x5
I1007 03:34:49.211948 19084 net.cpp:106] Creating Layer detection_accuracy_2_3x5
I1007 03:34:49.211952 19084 net.cpp:454] detection_accuracy_2_3x5 <- LFCN_2_3x5_LFCN_2_3x5_0_split_1
I1007 03:34:49.211957 19084 net.cpp:454] detection_accuracy_2_3x5 <- label_2_3x5_data_3_split_1
I1007 03:34:49.211966 19084 net.cpp:411] detection_accuracy_2_3x5 -> accuracy_2_3x5
I1007 03:34:49.211972 19084 net.cpp:411] detection_accuracy_2_3x5 -> boxiou_2_3x5
I1007 03:34:49.212038 19084 net.cpp:150] Setting up detection_accuracy_2_3x5
I1007 03:34:49.212046 19084 net.cpp:157] Top shape: 1 1 1 2 (2)
I1007 03:34:49.212050 19084 net.cpp:157] Top shape: 1 1 1 1 (1)
I1007 03:34:49.212054 19084 net.cpp:165] Memory required for data: 1008939852
I1007 03:34:49.212056 19084 layer_factory.hpp:76] Creating layer LFCN_2_5x7
I1007 03:34:49.212069 19084 net.cpp:106] Creating Layer LFCN_2_5x7
I1007 03:34:49.212074 19084 net.cpp:454] LFCN_2_5x7 <- conv5_3_relu5_3_0_split_1
I1007 03:34:49.212080 19084 net.cpp:411] LFCN_2_5x7 -> LFCN_2_5x7
I1007 03:34:49.218332 19084 net.cpp:150] Setting up LFCN_2_5x7
I1007 03:34:49.218379 19084 net.cpp:157] Top shape: 2 6 28 28 (9408)
I1007 03:34:49.218382 19084 net.cpp:165] Memory required for data: 1008977484
I1007 03:34:49.218395 19084 layer_factory.hpp:76] Creating layer LFCN_2_5x7_LFCN_2_5x7_0_split
I1007 03:34:49.218410 19084 net.cpp:106] Creating Layer LFCN_2_5x7_LFCN_2_5x7_0_split
I1007 03:34:49.218416 19084 net.cpp:454] LFCN_2_5x7_LFCN_2_5x7_0_split <- LFCN_2_5x7
I1007 03:34:49.218427 19084 net.cpp:411] LFCN_2_5x7_LFCN_2_5x7_0_split -> LFCN_2_5x7_LFCN_2_5x7_0_split_0
I1007 03:34:49.218439 19084 net.cpp:411] LFCN_2_5x7_LFCN_2_5x7_0_split -> LFCN_2_5x7_LFCN_2_5x7_0_split_1
I1007 03:34:49.218498 19084 net.cpp:150] Setting up LFCN_2_5x7_LFCN_2_5x7_0_split
I1007 03:34:49.218508 19084 net.cpp:157] Top shape: 2 6 28 28 (9408)
I1007 03:34:49.218511 19084 net.cpp:157] Top shape: 2 6 28 28 (9408)
I1007 03:34:49.218513 19084 net.cpp:165] Memory required for data: 1009052748
I1007 03:34:49.218516 19084 layer_factory.hpp:76] Creating layer detection_loss_2_5x7
I1007 03:34:49.218528 19084 net.cpp:106] Creating Layer detection_loss_2_5x7
I1007 03:34:49.218531 19084 net.cpp:454] detection_loss_2_5x7 <- LFCN_2_5x7_LFCN_2_5x7_0_split_0
I1007 03:34:49.218538 19084 net.cpp:454] detection_loss_2_5x7 <- label_2_5x7_data_4_split_0
I1007 03:34:49.218544 19084 net.cpp:411] detection_loss_2_5x7 -> loss_2_5x7
I1007 03:34:49.218554 19084 layer_factory.hpp:76] Creating layer detection_loss_2_5x7
I1007 03:34:49.219231 19084 net.cpp:150] Setting up detection_loss_2_5x7
I1007 03:34:49.219247 19084 net.cpp:157] Top shape: 1 1 1 2 (2)
I1007 03:34:49.219250 19084 net.cpp:160]     with loss weight 1
I1007 03:34:49.219264 19084 net.cpp:165] Memory required for data: 1009052756
I1007 03:34:49.219269 19084 layer_factory.hpp:76] Creating layer detection_accuracy_2_5x7
I1007 03:34:49.219277 19084 net.cpp:106] Creating Layer detection_accuracy_2_5x7
I1007 03:34:49.219281 19084 net.cpp:454] detection_accuracy_2_5x7 <- LFCN_2_5x7_LFCN_2_5x7_0_split_1
I1007 03:34:49.219286 19084 net.cpp:454] detection_accuracy_2_5x7 <- label_2_5x7_data_4_split_1
I1007 03:34:49.219295 19084 net.cpp:411] detection_accuracy_2_5x7 -> accuracy_2_5x7
I1007 03:34:49.219303 19084 net.cpp:411] detection_accuracy_2_5x7 -> boxiou_2_5x7
I1007 03:34:49.219362 19084 net.cpp:150] Setting up detection_accuracy_2_5x7
I1007 03:34:49.219372 19084 net.cpp:157] Top shape: 1 1 1 2 (2)
I1007 03:34:49.219377 19084 net.cpp:157] Top shape: 1 1 1 1 (1)
I1007 03:34:49.219379 19084 net.cpp:165] Memory required for data: 1009052768
I1007 03:34:49.219383 19084 layer_factory.hpp:76] Creating layer pool5
I1007 03:34:49.219390 19084 net.cpp:106] Creating Layer pool5
I1007 03:34:49.219394 19084 net.cpp:454] pool5 <- conv5_3_relu5_3_0_split_2
I1007 03:34:49.219401 19084 net.cpp:411] pool5 -> pool5
I1007 03:34:49.219655 19084 net.cpp:150] Setting up pool5
I1007 03:34:49.219666 19084 net.cpp:157] Top shape: 2 512 14 14 (200704)
I1007 03:34:49.219669 19084 net.cpp:165] Memory required for data: 1009855584
I1007 03:34:49.219672 19084 layer_factory.hpp:76] Creating layer conv6_1
I1007 03:34:49.219686 19084 net.cpp:106] Creating Layer conv6_1
I1007 03:34:49.219689 19084 net.cpp:454] conv6_1 <- pool5
I1007 03:34:49.219697 19084 net.cpp:411] conv6_1 -> conv6_1
I1007 03:34:49.310443 19084 net.cpp:150] Setting up conv6_1
I1007 03:34:49.310492 19084 net.cpp:157] Top shape: 2 512 14 14 (200704)
I1007 03:34:49.310495 19084 net.cpp:165] Memory required for data: 1010658400
I1007 03:34:49.310508 19084 layer_factory.hpp:76] Creating layer relu6_1
I1007 03:34:49.310523 19084 net.cpp:106] Creating Layer relu6_1
I1007 03:34:49.310529 19084 net.cpp:454] relu6_1 <- conv6_1
I1007 03:34:49.310544 19084 net.cpp:397] relu6_1 -> conv6_1 (in-place)
I1007 03:34:49.310977 19084 net.cpp:150] Setting up relu6_1
I1007 03:34:49.310993 19084 net.cpp:157] Top shape: 2 512 14 14 (200704)
I1007 03:34:49.310997 19084 net.cpp:165] Memory required for data: 1011461216
I1007 03:34:49.311000 19084 layer_factory.hpp:76] Creating layer conv6_1_relu6_1_0_split
I1007 03:34:49.311008 19084 net.cpp:106] Creating Layer conv6_1_relu6_1_0_split
I1007 03:34:49.311012 19084 net.cpp:454] conv6_1_relu6_1_0_split <- conv6_1
I1007 03:34:49.311020 19084 net.cpp:411] conv6_1_relu6_1_0_split -> conv6_1_relu6_1_0_split_0
I1007 03:34:49.311029 19084 net.cpp:411] conv6_1_relu6_1_0_split -> conv6_1_relu6_1_0_split_1
I1007 03:34:49.311035 19084 net.cpp:411] conv6_1_relu6_1_0_split -> conv6_1_relu6_1_0_split_2
I1007 03:34:49.311122 19084 net.cpp:150] Setting up conv6_1_relu6_1_0_split
I1007 03:34:49.311134 19084 net.cpp:157] Top shape: 2 512 14 14 (200704)
I1007 03:34:49.311138 19084 net.cpp:157] Top shape: 2 512 14 14 (200704)
I1007 03:34:49.311141 19084 net.cpp:157] Top shape: 2 512 14 14 (200704)
I1007 03:34:49.311144 19084 net.cpp:165] Memory required for data: 1013869664
I1007 03:34:49.311147 19084 layer_factory.hpp:76] Creating layer LFCN_3_3x5
I1007 03:34:49.311162 19084 net.cpp:106] Creating Layer LFCN_3_3x5
I1007 03:34:49.311167 19084 net.cpp:454] LFCN_3_3x5 <- conv6_1_relu6_1_0_split_0
I1007 03:34:49.311174 19084 net.cpp:411] LFCN_3_3x5 -> LFCN_3_3x5
I1007 03:34:49.314973 19084 net.cpp:150] Setting up LFCN_3_3x5
I1007 03:34:49.315013 19084 net.cpp:157] Top shape: 2 6 14 14 (2352)
I1007 03:34:49.315017 19084 net.cpp:165] Memory required for data: 1013879072
I1007 03:34:49.315031 19084 layer_factory.hpp:76] Creating layer LFCN_3_3x5_LFCN_3_3x5_0_split
I1007 03:34:49.315065 19084 net.cpp:106] Creating Layer LFCN_3_3x5_LFCN_3_3x5_0_split
I1007 03:34:49.315073 19084 net.cpp:454] LFCN_3_3x5_LFCN_3_3x5_0_split <- LFCN_3_3x5
I1007 03:34:49.315083 19084 net.cpp:411] LFCN_3_3x5_LFCN_3_3x5_0_split -> LFCN_3_3x5_LFCN_3_3x5_0_split_0
I1007 03:34:49.315094 19084 net.cpp:411] LFCN_3_3x5_LFCN_3_3x5_0_split -> LFCN_3_3x5_LFCN_3_3x5_0_split_1
I1007 03:34:49.315163 19084 net.cpp:150] Setting up LFCN_3_3x5_LFCN_3_3x5_0_split
I1007 03:34:49.315171 19084 net.cpp:157] Top shape: 2 6 14 14 (2352)
I1007 03:34:49.315176 19084 net.cpp:157] Top shape: 2 6 14 14 (2352)
I1007 03:34:49.315177 19084 net.cpp:165] Memory required for data: 1013897888
I1007 03:34:49.315186 19084 layer_factory.hpp:76] Creating layer detection_loss_3_3x5
I1007 03:34:49.315196 19084 net.cpp:106] Creating Layer detection_loss_3_3x5
I1007 03:34:49.315201 19084 net.cpp:454] detection_loss_3_3x5 <- LFCN_3_3x5_LFCN_3_3x5_0_split_0
I1007 03:34:49.315206 19084 net.cpp:454] detection_loss_3_3x5 <- label_3_3x5_data_5_split_0
I1007 03:34:49.315212 19084 net.cpp:411] detection_loss_3_3x5 -> loss_3_3x5
I1007 03:34:49.315222 19084 layer_factory.hpp:76] Creating layer detection_loss_3_3x5
I1007 03:34:49.315961 19084 net.cpp:150] Setting up detection_loss_3_3x5
I1007 03:34:49.315978 19084 net.cpp:157] Top shape: 1 1 1 2 (2)
I1007 03:34:49.315980 19084 net.cpp:160]     with loss weight 1
I1007 03:34:49.316002 19084 net.cpp:165] Memory required for data: 1013897896
I1007 03:34:49.316006 19084 layer_factory.hpp:76] Creating layer detection_accuracy_3_3x5
I1007 03:34:49.316015 19084 net.cpp:106] Creating Layer detection_accuracy_3_3x5
I1007 03:34:49.316020 19084 net.cpp:454] detection_accuracy_3_3x5 <- LFCN_3_3x5_LFCN_3_3x5_0_split_1
I1007 03:34:49.316025 19084 net.cpp:454] detection_accuracy_3_3x5 <- label_3_3x5_data_5_split_1
I1007 03:34:49.316032 19084 net.cpp:411] detection_accuracy_3_3x5 -> accuracy_3_3x5
I1007 03:34:49.316042 19084 net.cpp:411] detection_accuracy_3_3x5 -> boxiou_3_3x5
I1007 03:34:49.316098 19084 net.cpp:150] Setting up detection_accuracy_3_3x5
I1007 03:34:49.316107 19084 net.cpp:157] Top shape: 1 1 1 2 (2)
I1007 03:34:49.316110 19084 net.cpp:157] Top shape: 1 1 1 1 (1)
I1007 03:34:49.316113 19084 net.cpp:165] Memory required for data: 1013897908
I1007 03:34:49.316117 19084 layer_factory.hpp:76] Creating layer LFCN_3_5x7
I1007 03:34:49.316128 19084 net.cpp:106] Creating Layer LFCN_3_5x7
I1007 03:34:49.316133 19084 net.cpp:454] LFCN_3_5x7 <- conv6_1_relu6_1_0_split_1
I1007 03:34:49.316141 19084 net.cpp:411] LFCN_3_5x7 -> LFCN_3_5x7
I1007 03:34:49.321792 19084 net.cpp:150] Setting up LFCN_3_5x7
I1007 03:34:49.321836 19084 net.cpp:157] Top shape: 2 6 14 14 (2352)
I1007 03:34:49.321841 19084 net.cpp:165] Memory required for data: 1013907316
I1007 03:34:49.321852 19084 layer_factory.hpp:76] Creating layer LFCN_3_5x7_LFCN_3_5x7_0_split
I1007 03:34:49.321874 19084 net.cpp:106] Creating Layer LFCN_3_5x7_LFCN_3_5x7_0_split
I1007 03:34:49.321882 19084 net.cpp:454] LFCN_3_5x7_LFCN_3_5x7_0_split <- LFCN_3_5x7
I1007 03:34:49.321892 19084 net.cpp:411] LFCN_3_5x7_LFCN_3_5x7_0_split -> LFCN_3_5x7_LFCN_3_5x7_0_split_0
I1007 03:34:49.321903 19084 net.cpp:411] LFCN_3_5x7_LFCN_3_5x7_0_split -> LFCN_3_5x7_LFCN_3_5x7_0_split_1
I1007 03:34:49.321977 19084 net.cpp:150] Setting up LFCN_3_5x7_LFCN_3_5x7_0_split
I1007 03:34:49.321987 19084 net.cpp:157] Top shape: 2 6 14 14 (2352)
I1007 03:34:49.321991 19084 net.cpp:157] Top shape: 2 6 14 14 (2352)
I1007 03:34:49.321995 19084 net.cpp:165] Memory required for data: 1013926132
I1007 03:34:49.321997 19084 layer_factory.hpp:76] Creating layer detection_loss_3_5x7
I1007 03:34:49.322006 19084 net.cpp:106] Creating Layer detection_loss_3_5x7
I1007 03:34:49.322010 19084 net.cpp:454] detection_loss_3_5x7 <- LFCN_3_5x7_LFCN_3_5x7_0_split_0
I1007 03:34:49.322016 19084 net.cpp:454] detection_loss_3_5x7 <- label_3_5x7_data_6_split_0
I1007 03:34:49.322023 19084 net.cpp:411] detection_loss_3_5x7 -> loss_3_5x7
I1007 03:34:49.322033 19084 layer_factory.hpp:76] Creating layer detection_loss_3_5x7
I1007 03:34:49.322502 19084 net.cpp:150] Setting up detection_loss_3_5x7
I1007 03:34:49.322515 19084 net.cpp:157] Top shape: 1 1 1 2 (2)
I1007 03:34:49.322517 19084 net.cpp:160]     with loss weight 1
I1007 03:34:49.322540 19084 net.cpp:165] Memory required for data: 1013926140
I1007 03:34:49.322543 19084 layer_factory.hpp:76] Creating layer detection_accuracy_3_5x7
I1007 03:34:49.322551 19084 net.cpp:106] Creating Layer detection_accuracy_3_5x7
I1007 03:34:49.322556 19084 net.cpp:454] detection_accuracy_3_5x7 <- LFCN_3_5x7_LFCN_3_5x7_0_split_1
I1007 03:34:49.322561 19084 net.cpp:454] detection_accuracy_3_5x7 <- label_3_5x7_data_6_split_1
I1007 03:34:49.322568 19084 net.cpp:411] detection_accuracy_3_5x7 -> accuracy_3_5x7
I1007 03:34:49.322584 19084 net.cpp:411] detection_accuracy_3_5x7 -> boxiou_3_5x7
I1007 03:34:49.322641 19084 net.cpp:150] Setting up detection_accuracy_3_5x7
I1007 03:34:49.322650 19084 net.cpp:157] Top shape: 1 1 1 2 (2)
I1007 03:34:49.322654 19084 net.cpp:157] Top shape: 1 1 1 1 (1)
I1007 03:34:49.322657 19084 net.cpp:165] Memory required for data: 1013926152
I1007 03:34:49.322660 19084 layer_factory.hpp:76] Creating layer pool6
I1007 03:34:49.322667 19084 net.cpp:106] Creating Layer pool6
I1007 03:34:49.322672 19084 net.cpp:454] pool6 <- conv6_1_relu6_1_0_split_2
I1007 03:34:49.322677 19084 net.cpp:411] pool6 -> pool6
I1007 03:34:49.323176 19084 net.cpp:150] Setting up pool6
I1007 03:34:49.323191 19084 net.cpp:157] Top shape: 2 512 7 7 (50176)
I1007 03:34:49.323194 19084 net.cpp:165] Memory required for data: 1014126856
I1007 03:34:49.323199 19084 layer_factory.hpp:76] Creating layer LFCN_4_3x5
I1007 03:34:49.323220 19084 net.cpp:106] Creating Layer LFCN_4_3x5
I1007 03:34:49.323223 19084 net.cpp:454] LFCN_4_3x5 <- pool6
I1007 03:34:49.323230 19084 net.cpp:411] LFCN_4_3x5 -> LFCN_4_3x5
I1007 03:34:49.326735 19084 net.cpp:150] Setting up LFCN_4_3x5
I1007 03:34:49.326776 19084 net.cpp:157] Top shape: 2 6 7 7 (588)
I1007 03:34:49.326781 19084 net.cpp:165] Memory required for data: 1014129208
I1007 03:34:49.326794 19084 layer_factory.hpp:76] Creating layer LFCN_4_3x5_LFCN_4_3x5_0_split
I1007 03:34:49.326815 19084 net.cpp:106] Creating Layer LFCN_4_3x5_LFCN_4_3x5_0_split
I1007 03:34:49.326822 19084 net.cpp:454] LFCN_4_3x5_LFCN_4_3x5_0_split <- LFCN_4_3x5
I1007 03:34:49.326831 19084 net.cpp:411] LFCN_4_3x5_LFCN_4_3x5_0_split -> LFCN_4_3x5_LFCN_4_3x5_0_split_0
I1007 03:34:49.326841 19084 net.cpp:411] LFCN_4_3x5_LFCN_4_3x5_0_split -> LFCN_4_3x5_LFCN_4_3x5_0_split_1
I1007 03:34:49.326920 19084 net.cpp:150] Setting up LFCN_4_3x5_LFCN_4_3x5_0_split
I1007 03:34:49.326930 19084 net.cpp:157] Top shape: 2 6 7 7 (588)
I1007 03:34:49.326934 19084 net.cpp:157] Top shape: 2 6 7 7 (588)
I1007 03:34:49.326936 19084 net.cpp:165] Memory required for data: 1014133912
I1007 03:34:49.326941 19084 layer_factory.hpp:76] Creating layer detection_loss_4_3x5
I1007 03:34:49.326951 19084 net.cpp:106] Creating Layer detection_loss_4_3x5
I1007 03:34:49.326956 19084 net.cpp:454] detection_loss_4_3x5 <- LFCN_4_3x5_LFCN_4_3x5_0_split_0
I1007 03:34:49.326961 19084 net.cpp:454] detection_loss_4_3x5 <- label_4_3x5_data_7_split_0
I1007 03:34:49.326967 19084 net.cpp:411] detection_loss_4_3x5 -> loss_4_3x5
I1007 03:34:49.326977 19084 layer_factory.hpp:76] Creating layer detection_loss_4_3x5
I1007 03:34:49.327476 19084 net.cpp:150] Setting up detection_loss_4_3x5
I1007 03:34:49.327491 19084 net.cpp:157] Top shape: 1 1 1 2 (2)
I1007 03:34:49.327493 19084 net.cpp:160]     with loss weight 1
I1007 03:34:49.327508 19084 net.cpp:165] Memory required for data: 1014133920
I1007 03:34:49.327518 19084 layer_factory.hpp:76] Creating layer detection_accuracy_4_3x5
I1007 03:34:49.327527 19084 net.cpp:106] Creating Layer detection_accuracy_4_3x5
I1007 03:34:49.327530 19084 net.cpp:454] detection_accuracy_4_3x5 <- LFCN_4_3x5_LFCN_4_3x5_0_split_1
I1007 03:34:49.327535 19084 net.cpp:454] detection_accuracy_4_3x5 <- label_4_3x5_data_7_split_1
I1007 03:34:49.327541 19084 net.cpp:411] detection_accuracy_4_3x5 -> accuracy_4_3x5
I1007 03:34:49.327549 19084 net.cpp:411] detection_accuracy_4_3x5 -> boxiou_4_3x5
I1007 03:34:49.327615 19084 net.cpp:150] Setting up detection_accuracy_4_3x5
I1007 03:34:49.327621 19084 net.cpp:157] Top shape: 1 1 1 2 (2)
I1007 03:34:49.327625 19084 net.cpp:157] Top shape: 1 1 1 1 (1)
I1007 03:34:49.327627 19084 net.cpp:165] Memory required for data: 1014133932
I1007 03:34:49.327630 19084 net.cpp:228] detection_accuracy_4_3x5 does not need backward computation.
I1007 03:34:49.327635 19084 net.cpp:226] detection_loss_4_3x5 needs backward computation.
I1007 03:34:49.327638 19084 net.cpp:226] LFCN_4_3x5_LFCN_4_3x5_0_split needs backward computation.
I1007 03:34:49.327641 19084 net.cpp:226] LFCN_4_3x5 needs backward computation.
…
