…
    downsample_rate: 32
    downsample_rate: 32
    downsample_rate: 64
    coord_num: 4
    field_h: 40
    field_h: 56
    field_h: 80
    field_h: 112
    field_h: 160
    field_h: 224
    field_h: 320
    field_w: 20
    field_w: 28
    field_w: 40
    field_w: 56
    field_w: 80
    field_w: 112
    field_w: 160
    fg_threshold: 0.5
    resize_width: 640
    resize_height: 480
    crop_width: 448
    crop_height: 448
    do_multiple_scale: true
    min_scale: 30
    max_scale: 240
    min_gt_height: 45
    shuffle: true
    output_gt_boxes: true
  }
}
layer {
  name: "conv1_1"
  type: "Convolution"
  bottom: "data"
  top: "conv1_1"
  param {
    lr_mult: 0
    decay_mult: 0
  }
  param {
    lr_mult: 0
    decay_mult: 0
  }
  convolution_param {
    num_output: 64
    pad: 1
    kernel_size: 3
  }
}
layer {
  name: "relu1_1"
  type: "ReLU"
  bottom: "conv1_1"
  top: "conv1_1"
}
layer {
  name: "conv1_2"
  type: "Convolution"
  bottom: "conv1_1"
  top: "conv1_2"
  param {
    lr_mult: 0
    decay_mult: 0
  }
  param {
    lr_mult: 0
    decay_mult: 0
  }
  convolution_param {
    num_output: 64
    pad: 1
    kernel_size: 3
  }
}
layer {
  name: "relu1_2"
  type: "ReLU"
  bottom: "conv1_2"
  top: "conv1_2"
}
layer {
  name: "pool1"
  type: "Pooling"
  bottom: "conv1_2"
  top: "pool1"
  pooling_param {
    pool: MAX
    kernel_size: 2
    stride: 2
  }
}
layer {
  name: "conv2_1"
  type: "Convolution"
  bottom: "pool1"
  top: "conv2_1"
  param {
    lr_mult: 0
    decay_mult: 0
  }
  param {
    lr_mult: 0
    decay_mult: 0
  }
  convolution_param {
    num_output: 128
    pad: 1
    kernel_size: 3
  }
}
layer {
  name: "relu2_1"
  type: "ReLU"
  bottom: "conv2_1"
  top: "conv2_1"
}
layer {
  name: "conv2_2"
  type: "Convolution"
  bottom: "conv2_1"
  top: "conv2_2"
  param {
    lr_mult: 0
    decay_mult: 0
  }
  param {
    lr_mult: 0
    decay_mult: 0
  }
  convolution_param {
    num_output: 128
    pad: 1
    kernel_size: 3
  }
}
layer {
  name: "relu2_2"
  type: "ReLU"
  bottom: "conv2_2"
  top: "conv2_2"
}
layer {
  name: "pool2"
  type: "Pooling"
  bottom: "conv2_2"
  top: "pool2"
  pooling_param {
    pool: MAX
    kernel_size: 2
    stride: 2
  }
}
layer {
  name: "conv3_1"
  type: "Convolution"
  bottom: "pool2"
  top: "conv3_1"
  convolution_param {
    num_output: 256
    pad: 1
    kernel_size: 3
  }
}
layer {
  name: "relu3_1"
  type: "ReLU"
  bottom: "conv3_1"
  top: "conv3_1"
}
layer {
  name: "conv3_2"
  type: "Convolution"
  bottom: "conv3_1"
  top: "conv3_2"
  convolution_param {
    num_output: 256
    pad: 1
    kernel_size: 3
  }
}
layer {
  name: "relu3_2"
  type: "ReLU"
  bottom: "conv3_2"
  top: "conv3_2"
}
layer {
  name: "conv3_3"
  type: "Convolution"
  bottom: "conv3_2"
  top: "conv3_3"
  convolution_param {
    num_output: 256
    pad: 1
    kernel_size: 3
  }
}
layer {
  name: "relu3_3"
  type: "ReLU"
  bottom: "conv3_3"
  top: "conv3_3"
}
layer {
  name: "pool3"
  type: "Pooling"
  bottom: "conv3_3"
  top: "pool3"
  pooling_param {
    pool: MAX
    kernel_size: 2
    stride: 2
  }
}
layer {
  name: "conv4_1"
  type: "Convolution"
  bottom: "pool3"
  top: "conv4_1"
  convolution_param {
    num_output: 512
    pad: 1
    kernel_size: 3
  }
}
layer {
  name: "relu4_1"
  type: "ReLU"
  bottom: "conv4_1"
  top: "conv4_1"
}
layer {
  name: "conv4_2"
  type: "Convolution"
  bottom: "conv4_1"
  top: "conv4_2"
  convolution_param {
    num_output: 512
    pad: 1
    kernel_size: 3
  }
}
layer {
  name: "relu4_2"
  type: "ReLU"
  bottom: "conv4_2"
  top: "conv4_2"
}
layer {
  name: "conv4_3"
  type: "Convolution"
  bottom: "conv4_2"
  top: "conv4_3"
  convolution_param {
    num_output: 512
    pad: 1
    kernel_size: 3
  }
}
layer {
  name: "relu4_3"
  type: "ReLU"
  bottom: "conv4_3"
  top: "conv4_3"
}
layer {
  name: "loss1_conv1"
  type: "Convolution"
  bottom: "conv4_3"
  top: "loss1_conv1"
  param {
    lr_mult: 1
    decay_mult: 1
  }
  param {
    lr_mult: 2
    decay_mult: 0
  }
  convolution_param {
    num_output: 512
    pad: 1
    kernel_size: 3
    weight_filler {
      type: "gaussian"
      std: 0.01
    }
    bias_filler {
      type: "constant"
    }
  }
}
layer {
  name: "loss_relu1"
  type: "ReLU"
  bottom: "loss1_conv1"
  top: "loss1_conv1"
}
layer {
  name: "LFCN_1_3x5"
  type: "Convolution"
  bottom: "loss1_conv1"
  top: "LFCN_1_3x5"
  param {
    lr_mult: 1
    decay_mult: 1
  }
  param {
    lr_mult: 2
    decay_mult: 0
  }
  convolution_param {
    num_output: 6
    weight_filler {
      type: "gaussian"
      std: 0.001
    }
    bias_filler {
      type: "constant"
    }
    pad_h: 2
    pad_w: 1
    kernel_h: 5
    kernel_w: 3
  }
}
layer {
  name: "detection_loss_1_3x5"
  type: "Detection"
  bottom: "LFCN_1_3x5"
  bottom: "label_1_3x5"
  top: "loss_1_3x5"
  loss_weight: 0.9
  detection_param {
    cls_num: 2
    coord_num: 4
    lambda: 1
    field_h: 40
    field_w: 20
    downsample_rate: 8
    bb_smooth: true
    field_whr: 2
    field_xyr: 2
    bg_threshold: 0.2
    bg_multiple: 2
    sample_mode: "bootstrap"
    pos_neg_weighted: true
  }
}
layer {
  name: "detection_accuracy_1_3x5"
  type: "DetectionAccuracy"
  bottom: "LFCN_1_3x5"
  bottom: "label_1_3x5"
  top: "accuracy_1_3x5"
  top: "boxiou_1_3x5"
  detection_accuracy_param {
    cls_num: 2
    coord_num: 4
    field_h: 40
    field_w: 20
    downsample_rate: 8
    field_whr: 2
    field_xyr: 2
  }
}
layer {
  name: "LFCN_1_5x7"
  type: "Convolution"
  bottom: "loss1_conv1"
  top: "LFCN_1_5x7"
  param {
    lr_mult: 1
    decay_mult: 1
  }
  param {
    lr_mult: 2
    decay_mult: 0
  }
  convolution_param {
    num_output: 6
    weight_filler {
      type: "gaussian"
      std: 0.001
    }
    bias_filler {
      type: "constant"
    }
    pad_h: 3
    pad_w: 2
    kernel_h: 7
    kernel_w: 5
  }
}
layer {
  name: "detection_loss_1_5x7"
  type: "Detection"
  bottom: "LFCN_1_5x7"
  bottom: "label_1_5x7"
  top: "loss_1_5x7"
  loss_weight: 0.9
  detection_param {
    cls_num: 2
    coord_num: 4
    lambda: 1
    field_h: 56
    field_w: 28
    downsample_rate: 8
    bb_smooth: true
    field_whr: 2
    field_xyr: 2
    bg_threshold: 0.2
    bg_multiple: 2
    sample_mode: "bootstrap"
    pos_neg_weighted: true
  }
}
layer {
  name: "detection_accuracy_1_5x7"
  type: "DetectionAccuracy"
  bottom: "LFCN_1_5x7"
  bottom: "label_1_5x7"
  top: "accuracy_1_5x7"
  top: "boxiou_1_5x7"
  detection_accuracy_param {
    cls_num: 2
    coord_num: 4
    field_h: 56
    field_w: 28
    downsample_rate: 8
    field_whr: 2
    field_xyr: 2
  }
}
layer {
  name: "pool4"
  type: "Pooling"
  bottom: "conv4_3"
  top: "pool4"
  pooling_param {
    pool: MAX
    kernel_size: 2
    stride: 2
  }
}
layer {
  name: "conv5_1"
  type: "Convolution"
  bottom: "pool4"
  top: "conv5_1"
  convolution_param {
    num_output: 512
    pad: 1
    kernel_size: 3
  }
}
layer {
  name: "relu5_1"
  type: "ReLU"
  bottom: "conv5_1"
  top: "conv5_1"
}
layer {
  name: "conv5_2"
  type: "Convolution"
  bottom: "conv5_1"
  top: "conv5_2"
  convolution_param {
    num_output: 512
    pad: 1
    kernel_size: 3
  }
}
layer {
  name: "relu5_2"
  type: "ReLU"
  bottom: "conv5_2"
  top: "conv5_2"
}
layer {
  name: "conv5_3"
  type: "Convolution"
  bottom: "conv5_2"
  top: "conv5_3"
  convolution_param {
    num_output: 512
    pad: 1
    kernel_size: 3
  }
}
layer {
  name: "relu5_3"
  type: "ReLU"
  bottom: "conv5_3"
  top: "conv5_3"
}
layer {
  name: "LFCN_2_3x5"
  type: "Convolution"
  bottom: "conv5_3"
  top: "LFCN_2_3x5"
  param {
    lr_mult: 1
    decay_mult: 1
  }
  param {
    lr_mult: 2
    decay_mult: 0
  }
  convolution_param {
    num_output: 6
    weight_filler {
      type: "gaussian"
      std: 0.001
    }
    bias_filler {
      type: "constant"
    }
    pad_h: 2
    pad_w: 1
    kernel_h: 5
    kernel_w: 3
  }
}
layer {
  name: "detection_loss_2_3x5"
  type: "Detection"
  bottom: "LFCN_2_3x5"
  bottom: "label_2_3x5"
  top: "loss_2_3x5"
  detection_param {
    cls_num: 2
    coord_num: 4
    lambda: 1
    field_h: 80
    field_w: 40
    downsample_rate: 16
    bb_smooth: true
    field_whr: 2
    field_xyr: 2
    bg_threshold: 0.2
    bg_multiple: 2
    sample_mode: "bootstrap"
    pos_neg_weighted: true
  }
}
layer {
  name: "detection_accuracy_2_3x5"
  type: "DetectionAccuracy"
  bottom: "LFCN_2_3x5"
  bottom: "label_2_3x5"
  top: "accuracy_2_3x5"
  top: "boxiou_2_3x5"
  detection_accuracy_param {
    cls_num: 2
    coord_num: 4
    field_h: 80
    field_w: 40
    downsample_rate: 16
    field_whr: 2
    field_xyr: 2
  }
}
layer {
  name: "LFCN_2_5x7"
  type: "Convolution"
  bottom: "conv5_3"
  top: "LFCN_2_5x7"
  param {
    lr_mult: 1
    decay_mult: 1
  }
  param {
    lr_mult: 2
    decay_mult: 0
  }
  convolution_param {
    num_output: 6
    weight_filler {
      type: "gaussian"
      std: 0.001
    }
    bias_filler {
      type: "constant"
    }
    pad_h: 3
    pad_w: 2
    kernel_h: 7
    kernel_w: 5
  }
}
layer {
  name: "detection_loss_2_5x7"
  type: "Detection"
  bottom: "LFCN_2_5x7"
  bottom: "label_2_5x7"
  top: "loss_2_5x7"
  detection_param {
    cls_num: 2
    coord_num: 4
    lambda: 1
    field_h: 112
    field_w: 56
    downsample_rate: 16
    bb_smooth: true
    field_whr: 2
    field_xyr: 2
    bg_threshold: 0.2
    bg_multiple: 2
    sample_mode: "bootstrap"
    pos_neg_weighted: true
  }
}
layer {
  name: "detection_accuracy_2_5x7"
  type: "DetectionAccuracy"
  bottom: "LFCN_2_5x7"
  bottom: "label_2_5x7"
  top: "accuracy_2_5x7"
  top: "boxiou_2_5x7"
  detection_accuracy_param {
    cls_num: 2
    coord_num: 4
    field_h: 112
    field_w: 56
    downsample_rate: 16
    field_whr: 2
    field_xyr: 2
  }
}
layer {
  name: "pool5"
  type: "Pooling"
  bottom: "conv5_3"
  top: "pool5"
  pooling_param {
    pool: MAX
    kernel_size: 2
    stride: 2
  }
}
layer {
  name: "conv6_1"
  type: "Convolution"
  bottom: "pool5"
  top: "conv6_1"
  param {
    lr_mult: 1
    decay_mult: 1
  }
  param {
    lr_mult: 2
    decay_mult: 0
  }
  convolution_param {
    num_output: 512
    pad: 1
    kernel_size: 3
    weight_filler {
      type: "gaussian"
      std: 0.01
    }
    bias_filler {
      type: "constant"
    }
  }
}
layer {
  name: "relu6_1"
  type: "ReLU"
  bottom: "conv6_1"
  top: "conv6_1"
}
layer {
  name: "LFCN_3_3x5"
  type: "Convolution"
  bottom: "conv6_1"
  top: "LFCN_3_3x5"
  param {
    lr_mult: 1
    decay_mult: 1
  }
  param {
    lr_mult: 2
    decay_mult: 0
  }
  convolution_param {
    num_output: 6
    weight_filler {
      type: "gaussian"
      std: 0.001
    }
    bias_filler {
      type: "constant"
    }
    pad_h: 2
    pad_w: 1
    kernel_h: 5
    kernel_w: 3
  }
}
layer {
  name: "detection_loss_3_3x5"
  type: "Detection"
  bottom: "LFCN_3_3x5"
  bottom: "label_3_3x5"
  top: "loss_3_3x5"
  detection_param {
    cls_num: 2
    coord_num: 4
    lambda: 1
    field_h: 160
    field_w: 80
    downsample_rate: 32
    bb_smooth: true
    field_whr: 2
    field_xyr: 2
    bg_threshold: 0.2
    bg_multiple: 2
    sample_mode: "bootstrap"
    pos_neg_weighted: true
  }
}
layer {
  name: "detection_accuracy_3_3x5"
  type: "DetectionAccuracy"
  bottom: "LFCN_3_3x5"
  bottom: "label_3_3x5"
  top: "accuracy_3_3x5"
  top: "boxiou_3_3x5"
  detection_accuracy_param {
    cls_num: 2
    coord_num: 4
    field_h: 160
    field_w: 80
    downsample_rate: 32
    field_whr: 2
    field_xyr: 2
  }
}
layer {
  name: "LFCN_3_5x7"
  type: "Convolution"
  bottom: "conv6_1"
  top: "LFCN_3_5x7"
  param {
    lr_mult: 1
    decay_mult: 1
  }
  param {
    lr_mult: 2
    decay_mult: 0
  }
  convolution_param {
    num_output: 6
    weight_filler {
      type: "gaussian"
      std: 0.001
    }
    bias_filler {
      type: "constant"
    }
    pad_h: 3
    pad_w: 2
    kernel_h: 7
    kernel_w: 5
  }
}
layer {
  name: "detection_loss_3_5x7"
  type: "Detection"
  bottom: "LFCN_3_5x7"
  bottom: "label_3_5x7"
  top: "loss_3_5x7"
  detection_param {
    cls_num: 2
    coord_num: 4
    lambda: 1
    field_h: 224
    field_w: 112
    downsample_rate: 32
    bb_smooth: true
    field_whr: 2
    field_xyr: 2
    bg_threshold: 0.2
    bg_multiple: 2
    sample_mode: "bootstrap"
    pos_neg_weighted: true
  }
}
layer {
  name: "detection_accuracy_3_5x7"
  type: "DetectionAccuracy"
  bottom: "LFCN_3_5x7"
  bottom: "label_3_5x7"
  top: "accuracy_3_5x7"
  top: "boxiou_3_5x7"
  detection_accuracy_param {
    cls_num: 2
    coord_num: 4
    field_h: 224
    field_w: 112
    downsample_rate: 32
    field_whr: 2
    field_xyr: 2
  }
}
layer {
  name: "pool6"
  type: "Pooling"
  bottom: "conv6_1"
  top: "pool6"
  pooling_param {
    pool: MAX
    kernel_size: 2
    stride: 2
  }
}
layer {
  name: "LFCN_4_3x5"
  type: "Convolution"
  bottom: "pool6"
  top: "LFCN_4_3x5"
  param {
    lr_mult: 1
    decay_mult: 1
  }
  param {
    lr_mult: 2
    decay_mult: 0
  }
  convolution_param {
    num_output: 6
    weight_filler {
      type: "gaussian"
      std: 0.001
    }
    bias_filler {
      type: "constant"
    }
    pad_h: 2
    pad_w: 1
    kernel_h: 5
    kernel_w: 3
  }
}
layer {
  name: "detection_loss_4_3x5"
  type: "Detection"
  bottom: "LFCN_4_3x5"
  bottom: "label_4_3x5"
  top: "loss_4_3x5"
  detection_param {
    cls_num: 2
    coord_num: 4
    lambda: 1
    field_h: 320
    field_w: 160
    downsample_rate: 64
    bb_smooth: true
    field_whr: 2
    field_xyr: 2
    bg_threshold: 0.2
    bg_multiple: 2
    sample_mode: "bootstrap"
    pos_neg_weighted: true
  }
}
layer {
  name: "detection_accuracy_4_3x5"
  type: "DetectionAccuracy"
  bottom: "LFCN_4_3x5"
  bottom: "label_4_3x5"
  top: "accuracy_4_3x5"
  top: "boxiou_4_3x5"
  detection_accuracy_param {
    cls_num: 2
    coord_num: 4
    field_h: 320
    field_w: 160
    downsample_rate: 64
    field_whr: 2
    field_xyr: 2
  }
}
layer {
  name: "proposals"
  type: "BoxOutput"
  bottom: "LFCN_1_3x5"
  bottom: "LFCN_1_5x7"
  bottom: "LFCN_2_3x5"
  bottom: "LFCN_2_5x7"
  bottom: "LFCN_3_3x5"
  bottom: "LFCN_3_5x7"
  bottom: "LFCN_4_3x5"
  top: "proposals"
  propagate_down: false
  propagate_down: false
  propagate_down: false
  propagate_down: false
  propagate_down: false
  propagate_down: false
  propagate_down: false
  box_output_param {
    fg_thr: -10
    iou_thr: 0.65
    nms_type: "IOU"
    field_h: 40
    field_h: 56
    field_h: 80
    field_h: 112
    field_h: 160
    field_h: 224
    field_h: 320
    field_w: 20
    field_w: 28
    field_w: 40
    field_w: 56
    field_w: 80
    field_w: 112
    field_w: 160
    downsample_rate: 8
    downsample_rate: 8
    downsample_rate: 16
    downsample_rate: 16
    downsample_rate: 32
    downsample_rate: 32
    downsample_rate: 64
    field_whr: 2
    field_xyr: 2
    max_nms_num: 3000
  }
}
layer {
  name: "proposal_info"
  type: "ProposalTarget"
  bottom: "proposals"
  bottom: "gt_boxes"
  top: "rois"
  top: "proposal_labels"
  top: "proposal_targets"
  top: "box_inside_weights"
  top: "box_outside_weights"
  top: "match_gt_boxes"
  include {
    phase: TRAIN
  }
  propagate_down: false
  propagate_down: false
  proposal_target_param {
    cls_num: 2
    batch_size: 128
    fg_fraction: 0.25
    num_img_per_batch: 4
    fg_thr: 0.45
    bg_thr_hg: 0.44
    bg_thr_lw: 0.05
    img_width: 448
    img_height: 448
    bbox_mean: 0
    bbox_mean: 0
    bbox_mean: 0
    bbox_mean: 0
    bbox_std: 0.1
    bbox_std: 0.1
    bbox_std: 0.2
    bbox_std: 0.2
  }
}
layer {
  name: "roi_pool_org"
  type: "ROIPooling"
  bottom: "conv4_3"
  bottom: "rois"
  top: "roi_pool_org"
  roi_pooling_param {
    pooled_h: 8
    pooled_w: 4
    spatial_scale: 0.125
    pad_ratio: 0
  }
}
layer {
  name: "roi_pool_ctx"
  type: "ROIPooling"
  bottom: "conv4_3"
  bottom: "rois"
  top: "roi_pool_ctx"
  roi_pooling_param {
    pooled_h: 8
    pooled_w: 4
    spatial_scale: 0.125
    pad_ratio: 0.25
  }
}
layer {
  name: "roi_pool"
  type: "Concat"
  bottom: "roi_pool_org"
  bottom: "roi_pool_ctx"
  top: "roi_pool"
}
layer {
  name: "roi_c1"
  type: "Convolution"
  bottom: "roi_pool"
  top: "roi_c1"
  param {
    lr_mult: 1
    decay_mult: 1
  }
  param {
    lr_mult: 2
    decay_mult: 0
  }
  convolution_param {
    num_output: 512
    pad: 1
    kernel_size: 3
    weight_filler {
      type: "gaussian"
      std: 0.01
    }
    bias_filler {
      type: "constant"
    }
  }
}
layer {
  name: "roi_c1_relu"
  type: "ReLU"
  bottom: "roi_c1"
  top: "roi_c1"
}
layer {
  name: "fc6"
  type: "InnerProduct"
  bottom: "roi_c1"
  top: "fc6"
  param {
    lr_mult: 1
  }
  param {
    lr_mult: 2
  }
  inner_product_param {
    num_output: 2048
    weight_filler {
      type: "gaussian"
      std: 0.001
    }
    bias_filler {
      type: "constant"
      value: 0
    }
  }
}
layer {
  name: "relu6"
  type: "ReLU"
  bottom: "fc6"
  top: "fc6"
}
layer {
  name: "drop6"
  type: "Dropout"
  bottom: "fc6"
  top: "fc6"
  dropout_param {
    dropout_ratio: 0.5
  }
}
layer {
  name: "cls_pred"
  type: "InnerProduct"
  bottom: "fc6"
  top: "cls_pred"
  param {
    lr_mult: 1
  }
  param {
    lr_mult: 2
  }
  inner_product_param {
    num_output: 2
    weight_filler {
      type: "gaussian"
      std: 0.01
    }
    bias_filler {
      type: "constant"
      value: 0
    }
  }
}
layer {
  name: "bbox_pred"
  type: "InnerProduct"
  bottom: "fc6"
  top: "bbox_pred"
  param {
    lr_mult: 1
  }
  param {
    lr_mult: 2
  }
  inner_product_param {
    num_output: 8
    weight_filler {
      type: "gaussian"
      std: 0.001
    }
    bias_filler {
      type: "constant"
      value: 0
    }
  }
}
layer {
  name: "loss_cls"
  type: "SoftmaxWithLoss"
  bottom: "cls_pred"
  bottom: "proposal_labels"
  top: "loss_cls"
  loss_weight: 1
  propagate_down: true
  propagate_down: false
}
layer {
  name: "cls_accuracy"
  type: "Accuracy"
  bottom: "cls_pred"
  bottom: "proposal_labels"
  top: "cls_accuracy"
}
layer {
  name: "loss_bbox"
  type: "SmoothL1Loss"
  bottom: "bbox_pred"
  bottom: "proposal_targets"
  bottom: "box_inside_weights"
  bottom: "box_outside_weights"
  top: "loss_bbox"
  loss_weight: 1
}
layer {
  name: "bbox_iou"
  type: "BboxAccuracy"
  bottom: "bbox_pred"
  bottom: "rois"
  bottom: "match_gt_boxes"
  top: "bbox_iou"
  top: "bbox_iou_pre"
  bbox_accuracy_param {
    bbox_mean: 0
    bbox_mean: 0
    bbox_mean: 0
    bbox_mean: 0
    bbox_std: 0.1
    bbox_std: 0.1
    bbox_std: 0.2
    bbox_std: 0.2
  }
}
I1006 06:49:57.313007 18716 layer_factory.hpp:76] Creating layer data
I1006 06:49:57.313053 18716 net.cpp:106] Creating Layer data
I1006 06:49:57.313061 18716 net.cpp:411] data -> data
…
I1006 06:49:57.526479 18716 image_gt_data_layer.cpp:234] output label size 2 : 4,6,28,28
I1006 06:49:57.526526 18716 image_gt_data_layer.cpp:234] output label size 3 : 4,6,28,28
I1006 06:49:57.526572 18716 image_gt_data_layer.cpp:234] output label size 4 : 4,6,14,14
I1006 06:49:57.526618 18716 image_gt_data_layer.cpp:234] output label size 5 : 4,6,14,14
I1006 06:49:57.526664 18716 image_gt_data_layer.cpp:234] output label size 6 : 4,6,7,7
I1006 06:49:57.526710 18716 image_gt_data_layer.cpp:249] output gt boxes size: 1,7,1,1
I1006 06:49:57.550469 18716 net.cpp:150] Setting up data
I1006 06:49:57.550498 18716 net.cpp:157] Top shape: 4 3 448 448 (2408448)
I1006 06:49:57.550504 18716 net.cpp:157] Top shape: 4 6 56 56 (75264)
I1006 06:49:57.550508 18716 net.cpp:157] Top shape: 4 6 56 56 (75264)
I1006 06:49:57.550513 18716 net.cpp:157] Top shape: 4 6 28 28 (18816)
I1006 06:49:57.550516 18716 net.cpp:157] Top shape: 4 6 28 28 (18816)
I1006 06:49:57.550519 18716 net.cpp:157] Top shape: 4 6 14 14 (4704)
I1006 06:49:57.550523 18716 net.cpp:157] Top shape: 4 6 14 14 (4704)
I1006 06:49:57.550528 18716 net.cpp:157] Top shape: 4 6 7 7 (1176)
I1006 06:49:57.550531 18716 net.cpp:157] Top shape: 1 7 1 1 (7)
I1006 06:49:57.550534 18716 net.cpp:165] Memory required for data: 10428796
I1006 06:49:57.550542 18716 layer_factory.hpp:76] Creating layer label_1_3x5_data_1_split
I1006 06:49:57.550564 18716 net.cpp:106] Creating Layer label_1_3x5_data_1_split
I1006 06:49:57.550570 18716 net.cpp:454] label_1_3x5_data_1_split <- label_1_3x5
I1006 06:49:57.550582 18716 net.cpp:411] label_1_3x5_data_1_split -> label_1_3x5_data_1_split_0
I1006 06:49:57.550592 18716 net.cpp:411] label_1_3x5_data_1_split -> label_1_3x5_data_1_split_1
I1006 06:49:57.550665 18716 net.cpp:150] Setting up label_1_3x5_data_1_split
I1006 06:49:57.550673 18716 net.cpp:157] Top shape: 4 6 56 56 (75264)
I1006 06:49:57.550675 18716 net.cpp:157] Top shape: 4 6 56 56 (75264)
I1006 06:49:57.550678 18716 net.cpp:165] Memory required for data: 11030908
I1006 06:49:57.550681 18716 layer_factory.hpp:76] Creating layer label_1_5x7_data_2_split
I1006 06:49:57.550688 18716 net.cpp:106] Creating Layer label_1_5x7_data_2_split
I1006 06:49:57.550690 18716 net.cpp:454] label_1_5x7_data_2_split <- label_1_5x7
I1006 06:49:57.550698 18716 net.cpp:411] label_1_5x7_data_2_split -> label_1_5x7_data_2_split_0
I1006 06:49:57.550704 18716 net.cpp:411] label_1_5x7_data_2_split -> label_1_5x7_data_2_split_1
I1006 06:49:57.550743 18716 net.cpp:150] Setting up label_1_5x7_data_2_split
I1006 06:49:57.550748 18716 net.cpp:157] Top shape: 4 6 56 56 (75264)
I1006 06:49:57.550751 18716 net.cpp:157] Top shape: 4 6 56 56 (75264)
I1006 06:49:57.550755 18716 net.cpp:165] Memory required for data: 11633020
I1006 06:49:57.550757 18716 layer_factory.hpp:76] Creating layer label_2_3x5_data_3_split
I1006 06:49:57.550761 18716 net.cpp:106] Creating Layer label_2_3x5_data_3_split
I1006 06:49:57.550765 18716 net.cpp:454] label_2_3x5_data_3_split <- label_2_3x5
I1006 06:49:57.550771 18716 net.cpp:411] label_2_3x5_data_3_split -> label_2_3x5_data_3_split_0
I1006 06:49:57.550777 18716 net.cpp:411] label_2_3x5_data_3_split -> label_2_3x5_data_3_split_1
I1006 06:49:57.550807 18716 net.cpp:150] Setting up label_2_3x5_data_3_split
I1006 06:49:57.550812 18716 net.cpp:157] Top shape: 4 6 28 28 (18816)
I1006 06:49:57.550815 18716 net.cpp:157] Top shape: 4 6 28 28 (18816)
I1006 06:49:57.550817 18716 net.cpp:165] Memory required for data: 11783548
I1006 06:49:57.550820 18716 layer_factory.hpp:76] Creating layer label_2_5x7_data_4_split
I1006 06:49:57.550825 18716 net.cpp:106] Creating Layer label_2_5x7_data_4_split
I1006 06:49:57.550828 18716 net.cpp:454] label_2_5x7_data_4_split <- label_2_5x7
I1006 06:49:57.550834 18716 net.cpp:411] label_2_5x7_data_4_split -> label_2_5x7_data_4_split_0
I1006 06:49:57.550840 18716 net.cpp:411] label_2_5x7_data_4_split -> label_2_5x7_data_4_split_1
I1006 06:49:57.550871 18716 net.cpp:150] Setting up label_2_5x7_data_4_split
I1006 06:49:57.550875 18716 net.cpp:157] Top shape: 4 6 28 28 (18816)
I1006 06:49:57.550879 18716 net.cpp:157] Top shape: 4 6 28 28 (18816)
I1006 06:49:57.550882 18716 net.cpp:165] Memory required for data: 11934076
I1006 06:49:57.550894 18716 layer_factory.hpp:76] Creating layer label_3_3x5_data_5_split
I1006 06:49:57.550897 18716 net.cpp:106] Creating Layer label_3_3x5_data_5_split
I1006 06:49:57.550900 18716 net.cpp:454] label_3_3x5_data_5_split <- label_3_3x5
I1006 06:49:57.550906 18716 net.cpp:411] label_3_3x5_data_5_split -> label_3_3x5_data_5_split_0
I1006 06:49:57.550912 18716 net.cpp:411] label_3_3x5_data_5_split -> label_3_3x5_data_5_split_1
I1006 06:49:57.550950 18716 net.cpp:150] Setting up label_3_3x5_data_5_split
I1006 06:49:57.550954 18716 net.cpp:157] Top shape: 4 6 14 14 (4704)
I1006 06:49:57.550957 18716 net.cpp:157] Top shape: 4 6 14 14 (4704)
I1006 06:49:57.550959 18716 net.cpp:165] Memory required for data: 11971708
I1006 06:49:57.550962 18716 layer_factory.hpp:76] Creating layer label_3_5x7_data_6_split
I1006 06:49:57.550966 18716 net.cpp:106] Creating Layer label_3_5x7_data_6_split
I1006 06:49:57.550969 18716 net.cpp:454] label_3_5x7_data_6_split <- label_3_5x7
I1006 06:49:57.550976 18716 net.cpp:411] label_3_5x7_data_6_split -> label_3_5x7_data_6_split_0
I1006 06:49:57.550979 18716 net.cpp:411] label_3_5x7_data_6_split -> label_3_5x7_data_6_split_1
I1006 06:49:57.551007 18716 net.cpp:150] Setting up label_3_5x7_data_6_split
I1006 06:49:57.551012 18716 net.cpp:157] Top shape: 4 6 14 14 (4704)
I1006 06:49:57.551014 18716 net.cpp:157] Top shape: 4 6 14 14 (4704)
I1006 06:49:57.551017 18716 net.cpp:165] Memory required for data: 12009340
I1006 06:49:57.551019 18716 layer_factory.hpp:76] Creating layer label_4_3x5_data_7_split
I1006 06:49:57.551023 18716 net.cpp:106] Creating Layer label_4_3x5_data_7_split
I1006 06:49:57.551026 18716 net.cpp:454] label_4_3x5_data_7_split <- label_4_3x5
I1006 06:49:57.551033 18716 net.cpp:411] label_4_3x5_data_7_split -> label_4_3x5_data_7_split_0
I1006 06:49:57.551038 18716 net.cpp:411] label_4_3x5_data_7_split -> label_4_3x5_data_7_split_1
I1006 06:49:57.551065 18716 net.cpp:150] Setting up label_4_3x5_data_7_split
I1006 06:49:57.551069 18716 net.cpp:157] Top shape: 4 6 7 7 (1176)
I1006 06:49:57.551074 18716 net.cpp:157] Top shape: 4 6 7 7 (1176)
I1006 06:49:57.551075 18716 net.cpp:165] Memory required for data: 12018748
I1006 06:49:57.551079 18716 layer_factory.hpp:76] Creating layer conv1_1
I1006 06:49:57.551087 18716 net.cpp:106] Creating Layer conv1_1
I1006 06:49:57.551090 18716 net.cpp:454] conv1_1 <- data
I1006 06:49:57.551095 18716 net.cpp:411] conv1_1 -> conv1_1
I1006 06:49:57.679402 18716 net.cpp:150] Setting up conv1_1
I1006 06:49:57.679430 18716 net.cpp:157] Top shape: 4 64 448 448 (51380224)
I1006 06:49:57.679435 18716 net.cpp:165] Memory required for data: 217539644
I1006 06:49:57.679457 18716 layer_factory.hpp:76] Creating layer relu1_1
I1006 06:49:57.679468 18716 net.cpp:106] Creating Layer relu1_1
I1006 06:49:57.679472 18716 net.cpp:454] relu1_1 <- conv1_1
I1006 06:49:57.679479 18716 net.cpp:397] relu1_1 -> conv1_1 (in-place)
I1006 06:49:57.679672 18716 net.cpp:150] Setting up relu1_1
I1006 06:49:57.679682 18716 net.cpp:157] Top shape: 4 64 448 448 (51380224)
I1006 06:49:57.679685 18716 net.cpp:165] Memory required for data: 423060540
I1006 06:49:57.679688 18716 layer_factory.hpp:76] Creating layer conv1_2
I1006 06:49:57.679697 18716 net.cpp:106] Creating Layer conv1_2
I1006 06:49:57.679700 18716 net.cpp:454] conv1_2 <- conv1_1
I1006 06:49:57.679707 18716 net.cpp:411] conv1_2 -> conv1_2
I1006 06:49:57.681529 18716 net.cpp:150] Setting up conv1_2
I1006 06:49:57.681545 18716 net.cpp:157] Top shape: 4 64 448 448 (51380224)
I1006 06:49:57.681555 18716 net.cpp:165] Memory required for data: 628581436
I1006 06:49:57.681565 18716 layer_factory.hpp:76] Creating layer relu1_2
I1006 06:49:57.681571 18716 net.cpp:106] Creating Layer relu1_2
I1006 06:49:57.681574 18716 net.cpp:454] relu1_2 <- conv1_2
I1006 06:49:57.681579 18716 net.cpp:397] relu1_2 -> conv1_2 (in-place)
I1006 06:49:57.681922 18716 net.cpp:150] Setting up relu1_2
I1006 06:49:57.681936 18716 net.cpp:157] Top shape: 4 64 448 448 (51380224)
I1006 06:49:57.681939 18716 net.cpp:165] Memory required for data: 834102332
I1006 06:49:57.681943 18716 layer_factory.hpp:76] Creating layer pool1
I1006 06:49:57.681951 18716 net.cpp:106] Creating Layer pool1
I1006 06:49:57.681953 18716 net.cpp:454] pool1 <- conv1_2
I1006 06:49:57.681959 18716 net.cpp:411] pool1 -> pool1
I1006 06:49:57.682166 18716 net.cpp:150] Setting up pool1
I1006 06:49:57.682176 18716 net.cpp:157] Top shape: 4 64 224 224 (12845056)
I1006 06:49:57.682180 18716 net.cpp:165] Memory required for data: 885482556
I1006 06:49:57.682183 18716 layer_factory.hpp:76] Creating layer conv2_1
I1006 06:49:57.682190 18716 net.cpp:106] Creating Layer conv2_1
I1006 06:49:57.682193 18716 net.cpp:454] conv2_1 <- pool1
I1006 06:49:57.682199 18716 net.cpp:411] conv2_1 -> conv2_1
I1006 06:49:57.683936 18716 net.cpp:150] Setting up conv2_1
I1006 06:49:57.683951 18716 net.cpp:157] Top shape: 4 128 224 224 (25690112)
I1006 06:49:57.683962 18716 net.cpp:165] Memory required for data: 988243004
I1006 06:49:57.683971 18716 layer_factory.hpp:76] Creating layer relu2_1
I1006 06:49:57.683979 18716 net.cpp:106] Creating Layer relu2_1
I1006 06:49:57.683981 18716 net.cpp:454] relu2_1 <- conv2_1
I1006 06:49:57.683987 18716 net.cpp:397] relu2_1 -> conv2_1 (in-place)
I1006 06:49:57.684325 18716 net.cpp:150] Setting up relu2_1
I1006 06:49:57.684339 18716 net.cpp:157] Top shape: 4 128 224 224 (25690112)
I1006 06:49:57.684341 18716 net.cpp:165] Memory required for data: 1091003452
I1006 06:49:57.684345 18716 layer_factory.hpp:76] Creating layer conv2_2
I1006 06:49:57.684352 18716 net.cpp:106] Creating Layer conv2_2
I1006 06:49:57.684356 18716 net.cpp:454] conv2_2 <- conv2_1
I1006 06:49:57.684361 18716 net.cpp:411] conv2_2 -> conv2_2
I1006 06:49:57.685423 18716 net.cpp:150] Setting up conv2_2
I1006 06:49:57.685437 18716 net.cpp:157] Top shape: 4 128 224 224 (25690112)
I1006 06:49:57.685441 18716 net.cpp:165] Memory required for data: 1193763900
I1006 06:49:57.685451 18716 layer_factory.hpp:76] Creating layer relu2_2
I1006 06:49:57.685459 18716 net.cpp:106] Creating Layer relu2_2
I1006 06:49:57.685463 18716 net.cpp:454] relu2_2 <- conv2_2
I1006 06:49:57.685468 18716 net.cpp:397] relu2_2 -> conv2_2 (in-place)
I1006 06:49:57.685828 18716 net.cpp:150] Setting up relu2_2
I1006 06:49:57.685842 18716 net.cpp:157] Top shape: 4 128 224 224 (25690112)
I1006 06:49:57.685844 18716 net.cpp:165] Memory required for data: 1296524348
I1006 06:49:57.685847 18716 layer_factory.hpp:76] Creating layer pool2
I1006 06:49:57.685856 18716 net.cpp:106] Creating Layer pool2
I1006 06:49:57.685859 18716 net.cpp:454] pool2 <- conv2_2
I1006 06:49:57.685868 18716 net.cpp:411] pool2 -> pool2
I1006 06:49:57.686077 18716 net.cpp:150] Setting up pool2
I1006 06:49:57.686089 18716 net.cpp:157] Top shape: 4 128 112 112 (6422528)
I1006 06:49:57.686091 18716 net.cpp:165] Memory required for data: 1322214460
I1006 06:49:57.686094 18716 layer_factory.hpp:76] Creating layer conv3_1
I1006 06:49:57.686102 18716 net.cpp:106] Creating Layer conv3_1
I1006 06:49:57.686106 18716 net.cpp:454] conv3_1 <- pool2
I1006 06:49:57.686111 18716 net.cpp:411] conv3_1 -> conv3_1
I1006 06:49:57.688117 18716 net.cpp:150] Setting up conv3_1
I1006 06:49:57.688133 18716 net.cpp:157] Top shape: 4 256 112 112 (12845056)
I1006 06:49:57.688136 18716 net.cpp:165] Memory required for data: 1373594684
I1006 06:49:57.688146 18716 layer_factory.hpp:76] Creating layer relu3_1
I1006 06:49:57.688160 18716 net.cpp:106] Creating Layer relu3_1
I1006 06:49:57.688164 18716 net.cpp:454] relu3_1 <- conv3_1
I1006 06:49:57.688169 18716 net.cpp:397] relu3_1 -> conv3_1 (in-place)
I1006 06:49:57.688529 18716 net.cpp:150] Setting up relu3_1
I1006 06:49:57.688549 18716 net.cpp:157] Top shape: 4 256 112 112 (12845056)
I1006 06:49:57.688552 18716 net.cpp:165] Memory required for data: 1424974908
I1006 06:49:57.688555 18716 layer_factory.hpp:76] Creating layer conv3_2
I1006 06:49:57.688563 18716 net.cpp:106] Creating Layer conv3_2
I1006 06:49:57.688568 18716 net.cpp:454] conv3_2 <- conv3_1
I1006 06:49:57.688578 18716 net.cpp:411] conv3_2 -> conv3_2
I1006 06:49:57.691249 18716 net.cpp:150] Setting up conv3_2
I1006 06:49:57.691269 18716 net.cpp:157] Top shape: 4 256 112 112 (12845056)
I1006 06:49:57.691272 18716 net.cpp:165] Memory required for data: 1476355132
I1006 06:49:57.691279 18716 layer_factory.hpp:76] Creating layer relu3_2
I1006 06:49:57.691287 18716 net.cpp:106] Creating Layer relu3_2
I1006 06:49:57.691296 18716 net.cpp:454] relu3_2 <- conv3_2
I1006 06:49:57.691301 18716 net.cpp:397] relu3_2 -> conv3_2 (in-place)
I1006 06:49:57.691707 18716 net.cpp:150] Setting up relu3_2
I1006 06:49:57.691720 18716 net.cpp:157] Top shape: 4 256 112 112 (12845056)
I1006 06:49:57.691722 18716 net.cpp:165] Memory required for data: 1527735356
I1006 06:49:57.691726 18716 layer_factory.hpp:76] Creating layer conv3_3
I1006 06:49:57.691740 18716 net.cpp:106] Creating Layer conv3_3
I1006 06:49:57.691745 18716 net.cpp:454] conv3_3 <- conv3_2
I1006 06:49:57.691751 18716 net.cpp:411] conv3_3 -> conv3_3
I1006 06:49:57.694413 18716 net.cpp:150] Setting up conv3_3
I1006 06:49:57.694427 18716 net.cpp:157] Top shape: 4 256 112 112 (12845056)
I1006 06:49:57.694440 18716 net.cpp:165] Memory required for data: 1579115580
I1006 06:49:57.694447 18716 layer_factory.hpp:76] Creating layer relu3_3
I1006 06:49:57.694453 18716 net.cpp:106] Creating Layer relu3_3
I1006 06:49:57.694458 18716 net.cpp:454] relu3_3 <- conv3_3
I1006 06:49:57.694463 18716 net.cpp:397] relu3_3 -> conv3_3 (in-place)
I1006 06:49:57.694667 18716 net.cpp:150] Setting up relu3_3
I1006 06:49:57.694677 18716 net.cpp:157] Top shape: 4 256 112 112 (12845056)
I1006 06:49:57.694680 18716 net.cpp:165] Memory required for data: 1630495804
I1006 06:49:57.694684 18716 layer_factory.hpp:76] Creating layer pool3
I1006 06:49:57.694690 18716 net.cpp:106] Creating Layer pool3
I1006 06:49:57.694694 18716 net.cpp:454] pool3 <- conv3_3
I1006 06:49:57.694700 18716 net.cpp:411] pool3 -> pool3
I1006 06:49:57.695098 18716 net.cpp:150] Setting up pool3
I1006 06:49:57.695113 18716 net.cpp:157] Top shape: 4 256 56 56 (3211264)
I1006 06:49:57.695117 18716 net.cpp:165] Memory required for data: 1643340860
I1006 06:49:57.695121 18716 layer_factory.hpp:76] Creating layer conv4_1
I1006 06:49:57.695127 18716 net.cpp:106] Creating Layer conv4_1
I1006 06:49:57.695132 18716 net.cpp:454] conv4_1 <- pool3
I1006 06:49:57.695138 18716 net.cpp:411] conv4_1 -> conv4_1
I1006 06:49:57.699615 18716 net.cpp:150] Setting up conv4_1
I1006 06:49:57.699630 18716 net.cpp:157] Top shape: 4 512 56 56 (6422528)
I1006 06:49:57.699635 18716 net.cpp:165] Memory required for data: 1669030972
I1006 06:49:57.699640 18716 layer_factory.hpp:76] Creating layer relu4_1
I1006 06:49:57.699648 18716 net.cpp:106] Creating Layer relu4_1
I1006 06:49:57.699652 18716 net.cpp:454] relu4_1 <- conv4_1
I1006 06:49:57.699663 18716 net.cpp:397] relu4_1 -> conv4_1 (in-place)
I1006 06:49:57.699846 18716 net.cpp:150] Setting up relu4_1
I1006 06:49:57.699856 18716 net.cpp:157] Top shape: 4 512 56 56 (6422528)
I1006 06:49:57.699859 18716 net.cpp:165] Memory required for data: 1694721084
I1006 06:49:57.699862 18716 layer_factory.hpp:76] Creating layer conv4_2
I1006 06:49:57.699870 18716 net.cpp:106] Creating Layer conv4_2
I1006 06:49:57.699873 18716 net.cpp:454] conv4_2 <- conv4_1
I1006 06:49:57.699879 18716 net.cpp:411] conv4_2 -> conv4_2
I1006 06:49:57.706394 18716 net.cpp:150] Setting up conv4_2
I1006 06:49:57.706410 18716 net.cpp:157] Top shape: 4 512 56 56 (6422528)
I1006 06:49:57.706414 18716 net.cpp:165] Memory required for data: 1720411196
I1006 06:49:57.706425 18716 layer_factory.hpp:76] Creating layer relu4_2
I1006 06:49:57.706434 18716 net.cpp:106] Creating Layer relu4_2
I1006 06:49:57.706444 18716 net.cpp:454] relu4_2 <- conv4_2
I1006 06:49:57.706449 18716 net.cpp:397] relu4_2 -> conv4_2 (in-place)
I1006 06:49:57.706814 18716 net.cpp:150] Setting up relu4_2
I1006 06:49:57.706826 18716 net.cpp:157] Top shape: 4 512 56 56 (6422528)
I1006 06:49:57.706830 18716 net.cpp:165] Memory required for data: 1746101308
I1006 06:49:57.706833 18716 layer_factory.hpp:76] Creating layer conv4_3
I1006 06:49:57.706847 18716 net.cpp:106] Creating Layer conv4_3
I1006 06:49:57.706851 18716 net.cpp:454] conv4_3 <- conv4_2
I1006 06:49:57.706866 18716 net.cpp:411] conv4_3 -> conv4_3
I1006 06:49:57.713438 18716 net.cpp:150] Setting up conv4_3
I1006 06:49:57.713455 18716 net.cpp:157] Top shape: 4 512 56 56 (6422528)
I1006 06:49:57.713459 18716 net.cpp:165] Memory required for data: 1771791420
I1006 06:49:57.713466 18716 layer_factory.hpp:76] Creating layer relu4_3
I1006 06:49:57.713479 18716 net.cpp:106] Creating Layer relu4_3
I1006 06:49:57.713484 18716 net.cpp:454] relu4_3 <- conv4_3
I1006 06:49:57.713490 18716 net.cpp:397] relu4_3 -> conv4_3 (in-place)
I1006 06:49:57.713847 18716 net.cpp:150] Setting up relu4_3
I1006 06:49:57.713860 18716 net.cpp:157] Top shape: 4 512 56 56 (6422528)
I1006 06:49:57.713863 18716 net.cpp:165] Memory required for data: 1797481532
I1006 06:49:57.713867 18716 layer_factory.hpp:76] Creating layer conv4_3_relu4_3_0_split
I1006 06:49:57.713873 18716 net.cpp:106] Creating Layer conv4_3_relu4_3_0_split
I1006 06:49:57.713876 18716 net.cpp:454] conv4_3_relu4_3_0_split <- conv4_3
I1006 06:49:57.713884 18716 net.cpp:411] conv4_3_relu4_3_0_split -> conv4_3_relu4_3_0_split_0
I1006 06:49:57.713891 18716 net.cpp:411] conv4_3_relu4_3_0_split -> conv4_3_relu4_3_0_split_1
I1006 06:49:57.713897 18716 net.cpp:411] conv4_3_relu4_3_0_split -> conv4_3_relu4_3_0_split_2
I1006 06:49:57.713902 18716 net.cpp:411] conv4_3_relu4_3_0_split -> conv4_3_relu4_3_0_split_3
I1006 06:49:57.713978 18716 net.cpp:150] Setting up conv4_3_relu4_3_0_split
I1006 06:49:57.713982 18716 net.cpp:157] Top shape: 4 512 56 56 (6422528)
I1006 06:49:57.713986 18716 net.cpp:157] Top shape: 4 512 56 56 (6422528)
I1006 06:49:57.713990 18716 net.cpp:157] Top shape: 4 512 56 56 (6422528)
I1006 06:49:57.713994 18716 net.cpp:157] Top shape: 4 512 56 56 (6422528)
I1006 06:49:57.713996 18716 net.cpp:165] Memory required for data: 1900241980
I1006 06:49:57.713999 18716 layer_factory.hpp:76] Creating layer loss1_conv1
I1006 06:49:57.714012 18716 net.cpp:106] Creating Layer loss1_conv1
I1006 06:49:57.714016 18716 net.cpp:454] loss1_conv1 <- conv4_3_relu4_3_0_split_0
I1006 06:49:57.714025 18716 net.cpp:411] loss1_conv1 -> loss1_conv1
I1006 06:49:57.802366 18716 net.cpp:150] Setting up loss1_conv1
I1006 06:49:57.802394 18716 net.cpp:157] Top shape: 4 512 56 56 (6422528)
I1006 06:49:57.802397 18716 net.cpp:165] Memory required for data: 1925932092
I1006 06:49:57.802405 18716 layer_factory.hpp:76] Creating layer loss_relu1
I1006 06:49:57.802415 18716 net.cpp:106] Creating Layer loss_relu1
I1006 06:49:57.802420 18716 net.cpp:454] loss_relu1 <- loss1_conv1
I1006 06:49:57.802428 18716 net.cpp:397] loss_relu1 -> loss1_conv1 (in-place)
I1006 06:49:57.802631 18716 net.cpp:150] Setting up loss_relu1
I1006 06:49:57.802641 18716 net.cpp:157] Top shape: 4 512 56 56 (6422528)
I1006 06:49:57.802649 18716 net.cpp:165] Memory required for data: 1951622204
I1006 06:49:57.802652 18716 layer_factory.hpp:76] Creating layer loss1_conv1_loss_relu1_0_split
I1006 06:49:57.802659 18716 net.cpp:106] Creating Layer loss1_conv1_loss_relu1_0_split
I1006 06:49:57.802661 18716 net.cpp:454] loss1_conv1_loss_relu1_0_split <- loss1_conv1
I1006 06:49:57.802667 18716 net.cpp:411] loss1_conv1_loss_relu1_0_split -> loss1_conv1_loss_relu1_0_split_0
I1006 06:49:57.802675 18716 net.cpp:411] loss1_conv1_loss_relu1_0_split -> loss1_conv1_loss_relu1_0_split_1
I1006 06:49:57.802719 18716 net.cpp:150] Setting up loss1_conv1_loss_relu1_0_split
I1006 06:49:57.802726 18716 net.cpp:157] Top shape: 4 512 56 56 (6422528)
I1006 06:49:57.802729 18716 net.cpp:157] Top shape: 4 512 56 56 (6422528)
I1006 06:49:57.802732 18716 net.cpp:165] Memory required for data: 2003002428
I1006 06:49:57.802736 18716 layer_factory.hpp:76] Creating layer LFCN_1_3x5
I1006 06:49:57.802743 18716 net.cpp:106] Creating Layer LFCN_1_3x5
I1006 06:49:57.802747 18716 net.cpp:454] LFCN_1_3x5 <- loss1_conv1_loss_relu1_0_split_0
I1006 06:49:57.802753 18716 net.cpp:411] LFCN_1_3x5 -> LFCN_1_3x5
I1006 06:49:57.806207 18716 net.cpp:150] Setting up LFCN_1_3x5
I1006 06:49:57.806222 18716 net.cpp:157] Top shape: 4 6 56 56 (75264)
I1006 06:49:57.806233 18716 net.cpp:165] Memory required for data: 2003303484
I1006 06:49:57.806241 18716 layer_factory.hpp:76] Creating layer LFCN_1_3x5_LFCN_1_3x5_0_split
I1006 06:49:57.806248 18716 net.cpp:106] Creating Layer LFCN_1_3x5_LFCN_1_3x5_0_split
I1006 06:49:57.806252 18716 net.cpp:454] LFCN_1_3x5_LFCN_1_3x5_0_split <- LFCN_1_3x5
I1006 06:49:57.806260 18716 net.cpp:411] LFCN_1_3x5_LFCN_1_3x5_0_split -> LFCN_1_3x5_LFCN_1_3x5_0_split_0
I1006 06:49:57.806267 18716 net.cpp:411] LFCN_1_3x5_LFCN_1_3x5_0_split -> LFCN_1_3x5_LFCN_1_3x5_0_split_1
I1006 06:49:57.806272 18716 net.cpp:411] LFCN_1_3x5_LFCN_1_3x5_0_split -> LFCN_1_3x5_LFCN_1_3x5_0_split_2
I1006 06:49:57.806335 18716 net.cpp:150] Setting up LFCN_1_3x5_LFCN_1_3x5_0_split
I1006 06:49:57.806340 18716 net.cpp:157] Top shape: 4 6 56 56 (75264)
I1006 06:49:57.806344 18716 net.cpp:157] Top shape: 4 6 56 56 (75264)
I1006 06:49:57.806347 18716 net.cpp:157] Top shape: 4 6 56 56 (75264)
I1006 06:49:57.806350 18716 net.cpp:165] Memory required for data: 2004206652
I1006 06:49:57.806354 18716 layer_factory.hpp:76] Creating layer detection_loss_1_3x5
I1006 06:49:57.806361 18716 net.cpp:106] Creating Layer detection_loss_1_3x5
I1006 06:49:57.806365 18716 net.cpp:454] detection_loss_1_3x5 <- LFCN_1_3x5_LFCN_1_3x5_0_split_0
I1006 06:49:57.806370 18716 net.cpp:454] detection_loss_1_3x5 <- label_1_3x5_data_1_split_0
I1006 06:49:57.806376 18716 net.cpp:411] detection_loss_1_3x5 -> loss_1_3x5
I1006 06:49:57.806388 18716 layer_factory.hpp:76] Creating layer detection_loss_1_3x5
I1006 06:49:57.807171 18716 net.cpp:150] Setting up detection_loss_1_3x5
I1006 06:49:57.807185 18716 net.cpp:157] Top shape: 1 1 1 2 (2)
I1006 06:49:57.807189 18716 net.cpp:160]     with loss weight 0.9
I1006 06:49:57.807215 18716 net.cpp:165] Memory required for data: 2004206660
I1006 06:49:57.807219 18716 layer_factory.hpp:76] Creating layer detection_accuracy_1_3x5
I1006 06:49:57.807225 18716 net.cpp:106] Creating Layer detection_accuracy_1_3x5
I1006 06:49:57.807229 18716 net.cpp:454] detection_accuracy_1_3x5 <- LFCN_1_3x5_LFCN_1_3x5_0_split_1
I1006 06:49:57.807235 18716 net.cpp:454] detection_accuracy_1_3x5 <- label_1_3x5_data_1_split_1
I1006 06:49:57.807242 18716 net.cpp:411] detection_accuracy_1_3x5 -> accuracy_1_3x5
I1006 06:49:57.807251 18716 net.cpp:411] detection_accuracy_1_3x5 -> boxiou_1_3x5
I1006 06:49:57.807294 18716 net.cpp:150] Setting up detection_accuracy_1_3x5
I1006 06:49:57.807301 18716 net.cpp:157] Top shape: 1 1 1 2 (2)
I1006 06:49:57.807304 18716 net.cpp:157] Top shape: 1 1 1 1 (1)
I1006 06:49:57.807307 18716 net.cpp:165] Memory required for data: 2004206672
I1006 06:49:57.807309 18716 layer_factory.hpp:76] Creating layer LFCN_1_5x7
I1006 06:49:57.807317 18716 net.cpp:106] Creating Layer LFCN_1_5x7
I1006 06:49:57.807320 18716 net.cpp:454] LFCN_1_5x7 <- loss1_conv1_loss_relu1_0_split_1
I1006 06:49:57.807327 18716 net.cpp:411] LFCN_1_5x7 -> LFCN_1_5x7
I1006 06:49:57.812774 18716 net.cpp:150] Setting up LFCN_1_5x7
I1006 06:49:57.812789 18716 net.cpp:157] Top shape: 4 6 56 56 (75264)
I1006 06:49:57.812793 18716 net.cpp:165] Memory required for data: 2004507728
I1006 06:49:57.812799 18716 layer_factory.hpp:76] Creating layer LFCN_1_5x7_LFCN_1_5x7_0_split
I1006 06:49:57.812805 18716 net.cpp:106] Creating Layer LFCN_1_5x7_LFCN_1_5x7_0_split
I1006 06:49:57.812809 18716 net.cpp:454] LFCN_1_5x7_LFCN_1_5x7_0_split <- LFCN_1_5x7
I1006 06:49:57.812818 18716 net.cpp:411] LFCN_1_5x7_LFCN_1_5x7_0_split -> LFCN_1_5x7_LFCN_1_5x7_0_split_0
I1006 06:49:57.812825 18716 net.cpp:411] LFCN_1_5x7_LFCN_1_5x7_0_split -> LFCN_1_5x7_LFCN_1_5x7_0_split_1
I1006 06:49:57.812830 18716 net.cpp:411] LFCN_1_5x7_LFCN_1_5x7_0_split -> LFCN_1_5x7_LFCN_1_5x7_0_split_2
I1006 06:49:57.812891 18716 net.cpp:150] Setting up LFCN_1_5x7_LFCN_1_5x7_0_split
I1006 06:49:57.812896 18716 net.cpp:157] Top shape: 4 6 56 56 (75264)
I1006 06:49:57.812901 18716 net.cpp:157] Top shape: 4 6 56 56 (75264)
I1006 06:49:57.812903 18716 net.cpp:157] Top shape: 4 6 56 56 (75264)
I1006 06:49:57.812906 18716 net.cpp:165] Memory required for data: 2005410896
I1006 06:49:57.812909 18716 layer_factory.hpp:76] Creating layer detection_loss_1_5x7
I1006 06:49:57.812916 18716 net.cpp:106] Creating Layer detection_loss_1_5x7
I1006 06:49:57.812919 18716 net.cpp:454] detection_loss_1_5x7 <- LFCN_1_5x7_LFCN_1_5x7_0_split_0
I1006 06:49:57.812924 18716 net.cpp:454] detection_loss_1_5x7 <- label_1_5x7_data_2_split_0
I1006 06:49:57.812932 18716 net.cpp:411] detection_loss_1_5x7 -> loss_1_5x7
I1006 06:49:57.812938 18716 layer_factory.hpp:76] Creating layer detection_loss_1_5x7
I1006 06:49:57.813495 18716 net.cpp:150] Setting up detection_loss_1_5x7
I1006 06:49:57.813508 18716 net.cpp:157] Top shape: 1 1 1 2 (2)
I1006 06:49:57.813511 18716 net.cpp:160]     with loss weight 0.9
I1006 06:49:57.813519 18716 net.cpp:165] Memory required for data: 2005410904
I1006 06:49:57.813522 18716 layer_factory.hpp:76] Creating layer detection_accuracy_1_5x7
I1006 06:49:57.813529 18716 net.cpp:106] Creating Layer detection_accuracy_1_5x7
I1006 06:49:57.813532 18716 net.cpp:454] detection_accuracy_1_5x7 <- LFCN_1_5x7_LFCN_1_5x7_0_split_1
I1006 06:49:57.813537 18716 net.cpp:454] detection_accuracy_1_5x7 <- label_1_5x7_data_2_split_1
I1006 06:49:57.813545 18716 net.cpp:411] detection_accuracy_1_5x7 -> accuracy_1_5x7
I1006 06:49:57.813552 18716 net.cpp:411] detection_accuracy_1_5x7 -> boxiou_1_5x7
I1006 06:49:57.813601 18716 net.cpp:150] Setting up detection_accuracy_1_5x7
I1006 06:49:57.813606 18716 net.cpp:157] Top shape: 1 1 1 2 (2)
I1006 06:49:57.813608 18716 net.cpp:157] Top shape: 1 1 1 1 (1)
I1006 06:49:57.813611 18716 net.cpp:165] Memory required for data: 2005410916
I1006 06:49:57.813613 18716 layer_factory.hpp:76] Creating layer pool4
I1006 06:49:57.813619 18716 net.cpp:106] Creating Layer pool4
I1006 06:49:57.813623 18716 net.cpp:454] pool4 <- conv4_3_relu4_3_0_split_1
I1006 06:49:57.813629 18716 net.cpp:411] pool4 -> pool4
I1006 06:49:57.814026 18716 net.cpp:150] Setting up pool4
I1006 06:49:57.814039 18716 net.cpp:157] Top shape: 4 512 28 28 (1605632)
I1006 06:49:57.814043 18716 net.cpp:165] Memory required for data: 2011833444
I1006 06:49:57.814046 18716 layer_factory.hpp:76] Creating layer conv5_1
I1006 06:49:57.814059 18716 net.cpp:106] Creating Layer conv5_1
I1006 06:49:57.814064 18716 net.cpp:454] conv5_1 <- pool4
I1006 06:49:57.814069 18716 net.cpp:411] conv5_1 -> conv5_1
I1006 06:49:57.820644 18716 net.cpp:150] Setting up conv5_1
I1006 06:49:57.820660 18716 net.cpp:157] Top shape: 4 512 28 28 (1605632)
I1006 06:49:57.820664 18716 net.cpp:165] Memory required for data: 2018255972
I1006 06:49:57.820672 18716 layer_factory.hpp:76] Creating layer relu5_1
I1006 06:49:57.820679 18716 net.cpp:106] Creating Layer relu5_1
I1006 06:49:57.820683 18716 net.cpp:454] relu5_1 <- conv5_1
I1006 06:49:57.820688 18716 net.cpp:397] relu5_1 -> conv5_1 (in-place)
I1006 06:49:57.821059 18716 net.cpp:150] Setting up relu5_1
I1006 06:49:57.821072 18716 net.cpp:157] Top shape: 4 512 28 28 (1605632)
I1006 06:49:57.821075 18716 net.cpp:165] Memory required for data: 2024678500
I1006 06:49:57.821079 18716 layer_factory.hpp:76] Creating layer conv5_2
I1006 06:49:57.821087 18716 net.cpp:106] Creating Layer conv5_2
I1006 06:49:57.821090 18716 net.cpp:454] conv5_2 <- conv5_1
I1006 06:49:57.821096 18716 net.cpp:411] conv5_2 -> conv5_2
I1006 06:49:57.827775 18716 net.cpp:150] Setting up conv5_2
I1006 06:49:57.827792 18716 net.cpp:157] Top shape: 4 512 28 28 (1605632)
I1006 06:49:57.827796 18716 net.cpp:165] Memory required for data: 2031101028
I1006 06:49:57.827805 18716 layer_factory.hpp:76] Creating layer relu5_2
I1006 06:49:57.827813 18716 net.cpp:106] Creating Layer relu5_2
I1006 06:49:57.827817 18716 net.cpp:454] relu5_2 <- conv5_2
I1006 06:49:57.827823 18716 net.cpp:397] relu5_2 -> conv5_2 (in-place)
I1006 06:49:57.828024 18716 net.cpp:150] Setting up relu5_2
I1006 06:49:57.828034 18716 net.cpp:157] Top shape: 4 512 28 28 (1605632)
I1006 06:49:57.828037 18716 net.cpp:165] Memory required for data: 2037523556
I1006 06:49:57.828040 18716 layer_factory.hpp:76] Creating layer conv5_3
I1006 06:49:57.828049 18716 net.cpp:106] Creating Layer conv5_3
I1006 06:49:57.828052 18716 net.cpp:454] conv5_3 <- conv5_2
I1006 06:49:57.828058 18716 net.cpp:411] conv5_3 -> conv5_3
I1006 06:49:57.836129 18716 net.cpp:150] Setting up conv5_3
I1006 06:49:57.836145 18716 net.cpp:157] Top shape: 4 512 28 28 (1605632)
I1006 06:49:57.836148 18716 net.cpp:165] Memory required for data: 2043946084
I1006 06:49:57.836155 18716 layer_factory.hpp:76] Creating layer relu5_3
I1006 06:49:57.836161 18716 net.cpp:106] Creating Layer relu5_3
I1006 06:49:57.836165 18716 net.cpp:454] relu5_3 <- conv5_3
I1006 06:49:57.836174 18716 net.cpp:397] relu5_3 -> conv5_3 (in-place)
I1006 06:49:57.836537 18716 net.cpp:150] Setting up relu5_3
I1006 06:49:57.836550 18716 net.cpp:157] Top shape: 4 512 28 28 (1605632)
I1006 06:49:57.836554 18716 net.cpp:165] Memory required for data: 2050368612
I1006 06:49:57.836556 18716 layer_factory.hpp:76] Creating layer conv5_3_relu5_3_0_split
I1006 06:49:57.836563 18716 net.cpp:106] Creating Layer conv5_3_relu5_3_0_split
I1006 06:49:57.836566 18716 net.cpp:454] conv5_3_relu5_3_0_split <- conv5_3
I1006 06:49:57.836573 18716 net.cpp:411] conv5_3_relu5_3_0_split -> conv5_3_relu5_3_0_split_0
I1006 06:49:57.836581 18716 net.cpp:411] conv5_3_relu5_3_0_split -> conv5_3_relu5_3_0_split_1
I1006 06:49:57.836586 18716 net.cpp:411] conv5_3_relu5_3_0_split -> conv5_3_relu5_3_0_split_2
I1006 06:49:57.836648 18716 net.cpp:150] Setting up conv5_3_relu5_3_0_split
I1006 06:49:57.836654 18716 net.cpp:157] Top shape: 4 512 28 28 (1605632)
I1006 06:49:57.836658 18716 net.cpp:157] Top shape: 4 512 28 28 (1605632)
I1006 06:49:57.836661 18716 net.cpp:157] Top shape: 4 512 28 28 (1605632)
I1006 06:49:57.836663 18716 net.cpp:165] Memory required for data: 2069636196
I1006 06:49:57.836666 18716 layer_factory.hpp:76] Creating layer LFCN_2_3x5
I1006 06:49:57.836678 18716 net.cpp:106] Creating Layer LFCN_2_3x5
I1006 06:49:57.836680 18716 net.cpp:454] LFCN_2_3x5 <- conv5_3_relu5_3_0_split_0
I1006 06:49:57.836686 18716 net.cpp:411] LFCN_2_3x5 -> LFCN_2_3x5
I1006 06:49:57.839354 18716 net.cpp:150] Setting up LFCN_2_3x5
I1006 06:49:57.839370 18716 net.cpp:157] Top shape: 4 6 28 28 (18816)
I1006 06:49:57.839375 18716 net.cpp:165] Memory required for data: 2069711460
I1006 06:49:57.839387 18716 layer_factory.hpp:76] Creating layer LFCN_2_3x5_LFCN_2_3x5_0_split
I1006 06:49:57.839395 18716 net.cpp:106] Creating Layer LFCN_2_3x5_LFCN_2_3x5_0_split
I1006 06:49:57.839398 18716 net.cpp:454] LFCN_2_3x5_LFCN_2_3x5_0_split <- LFCN_2_3x5
I1006 06:49:57.839404 18716 net.cpp:411] LFCN_2_3x5_LFCN_2_3x5_0_split -> LFCN_2_3x5_LFCN_2_3x5_0_split_0
I1006 06:49:57.839412 18716 net.cpp:411] LFCN_2_3x5_LFCN_2_3x5_0_split -> LFCN_2_3x5_LFCN_2_3x5_0_split_1
I1006 06:49:57.839419 18716 net.cpp:411] LFCN_2_3x5_LFCN_2_3x5_0_split -> LFCN_2_3x5_LFCN_2_3x5_0_split_2
I1006 06:49:57.839476 18716 net.cpp:150] Setting up LFCN_2_3x5_LFCN_2_3x5_0_split
I1006 06:49:57.839483 18716 net.cpp:157] Top shape: 4 6 28 28 (18816)
I1006 06:49:57.839485 18716 net.cpp:157] Top shape: 4 6 28 28 (18816)
I1006 06:49:57.839489 18716 net.cpp:157] Top shape: 4 6 28 28 (18816)
I1006 06:49:57.839493 18716 net.cpp:165] Memory required for data: 2069937252
I1006 06:49:57.839495 18716 layer_factory.hpp:76] Creating layer detection_loss_2_3x5
I1006 06:49:57.839504 18716 net.cpp:106] Creating Layer detection_loss_2_3x5
I1006 06:49:57.839507 18716 net.cpp:454] detection_loss_2_3x5 <- LFCN_2_3x5_LFCN_2_3x5_0_split_0
I1006 06:49:57.839511 18716 net.cpp:454] detection_loss_2_3x5 <- label_2_3x5_data_3_split_0
I1006 06:49:57.839517 18716 net.cpp:411] detection_loss_2_3x5 -> loss_2_3x5
I1006 06:49:57.839529 18716 layer_factory.hpp:76] Creating layer detection_loss_2_3x5
I1006 06:49:57.840085 18716 net.cpp:150] Setting up detection_loss_2_3x5
I1006 06:49:57.840098 18716 net.cpp:157] Top shape: 1 1 1 2 (2)
I1006 06:49:57.840102 18716 net.cpp:160]     with loss weight 1
I1006 06:49:57.840114 18716 net.cpp:165] Memory required for data: 2069937260
I1006 06:49:57.840117 18716 layer_factory.hpp:76] Creating layer detection_accuracy_2_3x5
I1006 06:49:57.840124 18716 net.cpp:106] Creating Layer detection_accuracy_2_3x5
I1006 06:49:57.840128 18716 net.cpp:454] detection_accuracy_2_3x5 <- LFCN_2_3x5_LFCN_2_3x5_0_split_1
I1006 06:49:57.840133 18716 net.cpp:454] detection_accuracy_2_3x5 <- label_2_3x5_data_3_split_1
I1006 06:49:57.840142 18716 net.cpp:411] detection_accuracy_2_3x5 -> accuracy_2_3x5
I1006 06:49:57.840152 18716 net.cpp:411] detection_accuracy_2_3x5 -> boxiou_2_3x5
I1006 06:49:57.840194 18716 net.cpp:150] Setting up detection_accuracy_2_3x5
I1006 06:49:57.840211 18716 net.cpp:157] Top shape: 1 1 1 2 (2)
I1006 06:49:57.840215 18716 net.cpp:157] Top shape: 1 1 1 1 (1)
I1006 06:49:57.840219 18716 net.cpp:165] Memory required for data: 2069937272
I1006 06:49:57.840220 18716 layer_factory.hpp:76] Creating layer LFCN_2_5x7
I1006 06:49:57.840229 18716 net.cpp:106] Creating Layer LFCN_2_5x7
I1006 06:49:57.840234 18716 net.cpp:454] LFCN_2_5x7 <- conv5_3_relu5_3_0_split_1
I1006 06:49:57.840240 18716 net.cpp:411] LFCN_2_5x7 -> LFCN_2_5x7
I1006 06:49:57.845449 18716 net.cpp:150] Setting up LFCN_2_5x7
I1006 06:49:57.845464 18716 net.cpp:157] Top shape: 4 6 28 28 (18816)
I1006 06:49:57.845468 18716 net.cpp:165] Memory required for data: 2070012536
I1006 06:49:57.845474 18716 layer_factory.hpp:76] Creating layer LFCN_2_5x7_LFCN_2_5x7_0_split
I1006 06:49:57.845482 18716 net.cpp:106] Creating Layer LFCN_2_5x7_LFCN_2_5x7_0_split
I1006 06:49:57.845486 18716 net.cpp:454] LFCN_2_5x7_LFCN_2_5x7_0_split <- LFCN_2_5x7
I1006 06:49:57.845492 18716 net.cpp:411] LFCN_2_5x7_LFCN_2_5x7_0_split -> LFCN_2_5x7_LFCN_2_5x7_0_split_0
I1006 06:49:57.845499 18716 net.cpp:411] LFCN_2_5x7_LFCN_2_5x7_0_split -> LFCN_2_5x7_LFCN_2_5x7_0_split_1
I1006 06:49:57.845505 18716 net.cpp:411] LFCN_2_5x7_LFCN_2_5x7_0_split -> LFCN_2_5x7_LFCN_2_5x7_0_split_2
I1006 06:49:57.845569 18716 net.cpp:150] Setting up LFCN_2_5x7_LFCN_2_5x7_0_split
I1006 06:49:57.845574 18716 net.cpp:157] Top shape: 4 6 28 28 (18816)
I1006 06:49:57.845578 18716 net.cpp:157] Top shape: 4 6 28 28 (18816)
I1006 06:49:57.845582 18716 net.cpp:157] Top shape: 4 6 28 28 (18816)
I1006 06:49:57.845584 18716 net.cpp:165] Memory required for data: 2070238328
I1006 06:49:57.845587 18716 layer_factory.hpp:76] Creating layer detection_loss_2_5x7
I1006 06:49:57.845594 18716 net.cpp:106] Creating Layer detection_loss_2_5x7
I1006 06:49:57.845597 18716 net.cpp:454] detection_loss_2_5x7 <- LFCN_2_5x7_LFCN_2_5x7_0_split_0
I1006 06:49:57.845602 18716 net.cpp:454] detection_loss_2_5x7 <- label_2_5x7_data_4_split_0
I1006 06:49:57.845607 18716 net.cpp:411] detection_loss_2_5x7 -> loss_2_5x7
I1006 06:49:57.845621 18716 layer_factory.hpp:76] Creating layer detection_loss_2_5x7
I1006 06:49:57.846005 18716 net.cpp:150] Setting up detection_loss_2_5x7
I1006 06:49:57.846017 18716 net.cpp:157] Top shape: 1 1 1 2 (2)
I1006 06:49:57.846020 18716 net.cpp:160]     with loss weight 1
I1006 06:49:57.846026 18716 net.cpp:165] Memory required for data: 2070238336
I1006 06:49:57.846029 18716 layer_factory.hpp:76] Creating layer detection_accuracy_2_5x7
I1006 06:49:57.846035 18716 net.cpp:106] Creating Layer detection_accuracy_2_5x7
I1006 06:49:57.846040 18716 net.cpp:454] detection_accuracy_2_5x7 <- LFCN_2_5x7_LFCN_2_5x7_0_split_1
I1006 06:49:57.846045 18716 net.cpp:454] detection_accuracy_2_5x7 <- label_2_5x7_data_4_split_1
I1006 06:49:57.846051 18716 net.cpp:411] detection_accuracy_2_5x7 -> accuracy_2_5x7
I1006 06:49:57.846058 18716 net.cpp:411] detection_accuracy_2_5x7 -> boxiou_2_5x7
I1006 06:49:57.846101 18716 net.cpp:150] Setting up detection_accuracy_2_5x7
I1006 06:49:57.846108 18716 net.cpp:157] Top shape: 1 1 1 2 (2)
I1006 06:49:57.846112 18716 net.cpp:157] Top shape: 1 1 1 1 (1)
I1006 06:49:57.846114 18716 net.cpp:165] Memory required for data: 2070238348
I1006 06:49:57.846117 18716 layer_factory.hpp:76] Creating layer pool5
I1006 06:49:57.846123 18716 net.cpp:106] Creating Layer pool5
I1006 06:49:57.846127 18716 net.cpp:454] pool5 <- conv5_3_relu5_3_0_split_2
I1006 06:49:57.846132 18716 net.cpp:411] pool5 -> pool5
I1006 06:49:57.846756 18716 net.cpp:150] Setting up pool5
I1006 06:49:57.846770 18716 net.cpp:157] Top shape: 4 512 14 14 (401408)
I1006 06:49:57.846772 18716 net.cpp:165] Memory required for data: 2071843980
I1006 06:49:57.846776 18716 layer_factory.hpp:76] Creating layer conv6_1
I1006 06:49:57.846787 18716 net.cpp:106] Creating Layer conv6_1
I1006 06:49:57.846791 18716 net.cpp:454] conv6_1 <- pool5
I1006 06:49:57.846796 18716 net.cpp:411] conv6_1 -> conv6_1
I1006 06:49:57.934906 18716 net.cpp:150] Setting up conv6_1
I1006 06:49:57.934923 18716 net.cpp:157] Top shape: 4 512 14 14 (401408)
I1006 06:49:57.934932 18716 net.cpp:165] Memory required for data: 2073449612
I1006 06:49:57.934939 18716 layer_factory.hpp:76] Creating layer relu6_1
I1006 06:49:57.934947 18716 net.cpp:106] Creating Layer relu6_1
I1006 06:49:57.934953 18716 net.cpp:454] relu6_1 <- conv6_1
I1006 06:49:57.934958 18716 net.cpp:397] relu6_1 -> conv6_1 (in-place)
I1006 06:49:57.935163 18716 net.cpp:150] Setting up relu6_1
I1006 06:49:57.935173 18716 net.cpp:157] Top shape: 4 512 14 14 (401408)
I1006 06:49:57.935176 18716 net.cpp:165] Memory required for data: 2075055244
I1006 06:49:57.935179 18716 layer_factory.hpp:76] Creating layer conv6_1_relu6_1_0_split
I1006 06:49:57.935185 18716 net.cpp:106] Creating Layer conv6_1_relu6_1_0_split
I1006 06:49:57.935189 18716 net.cpp:454] conv6_1_relu6_1_0_split <- conv6_1
I1006 06:49:57.935194 18716 net.cpp:411] conv6_1_relu6_1_0_split -> conv6_1_relu6_1_0_split_0
I1006 06:49:57.935204 18716 net.cpp:411] conv6_1_relu6_1_0_split -> conv6_1_relu6_1_0_split_1
I1006 06:49:57.935209 18716 net.cpp:411] conv6_1_relu6_1_0_split -> conv6_1_relu6_1_0_split_2
I1006 06:49:57.935278 18716 net.cpp:150] Setting up conv6_1_relu6_1_0_split
I1006 06:49:57.935286 18716 net.cpp:157] Top shape: 4 512 14 14 (401408)
I1006 06:49:57.935289 18716 net.cpp:157] Top shape: 4 512 14 14 (401408)
I1006 06:49:57.935292 18716 net.cpp:157] Top shape: 4 512 14 14 (401408)
I1006 06:49:57.935295 18716 net.cpp:165] Memory required for data: 2079872140
I1006 06:49:57.935297 18716 layer_factory.hpp:76] Creating layer LFCN_3_3x5
I1006 06:49:57.935305 18716 net.cpp:106] Creating Layer LFCN_3_3x5
I1006 06:49:57.935308 18716 net.cpp:454] LFCN_3_3x5 <- conv6_1_relu6_1_0_split_0
I1006 06:49:57.935315 18716 net.cpp:411] LFCN_3_3x5 -> LFCN_3_3x5
I1006 06:49:57.938310 18716 net.cpp:150] Setting up LFCN_3_3x5
I1006 06:49:57.938324 18716 net.cpp:157] Top shape: 4 6 14 14 (4704)
I1006 06:49:57.938328 18716 net.cpp:165] Memory required for data: 2079890956
I1006 06:49:57.938334 18716 layer_factory.hpp:76] Creating layer LFCN_3_3x5_LFCN_3_3x5_0_split
I1006 06:49:57.938349 18716 net.cpp:106] Creating Layer LFCN_3_3x5_LFCN_3_3x5_0_split
I1006 06:49:57.938354 18716 net.cpp:454] LFCN_3_3x5_LFCN_3_3x5_0_split <- LFCN_3_3x5
I1006 06:49:57.938361 18716 net.cpp:411] LFCN_3_3x5_LFCN_3_3x5_0_split -> LFCN_3_3x5_LFCN_3_3x5_0_split_0
I1006 06:49:57.938369 18716 net.cpp:411] LFCN_3_3x5_LFCN_3_3x5_0_split -> LFCN_3_3x5_LFCN_3_3x5_0_split_1
I1006 06:49:57.938375 18716 net.cpp:411] LFCN_3_3x5_LFCN_3_3x5_0_split -> LFCN_3_3x5_LFCN_3_3x5_0_split_2
I1006 06:49:57.938436 18716 net.cpp:150] Setting up LFCN_3_3x5_LFCN_3_3x5_0_split
I1006 06:49:57.938442 18716 net.cpp:157] Top shape: 4 6 14 14 (4704)
I1006 06:49:57.938446 18716 net.cpp:157] Top shape: 4 6 14 14 (4704)
I1006 06:49:57.938449 18716 net.cpp:157] Top shape: 4 6 14 14 (4704)
I1006 06:49:57.938452 18716 net.cpp:165] Memory required for data: 2079947404
I1006 06:49:57.938454 18716 layer_factory.hpp:76] Creating layer detection_loss_3_3x5
I1006 06:49:57.938462 18716 net.cpp:106] Creating Layer detection_loss_3_3x5
I1006 06:49:57.938465 18716 net.cpp:454] detection_loss_3_3x5 <- LFCN_3_3x5_LFCN_3_3x5_0_split_0
I1006 06:49:57.938470 18716 net.cpp:454] detection_loss_3_3x5 <- label_3_3x5_data_5_split_0
I1006 06:49:57.938477 18716 net.cpp:411] detection_loss_3_3x5 -> loss_3_3x5
I1006 06:49:57.938484 18716 layer_factory.hpp:76] Creating layer detection_loss_3_3x5
I1006 06:49:57.938872 18716 net.cpp:150] Setting up detection_loss_3_3x5
I1006 06:49:57.938890 18716 net.cpp:157] Top shape: 1 1 1 2 (2)
I1006 06:49:57.938894 18716 net.cpp:160]     with loss weight 1
I1006 06:49:57.938900 18716 net.cpp:165] Memory required for data: 2079947412
I1006 06:49:57.938905 18716 layer_factory.hpp:76] Creating layer detection_accuracy_3_3x5
I1006 06:49:57.938910 18716 net.cpp:106] Creating Layer detection_accuracy_3_3x5
I1006 06:49:57.938913 18716 net.cpp:454] detection_accuracy_3_3x5 <- LFCN_3_3x5_LFCN_3_3x5_0_split_1
I1006 06:49:57.938918 18716 net.cpp:454] detection_accuracy_3_3x5 <- label_3_3x5_data_5_split_1
I1006 06:49:57.938925 18716 net.cpp:411] detection_accuracy_3_3x5 -> accuracy_3_3x5
I1006 06:49:57.938933 18716 net.cpp:411] detection_accuracy_3_3x5 -> boxiou_3_3x5
I1006 06:49:57.938980 18716 net.cpp:150] Setting up detection_accuracy_3_3x5
I1006 06:49:57.938985 18716 net.cpp:157] Top shape: 1 1 1 2 (2)
I1006 06:49:57.938988 18716 net.cpp:157] Top shape: 1 1 1 1 (1)
I1006 06:49:57.938992 18716 net.cpp:165] Memory required for data: 2079947424
I1006 06:49:57.938994 18716 layer_factory.hpp:76] Creating layer LFCN_3_5x7
I1006 06:49:57.939002 18716 net.cpp:106] Creating Layer LFCN_3_5x7
I1006 06:49:57.939007 18716 net.cpp:454] LFCN_3_5x7 <- conv6_1_relu6_1_0_split_1
I1006 06:49:57.939013 18716 net.cpp:411] LFCN_3_5x7 -> LFCN_3_5x7
I1006 06:49:57.944607 18716 net.cpp:150] Setting up LFCN_3_5x7
I1006 06:49:57.944622 18716 net.cpp:157] Top shape: 4 6 14 14 (4704)
I1006 06:49:57.944625 18716 net.cpp:165] Memory required for data: 2079966240
I1006 06:49:57.944631 18716 layer_factory.hpp:76] Creating layer LFCN_3_5x7_LFCN_3_5x7_0_split
I1006 06:49:57.944644 18716 net.cpp:106] Creating Layer LFCN_3_5x7_LFCN_3_5x7_0_split
I1006 06:49:57.944648 18716 net.cpp:454] LFCN_3_5x7_LFCN_3_5x7_0_split <- LFCN_3_5x7
I1006 06:49:57.944656 18716 net.cpp:411] LFCN_3_5x7_LFCN_3_5x7_0_split -> LFCN_3_5x7_LFCN_3_5x7_0_split_0
I1006 06:49:57.944669 18716 net.cpp:411] LFCN_3_5x7_LFCN_3_5x7_0_split -> LFCN_3_5x7_LFCN_3_5x7_0_split_1
I1006 06:49:57.944674 18716 net.cpp:411] LFCN_3_5x7_LFCN_3_5x7_0_split -> LFCN_3_5x7_LFCN_3_5x7_0_split_2
I1006 06:49:57.944738 18716 net.cpp:150] Setting up LFCN_3_5x7_LFCN_3_5x7_0_split
I1006 06:49:57.944744 18716 net.cpp:157] Top shape: 4 6 14 14 (4704)
I1006 06:49:57.944748 18716 net.cpp:157] Top shape: 4 6 14 14 (4704)
I1006 06:49:57.944751 18716 net.cpp:157] Top shape: 4 6 14 14 (4704)
I1006 06:49:57.944753 18716 net.cpp:165] Memory required for data: 2080022688
I1006 06:49:57.944757 18716 layer_factory.hpp:76] Creating layer detection_loss_3_5x7
I1006 06:49:57.944762 18716 net.cpp:106] Creating Layer detection_loss_3_5x7
I1006 06:49:57.944766 18716 net.cpp:454] detection_loss_3_5x7 <- LFCN_3_5x7_LFCN_3_5x7_0_split_0
I1006 06:49:57.944771 18716 net.cpp:454] detection_loss_3_5x7 <- label_3_5x7_data_6_split_0
I1006 06:49:57.944777 18716 net.cpp:411] detection_loss_3_5x7 -> loss_3_5x7
I1006 06:49:57.944784 18716 layer_factory.hpp:76] Creating layer detection_loss_3_5x7
I1006 06:49:57.945364 18716 net.cpp:150] Setting up detection_loss_3_5x7
I1006 06:49:57.945379 18716 net.cpp:157] Top shape: 1 1 1 2 (2)
I1006 06:49:57.945381 18716 net.cpp:160]     with loss weight 1
I1006 06:49:57.945387 18716 net.cpp:165] Memory required for data: 2080022696
I1006 06:49:57.945390 18716 layer_factory.hpp:76] Creating layer detection_accuracy_3_5x7
I1006 06:49:57.945397 18716 net.cpp:106] Creating Layer detection_accuracy_3_5x7
I1006 06:49:57.945408 18716 net.cpp:454] detection_accuracy_3_5x7 <- LFCN_3_5x7_LFCN_3_5x7_0_split_1
I1006 06:49:57.945413 18716 net.cpp:454] detection_accuracy_3_5x7 <- label_3_5x7_data_6_split_1
I1006 06:49:57.945418 18716 net.cpp:411] detection_accuracy_3_5x7 -> accuracy_3_5x7
I1006 06:49:57.945426 18716 net.cpp:411] detection_accuracy_3_5x7 -> boxiou_3_5x7
I1006 06:49:57.945473 18716 net.cpp:150] Setting up detection_accuracy_3_5x7
I1006 06:49:57.945478 18716 net.cpp:157] Top shape: 1 1 1 2 (2)
I1006 06:49:57.945482 18716 net.cpp:157] Top shape: 1 1 1 1 (1)
I1006 06:49:57.945484 18716 net.cpp:165] Memory required for data: 2080022708
I1006 06:49:57.945487 18716 layer_factory.hpp:76] Creating layer pool6
I1006 06:49:57.945494 18716 net.cpp:106] Creating Layer pool6
I1006 06:49:57.945498 18716 net.cpp:454] pool6 <- conv6_1_relu6_1_0_split_2
I1006 06:49:57.945503 18716 net.cpp:411] pool6 -> pool6
I1006 06:49:57.945729 18716 net.cpp:150] Setting up pool6
I1006 06:49:57.945740 18716 net.cpp:157] Top shape: 4 512 7 7 (100352)
I1006 06:49:57.945744 18716 net.cpp:165] Memory required for data: 2080424116
I1006 06:49:57.945746 18716 layer_factory.hpp:76] Creating layer LFCN_4_3x5
I1006 06:49:57.945755 18716 net.cpp:106] Creating Layer LFCN_4_3x5
I1006 06:49:57.945758 18716 net.cpp:454] LFCN_4_3x5 <- pool6
I1006 06:49:57.945765 18716 net.cpp:411] LFCN_4_3x5 -> LFCN_4_3x5
I1006 06:49:57.948834 18716 net.cpp:150] Setting up LFCN_4_3x5
I1006 06:49:57.948849 18716 net.cpp:157] Top shape: 4 6 7 7 (1176)
I1006 06:49:57.948853 18716 net.cpp:165] Memory required for data: 2080428820
I1006 06:49:57.948859 18716 layer_factory.hpp:76] Creating layer LFCN_4_3x5_LFCN_4_3x5_0_split
I1006 06:49:57.948868 18716 net.cpp:106] Creating Layer LFCN_4_3x5_LFCN_4_3x5_0_split
I1006 06:49:57.948873 18716 net.cpp:454] LFCN_4_3x5_LFCN_4_3x5_0_split <- LFCN_4_3x5
I1006 06:49:57.948879 18716 net.cpp:411] LFCN_4_3x5_LFCN_4_3x5_0_split -> LFCN_4_3x5_LFCN_4_3x5_0_split_0
I1006 06:49:57.948885 18716 net.cpp:411] LFCN_4_3x5_LFCN_4_3x5_0_split -> LFCN_4_3x5_LFCN_4_3x5_0_split_1
I1006 06:49:57.948891 18716 net.cpp:411] LFCN_4_3x5_LFCN_4_3x5_0_split -> LFCN_4_3x5_LFCN_4_3x5_0_split_2
I1006 06:49:57.948966 18716 net.cpp:150] Setting up LFCN_4_3x5_LFCN_4_3x5_0_split
I1006 06:49:57.948973 18716 net.cpp:157] Top shape: 4 6 7 7 (1176)
I1006 06:49:57.948977 18716 net.cpp:157] Top shape: 4 6 7 7 (1176)
I1006 06:49:57.948981 18716 net.cpp:157] Top shape: 4 6 7 7 (1176)
I1006 06:49:57.948983 18716 net.cpp:165] Memory required for data: 2080442932
I1006 06:49:57.948987 18716 layer_factory.hpp:76] Creating layer detection_loss_4_3x5
I1006 06:49:57.948993 18716 net.cpp:106] Creating Layer detection_loss_4_3x5
I1006 06:49:57.948997 18716 net.cpp:454] detection_loss_4_3x5 <- LFCN_4_3x5_LFCN_4_3x5_0_split_0
I1006 06:49:57.949002 18716 net.cpp:454] detection_loss_4_3x5 <- label_4_3x5_data_7_split_0
I1006 06:49:57.949007 18716 net.cpp:411] detection_loss_4_3x5 -> loss_4_3x5
I1006 06:49:57.949014 18716 layer_factory.hpp:76] Creating layer detection_loss_4_3x5
I1006 06:49:57.949592 18716 net.cpp:150] Setting up detection_loss_4_3x5
I1006 06:49:57.949605 18716 net.cpp:157] Top shape: 1 1 1 2 (2)
I1006 06:49:57.949609 18716 net.cpp:160]     with loss weight 1
I1006 06:49:57.949615 18716 net.cpp:165] Memory required for data: 2080442940
I1006 06:49:57.949618 18716 layer_factory.hpp:76] Creating layer detection_accuracy_4_3x5
I1006 06:49:57.949626 18716 net.cpp:106] Creating Layer detection_accuracy_4_3x5
I1006 06:49:57.949630 18716 net.cpp:454] detection_accuracy_4_3x5 <- LFCN_4_3x5_LFCN_4_3x5_0_split_1
I1006 06:49:57.949635 18716 net.cpp:454] detection_accuracy_4_3x5 <- label_4_3x5_data_7_split_1
I1006 06:49:57.949640 18716 net.cpp:411] detection_accuracy_4_3x5 -> accuracy_4_3x5
I1006 06:49:57.949650 18716 net.cpp:411] detection_accuracy_4_3x5 -> boxiou_4_3x5
I1006 06:49:57.949694 18716 net.cpp:150] Setting up detection_accuracy_4_3x5
I1006 06:49:57.949699 18716 net.cpp:157] Top shape: 1 1 1 2 (2)
I1006 06:49:57.949703 18716 net.cpp:157] Top shape: 1 1 1 1 (1)
I1006 06:49:57.949705 18716 net.cpp:165] Memory required for data: 2080442952
I1006 06:49:57.949708 18716 layer_factory.hpp:76] Creating layer proposals
I1006 06:49:57.949728 18716 net.cpp:106] Creating Layer proposals
I1006 06:49:57.949731 18716 net.cpp:454] proposals <- LFCN_1_3x5_LFCN_1_3x5_0_split_2
I1006 06:49:57.949735 18716 net.cpp:454] proposals <- LFCN_1_5x7_LFCN_1_5x7_0_split_2
I1006 06:49:57.949739 18716 net.cpp:454] proposals <- LFCN_2_3x5_LFCN_2_3x5_0_split_2
I1006 06:49:57.949743 18716 net.cpp:454] proposals <- LFCN_2_5x7_LFCN_2_5x7_0_split_2
I1006 06:49:57.949746 18716 net.cpp:454] proposals <- LFCN_3_3x5_LFCN_3_3x5_0_split_2
I1006 06:49:57.949749 18716 net.cpp:454] proposals <- LFCN_3_5x7_LFCN_3_5x7_0_split_2
I1006 06:49:57.949753 18716 net.cpp:454] proposals <- LFCN_4_3x5_LFCN_4_3x5_0_split_2
I1006 06:49:57.949757 18716 net.cpp:411] proposals -> proposals
I1006 06:49:57.949790 18716 net.cpp:150] Setting up proposals
I1006 06:49:57.949795 18716 net.cpp:157] Top shape: 1 5 1 1 (5)
I1006 06:49:57.949798 18716 net.cpp:165] Memory required for data: 2080442972
I1006 06:49:57.949801 18716 layer_factory.hpp:76] Creating layer proposal_info
I1006 06:49:57.949810 18716 net.cpp:106] Creating Layer proposal_info
I1006 06:49:57.949813 18716 net.cpp:454] proposal_info <- proposals
I1006 06:49:57.949818 18716 net.cpp:454] proposal_info <- gt_boxes
I1006 06:49:57.949823 18716 net.cpp:411] proposal_info -> rois
I1006 06:49:57.949831 18716 net.cpp:411] proposal_info -> proposal_labels
I1006 06:49:57.949837 18716 net.cpp:411] proposal_info -> proposal_targets
I1006 06:49:57.949846 18716 net.cpp:411] proposal_info -> box_inside_weights
I1006 06:49:57.949851 18716 net.cpp:411] proposal_info -> box_outside_weights
I1006 06:49:57.949857 18716 net.cpp:411] proposal_info -> match_gt_boxes
I1006 06:49:57.949960 18716 net.cpp:150] Setting up proposal_info
I1006 06:49:57.949968 18716 net.cpp:157] Top shape: 128 5 1 1 (640)
I1006 06:49:57.949972 18716 net.cpp:157] Top shape: 128 1 1 1 (128)
I1006 06:49:57.949976 18716 net.cpp:157] Top shape: 128 8 1 1 (1024)
I1006 06:49:57.949980 18716 net.cpp:157] Top shape: 128 8 1 1 (1024)
I1006 06:49:57.949983 18716 net.cpp:157] Top shape: 128 8 1 1 (1024)
I1006 06:49:57.949987 18716 net.cpp:157] Top shape: 128 6 1 1 (768)
I1006 06:49:57.949990 18716 net.cpp:165] Memory required for data: 2080461404
I1006 06:49:57.949992 18716 layer_factory.hpp:76] Creating layer rois_proposal_info_0_split
I1006 06:49:57.949997 18716 net.cpp:106] Creating Layer rois_proposal_info_0_split
I1006 06:49:57.950001 18716 net.cpp:454] rois_proposal_info_0_split <- rois
I1006 06:49:57.950006 18716 net.cpp:411] rois_proposal_info_0_split -> rois_proposal_info_0_split_0
I1006 06:49:57.950011 18716 net.cpp:411] rois_proposal_info_0_split -> rois_proposal_info_0_split_1
I1006 06:49:57.950016 18716 net.cpp:411] rois_proposal_info_0_split -> rois_proposal_info_0_split_2
I1006 06:49:57.950067 18716 net.cpp:150] Setting up rois_proposal_info_0_split
I1006 06:49:57.950072 18716 net.cpp:157] Top shape: 128 5 1 1 (640)
I1006 06:49:57.950075 18716 net.cpp:157] Top shape: 128 5 1 1 (640)
I1006 06:49:57.950078 18716 net.cpp:157] Top shape: 128 5 1 1 (640)
I1006 06:49:57.950081 18716 net.cpp:165] Memory required for data: 2080469084
I1006 06:49:57.950083 18716 layer_factory.hpp:76] Creating layer proposal_labels_proposal_info_1_split
I1006 06:49:57.950088 18716 net.cpp:106] Creating Layer proposal_labels_proposal_info_1_split
I1006 06:49:57.950091 18716 net.cpp:454] proposal_labels_proposal_info_1_split <- proposal_labels
I1006 06:49:57.950095 18716 net.cpp:411] proposal_labels_proposal_info_1_split -> proposal_labels_proposal_info_1_split_0
I1006 06:49:57.950100 18716 net.cpp:411] proposal_labels_proposal_info_1_split -> proposal_labels_proposal_info_1_split_1
I1006 06:49:57.950137 18716 net.cpp:150] Setting up proposal_labels_proposal_info_1_split
I1006 06:49:57.950142 18716 net.cpp:157] Top shape: 128 1 1 1 (128)
I1006 06:49:57.950145 18716 net.cpp:157] Top shape: 128 1 1 1 (128)
I1006 06:49:57.950148 18716 net.cpp:165] Memory required for data: 2080470108
I1006 06:49:57.950150 18716 layer_factory.hpp:76] Creating layer roi_pool_org
I1006 06:49:57.950156 18716 net.cpp:106] Creating Layer roi_pool_org
I1006 06:49:57.950160 18716 net.cpp:454] roi_pool_org <- conv4_3_relu4_3_0_split_2
I1006 06:49:57.950165 18716 net.cpp:454] roi_pool_org <- rois_proposal_info_0_split_0
I1006 06:49:57.950168 18716 net.cpp:411] roi_pool_org -> roi_pool_org
I1006 06:49:57.950177 18716 roi_pooling_layer.cpp:35] Spatial scale: 0.125
I1006 06:49:57.950219 18716 net.cpp:150] Setting up roi_pool_org
I1006 06:49:57.950224 18716 net.cpp:157] Top shape: 128 512 8 4 (2097152)
I1006 06:49:57.950227 18716 net.cpp:165] Memory required for data: 2088858716
I1006 06:49:57.950229 18716 layer_factory.hpp:76] Creating layer roi_pool_ctx
I1006 06:49:57.950235 18716 net.cpp:106] Creating Layer roi_pool_ctx
I1006 06:49:57.950239 18716 net.cpp:454] roi_pool_ctx <- conv4_3_relu4_3_0_split_3
I1006 06:49:57.950243 18716 net.cpp:454] roi_pool_ctx <- rois_proposal_info_0_split_1
I1006 06:49:57.950248 18716 net.cpp:411] roi_pool_ctx -> roi_pool_ctx
I1006 06:49:57.950253 18716 roi_pooling_layer.cpp:35] Spatial scale: 0.125
I1006 06:49:57.950294 18716 net.cpp:150] Setting up roi_pool_ctx
I1006 06:49:57.950299 18716 net.cpp:157] Top shape: 128 512 8 4 (2097152)
I1006 06:49:57.950301 18716 net.cpp:165] Memory required for data: 2097247324
I1006 06:49:57.950304 18716 layer_factory.hpp:76] Creating layer roi_pool
I1006 06:49:57.950309 18716 net.cpp:106] Creating Layer roi_pool
I1006 06:49:57.950312 18716 net.cpp:454] roi_pool <- roi_pool_org
I1006 06:49:57.950316 18716 net.cpp:454] roi_pool <- roi_pool_ctx
I1006 06:49:57.950322 18716 net.cpp:411] roi_pool -> roi_pool
I1006 06:49:57.950345 18716 net.cpp:150] Setting up roi_pool
I1006 06:49:57.950350 18716 net.cpp:157] Top shape: 128 1024 8 4 (4194304)
I1006 06:49:57.950352 18716 net.cpp:165] Memory required for data: 2114024540
I1006 06:49:57.950356 18716 layer_factory.hpp:76] Creating layer roi_c1
I1006 06:49:57.950364 18716 net.cpp:106] Creating Layer roi_c1
I1006 06:49:57.950367 18716 net.cpp:454] roi_c1 <- roi_pool
I1006 06:49:57.950371 18716 net.cpp:411] roi_c1 -> roi_c1
I1006 06:49:58.125730 18716 net.cpp:150] Setting up roi_c1
I1006 06:49:58.125757 18716 net.cpp:157] Top shape: 128 512 8 4 (2097152)
I1006 06:49:58.125761 18716 net.cpp:165] Memory required for data: 2122413148
I1006 06:49:58.125771 18716 layer_factory.hpp:76] Creating layer roi_c1_relu
I1006 06:49:58.125780 18716 net.cpp:106] Creating Layer roi_c1_relu
I1006 06:49:58.125788 18716 net.cpp:454] roi_c1_relu <- roi_c1
I1006 06:49:58.125795 18716 net.cpp:397] roi_c1_relu -> roi_c1 (in-place)
I1006 06:49:58.126178 18716 net.cpp:150] Setting up roi_c1_relu
I1006 06:49:58.126191 18716 net.cpp:157] Top shape: 128 512 8 4 (2097152)
I1006 06:49:58.126194 18716 net.cpp:165] Memory required for data: 2130801756
I1006 06:49:58.126199 18716 layer_factory.hpp:76] Creating layer fc6
I1006 06:49:58.126206 18716 net.cpp:106] Creating Layer fc6
I1006 06:49:58.126210 18716 net.cpp:454] fc6 <- roi_c1
I1006 06:49:58.126219 18716 net.cpp:411] fc6 -> fc6
I1006 06:49:59.280270 18716 net.cpp:150] Setting up fc6
I1006 06:49:59.280311 18716 net.cpp:157] Top shape: 128 2048 (262144)
I1006 06:49:59.280315 18716 net.cpp:165] Memory required for data: 2131850332
I1006 06:49:59.280331 18716 layer_factory.hpp:76] Creating layer relu6
I1006 06:49:59.280347 18716 net.cpp:106] Creating Layer relu6
I1006 06:49:59.280359 18716 net.cpp:454] relu6 <- fc6
I1006 06:49:59.280366 18716 net.cpp:397] relu6 -> fc6 (in-place)
I1006 06:49:59.280859 18716 net.cpp:150] Setting up relu6
I1006 06:49:59.280870 18716 net.cpp:157] Top shape: 128 2048 (262144)
I1006 06:49:59.280874 18716 net.cpp:165] Memory required for data: 2132898908
I1006 06:49:59.280877 18716 layer_factory.hpp:76] Creating layer drop6
I1006 06:49:59.280885 18716 net.cpp:106] Creating Layer drop6
I1006 06:49:59.280889 18716 net.cpp:454] drop6 <- fc6
I1006 06:49:59.280895 18716 net.cpp:397] drop6 -> fc6 (in-place)
I1006 06:49:59.280928 18716 net.cpp:150] Setting up drop6
I1006 06:49:59.280936 18716 net.cpp:157] Top shape: 128 2048 (262144)
I1006 06:49:59.280938 18716 net.cpp:165] Memory required for data: 2133947484
I1006 06:49:59.280941 18716 layer_factory.hpp:76] Creating layer fc6_drop6_0_split
I1006 06:49:59.280946 18716 net.cpp:106] Creating Layer fc6_drop6_0_split
I1006 06:49:59.280949 18716 net.cpp:454] fc6_drop6_0_split <- fc6
I1006 06:49:59.280956 18716 net.cpp:411] fc6_drop6_0_split -> fc6_drop6_0_split_0
I1006 06:49:59.280961 18716 net.cpp:411] fc6_drop6_0_split -> fc6_drop6_0_split_1
I1006 06:49:59.281019 18716 net.cpp:150] Setting up fc6_drop6_0_split
I1006 06:49:59.281025 18716 net.cpp:157] Top shape: 128 2048 (262144)
I1006 06:49:59.281029 18716 net.cpp:157] Top shape: 128 2048 (262144)
I1006 06:49:59.281031 18716 net.cpp:165] Memory required for data: 2136044636
I1006 06:49:59.281034 18716 layer_factory.hpp:76] Creating layer cls_pred
I1006 06:49:59.281045 18716 net.cpp:106] Creating Layer cls_pred
I1006 06:49:59.281051 18716 net.cpp:454] cls_pred <- fc6_drop6_0_split_0
I1006 06:49:59.281064 18716 net.cpp:411] cls_pred -> cls_pred
I1006 06:49:59.281318 18716 net.cpp:150] Setting up cls_pred
I1006 06:49:59.281325 18716 net.cpp:157] Top shape: 128 2 (256)
I1006 06:49:59.281328 18716 net.cpp:165] Memory required for data: 2136045660
I1006 06:49:59.281333 18716 layer_factory.hpp:76] Creating layer cls_pred_cls_pred_0_split
I1006 06:49:59.281338 18716 net.cpp:106] Creating Layer cls_pred_cls_pred_0_split
I1006 06:49:59.281342 18716 net.cpp:454] cls_pred_cls_pred_0_split <- cls_pred
I1006 06:49:59.281347 18716 net.cpp:411] cls_pred_cls_pred_0_split -> cls_pred_cls_pred_0_split_0
I1006 06:49:59.281352 18716 net.cpp:411] cls_pred_cls_pred_0_split -> cls_pred_cls_pred_0_split_1
I1006 06:49:59.281388 18716 net.cpp:150] Setting up cls_pred_cls_pred_0_split
I1006 06:49:59.281395 18716 net.cpp:157] Top shape: 128 2 (256)
I1006 06:49:59.281399 18716 net.cpp:157] Top shape: 128 2 (256)
I1006 06:49:59.281402 18716 net.cpp:165] Memory required for data: 2136047708
I1006 06:49:59.281404 18716 layer_factory.hpp:76] Creating layer bbox_pred
I1006 06:49:59.281410 18716 net.cpp:106] Creating Layer bbox_pred
I1006 06:49:59.281414 18716 net.cpp:454] bbox_pred <- fc6_drop6_0_split_1
I1006 06:49:59.281422 18716 net.cpp:411] bbox_pred -> bbox_pred
I1006 06:49:59.282096 18716 net.cpp:150] Setting up bbox_pred
I1006 06:49:59.282104 18716 net.cpp:157] Top shape: 128 8 (1024)
I1006 06:49:59.282117 18716 net.cpp:165] Memory required for data: 2136051804
I1006 06:49:59.282122 18716 layer_factory.hpp:76] Creating layer bbox_pred_bbox_pred_0_split
I1006 06:49:59.282126 18716 net.cpp:106] Creating Layer bbox_pred_bbox_pred_0_split
I1006 06:49:59.282130 18716 net.cpp:454] bbox_pred_bbox_pred_0_split <- bbox_pred
I1006 06:49:59.282137 18716 net.cpp:411] bbox_pred_bbox_pred_0_split -> bbox_pred_bbox_pred_0_split_0
I1006 06:49:59.282193 18716 net.cpp:411] bbox_pred_bbox_pred_0_split -> bbox_pred_bbox_pred_0_split_1
I1006 06:49:59.282230 18716 net.cpp:150] Setting up bbox_pred_bbox_pred_0_split
I1006 06:49:59.282239 18716 net.cpp:157] Top shape: 128 8 (1024)
I1006 06:49:59.282243 18716 net.cpp:157] Top shape: 128 8 (1024)
I1006 06:49:59.282244 18716 net.cpp:165] Memory required for data: 2136059996
I1006 06:49:59.282248 18716 layer_factory.hpp:76] Creating layer loss_cls
I1006 06:49:59.282253 18716 net.cpp:106] Creating Layer loss_cls
I1006 06:49:59.282256 18716 net.cpp:454] loss_cls <- cls_pred_cls_pred_0_split_0
I1006 06:49:59.282261 18716 net.cpp:454] loss_cls <- proposal_labels_proposal_info_1_split_0
…
I1006 06:49:59.291476 18716 image_gt_data_layer.cpp:234] output label size 2 : 2,6,28,28
I1006 06:49:59.291538 18716 image_gt_data_layer.cpp:234] output label size 3 : 2,6,28,28
I1006 06:49:59.291599 18716 image_gt_data_layer.cpp:234] output label size 4 : 2,6,14,14
I1006 06:49:59.291659 18716 image_gt_data_layer.cpp:234] output label size 5 : 2,6,14,14
I1006 06:49:59.291715 18716 image_gt_data_layer.cpp:234] output label size 6 : 2,6,7,7
I1006 06:49:59.291776 18716 image_gt_data_layer.cpp:249] output gt boxes size: 1,7,1,1
I1006 06:49:59.304091 18716 net.cpp:150] Setting up data
I1006 06:49:59.304111 18716 net.cpp:157] Top shape: 2 3 448 448 (1204224)
I1006 06:49:59.304116 18716 net.cpp:157] Top shape: 2 6 56 56 (37632)
I1006 06:49:59.304119 18716 net.cpp:157] Top shape: 2 6 56 56 (37632)
I1006 06:49:59.304122 18716 net.cpp:157] Top shape: 2 6 28 28 (9408)
I1006 06:49:59.304126 18716 net.cpp:157] Top shape: 2 6 28 28 (9408)
I1006 06:49:59.304129 18716 net.cpp:157] Top shape: 2 6 14 14 (2352)
I1006 06:49:59.304132 18716 net.cpp:157] Top shape: 2 6 14 14 (2352)
I1006 06:49:59.304136 18716 net.cpp:157] Top shape: 2 6 7 7 (588)
I1006 06:49:59.304139 18716 net.cpp:157] Top shape: 1 7 1 1 (7)
I1006 06:49:59.304141 18716 net.cpp:165] Memory required for data: 5214412
I1006 06:49:59.304146 18716 layer_factory.hpp:76] Creating layer label_1_3x5_data_1_split
I1006 06:49:59.304157 18716 net.cpp:106] Creating Layer label_1_3x5_data_1_split
I1006 06:49:59.304162 18716 net.cpp:454] label_1_3x5_data_1_split <- label_1_3x5
I1006 06:49:59.304169 18716 net.cpp:411] label_1_3x5_data_1_split -> label_1_3x5_data_1_split_0
I1006 06:49:59.304178 18716 net.cpp:411] label_1_3x5_data_1_split -> label_1_3x5_data_1_split_1
I1006 06:49:59.304318 18716 net.cpp:150] Setting up label_1_3x5_data_1_split
I1006 06:49:59.304330 18716 net.cpp:157] Top shape: 2 6 56 56 (37632)
I1006 06:49:59.304334 18716 net.cpp:157] Top shape: 2 6 56 56 (37632)
I1006 06:49:59.304337 18716 net.cpp:165] Memory required for data: 5515468
I1006 06:49:59.304339 18716 layer_factory.hpp:76] Creating layer label_1_5x7_data_2_split
I1006 06:49:59.304345 18716 net.cpp:106] Creating Layer label_1_5x7_data_2_split
I1006 06:49:59.304348 18716 net.cpp:454] label_1_5x7_data_2_split <- label_1_5x7
I1006 06:49:59.304353 18716 net.cpp:411] label_1_5x7_data_2_split -> label_1_5x7_data_2_split_0
I1006 06:49:59.304358 18716 net.cpp:411] label_1_5x7_data_2_split -> label_1_5x7_data_2_split_1
I1006 06:49:59.304457 18716 net.cpp:150] Setting up label_1_5x7_data_2_split
I1006 06:49:59.304466 18716 net.cpp:157] Top shape: 2 6 56 56 (37632)
I1006 06:49:59.304469 18716 net.cpp:157] Top shape: 2 6 56 56 (37632)
I1006 06:49:59.304472 18716 net.cpp:165] Memory required for data: 5816524
I1006 06:49:59.304476 18716 layer_factory.hpp:76] Creating layer label_2_3x5_data_3_split
I1006 06:49:59.304479 18716 net.cpp:106] Creating Layer label_2_3x5_data_3_split
I1006 06:49:59.304482 18716 net.cpp:454] label_2_3x5_data_3_split <- label_2_3x5
I1006 06:49:59.304489 18716 net.cpp:411] label_2_3x5_data_3_split -> label_2_3x5_data_3_split_0
I1006 06:49:59.304494 18716 net.cpp:411] label_2_3x5_data_3_split -> label_2_3x5_data_3_split_1
I1006 06:49:59.304554 18716 net.cpp:150] Setting up label_2_3x5_data_3_split
I1006 06:49:59.304559 18716 net.cpp:157] Top shape: 2 6 28 28 (9408)
I1006 06:49:59.304563 18716 net.cpp:157] Top shape: 2 6 28 28 (9408)
I1006 06:49:59.304564 18716 net.cpp:165] Memory required for data: 5891788
I1006 06:49:59.304568 18716 layer_factory.hpp:76] Creating layer label_2_5x7_data_4_split
I1006 06:49:59.304572 18716 net.cpp:106] Creating Layer label_2_5x7_data_4_split
I1006 06:49:59.304575 18716 net.cpp:454] label_2_5x7_data_4_split <- label_2_5x7
I1006 06:49:59.304581 18716 net.cpp:411] label_2_5x7_data_4_split -> label_2_5x7_data_4_split_0
I1006 06:49:59.304585 18716 net.cpp:411] label_2_5x7_data_4_split -> label_2_5x7_data_4_split_1
I1006 06:49:59.304625 18716 net.cpp:150] Setting up label_2_5x7_data_4_split
I1006 06:49:59.304630 18716 net.cpp:157] Top shape: 2 6 28 28 (9408)
I1006 06:49:59.304633 18716 net.cpp:157] Top shape: 2 6 28 28 (9408)
I1006 06:49:59.304636 18716 net.cpp:165] Memory required for data: 5967052
I1006 06:49:59.304639 18716 layer_factory.hpp:76] Creating layer label_3_3x5_data_5_split
I1006 06:49:59.304643 18716 net.cpp:106] Creating Layer label_3_3x5_data_5_split
I1006 06:49:59.304646 18716 net.cpp:454] label_3_3x5_data_5_split <- label_3_3x5
I1006 06:49:59.304649 18716 net.cpp:411] label_3_3x5_data_5_split -> label_3_3x5_data_5_split_0
I1006 06:49:59.304656 18716 net.cpp:411] label_3_3x5_data_5_split -> label_3_3x5_data_5_split_1
I1006 06:49:59.304697 18716 net.cpp:150] Setting up label_3_3x5_data_5_split
I1006 06:49:59.304700 18716 net.cpp:157] Top shape: 2 6 14 14 (2352)
I1006 06:49:59.304703 18716 net.cpp:157] Top shape: 2 6 14 14 (2352)
I1006 06:49:59.304705 18716 net.cpp:165] Memory required for data: 5985868
I1006 06:49:59.304708 18716 layer_factory.hpp:76] Creating layer label_3_5x7_data_6_split
I1006 06:49:59.304713 18716 net.cpp:106] Creating Layer label_3_5x7_data_6_split
I1006 06:49:59.304716 18716 net.cpp:454] label_3_5x7_data_6_split <- label_3_5x7
I1006 06:49:59.304720 18716 net.cpp:411] label_3_5x7_data_6_split -> label_3_5x7_data_6_split_0
I1006 06:49:59.304724 18716 net.cpp:411] label_3_5x7_data_6_split -> label_3_5x7_data_6_split_1
I1006 06:49:59.304760 18716 net.cpp:150] Setting up label_3_5x7_data_6_split
I1006 06:49:59.304764 18716 net.cpp:157] Top shape: 2 6 14 14 (2352)
I1006 06:49:59.304767 18716 net.cpp:157] Top shape: 2 6 14 14 (2352)
I1006 06:49:59.304769 18716 net.cpp:165] Memory required for data: 6004684
I1006 06:49:59.304772 18716 layer_factory.hpp:76] Creating layer label_4_3x5_data_7_split
I1006 06:49:59.304775 18716 net.cpp:106] Creating Layer label_4_3x5_data_7_split
I1006 06:49:59.304778 18716 net.cpp:454] label_4_3x5_data_7_split <- label_4_3x5
I1006 06:49:59.304782 18716 net.cpp:411] label_4_3x5_data_7_split -> label_4_3x5_data_7_split_0
I1006 06:49:59.304786 18716 net.cpp:411] label_4_3x5_data_7_split -> label_4_3x5_data_7_split_1
I1006 06:49:59.304821 18716 net.cpp:150] Setting up label_4_3x5_data_7_split
I1006 06:49:59.304824 18716 net.cpp:157] Top shape: 2 6 7 7 (588)
I1006 06:49:59.304828 18716 net.cpp:157] Top shape: 2 6 7 7 (588)
I1006 06:49:59.304831 18716 net.cpp:165] Memory required for data: 6009388
I1006 06:49:59.304832 18716 layer_factory.hpp:76] Creating layer conv1_1
I1006 06:49:59.304843 18716 net.cpp:106] Creating Layer conv1_1
I1006 06:49:59.304847 18716 net.cpp:454] conv1_1 <- data
I1006 06:49:59.304850 18716 net.cpp:411] conv1_1 -> conv1_1
I1006 06:49:59.306900 18716 net.cpp:150] Setting up conv1_1
I1006 06:49:59.306915 18716 net.cpp:157] Top shape: 2 64 448 448 (25690112)
I1006 06:49:59.306917 18716 net.cpp:165] Memory required for data: 108769836
I1006 06:49:59.306931 18716 layer_factory.hpp:76] Creating layer relu1_1
I1006 06:49:59.306936 18716 net.cpp:106] Creating Layer relu1_1
I1006 06:49:59.306939 18716 net.cpp:454] relu1_1 <- conv1_1
I1006 06:49:59.306944 18716 net.cpp:397] relu1_1 -> conv1_1 (in-place)
I1006 06:49:59.308028 18716 net.cpp:150] Setting up relu1_1
I1006 06:49:59.308044 18716 net.cpp:157] Top shape: 2 64 448 448 (25690112)
I1006 06:49:59.308048 18716 net.cpp:165] Memory required for data: 211530284
I1006 06:49:59.308051 18716 layer_factory.hpp:76] Creating layer conv1_2
I1006 06:49:59.308060 18716 net.cpp:106] Creating Layer conv1_2
I1006 06:49:59.308063 18716 net.cpp:454] conv1_2 <- conv1_1
I1006 06:49:59.308069 18716 net.cpp:411] conv1_2 -> conv1_2
I1006 06:49:59.310822 18716 net.cpp:150] Setting up conv1_2
I1006 06:49:59.310837 18716 net.cpp:157] Top shape: 2 64 448 448 (25690112)
I1006 06:49:59.310840 18716 net.cpp:165] Memory required for data: 314290732
I1006 06:49:59.310849 18716 layer_factory.hpp:76] Creating layer relu1_2
I1006 06:49:59.310858 18716 net.cpp:106] Creating Layer relu1_2
I1006 06:49:59.310860 18716 net.cpp:454] relu1_2 <- conv1_2
I1006 06:49:59.310865 18716 net.cpp:397] relu1_2 -> conv1_2 (in-place)
I1006 06:49:59.311236 18716 net.cpp:150] Setting up relu1_2
I1006 06:49:59.311249 18716 net.cpp:157] Top shape: 2 64 448 448 (25690112)
I1006 06:49:59.311251 18716 net.cpp:165] Memory required for data: 417051180
I1006 06:49:59.311254 18716 layer_factory.hpp:76] Creating layer pool1
I1006 06:49:59.311264 18716 net.cpp:106] Creating Layer pool1
I1006 06:49:59.311277 18716 net.cpp:454] pool1 <- conv1_2
I1006 06:49:59.311281 18716 net.cpp:411] pool1 -> pool1
I1006 06:49:59.311517 18716 net.cpp:150] Setting up pool1
I1006 06:49:59.311527 18716 net.cpp:157] Top shape: 2 64 224 224 (6422528)
I1006 06:49:59.311530 18716 net.cpp:165] Memory required for data: 442741292
I1006 06:49:59.311533 18716 layer_factory.hpp:76] Creating layer conv2_1
I1006 06:49:59.311540 18716 net.cpp:106] Creating Layer conv2_1
I1006 06:49:59.311543 18716 net.cpp:454] conv2_1 <- pool1
I1006 06:49:59.311549 18716 net.cpp:411] conv2_1 -> conv2_1
I1006 06:49:59.312777 18716 net.cpp:150] Setting up conv2_1
I1006 06:49:59.312789 18716 net.cpp:157] Top shape: 2 128 224 224 (12845056)
I1006 06:49:59.312804 18716 net.cpp:165] Memory required for data: 494121516
I1006 06:49:59.312813 18716 layer_factory.hpp:76] Creating layer relu2_1
I1006 06:49:59.312819 18716 net.cpp:106] Creating Layer relu2_1
I1006 06:49:59.312821 18716 net.cpp:454] relu2_1 <- conv2_1
I1006 06:49:59.312825 18716 net.cpp:397] relu2_1 -> conv2_1 (in-place)
I1006 06:49:59.313204 18716 net.cpp:150] Setting up relu2_1
I1006 06:49:59.313215 18716 net.cpp:157] Top shape: 2 128 224 224 (12845056)
I1006 06:49:59.313218 18716 net.cpp:165] Memory required for data: 545501740
I1006 06:49:59.313221 18716 layer_factory.hpp:76] Creating layer conv2_2
I1006 06:49:59.313228 18716 net.cpp:106] Creating Layer conv2_2
I1006 06:49:59.313231 18716 net.cpp:454] conv2_2 <- conv2_1
I1006 06:49:59.313240 18716 net.cpp:411] conv2_2 -> conv2_2
I1006 06:49:59.314923 18716 net.cpp:150] Setting up conv2_2
I1006 06:49:59.314946 18716 net.cpp:157] Top shape: 2 128 224 224 (12845056)
I1006 06:49:59.314949 18716 net.cpp:165] Memory required for data: 596881964
I1006 06:49:59.314955 18716 layer_factory.hpp:76] Creating layer relu2_2
I1006 06:49:59.314966 18716 net.cpp:106] Creating Layer relu2_2
I1006 06:49:59.314970 18716 net.cpp:454] relu2_2 <- conv2_2
I1006 06:49:59.314975 18716 net.cpp:397] relu2_2 -> conv2_2 (in-place)
I1006 06:49:59.315405 18716 net.cpp:150] Setting up relu2_2
I1006 06:49:59.315428 18716 net.cpp:157] Top shape: 2 128 224 224 (12845056)
I1006 06:49:59.315431 18716 net.cpp:165] Memory required for data: 648262188
I1006 06:49:59.315445 18716 layer_factory.hpp:76] Creating layer pool2
I1006 06:49:59.315450 18716 net.cpp:106] Creating Layer pool2
I1006 06:49:59.315454 18716 net.cpp:454] pool2 <- conv2_2
I1006 06:49:59.315459 18716 net.cpp:411] pool2 -> pool2
I1006 06:49:59.315695 18716 net.cpp:150] Setting up pool2
I1006 06:49:59.315704 18716 net.cpp:157] Top shape: 2 128 112 112 (3211264)
I1006 06:49:59.315707 18716 net.cpp:165] Memory required for data: 661107244
I1006 06:49:59.315711 18716 layer_factory.hpp:76] Creating layer conv3_1
I1006 06:49:59.315718 18716 net.cpp:106] Creating Layer conv3_1
I1006 06:49:59.315721 18716 net.cpp:454] conv3_1 <- pool2
I1006 06:49:59.315726 18716 net.cpp:411] conv3_1 -> conv3_1
I1006 06:49:59.317631 18716 net.cpp:150] Setting up conv3_1
I1006 06:49:59.317654 18716 net.cpp:157] Top shape: 2 256 112 112 (6422528)
I1006 06:49:59.317657 18716 net.cpp:165] Memory required for data: 686797356
I1006 06:49:59.317667 18716 layer_factory.hpp:76] Creating layer relu3_1
I1006 06:49:59.317673 18716 net.cpp:106] Creating Layer relu3_1
I1006 06:49:59.317677 18716 net.cpp:454] relu3_1 <- conv3_1
I1006 06:49:59.317682 18716 net.cpp:397] relu3_1 -> conv3_1 (in-place)
I1006 06:49:59.318058 18716 net.cpp:150] Setting up relu3_1
I1006 06:49:59.318071 18716 net.cpp:157] Top shape: 2 256 112 112 (6422528)
I1006 06:49:59.318074 18716 net.cpp:165] Memory required for data: 712487468
I1006 06:49:59.318078 18716 layer_factory.hpp:76] Creating layer conv3_2
I1006 06:49:59.318085 18716 net.cpp:106] Creating Layer conv3_2
I1006 06:49:59.318089 18716 net.cpp:454] conv3_2 <- conv3_1
I1006 06:49:59.318095 18716 net.cpp:411] conv3_2 -> conv3_2
I1006 06:49:59.320614 18716 net.cpp:150] Setting up conv3_2
I1006 06:49:59.320637 18716 net.cpp:157] Top shape: 2 256 112 112 (6422528)
I1006 06:49:59.320641 18716 net.cpp:165] Memory required for data: 738177580
I1006 06:49:59.320647 18716 layer_factory.hpp:76] Creating layer relu3_2
I1006 06:49:59.320652 18716 net.cpp:106] Creating Layer relu3_2
I1006 06:49:59.320655 18716 net.cpp:454] relu3_2 <- conv3_2
I1006 06:49:59.320662 18716 net.cpp:397] relu3_2 -> conv3_2 (in-place)
I1006 06:49:59.320868 18716 net.cpp:150] Setting up relu3_2
I1006 06:49:59.320880 18716 net.cpp:157] Top shape: 2 256 112 112 (6422528)
I1006 06:49:59.320883 18716 net.cpp:165] Memory required for data: 763867692
I1006 06:49:59.320886 18716 layer_factory.hpp:76] Creating layer conv3_3
I1006 06:49:59.320891 18716 net.cpp:106] Creating Layer conv3_3
I1006 06:49:59.320894 18716 net.cpp:454] conv3_3 <- conv3_2
I1006 06:49:59.320902 18716 net.cpp:411] conv3_3 -> conv3_3
I1006 06:49:59.323411 18716 net.cpp:150] Setting up conv3_3
I1006 06:49:59.323436 18716 net.cpp:157] Top shape: 2 256 112 112 (6422528)
I1006 06:49:59.323439 18716 net.cpp:165] Memory required for data: 789557804
I1006 06:49:59.323446 18716 layer_factory.hpp:76] Creating layer relu3_3
I1006 06:49:59.323451 18716 net.cpp:106] Creating Layer relu3_3
I1006 06:49:59.323454 18716 net.cpp:454] relu3_3 <- conv3_3
I1006 06:49:59.323458 18716 net.cpp:397] relu3_3 -> conv3_3 (in-place)
I1006 06:49:59.323879 18716 net.cpp:150] Setting up relu3_3
I1006 06:49:59.323891 18716 net.cpp:157] Top shape: 2 256 112 112 (6422528)
I1006 06:49:59.323894 18716 net.cpp:165] Memory required for data: 815247916
I1006 06:49:59.323897 18716 layer_factory.hpp:76] Creating layer pool3
I1006 06:49:59.323904 18716 net.cpp:106] Creating Layer pool3
I1006 06:49:59.323906 18716 net.cpp:454] pool3 <- conv3_3
I1006 06:49:59.323914 18716 net.cpp:411] pool3 -> pool3
I1006 06:49:59.324321 18716 net.cpp:150] Setting up pool3
I1006 06:49:59.324345 18716 net.cpp:157] Top shape: 2 256 56 56 (1605632)
I1006 06:49:59.324348 18716 net.cpp:165] Memory required for data: 821670444
I1006 06:49:59.324352 18716 layer_factory.hpp:76] Creating layer conv4_1
I1006 06:49:59.324373 18716 net.cpp:106] Creating Layer conv4_1
I1006 06:49:59.324375 18716 net.cpp:454] conv4_1 <- pool3
I1006 06:49:59.324380 18716 net.cpp:411] conv4_1 -> conv4_1
I1006 06:49:59.328153 18716 net.cpp:150] Setting up conv4_1
I1006 06:49:59.328177 18716 net.cpp:157] Top shape: 2 512 56 56 (3211264)
I1006 06:49:59.328181 18716 net.cpp:165] Memory required for data: 834515500
I1006 06:49:59.328187 18716 layer_factory.hpp:76] Creating layer relu4_1
I1006 06:49:59.328192 18716 net.cpp:106] Creating Layer relu4_1
I1006 06:49:59.328197 18716 net.cpp:454] relu4_1 <- conv4_1
I1006 06:49:59.328202 18716 net.cpp:397] relu4_1 -> conv4_1 (in-place)
I1006 06:49:59.328409 18716 net.cpp:150] Setting up relu4_1
I1006 06:49:59.328419 18716 net.cpp:157] Top shape: 2 512 56 56 (3211264)
I1006 06:49:59.328423 18716 net.cpp:165] Memory required for data: 847360556
I1006 06:49:59.328425 18716 layer_factory.hpp:76] Creating layer conv4_2
I1006 06:49:59.328433 18716 net.cpp:106] Creating Layer conv4_2
I1006 06:49:59.328436 18716 net.cpp:454] conv4_2 <- conv4_1
I1006 06:49:59.328441 18716 net.cpp:411] conv4_2 -> conv4_2
I1006 06:49:59.335770 18716 net.cpp:150] Setting up conv4_2
I1006 06:49:59.335799 18716 net.cpp:157] Top shape: 2 512 56 56 (3211264)
I1006 06:49:59.335803 18716 net.cpp:165] Memory required for data: 860205612
I1006 06:49:59.335814 18716 layer_factory.hpp:76] Creating layer relu4_2
I1006 06:49:59.335825 18716 net.cpp:106] Creating Layer relu4_2
I1006 06:49:59.335829 18716 net.cpp:454] relu4_2 <- conv4_2
I1006 06:49:59.335834 18716 net.cpp:397] relu4_2 -> conv4_2 (in-place)
I1006 06:49:59.336304 18716 net.cpp:150] Setting up relu4_2
I1006 06:49:59.336326 18716 net.cpp:157] Top shape: 2 512 56 56 (3211264)
I1006 06:49:59.336329 18716 net.cpp:165] Memory required for data: 873050668
I1006 06:49:59.336333 18716 layer_factory.hpp:76] Creating layer conv4_3
I1006 06:49:59.336351 18716 net.cpp:106] Creating Layer conv4_3
I1006 06:49:59.336354 18716 net.cpp:454] conv4_3 <- conv4_2
I1006 06:49:59.336360 18716 net.cpp:411] conv4_3 -> conv4_3
I1006 06:49:59.342146 18716 net.cpp:150] Setting up conv4_3
I1006 06:49:59.342170 18716 net.cpp:157] Top shape: 2 512 56 56 (3211264)
I1006 06:49:59.342173 18716 net.cpp:165] Memory required for data: 885895724
I1006 06:49:59.342180 18716 layer_factory.hpp:76] Creating layer relu4_3
I1006 06:49:59.342185 18716 net.cpp:106] Creating Layer relu4_3
I1006 06:49:59.342190 18716 net.cpp:454] relu4_3 <- conv4_3
I1006 06:49:59.342196 18716 net.cpp:397] relu4_3 -> conv4_3 (in-place)
I1006 06:49:59.342592 18716 net.cpp:150] Setting up relu4_3
I1006 06:49:59.342604 18716 net.cpp:157] Top shape: 2 512 56 56 (3211264)
I1006 06:49:59.342607 18716 net.cpp:165] Memory required for data: 898740780
I1006 06:49:59.342612 18716 layer_factory.hpp:76] Creating layer conv4_3_relu4_3_0_split
I1006 06:49:59.342617 18716 net.cpp:106] Creating Layer conv4_3_relu4_3_0_split
I1006 06:49:59.342620 18716 net.cpp:454] conv4_3_relu4_3_0_split <- conv4_3
I1006 06:49:59.342628 18716 net.cpp:411] conv4_3_relu4_3_0_split -> conv4_3_relu4_3_0_split_0
I1006 06:49:59.342634 18716 net.cpp:411] conv4_3_relu4_3_0_split -> conv4_3_relu4_3_0_split_1
I1006 06:49:59.342639 18716 net.cpp:411] conv4_3_relu4_3_0_split -> conv4_3_relu4_3_0_split_2
I1006 06:49:59.342645 18716 net.cpp:411] conv4_3_relu4_3_0_split -> conv4_3_relu4_3_0_split_3
I1006 06:49:59.342774 18716 net.cpp:150] Setting up conv4_3_relu4_3_0_split
I1006 06:49:59.342782 18716 net.cpp:157] Top shape: 2 512 56 56 (3211264)
I1006 06:49:59.342785 18716 net.cpp:157] Top shape: 2 512 56 56 (3211264)
I1006 06:49:59.342788 18716 net.cpp:157] Top shape: 2 512 56 56 (3211264)
I1006 06:49:59.342792 18716 net.cpp:157] Top shape: 2 512 56 56 (3211264)
I1006 06:49:59.342794 18716 net.cpp:165] Memory required for data: 950121004
I1006 06:49:59.342797 18716 layer_factory.hpp:76] Creating layer loss1_conv1
I1006 06:49:59.342811 18716 net.cpp:106] Creating Layer loss1_conv1
I1006 06:49:59.342814 18716 net.cpp:454] loss1_conv1 <- conv4_3_relu4_3_0_split_0
I1006 06:49:59.342821 18716 net.cpp:411] loss1_conv1 -> loss1_conv1
I1006 06:49:59.419149 18716 net.cpp:150] Setting up loss1_conv1
I1006 06:49:59.419183 18716 net.cpp:157] Top shape: 2 512 56 56 (3211264)
I1006 06:49:59.419186 18716 net.cpp:165] Memory required for data: 962966060
I1006 06:49:59.419193 18716 layer_factory.hpp:76] Creating layer loss_relu1
I1006 06:49:59.419203 18716 net.cpp:106] Creating Layer loss_relu1
I1006 06:49:59.419209 18716 net.cpp:454] loss_relu1 <- loss1_conv1
I1006 06:49:59.419214 18716 net.cpp:397] loss_relu1 -> loss1_conv1 (in-place)
I1006 06:49:59.419412 18716 net.cpp:150] Setting up loss_relu1
I1006 06:49:59.419422 18716 net.cpp:157] Top shape: 2 512 56 56 (3211264)
I1006 06:49:59.419425 18716 net.cpp:165] Memory required for data: 975811116
I1006 06:49:59.419428 18716 layer_factory.hpp:76] Creating layer loss1_conv1_loss_relu1_0_split
I1006 06:49:59.419435 18716 net.cpp:106] Creating Layer loss1_conv1_loss_relu1_0_split
I1006 06:49:59.419437 18716 net.cpp:454] loss1_conv1_loss_relu1_0_split <- loss1_conv1
I1006 06:49:59.419442 18716 net.cpp:411] loss1_conv1_loss_relu1_0_split -> loss1_conv1_loss_relu1_0_split_0
I1006 06:49:59.419450 18716 net.cpp:411] loss1_conv1_loss_relu1_0_split -> loss1_conv1_loss_relu1_0_split_1
I1006 06:49:59.419505 18716 net.cpp:150] Setting up loss1_conv1_loss_relu1_0_split
I1006 06:49:59.419510 18716 net.cpp:157] Top shape: 2 512 56 56 (3211264)
I1006 06:49:59.419513 18716 net.cpp:157] Top shape: 2 512 56 56 (3211264)
I1006 06:49:59.419515 18716 net.cpp:165] Memory required for data: 1001501228
I1006 06:49:59.419518 18716 layer_factory.hpp:76] Creating layer LFCN_1_3x5
I1006 06:49:59.419528 18716 net.cpp:106] Creating Layer LFCN_1_3x5
I1006 06:49:59.419531 18716 net.cpp:454] LFCN_1_3x5 <- loss1_conv1_loss_relu1_0_split_0
I1006 06:49:59.419538 18716 net.cpp:411] LFCN_1_3x5 -> LFCN_1_3x5
I1006 06:49:59.422209 18716 net.cpp:150] Setting up LFCN_1_3x5
I1006 06:49:59.422222 18716 net.cpp:157] Top shape: 2 6 56 56 (37632)
I1006 06:49:59.422236 18716 net.cpp:165] Memory required for data: 1001651756
I1006 06:49:59.422243 18716 layer_factory.hpp:76] Creating layer LFCN_1_3x5_LFCN_1_3x5_0_split
I1006 06:49:59.422250 18716 net.cpp:106] Creating Layer LFCN_1_3x5_LFCN_1_3x5_0_split
I1006 06:49:59.422255 18716 net.cpp:454] LFCN_1_3x5_LFCN_1_3x5_0_split <- LFCN_1_3x5
I1006 06:49:59.422260 18716 net.cpp:411] LFCN_1_3x5_LFCN_1_3x5_0_split -> LFCN_1_3x5_LFCN_1_3x5_0_split_0
I1006 06:49:59.422266 18716 net.cpp:411] LFCN_1_3x5_LFCN_1_3x5_0_split -> LFCN_1_3x5_LFCN_1_3x5_0_split_1
I1006 06:49:59.422272 18716 net.cpp:411] LFCN_1_3x5_LFCN_1_3x5_0_split -> LFCN_1_3x5_LFCN_1_3x5_0_split_2
I1006 06:49:59.422339 18716 net.cpp:150] Setting up LFCN_1_3x5_LFCN_1_3x5_0_split
I1006 06:49:59.422344 18716 net.cpp:157] Top shape: 2 6 56 56 (37632)
I1006 06:49:59.422348 18716 net.cpp:157] Top shape: 2 6 56 56 (37632)
I1006 06:49:59.422351 18716 net.cpp:157] Top shape: 2 6 56 56 (37632)
I1006 06:49:59.422353 18716 net.cpp:165] Memory required for data: 1002103340
I1006 06:49:59.422356 18716 layer_factory.hpp:76] Creating layer detection_loss_1_3x5
I1006 06:49:59.422364 18716 net.cpp:106] Creating Layer detection_loss_1_3x5
I1006 06:49:59.422368 18716 net.cpp:454] detection_loss_1_3x5 <- LFCN_1_3x5_LFCN_1_3x5_0_split_0
I1006 06:49:59.422372 18716 net.cpp:454] detection_loss_1_3x5 <- label_1_3x5_data_1_split_0
I1006 06:49:59.422377 18716 net.cpp:411] detection_loss_1_3x5 -> loss_1_3x5
I1006 06:49:59.422384 18716 layer_factory.hpp:76] Creating layer detection_loss_1_3x5
I1006 06:49:59.422987 18716 net.cpp:150] Setting up detection_loss_1_3x5
I1006 06:49:59.422999 18716 net.cpp:157] Top shape: 1 1 1 2 (2)
I1006 06:49:59.423014 18716 net.cpp:160]     with loss weight 0.9
I1006 06:49:59.423025 18716 net.cpp:165] Memory required for data: 1002103348
I1006 06:49:59.423029 18716 layer_factory.hpp:76] Creating layer detection_accuracy_1_3x5
I1006 06:49:59.423037 18716 net.cpp:106] Creating Layer detection_accuracy_1_3x5
I1006 06:49:59.423039 18716 net.cpp:454] detection_accuracy_1_3x5 <- LFCN_1_3x5_LFCN_1_3x5_0_split_1
I1006 06:49:59.423044 18716 net.cpp:454] detection_accuracy_1_3x5 <- label_1_3x5_data_1_split_1
I1006 06:49:59.423051 18716 net.cpp:411] detection_accuracy_1_3x5 -> accuracy_1_3x5
I1006 06:49:59.423058 18716 net.cpp:411] detection_accuracy_1_3x5 -> boxiou_1_3x5
I1006 06:49:59.423107 18716 net.cpp:150] Setting up detection_accuracy_1_3x5
I1006 06:49:59.423112 18716 net.cpp:157] Top shape: 1 1 1 2 (2)
I1006 06:49:59.423115 18716 net.cpp:157] Top shape: 1 1 1 1 (1)
I1006 06:49:59.423117 18716 net.cpp:165] Memory required for data: 1002103360
I1006 06:49:59.423120 18716 layer_factory.hpp:76] Creating layer LFCN_1_5x7
I1006 06:49:59.423128 18716 net.cpp:106] Creating Layer LFCN_1_5x7
I1006 06:49:59.423132 18716 net.cpp:454] LFCN_1_5x7 <- loss1_conv1_loss_relu1_0_split_1
I1006 06:49:59.423137 18716 net.cpp:411] LFCN_1_5x7 -> LFCN_1_5x7
I1006 06:49:59.427572 18716 net.cpp:150] Setting up LFCN_1_5x7
I1006 06:49:59.427587 18716 net.cpp:157] Top shape: 2 6 56 56 (37632)
I1006 06:49:59.427601 18716 net.cpp:165] Memory required for data: 1002253888
I1006 06:49:59.427608 18716 layer_factory.hpp:76] Creating layer LFCN_1_5x7_LFCN_1_5x7_0_split
I1006 06:49:59.427615 18716 net.cpp:106] Creating Layer LFCN_1_5x7_LFCN_1_5x7_0_split
I1006 06:49:59.427618 18716 net.cpp:454] LFCN_1_5x7_LFCN_1_5x7_0_split <- LFCN_1_5x7
I1006 06:49:59.427624 18716 net.cpp:411] LFCN_1_5x7_LFCN_1_5x7_0_split -> LFCN_1_5x7_LFCN_1_5x7_0_split_0
I1006 06:49:59.427630 18716 net.cpp:411] LFCN_1_5x7_LFCN_1_5x7_0_split -> LFCN_1_5x7_LFCN_1_5x7_0_split_1
I1006 06:49:59.427636 18716 net.cpp:411] LFCN_1_5x7_LFCN_1_5x7_0_split -> LFCN_1_5x7_LFCN_1_5x7_0_split_2
I1006 06:49:59.427701 18716 net.cpp:150] Setting up LFCN_1_5x7_LFCN_1_5x7_0_split
I1006 06:49:59.427706 18716 net.cpp:157] Top shape: 2 6 56 56 (37632)
I1006 06:49:59.427711 18716 net.cpp:157] Top shape: 2 6 56 56 (37632)
I1006 06:49:59.427713 18716 net.cpp:157] Top shape: 2 6 56 56 (37632)
I1006 06:49:59.427716 18716 net.cpp:165] Memory required for data: 1002705472
I1006 06:49:59.427718 18716 layer_factory.hpp:76] Creating layer detection_loss_1_5x7
I1006 06:49:59.427727 18716 net.cpp:106] Creating Layer detection_loss_1_5x7
I1006 06:49:59.427731 18716 net.cpp:454] detection_loss_1_5x7 <- LFCN_1_5x7_LFCN_1_5x7_0_split_0
I1006 06:49:59.427736 18716 net.cpp:454] detection_loss_1_5x7 <- label_1_5x7_data_2_split_0
I1006 06:49:59.427739 18716 net.cpp:411] detection_loss_1_5x7 -> loss_1_5x7
I1006 06:49:59.427747 18716 layer_factory.hpp:76] Creating layer detection_loss_1_5x7
I1006 06:49:59.428334 18716 net.cpp:150] Setting up detection_loss_1_5x7
I1006 06:49:59.428346 18716 net.cpp:157] Top shape: 1 1 1 2 (2)
I1006 06:49:59.428360 18716 net.cpp:160]     with loss weight 0.9
I1006 06:49:59.428367 18716 net.cpp:165] Memory required for data: 1002705480
I1006 06:49:59.428370 18716 layer_factory.hpp:76] Creating layer detection_accuracy_1_5x7
I1006 06:49:59.428376 18716 net.cpp:106] Creating Layer detection_accuracy_1_5x7
I1006 06:49:59.428380 18716 net.cpp:454] detection_accuracy_1_5x7 <- LFCN_1_5x7_LFCN_1_5x7_0_split_1
I1006 06:49:59.428385 18716 net.cpp:454] detection_accuracy_1_5x7 <- label_1_5x7_data_2_split_1
I1006 06:49:59.428390 18716 net.cpp:411] detection_accuracy_1_5x7 -> accuracy_1_5x7
I1006 06:49:59.428398 18716 net.cpp:411] detection_accuracy_1_5x7 -> boxiou_1_5x7
I1006 06:49:59.428447 18716 net.cpp:150] Setting up detection_accuracy_1_5x7
I1006 06:49:59.428452 18716 net.cpp:157] Top shape: 1 1 1 2 (2)
I1006 06:49:59.428455 18716 net.cpp:157] Top shape: 1 1 1 1 (1)
I1006 06:49:59.428457 18716 net.cpp:165] Memory required for data: 1002705492
I1006 06:49:59.428460 18716 layer_factory.hpp:76] Creating layer pool4
I1006 06:49:59.428468 18716 net.cpp:106] Creating Layer pool4
I1006 06:49:59.428472 18716 net.cpp:454] pool4 <- conv4_3_relu4_3_0_split_1
I1006 06:49:59.428477 18716 net.cpp:411] pool4 -> pool4
I1006 06:49:59.428880 18716 net.cpp:150] Setting up pool4
I1006 06:49:59.428894 18716 net.cpp:157] Top shape: 2 512 28 28 (802816)
I1006 06:49:59.428896 18716 net.cpp:165] Memory required for data: 1005916756
I1006 06:49:59.428900 18716 layer_factory.hpp:76] Creating layer conv5_1
I1006 06:49:59.428908 18716 net.cpp:106] Creating Layer conv5_1
I1006 06:49:59.428911 18716 net.cpp:454] conv5_1 <- pool4
I1006 06:49:59.428918 18716 net.cpp:411] conv5_1 -> conv5_1
I1006 06:49:59.435971 18716 net.cpp:150] Setting up conv5_1
I1006 06:49:59.435997 18716 net.cpp:157] Top shape: 2 512 28 28 (802816)
I1006 06:49:59.436000 18716 net.cpp:165] Memory required for data: 1009128020
I1006 06:49:59.436007 18716 layer_factory.hpp:76] Creating layer relu5_1
I1006 06:49:59.436015 18716 net.cpp:106] Creating Layer relu5_1
I1006 06:49:59.436018 18716 net.cpp:454] relu5_1 <- conv5_1
I1006 06:49:59.436023 18716 net.cpp:397] relu5_1 -> conv5_1 (in-place)
I1006 06:49:59.438258 18716 net.cpp:150] Setting up relu5_1
I1006 06:49:59.438271 18716 net.cpp:157] Top shape: 2 512 28 28 (802816)
I1006 06:49:59.438284 18716 net.cpp:165] Memory required for data: 1012339284
I1006 06:49:59.438287 18716 layer_factory.hpp:76] Creating layer conv5_2
I1006 06:49:59.438297 18716 net.cpp:106] Creating Layer conv5_2
I1006 06:49:59.438299 18716 net.cpp:454] conv5_2 <- conv5_1
I1006 06:49:59.438307 18716 net.cpp:411] conv5_2 -> conv5_2
I1006 06:49:59.444573 18716 net.cpp:150] Setting up conv5_2
I1006 06:49:59.444600 18716 net.cpp:157] Top shape: 2 512 28 28 (802816)
I1006 06:49:59.444603 18716 net.cpp:165] Memory required for data: 1015550548
I1006 06:49:59.444609 18716 layer_factory.hpp:76] Creating layer relu5_2
I1006 06:49:59.444620 18716 net.cpp:106] Creating Layer relu5_2
I1006 06:49:59.444623 18716 net.cpp:454] relu5_2 <- conv5_2
I1006 06:49:59.444628 18716 net.cpp:397] relu5_2 -> conv5_2 (in-place)
I1006 06:49:59.444838 18716 net.cpp:150] Setting up relu5_2
I1006 06:49:59.444849 18716 net.cpp:157] Top shape: 2 512 28 28 (802816)
I1006 06:49:59.444852 18716 net.cpp:165] Memory required for data: 1018761812
I1006 06:49:59.444855 18716 layer_factory.hpp:76] Creating layer conv5_3
I1006 06:49:59.444864 18716 net.cpp:106] Creating Layer conv5_3
I1006 06:49:59.444866 18716 net.cpp:454] conv5_3 <- conv5_2
I1006 06:49:59.444871 18716 net.cpp:411] conv5_3 -> conv5_3
I1006 06:49:59.450914 18716 net.cpp:150] Setting up conv5_3
I1006 06:49:59.450942 18716 net.cpp:157] Top shape: 2 512 28 28 (802816)
I1006 06:49:59.450945 18716 net.cpp:165] Memory required for data: 1021973076
I1006 06:49:59.450951 18716 layer_factory.hpp:76] Creating layer relu5_3
I1006 06:49:59.450958 18716 net.cpp:106] Creating Layer relu5_3
I1006 06:49:59.450961 18716 net.cpp:454] relu5_3 <- conv5_3
I1006 06:49:59.450965 18716 net.cpp:397] relu5_3 -> conv5_3 (in-place)
I1006 06:49:59.451354 18716 net.cpp:150] Setting up relu5_3
I1006 06:49:59.451367 18716 net.cpp:157] Top shape: 2 512 28 28 (802816)
I1006 06:49:59.451370 18716 net.cpp:165] Memory required for data: 1025184340
I1006 06:49:59.451375 18716 layer_factory.hpp:76] Creating layer conv5_3_relu5_3_0_split
I1006 06:49:59.451380 18716 net.cpp:106] Creating Layer conv5_3_relu5_3_0_split
I1006 06:49:59.451383 18716 net.cpp:454] conv5_3_relu5_3_0_split <- conv5_3
I1006 06:49:59.451388 18716 net.cpp:411] conv5_3_relu5_3_0_split -> conv5_3_relu5_3_0_split_0
I1006 06:49:59.451395 18716 net.cpp:411] conv5_3_relu5_3_0_split -> conv5_3_relu5_3_0_split_1
I1006 06:49:59.451401 18716 net.cpp:411] conv5_3_relu5_3_0_split -> conv5_3_relu5_3_0_split_2
I1006 06:49:59.451474 18716 net.cpp:150] Setting up conv5_3_relu5_3_0_split
I1006 06:49:59.451479 18716 net.cpp:157] Top shape: 2 512 28 28 (802816)
I1006 06:49:59.451483 18716 net.cpp:157] Top shape: 2 512 28 28 (802816)
I1006 06:49:59.451485 18716 net.cpp:157] Top shape: 2 512 28 28 (802816)
I1006 06:49:59.451488 18716 net.cpp:165] Memory required for data: 1034818132
I1006 06:49:59.451490 18716 layer_factory.hpp:76] Creating layer LFCN_2_3x5
I1006 06:49:59.451499 18716 net.cpp:106] Creating Layer LFCN_2_3x5
I1006 06:49:59.451503 18716 net.cpp:454] LFCN_2_3x5 <- conv5_3_relu5_3_0_split_0
I1006 06:49:59.451509 18716 net.cpp:411] LFCN_2_3x5 -> LFCN_2_3x5
I1006 06:49:59.454016 18716 net.cpp:150] Setting up LFCN_2_3x5
I1006 06:49:59.454042 18716 net.cpp:157] Top shape: 2 6 28 28 (9408)
I1006 06:49:59.454046 18716 net.cpp:165] Memory required for data: 1034855764
I1006 06:49:59.454059 18716 layer_factory.hpp:76] Creating layer LFCN_2_3x5_LFCN_2_3x5_0_split
I1006 06:49:59.454066 18716 net.cpp:106] Creating Layer LFCN_2_3x5_LFCN_2_3x5_0_split
I1006 06:49:59.454071 18716 net.cpp:454] LFCN_2_3x5_LFCN_2_3x5_0_split <- LFCN_2_3x5
I1006 06:49:59.454076 18716 net.cpp:411] LFCN_2_3x5_LFCN_2_3x5_0_split -> LFCN_2_3x5_LFCN_2_3x5_0_split_0
I1006 06:49:59.454082 18716 net.cpp:411] LFCN_2_3x5_LFCN_2_3x5_0_split -> LFCN_2_3x5_LFCN_2_3x5_0_split_1
I1006 06:49:59.454087 18716 net.cpp:411] LFCN_2_3x5_LFCN_2_3x5_0_split -> LFCN_2_3x5_LFCN_2_3x5_0_split_2
I1006 06:49:59.454155 18716 net.cpp:150] Setting up LFCN_2_3x5_LFCN_2_3x5_0_split
I1006 06:49:59.454160 18716 net.cpp:157] Top shape: 2 6 28 28 (9408)
I1006 06:49:59.454164 18716 net.cpp:157] Top shape: 2 6 28 28 (9408)
I1006 06:49:59.454167 18716 net.cpp:157] Top shape: 2 6 28 28 (9408)
I1006 06:49:59.454169 18716 net.cpp:165] Memory required for data: 1034968660
I1006 06:49:59.454172 18716 layer_factory.hpp:76] Creating layer detection_loss_2_3x5
I1006 06:49:59.454180 18716 net.cpp:106] Creating Layer detection_loss_2_3x5
I1006 06:49:59.454183 18716 net.cpp:454] detection_loss_2_3x5 <- LFCN_2_3x5_LFCN_2_3x5_0_split_0
I1006 06:49:59.454187 18716 net.cpp:454] detection_loss_2_3x5 <- label_2_3x5_data_3_split_0
I1006 06:49:59.454195 18716 net.cpp:411] detection_loss_2_3x5 -> loss_2_3x5
I1006 06:49:59.454202 18716 layer_factory.hpp:76] Creating layer detection_loss_2_3x5
I1006 06:49:59.454809 18716 net.cpp:150] Setting up detection_loss_2_3x5
I1006 06:49:59.454823 18716 net.cpp:157] Top shape: 1 1 1 2 (2)
I1006 06:49:59.454836 18716 net.cpp:160]     with loss weight 1
I1006 06:49:59.454848 18716 net.cpp:165] Memory required for data: 1034968668
I1006 06:49:59.454850 18716 layer_factory.hpp:76] Creating layer detection_accuracy_2_3x5
I1006 06:49:59.454859 18716 net.cpp:106] Creating Layer detection_accuracy_2_3x5
I1006 06:49:59.454864 18716 net.cpp:454] detection_accuracy_2_3x5 <- LFCN_2_3x5_LFCN_2_3x5_0_split_1
I1006 06:49:59.454867 18716 net.cpp:454] detection_accuracy_2_3x5 <- label_2_3x5_data_3_split_1
I1006 06:49:59.454874 18716 net.cpp:411] detection_accuracy_2_3x5 -> accuracy_2_3x5
I1006 06:49:59.454881 18716 net.cpp:411] detection_accuracy_2_3x5 -> boxiou_2_3x5
I1006 06:49:59.454938 18716 net.cpp:150] Setting up detection_accuracy_2_3x5
I1006 06:49:59.454943 18716 net.cpp:157] Top shape: 1 1 1 2 (2)
I1006 06:49:59.454947 18716 net.cpp:157] Top shape: 1 1 1 1 (1)
I1006 06:49:59.454949 18716 net.cpp:165] Memory required for data: 1034968680
I1006 06:49:59.454952 18716 layer_factory.hpp:76] Creating layer LFCN_2_5x7
I1006 06:49:59.454960 18716 net.cpp:106] Creating Layer LFCN_2_5x7
I1006 06:49:59.454963 18716 net.cpp:454] LFCN_2_5x7 <- conv5_3_relu5_3_0_split_1
I1006 06:49:59.454972 18716 net.cpp:411] LFCN_2_5x7 -> LFCN_2_5x7
I1006 06:49:59.460153 18716 net.cpp:150] Setting up LFCN_2_5x7
I1006 06:49:59.460178 18716 net.cpp:157] Top shape: 2 6 28 28 (9408)
I1006 06:49:59.460181 18716 net.cpp:165] Memory required for data: 1035006312
I1006 06:49:59.460188 18716 layer_factory.hpp:76] Creating layer LFCN_2_5x7_LFCN_2_5x7_0_split
I1006 06:49:59.460193 18716 net.cpp:106] Creating Layer LFCN_2_5x7_LFCN_2_5x7_0_split
I1006 06:49:59.460198 18716 net.cpp:454] LFCN_2_5x7_LFCN_2_5x7_0_split <- LFCN_2_5x7
I1006 06:49:59.460206 18716 net.cpp:411] LFCN_2_5x7_LFCN_2_5x7_0_split -> LFCN_2_5x7_LFCN_2_5x7_0_split_0
I1006 06:49:59.460213 18716 net.cpp:411] LFCN_2_5x7_LFCN_2_5x7_0_split -> LFCN_2_5x7_LFCN_2_5x7_0_split_1
I1006 06:49:59.460218 18716 net.cpp:411] LFCN_2_5x7_LFCN_2_5x7_0_split -> LFCN_2_5x7_LFCN_2_5x7_0_split_2
I1006 06:49:59.460289 18716 net.cpp:150] Setting up LFCN_2_5x7_LFCN_2_5x7_0_split
I1006 06:49:59.460294 18716 net.cpp:157] Top shape: 2 6 28 28 (9408)
I1006 06:49:59.460297 18716 net.cpp:157] Top shape: 2 6 28 28 (9408)
I1006 06:49:59.460300 18716 net.cpp:157] Top shape: 2 6 28 28 (9408)
I1006 06:49:59.460304 18716 net.cpp:165] Memory required for data: 1035119208
I1006 06:49:59.460306 18716 layer_factory.hpp:76] Creating layer detection_loss_2_5x7
I1006 06:49:59.460311 18716 net.cpp:106] Creating Layer detection_loss_2_5x7
I1006 06:49:59.460314 18716 net.cpp:454] detection_loss_2_5x7 <- LFCN_2_5x7_LFCN_2_5x7_0_split_0
I1006 06:49:59.460319 18716 net.cpp:454] detection_loss_2_5x7 <- label_2_5x7_data_4_split_0
I1006 06:49:59.460325 18716 net.cpp:411] detection_loss_2_5x7 -> loss_2_5x7
I1006 06:49:59.460332 18716 layer_factory.hpp:76] Creating layer detection_loss_2_5x7
I1006 06:49:59.460741 18716 net.cpp:150] Setting up detection_loss_2_5x7
I1006 06:49:59.460752 18716 net.cpp:157] Top shape: 1 1 1 2 (2)
I1006 06:49:59.460754 18716 net.cpp:160]     with loss weight 1
I1006 06:49:59.460760 18716 net.cpp:165] Memory required for data: 1035119216
I1006 06:49:59.460762 18716 layer_factory.hpp:76] Creating layer detection_accuracy_2_5x7
I1006 06:49:59.460769 18716 net.cpp:106] Creating Layer detection_accuracy_2_5x7
I1006 06:49:59.460772 18716 net.cpp:454] detection_accuracy_2_5x7 <- LFCN_2_5x7_LFCN_2_5x7_0_split_1
I1006 06:49:59.460778 18716 net.cpp:454] detection_accuracy_2_5x7 <- label_2_5x7_data_4_split_1
I1006 06:49:59.460783 18716 net.cpp:411] detection_accuracy_2_5x7 -> accuracy_2_5x7
I1006 06:49:59.460790 18716 net.cpp:411] detection_accuracy_2_5x7 -> boxiou_2_5x7
I1006 06:49:59.460840 18716 net.cpp:150] Setting up detection_accuracy_2_5x7
I1006 06:49:59.460845 18716 net.cpp:157] Top shape: 1 1 1 2 (2)
I1006 06:49:59.460850 18716 net.cpp:157] Top shape: 1 1 1 1 (1)
I1006 06:49:59.460852 18716 net.cpp:165] Memory required for data: 1035119228
I1006 06:49:59.460855 18716 layer_factory.hpp:76] Creating layer pool5
I1006 06:49:59.460860 18716 net.cpp:106] Creating Layer pool5
I1006 06:49:59.460863 18716 net.cpp:454] pool5 <- conv5_3_relu5_3_0_split_2
I1006 06:49:59.460870 18716 net.cpp:411] pool5 -> pool5
I1006 06:49:59.461289 18716 net.cpp:150] Setting up pool5
I1006 06:49:59.461302 18716 net.cpp:157] Top shape: 2 512 14 14 (200704)
I1006 06:49:59.461304 18716 net.cpp:165] Memory required for data: 1035922044
I1006 06:49:59.461308 18716 layer_factory.hpp:76] Creating layer conv6_1
I1006 06:49:59.461318 18716 net.cpp:106] Creating Layer conv6_1
I1006 06:49:59.461320 18716 net.cpp:454] conv6_1 <- pool5
I1006 06:49:59.461328 18716 net.cpp:411] conv6_1 -> conv6_1
I1006 06:49:59.539011 18716 net.cpp:150] Setting up conv6_1
I1006 06:49:59.539043 18716 net.cpp:157] Top shape: 2 512 14 14 (200704)
I1006 06:49:59.539047 18716 net.cpp:165] Memory required for data: 1036724860
I1006 06:49:59.539054 18716 layer_factory.hpp:76] Creating layer relu6_1
I1006 06:49:59.539062 18716 net.cpp:106] Creating Layer relu6_1
I1006 06:49:59.539067 18716 net.cpp:454] relu6_1 <- conv6_1
I1006 06:49:59.539074 18716 net.cpp:397] relu6_1 -> conv6_1 (in-place)
I1006 06:49:59.539268 18716 net.cpp:150] Setting up relu6_1
I1006 06:49:59.539279 18716 net.cpp:157] Top shape: 2 512 14 14 (200704)
I1006 06:49:59.539281 18716 net.cpp:165] Memory required for data: 1037527676
I1006 06:49:59.539285 18716 layer_factory.hpp:76] Creating layer conv6_1_relu6_1_0_split
I1006 06:49:59.539293 18716 net.cpp:106] Creating Layer conv6_1_relu6_1_0_split
I1006 06:49:59.539295 18716 net.cpp:454] conv6_1_relu6_1_0_split <- conv6_1
I1006 06:49:59.539300 18716 net.cpp:411] conv6_1_relu6_1_0_split -> conv6_1_relu6_1_0_split_0
I1006 06:49:59.539307 18716 net.cpp:411] conv6_1_relu6_1_0_split -> conv6_1_relu6_1_0_split_1
I1006 06:49:59.539312 18716 net.cpp:411] conv6_1_relu6_1_0_split -> conv6_1_relu6_1_0_split_2
I1006 06:49:59.539438 18716 net.cpp:150] Setting up conv6_1_relu6_1_0_split
I1006 06:49:59.539446 18716 net.cpp:157] Top shape: 2 512 14 14 (200704)
I1006 06:49:59.539450 18716 net.cpp:157] Top shape: 2 512 14 14 (200704)
I1006 06:49:59.539453 18716 net.cpp:157] Top shape: 2 512 14 14 (200704)
I1006 06:49:59.539455 18716 net.cpp:165] Memory required for data: 1039936124
I1006 06:49:59.539458 18716 layer_factory.hpp:76] Creating layer LFCN_3_3x5
I1006 06:49:59.539470 18716 net.cpp:106] Creating Layer LFCN_3_3x5
I1006 06:49:59.539474 18716 net.cpp:454] LFCN_3_3x5 <- conv6_1_relu6_1_0_split_0
I1006 06:49:59.539480 18716 net.cpp:411] LFCN_3_3x5 -> LFCN_3_3x5
I1006 06:49:59.544217 18716 net.cpp:150] Setting up LFCN_3_3x5
I1006 06:49:59.544231 18716 net.cpp:157] Top shape: 2 6 14 14 (2352)
I1006 06:49:59.544246 18716 net.cpp:165] Memory required for data: 1039945532
I1006 06:49:59.544252 18716 layer_factory.hpp:76] Creating layer LFCN_3_3x5_LFCN_3_3x5_0_split
I1006 06:49:59.544270 18716 net.cpp:106] Creating Layer LFCN_3_3x5_LFCN_3_3x5_0_split
I1006 06:49:59.544273 18716 net.cpp:454] LFCN_3_3x5_LFCN_3_3x5_0_split <- LFCN_3_3x5
I1006 06:49:59.544278 18716 net.cpp:411] LFCN_3_3x5_LFCN_3_3x5_0_split -> LFCN_3_3x5_LFCN_3_3x5_0_split_0
I1006 06:49:59.544297 18716 net.cpp:411] LFCN_3_3x5_LFCN_3_3x5_0_split -> LFCN_3_3x5_LFCN_3_3x5_0_split_1
I1006 06:49:59.544303 18716 net.cpp:411] LFCN_3_3x5_LFCN_3_3x5_0_split -> LFCN_3_3x5_LFCN_3_3x5_0_split_2
I1006 06:49:59.544386 18716 net.cpp:150] Setting up LFCN_3_3x5_LFCN_3_3x5_0_split
I1006 06:49:59.544404 18716 net.cpp:157] Top shape: 2 6 14 14 (2352)
I1006 06:49:59.544407 18716 net.cpp:157] Top shape: 2 6 14 14 (2352)
I1006 06:49:59.544410 18716 net.cpp:157] Top shape: 2 6 14 14 (2352)
I1006 06:49:59.544412 18716 net.cpp:165] Memory required for data: 1039973756
I1006 06:49:59.544416 18716 layer_factory.hpp:76] Creating layer detection_loss_3_3x5
I1006 06:49:59.544423 18716 net.cpp:106] Creating Layer detection_loss_3_3x5
I1006 06:49:59.544426 18716 net.cpp:454] detection_loss_3_3x5 <- LFCN_3_3x5_LFCN_3_3x5_0_split_0
I1006 06:49:59.544431 18716 net.cpp:454] detection_loss_3_3x5 <- label_3_3x5_data_5_split_0
I1006 06:49:59.544438 18716 net.cpp:411] detection_loss_3_3x5 -> loss_3_3x5
I1006 06:49:59.544446 18716 layer_factory.hpp:76] Creating layer detection_loss_3_3x5
I1006 06:49:59.544865 18716 net.cpp:150] Setting up detection_loss_3_3x5
I1006 06:49:59.544877 18716 net.cpp:157] Top shape: 1 1 1 2 (2)
I1006 06:49:59.544879 18716 net.cpp:160]     with loss weight 1
I1006 06:49:59.544889 18716 net.cpp:165] Memory required for data: 1039973764
I1006 06:49:59.544893 18716 layer_factory.hpp:76] Creating layer detection_accuracy_3_3x5
I1006 06:49:59.544899 18716 net.cpp:106] Creating Layer detection_accuracy_3_3x5
I1006 06:49:59.544903 18716 net.cpp:454] detection_accuracy_3_3x5 <- LFCN_3_3x5_LFCN_3_3x5_0_split_1
I1006 06:49:59.544909 18716 net.cpp:454] detection_accuracy_3_3x5 <- label_3_3x5_data_5_split_1
I1006 06:49:59.544914 18716 net.cpp:411] detection_accuracy_3_3x5 -> accuracy_3_3x5
I1006 06:49:59.544922 18716 net.cpp:411] detection_accuracy_3_3x5 -> boxiou_3_3x5
I1006 06:49:59.544973 18716 net.cpp:150] Setting up detection_accuracy_3_3x5
I1006 06:49:59.544978 18716 net.cpp:157] Top shape: 1 1 1 2 (2)
I1006 06:49:59.544982 18716 net.cpp:157] Top shape: 1 1 1 1 (1)
I1006 06:49:59.544984 18716 net.cpp:165] Memory required for data: 1039973776
I1006 06:49:59.544986 18716 layer_factory.hpp:76] Creating layer LFCN_3_5x7
I1006 06:49:59.544996 18716 net.cpp:106] Creating Layer LFCN_3_5x7
I1006 06:49:59.544999 18716 net.cpp:454] LFCN_3_5x7 <- conv6_1_relu6_1_0_split_1
I1006 06:49:59.545006 18716 net.cpp:411] LFCN_3_5x7 -> LFCN_3_5x7
I1006 06:49:59.549748 18716 net.cpp:150] Setting up LFCN_3_5x7
I1006 06:49:59.549763 18716 net.cpp:157] Top shape: 2 6 14 14 (2352)
I1006 06:49:59.549767 18716 net.cpp:165] Memory required for data: 1039983184
I1006 06:49:59.549772 18716 layer_factory.hpp:76] Creating layer LFCN_3_5x7_LFCN_3_5x7_0_split
I1006 06:49:59.549779 18716 net.cpp:106] Creating Layer LFCN_3_5x7_LFCN_3_5x7_0_split
I1006 06:49:59.549795 18716 net.cpp:454] LFCN_3_5x7_LFCN_3_5x7_0_split <- LFCN_3_5x7
I1006 06:49:59.549801 18716 net.cpp:411] LFCN_3_5x7_LFCN_3_5x7_0_split -> LFCN_3_5x7_LFCN_3_5x7_0_split_0
I1006 06:49:59.549808 18716 net.cpp:411] LFCN_3_5x7_LFCN_3_5x7_0_split -> LFCN_3_5x7_LFCN_3_5x7_0_split_1
I1006 06:49:59.549813 18716 net.cpp:411] LFCN_3_5x7_LFCN_3_5x7_0_split -> LFCN_3_5x7_LFCN_3_5x7_0_split_2
I1006 06:49:59.549882 18716 net.cpp:150] Setting up LFCN_3_5x7_LFCN_3_5x7_0_split
I1006 06:49:59.549888 18716 net.cpp:157] Top shape: 2 6 14 14 (2352)
I1006 06:49:59.549891 18716 net.cpp:157] Top shape: 2 6 14 14 (2352)
I1006 06:49:59.549895 18716 net.cpp:157] Top shape: 2 6 14 14 (2352)
I1006 06:49:59.549896 18716 net.cpp:165] Memory required for data: 1040011408
I1006 06:49:59.549899 18716 layer_factory.hpp:76] Creating layer detection_loss_3_5x7
I1006 06:49:59.549906 18716 net.cpp:106] Creating Layer detection_loss_3_5x7
I1006 06:49:59.549909 18716 net.cpp:454] detection_loss_3_5x7 <- LFCN_3_5x7_LFCN_3_5x7_0_split_0
I1006 06:49:59.549914 18716 net.cpp:454] detection_loss_3_5x7 <- label_3_5x7_data_6_split_0
I1006 06:49:59.549918 18716 net.cpp:411] detection_loss_3_5x7 -> loss_3_5x7
I1006 06:49:59.549926 18716 layer_factory.hpp:76] Creating layer detection_loss_3_5x7
I1006 06:49:59.550523 18716 net.cpp:150] Setting up detection_loss_3_5x7
I1006 06:49:59.550536 18716 net.cpp:157] Top shape: 1 1 1 2 (2)
I1006 06:49:59.550539 18716 net.cpp:160]     with loss weight 1
I1006 06:49:59.550545 18716 net.cpp:165] Memory required for data: 1040011416
I1006 06:49:59.550549 18716 layer_factory.hpp:76] Creating layer detection_accuracy_3_5x7
I1006 06:49:59.550554 18716 net.cpp:106] Creating Layer detection_accuracy_3_5x7
I1006 06:49:59.550559 18716 net.cpp:454] detection_accuracy_3_5x7 <- LFCN_3_5x7_LFCN_3_5x7_0_split_1
I1006 06:49:59.550564 18716 net.cpp:454] detection_accuracy_3_5x7 <- label_3_5x7_data_6_split_1
I1006 06:49:59.550570 18716 net.cpp:411] detection_accuracy_3_5x7 -> accuracy_3_5x7
I1006 06:49:59.550577 18716 net.cpp:411] detection_accuracy_3_5x7 -> boxiou_3_5x7
I1006 06:49:59.550627 18716 net.cpp:150] Setting up detection_accuracy_3_5x7
I1006 06:49:59.550634 18716 net.cpp:157] Top shape: 1 1 1 2 (2)
I1006 06:49:59.550637 18716 net.cpp:157] Top shape: 1 1 1 1 (1)
I1006 06:49:59.550640 18716 net.cpp:165] Memory required for data: 1040011428
I1006 06:49:59.550642 18716 layer_factory.hpp:76] Creating layer pool6
I1006 06:49:59.550648 18716 net.cpp:106] Creating Layer pool6
I1006 06:49:59.550652 18716 net.cpp:454] pool6 <- conv6_1_relu6_1_0_split_2
I1006 06:49:59.550657 18716 net.cpp:411] pool6 -> pool6
I1006 06:49:59.550904 18716 net.cpp:150] Setting up pool6
I1006 06:49:59.550915 18716 net.cpp:157] Top shape: 2 512 7 7 (50176)
I1006 06:49:59.550918 18716 net.cpp:165] Memory required for data: 1040212132
I1006 06:49:59.550921 18716 layer_factory.hpp:76] Creating layer LFCN_4_3x5
I1006 06:49:59.550930 18716 net.cpp:106] Creating Layer LFCN_4_3x5
I1006 06:49:59.550933 18716 net.cpp:454] LFCN_4_3x5 <- pool6
I1006 06:49:59.550940 18716 net.cpp:411] LFCN_4_3x5 -> LFCN_4_3x5
I1006 06:49:59.554069 18716 net.cpp:150] Setting up LFCN_4_3x5
I1006 06:49:59.554093 18716 net.cpp:157] Top shape: 2 6 7 7 (588)
I1006 06:49:59.554096 18716 net.cpp:165] Memory required for data: 1040214484
I1006 06:49:59.554103 18716 layer_factory.hpp:76] Creating layer LFCN_4_3x5_LFCN_4_3x5_0_split
I1006 06:49:59.554108 18716 net.cpp:106] Creating Layer LFCN_4_3x5_LFCN_4_3x5_0_split
I1006 06:49:59.554113 18716 net.cpp:454] LFCN_4_3x5_LFCN_4_3x5_0_split <- LFCN_4_3x5
I1006 06:49:59.554119 18716 net.cpp:411] LFCN_4_3x5_LFCN_4_3x5_0_split -> LFCN_4_3x5_LFCN_4_3x5_0_split_0
I1006 06:49:59.554126 18716 net.cpp:411] LFCN_4_3x5_LFCN_4_3x5_0_split -> LFCN_4_3x5_LFCN_4_3x5_0_split_1
I1006 06:49:59.554132 18716 net.cpp:411] LFCN_4_3x5_LFCN_4_3x5_0_split -> LFCN_4_3x5_LFCN_4_3x5_0_split_2
I1006 06:49:59.554209 18716 net.cpp:150] Setting up LFCN_4_3x5_LFCN_4_3x5_0_split
I1006 06:49:59.554215 18716 net.cpp:157] Top shape: 2 6 7 7 (588)
I1006 06:49:59.554219 18716 net.cpp:157] Top shape: 2 6 7 7 (588)
I1006 06:49:59.554222 18716 net.cpp:157] Top shape: 2 6 7 7 (588)
I1006 06:49:59.554224 18716 net.cpp:165] Memory required for data: 1040221540
I1006 06:49:59.554227 18716 layer_factory.hpp:76] Creating layer detection_loss_4_3x5
I1006 06:49:59.554234 18716 net.cpp:106] Creating Layer detection_loss_4_3x5
I1006 06:49:59.554236 18716 net.cpp:454] detection_loss_4_3x5 <- LFCN_4_3x5_LFCN_4_3x5_0_split_0
I1006 06:49:59.554240 18716 net.cpp:454] detection_loss_4_3x5 <- label_4_3x5_data_7_split_0
I1006 06:49:59.554246 18716 net.cpp:411] detection_loss_4_3x5 -> loss_4_3x5
I1006 06:49:59.554255 18716 layer_factory.hpp:76] Creating layer detection_loss_4_3x5
I1006 06:49:59.554877 18716 net.cpp:150] Setting up detection_loss_4_3x5
I1006 06:49:59.554906 18716 net.cpp:157] Top shape: 1 1 1 2 (2)
I1006 06:49:59.554909 18716 net.cpp:160]     with loss weight 1
I1006 06:49:59.554915 18716 net.cpp:165] Memory required for data: 1040221548
I1006 06:49:59.554919 18716 layer_factory.hpp:76] Creating layer detection_accuracy_4_3x5
I1006 06:49:59.554925 18716 net.cpp:106] Creating Layer detection_accuracy_4_3x5
I1006 06:49:59.554929 18716 net.cpp:454] detection_accuracy_4_3x5 <- LFCN_4_3x5_LFCN_4_3x5_0_split_1
I1006 06:49:59.554934 18716 net.cpp:454] detection_accuracy_4_3x5 <- label_4_3x5_data_7_split_1
I1006 06:49:59.554939 18716 net.cpp:411] detection_accuracy_4_3x5 -> accuracy_4_3x5
I1006 06:49:59.554945 18716 net.cpp:411] detection_accuracy_4_3x5 -> boxiou_4_3x5
I1006 06:49:59.554999 18716 net.cpp:150] Setting up detection_accuracy_4_3x5
I1006 06:49:59.555004 18716 net.cpp:157] Top shape: 1 1 1 2 (2)
I1006 06:49:59.555007 18716 net.cpp:157] Top shape: 1 1 1 1 (1)
I1006 06:49:59.555009 18716 net.cpp:165] Memory required for data: 1040221560
I1006 06:49:59.555012 18716 layer_factory.hpp:76] Creating layer proposals
I1006 06:49:59.555023 18716 net.cpp:106] Creating Layer proposals
I1006 06:49:59.555027 18716 net.cpp:454] proposals <- LFCN_1_3x5_LFCN_1_3x5_0_split_2
I1006 06:49:59.555032 18716 net.cpp:454] proposals <- LFCN_1_5x7_LFCN_1_5x7_0_split_2
I1006 06:49:59.555035 18716 net.cpp:454] proposals <- LFCN_2_3x5_LFCN_2_3x5_0_split_2
I1006 06:49:59.555039 18716 net.cpp:454] proposals <- LFCN_2_5x7_LFCN_2_5x7_0_split_2
I1006 06:49:59.555042 18716 net.cpp:454] proposals <- LFCN_3_3x5_LFCN_3_3x5_0_split_2
I1006 06:49:59.555045 18716 net.cpp:454] proposals <- LFCN_3_5x7_LFCN_3_5x7_0_split_2
I1006 06:49:59.555048 18716 net.cpp:454] proposals <- LFCN_4_3x5_LFCN_4_3x5_0_split_2
I1006 06:49:59.555052 18716 net.cpp:411] proposals -> proposals
I1006 06:49:59.555088 18716 net.cpp:150] Setting up proposals
I1006 06:49:59.555093 18716 net.cpp:157] Top shape: 1 5 1 1 (5)
I1006 06:49:59.555095 18716 net.cpp:165] Memory required for data: 1040221580
I1006 06:49:59.555097 18716 layer_factory.hpp:76] Creating layer proposal_info
I1006 06:49:59.555105 18716 net.cpp:106] Creating Layer proposal_info
I1006 06:49:59.555109 18716 net.cpp:454] proposal_info <- proposals
I1006 06:49:59.555112 18716 net.cpp:454] proposal_info <- gt_boxes
I1006 06:49:59.555119 18716 net.cpp:411] proposal_info -> rois
I1006 06:49:59.555125 18716 net.cpp:411] proposal_info -> proposal_labels
I1006 06:49:59.555132 18716 net.cpp:411] proposal_info -> proposal_targets
I1006 06:49:59.555138 18716 net.cpp:411] proposal_info -> box_inside_weights
I1006 06:49:59.555143 18716 net.cpp:411] proposal_info -> box_outside_weights
I1006 06:49:59.555150 18716 net.cpp:411] proposal_info -> match_gt_boxes
I1006 06:49:59.555265 18716 net.cpp:150] Setting up proposal_info
I1006 06:49:59.555270 18716 net.cpp:157] Top shape: 64 5 1 1 (320)
I1006 06:49:59.555274 18716 net.cpp:157] Top shape: 64 1 1 1 (64)
I1006 06:49:59.555277 18716 net.cpp:157] Top shape: 64 8 1 1 (512)
I1006 06:49:59.555280 18716 net.cpp:157] Top shape: 64 8 1 1 (512)
I1006 06:49:59.555284 18716 net.cpp:157] Top shape: 64 8 1 1 (512)
I1006 06:49:59.555286 18716 net.cpp:157] Top shape: 64 6 1 1 (384)
I1006 06:49:59.555289 18716 net.cpp:165] Memory required for data: 1040230796
I1006 06:49:59.555291 18716 layer_factory.hpp:76] Creating layer rois_proposal_info_0_split
I1006 06:49:59.555295 18716 net.cpp:106] Creating Layer rois_proposal_info_0_split
I1006 06:49:59.555299 18716 net.cpp:454] rois_proposal_info_0_split <- rois
I1006 06:49:59.555305 18716 net.cpp:411] rois_proposal_info_0_split -> rois_proposal_info_0_split_0
I1006 06:49:59.555310 18716 net.cpp:411] rois_proposal_info_0_split -> rois_proposal_info_0_split_1
I1006 06:49:59.555315 18716 net.cpp:411] rois_proposal_info_0_split -> rois_proposal_info_0_split_2
I1006 06:49:59.555371 18716 net.cpp:150] Setting up rois_proposal_info_0_split
I1006 06:49:59.555377 18716 net.cpp:157] Top shape: 64 5 1 1 (320)
I1006 06:49:59.555379 18716 net.cpp:157] Top shape: 64 5 1 1 (320)
I1006 06:49:59.555382 18716 net.cpp:157] Top shape: 64 5 1 1 (320)
I1006 06:49:59.555384 18716 net.cpp:165] Memory required for data: 1040234636
I1006 06:49:59.555387 18716 layer_factory.hpp:76] Creating layer proposal_labels_proposal_info_1_split
I1006 06:49:59.555392 18716 net.cpp:106] Creating Layer proposal_labels_proposal_info_1_split
I1006 06:49:59.555394 18716 net.cpp:454] proposal_labels_proposal_info_1_split <- proposal_labels
I1006 06:49:59.555400 18716 net.cpp:411] proposal_labels_proposal_info_1_split -> proposal_labels_proposal_info_1_split_0
I1006 06:49:59.555405 18716 net.cpp:411] proposal_labels_proposal_info_1_split -> proposal_labels_proposal_info_1_split_1
I1006 06:49:59.555445 18716 net.cpp:150] Setting up proposal_labels_proposal_info_1_split
I1006 06:49:59.555449 18716 net.cpp:157] Top shape: 64 1 1 1 (64)
I1006 06:49:59.555452 18716 net.cpp:157] Top shape: 64 1 1 1 (64)
I1006 06:49:59.555455 18716 net.cpp:165] Memory required for data: 1040235148
I1006 06:49:59.555457 18716 layer_factory.hpp:76] Creating layer roi_pool_org
I1006 06:49:59.555465 18716 net.cpp:106] Creating Layer roi_pool_org
I1006 06:49:59.555469 18716 net.cpp:454] roi_pool_org <- conv4_3_relu4_3_0_split_2
I1006 06:49:59.555472 18716 net.cpp:454] roi_pool_org <- rois_proposal_info_0_split_0
I1006 06:49:59.555477 18716 net.cpp:411] roi_pool_org -> roi_pool_org
I1006 06:49:59.555482 18716 roi_pooling_layer.cpp:35] Spatial scale: 0.125
I1006 06:49:59.555529 18716 net.cpp:150] Setting up roi_pool_org
I1006 06:49:59.555534 18716 net.cpp:157] Top shape: 64 512 8 4 (1048576)
I1006 06:49:59.555536 18716 net.cpp:165] Memory required for data: 1044429452
I1006 06:49:59.555539 18716 layer_factory.hpp:76] Creating layer roi_pool_ctx
I1006 06:49:59.555546 18716 net.cpp:106] Creating Layer roi_pool_ctx
I1006 06:49:59.555548 18716 net.cpp:454] roi_pool_ctx <- conv4_3_relu4_3_0_split_3
I1006 06:49:59.555552 18716 net.cpp:454] roi_pool_ctx <- rois_proposal_info_0_split_1
I1006 06:49:59.555557 18716 net.cpp:411] roi_pool_ctx -> roi_pool_ctx
I1006 06:49:59.555562 18716 roi_pooling_layer.cpp:35] Spatial scale: 0.125
I1006 06:49:59.555606 18716 net.cpp:150] Setting up roi_pool_ctx
I1006 06:49:59.555610 18716 net.cpp:157] Top shape: 64 512 8 4 (1048576)
I1006 06:49:59.555613 18716 net.cpp:165] Memory required for data: 1048623756
I1006 06:49:59.555615 18716 layer_factory.hpp:76] Creating layer roi_pool
I1006 06:49:59.555619 18716 net.cpp:106] Creating Layer roi_pool
I1006 06:49:59.555622 18716 net.cpp:454] roi_pool <- roi_pool_org
I1006 06:49:59.555626 18716 net.cpp:454] roi_pool <- roi_pool_ctx
I1006 06:49:59.555630 18716 net.cpp:411] roi_pool -> roi_pool
I1006 06:49:59.555660 18716 net.cpp:150] Setting up roi_pool
I1006 06:49:59.555663 18716 net.cpp:157] Top shape: 64 1024 8 4 (2097152)
I1006 06:49:59.555665 18716 net.cpp:165] Memory required for data: 1057012364
I1006 06:49:59.555668 18716 layer_factory.hpp:76] Creating layer roi_c1
I1006 06:49:59.555675 18716 net.cpp:106] Creating Layer roi_c1
I1006 06:49:59.555677 18716 net.cpp:454] roi_c1 <- roi_pool
I1006 06:49:59.555683 18716 net.cpp:411] roi_c1 -> roi_c1
I1006 06:49:59.713696 18716 net.cpp:150] Setting up roi_c1
I1006 06:49:59.713718 18716 net.cpp:157] Top shape: 64 512 8 4 (1048576)
I1006 06:49:59.713722 18716 net.cpp:165] Memory required for data: 1061206668
I1006 06:49:59.713729 18716 layer_factory.hpp:76] Creating layer roi_c1_relu
I1006 06:49:59.713738 18716 net.cpp:106] Creating Layer roi_c1_relu
I1006 06:49:59.713743 18716 net.cpp:454] roi_c1_relu <- roi_c1
I1006 06:49:59.713749 18716 net.cpp:397] roi_c1_relu -> roi_c1 (in-place)
I1006 06:49:59.714136 18716 net.cpp:150] Setting up roi_c1_relu
I1006 06:49:59.714149 18716 net.cpp:157] Top shape: 64 512 8 4 (1048576)
I1006 06:49:59.714153 18716 net.cpp:165] Memory required for data: 1065400972
I1006 06:49:59.714155 18716 layer_factory.hpp:76] Creating layer fc6
I1006 06:49:59.714164 18716 net.cpp:106] Creating Layer fc6
I1006 06:49:59.714167 18716 net.cpp:454] fc6 <- roi_c1
I1006 06:49:59.714174 18716 net.cpp:411] fc6 -> fc6
I1006 06:50:00.778676 18716 net.cpp:150] Setting up fc6
I1006 06:50:00.778719 18716 net.cpp:157] Top shape: 64 2048 (131072)
I1006 06:50:00.778723 18716 net.cpp:165] Memory required for data: 1065925260
I1006 06:50:00.778739 18716 layer_factory.hpp:76] Creating layer relu6
I1006 06:50:00.778754 18716 net.cpp:106] Creating Layer relu6
I1006 06:50:00.778781 18716 net.cpp:454] relu6 <- fc6
I1006 06:50:00.778789 18716 net.cpp:397] relu6 -> fc6 (in-place)
I1006 06:50:00.779209 18716 net.cpp:150] Setting up relu6
I1006 06:50:00.779220 18716 net.cpp:157] Top shape: 64 2048 (131072)
I1006 06:50:00.779223 18716 net.cpp:165] Memory required for data: 1066449548
I1006 06:50:00.779227 18716 layer_factory.hpp:76] Creating layer drop6
I1006 06:50:00.779233 18716 net.cpp:106] Creating Layer drop6
I1006 06:50:00.779237 18716 net.cpp:454] drop6 <- fc6
I1006 06:50:00.779243 18716 net.cpp:397] drop6 -> fc6 (in-place)
I1006 06:50:00.779279 18716 net.cpp:150] Setting up drop6
I1006 06:50:00.779284 18716 net.cpp:157] Top shape: 64 2048 (131072)
I1006 06:50:00.779286 18716 net.cpp:165] Memory required for data: 1066973836
I1006 06:50:00.779289 18716 layer_factory.hpp:76] Creating layer fc6_drop6_0_split
I1006 06:50:00.779296 18716 net.cpp:106] Creating Layer fc6_drop6_0_split
I1006 06:50:00.779299 18716 net.cpp:454] fc6_drop6_0_split <- fc6
I1006 06:50:00.779304 18716 net.cpp:411] fc6_drop6_0_split -> fc6_drop6_0_split_0
I1006 06:50:00.779309 18716 net.cpp:411] fc6_drop6_0_split -> fc6_drop6_0_split_1
I1006 06:50:00.779391 18716 net.cpp:150] Setting up fc6_drop6_0_split
I1006 06:50:00.779395 18716 net.cpp:157] Top shape: 64 2048 (131072)
I1006 06:50:00.779398 18716 net.cpp:157] Top shape: 64 2048 (131072)
I1006 06:50:00.779400 18716 net.cpp:165] Memory required for data: 1068022412
I1006 06:50:00.779403 18716 layer_factory.hpp:76] Creating layer cls_pred
I1006 06:50:00.779417 18716 net.cpp:106] Creating Layer cls_pred
I1006 06:50:00.779420 18716 net.cpp:454] cls_pred <- fc6_drop6_0_split_0
I1006 06:50:00.779430 18716 net.cpp:411] cls_pred -> cls_pred
I1006 06:50:00.779713 18716 net.cpp:150] Setting up cls_pred
I1006 06:50:00.779722 18716 net.cpp:157] Top shape: 64 2 (128)
I1006 06:50:00.779724 18716 net.cpp:165] Memory required for data: 1068022924
I1006 06:50:00.779731 18716 layer_factory.hpp:76] Creating layer cls_pred_cls_pred_0_split
I1006 06:50:00.779736 18716 net.cpp:106] Creating Layer cls_pred_cls_pred_0_split
I1006 06:50:00.779738 18716 net.cpp:454] cls_pred_cls_pred_0_split <- cls_pred
I1006 06:50:00.779744 18716 net.cpp:411] cls_pred_cls_pred_0_split -> cls_pred_cls_pred_0_split_0
I1006 06:50:00.779750 18716 net.cpp:411] cls_pred_cls_pred_0_split -> cls_pred_cls_pred_0_split_1
I1006 06:50:00.779796 18716 net.cpp:150] Setting up cls_pred_cls_pred_0_split
I1006 06:50:00.779801 18716 net.cpp:157] Top shape: 64 2 (128)
I1006 06:50:00.779804 18716 net.cpp:157] Top shape: 64 2 (128)
I1006 06:50:00.779806 18716 net.cpp:165] Memory required for data: 1068023948
I1006 06:50:00.779809 18716 layer_factory.hpp:76] Creating layer bbox_pred
I1006 06:50:00.779819 18716 net.cpp:106] Creating Layer bbox_pred
I1006 06:50:00.779821 18716 net.cpp:454] bbox_pred <- fc6_drop6_0_split_1
I1006 06:50:00.779827 18716 net.cpp:411] bbox_pred -> bbox_pred
I1006 06:50:00.780537 18716 net.cpp:150] Setting up bbox_pred
I1006 06:50:00.780546 18716 net.cpp:157] Top shape: 64 8 (512)
I1006 06:50:00.780549 18716 net.cpp:165] Memory required for data: 1068025996
I1006 06:50:00.780555 18716 layer_factory.hpp:76] Creating layer bbox_pred_bbox_pred_0_split
I1006 06:50:00.780558 18716 net.cpp:106] Creating Layer bbox_pred_bbox_pred_0_split
I1006 06:50:00.780561 18716 net.cpp:454] bbox_pred_bbox_pred_0_split <- bbox_pred
I1006 06:50:00.780566 18716 net.cpp:411] bbox_pred_bbox_pred_0_split -> bbox_pred_bbox_pred_0_split_0
I1006 06:50:00.780629 18716 net.cpp:411] bbox_pred_bbox_pred_0_split -> bbox_pred_bbox_pred_0_split_1
I1006 06:50:00.780691 18716 net.cpp:150] Setting up bbox_pred_bbox_pred_0_split
I1006 06:50:00.780699 18716 net.cpp:157] Top shape: 64 8 (512)
I1006 06:50:00.780702 18716 net.cpp:157] Top shape: 64 8 (512)
I1006 06:50:00.780705 18716 net.cpp:165] Memory required for data: 1068030092
I1006 06:50:00.780707 18716 layer_factory.hpp:76] Creating layer loss_cls
I1006 06:50:00.780714 18716 net.cpp:106] Creating Layer loss_cls
I1006 06:50:00.780716 18716 net.cpp:454] loss_cls <- cls_pred_cls_pred_0_split_0
I1006 06:50:00.780722 18716 net.cpp:454] loss_cls <- proposal_labels_proposal_info_1_split_0
…
