…
    downsample_rate: 16
    downsample_rate: 32
    downsample_rate: 32
    downsample_rate: 64
    coord_num: 4
    field_h: 40
    field_h: 56
    field_h: 80
    field_h: 112
    field_h: 160
    field_h: 224
    field_h: 320
    field_w: 20
    field_w: 28
    field_w: 40
    field_w: 56
    field_w: 80
    field_w: 112
    field_w: 160
    fg_threshold: 0.5
    resize_width: 640
    resize_height: 480
    crop_width: 448
    crop_height: 448
    do_multiple_scale: true
    min_scale: 30
    max_scale: 240
    min_gt_height: 45
    shuffle: true
  }
}
layer {
  name: "conv1_1"
  type: "Convolution"
  bottom: "data"
  top: "conv1_1"
  convolution_param {
    num_output: 64
    pad: 1
    kernel_size: 3
  }
}
layer {
  name: "relu1_1"
  type: "ReLU"
  bottom: "conv1_1"
  top: "conv1_1"
}
layer {
  name: "conv1_2"
  type: "Convolution"
  bottom: "conv1_1"
  top: "conv1_2"
  convolution_param {
    num_output: 64
    pad: 1
    kernel_size: 3
  }
}
layer {
  name: "relu1_2"
  type: "ReLU"
  bottom: "conv1_2"
  top: "conv1_2"
}
layer {
  name: "pool1"
  type: "Pooling"
  bottom: "conv1_2"
  top: "pool1"
  pooling_param {
    pool: MAX
    kernel_size: 2
    stride: 2
  }
}
layer {
  name: "conv2_1"
  type: "Convolution"
  bottom: "pool1"
  top: "conv2_1"
  convolution_param {
    num_output: 128
    pad: 1
    kernel_size: 3
  }
}
layer {
  name: "relu2_1"
  type: "ReLU"
  bottom: "conv2_1"
  top: "conv2_1"
}
layer {
  name: "conv2_2"
  type: "Convolution"
  bottom: "conv2_1"
  top: "conv2_2"
  convolution_param {
    num_output: 128
    pad: 1
    kernel_size: 3
  }
}
layer {
  name: "relu2_2"
  type: "ReLU"
  bottom: "conv2_2"
  top: "conv2_2"
}
layer {
  name: "pool2"
  type: "Pooling"
  bottom: "conv2_2"
  top: "pool2"
  pooling_param {
    pool: MAX
    kernel_size: 2
    stride: 2
  }
}
layer {
  name: "conv3_1"
  type: "Convolution"
  bottom: "pool2"
  top: "conv3_1"
  convolution_param {
    num_output: 256
    pad: 1
    kernel_size: 3
  }
}
layer {
  name: "relu3_1"
  type: "ReLU"
  bottom: "conv3_1"
  top: "conv3_1"
}
layer {
  name: "conv3_2"
  type: "Convolution"
  bottom: "conv3_1"
  top: "conv3_2"
  convolution_param {
    num_output: 256
    pad: 1
    kernel_size: 3
  }
}
layer {
  name: "relu3_2"
  type: "ReLU"
  bottom: "conv3_2"
  top: "conv3_2"
}
layer {
  name: "conv3_3"
  type: "Convolution"
  bottom: "conv3_2"
  top: "conv3_3"
  convolution_param {
    num_output: 256
    pad: 1
    kernel_size: 3
  }
}
layer {
  name: "relu3_3"
  type: "ReLU"
  bottom: "conv3_3"
  top: "conv3_3"
}
layer {
  name: "pool3"
  type: "Pooling"
  bottom: "conv3_3"
  top: "pool3"
  pooling_param {
    pool: MAX
    kernel_size: 2
    stride: 2
  }
}
layer {
  name: "conv4_1"
  type: "Convolution"
  bottom: "pool3"
  top: "conv4_1"
  convolution_param {
    num_output: 512
    pad: 1
    kernel_size: 3
  }
}
layer {
  name: "relu4_1"
  type: "ReLU"
  bottom: "conv4_1"
  top: "conv4_1"
}
layer {
  name: "conv4_2"
  type: "Convolution"
  bottom: "conv4_1"
  top: "conv4_2"
  convolution_param {
    num_output: 512
    pad: 1
    kernel_size: 3
  }
}
layer {
  name: "relu4_2"
  type: "ReLU"
  bottom: "conv4_2"
  top: "conv4_2"
}
layer {
  name: "conv4_3"
  type: "Convolution"
  bottom: "conv4_2"
  top: "conv4_3"
  convolution_param {
    num_output: 512
    pad: 1
    kernel_size: 3
  }
}
layer {
  name: "relu4_3"
  type: "ReLU"
  bottom: "conv4_3"
  top: "conv4_3"
}
layer {
  name: "loss1_conv1"
  type: "Convolution"
  bottom: "conv4_3"
  top: "loss1_conv1"
  param {
    lr_mult: 1
    decay_mult: 1
  }
  param {
    lr_mult: 2
    decay_mult: 0
  }
  convolution_param {
    num_output: 512
    pad: 1
    kernel_size: 3
    weight_filler {
      type: "gaussian"
      std: 0.01
    }
    bias_filler {
      type: "constant"
    }
  }
}
layer {
  name: "loss_relu1"
  type: "ReLU"
  bottom: "loss1_conv1"
  top: "loss1_conv1"
}
layer {
  name: "LFCN_1_3x5"
  type: "Convolution"
  bottom: "loss1_conv1"
  top: "LFCN_1_3x5"
  param {
    lr_mult: 1
    decay_mult: 1
  }
  param {
    lr_mult: 2
    decay_mult: 0
  }
  convolution_param {
    num_output: 6
    weight_filler {
      type: "gaussian"
      std: 0.001
    }
    bias_filler {
      type: "constant"
    }
    pad_h: 2
    pad_w: 1
    kernel_h: 5
    kernel_w: 3
  }
}
layer {
  name: "detection_loss_1_3x5"
  type: "Detection"
  bottom: "LFCN_1_3x5"
  bottom: "label_1_3x5"
  top: "loss_1_3x5"
  loss_weight: 0.9
  detection_param {
    cls_num: 2
    coord_num: 4
    lambda: 0.5
    field_h: 40
    field_w: 20
    downsample_rate: 8
    bb_smooth: true
    field_whr: 2
    field_xyr: 2
    bg_threshold: 0.2
    bg_multiple: 2
    sample_mode: "random"
    pos_neg_weighted: true
  }
}
layer {
  name: "detection_accuracy_1_3x5"
  type: "DetectionAccuracy"
  bottom: "LFCN_1_3x5"
  bottom: "label_1_3x5"
  top: "accuracy_1_3x5"
  top: "boxiou_1_3x5"
  detection_accuracy_param {
    cls_num: 2
    coord_num: 4
    field_h: 40
    field_w: 20
    downsample_rate: 8
    field_whr: 2
    field_xyr: 2
  }
}
layer {
  name: "LFCN_1_5x7"
  type: "Convolution"
  bottom: "loss1_conv1"
  top: "LFCN_1_5x7"
  param {
    lr_mult: 1
    decay_mult: 1
  }
  param {
    lr_mult: 2
    decay_mult: 0
  }
  convolution_param {
    num_output: 6
    weight_filler {
      type: "gaussian"
      std: 0.001
    }
    bias_filler {
      type: "constant"
    }
    pad_h: 3
    pad_w: 2
    kernel_h: 7
    kernel_w: 5
  }
}
layer {
  name: "detection_loss_1_5x7"
  type: "Detection"
  bottom: "LFCN_1_5x7"
  bottom: "label_1_5x7"
  top: "loss_1_5x7"
  loss_weight: 0.9
  detection_param {
    cls_num: 2
    coord_num: 4
    lambda: 0.5
    field_h: 56
    field_w: 28
    downsample_rate: 8
    bb_smooth: true
    field_whr: 2
    field_xyr: 2
    bg_threshold: 0.2
    bg_multiple: 2
    sample_mode: "random"
    pos_neg_weighted: true
  }
}
layer {
  name: "detection_accuracy_1_5x7"
  type: "DetectionAccuracy"
  bottom: "LFCN_1_5x7"
  bottom: "label_1_5x7"
  top: "accuracy_1_5x7"
  top: "boxiou_1_5x7"
  detection_accuracy_param {
    cls_num: 2
    coord_num: 4
    field_h: 56
    field_w: 28
    downsample_rate: 8
    field_whr: 2
    field_xyr: 2
  }
}
layer {
  name: "pool4"
  type: "Pooling"
  bottom: "conv4_3"
  top: "pool4"
  pooling_param {
    pool: MAX
    kernel_size: 2
    stride: 2
  }
}
layer {
  name: "conv5_1"
  type: "Convolution"
  bottom: "pool4"
  top: "conv5_1"
  convolution_param {
    num_output: 512
    pad: 1
    kernel_size: 3
  }
}
layer {
  name: "relu5_1"
  type: "ReLU"
  bottom: "conv5_1"
  top: "conv5_1"
}
layer {
  name: "conv5_2"
  type: "Convolution"
  bottom: "conv5_1"
  top: "conv5_2"
  convolution_param {
    num_output: 512
    pad: 1
    kernel_size: 3
  }
}
layer {
  name: "relu5_2"
  type: "ReLU"
  bottom: "conv5_2"
  top: "conv5_2"
}
layer {
  name: "conv5_3"
  type: "Convolution"
  bottom: "conv5_2"
  top: "conv5_3"
  convolution_param {
    num_output: 512
    pad: 1
    kernel_size: 3
  }
}
layer {
  name: "relu5_3"
  type: "ReLU"
  bottom: "conv5_3"
  top: "conv5_3"
}
layer {
  name: "LFCN_2_3x5"
  type: "Convolution"
  bottom: "conv5_3"
  top: "LFCN_2_3x5"
  param {
    lr_mult: 1
    decay_mult: 1
  }
  param {
    lr_mult: 2
    decay_mult: 0
  }
  convolution_param {
    num_output: 6
    weight_filler {
      type: "gaussian"
      std: 0.001
    }
    bias_filler {
      type: "constant"
    }
    pad_h: 2
    pad_w: 1
    kernel_h: 5
    kernel_w: 3
  }
}
layer {
  name: "detection_loss_2_3x5"
  type: "Detection"
  bottom: "LFCN_2_3x5"
  bottom: "label_2_3x5"
  top: "loss_2_3x5"
  detection_param {
    cls_num: 2
    coord_num: 4
    lambda: 0.5
    field_h: 80
    field_w: 40
    downsample_rate: 16
    bb_smooth: true
    field_whr: 2
    field_xyr: 2
    bg_threshold: 0.2
    bg_multiple: 2
    sample_mode: "random"
    pos_neg_weighted: true
  }
}
layer {
  name: "detection_accuracy_2_3x5"
  type: "DetectionAccuracy"
  bottom: "LFCN_2_3x5"
  bottom: "label_2_3x5"
  top: "accuracy_2_3x5"
  top: "boxiou_2_3x5"
  detection_accuracy_param {
    cls_num: 2
    coord_num: 4
    field_h: 80
    field_w: 40
    downsample_rate: 16
    field_whr: 2
    field_xyr: 2
  }
}
layer {
  name: "LFCN_2_5x7"
  type: "Convolution"
  bottom: "conv5_3"
  top: "LFCN_2_5x7"
  param {
    lr_mult: 1
    decay_mult: 1
  }
  param {
    lr_mult: 2
    decay_mult: 0
  }
  convolution_param {
    num_output: 6
    weight_filler {
      type: "gaussian"
      std: 0.001
    }
    bias_filler {
      type: "constant"
    }
    pad_h: 3
    pad_w: 2
    kernel_h: 7
    kernel_w: 5
  }
}
layer {
  name: "detection_loss_2_5x7"
  type: "Detection"
  bottom: "LFCN_2_5x7"
  bottom: "label_2_5x7"
  top: "loss_2_5x7"
  detection_param {
    cls_num: 2
    coord_num: 4
    lambda: 0.5
    field_h: 112
    field_w: 56
    downsample_rate: 16
    bb_smooth: true
    field_whr: 2
    field_xyr: 2
    bg_threshold: 0.2
    bg_multiple: 2
    sample_mode: "random"
    pos_neg_weighted: true
  }
}
layer {
  name: "detection_accuracy_2_5x7"
  type: "DetectionAccuracy"
  bottom: "LFCN_2_5x7"
  bottom: "label_2_5x7"
  top: "accuracy_2_5x7"
  top: "boxiou_2_5x7"
  detection_accuracy_param {
    cls_num: 2
    coord_num: 4
    field_h: 112
    field_w: 56
    downsample_rate: 16
    field_whr: 2
    field_xyr: 2
  }
}
layer {
  name: "pool5"
  type: "Pooling"
  bottom: "conv5_3"
  top: "pool5"
  pooling_param {
    pool: MAX
    kernel_size: 2
    stride: 2
  }
}
layer {
  name: "conv6_1"
  type: "Convolution"
  bottom: "pool5"
  top: "conv6_1"
  param {
    lr_mult: 1
    decay_mult: 1
  }
  param {
    lr_mult: 2
    decay_mult: 0
  }
  convolution_param {
    num_output: 512
    pad: 1
    kernel_size: 3
    weight_filler {
      type: "gaussian"
      std: 0.01
    }
    bias_filler {
      type: "constant"
    }
  }
}
layer {
  name: "relu6_1"
  type: "ReLU"
  bottom: "conv6_1"
  top: "conv6_1"
}
layer {
  name: "LFCN_3_3x5"
  type: "Convolution"
  bottom: "conv6_1"
  top: "LFCN_3_3x5"
  param {
    lr_mult: 1
    decay_mult: 1
  }
  param {
    lr_mult: 2
    decay_mult: 0
  }
  convolution_param {
    num_output: 6
    weight_filler {
      type: "gaussian"
      std: 0.001
    }
    bias_filler {
      type: "constant"
    }
    pad_h: 2
    pad_w: 1
    kernel_h: 5
    kernel_w: 3
  }
}
layer {
  name: "detection_loss_3_3x5"
  type: "Detection"
  bottom: "LFCN_3_3x5"
  bottom: "label_3_3x5"
  top: "loss_3_3x5"
  detection_param {
    cls_num: 2
    coord_num: 4
    lambda: 0.5
    field_h: 160
    field_w: 80
    downsample_rate: 32
    bb_smooth: true
    field_whr: 2
    field_xyr: 2
    bg_threshold: 0.2
    bg_multiple: 2
    sample_mode: "random"
    pos_neg_weighted: true
  }
}
layer {
  name: "detection_accuracy_3_3x5"
  type: "DetectionAccuracy"
  bottom: "LFCN_3_3x5"
  bottom: "label_3_3x5"
  top: "accuracy_3_3x5"
  top: "boxiou_3_3x5"
  detection_accuracy_param {
    cls_num: 2
    coord_num: 4
    field_h: 160
    field_w: 80
    downsample_rate: 32
    field_whr: 2
    field_xyr: 2
  }
}
layer {
  name: "LFCN_3_5x7"
  type: "Convolution"
  bottom: "conv6_1"
  top: "LFCN_3_5x7"
  param {
    lr_mult: 1
    decay_mult: 1
  }
  param {
    lr_mult: 2
    decay_mult: 0
  }
  convolution_param {
    num_output: 6
    weight_filler {
      type: "gaussian"
      std: 0.001
    }
    bias_filler {
      type: "constant"
    }
    pad_h: 3
    pad_w: 2
    kernel_h: 7
    kernel_w: 5
  }
}
layer {
  name: "detection_loss_3_5x7"
  type: "Detection"
  bottom: "LFCN_3_5x7"
  bottom: "label_3_5x7"
  top: "loss_3_5x7"
  detection_param {
    cls_num: 2
    coord_num: 4
    lambda: 0.5
    field_h: 224
    field_w: 112
    downsample_rate: 32
    bb_smooth: true
    field_whr: 2
    field_xyr: 2
    bg_threshold: 0.2
    bg_multiple: 2
    sample_mode: "random"
    pos_neg_weighted: true
  }
}
layer {
  name: "detection_accuracy_3_5x7"
  type: "DetectionAccuracy"
  bottom: "LFCN_3_5x7"
  bottom: "label_3_5x7"
  top: "accuracy_3_5x7"
  top: "boxiou_3_5x7"
  detection_accuracy_param {
    cls_num: 2
    coord_num: 4
    field_h: 224
    field_w: 112
    downsample_rate: 32
    field_whr: 2
    field_xyr: 2
  }
}
layer {
  name: "pool6"
  type: "Pooling"
  bottom: "conv6_1"
  top: "pool6"
  pooling_param {
    pool: MAX
    kernel_size: 2
    stride: 2
  }
}
layer {
  name: "LFCN_4_3x5"
  type: "Convolution"
  bottom: "pool6"
  top: "LFCN_4_3x5"
  param {
    lr_mult: 1
    decay_mult: 1
  }
  param {
    lr_mult: 2
    decay_mult: 0
  }
  convolution_param {
    num_output: 6
    weight_filler {
      type: "gaussian"
      std: 0.001
    }
    bias_filler {
      type: "constant"
    }
    pad_h: 2
    pad_w: 1
    kernel_h: 5
    kernel_w: 3
  }
}
layer {
  name: "detection_loss_4_3x5"
  type: "Detection"
  bottom: "LFCN_4_3x5"
  bottom: "label_4_3x5"
  top: "loss_4_3x5"
  detection_param {
    cls_num: 2
    coord_num: 4
    lambda: 0.5
    field_h: 320
    field_w: 160
    downsample_rate: 64
    bb_smooth: true
    field_whr: 2
    field_xyr: 2
    bg_threshold: 0.2
    bg_multiple: 2
    sample_mode: "random"
    pos_neg_weighted: true
  }
}
layer {
  name: "detection_accuracy_4_3x5"
  type: "DetectionAccuracy"
  bottom: "LFCN_4_3x5"
  bottom: "label_4_3x5"
  top: "accuracy_4_3x5"
  top: "boxiou_4_3x5"
  detection_accuracy_param {
    cls_num: 2
    coord_num: 4
    field_h: 320
    field_w: 160
    downsample_rate: 64
    field_whr: 2
    field_xyr: 2
  }
}
I1007 03:19:01.534453 18851 layer_factory.hpp:76] Creating layer data
I1007 03:19:01.534521 18851 net.cpp:106] Creating Layer data
I1007 03:19:01.534531 18851 net.cpp:411] data -> data
…
I1007 03:19:01.789321 18851 image_gt_data_layer.cpp:234] output label size 1 : 4,6,56,56
I1007 03:19:01.789371 18851 image_gt_data_layer.cpp:234] output label size 2 : 4,6,28,28
I1007 03:19:01.789420 18851 image_gt_data_layer.cpp:234] output label size 3 : 4,6,28,28
I1007 03:19:01.789471 18851 image_gt_data_layer.cpp:234] output label size 4 : 4,6,14,14
I1007 03:19:01.789530 18851 image_gt_data_layer.cpp:234] output label size 5 : 4,6,14,14
I1007 03:19:01.789575 18851 image_gt_data_layer.cpp:234] output label size 6 : 4,6,7,7
I1007 03:19:01.812785 18851 net.cpp:150] Setting up data
I1007 03:19:01.812816 18851 net.cpp:157] Top shape: 4 3 448 448 (2408448)
I1007 03:19:01.812822 18851 net.cpp:157] Top shape: 4 6 56 56 (75264)
I1007 03:19:01.812827 18851 net.cpp:157] Top shape: 4 6 56 56 (75264)
I1007 03:19:01.812831 18851 net.cpp:157] Top shape: 4 6 28 28 (18816)
I1007 03:19:01.812835 18851 net.cpp:157] Top shape: 4 6 28 28 (18816)
I1007 03:19:01.812839 18851 net.cpp:157] Top shape: 4 6 14 14 (4704)
I1007 03:19:01.812844 18851 net.cpp:157] Top shape: 4 6 14 14 (4704)
I1007 03:19:01.812847 18851 net.cpp:157] Top shape: 4 6 7 7 (1176)
I1007 03:19:01.812850 18851 net.cpp:165] Memory required for data: 10428768
I1007 03:19:01.812858 18851 layer_factory.hpp:76] Creating layer label_1_3x5_data_1_split
I1007 03:19:01.812877 18851 net.cpp:106] Creating Layer label_1_3x5_data_1_split
I1007 03:19:01.812885 18851 net.cpp:454] label_1_3x5_data_1_split <- label_1_3x5
I1007 03:19:01.812898 18851 net.cpp:411] label_1_3x5_data_1_split -> label_1_3x5_data_1_split_0
I1007 03:19:01.812916 18851 net.cpp:411] label_1_3x5_data_1_split -> label_1_3x5_data_1_split_1
I1007 03:19:01.813068 18851 net.cpp:150] Setting up label_1_3x5_data_1_split
I1007 03:19:01.813077 18851 net.cpp:157] Top shape: 4 6 56 56 (75264)
I1007 03:19:01.813081 18851 net.cpp:157] Top shape: 4 6 56 56 (75264)
I1007 03:19:01.813084 18851 net.cpp:165] Memory required for data: 11030880
I1007 03:19:01.813087 18851 layer_factory.hpp:76] Creating layer label_1_5x7_data_2_split
I1007 03:19:01.813098 18851 net.cpp:106] Creating Layer label_1_5x7_data_2_split
I1007 03:19:01.813102 18851 net.cpp:454] label_1_5x7_data_2_split <- label_1_5x7
I1007 03:19:01.813107 18851 net.cpp:411] label_1_5x7_data_2_split -> label_1_5x7_data_2_split_0
I1007 03:19:01.813113 18851 net.cpp:411] label_1_5x7_data_2_split -> label_1_5x7_data_2_split_1
I1007 03:19:01.813201 18851 net.cpp:150] Setting up label_1_5x7_data_2_split
I1007 03:19:01.813210 18851 net.cpp:157] Top shape: 4 6 56 56 (75264)
I1007 03:19:01.813213 18851 net.cpp:157] Top shape: 4 6 56 56 (75264)
I1007 03:19:01.813215 18851 net.cpp:165] Memory required for data: 11632992
I1007 03:19:01.813218 18851 layer_factory.hpp:76] Creating layer label_2_3x5_data_3_split
I1007 03:19:01.813225 18851 net.cpp:106] Creating Layer label_2_3x5_data_3_split
I1007 03:19:01.813230 18851 net.cpp:454] label_2_3x5_data_3_split <- label_2_3x5
I1007 03:19:01.813235 18851 net.cpp:411] label_2_3x5_data_3_split -> label_2_3x5_data_3_split_0
I1007 03:19:01.813240 18851 net.cpp:411] label_2_3x5_data_3_split -> label_2_3x5_data_3_split_1
I1007 03:19:01.813305 18851 net.cpp:150] Setting up label_2_3x5_data_3_split
I1007 03:19:01.813313 18851 net.cpp:157] Top shape: 4 6 28 28 (18816)
I1007 03:19:01.813318 18851 net.cpp:157] Top shape: 4 6 28 28 (18816)
I1007 03:19:01.813320 18851 net.cpp:165] Memory required for data: 11783520
I1007 03:19:01.813323 18851 layer_factory.hpp:76] Creating layer label_2_5x7_data_4_split
I1007 03:19:01.813330 18851 net.cpp:106] Creating Layer label_2_5x7_data_4_split
I1007 03:19:01.813334 18851 net.cpp:454] label_2_5x7_data_4_split <- label_2_5x7
I1007 03:19:01.813339 18851 net.cpp:411] label_2_5x7_data_4_split -> label_2_5x7_data_4_split_0
I1007 03:19:01.813344 18851 net.cpp:411] label_2_5x7_data_4_split -> label_2_5x7_data_4_split_1
I1007 03:19:01.813375 18851 net.cpp:150] Setting up label_2_5x7_data_4_split
I1007 03:19:01.813380 18851 net.cpp:157] Top shape: 4 6 28 28 (18816)
I1007 03:19:01.813383 18851 net.cpp:157] Top shape: 4 6 28 28 (18816)
I1007 03:19:01.813386 18851 net.cpp:165] Memory required for data: 11934048
I1007 03:19:01.813390 18851 layer_factory.hpp:76] Creating layer label_3_3x5_data_5_split
I1007 03:19:01.813395 18851 net.cpp:106] Creating Layer label_3_3x5_data_5_split
I1007 03:19:01.813398 18851 net.cpp:454] label_3_3x5_data_5_split <- label_3_3x5
I1007 03:19:01.813403 18851 net.cpp:411] label_3_3x5_data_5_split -> label_3_3x5_data_5_split_0
I1007 03:19:01.813410 18851 net.cpp:411] label_3_3x5_data_5_split -> label_3_3x5_data_5_split_1
I1007 03:19:01.813439 18851 net.cpp:150] Setting up label_3_3x5_data_5_split
I1007 03:19:01.813446 18851 net.cpp:157] Top shape: 4 6 14 14 (4704)
I1007 03:19:01.813451 18851 net.cpp:157] Top shape: 4 6 14 14 (4704)
I1007 03:19:01.813452 18851 net.cpp:165] Memory required for data: 11971680
I1007 03:19:01.813455 18851 layer_factory.hpp:76] Creating layer label_3_5x7_data_6_split
I1007 03:19:01.813460 18851 net.cpp:106] Creating Layer label_3_5x7_data_6_split
I1007 03:19:01.813463 18851 net.cpp:454] label_3_5x7_data_6_split <- label_3_5x7
I1007 03:19:01.813468 18851 net.cpp:411] label_3_5x7_data_6_split -> label_3_5x7_data_6_split_0
I1007 03:19:01.813473 18851 net.cpp:411] label_3_5x7_data_6_split -> label_3_5x7_data_6_split_1
I1007 03:19:01.813503 18851 net.cpp:150] Setting up label_3_5x7_data_6_split
I1007 03:19:01.813508 18851 net.cpp:157] Top shape: 4 6 14 14 (4704)
I1007 03:19:01.813510 18851 net.cpp:157] Top shape: 4 6 14 14 (4704)
I1007 03:19:01.813513 18851 net.cpp:165] Memory required for data: 12009312
I1007 03:19:01.813515 18851 layer_factory.hpp:76] Creating layer label_4_3x5_data_7_split
I1007 03:19:01.813521 18851 net.cpp:106] Creating Layer label_4_3x5_data_7_split
I1007 03:19:01.813524 18851 net.cpp:454] label_4_3x5_data_7_split <- label_4_3x5
I1007 03:19:01.813529 18851 net.cpp:411] label_4_3x5_data_7_split -> label_4_3x5_data_7_split_0
I1007 03:19:01.813534 18851 net.cpp:411] label_4_3x5_data_7_split -> label_4_3x5_data_7_split_1
I1007 03:19:01.813562 18851 net.cpp:150] Setting up label_4_3x5_data_7_split
I1007 03:19:01.813567 18851 net.cpp:157] Top shape: 4 6 7 7 (1176)
I1007 03:19:01.813570 18851 net.cpp:157] Top shape: 4 6 7 7 (1176)
I1007 03:19:01.813573 18851 net.cpp:165] Memory required for data: 12018720
I1007 03:19:01.813575 18851 layer_factory.hpp:76] Creating layer conv1_1
I1007 03:19:01.813585 18851 net.cpp:106] Creating Layer conv1_1
I1007 03:19:01.813588 18851 net.cpp:454] conv1_1 <- data
I1007 03:19:01.813593 18851 net.cpp:411] conv1_1 -> conv1_1
I1007 03:19:01.955255 18851 net.cpp:150] Setting up conv1_1
I1007 03:19:01.955315 18851 net.cpp:157] Top shape: 4 64 448 448 (51380224)
I1007 03:19:01.955322 18851 net.cpp:165] Memory required for data: 217539616
I1007 03:19:01.955358 18851 layer_factory.hpp:76] Creating layer relu1_1
I1007 03:19:01.955379 18851 net.cpp:106] Creating Layer relu1_1
I1007 03:19:01.955389 18851 net.cpp:454] relu1_1 <- conv1_1
I1007 03:19:01.955401 18851 net.cpp:397] relu1_1 -> conv1_1 (in-place)
I1007 03:19:01.955718 18851 net.cpp:150] Setting up relu1_1
I1007 03:19:01.955734 18851 net.cpp:157] Top shape: 4 64 448 448 (51380224)
I1007 03:19:01.955739 18851 net.cpp:165] Memory required for data: 423060512
I1007 03:19:01.955744 18851 layer_factory.hpp:76] Creating layer conv1_2
I1007 03:19:01.955763 18851 net.cpp:106] Creating Layer conv1_2
I1007 03:19:01.955770 18851 net.cpp:454] conv1_2 <- conv1_1
I1007 03:19:01.955781 18851 net.cpp:411] conv1_2 -> conv1_2
I1007 03:19:01.958328 18851 net.cpp:150] Setting up conv1_2
I1007 03:19:01.958379 18851 net.cpp:157] Top shape: 4 64 448 448 (51380224)
I1007 03:19:01.958385 18851 net.cpp:165] Memory required for data: 628581408
I1007 03:19:01.958413 18851 layer_factory.hpp:76] Creating layer relu1_2
I1007 03:19:01.958442 18851 net.cpp:106] Creating Layer relu1_2
I1007 03:19:01.958451 18851 net.cpp:454] relu1_2 <- conv1_2
I1007 03:19:01.958463 18851 net.cpp:397] relu1_2 -> conv1_2 (in-place)
I1007 03:19:01.958963 18851 net.cpp:150] Setting up relu1_2
I1007 03:19:01.958982 18851 net.cpp:157] Top shape: 4 64 448 448 (51380224)
I1007 03:19:01.958997 18851 net.cpp:165] Memory required for data: 834102304
I1007 03:19:01.959014 18851 layer_factory.hpp:76] Creating layer pool1
I1007 03:19:01.959027 18851 net.cpp:106] Creating Layer pool1
I1007 03:19:01.959033 18851 net.cpp:454] pool1 <- conv1_2
I1007 03:19:01.959044 18851 net.cpp:411] pool1 -> pool1
I1007 03:19:01.959386 18851 net.cpp:150] Setting up pool1
I1007 03:19:01.959403 18851 net.cpp:157] Top shape: 4 64 224 224 (12845056)
I1007 03:19:01.959408 18851 net.cpp:165] Memory required for data: 885482528
I1007 03:19:01.959414 18851 layer_factory.hpp:76] Creating layer conv2_1
I1007 03:19:01.959429 18851 net.cpp:106] Creating Layer conv2_1
I1007 03:19:01.959435 18851 net.cpp:454] conv2_1 <- pool1
I1007 03:19:01.959446 18851 net.cpp:411] conv2_1 -> conv2_1
I1007 03:19:01.961805 18851 net.cpp:150] Setting up conv2_1
I1007 03:19:01.961854 18851 net.cpp:157] Top shape: 4 128 224 224 (25690112)
I1007 03:19:01.961860 18851 net.cpp:165] Memory required for data: 988242976
I1007 03:19:01.961884 18851 layer_factory.hpp:76] Creating layer relu2_1
I1007 03:19:01.961899 18851 net.cpp:106] Creating Layer relu2_1
I1007 03:19:01.961917 18851 net.cpp:454] relu2_1 <- conv2_1
I1007 03:19:01.961930 18851 net.cpp:397] relu2_1 -> conv2_1 (in-place)
I1007 03:19:01.962416 18851 net.cpp:150] Setting up relu2_1
I1007 03:19:01.962455 18851 net.cpp:157] Top shape: 4 128 224 224 (25690112)
I1007 03:19:01.962461 18851 net.cpp:165] Memory required for data: 1091003424
I1007 03:19:01.962478 18851 layer_factory.hpp:76] Creating layer conv2_2
I1007 03:19:01.962494 18851 net.cpp:106] Creating Layer conv2_2
I1007 03:19:01.962501 18851 net.cpp:454] conv2_2 <- conv2_1
I1007 03:19:01.962522 18851 net.cpp:411] conv2_2 -> conv2_2
I1007 03:19:01.964052 18851 net.cpp:150] Setting up conv2_2
I1007 03:19:01.964092 18851 net.cpp:157] Top shape: 4 128 224 224 (25690112)
I1007 03:19:01.964097 18851 net.cpp:165] Memory required for data: 1193763872
I1007 03:19:01.964108 18851 layer_factory.hpp:76] Creating layer relu2_2
I1007 03:19:01.964125 18851 net.cpp:106] Creating Layer relu2_2
I1007 03:19:01.964143 18851 net.cpp:454] relu2_2 <- conv2_2
I1007 03:19:01.964151 18851 net.cpp:397] relu2_2 -> conv2_2 (in-place)
I1007 03:19:01.964646 18851 net.cpp:150] Setting up relu2_2
I1007 03:19:01.964674 18851 net.cpp:157] Top shape: 4 128 224 224 (25690112)
I1007 03:19:01.964690 18851 net.cpp:165] Memory required for data: 1296524320
I1007 03:19:01.964706 18851 layer_factory.hpp:76] Creating layer pool2
I1007 03:19:01.964728 18851 net.cpp:106] Creating Layer pool2
I1007 03:19:01.964735 18851 net.cpp:454] pool2 <- conv2_2
I1007 03:19:01.964746 18851 net.cpp:411] pool2 -> pool2
I1007 03:19:01.965065 18851 net.cpp:150] Setting up pool2
I1007 03:19:01.965080 18851 net.cpp:157] Top shape: 4 128 112 112 (6422528)
I1007 03:19:01.965088 18851 net.cpp:165] Memory required for data: 1322214432
I1007 03:19:01.965095 18851 layer_factory.hpp:76] Creating layer conv3_1
I1007 03:19:01.965111 18851 net.cpp:106] Creating Layer conv3_1
I1007 03:19:01.965116 18851 net.cpp:454] conv3_1 <- pool2
I1007 03:19:01.965128 18851 net.cpp:411] conv3_1 -> conv3_1
I1007 03:19:01.967748 18851 net.cpp:150] Setting up conv3_1
I1007 03:19:01.967804 18851 net.cpp:157] Top shape: 4 256 112 112 (12845056)
I1007 03:19:01.967810 18851 net.cpp:165] Memory required for data: 1373594656
I1007 03:19:01.967835 18851 layer_factory.hpp:76] Creating layer relu3_1
I1007 03:19:01.967854 18851 net.cpp:106] Creating Layer relu3_1
I1007 03:19:01.967872 18851 net.cpp:454] relu3_1 <- conv3_1
I1007 03:19:01.967885 18851 net.cpp:397] relu3_1 -> conv3_1 (in-place)
I1007 03:19:01.968361 18851 net.cpp:150] Setting up relu3_1
I1007 03:19:01.968379 18851 net.cpp:157] Top shape: 4 256 112 112 (12845056)
I1007 03:19:01.968384 18851 net.cpp:165] Memory required for data: 1424974880
I1007 03:19:01.968389 18851 layer_factory.hpp:76] Creating layer conv3_2
I1007 03:19:01.968416 18851 net.cpp:106] Creating Layer conv3_2
I1007 03:19:01.968422 18851 net.cpp:454] conv3_2 <- conv3_1
I1007 03:19:01.968432 18851 net.cpp:411] conv3_2 -> conv3_2
I1007 03:19:01.972862 18851 net.cpp:150] Setting up conv3_2
I1007 03:19:01.972932 18851 net.cpp:157] Top shape: 4 256 112 112 (12845056)
I1007 03:19:01.972940 18851 net.cpp:165] Memory required for data: 1476355104
I1007 03:19:01.972959 18851 layer_factory.hpp:76] Creating layer relu3_2
I1007 03:19:01.972986 18851 net.cpp:106] Creating Layer relu3_2
I1007 03:19:01.972997 18851 net.cpp:454] relu3_2 <- conv3_2
I1007 03:19:01.973011 18851 net.cpp:397] relu3_2 -> conv3_2 (in-place)
I1007 03:19:01.973816 18851 net.cpp:150] Setting up relu3_2
I1007 03:19:01.973847 18851 net.cpp:157] Top shape: 4 256 112 112 (12845056)
I1007 03:19:01.973855 18851 net.cpp:165] Memory required for data: 1527735328
I1007 03:19:01.973860 18851 layer_factory.hpp:76] Creating layer conv3_3
I1007 03:19:01.973881 18851 net.cpp:106] Creating Layer conv3_3
I1007 03:19:01.973888 18851 net.cpp:454] conv3_3 <- conv3_2
I1007 03:19:01.973904 18851 net.cpp:411] conv3_3 -> conv3_3
I1007 03:19:01.978967 18851 net.cpp:150] Setting up conv3_3
I1007 03:19:01.979019 18851 net.cpp:157] Top shape: 4 256 112 112 (12845056)
I1007 03:19:01.979027 18851 net.cpp:165] Memory required for data: 1579115552
I1007 03:19:01.979044 18851 layer_factory.hpp:76] Creating layer relu3_3
I1007 03:19:01.979074 18851 net.cpp:106] Creating Layer relu3_3
I1007 03:19:01.979084 18851 net.cpp:454] relu3_3 <- conv3_3
I1007 03:19:01.979099 18851 net.cpp:397] relu3_3 -> conv3_3 (in-place)
I1007 03:19:01.979490 18851 net.cpp:150] Setting up relu3_3
I1007 03:19:01.979512 18851 net.cpp:157] Top shape: 4 256 112 112 (12845056)
I1007 03:19:01.979518 18851 net.cpp:165] Memory required for data: 1630495776
I1007 03:19:01.979526 18851 layer_factory.hpp:76] Creating layer pool3
I1007 03:19:01.979542 18851 net.cpp:106] Creating Layer pool3
I1007 03:19:01.979548 18851 net.cpp:454] pool3 <- conv3_3
I1007 03:19:01.979559 18851 net.cpp:411] pool3 -> pool3
I1007 03:19:01.980275 18851 net.cpp:150] Setting up pool3
I1007 03:19:01.980299 18851 net.cpp:157] Top shape: 4 256 56 56 (3211264)
I1007 03:19:01.980306 18851 net.cpp:165] Memory required for data: 1643340832
I1007 03:19:01.980312 18851 layer_factory.hpp:76] Creating layer conv4_1
I1007 03:19:01.980330 18851 net.cpp:106] Creating Layer conv4_1
I1007 03:19:01.980339 18851 net.cpp:454] conv4_1 <- pool3
I1007 03:19:01.980356 18851 net.cpp:411] conv4_1 -> conv4_1
I1007 03:19:01.988773 18851 net.cpp:150] Setting up conv4_1
I1007 03:19:01.988828 18851 net.cpp:157] Top shape: 4 512 56 56 (6422528)
I1007 03:19:01.988836 18851 net.cpp:165] Memory required for data: 1669030944
I1007 03:19:01.988850 18851 layer_factory.hpp:76] Creating layer relu4_1
I1007 03:19:01.988870 18851 net.cpp:106] Creating Layer relu4_1
I1007 03:19:01.988886 18851 net.cpp:454] relu4_1 <- conv4_1
I1007 03:19:01.988898 18851 net.cpp:397] relu4_1 -> conv4_1 (in-place)
I1007 03:19:01.989267 18851 net.cpp:150] Setting up relu4_1
I1007 03:19:01.989287 18851 net.cpp:157] Top shape: 4 512 56 56 (6422528)
I1007 03:19:01.989292 18851 net.cpp:165] Memory required for data: 1694721056
I1007 03:19:01.989298 18851 layer_factory.hpp:76] Creating layer conv4_2
I1007 03:19:01.989315 18851 net.cpp:106] Creating Layer conv4_2
I1007 03:19:01.989322 18851 net.cpp:454] conv4_2 <- conv4_1
I1007 03:19:01.989334 18851 net.cpp:411] conv4_2 -> conv4_2
I1007 03:19:02.000764 18851 net.cpp:150] Setting up conv4_2
I1007 03:19:02.000823 18851 net.cpp:157] Top shape: 4 512 56 56 (6422528)
I1007 03:19:02.000830 18851 net.cpp:165] Memory required for data: 1720411168
I1007 03:19:02.000862 18851 layer_factory.hpp:76] Creating layer relu4_2
I1007 03:19:02.000887 18851 net.cpp:106] Creating Layer relu4_2
I1007 03:19:02.000895 18851 net.cpp:454] relu4_2 <- conv4_2
I1007 03:19:02.000906 18851 net.cpp:397] relu4_2 -> conv4_2 (in-place)
I1007 03:19:02.001498 18851 net.cpp:150] Setting up relu4_2
I1007 03:19:02.001528 18851 net.cpp:157] Top shape: 4 512 56 56 (6422528)
I1007 03:19:02.001534 18851 net.cpp:165] Memory required for data: 1746101280
I1007 03:19:02.001540 18851 layer_factory.hpp:76] Creating layer conv4_3
I1007 03:19:02.001555 18851 net.cpp:106] Creating Layer conv4_3
I1007 03:19:02.001561 18851 net.cpp:454] conv4_3 <- conv4_2
I1007 03:19:02.001574 18851 net.cpp:411] conv4_3 -> conv4_3
I1007 03:19:02.012547 18851 net.cpp:150] Setting up conv4_3
I1007 03:19:02.012606 18851 net.cpp:157] Top shape: 4 512 56 56 (6422528)
I1007 03:19:02.012612 18851 net.cpp:165] Memory required for data: 1771791392
I1007 03:19:02.012629 18851 layer_factory.hpp:76] Creating layer relu4_3
I1007 03:19:02.012647 18851 net.cpp:106] Creating Layer relu4_3
I1007 03:19:02.012655 18851 net.cpp:454] relu4_3 <- conv4_3
I1007 03:19:02.012670 18851 net.cpp:397] relu4_3 -> conv4_3 (in-place)
I1007 03:19:02.013278 18851 net.cpp:150] Setting up relu4_3
I1007 03:19:02.013305 18851 net.cpp:157] Top shape: 4 512 56 56 (6422528)
I1007 03:19:02.013310 18851 net.cpp:165] Memory required for data: 1797481504
I1007 03:19:02.013316 18851 layer_factory.hpp:76] Creating layer conv4_3_relu4_3_0_split
I1007 03:19:02.013329 18851 net.cpp:106] Creating Layer conv4_3_relu4_3_0_split
I1007 03:19:02.013335 18851 net.cpp:454] conv4_3_relu4_3_0_split <- conv4_3
I1007 03:19:02.013345 18851 net.cpp:411] conv4_3_relu4_3_0_split -> conv4_3_relu4_3_0_split_0
I1007 03:19:02.013363 18851 net.cpp:411] conv4_3_relu4_3_0_split -> conv4_3_relu4_3_0_split_1
I1007 03:19:02.013453 18851 net.cpp:150] Setting up conv4_3_relu4_3_0_split
I1007 03:19:02.013474 18851 net.cpp:157] Top shape: 4 512 56 56 (6422528)
I1007 03:19:02.013485 18851 net.cpp:157] Top shape: 4 512 56 56 (6422528)
I1007 03:19:02.013492 18851 net.cpp:165] Memory required for data: 1848861728
I1007 03:19:02.013500 18851 layer_factory.hpp:76] Creating layer loss1_conv1
I1007 03:19:02.013526 18851 net.cpp:106] Creating Layer loss1_conv1
I1007 03:19:02.013532 18851 net.cpp:454] loss1_conv1 <- conv4_3_relu4_3_0_split_0
I1007 03:19:02.013545 18851 net.cpp:411] loss1_conv1 -> loss1_conv1
I1007 03:19:02.125803 18851 net.cpp:150] Setting up loss1_conv1
I1007 03:19:02.125860 18851 net.cpp:157] Top shape: 4 512 56 56 (6422528)
I1007 03:19:02.125865 18851 net.cpp:165] Memory required for data: 1874551840
I1007 03:19:02.125877 18851 layer_factory.hpp:76] Creating layer loss_relu1
I1007 03:19:02.125893 18851 net.cpp:106] Creating Layer loss_relu1
I1007 03:19:02.125901 18851 net.cpp:454] loss_relu1 <- loss1_conv1
I1007 03:19:02.125910 18851 net.cpp:397] loss_relu1 -> loss1_conv1 (in-place)
I1007 03:19:02.126130 18851 net.cpp:150] Setting up loss_relu1
I1007 03:19:02.126142 18851 net.cpp:157] Top shape: 4 512 56 56 (6422528)
I1007 03:19:02.126145 18851 net.cpp:165] Memory required for data: 1900241952
I1007 03:19:02.126150 18851 layer_factory.hpp:76] Creating layer loss1_conv1_loss_relu1_0_split
I1007 03:19:02.126158 18851 net.cpp:106] Creating Layer loss1_conv1_loss_relu1_0_split
I1007 03:19:02.126163 18851 net.cpp:454] loss1_conv1_loss_relu1_0_split <- loss1_conv1
I1007 03:19:02.126174 18851 net.cpp:411] loss1_conv1_loss_relu1_0_split -> loss1_conv1_loss_relu1_0_split_0
I1007 03:19:02.126183 18851 net.cpp:411] loss1_conv1_loss_relu1_0_split -> loss1_conv1_loss_relu1_0_split_1
I1007 03:19:02.126233 18851 net.cpp:150] Setting up loss1_conv1_loss_relu1_0_split
I1007 03:19:02.126242 18851 net.cpp:157] Top shape: 4 512 56 56 (6422528)
I1007 03:19:02.126248 18851 net.cpp:157] Top shape: 4 512 56 56 (6422528)
I1007 03:19:02.126251 18851 net.cpp:165] Memory required for data: 1951622176
I1007 03:19:02.126255 18851 layer_factory.hpp:76] Creating layer LFCN_1_3x5
I1007 03:19:02.126268 18851 net.cpp:106] Creating Layer LFCN_1_3x5
I1007 03:19:02.126272 18851 net.cpp:454] LFCN_1_3x5 <- loss1_conv1_loss_relu1_0_split_0
I1007 03:19:02.126278 18851 net.cpp:411] LFCN_1_3x5 -> LFCN_1_3x5
I1007 03:19:02.130079 18851 net.cpp:150] Setting up LFCN_1_3x5
I1007 03:19:02.130129 18851 net.cpp:157] Top shape: 4 6 56 56 (75264)
I1007 03:19:02.130133 18851 net.cpp:165] Memory required for data: 1951923232
I1007 03:19:02.130144 18851 layer_factory.hpp:76] Creating layer LFCN_1_3x5_LFCN_1_3x5_0_split
I1007 03:19:02.130156 18851 net.cpp:106] Creating Layer LFCN_1_3x5_LFCN_1_3x5_0_split
I1007 03:19:02.130162 18851 net.cpp:454] LFCN_1_3x5_LFCN_1_3x5_0_split <- LFCN_1_3x5
I1007 03:19:02.130172 18851 net.cpp:411] LFCN_1_3x5_LFCN_1_3x5_0_split -> LFCN_1_3x5_LFCN_1_3x5_0_split_0
I1007 03:19:02.130183 18851 net.cpp:411] LFCN_1_3x5_LFCN_1_3x5_0_split -> LFCN_1_3x5_LFCN_1_3x5_0_split_1
I1007 03:19:02.130228 18851 net.cpp:150] Setting up LFCN_1_3x5_LFCN_1_3x5_0_split
I1007 03:19:02.130234 18851 net.cpp:157] Top shape: 4 6 56 56 (75264)
I1007 03:19:02.130237 18851 net.cpp:157] Top shape: 4 6 56 56 (75264)
I1007 03:19:02.130239 18851 net.cpp:165] Memory required for data: 1952525344
I1007 03:19:02.130242 18851 layer_factory.hpp:76] Creating layer detection_loss_1_3x5
I1007 03:19:02.130252 18851 net.cpp:106] Creating Layer detection_loss_1_3x5
I1007 03:19:02.130256 18851 net.cpp:454] detection_loss_1_3x5 <- LFCN_1_3x5_LFCN_1_3x5_0_split_0
I1007 03:19:02.130260 18851 net.cpp:454] detection_loss_1_3x5 <- label_1_3x5_data_1_split_0
I1007 03:19:02.130270 18851 net.cpp:411] detection_loss_1_3x5 -> loss_1_3x5
I1007 03:19:02.130285 18851 layer_factory.hpp:76] Creating layer detection_loss_1_3x5
I1007 03:19:02.131130 18851 net.cpp:150] Setting up detection_loss_1_3x5
I1007 03:19:02.131148 18851 net.cpp:157] Top shape: 1 1 1 2 (2)
I1007 03:19:02.131158 18851 net.cpp:160]     with loss weight 0.9
I1007 03:19:02.131183 18851 net.cpp:165] Memory required for data: 1952525352
I1007 03:19:02.131187 18851 layer_factory.hpp:76] Creating layer detection_accuracy_1_3x5
I1007 03:19:02.131199 18851 net.cpp:106] Creating Layer detection_accuracy_1_3x5
I1007 03:19:02.131203 18851 net.cpp:454] detection_accuracy_1_3x5 <- LFCN_1_3x5_LFCN_1_3x5_0_split_1
I1007 03:19:02.131208 18851 net.cpp:454] detection_accuracy_1_3x5 <- label_1_3x5_data_1_split_1
I1007 03:19:02.131213 18851 net.cpp:411] detection_accuracy_1_3x5 -> accuracy_1_3x5
I1007 03:19:02.131223 18851 net.cpp:411] detection_accuracy_1_3x5 -> boxiou_1_3x5
I1007 03:19:02.131268 18851 net.cpp:150] Setting up detection_accuracy_1_3x5
I1007 03:19:02.131280 18851 net.cpp:157] Top shape: 1 1 1 2 (2)
I1007 03:19:02.131288 18851 net.cpp:157] Top shape: 1 1 1 1 (1)
I1007 03:19:02.131291 18851 net.cpp:165] Memory required for data: 1952525364
I1007 03:19:02.131296 18851 layer_factory.hpp:76] Creating layer LFCN_1_5x7
I1007 03:19:02.131316 18851 net.cpp:106] Creating Layer LFCN_1_5x7
I1007 03:19:02.131321 18851 net.cpp:454] LFCN_1_5x7 <- loss1_conv1_loss_relu1_0_split_1
I1007 03:19:02.131326 18851 net.cpp:411] LFCN_1_5x7 -> LFCN_1_5x7
I1007 03:19:02.137308 18851 net.cpp:150] Setting up LFCN_1_5x7
I1007 03:19:02.137359 18851 net.cpp:157] Top shape: 4 6 56 56 (75264)
I1007 03:19:02.137363 18851 net.cpp:165] Memory required for data: 1952826420
I1007 03:19:02.137375 18851 layer_factory.hpp:76] Creating layer LFCN_1_5x7_LFCN_1_5x7_0_split
I1007 03:19:02.137388 18851 net.cpp:106] Creating Layer LFCN_1_5x7_LFCN_1_5x7_0_split
I1007 03:19:02.137398 18851 net.cpp:454] LFCN_1_5x7_LFCN_1_5x7_0_split <- LFCN_1_5x7
I1007 03:19:02.137406 18851 net.cpp:411] LFCN_1_5x7_LFCN_1_5x7_0_split -> LFCN_1_5x7_LFCN_1_5x7_0_split_0
I1007 03:19:02.137425 18851 net.cpp:411] LFCN_1_5x7_LFCN_1_5x7_0_split -> LFCN_1_5x7_LFCN_1_5x7_0_split_1
I1007 03:19:02.137475 18851 net.cpp:150] Setting up LFCN_1_5x7_LFCN_1_5x7_0_split
I1007 03:19:02.137481 18851 net.cpp:157] Top shape: 4 6 56 56 (75264)
I1007 03:19:02.137485 18851 net.cpp:157] Top shape: 4 6 56 56 (75264)
I1007 03:19:02.137487 18851 net.cpp:165] Memory required for data: 1953428532
I1007 03:19:02.137490 18851 layer_factory.hpp:76] Creating layer detection_loss_1_5x7
I1007 03:19:02.137500 18851 net.cpp:106] Creating Layer detection_loss_1_5x7
I1007 03:19:02.137502 18851 net.cpp:454] detection_loss_1_5x7 <- LFCN_1_5x7_LFCN_1_5x7_0_split_0
I1007 03:19:02.137507 18851 net.cpp:454] detection_loss_1_5x7 <- label_1_5x7_data_2_split_0
I1007 03:19:02.137516 18851 net.cpp:411] detection_loss_1_5x7 -> loss_1_5x7
I1007 03:19:02.137526 18851 layer_factory.hpp:76] Creating layer detection_loss_1_5x7
I1007 03:19:02.138216 18851 net.cpp:150] Setting up detection_loss_1_5x7
I1007 03:19:02.138232 18851 net.cpp:157] Top shape: 1 1 1 2 (2)
I1007 03:19:02.138236 18851 net.cpp:160]     with loss weight 0.9
I1007 03:19:02.138253 18851 net.cpp:165] Memory required for data: 1953428540
I1007 03:19:02.138257 18851 layer_factory.hpp:76] Creating layer detection_accuracy_1_5x7
I1007 03:19:02.138267 18851 net.cpp:106] Creating Layer detection_accuracy_1_5x7
I1007 03:19:02.138272 18851 net.cpp:454] detection_accuracy_1_5x7 <- LFCN_1_5x7_LFCN_1_5x7_0_split_1
I1007 03:19:02.138283 18851 net.cpp:454] detection_accuracy_1_5x7 <- label_1_5x7_data_2_split_1
I1007 03:19:02.138288 18851 net.cpp:411] detection_accuracy_1_5x7 -> accuracy_1_5x7
I1007 03:19:02.138296 18851 net.cpp:411] detection_accuracy_1_5x7 -> boxiou_1_5x7
I1007 03:19:02.138347 18851 net.cpp:150] Setting up detection_accuracy_1_5x7
I1007 03:19:02.138355 18851 net.cpp:157] Top shape: 1 1 1 2 (2)
I1007 03:19:02.138360 18851 net.cpp:157] Top shape: 1 1 1 1 (1)
I1007 03:19:02.138362 18851 net.cpp:165] Memory required for data: 1953428552
I1007 03:19:02.138365 18851 layer_factory.hpp:76] Creating layer pool4
I1007 03:19:02.138380 18851 net.cpp:106] Creating Layer pool4
I1007 03:19:02.138382 18851 net.cpp:454] pool4 <- conv4_3_relu4_3_0_split_1
I1007 03:19:02.138389 18851 net.cpp:411] pool4 -> pool4
I1007 03:19:02.138856 18851 net.cpp:150] Setting up pool4
I1007 03:19:02.138870 18851 net.cpp:157] Top shape: 4 512 28 28 (1605632)
I1007 03:19:02.138880 18851 net.cpp:165] Memory required for data: 1959851080
I1007 03:19:02.138898 18851 layer_factory.hpp:76] Creating layer conv5_1
I1007 03:19:02.138911 18851 net.cpp:106] Creating Layer conv5_1
I1007 03:19:02.138914 18851 net.cpp:454] conv5_1 <- pool4
I1007 03:19:02.138922 18851 net.cpp:411] conv5_1 -> conv5_1
I1007 03:19:02.146757 18851 net.cpp:150] Setting up conv5_1
I1007 03:19:02.146811 18851 net.cpp:157] Top shape: 4 512 28 28 (1605632)
I1007 03:19:02.146816 18851 net.cpp:165] Memory required for data: 1966273608
I1007 03:19:02.146826 18851 layer_factory.hpp:76] Creating layer relu5_1
I1007 03:19:02.146842 18851 net.cpp:106] Creating Layer relu5_1
I1007 03:19:02.146849 18851 net.cpp:454] relu5_1 <- conv5_1
I1007 03:19:02.146867 18851 net.cpp:397] relu5_1 -> conv5_1 (in-place)
I1007 03:19:02.147305 18851 net.cpp:150] Setting up relu5_1
I1007 03:19:02.147320 18851 net.cpp:157] Top shape: 4 512 28 28 (1605632)
I1007 03:19:02.147323 18851 net.cpp:165] Memory required for data: 1972696136
I1007 03:19:02.147326 18851 layer_factory.hpp:76] Creating layer conv5_2
I1007 03:19:02.147338 18851 net.cpp:106] Creating Layer conv5_2
I1007 03:19:02.147342 18851 net.cpp:454] conv5_2 <- conv5_1
I1007 03:19:02.147349 18851 net.cpp:411] conv5_2 -> conv5_2
I1007 03:19:02.155285 18851 net.cpp:150] Setting up conv5_2
I1007 03:19:02.155340 18851 net.cpp:157] Top shape: 4 512 28 28 (1605632)
I1007 03:19:02.155345 18851 net.cpp:165] Memory required for data: 1979118664
I1007 03:19:02.155356 18851 layer_factory.hpp:76] Creating layer relu5_2
I1007 03:19:02.155372 18851 net.cpp:106] Creating Layer relu5_2
I1007 03:19:02.155380 18851 net.cpp:454] relu5_2 <- conv5_2
I1007 03:19:02.155395 18851 net.cpp:397] relu5_2 -> conv5_2 (in-place)
I1007 03:19:02.155611 18851 net.cpp:150] Setting up relu5_2
I1007 03:19:02.155627 18851 net.cpp:157] Top shape: 4 512 28 28 (1605632)
I1007 03:19:02.155630 18851 net.cpp:165] Memory required for data: 1985541192
I1007 03:19:02.155633 18851 layer_factory.hpp:76] Creating layer conv5_3
I1007 03:19:02.155645 18851 net.cpp:106] Creating Layer conv5_3
I1007 03:19:02.155649 18851 net.cpp:454] conv5_3 <- conv5_2
I1007 03:19:02.155655 18851 net.cpp:411] conv5_3 -> conv5_3
I1007 03:19:02.163645 18851 net.cpp:150] Setting up conv5_3
I1007 03:19:02.163700 18851 net.cpp:157] Top shape: 4 512 28 28 (1605632)
I1007 03:19:02.163704 18851 net.cpp:165] Memory required for data: 1991963720
I1007 03:19:02.163717 18851 layer_factory.hpp:76] Creating layer relu5_3
I1007 03:19:02.163732 18851 net.cpp:106] Creating Layer relu5_3
I1007 03:19:02.163739 18851 net.cpp:454] relu5_3 <- conv5_3
I1007 03:19:02.163756 18851 net.cpp:397] relu5_3 -> conv5_3 (in-place)
I1007 03:19:02.164144 18851 net.cpp:150] Setting up relu5_3
I1007 03:19:02.164158 18851 net.cpp:157] Top shape: 4 512 28 28 (1605632)
I1007 03:19:02.164161 18851 net.cpp:165] Memory required for data: 1998386248
I1007 03:19:02.164165 18851 layer_factory.hpp:76] Creating layer conv5_3_relu5_3_0_split
I1007 03:19:02.164173 18851 net.cpp:106] Creating Layer conv5_3_relu5_3_0_split
I1007 03:19:02.164177 18851 net.cpp:454] conv5_3_relu5_3_0_split <- conv5_3
I1007 03:19:02.164191 18851 net.cpp:411] conv5_3_relu5_3_0_split -> conv5_3_relu5_3_0_split_0
I1007 03:19:02.164201 18851 net.cpp:411] conv5_3_relu5_3_0_split -> conv5_3_relu5_3_0_split_1
I1007 03:19:02.164206 18851 net.cpp:411] conv5_3_relu5_3_0_split -> conv5_3_relu5_3_0_split_2
I1007 03:19:02.164283 18851 net.cpp:150] Setting up conv5_3_relu5_3_0_split
I1007 03:19:02.164290 18851 net.cpp:157] Top shape: 4 512 28 28 (1605632)
I1007 03:19:02.164294 18851 net.cpp:157] Top shape: 4 512 28 28 (1605632)
I1007 03:19:02.164300 18851 net.cpp:157] Top shape: 4 512 28 28 (1605632)
I1007 03:19:02.164304 18851 net.cpp:165] Memory required for data: 2017653832
I1007 03:19:02.164310 18851 layer_factory.hpp:76] Creating layer LFCN_2_3x5
I1007 03:19:02.164325 18851 net.cpp:106] Creating Layer LFCN_2_3x5
I1007 03:19:02.164330 18851 net.cpp:454] LFCN_2_3x5 <- conv5_3_relu5_3_0_split_0
I1007 03:19:02.164337 18851 net.cpp:411] LFCN_2_3x5 -> LFCN_2_3x5
I1007 03:19:02.167259 18851 net.cpp:150] Setting up LFCN_2_3x5
I1007 03:19:02.167305 18851 net.cpp:157] Top shape: 4 6 28 28 (18816)
I1007 03:19:02.167309 18851 net.cpp:165] Memory required for data: 2017729096
I1007 03:19:02.167330 18851 layer_factory.hpp:76] Creating layer LFCN_2_3x5_LFCN_2_3x5_0_split
I1007 03:19:02.167348 18851 net.cpp:106] Creating Layer LFCN_2_3x5_LFCN_2_3x5_0_split
I1007 03:19:02.167353 18851 net.cpp:454] LFCN_2_3x5_LFCN_2_3x5_0_split <- LFCN_2_3x5
I1007 03:19:02.167361 18851 net.cpp:411] LFCN_2_3x5_LFCN_2_3x5_0_split -> LFCN_2_3x5_LFCN_2_3x5_0_split_0
I1007 03:19:02.167374 18851 net.cpp:411] LFCN_2_3x5_LFCN_2_3x5_0_split -> LFCN_2_3x5_LFCN_2_3x5_0_split_1
I1007 03:19:02.167420 18851 net.cpp:150] Setting up LFCN_2_3x5_LFCN_2_3x5_0_split
I1007 03:19:02.167426 18851 net.cpp:157] Top shape: 4 6 28 28 (18816)
I1007 03:19:02.167430 18851 net.cpp:157] Top shape: 4 6 28 28 (18816)
I1007 03:19:02.167433 18851 net.cpp:165] Memory required for data: 2017879624
I1007 03:19:02.167435 18851 layer_factory.hpp:76] Creating layer detection_loss_2_3x5
I1007 03:19:02.167445 18851 net.cpp:106] Creating Layer detection_loss_2_3x5
I1007 03:19:02.167448 18851 net.cpp:454] detection_loss_2_3x5 <- LFCN_2_3x5_LFCN_2_3x5_0_split_0
I1007 03:19:02.167454 18851 net.cpp:454] detection_loss_2_3x5 <- label_2_3x5_data_3_split_0
I1007 03:19:02.167459 18851 net.cpp:411] detection_loss_2_3x5 -> loss_2_3x5
I1007 03:19:02.167469 18851 layer_factory.hpp:76] Creating layer detection_loss_2_3x5
I1007 03:19:02.168123 18851 net.cpp:150] Setting up detection_loss_2_3x5
I1007 03:19:02.168138 18851 net.cpp:157] Top shape: 1 1 1 2 (2)
I1007 03:19:02.168141 18851 net.cpp:160]     with loss weight 1
I1007 03:19:02.168159 18851 net.cpp:165] Memory required for data: 2017879632
I1007 03:19:02.168164 18851 layer_factory.hpp:76] Creating layer detection_accuracy_2_3x5
I1007 03:19:02.168171 18851 net.cpp:106] Creating Layer detection_accuracy_2_3x5
I1007 03:19:02.168175 18851 net.cpp:454] detection_accuracy_2_3x5 <- LFCN_2_3x5_LFCN_2_3x5_0_split_1
I1007 03:19:02.168180 18851 net.cpp:454] detection_accuracy_2_3x5 <- label_2_3x5_data_3_split_1
I1007 03:19:02.168190 18851 net.cpp:411] detection_accuracy_2_3x5 -> accuracy_2_3x5
I1007 03:19:02.168197 18851 net.cpp:411] detection_accuracy_2_3x5 -> boxiou_2_3x5
I1007 03:19:02.168254 18851 net.cpp:150] Setting up detection_accuracy_2_3x5
I1007 03:19:02.168267 18851 net.cpp:157] Top shape: 1 1 1 2 (2)
I1007 03:19:02.168274 18851 net.cpp:157] Top shape: 1 1 1 1 (1)
I1007 03:19:02.168277 18851 net.cpp:165] Memory required for data: 2017879644
I1007 03:19:02.168280 18851 layer_factory.hpp:76] Creating layer LFCN_2_5x7
I1007 03:19:02.168295 18851 net.cpp:106] Creating Layer LFCN_2_5x7
I1007 03:19:02.168299 18851 net.cpp:454] LFCN_2_5x7 <- conv5_3_relu5_3_0_split_1
I1007 03:19:02.168304 18851 net.cpp:411] LFCN_2_5x7 -> LFCN_2_5x7
I1007 03:19:02.173970 18851 net.cpp:150] Setting up LFCN_2_5x7
I1007 03:19:02.174026 18851 net.cpp:157] Top shape: 4 6 28 28 (18816)
I1007 03:19:02.174029 18851 net.cpp:165] Memory required for data: 2017954908
I1007 03:19:02.174042 18851 layer_factory.hpp:76] Creating layer LFCN_2_5x7_LFCN_2_5x7_0_split
I1007 03:19:02.174058 18851 net.cpp:106] Creating Layer LFCN_2_5x7_LFCN_2_5x7_0_split
I1007 03:19:02.174065 18851 net.cpp:454] LFCN_2_5x7_LFCN_2_5x7_0_split <- LFCN_2_5x7
I1007 03:19:02.174075 18851 net.cpp:411] LFCN_2_5x7_LFCN_2_5x7_0_split -> LFCN_2_5x7_LFCN_2_5x7_0_split_0
I1007 03:19:02.174087 18851 net.cpp:411] LFCN_2_5x7_LFCN_2_5x7_0_split -> LFCN_2_5x7_LFCN_2_5x7_0_split_1
I1007 03:19:02.174146 18851 net.cpp:150] Setting up LFCN_2_5x7_LFCN_2_5x7_0_split
I1007 03:19:02.174152 18851 net.cpp:157] Top shape: 4 6 28 28 (18816)
I1007 03:19:02.174155 18851 net.cpp:157] Top shape: 4 6 28 28 (18816)
I1007 03:19:02.174159 18851 net.cpp:165] Memory required for data: 2018105436
I1007 03:19:02.174161 18851 layer_factory.hpp:76] Creating layer detection_loss_2_5x7
I1007 03:19:02.174175 18851 net.cpp:106] Creating Layer detection_loss_2_5x7
I1007 03:19:02.174180 18851 net.cpp:454] detection_loss_2_5x7 <- LFCN_2_5x7_LFCN_2_5x7_0_split_0
I1007 03:19:02.174187 18851 net.cpp:454] detection_loss_2_5x7 <- label_2_5x7_data_4_split_0
I1007 03:19:02.174196 18851 net.cpp:411] detection_loss_2_5x7 -> loss_2_5x7
I1007 03:19:02.174211 18851 layer_factory.hpp:76] Creating layer detection_loss_2_5x7
I1007 03:19:02.174669 18851 net.cpp:150] Setting up detection_loss_2_5x7
I1007 03:19:02.174680 18851 net.cpp:157] Top shape: 1 1 1 2 (2)
I1007 03:19:02.174685 18851 net.cpp:160]     with loss weight 1
I1007 03:19:02.174701 18851 net.cpp:165] Memory required for data: 2018105444
I1007 03:19:02.174711 18851 layer_factory.hpp:76] Creating layer detection_accuracy_2_5x7
I1007 03:19:02.174721 18851 net.cpp:106] Creating Layer detection_accuracy_2_5x7
I1007 03:19:02.174724 18851 net.cpp:454] detection_accuracy_2_5x7 <- LFCN_2_5x7_LFCN_2_5x7_0_split_1
I1007 03:19:02.174729 18851 net.cpp:454] detection_accuracy_2_5x7 <- label_2_5x7_data_4_split_1
I1007 03:19:02.174737 18851 net.cpp:411] detection_accuracy_2_5x7 -> accuracy_2_5x7
I1007 03:19:02.174746 18851 net.cpp:411] detection_accuracy_2_5x7 -> boxiou_2_5x7
I1007 03:19:02.174799 18851 net.cpp:150] Setting up detection_accuracy_2_5x7
I1007 03:19:02.174806 18851 net.cpp:157] Top shape: 1 1 1 2 (2)
I1007 03:19:02.174809 18851 net.cpp:157] Top shape: 1 1 1 1 (1)
I1007 03:19:02.174813 18851 net.cpp:165] Memory required for data: 2018105456
I1007 03:19:02.174815 18851 layer_factory.hpp:76] Creating layer pool5
I1007 03:19:02.174824 18851 net.cpp:106] Creating Layer pool5
I1007 03:19:02.174829 18851 net.cpp:454] pool5 <- conv5_3_relu5_3_0_split_2
I1007 03:19:02.174835 18851 net.cpp:411] pool5 -> pool5
I1007 03:19:02.175514 18851 net.cpp:150] Setting up pool5
I1007 03:19:02.175530 18851 net.cpp:157] Top shape: 4 512 14 14 (401408)
I1007 03:19:02.175534 18851 net.cpp:165] Memory required for data: 2019711088
I1007 03:19:02.175542 18851 layer_factory.hpp:76] Creating layer conv6_1
I1007 03:19:02.175557 18851 net.cpp:106] Creating Layer conv6_1
I1007 03:19:02.175561 18851 net.cpp:454] conv6_1 <- pool5
I1007 03:19:02.175570 18851 net.cpp:411] conv6_1 -> conv6_1
I1007 03:19:02.269418 18851 net.cpp:150] Setting up conv6_1
I1007 03:19:02.269477 18851 net.cpp:157] Top shape: 4 512 14 14 (401408)
I1007 03:19:02.269481 18851 net.cpp:165] Memory required for data: 2021316720
I1007 03:19:02.269493 18851 layer_factory.hpp:76] Creating layer relu6_1
I1007 03:19:02.269510 18851 net.cpp:106] Creating Layer relu6_1
I1007 03:19:02.269517 18851 net.cpp:454] relu6_1 <- conv6_1
I1007 03:19:02.269526 18851 net.cpp:397] relu6_1 -> conv6_1 (in-place)
I1007 03:19:02.269733 18851 net.cpp:150] Setting up relu6_1
I1007 03:19:02.269749 18851 net.cpp:157] Top shape: 4 512 14 14 (401408)
I1007 03:19:02.269754 18851 net.cpp:165] Memory required for data: 2022922352
I1007 03:19:02.269760 18851 layer_factory.hpp:76] Creating layer conv6_1_relu6_1_0_split
I1007 03:19:02.269768 18851 net.cpp:106] Creating Layer conv6_1_relu6_1_0_split
I1007 03:19:02.269773 18851 net.cpp:454] conv6_1_relu6_1_0_split <- conv6_1
I1007 03:19:02.269780 18851 net.cpp:411] conv6_1_relu6_1_0_split -> conv6_1_relu6_1_0_split_0
I1007 03:19:02.269788 18851 net.cpp:411] conv6_1_relu6_1_0_split -> conv6_1_relu6_1_0_split_1
I1007 03:19:02.269794 18851 net.cpp:411] conv6_1_relu6_1_0_split -> conv6_1_relu6_1_0_split_2
I1007 03:19:02.269872 18851 net.cpp:150] Setting up conv6_1_relu6_1_0_split
I1007 03:19:02.269881 18851 net.cpp:157] Top shape: 4 512 14 14 (401408)
I1007 03:19:02.269886 18851 net.cpp:157] Top shape: 4 512 14 14 (401408)
I1007 03:19:02.269889 18851 net.cpp:157] Top shape: 4 512 14 14 (401408)
I1007 03:19:02.269891 18851 net.cpp:165] Memory required for data: 2027739248
I1007 03:19:02.269896 18851 layer_factory.hpp:76] Creating layer LFCN_3_3x5
I1007 03:19:02.269914 18851 net.cpp:106] Creating Layer LFCN_3_3x5
I1007 03:19:02.269919 18851 net.cpp:454] LFCN_3_3x5 <- conv6_1_relu6_1_0_split_0
I1007 03:19:02.269925 18851 net.cpp:411] LFCN_3_3x5 -> LFCN_3_3x5
I1007 03:19:02.273017 18851 net.cpp:150] Setting up LFCN_3_3x5
I1007 03:19:02.273056 18851 net.cpp:157] Top shape: 4 6 14 14 (4704)
I1007 03:19:02.273059 18851 net.cpp:165] Memory required for data: 2027758064
I1007 03:19:02.273071 18851 layer_factory.hpp:76] Creating layer LFCN_3_3x5_LFCN_3_3x5_0_split
I1007 03:19:02.273092 18851 net.cpp:106] Creating Layer LFCN_3_3x5_LFCN_3_3x5_0_split
I1007 03:19:02.273099 18851 net.cpp:454] LFCN_3_3x5_LFCN_3_3x5_0_split <- LFCN_3_3x5
I1007 03:19:02.273110 18851 net.cpp:411] LFCN_3_3x5_LFCN_3_3x5_0_split -> LFCN_3_3x5_LFCN_3_3x5_0_split_0
I1007 03:19:02.273121 18851 net.cpp:411] LFCN_3_3x5_LFCN_3_3x5_0_split -> LFCN_3_3x5_LFCN_3_3x5_0_split_1
I1007 03:19:02.273176 18851 net.cpp:150] Setting up LFCN_3_3x5_LFCN_3_3x5_0_split
I1007 03:19:02.273182 18851 net.cpp:157] Top shape: 4 6 14 14 (4704)
I1007 03:19:02.273185 18851 net.cpp:157] Top shape: 4 6 14 14 (4704)
I1007 03:19:02.273188 18851 net.cpp:165] Memory required for data: 2027795696
I1007 03:19:02.273192 18851 layer_factory.hpp:76] Creating layer detection_loss_3_3x5
I1007 03:19:02.273203 18851 net.cpp:106] Creating Layer detection_loss_3_3x5
I1007 03:19:02.273208 18851 net.cpp:454] detection_loss_3_3x5 <- LFCN_3_3x5_LFCN_3_3x5_0_split_0
I1007 03:19:02.273216 18851 net.cpp:454] detection_loss_3_3x5 <- label_3_3x5_data_5_split_0
I1007 03:19:02.273228 18851 net.cpp:411] detection_loss_3_3x5 -> loss_3_3x5
I1007 03:19:02.273241 18851 layer_factory.hpp:76] Creating layer detection_loss_3_3x5
I1007 03:19:02.273679 18851 net.cpp:150] Setting up detection_loss_3_3x5
I1007 03:19:02.273694 18851 net.cpp:157] Top shape: 1 1 1 2 (2)
I1007 03:19:02.273696 18851 net.cpp:160]     with loss weight 1
I1007 03:19:02.273710 18851 net.cpp:165] Memory required for data: 2027795704
I1007 03:19:02.273713 18851 layer_factory.hpp:76] Creating layer detection_accuracy_3_3x5
I1007 03:19:02.273721 18851 net.cpp:106] Creating Layer detection_accuracy_3_3x5
I1007 03:19:02.273725 18851 net.cpp:454] detection_accuracy_3_3x5 <- LFCN_3_3x5_LFCN_3_3x5_0_split_1
I1007 03:19:02.273730 18851 net.cpp:454] detection_accuracy_3_3x5 <- label_3_3x5_data_5_split_1
I1007 03:19:02.273736 18851 net.cpp:411] detection_accuracy_3_3x5 -> accuracy_3_3x5
I1007 03:19:02.273751 18851 net.cpp:411] detection_accuracy_3_3x5 -> boxiou_3_3x5
I1007 03:19:02.273802 18851 net.cpp:150] Setting up detection_accuracy_3_3x5
I1007 03:19:02.273811 18851 net.cpp:157] Top shape: 1 1 1 2 (2)
I1007 03:19:02.273815 18851 net.cpp:157] Top shape: 1 1 1 1 (1)
I1007 03:19:02.273818 18851 net.cpp:165] Memory required for data: 2027795716
I1007 03:19:02.273823 18851 layer_factory.hpp:76] Creating layer LFCN_3_5x7
I1007 03:19:02.273838 18851 net.cpp:106] Creating Layer LFCN_3_5x7
I1007 03:19:02.273844 18851 net.cpp:454] LFCN_3_5x7 <- conv6_1_relu6_1_0_split_1
I1007 03:19:02.273850 18851 net.cpp:411] LFCN_3_5x7 -> LFCN_3_5x7
I1007 03:19:02.279981 18851 net.cpp:150] Setting up LFCN_3_5x7
I1007 03:19:02.280025 18851 net.cpp:157] Top shape: 4 6 14 14 (4704)
I1007 03:19:02.280030 18851 net.cpp:165] Memory required for data: 2027814532
I1007 03:19:02.280041 18851 layer_factory.hpp:76] Creating layer LFCN_3_5x7_LFCN_3_5x7_0_split
I1007 03:19:02.280055 18851 net.cpp:106] Creating Layer LFCN_3_5x7_LFCN_3_5x7_0_split
I1007 03:19:02.280067 18851 net.cpp:454] LFCN_3_5x7_LFCN_3_5x7_0_split <- LFCN_3_5x7
I1007 03:19:02.280081 18851 net.cpp:411] LFCN_3_5x7_LFCN_3_5x7_0_split -> LFCN_3_5x7_LFCN_3_5x7_0_split_0
I1007 03:19:02.280092 18851 net.cpp:411] LFCN_3_5x7_LFCN_3_5x7_0_split -> LFCN_3_5x7_LFCN_3_5x7_0_split_1
I1007 03:19:02.280146 18851 net.cpp:150] Setting up LFCN_3_5x7_LFCN_3_5x7_0_split
I1007 03:19:02.280155 18851 net.cpp:157] Top shape: 4 6 14 14 (4704)
I1007 03:19:02.280159 18851 net.cpp:157] Top shape: 4 6 14 14 (4704)
I1007 03:19:02.280161 18851 net.cpp:165] Memory required for data: 2027852164
I1007 03:19:02.280164 18851 layer_factory.hpp:76] Creating layer detection_loss_3_5x7
I1007 03:19:02.280181 18851 net.cpp:106] Creating Layer detection_loss_3_5x7
I1007 03:19:02.280185 18851 net.cpp:454] detection_loss_3_5x7 <- LFCN_3_5x7_LFCN_3_5x7_0_split_0
I1007 03:19:02.280191 18851 net.cpp:454] detection_loss_3_5x7 <- label_3_5x7_data_6_split_0
I1007 03:19:02.280200 18851 net.cpp:411] detection_loss_3_5x7 -> loss_3_5x7
I1007 03:19:02.280210 18851 layer_factory.hpp:76] Creating layer detection_loss_3_5x7
I1007 03:19:02.280827 18851 net.cpp:150] Setting up detection_loss_3_5x7
I1007 03:19:02.280843 18851 net.cpp:157] Top shape: 1 1 1 2 (2)
I1007 03:19:02.280853 18851 net.cpp:160]     with loss weight 1
I1007 03:19:02.280865 18851 net.cpp:165] Memory required for data: 2027852172
I1007 03:19:02.280869 18851 layer_factory.hpp:76] Creating layer detection_accuracy_3_5x7
I1007 03:19:02.280886 18851 net.cpp:106] Creating Layer detection_accuracy_3_5x7
I1007 03:19:02.280890 18851 net.cpp:454] detection_accuracy_3_5x7 <- LFCN_3_5x7_LFCN_3_5x7_0_split_1
I1007 03:19:02.280896 18851 net.cpp:454] detection_accuracy_3_5x7 <- label_3_5x7_data_6_split_1
I1007 03:19:02.280910 18851 net.cpp:411] detection_accuracy_3_5x7 -> accuracy_3_5x7
I1007 03:19:02.280920 18851 net.cpp:411] detection_accuracy_3_5x7 -> boxiou_3_5x7
I1007 03:19:02.280966 18851 net.cpp:150] Setting up detection_accuracy_3_5x7
I1007 03:19:02.280978 18851 net.cpp:157] Top shape: 1 1 1 2 (2)
I1007 03:19:02.280982 18851 net.cpp:157] Top shape: 1 1 1 1 (1)
I1007 03:19:02.280984 18851 net.cpp:165] Memory required for data: 2027852184
I1007 03:19:02.280987 18851 layer_factory.hpp:76] Creating layer pool6
I1007 03:19:02.280997 18851 net.cpp:106] Creating Layer pool6
I1007 03:19:02.281000 18851 net.cpp:454] pool6 <- conv6_1_relu6_1_0_split_2
I1007 03:19:02.281005 18851 net.cpp:411] pool6 -> pool6
I1007 03:19:02.281245 18851 net.cpp:150] Setting up pool6
I1007 03:19:02.281260 18851 net.cpp:157] Top shape: 4 512 7 7 (100352)
I1007 03:19:02.281262 18851 net.cpp:165] Memory required for data: 2028253592
I1007 03:19:02.281265 18851 layer_factory.hpp:76] Creating layer LFCN_4_3x5
I1007 03:19:02.281278 18851 net.cpp:106] Creating Layer LFCN_4_3x5
I1007 03:19:02.281282 18851 net.cpp:454] LFCN_4_3x5 <- pool6
I1007 03:19:02.281287 18851 net.cpp:411] LFCN_4_3x5 -> LFCN_4_3x5
I1007 03:19:02.284631 18851 net.cpp:150] Setting up LFCN_4_3x5
I1007 03:19:02.284677 18851 net.cpp:157] Top shape: 4 6 7 7 (1176)
I1007 03:19:02.284680 18851 net.cpp:165] Memory required for data: 2028258296
I1007 03:19:02.284692 18851 layer_factory.hpp:76] Creating layer LFCN_4_3x5_LFCN_4_3x5_0_split
I1007 03:19:02.284703 18851 net.cpp:106] Creating Layer LFCN_4_3x5_LFCN_4_3x5_0_split
I1007 03:19:02.284709 18851 net.cpp:454] LFCN_4_3x5_LFCN_4_3x5_0_split <- LFCN_4_3x5
I1007 03:19:02.284721 18851 net.cpp:411] LFCN_4_3x5_LFCN_4_3x5_0_split -> LFCN_4_3x5_LFCN_4_3x5_0_split_0
I1007 03:19:02.284739 18851 net.cpp:411] LFCN_4_3x5_LFCN_4_3x5_0_split -> LFCN_4_3x5_LFCN_4_3x5_0_split_1
I1007 03:19:02.284804 18851 net.cpp:150] Setting up LFCN_4_3x5_LFCN_4_3x5_0_split
I1007 03:19:02.284819 18851 net.cpp:157] Top shape: 4 6 7 7 (1176)
I1007 03:19:02.284823 18851 net.cpp:157] Top shape: 4 6 7 7 (1176)
I1007 03:19:02.284826 18851 net.cpp:165] Memory required for data: 2028267704
I1007 03:19:02.284828 18851 layer_factory.hpp:76] Creating layer detection_loss_4_3x5
I1007 03:19:02.284840 18851 net.cpp:106] Creating Layer detection_loss_4_3x5
I1007 03:19:02.284843 18851 net.cpp:454] detection_loss_4_3x5 <- LFCN_4_3x5_LFCN_4_3x5_0_split_0
I1007 03:19:02.284849 18851 net.cpp:454] detection_loss_4_3x5 <- label_4_3x5_data_7_split_0
I1007 03:19:02.284855 18851 net.cpp:411] detection_loss_4_3x5 -> loss_4_3x5
I1007 03:19:02.284865 18851 layer_factory.hpp:76] Creating layer detection_loss_4_3x5
I1007 03:19:02.285506 18851 net.cpp:150] Setting up detection_loss_4_3x5
I1007 03:19:02.285521 18851 net.cpp:157] Top shape: 1 1 1 2 (2)
I1007 03:19:02.285523 18851 net.cpp:160]     with loss weight 1
I1007 03:19:02.285542 18851 net.cpp:165] Memory required for data: 2028267712
I1007 03:19:02.285545 18851 layer_factory.hpp:76] Creating layer detection_accuracy_4_3x5
I1007 03:19:02.285557 18851 net.cpp:106] Creating Layer detection_accuracy_4_3x5
I1007 03:19:02.285560 18851 net.cpp:454] detection_accuracy_4_3x5 <- LFCN_4_3x5_LFCN_4_3x5_0_split_1
I1007 03:19:02.285565 18851 net.cpp:454] detection_accuracy_4_3x5 <- label_4_3x5_data_7_split_1
I1007 03:19:02.285578 18851 net.cpp:411] detection_accuracy_4_3x5 -> accuracy_4_3x5
I1007 03:19:02.285588 18851 net.cpp:411] detection_accuracy_4_3x5 -> boxiou_4_3x5
I1007 03:19:02.285642 18851 net.cpp:150] Setting up detection_accuracy_4_3x5
I1007 03:19:02.285650 18851 net.cpp:157] Top shape: 1 1 1 2 (2)
I1007 03:19:02.285655 18851 net.cpp:157] Top shape: 1 1 1 1 (1)
I1007 03:19:02.285656 18851 net.cpp:165] Memory required for data: 2028267724
I1007 03:19:02.285660 18851 net.cpp:228] detection_accuracy_4_3x5 does not need backward computation.
I1007 03:19:02.285663 18851 net.cpp:226] detection_loss_4_3x5 needs backward computation.
I1007 03:19:02.285667 18851 net.cpp:226] LFCN_4_3x5_LFCN_4_3x5_0_split needs backward computation.
I1007 03:19:02.285670 18851 net.cpp:226] LFCN_4_3x5 needs backward computation.
…
I1007 03:19:02.294231 18851 image_gt_data_layer.cpp:234] output label size 1 : 2,6,56,56
I1007 03:19:02.294306 18851 image_gt_data_layer.cpp:234] output label size 2 : 2,6,28,28
I1007 03:19:02.294375 18851 image_gt_data_layer.cpp:234] output label size 3 : 2,6,28,28
I1007 03:19:02.294446 18851 image_gt_data_layer.cpp:234] output label size 4 : 2,6,14,14
I1007 03:19:02.294514 18851 image_gt_data_layer.cpp:234] output label size 5 : 2,6,14,14
I1007 03:19:02.294581 18851 image_gt_data_layer.cpp:234] output label size 6 : 2,6,7,7
I1007 03:19:02.307778 18851 net.cpp:150] Setting up data
I1007 03:19:02.307818 18851 net.cpp:157] Top shape: 2 3 448 448 (1204224)
I1007 03:19:02.307823 18851 net.cpp:157] Top shape: 2 6 56 56 (37632)
I1007 03:19:02.307827 18851 net.cpp:157] Top shape: 2 6 56 56 (37632)
I1007 03:19:02.307832 18851 net.cpp:157] Top shape: 2 6 28 28 (9408)
I1007 03:19:02.307837 18851 net.cpp:157] Top shape: 2 6 28 28 (9408)
I1007 03:19:02.307840 18851 net.cpp:157] Top shape: 2 6 14 14 (2352)
I1007 03:19:02.307844 18851 net.cpp:157] Top shape: 2 6 14 14 (2352)
I1007 03:19:02.307848 18851 net.cpp:157] Top shape: 2 6 7 7 (588)
I1007 03:19:02.307852 18851 net.cpp:165] Memory required for data: 5214384
I1007 03:19:02.307859 18851 layer_factory.hpp:76] Creating layer label_1_3x5_data_1_split
I1007 03:19:02.307878 18851 net.cpp:106] Creating Layer label_1_3x5_data_1_split
I1007 03:19:02.307883 18851 net.cpp:454] label_1_3x5_data_1_split <- label_1_3x5
I1007 03:19:02.307894 18851 net.cpp:411] label_1_3x5_data_1_split -> label_1_3x5_data_1_split_0
I1007 03:19:02.307909 18851 net.cpp:411] label_1_3x5_data_1_split -> label_1_3x5_data_1_split_1
I1007 03:19:02.308131 18851 net.cpp:150] Setting up label_1_3x5_data_1_split
I1007 03:19:02.308142 18851 net.cpp:157] Top shape: 2 6 56 56 (37632)
I1007 03:19:02.308147 18851 net.cpp:157] Top shape: 2 6 56 56 (37632)
I1007 03:19:02.308149 18851 net.cpp:165] Memory required for data: 5515440
I1007 03:19:02.308153 18851 layer_factory.hpp:76] Creating layer label_1_5x7_data_2_split
I1007 03:19:02.308159 18851 net.cpp:106] Creating Layer label_1_5x7_data_2_split
I1007 03:19:02.308163 18851 net.cpp:454] label_1_5x7_data_2_split <- label_1_5x7
I1007 03:19:02.308171 18851 net.cpp:411] label_1_5x7_data_2_split -> label_1_5x7_data_2_split_0
I1007 03:19:02.308178 18851 net.cpp:411] label_1_5x7_data_2_split -> label_1_5x7_data_2_split_1
I1007 03:19:02.308243 18851 net.cpp:150] Setting up label_1_5x7_data_2_split
I1007 03:19:02.308249 18851 net.cpp:157] Top shape: 2 6 56 56 (37632)
I1007 03:19:02.308254 18851 net.cpp:157] Top shape: 2 6 56 56 (37632)
I1007 03:19:02.308256 18851 net.cpp:165] Memory required for data: 5816496
I1007 03:19:02.308259 18851 layer_factory.hpp:76] Creating layer label_2_3x5_data_3_split
I1007 03:19:02.308264 18851 net.cpp:106] Creating Layer label_2_3x5_data_3_split
I1007 03:19:02.308267 18851 net.cpp:454] label_2_3x5_data_3_split <- label_2_3x5
I1007 03:19:02.308282 18851 net.cpp:411] label_2_3x5_data_3_split -> label_2_3x5_data_3_split_0
I1007 03:19:02.308292 18851 net.cpp:411] label_2_3x5_data_3_split -> label_2_3x5_data_3_split_1
I1007 03:19:02.308337 18851 net.cpp:150] Setting up label_2_3x5_data_3_split
I1007 03:19:02.308343 18851 net.cpp:157] Top shape: 2 6 28 28 (9408)
I1007 03:19:02.308347 18851 net.cpp:157] Top shape: 2 6 28 28 (9408)
I1007 03:19:02.308352 18851 net.cpp:165] Memory required for data: 5891760
I1007 03:19:02.308357 18851 layer_factory.hpp:76] Creating layer label_2_5x7_data_4_split
I1007 03:19:02.308368 18851 net.cpp:106] Creating Layer label_2_5x7_data_4_split
I1007 03:19:02.308372 18851 net.cpp:454] label_2_5x7_data_4_split <- label_2_5x7
I1007 03:19:02.308378 18851 net.cpp:411] label_2_5x7_data_4_split -> label_2_5x7_data_4_split_0
I1007 03:19:02.308384 18851 net.cpp:411] label_2_5x7_data_4_split -> label_2_5x7_data_4_split_1
I1007 03:19:02.308429 18851 net.cpp:150] Setting up label_2_5x7_data_4_split
I1007 03:19:02.308437 18851 net.cpp:157] Top shape: 2 6 28 28 (9408)
I1007 03:19:02.308441 18851 net.cpp:157] Top shape: 2 6 28 28 (9408)
I1007 03:19:02.308444 18851 net.cpp:165] Memory required for data: 5967024
I1007 03:19:02.308447 18851 layer_factory.hpp:76] Creating layer label_3_3x5_data_5_split
I1007 03:19:02.308454 18851 net.cpp:106] Creating Layer label_3_3x5_data_5_split
I1007 03:19:02.308459 18851 net.cpp:454] label_3_3x5_data_5_split <- label_3_3x5
I1007 03:19:02.308465 18851 net.cpp:411] label_3_3x5_data_5_split -> label_3_3x5_data_5_split_0
I1007 03:19:02.308471 18851 net.cpp:411] label_3_3x5_data_5_split -> label_3_3x5_data_5_split_1
I1007 03:19:02.308516 18851 net.cpp:150] Setting up label_3_3x5_data_5_split
I1007 03:19:02.308521 18851 net.cpp:157] Top shape: 2 6 14 14 (2352)
I1007 03:19:02.308526 18851 net.cpp:157] Top shape: 2 6 14 14 (2352)
I1007 03:19:02.308531 18851 net.cpp:165] Memory required for data: 5985840
I1007 03:19:02.308535 18851 layer_factory.hpp:76] Creating layer label_3_5x7_data_6_split
I1007 03:19:02.308539 18851 net.cpp:106] Creating Layer label_3_5x7_data_6_split
I1007 03:19:02.308542 18851 net.cpp:454] label_3_5x7_data_6_split <- label_3_5x7
I1007 03:19:02.308549 18851 net.cpp:411] label_3_5x7_data_6_split -> label_3_5x7_data_6_split_0
I1007 03:19:02.308554 18851 net.cpp:411] label_3_5x7_data_6_split -> label_3_5x7_data_6_split_1
I1007 03:19:02.308595 18851 net.cpp:150] Setting up label_3_5x7_data_6_split
I1007 03:19:02.308600 18851 net.cpp:157] Top shape: 2 6 14 14 (2352)
I1007 03:19:02.308606 18851 net.cpp:157] Top shape: 2 6 14 14 (2352)
I1007 03:19:02.308611 18851 net.cpp:165] Memory required for data: 6004656
I1007 03:19:02.308614 18851 layer_factory.hpp:76] Creating layer label_4_3x5_data_7_split
I1007 03:19:02.308619 18851 net.cpp:106] Creating Layer label_4_3x5_data_7_split
I1007 03:19:02.308622 18851 net.cpp:454] label_4_3x5_data_7_split <- label_4_3x5
I1007 03:19:02.308626 18851 net.cpp:411] label_4_3x5_data_7_split -> label_4_3x5_data_7_split_0
I1007 03:19:02.308631 18851 net.cpp:411] label_4_3x5_data_7_split -> label_4_3x5_data_7_split_1
I1007 03:19:02.308671 18851 net.cpp:150] Setting up label_4_3x5_data_7_split
I1007 03:19:02.308676 18851 net.cpp:157] Top shape: 2 6 7 7 (588)
I1007 03:19:02.308683 18851 net.cpp:157] Top shape: 2 6 7 7 (588)
I1007 03:19:02.308687 18851 net.cpp:165] Memory required for data: 6009360
I1007 03:19:02.308691 18851 layer_factory.hpp:76] Creating layer conv1_1
I1007 03:19:02.308701 18851 net.cpp:106] Creating Layer conv1_1
I1007 03:19:02.308704 18851 net.cpp:454] conv1_1 <- data
I1007 03:19:02.308713 18851 net.cpp:411] conv1_1 -> conv1_1
I1007 03:19:02.310909 18851 net.cpp:150] Setting up conv1_1
I1007 03:19:02.310938 18851 net.cpp:157] Top shape: 2 64 448 448 (25690112)
I1007 03:19:02.310942 18851 net.cpp:165] Memory required for data: 108769808
I1007 03:19:02.310957 18851 layer_factory.hpp:76] Creating layer relu1_1
I1007 03:19:02.310971 18851 net.cpp:106] Creating Layer relu1_1
I1007 03:19:02.310976 18851 net.cpp:454] relu1_1 <- conv1_1
I1007 03:19:02.310982 18851 net.cpp:397] relu1_1 -> conv1_1 (in-place)
I1007 03:19:02.311857 18851 net.cpp:150] Setting up relu1_1
I1007 03:19:02.311875 18851 net.cpp:157] Top shape: 2 64 448 448 (25690112)
I1007 03:19:02.311884 18851 net.cpp:165] Memory required for data: 211530256
I1007 03:19:02.311888 18851 layer_factory.hpp:76] Creating layer conv1_2
I1007 03:19:02.311902 18851 net.cpp:106] Creating Layer conv1_2
I1007 03:19:02.311908 18851 net.cpp:454] conv1_2 <- conv1_1
I1007 03:19:02.311915 18851 net.cpp:411] conv1_2 -> conv1_2
I1007 03:19:02.315454 18851 net.cpp:150] Setting up conv1_2
I1007 03:19:02.315501 18851 net.cpp:157] Top shape: 2 64 448 448 (25690112)
I1007 03:19:02.315505 18851 net.cpp:165] Memory required for data: 314290704
I1007 03:19:02.315523 18851 layer_factory.hpp:76] Creating layer relu1_2
I1007 03:19:02.315536 18851 net.cpp:106] Creating Layer relu1_2
I1007 03:19:02.315541 18851 net.cpp:454] relu1_2 <- conv1_2
I1007 03:19:02.315551 18851 net.cpp:397] relu1_2 -> conv1_2 (in-place)
I1007 03:19:02.315785 18851 net.cpp:150] Setting up relu1_2
I1007 03:19:02.315801 18851 net.cpp:157] Top shape: 2 64 448 448 (25690112)
I1007 03:19:02.315805 18851 net.cpp:165] Memory required for data: 417051152
I1007 03:19:02.315809 18851 layer_factory.hpp:76] Creating layer pool1
I1007 03:19:02.315816 18851 net.cpp:106] Creating Layer pool1
I1007 03:19:02.315819 18851 net.cpp:454] pool1 <- conv1_2
I1007 03:19:02.315825 18851 net.cpp:411] pool1 -> pool1
I1007 03:19:02.316308 18851 net.cpp:150] Setting up pool1
I1007 03:19:02.316323 18851 net.cpp:157] Top shape: 2 64 224 224 (6422528)
I1007 03:19:02.316325 18851 net.cpp:165] Memory required for data: 442741264
I1007 03:19:02.316334 18851 layer_factory.hpp:76] Creating layer conv2_1
I1007 03:19:02.316346 18851 net.cpp:106] Creating Layer conv2_1
I1007 03:19:02.316350 18851 net.cpp:454] conv2_1 <- pool1
I1007 03:19:02.316355 18851 net.cpp:411] conv2_1 -> conv2_1
I1007 03:19:02.317801 18851 net.cpp:150] Setting up conv2_1
I1007 03:19:02.317819 18851 net.cpp:157] Top shape: 2 128 224 224 (12845056)
I1007 03:19:02.317829 18851 net.cpp:165] Memory required for data: 494121488
I1007 03:19:02.317842 18851 layer_factory.hpp:76] Creating layer relu2_1
I1007 03:19:02.317852 18851 net.cpp:106] Creating Layer relu2_1
I1007 03:19:02.317854 18851 net.cpp:454] relu2_1 <- conv2_1
I1007 03:19:02.317862 18851 net.cpp:397] relu2_1 -> conv2_1 (in-place)
I1007 03:19:02.318089 18851 net.cpp:150] Setting up relu2_1
I1007 03:19:02.318100 18851 net.cpp:157] Top shape: 2 128 224 224 (12845056)
I1007 03:19:02.318106 18851 net.cpp:165] Memory required for data: 545501712
I1007 03:19:02.318109 18851 layer_factory.hpp:76] Creating layer conv2_2
I1007 03:19:02.318117 18851 net.cpp:106] Creating Layer conv2_2
I1007 03:19:02.318121 18851 net.cpp:454] conv2_2 <- conv2_1
I1007 03:19:02.318130 18851 net.cpp:411] conv2_2 -> conv2_2
I1007 03:19:02.320356 18851 net.cpp:150] Setting up conv2_2
I1007 03:19:02.320397 18851 net.cpp:157] Top shape: 2 128 224 224 (12845056)
I1007 03:19:02.320402 18851 net.cpp:165] Memory required for data: 596881936
I1007 03:19:02.320411 18851 layer_factory.hpp:76] Creating layer relu2_2
I1007 03:19:02.320426 18851 net.cpp:106] Creating Layer relu2_2
I1007 03:19:02.320431 18851 net.cpp:454] relu2_2 <- conv2_2
I1007 03:19:02.320438 18851 net.cpp:397] relu2_2 -> conv2_2 (in-place)
I1007 03:19:02.320839 18851 net.cpp:150] Setting up relu2_2
I1007 03:19:02.320853 18851 net.cpp:157] Top shape: 2 128 224 224 (12845056)
I1007 03:19:02.320857 18851 net.cpp:165] Memory required for data: 648262160
I1007 03:19:02.320860 18851 layer_factory.hpp:76] Creating layer pool2
I1007 03:19:02.320870 18851 net.cpp:106] Creating Layer pool2
I1007 03:19:02.320874 18851 net.cpp:454] pool2 <- conv2_2
I1007 03:19:02.320879 18851 net.cpp:411] pool2 -> pool2
I1007 03:19:02.321151 18851 net.cpp:150] Setting up pool2
I1007 03:19:02.321163 18851 net.cpp:157] Top shape: 2 128 112 112 (3211264)
I1007 03:19:02.321166 18851 net.cpp:165] Memory required for data: 661107216
I1007 03:19:02.321169 18851 layer_factory.hpp:76] Creating layer conv3_1
I1007 03:19:02.321182 18851 net.cpp:106] Creating Layer conv3_1
I1007 03:19:02.321187 18851 net.cpp:454] conv3_1 <- pool2
I1007 03:19:02.321192 18851 net.cpp:411] conv3_1 -> conv3_1
I1007 03:19:02.323550 18851 net.cpp:150] Setting up conv3_1
I1007 03:19:02.323590 18851 net.cpp:157] Top shape: 2 256 112 112 (6422528)
I1007 03:19:02.323593 18851 net.cpp:165] Memory required for data: 686797328
I1007 03:19:02.323611 18851 layer_factory.hpp:76] Creating layer relu3_1
I1007 03:19:02.323623 18851 net.cpp:106] Creating Layer relu3_1
I1007 03:19:02.323627 18851 net.cpp:454] relu3_1 <- conv3_1
I1007 03:19:02.323633 18851 net.cpp:397] relu3_1 -> conv3_1 (in-place)
I1007 03:19:02.323855 18851 net.cpp:150] Setting up relu3_1
I1007 03:19:02.323868 18851 net.cpp:157] Top shape: 2 256 112 112 (6422528)
I1007 03:19:02.323870 18851 net.cpp:165] Memory required for data: 712487440
I1007 03:19:02.323873 18851 layer_factory.hpp:76] Creating layer conv3_2
I1007 03:19:02.323885 18851 net.cpp:106] Creating Layer conv3_2
I1007 03:19:02.323889 18851 net.cpp:454] conv3_2 <- conv3_1
I1007 03:19:02.323894 18851 net.cpp:411] conv3_2 -> conv3_2
I1007 03:19:02.327263 18851 net.cpp:150] Setting up conv3_2
I1007 03:19:02.327308 18851 net.cpp:157] Top shape: 2 256 112 112 (6422528)
I1007 03:19:02.327312 18851 net.cpp:165] Memory required for data: 738177552
I1007 03:19:02.327323 18851 layer_factory.hpp:76] Creating layer relu3_2
I1007 03:19:02.327337 18851 net.cpp:106] Creating Layer relu3_2
I1007 03:19:02.327342 18851 net.cpp:454] relu3_2 <- conv3_2
I1007 03:19:02.327353 18851 net.cpp:397] relu3_2 -> conv3_2 (in-place)
I1007 03:19:02.327792 18851 net.cpp:150] Setting up relu3_2
I1007 03:19:02.327805 18851 net.cpp:157] Top shape: 2 256 112 112 (6422528)
I1007 03:19:02.327808 18851 net.cpp:165] Memory required for data: 763867664
I1007 03:19:02.327812 18851 layer_factory.hpp:76] Creating layer conv3_3
I1007 03:19:02.327824 18851 net.cpp:106] Creating Layer conv3_3
I1007 03:19:02.327828 18851 net.cpp:454] conv3_3 <- conv3_2
I1007 03:19:02.327834 18851 net.cpp:411] conv3_3 -> conv3_3
I1007 03:19:02.331081 18851 net.cpp:150] Setting up conv3_3
I1007 03:19:02.331126 18851 net.cpp:157] Top shape: 2 256 112 112 (6422528)
I1007 03:19:02.331130 18851 net.cpp:165] Memory required for data: 789557776
I1007 03:19:02.331143 18851 layer_factory.hpp:76] Creating layer relu3_3
I1007 03:19:02.331157 18851 net.cpp:106] Creating Layer relu3_3
I1007 03:19:02.331162 18851 net.cpp:454] relu3_3 <- conv3_3
I1007 03:19:02.331172 18851 net.cpp:397] relu3_3 -> conv3_3 (in-place)
I1007 03:19:02.331406 18851 net.cpp:150] Setting up relu3_3
I1007 03:19:02.331418 18851 net.cpp:157] Top shape: 2 256 112 112 (6422528)
I1007 03:19:02.331421 18851 net.cpp:165] Memory required for data: 815247888
I1007 03:19:02.331424 18851 layer_factory.hpp:76] Creating layer pool3
I1007 03:19:02.331435 18851 net.cpp:106] Creating Layer pool3
I1007 03:19:02.331439 18851 net.cpp:454] pool3 <- conv3_3
I1007 03:19:02.331444 18851 net.cpp:411] pool3 -> pool3
I1007 03:19:02.331914 18851 net.cpp:150] Setting up pool3
I1007 03:19:02.331928 18851 net.cpp:157] Top shape: 2 256 56 56 (1605632)
I1007 03:19:02.331931 18851 net.cpp:165] Memory required for data: 821670416
I1007 03:19:02.331939 18851 layer_factory.hpp:76] Creating layer conv4_1
I1007 03:19:02.331959 18851 net.cpp:106] Creating Layer conv4_1
I1007 03:19:02.331964 18851 net.cpp:454] conv4_1 <- pool3
I1007 03:19:02.331971 18851 net.cpp:411] conv4_1 -> conv4_1
I1007 03:19:02.337627 18851 net.cpp:150] Setting up conv4_1
I1007 03:19:02.337680 18851 net.cpp:157] Top shape: 2 512 56 56 (3211264)
I1007 03:19:02.337684 18851 net.cpp:165] Memory required for data: 834515472
I1007 03:19:02.337697 18851 layer_factory.hpp:76] Creating layer relu4_1
I1007 03:19:02.337712 18851 net.cpp:106] Creating Layer relu4_1
I1007 03:19:02.337718 18851 net.cpp:454] relu4_1 <- conv4_1
I1007 03:19:02.337728 18851 net.cpp:397] relu4_1 -> conv4_1 (in-place)
I1007 03:19:02.338603 18851 net.cpp:150] Setting up relu4_1
I1007 03:19:02.338620 18851 net.cpp:157] Top shape: 2 512 56 56 (3211264)
I1007 03:19:02.338630 18851 net.cpp:165] Memory required for data: 847360528
I1007 03:19:02.338635 18851 layer_factory.hpp:76] Creating layer conv4_2
I1007 03:19:02.338657 18851 net.cpp:106] Creating Layer conv4_2
I1007 03:19:02.338662 18851 net.cpp:454] conv4_2 <- conv4_1
I1007 03:19:02.338670 18851 net.cpp:411] conv4_2 -> conv4_2
I1007 03:19:02.349181 18851 net.cpp:150] Setting up conv4_2
I1007 03:19:02.349221 18851 net.cpp:157] Top shape: 2 512 56 56 (3211264)
I1007 03:19:02.349227 18851 net.cpp:165] Memory required for data: 860205584
I1007 03:19:02.349253 18851 layer_factory.hpp:76] Creating layer relu4_2
I1007 03:19:02.349272 18851 net.cpp:106] Creating Layer relu4_2
I1007 03:19:02.349280 18851 net.cpp:454] relu4_2 <- conv4_2
I1007 03:19:02.349292 18851 net.cpp:397] relu4_2 -> conv4_2 (in-place)
I1007 03:19:02.349629 18851 net.cpp:150] Setting up relu4_2
I1007 03:19:02.349647 18851 net.cpp:157] Top shape: 2 512 56 56 (3211264)
I1007 03:19:02.349652 18851 net.cpp:165] Memory required for data: 873050640
I1007 03:19:02.349658 18851 layer_factory.hpp:76] Creating layer conv4_3
I1007 03:19:02.349673 18851 net.cpp:106] Creating Layer conv4_3
I1007 03:19:02.349679 18851 net.cpp:454] conv4_3 <- conv4_2
I1007 03:19:02.349690 18851 net.cpp:411] conv4_3 -> conv4_3
I1007 03:19:02.359354 18851 net.cpp:150] Setting up conv4_3
I1007 03:19:02.359381 18851 net.cpp:157] Top shape: 2 512 56 56 (3211264)
I1007 03:19:02.359386 18851 net.cpp:165] Memory required for data: 885895696
I1007 03:19:02.359397 18851 layer_factory.hpp:76] Creating layer relu4_3
I1007 03:19:02.359411 18851 net.cpp:106] Creating Layer relu4_3
I1007 03:19:02.359418 18851 net.cpp:454] relu4_3 <- conv4_3
I1007 03:19:02.359426 18851 net.cpp:397] relu4_3 -> conv4_3 (in-place)
I1007 03:19:02.359977 18851 net.cpp:150] Setting up relu4_3
I1007 03:19:02.359997 18851 net.cpp:157] Top shape: 2 512 56 56 (3211264)
I1007 03:19:02.360002 18851 net.cpp:165] Memory required for data: 898740752
I1007 03:19:02.360008 18851 layer_factory.hpp:76] Creating layer conv4_3_relu4_3_0_split
I1007 03:19:02.360019 18851 net.cpp:106] Creating Layer conv4_3_relu4_3_0_split
I1007 03:19:02.360025 18851 net.cpp:454] conv4_3_relu4_3_0_split <- conv4_3
I1007 03:19:02.360034 18851 net.cpp:411] conv4_3_relu4_3_0_split -> conv4_3_relu4_3_0_split_0
I1007 03:19:02.360045 18851 net.cpp:411] conv4_3_relu4_3_0_split -> conv4_3_relu4_3_0_split_1
I1007 03:19:02.360134 18851 net.cpp:150] Setting up conv4_3_relu4_3_0_split
I1007 03:19:02.360146 18851 net.cpp:157] Top shape: 2 512 56 56 (3211264)
I1007 03:19:02.360152 18851 net.cpp:157] Top shape: 2 512 56 56 (3211264)
I1007 03:19:02.360157 18851 net.cpp:165] Memory required for data: 924430864
I1007 03:19:02.360162 18851 layer_factory.hpp:76] Creating layer loss1_conv1
I1007 03:19:02.360184 18851 net.cpp:106] Creating Layer loss1_conv1
I1007 03:19:02.360191 18851 net.cpp:454] loss1_conv1 <- conv4_3_relu4_3_0_split_0
I1007 03:19:02.360204 18851 net.cpp:411] loss1_conv1 -> loss1_conv1
I1007 03:19:02.468308 18851 net.cpp:150] Setting up loss1_conv1
I1007 03:19:02.468333 18851 net.cpp:157] Top shape: 2 512 56 56 (3211264)
I1007 03:19:02.468335 18851 net.cpp:165] Memory required for data: 937275920
I1007 03:19:02.468343 18851 layer_factory.hpp:76] Creating layer loss_relu1
I1007 03:19:02.468353 18851 net.cpp:106] Creating Layer loss_relu1
I1007 03:19:02.468358 18851 net.cpp:454] loss_relu1 <- loss1_conv1
I1007 03:19:02.468366 18851 net.cpp:397] loss_relu1 -> loss1_conv1 (in-place)
I1007 03:19:02.468770 18851 net.cpp:150] Setting up loss_relu1
I1007 03:19:02.468786 18851 net.cpp:157] Top shape: 2 512 56 56 (3211264)
I1007 03:19:02.468788 18851 net.cpp:165] Memory required for data: 950120976
I1007 03:19:02.468791 18851 layer_factory.hpp:76] Creating layer loss1_conv1_loss_relu1_0_split
I1007 03:19:02.468798 18851 net.cpp:106] Creating Layer loss1_conv1_loss_relu1_0_split
I1007 03:19:02.468802 18851 net.cpp:454] loss1_conv1_loss_relu1_0_split <- loss1_conv1
I1007 03:19:02.468809 18851 net.cpp:411] loss1_conv1_loss_relu1_0_split -> loss1_conv1_loss_relu1_0_split_0
I1007 03:19:02.468817 18851 net.cpp:411] loss1_conv1_loss_relu1_0_split -> loss1_conv1_loss_relu1_0_split_1
I1007 03:19:02.468876 18851 net.cpp:150] Setting up loss1_conv1_loss_relu1_0_split
I1007 03:19:02.468884 18851 net.cpp:157] Top shape: 2 512 56 56 (3211264)
I1007 03:19:02.468888 18851 net.cpp:157] Top shape: 2 512 56 56 (3211264)
I1007 03:19:02.468891 18851 net.cpp:165] Memory required for data: 975811088
I1007 03:19:02.468894 18851 layer_factory.hpp:76] Creating layer LFCN_1_3x5
I1007 03:19:02.468904 18851 net.cpp:106] Creating Layer LFCN_1_3x5
I1007 03:19:02.468909 18851 net.cpp:454] LFCN_1_3x5 <- loss1_conv1_loss_relu1_0_split_0
I1007 03:19:02.468914 18851 net.cpp:411] LFCN_1_3x5 -> LFCN_1_3x5
I1007 03:19:02.471849 18851 net.cpp:150] Setting up LFCN_1_3x5
I1007 03:19:02.471863 18851 net.cpp:157] Top shape: 2 6 56 56 (37632)
I1007 03:19:02.471868 18851 net.cpp:165] Memory required for data: 975961616
I1007 03:19:02.471875 18851 layer_factory.hpp:76] Creating layer LFCN_1_3x5_LFCN_1_3x5_0_split
I1007 03:19:02.471881 18851 net.cpp:106] Creating Layer LFCN_1_3x5_LFCN_1_3x5_0_split
I1007 03:19:02.471885 18851 net.cpp:454] LFCN_1_3x5_LFCN_1_3x5_0_split <- LFCN_1_3x5
I1007 03:19:02.471891 18851 net.cpp:411] LFCN_1_3x5_LFCN_1_3x5_0_split -> LFCN_1_3x5_LFCN_1_3x5_0_split_0
I1007 03:19:02.471899 18851 net.cpp:411] LFCN_1_3x5_LFCN_1_3x5_0_split -> LFCN_1_3x5_LFCN_1_3x5_0_split_1
I1007 03:19:02.471954 18851 net.cpp:150] Setting up LFCN_1_3x5_LFCN_1_3x5_0_split
I1007 03:19:02.471963 18851 net.cpp:157] Top shape: 2 6 56 56 (37632)
I1007 03:19:02.471967 18851 net.cpp:157] Top shape: 2 6 56 56 (37632)
I1007 03:19:02.471971 18851 net.cpp:165] Memory required for data: 976262672
I1007 03:19:02.471973 18851 layer_factory.hpp:76] Creating layer detection_loss_1_3x5
I1007 03:19:02.471982 18851 net.cpp:106] Creating Layer detection_loss_1_3x5
I1007 03:19:02.471985 18851 net.cpp:454] detection_loss_1_3x5 <- LFCN_1_3x5_LFCN_1_3x5_0_split_0
I1007 03:19:02.471990 18851 net.cpp:454] detection_loss_1_3x5 <- label_1_3x5_data_1_split_0
I1007 03:19:02.471995 18851 net.cpp:411] detection_loss_1_3x5 -> loss_1_3x5
I1007 03:19:02.472004 18851 layer_factory.hpp:76] Creating layer detection_loss_1_3x5
I1007 03:19:02.472434 18851 net.cpp:150] Setting up detection_loss_1_3x5
I1007 03:19:02.472446 18851 net.cpp:157] Top shape: 1 1 1 2 (2)
I1007 03:19:02.472450 18851 net.cpp:160]     with loss weight 0.9
I1007 03:19:02.472462 18851 net.cpp:165] Memory required for data: 976262680
I1007 03:19:02.472465 18851 layer_factory.hpp:76] Creating layer detection_accuracy_1_3x5
I1007 03:19:02.472472 18851 net.cpp:106] Creating Layer detection_accuracy_1_3x5
I1007 03:19:02.472478 18851 net.cpp:454] detection_accuracy_1_3x5 <- LFCN_1_3x5_LFCN_1_3x5_0_split_1
I1007 03:19:02.472483 18851 net.cpp:454] detection_accuracy_1_3x5 <- label_1_3x5_data_1_split_1
I1007 03:19:02.472489 18851 net.cpp:411] detection_accuracy_1_3x5 -> accuracy_1_3x5
I1007 03:19:02.472496 18851 net.cpp:411] detection_accuracy_1_3x5 -> boxiou_1_3x5
I1007 03:19:02.472548 18851 net.cpp:150] Setting up detection_accuracy_1_3x5
I1007 03:19:02.472556 18851 net.cpp:157] Top shape: 1 1 1 2 (2)
I1007 03:19:02.472560 18851 net.cpp:157] Top shape: 1 1 1 1 (1)
I1007 03:19:02.472563 18851 net.cpp:165] Memory required for data: 976262692
I1007 03:19:02.472565 18851 layer_factory.hpp:76] Creating layer LFCN_1_5x7
I1007 03:19:02.472576 18851 net.cpp:106] Creating Layer LFCN_1_5x7
I1007 03:19:02.472580 18851 net.cpp:454] LFCN_1_5x7 <- loss1_conv1_loss_relu1_0_split_1
I1007 03:19:02.472585 18851 net.cpp:411] LFCN_1_5x7 -> LFCN_1_5x7
I1007 03:19:02.477735 18851 net.cpp:150] Setting up LFCN_1_5x7
I1007 03:19:02.477749 18851 net.cpp:157] Top shape: 2 6 56 56 (37632)
I1007 03:19:02.477753 18851 net.cpp:165] Memory required for data: 976413220
I1007 03:19:02.477759 18851 layer_factory.hpp:76] Creating layer LFCN_1_5x7_LFCN_1_5x7_0_split
I1007 03:19:02.477766 18851 net.cpp:106] Creating Layer LFCN_1_5x7_LFCN_1_5x7_0_split
I1007 03:19:02.477769 18851 net.cpp:454] LFCN_1_5x7_LFCN_1_5x7_0_split <- LFCN_1_5x7
I1007 03:19:02.477782 18851 net.cpp:411] LFCN_1_5x7_LFCN_1_5x7_0_split -> LFCN_1_5x7_LFCN_1_5x7_0_split_0
I1007 03:19:02.477789 18851 net.cpp:411] LFCN_1_5x7_LFCN_1_5x7_0_split -> LFCN_1_5x7_LFCN_1_5x7_0_split_1
I1007 03:19:02.477849 18851 net.cpp:150] Setting up LFCN_1_5x7_LFCN_1_5x7_0_split
I1007 03:19:02.477854 18851 net.cpp:157] Top shape: 2 6 56 56 (37632)
I1007 03:19:02.477857 18851 net.cpp:157] Top shape: 2 6 56 56 (37632)
I1007 03:19:02.477860 18851 net.cpp:165] Memory required for data: 976714276
I1007 03:19:02.477864 18851 layer_factory.hpp:76] Creating layer detection_loss_1_5x7
I1007 03:19:02.477871 18851 net.cpp:106] Creating Layer detection_loss_1_5x7
I1007 03:19:02.477875 18851 net.cpp:454] detection_loss_1_5x7 <- LFCN_1_5x7_LFCN_1_5x7_0_split_0
I1007 03:19:02.477880 18851 net.cpp:454] detection_loss_1_5x7 <- label_1_5x7_data_2_split_0
I1007 03:19:02.477888 18851 net.cpp:411] detection_loss_1_5x7 -> loss_1_5x7
I1007 03:19:02.477896 18851 layer_factory.hpp:76] Creating layer detection_loss_1_5x7
I1007 03:19:02.478524 18851 net.cpp:150] Setting up detection_loss_1_5x7
I1007 03:19:02.478538 18851 net.cpp:157] Top shape: 1 1 1 2 (2)
I1007 03:19:02.478540 18851 net.cpp:160]     with loss weight 0.9
I1007 03:19:02.478548 18851 net.cpp:165] Memory required for data: 976714284
I1007 03:19:02.478550 18851 layer_factory.hpp:76] Creating layer detection_accuracy_1_5x7
I1007 03:19:02.478557 18851 net.cpp:106] Creating Layer detection_accuracy_1_5x7
I1007 03:19:02.478561 18851 net.cpp:454] detection_accuracy_1_5x7 <- LFCN_1_5x7_LFCN_1_5x7_0_split_1
I1007 03:19:02.478569 18851 net.cpp:454] detection_accuracy_1_5x7 <- label_1_5x7_data_2_split_1
I1007 03:19:02.478575 18851 net.cpp:411] detection_accuracy_1_5x7 -> accuracy_1_5x7
I1007 03:19:02.478582 18851 net.cpp:411] detection_accuracy_1_5x7 -> boxiou_1_5x7
I1007 03:19:02.478636 18851 net.cpp:150] Setting up detection_accuracy_1_5x7
I1007 03:19:02.478641 18851 net.cpp:157] Top shape: 1 1 1 2 (2)
I1007 03:19:02.478646 18851 net.cpp:157] Top shape: 1 1 1 1 (1)
I1007 03:19:02.478648 18851 net.cpp:165] Memory required for data: 976714296
I1007 03:19:02.478652 18851 layer_factory.hpp:76] Creating layer pool4
I1007 03:19:02.478657 18851 net.cpp:106] Creating Layer pool4
I1007 03:19:02.478662 18851 net.cpp:454] pool4 <- conv4_3_relu4_3_0_split_1
I1007 03:19:02.478667 18851 net.cpp:411] pool4 -> pool4
I1007 03:19:02.478927 18851 net.cpp:150] Setting up pool4
I1007 03:19:02.478940 18851 net.cpp:157] Top shape: 2 512 28 28 (802816)
I1007 03:19:02.478943 18851 net.cpp:165] Memory required for data: 979925560
I1007 03:19:02.478946 18851 layer_factory.hpp:76] Creating layer conv5_1
I1007 03:19:02.478955 18851 net.cpp:106] Creating Layer conv5_1
I1007 03:19:02.478958 18851 net.cpp:454] conv5_1 <- pool4
I1007 03:19:02.478965 18851 net.cpp:411] conv5_1 -> conv5_1
I1007 03:19:02.485747 18851 net.cpp:150] Setting up conv5_1
I1007 03:19:02.485765 18851 net.cpp:157] Top shape: 2 512 28 28 (802816)
I1007 03:19:02.485769 18851 net.cpp:165] Memory required for data: 983136824
I1007 03:19:02.485776 18851 layer_factory.hpp:76] Creating layer relu5_1
I1007 03:19:02.485783 18851 net.cpp:106] Creating Layer relu5_1
I1007 03:19:02.485787 18851 net.cpp:454] relu5_1 <- conv5_1
I1007 03:19:02.485795 18851 net.cpp:397] relu5_1 -> conv5_1 (in-place)
I1007 03:19:02.485999 18851 net.cpp:150] Setting up relu5_1
I1007 03:19:02.486011 18851 net.cpp:157] Top shape: 2 512 28 28 (802816)
I1007 03:19:02.486013 18851 net.cpp:165] Memory required for data: 986348088
I1007 03:19:02.486017 18851 layer_factory.hpp:76] Creating layer conv5_2
I1007 03:19:02.486026 18851 net.cpp:106] Creating Layer conv5_2
I1007 03:19:02.486029 18851 net.cpp:454] conv5_2 <- conv5_1
I1007 03:19:02.486037 18851 net.cpp:411] conv5_2 -> conv5_2
I1007 03:19:02.493073 18851 net.cpp:150] Setting up conv5_2
I1007 03:19:02.493091 18851 net.cpp:157] Top shape: 2 512 28 28 (802816)
I1007 03:19:02.493095 18851 net.cpp:165] Memory required for data: 989559352
I1007 03:19:02.493103 18851 layer_factory.hpp:76] Creating layer relu5_2
I1007 03:19:02.493109 18851 net.cpp:106] Creating Layer relu5_2
I1007 03:19:02.493114 18851 net.cpp:454] relu5_2 <- conv5_2
I1007 03:19:02.493121 18851 net.cpp:397] relu5_2 -> conv5_2 (in-place)
I1007 03:19:02.493517 18851 net.cpp:150] Setting up relu5_2
I1007 03:19:02.493530 18851 net.cpp:157] Top shape: 2 512 28 28 (802816)
I1007 03:19:02.493533 18851 net.cpp:165] Memory required for data: 992770616
I1007 03:19:02.493537 18851 layer_factory.hpp:76] Creating layer conv5_3
I1007 03:19:02.493546 18851 net.cpp:106] Creating Layer conv5_3
I1007 03:19:02.493551 18851 net.cpp:454] conv5_3 <- conv5_2
I1007 03:19:02.493556 18851 net.cpp:411] conv5_3 -> conv5_3
I1007 03:19:02.500672 18851 net.cpp:150] Setting up conv5_3
I1007 03:19:02.500690 18851 net.cpp:157] Top shape: 2 512 28 28 (802816)
I1007 03:19:02.500694 18851 net.cpp:165] Memory required for data: 995981880
I1007 03:19:02.500701 18851 layer_factory.hpp:76] Creating layer relu5_3
I1007 03:19:02.500708 18851 net.cpp:106] Creating Layer relu5_3
I1007 03:19:02.500712 18851 net.cpp:454] relu5_3 <- conv5_3
I1007 03:19:02.500720 18851 net.cpp:397] relu5_3 -> conv5_3 (in-place)
I1007 03:19:02.500934 18851 net.cpp:150] Setting up relu5_3
I1007 03:19:02.500946 18851 net.cpp:157] Top shape: 2 512 28 28 (802816)
I1007 03:19:02.500951 18851 net.cpp:165] Memory required for data: 999193144
I1007 03:19:02.500953 18851 layer_factory.hpp:76] Creating layer conv5_3_relu5_3_0_split
I1007 03:19:02.500960 18851 net.cpp:106] Creating Layer conv5_3_relu5_3_0_split
I1007 03:19:02.500964 18851 net.cpp:454] conv5_3_relu5_3_0_split <- conv5_3
I1007 03:19:02.500969 18851 net.cpp:411] conv5_3_relu5_3_0_split -> conv5_3_relu5_3_0_split_0
I1007 03:19:02.500977 18851 net.cpp:411] conv5_3_relu5_3_0_split -> conv5_3_relu5_3_0_split_1
I1007 03:19:02.500982 18851 net.cpp:411] conv5_3_relu5_3_0_split -> conv5_3_relu5_3_0_split_2
I1007 03:19:02.501056 18851 net.cpp:150] Setting up conv5_3_relu5_3_0_split
I1007 03:19:02.501062 18851 net.cpp:157] Top shape: 2 512 28 28 (802816)
I1007 03:19:02.501066 18851 net.cpp:157] Top shape: 2 512 28 28 (802816)
I1007 03:19:02.501070 18851 net.cpp:157] Top shape: 2 512 28 28 (802816)
I1007 03:19:02.501072 18851 net.cpp:165] Memory required for data: 1008826936
I1007 03:19:02.501075 18851 layer_factory.hpp:76] Creating layer LFCN_2_3x5
I1007 03:19:02.501086 18851 net.cpp:106] Creating Layer LFCN_2_3x5
I1007 03:19:02.501090 18851 net.cpp:454] LFCN_2_3x5 <- conv5_3_relu5_3_0_split_0
I1007 03:19:02.501097 18851 net.cpp:411] LFCN_2_3x5 -> LFCN_2_3x5
I1007 03:19:02.504066 18851 net.cpp:150] Setting up LFCN_2_3x5
I1007 03:19:02.504081 18851 net.cpp:157] Top shape: 2 6 28 28 (9408)
I1007 03:19:02.504084 18851 net.cpp:165] Memory required for data: 1008864568
I1007 03:19:02.504101 18851 layer_factory.hpp:76] Creating layer LFCN_2_3x5_LFCN_2_3x5_0_split
I1007 03:19:02.504108 18851 net.cpp:106] Creating Layer LFCN_2_3x5_LFCN_2_3x5_0_split
I1007 03:19:02.504112 18851 net.cpp:454] LFCN_2_3x5_LFCN_2_3x5_0_split <- LFCN_2_3x5
I1007 03:19:02.504118 18851 net.cpp:411] LFCN_2_3x5_LFCN_2_3x5_0_split -> LFCN_2_3x5_LFCN_2_3x5_0_split_0
I1007 03:19:02.504127 18851 net.cpp:411] LFCN_2_3x5_LFCN_2_3x5_0_split -> LFCN_2_3x5_LFCN_2_3x5_0_split_1
I1007 03:19:02.504181 18851 net.cpp:150] Setting up LFCN_2_3x5_LFCN_2_3x5_0_split
I1007 03:19:02.504187 18851 net.cpp:157] Top shape: 2 6 28 28 (9408)
I1007 03:19:02.504190 18851 net.cpp:157] Top shape: 2 6 28 28 (9408)
I1007 03:19:02.504194 18851 net.cpp:165] Memory required for data: 1008939832
I1007 03:19:02.504196 18851 layer_factory.hpp:76] Creating layer detection_loss_2_3x5
I1007 03:19:02.504205 18851 net.cpp:106] Creating Layer detection_loss_2_3x5
I1007 03:19:02.504209 18851 net.cpp:454] detection_loss_2_3x5 <- LFCN_2_3x5_LFCN_2_3x5_0_split_0
I1007 03:19:02.504215 18851 net.cpp:454] detection_loss_2_3x5 <- label_2_3x5_data_3_split_0
I1007 03:19:02.504220 18851 net.cpp:411] detection_loss_2_3x5 -> loss_2_3x5
I1007 03:19:02.504228 18851 layer_factory.hpp:76] Creating layer detection_loss_2_3x5
I1007 03:19:02.504678 18851 net.cpp:150] Setting up detection_loss_2_3x5
I1007 03:19:02.504689 18851 net.cpp:157] Top shape: 1 1 1 2 (2)
I1007 03:19:02.504693 18851 net.cpp:160]     with loss weight 1
I1007 03:19:02.504706 18851 net.cpp:165] Memory required for data: 1008939840
I1007 03:19:02.504710 18851 layer_factory.hpp:76] Creating layer detection_accuracy_2_3x5
I1007 03:19:02.504719 18851 net.cpp:106] Creating Layer detection_accuracy_2_3x5
I1007 03:19:02.504724 18851 net.cpp:454] detection_accuracy_2_3x5 <- LFCN_2_3x5_LFCN_2_3x5_0_split_1
I1007 03:19:02.504729 18851 net.cpp:454] detection_accuracy_2_3x5 <- label_2_3x5_data_3_split_1
I1007 03:19:02.504734 18851 net.cpp:411] detection_accuracy_2_3x5 -> accuracy_2_3x5
I1007 03:19:02.504742 18851 net.cpp:411] detection_accuracy_2_3x5 -> boxiou_2_3x5
I1007 03:19:02.504806 18851 net.cpp:150] Setting up detection_accuracy_2_3x5
I1007 03:19:02.504812 18851 net.cpp:157] Top shape: 1 1 1 2 (2)
I1007 03:19:02.504817 18851 net.cpp:157] Top shape: 1 1 1 1 (1)
I1007 03:19:02.504818 18851 net.cpp:165] Memory required for data: 1008939852
I1007 03:19:02.504822 18851 layer_factory.hpp:76] Creating layer LFCN_2_5x7
I1007 03:19:02.504832 18851 net.cpp:106] Creating Layer LFCN_2_5x7
I1007 03:19:02.504835 18851 net.cpp:454] LFCN_2_5x7 <- conv5_3_relu5_3_0_split_1
I1007 03:19:02.504843 18851 net.cpp:411] LFCN_2_5x7 -> LFCN_2_5x7
I1007 03:19:02.510517 18851 net.cpp:150] Setting up LFCN_2_5x7
I1007 03:19:02.510532 18851 net.cpp:157] Top shape: 2 6 28 28 (9408)
I1007 03:19:02.510536 18851 net.cpp:165] Memory required for data: 1008977484
I1007 03:19:02.510542 18851 layer_factory.hpp:76] Creating layer LFCN_2_5x7_LFCN_2_5x7_0_split
I1007 03:19:02.510551 18851 net.cpp:106] Creating Layer LFCN_2_5x7_LFCN_2_5x7_0_split
I1007 03:19:02.510555 18851 net.cpp:454] LFCN_2_5x7_LFCN_2_5x7_0_split <- LFCN_2_5x7
I1007 03:19:02.510561 18851 net.cpp:411] LFCN_2_5x7_LFCN_2_5x7_0_split -> LFCN_2_5x7_LFCN_2_5x7_0_split_0
I1007 03:19:02.510570 18851 net.cpp:411] LFCN_2_5x7_LFCN_2_5x7_0_split -> LFCN_2_5x7_LFCN_2_5x7_0_split_1
I1007 03:19:02.510625 18851 net.cpp:150] Setting up LFCN_2_5x7_LFCN_2_5x7_0_split
I1007 03:19:02.510632 18851 net.cpp:157] Top shape: 2 6 28 28 (9408)
I1007 03:19:02.510635 18851 net.cpp:157] Top shape: 2 6 28 28 (9408)
I1007 03:19:02.510637 18851 net.cpp:165] Memory required for data: 1009052748
I1007 03:19:02.510640 18851 layer_factory.hpp:76] Creating layer detection_loss_2_5x7
I1007 03:19:02.510648 18851 net.cpp:106] Creating Layer detection_loss_2_5x7
I1007 03:19:02.510650 18851 net.cpp:454] detection_loss_2_5x7 <- LFCN_2_5x7_LFCN_2_5x7_0_split_0
I1007 03:19:02.510658 18851 net.cpp:454] detection_loss_2_5x7 <- label_2_5x7_data_4_split_0
I1007 03:19:02.510663 18851 net.cpp:411] detection_loss_2_5x7 -> loss_2_5x7
I1007 03:19:02.510671 18851 layer_factory.hpp:76] Creating layer detection_loss_2_5x7
I1007 03:19:02.511306 18851 net.cpp:150] Setting up detection_loss_2_5x7
I1007 03:19:02.511319 18851 net.cpp:157] Top shape: 1 1 1 2 (2)
I1007 03:19:02.511323 18851 net.cpp:160]     with loss weight 1
I1007 03:19:02.511329 18851 net.cpp:165] Memory required for data: 1009052756
I1007 03:19:02.511332 18851 layer_factory.hpp:76] Creating layer detection_accuracy_2_5x7
I1007 03:19:02.511340 18851 net.cpp:106] Creating Layer detection_accuracy_2_5x7
I1007 03:19:02.511343 18851 net.cpp:454] detection_accuracy_2_5x7 <- LFCN_2_5x7_LFCN_2_5x7_0_split_1
I1007 03:19:02.511349 18851 net.cpp:454] detection_accuracy_2_5x7 <- label_2_5x7_data_4_split_1
I1007 03:19:02.511356 18851 net.cpp:411] detection_accuracy_2_5x7 -> accuracy_2_5x7
I1007 03:19:02.511363 18851 net.cpp:411] detection_accuracy_2_5x7 -> boxiou_2_5x7
I1007 03:19:02.511418 18851 net.cpp:150] Setting up detection_accuracy_2_5x7
I1007 03:19:02.511425 18851 net.cpp:157] Top shape: 1 1 1 2 (2)
I1007 03:19:02.511427 18851 net.cpp:157] Top shape: 1 1 1 1 (1)
I1007 03:19:02.511430 18851 net.cpp:165] Memory required for data: 1009052768
I1007 03:19:02.511433 18851 layer_factory.hpp:76] Creating layer pool5
I1007 03:19:02.511441 18851 net.cpp:106] Creating Layer pool5
I1007 03:19:02.511445 18851 net.cpp:454] pool5 <- conv5_3_relu5_3_0_split_2
I1007 03:19:02.511452 18851 net.cpp:411] pool5 -> pool5
I1007 03:19:02.511703 18851 net.cpp:150] Setting up pool5
I1007 03:19:02.511714 18851 net.cpp:157] Top shape: 2 512 14 14 (200704)
I1007 03:19:02.511718 18851 net.cpp:165] Memory required for data: 1009855584
I1007 03:19:02.511720 18851 layer_factory.hpp:76] Creating layer conv6_1
I1007 03:19:02.511731 18851 net.cpp:106] Creating Layer conv6_1
I1007 03:19:02.511735 18851 net.cpp:454] conv6_1 <- pool5
I1007 03:19:02.511742 18851 net.cpp:411] conv6_1 -> conv6_1
I1007 03:19:02.600023 18851 net.cpp:150] Setting up conv6_1
I1007 03:19:02.600044 18851 net.cpp:157] Top shape: 2 512 14 14 (200704)
I1007 03:19:02.600047 18851 net.cpp:165] Memory required for data: 1010658400
I1007 03:19:02.600054 18851 layer_factory.hpp:76] Creating layer relu6_1
I1007 03:19:02.600061 18851 net.cpp:106] Creating Layer relu6_1
I1007 03:19:02.600065 18851 net.cpp:454] relu6_1 <- conv6_1
I1007 03:19:02.600071 18851 net.cpp:397] relu6_1 -> conv6_1 (in-place)
I1007 03:19:02.600466 18851 net.cpp:150] Setting up relu6_1
I1007 03:19:02.600479 18851 net.cpp:157] Top shape: 2 512 14 14 (200704)
I1007 03:19:02.600487 18851 net.cpp:165] Memory required for data: 1011461216
I1007 03:19:02.600491 18851 layer_factory.hpp:76] Creating layer conv6_1_relu6_1_0_split
I1007 03:19:02.600497 18851 net.cpp:106] Creating Layer conv6_1_relu6_1_0_split
I1007 03:19:02.600500 18851 net.cpp:454] conv6_1_relu6_1_0_split <- conv6_1
I1007 03:19:02.600507 18851 net.cpp:411] conv6_1_relu6_1_0_split -> conv6_1_relu6_1_0_split_0
I1007 03:19:02.600515 18851 net.cpp:411] conv6_1_relu6_1_0_split -> conv6_1_relu6_1_0_split_1
I1007 03:19:02.600522 18851 net.cpp:411] conv6_1_relu6_1_0_split -> conv6_1_relu6_1_0_split_2
I1007 03:19:02.600605 18851 net.cpp:150] Setting up conv6_1_relu6_1_0_split
I1007 03:19:02.600621 18851 net.cpp:157] Top shape: 2 512 14 14 (200704)
I1007 03:19:02.600625 18851 net.cpp:157] Top shape: 2 512 14 14 (200704)
I1007 03:19:02.600628 18851 net.cpp:157] Top shape: 2 512 14 14 (200704)
I1007 03:19:02.600631 18851 net.cpp:165] Memory required for data: 1013869664
I1007 03:19:02.600635 18851 layer_factory.hpp:76] Creating layer LFCN_3_3x5
I1007 03:19:02.600646 18851 net.cpp:106] Creating Layer LFCN_3_3x5
I1007 03:19:02.600648 18851 net.cpp:454] LFCN_3_3x5 <- conv6_1_relu6_1_0_split_0
I1007 03:19:02.600656 18851 net.cpp:411] LFCN_3_3x5 -> LFCN_3_3x5
I1007 03:19:02.604045 18851 net.cpp:150] Setting up LFCN_3_3x5
I1007 03:19:02.604060 18851 net.cpp:157] Top shape: 2 6 14 14 (2352)
I1007 03:19:02.604064 18851 net.cpp:165] Memory required for data: 1013879072
I1007 03:19:02.604071 18851 layer_factory.hpp:76] Creating layer LFCN_3_3x5_LFCN_3_3x5_0_split
I1007 03:19:02.604091 18851 net.cpp:106] Creating Layer LFCN_3_3x5_LFCN_3_3x5_0_split
I1007 03:19:02.604095 18851 net.cpp:454] LFCN_3_3x5_LFCN_3_3x5_0_split <- LFCN_3_3x5
I1007 03:19:02.604101 18851 net.cpp:411] LFCN_3_3x5_LFCN_3_3x5_0_split -> LFCN_3_3x5_LFCN_3_3x5_0_split_0
I1007 03:19:02.604110 18851 net.cpp:411] LFCN_3_3x5_LFCN_3_3x5_0_split -> LFCN_3_3x5_LFCN_3_3x5_0_split_1
I1007 03:19:02.604168 18851 net.cpp:150] Setting up LFCN_3_3x5_LFCN_3_3x5_0_split
I1007 03:19:02.604174 18851 net.cpp:157] Top shape: 2 6 14 14 (2352)
I1007 03:19:02.604177 18851 net.cpp:157] Top shape: 2 6 14 14 (2352)
I1007 03:19:02.604181 18851 net.cpp:165] Memory required for data: 1013897888
I1007 03:19:02.604184 18851 layer_factory.hpp:76] Creating layer detection_loss_3_3x5
I1007 03:19:02.604190 18851 net.cpp:106] Creating Layer detection_loss_3_3x5
I1007 03:19:02.604194 18851 net.cpp:454] detection_loss_3_3x5 <- LFCN_3_3x5_LFCN_3_3x5_0_split_0
I1007 03:19:02.604199 18851 net.cpp:454] detection_loss_3_3x5 <- label_3_3x5_data_5_split_0
I1007 03:19:02.604207 18851 net.cpp:411] detection_loss_3_3x5 -> loss_3_3x5
I1007 03:19:02.604220 18851 layer_factory.hpp:76] Creating layer detection_loss_3_3x5
I1007 03:19:02.604840 18851 net.cpp:150] Setting up detection_loss_3_3x5
I1007 03:19:02.604856 18851 net.cpp:157] Top shape: 1 1 1 2 (2)
I1007 03:19:02.604858 18851 net.cpp:160]     with loss weight 1
I1007 03:19:02.604866 18851 net.cpp:165] Memory required for data: 1013897896
I1007 03:19:02.604868 18851 layer_factory.hpp:76] Creating layer detection_accuracy_3_3x5
I1007 03:19:02.604876 18851 net.cpp:106] Creating Layer detection_accuracy_3_3x5
I1007 03:19:02.604881 18851 net.cpp:454] detection_accuracy_3_3x5 <- LFCN_3_3x5_LFCN_3_3x5_0_split_1
I1007 03:19:02.604885 18851 net.cpp:454] detection_accuracy_3_3x5 <- label_3_3x5_data_5_split_1
I1007 03:19:02.604892 18851 net.cpp:411] detection_accuracy_3_3x5 -> accuracy_3_3x5
I1007 03:19:02.604899 18851 net.cpp:411] detection_accuracy_3_3x5 -> boxiou_3_3x5
I1007 03:19:02.604955 18851 net.cpp:150] Setting up detection_accuracy_3_3x5
I1007 03:19:02.604961 18851 net.cpp:157] Top shape: 1 1 1 2 (2)
I1007 03:19:02.604965 18851 net.cpp:157] Top shape: 1 1 1 1 (1)
I1007 03:19:02.604967 18851 net.cpp:165] Memory required for data: 1013897908
I1007 03:19:02.604970 18851 layer_factory.hpp:76] Creating layer LFCN_3_5x7
I1007 03:19:02.604980 18851 net.cpp:106] Creating Layer LFCN_3_5x7
I1007 03:19:02.604984 18851 net.cpp:454] LFCN_3_5x7 <- conv6_1_relu6_1_0_split_1
I1007 03:19:02.604991 18851 net.cpp:411] LFCN_3_5x7 -> LFCN_3_5x7
I1007 03:19:02.610105 18851 net.cpp:150] Setting up LFCN_3_5x7
I1007 03:19:02.610119 18851 net.cpp:157] Top shape: 2 6 14 14 (2352)
I1007 03:19:02.610122 18851 net.cpp:165] Memory required for data: 1013907316
I1007 03:19:02.610129 18851 layer_factory.hpp:76] Creating layer LFCN_3_5x7_LFCN_3_5x7_0_split
I1007 03:19:02.610139 18851 net.cpp:106] Creating Layer LFCN_3_5x7_LFCN_3_5x7_0_split
I1007 03:19:02.610143 18851 net.cpp:454] LFCN_3_5x7_LFCN_3_5x7_0_split <- LFCN_3_5x7
I1007 03:19:02.610150 18851 net.cpp:411] LFCN_3_5x7_LFCN_3_5x7_0_split -> LFCN_3_5x7_LFCN_3_5x7_0_split_0
I1007 03:19:02.610159 18851 net.cpp:411] LFCN_3_5x7_LFCN_3_5x7_0_split -> LFCN_3_5x7_LFCN_3_5x7_0_split_1
I1007 03:19:02.610215 18851 net.cpp:150] Setting up LFCN_3_5x7_LFCN_3_5x7_0_split
I1007 03:19:02.610220 18851 net.cpp:157] Top shape: 2 6 14 14 (2352)
I1007 03:19:02.610224 18851 net.cpp:157] Top shape: 2 6 14 14 (2352)
I1007 03:19:02.610227 18851 net.cpp:165] Memory required for data: 1013926132
I1007 03:19:02.610230 18851 layer_factory.hpp:76] Creating layer detection_loss_3_5x7
I1007 03:19:02.610237 18851 net.cpp:106] Creating Layer detection_loss_3_5x7
I1007 03:19:02.610241 18851 net.cpp:454] detection_loss_3_5x7 <- LFCN_3_5x7_LFCN_3_5x7_0_split_0
I1007 03:19:02.610245 18851 net.cpp:454] detection_loss_3_5x7 <- label_3_5x7_data_6_split_0
I1007 03:19:02.610251 18851 net.cpp:411] detection_loss_3_5x7 -> loss_3_5x7
I1007 03:19:02.610258 18851 layer_factory.hpp:76] Creating layer detection_loss_3_5x7
I1007 03:19:02.610702 18851 net.cpp:150] Setting up detection_loss_3_5x7
I1007 03:19:02.610713 18851 net.cpp:157] Top shape: 1 1 1 2 (2)
I1007 03:19:02.610716 18851 net.cpp:160]     with loss weight 1
I1007 03:19:02.610723 18851 net.cpp:165] Memory required for data: 1013926140
I1007 03:19:02.610726 18851 layer_factory.hpp:76] Creating layer detection_accuracy_3_5x7
I1007 03:19:02.610736 18851 net.cpp:106] Creating Layer detection_accuracy_3_5x7
I1007 03:19:02.610739 18851 net.cpp:454] detection_accuracy_3_5x7 <- LFCN_3_5x7_LFCN_3_5x7_0_split_1
I1007 03:19:02.610744 18851 net.cpp:454] detection_accuracy_3_5x7 <- label_3_5x7_data_6_split_1
I1007 03:19:02.610750 18851 net.cpp:411] detection_accuracy_3_5x7 -> accuracy_3_5x7
I1007 03:19:02.610759 18851 net.cpp:411] detection_accuracy_3_5x7 -> boxiou_3_5x7
I1007 03:19:02.610812 18851 net.cpp:150] Setting up detection_accuracy_3_5x7
I1007 03:19:02.610818 18851 net.cpp:157] Top shape: 1 1 1 2 (2)
I1007 03:19:02.610821 18851 net.cpp:157] Top shape: 1 1 1 1 (1)
I1007 03:19:02.610824 18851 net.cpp:165] Memory required for data: 1013926152
I1007 03:19:02.610827 18851 layer_factory.hpp:76] Creating layer pool6
I1007 03:19:02.610837 18851 net.cpp:106] Creating Layer pool6
I1007 03:19:02.610841 18851 net.cpp:454] pool6 <- conv6_1_relu6_1_0_split_2
I1007 03:19:02.610846 18851 net.cpp:411] pool6 -> pool6
I1007 03:19:02.616067 18851 net.cpp:150] Setting up pool6
I1007 03:19:02.616098 18851 net.cpp:157] Top shape: 2 512 7 7 (50176)
I1007 03:19:02.616102 18851 net.cpp:165] Memory required for data: 1014126856
I1007 03:19:02.616117 18851 layer_factory.hpp:76] Creating layer LFCN_4_3x5
I1007 03:19:02.616138 18851 net.cpp:106] Creating Layer LFCN_4_3x5
I1007 03:19:02.616202 18851 net.cpp:454] LFCN_4_3x5 <- pool6
I1007 03:19:02.616246 18851 net.cpp:411] LFCN_4_3x5 -> LFCN_4_3x5
I1007 03:19:02.619742 18851 net.cpp:150] Setting up LFCN_4_3x5
I1007 03:19:02.619758 18851 net.cpp:157] Top shape: 2 6 7 7 (588)
I1007 03:19:02.619761 18851 net.cpp:165] Memory required for data: 1014129208
I1007 03:19:02.619773 18851 layer_factory.hpp:76] Creating layer LFCN_4_3x5_LFCN_4_3x5_0_split
I1007 03:19:02.619786 18851 net.cpp:106] Creating Layer LFCN_4_3x5_LFCN_4_3x5_0_split
I1007 03:19:02.619791 18851 net.cpp:454] LFCN_4_3x5_LFCN_4_3x5_0_split <- LFCN_4_3x5
I1007 03:19:02.619796 18851 net.cpp:411] LFCN_4_3x5_LFCN_4_3x5_0_split -> LFCN_4_3x5_LFCN_4_3x5_0_split_0
I1007 03:19:02.619806 18851 net.cpp:411] LFCN_4_3x5_LFCN_4_3x5_0_split -> LFCN_4_3x5_LFCN_4_3x5_0_split_1
I1007 03:19:02.619956 18851 net.cpp:150] Setting up LFCN_4_3x5_LFCN_4_3x5_0_split
I1007 03:19:02.619966 18851 net.cpp:157] Top shape: 2 6 7 7 (588)
I1007 03:19:02.619969 18851 net.cpp:157] Top shape: 2 6 7 7 (588)
I1007 03:19:02.619972 18851 net.cpp:165] Memory required for data: 1014133912
I1007 03:19:02.619979 18851 layer_factory.hpp:76] Creating layer detection_loss_4_3x5
I1007 03:19:02.619988 18851 net.cpp:106] Creating Layer detection_loss_4_3x5
I1007 03:19:02.619992 18851 net.cpp:454] detection_loss_4_3x5 <- LFCN_4_3x5_LFCN_4_3x5_0_split_0
I1007 03:19:02.620009 18851 net.cpp:454] detection_loss_4_3x5 <- label_4_3x5_data_7_split_0
I1007 03:19:02.620021 18851 net.cpp:411] detection_loss_4_3x5 -> loss_4_3x5
I1007 03:19:02.620030 18851 layer_factory.hpp:76] Creating layer detection_loss_4_3x5
I1007 03:19:02.620574 18851 net.cpp:150] Setting up detection_loss_4_3x5
I1007 03:19:02.620586 18851 net.cpp:157] Top shape: 1 1 1 2 (2)
I1007 03:19:02.620589 18851 net.cpp:160]     with loss weight 1
I1007 03:19:02.620597 18851 net.cpp:165] Memory required for data: 1014133920
I1007 03:19:02.620600 18851 layer_factory.hpp:76] Creating layer detection_accuracy_4_3x5
I1007 03:19:02.620618 18851 net.cpp:106] Creating Layer detection_accuracy_4_3x5
I1007 03:19:02.620622 18851 net.cpp:454] detection_accuracy_4_3x5 <- LFCN_4_3x5_LFCN_4_3x5_0_split_1
I1007 03:19:02.620627 18851 net.cpp:454] detection_accuracy_4_3x5 <- label_4_3x5_data_7_split_1
I1007 03:19:02.620633 18851 net.cpp:411] detection_accuracy_4_3x5 -> accuracy_4_3x5
I1007 03:19:02.620654 18851 net.cpp:411] detection_accuracy_4_3x5 -> boxiou_4_3x5
I1007 03:19:02.620712 18851 net.cpp:150] Setting up detection_accuracy_4_3x5
I1007 03:19:02.620718 18851 net.cpp:157] Top shape: 1 1 1 2 (2)
I1007 03:19:02.620721 18851 net.cpp:157] Top shape: 1 1 1 1 (1)
I1007 03:19:02.620723 18851 net.cpp:165] Memory required for data: 1014133932
I1007 03:19:02.620726 18851 net.cpp:228] detection_accuracy_4_3x5 does not need backward computation.
I1007 03:19:02.620730 18851 net.cpp:226] detection_loss_4_3x5 needs backward computation.
I1007 03:19:02.620734 18851 net.cpp:226] LFCN_4_3x5_LFCN_4_3x5_0_split needs backward computation.
I1007 03:19:02.620738 18851 net.cpp:226] LFCN_4_3x5 needs backward computation.
…
