…
    downsample_rate: 32
    downsample_rate: 32
    downsample_rate: 64
    coord_num: 4
    field_h: 40
    field_h: 56
    field_h: 80
    field_h: 112
    field_h: 160
    field_h: 224
    field_h: 320
    field_w: 20
    field_w: 28
    field_w: 40
    field_w: 56
    field_w: 80
    field_w: 112
    field_w: 160
    fg_threshold: 0.5
    resize_width: 640
    resize_height: 480
    crop_width: 448
    crop_height: 448
    do_multiple_scale: true
    min_scale: 30
    max_scale: 240
    min_gt_height: 45
    shuffle: true
    output_gt_boxes: true
  }
}
layer {
  name: "conv1_1"
  type: "Convolution"
  bottom: "data"
  top: "conv1_1"
  param {
    lr_mult: 0
    decay_mult: 0
  }
  param {
    lr_mult: 0
    decay_mult: 0
  }
  convolution_param {
    num_output: 64
    pad: 1
    kernel_size: 3
  }
}
layer {
  name: "relu1_1"
  type: "ReLU"
  bottom: "conv1_1"
  top: "conv1_1"
}
layer {
  name: "conv1_2"
  type: "Convolution"
  bottom: "conv1_1"
  top: "conv1_2"
  param {
    lr_mult: 0
    decay_mult: 0
  }
  param {
    lr_mult: 0
    decay_mult: 0
  }
  convolution_param {
    num_output: 64
    pad: 1
    kernel_size: 3
  }
}
layer {
  name: "relu1_2"
  type: "ReLU"
  bottom: "conv1_2"
  top: "conv1_2"
}
layer {
  name: "pool1"
  type: "Pooling"
  bottom: "conv1_2"
  top: "pool1"
  pooling_param {
    pool: MAX
    kernel_size: 2
    stride: 2
  }
}
layer {
  name: "conv2_1"
  type: "Convolution"
  bottom: "pool1"
  top: "conv2_1"
  param {
    lr_mult: 0
    decay_mult: 0
  }
  param {
    lr_mult: 0
    decay_mult: 0
  }
  convolution_param {
    num_output: 128
    pad: 1
    kernel_size: 3
  }
}
layer {
  name: "relu2_1"
  type: "ReLU"
  bottom: "conv2_1"
  top: "conv2_1"
}
layer {
  name: "conv2_2"
  type: "Convolution"
  bottom: "conv2_1"
  top: "conv2_2"
  param {
    lr_mult: 0
    decay_mult: 0
  }
  param {
    lr_mult: 0
    decay_mult: 0
  }
  convolution_param {
    num_output: 128
    pad: 1
    kernel_size: 3
  }
}
layer {
  name: "relu2_2"
  type: "ReLU"
  bottom: "conv2_2"
  top: "conv2_2"
}
layer {
  name: "pool2"
  type: "Pooling"
  bottom: "conv2_2"
  top: "pool2"
  pooling_param {
    pool: MAX
    kernel_size: 2
    stride: 2
  }
}
layer {
  name: "conv3_1"
  type: "Convolution"
  bottom: "pool2"
  top: "conv3_1"
  convolution_param {
    num_output: 256
    pad: 1
    kernel_size: 3
  }
}
layer {
  name: "relu3_1"
  type: "ReLU"
  bottom: "conv3_1"
  top: "conv3_1"
}
layer {
  name: "conv3_2"
  type: "Convolution"
  bottom: "conv3_1"
  top: "conv3_2"
  convolution_param {
    num_output: 256
    pad: 1
    kernel_size: 3
  }
}
layer {
  name: "relu3_2"
  type: "ReLU"
  bottom: "conv3_2"
  top: "conv3_2"
}
layer {
  name: "conv3_3"
  type: "Convolution"
  bottom: "conv3_2"
  top: "conv3_3"
  convolution_param {
    num_output: 256
    pad: 1
    kernel_size: 3
  }
}
layer {
  name: "relu3_3"
  type: "ReLU"
  bottom: "conv3_3"
  top: "conv3_3"
}
layer {
  name: "pool3"
  type: "Pooling"
  bottom: "conv3_3"
  top: "pool3"
  pooling_param {
    pool: MAX
    kernel_size: 2
    stride: 2
  }
}
layer {
  name: "conv4_1"
  type: "Convolution"
  bottom: "pool3"
  top: "conv4_1"
  convolution_param {
    num_output: 512
    pad: 1
    kernel_size: 3
  }
}
layer {
  name: "relu4_1"
  type: "ReLU"
  bottom: "conv4_1"
  top: "conv4_1"
}
layer {
  name: "conv4_2"
  type: "Convolution"
  bottom: "conv4_1"
  top: "conv4_2"
  convolution_param {
    num_output: 512
    pad: 1
    kernel_size: 3
  }
}
layer {
  name: "relu4_2"
  type: "ReLU"
  bottom: "conv4_2"
  top: "conv4_2"
}
layer {
  name: "conv4_3"
  type: "Convolution"
  bottom: "conv4_2"
  top: "conv4_3"
  convolution_param {
    num_output: 512
    pad: 1
    kernel_size: 3
  }
}
layer {
  name: "relu4_3"
  type: "ReLU"
  bottom: "conv4_3"
  top: "conv4_3"
}
layer {
  name: "loss1_conv1"
  type: "Convolution"
  bottom: "conv4_3"
  top: "loss1_conv1"
  param {
    lr_mult: 1
    decay_mult: 1
  }
  param {
    lr_mult: 2
    decay_mult: 0
  }
  convolution_param {
    num_output: 512
    pad: 1
    kernel_size: 3
    weight_filler {
      type: "gaussian"
      std: 0.01
    }
    bias_filler {
      type: "constant"
    }
  }
}
layer {
  name: "loss_relu1"
  type: "ReLU"
  bottom: "loss1_conv1"
  top: "loss1_conv1"
}
layer {
  name: "LFCN_1_3x5"
  type: "Convolution"
  bottom: "loss1_conv1"
  top: "LFCN_1_3x5"
  param {
    lr_mult: 1
    decay_mult: 1
  }
  param {
    lr_mult: 2
    decay_mult: 0
  }
  convolution_param {
    num_output: 6
    weight_filler {
      type: "gaussian"
      std: 0.001
    }
    bias_filler {
      type: "constant"
    }
    pad_h: 2
    pad_w: 1
    kernel_h: 5
    kernel_w: 3
  }
}
layer {
  name: "detection_loss_1_3x5"
  type: "Detection"
  bottom: "LFCN_1_3x5"
  bottom: "label_1_3x5"
  top: "loss_1_3x5"
  loss_weight: 0.9
  detection_param {
    cls_num: 2
    coord_num: 4
    lambda: 1
    field_h: 40
    field_w: 20
    downsample_rate: 8
    bb_smooth: true
    field_whr: 2
    field_xyr: 2
    bg_threshold: 0.2
    bg_multiple: 2
    sample_mode: "bootstrap"
    pos_neg_weighted: true
  }
}
layer {
  name: "detection_accuracy_1_3x5"
  type: "DetectionAccuracy"
  bottom: "LFCN_1_3x5"
  bottom: "label_1_3x5"
  top: "accuracy_1_3x5"
  top: "boxiou_1_3x5"
  detection_accuracy_param {
    cls_num: 2
    coord_num: 4
    field_h: 40
    field_w: 20
    downsample_rate: 8
    field_whr: 2
    field_xyr: 2
  }
}
layer {
  name: "LFCN_1_5x7"
  type: "Convolution"
  bottom: "loss1_conv1"
  top: "LFCN_1_5x7"
  param {
    lr_mult: 1
    decay_mult: 1
  }
  param {
    lr_mult: 2
    decay_mult: 0
  }
  convolution_param {
    num_output: 6
    weight_filler {
      type: "gaussian"
      std: 0.001
    }
    bias_filler {
      type: "constant"
    }
    pad_h: 3
    pad_w: 2
    kernel_h: 7
    kernel_w: 5
  }
}
layer {
  name: "detection_loss_1_5x7"
  type: "Detection"
  bottom: "LFCN_1_5x7"
  bottom: "label_1_5x7"
  top: "loss_1_5x7"
  loss_weight: 0.9
  detection_param {
    cls_num: 2
    coord_num: 4
    lambda: 1
    field_h: 56
    field_w: 28
    downsample_rate: 8
    bb_smooth: true
    field_whr: 2
    field_xyr: 2
    bg_threshold: 0.2
    bg_multiple: 2
    sample_mode: "bootstrap"
    pos_neg_weighted: true
  }
}
layer {
  name: "detection_accuracy_1_5x7"
  type: "DetectionAccuracy"
  bottom: "LFCN_1_5x7"
  bottom: "label_1_5x7"
  top: "accuracy_1_5x7"
  top: "boxiou_1_5x7"
  detection_accuracy_param {
    cls_num: 2
    coord_num: 4
    field_h: 56
    field_w: 28
    downsample_rate: 8
    field_whr: 2
    field_xyr: 2
  }
}
layer {
  name: "pool4"
  type: "Pooling"
  bottom: "conv4_3"
  top: "pool4"
  pooling_param {
    pool: MAX
    kernel_size: 2
    stride: 2
  }
}
layer {
  name: "conv5_1"
  type: "Convolution"
  bottom: "pool4"
  top: "conv5_1"
  convolution_param {
    num_output: 512
    pad: 1
    kernel_size: 3
  }
}
layer {
  name: "relu5_1"
  type: "ReLU"
  bottom: "conv5_1"
  top: "conv5_1"
}
layer {
  name: "conv5_2"
  type: "Convolution"
  bottom: "conv5_1"
  top: "conv5_2"
  convolution_param {
    num_output: 512
    pad: 1
    kernel_size: 3
  }
}
layer {
  name: "relu5_2"
  type: "ReLU"
  bottom: "conv5_2"
  top: "conv5_2"
}
layer {
  name: "conv5_3"
  type: "Convolution"
  bottom: "conv5_2"
  top: "conv5_3"
  convolution_param {
    num_output: 512
    pad: 1
    kernel_size: 3
  }
}
layer {
  name: "relu5_3"
  type: "ReLU"
  bottom: "conv5_3"
  top: "conv5_3"
}
layer {
  name: "LFCN_2_3x5"
  type: "Convolution"
  bottom: "conv5_3"
  top: "LFCN_2_3x5"
  param {
    lr_mult: 1
    decay_mult: 1
  }
  param {
    lr_mult: 2
    decay_mult: 0
  }
  convolution_param {
    num_output: 6
    weight_filler {
      type: "gaussian"
      std: 0.001
    }
    bias_filler {
      type: "constant"
    }
    pad_h: 2
    pad_w: 1
    kernel_h: 5
    kernel_w: 3
  }
}
layer {
  name: "detection_loss_2_3x5"
  type: "Detection"
  bottom: "LFCN_2_3x5"
  bottom: "label_2_3x5"
  top: "loss_2_3x5"
  detection_param {
    cls_num: 2
    coord_num: 4
    lambda: 1
    field_h: 80
    field_w: 40
    downsample_rate: 16
    bb_smooth: true
    field_whr: 2
    field_xyr: 2
    bg_threshold: 0.2
    bg_multiple: 2
    sample_mode: "bootstrap"
    pos_neg_weighted: true
  }
}
layer {
  name: "detection_accuracy_2_3x5"
  type: "DetectionAccuracy"
  bottom: "LFCN_2_3x5"
  bottom: "label_2_3x5"
  top: "accuracy_2_3x5"
  top: "boxiou_2_3x5"
  detection_accuracy_param {
    cls_num: 2
    coord_num: 4
    field_h: 80
    field_w: 40
    downsample_rate: 16
    field_whr: 2
    field_xyr: 2
  }
}
layer {
  name: "LFCN_2_5x7"
  type: "Convolution"
  bottom: "conv5_3"
  top: "LFCN_2_5x7"
  param {
    lr_mult: 1
    decay_mult: 1
  }
  param {
    lr_mult: 2
    decay_mult: 0
  }
  convolution_param {
    num_output: 6
    weight_filler {
      type: "gaussian"
      std: 0.001
    }
    bias_filler {
      type: "constant"
    }
    pad_h: 3
    pad_w: 2
    kernel_h: 7
    kernel_w: 5
  }
}
layer {
  name: "detection_loss_2_5x7"
  type: "Detection"
  bottom: "LFCN_2_5x7"
  bottom: "label_2_5x7"
  top: "loss_2_5x7"
  detection_param {
    cls_num: 2
    coord_num: 4
    lambda: 1
    field_h: 112
    field_w: 56
    downsample_rate: 16
    bb_smooth: true
    field_whr: 2
    field_xyr: 2
    bg_threshold: 0.2
    bg_multiple: 2
    sample_mode: "bootstrap"
    pos_neg_weighted: true
  }
}
layer {
  name: "detection_accuracy_2_5x7"
  type: "DetectionAccuracy"
  bottom: "LFCN_2_5x7"
  bottom: "label_2_5x7"
  top: "accuracy_2_5x7"
  top: "boxiou_2_5x7"
  detection_accuracy_param {
    cls_num: 2
    coord_num: 4
    field_h: 112
    field_w: 56
    downsample_rate: 16
    field_whr: 2
    field_xyr: 2
  }
}
layer {
  name: "pool5"
  type: "Pooling"
  bottom: "conv5_3"
  top: "pool5"
  pooling_param {
    pool: MAX
    kernel_size: 2
    stride: 2
  }
}
layer {
  name: "conv6_1"
  type: "Convolution"
  bottom: "pool5"
  top: "conv6_1"
  param {
    lr_mult: 1
    decay_mult: 1
  }
  param {
    lr_mult: 2
    decay_mult: 0
  }
  convolution_param {
    num_output: 512
    pad: 1
    kernel_size: 3
    weight_filler {
      type: "gaussian"
      std: 0.01
    }
    bias_filler {
      type: "constant"
    }
  }
}
layer {
  name: "relu6_1"
  type: "ReLU"
  bottom: "conv6_1"
  top: "conv6_1"
}
layer {
  name: "LFCN_3_3x5"
  type: "Convolution"
  bottom: "conv6_1"
  top: "LFCN_3_3x5"
  param {
    lr_mult: 1
    decay_mult: 1
  }
  param {
    lr_mult: 2
    decay_mult: 0
  }
  convolution_param {
    num_output: 6
    weight_filler {
      type: "gaussian"
      std: 0.001
    }
    bias_filler {
      type: "constant"
    }
    pad_h: 2
    pad_w: 1
    kernel_h: 5
    kernel_w: 3
  }
}
layer {
  name: "detection_loss_3_3x5"
  type: "Detection"
  bottom: "LFCN_3_3x5"
  bottom: "label_3_3x5"
  top: "loss_3_3x5"
  detection_param {
    cls_num: 2
    coord_num: 4
    lambda: 1
    field_h: 160
    field_w: 80
    downsample_rate: 32
    bb_smooth: true
    field_whr: 2
    field_xyr: 2
    bg_threshold: 0.2
    bg_multiple: 2
    sample_mode: "bootstrap"
    pos_neg_weighted: true
  }
}
layer {
  name: "detection_accuracy_3_3x5"
  type: "DetectionAccuracy"
  bottom: "LFCN_3_3x5"
  bottom: "label_3_3x5"
  top: "accuracy_3_3x5"
  top: "boxiou_3_3x5"
  detection_accuracy_param {
    cls_num: 2
    coord_num: 4
    field_h: 160
    field_w: 80
    downsample_rate: 32
    field_whr: 2
    field_xyr: 2
  }
}
layer {
  name: "LFCN_3_5x7"
  type: "Convolution"
  bottom: "conv6_1"
  top: "LFCN_3_5x7"
  param {
    lr_mult: 1
    decay_mult: 1
  }
  param {
    lr_mult: 2
    decay_mult: 0
  }
  convolution_param {
    num_output: 6
    weight_filler {
      type: "gaussian"
      std: 0.001
    }
    bias_filler {
      type: "constant"
    }
    pad_h: 3
    pad_w: 2
    kernel_h: 7
    kernel_w: 5
  }
}
layer {
  name: "detection_loss_3_5x7"
  type: "Detection"
  bottom: "LFCN_3_5x7"
  bottom: "label_3_5x7"
  top: "loss_3_5x7"
  detection_param {
    cls_num: 2
    coord_num: 4
    lambda: 1
    field_h: 224
    field_w: 112
    downsample_rate: 32
    bb_smooth: true
    field_whr: 2
    field_xyr: 2
    bg_threshold: 0.2
    bg_multiple: 2
    sample_mode: "bootstrap"
    pos_neg_weighted: true
  }
}
layer {
  name: "detection_accuracy_3_5x7"
  type: "DetectionAccuracy"
  bottom: "LFCN_3_5x7"
  bottom: "label_3_5x7"
  top: "accuracy_3_5x7"
  top: "boxiou_3_5x7"
  detection_accuracy_param {
    cls_num: 2
    coord_num: 4
    field_h: 224
    field_w: 112
    downsample_rate: 32
    field_whr: 2
    field_xyr: 2
  }
}
layer {
  name: "pool6"
  type: "Pooling"
  bottom: "conv6_1"
  top: "pool6"
  pooling_param {
    pool: MAX
    kernel_size: 2
    stride: 2
  }
}
layer {
  name: "LFCN_4_3x5"
  type: "Convolution"
  bottom: "pool6"
  top: "LFCN_4_3x5"
  param {
    lr_mult: 1
    decay_mult: 1
  }
  param {
    lr_mult: 2
    decay_mult: 0
  }
  convolution_param {
    num_output: 6
    weight_filler {
      type: "gaussian"
      std: 0.001
    }
    bias_filler {
      type: "constant"
    }
    pad_h: 2
    pad_w: 1
    kernel_h: 5
    kernel_w: 3
  }
}
layer {
  name: "detection_loss_4_3x5"
  type: "Detection"
  bottom: "LFCN_4_3x5"
  bottom: "label_4_3x5"
  top: "loss_4_3x5"
  detection_param {
    cls_num: 2
    coord_num: 4
    lambda: 1
    field_h: 320
    field_w: 160
    downsample_rate: 64
    bb_smooth: true
    field_whr: 2
    field_xyr: 2
    bg_threshold: 0.2
    bg_multiple: 2
    sample_mode: "bootstrap"
    pos_neg_weighted: true
  }
}
layer {
  name: "detection_accuracy_4_3x5"
  type: "DetectionAccuracy"
  bottom: "LFCN_4_3x5"
  bottom: "label_4_3x5"
  top: "accuracy_4_3x5"
  top: "boxiou_4_3x5"
  detection_accuracy_param {
    cls_num: 2
    coord_num: 4
    field_h: 320
    field_w: 160
    downsample_rate: 64
    field_whr: 2
    field_xyr: 2
  }
}
layer {
  name: "proposals"
  type: "BoxOutput"
  bottom: "LFCN_1_3x5"
  bottom: "LFCN_1_5x7"
  bottom: "LFCN_2_3x5"
  bottom: "LFCN_2_5x7"
  bottom: "LFCN_3_3x5"
  bottom: "LFCN_3_5x7"
  bottom: "LFCN_4_3x5"
  top: "proposals"
  propagate_down: false
  propagate_down: false
  propagate_down: false
  propagate_down: false
  propagate_down: false
  propagate_down: false
  propagate_down: false
  box_output_param {
    fg_thr: -10
    iou_thr: 0.65
    nms_type: "IOU"
    field_h: 40
    field_h: 56
    field_h: 80
    field_h: 112
    field_h: 160
    field_h: 224
    field_h: 320
    field_w: 20
    field_w: 28
    field_w: 40
    field_w: 56
    field_w: 80
    field_w: 112
    field_w: 160
    downsample_rate: 8
    downsample_rate: 8
    downsample_rate: 16
    downsample_rate: 16
    downsample_rate: 32
    downsample_rate: 32
    downsample_rate: 64
    field_whr: 2
    field_xyr: 2
    max_nms_num: 3000
  }
}
layer {
  name: "proposal_info"
  type: "ProposalTarget"
  bottom: "proposals"
  bottom: "gt_boxes"
  top: "rois"
  top: "proposal_labels"
  top: "proposal_targets"
  top: "box_inside_weights"
  top: "box_outside_weights"
  top: "match_gt_boxes"
  include {
    phase: TRAIN
  }
  propagate_down: false
  propagate_down: false
  proposal_target_param {
    cls_num: 2
    batch_size: 128
    fg_fraction: 0.25
    num_img_per_batch: 4
    fg_thr: 0.45
    bg_thr_hg: 0.44
    bg_thr_lw: 0.05
    img_width: 448
    img_height: 448
    bbox_mean: 0
    bbox_mean: 0
    bbox_mean: 0
    bbox_mean: 0
    bbox_std: 0.1
    bbox_std: 0.1
    bbox_std: 0.2
    bbox_std: 0.2
  }
}
layer {
  name: "roi_pool_org"
  type: "ROIPooling"
  bottom: "conv4_3"
  bottom: "rois"
  top: "roi_pool_org"
  roi_pooling_param {
    pooled_h: 8
    pooled_w: 4
    spatial_scale: 0.125
    pad_ratio: 0
  }
}
layer {
  name: "roi_pool_ctx"
  type: "ROIPooling"
  bottom: "conv4_3"
  bottom: "rois"
  top: "roi_pool_ctx"
  roi_pooling_param {
    pooled_h: 8
    pooled_w: 4
    spatial_scale: 0.125
    pad_ratio: 0.25
  }
}
layer {
  name: "roi_pool"
  type: "Concat"
  bottom: "roi_pool_org"
  bottom: "roi_pool_ctx"
  top: "roi_pool"
}
layer {
  name: "roi_c1"
  type: "Convolution"
  bottom: "roi_pool"
  top: "roi_c1"
  param {
    lr_mult: 1
    decay_mult: 1
  }
  param {
    lr_mult: 2
    decay_mult: 0
  }
  convolution_param {
    num_output: 512
    pad: 1
    kernel_size: 3
    weight_filler {
      type: "gaussian"
      std: 0.01
    }
    bias_filler {
      type: "constant"
    }
  }
}
layer {
  name: "roi_c1_relu"
  type: "ReLU"
  bottom: "roi_c1"
  top: "roi_c1"
}
layer {
  name: "fc6"
  type: "InnerProduct"
  bottom: "roi_c1"
  top: "fc6"
  param {
    lr_mult: 1
  }
  param {
    lr_mult: 2
  }
  inner_product_param {
    num_output: 2048
    weight_filler {
      type: "gaussian"
      std: 0.001
    }
    bias_filler {
      type: "constant"
      value: 0
    }
  }
}
layer {
  name: "relu6"
  type: "ReLU"
  bottom: "fc6"
  top: "fc6"
}
layer {
  name: "drop6"
  type: "Dropout"
  bottom: "fc6"
  top: "fc6"
  dropout_param {
    dropout_ratio: 0.5
  }
}
layer {
  name: "cls_pred"
  type: "InnerProduct"
  bottom: "fc6"
  top: "cls_pred"
  param {
    lr_mult: 1
  }
  param {
    lr_mult: 2
  }
  inner_product_param {
    num_output: 2
    weight_filler {
      type: "gaussian"
      std: 0.01
    }
    bias_filler {
      type: "constant"
      value: 0
    }
  }
}
layer {
  name: "bbox_pred"
  type: "InnerProduct"
  bottom: "fc6"
  top: "bbox_pred"
  param {
    lr_mult: 1
  }
  param {
    lr_mult: 2
  }
  inner_product_param {
    num_output: 8
    weight_filler {
      type: "gaussian"
      std: 0.001
    }
    bias_filler {
      type: "constant"
      value: 0
    }
  }
}
layer {
  name: "loss_cls"
  type: "SoftmaxWithLoss"
  bottom: "cls_pred"
  bottom: "proposal_labels"
  top: "loss_cls"
  loss_weight: 1
  propagate_down: true
  propagate_down: false
}
layer {
  name: "cls_accuracy"
  type: "Accuracy"
  bottom: "cls_pred"
  bottom: "proposal_labels"
  top: "cls_accuracy"
}
layer {
  name: "loss_bbox"
  type: "SmoothL1Loss"
  bottom: "bbox_pred"
  bottom: "proposal_targets"
  bottom: "box_inside_weights"
  bottom: "box_outside_weights"
  top: "loss_bbox"
  loss_weight: 1
}
layer {
  name: "bbox_iou"
  type: "BboxAccuracy"
  bottom: "bbox_pred"
  bottom: "rois"
  bottom: "match_gt_boxes"
  top: "bbox_iou"
  top: "bbox_iou_pre"
  bbox_accuracy_param {
    bbox_mean: 0
    bbox_mean: 0
    bbox_mean: 0
    bbox_mean: 0
    bbox_std: 0.1
    bbox_std: 0.1
    bbox_std: 0.2
    bbox_std: 0.2
  }
}
I1007 08:00:11.235206 19095 layer_factory.hpp:76] Creating layer data
I1007 08:00:11.235275 19095 net.cpp:106] Creating Layer data
I1007 08:00:11.235288 19095 net.cpp:411] data -> data
…
I1007 08:00:11.419553 19095 image_gt_data_layer.cpp:234] output label size 2 : 4,6,28,28
I1007 08:00:11.419615 19095 image_gt_data_layer.cpp:234] output label size 3 : 4,6,28,28
I1007 08:00:11.419677 19095 image_gt_data_layer.cpp:234] output label size 4 : 4,6,14,14
I1007 08:00:11.419741 19095 image_gt_data_layer.cpp:234] output label size 5 : 4,6,14,14
I1007 08:00:11.419797 19095 image_gt_data_layer.cpp:234] output label size 6 : 4,6,7,7
I1007 08:00:11.419850 19095 image_gt_data_layer.cpp:249] output gt boxes size: 1,7,1,1
I1007 08:00:11.440923 19095 net.cpp:150] Setting up data
I1007 08:00:11.440964 19095 net.cpp:157] Top shape: 4 3 448 448 (2408448)
I1007 08:00:11.440973 19095 net.cpp:157] Top shape: 4 6 56 56 (75264)
I1007 08:00:11.440979 19095 net.cpp:157] Top shape: 4 6 56 56 (75264)
I1007 08:00:11.440985 19095 net.cpp:157] Top shape: 4 6 28 28 (18816)
I1007 08:00:11.440991 19095 net.cpp:157] Top shape: 4 6 28 28 (18816)
I1007 08:00:11.440997 19095 net.cpp:157] Top shape: 4 6 14 14 (4704)
I1007 08:00:11.441002 19095 net.cpp:157] Top shape: 4 6 14 14 (4704)
I1007 08:00:11.441009 19095 net.cpp:157] Top shape: 4 6 7 7 (1176)
I1007 08:00:11.441015 19095 net.cpp:157] Top shape: 1 7 1 1 (7)
I1007 08:00:11.441020 19095 net.cpp:165] Memory required for data: 10428796
I1007 08:00:11.441033 19095 layer_factory.hpp:76] Creating layer label_1_3x5_data_1_split
I1007 08:00:11.441064 19095 net.cpp:106] Creating Layer label_1_3x5_data_1_split
I1007 08:00:11.441074 19095 net.cpp:454] label_1_3x5_data_1_split <- label_1_3x5
I1007 08:00:11.441095 19095 net.cpp:411] label_1_3x5_data_1_split -> label_1_3x5_data_1_split_0
I1007 08:00:11.441113 19095 net.cpp:411] label_1_3x5_data_1_split -> label_1_3x5_data_1_split_1
I1007 08:00:11.441229 19095 net.cpp:150] Setting up label_1_3x5_data_1_split
I1007 08:00:11.441241 19095 net.cpp:157] Top shape: 4 6 56 56 (75264)
I1007 08:00:11.441248 19095 net.cpp:157] Top shape: 4 6 56 56 (75264)
I1007 08:00:11.441253 19095 net.cpp:165] Memory required for data: 11030908
I1007 08:00:11.441259 19095 layer_factory.hpp:76] Creating layer label_1_5x7_data_2_split
I1007 08:00:11.441268 19095 net.cpp:106] Creating Layer label_1_5x7_data_2_split
I1007 08:00:11.441274 19095 net.cpp:454] label_1_5x7_data_2_split <- label_1_5x7
I1007 08:00:11.441283 19095 net.cpp:411] label_1_5x7_data_2_split -> label_1_5x7_data_2_split_0
I1007 08:00:11.441294 19095 net.cpp:411] label_1_5x7_data_2_split -> label_1_5x7_data_2_split_1
I1007 08:00:11.441349 19095 net.cpp:150] Setting up label_1_5x7_data_2_split
I1007 08:00:11.441359 19095 net.cpp:157] Top shape: 4 6 56 56 (75264)
I1007 08:00:11.441366 19095 net.cpp:157] Top shape: 4 6 56 56 (75264)
I1007 08:00:11.441370 19095 net.cpp:165] Memory required for data: 11633020
I1007 08:00:11.441376 19095 layer_factory.hpp:76] Creating layer label_2_3x5_data_3_split
I1007 08:00:11.441383 19095 net.cpp:106] Creating Layer label_2_3x5_data_3_split
I1007 08:00:11.441390 19095 net.cpp:454] label_2_3x5_data_3_split <- label_2_3x5
I1007 08:00:11.441398 19095 net.cpp:411] label_2_3x5_data_3_split -> label_2_3x5_data_3_split_0
I1007 08:00:11.441408 19095 net.cpp:411] label_2_3x5_data_3_split -> label_2_3x5_data_3_split_1
I1007 08:00:11.441458 19095 net.cpp:150] Setting up label_2_3x5_data_3_split
I1007 08:00:11.441468 19095 net.cpp:157] Top shape: 4 6 28 28 (18816)
I1007 08:00:11.441474 19095 net.cpp:157] Top shape: 4 6 28 28 (18816)
I1007 08:00:11.441479 19095 net.cpp:165] Memory required for data: 11783548
I1007 08:00:11.441484 19095 layer_factory.hpp:76] Creating layer label_2_5x7_data_4_split
I1007 08:00:11.441500 19095 net.cpp:106] Creating Layer label_2_5x7_data_4_split
I1007 08:00:11.441506 19095 net.cpp:454] label_2_5x7_data_4_split <- label_2_5x7
I1007 08:00:11.441514 19095 net.cpp:411] label_2_5x7_data_4_split -> label_2_5x7_data_4_split_0
I1007 08:00:11.441524 19095 net.cpp:411] label_2_5x7_data_4_split -> label_2_5x7_data_4_split_1
I1007 08:00:11.441583 19095 net.cpp:150] Setting up label_2_5x7_data_4_split
I1007 08:00:11.441593 19095 net.cpp:157] Top shape: 4 6 28 28 (18816)
I1007 08:00:11.441601 19095 net.cpp:157] Top shape: 4 6 28 28 (18816)
I1007 08:00:11.441606 19095 net.cpp:165] Memory required for data: 11934076
I1007 08:00:11.441611 19095 layer_factory.hpp:76] Creating layer label_3_3x5_data_5_split
I1007 08:00:11.441625 19095 net.cpp:106] Creating Layer label_3_3x5_data_5_split
I1007 08:00:11.441632 19095 net.cpp:454] label_3_3x5_data_5_split <- label_3_3x5
I1007 08:00:11.441642 19095 net.cpp:411] label_3_3x5_data_5_split -> label_3_3x5_data_5_split_0
I1007 08:00:11.441653 19095 net.cpp:411] label_3_3x5_data_5_split -> label_3_3x5_data_5_split_1
I1007 08:00:11.441699 19095 net.cpp:150] Setting up label_3_3x5_data_5_split
I1007 08:00:11.441709 19095 net.cpp:157] Top shape: 4 6 14 14 (4704)
I1007 08:00:11.441715 19095 net.cpp:157] Top shape: 4 6 14 14 (4704)
I1007 08:00:11.441720 19095 net.cpp:165] Memory required for data: 11971708
I1007 08:00:11.441725 19095 layer_factory.hpp:76] Creating layer label_3_5x7_data_6_split
I1007 08:00:11.441733 19095 net.cpp:106] Creating Layer label_3_5x7_data_6_split
I1007 08:00:11.441738 19095 net.cpp:454] label_3_5x7_data_6_split <- label_3_5x7
I1007 08:00:11.441750 19095 net.cpp:411] label_3_5x7_data_6_split -> label_3_5x7_data_6_split_0
I1007 08:00:11.441761 19095 net.cpp:411] label_3_5x7_data_6_split -> label_3_5x7_data_6_split_1
I1007 08:00:11.441807 19095 net.cpp:150] Setting up label_3_5x7_data_6_split
I1007 08:00:11.441817 19095 net.cpp:157] Top shape: 4 6 14 14 (4704)
I1007 08:00:11.441824 19095 net.cpp:157] Top shape: 4 6 14 14 (4704)
I1007 08:00:11.441828 19095 net.cpp:165] Memory required for data: 12009340
I1007 08:00:11.441833 19095 layer_factory.hpp:76] Creating layer label_4_3x5_data_7_split
I1007 08:00:11.441841 19095 net.cpp:106] Creating Layer label_4_3x5_data_7_split
I1007 08:00:11.441848 19095 net.cpp:454] label_4_3x5_data_7_split <- label_4_3x5
I1007 08:00:11.441855 19095 net.cpp:411] label_4_3x5_data_7_split -> label_4_3x5_data_7_split_0
I1007 08:00:11.441869 19095 net.cpp:411] label_4_3x5_data_7_split -> label_4_3x5_data_7_split_1
I1007 08:00:11.441915 19095 net.cpp:150] Setting up label_4_3x5_data_7_split
I1007 08:00:11.441923 19095 net.cpp:157] Top shape: 4 6 7 7 (1176)
I1007 08:00:11.441931 19095 net.cpp:157] Top shape: 4 6 7 7 (1176)
I1007 08:00:11.441936 19095 net.cpp:165] Memory required for data: 12018748
I1007 08:00:11.441941 19095 layer_factory.hpp:76] Creating layer conv1_1
I1007 08:00:11.441958 19095 net.cpp:106] Creating Layer conv1_1
I1007 08:00:11.441964 19095 net.cpp:454] conv1_1 <- data
I1007 08:00:11.441973 19095 net.cpp:411] conv1_1 -> conv1_1
I1007 08:00:11.595481 19095 net.cpp:150] Setting up conv1_1
I1007 08:00:11.595509 19095 net.cpp:157] Top shape: 4 64 448 448 (51380224)
I1007 08:00:11.595512 19095 net.cpp:165] Memory required for data: 217539644
I1007 08:00:11.595532 19095 layer_factory.hpp:76] Creating layer relu1_1
I1007 08:00:11.595548 19095 net.cpp:106] Creating Layer relu1_1
I1007 08:00:11.595553 19095 net.cpp:454] relu1_1 <- conv1_1
I1007 08:00:11.595561 19095 net.cpp:397] relu1_1 -> conv1_1 (in-place)
I1007 08:00:11.595757 19095 net.cpp:150] Setting up relu1_1
I1007 08:00:11.595767 19095 net.cpp:157] Top shape: 4 64 448 448 (51380224)
I1007 08:00:11.595772 19095 net.cpp:165] Memory required for data: 423060540
I1007 08:00:11.595775 19095 layer_factory.hpp:76] Creating layer conv1_2
I1007 08:00:11.595785 19095 net.cpp:106] Creating Layer conv1_2
I1007 08:00:11.595789 19095 net.cpp:454] conv1_2 <- conv1_1
I1007 08:00:11.595795 19095 net.cpp:411] conv1_2 -> conv1_2
I1007 08:00:11.597724 19095 net.cpp:150] Setting up conv1_2
I1007 08:00:11.597741 19095 net.cpp:157] Top shape: 4 64 448 448 (51380224)
I1007 08:00:11.597745 19095 net.cpp:165] Memory required for data: 628581436
I1007 08:00:11.597755 19095 layer_factory.hpp:76] Creating layer relu1_2
I1007 08:00:11.597762 19095 net.cpp:106] Creating Layer relu1_2
I1007 08:00:11.597766 19095 net.cpp:454] relu1_2 <- conv1_2
I1007 08:00:11.597772 19095 net.cpp:397] relu1_2 -> conv1_2 (in-place)
I1007 08:00:11.598129 19095 net.cpp:150] Setting up relu1_2
I1007 08:00:11.598143 19095 net.cpp:157] Top shape: 4 64 448 448 (51380224)
I1007 08:00:11.598147 19095 net.cpp:165] Memory required for data: 834102332
I1007 08:00:11.598151 19095 layer_factory.hpp:76] Creating layer pool1
I1007 08:00:11.598160 19095 net.cpp:106] Creating Layer pool1
I1007 08:00:11.598163 19095 net.cpp:454] pool1 <- conv1_2
I1007 08:00:11.598172 19095 net.cpp:411] pool1 -> pool1
I1007 08:00:11.598404 19095 net.cpp:150] Setting up pool1
I1007 08:00:11.598417 19095 net.cpp:157] Top shape: 4 64 224 224 (12845056)
I1007 08:00:11.598420 19095 net.cpp:165] Memory required for data: 885482556
I1007 08:00:11.598424 19095 layer_factory.hpp:76] Creating layer conv2_1
I1007 08:00:11.598433 19095 net.cpp:106] Creating Layer conv2_1
I1007 08:00:11.598436 19095 net.cpp:454] conv2_1 <- pool1
I1007 08:00:11.598443 19095 net.cpp:411] conv2_1 -> conv2_1
I1007 08:00:11.600373 19095 net.cpp:150] Setting up conv2_1
I1007 08:00:11.600388 19095 net.cpp:157] Top shape: 4 128 224 224 (25690112)
I1007 08:00:11.600391 19095 net.cpp:165] Memory required for data: 988243004
I1007 08:00:11.600402 19095 layer_factory.hpp:76] Creating layer relu2_1
I1007 08:00:11.600411 19095 net.cpp:106] Creating Layer relu2_1
I1007 08:00:11.600415 19095 net.cpp:454] relu2_1 <- conv2_1
I1007 08:00:11.600420 19095 net.cpp:397] relu2_1 -> conv2_1 (in-place)
I1007 08:00:11.600805 19095 net.cpp:150] Setting up relu2_1
I1007 08:00:11.600819 19095 net.cpp:157] Top shape: 4 128 224 224 (25690112)
I1007 08:00:11.600822 19095 net.cpp:165] Memory required for data: 1091003452
I1007 08:00:11.600826 19095 layer_factory.hpp:76] Creating layer conv2_2
I1007 08:00:11.600836 19095 net.cpp:106] Creating Layer conv2_2
I1007 08:00:11.600841 19095 net.cpp:454] conv2_2 <- conv2_1
I1007 08:00:11.600847 19095 net.cpp:411] conv2_2 -> conv2_2
I1007 08:00:11.602041 19095 net.cpp:150] Setting up conv2_2
I1007 08:00:11.602056 19095 net.cpp:157] Top shape: 4 128 224 224 (25690112)
I1007 08:00:11.602059 19095 net.cpp:165] Memory required for data: 1193763900
I1007 08:00:11.602066 19095 layer_factory.hpp:76] Creating layer relu2_2
I1007 08:00:11.602078 19095 net.cpp:106] Creating Layer relu2_2
I1007 08:00:11.602082 19095 net.cpp:454] relu2_2 <- conv2_2
I1007 08:00:11.602089 19095 net.cpp:397] relu2_2 -> conv2_2 (in-place)
I1007 08:00:11.602463 19095 net.cpp:150] Setting up relu2_2
I1007 08:00:11.602476 19095 net.cpp:157] Top shape: 4 128 224 224 (25690112)
I1007 08:00:11.602479 19095 net.cpp:165] Memory required for data: 1296524348
I1007 08:00:11.602483 19095 layer_factory.hpp:76] Creating layer pool2
I1007 08:00:11.602493 19095 net.cpp:106] Creating Layer pool2
I1007 08:00:11.602496 19095 net.cpp:454] pool2 <- conv2_2
I1007 08:00:11.602504 19095 net.cpp:411] pool2 -> pool2
I1007 08:00:11.602733 19095 net.cpp:150] Setting up pool2
I1007 08:00:11.602744 19095 net.cpp:157] Top shape: 4 128 112 112 (6422528)
I1007 08:00:11.602747 19095 net.cpp:165] Memory required for data: 1322214460
I1007 08:00:11.602751 19095 layer_factory.hpp:76] Creating layer conv3_1
I1007 08:00:11.602762 19095 net.cpp:106] Creating Layer conv3_1
I1007 08:00:11.602766 19095 net.cpp:454] conv3_1 <- pool2
I1007 08:00:11.602774 19095 net.cpp:411] conv3_1 -> conv3_1
I1007 08:00:11.604909 19095 net.cpp:150] Setting up conv3_1
I1007 08:00:11.604928 19095 net.cpp:157] Top shape: 4 256 112 112 (12845056)
I1007 08:00:11.604931 19095 net.cpp:165] Memory required for data: 1373594684
I1007 08:00:11.604943 19095 layer_factory.hpp:76] Creating layer relu3_1
I1007 08:00:11.604949 19095 net.cpp:106] Creating Layer relu3_1
I1007 08:00:11.604954 19095 net.cpp:454] relu3_1 <- conv3_1
I1007 08:00:11.604959 19095 net.cpp:397] relu3_1 -> conv3_1 (in-place)
I1007 08:00:11.605334 19095 net.cpp:150] Setting up relu3_1
I1007 08:00:11.605347 19095 net.cpp:157] Top shape: 4 256 112 112 (12845056)
I1007 08:00:11.605351 19095 net.cpp:165] Memory required for data: 1424974908
I1007 08:00:11.605355 19095 layer_factory.hpp:76] Creating layer conv3_2
I1007 08:00:11.605365 19095 net.cpp:106] Creating Layer conv3_2
I1007 08:00:11.605368 19095 net.cpp:454] conv3_2 <- conv3_1
I1007 08:00:11.605375 19095 net.cpp:411] conv3_2 -> conv3_2
I1007 08:00:11.608252 19095 net.cpp:150] Setting up conv3_2
I1007 08:00:11.608266 19095 net.cpp:157] Top shape: 4 256 112 112 (12845056)
I1007 08:00:11.608270 19095 net.cpp:165] Memory required for data: 1476355132
I1007 08:00:11.608278 19095 layer_factory.hpp:76] Creating layer relu3_2
I1007 08:00:11.608286 19095 net.cpp:106] Creating Layer relu3_2
I1007 08:00:11.608290 19095 net.cpp:454] relu3_2 <- conv3_2
I1007 08:00:11.608296 19095 net.cpp:397] relu3_2 -> conv3_2 (in-place)
I1007 08:00:11.608700 19095 net.cpp:150] Setting up relu3_2
I1007 08:00:11.608712 19095 net.cpp:157] Top shape: 4 256 112 112 (12845056)
I1007 08:00:11.608716 19095 net.cpp:165] Memory required for data: 1527735356
I1007 08:00:11.608719 19095 layer_factory.hpp:76] Creating layer conv3_3
I1007 08:00:11.608731 19095 net.cpp:106] Creating Layer conv3_3
I1007 08:00:11.608734 19095 net.cpp:454] conv3_3 <- conv3_2
I1007 08:00:11.608741 19095 net.cpp:411] conv3_3 -> conv3_3
I1007 08:00:11.611528 19095 net.cpp:150] Setting up conv3_3
I1007 08:00:11.611544 19095 net.cpp:157] Top shape: 4 256 112 112 (12845056)
I1007 08:00:11.611548 19095 net.cpp:165] Memory required for data: 1579115580
I1007 08:00:11.611555 19095 layer_factory.hpp:76] Creating layer relu3_3
I1007 08:00:11.611562 19095 net.cpp:106] Creating Layer relu3_3
I1007 08:00:11.611565 19095 net.cpp:454] relu3_3 <- conv3_3
I1007 08:00:11.611572 19095 net.cpp:397] relu3_3 -> conv3_3 (in-place)
I1007 08:00:11.611768 19095 net.cpp:150] Setting up relu3_3
I1007 08:00:11.611778 19095 net.cpp:157] Top shape: 4 256 112 112 (12845056)
I1007 08:00:11.611781 19095 net.cpp:165] Memory required for data: 1630495804
I1007 08:00:11.611785 19095 layer_factory.hpp:76] Creating layer pool3
I1007 08:00:11.611791 19095 net.cpp:106] Creating Layer pool3
I1007 08:00:11.611800 19095 net.cpp:454] pool3 <- conv3_3
I1007 08:00:11.611805 19095 net.cpp:411] pool3 -> pool3
I1007 08:00:11.612210 19095 net.cpp:150] Setting up pool3
I1007 08:00:11.612226 19095 net.cpp:157] Top shape: 4 256 56 56 (3211264)
I1007 08:00:11.612229 19095 net.cpp:165] Memory required for data: 1643340860
I1007 08:00:11.612233 19095 layer_factory.hpp:76] Creating layer conv4_1
I1007 08:00:11.612241 19095 net.cpp:106] Creating Layer conv4_1
I1007 08:00:11.612246 19095 net.cpp:454] conv4_1 <- pool3
I1007 08:00:11.612259 19095 net.cpp:411] conv4_1 -> conv4_1
I1007 08:00:11.616977 19095 net.cpp:150] Setting up conv4_1
I1007 08:00:11.616992 19095 net.cpp:157] Top shape: 4 512 56 56 (6422528)
I1007 08:00:11.616998 19095 net.cpp:165] Memory required for data: 1669030972
I1007 08:00:11.617005 19095 layer_factory.hpp:76] Creating layer relu4_1
I1007 08:00:11.617012 19095 net.cpp:106] Creating Layer relu4_1
I1007 08:00:11.617017 19095 net.cpp:454] relu4_1 <- conv4_1
I1007 08:00:11.617022 19095 net.cpp:397] relu4_1 -> conv4_1 (in-place)
I1007 08:00:11.617223 19095 net.cpp:150] Setting up relu4_1
I1007 08:00:11.617233 19095 net.cpp:157] Top shape: 4 512 56 56 (6422528)
I1007 08:00:11.617238 19095 net.cpp:165] Memory required for data: 1694721084
I1007 08:00:11.617240 19095 layer_factory.hpp:76] Creating layer conv4_2
I1007 08:00:11.617249 19095 net.cpp:106] Creating Layer conv4_2
I1007 08:00:11.617252 19095 net.cpp:454] conv4_2 <- conv4_1
I1007 08:00:11.617259 19095 net.cpp:411] conv4_2 -> conv4_2
I1007 08:00:11.624017 19095 net.cpp:150] Setting up conv4_2
I1007 08:00:11.624032 19095 net.cpp:157] Top shape: 4 512 56 56 (6422528)
I1007 08:00:11.624035 19095 net.cpp:165] Memory required for data: 1720411196
I1007 08:00:11.624047 19095 layer_factory.hpp:76] Creating layer relu4_2
I1007 08:00:11.624063 19095 net.cpp:106] Creating Layer relu4_2
I1007 08:00:11.624066 19095 net.cpp:454] relu4_2 <- conv4_2
I1007 08:00:11.624073 19095 net.cpp:397] relu4_2 -> conv4_2 (in-place)
I1007 08:00:11.624428 19095 net.cpp:150] Setting up relu4_2
I1007 08:00:11.624440 19095 net.cpp:157] Top shape: 4 512 56 56 (6422528)
I1007 08:00:11.624444 19095 net.cpp:165] Memory required for data: 1746101308
I1007 08:00:11.624447 19095 layer_factory.hpp:76] Creating layer conv4_3
I1007 08:00:11.624456 19095 net.cpp:106] Creating Layer conv4_3
I1007 08:00:11.624460 19095 net.cpp:454] conv4_3 <- conv4_2
I1007 08:00:11.624470 19095 net.cpp:411] conv4_3 -> conv4_3
I1007 08:00:11.631119 19095 net.cpp:150] Setting up conv4_3
I1007 08:00:11.631134 19095 net.cpp:157] Top shape: 4 512 56 56 (6422528)
I1007 08:00:11.631137 19095 net.cpp:165] Memory required for data: 1771791420
I1007 08:00:11.631144 19095 layer_factory.hpp:76] Creating layer relu4_3
I1007 08:00:11.631148 19095 net.cpp:106] Creating Layer relu4_3
I1007 08:00:11.631152 19095 net.cpp:454] relu4_3 <- conv4_3
I1007 08:00:11.631158 19095 net.cpp:397] relu4_3 -> conv4_3 (in-place)
I1007 08:00:11.631492 19095 net.cpp:150] Setting up relu4_3
I1007 08:00:11.631505 19095 net.cpp:157] Top shape: 4 512 56 56 (6422528)
I1007 08:00:11.631506 19095 net.cpp:165] Memory required for data: 1797481532
I1007 08:00:11.631510 19095 layer_factory.hpp:76] Creating layer conv4_3_relu4_3_0_split
I1007 08:00:11.631516 19095 net.cpp:106] Creating Layer conv4_3_relu4_3_0_split
I1007 08:00:11.631518 19095 net.cpp:454] conv4_3_relu4_3_0_split <- conv4_3
I1007 08:00:11.631525 19095 net.cpp:411] conv4_3_relu4_3_0_split -> conv4_3_relu4_3_0_split_0
I1007 08:00:11.631531 19095 net.cpp:411] conv4_3_relu4_3_0_split -> conv4_3_relu4_3_0_split_1
I1007 08:00:11.631536 19095 net.cpp:411] conv4_3_relu4_3_0_split -> conv4_3_relu4_3_0_split_2
I1007 08:00:11.631541 19095 net.cpp:411] conv4_3_relu4_3_0_split -> conv4_3_relu4_3_0_split_3
I1007 08:00:11.631600 19095 net.cpp:150] Setting up conv4_3_relu4_3_0_split
I1007 08:00:11.631608 19095 net.cpp:157] Top shape: 4 512 56 56 (6422528)
I1007 08:00:11.631610 19095 net.cpp:157] Top shape: 4 512 56 56 (6422528)
I1007 08:00:11.631614 19095 net.cpp:157] Top shape: 4 512 56 56 (6422528)
I1007 08:00:11.631616 19095 net.cpp:157] Top shape: 4 512 56 56 (6422528)
I1007 08:00:11.631619 19095 net.cpp:165] Memory required for data: 1900241980
I1007 08:00:11.631621 19095 layer_factory.hpp:76] Creating layer loss1_conv1
I1007 08:00:11.631634 19095 net.cpp:106] Creating Layer loss1_conv1
I1007 08:00:11.631639 19095 net.cpp:454] loss1_conv1 <- conv4_3_relu4_3_0_split_0
I1007 08:00:11.631645 19095 net.cpp:411] loss1_conv1 -> loss1_conv1
I1007 08:00:11.707482 19095 net.cpp:150] Setting up loss1_conv1
I1007 08:00:11.707500 19095 net.cpp:157] Top shape: 4 512 56 56 (6422528)
I1007 08:00:11.707504 19095 net.cpp:165] Memory required for data: 1925932092
I1007 08:00:11.707509 19095 layer_factory.hpp:76] Creating layer loss_relu1
I1007 08:00:11.707515 19095 net.cpp:106] Creating Layer loss_relu1
I1007 08:00:11.707520 19095 net.cpp:454] loss_relu1 <- loss1_conv1
I1007 08:00:11.707525 19095 net.cpp:397] loss_relu1 -> loss1_conv1 (in-place)
I1007 08:00:11.707711 19095 net.cpp:150] Setting up loss_relu1
I1007 08:00:11.707723 19095 net.cpp:157] Top shape: 4 512 56 56 (6422528)
I1007 08:00:11.707726 19095 net.cpp:165] Memory required for data: 1951622204
I1007 08:00:11.707728 19095 layer_factory.hpp:76] Creating layer loss1_conv1_loss_relu1_0_split
I1007 08:00:11.707734 19095 net.cpp:106] Creating Layer loss1_conv1_loss_relu1_0_split
I1007 08:00:11.707737 19095 net.cpp:454] loss1_conv1_loss_relu1_0_split <- loss1_conv1
I1007 08:00:11.707743 19095 net.cpp:411] loss1_conv1_loss_relu1_0_split -> loss1_conv1_loss_relu1_0_split_0
I1007 08:00:11.707749 19095 net.cpp:411] loss1_conv1_loss_relu1_0_split -> loss1_conv1_loss_relu1_0_split_1
I1007 08:00:11.707788 19095 net.cpp:150] Setting up loss1_conv1_loss_relu1_0_split
I1007 08:00:11.707794 19095 net.cpp:157] Top shape: 4 512 56 56 (6422528)
I1007 08:00:11.707798 19095 net.cpp:157] Top shape: 4 512 56 56 (6422528)
I1007 08:00:11.707799 19095 net.cpp:165] Memory required for data: 2003002428
I1007 08:00:11.707803 19095 layer_factory.hpp:76] Creating layer LFCN_1_3x5
I1007 08:00:11.707809 19095 net.cpp:106] Creating Layer LFCN_1_3x5
I1007 08:00:11.707811 19095 net.cpp:454] LFCN_1_3x5 <- loss1_conv1_loss_relu1_0_split_0
I1007 08:00:11.707818 19095 net.cpp:411] LFCN_1_3x5 -> LFCN_1_3x5
I1007 08:00:11.710867 19095 net.cpp:150] Setting up LFCN_1_3x5
I1007 08:00:11.710880 19095 net.cpp:157] Top shape: 4 6 56 56 (75264)
I1007 08:00:11.710889 19095 net.cpp:165] Memory required for data: 2003303484
I1007 08:00:11.710896 19095 layer_factory.hpp:76] Creating layer LFCN_1_3x5_LFCN_1_3x5_0_split
I1007 08:00:11.710903 19095 net.cpp:106] Creating Layer LFCN_1_3x5_LFCN_1_3x5_0_split
I1007 08:00:11.710906 19095 net.cpp:454] LFCN_1_3x5_LFCN_1_3x5_0_split <- LFCN_1_3x5
I1007 08:00:11.710924 19095 net.cpp:411] LFCN_1_3x5_LFCN_1_3x5_0_split -> LFCN_1_3x5_LFCN_1_3x5_0_split_0
I1007 08:00:11.710932 19095 net.cpp:411] LFCN_1_3x5_LFCN_1_3x5_0_split -> LFCN_1_3x5_LFCN_1_3x5_0_split_1
I1007 08:00:11.710937 19095 net.cpp:411] LFCN_1_3x5_LFCN_1_3x5_0_split -> LFCN_1_3x5_LFCN_1_3x5_0_split_2
I1007 08:00:11.710999 19095 net.cpp:150] Setting up LFCN_1_3x5_LFCN_1_3x5_0_split
I1007 08:00:11.711006 19095 net.cpp:157] Top shape: 4 6 56 56 (75264)
I1007 08:00:11.711009 19095 net.cpp:157] Top shape: 4 6 56 56 (75264)
I1007 08:00:11.711012 19095 net.cpp:157] Top shape: 4 6 56 56 (75264)
I1007 08:00:11.711015 19095 net.cpp:165] Memory required for data: 2004206652
I1007 08:00:11.711019 19095 layer_factory.hpp:76] Creating layer detection_loss_1_3x5
I1007 08:00:11.711026 19095 net.cpp:106] Creating Layer detection_loss_1_3x5
I1007 08:00:11.711030 19095 net.cpp:454] detection_loss_1_3x5 <- LFCN_1_3x5_LFCN_1_3x5_0_split_0
I1007 08:00:11.711035 19095 net.cpp:454] detection_loss_1_3x5 <- label_1_3x5_data_1_split_0
I1007 08:00:11.711040 19095 net.cpp:411] detection_loss_1_3x5 -> loss_1_3x5
I1007 08:00:11.711051 19095 layer_factory.hpp:76] Creating layer detection_loss_1_3x5
I1007 08:00:11.711812 19095 net.cpp:150] Setting up detection_loss_1_3x5
I1007 08:00:11.711824 19095 net.cpp:157] Top shape: 1 1 1 2 (2)
I1007 08:00:11.711827 19095 net.cpp:160]     with loss weight 0.9
I1007 08:00:11.711846 19095 net.cpp:165] Memory required for data: 2004206660
I1007 08:00:11.711849 19095 layer_factory.hpp:76] Creating layer detection_accuracy_1_3x5
I1007 08:00:11.711858 19095 net.cpp:106] Creating Layer detection_accuracy_1_3x5
I1007 08:00:11.711861 19095 net.cpp:454] detection_accuracy_1_3x5 <- LFCN_1_3x5_LFCN_1_3x5_0_split_1
I1007 08:00:11.711865 19095 net.cpp:454] detection_accuracy_1_3x5 <- label_1_3x5_data_1_split_1
I1007 08:00:11.711872 19095 net.cpp:411] detection_accuracy_1_3x5 -> accuracy_1_3x5
I1007 08:00:11.711880 19095 net.cpp:411] detection_accuracy_1_3x5 -> boxiou_1_3x5
I1007 08:00:11.711917 19095 net.cpp:150] Setting up detection_accuracy_1_3x5
I1007 08:00:11.711923 19095 net.cpp:157] Top shape: 1 1 1 2 (2)
I1007 08:00:11.711926 19095 net.cpp:157] Top shape: 1 1 1 1 (1)
I1007 08:00:11.711930 19095 net.cpp:165] Memory required for data: 2004206672
I1007 08:00:11.711931 19095 layer_factory.hpp:76] Creating layer LFCN_1_5x7
I1007 08:00:11.711941 19095 net.cpp:106] Creating Layer LFCN_1_5x7
I1007 08:00:11.711943 19095 net.cpp:454] LFCN_1_5x7 <- loss1_conv1_loss_relu1_0_split_1
I1007 08:00:11.711947 19095 net.cpp:411] LFCN_1_5x7 -> LFCN_1_5x7
I1007 08:00:11.716761 19095 net.cpp:150] Setting up LFCN_1_5x7
I1007 08:00:11.716774 19095 net.cpp:157] Top shape: 4 6 56 56 (75264)
I1007 08:00:11.716778 19095 net.cpp:165] Memory required for data: 2004507728
I1007 08:00:11.716784 19095 layer_factory.hpp:76] Creating layer LFCN_1_5x7_LFCN_1_5x7_0_split
I1007 08:00:11.716789 19095 net.cpp:106] Creating Layer LFCN_1_5x7_LFCN_1_5x7_0_split
I1007 08:00:11.716792 19095 net.cpp:454] LFCN_1_5x7_LFCN_1_5x7_0_split <- LFCN_1_5x7
I1007 08:00:11.716799 19095 net.cpp:411] LFCN_1_5x7_LFCN_1_5x7_0_split -> LFCN_1_5x7_LFCN_1_5x7_0_split_0
I1007 08:00:11.716805 19095 net.cpp:411] LFCN_1_5x7_LFCN_1_5x7_0_split -> LFCN_1_5x7_LFCN_1_5x7_0_split_1
I1007 08:00:11.716810 19095 net.cpp:411] LFCN_1_5x7_LFCN_1_5x7_0_split -> LFCN_1_5x7_LFCN_1_5x7_0_split_2
I1007 08:00:11.716858 19095 net.cpp:150] Setting up LFCN_1_5x7_LFCN_1_5x7_0_split
I1007 08:00:11.716866 19095 net.cpp:157] Top shape: 4 6 56 56 (75264)
I1007 08:00:11.716868 19095 net.cpp:157] Top shape: 4 6 56 56 (75264)
I1007 08:00:11.716871 19095 net.cpp:157] Top shape: 4 6 56 56 (75264)
I1007 08:00:11.716873 19095 net.cpp:165] Memory required for data: 2005410896
I1007 08:00:11.716876 19095 layer_factory.hpp:76] Creating layer detection_loss_1_5x7
I1007 08:00:11.716883 19095 net.cpp:106] Creating Layer detection_loss_1_5x7
I1007 08:00:11.716886 19095 net.cpp:454] detection_loss_1_5x7 <- LFCN_1_5x7_LFCN_1_5x7_0_split_0
I1007 08:00:11.716892 19095 net.cpp:454] detection_loss_1_5x7 <- label_1_5x7_data_2_split_0
I1007 08:00:11.716897 19095 net.cpp:411] detection_loss_1_5x7 -> loss_1_5x7
I1007 08:00:11.716903 19095 layer_factory.hpp:76] Creating layer detection_loss_1_5x7
I1007 08:00:11.717398 19095 net.cpp:150] Setting up detection_loss_1_5x7
I1007 08:00:11.717411 19095 net.cpp:157] Top shape: 1 1 1 2 (2)
I1007 08:00:11.717413 19095 net.cpp:160]     with loss weight 0.9
I1007 08:00:11.717419 19095 net.cpp:165] Memory required for data: 2005410904
I1007 08:00:11.717422 19095 layer_factory.hpp:76] Creating layer detection_accuracy_1_5x7
I1007 08:00:11.717428 19095 net.cpp:106] Creating Layer detection_accuracy_1_5x7
I1007 08:00:11.717432 19095 net.cpp:454] detection_accuracy_1_5x7 <- LFCN_1_5x7_LFCN_1_5x7_0_split_1
I1007 08:00:11.717438 19095 net.cpp:454] detection_accuracy_1_5x7 <- label_1_5x7_data_2_split_1
I1007 08:00:11.717442 19095 net.cpp:411] detection_accuracy_1_5x7 -> accuracy_1_5x7
I1007 08:00:11.717448 19095 net.cpp:411] detection_accuracy_1_5x7 -> boxiou_1_5x7
I1007 08:00:11.717486 19095 net.cpp:150] Setting up detection_accuracy_1_5x7
I1007 08:00:11.717491 19095 net.cpp:157] Top shape: 1 1 1 2 (2)
I1007 08:00:11.717495 19095 net.cpp:157] Top shape: 1 1 1 1 (1)
I1007 08:00:11.717497 19095 net.cpp:165] Memory required for data: 2005410916
I1007 08:00:11.717499 19095 layer_factory.hpp:76] Creating layer pool4
I1007 08:00:11.717504 19095 net.cpp:106] Creating Layer pool4
I1007 08:00:11.717509 19095 net.cpp:454] pool4 <- conv4_3_relu4_3_0_split_1
I1007 08:00:11.717514 19095 net.cpp:411] pool4 -> pool4
I1007 08:00:11.717880 19095 net.cpp:150] Setting up pool4
I1007 08:00:11.717890 19095 net.cpp:157] Top shape: 4 512 28 28 (1605632)
I1007 08:00:11.717893 19095 net.cpp:165] Memory required for data: 2011833444
I1007 08:00:11.717896 19095 layer_factory.hpp:76] Creating layer conv5_1
I1007 08:00:11.717905 19095 net.cpp:106] Creating Layer conv5_1
I1007 08:00:11.717907 19095 net.cpp:454] conv5_1 <- pool4
I1007 08:00:11.717912 19095 net.cpp:411] conv5_1 -> conv5_1
I1007 08:00:11.723676 19095 net.cpp:150] Setting up conv5_1
I1007 08:00:11.723690 19095 net.cpp:157] Top shape: 4 512 28 28 (1605632)
I1007 08:00:11.723693 19095 net.cpp:165] Memory required for data: 2018255972
I1007 08:00:11.723700 19095 layer_factory.hpp:76] Creating layer relu5_1
I1007 08:00:11.723706 19095 net.cpp:106] Creating Layer relu5_1
I1007 08:00:11.723709 19095 net.cpp:454] relu5_1 <- conv5_1
I1007 08:00:11.723714 19095 net.cpp:397] relu5_1 -> conv5_1 (in-place)
I1007 08:00:11.724043 19095 net.cpp:150] Setting up relu5_1
I1007 08:00:11.724055 19095 net.cpp:157] Top shape: 4 512 28 28 (1605632)
I1007 08:00:11.724057 19095 net.cpp:165] Memory required for data: 2024678500
I1007 08:00:11.724061 19095 layer_factory.hpp:76] Creating layer conv5_2
I1007 08:00:11.724068 19095 net.cpp:106] Creating Layer conv5_2
I1007 08:00:11.724071 19095 net.cpp:454] conv5_2 <- conv5_1
I1007 08:00:11.724077 19095 net.cpp:411] conv5_2 -> conv5_2
I1007 08:00:11.729986 19095 net.cpp:150] Setting up conv5_2
I1007 08:00:11.730001 19095 net.cpp:157] Top shape: 4 512 28 28 (1605632)
I1007 08:00:11.730005 19095 net.cpp:165] Memory required for data: 2031101028
I1007 08:00:11.730010 19095 layer_factory.hpp:76] Creating layer relu5_2
I1007 08:00:11.730017 19095 net.cpp:106] Creating Layer relu5_2
I1007 08:00:11.730021 19095 net.cpp:454] relu5_2 <- conv5_2
I1007 08:00:11.730026 19095 net.cpp:397] relu5_2 -> conv5_2 (in-place)
I1007 08:00:11.730180 19095 net.cpp:150] Setting up relu5_2
I1007 08:00:11.730188 19095 net.cpp:157] Top shape: 4 512 28 28 (1605632)
I1007 08:00:11.730190 19095 net.cpp:165] Memory required for data: 2037523556
I1007 08:00:11.730193 19095 layer_factory.hpp:76] Creating layer conv5_3
I1007 08:00:11.730201 19095 net.cpp:106] Creating Layer conv5_3
I1007 08:00:11.730204 19095 net.cpp:454] conv5_3 <- conv5_2
I1007 08:00:11.730208 19095 net.cpp:411] conv5_3 -> conv5_3
I1007 08:00:11.736002 19095 net.cpp:150] Setting up conv5_3
I1007 08:00:11.736016 19095 net.cpp:157] Top shape: 4 512 28 28 (1605632)
I1007 08:00:11.736018 19095 net.cpp:165] Memory required for data: 2043946084
I1007 08:00:11.736024 19095 layer_factory.hpp:76] Creating layer relu5_3
I1007 08:00:11.736030 19095 net.cpp:106] Creating Layer relu5_3
I1007 08:00:11.736033 19095 net.cpp:454] relu5_3 <- conv5_3
I1007 08:00:11.736040 19095 net.cpp:397] relu5_3 -> conv5_3 (in-place)
I1007 08:00:11.736362 19095 net.cpp:150] Setting up relu5_3
I1007 08:00:11.736373 19095 net.cpp:157] Top shape: 4 512 28 28 (1605632)
I1007 08:00:11.736377 19095 net.cpp:165] Memory required for data: 2050368612
I1007 08:00:11.736379 19095 layer_factory.hpp:76] Creating layer conv5_3_relu5_3_0_split
I1007 08:00:11.736387 19095 net.cpp:106] Creating Layer conv5_3_relu5_3_0_split
I1007 08:00:11.736389 19095 net.cpp:454] conv5_3_relu5_3_0_split <- conv5_3
I1007 08:00:11.736394 19095 net.cpp:411] conv5_3_relu5_3_0_split -> conv5_3_relu5_3_0_split_0
I1007 08:00:11.736400 19095 net.cpp:411] conv5_3_relu5_3_0_split -> conv5_3_relu5_3_0_split_1
I1007 08:00:11.736405 19095 net.cpp:411] conv5_3_relu5_3_0_split -> conv5_3_relu5_3_0_split_2
I1007 08:00:11.736459 19095 net.cpp:150] Setting up conv5_3_relu5_3_0_split
I1007 08:00:11.736465 19095 net.cpp:157] Top shape: 4 512 28 28 (1605632)
I1007 08:00:11.736469 19095 net.cpp:157] Top shape: 4 512 28 28 (1605632)
I1007 08:00:11.736471 19095 net.cpp:157] Top shape: 4 512 28 28 (1605632)
I1007 08:00:11.736475 19095 net.cpp:165] Memory required for data: 2069636196
I1007 08:00:11.736479 19095 layer_factory.hpp:76] Creating layer LFCN_2_3x5
I1007 08:00:11.736491 19095 net.cpp:106] Creating Layer LFCN_2_3x5
I1007 08:00:11.736495 19095 net.cpp:454] LFCN_2_3x5 <- conv5_3_relu5_3_0_split_0
I1007 08:00:11.736500 19095 net.cpp:411] LFCN_2_3x5 -> LFCN_2_3x5
I1007 08:00:11.738819 19095 net.cpp:150] Setting up LFCN_2_3x5
I1007 08:00:11.738833 19095 net.cpp:157] Top shape: 4 6 28 28 (18816)
I1007 08:00:11.738837 19095 net.cpp:165] Memory required for data: 2069711460
I1007 08:00:11.738847 19095 layer_factory.hpp:76] Creating layer LFCN_2_3x5_LFCN_2_3x5_0_split
I1007 08:00:11.738863 19095 net.cpp:106] Creating Layer LFCN_2_3x5_LFCN_2_3x5_0_split
I1007 08:00:11.738867 19095 net.cpp:454] LFCN_2_3x5_LFCN_2_3x5_0_split <- LFCN_2_3x5
I1007 08:00:11.738872 19095 net.cpp:411] LFCN_2_3x5_LFCN_2_3x5_0_split -> LFCN_2_3x5_LFCN_2_3x5_0_split_0
I1007 08:00:11.738879 19095 net.cpp:411] LFCN_2_3x5_LFCN_2_3x5_0_split -> LFCN_2_3x5_LFCN_2_3x5_0_split_1
I1007 08:00:11.738901 19095 net.cpp:411] LFCN_2_3x5_LFCN_2_3x5_0_split -> LFCN_2_3x5_LFCN_2_3x5_0_split_2
I1007 08:00:11.738955 19095 net.cpp:150] Setting up LFCN_2_3x5_LFCN_2_3x5_0_split
I1007 08:00:11.738962 19095 net.cpp:157] Top shape: 4 6 28 28 (18816)
I1007 08:00:11.738965 19095 net.cpp:157] Top shape: 4 6 28 28 (18816)
I1007 08:00:11.738968 19095 net.cpp:157] Top shape: 4 6 28 28 (18816)
I1007 08:00:11.738970 19095 net.cpp:165] Memory required for data: 2069937252
I1007 08:00:11.738973 19095 layer_factory.hpp:76] Creating layer detection_loss_2_3x5
I1007 08:00:11.738981 19095 net.cpp:106] Creating Layer detection_loss_2_3x5
I1007 08:00:11.738984 19095 net.cpp:454] detection_loss_2_3x5 <- LFCN_2_3x5_LFCN_2_3x5_0_split_0
I1007 08:00:11.738989 19095 net.cpp:454] detection_loss_2_3x5 <- label_2_3x5_data_3_split_0
I1007 08:00:11.738993 19095 net.cpp:411] detection_loss_2_3x5 -> loss_2_3x5
I1007 08:00:11.739001 19095 layer_factory.hpp:76] Creating layer detection_loss_2_3x5
I1007 08:00:11.739531 19095 net.cpp:150] Setting up detection_loss_2_3x5
I1007 08:00:11.739543 19095 net.cpp:157] Top shape: 1 1 1 2 (2)
I1007 08:00:11.739547 19095 net.cpp:160]     with loss weight 1
I1007 08:00:11.739557 19095 net.cpp:165] Memory required for data: 2069937260
I1007 08:00:11.739560 19095 layer_factory.hpp:76] Creating layer detection_accuracy_2_3x5
I1007 08:00:11.739567 19095 net.cpp:106] Creating Layer detection_accuracy_2_3x5
I1007 08:00:11.739570 19095 net.cpp:454] detection_accuracy_2_3x5 <- LFCN_2_3x5_LFCN_2_3x5_0_split_1
I1007 08:00:11.739575 19095 net.cpp:454] detection_accuracy_2_3x5 <- label_2_3x5_data_3_split_1
I1007 08:00:11.739583 19095 net.cpp:411] detection_accuracy_2_3x5 -> accuracy_2_3x5
I1007 08:00:11.739588 19095 net.cpp:411] detection_accuracy_2_3x5 -> boxiou_2_3x5
I1007 08:00:11.739625 19095 net.cpp:150] Setting up detection_accuracy_2_3x5
I1007 08:00:11.739629 19095 net.cpp:157] Top shape: 1 1 1 2 (2)
I1007 08:00:11.739632 19095 net.cpp:157] Top shape: 1 1 1 1 (1)
I1007 08:00:11.739635 19095 net.cpp:165] Memory required for data: 2069937272
I1007 08:00:11.739637 19095 layer_factory.hpp:76] Creating layer LFCN_2_5x7
I1007 08:00:11.739658 19095 net.cpp:106] Creating Layer LFCN_2_5x7
I1007 08:00:11.739665 19095 net.cpp:454] LFCN_2_5x7 <- conv5_3_relu5_3_0_split_1
I1007 08:00:11.739668 19095 net.cpp:411] LFCN_2_5x7 -> LFCN_2_5x7
I1007 08:00:11.744297 19095 net.cpp:150] Setting up LFCN_2_5x7
I1007 08:00:11.744309 19095 net.cpp:157] Top shape: 4 6 28 28 (18816)
I1007 08:00:11.744313 19095 net.cpp:165] Memory required for data: 2070012536
I1007 08:00:11.744320 19095 layer_factory.hpp:76] Creating layer LFCN_2_5x7_LFCN_2_5x7_0_split
I1007 08:00:11.744328 19095 net.cpp:106] Creating Layer LFCN_2_5x7_LFCN_2_5x7_0_split
I1007 08:00:11.744330 19095 net.cpp:454] LFCN_2_5x7_LFCN_2_5x7_0_split <- LFCN_2_5x7
I1007 08:00:11.744335 19095 net.cpp:411] LFCN_2_5x7_LFCN_2_5x7_0_split -> LFCN_2_5x7_LFCN_2_5x7_0_split_0
I1007 08:00:11.744341 19095 net.cpp:411] LFCN_2_5x7_LFCN_2_5x7_0_split -> LFCN_2_5x7_LFCN_2_5x7_0_split_1
I1007 08:00:11.744346 19095 net.cpp:411] LFCN_2_5x7_LFCN_2_5x7_0_split -> LFCN_2_5x7_LFCN_2_5x7_0_split_2
I1007 08:00:11.744401 19095 net.cpp:150] Setting up LFCN_2_5x7_LFCN_2_5x7_0_split
I1007 08:00:11.744418 19095 net.cpp:157] Top shape: 4 6 28 28 (18816)
I1007 08:00:11.744421 19095 net.cpp:157] Top shape: 4 6 28 28 (18816)
I1007 08:00:11.744424 19095 net.cpp:157] Top shape: 4 6 28 28 (18816)
I1007 08:00:11.744426 19095 net.cpp:165] Memory required for data: 2070238328
I1007 08:00:11.744429 19095 layer_factory.hpp:76] Creating layer detection_loss_2_5x7
I1007 08:00:11.744436 19095 net.cpp:106] Creating Layer detection_loss_2_5x7
I1007 08:00:11.744439 19095 net.cpp:454] detection_loss_2_5x7 <- LFCN_2_5x7_LFCN_2_5x7_0_split_0
I1007 08:00:11.744443 19095 net.cpp:454] detection_loss_2_5x7 <- label_2_5x7_data_4_split_0
I1007 08:00:11.744448 19095 net.cpp:411] detection_loss_2_5x7 -> loss_2_5x7
I1007 08:00:11.744454 19095 layer_factory.hpp:76] Creating layer detection_loss_2_5x7
I1007 08:00:11.744781 19095 net.cpp:150] Setting up detection_loss_2_5x7
I1007 08:00:11.744791 19095 net.cpp:157] Top shape: 1 1 1 2 (2)
I1007 08:00:11.744796 19095 net.cpp:160]     with loss weight 1
I1007 08:00:11.744803 19095 net.cpp:165] Memory required for data: 2070238336
I1007 08:00:11.744808 19095 layer_factory.hpp:76] Creating layer detection_accuracy_2_5x7
I1007 08:00:11.744815 19095 net.cpp:106] Creating Layer detection_accuracy_2_5x7
I1007 08:00:11.744818 19095 net.cpp:454] detection_accuracy_2_5x7 <- LFCN_2_5x7_LFCN_2_5x7_0_split_1
I1007 08:00:11.744822 19095 net.cpp:454] detection_accuracy_2_5x7 <- label_2_5x7_data_4_split_1
I1007 08:00:11.744829 19095 net.cpp:411] detection_accuracy_2_5x7 -> accuracy_2_5x7
I1007 08:00:11.744835 19095 net.cpp:411] detection_accuracy_2_5x7 -> boxiou_2_5x7
I1007 08:00:11.744881 19095 net.cpp:150] Setting up detection_accuracy_2_5x7
I1007 08:00:11.744886 19095 net.cpp:157] Top shape: 1 1 1 2 (2)
I1007 08:00:11.744889 19095 net.cpp:157] Top shape: 1 1 1 1 (1)
I1007 08:00:11.744892 19095 net.cpp:165] Memory required for data: 2070238348
I1007 08:00:11.744894 19095 layer_factory.hpp:76] Creating layer pool5
I1007 08:00:11.744900 19095 net.cpp:106] Creating Layer pool5
I1007 08:00:11.744904 19095 net.cpp:454] pool5 <- conv5_3_relu5_3_0_split_2
I1007 08:00:11.744910 19095 net.cpp:411] pool5 -> pool5
I1007 08:00:11.745496 19095 net.cpp:150] Setting up pool5
I1007 08:00:11.745510 19095 net.cpp:157] Top shape: 4 512 14 14 (401408)
I1007 08:00:11.745513 19095 net.cpp:165] Memory required for data: 2071843980
I1007 08:00:11.745517 19095 layer_factory.hpp:76] Creating layer conv6_1
I1007 08:00:11.745525 19095 net.cpp:106] Creating Layer conv6_1
I1007 08:00:11.745528 19095 net.cpp:454] conv6_1 <- pool5
I1007 08:00:11.745533 19095 net.cpp:411] conv6_1 -> conv6_1
I1007 08:00:11.822671 19095 net.cpp:150] Setting up conv6_1
I1007 08:00:11.822685 19095 net.cpp:157] Top shape: 4 512 14 14 (401408)
I1007 08:00:11.822688 19095 net.cpp:165] Memory required for data: 2073449612
I1007 08:00:11.822695 19095 layer_factory.hpp:76] Creating layer relu6_1
I1007 08:00:11.822702 19095 net.cpp:106] Creating Layer relu6_1
I1007 08:00:11.822705 19095 net.cpp:454] relu6_1 <- conv6_1
I1007 08:00:11.822710 19095 net.cpp:397] relu6_1 -> conv6_1 (in-place)
I1007 08:00:11.822875 19095 net.cpp:150] Setting up relu6_1
I1007 08:00:11.822890 19095 net.cpp:157] Top shape: 4 512 14 14 (401408)
I1007 08:00:11.822904 19095 net.cpp:165] Memory required for data: 2075055244
I1007 08:00:11.822907 19095 layer_factory.hpp:76] Creating layer conv6_1_relu6_1_0_split
I1007 08:00:11.822913 19095 net.cpp:106] Creating Layer conv6_1_relu6_1_0_split
I1007 08:00:11.822916 19095 net.cpp:454] conv6_1_relu6_1_0_split <- conv6_1
I1007 08:00:11.822922 19095 net.cpp:411] conv6_1_relu6_1_0_split -> conv6_1_relu6_1_0_split_0
I1007 08:00:11.822928 19095 net.cpp:411] conv6_1_relu6_1_0_split -> conv6_1_relu6_1_0_split_1
I1007 08:00:11.822933 19095 net.cpp:411] conv6_1_relu6_1_0_split -> conv6_1_relu6_1_0_split_2
I1007 08:00:11.823007 19095 net.cpp:150] Setting up conv6_1_relu6_1_0_split
I1007 08:00:11.823014 19095 net.cpp:157] Top shape: 4 512 14 14 (401408)
I1007 08:00:11.823017 19095 net.cpp:157] Top shape: 4 512 14 14 (401408)
I1007 08:00:11.823020 19095 net.cpp:157] Top shape: 4 512 14 14 (401408)
I1007 08:00:11.823022 19095 net.cpp:165] Memory required for data: 2079872140
I1007 08:00:11.823025 19095 layer_factory.hpp:76] Creating layer LFCN_3_3x5
I1007 08:00:11.823032 19095 net.cpp:106] Creating Layer LFCN_3_3x5
I1007 08:00:11.823035 19095 net.cpp:454] LFCN_3_3x5 <- conv6_1_relu6_1_0_split_0
I1007 08:00:11.823047 19095 net.cpp:411] LFCN_3_3x5 -> LFCN_3_3x5
I1007 08:00:11.825564 19095 net.cpp:150] Setting up LFCN_3_3x5
I1007 08:00:11.825577 19095 net.cpp:157] Top shape: 4 6 14 14 (4704)
I1007 08:00:11.825579 19095 net.cpp:165] Memory required for data: 2079890956
I1007 08:00:11.825585 19095 layer_factory.hpp:76] Creating layer LFCN_3_3x5_LFCN_3_3x5_0_split
I1007 08:00:11.825600 19095 net.cpp:106] Creating Layer LFCN_3_3x5_LFCN_3_3x5_0_split
I1007 08:00:11.825604 19095 net.cpp:454] LFCN_3_3x5_LFCN_3_3x5_0_split <- LFCN_3_3x5
I1007 08:00:11.825610 19095 net.cpp:411] LFCN_3_3x5_LFCN_3_3x5_0_split -> LFCN_3_3x5_LFCN_3_3x5_0_split_0
I1007 08:00:11.825618 19095 net.cpp:411] LFCN_3_3x5_LFCN_3_3x5_0_split -> LFCN_3_3x5_LFCN_3_3x5_0_split_1
I1007 08:00:11.825623 19095 net.cpp:411] LFCN_3_3x5_LFCN_3_3x5_0_split -> LFCN_3_3x5_LFCN_3_3x5_0_split_2
I1007 08:00:11.825687 19095 net.cpp:150] Setting up LFCN_3_3x5_LFCN_3_3x5_0_split
I1007 08:00:11.825692 19095 net.cpp:157] Top shape: 4 6 14 14 (4704)
I1007 08:00:11.825695 19095 net.cpp:157] Top shape: 4 6 14 14 (4704)
I1007 08:00:11.825698 19095 net.cpp:157] Top shape: 4 6 14 14 (4704)
I1007 08:00:11.825700 19095 net.cpp:165] Memory required for data: 2079947404
I1007 08:00:11.825703 19095 layer_factory.hpp:76] Creating layer detection_loss_3_3x5
I1007 08:00:11.825711 19095 net.cpp:106] Creating Layer detection_loss_3_3x5
I1007 08:00:11.825714 19095 net.cpp:454] detection_loss_3_3x5 <- LFCN_3_3x5_LFCN_3_3x5_0_split_0
I1007 08:00:11.825719 19095 net.cpp:454] detection_loss_3_3x5 <- label_3_3x5_data_5_split_0
I1007 08:00:11.825726 19095 net.cpp:411] detection_loss_3_3x5 -> loss_3_3x5
I1007 08:00:11.825732 19095 layer_factory.hpp:76] Creating layer detection_loss_3_3x5
I1007 08:00:11.826108 19095 net.cpp:150] Setting up detection_loss_3_3x5
I1007 08:00:11.826119 19095 net.cpp:157] Top shape: 1 1 1 2 (2)
I1007 08:00:11.826122 19095 net.cpp:160]     with loss weight 1
I1007 08:00:11.826129 19095 net.cpp:165] Memory required for data: 2079947412
I1007 08:00:11.826133 19095 layer_factory.hpp:76] Creating layer detection_accuracy_3_3x5
I1007 08:00:11.826138 19095 net.cpp:106] Creating Layer detection_accuracy_3_3x5
I1007 08:00:11.826141 19095 net.cpp:454] detection_accuracy_3_3x5 <- LFCN_3_3x5_LFCN_3_3x5_0_split_1
I1007 08:00:11.826146 19095 net.cpp:454] detection_accuracy_3_3x5 <- label_3_3x5_data_5_split_1
I1007 08:00:11.826153 19095 net.cpp:411] detection_accuracy_3_3x5 -> accuracy_3_3x5
I1007 08:00:11.826159 19095 net.cpp:411] detection_accuracy_3_3x5 -> boxiou_3_3x5
I1007 08:00:11.826206 19095 net.cpp:150] Setting up detection_accuracy_3_3x5
I1007 08:00:11.826212 19095 net.cpp:157] Top shape: 1 1 1 2 (2)
I1007 08:00:11.826215 19095 net.cpp:157] Top shape: 1 1 1 1 (1)
I1007 08:00:11.826217 19095 net.cpp:165] Memory required for data: 2079947424
I1007 08:00:11.826220 19095 layer_factory.hpp:76] Creating layer LFCN_3_5x7
I1007 08:00:11.826230 19095 net.cpp:106] Creating Layer LFCN_3_5x7
I1007 08:00:11.826233 19095 net.cpp:454] LFCN_3_5x7 <- conv6_1_relu6_1_0_split_1
I1007 08:00:11.826239 19095 net.cpp:411] LFCN_3_5x7 -> LFCN_3_5x7
I1007 08:00:11.831457 19095 net.cpp:150] Setting up LFCN_3_5x7
I1007 08:00:11.831470 19095 net.cpp:157] Top shape: 4 6 14 14 (4704)
I1007 08:00:11.831473 19095 net.cpp:165] Memory required for data: 2079966240
I1007 08:00:11.831480 19095 layer_factory.hpp:76] Creating layer LFCN_3_5x7_LFCN_3_5x7_0_split
I1007 08:00:11.831485 19095 net.cpp:106] Creating Layer LFCN_3_5x7_LFCN_3_5x7_0_split
I1007 08:00:11.831490 19095 net.cpp:454] LFCN_3_5x7_LFCN_3_5x7_0_split <- LFCN_3_5x7
I1007 08:00:11.831496 19095 net.cpp:411] LFCN_3_5x7_LFCN_3_5x7_0_split -> LFCN_3_5x7_LFCN_3_5x7_0_split_0
I1007 08:00:11.831502 19095 net.cpp:411] LFCN_3_5x7_LFCN_3_5x7_0_split -> LFCN_3_5x7_LFCN_3_5x7_0_split_1
I1007 08:00:11.831508 19095 net.cpp:411] LFCN_3_5x7_LFCN_3_5x7_0_split -> LFCN_3_5x7_LFCN_3_5x7_0_split_2
I1007 08:00:11.831564 19095 net.cpp:150] Setting up LFCN_3_5x7_LFCN_3_5x7_0_split
I1007 08:00:11.831569 19095 net.cpp:157] Top shape: 4 6 14 14 (4704)
I1007 08:00:11.831573 19095 net.cpp:157] Top shape: 4 6 14 14 (4704)
I1007 08:00:11.831575 19095 net.cpp:157] Top shape: 4 6 14 14 (4704)
I1007 08:00:11.831578 19095 net.cpp:165] Memory required for data: 2080022688
I1007 08:00:11.831580 19095 layer_factory.hpp:76] Creating layer detection_loss_3_5x7
I1007 08:00:11.831585 19095 net.cpp:106] Creating Layer detection_loss_3_5x7
I1007 08:00:11.831588 19095 net.cpp:454] detection_loss_3_5x7 <- LFCN_3_5x7_LFCN_3_5x7_0_split_0
I1007 08:00:11.831593 19095 net.cpp:454] detection_loss_3_5x7 <- label_3_5x7_data_6_split_0
I1007 08:00:11.831599 19095 net.cpp:411] detection_loss_3_5x7 -> loss_3_5x7
I1007 08:00:11.831606 19095 layer_factory.hpp:76] Creating layer detection_loss_3_5x7
I1007 08:00:11.832126 19095 net.cpp:150] Setting up detection_loss_3_5x7
I1007 08:00:11.832139 19095 net.cpp:157] Top shape: 1 1 1 2 (2)
I1007 08:00:11.832141 19095 net.cpp:160]     with loss weight 1
I1007 08:00:11.832146 19095 net.cpp:165] Memory required for data: 2080022696
I1007 08:00:11.832149 19095 layer_factory.hpp:76] Creating layer detection_accuracy_3_5x7
I1007 08:00:11.832155 19095 net.cpp:106] Creating Layer detection_accuracy_3_5x7
I1007 08:00:11.832159 19095 net.cpp:454] detection_accuracy_3_5x7 <- LFCN_3_5x7_LFCN_3_5x7_0_split_1
I1007 08:00:11.832164 19095 net.cpp:454] detection_accuracy_3_5x7 <- label_3_5x7_data_6_split_1
I1007 08:00:11.832168 19095 net.cpp:411] detection_accuracy_3_5x7 -> accuracy_3_5x7
I1007 08:00:11.832176 19095 net.cpp:411] detection_accuracy_3_5x7 -> boxiou_3_5x7
I1007 08:00:11.832216 19095 net.cpp:150] Setting up detection_accuracy_3_5x7
I1007 08:00:11.832221 19095 net.cpp:157] Top shape: 1 1 1 2 (2)
I1007 08:00:11.832226 19095 net.cpp:157] Top shape: 1 1 1 1 (1)
I1007 08:00:11.832227 19095 net.cpp:165] Memory required for data: 2080022708
I1007 08:00:11.832229 19095 layer_factory.hpp:76] Creating layer pool6
I1007 08:00:11.832237 19095 net.cpp:106] Creating Layer pool6
I1007 08:00:11.832240 19095 net.cpp:454] pool6 <- conv6_1_relu6_1_0_split_2
I1007 08:00:11.832244 19095 net.cpp:411] pool6 -> pool6
I1007 08:00:11.832444 19095 net.cpp:150] Setting up pool6
I1007 08:00:11.832454 19095 net.cpp:157] Top shape: 4 512 7 7 (100352)
I1007 08:00:11.832458 19095 net.cpp:165] Memory required for data: 2080424116
I1007 08:00:11.832460 19095 layer_factory.hpp:76] Creating layer LFCN_4_3x5
I1007 08:00:11.832469 19095 net.cpp:106] Creating Layer LFCN_4_3x5
I1007 08:00:11.832473 19095 net.cpp:454] LFCN_4_3x5 <- pool6
I1007 08:00:11.832479 19095 net.cpp:411] LFCN_4_3x5 -> LFCN_4_3x5
I1007 08:00:11.835352 19095 net.cpp:150] Setting up LFCN_4_3x5
I1007 08:00:11.835366 19095 net.cpp:157] Top shape: 4 6 7 7 (1176)
I1007 08:00:11.835368 19095 net.cpp:165] Memory required for data: 2080428820
I1007 08:00:11.835376 19095 layer_factory.hpp:76] Creating layer LFCN_4_3x5_LFCN_4_3x5_0_split
I1007 08:00:11.835382 19095 net.cpp:106] Creating Layer LFCN_4_3x5_LFCN_4_3x5_0_split
I1007 08:00:11.835386 19095 net.cpp:454] LFCN_4_3x5_LFCN_4_3x5_0_split <- LFCN_4_3x5
I1007 08:00:11.835391 19095 net.cpp:411] LFCN_4_3x5_LFCN_4_3x5_0_split -> LFCN_4_3x5_LFCN_4_3x5_0_split_0
I1007 08:00:11.835399 19095 net.cpp:411] LFCN_4_3x5_LFCN_4_3x5_0_split -> LFCN_4_3x5_LFCN_4_3x5_0_split_1
I1007 08:00:11.835404 19095 net.cpp:411] LFCN_4_3x5_LFCN_4_3x5_0_split -> LFCN_4_3x5_LFCN_4_3x5_0_split_2
I1007 08:00:11.835464 19095 net.cpp:150] Setting up LFCN_4_3x5_LFCN_4_3x5_0_split
I1007 08:00:11.835469 19095 net.cpp:157] Top shape: 4 6 7 7 (1176)
I1007 08:00:11.835472 19095 net.cpp:157] Top shape: 4 6 7 7 (1176)
I1007 08:00:11.835475 19095 net.cpp:157] Top shape: 4 6 7 7 (1176)
I1007 08:00:11.835479 19095 net.cpp:165] Memory required for data: 2080442932
I1007 08:00:11.835480 19095 layer_factory.hpp:76] Creating layer detection_loss_4_3x5
I1007 08:00:11.835489 19095 net.cpp:106] Creating Layer detection_loss_4_3x5
I1007 08:00:11.835491 19095 net.cpp:454] detection_loss_4_3x5 <- LFCN_4_3x5_LFCN_4_3x5_0_split_0
I1007 08:00:11.835495 19095 net.cpp:454] detection_loss_4_3x5 <- label_4_3x5_data_7_split_0
I1007 08:00:11.835500 19095 net.cpp:411] detection_loss_4_3x5 -> loss_4_3x5
I1007 08:00:11.835506 19095 layer_factory.hpp:76] Creating layer detection_loss_4_3x5
I1007 08:00:11.836033 19095 net.cpp:150] Setting up detection_loss_4_3x5
I1007 08:00:11.836045 19095 net.cpp:157] Top shape: 1 1 1 2 (2)
I1007 08:00:11.836048 19095 net.cpp:160]     with loss weight 1
I1007 08:00:11.836055 19095 net.cpp:165] Memory required for data: 2080442940
I1007 08:00:11.836056 19095 layer_factory.hpp:76] Creating layer detection_accuracy_4_3x5
I1007 08:00:11.836066 19095 net.cpp:106] Creating Layer detection_accuracy_4_3x5
I1007 08:00:11.836068 19095 net.cpp:454] detection_accuracy_4_3x5 <- LFCN_4_3x5_LFCN_4_3x5_0_split_1
I1007 08:00:11.836073 19095 net.cpp:454] detection_accuracy_4_3x5 <- label_4_3x5_data_7_split_1
I1007 08:00:11.836079 19095 net.cpp:411] detection_accuracy_4_3x5 -> accuracy_4_3x5
I1007 08:00:11.836086 19095 net.cpp:411] detection_accuracy_4_3x5 -> boxiou_4_3x5
I1007 08:00:11.836125 19095 net.cpp:150] Setting up detection_accuracy_4_3x5
I1007 08:00:11.836130 19095 net.cpp:157] Top shape: 1 1 1 2 (2)
I1007 08:00:11.836133 19095 net.cpp:157] Top shape: 1 1 1 1 (1)
I1007 08:00:11.836135 19095 net.cpp:165] Memory required for data: 2080442952
I1007 08:00:11.836138 19095 layer_factory.hpp:76] Creating layer proposals
I1007 08:00:11.836146 19095 net.cpp:106] Creating Layer proposals
I1007 08:00:11.836150 19095 net.cpp:454] proposals <- LFCN_1_3x5_LFCN_1_3x5_0_split_2
I1007 08:00:11.836154 19095 net.cpp:454] proposals <- LFCN_1_5x7_LFCN_1_5x7_0_split_2
I1007 08:00:11.836158 19095 net.cpp:454] proposals <- LFCN_2_3x5_LFCN_2_3x5_0_split_2
I1007 08:00:11.836160 19095 net.cpp:454] proposals <- LFCN_2_5x7_LFCN_2_5x7_0_split_2
I1007 08:00:11.836164 19095 net.cpp:454] proposals <- LFCN_3_3x5_LFCN_3_3x5_0_split_2
I1007 08:00:11.836168 19095 net.cpp:454] proposals <- LFCN_3_5x7_LFCN_3_5x7_0_split_2
I1007 08:00:11.836170 19095 net.cpp:454] proposals <- LFCN_4_3x5_LFCN_4_3x5_0_split_2
I1007 08:00:11.836174 19095 net.cpp:411] proposals -> proposals
I1007 08:00:11.836204 19095 net.cpp:150] Setting up proposals
I1007 08:00:11.836208 19095 net.cpp:157] Top shape: 1 5 1 1 (5)
I1007 08:00:11.836210 19095 net.cpp:165] Memory required for data: 2080442972
I1007 08:00:11.836213 19095 layer_factory.hpp:76] Creating layer proposal_info
I1007 08:00:11.836228 19095 net.cpp:106] Creating Layer proposal_info
I1007 08:00:11.836232 19095 net.cpp:454] proposal_info <- proposals
I1007 08:00:11.836236 19095 net.cpp:454] proposal_info <- gt_boxes
I1007 08:00:11.836241 19095 net.cpp:411] proposal_info -> rois
I1007 08:00:11.836248 19095 net.cpp:411] proposal_info -> proposal_labels
I1007 08:00:11.836256 19095 net.cpp:411] proposal_info -> proposal_targets
I1007 08:00:11.836261 19095 net.cpp:411] proposal_info -> box_inside_weights
I1007 08:00:11.836266 19095 net.cpp:411] proposal_info -> box_outside_weights
I1007 08:00:11.836272 19095 net.cpp:411] proposal_info -> match_gt_boxes
I1007 08:00:11.836374 19095 net.cpp:150] Setting up proposal_info
I1007 08:00:11.836381 19095 net.cpp:157] Top shape: 128 5 1 1 (640)
I1007 08:00:11.836385 19095 net.cpp:157] Top shape: 128 1 1 1 (128)
I1007 08:00:11.836390 19095 net.cpp:157] Top shape: 128 8 1 1 (1024)
I1007 08:00:11.836392 19095 net.cpp:157] Top shape: 128 8 1 1 (1024)
I1007 08:00:11.836395 19095 net.cpp:157] Top shape: 128 8 1 1 (1024)
I1007 08:00:11.836398 19095 net.cpp:157] Top shape: 128 6 1 1 (768)
I1007 08:00:11.836400 19095 net.cpp:165] Memory required for data: 2080461404
I1007 08:00:11.836403 19095 layer_factory.hpp:76] Creating layer rois_proposal_info_0_split
I1007 08:00:11.836408 19095 net.cpp:106] Creating Layer rois_proposal_info_0_split
I1007 08:00:11.836411 19095 net.cpp:454] rois_proposal_info_0_split <- rois
I1007 08:00:11.836416 19095 net.cpp:411] rois_proposal_info_0_split -> rois_proposal_info_0_split_0
I1007 08:00:11.836421 19095 net.cpp:411] rois_proposal_info_0_split -> rois_proposal_info_0_split_1
I1007 08:00:11.836426 19095 net.cpp:411] rois_proposal_info_0_split -> rois_proposal_info_0_split_2
I1007 08:00:11.836472 19095 net.cpp:150] Setting up rois_proposal_info_0_split
I1007 08:00:11.836477 19095 net.cpp:157] Top shape: 128 5 1 1 (640)
I1007 08:00:11.836479 19095 net.cpp:157] Top shape: 128 5 1 1 (640)
I1007 08:00:11.836483 19095 net.cpp:157] Top shape: 128 5 1 1 (640)
I1007 08:00:11.836484 19095 net.cpp:165] Memory required for data: 2080469084
I1007 08:00:11.836488 19095 layer_factory.hpp:76] Creating layer proposal_labels_proposal_info_1_split
I1007 08:00:11.836491 19095 net.cpp:106] Creating Layer proposal_labels_proposal_info_1_split
I1007 08:00:11.836495 19095 net.cpp:454] proposal_labels_proposal_info_1_split <- proposal_labels
I1007 08:00:11.836499 19095 net.cpp:411] proposal_labels_proposal_info_1_split -> proposal_labels_proposal_info_1_split_0
I1007 08:00:11.836504 19095 net.cpp:411] proposal_labels_proposal_info_1_split -> proposal_labels_proposal_info_1_split_1
I1007 08:00:11.836540 19095 net.cpp:150] Setting up proposal_labels_proposal_info_1_split
I1007 08:00:11.836549 19095 net.cpp:157] Top shape: 128 1 1 1 (128)
I1007 08:00:11.836554 19095 net.cpp:157] Top shape: 128 1 1 1 (128)
I1007 08:00:11.836555 19095 net.cpp:165] Memory required for data: 2080470108
I1007 08:00:11.836558 19095 layer_factory.hpp:76] Creating layer roi_pool_org
I1007 08:00:11.836565 19095 net.cpp:106] Creating Layer roi_pool_org
I1007 08:00:11.836567 19095 net.cpp:454] roi_pool_org <- conv4_3_relu4_3_0_split_2
I1007 08:00:11.836571 19095 net.cpp:454] roi_pool_org <- rois_proposal_info_0_split_0
I1007 08:00:11.836577 19095 net.cpp:411] roi_pool_org -> roi_pool_org
I1007 08:00:11.836585 19095 roi_pooling_layer.cpp:35] Spatial scale: 0.125
I1007 08:00:11.836629 19095 net.cpp:150] Setting up roi_pool_org
I1007 08:00:11.836635 19095 net.cpp:157] Top shape: 128 512 8 4 (2097152)
I1007 08:00:11.836638 19095 net.cpp:165] Memory required for data: 2088858716
I1007 08:00:11.836642 19095 layer_factory.hpp:76] Creating layer roi_pool_ctx
I1007 08:00:11.836649 19095 net.cpp:106] Creating Layer roi_pool_ctx
I1007 08:00:11.836652 19095 net.cpp:454] roi_pool_ctx <- conv4_3_relu4_3_0_split_3
I1007 08:00:11.836657 19095 net.cpp:454] roi_pool_ctx <- rois_proposal_info_0_split_1
I1007 08:00:11.836660 19095 net.cpp:411] roi_pool_ctx -> roi_pool_ctx
I1007 08:00:11.836665 19095 roi_pooling_layer.cpp:35] Spatial scale: 0.125
I1007 08:00:11.836702 19095 net.cpp:150] Setting up roi_pool_ctx
I1007 08:00:11.836707 19095 net.cpp:157] Top shape: 128 512 8 4 (2097152)
I1007 08:00:11.836709 19095 net.cpp:165] Memory required for data: 2097247324
I1007 08:00:11.836712 19095 layer_factory.hpp:76] Creating layer roi_pool
I1007 08:00:11.836720 19095 net.cpp:106] Creating Layer roi_pool
I1007 08:00:11.836726 19095 net.cpp:454] roi_pool <- roi_pool_org
I1007 08:00:11.836731 19095 net.cpp:454] roi_pool <- roi_pool_ctx
I1007 08:00:11.836737 19095 net.cpp:411] roi_pool -> roi_pool
I1007 08:00:11.836761 19095 net.cpp:150] Setting up roi_pool
I1007 08:00:11.836767 19095 net.cpp:157] Top shape: 128 1024 8 4 (4194304)
I1007 08:00:11.836769 19095 net.cpp:165] Memory required for data: 2114024540
I1007 08:00:11.836772 19095 layer_factory.hpp:76] Creating layer roi_c1
I1007 08:00:11.836781 19095 net.cpp:106] Creating Layer roi_c1
I1007 08:00:11.836784 19095 net.cpp:454] roi_c1 <- roi_pool
I1007 08:00:11.836788 19095 net.cpp:411] roi_c1 -> roi_c1
I1007 08:00:11.997545 19095 net.cpp:150] Setting up roi_c1
I1007 08:00:11.997570 19095 net.cpp:157] Top shape: 128 512 8 4 (2097152)
I1007 08:00:11.997572 19095 net.cpp:165] Memory required for data: 2122413148
I1007 08:00:11.997581 19095 layer_factory.hpp:76] Creating layer roi_c1_relu
I1007 08:00:11.997589 19095 net.cpp:106] Creating Layer roi_c1_relu
I1007 08:00:11.997594 19095 net.cpp:454] roi_c1_relu <- roi_c1
I1007 08:00:11.997601 19095 net.cpp:397] roi_c1_relu -> roi_c1 (in-place)
I1007 08:00:11.997942 19095 net.cpp:150] Setting up roi_c1_relu
I1007 08:00:11.997954 19095 net.cpp:157] Top shape: 128 512 8 4 (2097152)
I1007 08:00:11.997957 19095 net.cpp:165] Memory required for data: 2130801756
I1007 08:00:11.997961 19095 layer_factory.hpp:76] Creating layer fc6
I1007 08:00:11.997969 19095 net.cpp:106] Creating Layer fc6
I1007 08:00:11.997973 19095 net.cpp:454] fc6 <- roi_c1
I1007 08:00:11.997980 19095 net.cpp:411] fc6 -> fc6
I1007 08:00:13.127742 19095 net.cpp:150] Setting up fc6
I1007 08:00:13.127815 19095 net.cpp:157] Top shape: 128 2048 (262144)
I1007 08:00:13.127820 19095 net.cpp:165] Memory required for data: 2131850332
I1007 08:00:13.127862 19095 layer_factory.hpp:76] Creating layer relu6
I1007 08:00:13.127913 19095 net.cpp:106] Creating Layer relu6
I1007 08:00:13.127934 19095 net.cpp:454] relu6 <- fc6
I1007 08:00:13.127943 19095 net.cpp:397] relu6 -> fc6 (in-place)
I1007 08:00:13.128957 19095 net.cpp:150] Setting up relu6
I1007 08:00:13.128971 19095 net.cpp:157] Top shape: 128 2048 (262144)
I1007 08:00:13.128974 19095 net.cpp:165] Memory required for data: 2132898908
I1007 08:00:13.128978 19095 layer_factory.hpp:76] Creating layer drop6
I1007 08:00:13.128985 19095 net.cpp:106] Creating Layer drop6
I1007 08:00:13.128989 19095 net.cpp:454] drop6 <- fc6
I1007 08:00:13.128998 19095 net.cpp:397] drop6 -> fc6 (in-place)
I1007 08:00:13.129055 19095 net.cpp:150] Setting up drop6
I1007 08:00:13.129061 19095 net.cpp:157] Top shape: 128 2048 (262144)
I1007 08:00:13.129065 19095 net.cpp:165] Memory required for data: 2133947484
I1007 08:00:13.129067 19095 layer_factory.hpp:76] Creating layer fc6_drop6_0_split
I1007 08:00:13.129075 19095 net.cpp:106] Creating Layer fc6_drop6_0_split
I1007 08:00:13.129078 19095 net.cpp:454] fc6_drop6_0_split <- fc6
I1007 08:00:13.129088 19095 net.cpp:411] fc6_drop6_0_split -> fc6_drop6_0_split_0
I1007 08:00:13.129097 19095 net.cpp:411] fc6_drop6_0_split -> fc6_drop6_0_split_1
I1007 08:00:13.129206 19095 net.cpp:150] Setting up fc6_drop6_0_split
I1007 08:00:13.129218 19095 net.cpp:157] Top shape: 128 2048 (262144)
I1007 08:00:13.129222 19095 net.cpp:157] Top shape: 128 2048 (262144)
I1007 08:00:13.129225 19095 net.cpp:165] Memory required for data: 2136044636
I1007 08:00:13.129228 19095 layer_factory.hpp:76] Creating layer cls_pred
I1007 08:00:13.129243 19095 net.cpp:106] Creating Layer cls_pred
I1007 08:00:13.129248 19095 net.cpp:454] cls_pred <- fc6_drop6_0_split_0
I1007 08:00:13.129267 19095 net.cpp:411] cls_pred -> cls_pred
I1007 08:00:13.129575 19095 net.cpp:150] Setting up cls_pred
I1007 08:00:13.129585 19095 net.cpp:157] Top shape: 128 2 (256)
I1007 08:00:13.129588 19095 net.cpp:165] Memory required for data: 2136045660
I1007 08:00:13.129595 19095 layer_factory.hpp:76] Creating layer cls_pred_cls_pred_0_split
I1007 08:00:13.129600 19095 net.cpp:106] Creating Layer cls_pred_cls_pred_0_split
I1007 08:00:13.129603 19095 net.cpp:454] cls_pred_cls_pred_0_split <- cls_pred
I1007 08:00:13.129608 19095 net.cpp:411] cls_pred_cls_pred_0_split -> cls_pred_cls_pred_0_split_0
I1007 08:00:13.129618 19095 net.cpp:411] cls_pred_cls_pred_0_split -> cls_pred_cls_pred_0_split_1
I1007 08:00:13.129664 19095 net.cpp:150] Setting up cls_pred_cls_pred_0_split
I1007 08:00:13.129672 19095 net.cpp:157] Top shape: 128 2 (256)
I1007 08:00:13.129675 19095 net.cpp:157] Top shape: 128 2 (256)
I1007 08:00:13.129678 19095 net.cpp:165] Memory required for data: 2136047708
I1007 08:00:13.129680 19095 layer_factory.hpp:76] Creating layer bbox_pred
I1007 08:00:13.129691 19095 net.cpp:106] Creating Layer bbox_pred
I1007 08:00:13.129698 19095 net.cpp:454] bbox_pred <- fc6_drop6_0_split_1
I1007 08:00:13.129709 19095 net.cpp:411] bbox_pred -> bbox_pred
I1007 08:00:13.130558 19095 net.cpp:150] Setting up bbox_pred
I1007 08:00:13.130569 19095 net.cpp:157] Top shape: 128 8 (1024)
I1007 08:00:13.130573 19095 net.cpp:165] Memory required for data: 2136051804
I1007 08:00:13.130578 19095 layer_factory.hpp:76] Creating layer bbox_pred_bbox_pred_0_split
I1007 08:00:13.130584 19095 net.cpp:106] Creating Layer bbox_pred_bbox_pred_0_split
I1007 08:00:13.130590 19095 net.cpp:454] bbox_pred_bbox_pred_0_split <- bbox_pred
I1007 08:00:13.130599 19095 net.cpp:411] bbox_pred_bbox_pred_0_split -> bbox_pred_bbox_pred_0_split_0
I1007 08:00:13.130722 19095 net.cpp:411] bbox_pred_bbox_pred_0_split -> bbox_pred_bbox_pred_0_split_1
I1007 08:00:13.130770 19095 net.cpp:150] Setting up bbox_pred_bbox_pred_0_split
I1007 08:00:13.130781 19095 net.cpp:157] Top shape: 128 8 (1024)
I1007 08:00:13.130785 19095 net.cpp:157] Top shape: 128 8 (1024)
I1007 08:00:13.130789 19095 net.cpp:165] Memory required for data: 2136059996
I1007 08:00:13.130791 19095 layer_factory.hpp:76] Creating layer loss_cls
I1007 08:00:13.130800 19095 net.cpp:106] Creating Layer loss_cls
I1007 08:00:13.130803 19095 net.cpp:454] loss_cls <- cls_pred_cls_pred_0_split_0
I1007 08:00:13.130816 19095 net.cpp:454] loss_cls <- proposal_labels_proposal_info_1_split_0
…
I1007 08:00:13.143081 19095 image_gt_data_layer.cpp:234] output label size 2 : 2,6,28,28
I1007 08:00:13.143208 19095 image_gt_data_layer.cpp:234] output label size 3 : 2,6,28,28
I1007 08:00:13.143328 19095 image_gt_data_layer.cpp:234] output label size 4 : 2,6,14,14
I1007 08:00:13.143450 19095 image_gt_data_layer.cpp:234] output label size 5 : 2,6,14,14
I1007 08:00:13.143563 19095 image_gt_data_layer.cpp:234] output label size 6 : 2,6,7,7
I1007 08:00:13.143681 19095 image_gt_data_layer.cpp:249] output gt boxes size: 1,7,1,1
I1007 08:00:13.155798 19095 net.cpp:150] Setting up data
I1007 08:00:13.155819 19095 net.cpp:157] Top shape: 2 3 448 448 (1204224)
I1007 08:00:13.155824 19095 net.cpp:157] Top shape: 2 6 56 56 (37632)
I1007 08:00:13.155828 19095 net.cpp:157] Top shape: 2 6 56 56 (37632)
I1007 08:00:13.155833 19095 net.cpp:157] Top shape: 2 6 28 28 (9408)
I1007 08:00:13.155836 19095 net.cpp:157] Top shape: 2 6 28 28 (9408)
I1007 08:00:13.155839 19095 net.cpp:157] Top shape: 2 6 14 14 (2352)
I1007 08:00:13.155843 19095 net.cpp:157] Top shape: 2 6 14 14 (2352)
I1007 08:00:13.155848 19095 net.cpp:157] Top shape: 2 6 7 7 (588)
I1007 08:00:13.155851 19095 net.cpp:157] Top shape: 1 7 1 1 (7)
I1007 08:00:13.155853 19095 net.cpp:165] Memory required for data: 5214412
I1007 08:00:13.155858 19095 layer_factory.hpp:76] Creating layer label_1_3x5_data_1_split
I1007 08:00:13.155869 19095 net.cpp:106] Creating Layer label_1_3x5_data_1_split
I1007 08:00:13.155874 19095 net.cpp:454] label_1_3x5_data_1_split <- label_1_3x5
I1007 08:00:13.155882 19095 net.cpp:411] label_1_3x5_data_1_split -> label_1_3x5_data_1_split_0
I1007 08:00:13.155892 19095 net.cpp:411] label_1_3x5_data_1_split -> label_1_3x5_data_1_split_1
I1007 08:00:13.155966 19095 net.cpp:150] Setting up label_1_3x5_data_1_split
I1007 08:00:13.155982 19095 net.cpp:157] Top shape: 2 6 56 56 (37632)
I1007 08:00:13.155988 19095 net.cpp:157] Top shape: 2 6 56 56 (37632)
I1007 08:00:13.155993 19095 net.cpp:165] Memory required for data: 5515468
I1007 08:00:13.155998 19095 layer_factory.hpp:76] Creating layer label_1_5x7_data_2_split
I1007 08:00:13.156007 19095 net.cpp:106] Creating Layer label_1_5x7_data_2_split
I1007 08:00:13.156010 19095 net.cpp:454] label_1_5x7_data_2_split <- label_1_5x7
I1007 08:00:13.156015 19095 net.cpp:411] label_1_5x7_data_2_split -> label_1_5x7_data_2_split_0
I1007 08:00:13.156021 19095 net.cpp:411] label_1_5x7_data_2_split -> label_1_5x7_data_2_split_1
I1007 08:00:13.156167 19095 net.cpp:150] Setting up label_1_5x7_data_2_split
I1007 08:00:13.156177 19095 net.cpp:157] Top shape: 2 6 56 56 (37632)
I1007 08:00:13.156182 19095 net.cpp:157] Top shape: 2 6 56 56 (37632)
I1007 08:00:13.156184 19095 net.cpp:165] Memory required for data: 5816524
I1007 08:00:13.156188 19095 layer_factory.hpp:76] Creating layer label_2_3x5_data_3_split
I1007 08:00:13.156194 19095 net.cpp:106] Creating Layer label_2_3x5_data_3_split
I1007 08:00:13.156198 19095 net.cpp:454] label_2_3x5_data_3_split <- label_2_3x5
I1007 08:00:13.156203 19095 net.cpp:411] label_2_3x5_data_3_split -> label_2_3x5_data_3_split_0
I1007 08:00:13.156209 19095 net.cpp:411] label_2_3x5_data_3_split -> label_2_3x5_data_3_split_1
I1007 08:00:13.156260 19095 net.cpp:150] Setting up label_2_3x5_data_3_split
I1007 08:00:13.156267 19095 net.cpp:157] Top shape: 2 6 28 28 (9408)
I1007 08:00:13.156271 19095 net.cpp:157] Top shape: 2 6 28 28 (9408)
I1007 08:00:13.156273 19095 net.cpp:165] Memory required for data: 5891788
I1007 08:00:13.156276 19095 layer_factory.hpp:76] Creating layer label_2_5x7_data_4_split
I1007 08:00:13.156281 19095 net.cpp:106] Creating Layer label_2_5x7_data_4_split
I1007 08:00:13.156286 19095 net.cpp:454] label_2_5x7_data_4_split <- label_2_5x7
I1007 08:00:13.156291 19095 net.cpp:411] label_2_5x7_data_4_split -> label_2_5x7_data_4_split_0
I1007 08:00:13.156296 19095 net.cpp:411] label_2_5x7_data_4_split -> label_2_5x7_data_4_split_1
I1007 08:00:13.156339 19095 net.cpp:150] Setting up label_2_5x7_data_4_split
I1007 08:00:13.156344 19095 net.cpp:157] Top shape: 2 6 28 28 (9408)
I1007 08:00:13.156349 19095 net.cpp:157] Top shape: 2 6 28 28 (9408)
I1007 08:00:13.156352 19095 net.cpp:165] Memory required for data: 5967052
I1007 08:00:13.156354 19095 layer_factory.hpp:76] Creating layer label_3_3x5_data_5_split
I1007 08:00:13.156358 19095 net.cpp:106] Creating Layer label_3_3x5_data_5_split
I1007 08:00:13.156361 19095 net.cpp:454] label_3_3x5_data_5_split <- label_3_3x5
I1007 08:00:13.156368 19095 net.cpp:411] label_3_3x5_data_5_split -> label_3_3x5_data_5_split_0
I1007 08:00:13.156373 19095 net.cpp:411] label_3_3x5_data_5_split -> label_3_3x5_data_5_split_1
I1007 08:00:13.156563 19095 net.cpp:150] Setting up label_3_3x5_data_5_split
I1007 08:00:13.156574 19095 net.cpp:157] Top shape: 2 6 14 14 (2352)
I1007 08:00:13.156579 19095 net.cpp:157] Top shape: 2 6 14 14 (2352)
I1007 08:00:13.156582 19095 net.cpp:165] Memory required for data: 5985868
I1007 08:00:13.156585 19095 layer_factory.hpp:76] Creating layer label_3_5x7_data_6_split
I1007 08:00:13.156592 19095 net.cpp:106] Creating Layer label_3_5x7_data_6_split
I1007 08:00:13.156597 19095 net.cpp:454] label_3_5x7_data_6_split <- label_3_5x7
I1007 08:00:13.156602 19095 net.cpp:411] label_3_5x7_data_6_split -> label_3_5x7_data_6_split_0
I1007 08:00:13.156610 19095 net.cpp:411] label_3_5x7_data_6_split -> label_3_5x7_data_6_split_1
I1007 08:00:13.156672 19095 net.cpp:150] Setting up label_3_5x7_data_6_split
I1007 08:00:13.156683 19095 net.cpp:157] Top shape: 2 6 14 14 (2352)
I1007 08:00:13.156689 19095 net.cpp:157] Top shape: 2 6 14 14 (2352)
I1007 08:00:13.156694 19095 net.cpp:165] Memory required for data: 6004684
I1007 08:00:13.156699 19095 layer_factory.hpp:76] Creating layer label_4_3x5_data_7_split
I1007 08:00:13.156704 19095 net.cpp:106] Creating Layer label_4_3x5_data_7_split
I1007 08:00:13.156708 19095 net.cpp:454] label_4_3x5_data_7_split <- label_4_3x5
I1007 08:00:13.156716 19095 net.cpp:411] label_4_3x5_data_7_split -> label_4_3x5_data_7_split_0
I1007 08:00:13.156725 19095 net.cpp:411] label_4_3x5_data_7_split -> label_4_3x5_data_7_split_1
I1007 08:00:13.156776 19095 net.cpp:150] Setting up label_4_3x5_data_7_split
I1007 08:00:13.156790 19095 net.cpp:157] Top shape: 2 6 7 7 (588)
I1007 08:00:13.156793 19095 net.cpp:157] Top shape: 2 6 7 7 (588)
I1007 08:00:13.156795 19095 net.cpp:165] Memory required for data: 6009388
I1007 08:00:13.156798 19095 layer_factory.hpp:76] Creating layer conv1_1
I1007 08:00:13.156810 19095 net.cpp:106] Creating Layer conv1_1
I1007 08:00:13.156812 19095 net.cpp:454] conv1_1 <- data
I1007 08:00:13.156818 19095 net.cpp:411] conv1_1 -> conv1_1
I1007 08:00:13.159080 19095 net.cpp:150] Setting up conv1_1
I1007 08:00:13.159096 19095 net.cpp:157] Top shape: 2 64 448 448 (25690112)
I1007 08:00:13.159099 19095 net.cpp:165] Memory required for data: 108769836
I1007 08:00:13.159113 19095 layer_factory.hpp:76] Creating layer relu1_1
I1007 08:00:13.159121 19095 net.cpp:106] Creating Layer relu1_1
I1007 08:00:13.159124 19095 net.cpp:454] relu1_1 <- conv1_1
I1007 08:00:13.159128 19095 net.cpp:397] relu1_1 -> conv1_1 (in-place)
I1007 08:00:13.159827 19095 net.cpp:150] Setting up relu1_1
I1007 08:00:13.159842 19095 net.cpp:157] Top shape: 2 64 448 448 (25690112)
I1007 08:00:13.159847 19095 net.cpp:165] Memory required for data: 211530284
I1007 08:00:13.159849 19095 layer_factory.hpp:76] Creating layer conv1_2
I1007 08:00:13.159859 19095 net.cpp:106] Creating Layer conv1_2
I1007 08:00:13.159863 19095 net.cpp:454] conv1_2 <- conv1_1
I1007 08:00:13.159869 19095 net.cpp:411] conv1_2 -> conv1_2
I1007 08:00:13.162843 19095 net.cpp:150] Setting up conv1_2
I1007 08:00:13.162858 19095 net.cpp:157] Top shape: 2 64 448 448 (25690112)
I1007 08:00:13.162863 19095 net.cpp:165] Memory required for data: 314290732
I1007 08:00:13.162874 19095 layer_factory.hpp:76] Creating layer relu1_2
I1007 08:00:13.162881 19095 net.cpp:106] Creating Layer relu1_2
I1007 08:00:13.162901 19095 net.cpp:454] relu1_2 <- conv1_2
I1007 08:00:13.162906 19095 net.cpp:397] relu1_2 -> conv1_2 (in-place)
I1007 08:00:13.163331 19095 net.cpp:150] Setting up relu1_2
I1007 08:00:13.163347 19095 net.cpp:157] Top shape: 2 64 448 448 (25690112)
I1007 08:00:13.163352 19095 net.cpp:165] Memory required for data: 417051180
I1007 08:00:13.163354 19095 layer_factory.hpp:76] Creating layer pool1
I1007 08:00:13.163362 19095 net.cpp:106] Creating Layer pool1
I1007 08:00:13.163365 19095 net.cpp:454] pool1 <- conv1_2
I1007 08:00:13.163370 19095 net.cpp:411] pool1 -> pool1
I1007 08:00:13.163662 19095 net.cpp:150] Setting up pool1
I1007 08:00:13.163676 19095 net.cpp:157] Top shape: 2 64 224 224 (6422528)
I1007 08:00:13.163679 19095 net.cpp:165] Memory required for data: 442741292
I1007 08:00:13.163682 19095 layer_factory.hpp:76] Creating layer conv2_1
I1007 08:00:13.163691 19095 net.cpp:106] Creating Layer conv2_1
I1007 08:00:13.163696 19095 net.cpp:454] conv2_1 <- pool1
I1007 08:00:13.163700 19095 net.cpp:411] conv2_1 -> conv2_1
I1007 08:00:13.165136 19095 net.cpp:150] Setting up conv2_1
I1007 08:00:13.165153 19095 net.cpp:157] Top shape: 2 128 224 224 (12845056)
I1007 08:00:13.165158 19095 net.cpp:165] Memory required for data: 494121516
I1007 08:00:13.165168 19095 layer_factory.hpp:76] Creating layer relu2_1
I1007 08:00:13.165174 19095 net.cpp:106] Creating Layer relu2_1
I1007 08:00:13.165176 19095 net.cpp:454] relu2_1 <- conv2_1
I1007 08:00:13.165181 19095 net.cpp:397] relu2_1 -> conv2_1 (in-place)
I1007 08:00:13.165590 19095 net.cpp:150] Setting up relu2_1
I1007 08:00:13.165604 19095 net.cpp:157] Top shape: 2 128 224 224 (12845056)
I1007 08:00:13.165608 19095 net.cpp:165] Memory required for data: 545501740
I1007 08:00:13.165611 19095 layer_factory.hpp:76] Creating layer conv2_2
I1007 08:00:13.165621 19095 net.cpp:106] Creating Layer conv2_2
I1007 08:00:13.165626 19095 net.cpp:454] conv2_2 <- conv2_1
I1007 08:00:13.165630 19095 net.cpp:411] conv2_2 -> conv2_2
I1007 08:00:13.167510 19095 net.cpp:150] Setting up conv2_2
I1007 08:00:13.167526 19095 net.cpp:157] Top shape: 2 128 224 224 (12845056)
I1007 08:00:13.167531 19095 net.cpp:165] Memory required for data: 596881964
I1007 08:00:13.167536 19095 layer_factory.hpp:76] Creating layer relu2_2
I1007 08:00:13.167546 19095 net.cpp:106] Creating Layer relu2_2
I1007 08:00:13.167551 19095 net.cpp:454] relu2_2 <- conv2_2
I1007 08:00:13.167556 19095 net.cpp:397] relu2_2 -> conv2_2 (in-place)
I1007 08:00:13.167999 19095 net.cpp:150] Setting up relu2_2
I1007 08:00:13.168012 19095 net.cpp:157] Top shape: 2 128 224 224 (12845056)
I1007 08:00:13.168016 19095 net.cpp:165] Memory required for data: 648262188
I1007 08:00:13.168020 19095 layer_factory.hpp:76] Creating layer pool2
I1007 08:00:13.168026 19095 net.cpp:106] Creating Layer pool2
I1007 08:00:13.168030 19095 net.cpp:454] pool2 <- conv2_2
I1007 08:00:13.168035 19095 net.cpp:411] pool2 -> pool2
I1007 08:00:13.168314 19095 net.cpp:150] Setting up pool2
I1007 08:00:13.168328 19095 net.cpp:157] Top shape: 2 128 112 112 (3211264)
I1007 08:00:13.168330 19095 net.cpp:165] Memory required for data: 661107244
I1007 08:00:13.168334 19095 layer_factory.hpp:76] Creating layer conv3_1
I1007 08:00:13.168344 19095 net.cpp:106] Creating Layer conv3_1
I1007 08:00:13.168349 19095 net.cpp:454] conv3_1 <- pool2
I1007 08:00:13.168355 19095 net.cpp:411] conv3_1 -> conv3_1
I1007 08:00:13.170436 19095 net.cpp:150] Setting up conv3_1
I1007 08:00:13.170451 19095 net.cpp:157] Top shape: 2 256 112 112 (6422528)
I1007 08:00:13.170455 19095 net.cpp:165] Memory required for data: 686797356
I1007 08:00:13.170465 19095 layer_factory.hpp:76] Creating layer relu3_1
I1007 08:00:13.170473 19095 net.cpp:106] Creating Layer relu3_1
I1007 08:00:13.170477 19095 net.cpp:454] relu3_1 <- conv3_1
I1007 08:00:13.170482 19095 net.cpp:397] relu3_1 -> conv3_1 (in-place)
I1007 08:00:13.170866 19095 net.cpp:150] Setting up relu3_1
I1007 08:00:13.170881 19095 net.cpp:157] Top shape: 2 256 112 112 (6422528)
I1007 08:00:13.170900 19095 net.cpp:165] Memory required for data: 712487468
I1007 08:00:13.170904 19095 layer_factory.hpp:76] Creating layer conv3_2
I1007 08:00:13.170912 19095 net.cpp:106] Creating Layer conv3_2
I1007 08:00:13.170915 19095 net.cpp:454] conv3_2 <- conv3_1
I1007 08:00:13.170922 19095 net.cpp:411] conv3_2 -> conv3_2
I1007 08:00:13.173686 19095 net.cpp:150] Setting up conv3_2
I1007 08:00:13.173702 19095 net.cpp:157] Top shape: 2 256 112 112 (6422528)
I1007 08:00:13.173705 19095 net.cpp:165] Memory required for data: 738177580
I1007 08:00:13.173712 19095 layer_factory.hpp:76] Creating layer relu3_2
I1007 08:00:13.173720 19095 net.cpp:106] Creating Layer relu3_2
I1007 08:00:13.173723 19095 net.cpp:454] relu3_2 <- conv3_2
I1007 08:00:13.173730 19095 net.cpp:397] relu3_2 -> conv3_2 (in-place)
I1007 08:00:13.173946 19095 net.cpp:150] Setting up relu3_2
I1007 08:00:13.173959 19095 net.cpp:157] Top shape: 2 256 112 112 (6422528)
I1007 08:00:13.173962 19095 net.cpp:165] Memory required for data: 763867692
I1007 08:00:13.173965 19095 layer_factory.hpp:76] Creating layer conv3_3
I1007 08:00:13.173974 19095 net.cpp:106] Creating Layer conv3_3
I1007 08:00:13.173979 19095 net.cpp:454] conv3_3 <- conv3_2
I1007 08:00:13.173990 19095 net.cpp:411] conv3_3 -> conv3_3
I1007 08:00:13.176918 19095 net.cpp:150] Setting up conv3_3
I1007 08:00:13.176934 19095 net.cpp:157] Top shape: 2 256 112 112 (6422528)
I1007 08:00:13.176937 19095 net.cpp:165] Memory required for data: 789557804
I1007 08:00:13.176944 19095 layer_factory.hpp:76] Creating layer relu3_3
I1007 08:00:13.176950 19095 net.cpp:106] Creating Layer relu3_3
I1007 08:00:13.176954 19095 net.cpp:454] relu3_3 <- conv3_3
I1007 08:00:13.176961 19095 net.cpp:397] relu3_3 -> conv3_3 (in-place)
I1007 08:00:13.177402 19095 net.cpp:150] Setting up relu3_3
I1007 08:00:13.177417 19095 net.cpp:157] Top shape: 2 256 112 112 (6422528)
I1007 08:00:13.177419 19095 net.cpp:165] Memory required for data: 815247916
I1007 08:00:13.177423 19095 layer_factory.hpp:76] Creating layer pool3
I1007 08:00:13.177431 19095 net.cpp:106] Creating Layer pool3
I1007 08:00:13.177435 19095 net.cpp:454] pool3 <- conv3_3
I1007 08:00:13.177440 19095 net.cpp:411] pool3 -> pool3
I1007 08:00:13.177870 19095 net.cpp:150] Setting up pool3
I1007 08:00:13.177883 19095 net.cpp:157] Top shape: 2 256 56 56 (1605632)
I1007 08:00:13.177886 19095 net.cpp:165] Memory required for data: 821670444
I1007 08:00:13.177891 19095 layer_factory.hpp:76] Creating layer conv4_1
I1007 08:00:13.177899 19095 net.cpp:106] Creating Layer conv4_1
I1007 08:00:13.177902 19095 net.cpp:454] conv4_1 <- pool3
I1007 08:00:13.177908 19095 net.cpp:411] conv4_1 -> conv4_1
I1007 08:00:13.181941 19095 net.cpp:150] Setting up conv4_1
I1007 08:00:13.181958 19095 net.cpp:157] Top shape: 2 512 56 56 (3211264)
I1007 08:00:13.181962 19095 net.cpp:165] Memory required for data: 834515500
I1007 08:00:13.181968 19095 layer_factory.hpp:76] Creating layer relu4_1
I1007 08:00:13.181974 19095 net.cpp:106] Creating Layer relu4_1
I1007 08:00:13.181978 19095 net.cpp:454] relu4_1 <- conv4_1
I1007 08:00:13.181985 19095 net.cpp:397] relu4_1 -> conv4_1 (in-place)
I1007 08:00:13.182202 19095 net.cpp:150] Setting up relu4_1
I1007 08:00:13.182214 19095 net.cpp:157] Top shape: 2 512 56 56 (3211264)
I1007 08:00:13.182219 19095 net.cpp:165] Memory required for data: 847360556
I1007 08:00:13.182222 19095 layer_factory.hpp:76] Creating layer conv4_2
I1007 08:00:13.182230 19095 net.cpp:106] Creating Layer conv4_2
I1007 08:00:13.182235 19095 net.cpp:454] conv4_2 <- conv4_1
I1007 08:00:13.182242 19095 net.cpp:411] conv4_2 -> conv4_2
I1007 08:00:13.189271 19095 net.cpp:150] Setting up conv4_2
I1007 08:00:13.189292 19095 net.cpp:157] Top shape: 2 512 56 56 (3211264)
I1007 08:00:13.189296 19095 net.cpp:165] Memory required for data: 860205612
I1007 08:00:13.189309 19095 layer_factory.hpp:76] Creating layer relu4_2
I1007 08:00:13.189318 19095 net.cpp:106] Creating Layer relu4_2
I1007 08:00:13.189323 19095 net.cpp:454] relu4_2 <- conv4_2
I1007 08:00:13.189328 19095 net.cpp:397] relu4_2 -> conv4_2 (in-place)
I1007 08:00:13.189764 19095 net.cpp:150] Setting up relu4_2
I1007 08:00:13.189779 19095 net.cpp:157] Top shape: 2 512 56 56 (3211264)
I1007 08:00:13.189782 19095 net.cpp:165] Memory required for data: 873050668
I1007 08:00:13.189787 19095 layer_factory.hpp:76] Creating layer conv4_3
I1007 08:00:13.189800 19095 net.cpp:106] Creating Layer conv4_3
I1007 08:00:13.189810 19095 net.cpp:454] conv4_3 <- conv4_2
I1007 08:00:13.189820 19095 net.cpp:411] conv4_3 -> conv4_3
I1007 08:00:13.196375 19095 net.cpp:150] Setting up conv4_3
I1007 08:00:13.196396 19095 net.cpp:157] Top shape: 2 512 56 56 (3211264)
I1007 08:00:13.196400 19095 net.cpp:165] Memory required for data: 885895724
I1007 08:00:13.196408 19095 layer_factory.hpp:76] Creating layer relu4_3
I1007 08:00:13.196416 19095 net.cpp:106] Creating Layer relu4_3
I1007 08:00:13.196421 19095 net.cpp:454] relu4_3 <- conv4_3
I1007 08:00:13.196426 19095 net.cpp:397] relu4_3 -> conv4_3 (in-place)
I1007 08:00:13.196841 19095 net.cpp:150] Setting up relu4_3
I1007 08:00:13.196854 19095 net.cpp:157] Top shape: 2 512 56 56 (3211264)
I1007 08:00:13.196858 19095 net.cpp:165] Memory required for data: 898740780
I1007 08:00:13.196862 19095 layer_factory.hpp:76] Creating layer conv4_3_relu4_3_0_split
I1007 08:00:13.196876 19095 net.cpp:106] Creating Layer conv4_3_relu4_3_0_split
I1007 08:00:13.196882 19095 net.cpp:454] conv4_3_relu4_3_0_split <- conv4_3
I1007 08:00:13.196890 19095 net.cpp:411] conv4_3_relu4_3_0_split -> conv4_3_relu4_3_0_split_0
I1007 08:00:13.196902 19095 net.cpp:411] conv4_3_relu4_3_0_split -> conv4_3_relu4_3_0_split_1
I1007 08:00:13.196914 19095 net.cpp:411] conv4_3_relu4_3_0_split -> conv4_3_relu4_3_0_split_2
I1007 08:00:13.196923 19095 net.cpp:411] conv4_3_relu4_3_0_split -> conv4_3_relu4_3_0_split_3
I1007 08:00:13.197073 19095 net.cpp:150] Setting up conv4_3_relu4_3_0_split
I1007 08:00:13.197088 19095 net.cpp:157] Top shape: 2 512 56 56 (3211264)
I1007 08:00:13.197093 19095 net.cpp:157] Top shape: 2 512 56 56 (3211264)
I1007 08:00:13.197095 19095 net.cpp:157] Top shape: 2 512 56 56 (3211264)
I1007 08:00:13.197098 19095 net.cpp:157] Top shape: 2 512 56 56 (3211264)
I1007 08:00:13.197101 19095 net.cpp:165] Memory required for data: 950121004
I1007 08:00:13.197104 19095 layer_factory.hpp:76] Creating layer loss1_conv1
I1007 08:00:13.197121 19095 net.cpp:106] Creating Layer loss1_conv1
I1007 08:00:13.197129 19095 net.cpp:454] loss1_conv1 <- conv4_3_relu4_3_0_split_0
I1007 08:00:13.197141 19095 net.cpp:411] loss1_conv1 -> loss1_conv1
I1007 08:00:13.282150 19095 net.cpp:150] Setting up loss1_conv1
I1007 08:00:13.282176 19095 net.cpp:157] Top shape: 2 512 56 56 (3211264)
I1007 08:00:13.282181 19095 net.cpp:165] Memory required for data: 962966060
I1007 08:00:13.282188 19095 layer_factory.hpp:76] Creating layer loss_relu1
I1007 08:00:13.282199 19095 net.cpp:106] Creating Layer loss_relu1
I1007 08:00:13.282204 19095 net.cpp:454] loss_relu1 <- loss1_conv1
I1007 08:00:13.282209 19095 net.cpp:397] loss_relu1 -> loss1_conv1 (in-place)
I1007 08:00:13.282464 19095 net.cpp:150] Setting up loss_relu1
I1007 08:00:13.282477 19095 net.cpp:157] Top shape: 2 512 56 56 (3211264)
I1007 08:00:13.282480 19095 net.cpp:165] Memory required for data: 975811116
I1007 08:00:13.282483 19095 layer_factory.hpp:76] Creating layer loss1_conv1_loss_relu1_0_split
I1007 08:00:13.282490 19095 net.cpp:106] Creating Layer loss1_conv1_loss_relu1_0_split
I1007 08:00:13.282495 19095 net.cpp:454] loss1_conv1_loss_relu1_0_split <- loss1_conv1
I1007 08:00:13.282505 19095 net.cpp:411] loss1_conv1_loss_relu1_0_split -> loss1_conv1_loss_relu1_0_split_0
I1007 08:00:13.282517 19095 net.cpp:411] loss1_conv1_loss_relu1_0_split -> loss1_conv1_loss_relu1_0_split_1
I1007 08:00:13.282583 19095 net.cpp:150] Setting up loss1_conv1_loss_relu1_0_split
I1007 08:00:13.282593 19095 net.cpp:157] Top shape: 2 512 56 56 (3211264)
I1007 08:00:13.282599 19095 net.cpp:157] Top shape: 2 512 56 56 (3211264)
I1007 08:00:13.282603 19095 net.cpp:165] Memory required for data: 1001501228
I1007 08:00:13.282608 19095 layer_factory.hpp:76] Creating layer LFCN_1_3x5
I1007 08:00:13.282624 19095 net.cpp:106] Creating Layer LFCN_1_3x5
I1007 08:00:13.282630 19095 net.cpp:454] LFCN_1_3x5 <- loss1_conv1_loss_relu1_0_split_0
I1007 08:00:13.282639 19095 net.cpp:411] LFCN_1_3x5 -> LFCN_1_3x5
I1007 08:00:13.285538 19095 net.cpp:150] Setting up LFCN_1_3x5
I1007 08:00:13.285555 19095 net.cpp:157] Top shape: 2 6 56 56 (37632)
I1007 08:00:13.285559 19095 net.cpp:165] Memory required for data: 1001651756
I1007 08:00:13.285567 19095 layer_factory.hpp:76] Creating layer LFCN_1_3x5_LFCN_1_3x5_0_split
I1007 08:00:13.285578 19095 net.cpp:106] Creating Layer LFCN_1_3x5_LFCN_1_3x5_0_split
I1007 08:00:13.285583 19095 net.cpp:454] LFCN_1_3x5_LFCN_1_3x5_0_split <- LFCN_1_3x5
I1007 08:00:13.285588 19095 net.cpp:411] LFCN_1_3x5_LFCN_1_3x5_0_split -> LFCN_1_3x5_LFCN_1_3x5_0_split_0
I1007 08:00:13.285598 19095 net.cpp:411] LFCN_1_3x5_LFCN_1_3x5_0_split -> LFCN_1_3x5_LFCN_1_3x5_0_split_1
I1007 08:00:13.285606 19095 net.cpp:411] LFCN_1_3x5_LFCN_1_3x5_0_split -> LFCN_1_3x5_LFCN_1_3x5_0_split_2
I1007 08:00:13.285682 19095 net.cpp:150] Setting up LFCN_1_3x5_LFCN_1_3x5_0_split
I1007 08:00:13.285692 19095 net.cpp:157] Top shape: 2 6 56 56 (37632)
I1007 08:00:13.285698 19095 net.cpp:157] Top shape: 2 6 56 56 (37632)
I1007 08:00:13.285704 19095 net.cpp:157] Top shape: 2 6 56 56 (37632)
I1007 08:00:13.285708 19095 net.cpp:165] Memory required for data: 1002103340
I1007 08:00:13.285713 19095 layer_factory.hpp:76] Creating layer detection_loss_1_3x5
I1007 08:00:13.285727 19095 net.cpp:106] Creating Layer detection_loss_1_3x5
I1007 08:00:13.285732 19095 net.cpp:454] detection_loss_1_3x5 <- LFCN_1_3x5_LFCN_1_3x5_0_split_0
I1007 08:00:13.285738 19095 net.cpp:454] detection_loss_1_3x5 <- label_1_3x5_data_1_split_0
I1007 08:00:13.285745 19095 net.cpp:411] detection_loss_1_3x5 -> loss_1_3x5
I1007 08:00:13.285755 19095 layer_factory.hpp:76] Creating layer detection_loss_1_3x5
I1007 08:00:13.286445 19095 net.cpp:150] Setting up detection_loss_1_3x5
I1007 08:00:13.286459 19095 net.cpp:157] Top shape: 1 1 1 2 (2)
I1007 08:00:13.286463 19095 net.cpp:160]     with loss weight 0.9
I1007 08:00:13.286478 19095 net.cpp:165] Memory required for data: 1002103348
I1007 08:00:13.286484 19095 layer_factory.hpp:76] Creating layer detection_accuracy_1_3x5
I1007 08:00:13.286494 19095 net.cpp:106] Creating Layer detection_accuracy_1_3x5
I1007 08:00:13.286500 19095 net.cpp:454] detection_accuracy_1_3x5 <- LFCN_1_3x5_LFCN_1_3x5_0_split_1
I1007 08:00:13.286507 19095 net.cpp:454] detection_accuracy_1_3x5 <- label_1_3x5_data_1_split_1
I1007 08:00:13.286519 19095 net.cpp:411] detection_accuracy_1_3x5 -> accuracy_1_3x5
I1007 08:00:13.286526 19095 net.cpp:411] detection_accuracy_1_3x5 -> boxiou_1_3x5
I1007 08:00:13.286587 19095 net.cpp:150] Setting up detection_accuracy_1_3x5
I1007 08:00:13.286597 19095 net.cpp:157] Top shape: 1 1 1 2 (2)
I1007 08:00:13.286602 19095 net.cpp:157] Top shape: 1 1 1 1 (1)
I1007 08:00:13.286607 19095 net.cpp:165] Memory required for data: 1002103360
I1007 08:00:13.286612 19095 layer_factory.hpp:76] Creating layer LFCN_1_5x7
I1007 08:00:13.286624 19095 net.cpp:106] Creating Layer LFCN_1_5x7
I1007 08:00:13.286628 19095 net.cpp:454] LFCN_1_5x7 <- loss1_conv1_loss_relu1_0_split_1
I1007 08:00:13.286633 19095 net.cpp:411] LFCN_1_5x7 -> LFCN_1_5x7
I1007 08:00:13.291321 19095 net.cpp:150] Setting up LFCN_1_5x7
I1007 08:00:13.291335 19095 net.cpp:157] Top shape: 2 6 56 56 (37632)
I1007 08:00:13.291338 19095 net.cpp:165] Memory required for data: 1002253888
I1007 08:00:13.291344 19095 layer_factory.hpp:76] Creating layer LFCN_1_5x7_LFCN_1_5x7_0_split
I1007 08:00:13.291352 19095 net.cpp:106] Creating Layer LFCN_1_5x7_LFCN_1_5x7_0_split
I1007 08:00:13.291355 19095 net.cpp:454] LFCN_1_5x7_LFCN_1_5x7_0_split <- LFCN_1_5x7
I1007 08:00:13.291362 19095 net.cpp:411] LFCN_1_5x7_LFCN_1_5x7_0_split -> LFCN_1_5x7_LFCN_1_5x7_0_split_0
I1007 08:00:13.291368 19095 net.cpp:411] LFCN_1_5x7_LFCN_1_5x7_0_split -> LFCN_1_5x7_LFCN_1_5x7_0_split_1
I1007 08:00:13.291376 19095 net.cpp:411] LFCN_1_5x7_LFCN_1_5x7_0_split -> LFCN_1_5x7_LFCN_1_5x7_0_split_2
I1007 08:00:13.291481 19095 net.cpp:150] Setting up LFCN_1_5x7_LFCN_1_5x7_0_split
I1007 08:00:13.291493 19095 net.cpp:157] Top shape: 2 6 56 56 (37632)
I1007 08:00:13.291501 19095 net.cpp:157] Top shape: 2 6 56 56 (37632)
I1007 08:00:13.291507 19095 net.cpp:157] Top shape: 2 6 56 56 (37632)
I1007 08:00:13.291510 19095 net.cpp:165] Memory required for data: 1002705472
I1007 08:00:13.291515 19095 layer_factory.hpp:76] Creating layer detection_loss_1_5x7
I1007 08:00:13.291527 19095 net.cpp:106] Creating Layer detection_loss_1_5x7
I1007 08:00:13.291532 19095 net.cpp:454] detection_loss_1_5x7 <- LFCN_1_5x7_LFCN_1_5x7_0_split_0
I1007 08:00:13.291539 19095 net.cpp:454] detection_loss_1_5x7 <- label_1_5x7_data_2_split_0
I1007 08:00:13.291544 19095 net.cpp:411] detection_loss_1_5x7 -> loss_1_5x7
I1007 08:00:13.291558 19095 layer_factory.hpp:76] Creating layer detection_loss_1_5x7
I1007 08:00:13.292201 19095 net.cpp:150] Setting up detection_loss_1_5x7
I1007 08:00:13.292214 19095 net.cpp:157] Top shape: 1 1 1 2 (2)
I1007 08:00:13.292217 19095 net.cpp:160]     with loss weight 0.9
I1007 08:00:13.292223 19095 net.cpp:165] Memory required for data: 1002705480
I1007 08:00:13.292227 19095 layer_factory.hpp:76] Creating layer detection_accuracy_1_5x7
I1007 08:00:13.292232 19095 net.cpp:106] Creating Layer detection_accuracy_1_5x7
I1007 08:00:13.292237 19095 net.cpp:454] detection_accuracy_1_5x7 <- LFCN_1_5x7_LFCN_1_5x7_0_split_1
I1007 08:00:13.292242 19095 net.cpp:454] detection_accuracy_1_5x7 <- label_1_5x7_data_2_split_1
I1007 08:00:13.292248 19095 net.cpp:411] detection_accuracy_1_5x7 -> accuracy_1_5x7
I1007 08:00:13.292255 19095 net.cpp:411] detection_accuracy_1_5x7 -> boxiou_1_5x7
I1007 08:00:13.292332 19095 net.cpp:150] Setting up detection_accuracy_1_5x7
I1007 08:00:13.292342 19095 net.cpp:157] Top shape: 1 1 1 2 (2)
I1007 08:00:13.292347 19095 net.cpp:157] Top shape: 1 1 1 1 (1)
I1007 08:00:13.292351 19095 net.cpp:165] Memory required for data: 1002705492
I1007 08:00:13.292356 19095 layer_factory.hpp:76] Creating layer pool4
I1007 08:00:13.292368 19095 net.cpp:106] Creating Layer pool4
I1007 08:00:13.292374 19095 net.cpp:454] pool4 <- conv4_3_relu4_3_0_split_1
I1007 08:00:13.292384 19095 net.cpp:411] pool4 -> pool4
I1007 08:00:13.292830 19095 net.cpp:150] Setting up pool4
I1007 08:00:13.292843 19095 net.cpp:157] Top shape: 2 512 28 28 (802816)
I1007 08:00:13.292846 19095 net.cpp:165] Memory required for data: 1005916756
I1007 08:00:13.292850 19095 layer_factory.hpp:76] Creating layer conv5_1
I1007 08:00:13.292858 19095 net.cpp:106] Creating Layer conv5_1
I1007 08:00:13.292862 19095 net.cpp:454] conv5_1 <- pool4
I1007 08:00:13.292867 19095 net.cpp:411] conv5_1 -> conv5_1
I1007 08:00:13.298998 19095 net.cpp:150] Setting up conv5_1
I1007 08:00:13.299015 19095 net.cpp:157] Top shape: 2 512 28 28 (802816)
I1007 08:00:13.299018 19095 net.cpp:165] Memory required for data: 1009128020
I1007 08:00:13.299024 19095 layer_factory.hpp:76] Creating layer relu5_1
I1007 08:00:13.299032 19095 net.cpp:106] Creating Layer relu5_1
I1007 08:00:13.299036 19095 net.cpp:454] relu5_1 <- conv5_1
I1007 08:00:13.299041 19095 net.cpp:397] relu5_1 -> conv5_1 (in-place)
I1007 08:00:13.300693 19095 net.cpp:150] Setting up relu5_1
I1007 08:00:13.300707 19095 net.cpp:157] Top shape: 2 512 28 28 (802816)
I1007 08:00:13.300710 19095 net.cpp:165] Memory required for data: 1012339284
I1007 08:00:13.300714 19095 layer_factory.hpp:76] Creating layer conv5_2
I1007 08:00:13.300722 19095 net.cpp:106] Creating Layer conv5_2
I1007 08:00:13.300727 19095 net.cpp:454] conv5_2 <- conv5_1
I1007 08:00:13.300732 19095 net.cpp:411] conv5_2 -> conv5_2
I1007 08:00:13.307339 19095 net.cpp:150] Setting up conv5_2
I1007 08:00:13.307359 19095 net.cpp:157] Top shape: 2 512 28 28 (802816)
I1007 08:00:13.307363 19095 net.cpp:165] Memory required for data: 1015550548
I1007 08:00:13.307370 19095 layer_factory.hpp:76] Creating layer relu5_2
I1007 08:00:13.307377 19095 net.cpp:106] Creating Layer relu5_2
I1007 08:00:13.307380 19095 net.cpp:454] relu5_2 <- conv5_2
I1007 08:00:13.307385 19095 net.cpp:397] relu5_2 -> conv5_2 (in-place)
I1007 08:00:13.307638 19095 net.cpp:150] Setting up relu5_2
I1007 08:00:13.307651 19095 net.cpp:157] Top shape: 2 512 28 28 (802816)
I1007 08:00:13.307653 19095 net.cpp:165] Memory required for data: 1018761812
I1007 08:00:13.307657 19095 layer_factory.hpp:76] Creating layer conv5_3
I1007 08:00:13.307667 19095 net.cpp:106] Creating Layer conv5_3
I1007 08:00:13.307673 19095 net.cpp:454] conv5_3 <- conv5_2
I1007 08:00:13.307682 19095 net.cpp:411] conv5_3 -> conv5_3
I1007 08:00:13.313987 19095 net.cpp:150] Setting up conv5_3
I1007 08:00:13.314007 19095 net.cpp:157] Top shape: 2 512 28 28 (802816)
I1007 08:00:13.314010 19095 net.cpp:165] Memory required for data: 1021973076
I1007 08:00:13.314018 19095 layer_factory.hpp:76] Creating layer relu5_3
I1007 08:00:13.314023 19095 net.cpp:106] Creating Layer relu5_3
I1007 08:00:13.314028 19095 net.cpp:454] relu5_3 <- conv5_3
I1007 08:00:13.314033 19095 net.cpp:397] relu5_3 -> conv5_3 (in-place)
I1007 08:00:13.314462 19095 net.cpp:150] Setting up relu5_3
I1007 08:00:13.314476 19095 net.cpp:157] Top shape: 2 512 28 28 (802816)
I1007 08:00:13.314479 19095 net.cpp:165] Memory required for data: 1025184340
I1007 08:00:13.314482 19095 layer_factory.hpp:76] Creating layer conv5_3_relu5_3_0_split
I1007 08:00:13.314491 19095 net.cpp:106] Creating Layer conv5_3_relu5_3_0_split
I1007 08:00:13.314496 19095 net.cpp:454] conv5_3_relu5_3_0_split <- conv5_3
I1007 08:00:13.314503 19095 net.cpp:411] conv5_3_relu5_3_0_split -> conv5_3_relu5_3_0_split_0
I1007 08:00:13.314517 19095 net.cpp:411] conv5_3_relu5_3_0_split -> conv5_3_relu5_3_0_split_1
I1007 08:00:13.314527 19095 net.cpp:411] conv5_3_relu5_3_0_split -> conv5_3_relu5_3_0_split_2
I1007 08:00:13.314645 19095 net.cpp:150] Setting up conv5_3_relu5_3_0_split
I1007 08:00:13.314661 19095 net.cpp:157] Top shape: 2 512 28 28 (802816)
I1007 08:00:13.314668 19095 net.cpp:157] Top shape: 2 512 28 28 (802816)
I1007 08:00:13.314673 19095 net.cpp:157] Top shape: 2 512 28 28 (802816)
I1007 08:00:13.314678 19095 net.cpp:165] Memory required for data: 1034818132
I1007 08:00:13.314682 19095 layer_factory.hpp:76] Creating layer LFCN_2_3x5
I1007 08:00:13.314694 19095 net.cpp:106] Creating Layer LFCN_2_3x5
I1007 08:00:13.314700 19095 net.cpp:454] LFCN_2_3x5 <- conv5_3_relu5_3_0_split_0
I1007 08:00:13.314713 19095 net.cpp:411] LFCN_2_3x5 -> LFCN_2_3x5
I1007 08:00:13.317358 19095 net.cpp:150] Setting up LFCN_2_3x5
I1007 08:00:13.317373 19095 net.cpp:157] Top shape: 2 6 28 28 (9408)
I1007 08:00:13.317376 19095 net.cpp:165] Memory required for data: 1034855764
I1007 08:00:13.317397 19095 layer_factory.hpp:76] Creating layer LFCN_2_3x5_LFCN_2_3x5_0_split
I1007 08:00:13.317407 19095 net.cpp:106] Creating Layer LFCN_2_3x5_LFCN_2_3x5_0_split
I1007 08:00:13.317412 19095 net.cpp:454] LFCN_2_3x5_LFCN_2_3x5_0_split <- LFCN_2_3x5
I1007 08:00:13.317421 19095 net.cpp:411] LFCN_2_3x5_LFCN_2_3x5_0_split -> LFCN_2_3x5_LFCN_2_3x5_0_split_0
I1007 08:00:13.317432 19095 net.cpp:411] LFCN_2_3x5_LFCN_2_3x5_0_split -> LFCN_2_3x5_LFCN_2_3x5_0_split_1
I1007 08:00:13.317441 19095 net.cpp:411] LFCN_2_3x5_LFCN_2_3x5_0_split -> LFCN_2_3x5_LFCN_2_3x5_0_split_2
I1007 08:00:13.317549 19095 net.cpp:150] Setting up LFCN_2_3x5_LFCN_2_3x5_0_split
I1007 08:00:13.317561 19095 net.cpp:157] Top shape: 2 6 28 28 (9408)
I1007 08:00:13.317565 19095 net.cpp:157] Top shape: 2 6 28 28 (9408)
I1007 08:00:13.317569 19095 net.cpp:157] Top shape: 2 6 28 28 (9408)
I1007 08:00:13.317574 19095 net.cpp:165] Memory required for data: 1034968660
I1007 08:00:13.317579 19095 layer_factory.hpp:76] Creating layer detection_loss_2_3x5
I1007 08:00:13.317590 19095 net.cpp:106] Creating Layer detection_loss_2_3x5
I1007 08:00:13.317597 19095 net.cpp:454] detection_loss_2_3x5 <- LFCN_2_3x5_LFCN_2_3x5_0_split_0
I1007 08:00:13.317605 19095 net.cpp:454] detection_loss_2_3x5 <- label_2_3x5_data_3_split_0
I1007 08:00:13.317612 19095 net.cpp:411] detection_loss_2_3x5 -> loss_2_3x5
I1007 08:00:13.317627 19095 layer_factory.hpp:76] Creating layer detection_loss_2_3x5
I1007 08:00:13.318289 19095 net.cpp:150] Setting up detection_loss_2_3x5
I1007 08:00:13.318303 19095 net.cpp:157] Top shape: 1 1 1 2 (2)
I1007 08:00:13.318306 19095 net.cpp:160]     with loss weight 1
I1007 08:00:13.318321 19095 net.cpp:165] Memory required for data: 1034968668
I1007 08:00:13.318326 19095 layer_factory.hpp:76] Creating layer detection_accuracy_2_3x5
I1007 08:00:13.318337 19095 net.cpp:106] Creating Layer detection_accuracy_2_3x5
I1007 08:00:13.318343 19095 net.cpp:454] detection_accuracy_2_3x5 <- LFCN_2_3x5_LFCN_2_3x5_0_split_1
I1007 08:00:13.318351 19095 net.cpp:454] detection_accuracy_2_3x5 <- label_2_3x5_data_3_split_1
I1007 08:00:13.318361 19095 net.cpp:411] detection_accuracy_2_3x5 -> accuracy_2_3x5
I1007 08:00:13.318373 19095 net.cpp:411] detection_accuracy_2_3x5 -> boxiou_2_3x5
I1007 08:00:13.318455 19095 net.cpp:150] Setting up detection_accuracy_2_3x5
I1007 08:00:13.318475 19095 net.cpp:157] Top shape: 1 1 1 2 (2)
I1007 08:00:13.318481 19095 net.cpp:157] Top shape: 1 1 1 1 (1)
I1007 08:00:13.318485 19095 net.cpp:165] Memory required for data: 1034968680
I1007 08:00:13.318490 19095 layer_factory.hpp:76] Creating layer LFCN_2_5x7
I1007 08:00:13.318500 19095 net.cpp:106] Creating Layer LFCN_2_5x7
I1007 08:00:13.318506 19095 net.cpp:454] LFCN_2_5x7 <- conv5_3_relu5_3_0_split_1
I1007 08:00:13.318521 19095 net.cpp:411] LFCN_2_5x7 -> LFCN_2_5x7
I1007 08:00:13.323850 19095 net.cpp:150] Setting up LFCN_2_5x7
I1007 08:00:13.323865 19095 net.cpp:157] Top shape: 2 6 28 28 (9408)
I1007 08:00:13.323868 19095 net.cpp:165] Memory required for data: 1035006312
I1007 08:00:13.323876 19095 layer_factory.hpp:76] Creating layer LFCN_2_5x7_LFCN_2_5x7_0_split
I1007 08:00:13.323887 19095 net.cpp:106] Creating Layer LFCN_2_5x7_LFCN_2_5x7_0_split
I1007 08:00:13.323894 19095 net.cpp:454] LFCN_2_5x7_LFCN_2_5x7_0_split <- LFCN_2_5x7
I1007 08:00:13.323901 19095 net.cpp:411] LFCN_2_5x7_LFCN_2_5x7_0_split -> LFCN_2_5x7_LFCN_2_5x7_0_split_0
I1007 08:00:13.323911 19095 net.cpp:411] LFCN_2_5x7_LFCN_2_5x7_0_split -> LFCN_2_5x7_LFCN_2_5x7_0_split_1
I1007 08:00:13.323920 19095 net.cpp:411] LFCN_2_5x7_LFCN_2_5x7_0_split -> LFCN_2_5x7_LFCN_2_5x7_0_split_2
I1007 08:00:13.324034 19095 net.cpp:150] Setting up LFCN_2_5x7_LFCN_2_5x7_0_split
I1007 08:00:13.324046 19095 net.cpp:157] Top shape: 2 6 28 28 (9408)
I1007 08:00:13.324053 19095 net.cpp:157] Top shape: 2 6 28 28 (9408)
I1007 08:00:13.324057 19095 net.cpp:157] Top shape: 2 6 28 28 (9408)
I1007 08:00:13.324061 19095 net.cpp:165] Memory required for data: 1035119208
I1007 08:00:13.324066 19095 layer_factory.hpp:76] Creating layer detection_loss_2_5x7
I1007 08:00:13.324075 19095 net.cpp:106] Creating Layer detection_loss_2_5x7
I1007 08:00:13.324081 19095 net.cpp:454] detection_loss_2_5x7 <- LFCN_2_5x7_LFCN_2_5x7_0_split_0
I1007 08:00:13.324091 19095 net.cpp:454] detection_loss_2_5x7 <- label_2_5x7_data_4_split_0
I1007 08:00:13.324100 19095 net.cpp:411] detection_loss_2_5x7 -> loss_2_5x7
I1007 08:00:13.324111 19095 layer_factory.hpp:76] Creating layer detection_loss_2_5x7
I1007 08:00:13.324589 19095 net.cpp:150] Setting up detection_loss_2_5x7
I1007 08:00:13.324601 19095 net.cpp:157] Top shape: 1 1 1 2 (2)
I1007 08:00:13.324604 19095 net.cpp:160]     with loss weight 1
I1007 08:00:13.324610 19095 net.cpp:165] Memory required for data: 1035119216
I1007 08:00:13.324615 19095 layer_factory.hpp:76] Creating layer detection_accuracy_2_5x7
I1007 08:00:13.324627 19095 net.cpp:106] Creating Layer detection_accuracy_2_5x7
I1007 08:00:13.324633 19095 net.cpp:454] detection_accuracy_2_5x7 <- LFCN_2_5x7_LFCN_2_5x7_0_split_1
I1007 08:00:13.324641 19095 net.cpp:454] detection_accuracy_2_5x7 <- label_2_5x7_data_4_split_1
I1007 08:00:13.324650 19095 net.cpp:411] detection_accuracy_2_5x7 -> accuracy_2_5x7
I1007 08:00:13.324659 19095 net.cpp:411] detection_accuracy_2_5x7 -> boxiou_2_5x7
I1007 08:00:13.324741 19095 net.cpp:150] Setting up detection_accuracy_2_5x7
I1007 08:00:13.324762 19095 net.cpp:157] Top shape: 1 1 1 2 (2)
I1007 08:00:13.324767 19095 net.cpp:157] Top shape: 1 1 1 1 (1)
I1007 08:00:13.324771 19095 net.cpp:165] Memory required for data: 1035119228
I1007 08:00:13.324776 19095 layer_factory.hpp:76] Creating layer pool5
I1007 08:00:13.324785 19095 net.cpp:106] Creating Layer pool5
I1007 08:00:13.324790 19095 net.cpp:454] pool5 <- conv5_3_relu5_3_0_split_2
I1007 08:00:13.324805 19095 net.cpp:411] pool5 -> pool5
I1007 08:00:13.325263 19095 net.cpp:150] Setting up pool5
I1007 08:00:13.325276 19095 net.cpp:157] Top shape: 2 512 14 14 (200704)
I1007 08:00:13.325279 19095 net.cpp:165] Memory required for data: 1035922044
I1007 08:00:13.325283 19095 layer_factory.hpp:76] Creating layer conv6_1
I1007 08:00:13.325292 19095 net.cpp:106] Creating Layer conv6_1
I1007 08:00:13.325296 19095 net.cpp:454] conv6_1 <- pool5
I1007 08:00:13.325304 19095 net.cpp:411] conv6_1 -> conv6_1
I1007 08:00:13.406734 19095 net.cpp:150] Setting up conv6_1
I1007 08:00:13.406754 19095 net.cpp:157] Top shape: 2 512 14 14 (200704)
I1007 08:00:13.406757 19095 net.cpp:165] Memory required for data: 1036724860
I1007 08:00:13.406764 19095 layer_factory.hpp:76] Creating layer relu6_1
I1007 08:00:13.406770 19095 net.cpp:106] Creating Layer relu6_1
I1007 08:00:13.406774 19095 net.cpp:454] relu6_1 <- conv6_1
I1007 08:00:13.406781 19095 net.cpp:397] relu6_1 -> conv6_1 (in-place)
I1007 08:00:13.407049 19095 net.cpp:150] Setting up relu6_1
I1007 08:00:13.407066 19095 net.cpp:157] Top shape: 2 512 14 14 (200704)
I1007 08:00:13.407070 19095 net.cpp:165] Memory required for data: 1037527676
I1007 08:00:13.407074 19095 layer_factory.hpp:76] Creating layer conv6_1_relu6_1_0_split
I1007 08:00:13.407083 19095 net.cpp:106] Creating Layer conv6_1_relu6_1_0_split
I1007 08:00:13.407088 19095 net.cpp:454] conv6_1_relu6_1_0_split <- conv6_1
I1007 08:00:13.407096 19095 net.cpp:411] conv6_1_relu6_1_0_split -> conv6_1_relu6_1_0_split_0
I1007 08:00:13.407105 19095 net.cpp:411] conv6_1_relu6_1_0_split -> conv6_1_relu6_1_0_split_1
I1007 08:00:13.407114 19095 net.cpp:411] conv6_1_relu6_1_0_split -> conv6_1_relu6_1_0_split_2
I1007 08:00:13.407305 19095 net.cpp:150] Setting up conv6_1_relu6_1_0_split
I1007 08:00:13.407320 19095 net.cpp:157] Top shape: 2 512 14 14 (200704)
I1007 08:00:13.407325 19095 net.cpp:157] Top shape: 2 512 14 14 (200704)
I1007 08:00:13.407327 19095 net.cpp:157] Top shape: 2 512 14 14 (200704)
I1007 08:00:13.407330 19095 net.cpp:165] Memory required for data: 1039936124
I1007 08:00:13.407335 19095 layer_factory.hpp:76] Creating layer LFCN_3_3x5
I1007 08:00:13.407351 19095 net.cpp:106] Creating Layer LFCN_3_3x5
I1007 08:00:13.407357 19095 net.cpp:454] LFCN_3_3x5 <- conv6_1_relu6_1_0_split_0
I1007 08:00:13.407368 19095 net.cpp:411] LFCN_3_3x5 -> LFCN_3_3x5
I1007 08:00:13.410848 19095 net.cpp:150] Setting up LFCN_3_3x5
I1007 08:00:13.410866 19095 net.cpp:157] Top shape: 2 6 14 14 (2352)
I1007 08:00:13.410871 19095 net.cpp:165] Memory required for data: 1039945532
I1007 08:00:13.410881 19095 layer_factory.hpp:76] Creating layer LFCN_3_3x5_LFCN_3_3x5_0_split
I1007 08:00:13.410914 19095 net.cpp:106] Creating Layer LFCN_3_3x5_LFCN_3_3x5_0_split
I1007 08:00:13.410923 19095 net.cpp:454] LFCN_3_3x5_LFCN_3_3x5_0_split <- LFCN_3_3x5
I1007 08:00:13.410931 19095 net.cpp:411] LFCN_3_3x5_LFCN_3_3x5_0_split -> LFCN_3_3x5_LFCN_3_3x5_0_split_0
I1007 08:00:13.410943 19095 net.cpp:411] LFCN_3_3x5_LFCN_3_3x5_0_split -> LFCN_3_3x5_LFCN_3_3x5_0_split_1
I1007 08:00:13.410953 19095 net.cpp:411] LFCN_3_3x5_LFCN_3_3x5_0_split -> LFCN_3_3x5_LFCN_3_3x5_0_split_2
I1007 08:00:13.411070 19095 net.cpp:150] Setting up LFCN_3_3x5_LFCN_3_3x5_0_split
I1007 08:00:13.411084 19095 net.cpp:157] Top shape: 2 6 14 14 (2352)
I1007 08:00:13.411089 19095 net.cpp:157] Top shape: 2 6 14 14 (2352)
I1007 08:00:13.411093 19095 net.cpp:157] Top shape: 2 6 14 14 (2352)
I1007 08:00:13.411098 19095 net.cpp:165] Memory required for data: 1039973756
I1007 08:00:13.411103 19095 layer_factory.hpp:76] Creating layer detection_loss_3_3x5
I1007 08:00:13.411115 19095 net.cpp:106] Creating Layer detection_loss_3_3x5
I1007 08:00:13.411123 19095 net.cpp:454] detection_loss_3_3x5 <- LFCN_3_3x5_LFCN_3_3x5_0_split_0
I1007 08:00:13.411129 19095 net.cpp:454] detection_loss_3_3x5 <- label_3_3x5_data_5_split_0
I1007 08:00:13.411137 19095 net.cpp:411] detection_loss_3_3x5 -> loss_3_3x5
I1007 08:00:13.411150 19095 layer_factory.hpp:76] Creating layer detection_loss_3_3x5
I1007 08:00:13.411635 19095 net.cpp:150] Setting up detection_loss_3_3x5
I1007 08:00:13.411648 19095 net.cpp:157] Top shape: 1 1 1 2 (2)
I1007 08:00:13.411651 19095 net.cpp:160]     with loss weight 1
I1007 08:00:13.411659 19095 net.cpp:165] Memory required for data: 1039973764
I1007 08:00:13.411664 19095 layer_factory.hpp:76] Creating layer detection_accuracy_3_3x5
I1007 08:00:13.411674 19095 net.cpp:106] Creating Layer detection_accuracy_3_3x5
I1007 08:00:13.411680 19095 net.cpp:454] detection_accuracy_3_3x5 <- LFCN_3_3x5_LFCN_3_3x5_0_split_1
I1007 08:00:13.411687 19095 net.cpp:454] detection_accuracy_3_3x5 <- label_3_3x5_data_5_split_1
I1007 08:00:13.411698 19095 net.cpp:411] detection_accuracy_3_3x5 -> accuracy_3_3x5
I1007 08:00:13.411710 19095 net.cpp:411] detection_accuracy_3_3x5 -> boxiou_3_3x5
I1007 08:00:13.411792 19095 net.cpp:150] Setting up detection_accuracy_3_3x5
I1007 08:00:13.411801 19095 net.cpp:157] Top shape: 1 1 1 2 (2)
I1007 08:00:13.411808 19095 net.cpp:157] Top shape: 1 1 1 1 (1)
I1007 08:00:13.411811 19095 net.cpp:165] Memory required for data: 1039973776
I1007 08:00:13.411816 19095 layer_factory.hpp:76] Creating layer LFCN_3_5x7
I1007 08:00:13.411829 19095 net.cpp:106] Creating Layer LFCN_3_5x7
I1007 08:00:13.411837 19095 net.cpp:454] LFCN_3_5x7 <- conv6_1_relu6_1_0_split_1
I1007 08:00:13.411846 19095 net.cpp:411] LFCN_3_5x7 -> LFCN_3_5x7
I1007 08:00:13.416651 19095 net.cpp:150] Setting up LFCN_3_5x7
I1007 08:00:13.416666 19095 net.cpp:157] Top shape: 2 6 14 14 (2352)
I1007 08:00:13.416671 19095 net.cpp:165] Memory required for data: 1039983184
I1007 08:00:13.416677 19095 layer_factory.hpp:76] Creating layer LFCN_3_5x7_LFCN_3_5x7_0_split
I1007 08:00:13.416683 19095 net.cpp:106] Creating Layer LFCN_3_5x7_LFCN_3_5x7_0_split
I1007 08:00:13.416687 19095 net.cpp:454] LFCN_3_5x7_LFCN_3_5x7_0_split <- LFCN_3_5x7
I1007 08:00:13.416692 19095 net.cpp:411] LFCN_3_5x7_LFCN_3_5x7_0_split -> LFCN_3_5x7_LFCN_3_5x7_0_split_0
I1007 08:00:13.416699 19095 net.cpp:411] LFCN_3_5x7_LFCN_3_5x7_0_split -> LFCN_3_5x7_LFCN_3_5x7_0_split_1
I1007 08:00:13.416704 19095 net.cpp:411] LFCN_3_5x7_LFCN_3_5x7_0_split -> LFCN_3_5x7_LFCN_3_5x7_0_split_2
I1007 08:00:13.416817 19095 net.cpp:150] Setting up LFCN_3_5x7_LFCN_3_5x7_0_split
I1007 08:00:13.416841 19095 net.cpp:157] Top shape: 2 6 14 14 (2352)
I1007 08:00:13.416847 19095 net.cpp:157] Top shape: 2 6 14 14 (2352)
I1007 08:00:13.416853 19095 net.cpp:157] Top shape: 2 6 14 14 (2352)
I1007 08:00:13.416857 19095 net.cpp:165] Memory required for data: 1040011408
I1007 08:00:13.416862 19095 layer_factory.hpp:76] Creating layer detection_loss_3_5x7
I1007 08:00:13.416874 19095 net.cpp:106] Creating Layer detection_loss_3_5x7
I1007 08:00:13.416880 19095 net.cpp:454] detection_loss_3_5x7 <- LFCN_3_5x7_LFCN_3_5x7_0_split_0
I1007 08:00:13.416887 19095 net.cpp:454] detection_loss_3_5x7 <- label_3_5x7_data_6_split_0
I1007 08:00:13.416896 19095 net.cpp:411] detection_loss_3_5x7 -> loss_3_5x7
I1007 08:00:13.416908 19095 layer_factory.hpp:76] Creating layer detection_loss_3_5x7
I1007 08:00:13.417569 19095 net.cpp:150] Setting up detection_loss_3_5x7
I1007 08:00:13.417583 19095 net.cpp:157] Top shape: 1 1 1 2 (2)
I1007 08:00:13.417587 19095 net.cpp:160]     with loss weight 1
I1007 08:00:13.417593 19095 net.cpp:165] Memory required for data: 1040011416
I1007 08:00:13.417598 19095 layer_factory.hpp:76] Creating layer detection_accuracy_3_5x7
I1007 08:00:13.417608 19095 net.cpp:106] Creating Layer detection_accuracy_3_5x7
I1007 08:00:13.417616 19095 net.cpp:454] detection_accuracy_3_5x7 <- LFCN_3_5x7_LFCN_3_5x7_0_split_1
I1007 08:00:13.417624 19095 net.cpp:454] detection_accuracy_3_5x7 <- label_3_5x7_data_6_split_1
I1007 08:00:13.417632 19095 net.cpp:411] detection_accuracy_3_5x7 -> accuracy_3_5x7
I1007 08:00:13.417642 19095 net.cpp:411] detection_accuracy_3_5x7 -> boxiou_3_5x7
I1007 08:00:13.417732 19095 net.cpp:150] Setting up detection_accuracy_3_5x7
I1007 08:00:13.417743 19095 net.cpp:157] Top shape: 1 1 1 2 (2)
I1007 08:00:13.417749 19095 net.cpp:157] Top shape: 1 1 1 1 (1)
I1007 08:00:13.417752 19095 net.cpp:165] Memory required for data: 1040011428
I1007 08:00:13.417757 19095 layer_factory.hpp:76] Creating layer pool6
I1007 08:00:13.417767 19095 net.cpp:106] Creating Layer pool6
I1007 08:00:13.417773 19095 net.cpp:454] pool6 <- conv6_1_relu6_1_0_split_2
I1007 08:00:13.417783 19095 net.cpp:411] pool6 -> pool6
I1007 08:00:13.418062 19095 net.cpp:150] Setting up pool6
I1007 08:00:13.418074 19095 net.cpp:157] Top shape: 2 512 7 7 (50176)
I1007 08:00:13.418077 19095 net.cpp:165] Memory required for data: 1040212132
I1007 08:00:13.418081 19095 layer_factory.hpp:76] Creating layer LFCN_4_3x5
I1007 08:00:13.418093 19095 net.cpp:106] Creating Layer LFCN_4_3x5
I1007 08:00:13.418100 19095 net.cpp:454] LFCN_4_3x5 <- pool6
I1007 08:00:13.418112 19095 net.cpp:411] LFCN_4_3x5 -> LFCN_4_3x5
I1007 08:00:13.421322 19095 net.cpp:150] Setting up LFCN_4_3x5
I1007 08:00:13.421337 19095 net.cpp:157] Top shape: 2 6 7 7 (588)
I1007 08:00:13.421340 19095 net.cpp:165] Memory required for data: 1040214484
I1007 08:00:13.421349 19095 layer_factory.hpp:76] Creating layer LFCN_4_3x5_LFCN_4_3x5_0_split
I1007 08:00:13.421356 19095 net.cpp:106] Creating Layer LFCN_4_3x5_LFCN_4_3x5_0_split
I1007 08:00:13.421362 19095 net.cpp:454] LFCN_4_3x5_LFCN_4_3x5_0_split <- LFCN_4_3x5
I1007 08:00:13.421373 19095 net.cpp:411] LFCN_4_3x5_LFCN_4_3x5_0_split -> LFCN_4_3x5_LFCN_4_3x5_0_split_0
I1007 08:00:13.421386 19095 net.cpp:411] LFCN_4_3x5_LFCN_4_3x5_0_split -> LFCN_4_3x5_LFCN_4_3x5_0_split_1
I1007 08:00:13.421394 19095 net.cpp:411] LFCN_4_3x5_LFCN_4_3x5_0_split -> LFCN_4_3x5_LFCN_4_3x5_0_split_2
I1007 08:00:13.421516 19095 net.cpp:150] Setting up LFCN_4_3x5_LFCN_4_3x5_0_split
I1007 08:00:13.421528 19095 net.cpp:157] Top shape: 2 6 7 7 (588)
I1007 08:00:13.421531 19095 net.cpp:157] Top shape: 2 6 7 7 (588)
I1007 08:00:13.421535 19095 net.cpp:157] Top shape: 2 6 7 7 (588)
I1007 08:00:13.421540 19095 net.cpp:165] Memory required for data: 1040221540
I1007 08:00:13.421545 19095 layer_factory.hpp:76] Creating layer detection_loss_4_3x5
I1007 08:00:13.421553 19095 net.cpp:106] Creating Layer detection_loss_4_3x5
I1007 08:00:13.421560 19095 net.cpp:454] detection_loss_4_3x5 <- LFCN_4_3x5_LFCN_4_3x5_0_split_0
I1007 08:00:13.421566 19095 net.cpp:454] detection_loss_4_3x5 <- label_4_3x5_data_7_split_0
I1007 08:00:13.421577 19095 net.cpp:411] detection_loss_4_3x5 -> loss_4_3x5
I1007 08:00:13.421591 19095 layer_factory.hpp:76] Creating layer detection_loss_4_3x5
I1007 08:00:13.422269 19095 net.cpp:150] Setting up detection_loss_4_3x5
I1007 08:00:13.422283 19095 net.cpp:157] Top shape: 1 1 1 2 (2)
I1007 08:00:13.422286 19095 net.cpp:160]     with loss weight 1
I1007 08:00:13.422293 19095 net.cpp:165] Memory required for data: 1040221548
I1007 08:00:13.422298 19095 layer_factory.hpp:76] Creating layer detection_accuracy_4_3x5
I1007 08:00:13.422307 19095 net.cpp:106] Creating Layer detection_accuracy_4_3x5
I1007 08:00:13.422313 19095 net.cpp:454] detection_accuracy_4_3x5 <- LFCN_4_3x5_LFCN_4_3x5_0_split_1
I1007 08:00:13.422322 19095 net.cpp:454] detection_accuracy_4_3x5 <- label_4_3x5_data_7_split_1
I1007 08:00:13.422330 19095 net.cpp:411] detection_accuracy_4_3x5 -> accuracy_4_3x5
I1007 08:00:13.422343 19095 net.cpp:411] detection_accuracy_4_3x5 -> boxiou_4_3x5
I1007 08:00:13.422430 19095 net.cpp:150] Setting up detection_accuracy_4_3x5
I1007 08:00:13.422446 19095 net.cpp:157] Top shape: 1 1 1 2 (2)
I1007 08:00:13.422451 19095 net.cpp:157] Top shape: 1 1 1 1 (1)
I1007 08:00:13.422456 19095 net.cpp:165] Memory required for data: 1040221560
I1007 08:00:13.422461 19095 layer_factory.hpp:76] Creating layer proposals
I1007 08:00:13.422478 19095 net.cpp:106] Creating Layer proposals
I1007 08:00:13.422485 19095 net.cpp:454] proposals <- LFCN_1_3x5_LFCN_1_3x5_0_split_2
I1007 08:00:13.422492 19095 net.cpp:454] proposals <- LFCN_1_5x7_LFCN_1_5x7_0_split_2
I1007 08:00:13.422498 19095 net.cpp:454] proposals <- LFCN_2_3x5_LFCN_2_3x5_0_split_2
I1007 08:00:13.422504 19095 net.cpp:454] proposals <- LFCN_2_5x7_LFCN_2_5x7_0_split_2
I1007 08:00:13.422509 19095 net.cpp:454] proposals <- LFCN_3_3x5_LFCN_3_3x5_0_split_2
I1007 08:00:13.422515 19095 net.cpp:454] proposals <- LFCN_3_5x7_LFCN_3_5x7_0_split_2
I1007 08:00:13.422520 19095 net.cpp:454] proposals <- LFCN_4_3x5_LFCN_4_3x5_0_split_2
I1007 08:00:13.422531 19095 net.cpp:411] proposals -> proposals
I1007 08:00:13.422586 19095 net.cpp:150] Setting up proposals
I1007 08:00:13.422596 19095 net.cpp:157] Top shape: 1 5 1 1 (5)
I1007 08:00:13.422601 19095 net.cpp:165] Memory required for data: 1040221580
I1007 08:00:13.422606 19095 layer_factory.hpp:76] Creating layer proposal_info
I1007 08:00:13.422622 19095 net.cpp:106] Creating Layer proposal_info
I1007 08:00:13.422628 19095 net.cpp:454] proposal_info <- proposals
I1007 08:00:13.422636 19095 net.cpp:454] proposal_info <- gt_boxes
I1007 08:00:13.422644 19095 net.cpp:411] proposal_info -> rois
I1007 08:00:13.422658 19095 net.cpp:411] proposal_info -> proposal_labels
I1007 08:00:13.422670 19095 net.cpp:411] proposal_info -> proposal_targets
I1007 08:00:13.422682 19095 net.cpp:411] proposal_info -> box_inside_weights
I1007 08:00:13.422691 19095 net.cpp:411] proposal_info -> box_outside_weights
I1007 08:00:13.422700 19095 net.cpp:411] proposal_info -> match_gt_boxes
I1007 08:00:13.422914 19095 net.cpp:150] Setting up proposal_info
I1007 08:00:13.422925 19095 net.cpp:157] Top shape: 64 5 1 1 (320)
I1007 08:00:13.422930 19095 net.cpp:157] Top shape: 64 1 1 1 (64)
I1007 08:00:13.422933 19095 net.cpp:157] Top shape: 64 8 1 1 (512)
I1007 08:00:13.422938 19095 net.cpp:157] Top shape: 64 8 1 1 (512)
I1007 08:00:13.422945 19095 net.cpp:157] Top shape: 64 8 1 1 (512)
I1007 08:00:13.422950 19095 net.cpp:157] Top shape: 64 6 1 1 (384)
I1007 08:00:13.422955 19095 net.cpp:165] Memory required for data: 1040230796
I1007 08:00:13.422960 19095 layer_factory.hpp:76] Creating layer rois_proposal_info_0_split
I1007 08:00:13.422971 19095 net.cpp:106] Creating Layer rois_proposal_info_0_split
I1007 08:00:13.422976 19095 net.cpp:454] rois_proposal_info_0_split <- rois
I1007 08:00:13.422983 19095 net.cpp:411] rois_proposal_info_0_split -> rois_proposal_info_0_split_0
I1007 08:00:13.422993 19095 net.cpp:411] rois_proposal_info_0_split -> rois_proposal_info_0_split_1
I1007 08:00:13.423002 19095 net.cpp:411] rois_proposal_info_0_split -> rois_proposal_info_0_split_2
I1007 08:00:13.423112 19095 net.cpp:150] Setting up rois_proposal_info_0_split
I1007 08:00:13.423123 19095 net.cpp:157] Top shape: 64 5 1 1 (320)
I1007 08:00:13.423130 19095 net.cpp:157] Top shape: 64 5 1 1 (320)
I1007 08:00:13.423135 19095 net.cpp:157] Top shape: 64 5 1 1 (320)
I1007 08:00:13.423141 19095 net.cpp:165] Memory required for data: 1040234636
I1007 08:00:13.423146 19095 layer_factory.hpp:76] Creating layer proposal_labels_proposal_info_1_split
I1007 08:00:13.423152 19095 net.cpp:106] Creating Layer proposal_labels_proposal_info_1_split
I1007 08:00:13.423158 19095 net.cpp:454] proposal_labels_proposal_info_1_split <- proposal_labels
I1007 08:00:13.423171 19095 net.cpp:411] proposal_labels_proposal_info_1_split -> proposal_labels_proposal_info_1_split_0
I1007 08:00:13.423180 19095 net.cpp:411] proposal_labels_proposal_info_1_split -> proposal_labels_proposal_info_1_split_1
I1007 08:00:13.423259 19095 net.cpp:150] Setting up proposal_labels_proposal_info_1_split
I1007 08:00:13.423269 19095 net.cpp:157] Top shape: 64 1 1 1 (64)
I1007 08:00:13.423275 19095 net.cpp:157] Top shape: 64 1 1 1 (64)
I1007 08:00:13.423280 19095 net.cpp:165] Memory required for data: 1040235148
I1007 08:00:13.423283 19095 layer_factory.hpp:76] Creating layer roi_pool_org
I1007 08:00:13.423296 19095 net.cpp:106] Creating Layer roi_pool_org
I1007 08:00:13.423302 19095 net.cpp:454] roi_pool_org <- conv4_3_relu4_3_0_split_2
I1007 08:00:13.423310 19095 net.cpp:454] roi_pool_org <- rois_proposal_info_0_split_0
I1007 08:00:13.423317 19095 net.cpp:411] roi_pool_org -> roi_pool_org
I1007 08:00:13.423327 19095 roi_pooling_layer.cpp:35] Spatial scale: 0.125
I1007 08:00:13.423413 19095 net.cpp:150] Setting up roi_pool_org
I1007 08:00:13.423424 19095 net.cpp:157] Top shape: 64 512 8 4 (1048576)
I1007 08:00:13.423429 19095 net.cpp:165] Memory required for data: 1044429452
I1007 08:00:13.423434 19095 layer_factory.hpp:76] Creating layer roi_pool_ctx
I1007 08:00:13.423444 19095 net.cpp:106] Creating Layer roi_pool_ctx
I1007 08:00:13.423449 19095 net.cpp:454] roi_pool_ctx <- conv4_3_relu4_3_0_split_3
I1007 08:00:13.423456 19095 net.cpp:454] roi_pool_ctx <- rois_proposal_info_0_split_1
I1007 08:00:13.423465 19095 net.cpp:411] roi_pool_ctx -> roi_pool_ctx
I1007 08:00:13.423473 19095 roi_pooling_layer.cpp:35] Spatial scale: 0.125
I1007 08:00:13.423558 19095 net.cpp:150] Setting up roi_pool_ctx
I1007 08:00:13.423573 19095 net.cpp:157] Top shape: 64 512 8 4 (1048576)
I1007 08:00:13.423576 19095 net.cpp:165] Memory required for data: 1048623756
I1007 08:00:13.423579 19095 layer_factory.hpp:76] Creating layer roi_pool
I1007 08:00:13.423584 19095 net.cpp:106] Creating Layer roi_pool
I1007 08:00:13.423588 19095 net.cpp:454] roi_pool <- roi_pool_org
I1007 08:00:13.423591 19095 net.cpp:454] roi_pool <- roi_pool_ctx
I1007 08:00:13.423599 19095 net.cpp:411] roi_pool -> roi_pool
I1007 08:00:13.423634 19095 net.cpp:150] Setting up roi_pool
I1007 08:00:13.423646 19095 net.cpp:157] Top shape: 64 1024 8 4 (2097152)
I1007 08:00:13.423650 19095 net.cpp:165] Memory required for data: 1057012364
I1007 08:00:13.423652 19095 layer_factory.hpp:76] Creating layer roi_c1
I1007 08:00:13.423660 19095 net.cpp:106] Creating Layer roi_c1
I1007 08:00:13.423666 19095 net.cpp:454] roi_c1 <- roi_pool
I1007 08:00:13.423673 19095 net.cpp:411] roi_c1 -> roi_c1
I1007 08:00:13.585633 19095 net.cpp:150] Setting up roi_c1
I1007 08:00:13.585666 19095 net.cpp:157] Top shape: 64 512 8 4 (1048576)
I1007 08:00:13.585670 19095 net.cpp:165] Memory required for data: 1061206668
I1007 08:00:13.585680 19095 layer_factory.hpp:76] Creating layer roi_c1_relu
I1007 08:00:13.585690 19095 net.cpp:106] Creating Layer roi_c1_relu
I1007 08:00:13.585696 19095 net.cpp:454] roi_c1_relu <- roi_c1
I1007 08:00:13.585705 19095 net.cpp:397] roi_c1_relu -> roi_c1 (in-place)
I1007 08:00:13.586117 19095 net.cpp:150] Setting up roi_c1_relu
I1007 08:00:13.586130 19095 net.cpp:157] Top shape: 64 512 8 4 (1048576)
I1007 08:00:13.586133 19095 net.cpp:165] Memory required for data: 1065400972
I1007 08:00:13.586138 19095 layer_factory.hpp:76] Creating layer fc6
I1007 08:00:13.586150 19095 net.cpp:106] Creating Layer fc6
I1007 08:00:13.586158 19095 net.cpp:454] fc6 <- roi_c1
I1007 08:00:13.586168 19095 net.cpp:411] fc6 -> fc6
I1007 08:00:14.705132 19095 net.cpp:150] Setting up fc6
I1007 08:00:14.705174 19095 net.cpp:157] Top shape: 64 2048 (131072)
I1007 08:00:14.705179 19095 net.cpp:165] Memory required for data: 1065925260
I1007 08:00:14.705200 19095 layer_factory.hpp:76] Creating layer relu6
I1007 08:00:14.705226 19095 net.cpp:106] Creating Layer relu6
I1007 08:00:14.705252 19095 net.cpp:454] relu6 <- fc6
I1007 08:00:14.705266 19095 net.cpp:397] relu6 -> fc6 (in-place)
I1007 08:00:14.705726 19095 net.cpp:150] Setting up relu6
I1007 08:00:14.705739 19095 net.cpp:157] Top shape: 64 2048 (131072)
I1007 08:00:14.705741 19095 net.cpp:165] Memory required for data: 1066449548
I1007 08:00:14.705745 19095 layer_factory.hpp:76] Creating layer drop6
I1007 08:00:14.705755 19095 net.cpp:106] Creating Layer drop6
I1007 08:00:14.705760 19095 net.cpp:454] drop6 <- fc6
I1007 08:00:14.705770 19095 net.cpp:397] drop6 -> fc6 (in-place)
I1007 08:00:14.705824 19095 net.cpp:150] Setting up drop6
I1007 08:00:14.705833 19095 net.cpp:157] Top shape: 64 2048 (131072)
I1007 08:00:14.705837 19095 net.cpp:165] Memory required for data: 1066973836
I1007 08:00:14.705842 19095 layer_factory.hpp:76] Creating layer fc6_drop6_0_split
I1007 08:00:14.705852 19095 net.cpp:106] Creating Layer fc6_drop6_0_split
I1007 08:00:14.705858 19095 net.cpp:454] fc6_drop6_0_split <- fc6
I1007 08:00:14.705867 19095 net.cpp:411] fc6_drop6_0_split -> fc6_drop6_0_split_0
I1007 08:00:14.705878 19095 net.cpp:411] fc6_drop6_0_split -> fc6_drop6_0_split_1
I1007 08:00:14.705998 19095 net.cpp:150] Setting up fc6_drop6_0_split
I1007 08:00:14.706013 19095 net.cpp:157] Top shape: 64 2048 (131072)
I1007 08:00:14.706020 19095 net.cpp:157] Top shape: 64 2048 (131072)
I1007 08:00:14.706024 19095 net.cpp:165] Memory required for data: 1068022412
I1007 08:00:14.706030 19095 layer_factory.hpp:76] Creating layer cls_pred
I1007 08:00:14.706046 19095 net.cpp:106] Creating Layer cls_pred
I1007 08:00:14.706051 19095 net.cpp:454] cls_pred <- fc6_drop6_0_split_0
I1007 08:00:14.706065 19095 net.cpp:411] cls_pred -> cls_pred
I1007 08:00:14.706372 19095 net.cpp:150] Setting up cls_pred
I1007 08:00:14.706382 19095 net.cpp:157] Top shape: 64 2 (128)
I1007 08:00:14.706383 19095 net.cpp:165] Memory required for data: 1068022924
I1007 08:00:14.706390 19095 layer_factory.hpp:76] Creating layer cls_pred_cls_pred_0_split
I1007 08:00:14.706398 19095 net.cpp:106] Creating Layer cls_pred_cls_pred_0_split
I1007 08:00:14.706404 19095 net.cpp:454] cls_pred_cls_pred_0_split <- cls_pred
I1007 08:00:14.706415 19095 net.cpp:411] cls_pred_cls_pred_0_split -> cls_pred_cls_pred_0_split_0
I1007 08:00:14.706424 19095 net.cpp:411] cls_pred_cls_pred_0_split -> cls_pred_cls_pred_0_split_1
I1007 08:00:14.706504 19095 net.cpp:150] Setting up cls_pred_cls_pred_0_split
I1007 08:00:14.706516 19095 net.cpp:157] Top shape: 64 2 (128)
I1007 08:00:14.706519 19095 net.cpp:157] Top shape: 64 2 (128)
I1007 08:00:14.706522 19095 net.cpp:165] Memory required for data: 1068023948
I1007 08:00:14.706527 19095 layer_factory.hpp:76] Creating layer bbox_pred
I1007 08:00:14.706542 19095 net.cpp:106] Creating Layer bbox_pred
I1007 08:00:14.706549 19095 net.cpp:454] bbox_pred <- fc6_drop6_0_split_1
I1007 08:00:14.706562 19095 net.cpp:411] bbox_pred -> bbox_pred
I1007 08:00:14.707320 19095 net.cpp:150] Setting up bbox_pred
I1007 08:00:14.707331 19095 net.cpp:157] Top shape: 64 8 (512)
I1007 08:00:14.707334 19095 net.cpp:165] Memory required for data: 1068025996
I1007 08:00:14.707341 19095 layer_factory.hpp:76] Creating layer bbox_pred_bbox_pred_0_split
I1007 08:00:14.707348 19095 net.cpp:106] Creating Layer bbox_pred_bbox_pred_0_split
I1007 08:00:14.707355 19095 net.cpp:454] bbox_pred_bbox_pred_0_split <- bbox_pred
I1007 08:00:14.707362 19095 net.cpp:411] bbox_pred_bbox_pred_0_split -> bbox_pred_bbox_pred_0_split_0
I1007 08:00:14.707447 19095 net.cpp:411] bbox_pred_bbox_pred_0_split -> bbox_pred_bbox_pred_0_split_1
I1007 08:00:14.707512 19095 net.cpp:150] Setting up bbox_pred_bbox_pred_0_split
I1007 08:00:14.707521 19095 net.cpp:157] Top shape: 64 8 (512)
I1007 08:00:14.707526 19095 net.cpp:157] Top shape: 64 8 (512)
I1007 08:00:14.707530 19095 net.cpp:165] Memory required for data: 1068030092
I1007 08:00:14.707535 19095 layer_factory.hpp:76] Creating layer loss_cls
I1007 08:00:14.707545 19095 net.cpp:106] Creating Layer loss_cls
I1007 08:00:14.707551 19095 net.cpp:454] loss_cls <- cls_pred_cls_pred_0_split_0
I1007 08:00:14.707558 19095 net.cpp:454] loss_cls <- proposal_labels_proposal_info_1_split_0
…
