…
    downsample_rate: 32
    downsample_rate: 32
    downsample_rate: 64
    coord_num: 4
    field_h: 60
    field_h: 84
    field_h: 120
    field_h: 168
    field_h: 240
    field_h: 336
    field_h: 480
    field_w: 30
    field_w: 42
    field_w: 60
    field_w: 84
    field_w: 120
    field_w: 168
    field_w: 240
    fg_threshold: 0.5
    resize_width: 960
    resize_height: 720
    crop_width: 576
    crop_height: 576
    do_multiple_scale: true
    min_scale: 40
    max_scale: 340
    min_gt_height: 65
    shuffle: true
    output_gt_boxes: true
  }
}
layer {
  name: "conv1_1"
  type: "Convolution"
  bottom: "data"
  top: "conv1_1"
  param {
    lr_mult: 0
    decay_mult: 0
  }
  param {
    lr_mult: 0
    decay_mult: 0
  }
  convolution_param {
    num_output: 64
    pad: 1
    kernel_size: 3
  }
}
layer {
  name: "relu1_1"
  type: "ReLU"
  bottom: "conv1_1"
  top: "conv1_1"
}
layer {
  name: "conv1_2"
  type: "Convolution"
  bottom: "conv1_1"
  top: "conv1_2"
  param {
    lr_mult: 0
    decay_mult: 0
  }
  param {
    lr_mult: 0
    decay_mult: 0
  }
  convolution_param {
    num_output: 64
    pad: 1
    kernel_size: 3
  }
}
layer {
  name: "relu1_2"
  type: "ReLU"
  bottom: "conv1_2"
  top: "conv1_2"
}
layer {
  name: "pool1"
  type: "Pooling"
  bottom: "conv1_2"
  top: "pool1"
  pooling_param {
    pool: MAX
    kernel_size: 2
    stride: 2
  }
}
layer {
  name: "conv2_1"
  type: "Convolution"
  bottom: "pool1"
  top: "conv2_1"
  param {
    lr_mult: 0
    decay_mult: 0
  }
  param {
    lr_mult: 0
    decay_mult: 0
  }
  convolution_param {
    num_output: 128
    pad: 1
    kernel_size: 3
  }
}
layer {
  name: "relu2_1"
  type: "ReLU"
  bottom: "conv2_1"
  top: "conv2_1"
}
layer {
  name: "conv2_2"
  type: "Convolution"
  bottom: "conv2_1"
  top: "conv2_2"
  param {
    lr_mult: 0
    decay_mult: 0
  }
  param {
    lr_mult: 0
    decay_mult: 0
  }
  convolution_param {
    num_output: 128
    pad: 1
    kernel_size: 3
  }
}
layer {
  name: "relu2_2"
  type: "ReLU"
  bottom: "conv2_2"
  top: "conv2_2"
}
layer {
  name: "pool2"
  type: "Pooling"
  bottom: "conv2_2"
  top: "pool2"
  pooling_param {
    pool: MAX
    kernel_size: 2
    stride: 2
  }
}
layer {
  name: "conv3_1"
  type: "Convolution"
  bottom: "pool2"
  top: "conv3_1"
  convolution_param {
    num_output: 256
    pad: 1
    kernel_size: 3
  }
}
layer {
  name: "relu3_1"
  type: "ReLU"
  bottom: "conv3_1"
  top: "conv3_1"
}
layer {
  name: "conv3_2"
  type: "Convolution"
  bottom: "conv3_1"
  top: "conv3_2"
  convolution_param {
    num_output: 256
    pad: 1
    kernel_size: 3
  }
}
layer {
  name: "relu3_2"
  type: "ReLU"
  bottom: "conv3_2"
  top: "conv3_2"
}
layer {
  name: "conv3_3"
  type: "Convolution"
  bottom: "conv3_2"
  top: "conv3_3"
  convolution_param {
    num_output: 256
    pad: 1
    kernel_size: 3
  }
}
layer {
  name: "relu3_3"
  type: "ReLU"
  bottom: "conv3_3"
  top: "conv3_3"
}
layer {
  name: "pool3"
  type: "Pooling"
  bottom: "conv3_3"
  top: "pool3"
  pooling_param {
    pool: MAX
    kernel_size: 2
    stride: 2
  }
}
layer {
  name: "conv4_1"
  type: "Convolution"
  bottom: "pool3"
  top: "conv4_1"
  convolution_param {
    num_output: 512
    pad: 1
    kernel_size: 3
  }
}
layer {
  name: "relu4_1"
  type: "ReLU"
  bottom: "conv4_1"
  top: "conv4_1"
}
layer {
  name: "conv4_2"
  type: "Convolution"
  bottom: "conv4_1"
  top: "conv4_2"
  convolution_param {
    num_output: 512
    pad: 1
    kernel_size: 3
  }
}
layer {
  name: "relu4_2"
  type: "ReLU"
  bottom: "conv4_2"
  top: "conv4_2"
}
layer {
  name: "conv4_3"
  type: "Convolution"
  bottom: "conv4_2"
  top: "conv4_3"
  convolution_param {
    num_output: 512
    pad: 1
    kernel_size: 3
  }
}
layer {
  name: "relu4_3"
  type: "ReLU"
  bottom: "conv4_3"
  top: "conv4_3"
}
layer {
  name: "loss1_conv1"
  type: "Convolution"
  bottom: "conv4_3"
  top: "loss1_conv1"
  param {
    lr_mult: 1
    decay_mult: 1
  }
  param {
    lr_mult: 2
    decay_mult: 0
  }
  convolution_param {
    num_output: 512
    pad: 1
    kernel_size: 3
    weight_filler {
      type: "gaussian"
      std: 0.01
    }
    bias_filler {
      type: "constant"
    }
  }
}
layer {
  name: "loss_relu1"
  type: "ReLU"
  bottom: "loss1_conv1"
  top: "loss1_conv1"
}
layer {
  name: "LFCN_1_3x5"
  type: "Convolution"
  bottom: "loss1_conv1"
  top: "LFCN_1_3x5"
  param {
    lr_mult: 1
    decay_mult: 1
  }
  param {
    lr_mult: 2
    decay_mult: 0
  }
  convolution_param {
    num_output: 6
    weight_filler {
      type: "gaussian"
      std: 0.001
    }
    bias_filler {
      type: "constant"
    }
    pad_h: 2
    pad_w: 1
    kernel_h: 5
    kernel_w: 3
  }
}
layer {
  name: "detection_loss_1_3x5"
  type: "Detection"
  bottom: "LFCN_1_3x5"
  bottom: "label_1_3x5"
  top: "loss_1_3x5"
  loss_weight: 0.9
  detection_param {
    cls_num: 2
    coord_num: 4
    lambda: 1
    field_h: 60
    field_w: 30
    downsample_rate: 8
    bb_smooth: true
    field_whr: 2
    field_xyr: 2
    bg_threshold: 0.2
    bg_multiple: 2
    sample_mode: "bootstrap"
    pos_neg_weighted: true
  }
}
layer {
  name: "detection_accuracy_1_3x5"
  type: "DetectionAccuracy"
  bottom: "LFCN_1_3x5"
  bottom: "label_1_3x5"
  top: "accuracy_1_3x5"
  top: "boxiou_1_3x5"
  detection_accuracy_param {
    cls_num: 2
    coord_num: 4
    field_h: 60
    field_w: 30
    downsample_rate: 8
    field_whr: 2
    field_xyr: 2
  }
}
layer {
  name: "LFCN_1_5x7"
  type: "Convolution"
  bottom: "loss1_conv1"
  top: "LFCN_1_5x7"
  param {
    lr_mult: 1
    decay_mult: 1
  }
  param {
    lr_mult: 2
    decay_mult: 0
  }
  convolution_param {
    num_output: 6
    weight_filler {
      type: "gaussian"
      std: 0.001
    }
    bias_filler {
      type: "constant"
    }
    pad_h: 3
    pad_w: 2
    kernel_h: 7
    kernel_w: 5
  }
}
layer {
  name: "detection_loss_1_5x7"
  type: "Detection"
  bottom: "LFCN_1_5x7"
  bottom: "label_1_5x7"
  top: "loss_1_5x7"
  loss_weight: 0.9
  detection_param {
    cls_num: 2
    coord_num: 4
    lambda: 1
    field_h: 84
    field_w: 42
    downsample_rate: 8
    bb_smooth: true
    field_whr: 2
    field_xyr: 2
    bg_threshold: 0.2
    bg_multiple: 2
    sample_mode: "bootstrap"
    pos_neg_weighted: true
  }
}
layer {
  name: "detection_accuracy_1_5x7"
  type: "DetectionAccuracy"
  bottom: "LFCN_1_5x7"
  bottom: "label_1_5x7"
  top: "accuracy_1_5x7"
  top: "boxiou_1_5x7"
  detection_accuracy_param {
    cls_num: 2
    coord_num: 4
    field_h: 84
    field_w: 42
    downsample_rate: 8
    field_whr: 2
    field_xyr: 2
  }
}
layer {
  name: "pool4"
  type: "Pooling"
  bottom: "conv4_3"
  top: "pool4"
  pooling_param {
    pool: MAX
    kernel_size: 2
    stride: 2
  }
}
layer {
  name: "conv5_1"
  type: "Convolution"
  bottom: "pool4"
  top: "conv5_1"
  convolution_param {
    num_output: 512
    pad: 1
    kernel_size: 3
  }
}
layer {
  name: "relu5_1"
  type: "ReLU"
  bottom: "conv5_1"
  top: "conv5_1"
}
layer {
  name: "conv5_2"
  type: "Convolution"
  bottom: "conv5_1"
  top: "conv5_2"
  convolution_param {
    num_output: 512
    pad: 1
    kernel_size: 3
  }
}
layer {
  name: "relu5_2"
  type: "ReLU"
  bottom: "conv5_2"
  top: "conv5_2"
}
layer {
  name: "conv5_3"
  type: "Convolution"
  bottom: "conv5_2"
  top: "conv5_3"
  convolution_param {
    num_output: 512
    pad: 1
    kernel_size: 3
  }
}
layer {
  name: "relu5_3"
  type: "ReLU"
  bottom: "conv5_3"
  top: "conv5_3"
}
layer {
  name: "LFCN_2_3x5"
  type: "Convolution"
  bottom: "conv5_3"
  top: "LFCN_2_3x5"
  param {
    lr_mult: 1
    decay_mult: 1
  }
  param {
    lr_mult: 2
    decay_mult: 0
  }
  convolution_param {
    num_output: 6
    weight_filler {
      type: "gaussian"
      std: 0.001
    }
    bias_filler {
      type: "constant"
    }
    pad_h: 2
    pad_w: 1
    kernel_h: 5
    kernel_w: 3
  }
}
layer {
  name: "detection_loss_2_3x5"
  type: "Detection"
  bottom: "LFCN_2_3x5"
  bottom: "label_2_3x5"
  top: "loss_2_3x5"
  detection_param {
    cls_num: 2
    coord_num: 4
    lambda: 1
    field_h: 120
    field_w: 60
    downsample_rate: 16
    bb_smooth: true
    field_whr: 2
    field_xyr: 2
    bg_threshold: 0.2
    bg_multiple: 2
    sample_mode: "bootstrap"
    pos_neg_weighted: true
  }
}
layer {
  name: "detection_accuracy_2_3x5"
  type: "DetectionAccuracy"
  bottom: "LFCN_2_3x5"
  bottom: "label_2_3x5"
  top: "accuracy_2_3x5"
  top: "boxiou_2_3x5"
  detection_accuracy_param {
    cls_num: 2
    coord_num: 4
    field_h: 120
    field_w: 60
    downsample_rate: 16
    field_whr: 2
    field_xyr: 2
  }
}
layer {
  name: "LFCN_2_5x7"
  type: "Convolution"
  bottom: "conv5_3"
  top: "LFCN_2_5x7"
  param {
    lr_mult: 1
    decay_mult: 1
  }
  param {
    lr_mult: 2
    decay_mult: 0
  }
  convolution_param {
    num_output: 6
    weight_filler {
      type: "gaussian"
      std: 0.001
    }
    bias_filler {
      type: "constant"
    }
    pad_h: 3
    pad_w: 2
    kernel_h: 7
    kernel_w: 5
  }
}
layer {
  name: "detection_loss_2_5x7"
  type: "Detection"
  bottom: "LFCN_2_5x7"
  bottom: "label_2_5x7"
  top: "loss_2_5x7"
  detection_param {
    cls_num: 2
    coord_num: 4
    lambda: 1
    field_h: 168
    field_w: 84
    downsample_rate: 16
    bb_smooth: true
    field_whr: 2
    field_xyr: 2
    bg_threshold: 0.2
    bg_multiple: 2
    sample_mode: "bootstrap"
    pos_neg_weighted: true
  }
}
layer {
  name: "detection_accuracy_2_5x7"
  type: "DetectionAccuracy"
  bottom: "LFCN_2_5x7"
  bottom: "label_2_5x7"
  top: "accuracy_2_5x7"
  top: "boxiou_2_5x7"
  detection_accuracy_param {
    cls_num: 2
    coord_num: 4
    field_h: 168
    field_w: 84
    downsample_rate: 16
    field_whr: 2
    field_xyr: 2
  }
}
layer {
  name: "pool5"
  type: "Pooling"
  bottom: "conv5_3"
  top: "pool5"
  pooling_param {
    pool: MAX
    kernel_size: 2
    stride: 2
  }
}
layer {
  name: "conv6_1"
  type: "Convolution"
  bottom: "pool5"
  top: "conv6_1"
  param {
    lr_mult: 1
    decay_mult: 1
  }
  param {
    lr_mult: 2
    decay_mult: 0
  }
  convolution_param {
    num_output: 512
    pad: 1
    kernel_size: 3
    weight_filler {
      type: "gaussian"
      std: 0.01
    }
    bias_filler {
      type: "constant"
    }
  }
}
layer {
  name: "relu6_1"
  type: "ReLU"
  bottom: "conv6_1"
  top: "conv6_1"
}
layer {
  name: "LFCN_3_3x5"
  type: "Convolution"
  bottom: "conv6_1"
  top: "LFCN_3_3x5"
  param {
    lr_mult: 1
    decay_mult: 1
  }
  param {
    lr_mult: 2
    decay_mult: 0
  }
  convolution_param {
    num_output: 6
    weight_filler {
      type: "gaussian"
      std: 0.001
    }
    bias_filler {
      type: "constant"
    }
    pad_h: 2
    pad_w: 1
    kernel_h: 5
    kernel_w: 3
  }
}
layer {
  name: "detection_loss_3_3x5"
  type: "Detection"
  bottom: "LFCN_3_3x5"
  bottom: "label_3_3x5"
  top: "loss_3_3x5"
  detection_param {
    cls_num: 2
    coord_num: 4
    lambda: 1
    field_h: 240
    field_w: 120
    downsample_rate: 32
    bb_smooth: true
    field_whr: 2
    field_xyr: 2
    bg_threshold: 0.2
    bg_multiple: 2
    sample_mode: "bootstrap"
    pos_neg_weighted: true
  }
}
layer {
  name: "detection_accuracy_3_3x5"
  type: "DetectionAccuracy"
  bottom: "LFCN_3_3x5"
  bottom: "label_3_3x5"
  top: "accuracy_3_3x5"
  top: "boxiou_3_3x5"
  detection_accuracy_param {
    cls_num: 2
    coord_num: 4
    field_h: 240
    field_w: 120
    downsample_rate: 32
    field_whr: 2
    field_xyr: 2
  }
}
layer {
  name: "LFCN_3_5x7"
  type: "Convolution"
  bottom: "conv6_1"
  top: "LFCN_3_5x7"
  param {
    lr_mult: 1
    decay_mult: 1
  }
  param {
    lr_mult: 2
    decay_mult: 0
  }
  convolution_param {
    num_output: 6
    weight_filler {
      type: "gaussian"
      std: 0.001
    }
    bias_filler {
      type: "constant"
    }
    pad_h: 3
    pad_w: 2
    kernel_h: 7
    kernel_w: 5
  }
}
layer {
  name: "detection_loss_3_5x7"
  type: "Detection"
  bottom: "LFCN_3_5x7"
  bottom: "label_3_5x7"
  top: "loss_3_5x7"
  detection_param {
    cls_num: 2
    coord_num: 4
    lambda: 1
    field_h: 336
    field_w: 168
    downsample_rate: 32
    bb_smooth: true
    field_whr: 2
    field_xyr: 2
    bg_threshold: 0.2
    bg_multiple: 2
    sample_mode: "bootstrap"
    pos_neg_weighted: true
  }
}
layer {
  name: "detection_accuracy_3_5x7"
  type: "DetectionAccuracy"
  bottom: "LFCN_3_5x7"
  bottom: "label_3_5x7"
  top: "accuracy_3_5x7"
  top: "boxiou_3_5x7"
  detection_accuracy_param {
    cls_num: 2
    coord_num: 4
    field_h: 336
    field_w: 168
    downsample_rate: 32
    field_whr: 2
    field_xyr: 2
  }
}
layer {
  name: "pool6"
  type: "Pooling"
  bottom: "conv6_1"
  top: "pool6"
  pooling_param {
    pool: MAX
    kernel_size: 2
    stride: 2
  }
}
layer {
  name: "LFCN_4_3x5"
  type: "Convolution"
  bottom: "pool6"
  top: "LFCN_4_3x5"
  param {
    lr_mult: 1
    decay_mult: 1
  }
  param {
    lr_mult: 2
    decay_mult: 0
  }
  convolution_param {
    num_output: 6
    weight_filler {
      type: "gaussian"
      std: 0.001
    }
    bias_filler {
      type: "constant"
    }
    pad_h: 2
    pad_w: 1
    kernel_h: 5
    kernel_w: 3
  }
}
layer {
  name: "detection_loss_4_3x5"
  type: "Detection"
  bottom: "LFCN_4_3x5"
  bottom: "label_4_3x5"
  top: "loss_4_3x5"
  detection_param {
    cls_num: 2
    coord_num: 4
    lambda: 1
    field_h: 480
    field_w: 240
    downsample_rate: 64
    bb_smooth: true
    field_whr: 2
    field_xyr: 2
    bg_threshold: 0.2
    bg_multiple: 2
    sample_mode: "bootstrap"
    pos_neg_weighted: true
  }
}
layer {
  name: "detection_accuracy_4_3x5"
  type: "DetectionAccuracy"
  bottom: "LFCN_4_3x5"
  bottom: "label_4_3x5"
  top: "accuracy_4_3x5"
  top: "boxiou_4_3x5"
  detection_accuracy_param {
    cls_num: 2
    coord_num: 4
    field_h: 480
    field_w: 240
    downsample_rate: 64
    field_whr: 2
    field_xyr: 2
  }
}
layer {
  name: "proposals"
  type: "BoxOutput"
  bottom: "LFCN_1_3x5"
  bottom: "LFCN_1_5x7"
  bottom: "LFCN_2_3x5"
  bottom: "LFCN_2_5x7"
  bottom: "LFCN_3_3x5"
  bottom: "LFCN_3_5x7"
  bottom: "LFCN_4_3x5"
  top: "proposals"
  propagate_down: false
  propagate_down: false
  propagate_down: false
  propagate_down: false
  propagate_down: false
  propagate_down: false
  propagate_down: false
  box_output_param {
    fg_thr: -10
    iou_thr: 0.65
    nms_type: "IOU"
    field_h: 60
    field_h: 84
    field_h: 120
    field_h: 168
    field_h: 240
    field_h: 336
    field_h: 480
    field_w: 30
    field_w: 42
    field_w: 60
    field_w: 84
    field_w: 120
    field_w: 168
    field_w: 240
    downsample_rate: 8
    downsample_rate: 8
    downsample_rate: 16
    downsample_rate: 16
    downsample_rate: 32
    downsample_rate: 32
    downsample_rate: 64
    field_whr: 2
    field_xyr: 2
    max_nms_num: 3000
  }
}
layer {
  name: "proposal_info"
  type: "ProposalTarget"
  bottom: "proposals"
  bottom: "gt_boxes"
  top: "rois"
  top: "proposal_labels"
  top: "proposal_targets"
  top: "box_inside_weights"
  top: "box_outside_weights"
  top: "match_gt_boxes"
  include {
    phase: TRAIN
  }
  propagate_down: false
  propagate_down: false
  proposal_target_param {
    cls_num: 2
    batch_size: 128
    fg_fraction: 0.25
    num_img_per_batch: 4
    fg_thr: 0.45
    bg_thr_hg: 0.44
    bg_thr_lw: 0.05
    img_width: 576
    img_height: 576
    bbox_mean: 0
    bbox_mean: 0
    bbox_mean: 0
    bbox_mean: 0
    bbox_std: 0.1
    bbox_std: 0.1
    bbox_std: 0.2
    bbox_std: 0.2
  }
}
layer {
  name: "roi_pool_org"
  type: "ROIPooling"
  bottom: "conv4_3"
  bottom: "rois"
  top: "roi_pool_org"
  roi_pooling_param {
    pooled_h: 8
    pooled_w: 4
    spatial_scale: 0.125
    pad_ratio: 0
  }
}
layer {
  name: "roi_pool_ctx"
  type: "ROIPooling"
  bottom: "conv4_3"
  bottom: "rois"
  top: "roi_pool_ctx"
  roi_pooling_param {
    pooled_h: 8
    pooled_w: 4
    spatial_scale: 0.125
    pad_ratio: 0.25
  }
}
layer {
  name: "roi_pool"
  type: "Concat"
  bottom: "roi_pool_org"
  bottom: "roi_pool_ctx"
  top: "roi_pool"
}
layer {
  name: "roi_c1"
  type: "Convolution"
  bottom: "roi_pool"
  top: "roi_c1"
  param {
    lr_mult: 1
    decay_mult: 1
  }
  param {
    lr_mult: 2
    decay_mult: 0
  }
  convolution_param {
    num_output: 512
    pad: 1
    kernel_size: 3
    weight_filler {
      type: "gaussian"
      std: 0.01
    }
    bias_filler {
      type: "constant"
    }
  }
}
layer {
  name: "roi_c1_relu"
  type: "ReLU"
  bottom: "roi_c1"
  top: "roi_c1"
}
layer {
  name: "fc6"
  type: "InnerProduct"
  bottom: "roi_c1"
  top: "fc6"
  param {
    lr_mult: 1
  }
  param {
    lr_mult: 2
  }
  inner_product_param {
    num_output: 2048
    weight_filler {
      type: "gaussian"
      std: 0.001
    }
    bias_filler {
      type: "constant"
      value: 0
    }
  }
}
layer {
  name: "relu6"
  type: "ReLU"
  bottom: "fc6"
  top: "fc6"
}
layer {
  name: "drop6"
  type: "Dropout"
  bottom: "fc6"
  top: "fc6"
  dropout_param {
    dropout_ratio: 0.5
  }
}
layer {
  name: "cls_pred"
  type: "InnerProduct"
  bottom: "fc6"
  top: "cls_pred"
  param {
    lr_mult: 1
  }
  param {
    lr_mult: 2
  }
  inner_product_param {
    num_output: 2
    weight_filler {
      type: "gaussian"
      std: 0.01
    }
    bias_filler {
      type: "constant"
      value: 0
    }
  }
}
layer {
  name: "bbox_pred"
  type: "InnerProduct"
  bottom: "fc6"
  top: "bbox_pred"
  param {
    lr_mult: 1
  }
  param {
    lr_mult: 2
  }
  inner_product_param {
    num_output: 8
    weight_filler {
      type: "gaussian"
      std: 0.001
    }
    bias_filler {
      type: "constant"
      value: 0
    }
  }
}
layer {
  name: "loss_cls"
  type: "SoftmaxWithLoss"
  bottom: "cls_pred"
  bottom: "proposal_labels"
  top: "loss_cls"
  loss_weight: 1
  propagate_down: true
  propagate_down: false
}
layer {
  name: "cls_accuracy"
  type: "Accuracy"
  bottom: "cls_pred"
  bottom: "proposal_labels"
  top: "cls_accuracy"
}
layer {
  name: "loss_bbox"
  type: "SmoothL1Loss"
  bottom: "bbox_pred"
  bottom: "proposal_targets"
  bottom: "box_inside_weights"
  bottom: "box_outside_weights"
  top: "loss_bbox"
  loss_weight: 1
}
layer {
  name: "bbox_iou"
  type: "BboxAccuracy"
  bottom: "bbox_pred"
  bottom: "rois"
  bottom: "match_gt_boxes"
  top: "bbox_iou"
  top: "bbox_iou_pre"
  bbox_accuracy_param {
    bbox_mean: 0
    bbox_mean: 0
    bbox_mean: 0
    bbox_mean: 0
    bbox_std: 0.1
    bbox_std: 0.1
    bbox_std: 0.2
    bbox_std: 0.2
  }
}
I0208 03:34:38.125358  1052 layer_factory.hpp:76] Creating layer data
I0208 03:34:38.125412  1052 net.cpp:106] Creating Layer data
I0208 03:34:38.125422  1052 net.cpp:411] data -> data
…
I0208 03:34:38.226476  1052 image_gt_data_layer.cpp:234] output label size 2 : 4,6,36,36
I0208 03:34:38.226526  1052 image_gt_data_layer.cpp:234] output label size 3 : 4,6,36,36
I0208 03:34:38.226575  1052 image_gt_data_layer.cpp:234] output label size 4 : 4,6,18,18
I0208 03:34:38.226622  1052 image_gt_data_layer.cpp:234] output label size 5 : 4,6,18,18
I0208 03:34:38.226668  1052 image_gt_data_layer.cpp:234] output label size 6 : 4,6,9,9
I0208 03:34:38.226714  1052 image_gt_data_layer.cpp:249] output gt boxes size: 1,7,1,1
I0208 03:34:38.263615  1052 net.cpp:150] Setting up data
I0208 03:34:38.263661  1052 net.cpp:157] Top shape: 4 3 576 576 (3981312)
I0208 03:34:38.263667  1052 net.cpp:157] Top shape: 4 6 72 72 (124416)
I0208 03:34:38.263671  1052 net.cpp:157] Top shape: 4 6 72 72 (124416)
I0208 03:34:38.263675  1052 net.cpp:157] Top shape: 4 6 36 36 (31104)
I0208 03:34:38.263679  1052 net.cpp:157] Top shape: 4 6 36 36 (31104)
I0208 03:34:38.263684  1052 net.cpp:157] Top shape: 4 6 18 18 (7776)
I0208 03:34:38.263687  1052 net.cpp:157] Top shape: 4 6 18 18 (7776)
I0208 03:34:38.263691  1052 net.cpp:157] Top shape: 4 6 9 9 (1944)
I0208 03:34:38.263696  1052 net.cpp:157] Top shape: 1 7 1 1 (7)
I0208 03:34:38.263700  1052 net.cpp:165] Memory required for data: 17239420
I0208 03:34:38.263711  1052 layer_factory.hpp:76] Creating layer label_1_3x5_data_1_split
I0208 03:34:38.263732  1052 net.cpp:106] Creating Layer label_1_3x5_data_1_split
I0208 03:34:38.263741  1052 net.cpp:454] label_1_3x5_data_1_split <- label_1_3x5
I0208 03:34:38.263759  1052 net.cpp:411] label_1_3x5_data_1_split -> label_1_3x5_data_1_split_0
I0208 03:34:38.263773  1052 net.cpp:411] label_1_3x5_data_1_split -> label_1_3x5_data_1_split_1
I0208 03:34:38.263850  1052 net.cpp:150] Setting up label_1_3x5_data_1_split
I0208 03:34:38.263859  1052 net.cpp:157] Top shape: 4 6 72 72 (124416)
I0208 03:34:38.263862  1052 net.cpp:157] Top shape: 4 6 72 72 (124416)
I0208 03:34:38.263865  1052 net.cpp:165] Memory required for data: 18234748
I0208 03:34:38.263869  1052 layer_factory.hpp:76] Creating layer label_1_5x7_data_2_split
I0208 03:34:38.263875  1052 net.cpp:106] Creating Layer label_1_5x7_data_2_split
I0208 03:34:38.263878  1052 net.cpp:454] label_1_5x7_data_2_split <- label_1_5x7
I0208 03:34:38.263883  1052 net.cpp:411] label_1_5x7_data_2_split -> label_1_5x7_data_2_split_0
I0208 03:34:38.263890  1052 net.cpp:411] label_1_5x7_data_2_split -> label_1_5x7_data_2_split_1
I0208 03:34:38.263981  1052 net.cpp:150] Setting up label_1_5x7_data_2_split
I0208 03:34:38.263991  1052 net.cpp:157] Top shape: 4 6 72 72 (124416)
I0208 03:34:38.263995  1052 net.cpp:157] Top shape: 4 6 72 72 (124416)
I0208 03:34:38.263998  1052 net.cpp:165] Memory required for data: 19230076
I0208 03:34:38.264001  1052 layer_factory.hpp:76] Creating layer label_2_3x5_data_3_split
I0208 03:34:38.264006  1052 net.cpp:106] Creating Layer label_2_3x5_data_3_split
I0208 03:34:38.264010  1052 net.cpp:454] label_2_3x5_data_3_split <- label_2_3x5
I0208 03:34:38.264017  1052 net.cpp:411] label_2_3x5_data_3_split -> label_2_3x5_data_3_split_0
I0208 03:34:38.264022  1052 net.cpp:411] label_2_3x5_data_3_split -> label_2_3x5_data_3_split_1
I0208 03:34:38.264098  1052 net.cpp:150] Setting up label_2_3x5_data_3_split
I0208 03:34:38.264106  1052 net.cpp:157] Top shape: 4 6 36 36 (31104)
I0208 03:34:38.264111  1052 net.cpp:157] Top shape: 4 6 36 36 (31104)
I0208 03:34:38.264113  1052 net.cpp:165] Memory required for data: 19478908
I0208 03:34:38.264117  1052 layer_factory.hpp:76] Creating layer label_2_5x7_data_4_split
I0208 03:34:38.264123  1052 net.cpp:106] Creating Layer label_2_5x7_data_4_split
I0208 03:34:38.264127  1052 net.cpp:454] label_2_5x7_data_4_split <- label_2_5x7
I0208 03:34:38.264133  1052 net.cpp:411] label_2_5x7_data_4_split -> label_2_5x7_data_4_split_0
I0208 03:34:38.264139  1052 net.cpp:411] label_2_5x7_data_4_split -> label_2_5x7_data_4_split_1
I0208 03:34:38.264176  1052 net.cpp:150] Setting up label_2_5x7_data_4_split
I0208 03:34:38.264183  1052 net.cpp:157] Top shape: 4 6 36 36 (31104)
I0208 03:34:38.264186  1052 net.cpp:157] Top shape: 4 6 36 36 (31104)
I0208 03:34:38.264189  1052 net.cpp:165] Memory required for data: 19727740
I0208 03:34:38.264191  1052 layer_factory.hpp:76] Creating layer label_3_3x5_data_5_split
I0208 03:34:38.264196  1052 net.cpp:106] Creating Layer label_3_3x5_data_5_split
I0208 03:34:38.264199  1052 net.cpp:454] label_3_3x5_data_5_split <- label_3_3x5
I0208 03:34:38.264204  1052 net.cpp:411] label_3_3x5_data_5_split -> label_3_3x5_data_5_split_0
I0208 03:34:38.264210  1052 net.cpp:411] label_3_3x5_data_5_split -> label_3_3x5_data_5_split_1
I0208 03:34:38.264240  1052 net.cpp:150] Setting up label_3_3x5_data_5_split
I0208 03:34:38.264245  1052 net.cpp:157] Top shape: 4 6 18 18 (7776)
I0208 03:34:38.264250  1052 net.cpp:157] Top shape: 4 6 18 18 (7776)
I0208 03:34:38.264251  1052 net.cpp:165] Memory required for data: 19789948
I0208 03:34:38.264255  1052 layer_factory.hpp:76] Creating layer label_3_5x7_data_6_split
I0208 03:34:38.264261  1052 net.cpp:106] Creating Layer label_3_5x7_data_6_split
I0208 03:34:38.264264  1052 net.cpp:454] label_3_5x7_data_6_split <- label_3_5x7
I0208 03:34:38.264268  1052 net.cpp:411] label_3_5x7_data_6_split -> label_3_5x7_data_6_split_0
I0208 03:34:38.264273  1052 net.cpp:411] label_3_5x7_data_6_split -> label_3_5x7_data_6_split_1
I0208 03:34:38.264302  1052 net.cpp:150] Setting up label_3_5x7_data_6_split
I0208 03:34:38.264307  1052 net.cpp:157] Top shape: 4 6 18 18 (7776)
I0208 03:34:38.264312  1052 net.cpp:157] Top shape: 4 6 18 18 (7776)
I0208 03:34:38.264313  1052 net.cpp:165] Memory required for data: 19852156
I0208 03:34:38.264317  1052 layer_factory.hpp:76] Creating layer label_4_3x5_data_7_split
I0208 03:34:38.264320  1052 net.cpp:106] Creating Layer label_4_3x5_data_7_split
I0208 03:34:38.264323  1052 net.cpp:454] label_4_3x5_data_7_split <- label_4_3x5
I0208 03:34:38.264328  1052 net.cpp:411] label_4_3x5_data_7_split -> label_4_3x5_data_7_split_0
I0208 03:34:38.264333  1052 net.cpp:411] label_4_3x5_data_7_split -> label_4_3x5_data_7_split_1
I0208 03:34:38.264365  1052 net.cpp:150] Setting up label_4_3x5_data_7_split
I0208 03:34:38.264370  1052 net.cpp:157] Top shape: 4 6 9 9 (1944)
I0208 03:34:38.264374  1052 net.cpp:157] Top shape: 4 6 9 9 (1944)
I0208 03:34:38.264376  1052 net.cpp:165] Memory required for data: 19867708
I0208 03:34:38.264379  1052 layer_factory.hpp:76] Creating layer conv1_1
I0208 03:34:38.264394  1052 net.cpp:106] Creating Layer conv1_1
I0208 03:34:38.264396  1052 net.cpp:454] conv1_1 <- data
I0208 03:34:38.264401  1052 net.cpp:411] conv1_1 -> conv1_1
I0208 03:34:38.394388  1052 net.cpp:150] Setting up conv1_1
I0208 03:34:38.394431  1052 net.cpp:157] Top shape: 4 64 576 576 (84934656)
I0208 03:34:38.394435  1052 net.cpp:165] Memory required for data: 359606332
I0208 03:34:38.394461  1052 layer_factory.hpp:76] Creating layer relu1_1
I0208 03:34:38.394476  1052 net.cpp:106] Creating Layer relu1_1
I0208 03:34:38.394481  1052 net.cpp:454] relu1_1 <- conv1_1
I0208 03:34:38.394489  1052 net.cpp:397] relu1_1 -> conv1_1 (in-place)
I0208 03:34:38.394691  1052 net.cpp:150] Setting up relu1_1
I0208 03:34:38.394704  1052 net.cpp:157] Top shape: 4 64 576 576 (84934656)
I0208 03:34:38.394708  1052 net.cpp:165] Memory required for data: 699344956
I0208 03:34:38.394711  1052 layer_factory.hpp:76] Creating layer conv1_2
I0208 03:34:38.394723  1052 net.cpp:106] Creating Layer conv1_2
I0208 03:34:38.394726  1052 net.cpp:454] conv1_2 <- conv1_1
I0208 03:34:38.394733  1052 net.cpp:411] conv1_2 -> conv1_2
I0208 03:34:38.396771  1052 net.cpp:150] Setting up conv1_2
I0208 03:34:38.396790  1052 net.cpp:157] Top shape: 4 64 576 576 (84934656)
I0208 03:34:38.396792  1052 net.cpp:165] Memory required for data: 1039083580
I0208 03:34:38.396803  1052 layer_factory.hpp:76] Creating layer relu1_2
I0208 03:34:38.396811  1052 net.cpp:106] Creating Layer relu1_2
I0208 03:34:38.396816  1052 net.cpp:454] relu1_2 <- conv1_2
I0208 03:34:38.396821  1052 net.cpp:397] relu1_2 -> conv1_2 (in-place)
I0208 03:34:38.397145  1052 net.cpp:150] Setting up relu1_2
I0208 03:34:38.397161  1052 net.cpp:157] Top shape: 4 64 576 576 (84934656)
I0208 03:34:38.397163  1052 net.cpp:165] Memory required for data: 1378822204
I0208 03:34:38.397167  1052 layer_factory.hpp:76] Creating layer pool1
I0208 03:34:38.397176  1052 net.cpp:106] Creating Layer pool1
I0208 03:34:38.397181  1052 net.cpp:454] pool1 <- conv1_2
I0208 03:34:38.397186  1052 net.cpp:411] pool1 -> pool1
I0208 03:34:38.397408  1052 net.cpp:150] Setting up pool1
I0208 03:34:38.397421  1052 net.cpp:157] Top shape: 4 64 288 288 (21233664)
I0208 03:34:38.397424  1052 net.cpp:165] Memory required for data: 1463756860
I0208 03:34:38.397428  1052 layer_factory.hpp:76] Creating layer conv2_1
I0208 03:34:38.397436  1052 net.cpp:106] Creating Layer conv2_1
I0208 03:34:38.397440  1052 net.cpp:454] conv2_1 <- pool1
I0208 03:34:38.397446  1052 net.cpp:411] conv2_1 -> conv2_1
I0208 03:34:38.399158  1052 net.cpp:150] Setting up conv2_1
I0208 03:34:38.399175  1052 net.cpp:157] Top shape: 4 128 288 288 (42467328)
I0208 03:34:38.399179  1052 net.cpp:165] Memory required for data: 1633626172
I0208 03:34:38.399189  1052 layer_factory.hpp:76] Creating layer relu2_1
I0208 03:34:38.399195  1052 net.cpp:106] Creating Layer relu2_1
I0208 03:34:38.399199  1052 net.cpp:454] relu2_1 <- conv2_1
I0208 03:34:38.399204  1052 net.cpp:397] relu2_1 -> conv2_1 (in-place)
I0208 03:34:38.399521  1052 net.cpp:150] Setting up relu2_1
I0208 03:34:38.399538  1052 net.cpp:157] Top shape: 4 128 288 288 (42467328)
I0208 03:34:38.399540  1052 net.cpp:165] Memory required for data: 1803495484
I0208 03:34:38.399544  1052 layer_factory.hpp:76] Creating layer conv2_2
I0208 03:34:38.399554  1052 net.cpp:106] Creating Layer conv2_2
I0208 03:34:38.399556  1052 net.cpp:454] conv2_2 <- conv2_1
I0208 03:34:38.399562  1052 net.cpp:411] conv2_2 -> conv2_2
I0208 03:34:38.401238  1052 net.cpp:150] Setting up conv2_2
I0208 03:34:38.401257  1052 net.cpp:157] Top shape: 4 128 288 288 (42467328)
I0208 03:34:38.401259  1052 net.cpp:165] Memory required for data: 1973364796
I0208 03:34:38.401268  1052 layer_factory.hpp:76] Creating layer relu2_2
I0208 03:34:38.401276  1052 net.cpp:106] Creating Layer relu2_2
I0208 03:34:38.401281  1052 net.cpp:454] relu2_2 <- conv2_2
I0208 03:34:38.401288  1052 net.cpp:397] relu2_2 -> conv2_2 (in-place)
I0208 03:34:38.401613  1052 net.cpp:150] Setting up relu2_2
I0208 03:34:38.401628  1052 net.cpp:157] Top shape: 4 128 288 288 (42467328)
I0208 03:34:38.401633  1052 net.cpp:165] Memory required for data: 2143234108
I0208 03:34:38.401635  1052 layer_factory.hpp:76] Creating layer pool2
I0208 03:34:38.401643  1052 net.cpp:106] Creating Layer pool2
I0208 03:34:38.401648  1052 net.cpp:454] pool2 <- conv2_2
I0208 03:34:38.401654  1052 net.cpp:411] pool2 -> pool2
I0208 03:34:38.401898  1052 net.cpp:150] Setting up pool2
I0208 03:34:38.401911  1052 net.cpp:157] Top shape: 4 128 144 144 (10616832)
I0208 03:34:38.401916  1052 net.cpp:165] Memory required for data: 2185701436
I0208 03:34:38.401918  1052 layer_factory.hpp:76] Creating layer conv3_1
I0208 03:34:38.401928  1052 net.cpp:106] Creating Layer conv3_1
I0208 03:34:38.401934  1052 net.cpp:454] conv3_1 <- pool2
I0208 03:34:38.401940  1052 net.cpp:411] conv3_1 -> conv3_1
I0208 03:34:38.403946  1052 net.cpp:150] Setting up conv3_1
I0208 03:34:38.403962  1052 net.cpp:157] Top shape: 4 256 144 144 (21233664)
I0208 03:34:38.403966  1052 net.cpp:165] Memory required for data: 2270636092
I0208 03:34:38.403977  1052 layer_factory.hpp:76] Creating layer relu3_1
I0208 03:34:38.403985  1052 net.cpp:106] Creating Layer relu3_1
I0208 03:34:38.403990  1052 net.cpp:454] relu3_1 <- conv3_1
I0208 03:34:38.403996  1052 net.cpp:397] relu3_1 -> conv3_1 (in-place)
I0208 03:34:38.404350  1052 net.cpp:150] Setting up relu3_1
I0208 03:34:38.404364  1052 net.cpp:157] Top shape: 4 256 144 144 (21233664)
I0208 03:34:38.404368  1052 net.cpp:165] Memory required for data: 2355570748
I0208 03:34:38.404371  1052 layer_factory.hpp:76] Creating layer conv3_2
I0208 03:34:38.404381  1052 net.cpp:106] Creating Layer conv3_2
I0208 03:34:38.404386  1052 net.cpp:454] conv3_2 <- conv3_1
I0208 03:34:38.404392  1052 net.cpp:411] conv3_2 -> conv3_2
I0208 03:34:38.407951  1052 net.cpp:150] Setting up conv3_2
I0208 03:34:38.407970  1052 net.cpp:157] Top shape: 4 256 144 144 (21233664)
I0208 03:34:38.407975  1052 net.cpp:165] Memory required for data: 2440505404
I0208 03:34:38.407986  1052 layer_factory.hpp:76] Creating layer relu3_2
I0208 03:34:38.407995  1052 net.cpp:106] Creating Layer relu3_2
I0208 03:34:38.408001  1052 net.cpp:454] relu3_2 <- conv3_2
I0208 03:34:38.408012  1052 net.cpp:397] relu3_2 -> conv3_2 (in-place)
I0208 03:34:38.408284  1052 net.cpp:150] Setting up relu3_2
I0208 03:34:38.408301  1052 net.cpp:157] Top shape: 4 256 144 144 (21233664)
I0208 03:34:38.408306  1052 net.cpp:165] Memory required for data: 2525440060
I0208 03:34:38.408313  1052 layer_factory.hpp:76] Creating layer conv3_3
I0208 03:34:38.408324  1052 net.cpp:106] Creating Layer conv3_3
I0208 03:34:38.408329  1052 net.cpp:454] conv3_3 <- conv3_2
I0208 03:34:38.408341  1052 net.cpp:411] conv3_3 -> conv3_3
I0208 03:34:38.411069  1052 net.cpp:150] Setting up conv3_3
I0208 03:34:38.411087  1052 net.cpp:157] Top shape: 4 256 144 144 (21233664)
I0208 03:34:38.411090  1052 net.cpp:165] Memory required for data: 2610374716
I0208 03:34:38.411098  1052 layer_factory.hpp:76] Creating layer relu3_3
I0208 03:34:38.411109  1052 net.cpp:106] Creating Layer relu3_3
I0208 03:34:38.411114  1052 net.cpp:454] relu3_3 <- conv3_3
I0208 03:34:38.411120  1052 net.cpp:397] relu3_3 -> conv3_3 (in-place)
I0208 03:34:38.411312  1052 net.cpp:150] Setting up relu3_3
I0208 03:34:38.411325  1052 net.cpp:157] Top shape: 4 256 144 144 (21233664)
I0208 03:34:38.411329  1052 net.cpp:165] Memory required for data: 2695309372
I0208 03:34:38.411332  1052 layer_factory.hpp:76] Creating layer pool3
I0208 03:34:38.411339  1052 net.cpp:106] Creating Layer pool3
I0208 03:34:38.411342  1052 net.cpp:454] pool3 <- conv3_3
I0208 03:34:38.411350  1052 net.cpp:411] pool3 -> pool3
I0208 03:34:38.411720  1052 net.cpp:150] Setting up pool3
I0208 03:34:38.411737  1052 net.cpp:157] Top shape: 4 256 72 72 (5308416)
I0208 03:34:38.411741  1052 net.cpp:165] Memory required for data: 2716543036
I0208 03:34:38.411744  1052 layer_factory.hpp:76] Creating layer conv4_1
I0208 03:34:38.411754  1052 net.cpp:106] Creating Layer conv4_1
I0208 03:34:38.411757  1052 net.cpp:454] conv4_1 <- pool3
I0208 03:34:38.411764  1052 net.cpp:411] conv4_1 -> conv4_1
I0208 03:34:38.416405  1052 net.cpp:150] Setting up conv4_1
I0208 03:34:38.416424  1052 net.cpp:157] Top shape: 4 512 72 72 (10616832)
I0208 03:34:38.416426  1052 net.cpp:165] Memory required for data: 2759010364
I0208 03:34:38.416435  1052 layer_factory.hpp:76] Creating layer relu4_1
I0208 03:34:38.416443  1052 net.cpp:106] Creating Layer relu4_1
I0208 03:34:38.416447  1052 net.cpp:454] relu4_1 <- conv4_1
I0208 03:34:38.416453  1052 net.cpp:397] relu4_1 -> conv4_1 (in-place)
I0208 03:34:38.416645  1052 net.cpp:150] Setting up relu4_1
I0208 03:34:38.416656  1052 net.cpp:157] Top shape: 4 512 72 72 (10616832)
I0208 03:34:38.416659  1052 net.cpp:165] Memory required for data: 2801477692
I0208 03:34:38.416663  1052 layer_factory.hpp:76] Creating layer conv4_2
I0208 03:34:38.416672  1052 net.cpp:106] Creating Layer conv4_2
I0208 03:34:38.416676  1052 net.cpp:454] conv4_2 <- conv4_1
I0208 03:34:38.416682  1052 net.cpp:411] conv4_2 -> conv4_2
I0208 03:34:38.423492  1052 net.cpp:150] Setting up conv4_2
I0208 03:34:38.423511  1052 net.cpp:157] Top shape: 4 512 72 72 (10616832)
I0208 03:34:38.423514  1052 net.cpp:165] Memory required for data: 2843945020
I0208 03:34:38.423529  1052 layer_factory.hpp:76] Creating layer relu4_2
I0208 03:34:38.423537  1052 net.cpp:106] Creating Layer relu4_2
I0208 03:34:38.423540  1052 net.cpp:454] relu4_2 <- conv4_2
I0208 03:34:38.423547  1052 net.cpp:397] relu4_2 -> conv4_2 (in-place)
I0208 03:34:38.423899  1052 net.cpp:150] Setting up relu4_2
I0208 03:34:38.423916  1052 net.cpp:157] Top shape: 4 512 72 72 (10616832)
I0208 03:34:38.423919  1052 net.cpp:165] Memory required for data: 2886412348
I0208 03:34:38.423923  1052 layer_factory.hpp:76] Creating layer conv4_3
I0208 03:34:38.423931  1052 net.cpp:106] Creating Layer conv4_3
I0208 03:34:38.423934  1052 net.cpp:454] conv4_3 <- conv4_2
I0208 03:34:38.423943  1052 net.cpp:411] conv4_3 -> conv4_3
I0208 03:34:38.430711  1052 net.cpp:150] Setting up conv4_3
I0208 03:34:38.430730  1052 net.cpp:157] Top shape: 4 512 72 72 (10616832)
I0208 03:34:38.430734  1052 net.cpp:165] Memory required for data: 2928879676
I0208 03:34:38.430742  1052 layer_factory.hpp:76] Creating layer relu4_3
I0208 03:34:38.430748  1052 net.cpp:106] Creating Layer relu4_3
I0208 03:34:38.430752  1052 net.cpp:454] relu4_3 <- conv4_3
I0208 03:34:38.430760  1052 net.cpp:397] relu4_3 -> conv4_3 (in-place)
I0208 03:34:38.431107  1052 net.cpp:150] Setting up relu4_3
I0208 03:34:38.431121  1052 net.cpp:157] Top shape: 4 512 72 72 (10616832)
I0208 03:34:38.431124  1052 net.cpp:165] Memory required for data: 2971347004
I0208 03:34:38.431128  1052 layer_factory.hpp:76] Creating layer conv4_3_relu4_3_0_split
I0208 03:34:38.431136  1052 net.cpp:106] Creating Layer conv4_3_relu4_3_0_split
I0208 03:34:38.431139  1052 net.cpp:454] conv4_3_relu4_3_0_split <- conv4_3
I0208 03:34:38.431147  1052 net.cpp:411] conv4_3_relu4_3_0_split -> conv4_3_relu4_3_0_split_0
I0208 03:34:38.431155  1052 net.cpp:411] conv4_3_relu4_3_0_split -> conv4_3_relu4_3_0_split_1
I0208 03:34:38.431161  1052 net.cpp:411] conv4_3_relu4_3_0_split -> conv4_3_relu4_3_0_split_2
I0208 03:34:38.431169  1052 net.cpp:411] conv4_3_relu4_3_0_split -> conv4_3_relu4_3_0_split_3
I0208 03:34:38.431246  1052 net.cpp:150] Setting up conv4_3_relu4_3_0_split
I0208 03:34:38.431252  1052 net.cpp:157] Top shape: 4 512 72 72 (10616832)
I0208 03:34:38.431257  1052 net.cpp:157] Top shape: 4 512 72 72 (10616832)
I0208 03:34:38.431259  1052 net.cpp:157] Top shape: 4 512 72 72 (10616832)
I0208 03:34:38.431263  1052 net.cpp:157] Top shape: 4 512 72 72 (10616832)
I0208 03:34:38.431265  1052 net.cpp:165] Memory required for data: 3141216316
I0208 03:34:38.431269  1052 layer_factory.hpp:76] Creating layer loss1_conv1
I0208 03:34:38.431284  1052 net.cpp:106] Creating Layer loss1_conv1
I0208 03:34:38.431288  1052 net.cpp:454] loss1_conv1 <- conv4_3_relu4_3_0_split_0
I0208 03:34:38.431296  1052 net.cpp:411] loss1_conv1 -> loss1_conv1
I0208 03:34:38.520313  1052 net.cpp:150] Setting up loss1_conv1
I0208 03:34:38.520342  1052 net.cpp:157] Top shape: 4 512 72 72 (10616832)
I0208 03:34:38.520345  1052 net.cpp:165] Memory required for data: 3183683644
I0208 03:34:38.520355  1052 layer_factory.hpp:76] Creating layer loss_relu1
I0208 03:34:38.520366  1052 net.cpp:106] Creating Layer loss_relu1
I0208 03:34:38.520372  1052 net.cpp:454] loss_relu1 <- loss1_conv1
I0208 03:34:38.520380  1052 net.cpp:397] loss_relu1 -> loss1_conv1 (in-place)
I0208 03:34:38.520588  1052 net.cpp:150] Setting up loss_relu1
I0208 03:34:38.520601  1052 net.cpp:157] Top shape: 4 512 72 72 (10616832)
I0208 03:34:38.520604  1052 net.cpp:165] Memory required for data: 3226150972
I0208 03:34:38.520607  1052 layer_factory.hpp:76] Creating layer loss1_conv1_loss_relu1_0_split
I0208 03:34:38.520617  1052 net.cpp:106] Creating Layer loss1_conv1_loss_relu1_0_split
I0208 03:34:38.520620  1052 net.cpp:454] loss1_conv1_loss_relu1_0_split <- loss1_conv1
I0208 03:34:38.520627  1052 net.cpp:411] loss1_conv1_loss_relu1_0_split -> loss1_conv1_loss_relu1_0_split_0
I0208 03:34:38.520634  1052 net.cpp:411] loss1_conv1_loss_relu1_0_split -> loss1_conv1_loss_relu1_0_split_1
I0208 03:34:38.520683  1052 net.cpp:150] Setting up loss1_conv1_loss_relu1_0_split
I0208 03:34:38.520689  1052 net.cpp:157] Top shape: 4 512 72 72 (10616832)
I0208 03:34:38.520692  1052 net.cpp:157] Top shape: 4 512 72 72 (10616832)
I0208 03:34:38.520695  1052 net.cpp:165] Memory required for data: 3311085628
I0208 03:34:38.520699  1052 layer_factory.hpp:76] Creating layer LFCN_1_3x5
I0208 03:34:38.520709  1052 net.cpp:106] Creating Layer LFCN_1_3x5
I0208 03:34:38.520712  1052 net.cpp:454] LFCN_1_3x5 <- loss1_conv1_loss_relu1_0_split_0
I0208 03:34:38.520720  1052 net.cpp:411] LFCN_1_3x5 -> LFCN_1_3x5
I0208 03:34:38.523733  1052 net.cpp:150] Setting up LFCN_1_3x5
I0208 03:34:38.523751  1052 net.cpp:157] Top shape: 4 6 72 72 (124416)
I0208 03:34:38.523754  1052 net.cpp:165] Memory required for data: 3311583292
I0208 03:34:38.523761  1052 layer_factory.hpp:76] Creating layer LFCN_1_3x5_LFCN_1_3x5_0_split
I0208 03:34:38.523769  1052 net.cpp:106] Creating Layer LFCN_1_3x5_LFCN_1_3x5_0_split
I0208 03:34:38.523773  1052 net.cpp:454] LFCN_1_3x5_LFCN_1_3x5_0_split <- LFCN_1_3x5
I0208 03:34:38.523782  1052 net.cpp:411] LFCN_1_3x5_LFCN_1_3x5_0_split -> LFCN_1_3x5_LFCN_1_3x5_0_split_0
I0208 03:34:38.523789  1052 net.cpp:411] LFCN_1_3x5_LFCN_1_3x5_0_split -> LFCN_1_3x5_LFCN_1_3x5_0_split_1
I0208 03:34:38.523795  1052 net.cpp:411] LFCN_1_3x5_LFCN_1_3x5_0_split -> LFCN_1_3x5_LFCN_1_3x5_0_split_2
I0208 03:34:38.523859  1052 net.cpp:150] Setting up LFCN_1_3x5_LFCN_1_3x5_0_split
I0208 03:34:38.523864  1052 net.cpp:157] Top shape: 4 6 72 72 (124416)
I0208 03:34:38.523869  1052 net.cpp:157] Top shape: 4 6 72 72 (124416)
I0208 03:34:38.523871  1052 net.cpp:157] Top shape: 4 6 72 72 (124416)
I0208 03:34:38.523874  1052 net.cpp:165] Memory required for data: 3313076284
I0208 03:34:38.523877  1052 layer_factory.hpp:76] Creating layer detection_loss_1_3x5
I0208 03:34:38.523886  1052 net.cpp:106] Creating Layer detection_loss_1_3x5
I0208 03:34:38.523890  1052 net.cpp:454] detection_loss_1_3x5 <- LFCN_1_3x5_LFCN_1_3x5_0_split_0
I0208 03:34:38.523895  1052 net.cpp:454] detection_loss_1_3x5 <- label_1_3x5_data_1_split_0
I0208 03:34:38.523902  1052 net.cpp:411] detection_loss_1_3x5 -> loss_1_3x5
I0208 03:34:38.523917  1052 layer_factory.hpp:76] Creating layer detection_loss_1_3x5
I0208 03:34:38.524518  1052 net.cpp:150] Setting up detection_loss_1_3x5
I0208 03:34:38.524534  1052 net.cpp:157] Top shape: 1 1 1 2 (2)
I0208 03:34:38.524538  1052 net.cpp:160]     with loss weight 0.9
I0208 03:34:38.524561  1052 net.cpp:165] Memory required for data: 3313076292
I0208 03:34:38.524565  1052 layer_factory.hpp:76] Creating layer detection_accuracy_1_3x5
I0208 03:34:38.524574  1052 net.cpp:106] Creating Layer detection_accuracy_1_3x5
I0208 03:34:38.524577  1052 net.cpp:454] detection_accuracy_1_3x5 <- LFCN_1_3x5_LFCN_1_3x5_0_split_1
I0208 03:34:38.524583  1052 net.cpp:454] detection_accuracy_1_3x5 <- label_1_3x5_data_1_split_1
I0208 03:34:38.524591  1052 net.cpp:411] detection_accuracy_1_3x5 -> accuracy_1_3x5
I0208 03:34:38.524601  1052 net.cpp:411] detection_accuracy_1_3x5 -> boxiou_1_3x5
I0208 03:34:38.524648  1052 net.cpp:150] Setting up detection_accuracy_1_3x5
I0208 03:34:38.524654  1052 net.cpp:157] Top shape: 1 1 1 2 (2)
I0208 03:34:38.524658  1052 net.cpp:157] Top shape: 1 1 1 1 (1)
I0208 03:34:38.524660  1052 net.cpp:165] Memory required for data: 3313076304
I0208 03:34:38.524664  1052 layer_factory.hpp:76] Creating layer LFCN_1_5x7
I0208 03:34:38.524675  1052 net.cpp:106] Creating Layer LFCN_1_5x7
I0208 03:34:38.524679  1052 net.cpp:454] LFCN_1_5x7 <- loss1_conv1_loss_relu1_0_split_1
I0208 03:34:38.524684  1052 net.cpp:411] LFCN_1_5x7 -> LFCN_1_5x7
I0208 03:34:38.530311  1052 net.cpp:150] Setting up LFCN_1_5x7
I0208 03:34:38.530329  1052 net.cpp:157] Top shape: 4 6 72 72 (124416)
I0208 03:34:38.530333  1052 net.cpp:165] Memory required for data: 3313573968
I0208 03:34:38.530340  1052 layer_factory.hpp:76] Creating layer LFCN_1_5x7_LFCN_1_5x7_0_split
I0208 03:34:38.530349  1052 net.cpp:106] Creating Layer LFCN_1_5x7_LFCN_1_5x7_0_split
I0208 03:34:38.530354  1052 net.cpp:454] LFCN_1_5x7_LFCN_1_5x7_0_split <- LFCN_1_5x7
I0208 03:34:38.530359  1052 net.cpp:411] LFCN_1_5x7_LFCN_1_5x7_0_split -> LFCN_1_5x7_LFCN_1_5x7_0_split_0
I0208 03:34:38.530369  1052 net.cpp:411] LFCN_1_5x7_LFCN_1_5x7_0_split -> LFCN_1_5x7_LFCN_1_5x7_0_split_1
I0208 03:34:38.530375  1052 net.cpp:411] LFCN_1_5x7_LFCN_1_5x7_0_split -> LFCN_1_5x7_LFCN_1_5x7_0_split_2
I0208 03:34:38.530437  1052 net.cpp:150] Setting up LFCN_1_5x7_LFCN_1_5x7_0_split
I0208 03:34:38.530444  1052 net.cpp:157] Top shape: 4 6 72 72 (124416)
I0208 03:34:38.530447  1052 net.cpp:157] Top shape: 4 6 72 72 (124416)
I0208 03:34:38.530452  1052 net.cpp:157] Top shape: 4 6 72 72 (124416)
I0208 03:34:38.530453  1052 net.cpp:165] Memory required for data: 3315066960
I0208 03:34:38.530457  1052 layer_factory.hpp:76] Creating layer detection_loss_1_5x7
I0208 03:34:38.530465  1052 net.cpp:106] Creating Layer detection_loss_1_5x7
I0208 03:34:38.530468  1052 net.cpp:454] detection_loss_1_5x7 <- LFCN_1_5x7_LFCN_1_5x7_0_split_0
I0208 03:34:38.530473  1052 net.cpp:454] detection_loss_1_5x7 <- label_1_5x7_data_2_split_0
I0208 03:34:38.530480  1052 net.cpp:411] detection_loss_1_5x7 -> loss_1_5x7
I0208 03:34:38.530488  1052 layer_factory.hpp:76] Creating layer detection_loss_1_5x7
I0208 03:34:38.531049  1052 net.cpp:150] Setting up detection_loss_1_5x7
I0208 03:34:38.531065  1052 net.cpp:157] Top shape: 1 1 1 2 (2)
I0208 03:34:38.531069  1052 net.cpp:160]     with loss weight 0.9
I0208 03:34:38.531076  1052 net.cpp:165] Memory required for data: 3315066968
I0208 03:34:38.531080  1052 layer_factory.hpp:76] Creating layer detection_accuracy_1_5x7
I0208 03:34:38.531087  1052 net.cpp:106] Creating Layer detection_accuracy_1_5x7
I0208 03:34:38.531091  1052 net.cpp:454] detection_accuracy_1_5x7 <- LFCN_1_5x7_LFCN_1_5x7_0_split_1
I0208 03:34:38.531096  1052 net.cpp:454] detection_accuracy_1_5x7 <- label_1_5x7_data_2_split_1
I0208 03:34:38.531107  1052 net.cpp:411] detection_accuracy_1_5x7 -> accuracy_1_5x7
I0208 03:34:38.531116  1052 net.cpp:411] detection_accuracy_1_5x7 -> boxiou_1_5x7
I0208 03:34:38.531160  1052 net.cpp:150] Setting up detection_accuracy_1_5x7
I0208 03:34:38.531167  1052 net.cpp:157] Top shape: 1 1 1 2 (2)
I0208 03:34:38.531170  1052 net.cpp:157] Top shape: 1 1 1 1 (1)
I0208 03:34:38.531173  1052 net.cpp:165] Memory required for data: 3315066980
I0208 03:34:38.531177  1052 layer_factory.hpp:76] Creating layer pool4
I0208 03:34:38.531184  1052 net.cpp:106] Creating Layer pool4
I0208 03:34:38.531188  1052 net.cpp:454] pool4 <- conv4_3_relu4_3_0_split_1
I0208 03:34:38.531195  1052 net.cpp:411] pool4 -> pool4
I0208 03:34:38.531580  1052 net.cpp:150] Setting up pool4
I0208 03:34:38.531595  1052 net.cpp:157] Top shape: 4 512 36 36 (2654208)
I0208 03:34:38.531599  1052 net.cpp:165] Memory required for data: 3325683812
I0208 03:34:38.531602  1052 layer_factory.hpp:76] Creating layer conv5_1
I0208 03:34:38.531615  1052 net.cpp:106] Creating Layer conv5_1
I0208 03:34:38.531620  1052 net.cpp:454] conv5_1 <- pool4
I0208 03:34:38.531625  1052 net.cpp:411] conv5_1 -> conv5_1
I0208 03:34:38.538432  1052 net.cpp:150] Setting up conv5_1
I0208 03:34:38.538453  1052 net.cpp:157] Top shape: 4 512 36 36 (2654208)
I0208 03:34:38.538456  1052 net.cpp:165] Memory required for data: 3336300644
I0208 03:34:38.538465  1052 layer_factory.hpp:76] Creating layer relu5_1
I0208 03:34:38.538475  1052 net.cpp:106] Creating Layer relu5_1
I0208 03:34:38.538478  1052 net.cpp:454] relu5_1 <- conv5_1
I0208 03:34:38.538486  1052 net.cpp:397] relu5_1 -> conv5_1 (in-place)
I0208 03:34:38.538836  1052 net.cpp:150] Setting up relu5_1
I0208 03:34:38.538851  1052 net.cpp:157] Top shape: 4 512 36 36 (2654208)
I0208 03:34:38.538854  1052 net.cpp:165] Memory required for data: 3346917476
I0208 03:34:38.538857  1052 layer_factory.hpp:76] Creating layer conv5_2
I0208 03:34:38.538867  1052 net.cpp:106] Creating Layer conv5_2
I0208 03:34:38.538872  1052 net.cpp:454] conv5_2 <- conv5_1
I0208 03:34:38.538877  1052 net.cpp:411] conv5_2 -> conv5_2
I0208 03:34:38.545820  1052 net.cpp:150] Setting up conv5_2
I0208 03:34:38.545841  1052 net.cpp:157] Top shape: 4 512 36 36 (2654208)
I0208 03:34:38.545845  1052 net.cpp:165] Memory required for data: 3357534308
I0208 03:34:38.545853  1052 layer_factory.hpp:76] Creating layer relu5_2
I0208 03:34:38.545861  1052 net.cpp:106] Creating Layer relu5_2
I0208 03:34:38.545866  1052 net.cpp:454] relu5_2 <- conv5_2
I0208 03:34:38.545871  1052 net.cpp:397] relu5_2 -> conv5_2 (in-place)
I0208 03:34:38.546072  1052 net.cpp:150] Setting up relu5_2
I0208 03:34:38.546084  1052 net.cpp:157] Top shape: 4 512 36 36 (2654208)
I0208 03:34:38.546087  1052 net.cpp:165] Memory required for data: 3368151140
I0208 03:34:38.546090  1052 layer_factory.hpp:76] Creating layer conv5_3
I0208 03:34:38.546099  1052 net.cpp:106] Creating Layer conv5_3
I0208 03:34:38.546103  1052 net.cpp:454] conv5_3 <- conv5_2
I0208 03:34:38.546109  1052 net.cpp:411] conv5_3 -> conv5_3
I0208 03:34:38.553064  1052 net.cpp:150] Setting up conv5_3
I0208 03:34:38.553086  1052 net.cpp:157] Top shape: 4 512 36 36 (2654208)
I0208 03:34:38.553088  1052 net.cpp:165] Memory required for data: 3378767972
I0208 03:34:38.553097  1052 layer_factory.hpp:76] Creating layer relu5_3
I0208 03:34:38.553104  1052 net.cpp:106] Creating Layer relu5_3
I0208 03:34:38.553108  1052 net.cpp:454] relu5_3 <- conv5_3
I0208 03:34:38.553113  1052 net.cpp:397] relu5_3 -> conv5_3 (in-place)
I0208 03:34:38.553467  1052 net.cpp:150] Setting up relu5_3
I0208 03:34:38.553481  1052 net.cpp:157] Top shape: 4 512 36 36 (2654208)
I0208 03:34:38.553484  1052 net.cpp:165] Memory required for data: 3389384804
I0208 03:34:38.553488  1052 layer_factory.hpp:76] Creating layer conv5_3_relu5_3_0_split
I0208 03:34:38.553495  1052 net.cpp:106] Creating Layer conv5_3_relu5_3_0_split
I0208 03:34:38.553498  1052 net.cpp:454] conv5_3_relu5_3_0_split <- conv5_3
I0208 03:34:38.553506  1052 net.cpp:411] conv5_3_relu5_3_0_split -> conv5_3_relu5_3_0_split_0
I0208 03:34:38.553514  1052 net.cpp:411] conv5_3_relu5_3_0_split -> conv5_3_relu5_3_0_split_1
I0208 03:34:38.553520  1052 net.cpp:411] conv5_3_relu5_3_0_split -> conv5_3_relu5_3_0_split_2
I0208 03:34:38.553586  1052 net.cpp:150] Setting up conv5_3_relu5_3_0_split
I0208 03:34:38.553594  1052 net.cpp:157] Top shape: 4 512 36 36 (2654208)
I0208 03:34:38.553598  1052 net.cpp:157] Top shape: 4 512 36 36 (2654208)
I0208 03:34:38.553601  1052 net.cpp:157] Top shape: 4 512 36 36 (2654208)
I0208 03:34:38.553604  1052 net.cpp:165] Memory required for data: 3421235300
I0208 03:34:38.553607  1052 layer_factory.hpp:76] Creating layer LFCN_2_3x5
I0208 03:34:38.553616  1052 net.cpp:106] Creating Layer LFCN_2_3x5
I0208 03:34:38.553618  1052 net.cpp:454] LFCN_2_3x5 <- conv5_3_relu5_3_0_split_0
I0208 03:34:38.553627  1052 net.cpp:411] LFCN_2_3x5 -> LFCN_2_3x5
I0208 03:34:38.556325  1052 net.cpp:150] Setting up LFCN_2_3x5
I0208 03:34:38.556342  1052 net.cpp:157] Top shape: 4 6 36 36 (31104)
I0208 03:34:38.556346  1052 net.cpp:165] Memory required for data: 3421359716
I0208 03:34:38.556365  1052 layer_factory.hpp:76] Creating layer LFCN_2_3x5_LFCN_2_3x5_0_split
I0208 03:34:38.556372  1052 net.cpp:106] Creating Layer LFCN_2_3x5_LFCN_2_3x5_0_split
I0208 03:34:38.556376  1052 net.cpp:454] LFCN_2_3x5_LFCN_2_3x5_0_split <- LFCN_2_3x5
I0208 03:34:38.556382  1052 net.cpp:411] LFCN_2_3x5_LFCN_2_3x5_0_split -> LFCN_2_3x5_LFCN_2_3x5_0_split_0
I0208 03:34:38.556390  1052 net.cpp:411] LFCN_2_3x5_LFCN_2_3x5_0_split -> LFCN_2_3x5_LFCN_2_3x5_0_split_1
I0208 03:34:38.556396  1052 net.cpp:411] LFCN_2_3x5_LFCN_2_3x5_0_split -> LFCN_2_3x5_LFCN_2_3x5_0_split_2
I0208 03:34:38.556460  1052 net.cpp:150] Setting up LFCN_2_3x5_LFCN_2_3x5_0_split
I0208 03:34:38.556466  1052 net.cpp:157] Top shape: 4 6 36 36 (31104)
I0208 03:34:38.556470  1052 net.cpp:157] Top shape: 4 6 36 36 (31104)
I0208 03:34:38.556474  1052 net.cpp:157] Top shape: 4 6 36 36 (31104)
I0208 03:34:38.556476  1052 net.cpp:165] Memory required for data: 3421732964
I0208 03:34:38.556479  1052 layer_factory.hpp:76] Creating layer detection_loss_2_3x5
I0208 03:34:38.556488  1052 net.cpp:106] Creating Layer detection_loss_2_3x5
I0208 03:34:38.556493  1052 net.cpp:454] detection_loss_2_3x5 <- LFCN_2_3x5_LFCN_2_3x5_0_split_0
I0208 03:34:38.556498  1052 net.cpp:454] detection_loss_2_3x5 <- label_2_3x5_data_3_split_0
I0208 03:34:38.556504  1052 net.cpp:411] detection_loss_2_3x5 -> loss_2_3x5
I0208 03:34:38.556512  1052 layer_factory.hpp:76] Creating layer detection_loss_2_3x5
I0208 03:34:38.557078  1052 net.cpp:150] Setting up detection_loss_2_3x5
I0208 03:34:38.557093  1052 net.cpp:157] Top shape: 1 1 1 2 (2)
I0208 03:34:38.557096  1052 net.cpp:160]     with loss weight 1
I0208 03:34:38.557111  1052 net.cpp:165] Memory required for data: 3421732972
I0208 03:34:38.557114  1052 layer_factory.hpp:76] Creating layer detection_accuracy_2_3x5
I0208 03:34:38.557123  1052 net.cpp:106] Creating Layer detection_accuracy_2_3x5
I0208 03:34:38.557127  1052 net.cpp:454] detection_accuracy_2_3x5 <- LFCN_2_3x5_LFCN_2_3x5_0_split_1
I0208 03:34:38.557132  1052 net.cpp:454] detection_accuracy_2_3x5 <- label_2_3x5_data_3_split_1
I0208 03:34:38.557142  1052 net.cpp:411] detection_accuracy_2_3x5 -> accuracy_2_3x5
I0208 03:34:38.557149  1052 net.cpp:411] detection_accuracy_2_3x5 -> boxiou_2_3x5
I0208 03:34:38.557199  1052 net.cpp:150] Setting up detection_accuracy_2_3x5
I0208 03:34:38.557207  1052 net.cpp:157] Top shape: 1 1 1 2 (2)
I0208 03:34:38.557211  1052 net.cpp:157] Top shape: 1 1 1 1 (1)
I0208 03:34:38.557214  1052 net.cpp:165] Memory required for data: 3421732984
I0208 03:34:38.557217  1052 layer_factory.hpp:76] Creating layer LFCN_2_5x7
I0208 03:34:38.557225  1052 net.cpp:106] Creating Layer LFCN_2_5x7
I0208 03:34:38.557229  1052 net.cpp:454] LFCN_2_5x7 <- conv5_3_relu5_3_0_split_1
I0208 03:34:38.557236  1052 net.cpp:411] LFCN_2_5x7 -> LFCN_2_5x7
I0208 03:34:38.562247  1052 net.cpp:150] Setting up LFCN_2_5x7
I0208 03:34:38.562265  1052 net.cpp:157] Top shape: 4 6 36 36 (31104)
I0208 03:34:38.562269  1052 net.cpp:165] Memory required for data: 3421857400
I0208 03:34:38.562276  1052 layer_factory.hpp:76] Creating layer LFCN_2_5x7_LFCN_2_5x7_0_split
I0208 03:34:38.562285  1052 net.cpp:106] Creating Layer LFCN_2_5x7_LFCN_2_5x7_0_split
I0208 03:34:38.562289  1052 net.cpp:454] LFCN_2_5x7_LFCN_2_5x7_0_split <- LFCN_2_5x7
I0208 03:34:38.562295  1052 net.cpp:411] LFCN_2_5x7_LFCN_2_5x7_0_split -> LFCN_2_5x7_LFCN_2_5x7_0_split_0
I0208 03:34:38.562304  1052 net.cpp:411] LFCN_2_5x7_LFCN_2_5x7_0_split -> LFCN_2_5x7_LFCN_2_5x7_0_split_1
I0208 03:34:38.562311  1052 net.cpp:411] LFCN_2_5x7_LFCN_2_5x7_0_split -> LFCN_2_5x7_LFCN_2_5x7_0_split_2
I0208 03:34:38.562374  1052 net.cpp:150] Setting up LFCN_2_5x7_LFCN_2_5x7_0_split
I0208 03:34:38.562381  1052 net.cpp:157] Top shape: 4 6 36 36 (31104)
I0208 03:34:38.562384  1052 net.cpp:157] Top shape: 4 6 36 36 (31104)
I0208 03:34:38.562388  1052 net.cpp:157] Top shape: 4 6 36 36 (31104)
I0208 03:34:38.562391  1052 net.cpp:165] Memory required for data: 3422230648
I0208 03:34:38.562393  1052 layer_factory.hpp:76] Creating layer detection_loss_2_5x7
I0208 03:34:38.562402  1052 net.cpp:106] Creating Layer detection_loss_2_5x7
I0208 03:34:38.562405  1052 net.cpp:454] detection_loss_2_5x7 <- LFCN_2_5x7_LFCN_2_5x7_0_split_0
I0208 03:34:38.562410  1052 net.cpp:454] detection_loss_2_5x7 <- label_2_5x7_data_4_split_0
I0208 03:34:38.562415  1052 net.cpp:411] detection_loss_2_5x7 -> loss_2_5x7
I0208 03:34:38.562423  1052 layer_factory.hpp:76] Creating layer detection_loss_2_5x7
I0208 03:34:38.562818  1052 net.cpp:150] Setting up detection_loss_2_5x7
I0208 03:34:38.562830  1052 net.cpp:157] Top shape: 1 1 1 2 (2)
I0208 03:34:38.562834  1052 net.cpp:160]     with loss weight 1
I0208 03:34:38.562839  1052 net.cpp:165] Memory required for data: 3422230656
I0208 03:34:38.562844  1052 layer_factory.hpp:76] Creating layer detection_accuracy_2_5x7
I0208 03:34:38.562852  1052 net.cpp:106] Creating Layer detection_accuracy_2_5x7
I0208 03:34:38.562856  1052 net.cpp:454] detection_accuracy_2_5x7 <- LFCN_2_5x7_LFCN_2_5x7_0_split_1
I0208 03:34:38.562861  1052 net.cpp:454] detection_accuracy_2_5x7 <- label_2_5x7_data_4_split_1
I0208 03:34:38.562867  1052 net.cpp:411] detection_accuracy_2_5x7 -> accuracy_2_5x7
I0208 03:34:38.562875  1052 net.cpp:411] detection_accuracy_2_5x7 -> boxiou_2_5x7
I0208 03:34:38.562922  1052 net.cpp:150] Setting up detection_accuracy_2_5x7
I0208 03:34:38.562928  1052 net.cpp:157] Top shape: 1 1 1 2 (2)
I0208 03:34:38.562932  1052 net.cpp:157] Top shape: 1 1 1 1 (1)
I0208 03:34:38.562934  1052 net.cpp:165] Memory required for data: 3422230668
I0208 03:34:38.562937  1052 layer_factory.hpp:76] Creating layer pool5
I0208 03:34:38.562945  1052 net.cpp:106] Creating Layer pool5
I0208 03:34:38.562948  1052 net.cpp:454] pool5 <- conv5_3_relu5_3_0_split_2
I0208 03:34:38.562955  1052 net.cpp:411] pool5 -> pool5
I0208 03:34:38.563354  1052 net.cpp:150] Setting up pool5
I0208 03:34:38.563369  1052 net.cpp:157] Top shape: 4 512 18 18 (663552)
I0208 03:34:38.563372  1052 net.cpp:165] Memory required for data: 3424884876
I0208 03:34:38.563376  1052 layer_factory.hpp:76] Creating layer conv6_1
I0208 03:34:38.563386  1052 net.cpp:106] Creating Layer conv6_1
I0208 03:34:38.563390  1052 net.cpp:454] conv6_1 <- pool5
I0208 03:34:38.563400  1052 net.cpp:411] conv6_1 -> conv6_1
I0208 03:34:38.631055  1052 net.cpp:150] Setting up conv6_1
I0208 03:34:38.631070  1052 net.cpp:157] Top shape: 4 512 18 18 (663552)
I0208 03:34:38.631073  1052 net.cpp:165] Memory required for data: 3427539084
I0208 03:34:38.631078  1052 layer_factory.hpp:76] Creating layer relu6_1
I0208 03:34:38.631086  1052 net.cpp:106] Creating Layer relu6_1
I0208 03:34:38.631090  1052 net.cpp:454] relu6_1 <- conv6_1
I0208 03:34:38.631094  1052 net.cpp:397] relu6_1 -> conv6_1 (in-place)
I0208 03:34:38.631484  1052 net.cpp:150] Setting up relu6_1
I0208 03:34:38.631506  1052 net.cpp:157] Top shape: 4 512 18 18 (663552)
I0208 03:34:38.631510  1052 net.cpp:165] Memory required for data: 3430193292
I0208 03:34:38.631525  1052 layer_factory.hpp:76] Creating layer conv6_1_relu6_1_0_split
I0208 03:34:38.631546  1052 net.cpp:106] Creating Layer conv6_1_relu6_1_0_split
I0208 03:34:38.631551  1052 net.cpp:454] conv6_1_relu6_1_0_split <- conv6_1
I0208 03:34:38.631556  1052 net.cpp:411] conv6_1_relu6_1_0_split -> conv6_1_relu6_1_0_split_0
I0208 03:34:38.631562  1052 net.cpp:411] conv6_1_relu6_1_0_split -> conv6_1_relu6_1_0_split_1
I0208 03:34:38.631579  1052 net.cpp:411] conv6_1_relu6_1_0_split -> conv6_1_relu6_1_0_split_2
I0208 03:34:38.631662  1052 net.cpp:150] Setting up conv6_1_relu6_1_0_split
I0208 03:34:38.631667  1052 net.cpp:157] Top shape: 4 512 18 18 (663552)
I0208 03:34:38.631670  1052 net.cpp:157] Top shape: 4 512 18 18 (663552)
I0208 03:34:38.631674  1052 net.cpp:157] Top shape: 4 512 18 18 (663552)
I0208 03:34:38.631675  1052 net.cpp:165] Memory required for data: 3438155916
I0208 03:34:38.631678  1052 layer_factory.hpp:76] Creating layer LFCN_3_3x5
I0208 03:34:38.631687  1052 net.cpp:106] Creating Layer LFCN_3_3x5
I0208 03:34:38.631691  1052 net.cpp:454] LFCN_3_3x5 <- conv6_1_relu6_1_0_split_0
I0208 03:34:38.631696  1052 net.cpp:411] LFCN_3_3x5 -> LFCN_3_3x5
I0208 03:34:38.634420  1052 net.cpp:150] Setting up LFCN_3_3x5
I0208 03:34:38.634435  1052 net.cpp:157] Top shape: 4 6 18 18 (7776)
I0208 03:34:38.634438  1052 net.cpp:165] Memory required for data: 3438187020
I0208 03:34:38.634443  1052 layer_factory.hpp:76] Creating layer LFCN_3_3x5_LFCN_3_3x5_0_split
I0208 03:34:38.634456  1052 net.cpp:106] Creating Layer LFCN_3_3x5_LFCN_3_3x5_0_split
I0208 03:34:38.634460  1052 net.cpp:454] LFCN_3_3x5_LFCN_3_3x5_0_split <- LFCN_3_3x5
I0208 03:34:38.634464  1052 net.cpp:411] LFCN_3_3x5_LFCN_3_3x5_0_split -> LFCN_3_3x5_LFCN_3_3x5_0_split_0
I0208 03:34:38.634472  1052 net.cpp:411] LFCN_3_3x5_LFCN_3_3x5_0_split -> LFCN_3_3x5_LFCN_3_3x5_0_split_1
I0208 03:34:38.634477  1052 net.cpp:411] LFCN_3_3x5_LFCN_3_3x5_0_split -> LFCN_3_3x5_LFCN_3_3x5_0_split_2
I0208 03:34:38.634552  1052 net.cpp:150] Setting up LFCN_3_3x5_LFCN_3_3x5_0_split
I0208 03:34:38.634558  1052 net.cpp:157] Top shape: 4 6 18 18 (7776)
I0208 03:34:38.634562  1052 net.cpp:157] Top shape: 4 6 18 18 (7776)
I0208 03:34:38.634563  1052 net.cpp:157] Top shape: 4 6 18 18 (7776)
I0208 03:34:38.634567  1052 net.cpp:165] Memory required for data: 3438280332
I0208 03:34:38.634569  1052 layer_factory.hpp:76] Creating layer detection_loss_3_3x5
I0208 03:34:38.634575  1052 net.cpp:106] Creating Layer detection_loss_3_3x5
I0208 03:34:38.634590  1052 net.cpp:454] detection_loss_3_3x5 <- LFCN_3_3x5_LFCN_3_3x5_0_split_0
I0208 03:34:38.634595  1052 net.cpp:454] detection_loss_3_3x5 <- label_3_3x5_data_5_split_0
I0208 03:34:38.634600  1052 net.cpp:411] detection_loss_3_3x5 -> loss_3_3x5
I0208 03:34:38.634608  1052 layer_factory.hpp:76] Creating layer detection_loss_3_3x5
I0208 03:34:38.634981  1052 net.cpp:150] Setting up detection_loss_3_3x5
I0208 03:34:38.635018  1052 net.cpp:157] Top shape: 1 1 1 2 (2)
I0208 03:34:38.635022  1052 net.cpp:160]     with loss weight 1
I0208 03:34:38.635042  1052 net.cpp:165] Memory required for data: 3438280340
I0208 03:34:38.635046  1052 layer_factory.hpp:76] Creating layer detection_accuracy_3_3x5
I0208 03:34:38.635052  1052 net.cpp:106] Creating Layer detection_accuracy_3_3x5
I0208 03:34:38.635056  1052 net.cpp:454] detection_accuracy_3_3x5 <- LFCN_3_3x5_LFCN_3_3x5_0_split_1
I0208 03:34:38.635059  1052 net.cpp:454] detection_accuracy_3_3x5 <- label_3_3x5_data_5_split_1
I0208 03:34:38.635076  1052 net.cpp:411] detection_accuracy_3_3x5 -> accuracy_3_3x5
I0208 03:34:38.635083  1052 net.cpp:411] detection_accuracy_3_3x5 -> boxiou_3_3x5
I0208 03:34:38.635125  1052 net.cpp:150] Setting up detection_accuracy_3_3x5
I0208 03:34:38.635131  1052 net.cpp:157] Top shape: 1 1 1 2 (2)
I0208 03:34:38.635134  1052 net.cpp:157] Top shape: 1 1 1 1 (1)
I0208 03:34:38.635136  1052 net.cpp:165] Memory required for data: 3438280352
I0208 03:34:38.635138  1052 layer_factory.hpp:76] Creating layer LFCN_3_5x7
I0208 03:34:38.635159  1052 net.cpp:106] Creating Layer LFCN_3_5x7
I0208 03:34:38.635162  1052 net.cpp:454] LFCN_3_5x7 <- conv6_1_relu6_1_0_split_1
I0208 03:34:38.635169  1052 net.cpp:411] LFCN_3_5x7 -> LFCN_3_5x7
I0208 03:34:38.639561  1052 net.cpp:150] Setting up LFCN_3_5x7
I0208 03:34:38.639587  1052 net.cpp:157] Top shape: 4 6 18 18 (7776)
I0208 03:34:38.639591  1052 net.cpp:165] Memory required for data: 3438311456
I0208 03:34:38.639597  1052 layer_factory.hpp:76] Creating layer LFCN_3_5x7_LFCN_3_5x7_0_split
I0208 03:34:38.639602  1052 net.cpp:106] Creating Layer LFCN_3_5x7_LFCN_3_5x7_0_split
I0208 03:34:38.639609  1052 net.cpp:454] LFCN_3_5x7_LFCN_3_5x7_0_split <- LFCN_3_5x7
I0208 03:34:38.639616  1052 net.cpp:411] LFCN_3_5x7_LFCN_3_5x7_0_split -> LFCN_3_5x7_LFCN_3_5x7_0_split_0
I0208 03:34:38.639622  1052 net.cpp:411] LFCN_3_5x7_LFCN_3_5x7_0_split -> LFCN_3_5x7_LFCN_3_5x7_0_split_1
I0208 03:34:38.639627  1052 net.cpp:411] LFCN_3_5x7_LFCN_3_5x7_0_split -> LFCN_3_5x7_LFCN_3_5x7_0_split_2
I0208 03:34:38.639705  1052 net.cpp:150] Setting up LFCN_3_5x7_LFCN_3_5x7_0_split
I0208 03:34:38.639711  1052 net.cpp:157] Top shape: 4 6 18 18 (7776)
I0208 03:34:38.639714  1052 net.cpp:157] Top shape: 4 6 18 18 (7776)
I0208 03:34:38.639717  1052 net.cpp:157] Top shape: 4 6 18 18 (7776)
I0208 03:34:38.639719  1052 net.cpp:165] Memory required for data: 3438404768
I0208 03:34:38.639722  1052 layer_factory.hpp:76] Creating layer detection_loss_3_5x7
I0208 03:34:38.639727  1052 net.cpp:106] Creating Layer detection_loss_3_5x7
I0208 03:34:38.639730  1052 net.cpp:454] detection_loss_3_5x7 <- LFCN_3_5x7_LFCN_3_5x7_0_split_0
I0208 03:34:38.639747  1052 net.cpp:454] detection_loss_3_5x7 <- label_3_5x7_data_6_split_0
I0208 03:34:38.639753  1052 net.cpp:411] detection_loss_3_5x7 -> loss_3_5x7
I0208 03:34:38.639772  1052 layer_factory.hpp:76] Creating layer detection_loss_3_5x7
I0208 03:34:38.640333  1052 net.cpp:150] Setting up detection_loss_3_5x7
I0208 03:34:38.640357  1052 net.cpp:157] Top shape: 1 1 1 2 (2)
I0208 03:34:38.640360  1052 net.cpp:160]     with loss weight 1
I0208 03:34:38.640365  1052 net.cpp:165] Memory required for data: 3438404776
I0208 03:34:38.640368  1052 layer_factory.hpp:76] Creating layer detection_accuracy_3_5x7
I0208 03:34:38.640374  1052 net.cpp:106] Creating Layer detection_accuracy_3_5x7
I0208 03:34:38.640377  1052 net.cpp:454] detection_accuracy_3_5x7 <- LFCN_3_5x7_LFCN_3_5x7_0_split_1
I0208 03:34:38.640382  1052 net.cpp:454] detection_accuracy_3_5x7 <- label_3_5x7_data_6_split_1
I0208 03:34:38.640386  1052 net.cpp:411] detection_accuracy_3_5x7 -> accuracy_3_5x7
I0208 03:34:38.640393  1052 net.cpp:411] detection_accuracy_3_5x7 -> boxiou_3_5x7
I0208 03:34:38.640446  1052 net.cpp:150] Setting up detection_accuracy_3_5x7
I0208 03:34:38.640465  1052 net.cpp:157] Top shape: 1 1 1 2 (2)
I0208 03:34:38.640467  1052 net.cpp:157] Top shape: 1 1 1 1 (1)
I0208 03:34:38.640470  1052 net.cpp:165] Memory required for data: 3438404788
I0208 03:34:38.640472  1052 layer_factory.hpp:76] Creating layer pool6
I0208 03:34:38.640480  1052 net.cpp:106] Creating Layer pool6
I0208 03:34:38.640482  1052 net.cpp:454] pool6 <- conv6_1_relu6_1_0_split_2
I0208 03:34:38.640487  1052 net.cpp:411] pool6 -> pool6
I0208 03:34:38.640728  1052 net.cpp:150] Setting up pool6
I0208 03:34:38.640740  1052 net.cpp:157] Top shape: 4 512 9 9 (165888)
I0208 03:34:38.640743  1052 net.cpp:165] Memory required for data: 3439068340
I0208 03:34:38.640746  1052 layer_factory.hpp:76] Creating layer LFCN_4_3x5
I0208 03:34:38.640755  1052 net.cpp:106] Creating Layer LFCN_4_3x5
I0208 03:34:38.640759  1052 net.cpp:454] LFCN_4_3x5 <- pool6
I0208 03:34:38.640766  1052 net.cpp:411] LFCN_4_3x5 -> LFCN_4_3x5
I0208 03:34:38.643126  1052 net.cpp:150] Setting up LFCN_4_3x5
I0208 03:34:38.643151  1052 net.cpp:157] Top shape: 4 6 9 9 (1944)
I0208 03:34:38.643156  1052 net.cpp:165] Memory required for data: 3439076116
I0208 03:34:38.643160  1052 layer_factory.hpp:76] Creating layer LFCN_4_3x5_LFCN_4_3x5_0_split
I0208 03:34:38.643168  1052 net.cpp:106] Creating Layer LFCN_4_3x5_LFCN_4_3x5_0_split
I0208 03:34:38.643172  1052 net.cpp:454] LFCN_4_3x5_LFCN_4_3x5_0_split <- LFCN_4_3x5
I0208 03:34:38.643177  1052 net.cpp:411] LFCN_4_3x5_LFCN_4_3x5_0_split -> LFCN_4_3x5_LFCN_4_3x5_0_split_0
I0208 03:34:38.643183  1052 net.cpp:411] LFCN_4_3x5_LFCN_4_3x5_0_split -> LFCN_4_3x5_LFCN_4_3x5_0_split_1
I0208 03:34:38.643189  1052 net.cpp:411] LFCN_4_3x5_LFCN_4_3x5_0_split -> LFCN_4_3x5_LFCN_4_3x5_0_split_2
I0208 03:34:38.643272  1052 net.cpp:150] Setting up LFCN_4_3x5_LFCN_4_3x5_0_split
I0208 03:34:38.643278  1052 net.cpp:157] Top shape: 4 6 9 9 (1944)
I0208 03:34:38.643281  1052 net.cpp:157] Top shape: 4 6 9 9 (1944)
I0208 03:34:38.643296  1052 net.cpp:157] Top shape: 4 6 9 9 (1944)
I0208 03:34:38.643299  1052 net.cpp:165] Memory required for data: 3439099444
I0208 03:34:38.643302  1052 layer_factory.hpp:76] Creating layer detection_loss_4_3x5
I0208 03:34:38.643309  1052 net.cpp:106] Creating Layer detection_loss_4_3x5
I0208 03:34:38.643313  1052 net.cpp:454] detection_loss_4_3x5 <- LFCN_4_3x5_LFCN_4_3x5_0_split_0
I0208 03:34:38.643317  1052 net.cpp:454] detection_loss_4_3x5 <- label_4_3x5_data_7_split_0
I0208 03:34:38.643322  1052 net.cpp:411] detection_loss_4_3x5 -> loss_4_3x5
I0208 03:34:38.643328  1052 layer_factory.hpp:76] Creating layer detection_loss_4_3x5
I0208 03:34:38.643864  1052 net.cpp:150] Setting up detection_loss_4_3x5
I0208 03:34:38.643888  1052 net.cpp:157] Top shape: 1 1 1 2 (2)
I0208 03:34:38.643892  1052 net.cpp:160]     with loss weight 1
I0208 03:34:38.643896  1052 net.cpp:165] Memory required for data: 3439099452
I0208 03:34:38.643899  1052 layer_factory.hpp:76] Creating layer detection_accuracy_4_3x5
I0208 03:34:38.643905  1052 net.cpp:106] Creating Layer detection_accuracy_4_3x5
I0208 03:34:38.643908  1052 net.cpp:454] detection_accuracy_4_3x5 <- LFCN_4_3x5_LFCN_4_3x5_0_split_1
I0208 03:34:38.643913  1052 net.cpp:454] detection_accuracy_4_3x5 <- label_4_3x5_data_7_split_1
I0208 03:34:38.643919  1052 net.cpp:411] detection_accuracy_4_3x5 -> accuracy_4_3x5
I0208 03:34:38.643925  1052 net.cpp:411] detection_accuracy_4_3x5 -> boxiou_4_3x5
I0208 03:34:38.643978  1052 net.cpp:150] Setting up detection_accuracy_4_3x5
I0208 03:34:38.643996  1052 net.cpp:157] Top shape: 1 1 1 2 (2)
I0208 03:34:38.643999  1052 net.cpp:157] Top shape: 1 1 1 1 (1)
I0208 03:34:38.644002  1052 net.cpp:165] Memory required for data: 3439099464
I0208 03:34:38.644004  1052 layer_factory.hpp:76] Creating layer proposals
I0208 03:34:38.644016  1052 net.cpp:106] Creating Layer proposals
I0208 03:34:38.644019  1052 net.cpp:454] proposals <- LFCN_1_3x5_LFCN_1_3x5_0_split_2
I0208 03:34:38.644023  1052 net.cpp:454] proposals <- LFCN_1_5x7_LFCN_1_5x7_0_split_2
I0208 03:34:38.644040  1052 net.cpp:454] proposals <- LFCN_2_3x5_LFCN_2_3x5_0_split_2
I0208 03:34:38.644043  1052 net.cpp:454] proposals <- LFCN_2_5x7_LFCN_2_5x7_0_split_2
I0208 03:34:38.644047  1052 net.cpp:454] proposals <- LFCN_3_3x5_LFCN_3_3x5_0_split_2
I0208 03:34:38.644049  1052 net.cpp:454] proposals <- LFCN_3_5x7_LFCN_3_5x7_0_split_2
I0208 03:34:38.644052  1052 net.cpp:454] proposals <- LFCN_4_3x5_LFCN_4_3x5_0_split_2
I0208 03:34:38.644058  1052 net.cpp:411] proposals -> proposals
I0208 03:34:38.644099  1052 net.cpp:150] Setting up proposals
I0208 03:34:38.644105  1052 net.cpp:157] Top shape: 1 5 1 1 (5)
I0208 03:34:38.644109  1052 net.cpp:165] Memory required for data: 3439099484
I0208 03:34:38.644111  1052 layer_factory.hpp:76] Creating layer proposal_info
I0208 03:34:38.644122  1052 net.cpp:106] Creating Layer proposal_info
I0208 03:34:38.644126  1052 net.cpp:454] proposal_info <- proposals
I0208 03:34:38.644130  1052 net.cpp:454] proposal_info <- gt_boxes
I0208 03:34:38.644136  1052 net.cpp:411] proposal_info -> rois
I0208 03:34:38.644146  1052 net.cpp:411] proposal_info -> proposal_labels
I0208 03:34:38.644152  1052 net.cpp:411] proposal_info -> proposal_targets
I0208 03:34:38.644158  1052 net.cpp:411] proposal_info -> box_inside_weights
I0208 03:34:38.644165  1052 net.cpp:411] proposal_info -> box_outside_weights
I0208 03:34:38.644170  1052 net.cpp:411] proposal_info -> match_gt_boxes
I0208 03:34:38.644270  1052 net.cpp:150] Setting up proposal_info
I0208 03:34:38.644275  1052 net.cpp:157] Top shape: 128 5 1 1 (640)
I0208 03:34:38.644279  1052 net.cpp:157] Top shape: 128 1 1 1 (128)
I0208 03:34:38.644282  1052 net.cpp:157] Top shape: 128 8 1 1 (1024)
I0208 03:34:38.644285  1052 net.cpp:157] Top shape: 128 8 1 1 (1024)
I0208 03:34:38.644289  1052 net.cpp:157] Top shape: 128 8 1 1 (1024)
I0208 03:34:38.644291  1052 net.cpp:157] Top shape: 128 6 1 1 (768)
I0208 03:34:38.644294  1052 net.cpp:165] Memory required for data: 3439117916
I0208 03:34:38.644296  1052 layer_factory.hpp:76] Creating layer rois_proposal_info_0_split
I0208 03:34:38.644301  1052 net.cpp:106] Creating Layer rois_proposal_info_0_split
I0208 03:34:38.644304  1052 net.cpp:454] rois_proposal_info_0_split <- rois
I0208 03:34:38.644309  1052 net.cpp:411] rois_proposal_info_0_split -> rois_proposal_info_0_split_0
I0208 03:34:38.644314  1052 net.cpp:411] rois_proposal_info_0_split -> rois_proposal_info_0_split_1
I0208 03:34:38.644318  1052 net.cpp:411] rois_proposal_info_0_split -> rois_proposal_info_0_split_2
I0208 03:34:38.644366  1052 net.cpp:150] Setting up rois_proposal_info_0_split
I0208 03:34:38.644371  1052 net.cpp:157] Top shape: 128 5 1 1 (640)
I0208 03:34:38.644374  1052 net.cpp:157] Top shape: 128 5 1 1 (640)
I0208 03:34:38.644378  1052 net.cpp:157] Top shape: 128 5 1 1 (640)
I0208 03:34:38.644383  1052 net.cpp:165] Memory required for data: 3439125596
I0208 03:34:38.644385  1052 layer_factory.hpp:76] Creating layer proposal_labels_proposal_info_1_split
I0208 03:34:38.644392  1052 net.cpp:106] Creating Layer proposal_labels_proposal_info_1_split
I0208 03:34:38.644394  1052 net.cpp:454] proposal_labels_proposal_info_1_split <- proposal_labels
I0208 03:34:38.644399  1052 net.cpp:411] proposal_labels_proposal_info_1_split -> proposal_labels_proposal_info_1_split_0
I0208 03:34:38.644404  1052 net.cpp:411] proposal_labels_proposal_info_1_split -> proposal_labels_proposal_info_1_split_1
I0208 03:34:38.644438  1052 net.cpp:150] Setting up proposal_labels_proposal_info_1_split
I0208 03:34:38.644443  1052 net.cpp:157] Top shape: 128 1 1 1 (128)
I0208 03:34:38.644446  1052 net.cpp:157] Top shape: 128 1 1 1 (128)
I0208 03:34:38.644448  1052 net.cpp:165] Memory required for data: 3439126620
I0208 03:34:38.644451  1052 layer_factory.hpp:76] Creating layer roi_pool_org
I0208 03:34:38.644457  1052 net.cpp:106] Creating Layer roi_pool_org
I0208 03:34:38.644460  1052 net.cpp:454] roi_pool_org <- conv4_3_relu4_3_0_split_2
I0208 03:34:38.644464  1052 net.cpp:454] roi_pool_org <- rois_proposal_info_0_split_0
I0208 03:34:38.644469  1052 net.cpp:411] roi_pool_org -> roi_pool_org
I0208 03:34:38.644479  1052 roi_pooling_layer.cpp:35] Spatial scale: 0.125
I0208 03:34:38.644520  1052 net.cpp:150] Setting up roi_pool_org
I0208 03:34:38.644525  1052 net.cpp:157] Top shape: 128 512 8 4 (2097152)
I0208 03:34:38.644527  1052 net.cpp:165] Memory required for data: 3447515228
I0208 03:34:38.644531  1052 layer_factory.hpp:76] Creating layer roi_pool_ctx
I0208 03:34:38.644536  1052 net.cpp:106] Creating Layer roi_pool_ctx
I0208 03:34:38.644538  1052 net.cpp:454] roi_pool_ctx <- conv4_3_relu4_3_0_split_3
I0208 03:34:38.644542  1052 net.cpp:454] roi_pool_ctx <- rois_proposal_info_0_split_1
I0208 03:34:38.644548  1052 net.cpp:411] roi_pool_ctx -> roi_pool_ctx
I0208 03:34:38.644553  1052 roi_pooling_layer.cpp:35] Spatial scale: 0.125
I0208 03:34:38.644592  1052 net.cpp:150] Setting up roi_pool_ctx
I0208 03:34:38.644596  1052 net.cpp:157] Top shape: 128 512 8 4 (2097152)
I0208 03:34:38.644599  1052 net.cpp:165] Memory required for data: 3455903836
I0208 03:34:38.644601  1052 layer_factory.hpp:76] Creating layer roi_pool
I0208 03:34:38.644608  1052 net.cpp:106] Creating Layer roi_pool
I0208 03:34:38.644611  1052 net.cpp:454] roi_pool <- roi_pool_org
I0208 03:34:38.644614  1052 net.cpp:454] roi_pool <- roi_pool_ctx
I0208 03:34:38.644619  1052 net.cpp:411] roi_pool -> roi_pool
I0208 03:34:38.644644  1052 net.cpp:150] Setting up roi_pool
I0208 03:34:38.644647  1052 net.cpp:157] Top shape: 128 1024 8 4 (4194304)
I0208 03:34:38.644650  1052 net.cpp:165] Memory required for data: 3472681052
I0208 03:34:38.644652  1052 layer_factory.hpp:76] Creating layer roi_c1
I0208 03:34:38.644661  1052 net.cpp:106] Creating Layer roi_c1
I0208 03:34:38.644665  1052 net.cpp:454] roi_c1 <- roi_pool
I0208 03:34:38.644670  1052 net.cpp:411] roi_c1 -> roi_c1
I0208 03:34:38.786515  1052 net.cpp:150] Setting up roi_c1
I0208 03:34:38.786561  1052 net.cpp:157] Top shape: 128 512 8 4 (2097152)
I0208 03:34:38.786564  1052 net.cpp:165] Memory required for data: 3481069660
I0208 03:34:38.786572  1052 layer_factory.hpp:76] Creating layer roi_c1_relu
I0208 03:34:38.786586  1052 net.cpp:106] Creating Layer roi_c1_relu
I0208 03:34:38.786592  1052 net.cpp:454] roi_c1_relu <- roi_c1
I0208 03:34:38.786598  1052 net.cpp:397] roi_c1_relu -> roi_c1 (in-place)
I0208 03:34:38.787094  1052 net.cpp:150] Setting up roi_c1_relu
I0208 03:34:38.787108  1052 net.cpp:157] Top shape: 128 512 8 4 (2097152)
I0208 03:34:38.787111  1052 net.cpp:165] Memory required for data: 3489458268
I0208 03:34:38.787116  1052 layer_factory.hpp:76] Creating layer fc6
I0208 03:34:38.787140  1052 net.cpp:106] Creating Layer fc6
I0208 03:34:38.787145  1052 net.cpp:454] fc6 <- roi_c1
I0208 03:34:38.787163  1052 net.cpp:411] fc6 -> fc6
I0208 03:34:39.732524  1052 net.cpp:150] Setting up fc6
I0208 03:34:39.732578  1052 net.cpp:157] Top shape: 128 2048 (262144)
I0208 03:34:39.732581  1052 net.cpp:165] Memory required for data: 3490506844
I0208 03:34:39.732605  1052 layer_factory.hpp:76] Creating layer relu6
I0208 03:34:39.732650  1052 net.cpp:106] Creating Layer relu6
I0208 03:34:39.732667  1052 net.cpp:454] relu6 <- fc6
I0208 03:34:39.732674  1052 net.cpp:397] relu6 -> fc6 (in-place)
I0208 03:34:39.733196  1052 net.cpp:150] Setting up relu6
I0208 03:34:39.733207  1052 net.cpp:157] Top shape: 128 2048 (262144)
I0208 03:34:39.733209  1052 net.cpp:165] Memory required for data: 3491555420
I0208 03:34:39.733212  1052 layer_factory.hpp:76] Creating layer drop6
I0208 03:34:39.733222  1052 net.cpp:106] Creating Layer drop6
I0208 03:34:39.733224  1052 net.cpp:454] drop6 <- fc6
I0208 03:34:39.733229  1052 net.cpp:397] drop6 -> fc6 (in-place)
I0208 03:34:39.733310  1052 net.cpp:150] Setting up drop6
I0208 03:34:39.733321  1052 net.cpp:157] Top shape: 128 2048 (262144)
I0208 03:34:39.733325  1052 net.cpp:165] Memory required for data: 3492603996
I0208 03:34:39.733328  1052 layer_factory.hpp:76] Creating layer fc6_drop6_0_split
I0208 03:34:39.733335  1052 net.cpp:106] Creating Layer fc6_drop6_0_split
I0208 03:34:39.733337  1052 net.cpp:454] fc6_drop6_0_split <- fc6
I0208 03:34:39.733342  1052 net.cpp:411] fc6_drop6_0_split -> fc6_drop6_0_split_0
I0208 03:34:39.733348  1052 net.cpp:411] fc6_drop6_0_split -> fc6_drop6_0_split_1
I0208 03:34:39.733410  1052 net.cpp:150] Setting up fc6_drop6_0_split
I0208 03:34:39.733415  1052 net.cpp:157] Top shape: 128 2048 (262144)
I0208 03:34:39.733418  1052 net.cpp:157] Top shape: 128 2048 (262144)
I0208 03:34:39.733420  1052 net.cpp:165] Memory required for data: 3494701148
I0208 03:34:39.733423  1052 layer_factory.hpp:76] Creating layer cls_pred
I0208 03:34:39.733440  1052 net.cpp:106] Creating Layer cls_pred
I0208 03:34:39.733444  1052 net.cpp:454] cls_pred <- fc6_drop6_0_split_0
I0208 03:34:39.733454  1052 net.cpp:411] cls_pred -> cls_pred
I0208 03:34:39.733711  1052 net.cpp:150] Setting up cls_pred
I0208 03:34:39.733721  1052 net.cpp:157] Top shape: 128 2 (256)
I0208 03:34:39.733722  1052 net.cpp:165] Memory required for data: 3494702172
I0208 03:34:39.733728  1052 layer_factory.hpp:76] Creating layer cls_pred_cls_pred_0_split
I0208 03:34:39.733736  1052 net.cpp:106] Creating Layer cls_pred_cls_pred_0_split
I0208 03:34:39.733738  1052 net.cpp:454] cls_pred_cls_pred_0_split <- cls_pred
I0208 03:34:39.733743  1052 net.cpp:411] cls_pred_cls_pred_0_split -> cls_pred_cls_pred_0_split_0
I0208 03:34:39.733749  1052 net.cpp:411] cls_pred_cls_pred_0_split -> cls_pred_cls_pred_0_split_1
I0208 03:34:39.733783  1052 net.cpp:150] Setting up cls_pred_cls_pred_0_split
I0208 03:34:39.733789  1052 net.cpp:157] Top shape: 128 2 (256)
I0208 03:34:39.733793  1052 net.cpp:157] Top shape: 128 2 (256)
I0208 03:34:39.733794  1052 net.cpp:165] Memory required for data: 3494704220
I0208 03:34:39.733798  1052 layer_factory.hpp:76] Creating layer bbox_pred
I0208 03:34:39.733803  1052 net.cpp:106] Creating Layer bbox_pred
I0208 03:34:39.733808  1052 net.cpp:454] bbox_pred <- fc6_drop6_0_split_1
I0208 03:34:39.733819  1052 net.cpp:411] bbox_pred -> bbox_pred
I0208 03:34:39.734493  1052 net.cpp:150] Setting up bbox_pred
I0208 03:34:39.734500  1052 net.cpp:157] Top shape: 128 8 (1024)
I0208 03:34:39.734515  1052 net.cpp:165] Memory required for data: 3494708316
I0208 03:34:39.734521  1052 layer_factory.hpp:76] Creating layer bbox_pred_bbox_pred_0_split
I0208 03:34:39.734529  1052 net.cpp:106] Creating Layer bbox_pred_bbox_pred_0_split
I0208 03:34:39.734532  1052 net.cpp:454] bbox_pred_bbox_pred_0_split <- bbox_pred
I0208 03:34:39.734537  1052 net.cpp:411] bbox_pred_bbox_pred_0_split -> bbox_pred_bbox_pred_0_split_0
I0208 03:34:39.734586  1052 net.cpp:411] bbox_pred_bbox_pred_0_split -> bbox_pred_bbox_pred_0_split_1
I0208 03:34:39.734623  1052 net.cpp:150] Setting up bbox_pred_bbox_pred_0_split
I0208 03:34:39.734629  1052 net.cpp:157] Top shape: 128 8 (1024)
I0208 03:34:39.734632  1052 net.cpp:157] Top shape: 128 8 (1024)
I0208 03:34:39.734635  1052 net.cpp:165] Memory required for data: 3494716508
I0208 03:34:39.734638  1052 layer_factory.hpp:76] Creating layer loss_cls
I0208 03:34:39.734647  1052 net.cpp:106] Creating Layer loss_cls
I0208 03:34:39.734650  1052 net.cpp:454] loss_cls <- cls_pred_cls_pred_0_split_0
I0208 03:34:39.734655  1052 net.cpp:454] loss_cls <- proposal_labels_proposal_info_1_split_0
…
I0208 03:34:39.742892  1052 image_gt_data_layer.cpp:234] output label size 2 : 2,6,36,36
I0208 03:34:39.742950  1052 image_gt_data_layer.cpp:234] output label size 3 : 2,6,36,36
I0208 03:34:39.743011  1052 image_gt_data_layer.cpp:234] output label size 4 : 2,6,18,18
I0208 03:34:39.743072  1052 image_gt_data_layer.cpp:234] output label size 5 : 2,6,18,18
I0208 03:34:39.743129  1052 image_gt_data_layer.cpp:234] output label size 6 : 2,6,9,9
I0208 03:34:39.743185  1052 image_gt_data_layer.cpp:249] output gt boxes size: 1,7,1,1
I0208 03:34:39.759474  1052 net.cpp:150] Setting up data
I0208 03:34:39.759516  1052 net.cpp:157] Top shape: 2 3 576 576 (1990656)
I0208 03:34:39.759522  1052 net.cpp:157] Top shape: 2 6 72 72 (62208)
I0208 03:34:39.759526  1052 net.cpp:157] Top shape: 2 6 72 72 (62208)
I0208 03:34:39.759529  1052 net.cpp:157] Top shape: 2 6 36 36 (15552)
I0208 03:34:39.759533  1052 net.cpp:157] Top shape: 2 6 36 36 (15552)
I0208 03:34:39.759536  1052 net.cpp:157] Top shape: 2 6 18 18 (3888)
I0208 03:34:39.759539  1052 net.cpp:157] Top shape: 2 6 18 18 (3888)
I0208 03:34:39.759546  1052 net.cpp:157] Top shape: 2 6 9 9 (972)
I0208 03:34:39.759549  1052 net.cpp:157] Top shape: 1 7 1 1 (7)
I0208 03:34:39.759552  1052 net.cpp:165] Memory required for data: 8619724
I0208 03:34:39.759559  1052 layer_factory.hpp:76] Creating layer label_1_3x5_data_1_split
I0208 03:34:39.759574  1052 net.cpp:106] Creating Layer label_1_3x5_data_1_split
I0208 03:34:39.759579  1052 net.cpp:454] label_1_3x5_data_1_split <- label_1_3x5
I0208 03:34:39.759587  1052 net.cpp:411] label_1_3x5_data_1_split -> label_1_3x5_data_1_split_0
I0208 03:34:39.759598  1052 net.cpp:411] label_1_3x5_data_1_split -> label_1_3x5_data_1_split_1
I0208 03:34:39.759768  1052 net.cpp:150] Setting up label_1_3x5_data_1_split
I0208 03:34:39.759790  1052 net.cpp:157] Top shape: 2 6 72 72 (62208)
I0208 03:34:39.759794  1052 net.cpp:157] Top shape: 2 6 72 72 (62208)
I0208 03:34:39.759796  1052 net.cpp:165] Memory required for data: 9117388
I0208 03:34:39.759799  1052 layer_factory.hpp:76] Creating layer label_1_5x7_data_2_split
I0208 03:34:39.759807  1052 net.cpp:106] Creating Layer label_1_5x7_data_2_split
I0208 03:34:39.759810  1052 net.cpp:454] label_1_5x7_data_2_split <- label_1_5x7
I0208 03:34:39.759815  1052 net.cpp:411] label_1_5x7_data_2_split -> label_1_5x7_data_2_split_0
I0208 03:34:39.759821  1052 net.cpp:411] label_1_5x7_data_2_split -> label_1_5x7_data_2_split_1
I0208 03:34:39.759908  1052 net.cpp:150] Setting up label_1_5x7_data_2_split
I0208 03:34:39.759917  1052 net.cpp:157] Top shape: 2 6 72 72 (62208)
I0208 03:34:39.759920  1052 net.cpp:157] Top shape: 2 6 72 72 (62208)
I0208 03:34:39.759923  1052 net.cpp:165] Memory required for data: 9615052
I0208 03:34:39.759925  1052 layer_factory.hpp:76] Creating layer label_2_3x5_data_3_split
I0208 03:34:39.759930  1052 net.cpp:106] Creating Layer label_2_3x5_data_3_split
I0208 03:34:39.759933  1052 net.cpp:454] label_2_3x5_data_3_split <- label_2_3x5
I0208 03:34:39.759939  1052 net.cpp:411] label_2_3x5_data_3_split -> label_2_3x5_data_3_split_0
I0208 03:34:39.759944  1052 net.cpp:411] label_2_3x5_data_3_split -> label_2_3x5_data_3_split_1
I0208 03:34:39.760414  1052 net.cpp:150] Setting up label_2_3x5_data_3_split
I0208 03:34:39.760422  1052 net.cpp:157] Top shape: 2 6 36 36 (15552)
I0208 03:34:39.760439  1052 net.cpp:157] Top shape: 2 6 36 36 (15552)
I0208 03:34:39.760442  1052 net.cpp:165] Memory required for data: 9739468
I0208 03:34:39.760444  1052 layer_factory.hpp:76] Creating layer label_2_5x7_data_4_split
I0208 03:34:39.760453  1052 net.cpp:106] Creating Layer label_2_5x7_data_4_split
I0208 03:34:39.760457  1052 net.cpp:454] label_2_5x7_data_4_split <- label_2_5x7
I0208 03:34:39.760462  1052 net.cpp:411] label_2_5x7_data_4_split -> label_2_5x7_data_4_split_0
I0208 03:34:39.760468  1052 net.cpp:411] label_2_5x7_data_4_split -> label_2_5x7_data_4_split_1
I0208 03:34:39.760521  1052 net.cpp:150] Setting up label_2_5x7_data_4_split
I0208 03:34:39.760531  1052 net.cpp:157] Top shape: 2 6 36 36 (15552)
I0208 03:34:39.760535  1052 net.cpp:157] Top shape: 2 6 36 36 (15552)
I0208 03:34:39.760537  1052 net.cpp:165] Memory required for data: 9863884
I0208 03:34:39.760540  1052 layer_factory.hpp:76] Creating layer label_3_3x5_data_5_split
I0208 03:34:39.760545  1052 net.cpp:106] Creating Layer label_3_3x5_data_5_split
I0208 03:34:39.760547  1052 net.cpp:454] label_3_3x5_data_5_split <- label_3_3x5
I0208 03:34:39.760551  1052 net.cpp:411] label_3_3x5_data_5_split -> label_3_3x5_data_5_split_0
I0208 03:34:39.760556  1052 net.cpp:411] label_3_3x5_data_5_split -> label_3_3x5_data_5_split_1
I0208 03:34:39.760594  1052 net.cpp:150] Setting up label_3_3x5_data_5_split
I0208 03:34:39.760599  1052 net.cpp:157] Top shape: 2 6 18 18 (3888)
I0208 03:34:39.760602  1052 net.cpp:157] Top shape: 2 6 18 18 (3888)
I0208 03:34:39.760606  1052 net.cpp:165] Memory required for data: 9894988
I0208 03:34:39.760607  1052 layer_factory.hpp:76] Creating layer label_3_5x7_data_6_split
I0208 03:34:39.760612  1052 net.cpp:106] Creating Layer label_3_5x7_data_6_split
I0208 03:34:39.760614  1052 net.cpp:454] label_3_5x7_data_6_split <- label_3_5x7
I0208 03:34:39.760620  1052 net.cpp:411] label_3_5x7_data_6_split -> label_3_5x7_data_6_split_0
I0208 03:34:39.760624  1052 net.cpp:411] label_3_5x7_data_6_split -> label_3_5x7_data_6_split_1
I0208 03:34:39.760660  1052 net.cpp:150] Setting up label_3_5x7_data_6_split
I0208 03:34:39.760665  1052 net.cpp:157] Top shape: 2 6 18 18 (3888)
I0208 03:34:39.760668  1052 net.cpp:157] Top shape: 2 6 18 18 (3888)
I0208 03:34:39.760671  1052 net.cpp:165] Memory required for data: 9926092
I0208 03:34:39.760673  1052 layer_factory.hpp:76] Creating layer label_4_3x5_data_7_split
I0208 03:34:39.760677  1052 net.cpp:106] Creating Layer label_4_3x5_data_7_split
I0208 03:34:39.760680  1052 net.cpp:454] label_4_3x5_data_7_split <- label_4_3x5
I0208 03:34:39.760684  1052 net.cpp:411] label_4_3x5_data_7_split -> label_4_3x5_data_7_split_0
I0208 03:34:39.760689  1052 net.cpp:411] label_4_3x5_data_7_split -> label_4_3x5_data_7_split_1
I0208 03:34:39.760723  1052 net.cpp:150] Setting up label_4_3x5_data_7_split
I0208 03:34:39.760727  1052 net.cpp:157] Top shape: 2 6 9 9 (972)
I0208 03:34:39.760731  1052 net.cpp:157] Top shape: 2 6 9 9 (972)
I0208 03:34:39.760733  1052 net.cpp:165] Memory required for data: 9933868
I0208 03:34:39.760736  1052 layer_factory.hpp:76] Creating layer conv1_1
I0208 03:34:39.760746  1052 net.cpp:106] Creating Layer conv1_1
I0208 03:34:39.760748  1052 net.cpp:454] conv1_1 <- data
I0208 03:34:39.760754  1052 net.cpp:411] conv1_1 -> conv1_1
I0208 03:34:39.762876  1052 net.cpp:150] Setting up conv1_1
I0208 03:34:39.762902  1052 net.cpp:157] Top shape: 2 64 576 576 (42467328)
I0208 03:34:39.762907  1052 net.cpp:165] Memory required for data: 179803180
I0208 03:34:39.762918  1052 layer_factory.hpp:76] Creating layer relu1_1
I0208 03:34:39.762928  1052 net.cpp:106] Creating Layer relu1_1
I0208 03:34:39.762930  1052 net.cpp:454] relu1_1 <- conv1_1
I0208 03:34:39.762935  1052 net.cpp:397] relu1_1 -> conv1_1 (in-place)
I0208 03:34:39.764021  1052 net.cpp:150] Setting up relu1_1
I0208 03:34:39.764045  1052 net.cpp:157] Top shape: 2 64 576 576 (42467328)
I0208 03:34:39.764050  1052 net.cpp:165] Memory required for data: 349672492
I0208 03:34:39.764052  1052 layer_factory.hpp:76] Creating layer conv1_2
I0208 03:34:39.764062  1052 net.cpp:106] Creating Layer conv1_2
I0208 03:34:39.764065  1052 net.cpp:454] conv1_2 <- conv1_1
I0208 03:34:39.764071  1052 net.cpp:411] conv1_2 -> conv1_2
I0208 03:34:39.766093  1052 net.cpp:150] Setting up conv1_2
I0208 03:34:39.766119  1052 net.cpp:157] Top shape: 2 64 576 576 (42467328)
I0208 03:34:39.766122  1052 net.cpp:165] Memory required for data: 519541804
I0208 03:34:39.766132  1052 layer_factory.hpp:76] Creating layer relu1_2
I0208 03:34:39.766139  1052 net.cpp:106] Creating Layer relu1_2
I0208 03:34:39.766141  1052 net.cpp:454] relu1_2 <- conv1_2
I0208 03:34:39.766149  1052 net.cpp:397] relu1_2 -> conv1_2 (in-place)
I0208 03:34:39.766664  1052 net.cpp:150] Setting up relu1_2
I0208 03:34:39.766685  1052 net.cpp:157] Top shape: 2 64 576 576 (42467328)
I0208 03:34:39.766688  1052 net.cpp:165] Memory required for data: 689411116
I0208 03:34:39.766691  1052 layer_factory.hpp:76] Creating layer pool1
I0208 03:34:39.766711  1052 net.cpp:106] Creating Layer pool1
I0208 03:34:39.766715  1052 net.cpp:454] pool1 <- conv1_2
I0208 03:34:39.766723  1052 net.cpp:411] pool1 -> pool1
I0208 03:34:39.767020  1052 net.cpp:150] Setting up pool1
I0208 03:34:39.767033  1052 net.cpp:157] Top shape: 2 64 288 288 (10616832)
I0208 03:34:39.767037  1052 net.cpp:165] Memory required for data: 731878444
I0208 03:34:39.767040  1052 layer_factory.hpp:76] Creating layer conv2_1
I0208 03:34:39.767046  1052 net.cpp:106] Creating Layer conv2_1
I0208 03:34:39.767050  1052 net.cpp:454] conv2_1 <- pool1
I0208 03:34:39.767056  1052 net.cpp:411] conv2_1 -> conv2_1
I0208 03:34:39.768296  1052 net.cpp:150] Setting up conv2_1
I0208 03:34:39.768319  1052 net.cpp:157] Top shape: 2 128 288 288 (21233664)
I0208 03:34:39.768323  1052 net.cpp:165] Memory required for data: 816813100
I0208 03:34:39.768332  1052 layer_factory.hpp:76] Creating layer relu2_1
I0208 03:34:39.768339  1052 net.cpp:106] Creating Layer relu2_1
I0208 03:34:39.768342  1052 net.cpp:454] relu2_1 <- conv2_1
I0208 03:34:39.768347  1052 net.cpp:397] relu2_1 -> conv2_1 (in-place)
I0208 03:34:39.768702  1052 net.cpp:150] Setting up relu2_1
I0208 03:34:39.768715  1052 net.cpp:157] Top shape: 2 128 288 288 (21233664)
I0208 03:34:39.768718  1052 net.cpp:165] Memory required for data: 901747756
I0208 03:34:39.768723  1052 layer_factory.hpp:76] Creating layer conv2_2
I0208 03:34:39.768730  1052 net.cpp:106] Creating Layer conv2_2
I0208 03:34:39.768733  1052 net.cpp:454] conv2_2 <- conv2_1
I0208 03:34:39.768740  1052 net.cpp:411] conv2_2 -> conv2_2
I0208 03:34:39.770350  1052 net.cpp:150] Setting up conv2_2
I0208 03:34:39.770364  1052 net.cpp:157] Top shape: 2 128 288 288 (21233664)
I0208 03:34:39.770378  1052 net.cpp:165] Memory required for data: 986682412
I0208 03:34:39.770385  1052 layer_factory.hpp:76] Creating layer relu2_2
I0208 03:34:39.770392  1052 net.cpp:106] Creating Layer relu2_2
I0208 03:34:39.770397  1052 net.cpp:454] relu2_2 <- conv2_2
I0208 03:34:39.770401  1052 net.cpp:397] relu2_2 -> conv2_2 (in-place)
I0208 03:34:39.770817  1052 net.cpp:150] Setting up relu2_2
I0208 03:34:39.770853  1052 net.cpp:157] Top shape: 2 128 288 288 (21233664)
I0208 03:34:39.770856  1052 net.cpp:165] Memory required for data: 1071617068
I0208 03:34:39.770859  1052 layer_factory.hpp:76] Creating layer pool2
I0208 03:34:39.770879  1052 net.cpp:106] Creating Layer pool2
I0208 03:34:39.770895  1052 net.cpp:454] pool2 <- conv2_2
I0208 03:34:39.770900  1052 net.cpp:411] pool2 -> pool2
I0208 03:34:39.771173  1052 net.cpp:150] Setting up pool2
I0208 03:34:39.771184  1052 net.cpp:157] Top shape: 2 128 144 144 (5308416)
I0208 03:34:39.771188  1052 net.cpp:165] Memory required for data: 1092850732
I0208 03:34:39.771191  1052 layer_factory.hpp:76] Creating layer conv3_1
I0208 03:34:39.771200  1052 net.cpp:106] Creating Layer conv3_1
I0208 03:34:39.771203  1052 net.cpp:454] conv3_1 <- pool2
I0208 03:34:39.771209  1052 net.cpp:411] conv3_1 -> conv3_1
I0208 03:34:39.772974  1052 net.cpp:150] Setting up conv3_1
I0208 03:34:39.772999  1052 net.cpp:157] Top shape: 2 256 144 144 (10616832)
I0208 03:34:39.773002  1052 net.cpp:165] Memory required for data: 1135318060
I0208 03:34:39.773011  1052 layer_factory.hpp:76] Creating layer relu3_1
I0208 03:34:39.773016  1052 net.cpp:106] Creating Layer relu3_1
I0208 03:34:39.773020  1052 net.cpp:454] relu3_1 <- conv3_1
I0208 03:34:39.773025  1052 net.cpp:397] relu3_1 -> conv3_1 (in-place)
I0208 03:34:39.773380  1052 net.cpp:150] Setting up relu3_1
I0208 03:34:39.773394  1052 net.cpp:157] Top shape: 2 256 144 144 (10616832)
I0208 03:34:39.773397  1052 net.cpp:165] Memory required for data: 1177785388
I0208 03:34:39.773401  1052 layer_factory.hpp:76] Creating layer conv3_2
I0208 03:34:39.773409  1052 net.cpp:106] Creating Layer conv3_2
I0208 03:34:39.773412  1052 net.cpp:454] conv3_2 <- conv3_1
I0208 03:34:39.773424  1052 net.cpp:411] conv3_2 -> conv3_2
I0208 03:34:39.775766  1052 net.cpp:150] Setting up conv3_2
I0208 03:34:39.775779  1052 net.cpp:157] Top shape: 2 256 144 144 (10616832)
I0208 03:34:39.775781  1052 net.cpp:165] Memory required for data: 1220252716
I0208 03:34:39.775787  1052 layer_factory.hpp:76] Creating layer relu3_2
I0208 03:34:39.775792  1052 net.cpp:106] Creating Layer relu3_2
I0208 03:34:39.775795  1052 net.cpp:454] relu3_2 <- conv3_2
I0208 03:34:39.775800  1052 net.cpp:397] relu3_2 -> conv3_2 (in-place)
I0208 03:34:39.776049  1052 net.cpp:150] Setting up relu3_2
I0208 03:34:39.776060  1052 net.cpp:157] Top shape: 2 256 144 144 (10616832)
I0208 03:34:39.776063  1052 net.cpp:165] Memory required for data: 1262720044
I0208 03:34:39.776067  1052 layer_factory.hpp:76] Creating layer conv3_3
I0208 03:34:39.776074  1052 net.cpp:106] Creating Layer conv3_3
I0208 03:34:39.776078  1052 net.cpp:454] conv3_3 <- conv3_2
I0208 03:34:39.776085  1052 net.cpp:411] conv3_3 -> conv3_3
I0208 03:34:39.778970  1052 net.cpp:150] Setting up conv3_3
I0208 03:34:39.778985  1052 net.cpp:157] Top shape: 2 256 144 144 (10616832)
I0208 03:34:39.778987  1052 net.cpp:165] Memory required for data: 1305187372
I0208 03:34:39.778993  1052 layer_factory.hpp:76] Creating layer relu3_3
I0208 03:34:39.778998  1052 net.cpp:106] Creating Layer relu3_3
I0208 03:34:39.779001  1052 net.cpp:454] relu3_3 <- conv3_3
I0208 03:34:39.779006  1052 net.cpp:397] relu3_3 -> conv3_3 (in-place)
I0208 03:34:39.779444  1052 net.cpp:150] Setting up relu3_3
I0208 03:34:39.779481  1052 net.cpp:157] Top shape: 2 256 144 144 (10616832)
I0208 03:34:39.779484  1052 net.cpp:165] Memory required for data: 1347654700
I0208 03:34:39.779487  1052 layer_factory.hpp:76] Creating layer pool3
I0208 03:34:39.779505  1052 net.cpp:106] Creating Layer pool3
I0208 03:34:39.779510  1052 net.cpp:454] pool3 <- conv3_3
I0208 03:34:39.779528  1052 net.cpp:411] pool3 -> pool3
I0208 03:34:39.779999  1052 net.cpp:150] Setting up pool3
I0208 03:34:39.780022  1052 net.cpp:157] Top shape: 2 256 72 72 (2654208)
I0208 03:34:39.780026  1052 net.cpp:165] Memory required for data: 1358271532
I0208 03:34:39.780030  1052 layer_factory.hpp:76] Creating layer conv4_1
I0208 03:34:39.780050  1052 net.cpp:106] Creating Layer conv4_1
I0208 03:34:39.780064  1052 net.cpp:454] conv4_1 <- pool3
I0208 03:34:39.780071  1052 net.cpp:411] conv4_1 -> conv4_1
I0208 03:34:39.783504  1052 net.cpp:150] Setting up conv4_1
I0208 03:34:39.783516  1052 net.cpp:157] Top shape: 2 512 72 72 (5308416)
I0208 03:34:39.783519  1052 net.cpp:165] Memory required for data: 1379505196
I0208 03:34:39.783525  1052 layer_factory.hpp:76] Creating layer relu4_1
I0208 03:34:39.783532  1052 net.cpp:106] Creating Layer relu4_1
I0208 03:34:39.783535  1052 net.cpp:454] relu4_1 <- conv4_1
I0208 03:34:39.783540  1052 net.cpp:397] relu4_1 -> conv4_1 (in-place)
I0208 03:34:39.783776  1052 net.cpp:150] Setting up relu4_1
I0208 03:34:39.783787  1052 net.cpp:157] Top shape: 2 512 72 72 (5308416)
I0208 03:34:39.783789  1052 net.cpp:165] Memory required for data: 1400738860
I0208 03:34:39.783792  1052 layer_factory.hpp:76] Creating layer conv4_2
I0208 03:34:39.783798  1052 net.cpp:106] Creating Layer conv4_2
I0208 03:34:39.783802  1052 net.cpp:454] conv4_2 <- conv4_1
I0208 03:34:39.783809  1052 net.cpp:411] conv4_2 -> conv4_2
I0208 03:34:39.789513  1052 net.cpp:150] Setting up conv4_2
I0208 03:34:39.789542  1052 net.cpp:157] Top shape: 2 512 72 72 (5308416)
I0208 03:34:39.789546  1052 net.cpp:165] Memory required for data: 1421972524
I0208 03:34:39.789557  1052 layer_factory.hpp:76] Creating layer relu4_2
I0208 03:34:39.789564  1052 net.cpp:106] Creating Layer relu4_2
I0208 03:34:39.789567  1052 net.cpp:454] relu4_2 <- conv4_2
I0208 03:34:39.789572  1052 net.cpp:397] relu4_2 -> conv4_2 (in-place)
I0208 03:34:39.789950  1052 net.cpp:150] Setting up relu4_2
I0208 03:34:39.789964  1052 net.cpp:157] Top shape: 2 512 72 72 (5308416)
I0208 03:34:39.789969  1052 net.cpp:165] Memory required for data: 1443206188
I0208 03:34:39.789973  1052 layer_factory.hpp:76] Creating layer conv4_3
I0208 03:34:39.789979  1052 net.cpp:106] Creating Layer conv4_3
I0208 03:34:39.789983  1052 net.cpp:454] conv4_3 <- conv4_2
I0208 03:34:39.789989  1052 net.cpp:411] conv4_3 -> conv4_3
I0208 03:34:39.795459  1052 net.cpp:150] Setting up conv4_3
I0208 03:34:39.795487  1052 net.cpp:157] Top shape: 2 512 72 72 (5308416)
I0208 03:34:39.795493  1052 net.cpp:165] Memory required for data: 1464439852
I0208 03:34:39.795500  1052 layer_factory.hpp:76] Creating layer relu4_3
I0208 03:34:39.795506  1052 net.cpp:106] Creating Layer relu4_3
I0208 03:34:39.795508  1052 net.cpp:454] relu4_3 <- conv4_3
I0208 03:34:39.795513  1052 net.cpp:397] relu4_3 -> conv4_3 (in-place)
I0208 03:34:39.795887  1052 net.cpp:150] Setting up relu4_3
I0208 03:34:39.795902  1052 net.cpp:157] Top shape: 2 512 72 72 (5308416)
I0208 03:34:39.795905  1052 net.cpp:165] Memory required for data: 1485673516
I0208 03:34:39.795909  1052 layer_factory.hpp:76] Creating layer conv4_3_relu4_3_0_split
I0208 03:34:39.795915  1052 net.cpp:106] Creating Layer conv4_3_relu4_3_0_split
I0208 03:34:39.795919  1052 net.cpp:454] conv4_3_relu4_3_0_split <- conv4_3
I0208 03:34:39.795924  1052 net.cpp:411] conv4_3_relu4_3_0_split -> conv4_3_relu4_3_0_split_0
I0208 03:34:39.795931  1052 net.cpp:411] conv4_3_relu4_3_0_split -> conv4_3_relu4_3_0_split_1
I0208 03:34:39.795938  1052 net.cpp:411] conv4_3_relu4_3_0_split -> conv4_3_relu4_3_0_split_2
I0208 03:34:39.795943  1052 net.cpp:411] conv4_3_relu4_3_0_split -> conv4_3_relu4_3_0_split_3
I0208 03:34:39.796027  1052 net.cpp:150] Setting up conv4_3_relu4_3_0_split
I0208 03:34:39.796033  1052 net.cpp:157] Top shape: 2 512 72 72 (5308416)
I0208 03:34:39.796037  1052 net.cpp:157] Top shape: 2 512 72 72 (5308416)
I0208 03:34:39.796041  1052 net.cpp:157] Top shape: 2 512 72 72 (5308416)
I0208 03:34:39.796043  1052 net.cpp:157] Top shape: 2 512 72 72 (5308416)
I0208 03:34:39.796046  1052 net.cpp:165] Memory required for data: 1570608172
I0208 03:34:39.796049  1052 layer_factory.hpp:76] Creating layer loss1_conv1
I0208 03:34:39.796063  1052 net.cpp:106] Creating Layer loss1_conv1
I0208 03:34:39.796067  1052 net.cpp:454] loss1_conv1 <- conv4_3_relu4_3_0_split_0
I0208 03:34:39.796073  1052 net.cpp:411] loss1_conv1 -> loss1_conv1
I0208 03:34:39.867671  1052 net.cpp:150] Setting up loss1_conv1
I0208 03:34:39.867699  1052 net.cpp:157] Top shape: 2 512 72 72 (5308416)
I0208 03:34:39.867703  1052 net.cpp:165] Memory required for data: 1591841836
I0208 03:34:39.867710  1052 layer_factory.hpp:76] Creating layer loss_relu1
I0208 03:34:39.867718  1052 net.cpp:106] Creating Layer loss_relu1
I0208 03:34:39.867722  1052 net.cpp:454] loss_relu1 <- loss1_conv1
I0208 03:34:39.867727  1052 net.cpp:397] loss_relu1 -> loss1_conv1 (in-place)
I0208 03:34:39.867960  1052 net.cpp:150] Setting up loss_relu1
I0208 03:34:39.867971  1052 net.cpp:157] Top shape: 2 512 72 72 (5308416)
I0208 03:34:39.867974  1052 net.cpp:165] Memory required for data: 1613075500
I0208 03:34:39.867977  1052 layer_factory.hpp:76] Creating layer loss1_conv1_loss_relu1_0_split
I0208 03:34:39.867985  1052 net.cpp:106] Creating Layer loss1_conv1_loss_relu1_0_split
I0208 03:34:39.867988  1052 net.cpp:454] loss1_conv1_loss_relu1_0_split <- loss1_conv1
I0208 03:34:39.867993  1052 net.cpp:411] loss1_conv1_loss_relu1_0_split -> loss1_conv1_loss_relu1_0_split_0
I0208 03:34:39.868001  1052 net.cpp:411] loss1_conv1_loss_relu1_0_split -> loss1_conv1_loss_relu1_0_split_1
I0208 03:34:39.868054  1052 net.cpp:150] Setting up loss1_conv1_loss_relu1_0_split
I0208 03:34:39.868059  1052 net.cpp:157] Top shape: 2 512 72 72 (5308416)
I0208 03:34:39.868063  1052 net.cpp:157] Top shape: 2 512 72 72 (5308416)
I0208 03:34:39.868065  1052 net.cpp:165] Memory required for data: 1655542828
I0208 03:34:39.868068  1052 layer_factory.hpp:76] Creating layer LFCN_1_3x5
I0208 03:34:39.868077  1052 net.cpp:106] Creating Layer LFCN_1_3x5
I0208 03:34:39.868080  1052 net.cpp:454] LFCN_1_3x5 <- loss1_conv1_loss_relu1_0_split_0
I0208 03:34:39.868094  1052 net.cpp:411] LFCN_1_3x5 -> LFCN_1_3x5
I0208 03:34:39.870604  1052 net.cpp:150] Setting up LFCN_1_3x5
I0208 03:34:39.870627  1052 net.cpp:157] Top shape: 2 6 72 72 (62208)
I0208 03:34:39.870631  1052 net.cpp:165] Memory required for data: 1655791660
I0208 03:34:39.870637  1052 layer_factory.hpp:76] Creating layer LFCN_1_3x5_LFCN_1_3x5_0_split
I0208 03:34:39.870643  1052 net.cpp:106] Creating Layer LFCN_1_3x5_LFCN_1_3x5_0_split
I0208 03:34:39.870646  1052 net.cpp:454] LFCN_1_3x5_LFCN_1_3x5_0_split <- LFCN_1_3x5
I0208 03:34:39.870653  1052 net.cpp:411] LFCN_1_3x5_LFCN_1_3x5_0_split -> LFCN_1_3x5_LFCN_1_3x5_0_split_0
I0208 03:34:39.870659  1052 net.cpp:411] LFCN_1_3x5_LFCN_1_3x5_0_split -> LFCN_1_3x5_LFCN_1_3x5_0_split_1
I0208 03:34:39.870664  1052 net.cpp:411] LFCN_1_3x5_LFCN_1_3x5_0_split -> LFCN_1_3x5_LFCN_1_3x5_0_split_2
I0208 03:34:39.870757  1052 net.cpp:150] Setting up LFCN_1_3x5_LFCN_1_3x5_0_split
I0208 03:34:39.870765  1052 net.cpp:157] Top shape: 2 6 72 72 (62208)
I0208 03:34:39.870769  1052 net.cpp:157] Top shape: 2 6 72 72 (62208)
I0208 03:34:39.870771  1052 net.cpp:157] Top shape: 2 6 72 72 (62208)
I0208 03:34:39.870779  1052 net.cpp:165] Memory required for data: 1656538156
I0208 03:34:39.870781  1052 layer_factory.hpp:76] Creating layer detection_loss_1_3x5
I0208 03:34:39.870789  1052 net.cpp:106] Creating Layer detection_loss_1_3x5
I0208 03:34:39.870791  1052 net.cpp:454] detection_loss_1_3x5 <- LFCN_1_3x5_LFCN_1_3x5_0_split_0
I0208 03:34:39.870796  1052 net.cpp:454] detection_loss_1_3x5 <- label_1_3x5_data_1_split_0
I0208 03:34:39.870803  1052 net.cpp:411] detection_loss_1_3x5 -> loss_1_3x5
I0208 03:34:39.870811  1052 layer_factory.hpp:76] Creating layer detection_loss_1_3x5
I0208 03:34:39.871405  1052 net.cpp:150] Setting up detection_loss_1_3x5
I0208 03:34:39.871429  1052 net.cpp:157] Top shape: 1 1 1 2 (2)
I0208 03:34:39.871433  1052 net.cpp:160]     with loss weight 0.9
I0208 03:34:39.871443  1052 net.cpp:165] Memory required for data: 1656538164
I0208 03:34:39.871448  1052 layer_factory.hpp:76] Creating layer detection_accuracy_1_3x5
I0208 03:34:39.871457  1052 net.cpp:106] Creating Layer detection_accuracy_1_3x5
I0208 03:34:39.871460  1052 net.cpp:454] detection_accuracy_1_3x5 <- LFCN_1_3x5_LFCN_1_3x5_0_split_1
I0208 03:34:39.871464  1052 net.cpp:454] detection_accuracy_1_3x5 <- label_1_3x5_data_1_split_1
I0208 03:34:39.871481  1052 net.cpp:411] detection_accuracy_1_3x5 -> accuracy_1_3x5
I0208 03:34:39.871489  1052 net.cpp:411] detection_accuracy_1_3x5 -> boxiou_1_3x5
I0208 03:34:39.871551  1052 net.cpp:150] Setting up detection_accuracy_1_3x5
I0208 03:34:39.871556  1052 net.cpp:157] Top shape: 1 1 1 2 (2)
I0208 03:34:39.871561  1052 net.cpp:157] Top shape: 1 1 1 1 (1)
I0208 03:34:39.871562  1052 net.cpp:165] Memory required for data: 1656538176
I0208 03:34:39.871565  1052 layer_factory.hpp:76] Creating layer LFCN_1_5x7
I0208 03:34:39.871585  1052 net.cpp:106] Creating Layer LFCN_1_5x7
I0208 03:34:39.871589  1052 net.cpp:454] LFCN_1_5x7 <- loss1_conv1_loss_relu1_0_split_1
I0208 03:34:39.871598  1052 net.cpp:411] LFCN_1_5x7 -> LFCN_1_5x7
I0208 03:34:39.876291  1052 net.cpp:150] Setting up LFCN_1_5x7
I0208 03:34:39.876308  1052 net.cpp:157] Top shape: 2 6 72 72 (62208)
I0208 03:34:39.876313  1052 net.cpp:165] Memory required for data: 1656787008
I0208 03:34:39.876324  1052 layer_factory.hpp:76] Creating layer LFCN_1_5x7_LFCN_1_5x7_0_split
I0208 03:34:39.876333  1052 net.cpp:106] Creating Layer LFCN_1_5x7_LFCN_1_5x7_0_split
I0208 03:34:39.876338  1052 net.cpp:454] LFCN_1_5x7_LFCN_1_5x7_0_split <- LFCN_1_5x7
I0208 03:34:39.876349  1052 net.cpp:411] LFCN_1_5x7_LFCN_1_5x7_0_split -> LFCN_1_5x7_LFCN_1_5x7_0_split_0
I0208 03:34:39.876379  1052 net.cpp:411] LFCN_1_5x7_LFCN_1_5x7_0_split -> LFCN_1_5x7_LFCN_1_5x7_0_split_1
I0208 03:34:39.876410  1052 net.cpp:411] LFCN_1_5x7_LFCN_1_5x7_0_split -> LFCN_1_5x7_LFCN_1_5x7_0_split_2
I0208 03:34:39.876523  1052 net.cpp:150] Setting up LFCN_1_5x7_LFCN_1_5x7_0_split
I0208 03:34:39.876545  1052 net.cpp:157] Top shape: 2 6 72 72 (62208)
I0208 03:34:39.876554  1052 net.cpp:157] Top shape: 2 6 72 72 (62208)
I0208 03:34:39.876560  1052 net.cpp:157] Top shape: 2 6 72 72 (62208)
I0208 03:34:39.876566  1052 net.cpp:165] Memory required for data: 1657533504
I0208 03:34:39.876571  1052 layer_factory.hpp:76] Creating layer detection_loss_1_5x7
I0208 03:34:39.876585  1052 net.cpp:106] Creating Layer detection_loss_1_5x7
I0208 03:34:39.876590  1052 net.cpp:454] detection_loss_1_5x7 <- LFCN_1_5x7_LFCN_1_5x7_0_split_0
I0208 03:34:39.876600  1052 net.cpp:454] detection_loss_1_5x7 <- label_1_5x7_data_2_split_0
I0208 03:34:39.876615  1052 net.cpp:411] detection_loss_1_5x7 -> loss_1_5x7
I0208 03:34:39.876636  1052 layer_factory.hpp:76] Creating layer detection_loss_1_5x7
I0208 03:34:39.877393  1052 net.cpp:150] Setting up detection_loss_1_5x7
I0208 03:34:39.877419  1052 net.cpp:157] Top shape: 1 1 1 2 (2)
I0208 03:34:39.877425  1052 net.cpp:160]     with loss weight 0.9
I0208 03:34:39.877444  1052 net.cpp:165] Memory required for data: 1657533512
I0208 03:34:39.877450  1052 layer_factory.hpp:76] Creating layer detection_accuracy_1_5x7
I0208 03:34:39.877460  1052 net.cpp:106] Creating Layer detection_accuracy_1_5x7
I0208 03:34:39.877466  1052 net.cpp:454] detection_accuracy_1_5x7 <- LFCN_1_5x7_LFCN_1_5x7_0_split_1
I0208 03:34:39.877486  1052 net.cpp:454] detection_accuracy_1_5x7 <- label_1_5x7_data_2_split_1
I0208 03:34:39.877513  1052 net.cpp:411] detection_accuracy_1_5x7 -> accuracy_1_5x7
I0208 03:34:39.877543  1052 net.cpp:411] detection_accuracy_1_5x7 -> boxiou_1_5x7
I0208 03:34:39.877630  1052 net.cpp:150] Setting up detection_accuracy_1_5x7
I0208 03:34:39.877640  1052 net.cpp:157] Top shape: 1 1 1 2 (2)
I0208 03:34:39.877647  1052 net.cpp:157] Top shape: 1 1 1 1 (1)
I0208 03:34:39.877652  1052 net.cpp:165] Memory required for data: 1657533524
I0208 03:34:39.877657  1052 layer_factory.hpp:76] Creating layer pool4
I0208 03:34:39.877668  1052 net.cpp:106] Creating Layer pool4
I0208 03:34:39.877673  1052 net.cpp:454] pool4 <- conv4_3_relu4_3_0_split_1
I0208 03:34:39.877687  1052 net.cpp:411] pool4 -> pool4
I0208 03:34:39.878368  1052 net.cpp:150] Setting up pool4
I0208 03:34:39.878393  1052 net.cpp:157] Top shape: 2 512 36 36 (1327104)
I0208 03:34:39.878398  1052 net.cpp:165] Memory required for data: 1662841940
I0208 03:34:39.878403  1052 layer_factory.hpp:76] Creating layer conv5_1
I0208 03:34:39.878417  1052 net.cpp:106] Creating Layer conv5_1
I0208 03:34:39.878422  1052 net.cpp:454] conv5_1 <- pool4
I0208 03:34:39.878434  1052 net.cpp:411] conv5_1 -> conv5_1
I0208 03:34:39.884462  1052 net.cpp:150] Setting up conv5_1
I0208 03:34:39.884492  1052 net.cpp:157] Top shape: 2 512 36 36 (1327104)
I0208 03:34:39.884496  1052 net.cpp:165] Memory required for data: 1668150356
I0208 03:34:39.884507  1052 layer_factory.hpp:76] Creating layer relu5_1
I0208 03:34:39.884517  1052 net.cpp:106] Creating Layer relu5_1
I0208 03:34:39.884522  1052 net.cpp:454] relu5_1 <- conv5_1
I0208 03:34:39.884536  1052 net.cpp:397] relu5_1 -> conv5_1 (in-place)
I0208 03:34:39.885023  1052 net.cpp:150] Setting up relu5_1
I0208 03:34:39.885037  1052 net.cpp:157] Top shape: 2 512 36 36 (1327104)
I0208 03:34:39.885054  1052 net.cpp:165] Memory required for data: 1673458772
I0208 03:34:39.885061  1052 layer_factory.hpp:76] Creating layer conv5_2
I0208 03:34:39.885074  1052 net.cpp:106] Creating Layer conv5_2
I0208 03:34:39.885078  1052 net.cpp:454] conv5_2 <- conv5_1
I0208 03:34:39.885090  1052 net.cpp:411] conv5_2 -> conv5_2
I0208 03:34:39.891145  1052 net.cpp:150] Setting up conv5_2
I0208 03:34:39.891162  1052 net.cpp:157] Top shape: 2 512 36 36 (1327104)
I0208 03:34:39.891165  1052 net.cpp:165] Memory required for data: 1678767188
I0208 03:34:39.891171  1052 layer_factory.hpp:76] Creating layer relu5_2
I0208 03:34:39.891177  1052 net.cpp:106] Creating Layer relu5_2
I0208 03:34:39.891180  1052 net.cpp:454] relu5_2 <- conv5_2
I0208 03:34:39.891185  1052 net.cpp:397] relu5_2 -> conv5_2 (in-place)
I0208 03:34:39.891427  1052 net.cpp:150] Setting up relu5_2
I0208 03:34:39.891438  1052 net.cpp:157] Top shape: 2 512 36 36 (1327104)
I0208 03:34:39.891441  1052 net.cpp:165] Memory required for data: 1684075604
I0208 03:34:39.891444  1052 layer_factory.hpp:76] Creating layer conv5_3
I0208 03:34:39.891453  1052 net.cpp:106] Creating Layer conv5_3
I0208 03:34:39.891456  1052 net.cpp:454] conv5_3 <- conv5_2
I0208 03:34:39.891461  1052 net.cpp:411] conv5_3 -> conv5_3
I0208 03:34:39.897238  1052 net.cpp:150] Setting up conv5_3
I0208 03:34:39.897265  1052 net.cpp:157] Top shape: 2 512 36 36 (1327104)
I0208 03:34:39.897269  1052 net.cpp:165] Memory required for data: 1689384020
I0208 03:34:39.897275  1052 layer_factory.hpp:76] Creating layer relu5_3
I0208 03:34:39.897281  1052 net.cpp:106] Creating Layer relu5_3
I0208 03:34:39.897285  1052 net.cpp:454] relu5_3 <- conv5_3
I0208 03:34:39.897291  1052 net.cpp:397] relu5_3 -> conv5_3 (in-place)
I0208 03:34:39.897672  1052 net.cpp:150] Setting up relu5_3
I0208 03:34:39.897686  1052 net.cpp:157] Top shape: 2 512 36 36 (1327104)
I0208 03:34:39.897688  1052 net.cpp:165] Memory required for data: 1694692436
I0208 03:34:39.897692  1052 layer_factory.hpp:76] Creating layer conv5_3_relu5_3_0_split
I0208 03:34:39.897698  1052 net.cpp:106] Creating Layer conv5_3_relu5_3_0_split
I0208 03:34:39.897701  1052 net.cpp:454] conv5_3_relu5_3_0_split <- conv5_3
I0208 03:34:39.897708  1052 net.cpp:411] conv5_3_relu5_3_0_split -> conv5_3_relu5_3_0_split_0
I0208 03:34:39.897716  1052 net.cpp:411] conv5_3_relu5_3_0_split -> conv5_3_relu5_3_0_split_1
I0208 03:34:39.897722  1052 net.cpp:411] conv5_3_relu5_3_0_split -> conv5_3_relu5_3_0_split_2
I0208 03:34:39.897795  1052 net.cpp:150] Setting up conv5_3_relu5_3_0_split
I0208 03:34:39.897801  1052 net.cpp:157] Top shape: 2 512 36 36 (1327104)
I0208 03:34:39.897804  1052 net.cpp:157] Top shape: 2 512 36 36 (1327104)
I0208 03:34:39.897807  1052 net.cpp:157] Top shape: 2 512 36 36 (1327104)
I0208 03:34:39.897810  1052 net.cpp:165] Memory required for data: 1710617684
I0208 03:34:39.897814  1052 layer_factory.hpp:76] Creating layer LFCN_2_3x5
I0208 03:34:39.897822  1052 net.cpp:106] Creating Layer LFCN_2_3x5
I0208 03:34:39.897825  1052 net.cpp:454] LFCN_2_3x5 <- conv5_3_relu5_3_0_split_0
I0208 03:34:39.897833  1052 net.cpp:411] LFCN_2_3x5 -> LFCN_2_3x5
I0208 03:34:39.900384  1052 net.cpp:150] Setting up LFCN_2_3x5
I0208 03:34:39.900411  1052 net.cpp:157] Top shape: 2 6 36 36 (15552)
I0208 03:34:39.900416  1052 net.cpp:165] Memory required for data: 1710679892
I0208 03:34:39.900437  1052 layer_factory.hpp:76] Creating layer LFCN_2_3x5_LFCN_2_3x5_0_split
I0208 03:34:39.900460  1052 net.cpp:106] Creating Layer LFCN_2_3x5_LFCN_2_3x5_0_split
I0208 03:34:39.900465  1052 net.cpp:454] LFCN_2_3x5_LFCN_2_3x5_0_split <- LFCN_2_3x5
I0208 03:34:39.900478  1052 net.cpp:411] LFCN_2_3x5_LFCN_2_3x5_0_split -> LFCN_2_3x5_LFCN_2_3x5_0_split_0
I0208 03:34:39.900496  1052 net.cpp:411] LFCN_2_3x5_LFCN_2_3x5_0_split -> LFCN_2_3x5_LFCN_2_3x5_0_split_1
I0208 03:34:39.900512  1052 net.cpp:411] LFCN_2_3x5_LFCN_2_3x5_0_split -> LFCN_2_3x5_LFCN_2_3x5_0_split_2
I0208 03:34:39.900627  1052 net.cpp:150] Setting up LFCN_2_3x5_LFCN_2_3x5_0_split
I0208 03:34:39.900638  1052 net.cpp:157] Top shape: 2 6 36 36 (15552)
I0208 03:34:39.900645  1052 net.cpp:157] Top shape: 2 6 36 36 (15552)
I0208 03:34:39.900652  1052 net.cpp:157] Top shape: 2 6 36 36 (15552)
I0208 03:34:39.900658  1052 net.cpp:165] Memory required for data: 1710866516
I0208 03:34:39.900662  1052 layer_factory.hpp:76] Creating layer detection_loss_2_3x5
I0208 03:34:39.900674  1052 net.cpp:106] Creating Layer detection_loss_2_3x5
I0208 03:34:39.900681  1052 net.cpp:454] detection_loss_2_3x5 <- LFCN_2_3x5_LFCN_2_3x5_0_split_0
I0208 03:34:39.900688  1052 net.cpp:454] detection_loss_2_3x5 <- label_2_3x5_data_3_split_0
I0208 03:34:39.900703  1052 net.cpp:411] detection_loss_2_3x5 -> loss_2_3x5
I0208 03:34:39.900725  1052 layer_factory.hpp:76] Creating layer detection_loss_2_3x5
I0208 03:34:39.901446  1052 net.cpp:150] Setting up detection_loss_2_3x5
I0208 03:34:39.901471  1052 net.cpp:157] Top shape: 1 1 1 2 (2)
I0208 03:34:39.901479  1052 net.cpp:160]     with loss weight 1
I0208 03:34:39.901491  1052 net.cpp:165] Memory required for data: 1710866524
I0208 03:34:39.901496  1052 layer_factory.hpp:76] Creating layer detection_accuracy_2_3x5
I0208 03:34:39.901518  1052 net.cpp:106] Creating Layer detection_accuracy_2_3x5
I0208 03:34:39.901525  1052 net.cpp:454] detection_accuracy_2_3x5 <- LFCN_2_3x5_LFCN_2_3x5_0_split_1
I0208 03:34:39.901532  1052 net.cpp:454] detection_accuracy_2_3x5 <- label_2_3x5_data_3_split_1
I0208 03:34:39.901546  1052 net.cpp:411] detection_accuracy_2_3x5 -> accuracy_2_3x5
I0208 03:34:39.901578  1052 net.cpp:411] detection_accuracy_2_3x5 -> boxiou_2_3x5
I0208 03:34:39.901664  1052 net.cpp:150] Setting up detection_accuracy_2_3x5
I0208 03:34:39.901674  1052 net.cpp:157] Top shape: 1 1 1 2 (2)
I0208 03:34:39.901682  1052 net.cpp:157] Top shape: 1 1 1 1 (1)
I0208 03:34:39.901687  1052 net.cpp:165] Memory required for data: 1710866536
I0208 03:34:39.901692  1052 layer_factory.hpp:76] Creating layer LFCN_2_5x7
I0208 03:34:39.901710  1052 net.cpp:106] Creating Layer LFCN_2_5x7
I0208 03:34:39.901716  1052 net.cpp:454] LFCN_2_5x7 <- conv5_3_relu5_3_0_split_1
I0208 03:34:39.901731  1052 net.cpp:411] LFCN_2_5x7 -> LFCN_2_5x7
I0208 03:34:39.906631  1052 net.cpp:150] Setting up LFCN_2_5x7
I0208 03:34:39.906658  1052 net.cpp:157] Top shape: 2 6 36 36 (15552)
I0208 03:34:39.906663  1052 net.cpp:165] Memory required for data: 1710928744
I0208 03:34:39.906674  1052 layer_factory.hpp:76] Creating layer LFCN_2_5x7_LFCN_2_5x7_0_split
I0208 03:34:39.906684  1052 net.cpp:106] Creating Layer LFCN_2_5x7_LFCN_2_5x7_0_split
I0208 03:34:39.906690  1052 net.cpp:454] LFCN_2_5x7_LFCN_2_5x7_0_split <- LFCN_2_5x7
I0208 03:34:39.906702  1052 net.cpp:411] LFCN_2_5x7_LFCN_2_5x7_0_split -> LFCN_2_5x7_LFCN_2_5x7_0_split_0
I0208 03:34:39.906730  1052 net.cpp:411] LFCN_2_5x7_LFCN_2_5x7_0_split -> LFCN_2_5x7_LFCN_2_5x7_0_split_1
I0208 03:34:39.906747  1052 net.cpp:411] LFCN_2_5x7_LFCN_2_5x7_0_split -> LFCN_2_5x7_LFCN_2_5x7_0_split_2
I0208 03:34:39.906882  1052 net.cpp:150] Setting up LFCN_2_5x7_LFCN_2_5x7_0_split
I0208 03:34:39.906891  1052 net.cpp:157] Top shape: 2 6 36 36 (15552)
I0208 03:34:39.906903  1052 net.cpp:157] Top shape: 2 6 36 36 (15552)
I0208 03:34:39.906909  1052 net.cpp:157] Top shape: 2 6 36 36 (15552)
I0208 03:34:39.906914  1052 net.cpp:165] Memory required for data: 1711115368
I0208 03:34:39.906919  1052 layer_factory.hpp:76] Creating layer detection_loss_2_5x7
I0208 03:34:39.906930  1052 net.cpp:106] Creating Layer detection_loss_2_5x7
I0208 03:34:39.906936  1052 net.cpp:454] detection_loss_2_5x7 <- LFCN_2_5x7_LFCN_2_5x7_0_split_0
I0208 03:34:39.906945  1052 net.cpp:454] detection_loss_2_5x7 <- label_2_5x7_data_4_split_0
I0208 03:34:39.906958  1052 net.cpp:411] detection_loss_2_5x7 -> loss_2_5x7
I0208 03:34:39.906982  1052 layer_factory.hpp:76] Creating layer detection_loss_2_5x7
I0208 03:34:39.907676  1052 net.cpp:150] Setting up detection_loss_2_5x7
I0208 03:34:39.907685  1052 net.cpp:157] Top shape: 1 1 1 2 (2)
I0208 03:34:39.907701  1052 net.cpp:160]     with loss weight 1
I0208 03:34:39.907706  1052 net.cpp:165] Memory required for data: 1711115376
I0208 03:34:39.907708  1052 layer_factory.hpp:76] Creating layer detection_accuracy_2_5x7
I0208 03:34:39.907714  1052 net.cpp:106] Creating Layer detection_accuracy_2_5x7
I0208 03:34:39.907718  1052 net.cpp:454] detection_accuracy_2_5x7 <- LFCN_2_5x7_LFCN_2_5x7_0_split_1
I0208 03:34:39.907722  1052 net.cpp:454] detection_accuracy_2_5x7 <- label_2_5x7_data_4_split_1
I0208 03:34:39.907727  1052 net.cpp:411] detection_accuracy_2_5x7 -> accuracy_2_5x7
I0208 03:34:39.907733  1052 net.cpp:411] detection_accuracy_2_5x7 -> boxiou_2_5x7
I0208 03:34:39.907884  1052 net.cpp:150] Setting up detection_accuracy_2_5x7
I0208 03:34:39.907894  1052 net.cpp:157] Top shape: 1 1 1 2 (2)
I0208 03:34:39.907897  1052 net.cpp:157] Top shape: 1 1 1 1 (1)
I0208 03:34:39.907901  1052 net.cpp:165] Memory required for data: 1711115388
I0208 03:34:39.907903  1052 layer_factory.hpp:76] Creating layer pool5
I0208 03:34:39.907912  1052 net.cpp:106] Creating Layer pool5
I0208 03:34:39.907915  1052 net.cpp:454] pool5 <- conv5_3_relu5_3_0_split_2
I0208 03:34:39.907920  1052 net.cpp:411] pool5 -> pool5
I0208 03:34:39.908368  1052 net.cpp:150] Setting up pool5
I0208 03:34:39.908392  1052 net.cpp:157] Top shape: 2 512 18 18 (331776)
I0208 03:34:39.908396  1052 net.cpp:165] Memory required for data: 1712442492
I0208 03:34:39.908399  1052 layer_factory.hpp:76] Creating layer conv6_1
I0208 03:34:39.908421  1052 net.cpp:106] Creating Layer conv6_1
I0208 03:34:39.908426  1052 net.cpp:454] conv6_1 <- pool5
I0208 03:34:39.908432  1052 net.cpp:411] conv6_1 -> conv6_1
I0208 03:34:39.975467  1052 net.cpp:150] Setting up conv6_1
I0208 03:34:39.975483  1052 net.cpp:157] Top shape: 2 512 18 18 (331776)
I0208 03:34:39.975486  1052 net.cpp:165] Memory required for data: 1713769596
I0208 03:34:39.975492  1052 layer_factory.hpp:76] Creating layer relu6_1
I0208 03:34:39.975499  1052 net.cpp:106] Creating Layer relu6_1
I0208 03:34:39.975503  1052 net.cpp:454] relu6_1 <- conv6_1
I0208 03:34:39.975507  1052 net.cpp:397] relu6_1 -> conv6_1 (in-place)
I0208 03:34:39.975950  1052 net.cpp:150] Setting up relu6_1
I0208 03:34:39.975975  1052 net.cpp:157] Top shape: 2 512 18 18 (331776)
I0208 03:34:39.975978  1052 net.cpp:165] Memory required for data: 1715096700
I0208 03:34:39.975981  1052 layer_factory.hpp:76] Creating layer conv6_1_relu6_1_0_split
I0208 03:34:39.975987  1052 net.cpp:106] Creating Layer conv6_1_relu6_1_0_split
I0208 03:34:39.975992  1052 net.cpp:454] conv6_1_relu6_1_0_split <- conv6_1
I0208 03:34:39.975997  1052 net.cpp:411] conv6_1_relu6_1_0_split -> conv6_1_relu6_1_0_split_0
I0208 03:34:39.976006  1052 net.cpp:411] conv6_1_relu6_1_0_split -> conv6_1_relu6_1_0_split_1
I0208 03:34:39.976011  1052 net.cpp:411] conv6_1_relu6_1_0_split -> conv6_1_relu6_1_0_split_2
I0208 03:34:39.976121  1052 net.cpp:150] Setting up conv6_1_relu6_1_0_split
I0208 03:34:39.976130  1052 net.cpp:157] Top shape: 2 512 18 18 (331776)
I0208 03:34:39.976135  1052 net.cpp:157] Top shape: 2 512 18 18 (331776)
I0208 03:34:39.976137  1052 net.cpp:157] Top shape: 2 512 18 18 (331776)
I0208 03:34:39.976140  1052 net.cpp:165] Memory required for data: 1719078012
I0208 03:34:39.976142  1052 layer_factory.hpp:76] Creating layer LFCN_3_3x5
I0208 03:34:39.976150  1052 net.cpp:106] Creating Layer LFCN_3_3x5
I0208 03:34:39.976153  1052 net.cpp:454] LFCN_3_3x5 <- conv6_1_relu6_1_0_split_0
I0208 03:34:39.976161  1052 net.cpp:411] LFCN_3_3x5 -> LFCN_3_3x5
I0208 03:34:39.978723  1052 net.cpp:150] Setting up LFCN_3_3x5
I0208 03:34:39.978747  1052 net.cpp:157] Top shape: 2 6 18 18 (3888)
I0208 03:34:39.978751  1052 net.cpp:165] Memory required for data: 1719093564
I0208 03:34:39.978757  1052 layer_factory.hpp:76] Creating layer LFCN_3_3x5_LFCN_3_3x5_0_split
I0208 03:34:39.978772  1052 net.cpp:106] Creating Layer LFCN_3_3x5_LFCN_3_3x5_0_split
I0208 03:34:39.978775  1052 net.cpp:454] LFCN_3_3x5_LFCN_3_3x5_0_split <- LFCN_3_3x5
I0208 03:34:39.978782  1052 net.cpp:411] LFCN_3_3x5_LFCN_3_3x5_0_split -> LFCN_3_3x5_LFCN_3_3x5_0_split_0
I0208 03:34:39.978802  1052 net.cpp:411] LFCN_3_3x5_LFCN_3_3x5_0_split -> LFCN_3_3x5_LFCN_3_3x5_0_split_1
I0208 03:34:39.978808  1052 net.cpp:411] LFCN_3_3x5_LFCN_3_3x5_0_split -> LFCN_3_3x5_LFCN_3_3x5_0_split_2
I0208 03:34:39.978894  1052 net.cpp:150] Setting up LFCN_3_3x5_LFCN_3_3x5_0_split
I0208 03:34:39.978910  1052 net.cpp:157] Top shape: 2 6 18 18 (3888)
I0208 03:34:39.978914  1052 net.cpp:157] Top shape: 2 6 18 18 (3888)
I0208 03:34:39.978917  1052 net.cpp:157] Top shape: 2 6 18 18 (3888)
I0208 03:34:39.978919  1052 net.cpp:165] Memory required for data: 1719140220
I0208 03:34:39.978924  1052 layer_factory.hpp:76] Creating layer detection_loss_3_3x5
I0208 03:34:39.978930  1052 net.cpp:106] Creating Layer detection_loss_3_3x5
I0208 03:34:39.978935  1052 net.cpp:454] detection_loss_3_3x5 <- LFCN_3_3x5_LFCN_3_3x5_0_split_0
I0208 03:34:39.978940  1052 net.cpp:454] detection_loss_3_3x5 <- label_3_3x5_data_5_split_0
I0208 03:34:39.978945  1052 net.cpp:411] detection_loss_3_3x5 -> loss_3_3x5
I0208 03:34:39.978952  1052 layer_factory.hpp:76] Creating layer detection_loss_3_3x5
I0208 03:34:39.979401  1052 net.cpp:150] Setting up detection_loss_3_3x5
I0208 03:34:39.979411  1052 net.cpp:157] Top shape: 1 1 1 2 (2)
I0208 03:34:39.979427  1052 net.cpp:160]     with loss weight 1
I0208 03:34:39.979434  1052 net.cpp:165] Memory required for data: 1719140228
I0208 03:34:39.979436  1052 layer_factory.hpp:76] Creating layer detection_accuracy_3_3x5
I0208 03:34:39.979444  1052 net.cpp:106] Creating Layer detection_accuracy_3_3x5
I0208 03:34:39.979446  1052 net.cpp:454] detection_accuracy_3_3x5 <- LFCN_3_3x5_LFCN_3_3x5_0_split_1
I0208 03:34:39.979451  1052 net.cpp:454] detection_accuracy_3_3x5 <- label_3_3x5_data_5_split_1
I0208 03:34:39.979455  1052 net.cpp:411] detection_accuracy_3_3x5 -> accuracy_3_3x5
I0208 03:34:39.979475  1052 net.cpp:411] detection_accuracy_3_3x5 -> boxiou_3_3x5
I0208 03:34:39.979531  1052 net.cpp:150] Setting up detection_accuracy_3_3x5
I0208 03:34:39.979535  1052 net.cpp:157] Top shape: 1 1 1 2 (2)
I0208 03:34:39.979539  1052 net.cpp:157] Top shape: 1 1 1 1 (1)
I0208 03:34:39.979554  1052 net.cpp:165] Memory required for data: 1719140240
I0208 03:34:39.979557  1052 layer_factory.hpp:76] Creating layer LFCN_3_5x7
I0208 03:34:39.979565  1052 net.cpp:106] Creating Layer LFCN_3_5x7
I0208 03:34:39.979568  1052 net.cpp:454] LFCN_3_5x7 <- conv6_1_relu6_1_0_split_1
I0208 03:34:39.979575  1052 net.cpp:411] LFCN_3_5x7 -> LFCN_3_5x7
I0208 03:34:39.984279  1052 net.cpp:150] Setting up LFCN_3_5x7
I0208 03:34:39.984303  1052 net.cpp:157] Top shape: 2 6 18 18 (3888)
I0208 03:34:39.984308  1052 net.cpp:165] Memory required for data: 1719155792
I0208 03:34:39.984313  1052 layer_factory.hpp:76] Creating layer LFCN_3_5x7_LFCN_3_5x7_0_split
I0208 03:34:39.984318  1052 net.cpp:106] Creating Layer LFCN_3_5x7_LFCN_3_5x7_0_split
I0208 03:34:39.984323  1052 net.cpp:454] LFCN_3_5x7_LFCN_3_5x7_0_split <- LFCN_3_5x7
I0208 03:34:39.984329  1052 net.cpp:411] LFCN_3_5x7_LFCN_3_5x7_0_split -> LFCN_3_5x7_LFCN_3_5x7_0_split_0
I0208 03:34:39.984335  1052 net.cpp:411] LFCN_3_5x7_LFCN_3_5x7_0_split -> LFCN_3_5x7_LFCN_3_5x7_0_split_1
I0208 03:34:39.984340  1052 net.cpp:411] LFCN_3_5x7_LFCN_3_5x7_0_split -> LFCN_3_5x7_LFCN_3_5x7_0_split_2
I0208 03:34:39.984432  1052 net.cpp:150] Setting up LFCN_3_5x7_LFCN_3_5x7_0_split
I0208 03:34:39.984447  1052 net.cpp:157] Top shape: 2 6 18 18 (3888)
I0208 03:34:39.984452  1052 net.cpp:157] Top shape: 2 6 18 18 (3888)
I0208 03:34:39.984454  1052 net.cpp:157] Top shape: 2 6 18 18 (3888)
I0208 03:34:39.984457  1052 net.cpp:165] Memory required for data: 1719202448
I0208 03:34:39.984459  1052 layer_factory.hpp:76] Creating layer detection_loss_3_5x7
I0208 03:34:39.984464  1052 net.cpp:106] Creating Layer detection_loss_3_5x7
I0208 03:34:39.984467  1052 net.cpp:454] detection_loss_3_5x7 <- LFCN_3_5x7_LFCN_3_5x7_0_split_0
I0208 03:34:39.984472  1052 net.cpp:454] detection_loss_3_5x7 <- label_3_5x7_data_6_split_0
I0208 03:34:39.984477  1052 net.cpp:411] detection_loss_3_5x7 -> loss_3_5x7
I0208 03:34:39.984484  1052 layer_factory.hpp:76] Creating layer detection_loss_3_5x7
I0208 03:34:39.985092  1052 net.cpp:150] Setting up detection_loss_3_5x7
I0208 03:34:39.985105  1052 net.cpp:157] Top shape: 1 1 1 2 (2)
I0208 03:34:39.985119  1052 net.cpp:160]     with loss weight 1
I0208 03:34:39.985126  1052 net.cpp:165] Memory required for data: 1719202456
I0208 03:34:39.985128  1052 layer_factory.hpp:76] Creating layer detection_accuracy_3_5x7
I0208 03:34:39.985134  1052 net.cpp:106] Creating Layer detection_accuracy_3_5x7
I0208 03:34:39.985138  1052 net.cpp:454] detection_accuracy_3_5x7 <- LFCN_3_5x7_LFCN_3_5x7_0_split_1
I0208 03:34:39.985142  1052 net.cpp:454] detection_accuracy_3_5x7 <- label_3_5x7_data_6_split_1
I0208 03:34:39.985147  1052 net.cpp:411] detection_accuracy_3_5x7 -> accuracy_3_5x7
I0208 03:34:39.985155  1052 net.cpp:411] detection_accuracy_3_5x7 -> boxiou_3_5x7
I0208 03:34:39.985224  1052 net.cpp:150] Setting up detection_accuracy_3_5x7
I0208 03:34:39.985242  1052 net.cpp:157] Top shape: 1 1 1 2 (2)
I0208 03:34:39.985257  1052 net.cpp:157] Top shape: 1 1 1 1 (1)
I0208 03:34:39.985260  1052 net.cpp:165] Memory required for data: 1719202468
I0208 03:34:39.985262  1052 layer_factory.hpp:76] Creating layer pool6
I0208 03:34:39.985282  1052 net.cpp:106] Creating Layer pool6
I0208 03:34:39.985286  1052 net.cpp:454] pool6 <- conv6_1_relu6_1_0_split_2
I0208 03:34:39.985291  1052 net.cpp:411] pool6 -> pool6
I0208 03:34:39.985532  1052 net.cpp:150] Setting up pool6
I0208 03:34:39.985543  1052 net.cpp:157] Top shape: 2 512 9 9 (82944)
I0208 03:34:39.985546  1052 net.cpp:165] Memory required for data: 1719534244
I0208 03:34:39.985549  1052 layer_factory.hpp:76] Creating layer LFCN_4_3x5
I0208 03:34:39.985558  1052 net.cpp:106] Creating Layer LFCN_4_3x5
I0208 03:34:39.985563  1052 net.cpp:454] LFCN_4_3x5 <- pool6
I0208 03:34:39.985569  1052 net.cpp:411] LFCN_4_3x5 -> LFCN_4_3x5
I0208 03:34:39.988312  1052 net.cpp:150] Setting up LFCN_4_3x5
I0208 03:34:39.988338  1052 net.cpp:157] Top shape: 2 6 9 9 (972)
I0208 03:34:39.988342  1052 net.cpp:165] Memory required for data: 1719538132
I0208 03:34:39.988348  1052 layer_factory.hpp:76] Creating layer LFCN_4_3x5_LFCN_4_3x5_0_split
I0208 03:34:39.988353  1052 net.cpp:106] Creating Layer LFCN_4_3x5_LFCN_4_3x5_0_split
I0208 03:34:39.988356  1052 net.cpp:454] LFCN_4_3x5_LFCN_4_3x5_0_split <- LFCN_4_3x5
I0208 03:34:39.988361  1052 net.cpp:411] LFCN_4_3x5_LFCN_4_3x5_0_split -> LFCN_4_3x5_LFCN_4_3x5_0_split_0
I0208 03:34:39.988369  1052 net.cpp:411] LFCN_4_3x5_LFCN_4_3x5_0_split -> LFCN_4_3x5_LFCN_4_3x5_0_split_1
I0208 03:34:39.988386  1052 net.cpp:411] LFCN_4_3x5_LFCN_4_3x5_0_split -> LFCN_4_3x5_LFCN_4_3x5_0_split_2
I0208 03:34:39.988483  1052 net.cpp:150] Setting up LFCN_4_3x5_LFCN_4_3x5_0_split
I0208 03:34:39.988515  1052 net.cpp:157] Top shape: 2 6 9 9 (972)
I0208 03:34:39.988519  1052 net.cpp:157] Top shape: 2 6 9 9 (972)
I0208 03:34:39.988523  1052 net.cpp:157] Top shape: 2 6 9 9 (972)
I0208 03:34:39.988524  1052 net.cpp:165] Memory required for data: 1719549796
I0208 03:34:39.988528  1052 layer_factory.hpp:76] Creating layer detection_loss_4_3x5
I0208 03:34:39.988534  1052 net.cpp:106] Creating Layer detection_loss_4_3x5
I0208 03:34:39.988538  1052 net.cpp:454] detection_loss_4_3x5 <- LFCN_4_3x5_LFCN_4_3x5_0_split_0
I0208 03:34:39.988543  1052 net.cpp:454] detection_loss_4_3x5 <- label_4_3x5_data_7_split_0
I0208 03:34:39.988548  1052 net.cpp:411] detection_loss_4_3x5 -> loss_4_3x5
I0208 03:34:39.988554  1052 layer_factory.hpp:76] Creating layer detection_loss_4_3x5
I0208 03:34:39.989174  1052 net.cpp:150] Setting up detection_loss_4_3x5
I0208 03:34:39.989197  1052 net.cpp:157] Top shape: 1 1 1 2 (2)
I0208 03:34:39.989202  1052 net.cpp:160]     with loss weight 1
I0208 03:34:39.989207  1052 net.cpp:165] Memory required for data: 1719549804
I0208 03:34:39.989209  1052 layer_factory.hpp:76] Creating layer detection_accuracy_4_3x5
I0208 03:34:39.989219  1052 net.cpp:106] Creating Layer detection_accuracy_4_3x5
I0208 03:34:39.989223  1052 net.cpp:454] detection_accuracy_4_3x5 <- LFCN_4_3x5_LFCN_4_3x5_0_split_1
I0208 03:34:39.989228  1052 net.cpp:454] detection_accuracy_4_3x5 <- label_4_3x5_data_7_split_1
I0208 03:34:39.989233  1052 net.cpp:411] detection_accuracy_4_3x5 -> accuracy_4_3x5
I0208 03:34:39.989250  1052 net.cpp:411] detection_accuracy_4_3x5 -> boxiou_4_3x5
I0208 03:34:39.989316  1052 net.cpp:150] Setting up detection_accuracy_4_3x5
I0208 03:34:39.989322  1052 net.cpp:157] Top shape: 1 1 1 2 (2)
I0208 03:34:39.989337  1052 net.cpp:157] Top shape: 1 1 1 1 (1)
I0208 03:34:39.989341  1052 net.cpp:165] Memory required for data: 1719549816
I0208 03:34:39.989343  1052 layer_factory.hpp:76] Creating layer proposals
I0208 03:34:39.989351  1052 net.cpp:106] Creating Layer proposals
I0208 03:34:39.989354  1052 net.cpp:454] proposals <- LFCN_1_3x5_LFCN_1_3x5_0_split_2
I0208 03:34:39.989358  1052 net.cpp:454] proposals <- LFCN_1_5x7_LFCN_1_5x7_0_split_2
I0208 03:34:39.989362  1052 net.cpp:454] proposals <- LFCN_2_3x5_LFCN_2_3x5_0_split_2
I0208 03:34:39.989364  1052 net.cpp:454] proposals <- LFCN_2_5x7_LFCN_2_5x7_0_split_2
I0208 03:34:39.989367  1052 net.cpp:454] proposals <- LFCN_3_3x5_LFCN_3_3x5_0_split_2
I0208 03:34:39.989375  1052 net.cpp:454] proposals <- LFCN_3_5x7_LFCN_3_5x7_0_split_2
I0208 03:34:39.989379  1052 net.cpp:454] proposals <- LFCN_4_3x5_LFCN_4_3x5_0_split_2
I0208 03:34:39.989384  1052 net.cpp:411] proposals -> proposals
I0208 03:34:39.989419  1052 net.cpp:150] Setting up proposals
I0208 03:34:39.989424  1052 net.cpp:157] Top shape: 1 5 1 1 (5)
I0208 03:34:39.989428  1052 net.cpp:165] Memory required for data: 1719549836
I0208 03:34:39.989430  1052 layer_factory.hpp:76] Creating layer proposal_info
I0208 03:34:39.989439  1052 net.cpp:106] Creating Layer proposal_info
I0208 03:34:39.989441  1052 net.cpp:454] proposal_info <- proposals
I0208 03:34:39.989445  1052 net.cpp:454] proposal_info <- gt_boxes
I0208 03:34:39.989451  1052 net.cpp:411] proposal_info -> rois
I0208 03:34:39.989459  1052 net.cpp:411] proposal_info -> proposal_labels
I0208 03:34:39.989464  1052 net.cpp:411] proposal_info -> proposal_targets
I0208 03:34:39.989472  1052 net.cpp:411] proposal_info -> box_inside_weights
I0208 03:34:39.989477  1052 net.cpp:411] proposal_info -> box_outside_weights
I0208 03:34:39.989483  1052 net.cpp:411] proposal_info -> match_gt_boxes
I0208 03:34:39.989600  1052 net.cpp:150] Setting up proposal_info
I0208 03:34:39.989609  1052 net.cpp:157] Top shape: 64 5 1 1 (320)
I0208 03:34:39.989612  1052 net.cpp:157] Top shape: 64 1 1 1 (64)
I0208 03:34:39.989615  1052 net.cpp:157] Top shape: 64 8 1 1 (512)
I0208 03:34:39.989619  1052 net.cpp:157] Top shape: 64 8 1 1 (512)
I0208 03:34:39.989621  1052 net.cpp:157] Top shape: 64 8 1 1 (512)
I0208 03:34:39.989624  1052 net.cpp:157] Top shape: 64 6 1 1 (384)
I0208 03:34:39.989627  1052 net.cpp:165] Memory required for data: 1719559052
I0208 03:34:39.989629  1052 layer_factory.hpp:76] Creating layer rois_proposal_info_0_split
I0208 03:34:39.989634  1052 net.cpp:106] Creating Layer rois_proposal_info_0_split
I0208 03:34:39.989637  1052 net.cpp:454] rois_proposal_info_0_split <- rois
I0208 03:34:39.989644  1052 net.cpp:411] rois_proposal_info_0_split -> rois_proposal_info_0_split_0
I0208 03:34:39.989650  1052 net.cpp:411] rois_proposal_info_0_split -> rois_proposal_info_0_split_1
I0208 03:34:39.989653  1052 net.cpp:411] rois_proposal_info_0_split -> rois_proposal_info_0_split_2
I0208 03:34:39.989713  1052 net.cpp:150] Setting up rois_proposal_info_0_split
I0208 03:34:39.989718  1052 net.cpp:157] Top shape: 64 5 1 1 (320)
I0208 03:34:39.989722  1052 net.cpp:157] Top shape: 64 5 1 1 (320)
I0208 03:34:39.989725  1052 net.cpp:157] Top shape: 64 5 1 1 (320)
I0208 03:34:39.989727  1052 net.cpp:165] Memory required for data: 1719562892
I0208 03:34:39.989730  1052 layer_factory.hpp:76] Creating layer proposal_labels_proposal_info_1_split
I0208 03:34:39.989734  1052 net.cpp:106] Creating Layer proposal_labels_proposal_info_1_split
I0208 03:34:39.989738  1052 net.cpp:454] proposal_labels_proposal_info_1_split <- proposal_labels
I0208 03:34:39.989742  1052 net.cpp:411] proposal_labels_proposal_info_1_split -> proposal_labels_proposal_info_1_split_0
I0208 03:34:39.989748  1052 net.cpp:411] proposal_labels_proposal_info_1_split -> proposal_labels_proposal_info_1_split_1
I0208 03:34:39.989789  1052 net.cpp:150] Setting up proposal_labels_proposal_info_1_split
I0208 03:34:39.989794  1052 net.cpp:157] Top shape: 64 1 1 1 (64)
I0208 03:34:39.989799  1052 net.cpp:157] Top shape: 64 1 1 1 (64)
I0208 03:34:39.989800  1052 net.cpp:165] Memory required for data: 1719563404
I0208 03:34:39.989804  1052 layer_factory.hpp:76] Creating layer roi_pool_org
I0208 03:34:39.989810  1052 net.cpp:106] Creating Layer roi_pool_org
I0208 03:34:39.989814  1052 net.cpp:454] roi_pool_org <- conv4_3_relu4_3_0_split_2
I0208 03:34:39.989819  1052 net.cpp:454] roi_pool_org <- rois_proposal_info_0_split_0
I0208 03:34:39.989822  1052 net.cpp:411] roi_pool_org -> roi_pool_org
I0208 03:34:39.989830  1052 roi_pooling_layer.cpp:35] Spatial scale: 0.125
I0208 03:34:39.989877  1052 net.cpp:150] Setting up roi_pool_org
I0208 03:34:39.989882  1052 net.cpp:157] Top shape: 64 512 8 4 (1048576)
I0208 03:34:39.989884  1052 net.cpp:165] Memory required for data: 1723757708
I0208 03:34:39.989887  1052 layer_factory.hpp:76] Creating layer roi_pool_ctx
I0208 03:34:39.989892  1052 net.cpp:106] Creating Layer roi_pool_ctx
I0208 03:34:39.989897  1052 net.cpp:454] roi_pool_ctx <- conv4_3_relu4_3_0_split_3
I0208 03:34:39.989902  1052 net.cpp:454] roi_pool_ctx <- rois_proposal_info_0_split_1
I0208 03:34:39.989905  1052 net.cpp:411] roi_pool_ctx -> roi_pool_ctx
I0208 03:34:39.989912  1052 roi_pooling_layer.cpp:35] Spatial scale: 0.125
I0208 03:34:39.989956  1052 net.cpp:150] Setting up roi_pool_ctx
I0208 03:34:39.989964  1052 net.cpp:157] Top shape: 64 512 8 4 (1048576)
I0208 03:34:39.989965  1052 net.cpp:165] Memory required for data: 1727952012
I0208 03:34:39.989969  1052 layer_factory.hpp:76] Creating layer roi_pool
I0208 03:34:39.989974  1052 net.cpp:106] Creating Layer roi_pool
I0208 03:34:39.989976  1052 net.cpp:454] roi_pool <- roi_pool_org
I0208 03:34:39.989980  1052 net.cpp:454] roi_pool <- roi_pool_ctx
I0208 03:34:39.989984  1052 net.cpp:411] roi_pool -> roi_pool
I0208 03:34:39.990015  1052 net.cpp:150] Setting up roi_pool
I0208 03:34:39.990020  1052 net.cpp:157] Top shape: 64 1024 8 4 (2097152)
I0208 03:34:39.990022  1052 net.cpp:165] Memory required for data: 1736340620
I0208 03:34:39.990025  1052 layer_factory.hpp:76] Creating layer roi_c1
I0208 03:34:39.990031  1052 net.cpp:106] Creating Layer roi_c1
I0208 03:34:39.990034  1052 net.cpp:454] roi_c1 <- roi_pool
I0208 03:34:39.990041  1052 net.cpp:411] roi_c1 -> roi_c1
I0208 03:34:40.132570  1052 net.cpp:150] Setting up roi_c1
I0208 03:34:40.132614  1052 net.cpp:157] Top shape: 64 512 8 4 (1048576)
I0208 03:34:40.132618  1052 net.cpp:165] Memory required for data: 1740534924
I0208 03:34:40.132627  1052 layer_factory.hpp:76] Creating layer roi_c1_relu
I0208 03:34:40.132637  1052 net.cpp:106] Creating Layer roi_c1_relu
I0208 03:34:40.132642  1052 net.cpp:454] roi_c1_relu <- roi_c1
I0208 03:34:40.132647  1052 net.cpp:397] roi_c1_relu -> roi_c1 (in-place)
I0208 03:34:40.133041  1052 net.cpp:150] Setting up roi_c1_relu
I0208 03:34:40.133066  1052 net.cpp:157] Top shape: 64 512 8 4 (1048576)
I0208 03:34:40.133082  1052 net.cpp:165] Memory required for data: 1744729228
I0208 03:34:40.133086  1052 layer_factory.hpp:76] Creating layer fc6
I0208 03:34:40.133095  1052 net.cpp:106] Creating Layer fc6
I0208 03:34:40.133100  1052 net.cpp:454] fc6 <- roi_c1
I0208 03:34:40.133107  1052 net.cpp:411] fc6 -> fc6
I0208 03:34:41.075708  1052 net.cpp:150] Setting up fc6
I0208 03:34:41.075742  1052 net.cpp:157] Top shape: 64 2048 (131072)
I0208 03:34:41.075744  1052 net.cpp:165] Memory required for data: 1745253516
I0208 03:34:41.075754  1052 layer_factory.hpp:76] Creating layer relu6
I0208 03:34:41.075767  1052 net.cpp:106] Creating Layer relu6
I0208 03:34:41.075772  1052 net.cpp:454] relu6 <- fc6
I0208 03:34:41.075778  1052 net.cpp:397] relu6 -> fc6 (in-place)
I0208 03:34:41.076122  1052 net.cpp:150] Setting up relu6
I0208 03:34:41.076133  1052 net.cpp:157] Top shape: 64 2048 (131072)
I0208 03:34:41.076138  1052 net.cpp:165] Memory required for data: 1745777804
I0208 03:34:41.076140  1052 layer_factory.hpp:76] Creating layer drop6
I0208 03:34:41.076149  1052 net.cpp:106] Creating Layer drop6
I0208 03:34:41.076153  1052 net.cpp:454] drop6 <- fc6
I0208 03:34:41.076162  1052 net.cpp:397] drop6 -> fc6 (in-place)
I0208 03:34:41.076202  1052 net.cpp:150] Setting up drop6
I0208 03:34:41.076208  1052 net.cpp:157] Top shape: 64 2048 (131072)
I0208 03:34:41.076210  1052 net.cpp:165] Memory required for data: 1746302092
I0208 03:34:41.076213  1052 layer_factory.hpp:76] Creating layer fc6_drop6_0_split
I0208 03:34:41.076218  1052 net.cpp:106] Creating Layer fc6_drop6_0_split
I0208 03:34:41.076221  1052 net.cpp:454] fc6_drop6_0_split <- fc6
I0208 03:34:41.076227  1052 net.cpp:411] fc6_drop6_0_split -> fc6_drop6_0_split_0
I0208 03:34:41.076234  1052 net.cpp:411] fc6_drop6_0_split -> fc6_drop6_0_split_1
I0208 03:34:41.076294  1052 net.cpp:150] Setting up fc6_drop6_0_split
I0208 03:34:41.076299  1052 net.cpp:157] Top shape: 64 2048 (131072)
I0208 03:34:41.076303  1052 net.cpp:157] Top shape: 64 2048 (131072)
I0208 03:34:41.076305  1052 net.cpp:165] Memory required for data: 1747350668
I0208 03:34:41.076308  1052 layer_factory.hpp:76] Creating layer cls_pred
I0208 03:34:41.076318  1052 net.cpp:106] Creating Layer cls_pred
I0208 03:34:41.076321  1052 net.cpp:454] cls_pred <- fc6_drop6_0_split_0
I0208 03:34:41.076326  1052 net.cpp:411] cls_pred -> cls_pred
I0208 03:34:41.076608  1052 net.cpp:150] Setting up cls_pred
I0208 03:34:41.076617  1052 net.cpp:157] Top shape: 64 2 (128)
I0208 03:34:41.076619  1052 net.cpp:165] Memory required for data: 1747351180
I0208 03:34:41.076625  1052 layer_factory.hpp:76] Creating layer cls_pred_cls_pred_0_split
I0208 03:34:41.076630  1052 net.cpp:106] Creating Layer cls_pred_cls_pred_0_split
I0208 03:34:41.076633  1052 net.cpp:454] cls_pred_cls_pred_0_split <- cls_pred
I0208 03:34:41.076638  1052 net.cpp:411] cls_pred_cls_pred_0_split -> cls_pred_cls_pred_0_split_0
I0208 03:34:41.076645  1052 net.cpp:411] cls_pred_cls_pred_0_split -> cls_pred_cls_pred_0_split_1
I0208 03:34:41.076690  1052 net.cpp:150] Setting up cls_pred_cls_pred_0_split
I0208 03:34:41.076695  1052 net.cpp:157] Top shape: 64 2 (128)
I0208 03:34:41.076699  1052 net.cpp:157] Top shape: 64 2 (128)
I0208 03:34:41.076701  1052 net.cpp:165] Memory required for data: 1747352204
I0208 03:34:41.076704  1052 layer_factory.hpp:76] Creating layer bbox_pred
I0208 03:34:41.076711  1052 net.cpp:106] Creating Layer bbox_pred
I0208 03:34:41.076715  1052 net.cpp:454] bbox_pred <- fc6_drop6_0_split_1
I0208 03:34:41.076720  1052 net.cpp:411] bbox_pred -> bbox_pred
I0208 03:34:41.078037  1052 net.cpp:150] Setting up bbox_pred
I0208 03:34:41.078050  1052 net.cpp:157] Top shape: 64 8 (512)
I0208 03:34:41.078053  1052 net.cpp:165] Memory required for data: 1747354252
I0208 03:34:41.078059  1052 layer_factory.hpp:76] Creating layer bbox_pred_bbox_pred_0_split
I0208 03:34:41.078065  1052 net.cpp:106] Creating Layer bbox_pred_bbox_pred_0_split
I0208 03:34:41.078068  1052 net.cpp:454] bbox_pred_bbox_pred_0_split <- bbox_pred
I0208 03:34:41.078075  1052 net.cpp:411] bbox_pred_bbox_pred_0_split -> bbox_pred_bbox_pred_0_split_0
I0208 03:34:41.078100  1052 net.cpp:411] bbox_pred_bbox_pred_0_split -> bbox_pred_bbox_pred_0_split_1
I0208 03:34:41.078155  1052 net.cpp:150] Setting up bbox_pred_bbox_pred_0_split
I0208 03:34:41.078162  1052 net.cpp:157] Top shape: 64 8 (512)
I0208 03:34:41.078166  1052 net.cpp:157] Top shape: 64 8 (512)
I0208 03:34:41.078168  1052 net.cpp:165] Memory required for data: 1747358348
I0208 03:34:41.078171  1052 layer_factory.hpp:76] Creating layer loss_cls
I0208 03:34:41.078179  1052 net.cpp:106] Creating Layer loss_cls
I0208 03:34:41.078183  1052 net.cpp:454] loss_cls <- cls_pred_cls_pred_0_split_0
I0208 03:34:41.078188  1052 net.cpp:454] loss_cls <- proposal_labels_proposal_info_1_split_0
…
