…
    downsample_rate: 32
    downsample_rate: 32
    downsample_rate: 64
    coord_num: 4
    field_h: 60
    field_h: 84
    field_h: 120
    field_h: 168
    field_h: 240
    field_h: 336
    field_h: 480
    field_w: 30
    field_w: 42
    field_w: 60
    field_w: 84
    field_w: 120
    field_w: 168
    field_w: 240
    fg_threshold: 0.5
    resize_width: 960
    resize_height: 720
    crop_width: 576
    crop_height: 576
    do_multiple_scale: true
    min_scale: 40
    max_scale: 340
    min_gt_height: 65
    shuffle: true
    output_gt_boxes: true
  }
}
layer {
  name: "conv1_1"
  type: "Convolution"
  bottom: "data"
  top: "conv1_1"
  param {
    lr_mult: 0
    decay_mult: 0
  }
  param {
    lr_mult: 0
    decay_mult: 0
  }
  convolution_param {
    num_output: 64
    pad: 1
    kernel_size: 3
  }
}
layer {
  name: "relu1_1"
  type: "ReLU"
  bottom: "conv1_1"
  top: "conv1_1"
}
layer {
  name: "conv1_2"
  type: "Convolution"
  bottom: "conv1_1"
  top: "conv1_2"
  param {
    lr_mult: 0
    decay_mult: 0
  }
  param {
    lr_mult: 0
    decay_mult: 0
  }
  convolution_param {
    num_output: 64
    pad: 1
    kernel_size: 3
  }
}
layer {
  name: "relu1_2"
  type: "ReLU"
  bottom: "conv1_2"
  top: "conv1_2"
}
layer {
  name: "pool1"
  type: "Pooling"
  bottom: "conv1_2"
  top: "pool1"
  pooling_param {
    pool: MAX
    kernel_size: 2
    stride: 2
  }
}
layer {
  name: "conv2_1"
  type: "Convolution"
  bottom: "pool1"
  top: "conv2_1"
  param {
    lr_mult: 0
    decay_mult: 0
  }
  param {
    lr_mult: 0
    decay_mult: 0
  }
  convolution_param {
    num_output: 128
    pad: 1
    kernel_size: 3
  }
}
layer {
  name: "relu2_1"
  type: "ReLU"
  bottom: "conv2_1"
  top: "conv2_1"
}
layer {
  name: "conv2_2"
  type: "Convolution"
  bottom: "conv2_1"
  top: "conv2_2"
  param {
    lr_mult: 0
    decay_mult: 0
  }
  param {
    lr_mult: 0
    decay_mult: 0
  }
  convolution_param {
    num_output: 128
    pad: 1
    kernel_size: 3
  }
}
layer {
  name: "relu2_2"
  type: "ReLU"
  bottom: "conv2_2"
  top: "conv2_2"
}
layer {
  name: "pool2"
  type: "Pooling"
  bottom: "conv2_2"
  top: "pool2"
  pooling_param {
    pool: MAX
    kernel_size: 2
    stride: 2
  }
}
layer {
  name: "conv3_1"
  type: "Convolution"
  bottom: "pool2"
  top: "conv3_1"
  convolution_param {
    num_output: 256
    pad: 1
    kernel_size: 3
  }
}
layer {
  name: "relu3_1"
  type: "ReLU"
  bottom: "conv3_1"
  top: "conv3_1"
}
layer {
  name: "conv3_2"
  type: "Convolution"
  bottom: "conv3_1"
  top: "conv3_2"
  convolution_param {
    num_output: 256
    pad: 1
    kernel_size: 3
  }
}
layer {
  name: "relu3_2"
  type: "ReLU"
  bottom: "conv3_2"
  top: "conv3_2"
}
layer {
  name: "conv3_3"
  type: "Convolution"
  bottom: "conv3_2"
  top: "conv3_3"
  convolution_param {
    num_output: 256
    pad: 1
    kernel_size: 3
  }
}
layer {
  name: "relu3_3"
  type: "ReLU"
  bottom: "conv3_3"
  top: "conv3_3"
}
layer {
  name: "pool3"
  type: "Pooling"
  bottom: "conv3_3"
  top: "pool3"
  pooling_param {
    pool: MAX
    kernel_size: 2
    stride: 2
  }
}
layer {
  name: "conv4_1"
  type: "Convolution"
  bottom: "pool3"
  top: "conv4_1"
  convolution_param {
    num_output: 512
    pad: 1
    kernel_size: 3
  }
}
layer {
  name: "relu4_1"
  type: "ReLU"
  bottom: "conv4_1"
  top: "conv4_1"
}
layer {
  name: "conv4_2"
  type: "Convolution"
  bottom: "conv4_1"
  top: "conv4_2"
  convolution_param {
    num_output: 512
    pad: 1
    kernel_size: 3
  }
}
layer {
  name: "relu4_2"
  type: "ReLU"
  bottom: "conv4_2"
  top: "conv4_2"
}
layer {
  name: "conv4_3"
  type: "Convolution"
  bottom: "conv4_2"
  top: "conv4_3"
  convolution_param {
    num_output: 512
    pad: 1
    kernel_size: 3
  }
}
layer {
  name: "relu4_3"
  type: "ReLU"
  bottom: "conv4_3"
  top: "conv4_3"
}
layer {
  name: "loss1_conv1"
  type: "Convolution"
  bottom: "conv4_3"
  top: "loss1_conv1"
  param {
    lr_mult: 1
    decay_mult: 1
  }
  param {
    lr_mult: 2
    decay_mult: 0
  }
  convolution_param {
    num_output: 512
    pad: 1
    kernel_size: 3
    weight_filler {
      type: "gaussian"
      std: 0.01
    }
    bias_filler {
      type: "constant"
    }
  }
}
layer {
  name: "loss_relu1"
  type: "ReLU"
  bottom: "loss1_conv1"
  top: "loss1_conv1"
}
layer {
  name: "LFCN_1_3x5"
  type: "Convolution"
  bottom: "loss1_conv1"
  top: "LFCN_1_3x5"
  param {
    lr_mult: 1
    decay_mult: 1
  }
  param {
    lr_mult: 2
    decay_mult: 0
  }
  convolution_param {
    num_output: 6
    weight_filler {
      type: "gaussian"
      std: 0.001
    }
    bias_filler {
      type: "constant"
    }
    pad_h: 2
    pad_w: 1
    kernel_h: 5
    kernel_w: 3
  }
}
layer {
  name: "detection_loss_1_3x5"
  type: "Detection"
  bottom: "LFCN_1_3x5"
  bottom: "label_1_3x5"
  top: "loss_1_3x5"
  loss_weight: 0.9
  detection_param {
    cls_num: 2
    coord_num: 4
    lambda: 1
    field_h: 60
    field_w: 30
    downsample_rate: 8
    bb_smooth: true
    field_whr: 2
    field_xyr: 2
    bg_threshold: 0.2
    bg_multiple: 2
    sample_mode: "bootstrap"
    pos_neg_weighted: true
  }
}
layer {
  name: "detection_accuracy_1_3x5"
  type: "DetectionAccuracy"
  bottom: "LFCN_1_3x5"
  bottom: "label_1_3x5"
  top: "accuracy_1_3x5"
  top: "boxiou_1_3x5"
  detection_accuracy_param {
    cls_num: 2
    coord_num: 4
    field_h: 60
    field_w: 30
    downsample_rate: 8
    field_whr: 2
    field_xyr: 2
  }
}
layer {
  name: "LFCN_1_5x7"
  type: "Convolution"
  bottom: "loss1_conv1"
  top: "LFCN_1_5x7"
  param {
    lr_mult: 1
    decay_mult: 1
  }
  param {
    lr_mult: 2
    decay_mult: 0
  }
  convolution_param {
    num_output: 6
    weight_filler {
      type: "gaussian"
      std: 0.001
    }
    bias_filler {
      type: "constant"
    }
    pad_h: 3
    pad_w: 2
    kernel_h: 7
    kernel_w: 5
  }
}
layer {
  name: "detection_loss_1_5x7"
  type: "Detection"
  bottom: "LFCN_1_5x7"
  bottom: "label_1_5x7"
  top: "loss_1_5x7"
  loss_weight: 0.9
  detection_param {
    cls_num: 2
    coord_num: 4
    lambda: 1
    field_h: 84
    field_w: 42
    downsample_rate: 8
    bb_smooth: true
    field_whr: 2
    field_xyr: 2
    bg_threshold: 0.2
    bg_multiple: 2
    sample_mode: "bootstrap"
    pos_neg_weighted: true
  }
}
layer {
  name: "detection_accuracy_1_5x7"
  type: "DetectionAccuracy"
  bottom: "LFCN_1_5x7"
  bottom: "label_1_5x7"
  top: "accuracy_1_5x7"
  top: "boxiou_1_5x7"
  detection_accuracy_param {
    cls_num: 2
    coord_num: 4
    field_h: 84
    field_w: 42
    downsample_rate: 8
    field_whr: 2
    field_xyr: 2
  }
}
layer {
  name: "pool4"
  type: "Pooling"
  bottom: "conv4_3"
  top: "pool4"
  pooling_param {
    pool: MAX
    kernel_size: 2
    stride: 2
  }
}
layer {
  name: "conv5_1"
  type: "Convolution"
  bottom: "pool4"
  top: "conv5_1"
  convolution_param {
    num_output: 512
    pad: 1
    kernel_size: 3
  }
}
layer {
  name: "relu5_1"
  type: "ReLU"
  bottom: "conv5_1"
  top: "conv5_1"
}
layer {
  name: "conv5_2"
  type: "Convolution"
  bottom: "conv5_1"
  top: "conv5_2"
  convolution_param {
    num_output: 512
    pad: 1
    kernel_size: 3
  }
}
layer {
  name: "relu5_2"
  type: "ReLU"
  bottom: "conv5_2"
  top: "conv5_2"
}
layer {
  name: "conv5_3"
  type: "Convolution"
  bottom: "conv5_2"
  top: "conv5_3"
  convolution_param {
    num_output: 512
    pad: 1
    kernel_size: 3
  }
}
layer {
  name: "relu5_3"
  type: "ReLU"
  bottom: "conv5_3"
  top: "conv5_3"
}
layer {
  name: "LFCN_2_3x5"
  type: "Convolution"
  bottom: "conv5_3"
  top: "LFCN_2_3x5"
  param {
    lr_mult: 1
    decay_mult: 1
  }
  param {
    lr_mult: 2
    decay_mult: 0
  }
  convolution_param {
    num_output: 6
    weight_filler {
      type: "gaussian"
      std: 0.001
    }
    bias_filler {
      type: "constant"
    }
    pad_h: 2
    pad_w: 1
    kernel_h: 5
    kernel_w: 3
  }
}
layer {
  name: "detection_loss_2_3x5"
  type: "Detection"
  bottom: "LFCN_2_3x5"
  bottom: "label_2_3x5"
  top: "loss_2_3x5"
  detection_param {
    cls_num: 2
    coord_num: 4
    lambda: 1
    field_h: 120
    field_w: 60
    downsample_rate: 16
    bb_smooth: true
    field_whr: 2
    field_xyr: 2
    bg_threshold: 0.2
    bg_multiple: 2
    sample_mode: "bootstrap"
    pos_neg_weighted: true
  }
}
layer {
  name: "detection_accuracy_2_3x5"
  type: "DetectionAccuracy"
  bottom: "LFCN_2_3x5"
  bottom: "label_2_3x5"
  top: "accuracy_2_3x5"
  top: "boxiou_2_3x5"
  detection_accuracy_param {
    cls_num: 2
    coord_num: 4
    field_h: 120
    field_w: 60
    downsample_rate: 16
    field_whr: 2
    field_xyr: 2
  }
}
layer {
  name: "LFCN_2_5x7"
  type: "Convolution"
  bottom: "conv5_3"
  top: "LFCN_2_5x7"
  param {
    lr_mult: 1
    decay_mult: 1
  }
  param {
    lr_mult: 2
    decay_mult: 0
  }
  convolution_param {
    num_output: 6
    weight_filler {
      type: "gaussian"
      std: 0.001
    }
    bias_filler {
      type: "constant"
    }
    pad_h: 3
    pad_w: 2
    kernel_h: 7
    kernel_w: 5
  }
}
layer {
  name: "detection_loss_2_5x7"
  type: "Detection"
  bottom: "LFCN_2_5x7"
  bottom: "label_2_5x7"
  top: "loss_2_5x7"
  detection_param {
    cls_num: 2
    coord_num: 4
    lambda: 1
    field_h: 168
    field_w: 84
    downsample_rate: 16
    bb_smooth: true
    field_whr: 2
    field_xyr: 2
    bg_threshold: 0.2
    bg_multiple: 2
    sample_mode: "bootstrap"
    pos_neg_weighted: true
  }
}
layer {
  name: "detection_accuracy_2_5x7"
  type: "DetectionAccuracy"
  bottom: "LFCN_2_5x7"
  bottom: "label_2_5x7"
  top: "accuracy_2_5x7"
  top: "boxiou_2_5x7"
  detection_accuracy_param {
    cls_num: 2
    coord_num: 4
    field_h: 168
    field_w: 84
    downsample_rate: 16
    field_whr: 2
    field_xyr: 2
  }
}
layer {
  name: "pool5"
  type: "Pooling"
  bottom: "conv5_3"
  top: "pool5"
  pooling_param {
    pool: MAX
    kernel_size: 2
    stride: 2
  }
}
layer {
  name: "conv6_1"
  type: "Convolution"
  bottom: "pool5"
  top: "conv6_1"
  param {
    lr_mult: 1
    decay_mult: 1
  }
  param {
    lr_mult: 2
    decay_mult: 0
  }
  convolution_param {
    num_output: 512
    pad: 1
    kernel_size: 3
    weight_filler {
      type: "gaussian"
      std: 0.01
    }
    bias_filler {
      type: "constant"
    }
  }
}
layer {
  name: "relu6_1"
  type: "ReLU"
  bottom: "conv6_1"
  top: "conv6_1"
}
layer {
  name: "LFCN_3_3x5"
  type: "Convolution"
  bottom: "conv6_1"
  top: "LFCN_3_3x5"
  param {
    lr_mult: 1
    decay_mult: 1
  }
  param {
    lr_mult: 2
    decay_mult: 0
  }
  convolution_param {
    num_output: 6
    weight_filler {
      type: "gaussian"
      std: 0.001
    }
    bias_filler {
      type: "constant"
    }
    pad_h: 2
    pad_w: 1
    kernel_h: 5
    kernel_w: 3
  }
}
layer {
  name: "detection_loss_3_3x5"
  type: "Detection"
  bottom: "LFCN_3_3x5"
  bottom: "label_3_3x5"
  top: "loss_3_3x5"
  detection_param {
    cls_num: 2
    coord_num: 4
    lambda: 1
    field_h: 240
    field_w: 120
    downsample_rate: 32
    bb_smooth: true
    field_whr: 2
    field_xyr: 2
    bg_threshold: 0.2
    bg_multiple: 2
    sample_mode: "bootstrap"
    pos_neg_weighted: true
  }
}
layer {
  name: "detection_accuracy_3_3x5"
  type: "DetectionAccuracy"
  bottom: "LFCN_3_3x5"
  bottom: "label_3_3x5"
  top: "accuracy_3_3x5"
  top: "boxiou_3_3x5"
  detection_accuracy_param {
    cls_num: 2
    coord_num: 4
    field_h: 240
    field_w: 120
    downsample_rate: 32
    field_whr: 2
    field_xyr: 2
  }
}
layer {
  name: "LFCN_3_5x7"
  type: "Convolution"
  bottom: "conv6_1"
  top: "LFCN_3_5x7"
  param {
    lr_mult: 1
    decay_mult: 1
  }
  param {
    lr_mult: 2
    decay_mult: 0
  }
  convolution_param {
    num_output: 6
    weight_filler {
      type: "gaussian"
      std: 0.001
    }
    bias_filler {
      type: "constant"
    }
    pad_h: 3
    pad_w: 2
    kernel_h: 7
    kernel_w: 5
  }
}
layer {
  name: "detection_loss_3_5x7"
  type: "Detection"
  bottom: "LFCN_3_5x7"
  bottom: "label_3_5x7"
  top: "loss_3_5x7"
  detection_param {
    cls_num: 2
    coord_num: 4
    lambda: 1
    field_h: 336
    field_w: 168
    downsample_rate: 32
    bb_smooth: true
    field_whr: 2
    field_xyr: 2
    bg_threshold: 0.2
    bg_multiple: 2
    sample_mode: "bootstrap"
    pos_neg_weighted: true
  }
}
layer {
  name: "detection_accuracy_3_5x7"
  type: "DetectionAccuracy"
  bottom: "LFCN_3_5x7"
  bottom: "label_3_5x7"
  top: "accuracy_3_5x7"
  top: "boxiou_3_5x7"
  detection_accuracy_param {
    cls_num: 2
    coord_num: 4
    field_h: 336
    field_w: 168
    downsample_rate: 32
    field_whr: 2
    field_xyr: 2
  }
}
layer {
  name: "pool6"
  type: "Pooling"
  bottom: "conv6_1"
  top: "pool6"
  pooling_param {
    pool: MAX
    kernel_size: 2
    stride: 2
  }
}
layer {
  name: "LFCN_4_3x5"
  type: "Convolution"
  bottom: "pool6"
  top: "LFCN_4_3x5"
  param {
    lr_mult: 1
    decay_mult: 1
  }
  param {
    lr_mult: 2
    decay_mult: 0
  }
  convolution_param {
    num_output: 6
    weight_filler {
      type: "gaussian"
      std: 0.001
    }
    bias_filler {
      type: "constant"
    }
    pad_h: 2
    pad_w: 1
    kernel_h: 5
    kernel_w: 3
  }
}
layer {
  name: "detection_loss_4_3x5"
  type: "Detection"
  bottom: "LFCN_4_3x5"
  bottom: "label_4_3x5"
  top: "loss_4_3x5"
  detection_param {
    cls_num: 2
    coord_num: 4
    lambda: 1
    field_h: 480
    field_w: 240
    downsample_rate: 64
    bb_smooth: true
    field_whr: 2
    field_xyr: 2
    bg_threshold: 0.2
    bg_multiple: 2
    sample_mode: "bootstrap"
    pos_neg_weighted: true
  }
}
layer {
  name: "detection_accuracy_4_3x5"
  type: "DetectionAccuracy"
  bottom: "LFCN_4_3x5"
  bottom: "label_4_3x5"
  top: "accuracy_4_3x5"
  top: "boxiou_4_3x5"
  detection_accuracy_param {
    cls_num: 2
    coord_num: 4
    field_h: 480
    field_w: 240
    downsample_rate: 64
    field_whr: 2
    field_xyr: 2
  }
}
layer {
  name: "proposals"
  type: "BoxOutput"
  bottom: "LFCN_1_3x5"
  bottom: "LFCN_1_5x7"
  bottom: "LFCN_2_3x5"
  bottom: "LFCN_2_5x7"
  bottom: "LFCN_3_3x5"
  bottom: "LFCN_3_5x7"
  bottom: "LFCN_4_3x5"
  top: "proposals"
  propagate_down: false
  propagate_down: false
  propagate_down: false
  propagate_down: false
  propagate_down: false
  propagate_down: false
  propagate_down: false
  box_output_param {
    fg_thr: -10
    iou_thr: 0.65
    nms_type: "IOU"
    field_h: 60
    field_h: 84
    field_h: 120
    field_h: 168
    field_h: 240
    field_h: 336
    field_h: 480
    field_w: 30
    field_w: 42
    field_w: 60
    field_w: 84
    field_w: 120
    field_w: 168
    field_w: 240
    downsample_rate: 8
    downsample_rate: 8
    downsample_rate: 16
    downsample_rate: 16
    downsample_rate: 32
    downsample_rate: 32
    downsample_rate: 64
    field_whr: 2
    field_xyr: 2
    max_nms_num: 3000
  }
}
layer {
  name: "proposal_info"
  type: "ProposalTarget"
  bottom: "proposals"
  bottom: "gt_boxes"
  top: "rois"
  top: "proposal_labels"
  top: "proposal_targets"
  top: "box_inside_weights"
  top: "box_outside_weights"
  top: "match_gt_boxes"
  include {
    phase: TRAIN
  }
  propagate_down: false
  propagate_down: false
  proposal_target_param {
    cls_num: 2
    batch_size: 128
    fg_fraction: 0.25
    num_img_per_batch: 4
    fg_thr: 0.45
    bg_thr_hg: 0.44
    bg_thr_lw: 0.05
    img_width: 576
    img_height: 576
    bbox_mean: 0
    bbox_mean: 0
    bbox_mean: 0
    bbox_mean: 0
    bbox_std: 0.1
    bbox_std: 0.1
    bbox_std: 0.2
    bbox_std: 0.2
  }
}
layer {
  name: "roi_pool_org"
  type: "ROIPooling"
  bottom: "conv4_3"
  bottom: "rois"
  top: "roi_pool_org"
  roi_pooling_param {
    pooled_h: 8
    pooled_w: 4
    spatial_scale: 0.125
    pad_ratio: 0
  }
}
layer {
  name: "roi_pool_ctx"
  type: "ROIPooling"
  bottom: "conv4_3"
  bottom: "rois"
  top: "roi_pool_ctx"
  roi_pooling_param {
    pooled_h: 8
    pooled_w: 4
    spatial_scale: 0.125
    pad_ratio: 0.25
  }
}
layer {
  name: "roi_pool"
  type: "Concat"
  bottom: "roi_pool_org"
  bottom: "roi_pool_ctx"
  top: "roi_pool"
}
layer {
  name: "roi_c1"
  type: "Convolution"
  bottom: "roi_pool"
  top: "roi_c1"
  param {
    lr_mult: 1
    decay_mult: 1
  }
  param {
    lr_mult: 2
    decay_mult: 0
  }
  convolution_param {
    num_output: 512
    pad: 1
    kernel_size: 3
    weight_filler {
      type: "gaussian"
      std: 0.01
    }
    bias_filler {
      type: "constant"
    }
  }
}
layer {
  name: "roi_c1_relu"
  type: "ReLU"
  bottom: "roi_c1"
  top: "roi_c1"
}
layer {
  name: "fc6"
  type: "InnerProduct"
  bottom: "roi_c1"
  top: "fc6"
  param {
    lr_mult: 1
  }
  param {
    lr_mult: 2
  }
  inner_product_param {
    num_output: 2048
    weight_filler {
      type: "gaussian"
      std: 0.001
    }
    bias_filler {
      type: "constant"
      value: 0
    }
  }
}
layer {
  name: "relu6"
  type: "ReLU"
  bottom: "fc6"
  top: "fc6"
}
layer {
  name: "drop6"
  type: "Dropout"
  bottom: "fc6"
  top: "fc6"
  dropout_param {
    dropout_ratio: 0.5
  }
}
layer {
  name: "cls_pred"
  type: "InnerProduct"
  bottom: "fc6"
  top: "cls_pred"
  param {
    lr_mult: 1
  }
  param {
    lr_mult: 2
  }
  inner_product_param {
    num_output: 2
    weight_filler {
      type: "gaussian"
      std: 0.01
    }
    bias_filler {
      type: "constant"
      value: 0
    }
  }
}
layer {
  name: "bbox_pred"
  type: "InnerProduct"
  bottom: "fc6"
  top: "bbox_pred"
  param {
    lr_mult: 1
  }
  param {
    lr_mult: 2
  }
  inner_product_param {
    num_output: 8
    weight_filler {
      type: "gaussian"
      std: 0.001
    }
    bias_filler {
      type: "constant"
      value: 0
    }
  }
}
layer {
  name: "loss_cls"
  type: "SoftmaxWithLoss"
  bottom: "cls_pred"
  bottom: "proposal_labels"
  top: "loss_cls"
  loss_weight: 1
  propagate_down: true
  propagate_down: false
}
layer {
  name: "cls_accuracy"
  type: "Accuracy"
  bottom: "cls_pred"
  bottom: "proposal_labels"
  top: "cls_accuracy"
}
layer {
  name: "loss_bbox"
  type: "SmoothL1Loss"
  bottom: "bbox_pred"
  bottom: "proposal_targets"
  bottom: "box_inside_weights"
  bottom: "box_outside_weights"
  top: "loss_bbox"
  loss_weight: 1
}
layer {
  name: "bbox_iou"
  type: "BboxAccuracy"
  bottom: "bbox_pred"
  bottom: "rois"
  bottom: "match_gt_boxes"
  top: "bbox_iou"
  top: "bbox_iou_pre"
  bbox_accuracy_param {
    bbox_mean: 0
    bbox_mean: 0
    bbox_mean: 0
    bbox_mean: 0
    bbox_std: 0.1
    bbox_std: 0.1
    bbox_std: 0.2
    bbox_std: 0.2
  }
}
I1013 15:26:52.935986 19503 layer_factory.hpp:76] Creating layer data
I1013 15:26:52.936030 19503 net.cpp:106] Creating Layer data
I1013 15:26:52.936038 19503 net.cpp:411] data -> data
…
I1013 15:26:53.948484 19503 image_gt_data_layer.cpp:234] output label size 2 : 4,6,36,36
I1013 15:26:53.948528 19503 image_gt_data_layer.cpp:234] output label size 3 : 4,6,36,36
I1013 15:26:53.948581 19503 image_gt_data_layer.cpp:234] output label size 4 : 4,6,18,18
I1013 15:26:53.948623 19503 image_gt_data_layer.cpp:234] output label size 5 : 4,6,18,18
I1013 15:26:53.948662 19503 image_gt_data_layer.cpp:234] output label size 6 : 4,6,9,9
I1013 15:26:53.948704 19503 image_gt_data_layer.cpp:249] output gt boxes size: 1,7,1,1
I1013 15:26:53.983853 19503 net.cpp:150] Setting up data
I1013 15:26:53.983880 19503 net.cpp:157] Top shape: 4 3 576 576 (3981312)
I1013 15:26:53.983886 19503 net.cpp:157] Top shape: 4 6 72 72 (124416)
I1013 15:26:53.983888 19503 net.cpp:157] Top shape: 4 6 72 72 (124416)
I1013 15:26:53.983892 19503 net.cpp:157] Top shape: 4 6 36 36 (31104)
I1013 15:26:53.983896 19503 net.cpp:157] Top shape: 4 6 36 36 (31104)
I1013 15:26:53.983899 19503 net.cpp:157] Top shape: 4 6 18 18 (7776)
I1013 15:26:53.983902 19503 net.cpp:157] Top shape: 4 6 18 18 (7776)
I1013 15:26:53.983906 19503 net.cpp:157] Top shape: 4 6 9 9 (1944)
I1013 15:26:53.983911 19503 net.cpp:157] Top shape: 1 7 1 1 (7)
I1013 15:26:53.983912 19503 net.cpp:165] Memory required for data: 17239420
I1013 15:26:53.983921 19503 layer_factory.hpp:76] Creating layer label_1_3x5_data_1_split
I1013 15:26:53.983942 19503 net.cpp:106] Creating Layer label_1_3x5_data_1_split
I1013 15:26:53.983947 19503 net.cpp:454] label_1_3x5_data_1_split <- label_1_3x5
I1013 15:26:53.983958 19503 net.cpp:411] label_1_3x5_data_1_split -> label_1_3x5_data_1_split_0
I1013 15:26:53.983968 19503 net.cpp:411] label_1_3x5_data_1_split -> label_1_3x5_data_1_split_1
I1013 15:26:53.984112 19503 net.cpp:150] Setting up label_1_3x5_data_1_split
I1013 15:26:53.984122 19503 net.cpp:157] Top shape: 4 6 72 72 (124416)
I1013 15:26:53.984127 19503 net.cpp:157] Top shape: 4 6 72 72 (124416)
I1013 15:26:53.984128 19503 net.cpp:165] Memory required for data: 18234748
I1013 15:26:53.984133 19503 layer_factory.hpp:76] Creating layer label_1_5x7_data_2_split
I1013 15:26:53.984140 19503 net.cpp:106] Creating Layer label_1_5x7_data_2_split
I1013 15:26:53.984143 19503 net.cpp:454] label_1_5x7_data_2_split <- label_1_5x7
I1013 15:26:53.984148 19503 net.cpp:411] label_1_5x7_data_2_split -> label_1_5x7_data_2_split_0
I1013 15:26:53.984155 19503 net.cpp:411] label_1_5x7_data_2_split -> label_1_5x7_data_2_split_1
I1013 15:26:53.984202 19503 net.cpp:150] Setting up label_1_5x7_data_2_split
I1013 15:26:53.984208 19503 net.cpp:157] Top shape: 4 6 72 72 (124416)
I1013 15:26:53.984211 19503 net.cpp:157] Top shape: 4 6 72 72 (124416)
I1013 15:26:53.984213 19503 net.cpp:165] Memory required for data: 19230076
I1013 15:26:53.984216 19503 layer_factory.hpp:76] Creating layer label_2_3x5_data_3_split
I1013 15:26:53.984222 19503 net.cpp:106] Creating Layer label_2_3x5_data_3_split
I1013 15:26:53.984225 19503 net.cpp:454] label_2_3x5_data_3_split <- label_2_3x5
I1013 15:26:53.984230 19503 net.cpp:411] label_2_3x5_data_3_split -> label_2_3x5_data_3_split_0
I1013 15:26:53.984237 19503 net.cpp:411] label_2_3x5_data_3_split -> label_2_3x5_data_3_split_1
I1013 15:26:53.984316 19503 net.cpp:150] Setting up label_2_3x5_data_3_split
I1013 15:26:53.984323 19503 net.cpp:157] Top shape: 4 6 36 36 (31104)
I1013 15:26:53.984326 19503 net.cpp:157] Top shape: 4 6 36 36 (31104)
I1013 15:26:53.984328 19503 net.cpp:165] Memory required for data: 19478908
I1013 15:26:53.984331 19503 layer_factory.hpp:76] Creating layer label_2_5x7_data_4_split
I1013 15:26:53.984339 19503 net.cpp:106] Creating Layer label_2_5x7_data_4_split
I1013 15:26:53.984343 19503 net.cpp:454] label_2_5x7_data_4_split <- label_2_5x7
I1013 15:26:53.984346 19503 net.cpp:411] label_2_5x7_data_4_split -> label_2_5x7_data_4_split_0
I1013 15:26:53.984352 19503 net.cpp:411] label_2_5x7_data_4_split -> label_2_5x7_data_4_split_1
I1013 15:26:53.984385 19503 net.cpp:150] Setting up label_2_5x7_data_4_split
I1013 15:26:53.984393 19503 net.cpp:157] Top shape: 4 6 36 36 (31104)
I1013 15:26:53.984398 19503 net.cpp:157] Top shape: 4 6 36 36 (31104)
I1013 15:26:53.984401 19503 net.cpp:165] Memory required for data: 19727740
I1013 15:26:53.984403 19503 layer_factory.hpp:76] Creating layer label_3_3x5_data_5_split
I1013 15:26:53.984407 19503 net.cpp:106] Creating Layer label_3_3x5_data_5_split
I1013 15:26:53.984411 19503 net.cpp:454] label_3_3x5_data_5_split <- label_3_3x5
I1013 15:26:53.984414 19503 net.cpp:411] label_3_3x5_data_5_split -> label_3_3x5_data_5_split_0
I1013 15:26:53.984419 19503 net.cpp:411] label_3_3x5_data_5_split -> label_3_3x5_data_5_split_1
I1013 15:26:53.984449 19503 net.cpp:150] Setting up label_3_3x5_data_5_split
I1013 15:26:53.984454 19503 net.cpp:157] Top shape: 4 6 18 18 (7776)
I1013 15:26:53.984457 19503 net.cpp:157] Top shape: 4 6 18 18 (7776)
I1013 15:26:53.984459 19503 net.cpp:165] Memory required for data: 19789948
I1013 15:26:53.984463 19503 layer_factory.hpp:76] Creating layer label_3_5x7_data_6_split
I1013 15:26:53.984469 19503 net.cpp:106] Creating Layer label_3_5x7_data_6_split
I1013 15:26:53.984472 19503 net.cpp:454] label_3_5x7_data_6_split <- label_3_5x7
I1013 15:26:53.984477 19503 net.cpp:411] label_3_5x7_data_6_split -> label_3_5x7_data_6_split_0
I1013 15:26:53.984483 19503 net.cpp:411] label_3_5x7_data_6_split -> label_3_5x7_data_6_split_1
I1013 15:26:53.984515 19503 net.cpp:150] Setting up label_3_5x7_data_6_split
I1013 15:26:53.984520 19503 net.cpp:157] Top shape: 4 6 18 18 (7776)
I1013 15:26:53.984524 19503 net.cpp:157] Top shape: 4 6 18 18 (7776)
I1013 15:26:53.984526 19503 net.cpp:165] Memory required for data: 19852156
I1013 15:26:53.984529 19503 layer_factory.hpp:76] Creating layer label_4_3x5_data_7_split
I1013 15:26:53.984534 19503 net.cpp:106] Creating Layer label_4_3x5_data_7_split
I1013 15:26:53.984537 19503 net.cpp:454] label_4_3x5_data_7_split <- label_4_3x5
I1013 15:26:53.984544 19503 net.cpp:411] label_4_3x5_data_7_split -> label_4_3x5_data_7_split_0
I1013 15:26:53.984550 19503 net.cpp:411] label_4_3x5_data_7_split -> label_4_3x5_data_7_split_1
I1013 15:26:53.984578 19503 net.cpp:150] Setting up label_4_3x5_data_7_split
I1013 15:26:53.984583 19503 net.cpp:157] Top shape: 4 6 9 9 (1944)
I1013 15:26:53.984586 19503 net.cpp:157] Top shape: 4 6 9 9 (1944)
I1013 15:26:53.984588 19503 net.cpp:165] Memory required for data: 19867708
I1013 15:26:53.984591 19503 layer_factory.hpp:76] Creating layer conv1_1
I1013 15:26:53.984603 19503 net.cpp:106] Creating Layer conv1_1
I1013 15:26:53.984607 19503 net.cpp:454] conv1_1 <- data
I1013 15:26:53.984614 19503 net.cpp:411] conv1_1 -> conv1_1
I1013 15:26:54.105818 19503 net.cpp:150] Setting up conv1_1
I1013 15:26:54.105854 19503 net.cpp:157] Top shape: 4 64 576 576 (84934656)
I1013 15:26:54.105859 19503 net.cpp:165] Memory required for data: 359606332
I1013 15:26:54.105876 19503 layer_factory.hpp:76] Creating layer relu1_1
I1013 15:26:54.105886 19503 net.cpp:106] Creating Layer relu1_1
I1013 15:26:54.105890 19503 net.cpp:454] relu1_1 <- conv1_1
I1013 15:26:54.105895 19503 net.cpp:397] relu1_1 -> conv1_1 (in-place)
I1013 15:26:54.106086 19503 net.cpp:150] Setting up relu1_1
I1013 15:26:54.106099 19503 net.cpp:157] Top shape: 4 64 576 576 (84934656)
I1013 15:26:54.106103 19503 net.cpp:165] Memory required for data: 699344956
I1013 15:26:54.106106 19503 layer_factory.hpp:76] Creating layer conv1_2
I1013 15:26:54.106115 19503 net.cpp:106] Creating Layer conv1_2
I1013 15:26:54.106118 19503 net.cpp:454] conv1_2 <- conv1_1
I1013 15:26:54.106123 19503 net.cpp:411] conv1_2 -> conv1_2
I1013 15:26:54.108269 19503 net.cpp:150] Setting up conv1_2
I1013 15:26:54.108284 19503 net.cpp:157] Top shape: 4 64 576 576 (84934656)
I1013 15:26:54.108288 19503 net.cpp:165] Memory required for data: 1039083580
I1013 15:26:54.108299 19503 layer_factory.hpp:76] Creating layer relu1_2
I1013 15:26:54.108306 19503 net.cpp:106] Creating Layer relu1_2
I1013 15:26:54.108309 19503 net.cpp:454] relu1_2 <- conv1_2
I1013 15:26:54.108316 19503 net.cpp:397] relu1_2 -> conv1_2 (in-place)
I1013 15:26:54.108700 19503 net.cpp:150] Setting up relu1_2
I1013 15:26:54.108713 19503 net.cpp:157] Top shape: 4 64 576 576 (84934656)
I1013 15:26:54.108716 19503 net.cpp:165] Memory required for data: 1378822204
I1013 15:26:54.108719 19503 layer_factory.hpp:76] Creating layer pool1
I1013 15:26:54.108727 19503 net.cpp:106] Creating Layer pool1
I1013 15:26:54.108731 19503 net.cpp:454] pool1 <- conv1_2
I1013 15:26:54.108737 19503 net.cpp:411] pool1 -> pool1
I1013 15:26:54.108986 19503 net.cpp:150] Setting up pool1
I1013 15:26:54.109000 19503 net.cpp:157] Top shape: 4 64 288 288 (21233664)
I1013 15:26:54.109004 19503 net.cpp:165] Memory required for data: 1463756860
I1013 15:26:54.109006 19503 layer_factory.hpp:76] Creating layer conv2_1
I1013 15:26:54.109015 19503 net.cpp:106] Creating Layer conv2_1
I1013 15:26:54.109019 19503 net.cpp:454] conv2_1 <- pool1
I1013 15:26:54.109024 19503 net.cpp:411] conv2_1 -> conv2_1
I1013 15:26:54.110853 19503 net.cpp:150] Setting up conv2_1
I1013 15:26:54.110867 19503 net.cpp:157] Top shape: 4 128 288 288 (42467328)
I1013 15:26:54.110870 19503 net.cpp:165] Memory required for data: 1633626172
I1013 15:26:54.110880 19503 layer_factory.hpp:76] Creating layer relu2_1
I1013 15:26:54.110895 19503 net.cpp:106] Creating Layer relu2_1
I1013 15:26:54.110899 19503 net.cpp:454] relu2_1 <- conv2_1
I1013 15:26:54.110904 19503 net.cpp:397] relu2_1 -> conv2_1 (in-place)
I1013 15:26:54.111268 19503 net.cpp:150] Setting up relu2_1
I1013 15:26:54.111282 19503 net.cpp:157] Top shape: 4 128 288 288 (42467328)
I1013 15:26:54.111285 19503 net.cpp:165] Memory required for data: 1803495484
I1013 15:26:54.111289 19503 layer_factory.hpp:76] Creating layer conv2_2
I1013 15:26:54.111301 19503 net.cpp:106] Creating Layer conv2_2
I1013 15:26:54.111304 19503 net.cpp:454] conv2_2 <- conv2_1
I1013 15:26:54.111311 19503 net.cpp:411] conv2_2 -> conv2_2
I1013 15:26:54.113237 19503 net.cpp:150] Setting up conv2_2
I1013 15:26:54.113250 19503 net.cpp:157] Top shape: 4 128 288 288 (42467328)
I1013 15:26:54.113263 19503 net.cpp:165] Memory required for data: 1973364796
I1013 15:26:54.113270 19503 layer_factory.hpp:76] Creating layer relu2_2
I1013 15:26:54.113279 19503 net.cpp:106] Creating Layer relu2_2
I1013 15:26:54.113283 19503 net.cpp:454] relu2_2 <- conv2_2
I1013 15:26:54.113287 19503 net.cpp:397] relu2_2 -> conv2_2 (in-place)
I1013 15:26:54.113634 19503 net.cpp:150] Setting up relu2_2
I1013 15:26:54.113647 19503 net.cpp:157] Top shape: 4 128 288 288 (42467328)
I1013 15:26:54.113651 19503 net.cpp:165] Memory required for data: 2143234108
I1013 15:26:54.113654 19503 layer_factory.hpp:76] Creating layer pool2
I1013 15:26:54.113662 19503 net.cpp:106] Creating Layer pool2
I1013 15:26:54.113664 19503 net.cpp:454] pool2 <- conv2_2
I1013 15:26:54.113669 19503 net.cpp:411] pool2 -> pool2
I1013 15:26:54.113907 19503 net.cpp:150] Setting up pool2
I1013 15:26:54.113920 19503 net.cpp:157] Top shape: 4 128 144 144 (10616832)
I1013 15:26:54.113924 19503 net.cpp:165] Memory required for data: 2185701436
I1013 15:26:54.113926 19503 layer_factory.hpp:76] Creating layer conv3_1
I1013 15:26:54.113935 19503 net.cpp:106] Creating Layer conv3_1
I1013 15:26:54.113939 19503 net.cpp:454] conv3_1 <- pool2
I1013 15:26:54.113943 19503 net.cpp:411] conv3_1 -> conv3_1
I1013 15:26:54.115865 19503 net.cpp:150] Setting up conv3_1
I1013 15:26:54.115880 19503 net.cpp:157] Top shape: 4 256 144 144 (21233664)
I1013 15:26:54.115882 19503 net.cpp:165] Memory required for data: 2270636092
I1013 15:26:54.115892 19503 layer_factory.hpp:76] Creating layer relu3_1
I1013 15:26:54.115898 19503 net.cpp:106] Creating Layer relu3_1
I1013 15:26:54.115901 19503 net.cpp:454] relu3_1 <- conv3_1
I1013 15:26:54.115907 19503 net.cpp:397] relu3_1 -> conv3_1 (in-place)
I1013 15:26:54.116266 19503 net.cpp:150] Setting up relu3_1
I1013 15:26:54.116281 19503 net.cpp:157] Top shape: 4 256 144 144 (21233664)
I1013 15:26:54.116283 19503 net.cpp:165] Memory required for data: 2355570748
I1013 15:26:54.116286 19503 layer_factory.hpp:76] Creating layer conv3_2
I1013 15:26:54.116294 19503 net.cpp:106] Creating Layer conv3_2
I1013 15:26:54.116297 19503 net.cpp:454] conv3_2 <- conv3_1
I1013 15:26:54.116304 19503 net.cpp:411] conv3_2 -> conv3_2
I1013 15:26:54.119881 19503 net.cpp:150] Setting up conv3_2
I1013 15:26:54.119896 19503 net.cpp:157] Top shape: 4 256 144 144 (21233664)
I1013 15:26:54.119899 19503 net.cpp:165] Memory required for data: 2440505404
I1013 15:26:54.119905 19503 layer_factory.hpp:76] Creating layer relu3_2
I1013 15:26:54.119911 19503 net.cpp:106] Creating Layer relu3_2
I1013 15:26:54.119915 19503 net.cpp:454] relu3_2 <- conv3_2
I1013 15:26:54.119921 19503 net.cpp:397] relu3_2 -> conv3_2 (in-place)
I1013 15:26:54.120133 19503 net.cpp:150] Setting up relu3_2
I1013 15:26:54.120146 19503 net.cpp:157] Top shape: 4 256 144 144 (21233664)
I1013 15:26:54.120148 19503 net.cpp:165] Memory required for data: 2525440060
I1013 15:26:54.120151 19503 layer_factory.hpp:76] Creating layer conv3_3
I1013 15:26:54.120157 19503 net.cpp:106] Creating Layer conv3_3
I1013 15:26:54.120160 19503 net.cpp:454] conv3_3 <- conv3_2
I1013 15:26:54.120167 19503 net.cpp:411] conv3_3 -> conv3_3
I1013 15:26:54.122786 19503 net.cpp:150] Setting up conv3_3
I1013 15:26:54.122802 19503 net.cpp:157] Top shape: 4 256 144 144 (21233664)
I1013 15:26:54.122805 19503 net.cpp:165] Memory required for data: 2610374716
I1013 15:26:54.122813 19503 layer_factory.hpp:76] Creating layer relu3_3
I1013 15:26:54.122819 19503 net.cpp:106] Creating Layer relu3_3
I1013 15:26:54.122822 19503 net.cpp:454] relu3_3 <- conv3_3
I1013 15:26:54.122828 19503 net.cpp:397] relu3_3 -> conv3_3 (in-place)
I1013 15:26:54.123059 19503 net.cpp:150] Setting up relu3_3
I1013 15:26:54.123071 19503 net.cpp:157] Top shape: 4 256 144 144 (21233664)
I1013 15:26:54.123075 19503 net.cpp:165] Memory required for data: 2695309372
I1013 15:26:54.123077 19503 layer_factory.hpp:76] Creating layer pool3
I1013 15:26:54.123085 19503 net.cpp:106] Creating Layer pool3
I1013 15:26:54.123088 19503 net.cpp:454] pool3 <- conv3_3
I1013 15:26:54.123093 19503 net.cpp:411] pool3 -> pool3
I1013 15:26:54.123494 19503 net.cpp:150] Setting up pool3
I1013 15:26:54.123508 19503 net.cpp:157] Top shape: 4 256 72 72 (5308416)
I1013 15:26:54.123512 19503 net.cpp:165] Memory required for data: 2716543036
I1013 15:26:54.123514 19503 layer_factory.hpp:76] Creating layer conv4_1
I1013 15:26:54.123522 19503 net.cpp:106] Creating Layer conv4_1
I1013 15:26:54.123527 19503 net.cpp:454] conv4_1 <- pool3
I1013 15:26:54.123531 19503 net.cpp:411] conv4_1 -> conv4_1
I1013 15:26:54.128101 19503 net.cpp:150] Setting up conv4_1
I1013 15:26:54.128118 19503 net.cpp:157] Top shape: 4 512 72 72 (10616832)
I1013 15:26:54.128121 19503 net.cpp:165] Memory required for data: 2759010364
I1013 15:26:54.128129 19503 layer_factory.hpp:76] Creating layer relu4_1
I1013 15:26:54.128136 19503 net.cpp:106] Creating Layer relu4_1
I1013 15:26:54.128139 19503 net.cpp:454] relu4_1 <- conv4_1
I1013 15:26:54.128146 19503 net.cpp:397] relu4_1 -> conv4_1 (in-place)
I1013 15:26:54.128366 19503 net.cpp:150] Setting up relu4_1
I1013 15:26:54.128377 19503 net.cpp:157] Top shape: 4 512 72 72 (10616832)
I1013 15:26:54.128381 19503 net.cpp:165] Memory required for data: 2801477692
I1013 15:26:54.128384 19503 layer_factory.hpp:76] Creating layer conv4_2
I1013 15:26:54.128392 19503 net.cpp:106] Creating Layer conv4_2
I1013 15:26:54.128396 19503 net.cpp:454] conv4_2 <- conv4_1
I1013 15:26:54.128401 19503 net.cpp:411] conv4_2 -> conv4_2
I1013 15:26:54.134905 19503 net.cpp:150] Setting up conv4_2
I1013 15:26:54.134923 19503 net.cpp:157] Top shape: 4 512 72 72 (10616832)
I1013 15:26:54.134927 19503 net.cpp:165] Memory required for data: 2843945020
I1013 15:26:54.134940 19503 layer_factory.hpp:76] Creating layer relu4_2
I1013 15:26:54.134948 19503 net.cpp:106] Creating Layer relu4_2
I1013 15:26:54.134951 19503 net.cpp:454] relu4_2 <- conv4_2
I1013 15:26:54.134956 19503 net.cpp:397] relu4_2 -> conv4_2 (in-place)
I1013 15:26:54.135350 19503 net.cpp:150] Setting up relu4_2
I1013 15:26:54.135365 19503 net.cpp:157] Top shape: 4 512 72 72 (10616832)
I1013 15:26:54.135367 19503 net.cpp:165] Memory required for data: 2886412348
I1013 15:26:54.135370 19503 layer_factory.hpp:76] Creating layer conv4_3
I1013 15:26:54.135378 19503 net.cpp:106] Creating Layer conv4_3
I1013 15:26:54.135385 19503 net.cpp:454] conv4_3 <- conv4_2
I1013 15:26:54.135391 19503 net.cpp:411] conv4_3 -> conv4_3
I1013 15:26:54.141707 19503 net.cpp:150] Setting up conv4_3
I1013 15:26:54.141731 19503 net.cpp:157] Top shape: 4 512 72 72 (10616832)
I1013 15:26:54.141734 19503 net.cpp:165] Memory required for data: 2928879676
I1013 15:26:54.141741 19503 layer_factory.hpp:76] Creating layer relu4_3
I1013 15:26:54.141752 19503 net.cpp:106] Creating Layer relu4_3
I1013 15:26:54.141757 19503 net.cpp:454] relu4_3 <- conv4_3
I1013 15:26:54.141762 19503 net.cpp:397] relu4_3 -> conv4_3 (in-place)
I1013 15:26:54.142127 19503 net.cpp:150] Setting up relu4_3
I1013 15:26:54.142139 19503 net.cpp:157] Top shape: 4 512 72 72 (10616832)
I1013 15:26:54.142143 19503 net.cpp:165] Memory required for data: 2971347004
I1013 15:26:54.142145 19503 layer_factory.hpp:76] Creating layer conv4_3_relu4_3_0_split
I1013 15:26:54.142153 19503 net.cpp:106] Creating Layer conv4_3_relu4_3_0_split
I1013 15:26:54.142156 19503 net.cpp:454] conv4_3_relu4_3_0_split <- conv4_3
I1013 15:26:54.142161 19503 net.cpp:411] conv4_3_relu4_3_0_split -> conv4_3_relu4_3_0_split_0
I1013 15:26:54.142168 19503 net.cpp:411] conv4_3_relu4_3_0_split -> conv4_3_relu4_3_0_split_1
I1013 15:26:54.142175 19503 net.cpp:411] conv4_3_relu4_3_0_split -> conv4_3_relu4_3_0_split_2
I1013 15:26:54.142180 19503 net.cpp:411] conv4_3_relu4_3_0_split -> conv4_3_relu4_3_0_split_3
I1013 15:26:54.142279 19503 net.cpp:150] Setting up conv4_3_relu4_3_0_split
I1013 15:26:54.142287 19503 net.cpp:157] Top shape: 4 512 72 72 (10616832)
I1013 15:26:54.142290 19503 net.cpp:157] Top shape: 4 512 72 72 (10616832)
I1013 15:26:54.142293 19503 net.cpp:157] Top shape: 4 512 72 72 (10616832)
I1013 15:26:54.142297 19503 net.cpp:157] Top shape: 4 512 72 72 (10616832)
I1013 15:26:54.142298 19503 net.cpp:165] Memory required for data: 3141216316
I1013 15:26:54.142302 19503 layer_factory.hpp:76] Creating layer loss1_conv1
I1013 15:26:54.142323 19503 net.cpp:106] Creating Layer loss1_conv1
I1013 15:26:54.142329 19503 net.cpp:454] loss1_conv1 <- conv4_3_relu4_3_0_split_0
I1013 15:26:54.142340 19503 net.cpp:411] loss1_conv1 -> loss1_conv1
I1013 15:26:54.235173 19503 net.cpp:150] Setting up loss1_conv1
I1013 15:26:54.235198 19503 net.cpp:157] Top shape: 4 512 72 72 (10616832)
I1013 15:26:54.235201 19503 net.cpp:165] Memory required for data: 3183683644
I1013 15:26:54.235209 19503 layer_factory.hpp:76] Creating layer loss_relu1
I1013 15:26:54.235219 19503 net.cpp:106] Creating Layer loss_relu1
I1013 15:26:54.235224 19503 net.cpp:454] loss_relu1 <- loss1_conv1
I1013 15:26:54.235230 19503 net.cpp:397] loss_relu1 -> loss1_conv1 (in-place)
I1013 15:26:54.235433 19503 net.cpp:150] Setting up loss_relu1
I1013 15:26:54.235447 19503 net.cpp:157] Top shape: 4 512 72 72 (10616832)
I1013 15:26:54.235450 19503 net.cpp:165] Memory required for data: 3226150972
I1013 15:26:54.235453 19503 layer_factory.hpp:76] Creating layer loss1_conv1_loss_relu1_0_split
I1013 15:26:54.235460 19503 net.cpp:106] Creating Layer loss1_conv1_loss_relu1_0_split
I1013 15:26:54.235462 19503 net.cpp:454] loss1_conv1_loss_relu1_0_split <- loss1_conv1
I1013 15:26:54.235467 19503 net.cpp:411] loss1_conv1_loss_relu1_0_split -> loss1_conv1_loss_relu1_0_split_0
I1013 15:26:54.235473 19503 net.cpp:411] loss1_conv1_loss_relu1_0_split -> loss1_conv1_loss_relu1_0_split_1
I1013 15:26:54.235528 19503 net.cpp:150] Setting up loss1_conv1_loss_relu1_0_split
I1013 15:26:54.235537 19503 net.cpp:157] Top shape: 4 512 72 72 (10616832)
I1013 15:26:54.235543 19503 net.cpp:157] Top shape: 4 512 72 72 (10616832)
I1013 15:26:54.235546 19503 net.cpp:165] Memory required for data: 3311085628
I1013 15:26:54.235551 19503 layer_factory.hpp:76] Creating layer LFCN_1_3x5
I1013 15:26:54.235565 19503 net.cpp:106] Creating Layer LFCN_1_3x5
I1013 15:26:54.235570 19503 net.cpp:454] LFCN_1_3x5 <- loss1_conv1_loss_relu1_0_split_0
I1013 15:26:54.235577 19503 net.cpp:411] LFCN_1_3x5 -> LFCN_1_3x5
I1013 15:26:54.238719 19503 net.cpp:150] Setting up LFCN_1_3x5
I1013 15:26:54.238734 19503 net.cpp:157] Top shape: 4 6 72 72 (124416)
I1013 15:26:54.238737 19503 net.cpp:165] Memory required for data: 3311583292
I1013 15:26:54.238744 19503 layer_factory.hpp:76] Creating layer LFCN_1_3x5_LFCN_1_3x5_0_split
I1013 15:26:54.238749 19503 net.cpp:106] Creating Layer LFCN_1_3x5_LFCN_1_3x5_0_split
I1013 15:26:54.238752 19503 net.cpp:454] LFCN_1_3x5_LFCN_1_3x5_0_split <- LFCN_1_3x5
I1013 15:26:54.238759 19503 net.cpp:411] LFCN_1_3x5_LFCN_1_3x5_0_split -> LFCN_1_3x5_LFCN_1_3x5_0_split_0
I1013 15:26:54.238766 19503 net.cpp:411] LFCN_1_3x5_LFCN_1_3x5_0_split -> LFCN_1_3x5_LFCN_1_3x5_0_split_1
I1013 15:26:54.238773 19503 net.cpp:411] LFCN_1_3x5_LFCN_1_3x5_0_split -> LFCN_1_3x5_LFCN_1_3x5_0_split_2
I1013 15:26:54.238854 19503 net.cpp:150] Setting up LFCN_1_3x5_LFCN_1_3x5_0_split
I1013 15:26:54.238862 19503 net.cpp:157] Top shape: 4 6 72 72 (124416)
I1013 15:26:54.238867 19503 net.cpp:157] Top shape: 4 6 72 72 (124416)
I1013 15:26:54.238869 19503 net.cpp:157] Top shape: 4 6 72 72 (124416)
I1013 15:26:54.238872 19503 net.cpp:165] Memory required for data: 3313076284
I1013 15:26:54.238876 19503 layer_factory.hpp:76] Creating layer detection_loss_1_3x5
I1013 15:26:54.238893 19503 net.cpp:106] Creating Layer detection_loss_1_3x5
I1013 15:26:54.238900 19503 net.cpp:454] detection_loss_1_3x5 <- LFCN_1_3x5_LFCN_1_3x5_0_split_0
I1013 15:26:54.238907 19503 net.cpp:454] detection_loss_1_3x5 <- label_1_3x5_data_1_split_0
I1013 15:26:54.238915 19503 net.cpp:411] detection_loss_1_3x5 -> loss_1_3x5
I1013 15:26:54.238935 19503 layer_factory.hpp:76] Creating layer detection_loss_1_3x5
I1013 15:26:54.239557 19503 net.cpp:150] Setting up detection_loss_1_3x5
I1013 15:26:54.239570 19503 net.cpp:157] Top shape: 1 1 1 2 (2)
I1013 15:26:54.239573 19503 net.cpp:160]     with loss weight 0.9
I1013 15:26:54.239591 19503 net.cpp:165] Memory required for data: 3313076292
I1013 15:26:54.239594 19503 layer_factory.hpp:76] Creating layer detection_accuracy_1_3x5
I1013 15:26:54.239601 19503 net.cpp:106] Creating Layer detection_accuracy_1_3x5
I1013 15:26:54.239604 19503 net.cpp:454] detection_accuracy_1_3x5 <- LFCN_1_3x5_LFCN_1_3x5_0_split_1
I1013 15:26:54.239609 19503 net.cpp:454] detection_accuracy_1_3x5 <- label_1_3x5_data_1_split_1
I1013 15:26:54.239616 19503 net.cpp:411] detection_accuracy_1_3x5 -> accuracy_1_3x5
I1013 15:26:54.239624 19503 net.cpp:411] detection_accuracy_1_3x5 -> boxiou_1_3x5
I1013 15:26:54.239678 19503 net.cpp:150] Setting up detection_accuracy_1_3x5
I1013 15:26:54.239693 19503 net.cpp:157] Top shape: 1 1 1 2 (2)
I1013 15:26:54.239699 19503 net.cpp:157] Top shape: 1 1 1 1 (1)
I1013 15:26:54.239703 19503 net.cpp:165] Memory required for data: 3313076304
I1013 15:26:54.239708 19503 layer_factory.hpp:76] Creating layer LFCN_1_5x7
I1013 15:26:54.239723 19503 net.cpp:106] Creating Layer LFCN_1_5x7
I1013 15:26:54.239727 19503 net.cpp:454] LFCN_1_5x7 <- loss1_conv1_loss_relu1_0_split_1
I1013 15:26:54.239734 19503 net.cpp:411] LFCN_1_5x7 -> LFCN_1_5x7
I1013 15:26:54.245528 19503 net.cpp:150] Setting up LFCN_1_5x7
I1013 15:26:54.245543 19503 net.cpp:157] Top shape: 4 6 72 72 (124416)
I1013 15:26:54.245548 19503 net.cpp:165] Memory required for data: 3313573968
I1013 15:26:54.245553 19503 layer_factory.hpp:76] Creating layer LFCN_1_5x7_LFCN_1_5x7_0_split
I1013 15:26:54.245559 19503 net.cpp:106] Creating Layer LFCN_1_5x7_LFCN_1_5x7_0_split
I1013 15:26:54.245563 19503 net.cpp:454] LFCN_1_5x7_LFCN_1_5x7_0_split <- LFCN_1_5x7
I1013 15:26:54.245568 19503 net.cpp:411] LFCN_1_5x7_LFCN_1_5x7_0_split -> LFCN_1_5x7_LFCN_1_5x7_0_split_0
I1013 15:26:54.245574 19503 net.cpp:411] LFCN_1_5x7_LFCN_1_5x7_0_split -> LFCN_1_5x7_LFCN_1_5x7_0_split_1
I1013 15:26:54.245580 19503 net.cpp:411] LFCN_1_5x7_LFCN_1_5x7_0_split -> LFCN_1_5x7_LFCN_1_5x7_0_split_2
I1013 15:26:54.245662 19503 net.cpp:150] Setting up LFCN_1_5x7_LFCN_1_5x7_0_split
I1013 15:26:54.245673 19503 net.cpp:157] Top shape: 4 6 72 72 (124416)
I1013 15:26:54.245679 19503 net.cpp:157] Top shape: 4 6 72 72 (124416)
I1013 15:26:54.245685 19503 net.cpp:157] Top shape: 4 6 72 72 (124416)
I1013 15:26:54.245689 19503 net.cpp:165] Memory required for data: 3315066960
I1013 15:26:54.245692 19503 layer_factory.hpp:76] Creating layer detection_loss_1_5x7
I1013 15:26:54.245703 19503 net.cpp:106] Creating Layer detection_loss_1_5x7
I1013 15:26:54.245708 19503 net.cpp:454] detection_loss_1_5x7 <- LFCN_1_5x7_LFCN_1_5x7_0_split_0
I1013 15:26:54.245715 19503 net.cpp:454] detection_loss_1_5x7 <- label_1_5x7_data_2_split_0
I1013 15:26:54.245724 19503 net.cpp:411] detection_loss_1_5x7 -> loss_1_5x7
I1013 15:26:54.245735 19503 layer_factory.hpp:76] Creating layer detection_loss_1_5x7
I1013 15:26:54.246345 19503 net.cpp:150] Setting up detection_loss_1_5x7
I1013 15:26:54.246358 19503 net.cpp:157] Top shape: 1 1 1 2 (2)
I1013 15:26:54.246361 19503 net.cpp:160]     with loss weight 0.9
I1013 15:26:54.246367 19503 net.cpp:165] Memory required for data: 3315066968
I1013 15:26:54.246371 19503 layer_factory.hpp:76] Creating layer detection_accuracy_1_5x7
I1013 15:26:54.246376 19503 net.cpp:106] Creating Layer detection_accuracy_1_5x7
I1013 15:26:54.246381 19503 net.cpp:454] detection_accuracy_1_5x7 <- LFCN_1_5x7_LFCN_1_5x7_0_split_1
I1013 15:26:54.246384 19503 net.cpp:454] detection_accuracy_1_5x7 <- label_1_5x7_data_2_split_1
I1013 15:26:54.246392 19503 net.cpp:411] detection_accuracy_1_5x7 -> accuracy_1_5x7
I1013 15:26:54.246397 19503 net.cpp:411] detection_accuracy_1_5x7 -> boxiou_1_5x7
I1013 15:26:54.246436 19503 net.cpp:150] Setting up detection_accuracy_1_5x7
I1013 15:26:54.246443 19503 net.cpp:157] Top shape: 1 1 1 2 (2)
I1013 15:26:54.246446 19503 net.cpp:157] Top shape: 1 1 1 1 (1)
I1013 15:26:54.246448 19503 net.cpp:165] Memory required for data: 3315066980
I1013 15:26:54.246451 19503 layer_factory.hpp:76] Creating layer pool4
I1013 15:26:54.246456 19503 net.cpp:106] Creating Layer pool4
I1013 15:26:54.246459 19503 net.cpp:454] pool4 <- conv4_3_relu4_3_0_split_1
I1013 15:26:54.246464 19503 net.cpp:411] pool4 -> pool4
I1013 15:26:54.246847 19503 net.cpp:150] Setting up pool4
I1013 15:26:54.246860 19503 net.cpp:157] Top shape: 4 512 36 36 (2654208)
I1013 15:26:54.246863 19503 net.cpp:165] Memory required for data: 3325683812
I1013 15:26:54.246866 19503 layer_factory.hpp:76] Creating layer conv5_1
I1013 15:26:54.246873 19503 net.cpp:106] Creating Layer conv5_1
I1013 15:26:54.246876 19503 net.cpp:454] conv5_1 <- pool4
I1013 15:26:54.246888 19503 net.cpp:411] conv5_1 -> conv5_1
I1013 15:26:54.252872 19503 net.cpp:150] Setting up conv5_1
I1013 15:26:54.252902 19503 net.cpp:157] Top shape: 4 512 36 36 (2654208)
I1013 15:26:54.252905 19503 net.cpp:165] Memory required for data: 3336300644
I1013 15:26:54.252912 19503 layer_factory.hpp:76] Creating layer relu5_1
I1013 15:26:54.252918 19503 net.cpp:106] Creating Layer relu5_1
I1013 15:26:54.252920 19503 net.cpp:454] relu5_1 <- conv5_1
I1013 15:26:54.252925 19503 net.cpp:397] relu5_1 -> conv5_1 (in-place)
I1013 15:26:54.253270 19503 net.cpp:150] Setting up relu5_1
I1013 15:26:54.253283 19503 net.cpp:157] Top shape: 4 512 36 36 (2654208)
I1013 15:26:54.253286 19503 net.cpp:165] Memory required for data: 3346917476
I1013 15:26:54.253289 19503 layer_factory.hpp:76] Creating layer conv5_2
I1013 15:26:54.253296 19503 net.cpp:106] Creating Layer conv5_2
I1013 15:26:54.253299 19503 net.cpp:454] conv5_2 <- conv5_1
I1013 15:26:54.253305 19503 net.cpp:411] conv5_2 -> conv5_2
I1013 15:26:54.259909 19503 net.cpp:150] Setting up conv5_2
I1013 15:26:54.259927 19503 net.cpp:157] Top shape: 4 512 36 36 (2654208)
I1013 15:26:54.259930 19503 net.cpp:165] Memory required for data: 3357534308
I1013 15:26:54.259937 19503 layer_factory.hpp:76] Creating layer relu5_2
I1013 15:26:54.259944 19503 net.cpp:106] Creating Layer relu5_2
I1013 15:26:54.259948 19503 net.cpp:454] relu5_2 <- conv5_2
I1013 15:26:54.259953 19503 net.cpp:397] relu5_2 -> conv5_2 (in-place)
I1013 15:26:54.260128 19503 net.cpp:150] Setting up relu5_2
I1013 15:26:54.260133 19503 net.cpp:157] Top shape: 4 512 36 36 (2654208)
I1013 15:26:54.260136 19503 net.cpp:165] Memory required for data: 3368151140
I1013 15:26:54.260139 19503 layer_factory.hpp:76] Creating layer conv5_3
I1013 15:26:54.260146 19503 net.cpp:106] Creating Layer conv5_3
I1013 15:26:54.260149 19503 net.cpp:454] conv5_3 <- conv5_2
I1013 15:26:54.260154 19503 net.cpp:411] conv5_3 -> conv5_3
I1013 15:26:54.266346 19503 net.cpp:150] Setting up conv5_3
I1013 15:26:54.266362 19503 net.cpp:157] Top shape: 4 512 36 36 (2654208)
I1013 15:26:54.266366 19503 net.cpp:165] Memory required for data: 3378767972
I1013 15:26:54.266372 19503 layer_factory.hpp:76] Creating layer relu5_3
I1013 15:26:54.266381 19503 net.cpp:106] Creating Layer relu5_3
I1013 15:26:54.266384 19503 net.cpp:454] relu5_3 <- conv5_3
I1013 15:26:54.266389 19503 net.cpp:397] relu5_3 -> conv5_3 (in-place)
I1013 15:26:54.266733 19503 net.cpp:150] Setting up relu5_3
I1013 15:26:54.266746 19503 net.cpp:157] Top shape: 4 512 36 36 (2654208)
I1013 15:26:54.266748 19503 net.cpp:165] Memory required for data: 3389384804
I1013 15:26:54.266752 19503 layer_factory.hpp:76] Creating layer conv5_3_relu5_3_0_split
I1013 15:26:54.266759 19503 net.cpp:106] Creating Layer conv5_3_relu5_3_0_split
I1013 15:26:54.266763 19503 net.cpp:454] conv5_3_relu5_3_0_split <- conv5_3
I1013 15:26:54.266769 19503 net.cpp:411] conv5_3_relu5_3_0_split -> conv5_3_relu5_3_0_split_0
I1013 15:26:54.266777 19503 net.cpp:411] conv5_3_relu5_3_0_split -> conv5_3_relu5_3_0_split_1
I1013 15:26:54.266782 19503 net.cpp:411] conv5_3_relu5_3_0_split -> conv5_3_relu5_3_0_split_2
I1013 15:26:54.266842 19503 net.cpp:150] Setting up conv5_3_relu5_3_0_split
I1013 15:26:54.266847 19503 net.cpp:157] Top shape: 4 512 36 36 (2654208)
I1013 15:26:54.266851 19503 net.cpp:157] Top shape: 4 512 36 36 (2654208)
I1013 15:26:54.266855 19503 net.cpp:157] Top shape: 4 512 36 36 (2654208)
I1013 15:26:54.266856 19503 net.cpp:165] Memory required for data: 3421235300
I1013 15:26:54.266860 19503 layer_factory.hpp:76] Creating layer LFCN_2_3x5
I1013 15:26:54.266868 19503 net.cpp:106] Creating Layer LFCN_2_3x5
I1013 15:26:54.266871 19503 net.cpp:454] LFCN_2_3x5 <- conv5_3_relu5_3_0_split_0
I1013 15:26:54.266880 19503 net.cpp:411] LFCN_2_3x5 -> LFCN_2_3x5
I1013 15:26:54.269641 19503 net.cpp:150] Setting up LFCN_2_3x5
I1013 15:26:54.269655 19503 net.cpp:157] Top shape: 4 6 36 36 (31104)
I1013 15:26:54.269659 19503 net.cpp:165] Memory required for data: 3421359716
I1013 15:26:54.269672 19503 layer_factory.hpp:76] Creating layer LFCN_2_3x5_LFCN_2_3x5_0_split
I1013 15:26:54.269678 19503 net.cpp:106] Creating Layer LFCN_2_3x5_LFCN_2_3x5_0_split
I1013 15:26:54.269681 19503 net.cpp:454] LFCN_2_3x5_LFCN_2_3x5_0_split <- LFCN_2_3x5
I1013 15:26:54.269688 19503 net.cpp:411] LFCN_2_3x5_LFCN_2_3x5_0_split -> LFCN_2_3x5_LFCN_2_3x5_0_split_0
I1013 15:26:54.269695 19503 net.cpp:411] LFCN_2_3x5_LFCN_2_3x5_0_split -> LFCN_2_3x5_LFCN_2_3x5_0_split_1
I1013 15:26:54.269701 19503 net.cpp:411] LFCN_2_3x5_LFCN_2_3x5_0_split -> LFCN_2_3x5_LFCN_2_3x5_0_split_2
I1013 15:26:54.269757 19503 net.cpp:150] Setting up LFCN_2_3x5_LFCN_2_3x5_0_split
I1013 15:26:54.269762 19503 net.cpp:157] Top shape: 4 6 36 36 (31104)
I1013 15:26:54.269765 19503 net.cpp:157] Top shape: 4 6 36 36 (31104)
I1013 15:26:54.269769 19503 net.cpp:157] Top shape: 4 6 36 36 (31104)
I1013 15:26:54.269771 19503 net.cpp:165] Memory required for data: 3421732964
I1013 15:26:54.269774 19503 layer_factory.hpp:76] Creating layer detection_loss_2_3x5
I1013 15:26:54.269780 19503 net.cpp:106] Creating Layer detection_loss_2_3x5
I1013 15:26:54.269783 19503 net.cpp:454] detection_loss_2_3x5 <- LFCN_2_3x5_LFCN_2_3x5_0_split_0
I1013 15:26:54.269788 19503 net.cpp:454] detection_loss_2_3x5 <- label_2_3x5_data_3_split_0
I1013 15:26:54.269794 19503 net.cpp:411] detection_loss_2_3x5 -> loss_2_3x5
I1013 15:26:54.269803 19503 layer_factory.hpp:76] Creating layer detection_loss_2_3x5
I1013 15:26:54.270349 19503 net.cpp:150] Setting up detection_loss_2_3x5
I1013 15:26:54.270361 19503 net.cpp:157] Top shape: 1 1 1 2 (2)
I1013 15:26:54.270364 19503 net.cpp:160]     with loss weight 1
I1013 15:26:54.270375 19503 net.cpp:165] Memory required for data: 3421732972
I1013 15:26:54.270378 19503 layer_factory.hpp:76] Creating layer detection_accuracy_2_3x5
I1013 15:26:54.270385 19503 net.cpp:106] Creating Layer detection_accuracy_2_3x5
I1013 15:26:54.270390 19503 net.cpp:454] detection_accuracy_2_3x5 <- LFCN_2_3x5_LFCN_2_3x5_0_split_1
I1013 15:26:54.270393 19503 net.cpp:454] detection_accuracy_2_3x5 <- label_2_3x5_data_3_split_1
I1013 15:26:54.270398 19503 net.cpp:411] detection_accuracy_2_3x5 -> accuracy_2_3x5
I1013 15:26:54.270406 19503 net.cpp:411] detection_accuracy_2_3x5 -> boxiou_2_3x5
I1013 15:26:54.270449 19503 net.cpp:150] Setting up detection_accuracy_2_3x5
I1013 15:26:54.270459 19503 net.cpp:157] Top shape: 1 1 1 2 (2)
I1013 15:26:54.270463 19503 net.cpp:157] Top shape: 1 1 1 1 (1)
I1013 15:26:54.270465 19503 net.cpp:165] Memory required for data: 3421732984
I1013 15:26:54.270468 19503 layer_factory.hpp:76] Creating layer LFCN_2_5x7
I1013 15:26:54.270476 19503 net.cpp:106] Creating Layer LFCN_2_5x7
I1013 15:26:54.270480 19503 net.cpp:454] LFCN_2_5x7 <- conv5_3_relu5_3_0_split_1
I1013 15:26:54.270486 19503 net.cpp:411] LFCN_2_5x7 -> LFCN_2_5x7
I1013 15:26:54.275770 19503 net.cpp:150] Setting up LFCN_2_5x7
I1013 15:26:54.275784 19503 net.cpp:157] Top shape: 4 6 36 36 (31104)
I1013 15:26:54.275786 19503 net.cpp:165] Memory required for data: 3421857400
I1013 15:26:54.275792 19503 layer_factory.hpp:76] Creating layer LFCN_2_5x7_LFCN_2_5x7_0_split
I1013 15:26:54.275800 19503 net.cpp:106] Creating Layer LFCN_2_5x7_LFCN_2_5x7_0_split
I1013 15:26:54.275804 19503 net.cpp:454] LFCN_2_5x7_LFCN_2_5x7_0_split <- LFCN_2_5x7
I1013 15:26:54.275810 19503 net.cpp:411] LFCN_2_5x7_LFCN_2_5x7_0_split -> LFCN_2_5x7_LFCN_2_5x7_0_split_0
I1013 15:26:54.275816 19503 net.cpp:411] LFCN_2_5x7_LFCN_2_5x7_0_split -> LFCN_2_5x7_LFCN_2_5x7_0_split_1
I1013 15:26:54.275821 19503 net.cpp:411] LFCN_2_5x7_LFCN_2_5x7_0_split -> LFCN_2_5x7_LFCN_2_5x7_0_split_2
I1013 15:26:54.275878 19503 net.cpp:150] Setting up LFCN_2_5x7_LFCN_2_5x7_0_split
I1013 15:26:54.275892 19503 net.cpp:157] Top shape: 4 6 36 36 (31104)
I1013 15:26:54.275895 19503 net.cpp:157] Top shape: 4 6 36 36 (31104)
I1013 15:26:54.275899 19503 net.cpp:157] Top shape: 4 6 36 36 (31104)
I1013 15:26:54.275902 19503 net.cpp:165] Memory required for data: 3422230648
I1013 15:26:54.275904 19503 layer_factory.hpp:76] Creating layer detection_loss_2_5x7
I1013 15:26:54.275910 19503 net.cpp:106] Creating Layer detection_loss_2_5x7
I1013 15:26:54.275914 19503 net.cpp:454] detection_loss_2_5x7 <- LFCN_2_5x7_LFCN_2_5x7_0_split_0
I1013 15:26:54.275918 19503 net.cpp:454] detection_loss_2_5x7 <- label_2_5x7_data_4_split_0
I1013 15:26:54.275923 19503 net.cpp:411] detection_loss_2_5x7 -> loss_2_5x7
I1013 15:26:54.275930 19503 layer_factory.hpp:76] Creating layer detection_loss_2_5x7
I1013 15:26:54.276294 19503 net.cpp:150] Setting up detection_loss_2_5x7
I1013 15:26:54.276304 19503 net.cpp:157] Top shape: 1 1 1 2 (2)
I1013 15:26:54.276307 19503 net.cpp:160]     with loss weight 1
I1013 15:26:54.276312 19503 net.cpp:165] Memory required for data: 3422230656
I1013 15:26:54.276315 19503 layer_factory.hpp:76] Creating layer detection_accuracy_2_5x7
I1013 15:26:54.276321 19503 net.cpp:106] Creating Layer detection_accuracy_2_5x7
I1013 15:26:54.276324 19503 net.cpp:454] detection_accuracy_2_5x7 <- LFCN_2_5x7_LFCN_2_5x7_0_split_1
I1013 15:26:54.276329 19503 net.cpp:454] detection_accuracy_2_5x7 <- label_2_5x7_data_4_split_1
I1013 15:26:54.276335 19503 net.cpp:411] detection_accuracy_2_5x7 -> accuracy_2_5x7
I1013 15:26:54.276341 19503 net.cpp:411] detection_accuracy_2_5x7 -> boxiou_2_5x7
I1013 15:26:54.276383 19503 net.cpp:150] Setting up detection_accuracy_2_5x7
I1013 15:26:54.276391 19503 net.cpp:157] Top shape: 1 1 1 2 (2)
I1013 15:26:54.276394 19503 net.cpp:157] Top shape: 1 1 1 1 (1)
I1013 15:26:54.276396 19503 net.cpp:165] Memory required for data: 3422230668
I1013 15:26:54.276399 19503 layer_factory.hpp:76] Creating layer pool5
I1013 15:26:54.276407 19503 net.cpp:106] Creating Layer pool5
I1013 15:26:54.276410 19503 net.cpp:454] pool5 <- conv5_3_relu5_3_0_split_2
I1013 15:26:54.276415 19503 net.cpp:411] pool5 -> pool5
I1013 15:26:54.276805 19503 net.cpp:150] Setting up pool5
I1013 15:26:54.276818 19503 net.cpp:157] Top shape: 4 512 18 18 (663552)
I1013 15:26:54.276820 19503 net.cpp:165] Memory required for data: 3424884876
I1013 15:26:54.276824 19503 layer_factory.hpp:76] Creating layer conv6_1
I1013 15:26:54.276834 19503 net.cpp:106] Creating Layer conv6_1
I1013 15:26:54.276836 19503 net.cpp:454] conv6_1 <- pool5
I1013 15:26:54.276844 19503 net.cpp:411] conv6_1 -> conv6_1
I1013 15:26:54.366694 19503 net.cpp:150] Setting up conv6_1
I1013 15:26:54.366713 19503 net.cpp:157] Top shape: 4 512 18 18 (663552)
I1013 15:26:54.366727 19503 net.cpp:165] Memory required for data: 3427539084
I1013 15:26:54.366734 19503 layer_factory.hpp:76] Creating layer relu6_1
I1013 15:26:54.366741 19503 net.cpp:106] Creating Layer relu6_1
I1013 15:26:54.366745 19503 net.cpp:454] relu6_1 <- conv6_1
I1013 15:26:54.366750 19503 net.cpp:397] relu6_1 -> conv6_1 (in-place)
I1013 15:26:54.367162 19503 net.cpp:150] Setting up relu6_1
I1013 15:26:54.367177 19503 net.cpp:157] Top shape: 4 512 18 18 (663552)
I1013 15:26:54.367179 19503 net.cpp:165] Memory required for data: 3430193292
I1013 15:26:54.367182 19503 layer_factory.hpp:76] Creating layer conv6_1_relu6_1_0_split
I1013 15:26:54.367188 19503 net.cpp:106] Creating Layer conv6_1_relu6_1_0_split
I1013 15:26:54.367192 19503 net.cpp:454] conv6_1_relu6_1_0_split <- conv6_1
I1013 15:26:54.367197 19503 net.cpp:411] conv6_1_relu6_1_0_split -> conv6_1_relu6_1_0_split_0
I1013 15:26:54.367202 19503 net.cpp:411] conv6_1_relu6_1_0_split -> conv6_1_relu6_1_0_split_1
I1013 15:26:54.367209 19503 net.cpp:411] conv6_1_relu6_1_0_split -> conv6_1_relu6_1_0_split_2
I1013 15:26:54.367271 19503 net.cpp:150] Setting up conv6_1_relu6_1_0_split
I1013 15:26:54.367280 19503 net.cpp:157] Top shape: 4 512 18 18 (663552)
I1013 15:26:54.367285 19503 net.cpp:157] Top shape: 4 512 18 18 (663552)
I1013 15:26:54.367287 19503 net.cpp:157] Top shape: 4 512 18 18 (663552)
I1013 15:26:54.367290 19503 net.cpp:165] Memory required for data: 3438155916
I1013 15:26:54.367292 19503 layer_factory.hpp:76] Creating layer LFCN_3_3x5
I1013 15:26:54.367302 19503 net.cpp:106] Creating Layer LFCN_3_3x5
I1013 15:26:54.367305 19503 net.cpp:454] LFCN_3_3x5 <- conv6_1_relu6_1_0_split_0
I1013 15:26:54.367311 19503 net.cpp:411] LFCN_3_3x5 -> LFCN_3_3x5
I1013 15:26:54.370797 19503 net.cpp:150] Setting up LFCN_3_3x5
I1013 15:26:54.370811 19503 net.cpp:157] Top shape: 4 6 18 18 (7776)
I1013 15:26:54.370815 19503 net.cpp:165] Memory required for data: 3438187020
I1013 15:26:54.370820 19503 layer_factory.hpp:76] Creating layer LFCN_3_3x5_LFCN_3_3x5_0_split
I1013 15:26:54.370836 19503 net.cpp:106] Creating Layer LFCN_3_3x5_LFCN_3_3x5_0_split
I1013 15:26:54.370847 19503 net.cpp:454] LFCN_3_3x5_LFCN_3_3x5_0_split <- LFCN_3_3x5
I1013 15:26:54.370852 19503 net.cpp:411] LFCN_3_3x5_LFCN_3_3x5_0_split -> LFCN_3_3x5_LFCN_3_3x5_0_split_0
I1013 15:26:54.370859 19503 net.cpp:411] LFCN_3_3x5_LFCN_3_3x5_0_split -> LFCN_3_3x5_LFCN_3_3x5_0_split_1
I1013 15:26:54.370864 19503 net.cpp:411] LFCN_3_3x5_LFCN_3_3x5_0_split -> LFCN_3_3x5_LFCN_3_3x5_0_split_2
I1013 15:26:54.370930 19503 net.cpp:150] Setting up LFCN_3_3x5_LFCN_3_3x5_0_split
I1013 15:26:54.370940 19503 net.cpp:157] Top shape: 4 6 18 18 (7776)
I1013 15:26:54.370944 19503 net.cpp:157] Top shape: 4 6 18 18 (7776)
I1013 15:26:54.370947 19503 net.cpp:157] Top shape: 4 6 18 18 (7776)
I1013 15:26:54.370949 19503 net.cpp:165] Memory required for data: 3438280332
I1013 15:26:54.370954 19503 layer_factory.hpp:76] Creating layer detection_loss_3_3x5
I1013 15:26:54.370960 19503 net.cpp:106] Creating Layer detection_loss_3_3x5
I1013 15:26:54.370964 19503 net.cpp:454] detection_loss_3_3x5 <- LFCN_3_3x5_LFCN_3_3x5_0_split_0
I1013 15:26:54.370968 19503 net.cpp:454] detection_loss_3_3x5 <- label_3_3x5_data_5_split_0
I1013 15:26:54.370973 19503 net.cpp:411] detection_loss_3_3x5 -> loss_3_3x5
I1013 15:26:54.370980 19503 layer_factory.hpp:76] Creating layer detection_loss_3_3x5
I1013 15:26:54.371348 19503 net.cpp:150] Setting up detection_loss_3_3x5
I1013 15:26:54.371359 19503 net.cpp:157] Top shape: 1 1 1 2 (2)
I1013 15:26:54.371361 19503 net.cpp:160]     with loss weight 1
I1013 15:26:54.371368 19503 net.cpp:165] Memory required for data: 3438280340
I1013 15:26:54.371371 19503 layer_factory.hpp:76] Creating layer detection_accuracy_3_3x5
I1013 15:26:54.371377 19503 net.cpp:106] Creating Layer detection_accuracy_3_3x5
I1013 15:26:54.371381 19503 net.cpp:454] detection_accuracy_3_3x5 <- LFCN_3_3x5_LFCN_3_3x5_0_split_1
I1013 15:26:54.371386 19503 net.cpp:454] detection_accuracy_3_3x5 <- label_3_3x5_data_5_split_1
I1013 15:26:54.371392 19503 net.cpp:411] detection_accuracy_3_3x5 -> accuracy_3_3x5
I1013 15:26:54.371398 19503 net.cpp:411] detection_accuracy_3_3x5 -> boxiou_3_3x5
I1013 15:26:54.371448 19503 net.cpp:150] Setting up detection_accuracy_3_3x5
I1013 15:26:54.371455 19503 net.cpp:157] Top shape: 1 1 1 2 (2)
I1013 15:26:54.371459 19503 net.cpp:157] Top shape: 1 1 1 1 (1)
I1013 15:26:54.371461 19503 net.cpp:165] Memory required for data: 3438280352
I1013 15:26:54.371464 19503 layer_factory.hpp:76] Creating layer LFCN_3_5x7
I1013 15:26:54.371472 19503 net.cpp:106] Creating Layer LFCN_3_5x7
I1013 15:26:54.371475 19503 net.cpp:454] LFCN_3_5x7 <- conv6_1_relu6_1_0_split_1
I1013 15:26:54.371480 19503 net.cpp:411] LFCN_3_5x7 -> LFCN_3_5x7
I1013 15:26:54.377317 19503 net.cpp:150] Setting up LFCN_3_5x7
I1013 15:26:54.377331 19503 net.cpp:157] Top shape: 4 6 18 18 (7776)
I1013 15:26:54.377334 19503 net.cpp:165] Memory required for data: 3438311456
I1013 15:26:54.377341 19503 layer_factory.hpp:76] Creating layer LFCN_3_5x7_LFCN_3_5x7_0_split
I1013 15:26:54.377348 19503 net.cpp:106] Creating Layer LFCN_3_5x7_LFCN_3_5x7_0_split
I1013 15:26:54.377352 19503 net.cpp:454] LFCN_3_5x7_LFCN_3_5x7_0_split <- LFCN_3_5x7
I1013 15:26:54.377358 19503 net.cpp:411] LFCN_3_5x7_LFCN_3_5x7_0_split -> LFCN_3_5x7_LFCN_3_5x7_0_split_0
I1013 15:26:54.377365 19503 net.cpp:411] LFCN_3_5x7_LFCN_3_5x7_0_split -> LFCN_3_5x7_LFCN_3_5x7_0_split_1
I1013 15:26:54.377370 19503 net.cpp:411] LFCN_3_5x7_LFCN_3_5x7_0_split -> LFCN_3_5x7_LFCN_3_5x7_0_split_2
I1013 15:26:54.377429 19503 net.cpp:150] Setting up LFCN_3_5x7_LFCN_3_5x7_0_split
I1013 15:26:54.377437 19503 net.cpp:157] Top shape: 4 6 18 18 (7776)
I1013 15:26:54.377441 19503 net.cpp:157] Top shape: 4 6 18 18 (7776)
I1013 15:26:54.377444 19503 net.cpp:157] Top shape: 4 6 18 18 (7776)
I1013 15:26:54.377446 19503 net.cpp:165] Memory required for data: 3438404768
I1013 15:26:54.377449 19503 layer_factory.hpp:76] Creating layer detection_loss_3_5x7
I1013 15:26:54.377456 19503 net.cpp:106] Creating Layer detection_loss_3_5x7
I1013 15:26:54.377460 19503 net.cpp:454] detection_loss_3_5x7 <- LFCN_3_5x7_LFCN_3_5x7_0_split_0
I1013 15:26:54.377463 19503 net.cpp:454] detection_loss_3_5x7 <- label_3_5x7_data_6_split_0
I1013 15:26:54.377470 19503 net.cpp:411] detection_loss_3_5x7 -> loss_3_5x7
I1013 15:26:54.377476 19503 layer_factory.hpp:76] Creating layer detection_loss_3_5x7
I1013 15:26:54.378022 19503 net.cpp:150] Setting up detection_loss_3_5x7
I1013 15:26:54.378034 19503 net.cpp:157] Top shape: 1 1 1 2 (2)
I1013 15:26:54.378037 19503 net.cpp:160]     with loss weight 1
I1013 15:26:54.378042 19503 net.cpp:165] Memory required for data: 3438404776
I1013 15:26:54.378046 19503 layer_factory.hpp:76] Creating layer detection_accuracy_3_5x7
I1013 15:26:54.378053 19503 net.cpp:106] Creating Layer detection_accuracy_3_5x7
I1013 15:26:54.378057 19503 net.cpp:454] detection_accuracy_3_5x7 <- LFCN_3_5x7_LFCN_3_5x7_0_split_1
I1013 15:26:54.378062 19503 net.cpp:454] detection_accuracy_3_5x7 <- label_3_5x7_data_6_split_1
I1013 15:26:54.378067 19503 net.cpp:411] detection_accuracy_3_5x7 -> accuracy_3_5x7
I1013 15:26:54.378073 19503 net.cpp:411] detection_accuracy_3_5x7 -> boxiou_3_5x7
I1013 15:26:54.378120 19503 net.cpp:150] Setting up detection_accuracy_3_5x7
I1013 15:26:54.378126 19503 net.cpp:157] Top shape: 1 1 1 2 (2)
I1013 15:26:54.378129 19503 net.cpp:157] Top shape: 1 1 1 1 (1)
I1013 15:26:54.378131 19503 net.cpp:165] Memory required for data: 3438404788
I1013 15:26:54.378134 19503 layer_factory.hpp:76] Creating layer pool6
I1013 15:26:54.378141 19503 net.cpp:106] Creating Layer pool6
I1013 15:26:54.378144 19503 net.cpp:454] pool6 <- conv6_1_relu6_1_0_split_2
I1013 15:26:54.378149 19503 net.cpp:411] pool6 -> pool6
I1013 15:26:54.378362 19503 net.cpp:150] Setting up pool6
I1013 15:26:54.378372 19503 net.cpp:157] Top shape: 4 512 9 9 (165888)
I1013 15:26:54.378376 19503 net.cpp:165] Memory required for data: 3439068340
I1013 15:26:54.378378 19503 layer_factory.hpp:76] Creating layer LFCN_4_3x5
I1013 15:26:54.378388 19503 net.cpp:106] Creating Layer LFCN_4_3x5
I1013 15:26:54.378391 19503 net.cpp:454] LFCN_4_3x5 <- pool6
I1013 15:26:54.378396 19503 net.cpp:411] LFCN_4_3x5 -> LFCN_4_3x5
I1013 15:26:54.381317 19503 net.cpp:150] Setting up LFCN_4_3x5
I1013 15:26:54.381330 19503 net.cpp:157] Top shape: 4 6 9 9 (1944)
I1013 15:26:54.381333 19503 net.cpp:165] Memory required for data: 3439076116
I1013 15:26:54.381340 19503 layer_factory.hpp:76] Creating layer LFCN_4_3x5_LFCN_4_3x5_0_split
I1013 15:26:54.381348 19503 net.cpp:106] Creating Layer LFCN_4_3x5_LFCN_4_3x5_0_split
I1013 15:26:54.381351 19503 net.cpp:454] LFCN_4_3x5_LFCN_4_3x5_0_split <- LFCN_4_3x5
I1013 15:26:54.381357 19503 net.cpp:411] LFCN_4_3x5_LFCN_4_3x5_0_split -> LFCN_4_3x5_LFCN_4_3x5_0_split_0
I1013 15:26:54.381363 19503 net.cpp:411] LFCN_4_3x5_LFCN_4_3x5_0_split -> LFCN_4_3x5_LFCN_4_3x5_0_split_1
I1013 15:26:54.381368 19503 net.cpp:411] LFCN_4_3x5_LFCN_4_3x5_0_split -> LFCN_4_3x5_LFCN_4_3x5_0_split_2
I1013 15:26:54.381431 19503 net.cpp:150] Setting up LFCN_4_3x5_LFCN_4_3x5_0_split
I1013 15:26:54.381438 19503 net.cpp:157] Top shape: 4 6 9 9 (1944)
I1013 15:26:54.381443 19503 net.cpp:157] Top shape: 4 6 9 9 (1944)
I1013 15:26:54.381445 19503 net.cpp:157] Top shape: 4 6 9 9 (1944)
I1013 15:26:54.381448 19503 net.cpp:165] Memory required for data: 3439099444
I1013 15:26:54.381450 19503 layer_factory.hpp:76] Creating layer detection_loss_4_3x5
I1013 15:26:54.381458 19503 net.cpp:106] Creating Layer detection_loss_4_3x5
I1013 15:26:54.381460 19503 net.cpp:454] detection_loss_4_3x5 <- LFCN_4_3x5_LFCN_4_3x5_0_split_0
I1013 15:26:54.381465 19503 net.cpp:454] detection_loss_4_3x5 <- label_4_3x5_data_7_split_0
I1013 15:26:54.381469 19503 net.cpp:411] detection_loss_4_3x5 -> loss_4_3x5
I1013 15:26:54.381475 19503 layer_factory.hpp:76] Creating layer detection_loss_4_3x5
I1013 15:26:54.382020 19503 net.cpp:150] Setting up detection_loss_4_3x5
I1013 15:26:54.382032 19503 net.cpp:157] Top shape: 1 1 1 2 (2)
I1013 15:26:54.382035 19503 net.cpp:160]     with loss weight 1
I1013 15:26:54.382040 19503 net.cpp:165] Memory required for data: 3439099452
I1013 15:26:54.382043 19503 layer_factory.hpp:76] Creating layer detection_accuracy_4_3x5
I1013 15:26:54.382050 19503 net.cpp:106] Creating Layer detection_accuracy_4_3x5
I1013 15:26:54.382052 19503 net.cpp:454] detection_accuracy_4_3x5 <- LFCN_4_3x5_LFCN_4_3x5_0_split_1
I1013 15:26:54.382057 19503 net.cpp:454] detection_accuracy_4_3x5 <- label_4_3x5_data_7_split_1
I1013 15:26:54.382064 19503 net.cpp:411] detection_accuracy_4_3x5 -> accuracy_4_3x5
I1013 15:26:54.382071 19503 net.cpp:411] detection_accuracy_4_3x5 -> boxiou_4_3x5
I1013 15:26:54.382115 19503 net.cpp:150] Setting up detection_accuracy_4_3x5
I1013 15:26:54.382122 19503 net.cpp:157] Top shape: 1 1 1 2 (2)
I1013 15:26:54.382124 19503 net.cpp:157] Top shape: 1 1 1 1 (1)
I1013 15:26:54.382128 19503 net.cpp:165] Memory required for data: 3439099464
I1013 15:26:54.382129 19503 layer_factory.hpp:76] Creating layer proposals
I1013 15:26:54.382138 19503 net.cpp:106] Creating Layer proposals
I1013 15:26:54.382141 19503 net.cpp:454] proposals <- LFCN_1_3x5_LFCN_1_3x5_0_split_2
I1013 15:26:54.382145 19503 net.cpp:454] proposals <- LFCN_1_5x7_LFCN_1_5x7_0_split_2
I1013 15:26:54.382148 19503 net.cpp:454] proposals <- LFCN_2_3x5_LFCN_2_3x5_0_split_2
I1013 15:26:54.382153 19503 net.cpp:454] proposals <- LFCN_2_5x7_LFCN_2_5x7_0_split_2
I1013 15:26:54.382154 19503 net.cpp:454] proposals <- LFCN_3_3x5_LFCN_3_3x5_0_split_2
I1013 15:26:54.382158 19503 net.cpp:454] proposals <- LFCN_3_5x7_LFCN_3_5x7_0_split_2
I1013 15:26:54.382163 19503 net.cpp:454] proposals <- LFCN_4_3x5_LFCN_4_3x5_0_split_2
I1013 15:26:54.382171 19503 net.cpp:411] proposals -> proposals
I1013 15:26:54.382210 19503 net.cpp:150] Setting up proposals
I1013 15:26:54.382220 19503 net.cpp:157] Top shape: 1 5 1 1 (5)
I1013 15:26:54.382222 19503 net.cpp:165] Memory required for data: 3439099484
I1013 15:26:54.382225 19503 layer_factory.hpp:76] Creating layer proposal_info
I1013 15:26:54.382241 19503 net.cpp:106] Creating Layer proposal_info
I1013 15:26:54.382243 19503 net.cpp:454] proposal_info <- proposals
I1013 15:26:54.382248 19503 net.cpp:454] proposal_info <- gt_boxes
I1013 15:26:54.382252 19503 net.cpp:411] proposal_info -> rois
I1013 15:26:54.382261 19503 net.cpp:411] proposal_info -> proposal_labels
I1013 15:26:54.382268 19503 net.cpp:411] proposal_info -> proposal_targets
I1013 15:26:54.382274 19503 net.cpp:411] proposal_info -> box_inside_weights
I1013 15:26:54.382279 19503 net.cpp:411] proposal_info -> box_outside_weights
I1013 15:26:54.382284 19503 net.cpp:411] proposal_info -> match_gt_boxes
I1013 15:26:54.382385 19503 net.cpp:150] Setting up proposal_info
I1013 15:26:54.382391 19503 net.cpp:157] Top shape: 128 5 1 1 (640)
I1013 15:26:54.382395 19503 net.cpp:157] Top shape: 128 1 1 1 (128)
I1013 15:26:54.382400 19503 net.cpp:157] Top shape: 128 8 1 1 (1024)
I1013 15:26:54.382402 19503 net.cpp:157] Top shape: 128 8 1 1 (1024)
I1013 15:26:54.382405 19503 net.cpp:157] Top shape: 128 8 1 1 (1024)
I1013 15:26:54.382408 19503 net.cpp:157] Top shape: 128 6 1 1 (768)
I1013 15:26:54.382411 19503 net.cpp:165] Memory required for data: 3439117916
I1013 15:26:54.382413 19503 layer_factory.hpp:76] Creating layer rois_proposal_info_0_split
I1013 15:26:54.382418 19503 net.cpp:106] Creating Layer rois_proposal_info_0_split
I1013 15:26:54.382421 19503 net.cpp:454] rois_proposal_info_0_split <- rois
I1013 15:26:54.382426 19503 net.cpp:411] rois_proposal_info_0_split -> rois_proposal_info_0_split_0
I1013 15:26:54.382431 19503 net.cpp:411] rois_proposal_info_0_split -> rois_proposal_info_0_split_1
I1013 15:26:54.382437 19503 net.cpp:411] rois_proposal_info_0_split -> rois_proposal_info_0_split_2
I1013 15:26:54.382486 19503 net.cpp:150] Setting up rois_proposal_info_0_split
I1013 15:26:54.382493 19503 net.cpp:157] Top shape: 128 5 1 1 (640)
I1013 15:26:54.382496 19503 net.cpp:157] Top shape: 128 5 1 1 (640)
I1013 15:26:54.382499 19503 net.cpp:157] Top shape: 128 5 1 1 (640)
I1013 15:26:54.382501 19503 net.cpp:165] Memory required for data: 3439125596
I1013 15:26:54.382504 19503 layer_factory.hpp:76] Creating layer proposal_labels_proposal_info_1_split
I1013 15:26:54.382508 19503 net.cpp:106] Creating Layer proposal_labels_proposal_info_1_split
I1013 15:26:54.382511 19503 net.cpp:454] proposal_labels_proposal_info_1_split <- proposal_labels
I1013 15:26:54.382515 19503 net.cpp:411] proposal_labels_proposal_info_1_split -> proposal_labels_proposal_info_1_split_0
I1013 15:26:54.382520 19503 net.cpp:411] proposal_labels_proposal_info_1_split -> proposal_labels_proposal_info_1_split_1
I1013 15:26:54.382555 19503 net.cpp:150] Setting up proposal_labels_proposal_info_1_split
I1013 15:26:54.382562 19503 net.cpp:157] Top shape: 128 1 1 1 (128)
I1013 15:26:54.382565 19503 net.cpp:157] Top shape: 128 1 1 1 (128)
I1013 15:26:54.382567 19503 net.cpp:165] Memory required for data: 3439126620
I1013 15:26:54.382570 19503 layer_factory.hpp:76] Creating layer roi_pool_org
I1013 15:26:54.382575 19503 net.cpp:106] Creating Layer roi_pool_org
I1013 15:26:54.382578 19503 net.cpp:454] roi_pool_org <- conv4_3_relu4_3_0_split_2
I1013 15:26:54.382582 19503 net.cpp:454] roi_pool_org <- rois_proposal_info_0_split_0
I1013 15:26:54.382588 19503 net.cpp:411] roi_pool_org -> roi_pool_org
I1013 15:26:54.382596 19503 roi_pooling_layer.cpp:35] Spatial scale: 0.125
I1013 15:26:54.382634 19503 net.cpp:150] Setting up roi_pool_org
I1013 15:26:54.382640 19503 net.cpp:157] Top shape: 128 512 8 4 (2097152)
I1013 15:26:54.382643 19503 net.cpp:165] Memory required for data: 3447515228
I1013 15:26:54.382647 19503 layer_factory.hpp:76] Creating layer roi_pool_ctx
I1013 15:26:54.382652 19503 net.cpp:106] Creating Layer roi_pool_ctx
I1013 15:26:54.382655 19503 net.cpp:454] roi_pool_ctx <- conv4_3_relu4_3_0_split_3
I1013 15:26:54.382660 19503 net.cpp:454] roi_pool_ctx <- rois_proposal_info_0_split_1
I1013 15:26:54.382664 19503 net.cpp:411] roi_pool_ctx -> roi_pool_ctx
I1013 15:26:54.382668 19503 roi_pooling_layer.cpp:35] Spatial scale: 0.125
I1013 15:26:54.382709 19503 net.cpp:150] Setting up roi_pool_ctx
I1013 15:26:54.382715 19503 net.cpp:157] Top shape: 128 512 8 4 (2097152)
I1013 15:26:54.382717 19503 net.cpp:165] Memory required for data: 3455903836
I1013 15:26:54.382720 19503 layer_factory.hpp:76] Creating layer roi_pool
I1013 15:26:54.382725 19503 net.cpp:106] Creating Layer roi_pool
I1013 15:26:54.382727 19503 net.cpp:454] roi_pool <- roi_pool_org
I1013 15:26:54.382731 19503 net.cpp:454] roi_pool <- roi_pool_ctx
I1013 15:26:54.382736 19503 net.cpp:411] roi_pool -> roi_pool
I1013 15:26:54.382761 19503 net.cpp:150] Setting up roi_pool
I1013 15:26:54.382764 19503 net.cpp:157] Top shape: 128 1024 8 4 (4194304)
I1013 15:26:54.382767 19503 net.cpp:165] Memory required for data: 3472681052
I1013 15:26:54.382769 19503 layer_factory.hpp:76] Creating layer roi_c1
I1013 15:26:54.382777 19503 net.cpp:106] Creating Layer roi_c1
I1013 15:26:54.382781 19503 net.cpp:454] roi_c1 <- roi_pool
I1013 15:26:54.382786 19503 net.cpp:411] roi_c1 -> roi_c1
I1013 15:26:54.575354 19503 net.cpp:150] Setting up roi_c1
I1013 15:26:54.575395 19503 net.cpp:157] Top shape: 128 512 8 4 (2097152)
I1013 15:26:54.575398 19503 net.cpp:165] Memory required for data: 3481069660
I1013 15:26:54.575412 19503 layer_factory.hpp:76] Creating layer roi_c1_relu
I1013 15:26:54.575438 19503 net.cpp:106] Creating Layer roi_c1_relu
I1013 15:26:54.575453 19503 net.cpp:454] roi_c1_relu <- roi_c1
I1013 15:26:54.575460 19503 net.cpp:397] roi_c1_relu -> roi_c1 (in-place)
I1013 15:26:54.575824 19503 net.cpp:150] Setting up roi_c1_relu
I1013 15:26:54.575836 19503 net.cpp:157] Top shape: 128 512 8 4 (2097152)
I1013 15:26:54.575839 19503 net.cpp:165] Memory required for data: 3489458268
I1013 15:26:54.575842 19503 layer_factory.hpp:76] Creating layer fc6
I1013 15:26:54.575852 19503 net.cpp:106] Creating Layer fc6
I1013 15:26:54.575855 19503 net.cpp:454] fc6 <- roi_c1
I1013 15:26:54.575867 19503 net.cpp:411] fc6 -> fc6
I1013 15:26:55.663326 19503 net.cpp:150] Setting up fc6
I1013 15:26:55.663363 19503 net.cpp:157] Top shape: 128 2048 (262144)
I1013 15:26:55.663367 19503 net.cpp:165] Memory required for data: 3490506844
I1013 15:26:55.663375 19503 layer_factory.hpp:76] Creating layer relu6
I1013 15:26:55.663384 19503 net.cpp:106] Creating Layer relu6
I1013 15:26:55.663389 19503 net.cpp:454] relu6 <- fc6
I1013 15:26:55.663395 19503 net.cpp:397] relu6 -> fc6 (in-place)
I1013 15:26:55.663643 19503 net.cpp:150] Setting up relu6
I1013 15:26:55.663655 19503 net.cpp:157] Top shape: 128 2048 (262144)
I1013 15:26:55.663657 19503 net.cpp:165] Memory required for data: 3491555420
I1013 15:26:55.663661 19503 layer_factory.hpp:76] Creating layer drop6
I1013 15:26:55.663668 19503 net.cpp:106] Creating Layer drop6
I1013 15:26:55.663671 19503 net.cpp:454] drop6 <- fc6
I1013 15:26:55.663677 19503 net.cpp:397] drop6 -> fc6 (in-place)
I1013 15:26:55.663707 19503 net.cpp:150] Setting up drop6
I1013 15:26:55.663712 19503 net.cpp:157] Top shape: 128 2048 (262144)
I1013 15:26:55.663714 19503 net.cpp:165] Memory required for data: 3492603996
I1013 15:26:55.663718 19503 layer_factory.hpp:76] Creating layer fc6_drop6_0_split
I1013 15:26:55.663723 19503 net.cpp:106] Creating Layer fc6_drop6_0_split
I1013 15:26:55.663725 19503 net.cpp:454] fc6_drop6_0_split <- fc6
I1013 15:26:55.663732 19503 net.cpp:411] fc6_drop6_0_split -> fc6_drop6_0_split_0
I1013 15:26:55.663738 19503 net.cpp:411] fc6_drop6_0_split -> fc6_drop6_0_split_1
I1013 15:26:55.663787 19503 net.cpp:150] Setting up fc6_drop6_0_split
I1013 15:26:55.663792 19503 net.cpp:157] Top shape: 128 2048 (262144)
I1013 15:26:55.663795 19503 net.cpp:157] Top shape: 128 2048 (262144)
I1013 15:26:55.663797 19503 net.cpp:165] Memory required for data: 3494701148
I1013 15:26:55.663800 19503 layer_factory.hpp:76] Creating layer cls_pred
I1013 15:26:55.663808 19503 net.cpp:106] Creating Layer cls_pred
I1013 15:26:55.663811 19503 net.cpp:454] cls_pred <- fc6_drop6_0_split_0
I1013 15:26:55.663820 19503 net.cpp:411] cls_pred -> cls_pred
I1013 15:26:55.664077 19503 net.cpp:150] Setting up cls_pred
I1013 15:26:55.664085 19503 net.cpp:157] Top shape: 128 2 (256)
I1013 15:26:55.664088 19503 net.cpp:165] Memory required for data: 3494702172
I1013 15:26:55.664093 19503 layer_factory.hpp:76] Creating layer cls_pred_cls_pred_0_split
I1013 15:26:55.664098 19503 net.cpp:106] Creating Layer cls_pred_cls_pred_0_split
I1013 15:26:55.664100 19503 net.cpp:454] cls_pred_cls_pred_0_split <- cls_pred
I1013 15:26:55.664105 19503 net.cpp:411] cls_pred_cls_pred_0_split -> cls_pred_cls_pred_0_split_0
I1013 15:26:55.664113 19503 net.cpp:411] cls_pred_cls_pred_0_split -> cls_pred_cls_pred_0_split_1
I1013 15:26:55.664145 19503 net.cpp:150] Setting up cls_pred_cls_pred_0_split
I1013 15:26:55.664149 19503 net.cpp:157] Top shape: 128 2 (256)
I1013 15:26:55.664152 19503 net.cpp:157] Top shape: 128 2 (256)
I1013 15:26:55.664155 19503 net.cpp:165] Memory required for data: 3494704220
I1013 15:26:55.664158 19503 layer_factory.hpp:76] Creating layer bbox_pred
I1013 15:26:55.664165 19503 net.cpp:106] Creating Layer bbox_pred
I1013 15:26:55.664168 19503 net.cpp:454] bbox_pred <- fc6_drop6_0_split_1
I1013 15:26:55.664173 19503 net.cpp:411] bbox_pred -> bbox_pred
I1013 15:26:55.664837 19503 net.cpp:150] Setting up bbox_pred
I1013 15:26:55.664845 19503 net.cpp:157] Top shape: 128 8 (1024)
I1013 15:26:55.664849 19503 net.cpp:165] Memory required for data: 3494708316
I1013 15:26:55.664854 19503 layer_factory.hpp:76] Creating layer bbox_pred_bbox_pred_0_split
I1013 15:26:55.664857 19503 net.cpp:106] Creating Layer bbox_pred_bbox_pred_0_split
I1013 15:26:55.664862 19503 net.cpp:454] bbox_pred_bbox_pred_0_split <- bbox_pred
I1013 15:26:55.664866 19503 net.cpp:411] bbox_pred_bbox_pred_0_split -> bbox_pred_bbox_pred_0_split_0
I1013 15:26:55.664918 19503 net.cpp:411] bbox_pred_bbox_pred_0_split -> bbox_pred_bbox_pred_0_split_1
I1013 15:26:55.664955 19503 net.cpp:150] Setting up bbox_pred_bbox_pred_0_split
I1013 15:26:55.664960 19503 net.cpp:157] Top shape: 128 8 (1024)
I1013 15:26:55.664963 19503 net.cpp:157] Top shape: 128 8 (1024)
I1013 15:26:55.664966 19503 net.cpp:165] Memory required for data: 3494716508
I1013 15:26:55.664969 19503 layer_factory.hpp:76] Creating layer loss_cls
I1013 15:26:55.664975 19503 net.cpp:106] Creating Layer loss_cls
I1013 15:26:55.664978 19503 net.cpp:454] loss_cls <- cls_pred_cls_pred_0_split_0
I1013 15:26:55.664983 19503 net.cpp:454] loss_cls <- proposal_labels_proposal_info_1_split_0
…
I1013 15:26:55.674845 19503 image_gt_data_layer.cpp:234] output label size 2 : 2,6,36,36
I1013 15:26:55.674913 19503 image_gt_data_layer.cpp:234] output label size 3 : 2,6,36,36
I1013 15:26:55.674975 19503 image_gt_data_layer.cpp:234] output label size 4 : 2,6,18,18
I1013 15:26:55.675037 19503 image_gt_data_layer.cpp:234] output label size 5 : 2,6,18,18
I1013 15:26:55.675096 19503 image_gt_data_layer.cpp:234] output label size 6 : 2,6,9,9
I1013 15:26:55.675156 19503 image_gt_data_layer.cpp:249] output gt boxes size: 1,7,1,1
I1013 15:26:55.763023 19503 net.cpp:150] Setting up data
I1013 15:26:55.763052 19503 net.cpp:157] Top shape: 2 3 576 576 (1990656)
I1013 15:26:55.763058 19503 net.cpp:157] Top shape: 2 6 72 72 (62208)
I1013 15:26:55.763062 19503 net.cpp:157] Top shape: 2 6 72 72 (62208)
I1013 15:26:55.763065 19503 net.cpp:157] Top shape: 2 6 36 36 (15552)
I1013 15:26:55.763069 19503 net.cpp:157] Top shape: 2 6 36 36 (15552)
I1013 15:26:55.763072 19503 net.cpp:157] Top shape: 2 6 18 18 (3888)
I1013 15:26:55.763075 19503 net.cpp:157] Top shape: 2 6 18 18 (3888)
I1013 15:26:55.763079 19503 net.cpp:157] Top shape: 2 6 9 9 (972)
I1013 15:26:55.763083 19503 net.cpp:157] Top shape: 1 7 1 1 (7)
I1013 15:26:55.763085 19503 net.cpp:165] Memory required for data: 8619724
I1013 15:26:55.763092 19503 layer_factory.hpp:76] Creating layer label_1_3x5_data_1_split
I1013 15:26:55.763103 19503 net.cpp:106] Creating Layer label_1_3x5_data_1_split
I1013 15:26:55.763108 19503 net.cpp:454] label_1_3x5_data_1_split <- label_1_3x5
I1013 15:26:55.763115 19503 net.cpp:411] label_1_3x5_data_1_split -> label_1_3x5_data_1_split_0
I1013 15:26:55.763128 19503 net.cpp:411] label_1_3x5_data_1_split -> label_1_3x5_data_1_split_1
I1013 15:26:55.763324 19503 net.cpp:150] Setting up label_1_3x5_data_1_split
I1013 15:26:55.763336 19503 net.cpp:157] Top shape: 2 6 72 72 (62208)
I1013 15:26:55.763340 19503 net.cpp:157] Top shape: 2 6 72 72 (62208)
I1013 15:26:55.763342 19503 net.cpp:165] Memory required for data: 9117388
I1013 15:26:55.763345 19503 layer_factory.hpp:76] Creating layer label_1_5x7_data_2_split
I1013 15:26:55.763351 19503 net.cpp:106] Creating Layer label_1_5x7_data_2_split
I1013 15:26:55.763355 19503 net.cpp:454] label_1_5x7_data_2_split <- label_1_5x7
I1013 15:26:55.763361 19503 net.cpp:411] label_1_5x7_data_2_split -> label_1_5x7_data_2_split_0
I1013 15:26:55.763367 19503 net.cpp:411] label_1_5x7_data_2_split -> label_1_5x7_data_2_split_1
I1013 15:26:55.763581 19503 net.cpp:150] Setting up label_1_5x7_data_2_split
I1013 15:26:55.763607 19503 net.cpp:157] Top shape: 2 6 72 72 (62208)
I1013 15:26:55.763615 19503 net.cpp:157] Top shape: 2 6 72 72 (62208)
I1013 15:26:55.763620 19503 net.cpp:165] Memory required for data: 9615052
I1013 15:26:55.763627 19503 layer_factory.hpp:76] Creating layer label_2_3x5_data_3_split
I1013 15:26:55.763643 19503 net.cpp:106] Creating Layer label_2_3x5_data_3_split
I1013 15:26:55.763653 19503 net.cpp:454] label_2_3x5_data_3_split <- label_2_3x5
I1013 15:26:55.763669 19503 net.cpp:411] label_2_3x5_data_3_split -> label_2_3x5_data_3_split_0
I1013 15:26:55.763685 19503 net.cpp:411] label_2_3x5_data_3_split -> label_2_3x5_data_3_split_1
I1013 15:26:55.764181 19503 net.cpp:150] Setting up label_2_3x5_data_3_split
I1013 15:26:55.764204 19503 net.cpp:157] Top shape: 2 6 36 36 (15552)
I1013 15:26:55.764211 19503 net.cpp:157] Top shape: 2 6 36 36 (15552)
I1013 15:26:55.764216 19503 net.cpp:165] Memory required for data: 9739468
I1013 15:26:55.764222 19503 layer_factory.hpp:76] Creating layer label_2_5x7_data_4_split
I1013 15:26:55.764240 19503 net.cpp:106] Creating Layer label_2_5x7_data_4_split
I1013 15:26:55.764250 19503 net.cpp:454] label_2_5x7_data_4_split <- label_2_5x7
I1013 15:26:55.764266 19503 net.cpp:411] label_2_5x7_data_4_split -> label_2_5x7_data_4_split_0
I1013 15:26:55.764283 19503 net.cpp:411] label_2_5x7_data_4_split -> label_2_5x7_data_4_split_1
I1013 15:26:55.764425 19503 net.cpp:150] Setting up label_2_5x7_data_4_split
I1013 15:26:55.764446 19503 net.cpp:157] Top shape: 2 6 36 36 (15552)
I1013 15:26:55.764456 19503 net.cpp:157] Top shape: 2 6 36 36 (15552)
I1013 15:26:55.764461 19503 net.cpp:165] Memory required for data: 9863884
I1013 15:26:55.764466 19503 layer_factory.hpp:76] Creating layer label_3_3x5_data_5_split
I1013 15:26:55.764474 19503 net.cpp:106] Creating Layer label_3_3x5_data_5_split
I1013 15:26:55.764480 19503 net.cpp:454] label_3_3x5_data_5_split <- label_3_3x5
I1013 15:26:55.764492 19503 net.cpp:411] label_3_3x5_data_5_split -> label_3_3x5_data_5_split_0
I1013 15:26:55.764502 19503 net.cpp:411] label_3_3x5_data_5_split -> label_3_3x5_data_5_split_1
I1013 15:26:55.764606 19503 net.cpp:150] Setting up label_3_3x5_data_5_split
I1013 15:26:55.764623 19503 net.cpp:157] Top shape: 2 6 18 18 (3888)
I1013 15:26:55.764631 19503 net.cpp:157] Top shape: 2 6 18 18 (3888)
I1013 15:26:55.764636 19503 net.cpp:165] Memory required for data: 9894988
I1013 15:26:55.764641 19503 layer_factory.hpp:76] Creating layer label_3_5x7_data_6_split
I1013 15:26:55.764647 19503 net.cpp:106] Creating Layer label_3_5x7_data_6_split
I1013 15:26:55.764653 19503 net.cpp:454] label_3_5x7_data_6_split <- label_3_5x7
I1013 15:26:55.764662 19503 net.cpp:411] label_3_5x7_data_6_split -> label_3_5x7_data_6_split_0
I1013 15:26:55.764670 19503 net.cpp:411] label_3_5x7_data_6_split -> label_3_5x7_data_6_split_1
I1013 15:26:55.764763 19503 net.cpp:150] Setting up label_3_5x7_data_6_split
I1013 15:26:55.764776 19503 net.cpp:157] Top shape: 2 6 18 18 (3888)
I1013 15:26:55.764782 19503 net.cpp:157] Top shape: 2 6 18 18 (3888)
I1013 15:26:55.764787 19503 net.cpp:165] Memory required for data: 9926092
I1013 15:26:55.764792 19503 layer_factory.hpp:76] Creating layer label_4_3x5_data_7_split
I1013 15:26:55.764799 19503 net.cpp:106] Creating Layer label_4_3x5_data_7_split
I1013 15:26:55.764806 19503 net.cpp:454] label_4_3x5_data_7_split <- label_4_3x5
I1013 15:26:55.764813 19503 net.cpp:411] label_4_3x5_data_7_split -> label_4_3x5_data_7_split_0
I1013 15:26:55.764823 19503 net.cpp:411] label_4_3x5_data_7_split -> label_4_3x5_data_7_split_1
I1013 15:26:55.764915 19503 net.cpp:150] Setting up label_4_3x5_data_7_split
I1013 15:26:55.764927 19503 net.cpp:157] Top shape: 2 6 9 9 (972)
I1013 15:26:55.764935 19503 net.cpp:157] Top shape: 2 6 9 9 (972)
I1013 15:26:55.764940 19503 net.cpp:165] Memory required for data: 9933868
I1013 15:26:55.764945 19503 layer_factory.hpp:76] Creating layer conv1_1
I1013 15:26:55.764962 19503 net.cpp:106] Creating Layer conv1_1
I1013 15:26:55.764971 19503 net.cpp:454] conv1_1 <- data
I1013 15:26:55.764981 19503 net.cpp:411] conv1_1 -> conv1_1
I1013 15:26:55.770150 19503 net.cpp:150] Setting up conv1_1
I1013 15:26:55.770179 19503 net.cpp:157] Top shape: 2 64 576 576 (42467328)
I1013 15:26:55.770184 19503 net.cpp:165] Memory required for data: 179803180
I1013 15:26:55.770205 19503 layer_factory.hpp:76] Creating layer relu1_1
I1013 15:26:55.770220 19503 net.cpp:106] Creating Layer relu1_1
I1013 15:26:55.770227 19503 net.cpp:454] relu1_1 <- conv1_1
I1013 15:26:55.770236 19503 net.cpp:397] relu1_1 -> conv1_1 (in-place)
I1013 15:26:55.770617 19503 net.cpp:150] Setting up relu1_1
I1013 15:26:55.770637 19503 net.cpp:157] Top shape: 2 64 576 576 (42467328)
I1013 15:26:55.770642 19503 net.cpp:165] Memory required for data: 349672492
I1013 15:26:55.770648 19503 layer_factory.hpp:76] Creating layer conv1_2
I1013 15:26:55.770663 19503 net.cpp:106] Creating Layer conv1_2
I1013 15:26:55.770668 19503 net.cpp:454] conv1_2 <- conv1_1
I1013 15:26:55.770679 19503 net.cpp:411] conv1_2 -> conv1_2
I1013 15:26:55.774554 19503 net.cpp:150] Setting up conv1_2
I1013 15:26:55.774585 19503 net.cpp:157] Top shape: 2 64 576 576 (42467328)
I1013 15:26:55.774590 19503 net.cpp:165] Memory required for data: 519541804
I1013 15:26:55.774610 19503 layer_factory.hpp:76] Creating layer relu1_2
I1013 15:26:55.774644 19503 net.cpp:106] Creating Layer relu1_2
I1013 15:26:55.774657 19503 net.cpp:454] relu1_2 <- conv1_2
I1013 15:26:55.774672 19503 net.cpp:397] relu1_2 -> conv1_2 (in-place)
I1013 15:26:55.775470 19503 net.cpp:150] Setting up relu1_2
I1013 15:26:55.775498 19503 net.cpp:157] Top shape: 2 64 576 576 (42467328)
I1013 15:26:55.775511 19503 net.cpp:165] Memory required for data: 689411116
I1013 15:26:55.775522 19503 layer_factory.hpp:76] Creating layer pool1
I1013 15:26:55.775544 19503 net.cpp:106] Creating Layer pool1
I1013 15:26:55.775555 19503 net.cpp:454] pool1 <- conv1_2
I1013 15:26:55.775581 19503 net.cpp:411] pool1 -> pool1
I1013 15:26:55.776113 19503 net.cpp:150] Setting up pool1
I1013 15:26:55.776139 19503 net.cpp:157] Top shape: 2 64 288 288 (10616832)
I1013 15:26:55.776150 19503 net.cpp:165] Memory required for data: 731878444
I1013 15:26:55.776161 19503 layer_factory.hpp:76] Creating layer conv2_1
I1013 15:26:55.776185 19503 net.cpp:106] Creating Layer conv2_1
I1013 15:26:55.776197 19503 net.cpp:454] conv2_1 <- pool1
I1013 15:26:55.776218 19503 net.cpp:411] conv2_1 -> conv2_1
I1013 15:26:55.778787 19503 net.cpp:150] Setting up conv2_1
I1013 15:26:55.778816 19503 net.cpp:157] Top shape: 2 128 288 288 (21233664)
I1013 15:26:55.778827 19503 net.cpp:165] Memory required for data: 816813100
I1013 15:26:55.778861 19503 layer_factory.hpp:76] Creating layer relu2_1
I1013 15:26:55.778882 19503 net.cpp:106] Creating Layer relu2_1
I1013 15:26:55.778906 19503 net.cpp:454] relu2_1 <- conv2_1
I1013 15:26:55.778928 19503 net.cpp:397] relu2_1 -> conv2_1 (in-place)
I1013 15:26:55.779613 19503 net.cpp:150] Setting up relu2_1
I1013 15:26:55.779640 19503 net.cpp:157] Top shape: 2 128 288 288 (21233664)
I1013 15:26:55.779651 19503 net.cpp:165] Memory required for data: 901747756
I1013 15:26:55.779662 19503 layer_factory.hpp:76] Creating layer conv2_2
I1013 15:26:55.779686 19503 net.cpp:106] Creating Layer conv2_2
I1013 15:26:55.779700 19503 net.cpp:454] conv2_2 <- conv2_1
I1013 15:26:55.779717 19503 net.cpp:411] conv2_2 -> conv2_2
I1013 15:26:55.783011 19503 net.cpp:150] Setting up conv2_2
I1013 15:26:55.783042 19503 net.cpp:157] Top shape: 2 128 288 288 (21233664)
I1013 15:26:55.783063 19503 net.cpp:165] Memory required for data: 986682412
I1013 15:26:55.783083 19503 layer_factory.hpp:76] Creating layer relu2_2
I1013 15:26:55.783109 19503 net.cpp:106] Creating Layer relu2_2
I1013 15:26:55.783121 19503 net.cpp:454] relu2_2 <- conv2_2
I1013 15:26:55.783138 19503 net.cpp:397] relu2_2 -> conv2_2 (in-place)
I1013 15:26:55.783846 19503 net.cpp:150] Setting up relu2_2
I1013 15:26:55.783874 19503 net.cpp:157] Top shape: 2 128 288 288 (21233664)
I1013 15:26:55.783885 19503 net.cpp:165] Memory required for data: 1071617068
I1013 15:26:55.783895 19503 layer_factory.hpp:76] Creating layer pool2
I1013 15:26:55.783911 19503 net.cpp:106] Creating Layer pool2
I1013 15:26:55.783923 19503 net.cpp:454] pool2 <- conv2_2
I1013 15:26:55.783938 19503 net.cpp:411] pool2 -> pool2
I1013 15:26:55.784387 19503 net.cpp:150] Setting up pool2
I1013 15:26:55.784410 19503 net.cpp:157] Top shape: 2 128 144 144 (5308416)
I1013 15:26:55.784420 19503 net.cpp:165] Memory required for data: 1092850732
I1013 15:26:55.784430 19503 layer_factory.hpp:76] Creating layer conv3_1
I1013 15:26:55.784451 19503 net.cpp:106] Creating Layer conv3_1
I1013 15:26:55.784462 19503 net.cpp:454] conv3_1 <- pool2
I1013 15:26:55.784478 19503 net.cpp:411] conv3_1 -> conv3_1
I1013 15:26:55.787907 19503 net.cpp:150] Setting up conv3_1
I1013 15:26:55.787936 19503 net.cpp:157] Top shape: 2 256 144 144 (10616832)
I1013 15:26:55.787946 19503 net.cpp:165] Memory required for data: 1135318060
I1013 15:26:55.787973 19503 layer_factory.hpp:76] Creating layer relu3_1
I1013 15:26:55.787995 19503 net.cpp:106] Creating Layer relu3_1
I1013 15:26:55.788007 19503 net.cpp:454] relu3_1 <- conv3_1
I1013 15:26:55.788020 19503 net.cpp:397] relu3_1 -> conv3_1 (in-place)
I1013 15:26:55.788655 19503 net.cpp:150] Setting up relu3_1
I1013 15:26:55.788681 19503 net.cpp:157] Top shape: 2 256 144 144 (10616832)
I1013 15:26:55.788691 19503 net.cpp:165] Memory required for data: 1177785388
I1013 15:26:55.788702 19503 layer_factory.hpp:76] Creating layer conv3_2
I1013 15:26:55.788727 19503 net.cpp:106] Creating Layer conv3_2
I1013 15:26:55.788738 19503 net.cpp:454] conv3_2 <- conv3_1
I1013 15:26:55.788755 19503 net.cpp:411] conv3_2 -> conv3_2
I1013 15:26:55.793311 19503 net.cpp:150] Setting up conv3_2
I1013 15:26:55.793344 19503 net.cpp:157] Top shape: 2 256 144 144 (10616832)
I1013 15:26:55.793354 19503 net.cpp:165] Memory required for data: 1220252716
I1013 15:26:55.793373 19503 layer_factory.hpp:76] Creating layer relu3_2
I1013 15:26:55.793390 19503 net.cpp:106] Creating Layer relu3_2
I1013 15:26:55.793401 19503 net.cpp:454] relu3_2 <- conv3_2
I1013 15:26:55.793416 19503 net.cpp:397] relu3_2 -> conv3_2 (in-place)
I1013 15:26:55.793812 19503 net.cpp:150] Setting up relu3_2
I1013 15:26:55.793836 19503 net.cpp:157] Top shape: 2 256 144 144 (10616832)
I1013 15:26:55.793845 19503 net.cpp:165] Memory required for data: 1262720044
I1013 15:26:55.793855 19503 layer_factory.hpp:76] Creating layer conv3_3
I1013 15:26:55.793877 19503 net.cpp:106] Creating Layer conv3_3
I1013 15:26:55.793889 19503 net.cpp:454] conv3_3 <- conv3_2
I1013 15:26:55.793903 19503 net.cpp:411] conv3_3 -> conv3_3
I1013 15:26:55.799167 19503 net.cpp:150] Setting up conv3_3
I1013 15:26:55.799193 19503 net.cpp:157] Top shape: 2 256 144 144 (10616832)
I1013 15:26:55.799202 19503 net.cpp:165] Memory required for data: 1305187372
I1013 15:26:55.799221 19503 layer_factory.hpp:76] Creating layer relu3_3
I1013 15:26:55.799243 19503 net.cpp:106] Creating Layer relu3_3
I1013 15:26:55.799253 19503 net.cpp:454] relu3_3 <- conv3_3
I1013 15:26:55.799271 19503 net.cpp:397] relu3_3 -> conv3_3 (in-place)
I1013 15:26:55.799947 19503 net.cpp:150] Setting up relu3_3
I1013 15:26:55.799973 19503 net.cpp:157] Top shape: 2 256 144 144 (10616832)
I1013 15:26:55.799981 19503 net.cpp:165] Memory required for data: 1347654700
I1013 15:26:55.799991 19503 layer_factory.hpp:76] Creating layer pool3
I1013 15:26:55.800011 19503 net.cpp:106] Creating Layer pool3
I1013 15:26:55.800022 19503 net.cpp:454] pool3 <- conv3_3
I1013 15:26:55.800036 19503 net.cpp:411] pool3 -> pool3
I1013 15:26:55.801971 19503 net.cpp:150] Setting up pool3
I1013 15:26:55.801997 19503 net.cpp:157] Top shape: 2 256 72 72 (2654208)
I1013 15:26:55.802006 19503 net.cpp:165] Memory required for data: 1358271532
I1013 15:26:55.802016 19503 layer_factory.hpp:76] Creating layer conv4_1
I1013 15:26:55.802037 19503 net.cpp:106] Creating Layer conv4_1
I1013 15:26:55.802047 19503 net.cpp:454] conv4_1 <- pool3
I1013 15:26:55.802062 19503 net.cpp:411] conv4_1 -> conv4_1
I1013 15:26:55.808470 19503 net.cpp:150] Setting up conv4_1
I1013 15:26:55.808502 19503 net.cpp:157] Top shape: 2 512 72 72 (5308416)
I1013 15:26:55.808511 19503 net.cpp:165] Memory required for data: 1379505196
I1013 15:26:55.808529 19503 layer_factory.hpp:76] Creating layer relu4_1
I1013 15:26:55.808544 19503 net.cpp:106] Creating Layer relu4_1
I1013 15:26:55.808555 19503 net.cpp:454] relu4_1 <- conv4_1
I1013 15:26:55.808573 19503 net.cpp:397] relu4_1 -> conv4_1 (in-place)
I1013 15:26:55.808912 19503 net.cpp:150] Setting up relu4_1
I1013 15:26:55.808933 19503 net.cpp:157] Top shape: 2 512 72 72 (5308416)
I1013 15:26:55.808940 19503 net.cpp:165] Memory required for data: 1400738860
I1013 15:26:55.808949 19503 layer_factory.hpp:76] Creating layer conv4_2
I1013 15:26:55.808972 19503 net.cpp:106] Creating Layer conv4_2
I1013 15:26:55.808981 19503 net.cpp:454] conv4_2 <- conv4_1
I1013 15:26:55.808998 19503 net.cpp:411] conv4_2 -> conv4_2
I1013 15:26:55.818822 19503 net.cpp:150] Setting up conv4_2
I1013 15:26:55.818857 19503 net.cpp:157] Top shape: 2 512 72 72 (5308416)
I1013 15:26:55.818866 19503 net.cpp:165] Memory required for data: 1421972524
I1013 15:26:55.818914 19503 layer_factory.hpp:76] Creating layer relu4_2
I1013 15:26:55.818935 19503 net.cpp:106] Creating Layer relu4_2
I1013 15:26:55.818948 19503 net.cpp:454] relu4_2 <- conv4_2
I1013 15:26:55.818966 19503 net.cpp:397] relu4_2 -> conv4_2 (in-place)
I1013 15:26:55.819546 19503 net.cpp:150] Setting up relu4_2
I1013 15:26:55.819569 19503 net.cpp:157] Top shape: 2 512 72 72 (5308416)
I1013 15:26:55.819577 19503 net.cpp:165] Memory required for data: 1443206188
I1013 15:26:55.819586 19503 layer_factory.hpp:76] Creating layer conv4_3
I1013 15:26:55.819607 19503 net.cpp:106] Creating Layer conv4_3
I1013 15:26:55.819617 19503 net.cpp:454] conv4_3 <- conv4_2
I1013 15:26:55.819629 19503 net.cpp:411] conv4_3 -> conv4_3
I1013 15:26:55.828393 19503 net.cpp:150] Setting up conv4_3
I1013 15:26:55.828419 19503 net.cpp:157] Top shape: 2 512 72 72 (5308416)
I1013 15:26:55.828428 19503 net.cpp:165] Memory required for data: 1464439852
I1013 15:26:55.828444 19503 layer_factory.hpp:76] Creating layer relu4_3
I1013 15:26:55.828459 19503 net.cpp:106] Creating Layer relu4_3
I1013 15:26:55.828469 19503 net.cpp:454] relu4_3 <- conv4_3
I1013 15:26:55.828485 19503 net.cpp:397] relu4_3 -> conv4_3 (in-place)
I1013 15:26:55.829036 19503 net.cpp:150] Setting up relu4_3
I1013 15:26:55.829058 19503 net.cpp:157] Top shape: 2 512 72 72 (5308416)
I1013 15:26:55.829066 19503 net.cpp:165] Memory required for data: 1485673516
I1013 15:26:55.829074 19503 layer_factory.hpp:76] Creating layer conv4_3_relu4_3_0_split
I1013 15:26:55.829087 19503 net.cpp:106] Creating Layer conv4_3_relu4_3_0_split
I1013 15:26:55.829097 19503 net.cpp:454] conv4_3_relu4_3_0_split <- conv4_3
I1013 15:26:55.829113 19503 net.cpp:411] conv4_3_relu4_3_0_split -> conv4_3_relu4_3_0_split_0
I1013 15:26:55.829135 19503 net.cpp:411] conv4_3_relu4_3_0_split -> conv4_3_relu4_3_0_split_1
I1013 15:26:55.829149 19503 net.cpp:411] conv4_3_relu4_3_0_split -> conv4_3_relu4_3_0_split_2
I1013 15:26:55.829164 19503 net.cpp:411] conv4_3_relu4_3_0_split -> conv4_3_relu4_3_0_split_3
I1013 15:26:55.829325 19503 net.cpp:150] Setting up conv4_3_relu4_3_0_split
I1013 15:26:55.829342 19503 net.cpp:157] Top shape: 2 512 72 72 (5308416)
I1013 15:26:55.829354 19503 net.cpp:157] Top shape: 2 512 72 72 (5308416)
I1013 15:26:55.829362 19503 net.cpp:157] Top shape: 2 512 72 72 (5308416)
I1013 15:26:55.829371 19503 net.cpp:157] Top shape: 2 512 72 72 (5308416)
I1013 15:26:55.829378 19503 net.cpp:165] Memory required for data: 1570608172
I1013 15:26:55.829386 19503 layer_factory.hpp:76] Creating layer loss1_conv1
I1013 15:26:55.829416 19503 net.cpp:106] Creating Layer loss1_conv1
I1013 15:26:55.829427 19503 net.cpp:454] loss1_conv1 <- conv4_3_relu4_3_0_split_0
I1013 15:26:55.829445 19503 net.cpp:411] loss1_conv1 -> loss1_conv1
I1013 15:26:55.931929 19503 net.cpp:150] Setting up loss1_conv1
I1013 15:26:55.931957 19503 net.cpp:157] Top shape: 2 512 72 72 (5308416)
I1013 15:26:55.931962 19503 net.cpp:165] Memory required for data: 1591841836
I1013 15:26:55.931975 19503 layer_factory.hpp:76] Creating layer loss_relu1
I1013 15:26:55.931998 19503 net.cpp:106] Creating Layer loss_relu1
I1013 15:26:55.932006 19503 net.cpp:454] loss_relu1 <- loss1_conv1
I1013 15:26:55.932018 19503 net.cpp:397] loss_relu1 -> loss1_conv1 (in-place)
I1013 15:26:55.932258 19503 net.cpp:150] Setting up loss_relu1
I1013 15:26:55.932272 19503 net.cpp:157] Top shape: 2 512 72 72 (5308416)
I1013 15:26:55.932277 19503 net.cpp:165] Memory required for data: 1613075500
I1013 15:26:55.932283 19503 layer_factory.hpp:76] Creating layer loss1_conv1_loss_relu1_0_split
I1013 15:26:55.932291 19503 net.cpp:106] Creating Layer loss1_conv1_loss_relu1_0_split
I1013 15:26:55.932297 19503 net.cpp:454] loss1_conv1_loss_relu1_0_split <- loss1_conv1
I1013 15:26:55.932308 19503 net.cpp:411] loss1_conv1_loss_relu1_0_split -> loss1_conv1_loss_relu1_0_split_0
I1013 15:26:55.932319 19503 net.cpp:411] loss1_conv1_loss_relu1_0_split -> loss1_conv1_loss_relu1_0_split_1
I1013 15:26:55.932397 19503 net.cpp:150] Setting up loss1_conv1_loss_relu1_0_split
I1013 15:26:55.932410 19503 net.cpp:157] Top shape: 2 512 72 72 (5308416)
I1013 15:26:55.932416 19503 net.cpp:157] Top shape: 2 512 72 72 (5308416)
I1013 15:26:55.932421 19503 net.cpp:165] Memory required for data: 1655542828
I1013 15:26:55.932426 19503 layer_factory.hpp:76] Creating layer LFCN_1_3x5
I1013 15:26:55.932443 19503 net.cpp:106] Creating Layer LFCN_1_3x5
I1013 15:26:55.932449 19503 net.cpp:454] LFCN_1_3x5 <- loss1_conv1_loss_relu1_0_split_0
I1013 15:26:55.932458 19503 net.cpp:411] LFCN_1_3x5 -> LFCN_1_3x5
I1013 15:26:55.935458 19503 net.cpp:150] Setting up LFCN_1_3x5
I1013 15:26:55.935474 19503 net.cpp:157] Top shape: 2 6 72 72 (62208)
I1013 15:26:55.935480 19503 net.cpp:165] Memory required for data: 1655791660
I1013 15:26:55.935492 19503 layer_factory.hpp:76] Creating layer LFCN_1_3x5_LFCN_1_3x5_0_split
I1013 15:26:55.935503 19503 net.cpp:106] Creating Layer LFCN_1_3x5_LFCN_1_3x5_0_split
I1013 15:26:55.935509 19503 net.cpp:454] LFCN_1_3x5_LFCN_1_3x5_0_split <- LFCN_1_3x5
I1013 15:26:55.935519 19503 net.cpp:411] LFCN_1_3x5_LFCN_1_3x5_0_split -> LFCN_1_3x5_LFCN_1_3x5_0_split_0
I1013 15:26:55.935530 19503 net.cpp:411] LFCN_1_3x5_LFCN_1_3x5_0_split -> LFCN_1_3x5_LFCN_1_3x5_0_split_1
I1013 15:26:55.935539 19503 net.cpp:411] LFCN_1_3x5_LFCN_1_3x5_0_split -> LFCN_1_3x5_LFCN_1_3x5_0_split_2
I1013 15:26:55.935636 19503 net.cpp:150] Setting up LFCN_1_3x5_LFCN_1_3x5_0_split
I1013 15:26:55.935647 19503 net.cpp:157] Top shape: 2 6 72 72 (62208)
I1013 15:26:55.935654 19503 net.cpp:157] Top shape: 2 6 72 72 (62208)
I1013 15:26:55.935662 19503 net.cpp:157] Top shape: 2 6 72 72 (62208)
I1013 15:26:55.935665 19503 net.cpp:165] Memory required for data: 1656538156
I1013 15:26:55.935670 19503 layer_factory.hpp:76] Creating layer detection_loss_1_3x5
I1013 15:26:55.935683 19503 net.cpp:106] Creating Layer detection_loss_1_3x5
I1013 15:26:55.935690 19503 net.cpp:454] detection_loss_1_3x5 <- LFCN_1_3x5_LFCN_1_3x5_0_split_0
I1013 15:26:55.935698 19503 net.cpp:454] detection_loss_1_3x5 <- label_1_3x5_data_1_split_0
I1013 15:26:55.935708 19503 net.cpp:411] detection_loss_1_3x5 -> loss_1_3x5
I1013 15:26:55.935721 19503 layer_factory.hpp:76] Creating layer detection_loss_1_3x5
I1013 15:26:55.936389 19503 net.cpp:150] Setting up detection_loss_1_3x5
I1013 15:26:55.936405 19503 net.cpp:157] Top shape: 1 1 1 2 (2)
I1013 15:26:55.936410 19503 net.cpp:160]     with loss weight 0.9
I1013 15:26:55.936429 19503 net.cpp:165] Memory required for data: 1656538164
I1013 15:26:55.936434 19503 layer_factory.hpp:76] Creating layer detection_accuracy_1_3x5
I1013 15:26:55.936449 19503 net.cpp:106] Creating Layer detection_accuracy_1_3x5
I1013 15:26:55.936455 19503 net.cpp:454] detection_accuracy_1_3x5 <- LFCN_1_3x5_LFCN_1_3x5_0_split_1
I1013 15:26:55.936462 19503 net.cpp:454] detection_accuracy_1_3x5 <- label_1_3x5_data_1_split_1
I1013 15:26:55.936471 19503 net.cpp:411] detection_accuracy_1_3x5 -> accuracy_1_3x5
I1013 15:26:55.936486 19503 net.cpp:411] detection_accuracy_1_3x5 -> boxiou_1_3x5
I1013 15:26:55.936563 19503 net.cpp:150] Setting up detection_accuracy_1_3x5
I1013 15:26:55.936575 19503 net.cpp:157] Top shape: 1 1 1 2 (2)
I1013 15:26:55.936583 19503 net.cpp:157] Top shape: 1 1 1 1 (1)
I1013 15:26:55.936586 19503 net.cpp:165] Memory required for data: 1656538176
I1013 15:26:55.936592 19503 layer_factory.hpp:76] Creating layer LFCN_1_5x7
I1013 15:26:55.936605 19503 net.cpp:106] Creating Layer LFCN_1_5x7
I1013 15:26:55.936611 19503 net.cpp:454] LFCN_1_5x7 <- loss1_conv1_loss_relu1_0_split_1
I1013 15:26:55.936622 19503 net.cpp:411] LFCN_1_5x7 -> LFCN_1_5x7
I1013 15:26:55.942157 19503 net.cpp:150] Setting up LFCN_1_5x7
I1013 15:26:55.942173 19503 net.cpp:157] Top shape: 2 6 72 72 (62208)
I1013 15:26:55.942179 19503 net.cpp:165] Memory required for data: 1656787008
I1013 15:26:55.942190 19503 layer_factory.hpp:76] Creating layer LFCN_1_5x7_LFCN_1_5x7_0_split
I1013 15:26:55.942199 19503 net.cpp:106] Creating Layer LFCN_1_5x7_LFCN_1_5x7_0_split
I1013 15:26:55.942206 19503 net.cpp:454] LFCN_1_5x7_LFCN_1_5x7_0_split <- LFCN_1_5x7
I1013 15:26:55.942217 19503 net.cpp:411] LFCN_1_5x7_LFCN_1_5x7_0_split -> LFCN_1_5x7_LFCN_1_5x7_0_split_0
I1013 15:26:55.942229 19503 net.cpp:411] LFCN_1_5x7_LFCN_1_5x7_0_split -> LFCN_1_5x7_LFCN_1_5x7_0_split_1
I1013 15:26:55.942239 19503 net.cpp:411] LFCN_1_5x7_LFCN_1_5x7_0_split -> LFCN_1_5x7_LFCN_1_5x7_0_split_2
I1013 15:26:55.942349 19503 net.cpp:150] Setting up LFCN_1_5x7_LFCN_1_5x7_0_split
I1013 15:26:55.942361 19503 net.cpp:157] Top shape: 2 6 72 72 (62208)
I1013 15:26:55.942369 19503 net.cpp:157] Top shape: 2 6 72 72 (62208)
I1013 15:26:55.942375 19503 net.cpp:157] Top shape: 2 6 72 72 (62208)
I1013 15:26:55.942380 19503 net.cpp:165] Memory required for data: 1657533504
I1013 15:26:55.942385 19503 layer_factory.hpp:76] Creating layer detection_loss_1_5x7
I1013 15:26:55.942395 19503 net.cpp:106] Creating Layer detection_loss_1_5x7
I1013 15:26:55.942401 19503 net.cpp:454] detection_loss_1_5x7 <- LFCN_1_5x7_LFCN_1_5x7_0_split_0
I1013 15:26:55.942412 19503 net.cpp:454] detection_loss_1_5x7 <- label_1_5x7_data_2_split_0
I1013 15:26:55.942421 19503 net.cpp:411] detection_loss_1_5x7 -> loss_1_5x7
I1013 15:26:55.942435 19503 layer_factory.hpp:76] Creating layer detection_loss_1_5x7
I1013 15:26:55.943109 19503 net.cpp:150] Setting up detection_loss_1_5x7
I1013 15:26:55.943125 19503 net.cpp:157] Top shape: 1 1 1 2 (2)
I1013 15:26:55.943130 19503 net.cpp:160]     with loss weight 0.9
I1013 15:26:55.943140 19503 net.cpp:165] Memory required for data: 1657533512
I1013 15:26:55.943146 19503 layer_factory.hpp:76] Creating layer detection_accuracy_1_5x7
I1013 15:26:55.943156 19503 net.cpp:106] Creating Layer detection_accuracy_1_5x7
I1013 15:26:55.943161 19503 net.cpp:454] detection_accuracy_1_5x7 <- LFCN_1_5x7_LFCN_1_5x7_0_split_1
I1013 15:26:55.943169 19503 net.cpp:454] detection_accuracy_1_5x7 <- label_1_5x7_data_2_split_1
I1013 15:26:55.943178 19503 net.cpp:411] detection_accuracy_1_5x7 -> accuracy_1_5x7
I1013 15:26:55.943191 19503 net.cpp:411] detection_accuracy_1_5x7 -> boxiou_1_5x7
I1013 15:26:55.943269 19503 net.cpp:150] Setting up detection_accuracy_1_5x7
I1013 15:26:55.943280 19503 net.cpp:157] Top shape: 1 1 1 2 (2)
I1013 15:26:55.943287 19503 net.cpp:157] Top shape: 1 1 1 1 (1)
I1013 15:26:55.943291 19503 net.cpp:165] Memory required for data: 1657533524
I1013 15:26:55.943297 19503 layer_factory.hpp:76] Creating layer pool4
I1013 15:26:55.943310 19503 net.cpp:106] Creating Layer pool4
I1013 15:26:55.943315 19503 net.cpp:454] pool4 <- conv4_3_relu4_3_0_split_1
I1013 15:26:55.943325 19503 net.cpp:411] pool4 -> pool4
I1013 15:26:55.944005 19503 net.cpp:150] Setting up pool4
I1013 15:26:55.944021 19503 net.cpp:157] Top shape: 2 512 36 36 (1327104)
I1013 15:26:55.944026 19503 net.cpp:165] Memory required for data: 1662841940
I1013 15:26:55.944032 19503 layer_factory.hpp:76] Creating layer conv5_1
I1013 15:26:55.944046 19503 net.cpp:106] Creating Layer conv5_1
I1013 15:26:55.944052 19503 net.cpp:454] conv5_1 <- pool4
I1013 15:26:55.944063 19503 net.cpp:411] conv5_1 -> conv5_1
I1013 15:26:55.950861 19503 net.cpp:150] Setting up conv5_1
I1013 15:26:55.950881 19503 net.cpp:157] Top shape: 2 512 36 36 (1327104)
I1013 15:26:55.950892 19503 net.cpp:165] Memory required for data: 1668150356
I1013 15:26:55.950909 19503 layer_factory.hpp:76] Creating layer relu5_1
I1013 15:26:55.950920 19503 net.cpp:106] Creating Layer relu5_1
I1013 15:26:55.950927 19503 net.cpp:454] relu5_1 <- conv5_1
I1013 15:26:55.950942 19503 net.cpp:397] relu5_1 -> conv5_1 (in-place)
I1013 15:26:55.951361 19503 net.cpp:150] Setting up relu5_1
I1013 15:26:55.951377 19503 net.cpp:157] Top shape: 2 512 36 36 (1327104)
I1013 15:26:55.951382 19503 net.cpp:165] Memory required for data: 1673458772
I1013 15:26:55.951388 19503 layer_factory.hpp:76] Creating layer conv5_2
I1013 15:26:55.951408 19503 net.cpp:106] Creating Layer conv5_2
I1013 15:26:55.951414 19503 net.cpp:454] conv5_2 <- conv5_1
I1013 15:26:55.951426 19503 net.cpp:411] conv5_2 -> conv5_2
I1013 15:26:55.958230 19503 net.cpp:150] Setting up conv5_2
I1013 15:26:55.958250 19503 net.cpp:157] Top shape: 2 512 36 36 (1327104)
I1013 15:26:55.958256 19503 net.cpp:165] Memory required for data: 1678767188
I1013 15:26:55.958266 19503 layer_factory.hpp:76] Creating layer relu5_2
I1013 15:26:55.958276 19503 net.cpp:106] Creating Layer relu5_2
I1013 15:26:55.958282 19503 net.cpp:454] relu5_2 <- conv5_2
I1013 15:26:55.958293 19503 net.cpp:397] relu5_2 -> conv5_2 (in-place)
I1013 15:26:55.958540 19503 net.cpp:150] Setting up relu5_2
I1013 15:26:55.958555 19503 net.cpp:157] Top shape: 2 512 36 36 (1327104)
I1013 15:26:55.958560 19503 net.cpp:165] Memory required for data: 1684075604
I1013 15:26:55.958565 19503 layer_factory.hpp:76] Creating layer conv5_3
I1013 15:26:55.958578 19503 net.cpp:106] Creating Layer conv5_3
I1013 15:26:55.958585 19503 net.cpp:454] conv5_3 <- conv5_2
I1013 15:26:55.958596 19503 net.cpp:411] conv5_3 -> conv5_3
I1013 15:26:55.965726 19503 net.cpp:150] Setting up conv5_3
I1013 15:26:55.965747 19503 net.cpp:157] Top shape: 2 512 36 36 (1327104)
I1013 15:26:55.965754 19503 net.cpp:165] Memory required for data: 1689384020
I1013 15:26:55.965764 19503 layer_factory.hpp:76] Creating layer relu5_3
I1013 15:26:55.965780 19503 net.cpp:106] Creating Layer relu5_3
I1013 15:26:55.965786 19503 net.cpp:454] relu5_3 <- conv5_3
I1013 15:26:55.965795 19503 net.cpp:397] relu5_3 -> conv5_3 (in-place)
I1013 15:26:55.966219 19503 net.cpp:150] Setting up relu5_3
I1013 15:26:55.966236 19503 net.cpp:157] Top shape: 2 512 36 36 (1327104)
I1013 15:26:55.966243 19503 net.cpp:165] Memory required for data: 1694692436
I1013 15:26:55.966248 19503 layer_factory.hpp:76] Creating layer conv5_3_relu5_3_0_split
I1013 15:26:55.966264 19503 net.cpp:106] Creating Layer conv5_3_relu5_3_0_split
I1013 15:26:55.966269 19503 net.cpp:454] conv5_3_relu5_3_0_split <- conv5_3
I1013 15:26:55.966277 19503 net.cpp:411] conv5_3_relu5_3_0_split -> conv5_3_relu5_3_0_split_0
I1013 15:26:55.966289 19503 net.cpp:411] conv5_3_relu5_3_0_split -> conv5_3_relu5_3_0_split_1
I1013 15:26:55.966301 19503 net.cpp:411] conv5_3_relu5_3_0_split -> conv5_3_relu5_3_0_split_2
I1013 15:26:55.966415 19503 net.cpp:150] Setting up conv5_3_relu5_3_0_split
I1013 15:26:55.966428 19503 net.cpp:157] Top shape: 2 512 36 36 (1327104)
I1013 15:26:55.966434 19503 net.cpp:157] Top shape: 2 512 36 36 (1327104)
I1013 15:26:55.966440 19503 net.cpp:157] Top shape: 2 512 36 36 (1327104)
I1013 15:26:55.966445 19503 net.cpp:165] Memory required for data: 1710617684
I1013 15:26:55.966450 19503 layer_factory.hpp:76] Creating layer LFCN_2_3x5
I1013 15:26:55.966464 19503 net.cpp:106] Creating Layer LFCN_2_3x5
I1013 15:26:55.966471 19503 net.cpp:454] LFCN_2_3x5 <- conv5_3_relu5_3_0_split_0
I1013 15:26:55.966483 19503 net.cpp:411] LFCN_2_3x5 -> LFCN_2_3x5
I1013 15:26:55.969339 19503 net.cpp:150] Setting up LFCN_2_3x5
I1013 15:26:55.969357 19503 net.cpp:157] Top shape: 2 6 36 36 (15552)
I1013 15:26:55.969362 19503 net.cpp:165] Memory required for data: 1710679892
I1013 15:26:55.969388 19503 layer_factory.hpp:76] Creating layer LFCN_2_3x5_LFCN_2_3x5_0_split
I1013 15:26:55.969398 19503 net.cpp:106] Creating Layer LFCN_2_3x5_LFCN_2_3x5_0_split
I1013 15:26:55.969405 19503 net.cpp:454] LFCN_2_3x5_LFCN_2_3x5_0_split <- LFCN_2_3x5
I1013 15:26:55.969414 19503 net.cpp:411] LFCN_2_3x5_LFCN_2_3x5_0_split -> LFCN_2_3x5_LFCN_2_3x5_0_split_0
I1013 15:26:55.969426 19503 net.cpp:411] LFCN_2_3x5_LFCN_2_3x5_0_split -> LFCN_2_3x5_LFCN_2_3x5_0_split_1
I1013 15:26:55.969435 19503 net.cpp:411] LFCN_2_3x5_LFCN_2_3x5_0_split -> LFCN_2_3x5_LFCN_2_3x5_0_split_2
I1013 15:26:55.969544 19503 net.cpp:150] Setting up LFCN_2_3x5_LFCN_2_3x5_0_split
I1013 15:26:55.969560 19503 net.cpp:157] Top shape: 2 6 36 36 (15552)
I1013 15:26:55.969565 19503 net.cpp:157] Top shape: 2 6 36 36 (15552)
I1013 15:26:55.969569 19503 net.cpp:157] Top shape: 2 6 36 36 (15552)
I1013 15:26:55.969573 19503 net.cpp:165] Memory required for data: 1710866516
I1013 15:26:55.969575 19503 layer_factory.hpp:76] Creating layer detection_loss_2_3x5
I1013 15:26:55.969584 19503 net.cpp:106] Creating Layer detection_loss_2_3x5
I1013 15:26:55.969588 19503 net.cpp:454] detection_loss_2_3x5 <- LFCN_2_3x5_LFCN_2_3x5_0_split_0
I1013 15:26:55.969594 19503 net.cpp:454] detection_loss_2_3x5 <- label_2_3x5_data_3_split_0
I1013 15:26:55.969599 19503 net.cpp:411] detection_loss_2_3x5 -> loss_2_3x5
I1013 15:26:55.969609 19503 layer_factory.hpp:76] Creating layer detection_loss_2_3x5
I1013 15:26:55.970291 19503 net.cpp:150] Setting up detection_loss_2_3x5
I1013 15:26:55.970305 19503 net.cpp:157] Top shape: 1 1 1 2 (2)
I1013 15:26:55.970309 19503 net.cpp:160]     with loss weight 1
I1013 15:26:55.970320 19503 net.cpp:165] Memory required for data: 1710866524
I1013 15:26:55.970324 19503 layer_factory.hpp:76] Creating layer detection_accuracy_2_3x5
I1013 15:26:55.970331 19503 net.cpp:106] Creating Layer detection_accuracy_2_3x5
I1013 15:26:55.970335 19503 net.cpp:454] detection_accuracy_2_3x5 <- LFCN_2_3x5_LFCN_2_3x5_0_split_1
I1013 15:26:55.970340 19503 net.cpp:454] detection_accuracy_2_3x5 <- label_2_3x5_data_3_split_1
I1013 15:26:55.970347 19503 net.cpp:411] detection_accuracy_2_3x5 -> accuracy_2_3x5
I1013 15:26:55.970355 19503 net.cpp:411] detection_accuracy_2_3x5 -> boxiou_2_3x5
I1013 15:26:55.970418 19503 net.cpp:150] Setting up detection_accuracy_2_3x5
I1013 15:26:55.970425 19503 net.cpp:157] Top shape: 1 1 1 2 (2)
I1013 15:26:55.970429 19503 net.cpp:157] Top shape: 1 1 1 1 (1)
I1013 15:26:55.970432 19503 net.cpp:165] Memory required for data: 1710866536
I1013 15:26:55.970434 19503 layer_factory.hpp:76] Creating layer LFCN_2_5x7
I1013 15:26:55.970446 19503 net.cpp:106] Creating Layer LFCN_2_5x7
I1013 15:26:55.970449 19503 net.cpp:454] LFCN_2_5x7 <- conv5_3_relu5_3_0_split_1
I1013 15:26:55.970458 19503 net.cpp:411] LFCN_2_5x7 -> LFCN_2_5x7
I1013 15:26:55.975860 19503 net.cpp:150] Setting up LFCN_2_5x7
I1013 15:26:55.975875 19503 net.cpp:157] Top shape: 2 6 36 36 (15552)
I1013 15:26:55.975878 19503 net.cpp:165] Memory required for data: 1710928744
I1013 15:26:55.975885 19503 layer_factory.hpp:76] Creating layer LFCN_2_5x7_LFCN_2_5x7_0_split
I1013 15:26:55.975894 19503 net.cpp:106] Creating Layer LFCN_2_5x7_LFCN_2_5x7_0_split
I1013 15:26:55.975898 19503 net.cpp:454] LFCN_2_5x7_LFCN_2_5x7_0_split <- LFCN_2_5x7
I1013 15:26:55.975904 19503 net.cpp:411] LFCN_2_5x7_LFCN_2_5x7_0_split -> LFCN_2_5x7_LFCN_2_5x7_0_split_0
I1013 15:26:55.975911 19503 net.cpp:411] LFCN_2_5x7_LFCN_2_5x7_0_split -> LFCN_2_5x7_LFCN_2_5x7_0_split_1
I1013 15:26:55.975917 19503 net.cpp:411] LFCN_2_5x7_LFCN_2_5x7_0_split -> LFCN_2_5x7_LFCN_2_5x7_0_split_2
I1013 15:26:55.976011 19503 net.cpp:150] Setting up LFCN_2_5x7_LFCN_2_5x7_0_split
I1013 15:26:55.976018 19503 net.cpp:157] Top shape: 2 6 36 36 (15552)
I1013 15:26:55.976022 19503 net.cpp:157] Top shape: 2 6 36 36 (15552)
I1013 15:26:55.976025 19503 net.cpp:157] Top shape: 2 6 36 36 (15552)
I1013 15:26:55.976028 19503 net.cpp:165] Memory required for data: 1711115368
I1013 15:26:55.976032 19503 layer_factory.hpp:76] Creating layer detection_loss_2_5x7
I1013 15:26:55.976038 19503 net.cpp:106] Creating Layer detection_loss_2_5x7
I1013 15:26:55.976042 19503 net.cpp:454] detection_loss_2_5x7 <- LFCN_2_5x7_LFCN_2_5x7_0_split_0
I1013 15:26:55.976047 19503 net.cpp:454] detection_loss_2_5x7 <- label_2_5x7_data_4_split_0
I1013 15:26:55.976055 19503 net.cpp:411] detection_loss_2_5x7 -> loss_2_5x7
I1013 15:26:55.976065 19503 layer_factory.hpp:76] Creating layer detection_loss_2_5x7
I1013 15:26:55.976572 19503 net.cpp:150] Setting up detection_loss_2_5x7
I1013 15:26:55.976583 19503 net.cpp:157] Top shape: 1 1 1 2 (2)
I1013 15:26:55.976586 19503 net.cpp:160]     with loss weight 1
I1013 15:26:55.976593 19503 net.cpp:165] Memory required for data: 1711115376
I1013 15:26:55.976596 19503 layer_factory.hpp:76] Creating layer detection_accuracy_2_5x7
I1013 15:26:55.976603 19503 net.cpp:106] Creating Layer detection_accuracy_2_5x7
I1013 15:26:55.976606 19503 net.cpp:454] detection_accuracy_2_5x7 <- LFCN_2_5x7_LFCN_2_5x7_0_split_1
I1013 15:26:55.976611 19503 net.cpp:454] detection_accuracy_2_5x7 <- label_2_5x7_data_4_split_1
I1013 15:26:55.976619 19503 net.cpp:411] detection_accuracy_2_5x7 -> accuracy_2_5x7
I1013 15:26:55.976626 19503 net.cpp:411] detection_accuracy_2_5x7 -> boxiou_2_5x7
I1013 15:26:55.976691 19503 net.cpp:150] Setting up detection_accuracy_2_5x7
I1013 15:26:55.976696 19503 net.cpp:157] Top shape: 1 1 1 2 (2)
I1013 15:26:55.976701 19503 net.cpp:157] Top shape: 1 1 1 1 (1)
I1013 15:26:55.976704 19503 net.cpp:165] Memory required for data: 1711115388
I1013 15:26:55.976709 19503 layer_factory.hpp:76] Creating layer pool5
I1013 15:26:55.976721 19503 net.cpp:106] Creating Layer pool5
I1013 15:26:55.976724 19503 net.cpp:454] pool5 <- conv5_3_relu5_3_0_split_2
I1013 15:26:55.976730 19503 net.cpp:411] pool5 -> pool5
I1013 15:26:55.977197 19503 net.cpp:150] Setting up pool5
I1013 15:26:55.977211 19503 net.cpp:157] Top shape: 2 512 18 18 (331776)
I1013 15:26:55.977215 19503 net.cpp:165] Memory required for data: 1712442492
I1013 15:26:55.977217 19503 layer_factory.hpp:76] Creating layer conv6_1
I1013 15:26:55.977228 19503 net.cpp:106] Creating Layer conv6_1
I1013 15:26:55.977232 19503 net.cpp:454] conv6_1 <- pool5
I1013 15:26:55.977239 19503 net.cpp:411] conv6_1 -> conv6_1
I1013 15:26:56.065448 19503 net.cpp:150] Setting up conv6_1
I1013 15:26:56.065469 19503 net.cpp:157] Top shape: 2 512 18 18 (331776)
I1013 15:26:56.065480 19503 net.cpp:165] Memory required for data: 1713769596
I1013 15:26:56.065487 19503 layer_factory.hpp:76] Creating layer relu6_1
I1013 15:26:56.065495 19503 net.cpp:106] Creating Layer relu6_1
I1013 15:26:56.065500 19503 net.cpp:454] relu6_1 <- conv6_1
I1013 15:26:56.065506 19503 net.cpp:397] relu6_1 -> conv6_1 (in-place)
I1013 15:26:56.065965 19503 net.cpp:150] Setting up relu6_1
I1013 15:26:56.065979 19503 net.cpp:157] Top shape: 2 512 18 18 (331776)
I1013 15:26:56.065982 19503 net.cpp:165] Memory required for data: 1715096700
I1013 15:26:56.065986 19503 layer_factory.hpp:76] Creating layer conv6_1_relu6_1_0_split
I1013 15:26:56.065994 19503 net.cpp:106] Creating Layer conv6_1_relu6_1_0_split
I1013 15:26:56.065997 19503 net.cpp:454] conv6_1_relu6_1_0_split <- conv6_1
I1013 15:26:56.066002 19503 net.cpp:411] conv6_1_relu6_1_0_split -> conv6_1_relu6_1_0_split_0
I1013 15:26:56.066010 19503 net.cpp:411] conv6_1_relu6_1_0_split -> conv6_1_relu6_1_0_split_1
I1013 15:26:56.066017 19503 net.cpp:411] conv6_1_relu6_1_0_split -> conv6_1_relu6_1_0_split_2
I1013 15:26:56.066112 19503 net.cpp:150] Setting up conv6_1_relu6_1_0_split
I1013 15:26:56.066121 19503 net.cpp:157] Top shape: 2 512 18 18 (331776)
I1013 15:26:56.066128 19503 net.cpp:157] Top shape: 2 512 18 18 (331776)
I1013 15:26:56.066134 19503 net.cpp:157] Top shape: 2 512 18 18 (331776)
I1013 15:26:56.066139 19503 net.cpp:165] Memory required for data: 1719078012
I1013 15:26:56.066144 19503 layer_factory.hpp:76] Creating layer LFCN_3_3x5
I1013 15:26:56.066156 19503 net.cpp:106] Creating Layer LFCN_3_3x5
I1013 15:26:56.066160 19503 net.cpp:454] LFCN_3_3x5 <- conv6_1_relu6_1_0_split_0
I1013 15:26:56.066167 19503 net.cpp:411] LFCN_3_3x5 -> LFCN_3_3x5
I1013 15:26:56.069206 19503 net.cpp:150] Setting up LFCN_3_3x5
I1013 15:26:56.069221 19503 net.cpp:157] Top shape: 2 6 18 18 (3888)
I1013 15:26:56.069224 19503 net.cpp:165] Memory required for data: 1719093564
I1013 15:26:56.069231 19503 layer_factory.hpp:76] Creating layer LFCN_3_3x5_LFCN_3_3x5_0_split
I1013 15:26:56.069249 19503 net.cpp:106] Creating Layer LFCN_3_3x5_LFCN_3_3x5_0_split
I1013 15:26:56.069254 19503 net.cpp:454] LFCN_3_3x5_LFCN_3_3x5_0_split <- LFCN_3_3x5
I1013 15:26:56.069259 19503 net.cpp:411] LFCN_3_3x5_LFCN_3_3x5_0_split -> LFCN_3_3x5_LFCN_3_3x5_0_split_0
I1013 15:26:56.069267 19503 net.cpp:411] LFCN_3_3x5_LFCN_3_3x5_0_split -> LFCN_3_3x5_LFCN_3_3x5_0_split_1
I1013 15:26:56.069275 19503 net.cpp:411] LFCN_3_3x5_LFCN_3_3x5_0_split -> LFCN_3_3x5_LFCN_3_3x5_0_split_2
I1013 15:26:56.069371 19503 net.cpp:150] Setting up LFCN_3_3x5_LFCN_3_3x5_0_split
I1013 15:26:56.069378 19503 net.cpp:157] Top shape: 2 6 18 18 (3888)
I1013 15:26:56.069382 19503 net.cpp:157] Top shape: 2 6 18 18 (3888)
I1013 15:26:56.069386 19503 net.cpp:157] Top shape: 2 6 18 18 (3888)
I1013 15:26:56.069388 19503 net.cpp:165] Memory required for data: 1719140220
I1013 15:26:56.069392 19503 layer_factory.hpp:76] Creating layer detection_loss_3_3x5
I1013 15:26:56.069399 19503 net.cpp:106] Creating Layer detection_loss_3_3x5
I1013 15:26:56.069403 19503 net.cpp:454] detection_loss_3_3x5 <- LFCN_3_3x5_LFCN_3_3x5_0_split_0
I1013 15:26:56.069408 19503 net.cpp:454] detection_loss_3_3x5 <- label_3_3x5_data_5_split_0
I1013 15:26:56.069413 19503 net.cpp:411] detection_loss_3_3x5 -> loss_3_3x5
I1013 15:26:56.069422 19503 layer_factory.hpp:76] Creating layer detection_loss_3_3x5
I1013 15:26:56.069919 19503 net.cpp:150] Setting up detection_loss_3_3x5
I1013 15:26:56.069931 19503 net.cpp:157] Top shape: 1 1 1 2 (2)
I1013 15:26:56.069934 19503 net.cpp:160]     with loss weight 1
I1013 15:26:56.069941 19503 net.cpp:165] Memory required for data: 1719140228
I1013 15:26:56.069946 19503 layer_factory.hpp:76] Creating layer detection_accuracy_3_3x5
I1013 15:26:56.069953 19503 net.cpp:106] Creating Layer detection_accuracy_3_3x5
I1013 15:26:56.069957 19503 net.cpp:454] detection_accuracy_3_3x5 <- LFCN_3_3x5_LFCN_3_3x5_0_split_1
I1013 15:26:56.069962 19503 net.cpp:454] detection_accuracy_3_3x5 <- label_3_3x5_data_5_split_1
I1013 15:26:56.069967 19503 net.cpp:411] detection_accuracy_3_3x5 -> accuracy_3_3x5
I1013 15:26:56.069974 19503 net.cpp:411] detection_accuracy_3_3x5 -> boxiou_3_3x5
I1013 15:26:56.070039 19503 net.cpp:150] Setting up detection_accuracy_3_3x5
I1013 15:26:56.070045 19503 net.cpp:157] Top shape: 1 1 1 2 (2)
I1013 15:26:56.070049 19503 net.cpp:157] Top shape: 1 1 1 1 (1)
I1013 15:26:56.070051 19503 net.cpp:165] Memory required for data: 1719140240
I1013 15:26:56.070055 19503 layer_factory.hpp:76] Creating layer LFCN_3_5x7
I1013 15:26:56.070062 19503 net.cpp:106] Creating Layer LFCN_3_5x7
I1013 15:26:56.070066 19503 net.cpp:454] LFCN_3_5x7 <- conv6_1_relu6_1_0_split_1
I1013 15:26:56.070077 19503 net.cpp:411] LFCN_3_5x7 -> LFCN_3_5x7
I1013 15:26:56.075836 19503 net.cpp:150] Setting up LFCN_3_5x7
I1013 15:26:56.075852 19503 net.cpp:157] Top shape: 2 6 18 18 (3888)
I1013 15:26:56.075856 19503 net.cpp:165] Memory required for data: 1719155792
I1013 15:26:56.075863 19503 layer_factory.hpp:76] Creating layer LFCN_3_5x7_LFCN_3_5x7_0_split
I1013 15:26:56.075871 19503 net.cpp:106] Creating Layer LFCN_3_5x7_LFCN_3_5x7_0_split
I1013 15:26:56.075875 19503 net.cpp:454] LFCN_3_5x7_LFCN_3_5x7_0_split <- LFCN_3_5x7
I1013 15:26:56.075882 19503 net.cpp:411] LFCN_3_5x7_LFCN_3_5x7_0_split -> LFCN_3_5x7_LFCN_3_5x7_0_split_0
I1013 15:26:56.075891 19503 net.cpp:411] LFCN_3_5x7_LFCN_3_5x7_0_split -> LFCN_3_5x7_LFCN_3_5x7_0_split_1
I1013 15:26:56.075896 19503 net.cpp:411] LFCN_3_5x7_LFCN_3_5x7_0_split -> LFCN_3_5x7_LFCN_3_5x7_0_split_2
I1013 15:26:56.075986 19503 net.cpp:150] Setting up LFCN_3_5x7_LFCN_3_5x7_0_split
I1013 15:26:56.075994 19503 net.cpp:157] Top shape: 2 6 18 18 (3888)
I1013 15:26:56.075997 19503 net.cpp:157] Top shape: 2 6 18 18 (3888)
I1013 15:26:56.076001 19503 net.cpp:157] Top shape: 2 6 18 18 (3888)
I1013 15:26:56.076004 19503 net.cpp:165] Memory required for data: 1719202448
I1013 15:26:56.076007 19503 layer_factory.hpp:76] Creating layer detection_loss_3_5x7
I1013 15:26:56.076019 19503 net.cpp:106] Creating Layer detection_loss_3_5x7
I1013 15:26:56.076025 19503 net.cpp:454] detection_loss_3_5x7 <- LFCN_3_5x7_LFCN_3_5x7_0_split_0
I1013 15:26:56.076031 19503 net.cpp:454] detection_loss_3_5x7 <- label_3_5x7_data_6_split_0
I1013 15:26:56.076038 19503 net.cpp:411] detection_loss_3_5x7 -> loss_3_5x7
I1013 15:26:56.076046 19503 layer_factory.hpp:76] Creating layer detection_loss_3_5x7
I1013 15:26:56.076727 19503 net.cpp:150] Setting up detection_loss_3_5x7
I1013 15:26:56.076741 19503 net.cpp:157] Top shape: 1 1 1 2 (2)
I1013 15:26:56.076745 19503 net.cpp:160]     with loss weight 1
I1013 15:26:56.076750 19503 net.cpp:165] Memory required for data: 1719202456
I1013 15:26:56.076753 19503 layer_factory.hpp:76] Creating layer detection_accuracy_3_5x7
I1013 15:26:56.076761 19503 net.cpp:106] Creating Layer detection_accuracy_3_5x7
I1013 15:26:56.076766 19503 net.cpp:454] detection_accuracy_3_5x7 <- LFCN_3_5x7_LFCN_3_5x7_0_split_1
I1013 15:26:56.076771 19503 net.cpp:454] detection_accuracy_3_5x7 <- label_3_5x7_data_6_split_1
I1013 15:26:56.076776 19503 net.cpp:411] detection_accuracy_3_5x7 -> accuracy_3_5x7
I1013 15:26:56.076783 19503 net.cpp:411] detection_accuracy_3_5x7 -> boxiou_3_5x7
I1013 15:26:56.076853 19503 net.cpp:150] Setting up detection_accuracy_3_5x7
I1013 15:26:56.076860 19503 net.cpp:157] Top shape: 1 1 1 2 (2)
I1013 15:26:56.076864 19503 net.cpp:157] Top shape: 1 1 1 1 (1)
I1013 15:26:56.076866 19503 net.cpp:165] Memory required for data: 1719202468
I1013 15:26:56.076869 19503 layer_factory.hpp:76] Creating layer pool6
I1013 15:26:56.076875 19503 net.cpp:106] Creating Layer pool6
I1013 15:26:56.076879 19503 net.cpp:454] pool6 <- conv6_1_relu6_1_0_split_2
I1013 15:26:56.076885 19503 net.cpp:411] pool6 -> pool6
I1013 15:26:56.077164 19503 net.cpp:150] Setting up pool6
I1013 15:26:56.077177 19503 net.cpp:157] Top shape: 2 512 9 9 (82944)
I1013 15:26:56.077179 19503 net.cpp:165] Memory required for data: 1719534244
I1013 15:26:56.077183 19503 layer_factory.hpp:76] Creating layer LFCN_4_3x5
I1013 15:26:56.077193 19503 net.cpp:106] Creating Layer LFCN_4_3x5
I1013 15:26:56.077196 19503 net.cpp:454] LFCN_4_3x5 <- pool6
I1013 15:26:56.077203 19503 net.cpp:411] LFCN_4_3x5 -> LFCN_4_3x5
I1013 15:26:56.080430 19503 net.cpp:150] Setting up LFCN_4_3x5
I1013 15:26:56.080446 19503 net.cpp:157] Top shape: 2 6 9 9 (972)
I1013 15:26:56.080449 19503 net.cpp:165] Memory required for data: 1719538132
I1013 15:26:56.080456 19503 layer_factory.hpp:76] Creating layer LFCN_4_3x5_LFCN_4_3x5_0_split
I1013 15:26:56.080463 19503 net.cpp:106] Creating Layer LFCN_4_3x5_LFCN_4_3x5_0_split
I1013 15:26:56.080468 19503 net.cpp:454] LFCN_4_3x5_LFCN_4_3x5_0_split <- LFCN_4_3x5
I1013 15:26:56.080473 19503 net.cpp:411] LFCN_4_3x5_LFCN_4_3x5_0_split -> LFCN_4_3x5_LFCN_4_3x5_0_split_0
I1013 15:26:56.080481 19503 net.cpp:411] LFCN_4_3x5_LFCN_4_3x5_0_split -> LFCN_4_3x5_LFCN_4_3x5_0_split_1
I1013 15:26:56.080487 19503 net.cpp:411] LFCN_4_3x5_LFCN_4_3x5_0_split -> LFCN_4_3x5_LFCN_4_3x5_0_split_2
I1013 15:26:56.080584 19503 net.cpp:150] Setting up LFCN_4_3x5_LFCN_4_3x5_0_split
I1013 15:26:56.080592 19503 net.cpp:157] Top shape: 2 6 9 9 (972)
I1013 15:26:56.080600 19503 net.cpp:157] Top shape: 2 6 9 9 (972)
I1013 15:26:56.080605 19503 net.cpp:157] Top shape: 2 6 9 9 (972)
I1013 15:26:56.080608 19503 net.cpp:165] Memory required for data: 1719549796
I1013 15:26:56.080612 19503 layer_factory.hpp:76] Creating layer detection_loss_4_3x5
I1013 15:26:56.080620 19503 net.cpp:106] Creating Layer detection_loss_4_3x5
I1013 15:26:56.080623 19503 net.cpp:454] detection_loss_4_3x5 <- LFCN_4_3x5_LFCN_4_3x5_0_split_0
I1013 15:26:56.080628 19503 net.cpp:454] detection_loss_4_3x5 <- label_4_3x5_data_7_split_0
I1013 15:26:56.080633 19503 net.cpp:411] detection_loss_4_3x5 -> loss_4_3x5
I1013 15:26:56.080641 19503 layer_factory.hpp:76] Creating layer detection_loss_4_3x5
I1013 15:26:56.081341 19503 net.cpp:150] Setting up detection_loss_4_3x5
I1013 15:26:56.081354 19503 net.cpp:157] Top shape: 1 1 1 2 (2)
I1013 15:26:56.081357 19503 net.cpp:160]     with loss weight 1
I1013 15:26:56.081363 19503 net.cpp:165] Memory required for data: 1719549804
I1013 15:26:56.081367 19503 layer_factory.hpp:76] Creating layer detection_accuracy_4_3x5
I1013 15:26:56.081373 19503 net.cpp:106] Creating Layer detection_accuracy_4_3x5
I1013 15:26:56.081377 19503 net.cpp:454] detection_accuracy_4_3x5 <- LFCN_4_3x5_LFCN_4_3x5_0_split_1
I1013 15:26:56.081382 19503 net.cpp:454] detection_accuracy_4_3x5 <- label_4_3x5_data_7_split_1
I1013 15:26:56.081389 19503 net.cpp:411] detection_accuracy_4_3x5 -> accuracy_4_3x5
I1013 15:26:56.081396 19503 net.cpp:411] detection_accuracy_4_3x5 -> boxiou_4_3x5
I1013 15:26:56.081455 19503 net.cpp:150] Setting up detection_accuracy_4_3x5
I1013 15:26:56.081465 19503 net.cpp:157] Top shape: 1 1 1 2 (2)
I1013 15:26:56.081470 19503 net.cpp:157] Top shape: 1 1 1 1 (1)
I1013 15:26:56.081471 19503 net.cpp:165] Memory required for data: 1719549816
I1013 15:26:56.081475 19503 layer_factory.hpp:76] Creating layer proposals
I1013 15:26:56.081487 19503 net.cpp:106] Creating Layer proposals
I1013 15:26:56.081491 19503 net.cpp:454] proposals <- LFCN_1_3x5_LFCN_1_3x5_0_split_2
I1013 15:26:56.081496 19503 net.cpp:454] proposals <- LFCN_1_5x7_LFCN_1_5x7_0_split_2
I1013 15:26:56.081499 19503 net.cpp:454] proposals <- LFCN_2_3x5_LFCN_2_3x5_0_split_2
I1013 15:26:56.081502 19503 net.cpp:454] proposals <- LFCN_2_5x7_LFCN_2_5x7_0_split_2
I1013 15:26:56.081506 19503 net.cpp:454] proposals <- LFCN_3_3x5_LFCN_3_3x5_0_split_2
I1013 15:26:56.081509 19503 net.cpp:454] proposals <- LFCN_3_5x7_LFCN_3_5x7_0_split_2
I1013 15:26:56.081512 19503 net.cpp:454] proposals <- LFCN_4_3x5_LFCN_4_3x5_0_split_2
I1013 15:26:56.081519 19503 net.cpp:411] proposals -> proposals
I1013 15:26:56.081562 19503 net.cpp:150] Setting up proposals
I1013 15:26:56.081568 19503 net.cpp:157] Top shape: 1 5 1 1 (5)
I1013 15:26:56.081570 19503 net.cpp:165] Memory required for data: 1719549836
I1013 15:26:56.081573 19503 layer_factory.hpp:76] Creating layer proposal_info
I1013 15:26:56.081584 19503 net.cpp:106] Creating Layer proposal_info
I1013 15:26:56.081588 19503 net.cpp:454] proposal_info <- proposals
I1013 15:26:56.081593 19503 net.cpp:454] proposal_info <- gt_boxes
I1013 15:26:56.081598 19503 net.cpp:411] proposal_info -> rois
I1013 15:26:56.081605 19503 net.cpp:411] proposal_info -> proposal_labels
I1013 15:26:56.081616 19503 net.cpp:411] proposal_info -> proposal_targets
I1013 15:26:56.081624 19503 net.cpp:411] proposal_info -> box_inside_weights
I1013 15:26:56.081629 19503 net.cpp:411] proposal_info -> box_outside_weights
I1013 15:26:56.081635 19503 net.cpp:411] proposal_info -> match_gt_boxes
I1013 15:26:56.081781 19503 net.cpp:150] Setting up proposal_info
I1013 15:26:56.081789 19503 net.cpp:157] Top shape: 64 5 1 1 (320)
I1013 15:26:56.081794 19503 net.cpp:157] Top shape: 64 1 1 1 (64)
I1013 15:26:56.081799 19503 net.cpp:157] Top shape: 64 8 1 1 (512)
I1013 15:26:56.081804 19503 net.cpp:157] Top shape: 64 8 1 1 (512)
I1013 15:26:56.081809 19503 net.cpp:157] Top shape: 64 8 1 1 (512)
I1013 15:26:56.081811 19503 net.cpp:157] Top shape: 64 6 1 1 (384)
I1013 15:26:56.081815 19503 net.cpp:165] Memory required for data: 1719559052
I1013 15:26:56.081817 19503 layer_factory.hpp:76] Creating layer rois_proposal_info_0_split
I1013 15:26:56.081825 19503 net.cpp:106] Creating Layer rois_proposal_info_0_split
I1013 15:26:56.081827 19503 net.cpp:454] rois_proposal_info_0_split <- rois
I1013 15:26:56.081832 19503 net.cpp:411] rois_proposal_info_0_split -> rois_proposal_info_0_split_0
I1013 15:26:56.081837 19503 net.cpp:411] rois_proposal_info_0_split -> rois_proposal_info_0_split_1
I1013 15:26:56.081842 19503 net.cpp:411] rois_proposal_info_0_split -> rois_proposal_info_0_split_2
I1013 15:26:56.081918 19503 net.cpp:150] Setting up rois_proposal_info_0_split
I1013 15:26:56.081923 19503 net.cpp:157] Top shape: 64 5 1 1 (320)
I1013 15:26:56.081926 19503 net.cpp:157] Top shape: 64 5 1 1 (320)
I1013 15:26:56.081930 19503 net.cpp:157] Top shape: 64 5 1 1 (320)
I1013 15:26:56.081933 19503 net.cpp:165] Memory required for data: 1719562892
I1013 15:26:56.081935 19503 layer_factory.hpp:76] Creating layer proposal_labels_proposal_info_1_split
I1013 15:26:56.081943 19503 net.cpp:106] Creating Layer proposal_labels_proposal_info_1_split
I1013 15:26:56.081946 19503 net.cpp:454] proposal_labels_proposal_info_1_split <- proposal_labels
I1013 15:26:56.081954 19503 net.cpp:411] proposal_labels_proposal_info_1_split -> proposal_labels_proposal_info_1_split_0
I1013 15:26:56.081961 19503 net.cpp:411] proposal_labels_proposal_info_1_split -> proposal_labels_proposal_info_1_split_1
I1013 15:26:56.082016 19503 net.cpp:150] Setting up proposal_labels_proposal_info_1_split
I1013 15:26:56.082022 19503 net.cpp:157] Top shape: 64 1 1 1 (64)
I1013 15:26:56.082026 19503 net.cpp:157] Top shape: 64 1 1 1 (64)
I1013 15:26:56.082028 19503 net.cpp:165] Memory required for data: 1719563404
I1013 15:26:56.082031 19503 layer_factory.hpp:76] Creating layer roi_pool_org
I1013 15:26:56.082037 19503 net.cpp:106] Creating Layer roi_pool_org
I1013 15:26:56.082041 19503 net.cpp:454] roi_pool_org <- conv4_3_relu4_3_0_split_2
I1013 15:26:56.082046 19503 net.cpp:454] roi_pool_org <- rois_proposal_info_0_split_0
I1013 15:26:56.082049 19503 net.cpp:411] roi_pool_org -> roi_pool_org
I1013 15:26:56.082056 19503 roi_pooling_layer.cpp:35] Spatial scale: 0.125
I1013 15:26:56.082116 19503 net.cpp:150] Setting up roi_pool_org
I1013 15:26:56.082123 19503 net.cpp:157] Top shape: 64 512 8 4 (1048576)
I1013 15:26:56.082125 19503 net.cpp:165] Memory required for data: 1723757708
I1013 15:26:56.082129 19503 layer_factory.hpp:76] Creating layer roi_pool_ctx
I1013 15:26:56.082134 19503 net.cpp:106] Creating Layer roi_pool_ctx
I1013 15:26:56.082137 19503 net.cpp:454] roi_pool_ctx <- conv4_3_relu4_3_0_split_3
I1013 15:26:56.082144 19503 net.cpp:454] roi_pool_ctx <- rois_proposal_info_0_split_1
I1013 15:26:56.082149 19503 net.cpp:411] roi_pool_ctx -> roi_pool_ctx
I1013 15:26:56.082155 19503 roi_pooling_layer.cpp:35] Spatial scale: 0.125
I1013 15:26:56.082209 19503 net.cpp:150] Setting up roi_pool_ctx
I1013 15:26:56.082216 19503 net.cpp:157] Top shape: 64 512 8 4 (1048576)
I1013 15:26:56.082221 19503 net.cpp:165] Memory required for data: 1727952012
I1013 15:26:56.082226 19503 layer_factory.hpp:76] Creating layer roi_pool
I1013 15:26:56.082231 19503 net.cpp:106] Creating Layer roi_pool
I1013 15:26:56.082233 19503 net.cpp:454] roi_pool <- roi_pool_org
I1013 15:26:56.082239 19503 net.cpp:454] roi_pool <- roi_pool_ctx
I1013 15:26:56.082243 19503 net.cpp:411] roi_pool -> roi_pool
I1013 15:26:56.082276 19503 net.cpp:150] Setting up roi_pool
I1013 15:26:56.082281 19503 net.cpp:157] Top shape: 64 1024 8 4 (2097152)
I1013 15:26:56.082284 19503 net.cpp:165] Memory required for data: 1736340620
I1013 15:26:56.082288 19503 layer_factory.hpp:76] Creating layer roi_c1
I1013 15:26:56.082300 19503 net.cpp:106] Creating Layer roi_c1
I1013 15:26:56.082304 19503 net.cpp:454] roi_c1 <- roi_pool
I1013 15:26:56.082309 19503 net.cpp:411] roi_c1 -> roi_c1
I1013 15:26:56.257922 19503 net.cpp:150] Setting up roi_c1
I1013 15:26:56.257956 19503 net.cpp:157] Top shape: 64 512 8 4 (1048576)
I1013 15:26:56.257961 19503 net.cpp:165] Memory required for data: 1740534924
I1013 15:26:56.257968 19503 layer_factory.hpp:76] Creating layer roi_c1_relu
I1013 15:26:56.257980 19503 net.cpp:106] Creating Layer roi_c1_relu
I1013 15:26:56.257987 19503 net.cpp:454] roi_c1_relu <- roi_c1
I1013 15:26:56.257993 19503 net.cpp:397] roi_c1_relu -> roi_c1 (in-place)
I1013 15:26:56.258404 19503 net.cpp:150] Setting up roi_c1_relu
I1013 15:26:56.258419 19503 net.cpp:157] Top shape: 64 512 8 4 (1048576)
I1013 15:26:56.258421 19503 net.cpp:165] Memory required for data: 1744729228
I1013 15:26:56.258424 19503 layer_factory.hpp:76] Creating layer fc6
I1013 15:26:56.258435 19503 net.cpp:106] Creating Layer fc6
I1013 15:26:56.258440 19503 net.cpp:454] fc6 <- roi_c1
I1013 15:26:56.258446 19503 net.cpp:411] fc6 -> fc6
I1013 15:26:57.390800 19503 net.cpp:150] Setting up fc6
I1013 15:26:57.390842 19503 net.cpp:157] Top shape: 64 2048 (131072)
I1013 15:26:57.390846 19503 net.cpp:165] Memory required for data: 1745253516
I1013 15:26:57.390861 19503 layer_factory.hpp:76] Creating layer relu6
I1013 15:26:57.390877 19503 net.cpp:106] Creating Layer relu6
I1013 15:26:57.390910 19503 net.cpp:454] relu6 <- fc6
I1013 15:26:57.390918 19503 net.cpp:397] relu6 -> fc6 (in-place)
I1013 15:26:57.391351 19503 net.cpp:150] Setting up relu6
I1013 15:26:57.391362 19503 net.cpp:157] Top shape: 64 2048 (131072)
I1013 15:26:57.391366 19503 net.cpp:165] Memory required for data: 1745777804
I1013 15:26:57.391368 19503 layer_factory.hpp:76] Creating layer drop6
I1013 15:26:57.391378 19503 net.cpp:106] Creating Layer drop6
I1013 15:26:57.391381 19503 net.cpp:454] drop6 <- fc6
I1013 15:26:57.391386 19503 net.cpp:397] drop6 -> fc6 (in-place)
I1013 15:26:57.391427 19503 net.cpp:150] Setting up drop6
I1013 15:26:57.391433 19503 net.cpp:157] Top shape: 64 2048 (131072)
I1013 15:26:57.391438 19503 net.cpp:165] Memory required for data: 1746302092
I1013 15:26:57.391441 19503 layer_factory.hpp:76] Creating layer fc6_drop6_0_split
I1013 15:26:57.391450 19503 net.cpp:106] Creating Layer fc6_drop6_0_split
I1013 15:26:57.391453 19503 net.cpp:454] fc6_drop6_0_split <- fc6
I1013 15:26:57.391459 19503 net.cpp:411] fc6_drop6_0_split -> fc6_drop6_0_split_0
I1013 15:26:57.391465 19503 net.cpp:411] fc6_drop6_0_split -> fc6_drop6_0_split_1
I1013 15:26:57.391554 19503 net.cpp:150] Setting up fc6_drop6_0_split
I1013 15:26:57.391562 19503 net.cpp:157] Top shape: 64 2048 (131072)
I1013 15:26:57.391566 19503 net.cpp:157] Top shape: 64 2048 (131072)
I1013 15:26:57.391567 19503 net.cpp:165] Memory required for data: 1747350668
I1013 15:26:57.391571 19503 layer_factory.hpp:76] Creating layer cls_pred
I1013 15:26:57.391579 19503 net.cpp:106] Creating Layer cls_pred
I1013 15:26:57.391583 19503 net.cpp:454] cls_pred <- fc6_drop6_0_split_0
I1013 15:26:57.391593 19503 net.cpp:411] cls_pred -> cls_pred
I1013 15:26:57.391911 19503 net.cpp:150] Setting up cls_pred
I1013 15:26:57.391921 19503 net.cpp:157] Top shape: 64 2 (128)
I1013 15:26:57.391923 19503 net.cpp:165] Memory required for data: 1747351180
I1013 15:26:57.391929 19503 layer_factory.hpp:76] Creating layer cls_pred_cls_pred_0_split
I1013 15:26:57.391937 19503 net.cpp:106] Creating Layer cls_pred_cls_pred_0_split
I1013 15:26:57.391940 19503 net.cpp:454] cls_pred_cls_pred_0_split <- cls_pred
I1013 15:26:57.391944 19503 net.cpp:411] cls_pred_cls_pred_0_split -> cls_pred_cls_pred_0_split_0
I1013 15:26:57.391950 19503 net.cpp:411] cls_pred_cls_pred_0_split -> cls_pred_cls_pred_0_split_1
I1013 15:26:57.392009 19503 net.cpp:150] Setting up cls_pred_cls_pred_0_split
I1013 15:26:57.392025 19503 net.cpp:157] Top shape: 64 2 (128)
I1013 15:26:57.392029 19503 net.cpp:157] Top shape: 64 2 (128)
I1013 15:26:57.392031 19503 net.cpp:165] Memory required for data: 1747352204
I1013 15:26:57.392033 19503 layer_factory.hpp:76] Creating layer bbox_pred
I1013 15:26:57.392041 19503 net.cpp:106] Creating Layer bbox_pred
I1013 15:26:57.392045 19503 net.cpp:454] bbox_pred <- fc6_drop6_0_split_1
I1013 15:26:57.392052 19503 net.cpp:411] bbox_pred -> bbox_pred
I1013 15:26:57.393465 19503 net.cpp:150] Setting up bbox_pred
I1013 15:26:57.393478 19503 net.cpp:157] Top shape: 64 8 (512)
I1013 15:26:57.393481 19503 net.cpp:165] Memory required for data: 1747354252
I1013 15:26:57.393487 19503 layer_factory.hpp:76] Creating layer bbox_pred_bbox_pred_0_split
I1013 15:26:57.393492 19503 net.cpp:106] Creating Layer bbox_pred_bbox_pred_0_split
I1013 15:26:57.393496 19503 net.cpp:454] bbox_pred_bbox_pred_0_split <- bbox_pred
I1013 15:26:57.393501 19503 net.cpp:411] bbox_pred_bbox_pred_0_split -> bbox_pred_bbox_pred_0_split_0
I1013 15:26:57.393573 19503 net.cpp:411] bbox_pred_bbox_pred_0_split -> bbox_pred_bbox_pred_0_split_1
I1013 15:26:57.393628 19503 net.cpp:150] Setting up bbox_pred_bbox_pred_0_split
I1013 15:26:57.393643 19503 net.cpp:157] Top shape: 64 8 (512)
I1013 15:26:57.393651 19503 net.cpp:157] Top shape: 64 8 (512)
I1013 15:26:57.393654 19503 net.cpp:165] Memory required for data: 1747358348
I1013 15:26:57.393657 19503 layer_factory.hpp:76] Creating layer loss_cls
I1013 15:26:57.393664 19503 net.cpp:106] Creating Layer loss_cls
I1013 15:26:57.393667 19503 net.cpp:454] loss_cls <- cls_pred_cls_pred_0_split_0
I1013 15:26:57.393674 19503 net.cpp:454] loss_cls <- proposal_labels_proposal_info_1_split_0
…
