…
    downsample_rate: 16
    downsample_rate: 32
    downsample_rate: 32
    downsample_rate: 64
    coord_num: 4
    field_h: 60
    field_h: 84
    field_h: 120
    field_h: 168
    field_h: 240
    field_h: 336
    field_h: 480
    field_w: 30
    field_w: 42
    field_w: 60
    field_w: 84
    field_w: 120
    field_w: 168
    field_w: 240
    fg_threshold: 0.5
    resize_width: 960
    resize_height: 720
    crop_width: 576
    crop_height: 576
    do_multiple_scale: true
    min_scale: 40
    max_scale: 340
    min_gt_height: 65
    shuffle: true
  }
}
layer {
  name: "conv1_1"
  type: "Convolution"
  bottom: "data"
  top: "conv1_1"
  convolution_param {
    num_output: 64
    pad: 1
    kernel_size: 3
  }
}
layer {
  name: "relu1_1"
  type: "ReLU"
  bottom: "conv1_1"
  top: "conv1_1"
}
layer {
  name: "conv1_2"
  type: "Convolution"
  bottom: "conv1_1"
  top: "conv1_2"
  convolution_param {
    num_output: 64
    pad: 1
    kernel_size: 3
  }
}
layer {
  name: "relu1_2"
  type: "ReLU"
  bottom: "conv1_2"
  top: "conv1_2"
}
layer {
  name: "pool1"
  type: "Pooling"
  bottom: "conv1_2"
  top: "pool1"
  pooling_param {
    pool: MAX
    kernel_size: 2
    stride: 2
  }
}
layer {
  name: "conv2_1"
  type: "Convolution"
  bottom: "pool1"
  top: "conv2_1"
  convolution_param {
    num_output: 128
    pad: 1
    kernel_size: 3
  }
}
layer {
  name: "relu2_1"
  type: "ReLU"
  bottom: "conv2_1"
  top: "conv2_1"
}
layer {
  name: "conv2_2"
  type: "Convolution"
  bottom: "conv2_1"
  top: "conv2_2"
  convolution_param {
    num_output: 128
    pad: 1
    kernel_size: 3
  }
}
layer {
  name: "relu2_2"
  type: "ReLU"
  bottom: "conv2_2"
  top: "conv2_2"
}
layer {
  name: "pool2"
  type: "Pooling"
  bottom: "conv2_2"
  top: "pool2"
  pooling_param {
    pool: MAX
    kernel_size: 2
    stride: 2
  }
}
layer {
  name: "conv3_1"
  type: "Convolution"
  bottom: "pool2"
  top: "conv3_1"
  convolution_param {
    num_output: 256
    pad: 1
    kernel_size: 3
  }
}
layer {
  name: "relu3_1"
  type: "ReLU"
  bottom: "conv3_1"
  top: "conv3_1"
}
layer {
  name: "conv3_2"
  type: "Convolution"
  bottom: "conv3_1"
  top: "conv3_2"
  convolution_param {
    num_output: 256
    pad: 1
    kernel_size: 3
  }
}
layer {
  name: "relu3_2"
  type: "ReLU"
  bottom: "conv3_2"
  top: "conv3_2"
}
layer {
  name: "conv3_3"
  type: "Convolution"
  bottom: "conv3_2"
  top: "conv3_3"
  convolution_param {
    num_output: 256
    pad: 1
    kernel_size: 3
  }
}
layer {
  name: "relu3_3"
  type: "ReLU"
  bottom: "conv3_3"
  top: "conv3_3"
}
layer {
  name: "pool3"
  type: "Pooling"
  bottom: "conv3_3"
  top: "pool3"
  pooling_param {
    pool: MAX
    kernel_size: 2
    stride: 2
  }
}
layer {
  name: "conv4_1"
  type: "Convolution"
  bottom: "pool3"
  top: "conv4_1"
  convolution_param {
    num_output: 512
    pad: 1
    kernel_size: 3
  }
}
layer {
  name: "relu4_1"
  type: "ReLU"
  bottom: "conv4_1"
  top: "conv4_1"
}
layer {
  name: "conv4_2"
  type: "Convolution"
  bottom: "conv4_1"
  top: "conv4_2"
  convolution_param {
    num_output: 512
    pad: 1
    kernel_size: 3
  }
}
layer {
  name: "relu4_2"
  type: "ReLU"
  bottom: "conv4_2"
  top: "conv4_2"
}
layer {
  name: "conv4_3"
  type: "Convolution"
  bottom: "conv4_2"
  top: "conv4_3"
  convolution_param {
    num_output: 512
    pad: 1
    kernel_size: 3
  }
}
layer {
  name: "relu4_3"
  type: "ReLU"
  bottom: "conv4_3"
  top: "conv4_3"
}
layer {
  name: "loss1_conv1"
  type: "Convolution"
  bottom: "conv4_3"
  top: "loss1_conv1"
  param {
    lr_mult: 1
    decay_mult: 1
  }
  param {
    lr_mult: 2
    decay_mult: 0
  }
  convolution_param {
    num_output: 512
    pad: 1
    kernel_size: 3
    weight_filler {
      type: "gaussian"
      std: 0.01
    }
    bias_filler {
      type: "constant"
    }
  }
}
layer {
  name: "loss_relu1"
  type: "ReLU"
  bottom: "loss1_conv1"
  top: "loss1_conv1"
}
layer {
  name: "LFCN_1_3x5"
  type: "Convolution"
  bottom: "loss1_conv1"
  top: "LFCN_1_3x5"
  param {
    lr_mult: 1
    decay_mult: 1
  }
  param {
    lr_mult: 2
    decay_mult: 0
  }
  convolution_param {
    num_output: 6
    weight_filler {
      type: "gaussian"
      std: 0.001
    }
    bias_filler {
      type: "constant"
    }
    pad_h: 2
    pad_w: 1
    kernel_h: 5
    kernel_w: 3
  }
}
layer {
  name: "detection_loss_1_3x5"
  type: "Detection"
  bottom: "LFCN_1_3x5"
  bottom: "label_1_3x5"
  top: "loss_1_3x5"
  loss_weight: 0.9
  detection_param {
    cls_num: 2
    coord_num: 4
    lambda: 0.5
    field_h: 60
    field_w: 30
    downsample_rate: 8
    bb_smooth: true
    field_whr: 2
    field_xyr: 2
    bg_threshold: 0.2
    bg_multiple: 2
    sample_mode: "random"
    pos_neg_weighted: true
  }
}
layer {
  name: "detection_accuracy_1_3x5"
  type: "DetectionAccuracy"
  bottom: "LFCN_1_3x5"
  bottom: "label_1_3x5"
  top: "accuracy_1_3x5"
  top: "boxiou_1_3x5"
  detection_accuracy_param {
    cls_num: 2
    coord_num: 4
    field_h: 60
    field_w: 30
    downsample_rate: 8
    field_whr: 2
    field_xyr: 2
  }
}
layer {
  name: "LFCN_1_5x7"
  type: "Convolution"
  bottom: "loss1_conv1"
  top: "LFCN_1_5x7"
  param {
    lr_mult: 1
    decay_mult: 1
  }
  param {
    lr_mult: 2
    decay_mult: 0
  }
  convolution_param {
    num_output: 6
    weight_filler {
      type: "gaussian"
      std: 0.001
    }
    bias_filler {
      type: "constant"
    }
    pad_h: 3
    pad_w: 2
    kernel_h: 7
    kernel_w: 5
  }
}
layer {
  name: "detection_loss_1_5x7"
  type: "Detection"
  bottom: "LFCN_1_5x7"
  bottom: "label_1_5x7"
  top: "loss_1_5x7"
  loss_weight: 0.9
  detection_param {
    cls_num: 2
    coord_num: 4
    lambda: 0.5
    field_h: 84
    field_w: 42
    downsample_rate: 8
    bb_smooth: true
    field_whr: 2
    field_xyr: 2
    bg_threshold: 0.2
    bg_multiple: 2
    sample_mode: "random"
    pos_neg_weighted: true
  }
}
layer {
  name: "detection_accuracy_1_5x7"
  type: "DetectionAccuracy"
  bottom: "LFCN_1_5x7"
  bottom: "label_1_5x7"
  top: "accuracy_1_5x7"
  top: "boxiou_1_5x7"
  detection_accuracy_param {
    cls_num: 2
    coord_num: 4
    field_h: 84
    field_w: 42
    downsample_rate: 8
    field_whr: 2
    field_xyr: 2
  }
}
layer {
  name: "pool4"
  type: "Pooling"
  bottom: "conv4_3"
  top: "pool4"
  pooling_param {
    pool: MAX
    kernel_size: 2
    stride: 2
  }
}
layer {
  name: "conv5_1"
  type: "Convolution"
  bottom: "pool4"
  top: "conv5_1"
  convolution_param {
    num_output: 512
    pad: 1
    kernel_size: 3
  }
}
layer {
  name: "relu5_1"
  type: "ReLU"
  bottom: "conv5_1"
  top: "conv5_1"
}
layer {
  name: "conv5_2"
  type: "Convolution"
  bottom: "conv5_1"
  top: "conv5_2"
  convolution_param {
    num_output: 512
    pad: 1
    kernel_size: 3
  }
}
layer {
  name: "relu5_2"
  type: "ReLU"
  bottom: "conv5_2"
  top: "conv5_2"
}
layer {
  name: "conv5_3"
  type: "Convolution"
  bottom: "conv5_2"
  top: "conv5_3"
  convolution_param {
    num_output: 512
    pad: 1
    kernel_size: 3
  }
}
layer {
  name: "relu5_3"
  type: "ReLU"
  bottom: "conv5_3"
  top: "conv5_3"
}
layer {
  name: "LFCN_2_3x5"
  type: "Convolution"
  bottom: "conv5_3"
  top: "LFCN_2_3x5"
  param {
    lr_mult: 1
    decay_mult: 1
  }
  param {
    lr_mult: 2
    decay_mult: 0
  }
  convolution_param {
    num_output: 6
    weight_filler {
      type: "gaussian"
      std: 0.001
    }
    bias_filler {
      type: "constant"
    }
    pad_h: 2
    pad_w: 1
    kernel_h: 5
    kernel_w: 3
  }
}
layer {
  name: "detection_loss_2_3x5"
  type: "Detection"
  bottom: "LFCN_2_3x5"
  bottom: "label_2_3x5"
  top: "loss_2_3x5"
  detection_param {
    cls_num: 2
    coord_num: 4
    lambda: 0.5
    field_h: 120
    field_w: 60
    downsample_rate: 16
    bb_smooth: true
    field_whr: 2
    field_xyr: 2
    bg_threshold: 0.2
    bg_multiple: 2
    sample_mode: "random"
    pos_neg_weighted: true
  }
}
layer {
  name: "detection_accuracy_2_3x5"
  type: "DetectionAccuracy"
  bottom: "LFCN_2_3x5"
  bottom: "label_2_3x5"
  top: "accuracy_2_3x5"
  top: "boxiou_2_3x5"
  detection_accuracy_param {
    cls_num: 2
    coord_num: 4
    field_h: 120
    field_w: 60
    downsample_rate: 16
    field_whr: 2
    field_xyr: 2
  }
}
layer {
  name: "LFCN_2_5x7"
  type: "Convolution"
  bottom: "conv5_3"
  top: "LFCN_2_5x7"
  param {
    lr_mult: 1
    decay_mult: 1
  }
  param {
    lr_mult: 2
    decay_mult: 0
  }
  convolution_param {
    num_output: 6
    weight_filler {
      type: "gaussian"
      std: 0.001
    }
    bias_filler {
      type: "constant"
    }
    pad_h: 3
    pad_w: 2
    kernel_h: 7
    kernel_w: 5
  }
}
layer {
  name: "detection_loss_2_5x7"
  type: "Detection"
  bottom: "LFCN_2_5x7"
  bottom: "label_2_5x7"
  top: "loss_2_5x7"
  detection_param {
    cls_num: 2
    coord_num: 4
    lambda: 0.5
    field_h: 168
    field_w: 84
    downsample_rate: 16
    bb_smooth: true
    field_whr: 2
    field_xyr: 2
    bg_threshold: 0.2
    bg_multiple: 2
    sample_mode: "random"
    pos_neg_weighted: true
  }
}
layer {
  name: "detection_accuracy_2_5x7"
  type: "DetectionAccuracy"
  bottom: "LFCN_2_5x7"
  bottom: "label_2_5x7"
  top: "accuracy_2_5x7"
  top: "boxiou_2_5x7"
  detection_accuracy_param {
    cls_num: 2
    coord_num: 4
    field_h: 168
    field_w: 84
    downsample_rate: 16
    field_whr: 2
    field_xyr: 2
  }
}
layer {
  name: "pool5"
  type: "Pooling"
  bottom: "conv5_3"
  top: "pool5"
  pooling_param {
    pool: MAX
    kernel_size: 2
    stride: 2
  }
}
layer {
  name: "conv6_1"
  type: "Convolution"
  bottom: "pool5"
  top: "conv6_1"
  param {
    lr_mult: 1
    decay_mult: 1
  }
  param {
    lr_mult: 2
    decay_mult: 0
  }
  convolution_param {
    num_output: 512
    pad: 1
    kernel_size: 3
    weight_filler {
      type: "gaussian"
      std: 0.01
    }
    bias_filler {
      type: "constant"
    }
  }
}
layer {
  name: "relu6_1"
  type: "ReLU"
  bottom: "conv6_1"
  top: "conv6_1"
}
layer {
  name: "LFCN_3_3x5"
  type: "Convolution"
  bottom: "conv6_1"
  top: "LFCN_3_3x5"
  param {
    lr_mult: 1
    decay_mult: 1
  }
  param {
    lr_mult: 2
    decay_mult: 0
  }
  convolution_param {
    num_output: 6
    weight_filler {
      type: "gaussian"
      std: 0.001
    }
    bias_filler {
      type: "constant"
    }
    pad_h: 2
    pad_w: 1
    kernel_h: 5
    kernel_w: 3
  }
}
layer {
  name: "detection_loss_3_3x5"
  type: "Detection"
  bottom: "LFCN_3_3x5"
  bottom: "label_3_3x5"
  top: "loss_3_3x5"
  detection_param {
    cls_num: 2
    coord_num: 4
    lambda: 0.5
    field_h: 240
    field_w: 120
    downsample_rate: 32
    bb_smooth: true
    field_whr: 2
    field_xyr: 2
    bg_threshold: 0.2
    bg_multiple: 2
    sample_mode: "random"
    pos_neg_weighted: true
  }
}
layer {
  name: "detection_accuracy_3_3x5"
  type: "DetectionAccuracy"
  bottom: "LFCN_3_3x5"
  bottom: "label_3_3x5"
  top: "accuracy_3_3x5"
  top: "boxiou_3_3x5"
  detection_accuracy_param {
    cls_num: 2
    coord_num: 4
    field_h: 240
    field_w: 120
    downsample_rate: 32
    field_whr: 2
    field_xyr: 2
  }
}
layer {
  name: "LFCN_3_5x7"
  type: "Convolution"
  bottom: "conv6_1"
  top: "LFCN_3_5x7"
  param {
    lr_mult: 1
    decay_mult: 1
  }
  param {
    lr_mult: 2
    decay_mult: 0
  }
  convolution_param {
    num_output: 6
    weight_filler {
      type: "gaussian"
      std: 0.001
    }
    bias_filler {
      type: "constant"
    }
    pad_h: 3
    pad_w: 2
    kernel_h: 7
    kernel_w: 5
  }
}
layer {
  name: "detection_loss_3_5x7"
  type: "Detection"
  bottom: "LFCN_3_5x7"
  bottom: "label_3_5x7"
  top: "loss_3_5x7"
  detection_param {
    cls_num: 2
    coord_num: 4
    lambda: 0.5
    field_h: 336
    field_w: 168
    downsample_rate: 32
    bb_smooth: true
    field_whr: 2
    field_xyr: 2
    bg_threshold: 0.2
    bg_multiple: 2
    sample_mode: "random"
    pos_neg_weighted: true
  }
}
layer {
  name: "detection_accuracy_3_5x7"
  type: "DetectionAccuracy"
  bottom: "LFCN_3_5x7"
  bottom: "label_3_5x7"
  top: "accuracy_3_5x7"
  top: "boxiou_3_5x7"
  detection_accuracy_param {
    cls_num: 2
    coord_num: 4
    field_h: 336
    field_w: 168
    downsample_rate: 32
    field_whr: 2
    field_xyr: 2
  }
}
layer {
  name: "pool6"
  type: "Pooling"
  bottom: "conv6_1"
  top: "pool6"
  pooling_param {
    pool: MAX
    kernel_size: 2
    stride: 2
  }
}
layer {
  name: "LFCN_4_3x5"
  type: "Convolution"
  bottom: "pool6"
  top: "LFCN_4_3x5"
  param {
    lr_mult: 1
    decay_mult: 1
  }
  param {
    lr_mult: 2
    decay_mult: 0
  }
  convolution_param {
    num_output: 6
    weight_filler {
      type: "gaussian"
      std: 0.001
    }
    bias_filler {
      type: "constant"
    }
    pad_h: 2
    pad_w: 1
    kernel_h: 5
    kernel_w: 3
  }
}
layer {
  name: "detection_loss_4_3x5"
  type: "Detection"
  bottom: "LFCN_4_3x5"
  bottom: "label_4_3x5"
  top: "loss_4_3x5"
  detection_param {
    cls_num: 2
    coord_num: 4
    lambda: 0.5
    field_h: 480
    field_w: 240
    downsample_rate: 64
    bb_smooth: true
    field_whr: 2
    field_xyr: 2
    bg_threshold: 0.2
    bg_multiple: 2
    sample_mode: "random"
    pos_neg_weighted: true
  }
}
layer {
  name: "detection_accuracy_4_3x5"
  type: "DetectionAccuracy"
  bottom: "LFCN_4_3x5"
  bottom: "label_4_3x5"
  top: "accuracy_4_3x5"
  top: "boxiou_4_3x5"
  detection_accuracy_param {
    cls_num: 2
    coord_num: 4
    field_h: 480
    field_w: 240
    downsample_rate: 64
    field_whr: 2
    field_xyr: 2
  }
}
I0207 01:54:51.997599  1010 layer_factory.hpp:76] Creating layer data
I0207 01:54:51.997668  1010 net.cpp:106] Creating Layer data
I0207 01:54:51.997684  1010 net.cpp:411] data -> data
…
I0207 01:54:52.099035  1010 image_gt_data_layer.cpp:234] output label size 1 : 4,6,72,72
I0207 01:54:52.099083  1010 image_gt_data_layer.cpp:234] output label size 2 : 4,6,36,36
I0207 01:54:52.099138  1010 image_gt_data_layer.cpp:234] output label size 3 : 4,6,36,36
I0207 01:54:52.099186  1010 image_gt_data_layer.cpp:234] output label size 4 : 4,6,18,18
I0207 01:54:52.099236  1010 image_gt_data_layer.cpp:234] output label size 5 : 4,6,18,18
I0207 01:54:52.099287  1010 image_gt_data_layer.cpp:234] output label size 6 : 4,6,9,9
I0207 01:54:52.138686  1010 net.cpp:150] Setting up data
I0207 01:54:52.138725  1010 net.cpp:157] Top shape: 4 3 576 576 (3981312)
I0207 01:54:52.138731  1010 net.cpp:157] Top shape: 4 6 72 72 (124416)
I0207 01:54:52.138736  1010 net.cpp:157] Top shape: 4 6 72 72 (124416)
I0207 01:54:52.138739  1010 net.cpp:157] Top shape: 4 6 36 36 (31104)
I0207 01:54:52.138743  1010 net.cpp:157] Top shape: 4 6 36 36 (31104)
I0207 01:54:52.138747  1010 net.cpp:157] Top shape: 4 6 18 18 (7776)
I0207 01:54:52.138751  1010 net.cpp:157] Top shape: 4 6 18 18 (7776)
I0207 01:54:52.138754  1010 net.cpp:157] Top shape: 4 6 9 9 (1944)
I0207 01:54:52.138758  1010 net.cpp:165] Memory required for data: 17239392
I0207 01:54:52.138768  1010 layer_factory.hpp:76] Creating layer label_1_3x5_data_1_split
I0207 01:54:52.138792  1010 net.cpp:106] Creating Layer label_1_3x5_data_1_split
I0207 01:54:52.138799  1010 net.cpp:454] label_1_3x5_data_1_split <- label_1_3x5
I0207 01:54:52.138814  1010 net.cpp:411] label_1_3x5_data_1_split -> label_1_3x5_data_1_split_0
I0207 01:54:52.138828  1010 net.cpp:411] label_1_3x5_data_1_split -> label_1_3x5_data_1_split_1
I0207 01:54:52.138941  1010 net.cpp:150] Setting up label_1_3x5_data_1_split
I0207 01:54:52.138952  1010 net.cpp:157] Top shape: 4 6 72 72 (124416)
I0207 01:54:52.138955  1010 net.cpp:157] Top shape: 4 6 72 72 (124416)
I0207 01:54:52.138957  1010 net.cpp:165] Memory required for data: 18234720
I0207 01:54:52.138962  1010 layer_factory.hpp:76] Creating layer label_1_5x7_data_2_split
I0207 01:54:52.138969  1010 net.cpp:106] Creating Layer label_1_5x7_data_2_split
I0207 01:54:52.138972  1010 net.cpp:454] label_1_5x7_data_2_split <- label_1_5x7
I0207 01:54:52.138978  1010 net.cpp:411] label_1_5x7_data_2_split -> label_1_5x7_data_2_split_0
I0207 01:54:52.138983  1010 net.cpp:411] label_1_5x7_data_2_split -> label_1_5x7_data_2_split_1
I0207 01:54:52.139039  1010 net.cpp:150] Setting up label_1_5x7_data_2_split
I0207 01:54:52.139052  1010 net.cpp:157] Top shape: 4 6 72 72 (124416)
I0207 01:54:52.139056  1010 net.cpp:157] Top shape: 4 6 72 72 (124416)
I0207 01:54:52.139060  1010 net.cpp:165] Memory required for data: 19230048
I0207 01:54:52.139062  1010 layer_factory.hpp:76] Creating layer label_2_3x5_data_3_split
I0207 01:54:52.139066  1010 net.cpp:106] Creating Layer label_2_3x5_data_3_split
I0207 01:54:52.139070  1010 net.cpp:454] label_2_3x5_data_3_split <- label_2_3x5
I0207 01:54:52.139076  1010 net.cpp:411] label_2_3x5_data_3_split -> label_2_3x5_data_3_split_0
I0207 01:54:52.139082  1010 net.cpp:411] label_2_3x5_data_3_split -> label_2_3x5_data_3_split_1
I0207 01:54:52.139170  1010 net.cpp:150] Setting up label_2_3x5_data_3_split
I0207 01:54:52.139180  1010 net.cpp:157] Top shape: 4 6 36 36 (31104)
I0207 01:54:52.139183  1010 net.cpp:157] Top shape: 4 6 36 36 (31104)
I0207 01:54:52.139186  1010 net.cpp:165] Memory required for data: 19478880
I0207 01:54:52.139189  1010 layer_factory.hpp:76] Creating layer label_2_5x7_data_4_split
I0207 01:54:52.139194  1010 net.cpp:106] Creating Layer label_2_5x7_data_4_split
I0207 01:54:52.139199  1010 net.cpp:454] label_2_5x7_data_4_split <- label_2_5x7
I0207 01:54:52.139204  1010 net.cpp:411] label_2_5x7_data_4_split -> label_2_5x7_data_4_split_0
I0207 01:54:52.139209  1010 net.cpp:411] label_2_5x7_data_4_split -> label_2_5x7_data_4_split_1
I0207 01:54:52.139240  1010 net.cpp:150] Setting up label_2_5x7_data_4_split
I0207 01:54:52.139247  1010 net.cpp:157] Top shape: 4 6 36 36 (31104)
I0207 01:54:52.139251  1010 net.cpp:157] Top shape: 4 6 36 36 (31104)
I0207 01:54:52.139253  1010 net.cpp:165] Memory required for data: 19727712
I0207 01:54:52.139256  1010 layer_factory.hpp:76] Creating layer label_3_3x5_data_5_split
I0207 01:54:52.139263  1010 net.cpp:106] Creating Layer label_3_3x5_data_5_split
I0207 01:54:52.139271  1010 net.cpp:454] label_3_3x5_data_5_split <- label_3_3x5
I0207 01:54:52.139276  1010 net.cpp:411] label_3_3x5_data_5_split -> label_3_3x5_data_5_split_0
I0207 01:54:52.139283  1010 net.cpp:411] label_3_3x5_data_5_split -> label_3_3x5_data_5_split_1
I0207 01:54:52.139315  1010 net.cpp:150] Setting up label_3_3x5_data_5_split
I0207 01:54:52.139320  1010 net.cpp:157] Top shape: 4 6 18 18 (7776)
I0207 01:54:52.139324  1010 net.cpp:157] Top shape: 4 6 18 18 (7776)
I0207 01:54:52.139327  1010 net.cpp:165] Memory required for data: 19789920
I0207 01:54:52.139329  1010 layer_factory.hpp:76] Creating layer label_3_5x7_data_6_split
I0207 01:54:52.139333  1010 net.cpp:106] Creating Layer label_3_5x7_data_6_split
I0207 01:54:52.139336  1010 net.cpp:454] label_3_5x7_data_6_split <- label_3_5x7
I0207 01:54:52.139340  1010 net.cpp:411] label_3_5x7_data_6_split -> label_3_5x7_data_6_split_0
I0207 01:54:52.139345  1010 net.cpp:411] label_3_5x7_data_6_split -> label_3_5x7_data_6_split_1
I0207 01:54:52.139374  1010 net.cpp:150] Setting up label_3_5x7_data_6_split
I0207 01:54:52.139379  1010 net.cpp:157] Top shape: 4 6 18 18 (7776)
I0207 01:54:52.139382  1010 net.cpp:157] Top shape: 4 6 18 18 (7776)
I0207 01:54:52.139384  1010 net.cpp:165] Memory required for data: 19852128
I0207 01:54:52.139387  1010 layer_factory.hpp:76] Creating layer label_4_3x5_data_7_split
I0207 01:54:52.139391  1010 net.cpp:106] Creating Layer label_4_3x5_data_7_split
I0207 01:54:52.139394  1010 net.cpp:454] label_4_3x5_data_7_split <- label_4_3x5
I0207 01:54:52.139400  1010 net.cpp:411] label_4_3x5_data_7_split -> label_4_3x5_data_7_split_0
I0207 01:54:52.139405  1010 net.cpp:411] label_4_3x5_data_7_split -> label_4_3x5_data_7_split_1
I0207 01:54:52.139431  1010 net.cpp:150] Setting up label_4_3x5_data_7_split
I0207 01:54:52.139436  1010 net.cpp:157] Top shape: 4 6 9 9 (1944)
I0207 01:54:52.139438  1010 net.cpp:157] Top shape: 4 6 9 9 (1944)
I0207 01:54:52.139441  1010 net.cpp:165] Memory required for data: 19867680
I0207 01:54:52.139444  1010 layer_factory.hpp:76] Creating layer conv1_1
I0207 01:54:52.139461  1010 net.cpp:106] Creating Layer conv1_1
I0207 01:54:52.139464  1010 net.cpp:454] conv1_1 <- data
I0207 01:54:52.139469  1010 net.cpp:411] conv1_1 -> conv1_1
I0207 01:54:52.273509  1010 net.cpp:150] Setting up conv1_1
I0207 01:54:52.273547  1010 net.cpp:157] Top shape: 4 64 576 576 (84934656)
I0207 01:54:52.273552  1010 net.cpp:165] Memory required for data: 359606304
I0207 01:54:52.273576  1010 layer_factory.hpp:76] Creating layer relu1_1
I0207 01:54:52.273591  1010 net.cpp:106] Creating Layer relu1_1
I0207 01:54:52.273596  1010 net.cpp:454] relu1_1 <- conv1_1
I0207 01:54:52.273602  1010 net.cpp:397] relu1_1 -> conv1_1 (in-place)
I0207 01:54:52.273787  1010 net.cpp:150] Setting up relu1_1
I0207 01:54:52.273798  1010 net.cpp:157] Top shape: 4 64 576 576 (84934656)
I0207 01:54:52.273802  1010 net.cpp:165] Memory required for data: 699344928
I0207 01:54:52.273804  1010 layer_factory.hpp:76] Creating layer conv1_2
I0207 01:54:52.273814  1010 net.cpp:106] Creating Layer conv1_2
I0207 01:54:52.273818  1010 net.cpp:454] conv1_2 <- conv1_1
I0207 01:54:52.273823  1010 net.cpp:411] conv1_2 -> conv1_2
I0207 01:54:52.276624  1010 net.cpp:150] Setting up conv1_2
I0207 01:54:52.276640  1010 net.cpp:157] Top shape: 4 64 576 576 (84934656)
I0207 01:54:52.276646  1010 net.cpp:165] Memory required for data: 1039083552
I0207 01:54:52.276657  1010 layer_factory.hpp:76] Creating layer relu1_2
I0207 01:54:52.276664  1010 net.cpp:106] Creating Layer relu1_2
I0207 01:54:52.276669  1010 net.cpp:454] relu1_2 <- conv1_2
I0207 01:54:52.276674  1010 net.cpp:397] relu1_2 -> conv1_2 (in-place)
I0207 01:54:52.277010  1010 net.cpp:150] Setting up relu1_2
I0207 01:54:52.277027  1010 net.cpp:157] Top shape: 4 64 576 576 (84934656)
I0207 01:54:52.277030  1010 net.cpp:165] Memory required for data: 1378822176
I0207 01:54:52.277034  1010 layer_factory.hpp:76] Creating layer pool1
I0207 01:54:52.277041  1010 net.cpp:106] Creating Layer pool1
I0207 01:54:52.277045  1010 net.cpp:454] pool1 <- conv1_2
I0207 01:54:52.277050  1010 net.cpp:411] pool1 -> pool1
I0207 01:54:52.277287  1010 net.cpp:150] Setting up pool1
I0207 01:54:52.277299  1010 net.cpp:157] Top shape: 4 64 288 288 (21233664)
I0207 01:54:52.277302  1010 net.cpp:165] Memory required for data: 1463756832
I0207 01:54:52.277305  1010 layer_factory.hpp:76] Creating layer conv2_1
I0207 01:54:52.277314  1010 net.cpp:106] Creating Layer conv2_1
I0207 01:54:52.277318  1010 net.cpp:454] conv2_1 <- pool1
I0207 01:54:52.277323  1010 net.cpp:411] conv2_1 -> conv2_1
I0207 01:54:52.279206  1010 net.cpp:150] Setting up conv2_1
I0207 01:54:52.279222  1010 net.cpp:157] Top shape: 4 128 288 288 (42467328)
I0207 01:54:52.279225  1010 net.cpp:165] Memory required for data: 1633626144
I0207 01:54:52.279238  1010 layer_factory.hpp:76] Creating layer relu2_1
I0207 01:54:52.279245  1010 net.cpp:106] Creating Layer relu2_1
I0207 01:54:52.279248  1010 net.cpp:454] relu2_1 <- conv2_1
I0207 01:54:52.279255  1010 net.cpp:397] relu2_1 -> conv2_1 (in-place)
I0207 01:54:52.279600  1010 net.cpp:150] Setting up relu2_1
I0207 01:54:52.279614  1010 net.cpp:157] Top shape: 4 128 288 288 (42467328)
I0207 01:54:52.279618  1010 net.cpp:165] Memory required for data: 1803495456
I0207 01:54:52.279620  1010 layer_factory.hpp:76] Creating layer conv2_2
I0207 01:54:52.279629  1010 net.cpp:106] Creating Layer conv2_2
I0207 01:54:52.279633  1010 net.cpp:454] conv2_2 <- conv2_1
I0207 01:54:52.279639  1010 net.cpp:411] conv2_2 -> conv2_2
I0207 01:54:52.281447  1010 net.cpp:150] Setting up conv2_2
I0207 01:54:52.281463  1010 net.cpp:157] Top shape: 4 128 288 288 (42467328)
I0207 01:54:52.281466  1010 net.cpp:165] Memory required for data: 1973364768
I0207 01:54:52.281473  1010 layer_factory.hpp:76] Creating layer relu2_2
I0207 01:54:52.281484  1010 net.cpp:106] Creating Layer relu2_2
I0207 01:54:52.281491  1010 net.cpp:454] relu2_2 <- conv2_2
I0207 01:54:52.281496  1010 net.cpp:397] relu2_2 -> conv2_2 (in-place)
I0207 01:54:52.281836  1010 net.cpp:150] Setting up relu2_2
I0207 01:54:52.281852  1010 net.cpp:157] Top shape: 4 128 288 288 (42467328)
I0207 01:54:52.281854  1010 net.cpp:165] Memory required for data: 2143234080
I0207 01:54:52.281858  1010 layer_factory.hpp:76] Creating layer pool2
I0207 01:54:52.281864  1010 net.cpp:106] Creating Layer pool2
I0207 01:54:52.281868  1010 net.cpp:454] pool2 <- conv2_2
I0207 01:54:52.281873  1010 net.cpp:411] pool2 -> pool2
I0207 01:54:52.282091  1010 net.cpp:150] Setting up pool2
I0207 01:54:52.282104  1010 net.cpp:157] Top shape: 4 128 144 144 (10616832)
I0207 01:54:52.282106  1010 net.cpp:165] Memory required for data: 2185701408
I0207 01:54:52.282109  1010 layer_factory.hpp:76] Creating layer conv3_1
I0207 01:54:52.282119  1010 net.cpp:106] Creating Layer conv3_1
I0207 01:54:52.282121  1010 net.cpp:454] conv3_1 <- pool2
I0207 01:54:52.282127  1010 net.cpp:411] conv3_1 -> conv3_1
I0207 01:54:52.284262  1010 net.cpp:150] Setting up conv3_1
I0207 01:54:52.284278  1010 net.cpp:157] Top shape: 4 256 144 144 (21233664)
I0207 01:54:52.284282  1010 net.cpp:165] Memory required for data: 2270636064
I0207 01:54:52.284292  1010 layer_factory.hpp:76] Creating layer relu3_1
I0207 01:54:52.284301  1010 net.cpp:106] Creating Layer relu3_1
I0207 01:54:52.284306  1010 net.cpp:454] relu3_1 <- conv3_1
I0207 01:54:52.284310  1010 net.cpp:397] relu3_1 -> conv3_1 (in-place)
I0207 01:54:52.284648  1010 net.cpp:150] Setting up relu3_1
I0207 01:54:52.284662  1010 net.cpp:157] Top shape: 4 256 144 144 (21233664)
I0207 01:54:52.284664  1010 net.cpp:165] Memory required for data: 2355570720
I0207 01:54:52.284668  1010 layer_factory.hpp:76] Creating layer conv3_2
I0207 01:54:52.284677  1010 net.cpp:106] Creating Layer conv3_2
I0207 01:54:52.284682  1010 net.cpp:454] conv3_2 <- conv3_1
I0207 01:54:52.284688  1010 net.cpp:411] conv3_2 -> conv3_2
I0207 01:54:52.288738  1010 net.cpp:150] Setting up conv3_2
I0207 01:54:52.288754  1010 net.cpp:157] Top shape: 4 256 144 144 (21233664)
I0207 01:54:52.288758  1010 net.cpp:165] Memory required for data: 2440505376
I0207 01:54:52.288765  1010 layer_factory.hpp:76] Creating layer relu3_2
I0207 01:54:52.288774  1010 net.cpp:106] Creating Layer relu3_2
I0207 01:54:52.288779  1010 net.cpp:454] relu3_2 <- conv3_2
I0207 01:54:52.288784  1010 net.cpp:397] relu3_2 -> conv3_2 (in-place)
I0207 01:54:52.288982  1010 net.cpp:150] Setting up relu3_2
I0207 01:54:52.288993  1010 net.cpp:157] Top shape: 4 256 144 144 (21233664)
I0207 01:54:52.288996  1010 net.cpp:165] Memory required for data: 2525440032
I0207 01:54:52.289000  1010 layer_factory.hpp:76] Creating layer conv3_3
I0207 01:54:52.289008  1010 net.cpp:106] Creating Layer conv3_3
I0207 01:54:52.289012  1010 net.cpp:454] conv3_3 <- conv3_2
I0207 01:54:52.289017  1010 net.cpp:411] conv3_3 -> conv3_3
I0207 01:54:52.291813  1010 net.cpp:150] Setting up conv3_3
I0207 01:54:52.291831  1010 net.cpp:157] Top shape: 4 256 144 144 (21233664)
I0207 01:54:52.291833  1010 net.cpp:165] Memory required for data: 2610374688
I0207 01:54:52.291841  1010 layer_factory.hpp:76] Creating layer relu3_3
I0207 01:54:52.291849  1010 net.cpp:106] Creating Layer relu3_3
I0207 01:54:52.291853  1010 net.cpp:454] relu3_3 <- conv3_3
I0207 01:54:52.291858  1010 net.cpp:397] relu3_3 -> conv3_3 (in-place)
I0207 01:54:52.292047  1010 net.cpp:150] Setting up relu3_3
I0207 01:54:52.292059  1010 net.cpp:157] Top shape: 4 256 144 144 (21233664)
I0207 01:54:52.292062  1010 net.cpp:165] Memory required for data: 2695309344
I0207 01:54:52.292065  1010 layer_factory.hpp:76] Creating layer pool3
I0207 01:54:52.292073  1010 net.cpp:106] Creating Layer pool3
I0207 01:54:52.292078  1010 net.cpp:454] pool3 <- conv3_3
I0207 01:54:52.292085  1010 net.cpp:411] pool3 -> pool3
I0207 01:54:52.292465  1010 net.cpp:150] Setting up pool3
I0207 01:54:52.292481  1010 net.cpp:157] Top shape: 4 256 72 72 (5308416)
I0207 01:54:52.292485  1010 net.cpp:165] Memory required for data: 2716543008
I0207 01:54:52.292489  1010 layer_factory.hpp:76] Creating layer conv4_1
I0207 01:54:52.292497  1010 net.cpp:106] Creating Layer conv4_1
I0207 01:54:52.292501  1010 net.cpp:454] conv4_1 <- pool3
I0207 01:54:52.292506  1010 net.cpp:411] conv4_1 -> conv4_1
I0207 01:54:52.297336  1010 net.cpp:150] Setting up conv4_1
I0207 01:54:52.297353  1010 net.cpp:157] Top shape: 4 512 72 72 (10616832)
I0207 01:54:52.297356  1010 net.cpp:165] Memory required for data: 2759010336
I0207 01:54:52.297363  1010 layer_factory.hpp:76] Creating layer relu4_1
I0207 01:54:52.297370  1010 net.cpp:106] Creating Layer relu4_1
I0207 01:54:52.297374  1010 net.cpp:454] relu4_1 <- conv4_1
I0207 01:54:52.297381  1010 net.cpp:397] relu4_1 -> conv4_1 (in-place)
I0207 01:54:52.297566  1010 net.cpp:150] Setting up relu4_1
I0207 01:54:52.297577  1010 net.cpp:157] Top shape: 4 512 72 72 (10616832)
I0207 01:54:52.297580  1010 net.cpp:165] Memory required for data: 2801477664
I0207 01:54:52.297583  1010 layer_factory.hpp:76] Creating layer conv4_2
I0207 01:54:52.297592  1010 net.cpp:106] Creating Layer conv4_2
I0207 01:54:52.297596  1010 net.cpp:454] conv4_2 <- conv4_1
I0207 01:54:52.297603  1010 net.cpp:411] conv4_2 -> conv4_2
I0207 01:54:52.305048  1010 net.cpp:150] Setting up conv4_2
I0207 01:54:52.305068  1010 net.cpp:157] Top shape: 4 512 72 72 (10616832)
I0207 01:54:52.305076  1010 net.cpp:165] Memory required for data: 2843944992
I0207 01:54:52.305097  1010 layer_factory.hpp:76] Creating layer relu4_2
I0207 01:54:52.305109  1010 net.cpp:106] Creating Layer relu4_2
I0207 01:54:52.305115  1010 net.cpp:454] relu4_2 <- conv4_2
I0207 01:54:52.305130  1010 net.cpp:397] relu4_2 -> conv4_2 (in-place)
I0207 01:54:52.305572  1010 net.cpp:150] Setting up relu4_2
I0207 01:54:52.305588  1010 net.cpp:157] Top shape: 4 512 72 72 (10616832)
I0207 01:54:52.305594  1010 net.cpp:165] Memory required for data: 2886412320
I0207 01:54:52.305601  1010 layer_factory.hpp:76] Creating layer conv4_3
I0207 01:54:52.305616  1010 net.cpp:106] Creating Layer conv4_3
I0207 01:54:52.305624  1010 net.cpp:454] conv4_3 <- conv4_2
I0207 01:54:52.305639  1010 net.cpp:411] conv4_3 -> conv4_3
I0207 01:54:52.312607  1010 net.cpp:150] Setting up conv4_3
I0207 01:54:52.312626  1010 net.cpp:157] Top shape: 4 512 72 72 (10616832)
I0207 01:54:52.312629  1010 net.cpp:165] Memory required for data: 2928879648
I0207 01:54:52.312638  1010 layer_factory.hpp:76] Creating layer relu4_3
I0207 01:54:52.312646  1010 net.cpp:106] Creating Layer relu4_3
I0207 01:54:52.312651  1010 net.cpp:454] relu4_3 <- conv4_3
I0207 01:54:52.312656  1010 net.cpp:397] relu4_3 -> conv4_3 (in-place)
I0207 01:54:52.312999  1010 net.cpp:150] Setting up relu4_3
I0207 01:54:52.313014  1010 net.cpp:157] Top shape: 4 512 72 72 (10616832)
I0207 01:54:52.313016  1010 net.cpp:165] Memory required for data: 2971346976
I0207 01:54:52.313020  1010 layer_factory.hpp:76] Creating layer conv4_3_relu4_3_0_split
I0207 01:54:52.313029  1010 net.cpp:106] Creating Layer conv4_3_relu4_3_0_split
I0207 01:54:52.313032  1010 net.cpp:454] conv4_3_relu4_3_0_split <- conv4_3
I0207 01:54:52.313038  1010 net.cpp:411] conv4_3_relu4_3_0_split -> conv4_3_relu4_3_0_split_0
I0207 01:54:52.313047  1010 net.cpp:411] conv4_3_relu4_3_0_split -> conv4_3_relu4_3_0_split_1
I0207 01:54:52.313096  1010 net.cpp:150] Setting up conv4_3_relu4_3_0_split
I0207 01:54:52.313102  1010 net.cpp:157] Top shape: 4 512 72 72 (10616832)
I0207 01:54:52.313105  1010 net.cpp:157] Top shape: 4 512 72 72 (10616832)
I0207 01:54:52.313107  1010 net.cpp:165] Memory required for data: 3056281632
I0207 01:54:52.313110  1010 layer_factory.hpp:76] Creating layer loss1_conv1
I0207 01:54:52.313127  1010 net.cpp:106] Creating Layer loss1_conv1
I0207 01:54:52.313130  1010 net.cpp:454] loss1_conv1 <- conv4_3_relu4_3_0_split_0
I0207 01:54:52.313136  1010 net.cpp:411] loss1_conv1 -> loss1_conv1
I0207 01:54:52.404814  1010 net.cpp:150] Setting up loss1_conv1
I0207 01:54:52.404834  1010 net.cpp:157] Top shape: 4 512 72 72 (10616832)
I0207 01:54:52.404839  1010 net.cpp:165] Memory required for data: 3098748960
I0207 01:54:52.404845  1010 layer_factory.hpp:76] Creating layer loss_relu1
I0207 01:54:52.404853  1010 net.cpp:106] Creating Layer loss_relu1
I0207 01:54:52.404857  1010 net.cpp:454] loss_relu1 <- loss1_conv1
I0207 01:54:52.404870  1010 net.cpp:397] loss_relu1 -> loss1_conv1 (in-place)
I0207 01:54:52.405059  1010 net.cpp:150] Setting up loss_relu1
I0207 01:54:52.405071  1010 net.cpp:157] Top shape: 4 512 72 72 (10616832)
I0207 01:54:52.405073  1010 net.cpp:165] Memory required for data: 3141216288
I0207 01:54:52.405076  1010 layer_factory.hpp:76] Creating layer loss1_conv1_loss_relu1_0_split
I0207 01:54:52.405084  1010 net.cpp:106] Creating Layer loss1_conv1_loss_relu1_0_split
I0207 01:54:52.405088  1010 net.cpp:454] loss1_conv1_loss_relu1_0_split <- loss1_conv1
I0207 01:54:52.405093  1010 net.cpp:411] loss1_conv1_loss_relu1_0_split -> loss1_conv1_loss_relu1_0_split_0
I0207 01:54:52.405100  1010 net.cpp:411] loss1_conv1_loss_relu1_0_split -> loss1_conv1_loss_relu1_0_split_1
I0207 01:54:52.405148  1010 net.cpp:150] Setting up loss1_conv1_loss_relu1_0_split
I0207 01:54:52.405153  1010 net.cpp:157] Top shape: 4 512 72 72 (10616832)
I0207 01:54:52.405158  1010 net.cpp:157] Top shape: 4 512 72 72 (10616832)
I0207 01:54:52.405159  1010 net.cpp:165] Memory required for data: 3226150944
I0207 01:54:52.405163  1010 layer_factory.hpp:76] Creating layer LFCN_1_3x5
I0207 01:54:52.405172  1010 net.cpp:106] Creating Layer LFCN_1_3x5
I0207 01:54:52.405176  1010 net.cpp:454] LFCN_1_3x5 <- loss1_conv1_loss_relu1_0_split_0
I0207 01:54:52.405184  1010 net.cpp:411] LFCN_1_3x5 -> LFCN_1_3x5
I0207 01:54:52.408252  1010 net.cpp:150] Setting up LFCN_1_3x5
I0207 01:54:52.408268  1010 net.cpp:157] Top shape: 4 6 72 72 (124416)
I0207 01:54:52.408272  1010 net.cpp:165] Memory required for data: 3226648608
I0207 01:54:52.408278  1010 layer_factory.hpp:76] Creating layer LFCN_1_3x5_LFCN_1_3x5_0_split
I0207 01:54:52.408287  1010 net.cpp:106] Creating Layer LFCN_1_3x5_LFCN_1_3x5_0_split
I0207 01:54:52.408290  1010 net.cpp:454] LFCN_1_3x5_LFCN_1_3x5_0_split <- LFCN_1_3x5
I0207 01:54:52.408296  1010 net.cpp:411] LFCN_1_3x5_LFCN_1_3x5_0_split -> LFCN_1_3x5_LFCN_1_3x5_0_split_0
I0207 01:54:52.408303  1010 net.cpp:411] LFCN_1_3x5_LFCN_1_3x5_0_split -> LFCN_1_3x5_LFCN_1_3x5_0_split_1
I0207 01:54:52.408352  1010 net.cpp:150] Setting up LFCN_1_3x5_LFCN_1_3x5_0_split
I0207 01:54:52.408359  1010 net.cpp:157] Top shape: 4 6 72 72 (124416)
I0207 01:54:52.408362  1010 net.cpp:157] Top shape: 4 6 72 72 (124416)
I0207 01:54:52.408365  1010 net.cpp:165] Memory required for data: 3227643936
I0207 01:54:52.408367  1010 layer_factory.hpp:76] Creating layer detection_loss_1_3x5
I0207 01:54:52.408376  1010 net.cpp:106] Creating Layer detection_loss_1_3x5
I0207 01:54:52.408380  1010 net.cpp:454] detection_loss_1_3x5 <- LFCN_1_3x5_LFCN_1_3x5_0_split_0
I0207 01:54:52.408385  1010 net.cpp:454] detection_loss_1_3x5 <- label_1_3x5_data_1_split_0
I0207 01:54:52.408390  1010 net.cpp:411] detection_loss_1_3x5 -> loss_1_3x5
I0207 01:54:52.408403  1010 layer_factory.hpp:76] Creating layer detection_loss_1_3x5
I0207 01:54:52.409001  1010 net.cpp:150] Setting up detection_loss_1_3x5
I0207 01:54:52.409015  1010 net.cpp:157] Top shape: 1 1 1 2 (2)
I0207 01:54:52.409018  1010 net.cpp:160]     with loss weight 0.9
I0207 01:54:52.409044  1010 net.cpp:165] Memory required for data: 3227643944
I0207 01:54:52.409049  1010 layer_factory.hpp:76] Creating layer detection_accuracy_1_3x5
I0207 01:54:52.409055  1010 net.cpp:106] Creating Layer detection_accuracy_1_3x5
I0207 01:54:52.409060  1010 net.cpp:454] detection_accuracy_1_3x5 <- LFCN_1_3x5_LFCN_1_3x5_0_split_1
I0207 01:54:52.409065  1010 net.cpp:454] detection_accuracy_1_3x5 <- label_1_3x5_data_1_split_1
I0207 01:54:52.409072  1010 net.cpp:411] detection_accuracy_1_3x5 -> accuracy_1_3x5
I0207 01:54:52.409080  1010 net.cpp:411] detection_accuracy_1_3x5 -> boxiou_1_3x5
I0207 01:54:52.409127  1010 net.cpp:150] Setting up detection_accuracy_1_3x5
I0207 01:54:52.409135  1010 net.cpp:157] Top shape: 1 1 1 2 (2)
I0207 01:54:52.409139  1010 net.cpp:157] Top shape: 1 1 1 1 (1)
I0207 01:54:52.409142  1010 net.cpp:165] Memory required for data: 3227643956
I0207 01:54:52.409144  1010 layer_factory.hpp:76] Creating layer LFCN_1_5x7
I0207 01:54:52.409152  1010 net.cpp:106] Creating Layer LFCN_1_5x7
I0207 01:54:52.409155  1010 net.cpp:454] LFCN_1_5x7 <- loss1_conv1_loss_relu1_0_split_1
I0207 01:54:52.409162  1010 net.cpp:411] LFCN_1_5x7 -> LFCN_1_5x7
I0207 01:54:52.414959  1010 net.cpp:150] Setting up LFCN_1_5x7
I0207 01:54:52.414975  1010 net.cpp:157] Top shape: 4 6 72 72 (124416)
I0207 01:54:52.414979  1010 net.cpp:165] Memory required for data: 3228141620
I0207 01:54:52.414988  1010 layer_factory.hpp:76] Creating layer LFCN_1_5x7_LFCN_1_5x7_0_split
I0207 01:54:52.414995  1010 net.cpp:106] Creating Layer LFCN_1_5x7_LFCN_1_5x7_0_split
I0207 01:54:52.414999  1010 net.cpp:454] LFCN_1_5x7_LFCN_1_5x7_0_split <- LFCN_1_5x7
I0207 01:54:52.415005  1010 net.cpp:411] LFCN_1_5x7_LFCN_1_5x7_0_split -> LFCN_1_5x7_LFCN_1_5x7_0_split_0
I0207 01:54:52.415012  1010 net.cpp:411] LFCN_1_5x7_LFCN_1_5x7_0_split -> LFCN_1_5x7_LFCN_1_5x7_0_split_1
I0207 01:54:52.415063  1010 net.cpp:150] Setting up LFCN_1_5x7_LFCN_1_5x7_0_split
I0207 01:54:52.415069  1010 net.cpp:157] Top shape: 4 6 72 72 (124416)
I0207 01:54:52.415072  1010 net.cpp:157] Top shape: 4 6 72 72 (124416)
I0207 01:54:52.415076  1010 net.cpp:165] Memory required for data: 3229136948
I0207 01:54:52.415078  1010 layer_factory.hpp:76] Creating layer detection_loss_1_5x7
I0207 01:54:52.415086  1010 net.cpp:106] Creating Layer detection_loss_1_5x7
I0207 01:54:52.415091  1010 net.cpp:454] detection_loss_1_5x7 <- LFCN_1_5x7_LFCN_1_5x7_0_split_0
I0207 01:54:52.415096  1010 net.cpp:454] detection_loss_1_5x7 <- label_1_5x7_data_2_split_0
I0207 01:54:52.415101  1010 net.cpp:411] detection_loss_1_5x7 -> loss_1_5x7
I0207 01:54:52.415107  1010 layer_factory.hpp:76] Creating layer detection_loss_1_5x7
I0207 01:54:52.415669  1010 net.cpp:150] Setting up detection_loss_1_5x7
I0207 01:54:52.415683  1010 net.cpp:157] Top shape: 1 1 1 2 (2)
I0207 01:54:52.415686  1010 net.cpp:160]     with loss weight 0.9
I0207 01:54:52.415694  1010 net.cpp:165] Memory required for data: 3229136956
I0207 01:54:52.415698  1010 layer_factory.hpp:76] Creating layer detection_accuracy_1_5x7
I0207 01:54:52.415704  1010 net.cpp:106] Creating Layer detection_accuracy_1_5x7
I0207 01:54:52.415709  1010 net.cpp:454] detection_accuracy_1_5x7 <- LFCN_1_5x7_LFCN_1_5x7_0_split_1
I0207 01:54:52.415714  1010 net.cpp:454] detection_accuracy_1_5x7 <- label_1_5x7_data_2_split_1
I0207 01:54:52.415719  1010 net.cpp:411] detection_accuracy_1_5x7 -> accuracy_1_5x7
I0207 01:54:52.415731  1010 net.cpp:411] detection_accuracy_1_5x7 -> boxiou_1_5x7
I0207 01:54:52.415774  1010 net.cpp:150] Setting up detection_accuracy_1_5x7
I0207 01:54:52.415781  1010 net.cpp:157] Top shape: 1 1 1 2 (2)
I0207 01:54:52.415784  1010 net.cpp:157] Top shape: 1 1 1 1 (1)
I0207 01:54:52.415786  1010 net.cpp:165] Memory required for data: 3229136968
I0207 01:54:52.415789  1010 layer_factory.hpp:76] Creating layer pool4
I0207 01:54:52.415801  1010 net.cpp:106] Creating Layer pool4
I0207 01:54:52.415804  1010 net.cpp:454] pool4 <- conv4_3_relu4_3_0_split_1
I0207 01:54:52.415809  1010 net.cpp:411] pool4 -> pool4
I0207 01:54:52.416200  1010 net.cpp:150] Setting up pool4
I0207 01:54:52.416214  1010 net.cpp:157] Top shape: 4 512 36 36 (2654208)
I0207 01:54:52.416218  1010 net.cpp:165] Memory required for data: 3239753800
I0207 01:54:52.416221  1010 layer_factory.hpp:76] Creating layer conv5_1
I0207 01:54:52.416230  1010 net.cpp:106] Creating Layer conv5_1
I0207 01:54:52.416234  1010 net.cpp:454] conv5_1 <- pool4
I0207 01:54:52.416241  1010 net.cpp:411] conv5_1 -> conv5_1
I0207 01:54:52.423166  1010 net.cpp:150] Setting up conv5_1
I0207 01:54:52.423184  1010 net.cpp:157] Top shape: 4 512 36 36 (2654208)
I0207 01:54:52.423188  1010 net.cpp:165] Memory required for data: 3250370632
I0207 01:54:52.423195  1010 layer_factory.hpp:76] Creating layer relu5_1
I0207 01:54:52.423205  1010 net.cpp:106] Creating Layer relu5_1
I0207 01:54:52.423210  1010 net.cpp:454] relu5_1 <- conv5_1
I0207 01:54:52.423215  1010 net.cpp:397] relu5_1 -> conv5_1 (in-place)
I0207 01:54:52.423565  1010 net.cpp:150] Setting up relu5_1
I0207 01:54:52.423578  1010 net.cpp:157] Top shape: 4 512 36 36 (2654208)
I0207 01:54:52.423581  1010 net.cpp:165] Memory required for data: 3260987464
I0207 01:54:52.423585  1010 layer_factory.hpp:76] Creating layer conv5_2
I0207 01:54:52.423594  1010 net.cpp:106] Creating Layer conv5_2
I0207 01:54:52.423599  1010 net.cpp:454] conv5_2 <- conv5_1
I0207 01:54:52.423605  1010 net.cpp:411] conv5_2 -> conv5_2
I0207 01:54:52.430654  1010 net.cpp:150] Setting up conv5_2
I0207 01:54:52.430673  1010 net.cpp:157] Top shape: 4 512 36 36 (2654208)
I0207 01:54:52.430676  1010 net.cpp:165] Memory required for data: 3271604296
I0207 01:54:52.430683  1010 layer_factory.hpp:76] Creating layer relu5_2
I0207 01:54:52.430693  1010 net.cpp:106] Creating Layer relu5_2
I0207 01:54:52.430697  1010 net.cpp:454] relu5_2 <- conv5_2
I0207 01:54:52.430703  1010 net.cpp:397] relu5_2 -> conv5_2 (in-place)
I0207 01:54:52.430897  1010 net.cpp:150] Setting up relu5_2
I0207 01:54:52.430909  1010 net.cpp:157] Top shape: 4 512 36 36 (2654208)
I0207 01:54:52.430912  1010 net.cpp:165] Memory required for data: 3282221128
I0207 01:54:52.430915  1010 layer_factory.hpp:76] Creating layer conv5_3
I0207 01:54:52.430929  1010 net.cpp:106] Creating Layer conv5_3
I0207 01:54:52.430933  1010 net.cpp:454] conv5_3 <- conv5_2
I0207 01:54:52.430939  1010 net.cpp:411] conv5_3 -> conv5_3
I0207 01:54:52.438151  1010 net.cpp:150] Setting up conv5_3
I0207 01:54:52.438170  1010 net.cpp:157] Top shape: 4 512 36 36 (2654208)
I0207 01:54:52.438174  1010 net.cpp:165] Memory required for data: 3292837960
I0207 01:54:52.438181  1010 layer_factory.hpp:76] Creating layer relu5_3
I0207 01:54:52.438191  1010 net.cpp:106] Creating Layer relu5_3
I0207 01:54:52.438195  1010 net.cpp:454] relu5_3 <- conv5_3
I0207 01:54:52.438201  1010 net.cpp:397] relu5_3 -> conv5_3 (in-place)
I0207 01:54:52.438547  1010 net.cpp:150] Setting up relu5_3
I0207 01:54:52.438563  1010 net.cpp:157] Top shape: 4 512 36 36 (2654208)
I0207 01:54:52.438567  1010 net.cpp:165] Memory required for data: 3303454792
I0207 01:54:52.438571  1010 layer_factory.hpp:76] Creating layer conv5_3_relu5_3_0_split
I0207 01:54:52.438578  1010 net.cpp:106] Creating Layer conv5_3_relu5_3_0_split
I0207 01:54:52.438581  1010 net.cpp:454] conv5_3_relu5_3_0_split <- conv5_3
I0207 01:54:52.438587  1010 net.cpp:411] conv5_3_relu5_3_0_split -> conv5_3_relu5_3_0_split_0
I0207 01:54:52.438594  1010 net.cpp:411] conv5_3_relu5_3_0_split -> conv5_3_relu5_3_0_split_1
I0207 01:54:52.438602  1010 net.cpp:411] conv5_3_relu5_3_0_split -> conv5_3_relu5_3_0_split_2
I0207 01:54:52.438668  1010 net.cpp:150] Setting up conv5_3_relu5_3_0_split
I0207 01:54:52.438675  1010 net.cpp:157] Top shape: 4 512 36 36 (2654208)
I0207 01:54:52.438678  1010 net.cpp:157] Top shape: 4 512 36 36 (2654208)
I0207 01:54:52.438683  1010 net.cpp:157] Top shape: 4 512 36 36 (2654208)
I0207 01:54:52.438684  1010 net.cpp:165] Memory required for data: 3335305288
I0207 01:54:52.438688  1010 layer_factory.hpp:76] Creating layer LFCN_2_3x5
I0207 01:54:52.438697  1010 net.cpp:106] Creating Layer LFCN_2_3x5
I0207 01:54:52.438701  1010 net.cpp:454] LFCN_2_3x5 <- conv5_3_relu5_3_0_split_0
I0207 01:54:52.438709  1010 net.cpp:411] LFCN_2_3x5 -> LFCN_2_3x5
I0207 01:54:52.441469  1010 net.cpp:150] Setting up LFCN_2_3x5
I0207 01:54:52.441485  1010 net.cpp:157] Top shape: 4 6 36 36 (31104)
I0207 01:54:52.441488  1010 net.cpp:165] Memory required for data: 3335429704
I0207 01:54:52.441505  1010 layer_factory.hpp:76] Creating layer LFCN_2_3x5_LFCN_2_3x5_0_split
I0207 01:54:52.441514  1010 net.cpp:106] Creating Layer LFCN_2_3x5_LFCN_2_3x5_0_split
I0207 01:54:52.441517  1010 net.cpp:454] LFCN_2_3x5_LFCN_2_3x5_0_split <- LFCN_2_3x5
I0207 01:54:52.441529  1010 net.cpp:411] LFCN_2_3x5_LFCN_2_3x5_0_split -> LFCN_2_3x5_LFCN_2_3x5_0_split_0
I0207 01:54:52.441536  1010 net.cpp:411] LFCN_2_3x5_LFCN_2_3x5_0_split -> LFCN_2_3x5_LFCN_2_3x5_0_split_1
I0207 01:54:52.441586  1010 net.cpp:150] Setting up LFCN_2_3x5_LFCN_2_3x5_0_split
I0207 01:54:52.441591  1010 net.cpp:157] Top shape: 4 6 36 36 (31104)
I0207 01:54:52.441596  1010 net.cpp:157] Top shape: 4 6 36 36 (31104)
I0207 01:54:52.441597  1010 net.cpp:165] Memory required for data: 3335678536
I0207 01:54:52.441601  1010 layer_factory.hpp:76] Creating layer detection_loss_2_3x5
I0207 01:54:52.441609  1010 net.cpp:106] Creating Layer detection_loss_2_3x5
I0207 01:54:52.441612  1010 net.cpp:454] detection_loss_2_3x5 <- LFCN_2_3x5_LFCN_2_3x5_0_split_0
I0207 01:54:52.441617  1010 net.cpp:454] detection_loss_2_3x5 <- label_2_3x5_data_3_split_0
I0207 01:54:52.441625  1010 net.cpp:411] detection_loss_2_3x5 -> loss_2_3x5
I0207 01:54:52.441635  1010 layer_factory.hpp:76] Creating layer detection_loss_2_3x5
I0207 01:54:52.442203  1010 net.cpp:150] Setting up detection_loss_2_3x5
I0207 01:54:52.442217  1010 net.cpp:157] Top shape: 1 1 1 2 (2)
I0207 01:54:52.442220  1010 net.cpp:160]     with loss weight 1
I0207 01:54:52.442235  1010 net.cpp:165] Memory required for data: 3335678544
I0207 01:54:52.442239  1010 layer_factory.hpp:76] Creating layer detection_accuracy_2_3x5
I0207 01:54:52.442250  1010 net.cpp:106] Creating Layer detection_accuracy_2_3x5
I0207 01:54:52.442253  1010 net.cpp:454] detection_accuracy_2_3x5 <- LFCN_2_3x5_LFCN_2_3x5_0_split_1
I0207 01:54:52.442260  1010 net.cpp:454] detection_accuracy_2_3x5 <- label_2_3x5_data_3_split_1
I0207 01:54:52.442265  1010 net.cpp:411] detection_accuracy_2_3x5 -> accuracy_2_3x5
I0207 01:54:52.442273  1010 net.cpp:411] detection_accuracy_2_3x5 -> boxiou_2_3x5
I0207 01:54:52.442329  1010 net.cpp:150] Setting up detection_accuracy_2_3x5
I0207 01:54:52.442335  1010 net.cpp:157] Top shape: 1 1 1 2 (2)
I0207 01:54:52.442339  1010 net.cpp:157] Top shape: 1 1 1 1 (1)
I0207 01:54:52.442342  1010 net.cpp:165] Memory required for data: 3335678556
I0207 01:54:52.442344  1010 layer_factory.hpp:76] Creating layer LFCN_2_5x7
I0207 01:54:52.442358  1010 net.cpp:106] Creating Layer LFCN_2_5x7
I0207 01:54:52.442361  1010 net.cpp:454] LFCN_2_5x7 <- conv5_3_relu5_3_0_split_1
I0207 01:54:52.442369  1010 net.cpp:411] LFCN_2_5x7 -> LFCN_2_5x7
I0207 01:54:52.447520  1010 net.cpp:150] Setting up LFCN_2_5x7
I0207 01:54:52.447536  1010 net.cpp:157] Top shape: 4 6 36 36 (31104)
I0207 01:54:52.447540  1010 net.cpp:165] Memory required for data: 3335802972
I0207 01:54:52.447546  1010 layer_factory.hpp:76] Creating layer LFCN_2_5x7_LFCN_2_5x7_0_split
I0207 01:54:52.447554  1010 net.cpp:106] Creating Layer LFCN_2_5x7_LFCN_2_5x7_0_split
I0207 01:54:52.447558  1010 net.cpp:454] LFCN_2_5x7_LFCN_2_5x7_0_split <- LFCN_2_5x7
I0207 01:54:52.447564  1010 net.cpp:411] LFCN_2_5x7_LFCN_2_5x7_0_split -> LFCN_2_5x7_LFCN_2_5x7_0_split_0
I0207 01:54:52.447571  1010 net.cpp:411] LFCN_2_5x7_LFCN_2_5x7_0_split -> LFCN_2_5x7_LFCN_2_5x7_0_split_1
I0207 01:54:52.447621  1010 net.cpp:150] Setting up LFCN_2_5x7_LFCN_2_5x7_0_split
I0207 01:54:52.447628  1010 net.cpp:157] Top shape: 4 6 36 36 (31104)
I0207 01:54:52.447631  1010 net.cpp:157] Top shape: 4 6 36 36 (31104)
I0207 01:54:52.447634  1010 net.cpp:165] Memory required for data: 3336051804
I0207 01:54:52.447638  1010 layer_factory.hpp:76] Creating layer detection_loss_2_5x7
I0207 01:54:52.447643  1010 net.cpp:106] Creating Layer detection_loss_2_5x7
I0207 01:54:52.447646  1010 net.cpp:454] detection_loss_2_5x7 <- LFCN_2_5x7_LFCN_2_5x7_0_split_0
I0207 01:54:52.447651  1010 net.cpp:454] detection_loss_2_5x7 <- label_2_5x7_data_4_split_0
I0207 01:54:52.447659  1010 net.cpp:411] detection_loss_2_5x7 -> loss_2_5x7
I0207 01:54:52.447666  1010 layer_factory.hpp:76] Creating layer detection_loss_2_5x7
I0207 01:54:52.448060  1010 net.cpp:150] Setting up detection_loss_2_5x7
I0207 01:54:52.448076  1010 net.cpp:157] Top shape: 1 1 1 2 (2)
I0207 01:54:52.448081  1010 net.cpp:160]     with loss weight 1
I0207 01:54:52.448098  1010 net.cpp:165] Memory required for data: 3336051812
I0207 01:54:52.448104  1010 layer_factory.hpp:76] Creating layer detection_accuracy_2_5x7
I0207 01:54:52.448112  1010 net.cpp:106] Creating Layer detection_accuracy_2_5x7
I0207 01:54:52.448117  1010 net.cpp:454] detection_accuracy_2_5x7 <- LFCN_2_5x7_LFCN_2_5x7_0_split_1
I0207 01:54:52.448122  1010 net.cpp:454] detection_accuracy_2_5x7 <- label_2_5x7_data_4_split_1
I0207 01:54:52.448129  1010 net.cpp:411] detection_accuracy_2_5x7 -> accuracy_2_5x7
I0207 01:54:52.448137  1010 net.cpp:411] detection_accuracy_2_5x7 -> boxiou_2_5x7
I0207 01:54:52.448185  1010 net.cpp:150] Setting up detection_accuracy_2_5x7
I0207 01:54:52.448194  1010 net.cpp:157] Top shape: 1 1 1 2 (2)
I0207 01:54:52.448197  1010 net.cpp:157] Top shape: 1 1 1 1 (1)
I0207 01:54:52.448200  1010 net.cpp:165] Memory required for data: 3336051824
I0207 01:54:52.448204  1010 layer_factory.hpp:76] Creating layer pool5
I0207 01:54:52.448210  1010 net.cpp:106] Creating Layer pool5
I0207 01:54:52.448213  1010 net.cpp:454] pool5 <- conv5_3_relu5_3_0_split_2
I0207 01:54:52.448218  1010 net.cpp:411] pool5 -> pool5
I0207 01:54:52.448611  1010 net.cpp:150] Setting up pool5
I0207 01:54:52.448624  1010 net.cpp:157] Top shape: 4 512 18 18 (663552)
I0207 01:54:52.448627  1010 net.cpp:165] Memory required for data: 3338706032
I0207 01:54:52.448632  1010 layer_factory.hpp:76] Creating layer conv6_1
I0207 01:54:52.448642  1010 net.cpp:106] Creating Layer conv6_1
I0207 01:54:52.448645  1010 net.cpp:454] conv6_1 <- pool5
I0207 01:54:52.448652  1010 net.cpp:411] conv6_1 -> conv6_1
I0207 01:54:52.532696  1010 net.cpp:150] Setting up conv6_1
I0207 01:54:52.532711  1010 net.cpp:157] Top shape: 4 512 18 18 (663552)
I0207 01:54:52.532714  1010 net.cpp:165] Memory required for data: 3341360240
I0207 01:54:52.532719  1010 layer_factory.hpp:76] Creating layer relu6_1
I0207 01:54:52.532727  1010 net.cpp:106] Creating Layer relu6_1
I0207 01:54:52.532729  1010 net.cpp:454] relu6_1 <- conv6_1
I0207 01:54:52.532735  1010 net.cpp:397] relu6_1 -> conv6_1 (in-place)
I0207 01:54:52.533108  1010 net.cpp:150] Setting up relu6_1
I0207 01:54:52.533121  1010 net.cpp:157] Top shape: 4 512 18 18 (663552)
I0207 01:54:52.533124  1010 net.cpp:165] Memory required for data: 3344014448
I0207 01:54:52.533128  1010 layer_factory.hpp:76] Creating layer conv6_1_relu6_1_0_split
I0207 01:54:52.533134  1010 net.cpp:106] Creating Layer conv6_1_relu6_1_0_split
I0207 01:54:52.533138  1010 net.cpp:454] conv6_1_relu6_1_0_split <- conv6_1
I0207 01:54:52.533143  1010 net.cpp:411] conv6_1_relu6_1_0_split -> conv6_1_relu6_1_0_split_0
I0207 01:54:52.533149  1010 net.cpp:411] conv6_1_relu6_1_0_split -> conv6_1_relu6_1_0_split_1
I0207 01:54:52.533155  1010 net.cpp:411] conv6_1_relu6_1_0_split -> conv6_1_relu6_1_0_split_2
I0207 01:54:52.533216  1010 net.cpp:150] Setting up conv6_1_relu6_1_0_split
I0207 01:54:52.533221  1010 net.cpp:157] Top shape: 4 512 18 18 (663552)
I0207 01:54:52.533226  1010 net.cpp:157] Top shape: 4 512 18 18 (663552)
I0207 01:54:52.533228  1010 net.cpp:157] Top shape: 4 512 18 18 (663552)
I0207 01:54:52.533231  1010 net.cpp:165] Memory required for data: 3351977072
I0207 01:54:52.533232  1010 layer_factory.hpp:76] Creating layer LFCN_3_3x5
I0207 01:54:52.533253  1010 net.cpp:106] Creating Layer LFCN_3_3x5
I0207 01:54:52.533267  1010 net.cpp:454] LFCN_3_3x5 <- conv6_1_relu6_1_0_split_0
I0207 01:54:52.533274  1010 net.cpp:411] LFCN_3_3x5 -> LFCN_3_3x5
I0207 01:54:52.536134  1010 net.cpp:150] Setting up LFCN_3_3x5
I0207 01:54:52.536157  1010 net.cpp:157] Top shape: 4 6 18 18 (7776)
I0207 01:54:52.536160  1010 net.cpp:165] Memory required for data: 3352008176
I0207 01:54:52.536165  1010 layer_factory.hpp:76] Creating layer LFCN_3_3x5_LFCN_3_3x5_0_split
I0207 01:54:52.536180  1010 net.cpp:106] Creating Layer LFCN_3_3x5_LFCN_3_3x5_0_split
I0207 01:54:52.536183  1010 net.cpp:454] LFCN_3_3x5_LFCN_3_3x5_0_split <- LFCN_3_3x5
I0207 01:54:52.536190  1010 net.cpp:411] LFCN_3_3x5_LFCN_3_3x5_0_split -> LFCN_3_3x5_LFCN_3_3x5_0_split_0
I0207 01:54:52.536196  1010 net.cpp:411] LFCN_3_3x5_LFCN_3_3x5_0_split -> LFCN_3_3x5_LFCN_3_3x5_0_split_1
I0207 01:54:52.536238  1010 net.cpp:150] Setting up LFCN_3_3x5_LFCN_3_3x5_0_split
I0207 01:54:52.536243  1010 net.cpp:157] Top shape: 4 6 18 18 (7776)
I0207 01:54:52.536247  1010 net.cpp:157] Top shape: 4 6 18 18 (7776)
I0207 01:54:52.536248  1010 net.cpp:165] Memory required for data: 3352070384
I0207 01:54:52.536250  1010 layer_factory.hpp:76] Creating layer detection_loss_3_3x5
I0207 01:54:52.536258  1010 net.cpp:106] Creating Layer detection_loss_3_3x5
I0207 01:54:52.536262  1010 net.cpp:454] detection_loss_3_3x5 <- LFCN_3_3x5_LFCN_3_3x5_0_split_0
I0207 01:54:52.536265  1010 net.cpp:454] detection_loss_3_3x5 <- label_3_3x5_data_5_split_0
I0207 01:54:52.536272  1010 net.cpp:411] detection_loss_3_3x5 -> loss_3_3x5
I0207 01:54:52.536278  1010 layer_factory.hpp:76] Creating layer detection_loss_3_3x5
I0207 01:54:52.536645  1010 net.cpp:150] Setting up detection_loss_3_3x5
I0207 01:54:52.536656  1010 net.cpp:157] Top shape: 1 1 1 2 (2)
I0207 01:54:52.536659  1010 net.cpp:160]     with loss weight 1
I0207 01:54:52.536667  1010 net.cpp:165] Memory required for data: 3352070392
I0207 01:54:52.536670  1010 layer_factory.hpp:76] Creating layer detection_accuracy_3_3x5
I0207 01:54:52.536677  1010 net.cpp:106] Creating Layer detection_accuracy_3_3x5
I0207 01:54:52.536680  1010 net.cpp:454] detection_accuracy_3_3x5 <- LFCN_3_3x5_LFCN_3_3x5_0_split_1
I0207 01:54:52.536684  1010 net.cpp:454] detection_accuracy_3_3x5 <- label_3_3x5_data_5_split_1
I0207 01:54:52.536691  1010 net.cpp:411] detection_accuracy_3_3x5 -> accuracy_3_3x5
I0207 01:54:52.536697  1010 net.cpp:411] detection_accuracy_3_3x5 -> boxiou_3_3x5
I0207 01:54:52.536737  1010 net.cpp:150] Setting up detection_accuracy_3_3x5
I0207 01:54:52.536742  1010 net.cpp:157] Top shape: 1 1 1 2 (2)
I0207 01:54:52.536746  1010 net.cpp:157] Top shape: 1 1 1 1 (1)
I0207 01:54:52.536748  1010 net.cpp:165] Memory required for data: 3352070404
I0207 01:54:52.536751  1010 layer_factory.hpp:76] Creating layer LFCN_3_5x7
I0207 01:54:52.536761  1010 net.cpp:106] Creating Layer LFCN_3_5x7
I0207 01:54:52.536775  1010 net.cpp:454] LFCN_3_5x7 <- conv6_1_relu6_1_0_split_1
I0207 01:54:52.536780  1010 net.cpp:411] LFCN_3_5x7 -> LFCN_3_5x7
I0207 01:54:52.541551  1010 net.cpp:150] Setting up LFCN_3_5x7
I0207 01:54:52.541576  1010 net.cpp:157] Top shape: 4 6 18 18 (7776)
I0207 01:54:52.541580  1010 net.cpp:165] Memory required for data: 3352101508
I0207 01:54:52.541585  1010 layer_factory.hpp:76] Creating layer LFCN_3_5x7_LFCN_3_5x7_0_split
I0207 01:54:52.541594  1010 net.cpp:106] Creating Layer LFCN_3_5x7_LFCN_3_5x7_0_split
I0207 01:54:52.541597  1010 net.cpp:454] LFCN_3_5x7_LFCN_3_5x7_0_split <- LFCN_3_5x7
I0207 01:54:52.541601  1010 net.cpp:411] LFCN_3_5x7_LFCN_3_5x7_0_split -> LFCN_3_5x7_LFCN_3_5x7_0_split_0
I0207 01:54:52.541607  1010 net.cpp:411] LFCN_3_5x7_LFCN_3_5x7_0_split -> LFCN_3_5x7_LFCN_3_5x7_0_split_1
I0207 01:54:52.541651  1010 net.cpp:150] Setting up LFCN_3_5x7_LFCN_3_5x7_0_split
I0207 01:54:52.541656  1010 net.cpp:157] Top shape: 4 6 18 18 (7776)
I0207 01:54:52.541658  1010 net.cpp:157] Top shape: 4 6 18 18 (7776)
I0207 01:54:52.541661  1010 net.cpp:165] Memory required for data: 3352163716
I0207 01:54:52.541663  1010 layer_factory.hpp:76] Creating layer detection_loss_3_5x7
I0207 01:54:52.541669  1010 net.cpp:106] Creating Layer detection_loss_3_5x7
I0207 01:54:52.541672  1010 net.cpp:454] detection_loss_3_5x7 <- LFCN_3_5x7_LFCN_3_5x7_0_split_0
I0207 01:54:52.541676  1010 net.cpp:454] detection_loss_3_5x7 <- label_3_5x7_data_6_split_0
I0207 01:54:52.541682  1010 net.cpp:411] detection_loss_3_5x7 -> loss_3_5x7
I0207 01:54:52.541688  1010 layer_factory.hpp:76] Creating layer detection_loss_3_5x7
I0207 01:54:52.542229  1010 net.cpp:150] Setting up detection_loss_3_5x7
I0207 01:54:52.542242  1010 net.cpp:157] Top shape: 1 1 1 2 (2)
I0207 01:54:52.542255  1010 net.cpp:160]     with loss weight 1
I0207 01:54:52.542260  1010 net.cpp:165] Memory required for data: 3352163724
I0207 01:54:52.542263  1010 layer_factory.hpp:76] Creating layer detection_accuracy_3_5x7
I0207 01:54:52.542269  1010 net.cpp:106] Creating Layer detection_accuracy_3_5x7
I0207 01:54:52.542275  1010 net.cpp:454] detection_accuracy_3_5x7 <- LFCN_3_5x7_LFCN_3_5x7_0_split_1
I0207 01:54:52.542279  1010 net.cpp:454] detection_accuracy_3_5x7 <- label_3_5x7_data_6_split_1
I0207 01:54:52.542284  1010 net.cpp:411] detection_accuracy_3_5x7 -> accuracy_3_5x7
I0207 01:54:52.542290  1010 net.cpp:411] detection_accuracy_3_5x7 -> boxiou_3_5x7
I0207 01:54:52.542332  1010 net.cpp:150] Setting up detection_accuracy_3_5x7
I0207 01:54:52.542337  1010 net.cpp:157] Top shape: 1 1 1 2 (2)
I0207 01:54:52.542340  1010 net.cpp:157] Top shape: 1 1 1 1 (1)
I0207 01:54:52.542342  1010 net.cpp:165] Memory required for data: 3352163736
I0207 01:54:52.542345  1010 layer_factory.hpp:76] Creating layer pool6
I0207 01:54:52.542351  1010 net.cpp:106] Creating Layer pool6
I0207 01:54:52.542353  1010 net.cpp:454] pool6 <- conv6_1_relu6_1_0_split_2
I0207 01:54:52.542359  1010 net.cpp:411] pool6 -> pool6
I0207 01:54:52.542582  1010 net.cpp:150] Setting up pool6
I0207 01:54:52.542593  1010 net.cpp:157] Top shape: 4 512 9 9 (165888)
I0207 01:54:52.542595  1010 net.cpp:165] Memory required for data: 3352827288
I0207 01:54:52.542598  1010 layer_factory.hpp:76] Creating layer LFCN_4_3x5
I0207 01:54:52.542606  1010 net.cpp:106] Creating Layer LFCN_4_3x5
I0207 01:54:52.542609  1010 net.cpp:454] LFCN_4_3x5 <- pool6
I0207 01:54:52.542616  1010 net.cpp:411] LFCN_4_3x5 -> LFCN_4_3x5
I0207 01:54:52.545014  1010 net.cpp:150] Setting up LFCN_4_3x5
I0207 01:54:52.545039  1010 net.cpp:157] Top shape: 4 6 9 9 (1944)
I0207 01:54:52.545042  1010 net.cpp:165] Memory required for data: 3352835064
I0207 01:54:52.545048  1010 layer_factory.hpp:76] Creating layer LFCN_4_3x5_LFCN_4_3x5_0_split
I0207 01:54:52.545053  1010 net.cpp:106] Creating Layer LFCN_4_3x5_LFCN_4_3x5_0_split
I0207 01:54:52.545058  1010 net.cpp:454] LFCN_4_3x5_LFCN_4_3x5_0_split <- LFCN_4_3x5
I0207 01:54:52.545064  1010 net.cpp:411] LFCN_4_3x5_LFCN_4_3x5_0_split -> LFCN_4_3x5_LFCN_4_3x5_0_split_0
I0207 01:54:52.545071  1010 net.cpp:411] LFCN_4_3x5_LFCN_4_3x5_0_split -> LFCN_4_3x5_LFCN_4_3x5_0_split_1
I0207 01:54:52.545115  1010 net.cpp:150] Setting up LFCN_4_3x5_LFCN_4_3x5_0_split
I0207 01:54:52.545120  1010 net.cpp:157] Top shape: 4 6 9 9 (1944)
I0207 01:54:52.545122  1010 net.cpp:157] Top shape: 4 6 9 9 (1944)
I0207 01:54:52.545125  1010 net.cpp:165] Memory required for data: 3352850616
I0207 01:54:52.545127  1010 layer_factory.hpp:76] Creating layer detection_loss_4_3x5
I0207 01:54:52.545135  1010 net.cpp:106] Creating Layer detection_loss_4_3x5
I0207 01:54:52.545137  1010 net.cpp:454] detection_loss_4_3x5 <- LFCN_4_3x5_LFCN_4_3x5_0_split_0
I0207 01:54:52.545141  1010 net.cpp:454] detection_loss_4_3x5 <- label_4_3x5_data_7_split_0
I0207 01:54:52.545151  1010 net.cpp:411] detection_loss_4_3x5 -> loss_4_3x5
I0207 01:54:52.545157  1010 layer_factory.hpp:76] Creating layer detection_loss_4_3x5
I0207 01:54:52.545647  1010 net.cpp:150] Setting up detection_loss_4_3x5
I0207 01:54:52.545660  1010 net.cpp:157] Top shape: 1 1 1 2 (2)
I0207 01:54:52.545673  1010 net.cpp:160]     with loss weight 1
I0207 01:54:52.545678  1010 net.cpp:165] Memory required for data: 3352850624
I0207 01:54:52.545681  1010 layer_factory.hpp:76] Creating layer detection_accuracy_4_3x5
I0207 01:54:52.545688  1010 net.cpp:106] Creating Layer detection_accuracy_4_3x5
I0207 01:54:52.545692  1010 net.cpp:454] detection_accuracy_4_3x5 <- LFCN_4_3x5_LFCN_4_3x5_0_split_1
I0207 01:54:52.545696  1010 net.cpp:454] detection_accuracy_4_3x5 <- label_4_3x5_data_7_split_1
I0207 01:54:52.545701  1010 net.cpp:411] detection_accuracy_4_3x5 -> accuracy_4_3x5
I0207 01:54:52.545708  1010 net.cpp:411] detection_accuracy_4_3x5 -> boxiou_4_3x5
I0207 01:54:52.545748  1010 net.cpp:150] Setting up detection_accuracy_4_3x5
I0207 01:54:52.545754  1010 net.cpp:157] Top shape: 1 1 1 2 (2)
I0207 01:54:52.545758  1010 net.cpp:157] Top shape: 1 1 1 1 (1)
I0207 01:54:52.545759  1010 net.cpp:165] Memory required for data: 3352850636
I0207 01:54:52.545761  1010 net.cpp:228] detection_accuracy_4_3x5 does not need backward computation.
I0207 01:54:52.545764  1010 net.cpp:226] detection_loss_4_3x5 needs backward computation.
I0207 01:54:52.545768  1010 net.cpp:226] LFCN_4_3x5_LFCN_4_3x5_0_split needs backward computation.
I0207 01:54:52.545769  1010 net.cpp:226] LFCN_4_3x5 needs backward computation.
…
I0207 01:54:52.551448  1010 image_gt_data_layer.cpp:234] output label size 1 : 2,6,72,72
I0207 01:54:52.551502  1010 image_gt_data_layer.cpp:234] output label size 2 : 2,6,36,36
I0207 01:54:52.551558  1010 image_gt_data_layer.cpp:234] output label size 3 : 2,6,36,36
I0207 01:54:52.551611  1010 image_gt_data_layer.cpp:234] output label size 4 : 2,6,18,18
I0207 01:54:52.551662  1010 image_gt_data_layer.cpp:234] output label size 5 : 2,6,18,18
I0207 01:54:52.551713  1010 image_gt_data_layer.cpp:234] output label size 6 : 2,6,9,9
I0207 01:54:52.568536  1010 net.cpp:150] Setting up data
I0207 01:54:52.568575  1010 net.cpp:157] Top shape: 2 3 576 576 (1990656)
I0207 01:54:52.568580  1010 net.cpp:157] Top shape: 2 6 72 72 (62208)
I0207 01:54:52.568583  1010 net.cpp:157] Top shape: 2 6 72 72 (62208)
I0207 01:54:52.568586  1010 net.cpp:157] Top shape: 2 6 36 36 (15552)
I0207 01:54:52.568589  1010 net.cpp:157] Top shape: 2 6 36 36 (15552)
I0207 01:54:52.568593  1010 net.cpp:157] Top shape: 2 6 18 18 (3888)
I0207 01:54:52.568595  1010 net.cpp:157] Top shape: 2 6 18 18 (3888)
I0207 01:54:52.568598  1010 net.cpp:157] Top shape: 2 6 9 9 (972)
I0207 01:54:52.568601  1010 net.cpp:165] Memory required for data: 8619696
I0207 01:54:52.568606  1010 layer_factory.hpp:76] Creating layer label_1_3x5_data_1_split
I0207 01:54:52.568619  1010 net.cpp:106] Creating Layer label_1_3x5_data_1_split
I0207 01:54:52.568624  1010 net.cpp:454] label_1_3x5_data_1_split <- label_1_3x5
I0207 01:54:52.568629  1010 net.cpp:411] label_1_3x5_data_1_split -> label_1_3x5_data_1_split_0
I0207 01:54:52.568642  1010 net.cpp:411] label_1_3x5_data_1_split -> label_1_3x5_data_1_split_1
I0207 01:54:52.568812  1010 net.cpp:150] Setting up label_1_3x5_data_1_split
I0207 01:54:52.568819  1010 net.cpp:157] Top shape: 2 6 72 72 (62208)
I0207 01:54:52.568823  1010 net.cpp:157] Top shape: 2 6 72 72 (62208)
I0207 01:54:52.568825  1010 net.cpp:165] Memory required for data: 9117360
I0207 01:54:52.568828  1010 layer_factory.hpp:76] Creating layer label_1_5x7_data_2_split
I0207 01:54:52.568835  1010 net.cpp:106] Creating Layer label_1_5x7_data_2_split
I0207 01:54:52.568838  1010 net.cpp:454] label_1_5x7_data_2_split <- label_1_5x7
I0207 01:54:52.568842  1010 net.cpp:411] label_1_5x7_data_2_split -> label_1_5x7_data_2_split_0
I0207 01:54:52.568848  1010 net.cpp:411] label_1_5x7_data_2_split -> label_1_5x7_data_2_split_1
I0207 01:54:52.568966  1010 net.cpp:150] Setting up label_1_5x7_data_2_split
I0207 01:54:52.568972  1010 net.cpp:157] Top shape: 2 6 72 72 (62208)
I0207 01:54:52.568976  1010 net.cpp:157] Top shape: 2 6 72 72 (62208)
I0207 01:54:52.568979  1010 net.cpp:165] Memory required for data: 9615024
I0207 01:54:52.568980  1010 layer_factory.hpp:76] Creating layer label_2_3x5_data_3_split
I0207 01:54:52.568985  1010 net.cpp:106] Creating Layer label_2_3x5_data_3_split
I0207 01:54:52.568989  1010 net.cpp:454] label_2_3x5_data_3_split <- label_2_3x5
I0207 01:54:52.568994  1010 net.cpp:411] label_2_3x5_data_3_split -> label_2_3x5_data_3_split_0
I0207 01:54:52.569000  1010 net.cpp:411] label_2_3x5_data_3_split -> label_2_3x5_data_3_split_1
I0207 01:54:52.569068  1010 net.cpp:150] Setting up label_2_3x5_data_3_split
I0207 01:54:52.569073  1010 net.cpp:157] Top shape: 2 6 36 36 (15552)
I0207 01:54:52.569077  1010 net.cpp:157] Top shape: 2 6 36 36 (15552)
I0207 01:54:52.569079  1010 net.cpp:165] Memory required for data: 9739440
I0207 01:54:52.569082  1010 layer_factory.hpp:76] Creating layer label_2_5x7_data_4_split
I0207 01:54:52.569087  1010 net.cpp:106] Creating Layer label_2_5x7_data_4_split
I0207 01:54:52.569089  1010 net.cpp:454] label_2_5x7_data_4_split <- label_2_5x7
I0207 01:54:52.569094  1010 net.cpp:411] label_2_5x7_data_4_split -> label_2_5x7_data_4_split_0
I0207 01:54:52.569100  1010 net.cpp:411] label_2_5x7_data_4_split -> label_2_5x7_data_4_split_1
I0207 01:54:52.569154  1010 net.cpp:150] Setting up label_2_5x7_data_4_split
I0207 01:54:52.569159  1010 net.cpp:157] Top shape: 2 6 36 36 (15552)
I0207 01:54:52.569161  1010 net.cpp:157] Top shape: 2 6 36 36 (15552)
I0207 01:54:52.569164  1010 net.cpp:165] Memory required for data: 9863856
I0207 01:54:52.569166  1010 layer_factory.hpp:76] Creating layer label_3_3x5_data_5_split
I0207 01:54:52.569171  1010 net.cpp:106] Creating Layer label_3_3x5_data_5_split
I0207 01:54:52.569175  1010 net.cpp:454] label_3_3x5_data_5_split <- label_3_3x5
I0207 01:54:52.569178  1010 net.cpp:411] label_3_3x5_data_5_split -> label_3_3x5_data_5_split_0
I0207 01:54:52.569185  1010 net.cpp:411] label_3_3x5_data_5_split -> label_3_3x5_data_5_split_1
I0207 01:54:52.569221  1010 net.cpp:150] Setting up label_3_3x5_data_5_split
I0207 01:54:52.569226  1010 net.cpp:157] Top shape: 2 6 18 18 (3888)
I0207 01:54:52.569228  1010 net.cpp:157] Top shape: 2 6 18 18 (3888)
I0207 01:54:52.569231  1010 net.cpp:165] Memory required for data: 9894960
I0207 01:54:52.569233  1010 layer_factory.hpp:76] Creating layer label_3_5x7_data_6_split
I0207 01:54:52.569237  1010 net.cpp:106] Creating Layer label_3_5x7_data_6_split
I0207 01:54:52.569239  1010 net.cpp:454] label_3_5x7_data_6_split <- label_3_5x7
I0207 01:54:52.569243  1010 net.cpp:411] label_3_5x7_data_6_split -> label_3_5x7_data_6_split_0
I0207 01:54:52.569247  1010 net.cpp:411] label_3_5x7_data_6_split -> label_3_5x7_data_6_split_1
I0207 01:54:52.569281  1010 net.cpp:150] Setting up label_3_5x7_data_6_split
I0207 01:54:52.569285  1010 net.cpp:157] Top shape: 2 6 18 18 (3888)
I0207 01:54:52.569288  1010 net.cpp:157] Top shape: 2 6 18 18 (3888)
I0207 01:54:52.569290  1010 net.cpp:165] Memory required for data: 9926064
I0207 01:54:52.569293  1010 layer_factory.hpp:76] Creating layer label_4_3x5_data_7_split
I0207 01:54:52.569296  1010 net.cpp:106] Creating Layer label_4_3x5_data_7_split
I0207 01:54:52.569299  1010 net.cpp:454] label_4_3x5_data_7_split <- label_4_3x5
I0207 01:54:52.569305  1010 net.cpp:411] label_4_3x5_data_7_split -> label_4_3x5_data_7_split_0
I0207 01:54:52.569309  1010 net.cpp:411] label_4_3x5_data_7_split -> label_4_3x5_data_7_split_1
I0207 01:54:52.569340  1010 net.cpp:150] Setting up label_4_3x5_data_7_split
I0207 01:54:52.569344  1010 net.cpp:157] Top shape: 2 6 9 9 (972)
I0207 01:54:52.569347  1010 net.cpp:157] Top shape: 2 6 9 9 (972)
I0207 01:54:52.569350  1010 net.cpp:165] Memory required for data: 9933840
I0207 01:54:52.569352  1010 layer_factory.hpp:76] Creating layer conv1_1
I0207 01:54:52.569362  1010 net.cpp:106] Creating Layer conv1_1
I0207 01:54:52.569365  1010 net.cpp:454] conv1_1 <- data
I0207 01:54:52.569370  1010 net.cpp:411] conv1_1 -> conv1_1
I0207 01:54:52.571293  1010 net.cpp:150] Setting up conv1_1
I0207 01:54:52.571318  1010 net.cpp:157] Top shape: 2 64 576 576 (42467328)
I0207 01:54:52.571321  1010 net.cpp:165] Memory required for data: 179803152
I0207 01:54:52.571338  1010 layer_factory.hpp:76] Creating layer relu1_1
I0207 01:54:52.571346  1010 net.cpp:106] Creating Layer relu1_1
I0207 01:54:52.571348  1010 net.cpp:454] relu1_1 <- conv1_1
I0207 01:54:52.571353  1010 net.cpp:397] relu1_1 -> conv1_1 (in-place)
I0207 01:54:52.572975  1010 net.cpp:150] Setting up relu1_1
I0207 01:54:52.573001  1010 net.cpp:157] Top shape: 2 64 576 576 (42467328)
I0207 01:54:52.573005  1010 net.cpp:165] Memory required for data: 349672464
I0207 01:54:52.573009  1010 layer_factory.hpp:76] Creating layer conv1_2
I0207 01:54:52.573014  1010 net.cpp:106] Creating Layer conv1_2
I0207 01:54:52.573019  1010 net.cpp:454] conv1_2 <- conv1_1
I0207 01:54:52.573025  1010 net.cpp:411] conv1_2 -> conv1_2
I0207 01:54:52.575264  1010 net.cpp:150] Setting up conv1_2
I0207 01:54:52.575289  1010 net.cpp:157] Top shape: 2 64 576 576 (42467328)
I0207 01:54:52.575291  1010 net.cpp:165] Memory required for data: 519541776
I0207 01:54:52.575300  1010 layer_factory.hpp:76] Creating layer relu1_2
I0207 01:54:52.575305  1010 net.cpp:106] Creating Layer relu1_2
I0207 01:54:52.575309  1010 net.cpp:454] relu1_2 <- conv1_2
I0207 01:54:52.575315  1010 net.cpp:397] relu1_2 -> conv1_2 (in-place)
I0207 01:54:52.575551  1010 net.cpp:150] Setting up relu1_2
I0207 01:54:52.575562  1010 net.cpp:157] Top shape: 2 64 576 576 (42467328)
I0207 01:54:52.575565  1010 net.cpp:165] Memory required for data: 689411088
I0207 01:54:52.575568  1010 layer_factory.hpp:76] Creating layer pool1
I0207 01:54:52.575574  1010 net.cpp:106] Creating Layer pool1
I0207 01:54:52.575577  1010 net.cpp:454] pool1 <- conv1_2
I0207 01:54:52.575582  1010 net.cpp:411] pool1 -> pool1
I0207 01:54:52.575992  1010 net.cpp:150] Setting up pool1
I0207 01:54:52.576014  1010 net.cpp:157] Top shape: 2 64 288 288 (10616832)
I0207 01:54:52.576017  1010 net.cpp:165] Memory required for data: 731878416
I0207 01:54:52.576020  1010 layer_factory.hpp:76] Creating layer conv2_1
I0207 01:54:52.576028  1010 net.cpp:106] Creating Layer conv2_1
I0207 01:54:52.576031  1010 net.cpp:454] conv2_1 <- pool1
I0207 01:54:52.576036  1010 net.cpp:411] conv2_1 -> conv2_1
I0207 01:54:52.577322  1010 net.cpp:150] Setting up conv2_1
I0207 01:54:52.577335  1010 net.cpp:157] Top shape: 2 128 288 288 (21233664)
I0207 01:54:52.577350  1010 net.cpp:165] Memory required for data: 816813072
I0207 01:54:52.577358  1010 layer_factory.hpp:76] Creating layer relu2_1
I0207 01:54:52.577364  1010 net.cpp:106] Creating Layer relu2_1
I0207 01:54:52.577368  1010 net.cpp:454] relu2_1 <- conv2_1
I0207 01:54:52.577374  1010 net.cpp:397] relu2_1 -> conv2_1 (in-place)
I0207 01:54:52.577565  1010 net.cpp:150] Setting up relu2_1
I0207 01:54:52.577574  1010 net.cpp:157] Top shape: 2 128 288 288 (21233664)
I0207 01:54:52.577579  1010 net.cpp:165] Memory required for data: 901747728
I0207 01:54:52.577582  1010 layer_factory.hpp:76] Creating layer conv2_2
I0207 01:54:52.577589  1010 net.cpp:106] Creating Layer conv2_2
I0207 01:54:52.577590  1010 net.cpp:454] conv2_2 <- conv2_1
I0207 01:54:52.577600  1010 net.cpp:411] conv2_2 -> conv2_2
I0207 01:54:52.579393  1010 net.cpp:150] Setting up conv2_2
I0207 01:54:52.579419  1010 net.cpp:157] Top shape: 2 128 288 288 (21233664)
I0207 01:54:52.579422  1010 net.cpp:165] Memory required for data: 986682384
I0207 01:54:52.579428  1010 layer_factory.hpp:76] Creating layer relu2_2
I0207 01:54:52.579437  1010 net.cpp:106] Creating Layer relu2_2
I0207 01:54:52.579440  1010 net.cpp:454] relu2_2 <- conv2_2
I0207 01:54:52.579445  1010 net.cpp:397] relu2_2 -> conv2_2 (in-place)
I0207 01:54:52.579776  1010 net.cpp:150] Setting up relu2_2
I0207 01:54:52.579787  1010 net.cpp:157] Top shape: 2 128 288 288 (21233664)
I0207 01:54:52.579790  1010 net.cpp:165] Memory required for data: 1071617040
I0207 01:54:52.579793  1010 layer_factory.hpp:76] Creating layer pool2
I0207 01:54:52.579802  1010 net.cpp:106] Creating Layer pool2
I0207 01:54:52.579804  1010 net.cpp:454] pool2 <- conv2_2
I0207 01:54:52.579809  1010 net.cpp:411] pool2 -> pool2
I0207 01:54:52.580042  1010 net.cpp:150] Setting up pool2
I0207 01:54:52.580052  1010 net.cpp:157] Top shape: 2 128 144 144 (5308416)
I0207 01:54:52.580055  1010 net.cpp:165] Memory required for data: 1092850704
I0207 01:54:52.580057  1010 layer_factory.hpp:76] Creating layer conv3_1
I0207 01:54:52.580070  1010 net.cpp:106] Creating Layer conv3_1
I0207 01:54:52.580072  1010 net.cpp:454] conv3_1 <- pool2
I0207 01:54:52.580077  1010 net.cpp:411] conv3_1 -> conv3_1
I0207 01:54:52.581921  1010 net.cpp:150] Setting up conv3_1
I0207 01:54:52.581945  1010 net.cpp:157] Top shape: 2 256 144 144 (10616832)
I0207 01:54:52.581950  1010 net.cpp:165] Memory required for data: 1135318032
I0207 01:54:52.581959  1010 layer_factory.hpp:76] Creating layer relu3_1
I0207 01:54:52.581964  1010 net.cpp:106] Creating Layer relu3_1
I0207 01:54:52.581967  1010 net.cpp:454] relu3_1 <- conv3_1
I0207 01:54:52.581971  1010 net.cpp:397] relu3_1 -> conv3_1 (in-place)
I0207 01:54:52.582159  1010 net.cpp:150] Setting up relu3_1
I0207 01:54:52.582167  1010 net.cpp:157] Top shape: 2 256 144 144 (10616832)
I0207 01:54:52.582170  1010 net.cpp:165] Memory required for data: 1177785360
I0207 01:54:52.582173  1010 layer_factory.hpp:76] Creating layer conv3_2
I0207 01:54:52.582180  1010 net.cpp:106] Creating Layer conv3_2
I0207 01:54:52.582183  1010 net.cpp:454] conv3_2 <- conv3_1
I0207 01:54:52.582187  1010 net.cpp:411] conv3_2 -> conv3_2
I0207 01:54:52.584640  1010 net.cpp:150] Setting up conv3_2
I0207 01:54:52.584651  1010 net.cpp:157] Top shape: 2 256 144 144 (10616832)
I0207 01:54:52.584666  1010 net.cpp:165] Memory required for data: 1220252688
I0207 01:54:52.584671  1010 layer_factory.hpp:76] Creating layer relu3_2
I0207 01:54:52.584677  1010 net.cpp:106] Creating Layer relu3_2
I0207 01:54:52.584679  1010 net.cpp:454] relu3_2 <- conv3_2
I0207 01:54:52.584687  1010 net.cpp:397] relu3_2 -> conv3_2 (in-place)
I0207 01:54:52.585024  1010 net.cpp:150] Setting up relu3_2
I0207 01:54:52.585037  1010 net.cpp:157] Top shape: 2 256 144 144 (10616832)
I0207 01:54:52.585041  1010 net.cpp:165] Memory required for data: 1262720016
I0207 01:54:52.585043  1010 layer_factory.hpp:76] Creating layer conv3_3
I0207 01:54:52.585052  1010 net.cpp:106] Creating Layer conv3_3
I0207 01:54:52.585054  1010 net.cpp:454] conv3_3 <- conv3_2
I0207 01:54:52.585059  1010 net.cpp:411] conv3_3 -> conv3_3
I0207 01:54:52.587955  1010 net.cpp:150] Setting up conv3_3
I0207 01:54:52.587985  1010 net.cpp:157] Top shape: 2 256 144 144 (10616832)
I0207 01:54:52.587987  1010 net.cpp:165] Memory required for data: 1305187344
I0207 01:54:52.587993  1010 layer_factory.hpp:76] Creating layer relu3_3
I0207 01:54:52.587998  1010 net.cpp:106] Creating Layer relu3_3
I0207 01:54:52.588001  1010 net.cpp:454] relu3_3 <- conv3_3
I0207 01:54:52.588006  1010 net.cpp:397] relu3_3 -> conv3_3 (in-place)
I0207 01:54:52.588223  1010 net.cpp:150] Setting up relu3_3
I0207 01:54:52.588234  1010 net.cpp:157] Top shape: 2 256 144 144 (10616832)
I0207 01:54:52.588238  1010 net.cpp:165] Memory required for data: 1347654672
I0207 01:54:52.588240  1010 layer_factory.hpp:76] Creating layer pool3
I0207 01:54:52.588248  1010 net.cpp:106] Creating Layer pool3
I0207 01:54:52.588251  1010 net.cpp:454] pool3 <- conv3_3
I0207 01:54:52.588256  1010 net.cpp:411] pool3 -> pool3
I0207 01:54:52.588642  1010 net.cpp:150] Setting up pool3
I0207 01:54:52.588665  1010 net.cpp:157] Top shape: 2 256 72 72 (2654208)
I0207 01:54:52.588666  1010 net.cpp:165] Memory required for data: 1358271504
I0207 01:54:52.588670  1010 layer_factory.hpp:76] Creating layer conv4_1
I0207 01:54:52.588687  1010 net.cpp:106] Creating Layer conv4_1
I0207 01:54:52.588690  1010 net.cpp:454] conv4_1 <- pool3
I0207 01:54:52.588696  1010 net.cpp:411] conv4_1 -> conv4_1
I0207 01:54:52.592021  1010 net.cpp:150] Setting up conv4_1
I0207 01:54:52.592046  1010 net.cpp:157] Top shape: 2 512 72 72 (5308416)
I0207 01:54:52.592048  1010 net.cpp:165] Memory required for data: 1379505168
I0207 01:54:52.592053  1010 layer_factory.hpp:76] Creating layer relu4_1
I0207 01:54:52.592061  1010 net.cpp:106] Creating Layer relu4_1
I0207 01:54:52.592064  1010 net.cpp:454] relu4_1 <- conv4_1
I0207 01:54:52.592068  1010 net.cpp:397] relu4_1 -> conv4_1 (in-place)
I0207 01:54:52.592624  1010 net.cpp:150] Setting up relu4_1
I0207 01:54:52.592648  1010 net.cpp:157] Top shape: 2 512 72 72 (5308416)
I0207 01:54:52.592649  1010 net.cpp:165] Memory required for data: 1400738832
I0207 01:54:52.592653  1010 layer_factory.hpp:76] Creating layer conv4_2
I0207 01:54:52.592660  1010 net.cpp:106] Creating Layer conv4_2
I0207 01:54:52.592664  1010 net.cpp:454] conv4_2 <- conv4_1
I0207 01:54:52.592671  1010 net.cpp:411] conv4_2 -> conv4_2
I0207 01:54:52.598557  1010 net.cpp:150] Setting up conv4_2
I0207 01:54:52.598584  1010 net.cpp:157] Top shape: 2 512 72 72 (5308416)
I0207 01:54:52.598588  1010 net.cpp:165] Memory required for data: 1421972496
I0207 01:54:52.598606  1010 layer_factory.hpp:76] Creating layer relu4_2
I0207 01:54:52.598616  1010 net.cpp:106] Creating Layer relu4_2
I0207 01:54:52.598620  1010 net.cpp:454] relu4_2 <- conv4_2
I0207 01:54:52.598628  1010 net.cpp:397] relu4_2 -> conv4_2 (in-place)
I0207 01:54:52.598886  1010 net.cpp:150] Setting up relu4_2
I0207 01:54:52.598897  1010 net.cpp:157] Top shape: 2 512 72 72 (5308416)
I0207 01:54:52.598901  1010 net.cpp:165] Memory required for data: 1443206160
I0207 01:54:52.598906  1010 layer_factory.hpp:76] Creating layer conv4_3
I0207 01:54:52.598917  1010 net.cpp:106] Creating Layer conv4_3
I0207 01:54:52.598922  1010 net.cpp:454] conv4_3 <- conv4_2
I0207 01:54:52.598932  1010 net.cpp:411] conv4_3 -> conv4_3
I0207 01:54:52.604972  1010 net.cpp:150] Setting up conv4_3
I0207 01:54:52.605002  1010 net.cpp:157] Top shape: 2 512 72 72 (5308416)
I0207 01:54:52.605006  1010 net.cpp:165] Memory required for data: 1464439824
I0207 01:54:52.605015  1010 layer_factory.hpp:76] Creating layer relu4_3
I0207 01:54:52.605023  1010 net.cpp:106] Creating Layer relu4_3
I0207 01:54:52.605027  1010 net.cpp:454] relu4_3 <- conv4_3
I0207 01:54:52.605037  1010 net.cpp:397] relu4_3 -> conv4_3 (in-place)
I0207 01:54:52.605398  1010 net.cpp:150] Setting up relu4_3
I0207 01:54:52.605412  1010 net.cpp:157] Top shape: 2 512 72 72 (5308416)
I0207 01:54:52.605414  1010 net.cpp:165] Memory required for data: 1485673488
I0207 01:54:52.605417  1010 layer_factory.hpp:76] Creating layer conv4_3_relu4_3_0_split
I0207 01:54:52.605428  1010 net.cpp:106] Creating Layer conv4_3_relu4_3_0_split
I0207 01:54:52.605432  1010 net.cpp:454] conv4_3_relu4_3_0_split <- conv4_3
I0207 01:54:52.605437  1010 net.cpp:411] conv4_3_relu4_3_0_split -> conv4_3_relu4_3_0_split_0
I0207 01:54:52.605443  1010 net.cpp:411] conv4_3_relu4_3_0_split -> conv4_3_relu4_3_0_split_1
I0207 01:54:52.605507  1010 net.cpp:150] Setting up conv4_3_relu4_3_0_split
I0207 01:54:52.605522  1010 net.cpp:157] Top shape: 2 512 72 72 (5308416)
I0207 01:54:52.605525  1010 net.cpp:157] Top shape: 2 512 72 72 (5308416)
I0207 01:54:52.605527  1010 net.cpp:165] Memory required for data: 1528140816
I0207 01:54:52.605530  1010 layer_factory.hpp:76] Creating layer loss1_conv1
I0207 01:54:52.605543  1010 net.cpp:106] Creating Layer loss1_conv1
I0207 01:54:52.605546  1010 net.cpp:454] loss1_conv1 <- conv4_3_relu4_3_0_split_0
I0207 01:54:52.605551  1010 net.cpp:411] loss1_conv1 -> loss1_conv1
I0207 01:54:52.673266  1010 net.cpp:150] Setting up loss1_conv1
I0207 01:54:52.673293  1010 net.cpp:157] Top shape: 2 512 72 72 (5308416)
I0207 01:54:52.673296  1010 net.cpp:165] Memory required for data: 1549374480
I0207 01:54:52.673302  1010 layer_factory.hpp:76] Creating layer loss_relu1
I0207 01:54:52.673308  1010 net.cpp:106] Creating Layer loss_relu1
I0207 01:54:52.673311  1010 net.cpp:454] loss_relu1 <- loss1_conv1
I0207 01:54:52.673317  1010 net.cpp:397] loss_relu1 -> loss1_conv1 (in-place)
I0207 01:54:52.673674  1010 net.cpp:150] Setting up loss_relu1
I0207 01:54:52.673686  1010 net.cpp:157] Top shape: 2 512 72 72 (5308416)
I0207 01:54:52.673689  1010 net.cpp:165] Memory required for data: 1570608144
I0207 01:54:52.673692  1010 layer_factory.hpp:76] Creating layer loss1_conv1_loss_relu1_0_split
I0207 01:54:52.673698  1010 net.cpp:106] Creating Layer loss1_conv1_loss_relu1_0_split
I0207 01:54:52.673702  1010 net.cpp:454] loss1_conv1_loss_relu1_0_split <- loss1_conv1
I0207 01:54:52.673708  1010 net.cpp:411] loss1_conv1_loss_relu1_0_split -> loss1_conv1_loss_relu1_0_split_0
I0207 01:54:52.673714  1010 net.cpp:411] loss1_conv1_loss_relu1_0_split -> loss1_conv1_loss_relu1_0_split_1
I0207 01:54:52.673766  1010 net.cpp:150] Setting up loss1_conv1_loss_relu1_0_split
I0207 01:54:52.673773  1010 net.cpp:157] Top shape: 2 512 72 72 (5308416)
I0207 01:54:52.673775  1010 net.cpp:157] Top shape: 2 512 72 72 (5308416)
I0207 01:54:52.673777  1010 net.cpp:165] Memory required for data: 1613075472
I0207 01:54:52.673780  1010 layer_factory.hpp:76] Creating layer LFCN_1_3x5
I0207 01:54:52.673789  1010 net.cpp:106] Creating Layer LFCN_1_3x5
I0207 01:54:52.673792  1010 net.cpp:454] LFCN_1_3x5 <- loss1_conv1_loss_relu1_0_split_0
I0207 01:54:52.673797  1010 net.cpp:411] LFCN_1_3x5 -> LFCN_1_3x5
I0207 01:54:52.676295  1010 net.cpp:150] Setting up LFCN_1_3x5
I0207 01:54:52.676318  1010 net.cpp:157] Top shape: 2 6 72 72 (62208)
I0207 01:54:52.676321  1010 net.cpp:165] Memory required for data: 1613324304
I0207 01:54:52.676327  1010 layer_factory.hpp:76] Creating layer LFCN_1_3x5_LFCN_1_3x5_0_split
I0207 01:54:52.676336  1010 net.cpp:106] Creating Layer LFCN_1_3x5_LFCN_1_3x5_0_split
I0207 01:54:52.676339  1010 net.cpp:454] LFCN_1_3x5_LFCN_1_3x5_0_split <- LFCN_1_3x5
I0207 01:54:52.676343  1010 net.cpp:411] LFCN_1_3x5_LFCN_1_3x5_0_split -> LFCN_1_3x5_LFCN_1_3x5_0_split_0
I0207 01:54:52.676352  1010 net.cpp:411] LFCN_1_3x5_LFCN_1_3x5_0_split -> LFCN_1_3x5_LFCN_1_3x5_0_split_1
I0207 01:54:52.676399  1010 net.cpp:150] Setting up LFCN_1_3x5_LFCN_1_3x5_0_split
I0207 01:54:52.676404  1010 net.cpp:157] Top shape: 2 6 72 72 (62208)
I0207 01:54:52.676407  1010 net.cpp:157] Top shape: 2 6 72 72 (62208)
I0207 01:54:52.676409  1010 net.cpp:165] Memory required for data: 1613821968
I0207 01:54:52.676411  1010 layer_factory.hpp:76] Creating layer detection_loss_1_3x5
I0207 01:54:52.676419  1010 net.cpp:106] Creating Layer detection_loss_1_3x5
I0207 01:54:52.676422  1010 net.cpp:454] detection_loss_1_3x5 <- LFCN_1_3x5_LFCN_1_3x5_0_split_0
I0207 01:54:52.676426  1010 net.cpp:454] detection_loss_1_3x5 <- label_1_3x5_data_1_split_0
I0207 01:54:52.676430  1010 net.cpp:411] detection_loss_1_3x5 -> loss_1_3x5
I0207 01:54:52.676439  1010 layer_factory.hpp:76] Creating layer detection_loss_1_3x5
I0207 01:54:52.676867  1010 net.cpp:150] Setting up detection_loss_1_3x5
I0207 01:54:52.676888  1010 net.cpp:157] Top shape: 1 1 1 2 (2)
I0207 01:54:52.676892  1010 net.cpp:160]     with loss weight 0.9
I0207 01:54:52.676928  1010 net.cpp:165] Memory required for data: 1613821976
I0207 01:54:52.676930  1010 layer_factory.hpp:76] Creating layer detection_accuracy_1_3x5
I0207 01:54:52.676950  1010 net.cpp:106] Creating Layer detection_accuracy_1_3x5
I0207 01:54:52.676954  1010 net.cpp:454] detection_accuracy_1_3x5 <- LFCN_1_3x5_LFCN_1_3x5_0_split_1
I0207 01:54:52.676959  1010 net.cpp:454] detection_accuracy_1_3x5 <- label_1_3x5_data_1_split_1
I0207 01:54:52.676962  1010 net.cpp:411] detection_accuracy_1_3x5 -> accuracy_1_3x5
I0207 01:54:52.676967  1010 net.cpp:411] detection_accuracy_1_3x5 -> boxiou_1_3x5
I0207 01:54:52.677026  1010 net.cpp:150] Setting up detection_accuracy_1_3x5
I0207 01:54:52.677031  1010 net.cpp:157] Top shape: 1 1 1 2 (2)
I0207 01:54:52.677033  1010 net.cpp:157] Top shape: 1 1 1 1 (1)
I0207 01:54:52.677036  1010 net.cpp:165] Memory required for data: 1613821988
I0207 01:54:52.677038  1010 layer_factory.hpp:76] Creating layer LFCN_1_5x7
I0207 01:54:52.677045  1010 net.cpp:106] Creating Layer LFCN_1_5x7
I0207 01:54:52.677060  1010 net.cpp:454] LFCN_1_5x7 <- loss1_conv1_loss_relu1_0_split_1
I0207 01:54:52.677067  1010 net.cpp:411] LFCN_1_5x7 -> LFCN_1_5x7
I0207 01:54:52.681761  1010 net.cpp:150] Setting up LFCN_1_5x7
I0207 01:54:52.681785  1010 net.cpp:157] Top shape: 2 6 72 72 (62208)
I0207 01:54:52.681788  1010 net.cpp:165] Memory required for data: 1614070820
I0207 01:54:52.681793  1010 layer_factory.hpp:76] Creating layer LFCN_1_5x7_LFCN_1_5x7_0_split
I0207 01:54:52.681799  1010 net.cpp:106] Creating Layer LFCN_1_5x7_LFCN_1_5x7_0_split
I0207 01:54:52.681803  1010 net.cpp:454] LFCN_1_5x7_LFCN_1_5x7_0_split <- LFCN_1_5x7
I0207 01:54:52.681809  1010 net.cpp:411] LFCN_1_5x7_LFCN_1_5x7_0_split -> LFCN_1_5x7_LFCN_1_5x7_0_split_0
I0207 01:54:52.681815  1010 net.cpp:411] LFCN_1_5x7_LFCN_1_5x7_0_split -> LFCN_1_5x7_LFCN_1_5x7_0_split_1
I0207 01:54:52.681860  1010 net.cpp:150] Setting up LFCN_1_5x7_LFCN_1_5x7_0_split
I0207 01:54:52.681866  1010 net.cpp:157] Top shape: 2 6 72 72 (62208)
I0207 01:54:52.681870  1010 net.cpp:157] Top shape: 2 6 72 72 (62208)
I0207 01:54:52.681872  1010 net.cpp:165] Memory required for data: 1614568484
I0207 01:54:52.681874  1010 layer_factory.hpp:76] Creating layer detection_loss_1_5x7
I0207 01:54:52.681881  1010 net.cpp:106] Creating Layer detection_loss_1_5x7
I0207 01:54:52.681884  1010 net.cpp:454] detection_loss_1_5x7 <- LFCN_1_5x7_LFCN_1_5x7_0_split_0
I0207 01:54:52.681887  1010 net.cpp:454] detection_loss_1_5x7 <- label_1_5x7_data_2_split_0
I0207 01:54:52.681891  1010 net.cpp:411] detection_loss_1_5x7 -> loss_1_5x7
I0207 01:54:52.681897  1010 layer_factory.hpp:76] Creating layer detection_loss_1_5x7
I0207 01:54:52.682437  1010 net.cpp:150] Setting up detection_loss_1_5x7
I0207 01:54:52.682461  1010 net.cpp:157] Top shape: 1 1 1 2 (2)
I0207 01:54:52.682462  1010 net.cpp:160]     with loss weight 0.9
I0207 01:54:52.682468  1010 net.cpp:165] Memory required for data: 1614568492
I0207 01:54:52.682471  1010 layer_factory.hpp:76] Creating layer detection_accuracy_1_5x7
I0207 01:54:52.682478  1010 net.cpp:106] Creating Layer detection_accuracy_1_5x7
I0207 01:54:52.682482  1010 net.cpp:454] detection_accuracy_1_5x7 <- LFCN_1_5x7_LFCN_1_5x7_0_split_1
I0207 01:54:52.682487  1010 net.cpp:454] detection_accuracy_1_5x7 <- label_1_5x7_data_2_split_1
I0207 01:54:52.682490  1010 net.cpp:411] detection_accuracy_1_5x7 -> accuracy_1_5x7
I0207 01:54:52.682498  1010 net.cpp:411] detection_accuracy_1_5x7 -> boxiou_1_5x7
I0207 01:54:52.682541  1010 net.cpp:150] Setting up detection_accuracy_1_5x7
I0207 01:54:52.682546  1010 net.cpp:157] Top shape: 1 1 1 2 (2)
I0207 01:54:52.682549  1010 net.cpp:157] Top shape: 1 1 1 1 (1)
I0207 01:54:52.682552  1010 net.cpp:165] Memory required for data: 1614568504
I0207 01:54:52.682554  1010 layer_factory.hpp:76] Creating layer pool4
I0207 01:54:52.682561  1010 net.cpp:106] Creating Layer pool4
I0207 01:54:52.682564  1010 net.cpp:454] pool4 <- conv4_3_relu4_3_0_split_1
I0207 01:54:52.682569  1010 net.cpp:411] pool4 -> pool4
I0207 01:54:52.682806  1010 net.cpp:150] Setting up pool4
I0207 01:54:52.682817  1010 net.cpp:157] Top shape: 2 512 36 36 (1327104)
I0207 01:54:52.682821  1010 net.cpp:165] Memory required for data: 1619876920
I0207 01:54:52.682823  1010 layer_factory.hpp:76] Creating layer conv5_1
I0207 01:54:52.682832  1010 net.cpp:106] Creating Layer conv5_1
I0207 01:54:52.682835  1010 net.cpp:454] conv5_1 <- pool4
I0207 01:54:52.682840  1010 net.cpp:411] conv5_1 -> conv5_1
I0207 01:54:52.688611  1010 net.cpp:150] Setting up conv5_1
I0207 01:54:52.688637  1010 net.cpp:157] Top shape: 2 512 36 36 (1327104)
I0207 01:54:52.688640  1010 net.cpp:165] Memory required for data: 1625185336
I0207 01:54:52.688647  1010 layer_factory.hpp:76] Creating layer relu5_1
I0207 01:54:52.688652  1010 net.cpp:106] Creating Layer relu5_1
I0207 01:54:52.688655  1010 net.cpp:454] relu5_1 <- conv5_1
I0207 01:54:52.688661  1010 net.cpp:397] relu5_1 -> conv5_1 (in-place)
I0207 01:54:52.689018  1010 net.cpp:150] Setting up relu5_1
I0207 01:54:52.689030  1010 net.cpp:157] Top shape: 2 512 36 36 (1327104)
I0207 01:54:52.689033  1010 net.cpp:165] Memory required for data: 1630493752
I0207 01:54:52.689036  1010 layer_factory.hpp:76] Creating layer conv5_2
I0207 01:54:52.689044  1010 net.cpp:106] Creating Layer conv5_2
I0207 01:54:52.689049  1010 net.cpp:454] conv5_2 <- conv5_1
I0207 01:54:52.689054  1010 net.cpp:411] conv5_2 -> conv5_2
I0207 01:54:52.694957  1010 net.cpp:150] Setting up conv5_2
I0207 01:54:52.694986  1010 net.cpp:157] Top shape: 2 512 36 36 (1327104)
I0207 01:54:52.694990  1010 net.cpp:165] Memory required for data: 1635802168
I0207 01:54:52.694996  1010 layer_factory.hpp:76] Creating layer relu5_2
I0207 01:54:52.695003  1010 net.cpp:106] Creating Layer relu5_2
I0207 01:54:52.695006  1010 net.cpp:454] relu5_2 <- conv5_2
I0207 01:54:52.695011  1010 net.cpp:397] relu5_2 -> conv5_2 (in-place)
I0207 01:54:52.695330  1010 net.cpp:150] Setting up relu5_2
I0207 01:54:52.695343  1010 net.cpp:157] Top shape: 2 512 36 36 (1327104)
I0207 01:54:52.695345  1010 net.cpp:165] Memory required for data: 1641110584
I0207 01:54:52.695348  1010 layer_factory.hpp:76] Creating layer conv5_3
I0207 01:54:52.695355  1010 net.cpp:106] Creating Layer conv5_3
I0207 01:54:52.695358  1010 net.cpp:454] conv5_3 <- conv5_2
I0207 01:54:52.695365  1010 net.cpp:411] conv5_3 -> conv5_3
I0207 01:54:52.701354  1010 net.cpp:150] Setting up conv5_3
I0207 01:54:52.701369  1010 net.cpp:157] Top shape: 2 512 36 36 (1327104)
I0207 01:54:52.701373  1010 net.cpp:165] Memory required for data: 1646419000
I0207 01:54:52.701383  1010 layer_factory.hpp:76] Creating layer relu5_3
I0207 01:54:52.701395  1010 net.cpp:106] Creating Layer relu5_3
I0207 01:54:52.701400  1010 net.cpp:454] relu5_3 <- conv5_3
I0207 01:54:52.701409  1010 net.cpp:397] relu5_3 -> conv5_3 (in-place)
I0207 01:54:52.701684  1010 net.cpp:150] Setting up relu5_3
I0207 01:54:52.701697  1010 net.cpp:157] Top shape: 2 512 36 36 (1327104)
I0207 01:54:52.701702  1010 net.cpp:165] Memory required for data: 1651727416
I0207 01:54:52.701705  1010 layer_factory.hpp:76] Creating layer conv5_3_relu5_3_0_split
I0207 01:54:52.701716  1010 net.cpp:106] Creating Layer conv5_3_relu5_3_0_split
I0207 01:54:52.701720  1010 net.cpp:454] conv5_3_relu5_3_0_split <- conv5_3
I0207 01:54:52.701740  1010 net.cpp:411] conv5_3_relu5_3_0_split -> conv5_3_relu5_3_0_split_0
I0207 01:54:52.701757  1010 net.cpp:411] conv5_3_relu5_3_0_split -> conv5_3_relu5_3_0_split_1
I0207 01:54:52.701776  1010 net.cpp:411] conv5_3_relu5_3_0_split -> conv5_3_relu5_3_0_split_2
I0207 01:54:52.701870  1010 net.cpp:150] Setting up conv5_3_relu5_3_0_split
I0207 01:54:52.701881  1010 net.cpp:157] Top shape: 2 512 36 36 (1327104)
I0207 01:54:52.701890  1010 net.cpp:157] Top shape: 2 512 36 36 (1327104)
I0207 01:54:52.701899  1010 net.cpp:157] Top shape: 2 512 36 36 (1327104)
I0207 01:54:52.701902  1010 net.cpp:165] Memory required for data: 1667652664
I0207 01:54:52.701907  1010 layer_factory.hpp:76] Creating layer LFCN_2_3x5
I0207 01:54:52.701920  1010 net.cpp:106] Creating Layer LFCN_2_3x5
I0207 01:54:52.701926  1010 net.cpp:454] LFCN_2_3x5 <- conv5_3_relu5_3_0_split_0
I0207 01:54:52.701944  1010 net.cpp:411] LFCN_2_3x5 -> LFCN_2_3x5
I0207 01:54:52.704705  1010 net.cpp:150] Setting up LFCN_2_3x5
I0207 01:54:52.704720  1010 net.cpp:157] Top shape: 2 6 36 36 (15552)
I0207 01:54:52.704725  1010 net.cpp:165] Memory required for data: 1667714872
I0207 01:54:52.704747  1010 layer_factory.hpp:76] Creating layer LFCN_2_3x5_LFCN_2_3x5_0_split
I0207 01:54:52.704763  1010 net.cpp:106] Creating Layer LFCN_2_3x5_LFCN_2_3x5_0_split
I0207 01:54:52.704768  1010 net.cpp:454] LFCN_2_3x5_LFCN_2_3x5_0_split <- LFCN_2_3x5
I0207 01:54:52.704779  1010 net.cpp:411] LFCN_2_3x5_LFCN_2_3x5_0_split -> LFCN_2_3x5_LFCN_2_3x5_0_split_0
I0207 01:54:52.704797  1010 net.cpp:411] LFCN_2_3x5_LFCN_2_3x5_0_split -> LFCN_2_3x5_LFCN_2_3x5_0_split_1
I0207 01:54:52.704862  1010 net.cpp:150] Setting up LFCN_2_3x5_LFCN_2_3x5_0_split
I0207 01:54:52.704869  1010 net.cpp:157] Top shape: 2 6 36 36 (15552)
I0207 01:54:52.704875  1010 net.cpp:157] Top shape: 2 6 36 36 (15552)
I0207 01:54:52.704879  1010 net.cpp:165] Memory required for data: 1667839288
I0207 01:54:52.704880  1010 layer_factory.hpp:76] Creating layer detection_loss_2_3x5
I0207 01:54:52.704900  1010 net.cpp:106] Creating Layer detection_loss_2_3x5
I0207 01:54:52.704902  1010 net.cpp:454] detection_loss_2_3x5 <- LFCN_2_3x5_LFCN_2_3x5_0_split_0
I0207 01:54:52.704906  1010 net.cpp:454] detection_loss_2_3x5 <- label_2_3x5_data_3_split_0
I0207 01:54:52.704910  1010 net.cpp:411] detection_loss_2_3x5 -> loss_2_3x5
I0207 01:54:52.704921  1010 layer_factory.hpp:76] Creating layer detection_loss_2_3x5
I0207 01:54:52.705423  1010 net.cpp:150] Setting up detection_loss_2_3x5
I0207 01:54:52.705432  1010 net.cpp:157] Top shape: 1 1 1 2 (2)
I0207 01:54:52.705446  1010 net.cpp:160]     with loss weight 1
I0207 01:54:52.705461  1010 net.cpp:165] Memory required for data: 1667839296
I0207 01:54:52.705463  1010 layer_factory.hpp:76] Creating layer detection_accuracy_2_3x5
I0207 01:54:52.705471  1010 net.cpp:106] Creating Layer detection_accuracy_2_3x5
I0207 01:54:52.705474  1010 net.cpp:454] detection_accuracy_2_3x5 <- LFCN_2_3x5_LFCN_2_3x5_0_split_1
I0207 01:54:52.705478  1010 net.cpp:454] detection_accuracy_2_3x5 <- label_2_3x5_data_3_split_1
I0207 01:54:52.705483  1010 net.cpp:411] detection_accuracy_2_3x5 -> accuracy_2_3x5
I0207 01:54:52.705488  1010 net.cpp:411] detection_accuracy_2_3x5 -> boxiou_2_3x5
I0207 01:54:52.705543  1010 net.cpp:150] Setting up detection_accuracy_2_3x5
I0207 01:54:52.705548  1010 net.cpp:157] Top shape: 1 1 1 2 (2)
I0207 01:54:52.705552  1010 net.cpp:157] Top shape: 1 1 1 1 (1)
I0207 01:54:52.705555  1010 net.cpp:165] Memory required for data: 1667839308
I0207 01:54:52.705557  1010 layer_factory.hpp:76] Creating layer LFCN_2_5x7
I0207 01:54:52.705565  1010 net.cpp:106] Creating Layer LFCN_2_5x7
I0207 01:54:52.705569  1010 net.cpp:454] LFCN_2_5x7 <- conv5_3_relu5_3_0_split_1
I0207 01:54:52.705572  1010 net.cpp:411] LFCN_2_5x7 -> LFCN_2_5x7
I0207 01:54:52.709805  1010 net.cpp:150] Setting up LFCN_2_5x7
I0207 01:54:52.709816  1010 net.cpp:157] Top shape: 2 6 36 36 (15552)
I0207 01:54:52.709818  1010 net.cpp:165] Memory required for data: 1667901516
I0207 01:54:52.709827  1010 layer_factory.hpp:76] Creating layer LFCN_2_5x7_LFCN_2_5x7_0_split
I0207 01:54:52.709832  1010 net.cpp:106] Creating Layer LFCN_2_5x7_LFCN_2_5x7_0_split
I0207 01:54:52.709836  1010 net.cpp:454] LFCN_2_5x7_LFCN_2_5x7_0_split <- LFCN_2_5x7
I0207 01:54:52.709841  1010 net.cpp:411] LFCN_2_5x7_LFCN_2_5x7_0_split -> LFCN_2_5x7_LFCN_2_5x7_0_split_0
I0207 01:54:52.709846  1010 net.cpp:411] LFCN_2_5x7_LFCN_2_5x7_0_split -> LFCN_2_5x7_LFCN_2_5x7_0_split_1
I0207 01:54:52.709899  1010 net.cpp:150] Setting up LFCN_2_5x7_LFCN_2_5x7_0_split
I0207 01:54:52.709903  1010 net.cpp:157] Top shape: 2 6 36 36 (15552)
I0207 01:54:52.709906  1010 net.cpp:157] Top shape: 2 6 36 36 (15552)
I0207 01:54:52.709908  1010 net.cpp:165] Memory required for data: 1668025932
I0207 01:54:52.709910  1010 layer_factory.hpp:76] Creating layer detection_loss_2_5x7
I0207 01:54:52.709916  1010 net.cpp:106] Creating Layer detection_loss_2_5x7
I0207 01:54:52.709919  1010 net.cpp:454] detection_loss_2_5x7 <- LFCN_2_5x7_LFCN_2_5x7_0_split_0
I0207 01:54:52.709923  1010 net.cpp:454] detection_loss_2_5x7 <- label_2_5x7_data_4_split_0
I0207 01:54:52.709928  1010 net.cpp:411] detection_loss_2_5x7 -> loss_2_5x7
I0207 01:54:52.709935  1010 layer_factory.hpp:76] Creating layer detection_loss_2_5x7
I0207 01:54:52.710531  1010 net.cpp:150] Setting up detection_loss_2_5x7
I0207 01:54:52.710542  1010 net.cpp:157] Top shape: 1 1 1 2 (2)
I0207 01:54:52.710544  1010 net.cpp:160]     with loss weight 1
I0207 01:54:52.710549  1010 net.cpp:165] Memory required for data: 1668025940
I0207 01:54:52.710552  1010 layer_factory.hpp:76] Creating layer detection_accuracy_2_5x7
I0207 01:54:52.710559  1010 net.cpp:106] Creating Layer detection_accuracy_2_5x7
I0207 01:54:52.710562  1010 net.cpp:454] detection_accuracy_2_5x7 <- LFCN_2_5x7_LFCN_2_5x7_0_split_1
I0207 01:54:52.710566  1010 net.cpp:454] detection_accuracy_2_5x7 <- label_2_5x7_data_4_split_1
I0207 01:54:52.710572  1010 net.cpp:411] detection_accuracy_2_5x7 -> accuracy_2_5x7
I0207 01:54:52.710577  1010 net.cpp:411] detection_accuracy_2_5x7 -> boxiou_2_5x7
I0207 01:54:52.710620  1010 net.cpp:150] Setting up detection_accuracy_2_5x7
I0207 01:54:52.710624  1010 net.cpp:157] Top shape: 1 1 1 2 (2)
I0207 01:54:52.710628  1010 net.cpp:157] Top shape: 1 1 1 1 (1)
I0207 01:54:52.710629  1010 net.cpp:165] Memory required for data: 1668025952
I0207 01:54:52.710631  1010 layer_factory.hpp:76] Creating layer pool5
I0207 01:54:52.710636  1010 net.cpp:106] Creating Layer pool5
I0207 01:54:52.710638  1010 net.cpp:454] pool5 <- conv5_3_relu5_3_0_split_2
I0207 01:54:52.710644  1010 net.cpp:411] pool5 -> pool5
I0207 01:54:52.710899  1010 net.cpp:150] Setting up pool5
I0207 01:54:52.710912  1010 net.cpp:157] Top shape: 2 512 18 18 (331776)
I0207 01:54:52.710916  1010 net.cpp:165] Memory required for data: 1669353056
I0207 01:54:52.710918  1010 layer_factory.hpp:76] Creating layer conv6_1
I0207 01:54:52.710925  1010 net.cpp:106] Creating Layer conv6_1
I0207 01:54:52.710928  1010 net.cpp:454] conv6_1 <- pool5
I0207 01:54:52.710935  1010 net.cpp:411] conv6_1 -> conv6_1
I0207 01:54:52.777760  1010 net.cpp:150] Setting up conv6_1
I0207 01:54:52.777773  1010 net.cpp:157] Top shape: 2 512 18 18 (331776)
I0207 01:54:52.777776  1010 net.cpp:165] Memory required for data: 1670680160
I0207 01:54:52.777781  1010 layer_factory.hpp:76] Creating layer relu6_1
I0207 01:54:52.777787  1010 net.cpp:106] Creating Layer relu6_1
I0207 01:54:52.777791  1010 net.cpp:454] relu6_1 <- conv6_1
I0207 01:54:52.777796  1010 net.cpp:397] relu6_1 -> conv6_1 (in-place)
I0207 01:54:52.778161  1010 net.cpp:150] Setting up relu6_1
I0207 01:54:52.778172  1010 net.cpp:157] Top shape: 2 512 18 18 (331776)
I0207 01:54:52.778175  1010 net.cpp:165] Memory required for data: 1672007264
I0207 01:54:52.778178  1010 layer_factory.hpp:76] Creating layer conv6_1_relu6_1_0_split
I0207 01:54:52.778185  1010 net.cpp:106] Creating Layer conv6_1_relu6_1_0_split
I0207 01:54:52.778189  1010 net.cpp:454] conv6_1_relu6_1_0_split <- conv6_1
I0207 01:54:52.778194  1010 net.cpp:411] conv6_1_relu6_1_0_split -> conv6_1_relu6_1_0_split_0
I0207 01:54:52.778200  1010 net.cpp:411] conv6_1_relu6_1_0_split -> conv6_1_relu6_1_0_split_1
I0207 01:54:52.778205  1010 net.cpp:411] conv6_1_relu6_1_0_split -> conv6_1_relu6_1_0_split_2
I0207 01:54:52.778277  1010 net.cpp:150] Setting up conv6_1_relu6_1_0_split
I0207 01:54:52.778287  1010 net.cpp:157] Top shape: 2 512 18 18 (331776)
I0207 01:54:52.778291  1010 net.cpp:157] Top shape: 2 512 18 18 (331776)
I0207 01:54:52.778295  1010 net.cpp:157] Top shape: 2 512 18 18 (331776)
I0207 01:54:52.778296  1010 net.cpp:165] Memory required for data: 1675988576
I0207 01:54:52.778298  1010 layer_factory.hpp:76] Creating layer LFCN_3_3x5
I0207 01:54:52.778318  1010 net.cpp:106] Creating Layer LFCN_3_3x5
I0207 01:54:52.778333  1010 net.cpp:454] LFCN_3_3x5 <- conv6_1_relu6_1_0_split_0
I0207 01:54:52.778340  1010 net.cpp:411] LFCN_3_3x5 -> LFCN_3_3x5
I0207 01:54:52.780612  1010 net.cpp:150] Setting up LFCN_3_3x5
I0207 01:54:52.780624  1010 net.cpp:157] Top shape: 2 6 18 18 (3888)
I0207 01:54:52.780638  1010 net.cpp:165] Memory required for data: 1676004128
I0207 01:54:52.780643  1010 layer_factory.hpp:76] Creating layer LFCN_3_3x5_LFCN_3_3x5_0_split
I0207 01:54:52.780659  1010 net.cpp:106] Creating Layer LFCN_3_3x5_LFCN_3_3x5_0_split
I0207 01:54:52.780663  1010 net.cpp:454] LFCN_3_3x5_LFCN_3_3x5_0_split <- LFCN_3_3x5
I0207 01:54:52.780668  1010 net.cpp:411] LFCN_3_3x5_LFCN_3_3x5_0_split -> LFCN_3_3x5_LFCN_3_3x5_0_split_0
I0207 01:54:52.780679  1010 net.cpp:411] LFCN_3_3x5_LFCN_3_3x5_0_split -> LFCN_3_3x5_LFCN_3_3x5_0_split_1
I0207 01:54:52.780728  1010 net.cpp:150] Setting up LFCN_3_3x5_LFCN_3_3x5_0_split
I0207 01:54:52.780732  1010 net.cpp:157] Top shape: 2 6 18 18 (3888)
I0207 01:54:52.780735  1010 net.cpp:157] Top shape: 2 6 18 18 (3888)
I0207 01:54:52.780737  1010 net.cpp:165] Memory required for data: 1676035232
I0207 01:54:52.780740  1010 layer_factory.hpp:76] Creating layer detection_loss_3_3x5
I0207 01:54:52.780745  1010 net.cpp:106] Creating Layer detection_loss_3_3x5
I0207 01:54:52.780748  1010 net.cpp:454] detection_loss_3_3x5 <- LFCN_3_3x5_LFCN_3_3x5_0_split_0
I0207 01:54:52.780752  1010 net.cpp:454] detection_loss_3_3x5 <- label_3_3x5_data_5_split_0
I0207 01:54:52.780757  1010 net.cpp:411] detection_loss_3_3x5 -> loss_3_3x5
I0207 01:54:52.780764  1010 layer_factory.hpp:76] Creating layer detection_loss_3_3x5
I0207 01:54:52.781374  1010 net.cpp:150] Setting up detection_loss_3_3x5
I0207 01:54:52.781385  1010 net.cpp:157] Top shape: 1 1 1 2 (2)
I0207 01:54:52.781399  1010 net.cpp:160]     with loss weight 1
I0207 01:54:52.781405  1010 net.cpp:165] Memory required for data: 1676035240
I0207 01:54:52.781407  1010 layer_factory.hpp:76] Creating layer detection_accuracy_3_3x5
I0207 01:54:52.781414  1010 net.cpp:106] Creating Layer detection_accuracy_3_3x5
I0207 01:54:52.781416  1010 net.cpp:454] detection_accuracy_3_3x5 <- LFCN_3_3x5_LFCN_3_3x5_0_split_1
I0207 01:54:52.781420  1010 net.cpp:454] detection_accuracy_3_3x5 <- label_3_3x5_data_5_split_1
I0207 01:54:52.781425  1010 net.cpp:411] detection_accuracy_3_3x5 -> accuracy_3_3x5
I0207 01:54:52.781432  1010 net.cpp:411] detection_accuracy_3_3x5 -> boxiou_3_3x5
I0207 01:54:52.781478  1010 net.cpp:150] Setting up detection_accuracy_3_3x5
I0207 01:54:52.781483  1010 net.cpp:157] Top shape: 1 1 1 2 (2)
I0207 01:54:52.781486  1010 net.cpp:157] Top shape: 1 1 1 1 (1)
I0207 01:54:52.781488  1010 net.cpp:165] Memory required for data: 1676035252
I0207 01:54:52.781491  1010 layer_factory.hpp:76] Creating layer LFCN_3_5x7
I0207 01:54:52.781498  1010 net.cpp:106] Creating Layer LFCN_3_5x7
I0207 01:54:52.781512  1010 net.cpp:454] LFCN_3_5x7 <- conv6_1_relu6_1_0_split_1
I0207 01:54:52.781519  1010 net.cpp:411] LFCN_3_5x7 -> LFCN_3_5x7
I0207 01:54:52.786303  1010 net.cpp:150] Setting up LFCN_3_5x7
I0207 01:54:52.786315  1010 net.cpp:157] Top shape: 2 6 18 18 (3888)
I0207 01:54:52.786319  1010 net.cpp:165] Memory required for data: 1676050804
I0207 01:54:52.786324  1010 layer_factory.hpp:76] Creating layer LFCN_3_5x7_LFCN_3_5x7_0_split
I0207 01:54:52.786329  1010 net.cpp:106] Creating Layer LFCN_3_5x7_LFCN_3_5x7_0_split
I0207 01:54:52.786332  1010 net.cpp:454] LFCN_3_5x7_LFCN_3_5x7_0_split <- LFCN_3_5x7
I0207 01:54:52.786337  1010 net.cpp:411] LFCN_3_5x7_LFCN_3_5x7_0_split -> LFCN_3_5x7_LFCN_3_5x7_0_split_0
I0207 01:54:52.786342  1010 net.cpp:411] LFCN_3_5x7_LFCN_3_5x7_0_split -> LFCN_3_5x7_LFCN_3_5x7_0_split_1
I0207 01:54:52.786391  1010 net.cpp:150] Setting up LFCN_3_5x7_LFCN_3_5x7_0_split
I0207 01:54:52.786396  1010 net.cpp:157] Top shape: 2 6 18 18 (3888)
I0207 01:54:52.786398  1010 net.cpp:157] Top shape: 2 6 18 18 (3888)
I0207 01:54:52.786401  1010 net.cpp:165] Memory required for data: 1676081908
I0207 01:54:52.786402  1010 layer_factory.hpp:76] Creating layer detection_loss_3_5x7
I0207 01:54:52.786408  1010 net.cpp:106] Creating Layer detection_loss_3_5x7
I0207 01:54:52.786412  1010 net.cpp:454] detection_loss_3_5x7 <- LFCN_3_5x7_LFCN_3_5x7_0_split_0
I0207 01:54:52.786414  1010 net.cpp:454] detection_loss_3_5x7 <- label_3_5x7_data_6_split_0
I0207 01:54:52.786418  1010 net.cpp:411] detection_loss_3_5x7 -> loss_3_5x7
I0207 01:54:52.786424  1010 layer_factory.hpp:76] Creating layer detection_loss_3_5x7
I0207 01:54:52.786852  1010 net.cpp:150] Setting up detection_loss_3_5x7
I0207 01:54:52.786875  1010 net.cpp:157] Top shape: 1 1 1 2 (2)
I0207 01:54:52.786888  1010 net.cpp:160]     with loss weight 1
I0207 01:54:52.786895  1010 net.cpp:165] Memory required for data: 1676081916
I0207 01:54:52.786908  1010 layer_factory.hpp:76] Creating layer detection_accuracy_3_5x7
I0207 01:54:52.786926  1010 net.cpp:106] Creating Layer detection_accuracy_3_5x7
I0207 01:54:52.786929  1010 net.cpp:454] detection_accuracy_3_5x7 <- LFCN_3_5x7_LFCN_3_5x7_0_split_1
I0207 01:54:52.786933  1010 net.cpp:454] detection_accuracy_3_5x7 <- label_3_5x7_data_6_split_1
I0207 01:54:52.786948  1010 net.cpp:411] detection_accuracy_3_5x7 -> accuracy_3_5x7
I0207 01:54:52.786954  1010 net.cpp:411] detection_accuracy_3_5x7 -> boxiou_3_5x7
I0207 01:54:52.786999  1010 net.cpp:150] Setting up detection_accuracy_3_5x7
I0207 01:54:52.787003  1010 net.cpp:157] Top shape: 1 1 1 2 (2)
I0207 01:54:52.787006  1010 net.cpp:157] Top shape: 1 1 1 1 (1)
I0207 01:54:52.787009  1010 net.cpp:165] Memory required for data: 1676081928
I0207 01:54:52.787010  1010 layer_factory.hpp:76] Creating layer pool6
I0207 01:54:52.787015  1010 net.cpp:106] Creating Layer pool6
I0207 01:54:52.787019  1010 net.cpp:454] pool6 <- conv6_1_relu6_1_0_split_2
I0207 01:54:52.787034  1010 net.cpp:411] pool6 -> pool6
I0207 01:54:52.787474  1010 net.cpp:150] Setting up pool6
I0207 01:54:52.787495  1010 net.cpp:157] Top shape: 2 512 9 9 (82944)
I0207 01:54:52.787509  1010 net.cpp:165] Memory required for data: 1676413704
I0207 01:54:52.787513  1010 layer_factory.hpp:76] Creating layer LFCN_4_3x5
I0207 01:54:52.787520  1010 net.cpp:106] Creating Layer LFCN_4_3x5
I0207 01:54:52.787523  1010 net.cpp:454] LFCN_4_3x5 <- pool6
I0207 01:54:52.787540  1010 net.cpp:411] LFCN_4_3x5 -> LFCN_4_3x5
I0207 01:54:52.790112  1010 net.cpp:150] Setting up LFCN_4_3x5
I0207 01:54:52.790123  1010 net.cpp:157] Top shape: 2 6 9 9 (972)
I0207 01:54:52.790127  1010 net.cpp:165] Memory required for data: 1676417592
I0207 01:54:52.790132  1010 layer_factory.hpp:76] Creating layer LFCN_4_3x5_LFCN_4_3x5_0_split
I0207 01:54:52.790136  1010 net.cpp:106] Creating Layer LFCN_4_3x5_LFCN_4_3x5_0_split
I0207 01:54:52.790139  1010 net.cpp:454] LFCN_4_3x5_LFCN_4_3x5_0_split <- LFCN_4_3x5
I0207 01:54:52.790145  1010 net.cpp:411] LFCN_4_3x5_LFCN_4_3x5_0_split -> LFCN_4_3x5_LFCN_4_3x5_0_split_0
I0207 01:54:52.790151  1010 net.cpp:411] LFCN_4_3x5_LFCN_4_3x5_0_split -> LFCN_4_3x5_LFCN_4_3x5_0_split_1
I0207 01:54:52.790204  1010 net.cpp:150] Setting up LFCN_4_3x5_LFCN_4_3x5_0_split
I0207 01:54:52.790208  1010 net.cpp:157] Top shape: 2 6 9 9 (972)
I0207 01:54:52.790211  1010 net.cpp:157] Top shape: 2 6 9 9 (972)
I0207 01:54:52.790213  1010 net.cpp:165] Memory required for data: 1676425368
I0207 01:54:52.790215  1010 layer_factory.hpp:76] Creating layer detection_loss_4_3x5
I0207 01:54:52.790220  1010 net.cpp:106] Creating Layer detection_loss_4_3x5
I0207 01:54:52.790222  1010 net.cpp:454] detection_loss_4_3x5 <- LFCN_4_3x5_LFCN_4_3x5_0_split_0
I0207 01:54:52.790226  1010 net.cpp:454] detection_loss_4_3x5 <- label_4_3x5_data_7_split_0
I0207 01:54:52.790236  1010 net.cpp:411] detection_loss_4_3x5 -> loss_4_3x5
I0207 01:54:52.790242  1010 layer_factory.hpp:76] Creating layer detection_loss_4_3x5
I0207 01:54:52.790709  1010 net.cpp:150] Setting up detection_loss_4_3x5
I0207 01:54:52.790719  1010 net.cpp:157] Top shape: 1 1 1 2 (2)
I0207 01:54:52.790733  1010 net.cpp:160]     with loss weight 1
I0207 01:54:52.790737  1010 net.cpp:165] Memory required for data: 1676425376
I0207 01:54:52.790751  1010 layer_factory.hpp:76] Creating layer detection_accuracy_4_3x5
I0207 01:54:52.790757  1010 net.cpp:106] Creating Layer detection_accuracy_4_3x5
I0207 01:54:52.790760  1010 net.cpp:454] detection_accuracy_4_3x5 <- LFCN_4_3x5_LFCN_4_3x5_0_split_1
I0207 01:54:52.790763  1010 net.cpp:454] detection_accuracy_4_3x5 <- label_4_3x5_data_7_split_1
I0207 01:54:52.790769  1010 net.cpp:411] detection_accuracy_4_3x5 -> accuracy_4_3x5
I0207 01:54:52.790774  1010 net.cpp:411] detection_accuracy_4_3x5 -> boxiou_4_3x5
I0207 01:54:52.790823  1010 net.cpp:150] Setting up detection_accuracy_4_3x5
I0207 01:54:52.790828  1010 net.cpp:157] Top shape: 1 1 1 2 (2)
I0207 01:54:52.790832  1010 net.cpp:157] Top shape: 1 1 1 1 (1)
I0207 01:54:52.790833  1010 net.cpp:165] Memory required for data: 1676425388
I0207 01:54:52.790835  1010 net.cpp:228] detection_accuracy_4_3x5 does not need backward computation.
I0207 01:54:52.790838  1010 net.cpp:226] detection_loss_4_3x5 needs backward computation.
I0207 01:54:52.790841  1010 net.cpp:226] LFCN_4_3x5_LFCN_4_3x5_0_split needs backward computation.
I0207 01:54:52.790843  1010 net.cpp:226] LFCN_4_3x5 needs backward computation.
…
