…
    downsample_rate: 16
    downsample_rate: 32
    downsample_rate: 32
    downsample_rate: 64
    coord_num: 4
    field_h: 60
    field_h: 84
    field_h: 120
    field_h: 168
    field_h: 240
    field_h: 336
    field_h: 480
    field_w: 30
    field_w: 42
    field_w: 60
    field_w: 84
    field_w: 120
    field_w: 168
    field_w: 240
    fg_threshold: 0.5
    resize_width: 960
    resize_height: 720
    crop_width: 576
    crop_height: 576
    do_multiple_scale: true
    min_scale: 40
    max_scale: 340
    min_gt_height: 65
    shuffle: true
  }
}
layer {
  name: "conv1_1"
  type: "Convolution"
  bottom: "data"
  top: "conv1_1"
  convolution_param {
    num_output: 64
    pad: 1
    kernel_size: 3
  }
}
layer {
  name: "relu1_1"
  type: "ReLU"
  bottom: "conv1_1"
  top: "conv1_1"
}
layer {
  name: "conv1_2"
  type: "Convolution"
  bottom: "conv1_1"
  top: "conv1_2"
  convolution_param {
    num_output: 64
    pad: 1
    kernel_size: 3
  }
}
layer {
  name: "relu1_2"
  type: "ReLU"
  bottom: "conv1_2"
  top: "conv1_2"
}
layer {
  name: "pool1"
  type: "Pooling"
  bottom: "conv1_2"
  top: "pool1"
  pooling_param {
    pool: MAX
    kernel_size: 2
    stride: 2
  }
}
layer {
  name: "conv2_1"
  type: "Convolution"
  bottom: "pool1"
  top: "conv2_1"
  convolution_param {
    num_output: 128
    pad: 1
    kernel_size: 3
  }
}
layer {
  name: "relu2_1"
  type: "ReLU"
  bottom: "conv2_1"
  top: "conv2_1"
}
layer {
  name: "conv2_2"
  type: "Convolution"
  bottom: "conv2_1"
  top: "conv2_2"
  convolution_param {
    num_output: 128
    pad: 1
    kernel_size: 3
  }
}
layer {
  name: "relu2_2"
  type: "ReLU"
  bottom: "conv2_2"
  top: "conv2_2"
}
layer {
  name: "pool2"
  type: "Pooling"
  bottom: "conv2_2"
  top: "pool2"
  pooling_param {
    pool: MAX
    kernel_size: 2
    stride: 2
  }
}
layer {
  name: "conv3_1"
  type: "Convolution"
  bottom: "pool2"
  top: "conv3_1"
  convolution_param {
    num_output: 256
    pad: 1
    kernel_size: 3
  }
}
layer {
  name: "relu3_1"
  type: "ReLU"
  bottom: "conv3_1"
  top: "conv3_1"
}
layer {
  name: "conv3_2"
  type: "Convolution"
  bottom: "conv3_1"
  top: "conv3_2"
  convolution_param {
    num_output: 256
    pad: 1
    kernel_size: 3
  }
}
layer {
  name: "relu3_2"
  type: "ReLU"
  bottom: "conv3_2"
  top: "conv3_2"
}
layer {
  name: "conv3_3"
  type: "Convolution"
  bottom: "conv3_2"
  top: "conv3_3"
  convolution_param {
    num_output: 256
    pad: 1
    kernel_size: 3
  }
}
layer {
  name: "relu3_3"
  type: "ReLU"
  bottom: "conv3_3"
  top: "conv3_3"
}
layer {
  name: "pool3"
  type: "Pooling"
  bottom: "conv3_3"
  top: "pool3"
  pooling_param {
    pool: MAX
    kernel_size: 2
    stride: 2
  }
}
layer {
  name: "conv4_1"
  type: "Convolution"
  bottom: "pool3"
  top: "conv4_1"
  convolution_param {
    num_output: 512
    pad: 1
    kernel_size: 3
  }
}
layer {
  name: "relu4_1"
  type: "ReLU"
  bottom: "conv4_1"
  top: "conv4_1"
}
layer {
  name: "conv4_2"
  type: "Convolution"
  bottom: "conv4_1"
  top: "conv4_2"
  convolution_param {
    num_output: 512
    pad: 1
    kernel_size: 3
  }
}
layer {
  name: "relu4_2"
  type: "ReLU"
  bottom: "conv4_2"
  top: "conv4_2"
}
layer {
  name: "conv4_3"
  type: "Convolution"
  bottom: "conv4_2"
  top: "conv4_3"
  convolution_param {
    num_output: 512
    pad: 1
    kernel_size: 3
  }
}
layer {
  name: "relu4_3"
  type: "ReLU"
  bottom: "conv4_3"
  top: "conv4_3"
}
layer {
  name: "loss1_conv1"
  type: "Convolution"
  bottom: "conv4_3"
  top: "loss1_conv1"
  param {
    lr_mult: 1
    decay_mult: 1
  }
  param {
    lr_mult: 2
    decay_mult: 0
  }
  convolution_param {
    num_output: 512
    pad: 1
    kernel_size: 3
    weight_filler {
      type: "gaussian"
      std: 0.01
    }
    bias_filler {
      type: "constant"
    }
  }
}
layer {
  name: "loss_relu1"
  type: "ReLU"
  bottom: "loss1_conv1"
  top: "loss1_conv1"
}
layer {
  name: "LFCN_1_3x5"
  type: "Convolution"
  bottom: "loss1_conv1"
  top: "LFCN_1_3x5"
  param {
    lr_mult: 1
    decay_mult: 1
  }
  param {
    lr_mult: 2
    decay_mult: 0
  }
  convolution_param {
    num_output: 6
    weight_filler {
      type: "gaussian"
      std: 0.001
    }
    bias_filler {
      type: "constant"
    }
    pad_h: 2
    pad_w: 1
    kernel_h: 5
    kernel_w: 3
  }
}
layer {
  name: "detection_loss_1_3x5"
  type: "Detection"
  bottom: "LFCN_1_3x5"
  bottom: "label_1_3x5"
  top: "loss_1_3x5"
  loss_weight: 0.9
  detection_param {
    cls_num: 2
    coord_num: 4
    lambda: 0.5
    field_h: 60
    field_w: 30
    downsample_rate: 8
    bb_smooth: true
    field_whr: 2
    field_xyr: 2
    bg_threshold: 0.2
    bg_multiple: 2
    sample_mode: "random"
    pos_neg_weighted: true
  }
}
layer {
  name: "detection_accuracy_1_3x5"
  type: "DetectionAccuracy"
  bottom: "LFCN_1_3x5"
  bottom: "label_1_3x5"
  top: "accuracy_1_3x5"
  top: "boxiou_1_3x5"
  detection_accuracy_param {
    cls_num: 2
    coord_num: 4
    field_h: 60
    field_w: 30
    downsample_rate: 8
    field_whr: 2
    field_xyr: 2
  }
}
layer {
  name: "LFCN_1_5x7"
  type: "Convolution"
  bottom: "loss1_conv1"
  top: "LFCN_1_5x7"
  param {
    lr_mult: 1
    decay_mult: 1
  }
  param {
    lr_mult: 2
    decay_mult: 0
  }
  convolution_param {
    num_output: 6
    weight_filler {
      type: "gaussian"
      std: 0.001
    }
    bias_filler {
      type: "constant"
    }
    pad_h: 3
    pad_w: 2
    kernel_h: 7
    kernel_w: 5
  }
}
layer {
  name: "detection_loss_1_5x7"
  type: "Detection"
  bottom: "LFCN_1_5x7"
  bottom: "label_1_5x7"
  top: "loss_1_5x7"
  loss_weight: 0.9
  detection_param {
    cls_num: 2
    coord_num: 4
    lambda: 0.5
    field_h: 84
    field_w: 42
    downsample_rate: 8
    bb_smooth: true
    field_whr: 2
    field_xyr: 2
    bg_threshold: 0.2
    bg_multiple: 2
    sample_mode: "random"
    pos_neg_weighted: true
  }
}
layer {
  name: "detection_accuracy_1_5x7"
  type: "DetectionAccuracy"
  bottom: "LFCN_1_5x7"
  bottom: "label_1_5x7"
  top: "accuracy_1_5x7"
  top: "boxiou_1_5x7"
  detection_accuracy_param {
    cls_num: 2
    coord_num: 4
    field_h: 84
    field_w: 42
    downsample_rate: 8
    field_whr: 2
    field_xyr: 2
  }
}
layer {
  name: "pool4"
  type: "Pooling"
  bottom: "conv4_3"
  top: "pool4"
  pooling_param {
    pool: MAX
    kernel_size: 2
    stride: 2
  }
}
layer {
  name: "conv5_1"
  type: "Convolution"
  bottom: "pool4"
  top: "conv5_1"
  convolution_param {
    num_output: 512
    pad: 1
    kernel_size: 3
  }
}
layer {
  name: "relu5_1"
  type: "ReLU"
  bottom: "conv5_1"
  top: "conv5_1"
}
layer {
  name: "conv5_2"
  type: "Convolution"
  bottom: "conv5_1"
  top: "conv5_2"
  convolution_param {
    num_output: 512
    pad: 1
    kernel_size: 3
  }
}
layer {
  name: "relu5_2"
  type: "ReLU"
  bottom: "conv5_2"
  top: "conv5_2"
}
layer {
  name: "conv5_3"
  type: "Convolution"
  bottom: "conv5_2"
  top: "conv5_3"
  convolution_param {
    num_output: 512
    pad: 1
    kernel_size: 3
  }
}
layer {
  name: "relu5_3"
  type: "ReLU"
  bottom: "conv5_3"
  top: "conv5_3"
}
layer {
  name: "LFCN_2_3x5"
  type: "Convolution"
  bottom: "conv5_3"
  top: "LFCN_2_3x5"
  param {
    lr_mult: 1
    decay_mult: 1
  }
  param {
    lr_mult: 2
    decay_mult: 0
  }
  convolution_param {
    num_output: 6
    weight_filler {
      type: "gaussian"
      std: 0.001
    }
    bias_filler {
      type: "constant"
    }
    pad_h: 2
    pad_w: 1
    kernel_h: 5
    kernel_w: 3
  }
}
layer {
  name: "detection_loss_2_3x5"
  type: "Detection"
  bottom: "LFCN_2_3x5"
  bottom: "label_2_3x5"
  top: "loss_2_3x5"
  detection_param {
    cls_num: 2
    coord_num: 4
    lambda: 0.5
    field_h: 120
    field_w: 60
    downsample_rate: 16
    bb_smooth: true
    field_whr: 2
    field_xyr: 2
    bg_threshold: 0.2
    bg_multiple: 2
    sample_mode: "random"
    pos_neg_weighted: true
  }
}
layer {
  name: "detection_accuracy_2_3x5"
  type: "DetectionAccuracy"
  bottom: "LFCN_2_3x5"
  bottom: "label_2_3x5"
  top: "accuracy_2_3x5"
  top: "boxiou_2_3x5"
  detection_accuracy_param {
    cls_num: 2
    coord_num: 4
    field_h: 120
    field_w: 60
    downsample_rate: 16
    field_whr: 2
    field_xyr: 2
  }
}
layer {
  name: "LFCN_2_5x7"
  type: "Convolution"
  bottom: "conv5_3"
  top: "LFCN_2_5x7"
  param {
    lr_mult: 1
    decay_mult: 1
  }
  param {
    lr_mult: 2
    decay_mult: 0
  }
  convolution_param {
    num_output: 6
    weight_filler {
      type: "gaussian"
      std: 0.001
    }
    bias_filler {
      type: "constant"
    }
    pad_h: 3
    pad_w: 2
    kernel_h: 7
    kernel_w: 5
  }
}
layer {
  name: "detection_loss_2_5x7"
  type: "Detection"
  bottom: "LFCN_2_5x7"
  bottom: "label_2_5x7"
  top: "loss_2_5x7"
  detection_param {
    cls_num: 2
    coord_num: 4
    lambda: 0.5
    field_h: 168
    field_w: 84
    downsample_rate: 16
    bb_smooth: true
    field_whr: 2
    field_xyr: 2
    bg_threshold: 0.2
    bg_multiple: 2
    sample_mode: "random"
    pos_neg_weighted: true
  }
}
layer {
  name: "detection_accuracy_2_5x7"
  type: "DetectionAccuracy"
  bottom: "LFCN_2_5x7"
  bottom: "label_2_5x7"
  top: "accuracy_2_5x7"
  top: "boxiou_2_5x7"
  detection_accuracy_param {
    cls_num: 2
    coord_num: 4
    field_h: 168
    field_w: 84
    downsample_rate: 16
    field_whr: 2
    field_xyr: 2
  }
}
layer {
  name: "pool5"
  type: "Pooling"
  bottom: "conv5_3"
  top: "pool5"
  pooling_param {
    pool: MAX
    kernel_size: 2
    stride: 2
  }
}
layer {
  name: "conv6_1"
  type: "Convolution"
  bottom: "pool5"
  top: "conv6_1"
  param {
    lr_mult: 1
    decay_mult: 1
  }
  param {
    lr_mult: 2
    decay_mult: 0
  }
  convolution_param {
    num_output: 512
    pad: 1
    kernel_size: 3
    weight_filler {
      type: "gaussian"
      std: 0.01
    }
    bias_filler {
      type: "constant"
    }
  }
}
layer {
  name: "relu6_1"
  type: "ReLU"
  bottom: "conv6_1"
  top: "conv6_1"
}
layer {
  name: "LFCN_3_3x5"
  type: "Convolution"
  bottom: "conv6_1"
  top: "LFCN_3_3x5"
  param {
    lr_mult: 1
    decay_mult: 1
  }
  param {
    lr_mult: 2
    decay_mult: 0
  }
  convolution_param {
    num_output: 6
    weight_filler {
      type: "gaussian"
      std: 0.001
    }
    bias_filler {
      type: "constant"
    }
    pad_h: 2
    pad_w: 1
    kernel_h: 5
    kernel_w: 3
  }
}
layer {
  name: "detection_loss_3_3x5"
  type: "Detection"
  bottom: "LFCN_3_3x5"
  bottom: "label_3_3x5"
  top: "loss_3_3x5"
  detection_param {
    cls_num: 2
    coord_num: 4
    lambda: 0.5
    field_h: 240
    field_w: 120
    downsample_rate: 32
    bb_smooth: true
    field_whr: 2
    field_xyr: 2
    bg_threshold: 0.2
    bg_multiple: 2
    sample_mode: "random"
    pos_neg_weighted: true
  }
}
layer {
  name: "detection_accuracy_3_3x5"
  type: "DetectionAccuracy"
  bottom: "LFCN_3_3x5"
  bottom: "label_3_3x5"
  top: "accuracy_3_3x5"
  top: "boxiou_3_3x5"
  detection_accuracy_param {
    cls_num: 2
    coord_num: 4
    field_h: 240
    field_w: 120
    downsample_rate: 32
    field_whr: 2
    field_xyr: 2
  }
}
layer {
  name: "LFCN_3_5x7"
  type: "Convolution"
  bottom: "conv6_1"
  top: "LFCN_3_5x7"
  param {
    lr_mult: 1
    decay_mult: 1
  }
  param {
    lr_mult: 2
    decay_mult: 0
  }
  convolution_param {
    num_output: 6
    weight_filler {
      type: "gaussian"
      std: 0.001
    }
    bias_filler {
      type: "constant"
    }
    pad_h: 3
    pad_w: 2
    kernel_h: 7
    kernel_w: 5
  }
}
layer {
  name: "detection_loss_3_5x7"
  type: "Detection"
  bottom: "LFCN_3_5x7"
  bottom: "label_3_5x7"
  top: "loss_3_5x7"
  detection_param {
    cls_num: 2
    coord_num: 4
    lambda: 0.5
    field_h: 336
    field_w: 168
    downsample_rate: 32
    bb_smooth: true
    field_whr: 2
    field_xyr: 2
    bg_threshold: 0.2
    bg_multiple: 2
    sample_mode: "random"
    pos_neg_weighted: true
  }
}
layer {
  name: "detection_accuracy_3_5x7"
  type: "DetectionAccuracy"
  bottom: "LFCN_3_5x7"
  bottom: "label_3_5x7"
  top: "accuracy_3_5x7"
  top: "boxiou_3_5x7"
  detection_accuracy_param {
    cls_num: 2
    coord_num: 4
    field_h: 336
    field_w: 168
    downsample_rate: 32
    field_whr: 2
    field_xyr: 2
  }
}
layer {
  name: "pool6"
  type: "Pooling"
  bottom: "conv6_1"
  top: "pool6"
  pooling_param {
    pool: MAX
    kernel_size: 2
    stride: 2
  }
}
layer {
  name: "LFCN_4_3x5"
  type: "Convolution"
  bottom: "pool6"
  top: "LFCN_4_3x5"
  param {
    lr_mult: 1
    decay_mult: 1
  }
  param {
    lr_mult: 2
    decay_mult: 0
  }
  convolution_param {
    num_output: 6
    weight_filler {
      type: "gaussian"
      std: 0.001
    }
    bias_filler {
      type: "constant"
    }
    pad_h: 2
    pad_w: 1
    kernel_h: 5
    kernel_w: 3
  }
}
layer {
  name: "detection_loss_4_3x5"
  type: "Detection"
  bottom: "LFCN_4_3x5"
  bottom: "label_4_3x5"
  top: "loss_4_3x5"
  detection_param {
    cls_num: 2
    coord_num: 4
    lambda: 0.5
    field_h: 480
    field_w: 240
    downsample_rate: 64
    bb_smooth: true
    field_whr: 2
    field_xyr: 2
    bg_threshold: 0.2
    bg_multiple: 2
    sample_mode: "random"
    pos_neg_weighted: true
  }
}
layer {
  name: "detection_accuracy_4_3x5"
  type: "DetectionAccuracy"
  bottom: "LFCN_4_3x5"
  bottom: "label_4_3x5"
  top: "accuracy_4_3x5"
  top: "boxiou_4_3x5"
  detection_accuracy_param {
    cls_num: 2
    coord_num: 4
    field_h: 480
    field_w: 240
    downsample_rate: 64
    field_whr: 2
    field_xyr: 2
  }
}
I1013 08:04:30.336006 19441 layer_factory.hpp:76] Creating layer data
I1013 08:04:30.336064 19441 net.cpp:106] Creating Layer data
I1013 08:04:30.336074 19441 net.cpp:411] data -> data
…
I1013 08:04:30.560523 19441 image_gt_data_layer.cpp:234] output label size 1 : 4,6,72,72
I1013 08:04:30.560580 19441 image_gt_data_layer.cpp:234] output label size 2 : 4,6,36,36
I1013 08:04:30.560636 19441 image_gt_data_layer.cpp:234] output label size 3 : 4,6,36,36
I1013 08:04:30.560690 19441 image_gt_data_layer.cpp:234] output label size 4 : 4,6,18,18
I1013 08:04:30.560745 19441 image_gt_data_layer.cpp:234] output label size 5 : 4,6,18,18
I1013 08:04:30.560796 19441 image_gt_data_layer.cpp:234] output label size 6 : 4,6,9,9
I1013 08:04:30.597942 19441 net.cpp:150] Setting up data
I1013 08:04:30.597975 19441 net.cpp:157] Top shape: 4 3 576 576 (3981312)
I1013 08:04:30.597982 19441 net.cpp:157] Top shape: 4 6 72 72 (124416)
I1013 08:04:30.597990 19441 net.cpp:157] Top shape: 4 6 72 72 (124416)
I1013 08:04:30.597995 19441 net.cpp:157] Top shape: 4 6 36 36 (31104)
I1013 08:04:30.598007 19441 net.cpp:157] Top shape: 4 6 36 36 (31104)
I1013 08:04:30.598013 19441 net.cpp:157] Top shape: 4 6 18 18 (7776)
I1013 08:04:30.598018 19441 net.cpp:157] Top shape: 4 6 18 18 (7776)
I1013 08:04:30.598026 19441 net.cpp:157] Top shape: 4 6 9 9 (1944)
I1013 08:04:30.598031 19441 net.cpp:165] Memory required for data: 17239392
I1013 08:04:30.598042 19441 layer_factory.hpp:76] Creating layer label_1_3x5_data_1_split
I1013 08:04:30.598064 19441 net.cpp:106] Creating Layer label_1_3x5_data_1_split
I1013 08:04:30.598073 19441 net.cpp:454] label_1_3x5_data_1_split <- label_1_3x5
I1013 08:04:30.598089 19441 net.cpp:411] label_1_3x5_data_1_split -> label_1_3x5_data_1_split_0
I1013 08:04:30.598109 19441 net.cpp:411] label_1_3x5_data_1_split -> label_1_3x5_data_1_split_1
I1013 08:04:30.598178 19441 net.cpp:150] Setting up label_1_3x5_data_1_split
I1013 08:04:30.598189 19441 net.cpp:157] Top shape: 4 6 72 72 (124416)
I1013 08:04:30.598196 19441 net.cpp:157] Top shape: 4 6 72 72 (124416)
I1013 08:04:30.598201 19441 net.cpp:165] Memory required for data: 18234720
I1013 08:04:30.598206 19441 layer_factory.hpp:76] Creating layer label_1_5x7_data_2_split
I1013 08:04:30.598215 19441 net.cpp:106] Creating Layer label_1_5x7_data_2_split
I1013 08:04:30.598222 19441 net.cpp:454] label_1_5x7_data_2_split <- label_1_5x7
I1013 08:04:30.598229 19441 net.cpp:411] label_1_5x7_data_2_split -> label_1_5x7_data_2_split_0
I1013 08:04:30.598240 19441 net.cpp:411] label_1_5x7_data_2_split -> label_1_5x7_data_2_split_1
I1013 08:04:30.598294 19441 net.cpp:150] Setting up label_1_5x7_data_2_split
I1013 08:04:30.598302 19441 net.cpp:157] Top shape: 4 6 72 72 (124416)
I1013 08:04:30.598309 19441 net.cpp:157] Top shape: 4 6 72 72 (124416)
I1013 08:04:30.598315 19441 net.cpp:165] Memory required for data: 19230048
I1013 08:04:30.598320 19441 layer_factory.hpp:76] Creating layer label_2_3x5_data_3_split
I1013 08:04:30.598326 19441 net.cpp:106] Creating Layer label_2_3x5_data_3_split
I1013 08:04:30.598332 19441 net.cpp:454] label_2_3x5_data_3_split <- label_2_3x5
I1013 08:04:30.598340 19441 net.cpp:411] label_2_3x5_data_3_split -> label_2_3x5_data_3_split_0
I1013 08:04:30.598350 19441 net.cpp:411] label_2_3x5_data_3_split -> label_2_3x5_data_3_split_1
I1013 08:04:30.598402 19441 net.cpp:150] Setting up label_2_3x5_data_3_split
I1013 08:04:30.598412 19441 net.cpp:157] Top shape: 4 6 36 36 (31104)
I1013 08:04:30.598418 19441 net.cpp:157] Top shape: 4 6 36 36 (31104)
I1013 08:04:30.598423 19441 net.cpp:165] Memory required for data: 19478880
I1013 08:04:30.598428 19441 layer_factory.hpp:76] Creating layer label_2_5x7_data_4_split
I1013 08:04:30.598438 19441 net.cpp:106] Creating Layer label_2_5x7_data_4_split
I1013 08:04:30.598443 19441 net.cpp:454] label_2_5x7_data_4_split <- label_2_5x7
I1013 08:04:30.598450 19441 net.cpp:411] label_2_5x7_data_4_split -> label_2_5x7_data_4_split_0
I1013 08:04:30.598460 19441 net.cpp:411] label_2_5x7_data_4_split -> label_2_5x7_data_4_split_1
I1013 08:04:30.598510 19441 net.cpp:150] Setting up label_2_5x7_data_4_split
I1013 08:04:30.598520 19441 net.cpp:157] Top shape: 4 6 36 36 (31104)
I1013 08:04:30.598526 19441 net.cpp:157] Top shape: 4 6 36 36 (31104)
I1013 08:04:30.598531 19441 net.cpp:165] Memory required for data: 19727712
I1013 08:04:30.598536 19441 layer_factory.hpp:76] Creating layer label_3_3x5_data_5_split
I1013 08:04:30.598544 19441 net.cpp:106] Creating Layer label_3_3x5_data_5_split
I1013 08:04:30.598549 19441 net.cpp:454] label_3_3x5_data_5_split <- label_3_3x5
I1013 08:04:30.598557 19441 net.cpp:411] label_3_3x5_data_5_split -> label_3_3x5_data_5_split_0
I1013 08:04:30.598572 19441 net.cpp:411] label_3_3x5_data_5_split -> label_3_3x5_data_5_split_1
I1013 08:04:30.598620 19441 net.cpp:150] Setting up label_3_3x5_data_5_split
I1013 08:04:30.598630 19441 net.cpp:157] Top shape: 4 6 18 18 (7776)
I1013 08:04:30.598637 19441 net.cpp:157] Top shape: 4 6 18 18 (7776)
I1013 08:04:30.598642 19441 net.cpp:165] Memory required for data: 19789920
I1013 08:04:30.598647 19441 layer_factory.hpp:76] Creating layer label_3_5x7_data_6_split
I1013 08:04:30.598654 19441 net.cpp:106] Creating Layer label_3_5x7_data_6_split
I1013 08:04:30.598660 19441 net.cpp:454] label_3_5x7_data_6_split <- label_3_5x7
I1013 08:04:30.598671 19441 net.cpp:411] label_3_5x7_data_6_split -> label_3_5x7_data_6_split_0
I1013 08:04:30.598680 19441 net.cpp:411] label_3_5x7_data_6_split -> label_3_5x7_data_6_split_1
I1013 08:04:30.598728 19441 net.cpp:150] Setting up label_3_5x7_data_6_split
I1013 08:04:30.598738 19441 net.cpp:157] Top shape: 4 6 18 18 (7776)
I1013 08:04:30.598744 19441 net.cpp:157] Top shape: 4 6 18 18 (7776)
I1013 08:04:30.598749 19441 net.cpp:165] Memory required for data: 19852128
I1013 08:04:30.598754 19441 layer_factory.hpp:76] Creating layer label_4_3x5_data_7_split
I1013 08:04:30.598762 19441 net.cpp:106] Creating Layer label_4_3x5_data_7_split
I1013 08:04:30.598767 19441 net.cpp:454] label_4_3x5_data_7_split <- label_4_3x5
I1013 08:04:30.598774 19441 net.cpp:411] label_4_3x5_data_7_split -> label_4_3x5_data_7_split_0
I1013 08:04:30.598784 19441 net.cpp:411] label_4_3x5_data_7_split -> label_4_3x5_data_7_split_1
I1013 08:04:30.598834 19441 net.cpp:150] Setting up label_4_3x5_data_7_split
I1013 08:04:30.598845 19441 net.cpp:157] Top shape: 4 6 9 9 (1944)
I1013 08:04:30.598851 19441 net.cpp:157] Top shape: 4 6 9 9 (1944)
I1013 08:04:30.598856 19441 net.cpp:165] Memory required for data: 19867680
I1013 08:04:30.598861 19441 layer_factory.hpp:76] Creating layer conv1_1
I1013 08:04:30.598879 19441 net.cpp:106] Creating Layer conv1_1
I1013 08:04:30.598892 19441 net.cpp:454] conv1_1 <- data
I1013 08:04:30.598902 19441 net.cpp:411] conv1_1 -> conv1_1
I1013 08:04:30.728040 19441 net.cpp:150] Setting up conv1_1
I1013 08:04:30.728071 19441 net.cpp:157] Top shape: 4 64 576 576 (84934656)
I1013 08:04:30.728077 19441 net.cpp:165] Memory required for data: 359606304
I1013 08:04:30.728109 19441 layer_factory.hpp:76] Creating layer relu1_1
I1013 08:04:30.728124 19441 net.cpp:106] Creating Layer relu1_1
I1013 08:04:30.728132 19441 net.cpp:454] relu1_1 <- conv1_1
I1013 08:04:30.728143 19441 net.cpp:397] relu1_1 -> conv1_1 (in-place)
I1013 08:04:30.728371 19441 net.cpp:150] Setting up relu1_1
I1013 08:04:30.728386 19441 net.cpp:157] Top shape: 4 64 576 576 (84934656)
I1013 08:04:30.728391 19441 net.cpp:165] Memory required for data: 699344928
I1013 08:04:30.728397 19441 layer_factory.hpp:76] Creating layer conv1_2
I1013 08:04:30.728412 19441 net.cpp:106] Creating Layer conv1_2
I1013 08:04:30.728420 19441 net.cpp:454] conv1_2 <- conv1_1
I1013 08:04:30.728430 19441 net.cpp:411] conv1_2 -> conv1_2
I1013 08:04:30.730648 19441 net.cpp:150] Setting up conv1_2
I1013 08:04:30.730665 19441 net.cpp:157] Top shape: 4 64 576 576 (84934656)
I1013 08:04:30.730670 19441 net.cpp:165] Memory required for data: 1039083552
I1013 08:04:30.730686 19441 layer_factory.hpp:76] Creating layer relu1_2
I1013 08:04:30.730700 19441 net.cpp:106] Creating Layer relu1_2
I1013 08:04:30.730706 19441 net.cpp:454] relu1_2 <- conv1_2
I1013 08:04:30.730715 19441 net.cpp:397] relu1_2 -> conv1_2 (in-place)
I1013 08:04:30.731120 19441 net.cpp:150] Setting up relu1_2
I1013 08:04:30.731137 19441 net.cpp:157] Top shape: 4 64 576 576 (84934656)
I1013 08:04:30.731142 19441 net.cpp:165] Memory required for data: 1378822176
I1013 08:04:30.731148 19441 layer_factory.hpp:76] Creating layer pool1
I1013 08:04:30.731161 19441 net.cpp:106] Creating Layer pool1
I1013 08:04:30.731168 19441 net.cpp:454] pool1 <- conv1_2
I1013 08:04:30.731176 19441 net.cpp:411] pool1 -> pool1
I1013 08:04:30.731429 19441 net.cpp:150] Setting up pool1
I1013 08:04:30.731443 19441 net.cpp:157] Top shape: 4 64 288 288 (21233664)
I1013 08:04:30.731449 19441 net.cpp:165] Memory required for data: 1463756832
I1013 08:04:30.731454 19441 layer_factory.hpp:76] Creating layer conv2_1
I1013 08:04:30.731467 19441 net.cpp:106] Creating Layer conv2_1
I1013 08:04:30.731474 19441 net.cpp:454] conv2_1 <- pool1
I1013 08:04:30.731483 19441 net.cpp:411] conv2_1 -> conv2_1
I1013 08:04:30.733355 19441 net.cpp:150] Setting up conv2_1
I1013 08:04:30.733373 19441 net.cpp:157] Top shape: 4 128 288 288 (42467328)
I1013 08:04:30.733379 19441 net.cpp:165] Memory required for data: 1633626144
I1013 08:04:30.733394 19441 layer_factory.hpp:76] Creating layer relu2_1
I1013 08:04:30.733404 19441 net.cpp:106] Creating Layer relu2_1
I1013 08:04:30.733410 19441 net.cpp:454] relu2_1 <- conv2_1
I1013 08:04:30.733419 19441 net.cpp:397] relu2_1 -> conv2_1 (in-place)
I1013 08:04:30.733804 19441 net.cpp:150] Setting up relu2_1
I1013 08:04:30.733819 19441 net.cpp:157] Top shape: 4 128 288 288 (42467328)
I1013 08:04:30.733824 19441 net.cpp:165] Memory required for data: 1803495456
I1013 08:04:30.733830 19441 layer_factory.hpp:76] Creating layer conv2_2
I1013 08:04:30.733840 19441 net.cpp:106] Creating Layer conv2_2
I1013 08:04:30.733846 19441 net.cpp:454] conv2_2 <- conv2_1
I1013 08:04:30.733858 19441 net.cpp:411] conv2_2 -> conv2_2
I1013 08:04:30.737825 19441 net.cpp:150] Setting up conv2_2
I1013 08:04:30.737843 19441 net.cpp:157] Top shape: 4 128 288 288 (42467328)
I1013 08:04:30.737848 19441 net.cpp:165] Memory required for data: 1973364768
I1013 08:04:30.737859 19441 layer_factory.hpp:76] Creating layer relu2_2
I1013 08:04:30.737876 19441 net.cpp:106] Creating Layer relu2_2
I1013 08:04:30.737884 19441 net.cpp:454] relu2_2 <- conv2_2
I1013 08:04:30.737891 19441 net.cpp:397] relu2_2 -> conv2_2 (in-place)
I1013 08:04:30.738288 19441 net.cpp:150] Setting up relu2_2
I1013 08:04:30.738304 19441 net.cpp:157] Top shape: 4 128 288 288 (42467328)
I1013 08:04:30.738309 19441 net.cpp:165] Memory required for data: 2143234080
I1013 08:04:30.738315 19441 layer_factory.hpp:76] Creating layer pool2
I1013 08:04:30.738332 19441 net.cpp:106] Creating Layer pool2
I1013 08:04:30.738337 19441 net.cpp:454] pool2 <- conv2_2
I1013 08:04:30.738346 19441 net.cpp:411] pool2 -> pool2
I1013 08:04:30.738585 19441 net.cpp:150] Setting up pool2
I1013 08:04:30.738600 19441 net.cpp:157] Top shape: 4 128 144 144 (10616832)
I1013 08:04:30.738605 19441 net.cpp:165] Memory required for data: 2185701408
I1013 08:04:30.738610 19441 layer_factory.hpp:76] Creating layer conv3_1
I1013 08:04:30.738625 19441 net.cpp:106] Creating Layer conv3_1
I1013 08:04:30.738631 19441 net.cpp:454] conv3_1 <- pool2
I1013 08:04:30.738641 19441 net.cpp:411] conv3_1 -> conv3_1
I1013 08:04:30.740988 19441 net.cpp:150] Setting up conv3_1
I1013 08:04:30.741005 19441 net.cpp:157] Top shape: 4 256 144 144 (21233664)
I1013 08:04:30.741010 19441 net.cpp:165] Memory required for data: 2270636064
I1013 08:04:30.741026 19441 layer_factory.hpp:76] Creating layer relu3_1
I1013 08:04:30.741040 19441 net.cpp:106] Creating Layer relu3_1
I1013 08:04:30.741046 19441 net.cpp:454] relu3_1 <- conv3_1
I1013 08:04:30.741055 19441 net.cpp:397] relu3_1 -> conv3_1 (in-place)
I1013 08:04:30.741437 19441 net.cpp:150] Setting up relu3_1
I1013 08:04:30.741452 19441 net.cpp:157] Top shape: 4 256 144 144 (21233664)
I1013 08:04:30.741461 19441 net.cpp:165] Memory required for data: 2355570720
I1013 08:04:30.741466 19441 layer_factory.hpp:76] Creating layer conv3_2
I1013 08:04:30.741477 19441 net.cpp:106] Creating Layer conv3_2
I1013 08:04:30.741483 19441 net.cpp:454] conv3_2 <- conv3_1
I1013 08:04:30.741494 19441 net.cpp:411] conv3_2 -> conv3_2
I1013 08:04:30.745182 19441 net.cpp:150] Setting up conv3_2
I1013 08:04:30.745198 19441 net.cpp:157] Top shape: 4 256 144 144 (21233664)
I1013 08:04:30.745204 19441 net.cpp:165] Memory required for data: 2440505376
I1013 08:04:30.745215 19441 layer_factory.hpp:76] Creating layer relu3_2
I1013 08:04:30.745229 19441 net.cpp:106] Creating Layer relu3_2
I1013 08:04:30.745235 19441 net.cpp:454] relu3_2 <- conv3_2
I1013 08:04:30.745244 19441 net.cpp:397] relu3_2 -> conv3_2 (in-place)
I1013 08:04:30.745456 19441 net.cpp:150] Setting up relu3_2
I1013 08:04:30.745473 19441 net.cpp:157] Top shape: 4 256 144 144 (21233664)
I1013 08:04:30.745479 19441 net.cpp:165] Memory required for data: 2525440032
I1013 08:04:30.745486 19441 layer_factory.hpp:76] Creating layer conv3_3
I1013 08:04:30.745497 19441 net.cpp:106] Creating Layer conv3_3
I1013 08:04:30.745503 19441 net.cpp:454] conv3_3 <- conv3_2
I1013 08:04:30.745512 19441 net.cpp:411] conv3_3 -> conv3_3
I1013 08:04:30.748291 19441 net.cpp:150] Setting up conv3_3
I1013 08:04:30.748308 19441 net.cpp:157] Top shape: 4 256 144 144 (21233664)
I1013 08:04:30.748314 19441 net.cpp:165] Memory required for data: 2610374688
I1013 08:04:30.748324 19441 layer_factory.hpp:76] Creating layer relu3_3
I1013 08:04:30.748334 19441 net.cpp:106] Creating Layer relu3_3
I1013 08:04:30.748340 19441 net.cpp:454] relu3_3 <- conv3_3
I1013 08:04:30.748353 19441 net.cpp:397] relu3_3 -> conv3_3 (in-place)
I1013 08:04:30.748551 19441 net.cpp:150] Setting up relu3_3
I1013 08:04:30.748564 19441 net.cpp:157] Top shape: 4 256 144 144 (21233664)
I1013 08:04:30.748570 19441 net.cpp:165] Memory required for data: 2695309344
I1013 08:04:30.748575 19441 layer_factory.hpp:76] Creating layer pool3
I1013 08:04:30.748587 19441 net.cpp:106] Creating Layer pool3
I1013 08:04:30.748594 19441 net.cpp:454] pool3 <- conv3_3
I1013 08:04:30.748602 19441 net.cpp:411] pool3 -> pool3
I1013 08:04:30.749011 19441 net.cpp:150] Setting up pool3
I1013 08:04:30.749025 19441 net.cpp:157] Top shape: 4 256 72 72 (5308416)
I1013 08:04:30.749032 19441 net.cpp:165] Memory required for data: 2716543008
I1013 08:04:30.749037 19441 layer_factory.hpp:76] Creating layer conv4_1
I1013 08:04:30.749047 19441 net.cpp:106] Creating Layer conv4_1
I1013 08:04:30.749053 19441 net.cpp:454] conv4_1 <- pool3
I1013 08:04:30.749068 19441 net.cpp:411] conv4_1 -> conv4_1
I1013 08:04:30.753788 19441 net.cpp:150] Setting up conv4_1
I1013 08:04:30.753808 19441 net.cpp:157] Top shape: 4 512 72 72 (10616832)
I1013 08:04:30.753813 19441 net.cpp:165] Memory required for data: 2759010336
I1013 08:04:30.753825 19441 layer_factory.hpp:76] Creating layer relu4_1
I1013 08:04:30.753835 19441 net.cpp:106] Creating Layer relu4_1
I1013 08:04:30.753842 19441 net.cpp:454] relu4_1 <- conv4_1
I1013 08:04:30.753854 19441 net.cpp:397] relu4_1 -> conv4_1 (in-place)
I1013 08:04:30.754070 19441 net.cpp:150] Setting up relu4_1
I1013 08:04:30.754083 19441 net.cpp:157] Top shape: 4 512 72 72 (10616832)
I1013 08:04:30.754089 19441 net.cpp:165] Memory required for data: 2801477664
I1013 08:04:30.754094 19441 layer_factory.hpp:76] Creating layer conv4_2
I1013 08:04:30.754109 19441 net.cpp:106] Creating Layer conv4_2
I1013 08:04:30.754115 19441 net.cpp:454] conv4_2 <- conv4_1
I1013 08:04:30.754127 19441 net.cpp:411] conv4_2 -> conv4_2
I1013 08:04:30.760854 19441 net.cpp:150] Setting up conv4_2
I1013 08:04:30.760874 19441 net.cpp:157] Top shape: 4 512 72 72 (10616832)
I1013 08:04:30.760880 19441 net.cpp:165] Memory required for data: 2843944992
I1013 08:04:30.760901 19441 layer_factory.hpp:76] Creating layer relu4_2
I1013 08:04:30.760912 19441 net.cpp:106] Creating Layer relu4_2
I1013 08:04:30.760918 19441 net.cpp:454] relu4_2 <- conv4_2
I1013 08:04:30.760929 19441 net.cpp:397] relu4_2 -> conv4_2 (in-place)
I1013 08:04:30.761339 19441 net.cpp:150] Setting up relu4_2
I1013 08:04:30.761355 19441 net.cpp:157] Top shape: 4 512 72 72 (10616832)
I1013 08:04:30.761360 19441 net.cpp:165] Memory required for data: 2886412320
I1013 08:04:30.761368 19441 layer_factory.hpp:76] Creating layer conv4_3
I1013 08:04:30.761380 19441 net.cpp:106] Creating Layer conv4_3
I1013 08:04:30.761389 19441 net.cpp:454] conv4_3 <- conv4_2
I1013 08:04:30.761397 19441 net.cpp:411] conv4_3 -> conv4_3
I1013 08:04:30.768081 19441 net.cpp:150] Setting up conv4_3
I1013 08:04:30.768105 19441 net.cpp:157] Top shape: 4 512 72 72 (10616832)
I1013 08:04:30.768110 19441 net.cpp:165] Memory required for data: 2928879648
I1013 08:04:30.768122 19441 layer_factory.hpp:76] Creating layer relu4_3
I1013 08:04:30.768136 19441 net.cpp:106] Creating Layer relu4_3
I1013 08:04:30.768142 19441 net.cpp:454] relu4_3 <- conv4_3
I1013 08:04:30.768151 19441 net.cpp:397] relu4_3 -> conv4_3 (in-place)
I1013 08:04:30.768548 19441 net.cpp:150] Setting up relu4_3
I1013 08:04:30.768565 19441 net.cpp:157] Top shape: 4 512 72 72 (10616832)
I1013 08:04:30.768570 19441 net.cpp:165] Memory required for data: 2971346976
I1013 08:04:30.768576 19441 layer_factory.hpp:76] Creating layer conv4_3_relu4_3_0_split
I1013 08:04:30.768589 19441 net.cpp:106] Creating Layer conv4_3_relu4_3_0_split
I1013 08:04:30.768594 19441 net.cpp:454] conv4_3_relu4_3_0_split <- conv4_3
I1013 08:04:30.768604 19441 net.cpp:411] conv4_3_relu4_3_0_split -> conv4_3_relu4_3_0_split_0
I1013 08:04:30.768615 19441 net.cpp:411] conv4_3_relu4_3_0_split -> conv4_3_relu4_3_0_split_1
I1013 08:04:30.768682 19441 net.cpp:150] Setting up conv4_3_relu4_3_0_split
I1013 08:04:30.768692 19441 net.cpp:157] Top shape: 4 512 72 72 (10616832)
I1013 08:04:30.768699 19441 net.cpp:157] Top shape: 4 512 72 72 (10616832)
I1013 08:04:30.768704 19441 net.cpp:165] Memory required for data: 3056281632
I1013 08:04:30.768710 19441 layer_factory.hpp:76] Creating layer loss1_conv1
I1013 08:04:30.768733 19441 net.cpp:106] Creating Layer loss1_conv1
I1013 08:04:30.768739 19441 net.cpp:454] loss1_conv1 <- conv4_3_relu4_3_0_split_0
I1013 08:04:30.768750 19441 net.cpp:411] loss1_conv1 -> loss1_conv1
I1013 08:04:30.857453 19441 net.cpp:150] Setting up loss1_conv1
I1013 08:04:30.857480 19441 net.cpp:157] Top shape: 4 512 72 72 (10616832)
I1013 08:04:30.857484 19441 net.cpp:165] Memory required for data: 3098748960
I1013 08:04:30.857497 19441 layer_factory.hpp:76] Creating layer loss_relu1
I1013 08:04:30.857517 19441 net.cpp:106] Creating Layer loss_relu1
I1013 08:04:30.857525 19441 net.cpp:454] loss_relu1 <- loss1_conv1
I1013 08:04:30.857538 19441 net.cpp:397] loss_relu1 -> loss1_conv1 (in-place)
I1013 08:04:30.857755 19441 net.cpp:150] Setting up loss_relu1
I1013 08:04:30.857769 19441 net.cpp:157] Top shape: 4 512 72 72 (10616832)
I1013 08:04:30.857774 19441 net.cpp:165] Memory required for data: 3141216288
I1013 08:04:30.857779 19441 layer_factory.hpp:76] Creating layer loss1_conv1_loss_relu1_0_split
I1013 08:04:30.857790 19441 net.cpp:106] Creating Layer loss1_conv1_loss_relu1_0_split
I1013 08:04:30.857796 19441 net.cpp:454] loss1_conv1_loss_relu1_0_split <- loss1_conv1
I1013 08:04:30.857805 19441 net.cpp:411] loss1_conv1_loss_relu1_0_split -> loss1_conv1_loss_relu1_0_split_0
I1013 08:04:30.857815 19441 net.cpp:411] loss1_conv1_loss_relu1_0_split -> loss1_conv1_loss_relu1_0_split_1
I1013 08:04:30.857883 19441 net.cpp:150] Setting up loss1_conv1_loss_relu1_0_split
I1013 08:04:30.857894 19441 net.cpp:157] Top shape: 4 512 72 72 (10616832)
I1013 08:04:30.857902 19441 net.cpp:157] Top shape: 4 512 72 72 (10616832)
I1013 08:04:30.857906 19441 net.cpp:165] Memory required for data: 3226150944
I1013 08:04:30.857911 19441 layer_factory.hpp:76] Creating layer LFCN_1_3x5
I1013 08:04:30.857926 19441 net.cpp:106] Creating Layer LFCN_1_3x5
I1013 08:04:30.857933 19441 net.cpp:454] LFCN_1_3x5 <- loss1_conv1_loss_relu1_0_split_0
I1013 08:04:30.857944 19441 net.cpp:411] LFCN_1_3x5 -> LFCN_1_3x5
I1013 08:04:30.861062 19441 net.cpp:150] Setting up LFCN_1_3x5
I1013 08:04:30.861080 19441 net.cpp:157] Top shape: 4 6 72 72 (124416)
I1013 08:04:30.861085 19441 net.cpp:165] Memory required for data: 3226648608
I1013 08:04:30.861096 19441 layer_factory.hpp:76] Creating layer LFCN_1_3x5_LFCN_1_3x5_0_split
I1013 08:04:30.861110 19441 net.cpp:106] Creating Layer LFCN_1_3x5_LFCN_1_3x5_0_split
I1013 08:04:30.861117 19441 net.cpp:454] LFCN_1_3x5_LFCN_1_3x5_0_split <- LFCN_1_3x5
I1013 08:04:30.861126 19441 net.cpp:411] LFCN_1_3x5_LFCN_1_3x5_0_split -> LFCN_1_3x5_LFCN_1_3x5_0_split_0
I1013 08:04:30.861137 19441 net.cpp:411] LFCN_1_3x5_LFCN_1_3x5_0_split -> LFCN_1_3x5_LFCN_1_3x5_0_split_1
I1013 08:04:30.861202 19441 net.cpp:150] Setting up LFCN_1_3x5_LFCN_1_3x5_0_split
I1013 08:04:30.861213 19441 net.cpp:157] Top shape: 4 6 72 72 (124416)
I1013 08:04:30.861220 19441 net.cpp:157] Top shape: 4 6 72 72 (124416)
I1013 08:04:30.861225 19441 net.cpp:165] Memory required for data: 3227643936
I1013 08:04:30.861232 19441 layer_factory.hpp:76] Creating layer detection_loss_1_3x5
I1013 08:04:30.861243 19441 net.cpp:106] Creating Layer detection_loss_1_3x5
I1013 08:04:30.861249 19441 net.cpp:454] detection_loss_1_3x5 <- LFCN_1_3x5_LFCN_1_3x5_0_split_0
I1013 08:04:30.861258 19441 net.cpp:454] detection_loss_1_3x5 <- label_1_3x5_data_1_split_0
I1013 08:04:30.861268 19441 net.cpp:411] detection_loss_1_3x5 -> loss_1_3x5
I1013 08:04:30.861286 19441 layer_factory.hpp:76] Creating layer detection_loss_1_3x5
I1013 08:04:30.861919 19441 net.cpp:150] Setting up detection_loss_1_3x5
I1013 08:04:30.861935 19441 net.cpp:157] Top shape: 1 1 1 2 (2)
I1013 08:04:30.861940 19441 net.cpp:160]     with loss weight 0.9
I1013 08:04:30.861968 19441 net.cpp:165] Memory required for data: 3227643944
I1013 08:04:30.861974 19441 layer_factory.hpp:76] Creating layer detection_accuracy_1_3x5
I1013 08:04:30.861984 19441 net.cpp:106] Creating Layer detection_accuracy_1_3x5
I1013 08:04:30.861991 19441 net.cpp:454] detection_accuracy_1_3x5 <- LFCN_1_3x5_LFCN_1_3x5_0_split_1
I1013 08:04:30.861999 19441 net.cpp:454] detection_accuracy_1_3x5 <- label_1_3x5_data_1_split_1
I1013 08:04:30.862007 19441 net.cpp:411] detection_accuracy_1_3x5 -> accuracy_1_3x5
I1013 08:04:30.862023 19441 net.cpp:411] detection_accuracy_1_3x5 -> boxiou_1_3x5
I1013 08:04:30.862089 19441 net.cpp:150] Setting up detection_accuracy_1_3x5
I1013 08:04:30.862100 19441 net.cpp:157] Top shape: 1 1 1 2 (2)
I1013 08:04:30.862107 19441 net.cpp:157] Top shape: 1 1 1 1 (1)
I1013 08:04:30.862112 19441 net.cpp:165] Memory required for data: 3227643956
I1013 08:04:30.862118 19441 layer_factory.hpp:76] Creating layer LFCN_1_5x7
I1013 08:04:30.862133 19441 net.cpp:106] Creating Layer LFCN_1_5x7
I1013 08:04:30.862138 19441 net.cpp:454] LFCN_1_5x7 <- loss1_conv1_loss_relu1_0_split_1
I1013 08:04:30.862150 19441 net.cpp:411] LFCN_1_5x7 -> LFCN_1_5x7
I1013 08:04:30.867856 19441 net.cpp:150] Setting up LFCN_1_5x7
I1013 08:04:30.867872 19441 net.cpp:157] Top shape: 4 6 72 72 (124416)
I1013 08:04:30.867878 19441 net.cpp:165] Memory required for data: 3228141620
I1013 08:04:30.867889 19441 layer_factory.hpp:76] Creating layer LFCN_1_5x7_LFCN_1_5x7_0_split
I1013 08:04:30.867899 19441 net.cpp:106] Creating Layer LFCN_1_5x7_LFCN_1_5x7_0_split
I1013 08:04:30.867907 19441 net.cpp:454] LFCN_1_5x7_LFCN_1_5x7_0_split <- LFCN_1_5x7
I1013 08:04:30.867918 19441 net.cpp:411] LFCN_1_5x7_LFCN_1_5x7_0_split -> LFCN_1_5x7_LFCN_1_5x7_0_split_0
I1013 08:04:30.867928 19441 net.cpp:411] LFCN_1_5x7_LFCN_1_5x7_0_split -> LFCN_1_5x7_LFCN_1_5x7_0_split_1
I1013 08:04:30.867995 19441 net.cpp:150] Setting up LFCN_1_5x7_LFCN_1_5x7_0_split
I1013 08:04:30.868010 19441 net.cpp:157] Top shape: 4 6 72 72 (124416)
I1013 08:04:30.868016 19441 net.cpp:157] Top shape: 4 6 72 72 (124416)
I1013 08:04:30.868021 19441 net.cpp:165] Memory required for data: 3229136948
I1013 08:04:30.868026 19441 layer_factory.hpp:76] Creating layer detection_loss_1_5x7
I1013 08:04:30.868038 19441 net.cpp:106] Creating Layer detection_loss_1_5x7
I1013 08:04:30.868044 19441 net.cpp:454] detection_loss_1_5x7 <- LFCN_1_5x7_LFCN_1_5x7_0_split_0
I1013 08:04:30.868052 19441 net.cpp:454] detection_loss_1_5x7 <- label_1_5x7_data_2_split_0
I1013 08:04:30.868062 19441 net.cpp:411] detection_loss_1_5x7 -> loss_1_5x7
I1013 08:04:30.868075 19441 layer_factory.hpp:76] Creating layer detection_loss_1_5x7
I1013 08:04:30.868681 19441 net.cpp:150] Setting up detection_loss_1_5x7
I1013 08:04:30.868697 19441 net.cpp:157] Top shape: 1 1 1 2 (2)
I1013 08:04:30.868703 19441 net.cpp:160]     with loss weight 0.9
I1013 08:04:30.868712 19441 net.cpp:165] Memory required for data: 3229136956
I1013 08:04:30.868718 19441 layer_factory.hpp:76] Creating layer detection_accuracy_1_5x7
I1013 08:04:30.868731 19441 net.cpp:106] Creating Layer detection_accuracy_1_5x7
I1013 08:04:30.868737 19441 net.cpp:454] detection_accuracy_1_5x7 <- LFCN_1_5x7_LFCN_1_5x7_0_split_1
I1013 08:04:30.868746 19441 net.cpp:454] detection_accuracy_1_5x7 <- label_1_5x7_data_2_split_1
I1013 08:04:30.868754 19441 net.cpp:411] detection_accuracy_1_5x7 -> accuracy_1_5x7
I1013 08:04:30.868765 19441 net.cpp:411] detection_accuracy_1_5x7 -> boxiou_1_5x7
I1013 08:04:30.868826 19441 net.cpp:150] Setting up detection_accuracy_1_5x7
I1013 08:04:30.868837 19441 net.cpp:157] Top shape: 1 1 1 2 (2)
I1013 08:04:30.868844 19441 net.cpp:157] Top shape: 1 1 1 1 (1)
I1013 08:04:30.868849 19441 net.cpp:165] Memory required for data: 3229136968
I1013 08:04:30.868854 19441 layer_factory.hpp:76] Creating layer pool4
I1013 08:04:30.868866 19441 net.cpp:106] Creating Layer pool4
I1013 08:04:30.868873 19441 net.cpp:454] pool4 <- conv4_3_relu4_3_0_split_1
I1013 08:04:30.868881 19441 net.cpp:411] pool4 -> pool4
I1013 08:04:30.869309 19441 net.cpp:150] Setting up pool4
I1013 08:04:30.869325 19441 net.cpp:157] Top shape: 4 512 36 36 (2654208)
I1013 08:04:30.869330 19441 net.cpp:165] Memory required for data: 3239753800
I1013 08:04:30.869336 19441 layer_factory.hpp:76] Creating layer conv5_1
I1013 08:04:30.869349 19441 net.cpp:106] Creating Layer conv5_1
I1013 08:04:30.869355 19441 net.cpp:454] conv5_1 <- pool4
I1013 08:04:30.869367 19441 net.cpp:411] conv5_1 -> conv5_1
I1013 08:04:30.876006 19441 net.cpp:150] Setting up conv5_1
I1013 08:04:30.876026 19441 net.cpp:157] Top shape: 4 512 36 36 (2654208)
I1013 08:04:30.876032 19441 net.cpp:165] Memory required for data: 3250370632
I1013 08:04:30.876044 19441 layer_factory.hpp:76] Creating layer relu5_1
I1013 08:04:30.876057 19441 net.cpp:106] Creating Layer relu5_1
I1013 08:04:30.876065 19441 net.cpp:454] relu5_1 <- conv5_1
I1013 08:04:30.876073 19441 net.cpp:397] relu5_1 -> conv5_1 (in-place)
I1013 08:04:30.876469 19441 net.cpp:150] Setting up relu5_1
I1013 08:04:30.876484 19441 net.cpp:157] Top shape: 4 512 36 36 (2654208)
I1013 08:04:30.876490 19441 net.cpp:165] Memory required for data: 3260987464
I1013 08:04:30.876497 19441 layer_factory.hpp:76] Creating layer conv5_2
I1013 08:04:30.876509 19441 net.cpp:106] Creating Layer conv5_2
I1013 08:04:30.876516 19441 net.cpp:454] conv5_2 <- conv5_1
I1013 08:04:30.876531 19441 net.cpp:411] conv5_2 -> conv5_2
I1013 08:04:30.883442 19441 net.cpp:150] Setting up conv5_2
I1013 08:04:30.883465 19441 net.cpp:157] Top shape: 4 512 36 36 (2654208)
I1013 08:04:30.883469 19441 net.cpp:165] Memory required for data: 3271604296
I1013 08:04:30.883481 19441 layer_factory.hpp:76] Creating layer relu5_2
I1013 08:04:30.883491 19441 net.cpp:106] Creating Layer relu5_2
I1013 08:04:30.883498 19441 net.cpp:454] relu5_2 <- conv5_2
I1013 08:04:30.883510 19441 net.cpp:397] relu5_2 -> conv5_2 (in-place)
I1013 08:04:30.883728 19441 net.cpp:150] Setting up relu5_2
I1013 08:04:30.883743 19441 net.cpp:157] Top shape: 4 512 36 36 (2654208)
I1013 08:04:30.883749 19441 net.cpp:165] Memory required for data: 3282221128
I1013 08:04:30.883754 19441 layer_factory.hpp:76] Creating layer conv5_3
I1013 08:04:30.883764 19441 net.cpp:106] Creating Layer conv5_3
I1013 08:04:30.883770 19441 net.cpp:454] conv5_3 <- conv5_2
I1013 08:04:30.883781 19441 net.cpp:411] conv5_3 -> conv5_3
I1013 08:04:30.890496 19441 net.cpp:150] Setting up conv5_3
I1013 08:04:30.890517 19441 net.cpp:157] Top shape: 4 512 36 36 (2654208)
I1013 08:04:30.890522 19441 net.cpp:165] Memory required for data: 3292837960
I1013 08:04:30.890534 19441 layer_factory.hpp:76] Creating layer relu5_3
I1013 08:04:30.890553 19441 net.cpp:106] Creating Layer relu5_3
I1013 08:04:30.890563 19441 net.cpp:454] relu5_3 <- conv5_3
I1013 08:04:30.890570 19441 net.cpp:397] relu5_3 -> conv5_3 (in-place)
I1013 08:04:30.890983 19441 net.cpp:150] Setting up relu5_3
I1013 08:04:30.890998 19441 net.cpp:157] Top shape: 4 512 36 36 (2654208)
I1013 08:04:30.891005 19441 net.cpp:165] Memory required for data: 3303454792
I1013 08:04:30.891010 19441 layer_factory.hpp:76] Creating layer conv5_3_relu5_3_0_split
I1013 08:04:30.891022 19441 net.cpp:106] Creating Layer conv5_3_relu5_3_0_split
I1013 08:04:30.891029 19441 net.cpp:454] conv5_3_relu5_3_0_split <- conv5_3
I1013 08:04:30.891038 19441 net.cpp:411] conv5_3_relu5_3_0_split -> conv5_3_relu5_3_0_split_0
I1013 08:04:30.891050 19441 net.cpp:411] conv5_3_relu5_3_0_split -> conv5_3_relu5_3_0_split_1
I1013 08:04:30.891060 19441 net.cpp:411] conv5_3_relu5_3_0_split -> conv5_3_relu5_3_0_split_2
I1013 08:04:30.891147 19441 net.cpp:150] Setting up conv5_3_relu5_3_0_split
I1013 08:04:30.891158 19441 net.cpp:157] Top shape: 4 512 36 36 (2654208)
I1013 08:04:30.891166 19441 net.cpp:157] Top shape: 4 512 36 36 (2654208)
I1013 08:04:30.891172 19441 net.cpp:157] Top shape: 4 512 36 36 (2654208)
I1013 08:04:30.891176 19441 net.cpp:165] Memory required for data: 3335305288
I1013 08:04:30.891182 19441 layer_factory.hpp:76] Creating layer LFCN_2_3x5
I1013 08:04:30.891197 19441 net.cpp:106] Creating Layer LFCN_2_3x5
I1013 08:04:30.891203 19441 net.cpp:454] LFCN_2_3x5 <- conv5_3_relu5_3_0_split_0
I1013 08:04:30.891216 19441 net.cpp:411] LFCN_2_3x5 -> LFCN_2_3x5
I1013 08:04:30.893921 19441 net.cpp:150] Setting up LFCN_2_3x5
I1013 08:04:30.893939 19441 net.cpp:157] Top shape: 4 6 36 36 (31104)
I1013 08:04:30.893944 19441 net.cpp:165] Memory required for data: 3335429704
I1013 08:04:30.893970 19441 layer_factory.hpp:76] Creating layer LFCN_2_3x5_LFCN_2_3x5_0_split
I1013 08:04:30.893980 19441 net.cpp:106] Creating Layer LFCN_2_3x5_LFCN_2_3x5_0_split
I1013 08:04:30.893986 19441 net.cpp:454] LFCN_2_3x5_LFCN_2_3x5_0_split <- LFCN_2_3x5
I1013 08:04:30.893998 19441 net.cpp:411] LFCN_2_3x5_LFCN_2_3x5_0_split -> LFCN_2_3x5_LFCN_2_3x5_0_split_0
I1013 08:04:30.894011 19441 net.cpp:411] LFCN_2_3x5_LFCN_2_3x5_0_split -> LFCN_2_3x5_LFCN_2_3x5_0_split_1
I1013 08:04:30.894080 19441 net.cpp:150] Setting up LFCN_2_3x5_LFCN_2_3x5_0_split
I1013 08:04:30.894094 19441 net.cpp:157] Top shape: 4 6 36 36 (31104)
I1013 08:04:30.894101 19441 net.cpp:157] Top shape: 4 6 36 36 (31104)
I1013 08:04:30.894106 19441 net.cpp:165] Memory required for data: 3335678536
I1013 08:04:30.894111 19441 layer_factory.hpp:76] Creating layer detection_loss_2_3x5
I1013 08:04:30.894121 19441 net.cpp:106] Creating Layer detection_loss_2_3x5
I1013 08:04:30.894127 19441 net.cpp:454] detection_loss_2_3x5 <- LFCN_2_3x5_LFCN_2_3x5_0_split_0
I1013 08:04:30.894135 19441 net.cpp:454] detection_loss_2_3x5 <- label_2_3x5_data_3_split_0
I1013 08:04:30.894147 19441 net.cpp:411] detection_loss_2_3x5 -> loss_2_3x5
I1013 08:04:30.894161 19441 layer_factory.hpp:76] Creating layer detection_loss_2_3x5
I1013 08:04:30.894773 19441 net.cpp:150] Setting up detection_loss_2_3x5
I1013 08:04:30.894789 19441 net.cpp:157] Top shape: 1 1 1 2 (2)
I1013 08:04:30.894794 19441 net.cpp:160]     with loss weight 1
I1013 08:04:30.894812 19441 net.cpp:165] Memory required for data: 3335678544
I1013 08:04:30.894819 19441 layer_factory.hpp:76] Creating layer detection_accuracy_2_3x5
I1013 08:04:30.894834 19441 net.cpp:106] Creating Layer detection_accuracy_2_3x5
I1013 08:04:30.894840 19441 net.cpp:454] detection_accuracy_2_3x5 <- LFCN_2_3x5_LFCN_2_3x5_0_split_1
I1013 08:04:30.894850 19441 net.cpp:454] detection_accuracy_2_3x5 <- label_2_3x5_data_3_split_1
I1013 08:04:30.894858 19441 net.cpp:411] detection_accuracy_2_3x5 -> accuracy_2_3x5
I1013 08:04:30.894870 19441 net.cpp:411] detection_accuracy_2_3x5 -> boxiou_2_3x5
I1013 08:04:30.894953 19441 net.cpp:150] Setting up detection_accuracy_2_3x5
I1013 08:04:30.894968 19441 net.cpp:157] Top shape: 1 1 1 2 (2)
I1013 08:04:30.894975 19441 net.cpp:157] Top shape: 1 1 1 1 (1)
I1013 08:04:30.894979 19441 net.cpp:165] Memory required for data: 3335678556
I1013 08:04:30.894985 19441 layer_factory.hpp:76] Creating layer LFCN_2_5x7
I1013 08:04:30.894999 19441 net.cpp:106] Creating Layer LFCN_2_5x7
I1013 08:04:30.895005 19441 net.cpp:454] LFCN_2_5x7 <- conv5_3_relu5_3_0_split_1
I1013 08:04:30.895015 19441 net.cpp:411] LFCN_2_5x7 -> LFCN_2_5x7
I1013 08:04:30.900096 19441 net.cpp:150] Setting up LFCN_2_5x7
I1013 08:04:30.900113 19441 net.cpp:157] Top shape: 4 6 36 36 (31104)
I1013 08:04:30.900118 19441 net.cpp:165] Memory required for data: 3335802972
I1013 08:04:30.900130 19441 layer_factory.hpp:76] Creating layer LFCN_2_5x7_LFCN_2_5x7_0_split
I1013 08:04:30.900140 19441 net.cpp:106] Creating Layer LFCN_2_5x7_LFCN_2_5x7_0_split
I1013 08:04:30.900146 19441 net.cpp:454] LFCN_2_5x7_LFCN_2_5x7_0_split <- LFCN_2_5x7
I1013 08:04:30.900159 19441 net.cpp:411] LFCN_2_5x7_LFCN_2_5x7_0_split -> LFCN_2_5x7_LFCN_2_5x7_0_split_0
I1013 08:04:30.900171 19441 net.cpp:411] LFCN_2_5x7_LFCN_2_5x7_0_split -> LFCN_2_5x7_LFCN_2_5x7_0_split_1
I1013 08:04:30.900238 19441 net.cpp:150] Setting up LFCN_2_5x7_LFCN_2_5x7_0_split
I1013 08:04:30.900249 19441 net.cpp:157] Top shape: 4 6 36 36 (31104)
I1013 08:04:30.900256 19441 net.cpp:157] Top shape: 4 6 36 36 (31104)
I1013 08:04:30.900261 19441 net.cpp:165] Memory required for data: 3336051804
I1013 08:04:30.900266 19441 layer_factory.hpp:76] Creating layer detection_loss_2_5x7
I1013 08:04:30.900279 19441 net.cpp:106] Creating Layer detection_loss_2_5x7
I1013 08:04:30.900285 19441 net.cpp:454] detection_loss_2_5x7 <- LFCN_2_5x7_LFCN_2_5x7_0_split_0
I1013 08:04:30.900292 19441 net.cpp:454] detection_loss_2_5x7 <- label_2_5x7_data_4_split_0
I1013 08:04:30.900305 19441 net.cpp:411] detection_loss_2_5x7 -> loss_2_5x7
I1013 08:04:30.900317 19441 layer_factory.hpp:76] Creating layer detection_loss_2_5x7
I1013 08:04:30.900755 19441 net.cpp:150] Setting up detection_loss_2_5x7
I1013 08:04:30.900773 19441 net.cpp:157] Top shape: 1 1 1 2 (2)
I1013 08:04:30.900779 19441 net.cpp:160]     with loss weight 1
I1013 08:04:30.900789 19441 net.cpp:165] Memory required for data: 3336051812
I1013 08:04:30.900795 19441 layer_factory.hpp:76] Creating layer detection_accuracy_2_5x7
I1013 08:04:30.900804 19441 net.cpp:106] Creating Layer detection_accuracy_2_5x7
I1013 08:04:30.900810 19441 net.cpp:454] detection_accuracy_2_5x7 <- LFCN_2_5x7_LFCN_2_5x7_0_split_1
I1013 08:04:30.900818 19441 net.cpp:454] detection_accuracy_2_5x7 <- label_2_5x7_data_4_split_1
I1013 08:04:30.900827 19441 net.cpp:411] detection_accuracy_2_5x7 -> accuracy_2_5x7
I1013 08:04:30.900838 19441 net.cpp:411] detection_accuracy_2_5x7 -> boxiou_2_5x7
I1013 08:04:30.900913 19441 net.cpp:150] Setting up detection_accuracy_2_5x7
I1013 08:04:30.900924 19441 net.cpp:157] Top shape: 1 1 1 2 (2)
I1013 08:04:30.900931 19441 net.cpp:157] Top shape: 1 1 1 1 (1)
I1013 08:04:30.900935 19441 net.cpp:165] Memory required for data: 3336051824
I1013 08:04:30.900941 19441 layer_factory.hpp:76] Creating layer pool5
I1013 08:04:30.900954 19441 net.cpp:106] Creating Layer pool5
I1013 08:04:30.900960 19441 net.cpp:454] pool5 <- conv5_3_relu5_3_0_split_2
I1013 08:04:30.900969 19441 net.cpp:411] pool5 -> pool5
I1013 08:04:30.901402 19441 net.cpp:150] Setting up pool5
I1013 08:04:30.901417 19441 net.cpp:157] Top shape: 4 512 18 18 (663552)
I1013 08:04:30.901423 19441 net.cpp:165] Memory required for data: 3338706032
I1013 08:04:30.901429 19441 layer_factory.hpp:76] Creating layer conv6_1
I1013 08:04:30.901443 19441 net.cpp:106] Creating Layer conv6_1
I1013 08:04:30.901450 19441 net.cpp:454] conv6_1 <- pool5
I1013 08:04:30.901464 19441 net.cpp:411] conv6_1 -> conv6_1
I1013 08:04:30.990123 19441 net.cpp:150] Setting up conv6_1
I1013 08:04:30.990147 19441 net.cpp:157] Top shape: 4 512 18 18 (663552)
I1013 08:04:30.990154 19441 net.cpp:165] Memory required for data: 3341360240
I1013 08:04:30.990165 19441 layer_factory.hpp:76] Creating layer relu6_1
I1013 08:04:30.990186 19441 net.cpp:106] Creating Layer relu6_1
I1013 08:04:30.990195 19441 net.cpp:454] relu6_1 <- conv6_1
I1013 08:04:30.990206 19441 net.cpp:397] relu6_1 -> conv6_1 (in-place)
I1013 08:04:30.990660 19441 net.cpp:150] Setting up relu6_1
I1013 08:04:30.990676 19441 net.cpp:157] Top shape: 4 512 18 18 (663552)
I1013 08:04:30.990681 19441 net.cpp:165] Memory required for data: 3344014448
I1013 08:04:30.990687 19441 layer_factory.hpp:76] Creating layer conv6_1_relu6_1_0_split
I1013 08:04:30.990697 19441 net.cpp:106] Creating Layer conv6_1_relu6_1_0_split
I1013 08:04:30.990706 19441 net.cpp:454] conv6_1_relu6_1_0_split <- conv6_1
I1013 08:04:30.990715 19441 net.cpp:411] conv6_1_relu6_1_0_split -> conv6_1_relu6_1_0_split_0
I1013 08:04:30.990726 19441 net.cpp:411] conv6_1_relu6_1_0_split -> conv6_1_relu6_1_0_split_1
I1013 08:04:30.990736 19441 net.cpp:411] conv6_1_relu6_1_0_split -> conv6_1_relu6_1_0_split_2
I1013 08:04:30.990818 19441 net.cpp:150] Setting up conv6_1_relu6_1_0_split
I1013 08:04:30.990833 19441 net.cpp:157] Top shape: 4 512 18 18 (663552)
I1013 08:04:30.990839 19441 net.cpp:157] Top shape: 4 512 18 18 (663552)
I1013 08:04:30.990846 19441 net.cpp:157] Top shape: 4 512 18 18 (663552)
I1013 08:04:30.990850 19441 net.cpp:165] Memory required for data: 3351977072
I1013 08:04:30.990856 19441 layer_factory.hpp:76] Creating layer LFCN_3_3x5
I1013 08:04:30.990871 19441 net.cpp:106] Creating Layer LFCN_3_3x5
I1013 08:04:30.990877 19441 net.cpp:454] LFCN_3_3x5 <- conv6_1_relu6_1_0_split_0
I1013 08:04:30.990897 19441 net.cpp:411] LFCN_3_3x5 -> LFCN_3_3x5
I1013 08:04:30.994336 19441 net.cpp:150] Setting up LFCN_3_3x5
I1013 08:04:30.994354 19441 net.cpp:157] Top shape: 4 6 18 18 (7776)
I1013 08:04:30.994359 19441 net.cpp:165] Memory required for data: 3352008176
I1013 08:04:30.994370 19441 layer_factory.hpp:76] Creating layer LFCN_3_3x5_LFCN_3_3x5_0_split
I1013 08:04:30.994393 19441 net.cpp:106] Creating Layer LFCN_3_3x5_LFCN_3_3x5_0_split
I1013 08:04:30.994400 19441 net.cpp:454] LFCN_3_3x5_LFCN_3_3x5_0_split <- LFCN_3_3x5
I1013 08:04:30.994412 19441 net.cpp:411] LFCN_3_3x5_LFCN_3_3x5_0_split -> LFCN_3_3x5_LFCN_3_3x5_0_split_0
I1013 08:04:30.994424 19441 net.cpp:411] LFCN_3_3x5_LFCN_3_3x5_0_split -> LFCN_3_3x5_LFCN_3_3x5_0_split_1
I1013 08:04:30.994493 19441 net.cpp:150] Setting up LFCN_3_3x5_LFCN_3_3x5_0_split
I1013 08:04:30.994505 19441 net.cpp:157] Top shape: 4 6 18 18 (7776)
I1013 08:04:30.994513 19441 net.cpp:157] Top shape: 4 6 18 18 (7776)
I1013 08:04:30.994516 19441 net.cpp:165] Memory required for data: 3352070384
I1013 08:04:30.994524 19441 layer_factory.hpp:76] Creating layer detection_loss_3_3x5
I1013 08:04:30.994536 19441 net.cpp:106] Creating Layer detection_loss_3_3x5
I1013 08:04:30.994542 19441 net.cpp:454] detection_loss_3_3x5 <- LFCN_3_3x5_LFCN_3_3x5_0_split_0
I1013 08:04:30.994550 19441 net.cpp:454] detection_loss_3_3x5 <- label_3_3x5_data_5_split_0
I1013 08:04:30.994560 19441 net.cpp:411] detection_loss_3_3x5 -> loss_3_3x5
I1013 08:04:30.994573 19441 layer_factory.hpp:76] Creating layer detection_loss_3_3x5
I1013 08:04:30.995020 19441 net.cpp:150] Setting up detection_loss_3_3x5
I1013 08:04:30.995035 19441 net.cpp:157] Top shape: 1 1 1 2 (2)
I1013 08:04:30.995040 19441 net.cpp:160]     with loss weight 1
I1013 08:04:30.995054 19441 net.cpp:165] Memory required for data: 3352070392
I1013 08:04:30.995060 19441 layer_factory.hpp:76] Creating layer detection_accuracy_3_3x5
I1013 08:04:30.995074 19441 net.cpp:106] Creating Layer detection_accuracy_3_3x5
I1013 08:04:30.995080 19441 net.cpp:454] detection_accuracy_3_3x5 <- LFCN_3_3x5_LFCN_3_3x5_0_split_1
I1013 08:04:30.995088 19441 net.cpp:454] detection_accuracy_3_3x5 <- label_3_3x5_data_5_split_1
I1013 08:04:30.995100 19441 net.cpp:411] detection_accuracy_3_3x5 -> accuracy_3_3x5
I1013 08:04:30.995112 19441 net.cpp:411] detection_accuracy_3_3x5 -> boxiou_3_3x5
I1013 08:04:30.995177 19441 net.cpp:150] Setting up detection_accuracy_3_3x5
I1013 08:04:30.995187 19441 net.cpp:157] Top shape: 1 1 1 2 (2)
I1013 08:04:30.995194 19441 net.cpp:157] Top shape: 1 1 1 1 (1)
I1013 08:04:30.995198 19441 net.cpp:165] Memory required for data: 3352070404
I1013 08:04:30.995203 19441 layer_factory.hpp:76] Creating layer LFCN_3_5x7
I1013 08:04:30.995216 19441 net.cpp:106] Creating Layer LFCN_3_5x7
I1013 08:04:30.995223 19441 net.cpp:454] LFCN_3_5x7 <- conv6_1_relu6_1_0_split_1
I1013 08:04:30.995234 19441 net.cpp:411] LFCN_3_5x7 -> LFCN_3_5x7
I1013 08:04:31.000854 19441 net.cpp:150] Setting up LFCN_3_5x7
I1013 08:04:31.000871 19441 net.cpp:157] Top shape: 4 6 18 18 (7776)
I1013 08:04:31.000877 19441 net.cpp:165] Memory required for data: 3352101508
I1013 08:04:31.000888 19441 layer_factory.hpp:76] Creating layer LFCN_3_5x7_LFCN_3_5x7_0_split
I1013 08:04:31.000900 19441 net.cpp:106] Creating Layer LFCN_3_5x7_LFCN_3_5x7_0_split
I1013 08:04:31.000907 19441 net.cpp:454] LFCN_3_5x7_LFCN_3_5x7_0_split <- LFCN_3_5x7
I1013 08:04:31.000916 19441 net.cpp:411] LFCN_3_5x7_LFCN_3_5x7_0_split -> LFCN_3_5x7_LFCN_3_5x7_0_split_0
I1013 08:04:31.000927 19441 net.cpp:411] LFCN_3_5x7_LFCN_3_5x7_0_split -> LFCN_3_5x7_LFCN_3_5x7_0_split_1
I1013 08:04:31.000998 19441 net.cpp:150] Setting up LFCN_3_5x7_LFCN_3_5x7_0_split
I1013 08:04:31.001009 19441 net.cpp:157] Top shape: 4 6 18 18 (7776)
I1013 08:04:31.001016 19441 net.cpp:157] Top shape: 4 6 18 18 (7776)
I1013 08:04:31.001021 19441 net.cpp:165] Memory required for data: 3352163716
I1013 08:04:31.001027 19441 layer_factory.hpp:76] Creating layer detection_loss_3_5x7
I1013 08:04:31.001036 19441 net.cpp:106] Creating Layer detection_loss_3_5x7
I1013 08:04:31.001041 19441 net.cpp:454] detection_loss_3_5x7 <- LFCN_3_5x7_LFCN_3_5x7_0_split_0
I1013 08:04:31.001049 19441 net.cpp:454] detection_loss_3_5x7 <- label_3_5x7_data_6_split_0
I1013 08:04:31.001060 19441 net.cpp:411] detection_loss_3_5x7 -> loss_3_5x7
I1013 08:04:31.001073 19441 layer_factory.hpp:76] Creating layer detection_loss_3_5x7
I1013 08:04:31.001683 19441 net.cpp:150] Setting up detection_loss_3_5x7
I1013 08:04:31.001698 19441 net.cpp:157] Top shape: 1 1 1 2 (2)
I1013 08:04:31.001704 19441 net.cpp:160]     with loss weight 1
I1013 08:04:31.001713 19441 net.cpp:165] Memory required for data: 3352163724
I1013 08:04:31.001718 19441 layer_factory.hpp:76] Creating layer detection_accuracy_3_5x7
I1013 08:04:31.001729 19441 net.cpp:106] Creating Layer detection_accuracy_3_5x7
I1013 08:04:31.001735 19441 net.cpp:454] detection_accuracy_3_5x7 <- LFCN_3_5x7_LFCN_3_5x7_0_split_1
I1013 08:04:31.001744 19441 net.cpp:454] detection_accuracy_3_5x7 <- label_3_5x7_data_6_split_1
I1013 08:04:31.001759 19441 net.cpp:411] detection_accuracy_3_5x7 -> accuracy_3_5x7
I1013 08:04:31.001771 19441 net.cpp:411] detection_accuracy_3_5x7 -> boxiou_3_5x7
I1013 08:04:31.001837 19441 net.cpp:150] Setting up detection_accuracy_3_5x7
I1013 08:04:31.001847 19441 net.cpp:157] Top shape: 1 1 1 2 (2)
I1013 08:04:31.001854 19441 net.cpp:157] Top shape: 1 1 1 1 (1)
I1013 08:04:31.001859 19441 net.cpp:165] Memory required for data: 3352163736
I1013 08:04:31.001864 19441 layer_factory.hpp:76] Creating layer pool6
I1013 08:04:31.001876 19441 net.cpp:106] Creating Layer pool6
I1013 08:04:31.001883 19441 net.cpp:454] pool6 <- conv6_1_relu6_1_0_split_2
I1013 08:04:31.001891 19441 net.cpp:411] pool6 -> pool6
I1013 08:04:31.002149 19441 net.cpp:150] Setting up pool6
I1013 08:04:31.002163 19441 net.cpp:157] Top shape: 4 512 9 9 (165888)
I1013 08:04:31.002169 19441 net.cpp:165] Memory required for data: 3352827288
I1013 08:04:31.002174 19441 layer_factory.hpp:76] Creating layer LFCN_4_3x5
I1013 08:04:31.002188 19441 net.cpp:106] Creating Layer LFCN_4_3x5
I1013 08:04:31.002195 19441 net.cpp:454] LFCN_4_3x5 <- pool6
I1013 08:04:31.002207 19441 net.cpp:411] LFCN_4_3x5 -> LFCN_4_3x5
I1013 08:04:31.005111 19441 net.cpp:150] Setting up LFCN_4_3x5
I1013 08:04:31.005128 19441 net.cpp:157] Top shape: 4 6 9 9 (1944)
I1013 08:04:31.005134 19441 net.cpp:165] Memory required for data: 3352835064
I1013 08:04:31.005144 19441 layer_factory.hpp:76] Creating layer LFCN_4_3x5_LFCN_4_3x5_0_split
I1013 08:04:31.005157 19441 net.cpp:106] Creating Layer LFCN_4_3x5_LFCN_4_3x5_0_split
I1013 08:04:31.005164 19441 net.cpp:454] LFCN_4_3x5_LFCN_4_3x5_0_split <- LFCN_4_3x5
I1013 08:04:31.005173 19441 net.cpp:411] LFCN_4_3x5_LFCN_4_3x5_0_split -> LFCN_4_3x5_LFCN_4_3x5_0_split_0
I1013 08:04:31.005189 19441 net.cpp:411] LFCN_4_3x5_LFCN_4_3x5_0_split -> LFCN_4_3x5_LFCN_4_3x5_0_split_1
I1013 08:04:31.005269 19441 net.cpp:150] Setting up LFCN_4_3x5_LFCN_4_3x5_0_split
I1013 08:04:31.005282 19441 net.cpp:157] Top shape: 4 6 9 9 (1944)
I1013 08:04:31.005290 19441 net.cpp:157] Top shape: 4 6 9 9 (1944)
I1013 08:04:31.005293 19441 net.cpp:165] Memory required for data: 3352850616
I1013 08:04:31.005300 19441 layer_factory.hpp:76] Creating layer detection_loss_4_3x5
I1013 08:04:31.005311 19441 net.cpp:106] Creating Layer detection_loss_4_3x5
I1013 08:04:31.005317 19441 net.cpp:454] detection_loss_4_3x5 <- LFCN_4_3x5_LFCN_4_3x5_0_split_0
I1013 08:04:31.005326 19441 net.cpp:454] detection_loss_4_3x5 <- label_4_3x5_data_7_split_0
I1013 08:04:31.005333 19441 net.cpp:411] detection_loss_4_3x5 -> loss_4_3x5
I1013 08:04:31.005347 19441 layer_factory.hpp:76] Creating layer detection_loss_4_3x5
I1013 08:04:31.005960 19441 net.cpp:150] Setting up detection_loss_4_3x5
I1013 08:04:31.005976 19441 net.cpp:157] Top shape: 1 1 1 2 (2)
I1013 08:04:31.005981 19441 net.cpp:160]     with loss weight 1
I1013 08:04:31.005990 19441 net.cpp:165] Memory required for data: 3352850624
I1013 08:04:31.005996 19441 layer_factory.hpp:76] Creating layer detection_accuracy_4_3x5
I1013 08:04:31.006008 19441 net.cpp:106] Creating Layer detection_accuracy_4_3x5
I1013 08:04:31.006016 19441 net.cpp:454] detection_accuracy_4_3x5 <- LFCN_4_3x5_LFCN_4_3x5_0_split_1
I1013 08:04:31.006023 19441 net.cpp:454] detection_accuracy_4_3x5 <- label_4_3x5_data_7_split_1
I1013 08:04:31.006032 19441 net.cpp:411] detection_accuracy_4_3x5 -> accuracy_4_3x5
I1013 08:04:31.006044 19441 net.cpp:411] detection_accuracy_4_3x5 -> boxiou_4_3x5
I1013 08:04:31.006113 19441 net.cpp:150] Setting up detection_accuracy_4_3x5
I1013 08:04:31.006124 19441 net.cpp:157] Top shape: 1 1 1 2 (2)
I1013 08:04:31.006130 19441 net.cpp:157] Top shape: 1 1 1 1 (1)
I1013 08:04:31.006135 19441 net.cpp:165] Memory required for data: 3352850636
I1013 08:04:31.006141 19441 net.cpp:228] detection_accuracy_4_3x5 does not need backward computation.
I1013 08:04:31.006147 19441 net.cpp:226] detection_loss_4_3x5 needs backward computation.
I1013 08:04:31.006153 19441 net.cpp:226] LFCN_4_3x5_LFCN_4_3x5_0_split needs backward computation.
I1013 08:04:31.006158 19441 net.cpp:226] LFCN_4_3x5 needs backward computation.
…
I1013 08:04:31.016633 19441 image_gt_data_layer.cpp:234] output label size 1 : 2,6,72,72
I1013 08:04:31.016721 19441 image_gt_data_layer.cpp:234] output label size 2 : 2,6,36,36
I1013 08:04:31.016803 19441 image_gt_data_layer.cpp:234] output label size 3 : 2,6,36,36
I1013 08:04:31.016883 19441 image_gt_data_layer.cpp:234] output label size 4 : 2,6,18,18
I1013 08:04:31.016963 19441 image_gt_data_layer.cpp:234] output label size 5 : 2,6,18,18
I1013 08:04:31.017038 19441 image_gt_data_layer.cpp:234] output label size 6 : 2,6,9,9
I1013 08:04:31.034430 19441 net.cpp:150] Setting up data
I1013 08:04:31.034461 19441 net.cpp:157] Top shape: 2 3 576 576 (1990656)
I1013 08:04:31.034468 19441 net.cpp:157] Top shape: 2 6 72 72 (62208)
I1013 08:04:31.034476 19441 net.cpp:157] Top shape: 2 6 72 72 (62208)
I1013 08:04:31.034482 19441 net.cpp:157] Top shape: 2 6 36 36 (15552)
I1013 08:04:31.034487 19441 net.cpp:157] Top shape: 2 6 36 36 (15552)
I1013 08:04:31.034492 19441 net.cpp:157] Top shape: 2 6 18 18 (3888)
I1013 08:04:31.034497 19441 net.cpp:157] Top shape: 2 6 18 18 (3888)
I1013 08:04:31.034503 19441 net.cpp:157] Top shape: 2 6 9 9 (972)
I1013 08:04:31.034508 19441 net.cpp:165] Memory required for data: 8619696
I1013 08:04:31.034518 19441 layer_factory.hpp:76] Creating layer label_1_3x5_data_1_split
I1013 08:04:31.034533 19441 net.cpp:106] Creating Layer label_1_3x5_data_1_split
I1013 08:04:31.034540 19441 net.cpp:454] label_1_3x5_data_1_split <- label_1_3x5
I1013 08:04:31.034551 19441 net.cpp:411] label_1_3x5_data_1_split -> label_1_3x5_data_1_split_0
I1013 08:04:31.034567 19441 net.cpp:411] label_1_3x5_data_1_split -> label_1_3x5_data_1_split_1
I1013 08:04:31.034683 19441 net.cpp:150] Setting up label_1_3x5_data_1_split
I1013 08:04:31.034695 19441 net.cpp:157] Top shape: 2 6 72 72 (62208)
I1013 08:04:31.034703 19441 net.cpp:157] Top shape: 2 6 72 72 (62208)
I1013 08:04:31.034708 19441 net.cpp:165] Memory required for data: 9117360
I1013 08:04:31.034713 19441 layer_factory.hpp:76] Creating layer label_1_5x7_data_2_split
I1013 08:04:31.034724 19441 net.cpp:106] Creating Layer label_1_5x7_data_2_split
I1013 08:04:31.034730 19441 net.cpp:454] label_1_5x7_data_2_split <- label_1_5x7
I1013 08:04:31.034739 19441 net.cpp:411] label_1_5x7_data_2_split -> label_1_5x7_data_2_split_0
I1013 08:04:31.034749 19441 net.cpp:411] label_1_5x7_data_2_split -> label_1_5x7_data_2_split_1
I1013 08:04:31.034821 19441 net.cpp:150] Setting up label_1_5x7_data_2_split
I1013 08:04:31.034832 19441 net.cpp:157] Top shape: 2 6 72 72 (62208)
I1013 08:04:31.034838 19441 net.cpp:157] Top shape: 2 6 72 72 (62208)
I1013 08:04:31.034843 19441 net.cpp:165] Memory required for data: 9615024
I1013 08:04:31.034848 19441 layer_factory.hpp:76] Creating layer label_2_3x5_data_3_split
I1013 08:04:31.034857 19441 net.cpp:106] Creating Layer label_2_3x5_data_3_split
I1013 08:04:31.034862 19441 net.cpp:454] label_2_3x5_data_3_split <- label_2_3x5
I1013 08:04:31.034871 19441 net.cpp:411] label_2_3x5_data_3_split -> label_2_3x5_data_3_split_0
I1013 08:04:31.034881 19441 net.cpp:411] label_2_3x5_data_3_split -> label_2_3x5_data_3_split_1
I1013 08:04:31.034957 19441 net.cpp:150] Setting up label_2_3x5_data_3_split
I1013 08:04:31.034968 19441 net.cpp:157] Top shape: 2 6 36 36 (15552)
I1013 08:04:31.034976 19441 net.cpp:157] Top shape: 2 6 36 36 (15552)
I1013 08:04:31.034981 19441 net.cpp:165] Memory required for data: 9739440
I1013 08:04:31.034986 19441 layer_factory.hpp:76] Creating layer label_2_5x7_data_4_split
I1013 08:04:31.034996 19441 net.cpp:106] Creating Layer label_2_5x7_data_4_split
I1013 08:04:31.035001 19441 net.cpp:454] label_2_5x7_data_4_split <- label_2_5x7
I1013 08:04:31.035012 19441 net.cpp:411] label_2_5x7_data_4_split -> label_2_5x7_data_4_split_0
I1013 08:04:31.035022 19441 net.cpp:411] label_2_5x7_data_4_split -> label_2_5x7_data_4_split_1
I1013 08:04:31.035087 19441 net.cpp:150] Setting up label_2_5x7_data_4_split
I1013 08:04:31.035099 19441 net.cpp:157] Top shape: 2 6 36 36 (15552)
I1013 08:04:31.035105 19441 net.cpp:157] Top shape: 2 6 36 36 (15552)
I1013 08:04:31.035109 19441 net.cpp:165] Memory required for data: 9863856
I1013 08:04:31.035115 19441 layer_factory.hpp:76] Creating layer label_3_3x5_data_5_split
I1013 08:04:31.035122 19441 net.cpp:106] Creating Layer label_3_3x5_data_5_split
I1013 08:04:31.035128 19441 net.cpp:454] label_3_3x5_data_5_split <- label_3_3x5
I1013 08:04:31.035140 19441 net.cpp:411] label_3_3x5_data_5_split -> label_3_3x5_data_5_split_0
I1013 08:04:31.035151 19441 net.cpp:411] label_3_3x5_data_5_split -> label_3_3x5_data_5_split_1
I1013 08:04:31.035210 19441 net.cpp:150] Setting up label_3_3x5_data_5_split
I1013 08:04:31.035221 19441 net.cpp:157] Top shape: 2 6 18 18 (3888)
I1013 08:04:31.035228 19441 net.cpp:157] Top shape: 2 6 18 18 (3888)
I1013 08:04:31.035233 19441 net.cpp:165] Memory required for data: 9894960
I1013 08:04:31.035238 19441 layer_factory.hpp:76] Creating layer label_3_5x7_data_6_split
I1013 08:04:31.035246 19441 net.cpp:106] Creating Layer label_3_5x7_data_6_split
I1013 08:04:31.035251 19441 net.cpp:454] label_3_5x7_data_6_split <- label_3_5x7
I1013 08:04:31.035260 19441 net.cpp:411] label_3_5x7_data_6_split -> label_3_5x7_data_6_split_0
I1013 08:04:31.035272 19441 net.cpp:411] label_3_5x7_data_6_split -> label_3_5x7_data_6_split_1
I1013 08:04:31.035328 19441 net.cpp:150] Setting up label_3_5x7_data_6_split
I1013 08:04:31.035338 19441 net.cpp:157] Top shape: 2 6 18 18 (3888)
I1013 08:04:31.035346 19441 net.cpp:157] Top shape: 2 6 18 18 (3888)
I1013 08:04:31.035351 19441 net.cpp:165] Memory required for data: 9926064
I1013 08:04:31.035356 19441 layer_factory.hpp:76] Creating layer label_4_3x5_data_7_split
I1013 08:04:31.035369 19441 net.cpp:106] Creating Layer label_4_3x5_data_7_split
I1013 08:04:31.035375 19441 net.cpp:454] label_4_3x5_data_7_split <- label_4_3x5
I1013 08:04:31.035383 19441 net.cpp:411] label_4_3x5_data_7_split -> label_4_3x5_data_7_split_0
I1013 08:04:31.035392 19441 net.cpp:411] label_4_3x5_data_7_split -> label_4_3x5_data_7_split_1
I1013 08:04:31.035454 19441 net.cpp:150] Setting up label_4_3x5_data_7_split
I1013 08:04:31.035464 19441 net.cpp:157] Top shape: 2 6 9 9 (972)
I1013 08:04:31.035470 19441 net.cpp:157] Top shape: 2 6 9 9 (972)
I1013 08:04:31.035475 19441 net.cpp:165] Memory required for data: 9933840
I1013 08:04:31.035480 19441 layer_factory.hpp:76] Creating layer conv1_1
I1013 08:04:31.035493 19441 net.cpp:106] Creating Layer conv1_1
I1013 08:04:31.035501 19441 net.cpp:454] conv1_1 <- data
I1013 08:04:31.035508 19441 net.cpp:411] conv1_1 -> conv1_1
I1013 08:04:31.038877 19441 net.cpp:150] Setting up conv1_1
I1013 08:04:31.038905 19441 net.cpp:157] Top shape: 2 64 576 576 (42467328)
I1013 08:04:31.038911 19441 net.cpp:165] Memory required for data: 179803152
I1013 08:04:31.038929 19441 layer_factory.hpp:76] Creating layer relu1_1
I1013 08:04:31.038940 19441 net.cpp:106] Creating Layer relu1_1
I1013 08:04:31.038946 19441 net.cpp:454] relu1_1 <- conv1_1
I1013 08:04:31.038957 19441 net.cpp:397] relu1_1 -> conv1_1 (in-place)
I1013 08:04:31.039371 19441 net.cpp:150] Setting up relu1_1
I1013 08:04:31.039386 19441 net.cpp:157] Top shape: 2 64 576 576 (42467328)
I1013 08:04:31.039391 19441 net.cpp:165] Memory required for data: 349672464
I1013 08:04:31.039397 19441 layer_factory.hpp:76] Creating layer conv1_2
I1013 08:04:31.039412 19441 net.cpp:106] Creating Layer conv1_2
I1013 08:04:31.039418 19441 net.cpp:454] conv1_2 <- conv1_1
I1013 08:04:31.039427 19441 net.cpp:411] conv1_2 -> conv1_2
I1013 08:04:31.041946 19441 net.cpp:150] Setting up conv1_2
I1013 08:04:31.041962 19441 net.cpp:157] Top shape: 2 64 576 576 (42467328)
I1013 08:04:31.041968 19441 net.cpp:165] Memory required for data: 519541776
I1013 08:04:31.041985 19441 layer_factory.hpp:76] Creating layer relu1_2
I1013 08:04:31.041997 19441 net.cpp:106] Creating Layer relu1_2
I1013 08:04:31.042003 19441 net.cpp:454] relu1_2 <- conv1_2
I1013 08:04:31.042012 19441 net.cpp:397] relu1_2 -> conv1_2 (in-place)
I1013 08:04:31.042239 19441 net.cpp:150] Setting up relu1_2
I1013 08:04:31.042253 19441 net.cpp:157] Top shape: 2 64 576 576 (42467328)
I1013 08:04:31.042259 19441 net.cpp:165] Memory required for data: 689411088
I1013 08:04:31.042264 19441 layer_factory.hpp:76] Creating layer pool1
I1013 08:04:31.042275 19441 net.cpp:106] Creating Layer pool1
I1013 08:04:31.042281 19441 net.cpp:454] pool1 <- conv1_2
I1013 08:04:31.042292 19441 net.cpp:411] pool1 -> pool1
I1013 08:04:31.042745 19441 net.cpp:150] Setting up pool1
I1013 08:04:31.042762 19441 net.cpp:157] Top shape: 2 64 288 288 (10616832)
I1013 08:04:31.042767 19441 net.cpp:165] Memory required for data: 731878416
I1013 08:04:31.042773 19441 layer_factory.hpp:76] Creating layer conv2_1
I1013 08:04:31.042786 19441 net.cpp:106] Creating Layer conv2_1
I1013 08:04:31.042793 19441 net.cpp:454] conv2_1 <- pool1
I1013 08:04:31.042807 19441 net.cpp:411] conv2_1 -> conv2_1
I1013 08:04:31.044275 19441 net.cpp:150] Setting up conv2_1
I1013 08:04:31.044291 19441 net.cpp:157] Top shape: 2 128 288 288 (21233664)
I1013 08:04:31.044297 19441 net.cpp:165] Memory required for data: 816813072
I1013 08:04:31.044312 19441 layer_factory.hpp:76] Creating layer relu2_1
I1013 08:04:31.044327 19441 net.cpp:106] Creating Layer relu2_1
I1013 08:04:31.044333 19441 net.cpp:454] relu2_1 <- conv2_1
I1013 08:04:31.044342 19441 net.cpp:397] relu2_1 -> conv2_1 (in-place)
I1013 08:04:31.044575 19441 net.cpp:150] Setting up relu2_1
I1013 08:04:31.044589 19441 net.cpp:157] Top shape: 2 128 288 288 (21233664)
I1013 08:04:31.044595 19441 net.cpp:165] Memory required for data: 901747728
I1013 08:04:31.044601 19441 layer_factory.hpp:76] Creating layer conv2_2
I1013 08:04:31.044615 19441 net.cpp:106] Creating Layer conv2_2
I1013 08:04:31.044620 19441 net.cpp:454] conv2_2 <- conv2_1
I1013 08:04:31.044632 19441 net.cpp:411] conv2_2 -> conv2_2
I1013 08:04:31.046705 19441 net.cpp:150] Setting up conv2_2
I1013 08:04:31.046723 19441 net.cpp:157] Top shape: 2 128 288 288 (21233664)
I1013 08:04:31.046730 19441 net.cpp:165] Memory required for data: 986682384
I1013 08:04:31.046739 19441 layer_factory.hpp:76] Creating layer relu2_2
I1013 08:04:31.046756 19441 net.cpp:106] Creating Layer relu2_2
I1013 08:04:31.046762 19441 net.cpp:454] relu2_2 <- conv2_2
I1013 08:04:31.046771 19441 net.cpp:397] relu2_2 -> conv2_2 (in-place)
I1013 08:04:31.047197 19441 net.cpp:150] Setting up relu2_2
I1013 08:04:31.047216 19441 net.cpp:157] Top shape: 2 128 288 288 (21233664)
I1013 08:04:31.047221 19441 net.cpp:165] Memory required for data: 1071617040
I1013 08:04:31.047227 19441 layer_factory.hpp:76] Creating layer pool2
I1013 08:04:31.047237 19441 net.cpp:106] Creating Layer pool2
I1013 08:04:31.047243 19441 net.cpp:454] pool2 <- conv2_2
I1013 08:04:31.047252 19441 net.cpp:411] pool2 -> pool2
I1013 08:04:31.047526 19441 net.cpp:150] Setting up pool2
I1013 08:04:31.047540 19441 net.cpp:157] Top shape: 2 128 144 144 (5308416)
I1013 08:04:31.047545 19441 net.cpp:165] Memory required for data: 1092850704
I1013 08:04:31.047551 19441 layer_factory.hpp:76] Creating layer conv3_1
I1013 08:04:31.047564 19441 net.cpp:106] Creating Layer conv3_1
I1013 08:04:31.047570 19441 net.cpp:454] conv3_1 <- pool2
I1013 08:04:31.047580 19441 net.cpp:411] conv3_1 -> conv3_1
I1013 08:04:31.049741 19441 net.cpp:150] Setting up conv3_1
I1013 08:04:31.049757 19441 net.cpp:157] Top shape: 2 256 144 144 (10616832)
I1013 08:04:31.049763 19441 net.cpp:165] Memory required for data: 1135318032
I1013 08:04:31.049778 19441 layer_factory.hpp:76] Creating layer relu3_1
I1013 08:04:31.049789 19441 net.cpp:106] Creating Layer relu3_1
I1013 08:04:31.049795 19441 net.cpp:454] relu3_1 <- conv3_1
I1013 08:04:31.049806 19441 net.cpp:397] relu3_1 -> conv3_1 (in-place)
I1013 08:04:31.050029 19441 net.cpp:150] Setting up relu3_1
I1013 08:04:31.050045 19441 net.cpp:157] Top shape: 2 256 144 144 (10616832)
I1013 08:04:31.050050 19441 net.cpp:165] Memory required for data: 1177785360
I1013 08:04:31.050055 19441 layer_factory.hpp:76] Creating layer conv3_2
I1013 08:04:31.050065 19441 net.cpp:106] Creating Layer conv3_2
I1013 08:04:31.050071 19441 net.cpp:454] conv3_2 <- conv3_1
I1013 08:04:31.050082 19441 net.cpp:411] conv3_2 -> conv3_2
I1013 08:04:31.053027 19441 net.cpp:150] Setting up conv3_2
I1013 08:04:31.053045 19441 net.cpp:157] Top shape: 2 256 144 144 (10616832)
I1013 08:04:31.053051 19441 net.cpp:165] Memory required for data: 1220252688
I1013 08:04:31.053062 19441 layer_factory.hpp:76] Creating layer relu3_2
I1013 08:04:31.053076 19441 net.cpp:106] Creating Layer relu3_2
I1013 08:04:31.053082 19441 net.cpp:454] relu3_2 <- conv3_2
I1013 08:04:31.053091 19441 net.cpp:397] relu3_2 -> conv3_2 (in-place)
I1013 08:04:31.053501 19441 net.cpp:150] Setting up relu3_2
I1013 08:04:31.053516 19441 net.cpp:157] Top shape: 2 256 144 144 (10616832)
I1013 08:04:31.053522 19441 net.cpp:165] Memory required for data: 1262720016
I1013 08:04:31.053527 19441 layer_factory.hpp:76] Creating layer conv3_3
I1013 08:04:31.053544 19441 net.cpp:106] Creating Layer conv3_3
I1013 08:04:31.053551 19441 net.cpp:454] conv3_3 <- conv3_2
I1013 08:04:31.053561 19441 net.cpp:411] conv3_3 -> conv3_3
I1013 08:04:31.056824 19441 net.cpp:150] Setting up conv3_3
I1013 08:04:31.056840 19441 net.cpp:157] Top shape: 2 256 144 144 (10616832)
I1013 08:04:31.056846 19441 net.cpp:165] Memory required for data: 1305187344
I1013 08:04:31.056857 19441 layer_factory.hpp:76] Creating layer relu3_3
I1013 08:04:31.056869 19441 net.cpp:106] Creating Layer relu3_3
I1013 08:04:31.056874 19441 net.cpp:454] relu3_3 <- conv3_3
I1013 08:04:31.056885 19441 net.cpp:397] relu3_3 -> conv3_3 (in-place)
I1013 08:04:31.057111 19441 net.cpp:150] Setting up relu3_3
I1013 08:04:31.057129 19441 net.cpp:157] Top shape: 2 256 144 144 (10616832)
I1013 08:04:31.057134 19441 net.cpp:165] Memory required for data: 1347654672
I1013 08:04:31.057140 19441 layer_factory.hpp:76] Creating layer pool3
I1013 08:04:31.057150 19441 net.cpp:106] Creating Layer pool3
I1013 08:04:31.057157 19441 net.cpp:454] pool3 <- conv3_3
I1013 08:04:31.057165 19441 net.cpp:411] pool3 -> pool3
I1013 08:04:31.057617 19441 net.cpp:150] Setting up pool3
I1013 08:04:31.057633 19441 net.cpp:157] Top shape: 2 256 72 72 (2654208)
I1013 08:04:31.057638 19441 net.cpp:165] Memory required for data: 1358271504
I1013 08:04:31.057644 19441 layer_factory.hpp:76] Creating layer conv4_1
I1013 08:04:31.057656 19441 net.cpp:106] Creating Layer conv4_1
I1013 08:04:31.057662 19441 net.cpp:454] conv4_1 <- pool3
I1013 08:04:31.057672 19441 net.cpp:411] conv4_1 -> conv4_1
I1013 08:04:31.061638 19441 net.cpp:150] Setting up conv4_1
I1013 08:04:31.061660 19441 net.cpp:157] Top shape: 2 512 72 72 (5308416)
I1013 08:04:31.061666 19441 net.cpp:165] Memory required for data: 1379505168
I1013 08:04:31.061677 19441 layer_factory.hpp:76] Creating layer relu4_1
I1013 08:04:31.061687 19441 net.cpp:106] Creating Layer relu4_1
I1013 08:04:31.061692 19441 net.cpp:454] relu4_1 <- conv4_1
I1013 08:04:31.061703 19441 net.cpp:397] relu4_1 -> conv4_1 (in-place)
I1013 08:04:31.062328 19441 net.cpp:150] Setting up relu4_1
I1013 08:04:31.062343 19441 net.cpp:157] Top shape: 2 512 72 72 (5308416)
I1013 08:04:31.062350 19441 net.cpp:165] Memory required for data: 1400738832
I1013 08:04:31.062355 19441 layer_factory.hpp:76] Creating layer conv4_2
I1013 08:04:31.062366 19441 net.cpp:106] Creating Layer conv4_2
I1013 08:04:31.062372 19441 net.cpp:454] conv4_2 <- conv4_1
I1013 08:04:31.062387 19441 net.cpp:411] conv4_2 -> conv4_2
I1013 08:04:31.069701 19441 net.cpp:150] Setting up conv4_2
I1013 08:04:31.069725 19441 net.cpp:157] Top shape: 2 512 72 72 (5308416)
I1013 08:04:31.069730 19441 net.cpp:165] Memory required for data: 1421972496
I1013 08:04:31.069752 19441 layer_factory.hpp:76] Creating layer relu4_2
I1013 08:04:31.069766 19441 net.cpp:106] Creating Layer relu4_2
I1013 08:04:31.069772 19441 net.cpp:454] relu4_2 <- conv4_2
I1013 08:04:31.069782 19441 net.cpp:397] relu4_2 -> conv4_2 (in-place)
I1013 08:04:31.070021 19441 net.cpp:150] Setting up relu4_2
I1013 08:04:31.070035 19441 net.cpp:157] Top shape: 2 512 72 72 (5308416)
I1013 08:04:31.070040 19441 net.cpp:165] Memory required for data: 1443206160
I1013 08:04:31.070046 19441 layer_factory.hpp:76] Creating layer conv4_3
I1013 08:04:31.070060 19441 net.cpp:106] Creating Layer conv4_3
I1013 08:04:31.070067 19441 net.cpp:454] conv4_3 <- conv4_2
I1013 08:04:31.070075 19441 net.cpp:411] conv4_3 -> conv4_3
I1013 08:04:31.077036 19441 net.cpp:150] Setting up conv4_3
I1013 08:04:31.077064 19441 net.cpp:157] Top shape: 2 512 72 72 (5308416)
I1013 08:04:31.077070 19441 net.cpp:165] Memory required for data: 1464439824
I1013 08:04:31.077082 19441 layer_factory.hpp:76] Creating layer relu4_3
I1013 08:04:31.077091 19441 net.cpp:106] Creating Layer relu4_3
I1013 08:04:31.077095 19441 net.cpp:454] relu4_3 <- conv4_3
I1013 08:04:31.077103 19441 net.cpp:397] relu4_3 -> conv4_3 (in-place)
I1013 08:04:31.077500 19441 net.cpp:150] Setting up relu4_3
I1013 08:04:31.077514 19441 net.cpp:157] Top shape: 2 512 72 72 (5308416)
I1013 08:04:31.077517 19441 net.cpp:165] Memory required for data: 1485673488
I1013 08:04:31.077522 19441 layer_factory.hpp:76] Creating layer conv4_3_relu4_3_0_split
I1013 08:04:31.077527 19441 net.cpp:106] Creating Layer conv4_3_relu4_3_0_split
I1013 08:04:31.077531 19441 net.cpp:454] conv4_3_relu4_3_0_split <- conv4_3
I1013 08:04:31.077538 19441 net.cpp:411] conv4_3_relu4_3_0_split -> conv4_3_relu4_3_0_split_0
I1013 08:04:31.077545 19441 net.cpp:411] conv4_3_relu4_3_0_split -> conv4_3_relu4_3_0_split_1
I1013 08:04:31.077603 19441 net.cpp:150] Setting up conv4_3_relu4_3_0_split
I1013 08:04:31.077608 19441 net.cpp:157] Top shape: 2 512 72 72 (5308416)
I1013 08:04:31.077612 19441 net.cpp:157] Top shape: 2 512 72 72 (5308416)
I1013 08:04:31.077615 19441 net.cpp:165] Memory required for data: 1528140816
I1013 08:04:31.077617 19441 layer_factory.hpp:76] Creating layer loss1_conv1
I1013 08:04:31.077635 19441 net.cpp:106] Creating Layer loss1_conv1
I1013 08:04:31.077638 19441 net.cpp:454] loss1_conv1 <- conv4_3_relu4_3_0_split_0
I1013 08:04:31.077646 19441 net.cpp:411] loss1_conv1 -> loss1_conv1
I1013 08:04:31.166621 19441 net.cpp:150] Setting up loss1_conv1
I1013 08:04:31.166658 19441 net.cpp:157] Top shape: 2 512 72 72 (5308416)
I1013 08:04:31.166662 19441 net.cpp:165] Memory required for data: 1549374480
I1013 08:04:31.166671 19441 layer_factory.hpp:76] Creating layer loss_relu1
I1013 08:04:31.166682 19441 net.cpp:106] Creating Layer loss_relu1
I1013 08:04:31.166688 19441 net.cpp:454] loss_relu1 <- loss1_conv1
I1013 08:04:31.166695 19441 net.cpp:397] loss_relu1 -> loss1_conv1 (in-place)
I1013 08:04:31.167140 19441 net.cpp:150] Setting up loss_relu1
I1013 08:04:31.167155 19441 net.cpp:157] Top shape: 2 512 72 72 (5308416)
I1013 08:04:31.167158 19441 net.cpp:165] Memory required for data: 1570608144
I1013 08:04:31.167162 19441 layer_factory.hpp:76] Creating layer loss1_conv1_loss_relu1_0_split
I1013 08:04:31.167168 19441 net.cpp:106] Creating Layer loss1_conv1_loss_relu1_0_split
I1013 08:04:31.167172 19441 net.cpp:454] loss1_conv1_loss_relu1_0_split <- loss1_conv1
I1013 08:04:31.167177 19441 net.cpp:411] loss1_conv1_loss_relu1_0_split -> loss1_conv1_loss_relu1_0_split_0
I1013 08:04:31.167191 19441 net.cpp:411] loss1_conv1_loss_relu1_0_split -> loss1_conv1_loss_relu1_0_split_1
I1013 08:04:31.167263 19441 net.cpp:150] Setting up loss1_conv1_loss_relu1_0_split
I1013 08:04:31.167270 19441 net.cpp:157] Top shape: 2 512 72 72 (5308416)
I1013 08:04:31.167274 19441 net.cpp:157] Top shape: 2 512 72 72 (5308416)
I1013 08:04:31.167276 19441 net.cpp:165] Memory required for data: 1613075472
I1013 08:04:31.167279 19441 layer_factory.hpp:76] Creating layer LFCN_1_3x5
I1013 08:04:31.167290 19441 net.cpp:106] Creating Layer LFCN_1_3x5
I1013 08:04:31.167294 19441 net.cpp:454] LFCN_1_3x5 <- loss1_conv1_loss_relu1_0_split_0
I1013 08:04:31.167306 19441 net.cpp:411] LFCN_1_3x5 -> LFCN_1_3x5
I1013 08:04:31.170300 19441 net.cpp:150] Setting up LFCN_1_3x5
I1013 08:04:31.170315 19441 net.cpp:157] Top shape: 2 6 72 72 (62208)
I1013 08:04:31.170318 19441 net.cpp:165] Memory required for data: 1613324304
I1013 08:04:31.170325 19441 layer_factory.hpp:76] Creating layer LFCN_1_3x5_LFCN_1_3x5_0_split
I1013 08:04:31.170332 19441 net.cpp:106] Creating Layer LFCN_1_3x5_LFCN_1_3x5_0_split
I1013 08:04:31.170336 19441 net.cpp:454] LFCN_1_3x5_LFCN_1_3x5_0_split <- LFCN_1_3x5
I1013 08:04:31.170342 19441 net.cpp:411] LFCN_1_3x5_LFCN_1_3x5_0_split -> LFCN_1_3x5_LFCN_1_3x5_0_split_0
I1013 08:04:31.170349 19441 net.cpp:411] LFCN_1_3x5_LFCN_1_3x5_0_split -> LFCN_1_3x5_LFCN_1_3x5_0_split_1
I1013 08:04:31.170406 19441 net.cpp:150] Setting up LFCN_1_3x5_LFCN_1_3x5_0_split
I1013 08:04:31.170411 19441 net.cpp:157] Top shape: 2 6 72 72 (62208)
I1013 08:04:31.170415 19441 net.cpp:157] Top shape: 2 6 72 72 (62208)
I1013 08:04:31.170418 19441 net.cpp:165] Memory required for data: 1613821968
I1013 08:04:31.170420 19441 layer_factory.hpp:76] Creating layer detection_loss_1_3x5
I1013 08:04:31.170428 19441 net.cpp:106] Creating Layer detection_loss_1_3x5
I1013 08:04:31.170430 19441 net.cpp:454] detection_loss_1_3x5 <- LFCN_1_3x5_LFCN_1_3x5_0_split_0
I1013 08:04:31.170435 19441 net.cpp:454] detection_loss_1_3x5 <- label_1_3x5_data_1_split_0
I1013 08:04:31.170441 19441 net.cpp:411] detection_loss_1_3x5 -> loss_1_3x5
I1013 08:04:31.170450 19441 layer_factory.hpp:76] Creating layer detection_loss_1_3x5
I1013 08:04:31.170905 19441 net.cpp:150] Setting up detection_loss_1_3x5
I1013 08:04:31.170922 19441 net.cpp:157] Top shape: 1 1 1 2 (2)
I1013 08:04:31.170928 19441 net.cpp:160]     with loss weight 0.9
I1013 08:04:31.170943 19441 net.cpp:165] Memory required for data: 1613821976
I1013 08:04:31.170946 19441 layer_factory.hpp:76] Creating layer detection_accuracy_1_3x5
I1013 08:04:31.170955 19441 net.cpp:106] Creating Layer detection_accuracy_1_3x5
I1013 08:04:31.170959 19441 net.cpp:454] detection_accuracy_1_3x5 <- LFCN_1_3x5_LFCN_1_3x5_0_split_1
I1013 08:04:31.170964 19441 net.cpp:454] detection_accuracy_1_3x5 <- label_1_3x5_data_1_split_1
I1013 08:04:31.170971 19441 net.cpp:411] detection_accuracy_1_3x5 -> accuracy_1_3x5
I1013 08:04:31.170979 19441 net.cpp:411] detection_accuracy_1_3x5 -> boxiou_1_3x5
I1013 08:04:31.171031 19441 net.cpp:150] Setting up detection_accuracy_1_3x5
I1013 08:04:31.171037 19441 net.cpp:157] Top shape: 1 1 1 2 (2)
I1013 08:04:31.171041 19441 net.cpp:157] Top shape: 1 1 1 1 (1)
I1013 08:04:31.171043 19441 net.cpp:165] Memory required for data: 1613821988
I1013 08:04:31.171046 19441 layer_factory.hpp:76] Creating layer LFCN_1_5x7
I1013 08:04:31.171056 19441 net.cpp:106] Creating Layer LFCN_1_5x7
I1013 08:04:31.171058 19441 net.cpp:454] LFCN_1_5x7 <- loss1_conv1_loss_relu1_0_split_1
I1013 08:04:31.171066 19441 net.cpp:411] LFCN_1_5x7 -> LFCN_1_5x7
I1013 08:04:31.176724 19441 net.cpp:150] Setting up LFCN_1_5x7
I1013 08:04:31.176738 19441 net.cpp:157] Top shape: 2 6 72 72 (62208)
I1013 08:04:31.176753 19441 net.cpp:165] Memory required for data: 1614070820
I1013 08:04:31.176759 19441 layer_factory.hpp:76] Creating layer LFCN_1_5x7_LFCN_1_5x7_0_split
I1013 08:04:31.176767 19441 net.cpp:106] Creating Layer LFCN_1_5x7_LFCN_1_5x7_0_split
I1013 08:04:31.176771 19441 net.cpp:454] LFCN_1_5x7_LFCN_1_5x7_0_split <- LFCN_1_5x7
I1013 08:04:31.176776 19441 net.cpp:411] LFCN_1_5x7_LFCN_1_5x7_0_split -> LFCN_1_5x7_LFCN_1_5x7_0_split_0
I1013 08:04:31.176784 19441 net.cpp:411] LFCN_1_5x7_LFCN_1_5x7_0_split -> LFCN_1_5x7_LFCN_1_5x7_0_split_1
I1013 08:04:31.176834 19441 net.cpp:150] Setting up LFCN_1_5x7_LFCN_1_5x7_0_split
I1013 08:04:31.176839 19441 net.cpp:157] Top shape: 2 6 72 72 (62208)
I1013 08:04:31.176842 19441 net.cpp:157] Top shape: 2 6 72 72 (62208)
I1013 08:04:31.176846 19441 net.cpp:165] Memory required for data: 1614568484
I1013 08:04:31.176848 19441 layer_factory.hpp:76] Creating layer detection_loss_1_5x7
I1013 08:04:31.176856 19441 net.cpp:106] Creating Layer detection_loss_1_5x7
I1013 08:04:31.176858 19441 net.cpp:454] detection_loss_1_5x7 <- LFCN_1_5x7_LFCN_1_5x7_0_split_0
I1013 08:04:31.176862 19441 net.cpp:454] detection_loss_1_5x7 <- label_1_5x7_data_2_split_0
I1013 08:04:31.176867 19441 net.cpp:411] detection_loss_1_5x7 -> loss_1_5x7
I1013 08:04:31.176874 19441 layer_factory.hpp:76] Creating layer detection_loss_1_5x7
I1013 08:04:31.177490 19441 net.cpp:150] Setting up detection_loss_1_5x7
I1013 08:04:31.177503 19441 net.cpp:157] Top shape: 1 1 1 2 (2)
I1013 08:04:31.177505 19441 net.cpp:160]     with loss weight 0.9
I1013 08:04:31.177511 19441 net.cpp:165] Memory required for data: 1614568492
I1013 08:04:31.177515 19441 layer_factory.hpp:76] Creating layer detection_accuracy_1_5x7
I1013 08:04:31.177521 19441 net.cpp:106] Creating Layer detection_accuracy_1_5x7
I1013 08:04:31.177525 19441 net.cpp:454] detection_accuracy_1_5x7 <- LFCN_1_5x7_LFCN_1_5x7_0_split_1
I1013 08:04:31.177530 19441 net.cpp:454] detection_accuracy_1_5x7 <- label_1_5x7_data_2_split_1
I1013 08:04:31.177536 19441 net.cpp:411] detection_accuracy_1_5x7 -> accuracy_1_5x7
I1013 08:04:31.177542 19441 net.cpp:411] detection_accuracy_1_5x7 -> boxiou_1_5x7
I1013 08:04:31.177590 19441 net.cpp:150] Setting up detection_accuracy_1_5x7
I1013 08:04:31.177597 19441 net.cpp:157] Top shape: 1 1 1 2 (2)
I1013 08:04:31.177600 19441 net.cpp:157] Top shape: 1 1 1 1 (1)
I1013 08:04:31.177603 19441 net.cpp:165] Memory required for data: 1614568504
I1013 08:04:31.177605 19441 layer_factory.hpp:76] Creating layer pool4
I1013 08:04:31.177611 19441 net.cpp:106] Creating Layer pool4
I1013 08:04:31.177615 19441 net.cpp:454] pool4 <- conv4_3_relu4_3_0_split_1
I1013 08:04:31.177619 19441 net.cpp:411] pool4 -> pool4
I1013 08:04:31.177856 19441 net.cpp:150] Setting up pool4
I1013 08:04:31.177866 19441 net.cpp:157] Top shape: 2 512 36 36 (1327104)
I1013 08:04:31.177870 19441 net.cpp:165] Memory required for data: 1619876920
I1013 08:04:31.177872 19441 layer_factory.hpp:76] Creating layer conv5_1
I1013 08:04:31.177881 19441 net.cpp:106] Creating Layer conv5_1
I1013 08:04:31.177883 19441 net.cpp:454] conv5_1 <- pool4
I1013 08:04:31.177889 19441 net.cpp:411] conv5_1 -> conv5_1
I1013 08:04:31.184218 19441 net.cpp:150] Setting up conv5_1
I1013 08:04:31.184233 19441 net.cpp:157] Top shape: 2 512 36 36 (1327104)
I1013 08:04:31.184237 19441 net.cpp:165] Memory required for data: 1625185336
I1013 08:04:31.184244 19441 layer_factory.hpp:76] Creating layer relu5_1
I1013 08:04:31.184252 19441 net.cpp:106] Creating Layer relu5_1
I1013 08:04:31.184255 19441 net.cpp:454] relu5_1 <- conv5_1
I1013 08:04:31.184260 19441 net.cpp:397] relu5_1 -> conv5_1 (in-place)
I1013 08:04:31.184672 19441 net.cpp:150] Setting up relu5_1
I1013 08:04:31.184685 19441 net.cpp:157] Top shape: 2 512 36 36 (1327104)
I1013 08:04:31.184689 19441 net.cpp:165] Memory required for data: 1630493752
I1013 08:04:31.184691 19441 layer_factory.hpp:76] Creating layer conv5_2
I1013 08:04:31.184700 19441 net.cpp:106] Creating Layer conv5_2
I1013 08:04:31.184703 19441 net.cpp:454] conv5_2 <- conv5_1
I1013 08:04:31.184708 19441 net.cpp:411] conv5_2 -> conv5_2
I1013 08:04:31.191006 19441 net.cpp:150] Setting up conv5_2
I1013 08:04:31.191022 19441 net.cpp:157] Top shape: 2 512 36 36 (1327104)
I1013 08:04:31.191025 19441 net.cpp:165] Memory required for data: 1635802168
I1013 08:04:31.191032 19441 layer_factory.hpp:76] Creating layer relu5_2
I1013 08:04:31.191038 19441 net.cpp:106] Creating Layer relu5_2
I1013 08:04:31.191042 19441 net.cpp:454] relu5_2 <- conv5_2
I1013 08:04:31.191048 19441 net.cpp:397] relu5_2 -> conv5_2 (in-place)
I1013 08:04:31.191424 19441 net.cpp:150] Setting up relu5_2
I1013 08:04:31.191437 19441 net.cpp:157] Top shape: 2 512 36 36 (1327104)
I1013 08:04:31.191439 19441 net.cpp:165] Memory required for data: 1641110584
I1013 08:04:31.191443 19441 layer_factory.hpp:76] Creating layer conv5_3
I1013 08:04:31.191452 19441 net.cpp:106] Creating Layer conv5_3
I1013 08:04:31.191455 19441 net.cpp:454] conv5_3 <- conv5_2
I1013 08:04:31.191462 19441 net.cpp:411] conv5_3 -> conv5_3
I1013 08:04:31.197837 19441 net.cpp:150] Setting up conv5_3
I1013 08:04:31.197854 19441 net.cpp:157] Top shape: 2 512 36 36 (1327104)
I1013 08:04:31.197857 19441 net.cpp:165] Memory required for data: 1646419000
I1013 08:04:31.197865 19441 layer_factory.hpp:76] Creating layer relu5_3
I1013 08:04:31.197871 19441 net.cpp:106] Creating Layer relu5_3
I1013 08:04:31.197875 19441 net.cpp:454] relu5_3 <- conv5_3
I1013 08:04:31.197881 19441 net.cpp:397] relu5_3 -> conv5_3 (in-place)
I1013 08:04:31.198074 19441 net.cpp:150] Setting up relu5_3
I1013 08:04:31.198081 19441 net.cpp:157] Top shape: 2 512 36 36 (1327104)
I1013 08:04:31.198084 19441 net.cpp:165] Memory required for data: 1651727416
I1013 08:04:31.198087 19441 layer_factory.hpp:76] Creating layer conv5_3_relu5_3_0_split
I1013 08:04:31.198093 19441 net.cpp:106] Creating Layer conv5_3_relu5_3_0_split
I1013 08:04:31.198096 19441 net.cpp:454] conv5_3_relu5_3_0_split <- conv5_3
I1013 08:04:31.198102 19441 net.cpp:411] conv5_3_relu5_3_0_split -> conv5_3_relu5_3_0_split_0
I1013 08:04:31.198108 19441 net.cpp:411] conv5_3_relu5_3_0_split -> conv5_3_relu5_3_0_split_1
I1013 08:04:31.198113 19441 net.cpp:411] conv5_3_relu5_3_0_split -> conv5_3_relu5_3_0_split_2
I1013 08:04:31.198185 19441 net.cpp:150] Setting up conv5_3_relu5_3_0_split
I1013 08:04:31.198190 19441 net.cpp:157] Top shape: 2 512 36 36 (1327104)
I1013 08:04:31.198194 19441 net.cpp:157] Top shape: 2 512 36 36 (1327104)
I1013 08:04:31.198196 19441 net.cpp:157] Top shape: 2 512 36 36 (1327104)
I1013 08:04:31.198199 19441 net.cpp:165] Memory required for data: 1667652664
I1013 08:04:31.198201 19441 layer_factory.hpp:76] Creating layer LFCN_2_3x5
I1013 08:04:31.198210 19441 net.cpp:106] Creating Layer LFCN_2_3x5
I1013 08:04:31.198215 19441 net.cpp:454] LFCN_2_3x5 <- conv5_3_relu5_3_0_split_0
I1013 08:04:31.198220 19441 net.cpp:411] LFCN_2_3x5 -> LFCN_2_3x5
I1013 08:04:31.201019 19441 net.cpp:150] Setting up LFCN_2_3x5
I1013 08:04:31.201032 19441 net.cpp:157] Top shape: 2 6 36 36 (15552)
I1013 08:04:31.201036 19441 net.cpp:165] Memory required for data: 1667714872
I1013 08:04:31.201051 19441 layer_factory.hpp:76] Creating layer LFCN_2_3x5_LFCN_2_3x5_0_split
I1013 08:04:31.201057 19441 net.cpp:106] Creating Layer LFCN_2_3x5_LFCN_2_3x5_0_split
I1013 08:04:31.201061 19441 net.cpp:454] LFCN_2_3x5_LFCN_2_3x5_0_split <- LFCN_2_3x5
I1013 08:04:31.201066 19441 net.cpp:411] LFCN_2_3x5_LFCN_2_3x5_0_split -> LFCN_2_3x5_LFCN_2_3x5_0_split_0
I1013 08:04:31.201074 19441 net.cpp:411] LFCN_2_3x5_LFCN_2_3x5_0_split -> LFCN_2_3x5_LFCN_2_3x5_0_split_1
I1013 08:04:31.201128 19441 net.cpp:150] Setting up LFCN_2_3x5_LFCN_2_3x5_0_split
I1013 08:04:31.201133 19441 net.cpp:157] Top shape: 2 6 36 36 (15552)
I1013 08:04:31.201135 19441 net.cpp:157] Top shape: 2 6 36 36 (15552)
I1013 08:04:31.201138 19441 net.cpp:165] Memory required for data: 1667839288
I1013 08:04:31.201140 19441 layer_factory.hpp:76] Creating layer detection_loss_2_3x5
I1013 08:04:31.201149 19441 net.cpp:106] Creating Layer detection_loss_2_3x5
I1013 08:04:31.201153 19441 net.cpp:454] detection_loss_2_3x5 <- LFCN_2_3x5_LFCN_2_3x5_0_split_0
I1013 08:04:31.201156 19441 net.cpp:454] detection_loss_2_3x5 <- label_2_3x5_data_3_split_0
I1013 08:04:31.201164 19441 net.cpp:411] detection_loss_2_3x5 -> loss_2_3x5
I1013 08:04:31.201171 19441 layer_factory.hpp:76] Creating layer detection_loss_2_3x5
I1013 08:04:31.201599 19441 net.cpp:150] Setting up detection_loss_2_3x5
I1013 08:04:31.201611 19441 net.cpp:157] Top shape: 1 1 1 2 (2)
I1013 08:04:31.201613 19441 net.cpp:160]     with loss weight 1
I1013 08:04:31.201623 19441 net.cpp:165] Memory required for data: 1667839296
I1013 08:04:31.201627 19441 layer_factory.hpp:76] Creating layer detection_accuracy_2_3x5
I1013 08:04:31.201633 19441 net.cpp:106] Creating Layer detection_accuracy_2_3x5
I1013 08:04:31.201637 19441 net.cpp:454] detection_accuracy_2_3x5 <- LFCN_2_3x5_LFCN_2_3x5_0_split_1
I1013 08:04:31.201642 19441 net.cpp:454] detection_accuracy_2_3x5 <- label_2_3x5_data_3_split_1
I1013 08:04:31.201647 19441 net.cpp:411] detection_accuracy_2_3x5 -> accuracy_2_3x5
I1013 08:04:31.201653 19441 net.cpp:411] detection_accuracy_2_3x5 -> boxiou_2_3x5
I1013 08:04:31.201712 19441 net.cpp:150] Setting up detection_accuracy_2_3x5
I1013 08:04:31.201717 19441 net.cpp:157] Top shape: 1 1 1 2 (2)
I1013 08:04:31.201723 19441 net.cpp:157] Top shape: 1 1 1 1 (1)
I1013 08:04:31.201725 19441 net.cpp:165] Memory required for data: 1667839308
I1013 08:04:31.201728 19441 layer_factory.hpp:76] Creating layer LFCN_2_5x7
I1013 08:04:31.201736 19441 net.cpp:106] Creating Layer LFCN_2_5x7
I1013 08:04:31.201740 19441 net.cpp:454] LFCN_2_5x7 <- conv5_3_relu5_3_0_split_1
I1013 08:04:31.201748 19441 net.cpp:411] LFCN_2_5x7 -> LFCN_2_5x7
I1013 08:04:31.206759 19441 net.cpp:150] Setting up LFCN_2_5x7
I1013 08:04:31.206774 19441 net.cpp:157] Top shape: 2 6 36 36 (15552)
I1013 08:04:31.206778 19441 net.cpp:165] Memory required for data: 1667901516
I1013 08:04:31.206784 19441 layer_factory.hpp:76] Creating layer LFCN_2_5x7_LFCN_2_5x7_0_split
I1013 08:04:31.206792 19441 net.cpp:106] Creating Layer LFCN_2_5x7_LFCN_2_5x7_0_split
I1013 08:04:31.206795 19441 net.cpp:454] LFCN_2_5x7_LFCN_2_5x7_0_split <- LFCN_2_5x7
I1013 08:04:31.206800 19441 net.cpp:411] LFCN_2_5x7_LFCN_2_5x7_0_split -> LFCN_2_5x7_LFCN_2_5x7_0_split_0
I1013 08:04:31.206807 19441 net.cpp:411] LFCN_2_5x7_LFCN_2_5x7_0_split -> LFCN_2_5x7_LFCN_2_5x7_0_split_1
I1013 08:04:31.206866 19441 net.cpp:150] Setting up LFCN_2_5x7_LFCN_2_5x7_0_split
I1013 08:04:31.206874 19441 net.cpp:157] Top shape: 2 6 36 36 (15552)
I1013 08:04:31.206878 19441 net.cpp:157] Top shape: 2 6 36 36 (15552)
I1013 08:04:31.206881 19441 net.cpp:165] Memory required for data: 1668025932
I1013 08:04:31.206892 19441 layer_factory.hpp:76] Creating layer detection_loss_2_5x7
I1013 08:04:31.206902 19441 net.cpp:106] Creating Layer detection_loss_2_5x7
I1013 08:04:31.206909 19441 net.cpp:454] detection_loss_2_5x7 <- LFCN_2_5x7_LFCN_2_5x7_0_split_0
I1013 08:04:31.206917 19441 net.cpp:454] detection_loss_2_5x7 <- label_2_5x7_data_4_split_0
I1013 08:04:31.206926 19441 net.cpp:411] detection_loss_2_5x7 -> loss_2_5x7
I1013 08:04:31.206938 19441 layer_factory.hpp:76] Creating layer detection_loss_2_5x7
I1013 08:04:31.207573 19441 net.cpp:150] Setting up detection_loss_2_5x7
I1013 08:04:31.207587 19441 net.cpp:157] Top shape: 1 1 1 2 (2)
I1013 08:04:31.207590 19441 net.cpp:160]     with loss weight 1
I1013 08:04:31.207600 19441 net.cpp:165] Memory required for data: 1668025940
I1013 08:04:31.207603 19441 layer_factory.hpp:76] Creating layer detection_accuracy_2_5x7
I1013 08:04:31.207610 19441 net.cpp:106] Creating Layer detection_accuracy_2_5x7
I1013 08:04:31.207614 19441 net.cpp:454] detection_accuracy_2_5x7 <- LFCN_2_5x7_LFCN_2_5x7_0_split_1
I1013 08:04:31.207619 19441 net.cpp:454] detection_accuracy_2_5x7 <- label_2_5x7_data_4_split_1
I1013 08:04:31.207624 19441 net.cpp:411] detection_accuracy_2_5x7 -> accuracy_2_5x7
I1013 08:04:31.207633 19441 net.cpp:411] detection_accuracy_2_5x7 -> boxiou_2_5x7
I1013 08:04:31.207684 19441 net.cpp:150] Setting up detection_accuracy_2_5x7
I1013 08:04:31.207691 19441 net.cpp:157] Top shape: 1 1 1 2 (2)
I1013 08:04:31.207695 19441 net.cpp:157] Top shape: 1 1 1 1 (1)
I1013 08:04:31.207697 19441 net.cpp:165] Memory required for data: 1668025952
I1013 08:04:31.207700 19441 layer_factory.hpp:76] Creating layer pool5
I1013 08:04:31.207708 19441 net.cpp:106] Creating Layer pool5
I1013 08:04:31.207711 19441 net.cpp:454] pool5 <- conv5_3_relu5_3_0_split_2
I1013 08:04:31.207716 19441 net.cpp:411] pool5 -> pool5
I1013 08:04:31.207957 19441 net.cpp:150] Setting up pool5
I1013 08:04:31.207967 19441 net.cpp:157] Top shape: 2 512 18 18 (331776)
I1013 08:04:31.207969 19441 net.cpp:165] Memory required for data: 1669353056
I1013 08:04:31.207973 19441 layer_factory.hpp:76] Creating layer conv6_1
I1013 08:04:31.207983 19441 net.cpp:106] Creating Layer conv6_1
I1013 08:04:31.207985 19441 net.cpp:454] conv6_1 <- pool5
I1013 08:04:31.207993 19441 net.cpp:411] conv6_1 -> conv6_1
I1013 08:04:31.289202 19441 net.cpp:150] Setting up conv6_1
I1013 08:04:31.289237 19441 net.cpp:157] Top shape: 2 512 18 18 (331776)
I1013 08:04:31.289242 19441 net.cpp:165] Memory required for data: 1670680160
I1013 08:04:31.289249 19441 layer_factory.hpp:76] Creating layer relu6_1
I1013 08:04:31.289259 19441 net.cpp:106] Creating Layer relu6_1
I1013 08:04:31.289265 19441 net.cpp:454] relu6_1 <- conv6_1
I1013 08:04:31.289270 19441 net.cpp:397] relu6_1 -> conv6_1 (in-place)
I1013 08:04:31.289647 19441 net.cpp:150] Setting up relu6_1
I1013 08:04:31.289659 19441 net.cpp:157] Top shape: 2 512 18 18 (331776)
I1013 08:04:31.289662 19441 net.cpp:165] Memory required for data: 1672007264
I1013 08:04:31.289665 19441 layer_factory.hpp:76] Creating layer conv6_1_relu6_1_0_split
I1013 08:04:31.289674 19441 net.cpp:106] Creating Layer conv6_1_relu6_1_0_split
I1013 08:04:31.289676 19441 net.cpp:454] conv6_1_relu6_1_0_split <- conv6_1
I1013 08:04:31.289683 19441 net.cpp:411] conv6_1_relu6_1_0_split -> conv6_1_relu6_1_0_split_0
I1013 08:04:31.289690 19441 net.cpp:411] conv6_1_relu6_1_0_split -> conv6_1_relu6_1_0_split_1
I1013 08:04:31.289695 19441 net.cpp:411] conv6_1_relu6_1_0_split -> conv6_1_relu6_1_0_split_2
I1013 08:04:31.289768 19441 net.cpp:150] Setting up conv6_1_relu6_1_0_split
I1013 08:04:31.289778 19441 net.cpp:157] Top shape: 2 512 18 18 (331776)
I1013 08:04:31.289782 19441 net.cpp:157] Top shape: 2 512 18 18 (331776)
I1013 08:04:31.289784 19441 net.cpp:157] Top shape: 2 512 18 18 (331776)
I1013 08:04:31.289786 19441 net.cpp:165] Memory required for data: 1675988576
I1013 08:04:31.289789 19441 layer_factory.hpp:76] Creating layer LFCN_3_3x5
I1013 08:04:31.289798 19441 net.cpp:106] Creating Layer LFCN_3_3x5
I1013 08:04:31.289803 19441 net.cpp:454] LFCN_3_3x5 <- conv6_1_relu6_1_0_split_0
I1013 08:04:31.289808 19441 net.cpp:411] LFCN_3_3x5 -> LFCN_3_3x5
I1013 08:04:31.292408 19441 net.cpp:150] Setting up LFCN_3_3x5
I1013 08:04:31.292423 19441 net.cpp:157] Top shape: 2 6 18 18 (3888)
I1013 08:04:31.292438 19441 net.cpp:165] Memory required for data: 1676004128
I1013 08:04:31.292443 19441 layer_factory.hpp:76] Creating layer LFCN_3_3x5_LFCN_3_3x5_0_split
I1013 08:04:31.292460 19441 net.cpp:106] Creating Layer LFCN_3_3x5_LFCN_3_3x5_0_split
I1013 08:04:31.292464 19441 net.cpp:454] LFCN_3_3x5_LFCN_3_3x5_0_split <- LFCN_3_3x5
I1013 08:04:31.292469 19441 net.cpp:411] LFCN_3_3x5_LFCN_3_3x5_0_split -> LFCN_3_3x5_LFCN_3_3x5_0_split_0
I1013 08:04:31.292476 19441 net.cpp:411] LFCN_3_3x5_LFCN_3_3x5_0_split -> LFCN_3_3x5_LFCN_3_3x5_0_split_1
I1013 08:04:31.292531 19441 net.cpp:150] Setting up LFCN_3_3x5_LFCN_3_3x5_0_split
I1013 08:04:31.292536 19441 net.cpp:157] Top shape: 2 6 18 18 (3888)
I1013 08:04:31.292541 19441 net.cpp:157] Top shape: 2 6 18 18 (3888)
I1013 08:04:31.292542 19441 net.cpp:165] Memory required for data: 1676035232
I1013 08:04:31.292546 19441 layer_factory.hpp:76] Creating layer detection_loss_3_3x5
I1013 08:04:31.292552 19441 net.cpp:106] Creating Layer detection_loss_3_3x5
I1013 08:04:31.292556 19441 net.cpp:454] detection_loss_3_3x5 <- LFCN_3_3x5_LFCN_3_3x5_0_split_0
I1013 08:04:31.292560 19441 net.cpp:454] detection_loss_3_3x5 <- label_3_3x5_data_5_split_0
I1013 08:04:31.292567 19441 net.cpp:411] detection_loss_3_3x5 -> loss_3_3x5
I1013 08:04:31.292574 19441 layer_factory.hpp:76] Creating layer detection_loss_3_3x5
I1013 08:04:31.293184 19441 net.cpp:150] Setting up detection_loss_3_3x5
I1013 08:04:31.293196 19441 net.cpp:157] Top shape: 1 1 1 2 (2)
I1013 08:04:31.293200 19441 net.cpp:160]     with loss weight 1
I1013 08:04:31.293210 19441 net.cpp:165] Memory required for data: 1676035240
I1013 08:04:31.293213 19441 layer_factory.hpp:76] Creating layer detection_accuracy_3_3x5
I1013 08:04:31.293220 19441 net.cpp:106] Creating Layer detection_accuracy_3_3x5
I1013 08:04:31.293225 19441 net.cpp:454] detection_accuracy_3_3x5 <- LFCN_3_3x5_LFCN_3_3x5_0_split_1
I1013 08:04:31.293229 19441 net.cpp:454] detection_accuracy_3_3x5 <- label_3_3x5_data_5_split_1
I1013 08:04:31.293236 19441 net.cpp:411] detection_accuracy_3_3x5 -> accuracy_3_3x5
I1013 08:04:31.293243 19441 net.cpp:411] detection_accuracy_3_3x5 -> boxiou_3_3x5
I1013 08:04:31.293294 19441 net.cpp:150] Setting up detection_accuracy_3_3x5
I1013 08:04:31.293299 19441 net.cpp:157] Top shape: 1 1 1 2 (2)
I1013 08:04:31.293303 19441 net.cpp:157] Top shape: 1 1 1 1 (1)
I1013 08:04:31.293305 19441 net.cpp:165] Memory required for data: 1676035252
I1013 08:04:31.293308 19441 layer_factory.hpp:76] Creating layer LFCN_3_5x7
I1013 08:04:31.293318 19441 net.cpp:106] Creating Layer LFCN_3_5x7
I1013 08:04:31.293320 19441 net.cpp:454] LFCN_3_5x7 <- conv6_1_relu6_1_0_split_1
I1013 08:04:31.293325 19441 net.cpp:411] LFCN_3_5x7 -> LFCN_3_5x7
I1013 08:04:31.298871 19441 net.cpp:150] Setting up LFCN_3_5x7
I1013 08:04:31.298892 19441 net.cpp:157] Top shape: 2 6 18 18 (3888)
I1013 08:04:31.298897 19441 net.cpp:165] Memory required for data: 1676050804
I1013 08:04:31.298908 19441 layer_factory.hpp:76] Creating layer LFCN_3_5x7_LFCN_3_5x7_0_split
I1013 08:04:31.298918 19441 net.cpp:106] Creating Layer LFCN_3_5x7_LFCN_3_5x7_0_split
I1013 08:04:31.298923 19441 net.cpp:454] LFCN_3_5x7_LFCN_3_5x7_0_split <- LFCN_3_5x7
I1013 08:04:31.298931 19441 net.cpp:411] LFCN_3_5x7_LFCN_3_5x7_0_split -> LFCN_3_5x7_LFCN_3_5x7_0_split_0
I1013 08:04:31.298938 19441 net.cpp:411] LFCN_3_5x7_LFCN_3_5x7_0_split -> LFCN_3_5x7_LFCN_3_5x7_0_split_1
I1013 08:04:31.298993 19441 net.cpp:150] Setting up LFCN_3_5x7_LFCN_3_5x7_0_split
I1013 08:04:31.299000 19441 net.cpp:157] Top shape: 2 6 18 18 (3888)
I1013 08:04:31.299003 19441 net.cpp:157] Top shape: 2 6 18 18 (3888)
I1013 08:04:31.299006 19441 net.cpp:165] Memory required for data: 1676081908
I1013 08:04:31.299008 19441 layer_factory.hpp:76] Creating layer detection_loss_3_5x7
I1013 08:04:31.299015 19441 net.cpp:106] Creating Layer detection_loss_3_5x7
I1013 08:04:31.299017 19441 net.cpp:454] detection_loss_3_5x7 <- LFCN_3_5x7_LFCN_3_5x7_0_split_0
I1013 08:04:31.299021 19441 net.cpp:454] detection_loss_3_5x7 <- label_3_5x7_data_6_split_0
I1013 08:04:31.299027 19441 net.cpp:411] detection_loss_3_5x7 -> loss_3_5x7
I1013 08:04:31.299034 19441 layer_factory.hpp:76] Creating layer detection_loss_3_5x7
I1013 08:04:31.299454 19441 net.cpp:150] Setting up detection_loss_3_5x7
I1013 08:04:31.299465 19441 net.cpp:157] Top shape: 1 1 1 2 (2)
I1013 08:04:31.299468 19441 net.cpp:160]     with loss weight 1
I1013 08:04:31.299474 19441 net.cpp:165] Memory required for data: 1676081916
I1013 08:04:31.299476 19441 layer_factory.hpp:76] Creating layer detection_accuracy_3_5x7
I1013 08:04:31.299484 19441 net.cpp:106] Creating Layer detection_accuracy_3_5x7
I1013 08:04:31.299487 19441 net.cpp:454] detection_accuracy_3_5x7 <- LFCN_3_5x7_LFCN_3_5x7_0_split_1
I1013 08:04:31.299491 19441 net.cpp:454] detection_accuracy_3_5x7 <- label_3_5x7_data_6_split_1
I1013 08:04:31.299497 19441 net.cpp:411] detection_accuracy_3_5x7 -> accuracy_3_5x7
I1013 08:04:31.299504 19441 net.cpp:411] detection_accuracy_3_5x7 -> boxiou_3_5x7
I1013 08:04:31.299553 19441 net.cpp:150] Setting up detection_accuracy_3_5x7
I1013 08:04:31.299558 19441 net.cpp:157] Top shape: 1 1 1 2 (2)
I1013 08:04:31.299561 19441 net.cpp:157] Top shape: 1 1 1 1 (1)
I1013 08:04:31.299563 19441 net.cpp:165] Memory required for data: 1676081928
I1013 08:04:31.299566 19441 layer_factory.hpp:76] Creating layer pool6
I1013 08:04:31.299573 19441 net.cpp:106] Creating Layer pool6
I1013 08:04:31.299576 19441 net.cpp:454] pool6 <- conv6_1_relu6_1_0_split_2
I1013 08:04:31.299582 19441 net.cpp:411] pool6 -> pool6
I1013 08:04:31.300007 19441 net.cpp:150] Setting up pool6
I1013 08:04:31.300020 19441 net.cpp:157] Top shape: 2 512 9 9 (82944)
I1013 08:04:31.300024 19441 net.cpp:165] Memory required for data: 1676413704
I1013 08:04:31.300027 19441 layer_factory.hpp:76] Creating layer LFCN_4_3x5
I1013 08:04:31.300034 19441 net.cpp:106] Creating Layer LFCN_4_3x5
I1013 08:04:31.300037 19441 net.cpp:454] LFCN_4_3x5 <- pool6
I1013 08:04:31.300045 19441 net.cpp:411] LFCN_4_3x5 -> LFCN_4_3x5
I1013 08:04:31.303040 19441 net.cpp:150] Setting up LFCN_4_3x5
I1013 08:04:31.303055 19441 net.cpp:157] Top shape: 2 6 9 9 (972)
I1013 08:04:31.303057 19441 net.cpp:165] Memory required for data: 1676417592
I1013 08:04:31.303066 19441 layer_factory.hpp:76] Creating layer LFCN_4_3x5_LFCN_4_3x5_0_split
I1013 08:04:31.303072 19441 net.cpp:106] Creating Layer LFCN_4_3x5_LFCN_4_3x5_0_split
I1013 08:04:31.303076 19441 net.cpp:454] LFCN_4_3x5_LFCN_4_3x5_0_split <- LFCN_4_3x5
I1013 08:04:31.303081 19441 net.cpp:411] LFCN_4_3x5_LFCN_4_3x5_0_split -> LFCN_4_3x5_LFCN_4_3x5_0_split_0
I1013 08:04:31.303087 19441 net.cpp:411] LFCN_4_3x5_LFCN_4_3x5_0_split -> LFCN_4_3x5_LFCN_4_3x5_0_split_1
I1013 08:04:31.303148 19441 net.cpp:150] Setting up LFCN_4_3x5_LFCN_4_3x5_0_split
I1013 08:04:31.303153 19441 net.cpp:157] Top shape: 2 6 9 9 (972)
I1013 08:04:31.303158 19441 net.cpp:157] Top shape: 2 6 9 9 (972)
I1013 08:04:31.303159 19441 net.cpp:165] Memory required for data: 1676425368
I1013 08:04:31.303163 19441 layer_factory.hpp:76] Creating layer detection_loss_4_3x5
I1013 08:04:31.303169 19441 net.cpp:106] Creating Layer detection_loss_4_3x5
I1013 08:04:31.303171 19441 net.cpp:454] detection_loss_4_3x5 <- LFCN_4_3x5_LFCN_4_3x5_0_split_0
I1013 08:04:31.303175 19441 net.cpp:454] detection_loss_4_3x5 <- label_4_3x5_data_7_split_0
I1013 08:04:31.303180 19441 net.cpp:411] detection_loss_4_3x5 -> loss_4_3x5
I1013 08:04:31.303187 19441 layer_factory.hpp:76] Creating layer detection_loss_4_3x5
I1013 08:04:31.303612 19441 net.cpp:150] Setting up detection_loss_4_3x5
I1013 08:04:31.303623 19441 net.cpp:157] Top shape: 1 1 1 2 (2)
I1013 08:04:31.303627 19441 net.cpp:160]     with loss weight 1
I1013 08:04:31.303632 19441 net.cpp:165] Memory required for data: 1676425376
I1013 08:04:31.303635 19441 layer_factory.hpp:76] Creating layer detection_accuracy_4_3x5
I1013 08:04:31.303642 19441 net.cpp:106] Creating Layer detection_accuracy_4_3x5
I1013 08:04:31.303645 19441 net.cpp:454] detection_accuracy_4_3x5 <- LFCN_4_3x5_LFCN_4_3x5_0_split_1
I1013 08:04:31.303650 19441 net.cpp:454] detection_accuracy_4_3x5 <- label_4_3x5_data_7_split_1
I1013 08:04:31.303654 19441 net.cpp:411] detection_accuracy_4_3x5 -> accuracy_4_3x5
I1013 08:04:31.303661 19441 net.cpp:411] detection_accuracy_4_3x5 -> boxiou_4_3x5
I1013 08:04:31.303712 19441 net.cpp:150] Setting up detection_accuracy_4_3x5
I1013 08:04:31.303717 19441 net.cpp:157] Top shape: 1 1 1 2 (2)
I1013 08:04:31.303721 19441 net.cpp:157] Top shape: 1 1 1 1 (1)
I1013 08:04:31.303724 19441 net.cpp:165] Memory required for data: 1676425388
I1013 08:04:31.303726 19441 net.cpp:228] detection_accuracy_4_3x5 does not need backward computation.
I1013 08:04:31.303730 19441 net.cpp:226] detection_loss_4_3x5 needs backward computation.
I1013 08:04:31.303732 19441 net.cpp:226] LFCN_4_3x5_LFCN_4_3x5_0_split needs backward computation.
I1013 08:04:31.303735 19441 net.cpp:226] LFCN_4_3x5 needs backward computation.
…
