…
    downsample_rate: 16
    downsample_rate: 32
    downsample_rate: 32
    downsample_rate: 64
    coord_num: 4
    field_h: 60
    field_h: 84
    field_h: 120
    field_h: 168
    field_h: 240
    field_h: 336
    field_h: 480
    field_w: 30
    field_w: 42
    field_w: 60
    field_w: 84
    field_w: 120
    field_w: 168
    field_w: 240
    fg_threshold: 0.5
    resize_width: 960
    resize_height: 720
    crop_width: 576
    crop_height: 576
    do_multiple_scale: true
    min_scale: 40
    max_scale: 340
    min_gt_height: 65
    shuffle: true
  }
}
layer {
  name: "conv1_1"
  type: "Convolution"
  bottom: "data"
  top: "conv1_1"
  convolution_param {
    num_output: 64
    pad: 1
    kernel_size: 3
  }
}
layer {
  name: "relu1_1"
  type: "ReLU"
  bottom: "conv1_1"
  top: "conv1_1"
}
layer {
  name: "conv1_2"
  type: "Convolution"
  bottom: "conv1_1"
  top: "conv1_2"
  convolution_param {
    num_output: 64
    pad: 1
    kernel_size: 3
  }
}
layer {
  name: "relu1_2"
  type: "ReLU"
  bottom: "conv1_2"
  top: "conv1_2"
}
layer {
  name: "pool1"
  type: "Pooling"
  bottom: "conv1_2"
  top: "pool1"
  pooling_param {
    pool: MAX
    kernel_size: 2
    stride: 2
  }
}
layer {
  name: "conv2_1"
  type: "Convolution"
  bottom: "pool1"
  top: "conv2_1"
  convolution_param {
    num_output: 128
    pad: 1
    kernel_size: 3
  }
}
layer {
  name: "relu2_1"
  type: "ReLU"
  bottom: "conv2_1"
  top: "conv2_1"
}
layer {
  name: "conv2_2"
  type: "Convolution"
  bottom: "conv2_1"
  top: "conv2_2"
  convolution_param {
    num_output: 128
    pad: 1
    kernel_size: 3
  }
}
layer {
  name: "relu2_2"
  type: "ReLU"
  bottom: "conv2_2"
  top: "conv2_2"
}
layer {
  name: "pool2"
  type: "Pooling"
  bottom: "conv2_2"
  top: "pool2"
  pooling_param {
    pool: MAX
    kernel_size: 2
    stride: 2
  }
}
layer {
  name: "conv3_1"
  type: "Convolution"
  bottom: "pool2"
  top: "conv3_1"
  convolution_param {
    num_output: 256
    pad: 1
    kernel_size: 3
  }
}
layer {
  name: "relu3_1"
  type: "ReLU"
  bottom: "conv3_1"
  top: "conv3_1"
}
layer {
  name: "conv3_2"
  type: "Convolution"
  bottom: "conv3_1"
  top: "conv3_2"
  convolution_param {
    num_output: 256
    pad: 1
    kernel_size: 3
  }
}
layer {
  name: "relu3_2"
  type: "ReLU"
  bottom: "conv3_2"
  top: "conv3_2"
}
layer {
  name: "conv3_3"
  type: "Convolution"
  bottom: "conv3_2"
  top: "conv3_3"
  convolution_param {
    num_output: 256
    pad: 1
    kernel_size: 3
  }
}
layer {
  name: "relu3_3"
  type: "ReLU"
  bottom: "conv3_3"
  top: "conv3_3"
}
layer {
  name: "pool3"
  type: "Pooling"
  bottom: "conv3_3"
  top: "pool3"
  pooling_param {
    pool: MAX
    kernel_size: 2
    stride: 2
  }
}
layer {
  name: "conv4_1"
  type: "Convolution"
  bottom: "pool3"
  top: "conv4_1"
  convolution_param {
    num_output: 512
    pad: 1
    kernel_size: 3
  }
}
layer {
  name: "relu4_1"
  type: "ReLU"
  bottom: "conv4_1"
  top: "conv4_1"
}
layer {
  name: "conv4_2"
  type: "Convolution"
  bottom: "conv4_1"
  top: "conv4_2"
  convolution_param {
    num_output: 512
    pad: 1
    kernel_size: 3
  }
}
layer {
  name: "relu4_2"
  type: "ReLU"
  bottom: "conv4_2"
  top: "conv4_2"
}
layer {
  name: "conv4_3"
  type: "Convolution"
  bottom: "conv4_2"
  top: "conv4_3"
  convolution_param {
    num_output: 512
    pad: 1
    kernel_size: 3
  }
}
layer {
  name: "relu4_3"
  type: "ReLU"
  bottom: "conv4_3"
  top: "conv4_3"
}
layer {
  name: "loss1_conv1"
  type: "Convolution"
  bottom: "conv4_3"
  top: "loss1_conv1"
  param {
    lr_mult: 1
    decay_mult: 1
  }
  param {
    lr_mult: 2
    decay_mult: 0
  }
  convolution_param {
    num_output: 512
    pad: 1
    kernel_size: 3
    weight_filler {
      type: "gaussian"
      std: 0.01
    }
    bias_filler {
      type: "constant"
    }
  }
}
layer {
  name: "loss_relu1"
  type: "ReLU"
  bottom: "loss1_conv1"
  top: "loss1_conv1"
}
layer {
  name: "LFCN_1_3x5"
  type: "Convolution"
  bottom: "loss1_conv1"
  top: "LFCN_1_3x5"
  param {
    lr_mult: 1
    decay_mult: 1
  }
  param {
    lr_mult: 2
    decay_mult: 0
  }
  convolution_param {
    num_output: 6
    weight_filler {
      type: "gaussian"
      std: 0.001
    }
    bias_filler {
      type: "constant"
    }
    pad_h: 2
    pad_w: 1
    kernel_h: 5
    kernel_w: 3
  }
}
layer {
  name: "detection_loss_1_3x5"
  type: "Detection"
  bottom: "LFCN_1_3x5"
  bottom: "label_1_3x5"
  top: "loss_1_3x5"
  loss_weight: 0.9
  detection_param {
    cls_num: 2
    coord_num: 4
    lambda: 0.5
    field_h: 60
    field_w: 30
    downsample_rate: 8
    bb_smooth: true
    field_whr: 2
    field_xyr: 2
    bg_threshold: 0.2
    bg_multiple: 2
    sample_mode: "random"
    pos_neg_weighted: true
  }
}
layer {
  name: "detection_accuracy_1_3x5"
  type: "DetectionAccuracy"
  bottom: "LFCN_1_3x5"
  bottom: "label_1_3x5"
  top: "accuracy_1_3x5"
  top: "boxiou_1_3x5"
  detection_accuracy_param {
    cls_num: 2
    coord_num: 4
    field_h: 60
    field_w: 30
    downsample_rate: 8
    field_whr: 2
    field_xyr: 2
  }
}
layer {
  name: "LFCN_1_5x7"
  type: "Convolution"
  bottom: "loss1_conv1"
  top: "LFCN_1_5x7"
  param {
    lr_mult: 1
    decay_mult: 1
  }
  param {
    lr_mult: 2
    decay_mult: 0
  }
  convolution_param {
    num_output: 6
    weight_filler {
      type: "gaussian"
      std: 0.001
    }
    bias_filler {
      type: "constant"
    }
    pad_h: 3
    pad_w: 2
    kernel_h: 7
    kernel_w: 5
  }
}
layer {
  name: "detection_loss_1_5x7"
  type: "Detection"
  bottom: "LFCN_1_5x7"
  bottom: "label_1_5x7"
  top: "loss_1_5x7"
  loss_weight: 0.9
  detection_param {
    cls_num: 2
    coord_num: 4
    lambda: 0.5
    field_h: 84
    field_w: 42
    downsample_rate: 8
    bb_smooth: true
    field_whr: 2
    field_xyr: 2
    bg_threshold: 0.2
    bg_multiple: 2
    sample_mode: "random"
    pos_neg_weighted: true
  }
}
layer {
  name: "detection_accuracy_1_5x7"
  type: "DetectionAccuracy"
  bottom: "LFCN_1_5x7"
  bottom: "label_1_5x7"
  top: "accuracy_1_5x7"
  top: "boxiou_1_5x7"
  detection_accuracy_param {
    cls_num: 2
    coord_num: 4
    field_h: 84
    field_w: 42
    downsample_rate: 8
    field_whr: 2
    field_xyr: 2
  }
}
layer {
  name: "pool4"
  type: "Pooling"
  bottom: "conv4_3"
  top: "pool4"
  pooling_param {
    pool: MAX
    kernel_size: 2
    stride: 2
  }
}
layer {
  name: "conv5_1"
  type: "Convolution"
  bottom: "pool4"
  top: "conv5_1"
  convolution_param {
    num_output: 512
    pad: 1
    kernel_size: 3
  }
}
layer {
  name: "relu5_1"
  type: "ReLU"
  bottom: "conv5_1"
  top: "conv5_1"
}
layer {
  name: "conv5_2"
  type: "Convolution"
  bottom: "conv5_1"
  top: "conv5_2"
  convolution_param {
    num_output: 512
    pad: 1
    kernel_size: 3
  }
}
layer {
  name: "relu5_2"
  type: "ReLU"
  bottom: "conv5_2"
  top: "conv5_2"
}
layer {
  name: "conv5_3"
  type: "Convolution"
  bottom: "conv5_2"
  top: "conv5_3"
  convolution_param {
    num_output: 512
    pad: 1
    kernel_size: 3
  }
}
layer {
  name: "relu5_3"
  type: "ReLU"
  bottom: "conv5_3"
  top: "conv5_3"
}
layer {
  name: "LFCN_2_3x5"
  type: "Convolution"
  bottom: "conv5_3"
  top: "LFCN_2_3x5"
  param {
    lr_mult: 1
    decay_mult: 1
  }
  param {
    lr_mult: 2
    decay_mult: 0
  }
  convolution_param {
    num_output: 6
    weight_filler {
      type: "gaussian"
      std: 0.001
    }
    bias_filler {
      type: "constant"
    }
    pad_h: 2
    pad_w: 1
    kernel_h: 5
    kernel_w: 3
  }
}
layer {
  name: "detection_loss_2_3x5"
  type: "Detection"
  bottom: "LFCN_2_3x5"
  bottom: "label_2_3x5"
  top: "loss_2_3x5"
  detection_param {
    cls_num: 2
    coord_num: 4
    lambda: 0.5
    field_h: 120
    field_w: 60
    downsample_rate: 16
    bb_smooth: true
    field_whr: 2
    field_xyr: 2
    bg_threshold: 0.2
    bg_multiple: 2
    sample_mode: "random"
    pos_neg_weighted: true
  }
}
layer {
  name: "detection_accuracy_2_3x5"
  type: "DetectionAccuracy"
  bottom: "LFCN_2_3x5"
  bottom: "label_2_3x5"
  top: "accuracy_2_3x5"
  top: "boxiou_2_3x5"
  detection_accuracy_param {
    cls_num: 2
    coord_num: 4
    field_h: 120
    field_w: 60
    downsample_rate: 16
    field_whr: 2
    field_xyr: 2
  }
}
layer {
  name: "LFCN_2_5x7"
  type: "Convolution"
  bottom: "conv5_3"
  top: "LFCN_2_5x7"
  param {
    lr_mult: 1
    decay_mult: 1
  }
  param {
    lr_mult: 2
    decay_mult: 0
  }
  convolution_param {
    num_output: 6
    weight_filler {
      type: "gaussian"
      std: 0.001
    }
    bias_filler {
      type: "constant"
    }
    pad_h: 3
    pad_w: 2
    kernel_h: 7
    kernel_w: 5
  }
}
layer {
  name: "detection_loss_2_5x7"
  type: "Detection"
  bottom: "LFCN_2_5x7"
  bottom: "label_2_5x7"
  top: "loss_2_5x7"
  detection_param {
    cls_num: 2
    coord_num: 4
    lambda: 0.5
    field_h: 168
    field_w: 84
    downsample_rate: 16
    bb_smooth: true
    field_whr: 2
    field_xyr: 2
    bg_threshold: 0.2
    bg_multiple: 2
    sample_mode: "random"
    pos_neg_weighted: true
  }
}
layer {
  name: "detection_accuracy_2_5x7"
  type: "DetectionAccuracy"
  bottom: "LFCN_2_5x7"
  bottom: "label_2_5x7"
  top: "accuracy_2_5x7"
  top: "boxiou_2_5x7"
  detection_accuracy_param {
    cls_num: 2
    coord_num: 4
    field_h: 168
    field_w: 84
    downsample_rate: 16
    field_whr: 2
    field_xyr: 2
  }
}
layer {
  name: "pool5"
  type: "Pooling"
  bottom: "conv5_3"
  top: "pool5"
  pooling_param {
    pool: MAX
    kernel_size: 2
    stride: 2
  }
}
layer {
  name: "conv6_1"
  type: "Convolution"
  bottom: "pool5"
  top: "conv6_1"
  param {
    lr_mult: 1
    decay_mult: 1
  }
  param {
    lr_mult: 2
    decay_mult: 0
  }
  convolution_param {
    num_output: 512
    pad: 1
    kernel_size: 3
    weight_filler {
      type: "gaussian"
      std: 0.01
    }
    bias_filler {
      type: "constant"
    }
  }
}
layer {
  name: "relu6_1"
  type: "ReLU"
  bottom: "conv6_1"
  top: "conv6_1"
}
layer {
  name: "LFCN_3_3x5"
  type: "Convolution"
  bottom: "conv6_1"
  top: "LFCN_3_3x5"
  param {
    lr_mult: 1
    decay_mult: 1
  }
  param {
    lr_mult: 2
    decay_mult: 0
  }
  convolution_param {
    num_output: 6
    weight_filler {
      type: "gaussian"
      std: 0.001
    }
    bias_filler {
      type: "constant"
    }
    pad_h: 2
    pad_w: 1
    kernel_h: 5
    kernel_w: 3
  }
}
layer {
  name: "detection_loss_3_3x5"
  type: "Detection"
  bottom: "LFCN_3_3x5"
  bottom: "label_3_3x5"
  top: "loss_3_3x5"
  detection_param {
    cls_num: 2
    coord_num: 4
    lambda: 0.5
    field_h: 240
    field_w: 120
    downsample_rate: 32
    bb_smooth: true
    field_whr: 2
    field_xyr: 2
    bg_threshold: 0.2
    bg_multiple: 2
    sample_mode: "random"
    pos_neg_weighted: true
  }
}
layer {
  name: "detection_accuracy_3_3x5"
  type: "DetectionAccuracy"
  bottom: "LFCN_3_3x5"
  bottom: "label_3_3x5"
  top: "accuracy_3_3x5"
  top: "boxiou_3_3x5"
  detection_accuracy_param {
    cls_num: 2
    coord_num: 4
    field_h: 240
    field_w: 120
    downsample_rate: 32
    field_whr: 2
    field_xyr: 2
  }
}
layer {
  name: "LFCN_3_5x7"
  type: "Convolution"
  bottom: "conv6_1"
  top: "LFCN_3_5x7"
  param {
    lr_mult: 1
    decay_mult: 1
  }
  param {
    lr_mult: 2
    decay_mult: 0
  }
  convolution_param {
    num_output: 6
    weight_filler {
      type: "gaussian"
      std: 0.001
    }
    bias_filler {
      type: "constant"
    }
    pad_h: 3
    pad_w: 2
    kernel_h: 7
    kernel_w: 5
  }
}
layer {
  name: "detection_loss_3_5x7"
  type: "Detection"
  bottom: "LFCN_3_5x7"
  bottom: "label_3_5x7"
  top: "loss_3_5x7"
  detection_param {
    cls_num: 2
    coord_num: 4
    lambda: 0.5
    field_h: 336
    field_w: 168
    downsample_rate: 32
    bb_smooth: true
    field_whr: 2
    field_xyr: 2
    bg_threshold: 0.2
    bg_multiple: 2
    sample_mode: "random"
    pos_neg_weighted: true
  }
}
layer {
  name: "detection_accuracy_3_5x7"
  type: "DetectionAccuracy"
  bottom: "LFCN_3_5x7"
  bottom: "label_3_5x7"
  top: "accuracy_3_5x7"
  top: "boxiou_3_5x7"
  detection_accuracy_param {
    cls_num: 2
    coord_num: 4
    field_h: 336
    field_w: 168
    downsample_rate: 32
    field_whr: 2
    field_xyr: 2
  }
}
layer {
  name: "pool6"
  type: "Pooling"
  bottom: "conv6_1"
  top: "pool6"
  pooling_param {
    pool: MAX
    kernel_size: 2
    stride: 2
  }
}
layer {
  name: "LFCN_4_3x5"
  type: "Convolution"
  bottom: "pool6"
  top: "LFCN_4_3x5"
  param {
    lr_mult: 1
    decay_mult: 1
  }
  param {
    lr_mult: 2
    decay_mult: 0
  }
  convolution_param {
    num_output: 6
    weight_filler {
      type: "gaussian"
      std: 0.001
    }
    bias_filler {
      type: "constant"
    }
    pad_h: 2
    pad_w: 1
    kernel_h: 5
    kernel_w: 3
  }
}
layer {
  name: "detection_loss_4_3x5"
  type: "Detection"
  bottom: "LFCN_4_3x5"
  bottom: "label_4_3x5"
  top: "loss_4_3x5"
  detection_param {
    cls_num: 2
    coord_num: 4
    lambda: 0.5
    field_h: 480
    field_w: 240
    downsample_rate: 64
    bb_smooth: true
    field_whr: 2
    field_xyr: 2
    bg_threshold: 0.2
    bg_multiple: 2
    sample_mode: "random"
    pos_neg_weighted: true
  }
}
layer {
  name: "detection_accuracy_4_3x5"
  type: "DetectionAccuracy"
  bottom: "LFCN_4_3x5"
  bottom: "label_4_3x5"
  top: "accuracy_4_3x5"
  top: "boxiou_4_3x5"
  detection_accuracy_param {
    cls_num: 2
    coord_num: 4
    field_h: 480
    field_w: 240
    downsample_rate: 64
    field_whr: 2
    field_xyr: 2
  }
}
I1014 09:48:22.656963 19577 layer_factory.hpp:76] Creating layer data
I1014 09:48:22.657013 19577 net.cpp:106] Creating Layer data
I1014 09:48:22.657023 19577 net.cpp:411] data -> data
…
I1014 09:48:22.905524 19577 image_gt_data_layer.cpp:234] output label size 1 : 4,6,72,72
I1014 09:48:22.905577 19577 image_gt_data_layer.cpp:234] output label size 2 : 4,6,36,36
I1014 09:48:22.905622 19577 image_gt_data_layer.cpp:234] output label size 3 : 4,6,36,36
I1014 09:48:22.905669 19577 image_gt_data_layer.cpp:234] output label size 4 : 4,6,18,18
I1014 09:48:22.905714 19577 image_gt_data_layer.cpp:234] output label size 5 : 4,6,18,18
I1014 09:48:22.905755 19577 image_gt_data_layer.cpp:234] output label size 6 : 4,6,9,9
I1014 09:48:22.939185 19577 net.cpp:150] Setting up data
I1014 09:48:22.939225 19577 net.cpp:157] Top shape: 4 3 576 576 (3981312)
I1014 09:48:22.939230 19577 net.cpp:157] Top shape: 4 6 72 72 (124416)
I1014 09:48:22.939234 19577 net.cpp:157] Top shape: 4 6 72 72 (124416)
I1014 09:48:22.939239 19577 net.cpp:157] Top shape: 4 6 36 36 (31104)
I1014 09:48:22.939241 19577 net.cpp:157] Top shape: 4 6 36 36 (31104)
I1014 09:48:22.939245 19577 net.cpp:157] Top shape: 4 6 18 18 (7776)
I1014 09:48:22.939249 19577 net.cpp:157] Top shape: 4 6 18 18 (7776)
I1014 09:48:22.939252 19577 net.cpp:157] Top shape: 4 6 9 9 (1944)
I1014 09:48:22.939255 19577 net.cpp:165] Memory required for data: 17239392
I1014 09:48:22.939265 19577 layer_factory.hpp:76] Creating layer label_1_3x5_data_1_split
I1014 09:48:22.939291 19577 net.cpp:106] Creating Layer label_1_3x5_data_1_split
I1014 09:48:22.939297 19577 net.cpp:454] label_1_3x5_data_1_split <- label_1_3x5
I1014 09:48:22.939316 19577 net.cpp:411] label_1_3x5_data_1_split -> label_1_3x5_data_1_split_0
I1014 09:48:22.939327 19577 net.cpp:411] label_1_3x5_data_1_split -> label_1_3x5_data_1_split_1
I1014 09:48:22.939391 19577 net.cpp:150] Setting up label_1_3x5_data_1_split
I1014 09:48:22.939401 19577 net.cpp:157] Top shape: 4 6 72 72 (124416)
I1014 09:48:22.939404 19577 net.cpp:157] Top shape: 4 6 72 72 (124416)
I1014 09:48:22.939407 19577 net.cpp:165] Memory required for data: 18234720
I1014 09:48:22.939410 19577 layer_factory.hpp:76] Creating layer label_1_5x7_data_2_split
I1014 09:48:22.939415 19577 net.cpp:106] Creating Layer label_1_5x7_data_2_split
I1014 09:48:22.939419 19577 net.cpp:454] label_1_5x7_data_2_split <- label_1_5x7
I1014 09:48:22.939424 19577 net.cpp:411] label_1_5x7_data_2_split -> label_1_5x7_data_2_split_0
I1014 09:48:22.939429 19577 net.cpp:411] label_1_5x7_data_2_split -> label_1_5x7_data_2_split_1
I1014 09:48:22.939613 19577 net.cpp:150] Setting up label_1_5x7_data_2_split
I1014 09:48:22.939651 19577 net.cpp:157] Top shape: 4 6 72 72 (124416)
I1014 09:48:22.939661 19577 net.cpp:157] Top shape: 4 6 72 72 (124416)
I1014 09:48:22.939666 19577 net.cpp:165] Memory required for data: 19230048
I1014 09:48:22.939676 19577 layer_factory.hpp:76] Creating layer label_2_3x5_data_3_split
I1014 09:48:22.939693 19577 net.cpp:106] Creating Layer label_2_3x5_data_3_split
I1014 09:48:22.939702 19577 net.cpp:454] label_2_3x5_data_3_split <- label_2_3x5
I1014 09:48:22.939715 19577 net.cpp:411] label_2_3x5_data_3_split -> label_2_3x5_data_3_split_0
I1014 09:48:22.939730 19577 net.cpp:411] label_2_3x5_data_3_split -> label_2_3x5_data_3_split_1
I1014 09:48:22.939800 19577 net.cpp:150] Setting up label_2_3x5_data_3_split
I1014 09:48:22.939811 19577 net.cpp:157] Top shape: 4 6 36 36 (31104)
I1014 09:48:22.939820 19577 net.cpp:157] Top shape: 4 6 36 36 (31104)
I1014 09:48:22.939824 19577 net.cpp:165] Memory required for data: 19478880
I1014 09:48:22.939831 19577 layer_factory.hpp:76] Creating layer label_2_5x7_data_4_split
I1014 09:48:22.939841 19577 net.cpp:106] Creating Layer label_2_5x7_data_4_split
I1014 09:48:22.939847 19577 net.cpp:454] label_2_5x7_data_4_split <- label_2_5x7
I1014 09:48:22.939860 19577 net.cpp:411] label_2_5x7_data_4_split -> label_2_5x7_data_4_split_0
I1014 09:48:22.939873 19577 net.cpp:411] label_2_5x7_data_4_split -> label_2_5x7_data_4_split_1
I1014 09:48:22.939924 19577 net.cpp:150] Setting up label_2_5x7_data_4_split
I1014 09:48:22.939934 19577 net.cpp:157] Top shape: 4 6 36 36 (31104)
I1014 09:48:22.939936 19577 net.cpp:157] Top shape: 4 6 36 36 (31104)
I1014 09:48:22.939939 19577 net.cpp:165] Memory required for data: 19727712
I1014 09:48:22.939942 19577 layer_factory.hpp:76] Creating layer label_3_3x5_data_5_split
I1014 09:48:22.939947 19577 net.cpp:106] Creating Layer label_3_3x5_data_5_split
I1014 09:48:22.939951 19577 net.cpp:454] label_3_3x5_data_5_split <- label_3_3x5
I1014 09:48:22.939955 19577 net.cpp:411] label_3_3x5_data_5_split -> label_3_3x5_data_5_split_0
I1014 09:48:22.939965 19577 net.cpp:411] label_3_3x5_data_5_split -> label_3_3x5_data_5_split_1
I1014 09:48:22.939995 19577 net.cpp:150] Setting up label_3_3x5_data_5_split
I1014 09:48:22.940001 19577 net.cpp:157] Top shape: 4 6 18 18 (7776)
I1014 09:48:22.940006 19577 net.cpp:157] Top shape: 4 6 18 18 (7776)
I1014 09:48:22.940008 19577 net.cpp:165] Memory required for data: 19789920
I1014 09:48:22.940011 19577 layer_factory.hpp:76] Creating layer label_3_5x7_data_6_split
I1014 09:48:22.940018 19577 net.cpp:106] Creating Layer label_3_5x7_data_6_split
I1014 09:48:22.940021 19577 net.cpp:454] label_3_5x7_data_6_split <- label_3_5x7
I1014 09:48:22.940026 19577 net.cpp:411] label_3_5x7_data_6_split -> label_3_5x7_data_6_split_0
I1014 09:48:22.940032 19577 net.cpp:411] label_3_5x7_data_6_split -> label_3_5x7_data_6_split_1
I1014 09:48:22.940063 19577 net.cpp:150] Setting up label_3_5x7_data_6_split
I1014 09:48:22.940069 19577 net.cpp:157] Top shape: 4 6 18 18 (7776)
I1014 09:48:22.940074 19577 net.cpp:157] Top shape: 4 6 18 18 (7776)
I1014 09:48:22.940078 19577 net.cpp:165] Memory required for data: 19852128
I1014 09:48:22.940080 19577 layer_factory.hpp:76] Creating layer label_4_3x5_data_7_split
I1014 09:48:22.940085 19577 net.cpp:106] Creating Layer label_4_3x5_data_7_split
I1014 09:48:22.940088 19577 net.cpp:454] label_4_3x5_data_7_split <- label_4_3x5
I1014 09:48:22.940093 19577 net.cpp:411] label_4_3x5_data_7_split -> label_4_3x5_data_7_split_0
I1014 09:48:22.940099 19577 net.cpp:411] label_4_3x5_data_7_split -> label_4_3x5_data_7_split_1
I1014 09:48:22.940129 19577 net.cpp:150] Setting up label_4_3x5_data_7_split
I1014 09:48:22.940135 19577 net.cpp:157] Top shape: 4 6 9 9 (1944)
I1014 09:48:22.940140 19577 net.cpp:157] Top shape: 4 6 9 9 (1944)
I1014 09:48:22.940142 19577 net.cpp:165] Memory required for data: 19867680
I1014 09:48:22.940145 19577 layer_factory.hpp:76] Creating layer conv1_1
I1014 09:48:22.940157 19577 net.cpp:106] Creating Layer conv1_1
I1014 09:48:22.940160 19577 net.cpp:454] conv1_1 <- data
I1014 09:48:22.940166 19577 net.cpp:411] conv1_1 -> conv1_1
I1014 09:48:23.095047 19577 net.cpp:150] Setting up conv1_1
I1014 09:48:23.095080 19577 net.cpp:157] Top shape: 4 64 576 576 (84934656)
I1014 09:48:23.095084 19577 net.cpp:165] Memory required for data: 359606304
I1014 09:48:23.095113 19577 layer_factory.hpp:76] Creating layer relu1_1
I1014 09:48:23.095126 19577 net.cpp:106] Creating Layer relu1_1
I1014 09:48:23.095132 19577 net.cpp:454] relu1_1 <- conv1_1
I1014 09:48:23.095139 19577 net.cpp:397] relu1_1 -> conv1_1 (in-place)
I1014 09:48:23.095335 19577 net.cpp:150] Setting up relu1_1
I1014 09:48:23.095346 19577 net.cpp:157] Top shape: 4 64 576 576 (84934656)
I1014 09:48:23.095350 19577 net.cpp:165] Memory required for data: 699344928
I1014 09:48:23.095353 19577 layer_factory.hpp:76] Creating layer conv1_2
I1014 09:48:23.095365 19577 net.cpp:106] Creating Layer conv1_2
I1014 09:48:23.095372 19577 net.cpp:454] conv1_2 <- conv1_1
I1014 09:48:23.095383 19577 net.cpp:411] conv1_2 -> conv1_2
I1014 09:48:23.097542 19577 net.cpp:150] Setting up conv1_2
I1014 09:48:23.097558 19577 net.cpp:157] Top shape: 4 64 576 576 (84934656)
I1014 09:48:23.097564 19577 net.cpp:165] Memory required for data: 1039083552
I1014 09:48:23.097580 19577 layer_factory.hpp:76] Creating layer relu1_2
I1014 09:48:23.097594 19577 net.cpp:106] Creating Layer relu1_2
I1014 09:48:23.097600 19577 net.cpp:454] relu1_2 <- conv1_2
I1014 09:48:23.097615 19577 net.cpp:397] relu1_2 -> conv1_2 (in-place)
I1014 09:48:23.097990 19577 net.cpp:150] Setting up relu1_2
I1014 09:48:23.098011 19577 net.cpp:157] Top shape: 4 64 576 576 (84934656)
I1014 09:48:23.098013 19577 net.cpp:165] Memory required for data: 1378822176
I1014 09:48:23.098016 19577 layer_factory.hpp:76] Creating layer pool1
I1014 09:48:23.098026 19577 net.cpp:106] Creating Layer pool1
I1014 09:48:23.098031 19577 net.cpp:454] pool1 <- conv1_2
I1014 09:48:23.098037 19577 net.cpp:411] pool1 -> pool1
I1014 09:48:23.098278 19577 net.cpp:150] Setting up pool1
I1014 09:48:23.098289 19577 net.cpp:157] Top shape: 4 64 288 288 (21233664)
I1014 09:48:23.098291 19577 net.cpp:165] Memory required for data: 1463756832
I1014 09:48:23.098294 19577 layer_factory.hpp:76] Creating layer conv2_1
I1014 09:48:23.098304 19577 net.cpp:106] Creating Layer conv2_1
I1014 09:48:23.098310 19577 net.cpp:454] conv2_1 <- pool1
I1014 09:48:23.098315 19577 net.cpp:411] conv2_1 -> conv2_1
I1014 09:48:23.100028 19577 net.cpp:150] Setting up conv2_1
I1014 09:48:23.100044 19577 net.cpp:157] Top shape: 4 128 288 288 (42467328)
I1014 09:48:23.100047 19577 net.cpp:165] Memory required for data: 1633626144
I1014 09:48:23.100057 19577 layer_factory.hpp:76] Creating layer relu2_1
I1014 09:48:23.100066 19577 net.cpp:106] Creating Layer relu2_1
I1014 09:48:23.100071 19577 net.cpp:454] relu2_1 <- conv2_1
I1014 09:48:23.100076 19577 net.cpp:397] relu2_1 -> conv2_1 (in-place)
I1014 09:48:23.100428 19577 net.cpp:150] Setting up relu2_1
I1014 09:48:23.100440 19577 net.cpp:157] Top shape: 4 128 288 288 (42467328)
I1014 09:48:23.100443 19577 net.cpp:165] Memory required for data: 1803495456
I1014 09:48:23.100447 19577 layer_factory.hpp:76] Creating layer conv2_2
I1014 09:48:23.100455 19577 net.cpp:106] Creating Layer conv2_2
I1014 09:48:23.100461 19577 net.cpp:454] conv2_2 <- conv2_1
I1014 09:48:23.100468 19577 net.cpp:411] conv2_2 -> conv2_2
I1014 09:48:23.102125 19577 net.cpp:150] Setting up conv2_2
I1014 09:48:23.102140 19577 net.cpp:157] Top shape: 4 128 288 288 (42467328)
I1014 09:48:23.102144 19577 net.cpp:165] Memory required for data: 1973364768
I1014 09:48:23.102150 19577 layer_factory.hpp:76] Creating layer relu2_2
I1014 09:48:23.102160 19577 net.cpp:106] Creating Layer relu2_2
I1014 09:48:23.102164 19577 net.cpp:454] relu2_2 <- conv2_2
I1014 09:48:23.102171 19577 net.cpp:397] relu2_2 -> conv2_2 (in-place)
I1014 09:48:23.102532 19577 net.cpp:150] Setting up relu2_2
I1014 09:48:23.102545 19577 net.cpp:157] Top shape: 4 128 288 288 (42467328)
I1014 09:48:23.102548 19577 net.cpp:165] Memory required for data: 2143234080
I1014 09:48:23.102551 19577 layer_factory.hpp:76] Creating layer pool2
I1014 09:48:23.102560 19577 net.cpp:106] Creating Layer pool2
I1014 09:48:23.102566 19577 net.cpp:454] pool2 <- conv2_2
I1014 09:48:23.102571 19577 net.cpp:411] pool2 -> pool2
I1014 09:48:23.102777 19577 net.cpp:150] Setting up pool2
I1014 09:48:23.102787 19577 net.cpp:157] Top shape: 4 128 144 144 (10616832)
I1014 09:48:23.102789 19577 net.cpp:165] Memory required for data: 2185701408
I1014 09:48:23.102792 19577 layer_factory.hpp:76] Creating layer conv3_1
I1014 09:48:23.102802 19577 net.cpp:106] Creating Layer conv3_1
I1014 09:48:23.102808 19577 net.cpp:454] conv3_1 <- pool2
I1014 09:48:23.102813 19577 net.cpp:411] conv3_1 -> conv3_1
I1014 09:48:23.104861 19577 net.cpp:150] Setting up conv3_1
I1014 09:48:23.104876 19577 net.cpp:157] Top shape: 4 256 144 144 (21233664)
I1014 09:48:23.104879 19577 net.cpp:165] Memory required for data: 2270636064
I1014 09:48:23.104889 19577 layer_factory.hpp:76] Creating layer relu3_1
I1014 09:48:23.104897 19577 net.cpp:106] Creating Layer relu3_1
I1014 09:48:23.104899 19577 net.cpp:454] relu3_1 <- conv3_1
I1014 09:48:23.104907 19577 net.cpp:397] relu3_1 -> conv3_1 (in-place)
I1014 09:48:23.105270 19577 net.cpp:150] Setting up relu3_1
I1014 09:48:23.105283 19577 net.cpp:157] Top shape: 4 256 144 144 (21233664)
I1014 09:48:23.105286 19577 net.cpp:165] Memory required for data: 2355570720
I1014 09:48:23.105290 19577 layer_factory.hpp:76] Creating layer conv3_2
I1014 09:48:23.105298 19577 net.cpp:106] Creating Layer conv3_2
I1014 09:48:23.105303 19577 net.cpp:454] conv3_2 <- conv3_1
I1014 09:48:23.105309 19577 net.cpp:411] conv3_2 -> conv3_2
I1014 09:48:23.108844 19577 net.cpp:150] Setting up conv3_2
I1014 09:48:23.108860 19577 net.cpp:157] Top shape: 4 256 144 144 (21233664)
I1014 09:48:23.108863 19577 net.cpp:165] Memory required for data: 2440505376
I1014 09:48:23.108870 19577 layer_factory.hpp:76] Creating layer relu3_2
I1014 09:48:23.108876 19577 net.cpp:106] Creating Layer relu3_2
I1014 09:48:23.108880 19577 net.cpp:454] relu3_2 <- conv3_2
I1014 09:48:23.108887 19577 net.cpp:397] relu3_2 -> conv3_2 (in-place)
I1014 09:48:23.109076 19577 net.cpp:150] Setting up relu3_2
I1014 09:48:23.109087 19577 net.cpp:157] Top shape: 4 256 144 144 (21233664)
I1014 09:48:23.109091 19577 net.cpp:165] Memory required for data: 2525440032
I1014 09:48:23.109094 19577 layer_factory.hpp:76] Creating layer conv3_3
I1014 09:48:23.109102 19577 net.cpp:106] Creating Layer conv3_3
I1014 09:48:23.109104 19577 net.cpp:454] conv3_3 <- conv3_2
I1014 09:48:23.109112 19577 net.cpp:411] conv3_3 -> conv3_3
I1014 09:48:23.111806 19577 net.cpp:150] Setting up conv3_3
I1014 09:48:23.111822 19577 net.cpp:157] Top shape: 4 256 144 144 (21233664)
I1014 09:48:23.111825 19577 net.cpp:165] Memory required for data: 2610374688
I1014 09:48:23.111832 19577 layer_factory.hpp:76] Creating layer relu3_3
I1014 09:48:23.111840 19577 net.cpp:106] Creating Layer relu3_3
I1014 09:48:23.111843 19577 net.cpp:454] relu3_3 <- conv3_3
I1014 09:48:23.111848 19577 net.cpp:397] relu3_3 -> conv3_3 (in-place)
I1014 09:48:23.112030 19577 net.cpp:150] Setting up relu3_3
I1014 09:48:23.112040 19577 net.cpp:157] Top shape: 4 256 144 144 (21233664)
I1014 09:48:23.112043 19577 net.cpp:165] Memory required for data: 2695309344
I1014 09:48:23.112046 19577 layer_factory.hpp:76] Creating layer pool3
I1014 09:48:23.112053 19577 net.cpp:106] Creating Layer pool3
I1014 09:48:23.112056 19577 net.cpp:454] pool3 <- conv3_3
I1014 09:48:23.112063 19577 net.cpp:411] pool3 -> pool3
I1014 09:48:23.112453 19577 net.cpp:150] Setting up pool3
I1014 09:48:23.112467 19577 net.cpp:157] Top shape: 4 256 72 72 (5308416)
I1014 09:48:23.112469 19577 net.cpp:165] Memory required for data: 2716543008
I1014 09:48:23.112473 19577 layer_factory.hpp:76] Creating layer conv4_1
I1014 09:48:23.112481 19577 net.cpp:106] Creating Layer conv4_1
I1014 09:48:23.112484 19577 net.cpp:454] conv4_1 <- pool3
I1014 09:48:23.112493 19577 net.cpp:411] conv4_1 -> conv4_1
I1014 09:48:23.116982 19577 net.cpp:150] Setting up conv4_1
I1014 09:48:23.116997 19577 net.cpp:157] Top shape: 4 512 72 72 (10616832)
I1014 09:48:23.117000 19577 net.cpp:165] Memory required for data: 2759010336
I1014 09:48:23.117007 19577 layer_factory.hpp:76] Creating layer relu4_1
I1014 09:48:23.117015 19577 net.cpp:106] Creating Layer relu4_1
I1014 09:48:23.117019 19577 net.cpp:454] relu4_1 <- conv4_1
I1014 09:48:23.117023 19577 net.cpp:397] relu4_1 -> conv4_1 (in-place)
I1014 09:48:23.117208 19577 net.cpp:150] Setting up relu4_1
I1014 09:48:23.117218 19577 net.cpp:157] Top shape: 4 512 72 72 (10616832)
I1014 09:48:23.117220 19577 net.cpp:165] Memory required for data: 2801477664
I1014 09:48:23.117223 19577 layer_factory.hpp:76] Creating layer conv4_2
I1014 09:48:23.117231 19577 net.cpp:106] Creating Layer conv4_2
I1014 09:48:23.117234 19577 net.cpp:454] conv4_2 <- conv4_1
I1014 09:48:23.117239 19577 net.cpp:411] conv4_2 -> conv4_2
I1014 09:48:23.123989 19577 net.cpp:150] Setting up conv4_2
I1014 09:48:23.124009 19577 net.cpp:157] Top shape: 4 512 72 72 (10616832)
I1014 09:48:23.124013 19577 net.cpp:165] Memory required for data: 2843944992
I1014 09:48:23.124028 19577 layer_factory.hpp:76] Creating layer relu4_2
I1014 09:48:23.124037 19577 net.cpp:106] Creating Layer relu4_2
I1014 09:48:23.124042 19577 net.cpp:454] relu4_2 <- conv4_2
I1014 09:48:23.124047 19577 net.cpp:397] relu4_2 -> conv4_2 (in-place)
I1014 09:48:23.124416 19577 net.cpp:150] Setting up relu4_2
I1014 09:48:23.124430 19577 net.cpp:157] Top shape: 4 512 72 72 (10616832)
I1014 09:48:23.124433 19577 net.cpp:165] Memory required for data: 2886412320
I1014 09:48:23.124438 19577 layer_factory.hpp:76] Creating layer conv4_3
I1014 09:48:23.124445 19577 net.cpp:106] Creating Layer conv4_3
I1014 09:48:23.124449 19577 net.cpp:454] conv4_3 <- conv4_2
I1014 09:48:23.124456 19577 net.cpp:411] conv4_3 -> conv4_3
I1014 09:48:23.131072 19577 net.cpp:150] Setting up conv4_3
I1014 09:48:23.131094 19577 net.cpp:157] Top shape: 4 512 72 72 (10616832)
I1014 09:48:23.131098 19577 net.cpp:165] Memory required for data: 2928879648
I1014 09:48:23.131108 19577 layer_factory.hpp:76] Creating layer relu4_3
I1014 09:48:23.131119 19577 net.cpp:106] Creating Layer relu4_3
I1014 09:48:23.131124 19577 net.cpp:454] relu4_3 <- conv4_3
I1014 09:48:23.131132 19577 net.cpp:397] relu4_3 -> conv4_3 (in-place)
I1014 09:48:23.131505 19577 net.cpp:150] Setting up relu4_3
I1014 09:48:23.131517 19577 net.cpp:157] Top shape: 4 512 72 72 (10616832)
I1014 09:48:23.131520 19577 net.cpp:165] Memory required for data: 2971346976
I1014 09:48:23.131525 19577 layer_factory.hpp:76] Creating layer conv4_3_relu4_3_0_split
I1014 09:48:23.131532 19577 net.cpp:106] Creating Layer conv4_3_relu4_3_0_split
I1014 09:48:23.131536 19577 net.cpp:454] conv4_3_relu4_3_0_split <- conv4_3
I1014 09:48:23.131543 19577 net.cpp:411] conv4_3_relu4_3_0_split -> conv4_3_relu4_3_0_split_0
I1014 09:48:23.131551 19577 net.cpp:411] conv4_3_relu4_3_0_split -> conv4_3_relu4_3_0_split_1
I1014 09:48:23.131598 19577 net.cpp:150] Setting up conv4_3_relu4_3_0_split
I1014 09:48:23.131603 19577 net.cpp:157] Top shape: 4 512 72 72 (10616832)
I1014 09:48:23.131608 19577 net.cpp:157] Top shape: 4 512 72 72 (10616832)
I1014 09:48:23.131610 19577 net.cpp:165] Memory required for data: 3056281632
I1014 09:48:23.131613 19577 layer_factory.hpp:76] Creating layer loss1_conv1
I1014 09:48:23.131631 19577 net.cpp:106] Creating Layer loss1_conv1
I1014 09:48:23.131635 19577 net.cpp:454] loss1_conv1 <- conv4_3_relu4_3_0_split_0
I1014 09:48:23.131644 19577 net.cpp:411] loss1_conv1 -> loss1_conv1
I1014 09:48:23.219923 19577 net.cpp:150] Setting up loss1_conv1
I1014 09:48:23.219954 19577 net.cpp:157] Top shape: 4 512 72 72 (10616832)
I1014 09:48:23.219957 19577 net.cpp:165] Memory required for data: 3098748960
I1014 09:48:23.219965 19577 layer_factory.hpp:76] Creating layer loss_relu1
I1014 09:48:23.219977 19577 net.cpp:106] Creating Layer loss_relu1
I1014 09:48:23.219983 19577 net.cpp:454] loss_relu1 <- loss1_conv1
I1014 09:48:23.219990 19577 net.cpp:397] loss_relu1 -> loss1_conv1 (in-place)
I1014 09:48:23.220175 19577 net.cpp:150] Setting up loss_relu1
I1014 09:48:23.220185 19577 net.cpp:157] Top shape: 4 512 72 72 (10616832)
I1014 09:48:23.220187 19577 net.cpp:165] Memory required for data: 3141216288
I1014 09:48:23.220191 19577 layer_factory.hpp:76] Creating layer loss1_conv1_loss_relu1_0_split
I1014 09:48:23.220197 19577 net.cpp:106] Creating Layer loss1_conv1_loss_relu1_0_split
I1014 09:48:23.220201 19577 net.cpp:454] loss1_conv1_loss_relu1_0_split <- loss1_conv1
I1014 09:48:23.220208 19577 net.cpp:411] loss1_conv1_loss_relu1_0_split -> loss1_conv1_loss_relu1_0_split_0
I1014 09:48:23.220217 19577 net.cpp:411] loss1_conv1_loss_relu1_0_split -> loss1_conv1_loss_relu1_0_split_1
I1014 09:48:23.220263 19577 net.cpp:150] Setting up loss1_conv1_loss_relu1_0_split
I1014 09:48:23.220270 19577 net.cpp:157] Top shape: 4 512 72 72 (10616832)
I1014 09:48:23.220274 19577 net.cpp:157] Top shape: 4 512 72 72 (10616832)
I1014 09:48:23.220278 19577 net.cpp:165] Memory required for data: 3226150944
I1014 09:48:23.220280 19577 layer_factory.hpp:76] Creating layer LFCN_1_3x5
I1014 09:48:23.220293 19577 net.cpp:106] Creating Layer LFCN_1_3x5
I1014 09:48:23.220296 19577 net.cpp:454] LFCN_1_3x5 <- loss1_conv1_loss_relu1_0_split_0
I1014 09:48:23.220301 19577 net.cpp:411] LFCN_1_3x5 -> LFCN_1_3x5
I1014 09:48:23.223351 19577 net.cpp:150] Setting up LFCN_1_3x5
I1014 09:48:23.223366 19577 net.cpp:157] Top shape: 4 6 72 72 (124416)
I1014 09:48:23.223369 19577 net.cpp:165] Memory required for data: 3226648608
I1014 09:48:23.223376 19577 layer_factory.hpp:76] Creating layer LFCN_1_3x5_LFCN_1_3x5_0_split
I1014 09:48:23.223381 19577 net.cpp:106] Creating Layer LFCN_1_3x5_LFCN_1_3x5_0_split
I1014 09:48:23.223386 19577 net.cpp:454] LFCN_1_3x5_LFCN_1_3x5_0_split <- LFCN_1_3x5
I1014 09:48:23.223393 19577 net.cpp:411] LFCN_1_3x5_LFCN_1_3x5_0_split -> LFCN_1_3x5_LFCN_1_3x5_0_split_0
I1014 09:48:23.223400 19577 net.cpp:411] LFCN_1_3x5_LFCN_1_3x5_0_split -> LFCN_1_3x5_LFCN_1_3x5_0_split_1
I1014 09:48:23.223444 19577 net.cpp:150] Setting up LFCN_1_3x5_LFCN_1_3x5_0_split
I1014 09:48:23.223453 19577 net.cpp:157] Top shape: 4 6 72 72 (124416)
I1014 09:48:23.223456 19577 net.cpp:157] Top shape: 4 6 72 72 (124416)
I1014 09:48:23.223459 19577 net.cpp:165] Memory required for data: 3227643936
I1014 09:48:23.223461 19577 layer_factory.hpp:76] Creating layer detection_loss_1_3x5
I1014 09:48:23.223470 19577 net.cpp:106] Creating Layer detection_loss_1_3x5
I1014 09:48:23.223474 19577 net.cpp:454] detection_loss_1_3x5 <- LFCN_1_3x5_LFCN_1_3x5_0_split_0
I1014 09:48:23.223479 19577 net.cpp:454] detection_loss_1_3x5 <- label_1_3x5_data_1_split_0
I1014 09:48:23.223484 19577 net.cpp:411] detection_loss_1_3x5 -> loss_1_3x5
I1014 09:48:23.223496 19577 layer_factory.hpp:76] Creating layer detection_loss_1_3x5
I1014 09:48:23.224093 19577 net.cpp:150] Setting up detection_loss_1_3x5
I1014 09:48:23.224107 19577 net.cpp:157] Top shape: 1 1 1 2 (2)
I1014 09:48:23.224109 19577 net.cpp:160]     with loss weight 0.9
I1014 09:48:23.224130 19577 net.cpp:165] Memory required for data: 3227643944
I1014 09:48:23.224134 19577 layer_factory.hpp:76] Creating layer detection_accuracy_1_3x5
I1014 09:48:23.224143 19577 net.cpp:106] Creating Layer detection_accuracy_1_3x5
I1014 09:48:23.224148 19577 net.cpp:454] detection_accuracy_1_3x5 <- LFCN_1_3x5_LFCN_1_3x5_0_split_1
I1014 09:48:23.224153 19577 net.cpp:454] detection_accuracy_1_3x5 <- label_1_3x5_data_1_split_1
I1014 09:48:23.224158 19577 net.cpp:411] detection_accuracy_1_3x5 -> accuracy_1_3x5
I1014 09:48:23.224165 19577 net.cpp:411] detection_accuracy_1_3x5 -> boxiou_1_3x5
I1014 09:48:23.224210 19577 net.cpp:150] Setting up detection_accuracy_1_3x5
I1014 09:48:23.224217 19577 net.cpp:157] Top shape: 1 1 1 2 (2)
I1014 09:48:23.224221 19577 net.cpp:157] Top shape: 1 1 1 1 (1)
I1014 09:48:23.224223 19577 net.cpp:165] Memory required for data: 3227643956
I1014 09:48:23.224226 19577 layer_factory.hpp:76] Creating layer LFCN_1_5x7
I1014 09:48:23.224236 19577 net.cpp:106] Creating Layer LFCN_1_5x7
I1014 09:48:23.224238 19577 net.cpp:454] LFCN_1_5x7 <- loss1_conv1_loss_relu1_0_split_1
I1014 09:48:23.224246 19577 net.cpp:411] LFCN_1_5x7 -> LFCN_1_5x7
I1014 09:48:23.229765 19577 net.cpp:150] Setting up LFCN_1_5x7
I1014 09:48:23.229782 19577 net.cpp:157] Top shape: 4 6 72 72 (124416)
I1014 09:48:23.229785 19577 net.cpp:165] Memory required for data: 3228141620
I1014 09:48:23.229794 19577 layer_factory.hpp:76] Creating layer LFCN_1_5x7_LFCN_1_5x7_0_split
I1014 09:48:23.229799 19577 net.cpp:106] Creating Layer LFCN_1_5x7_LFCN_1_5x7_0_split
I1014 09:48:23.229804 19577 net.cpp:454] LFCN_1_5x7_LFCN_1_5x7_0_split <- LFCN_1_5x7
I1014 09:48:23.229810 19577 net.cpp:411] LFCN_1_5x7_LFCN_1_5x7_0_split -> LFCN_1_5x7_LFCN_1_5x7_0_split_0
I1014 09:48:23.229817 19577 net.cpp:411] LFCN_1_5x7_LFCN_1_5x7_0_split -> LFCN_1_5x7_LFCN_1_5x7_0_split_1
I1014 09:48:23.229863 19577 net.cpp:150] Setting up LFCN_1_5x7_LFCN_1_5x7_0_split
I1014 09:48:23.229871 19577 net.cpp:157] Top shape: 4 6 72 72 (124416)
I1014 09:48:23.229876 19577 net.cpp:157] Top shape: 4 6 72 72 (124416)
I1014 09:48:23.229878 19577 net.cpp:165] Memory required for data: 3229136948
I1014 09:48:23.229882 19577 layer_factory.hpp:76] Creating layer detection_loss_1_5x7
I1014 09:48:23.229888 19577 net.cpp:106] Creating Layer detection_loss_1_5x7
I1014 09:48:23.229892 19577 net.cpp:454] detection_loss_1_5x7 <- LFCN_1_5x7_LFCN_1_5x7_0_split_0
I1014 09:48:23.229895 19577 net.cpp:454] detection_loss_1_5x7 <- label_1_5x7_data_2_split_0
I1014 09:48:23.229902 19577 net.cpp:411] detection_loss_1_5x7 -> loss_1_5x7
I1014 09:48:23.229909 19577 layer_factory.hpp:76] Creating layer detection_loss_1_5x7
I1014 09:48:23.230484 19577 net.cpp:150] Setting up detection_loss_1_5x7
I1014 09:48:23.230496 19577 net.cpp:157] Top shape: 1 1 1 2 (2)
I1014 09:48:23.230499 19577 net.cpp:160]     with loss weight 0.9
I1014 09:48:23.230506 19577 net.cpp:165] Memory required for data: 3229136956
I1014 09:48:23.230509 19577 layer_factory.hpp:76] Creating layer detection_accuracy_1_5x7
I1014 09:48:23.230518 19577 net.cpp:106] Creating Layer detection_accuracy_1_5x7
I1014 09:48:23.230521 19577 net.cpp:454] detection_accuracy_1_5x7 <- LFCN_1_5x7_LFCN_1_5x7_0_split_1
I1014 09:48:23.230527 19577 net.cpp:454] detection_accuracy_1_5x7 <- label_1_5x7_data_2_split_1
I1014 09:48:23.230532 19577 net.cpp:411] detection_accuracy_1_5x7 -> accuracy_1_5x7
I1014 09:48:23.230538 19577 net.cpp:411] detection_accuracy_1_5x7 -> boxiou_1_5x7
I1014 09:48:23.230582 19577 net.cpp:150] Setting up detection_accuracy_1_5x7
I1014 09:48:23.230589 19577 net.cpp:157] Top shape: 1 1 1 2 (2)
I1014 09:48:23.230593 19577 net.cpp:157] Top shape: 1 1 1 1 (1)
I1014 09:48:23.230595 19577 net.cpp:165] Memory required for data: 3229136968
I1014 09:48:23.230598 19577 layer_factory.hpp:76] Creating layer pool4
I1014 09:48:23.230605 19577 net.cpp:106] Creating Layer pool4
I1014 09:48:23.230609 19577 net.cpp:454] pool4 <- conv4_3_relu4_3_0_split_1
I1014 09:48:23.230618 19577 net.cpp:411] pool4 -> pool4
I1014 09:48:23.231029 19577 net.cpp:150] Setting up pool4
I1014 09:48:23.231041 19577 net.cpp:157] Top shape: 4 512 36 36 (2654208)
I1014 09:48:23.231045 19577 net.cpp:165] Memory required for data: 3239753800
I1014 09:48:23.231048 19577 layer_factory.hpp:76] Creating layer conv5_1
I1014 09:48:23.231056 19577 net.cpp:106] Creating Layer conv5_1
I1014 09:48:23.231060 19577 net.cpp:454] conv5_1 <- pool4
I1014 09:48:23.231066 19577 net.cpp:411] conv5_1 -> conv5_1
I1014 09:48:23.237565 19577 net.cpp:150] Setting up conv5_1
I1014 09:48:23.237586 19577 net.cpp:157] Top shape: 4 512 36 36 (2654208)
I1014 09:48:23.237589 19577 net.cpp:165] Memory required for data: 3250370632
I1014 09:48:23.237599 19577 layer_factory.hpp:76] Creating layer relu5_1
I1014 09:48:23.237607 19577 net.cpp:106] Creating Layer relu5_1
I1014 09:48:23.237612 19577 net.cpp:454] relu5_1 <- conv5_1
I1014 09:48:23.237619 19577 net.cpp:397] relu5_1 -> conv5_1 (in-place)
I1014 09:48:23.237987 19577 net.cpp:150] Setting up relu5_1
I1014 09:48:23.238000 19577 net.cpp:157] Top shape: 4 512 36 36 (2654208)
I1014 09:48:23.238003 19577 net.cpp:165] Memory required for data: 3260987464
I1014 09:48:23.238008 19577 layer_factory.hpp:76] Creating layer conv5_2
I1014 09:48:23.238018 19577 net.cpp:106] Creating Layer conv5_2
I1014 09:48:23.238021 19577 net.cpp:454] conv5_2 <- conv5_1
I1014 09:48:23.238026 19577 net.cpp:411] conv5_2 -> conv5_2
I1014 09:48:23.245400 19577 net.cpp:150] Setting up conv5_2
I1014 09:48:23.245436 19577 net.cpp:157] Top shape: 4 512 36 36 (2654208)
I1014 09:48:23.245443 19577 net.cpp:165] Memory required for data: 3271604296
I1014 09:48:23.245455 19577 layer_factory.hpp:76] Creating layer relu5_2
I1014 09:48:23.245466 19577 net.cpp:106] Creating Layer relu5_2
I1014 09:48:23.245473 19577 net.cpp:454] relu5_2 <- conv5_2
I1014 09:48:23.245481 19577 net.cpp:397] relu5_2 -> conv5_2 (in-place)
I1014 09:48:23.245674 19577 net.cpp:150] Setting up relu5_2
I1014 09:48:23.245685 19577 net.cpp:157] Top shape: 4 512 36 36 (2654208)
I1014 09:48:23.245688 19577 net.cpp:165] Memory required for data: 3282221128
I1014 09:48:23.245692 19577 layer_factory.hpp:76] Creating layer conv5_3
I1014 09:48:23.245703 19577 net.cpp:106] Creating Layer conv5_3
I1014 09:48:23.245707 19577 net.cpp:454] conv5_3 <- conv5_2
I1014 09:48:23.245714 19577 net.cpp:411] conv5_3 -> conv5_3
I1014 09:48:23.252305 19577 net.cpp:150] Setting up conv5_3
I1014 09:48:23.252323 19577 net.cpp:157] Top shape: 4 512 36 36 (2654208)
I1014 09:48:23.252327 19577 net.cpp:165] Memory required for data: 3292837960
I1014 09:48:23.252334 19577 layer_factory.hpp:76] Creating layer relu5_3
I1014 09:48:23.252341 19577 net.cpp:106] Creating Layer relu5_3
I1014 09:48:23.252346 19577 net.cpp:454] relu5_3 <- conv5_3
I1014 09:48:23.252352 19577 net.cpp:397] relu5_3 -> conv5_3 (in-place)
I1014 09:48:23.252722 19577 net.cpp:150] Setting up relu5_3
I1014 09:48:23.252735 19577 net.cpp:157] Top shape: 4 512 36 36 (2654208)
I1014 09:48:23.252738 19577 net.cpp:165] Memory required for data: 3303454792
I1014 09:48:23.252743 19577 layer_factory.hpp:76] Creating layer conv5_3_relu5_3_0_split
I1014 09:48:23.252749 19577 net.cpp:106] Creating Layer conv5_3_relu5_3_0_split
I1014 09:48:23.252755 19577 net.cpp:454] conv5_3_relu5_3_0_split <- conv5_3
I1014 09:48:23.252761 19577 net.cpp:411] conv5_3_relu5_3_0_split -> conv5_3_relu5_3_0_split_0
I1014 09:48:23.252768 19577 net.cpp:411] conv5_3_relu5_3_0_split -> conv5_3_relu5_3_0_split_1
I1014 09:48:23.252774 19577 net.cpp:411] conv5_3_relu5_3_0_split -> conv5_3_relu5_3_0_split_2
I1014 09:48:23.252837 19577 net.cpp:150] Setting up conv5_3_relu5_3_0_split
I1014 09:48:23.252846 19577 net.cpp:157] Top shape: 4 512 36 36 (2654208)
I1014 09:48:23.252851 19577 net.cpp:157] Top shape: 4 512 36 36 (2654208)
I1014 09:48:23.252853 19577 net.cpp:157] Top shape: 4 512 36 36 (2654208)
I1014 09:48:23.252856 19577 net.cpp:165] Memory required for data: 3335305288
I1014 09:48:23.252859 19577 layer_factory.hpp:76] Creating layer LFCN_2_3x5
I1014 09:48:23.252869 19577 net.cpp:106] Creating Layer LFCN_2_3x5
I1014 09:48:23.252872 19577 net.cpp:454] LFCN_2_3x5 <- conv5_3_relu5_3_0_split_0
I1014 09:48:23.252883 19577 net.cpp:411] LFCN_2_3x5 -> LFCN_2_3x5
I1014 09:48:23.255556 19577 net.cpp:150] Setting up LFCN_2_3x5
I1014 09:48:23.255570 19577 net.cpp:157] Top shape: 4 6 36 36 (31104)
I1014 09:48:23.255574 19577 net.cpp:165] Memory required for data: 3335429704
I1014 09:48:23.255596 19577 layer_factory.hpp:76] Creating layer LFCN_2_3x5_LFCN_2_3x5_0_split
I1014 09:48:23.255604 19577 net.cpp:106] Creating Layer LFCN_2_3x5_LFCN_2_3x5_0_split
I1014 09:48:23.255607 19577 net.cpp:454] LFCN_2_3x5_LFCN_2_3x5_0_split <- LFCN_2_3x5
I1014 09:48:23.255614 19577 net.cpp:411] LFCN_2_3x5_LFCN_2_3x5_0_split -> LFCN_2_3x5_LFCN_2_3x5_0_split_0
I1014 09:48:23.255620 19577 net.cpp:411] LFCN_2_3x5_LFCN_2_3x5_0_split -> LFCN_2_3x5_LFCN_2_3x5_0_split_1
I1014 09:48:23.255666 19577 net.cpp:150] Setting up LFCN_2_3x5_LFCN_2_3x5_0_split
I1014 09:48:23.255674 19577 net.cpp:157] Top shape: 4 6 36 36 (31104)
I1014 09:48:23.255677 19577 net.cpp:157] Top shape: 4 6 36 36 (31104)
I1014 09:48:23.255681 19577 net.cpp:165] Memory required for data: 3335678536
I1014 09:48:23.255683 19577 layer_factory.hpp:76] Creating layer detection_loss_2_3x5
I1014 09:48:23.255692 19577 net.cpp:106] Creating Layer detection_loss_2_3x5
I1014 09:48:23.255695 19577 net.cpp:454] detection_loss_2_3x5 <- LFCN_2_3x5_LFCN_2_3x5_0_split_0
I1014 09:48:23.255700 19577 net.cpp:454] detection_loss_2_3x5 <- label_2_3x5_data_3_split_0
I1014 09:48:23.255705 19577 net.cpp:411] detection_loss_2_3x5 -> loss_2_3x5
I1014 09:48:23.255714 19577 layer_factory.hpp:76] Creating layer detection_loss_2_3x5
I1014 09:48:23.256299 19577 net.cpp:150] Setting up detection_loss_2_3x5
I1014 09:48:23.256312 19577 net.cpp:157] Top shape: 1 1 1 2 (2)
I1014 09:48:23.256315 19577 net.cpp:160]     with loss weight 1
I1014 09:48:23.256330 19577 net.cpp:165] Memory required for data: 3335678544
I1014 09:48:23.256333 19577 layer_factory.hpp:76] Creating layer detection_accuracy_2_3x5
I1014 09:48:23.256342 19577 net.cpp:106] Creating Layer detection_accuracy_2_3x5
I1014 09:48:23.256345 19577 net.cpp:454] detection_accuracy_2_3x5 <- LFCN_2_3x5_LFCN_2_3x5_0_split_1
I1014 09:48:23.256351 19577 net.cpp:454] detection_accuracy_2_3x5 <- label_2_3x5_data_3_split_1
I1014 09:48:23.256357 19577 net.cpp:411] detection_accuracy_2_3x5 -> accuracy_2_3x5
I1014 09:48:23.256366 19577 net.cpp:411] detection_accuracy_2_3x5 -> boxiou_2_3x5
I1014 09:48:23.256422 19577 net.cpp:150] Setting up detection_accuracy_2_3x5
I1014 09:48:23.256431 19577 net.cpp:157] Top shape: 1 1 1 2 (2)
I1014 09:48:23.256436 19577 net.cpp:157] Top shape: 1 1 1 1 (1)
I1014 09:48:23.256439 19577 net.cpp:165] Memory required for data: 3335678556
I1014 09:48:23.256443 19577 layer_factory.hpp:76] Creating layer LFCN_2_5x7
I1014 09:48:23.256451 19577 net.cpp:106] Creating Layer LFCN_2_5x7
I1014 09:48:23.256455 19577 net.cpp:454] LFCN_2_5x7 <- conv5_3_relu5_3_0_split_1
I1014 09:48:23.256461 19577 net.cpp:411] LFCN_2_5x7 -> LFCN_2_5x7
I1014 09:48:23.261476 19577 net.cpp:150] Setting up LFCN_2_5x7
I1014 09:48:23.261490 19577 net.cpp:157] Top shape: 4 6 36 36 (31104)
I1014 09:48:23.261493 19577 net.cpp:165] Memory required for data: 3335802972
I1014 09:48:23.261500 19577 layer_factory.hpp:76] Creating layer LFCN_2_5x7_LFCN_2_5x7_0_split
I1014 09:48:23.261509 19577 net.cpp:106] Creating Layer LFCN_2_5x7_LFCN_2_5x7_0_split
I1014 09:48:23.261512 19577 net.cpp:454] LFCN_2_5x7_LFCN_2_5x7_0_split <- LFCN_2_5x7
I1014 09:48:23.261521 19577 net.cpp:411] LFCN_2_5x7_LFCN_2_5x7_0_split -> LFCN_2_5x7_LFCN_2_5x7_0_split_0
I1014 09:48:23.261528 19577 net.cpp:411] LFCN_2_5x7_LFCN_2_5x7_0_split -> LFCN_2_5x7_LFCN_2_5x7_0_split_1
I1014 09:48:23.261572 19577 net.cpp:150] Setting up LFCN_2_5x7_LFCN_2_5x7_0_split
I1014 09:48:23.261580 19577 net.cpp:157] Top shape: 4 6 36 36 (31104)
I1014 09:48:23.261584 19577 net.cpp:157] Top shape: 4 6 36 36 (31104)
I1014 09:48:23.261586 19577 net.cpp:165] Memory required for data: 3336051804
I1014 09:48:23.261590 19577 layer_factory.hpp:76] Creating layer detection_loss_2_5x7
I1014 09:48:23.261597 19577 net.cpp:106] Creating Layer detection_loss_2_5x7
I1014 09:48:23.261600 19577 net.cpp:454] detection_loss_2_5x7 <- LFCN_2_5x7_LFCN_2_5x7_0_split_0
I1014 09:48:23.261605 19577 net.cpp:454] detection_loss_2_5x7 <- label_2_5x7_data_4_split_0
I1014 09:48:23.261610 19577 net.cpp:411] detection_loss_2_5x7 -> loss_2_5x7
I1014 09:48:23.261617 19577 layer_factory.hpp:76] Creating layer detection_loss_2_5x7
I1014 09:48:23.262007 19577 net.cpp:150] Setting up detection_loss_2_5x7
I1014 09:48:23.262018 19577 net.cpp:157] Top shape: 1 1 1 2 (2)
I1014 09:48:23.262022 19577 net.cpp:160]     with loss weight 1
I1014 09:48:23.262028 19577 net.cpp:165] Memory required for data: 3336051812
I1014 09:48:23.262032 19577 layer_factory.hpp:76] Creating layer detection_accuracy_2_5x7
I1014 09:48:23.262040 19577 net.cpp:106] Creating Layer detection_accuracy_2_5x7
I1014 09:48:23.262043 19577 net.cpp:454] detection_accuracy_2_5x7 <- LFCN_2_5x7_LFCN_2_5x7_0_split_1
I1014 09:48:23.262048 19577 net.cpp:454] detection_accuracy_2_5x7 <- label_2_5x7_data_4_split_1
I1014 09:48:23.262053 19577 net.cpp:411] detection_accuracy_2_5x7 -> accuracy_2_5x7
I1014 09:48:23.262060 19577 net.cpp:411] detection_accuracy_2_5x7 -> boxiou_2_5x7
I1014 09:48:23.262105 19577 net.cpp:150] Setting up detection_accuracy_2_5x7
I1014 09:48:23.262114 19577 net.cpp:157] Top shape: 1 1 1 2 (2)
I1014 09:48:23.262117 19577 net.cpp:157] Top shape: 1 1 1 1 (1)
I1014 09:48:23.262120 19577 net.cpp:165] Memory required for data: 3336051824
I1014 09:48:23.262123 19577 layer_factory.hpp:76] Creating layer pool5
I1014 09:48:23.262130 19577 net.cpp:106] Creating Layer pool5
I1014 09:48:23.262135 19577 net.cpp:454] pool5 <- conv5_3_relu5_3_0_split_2
I1014 09:48:23.262140 19577 net.cpp:411] pool5 -> pool5
I1014 09:48:23.262547 19577 net.cpp:150] Setting up pool5
I1014 09:48:23.262559 19577 net.cpp:157] Top shape: 4 512 18 18 (663552)
I1014 09:48:23.262562 19577 net.cpp:165] Memory required for data: 3338706032
I1014 09:48:23.262567 19577 layer_factory.hpp:76] Creating layer conv6_1
I1014 09:48:23.262576 19577 net.cpp:106] Creating Layer conv6_1
I1014 09:48:23.262580 19577 net.cpp:454] conv6_1 <- pool5
I1014 09:48:23.262588 19577 net.cpp:411] conv6_1 -> conv6_1
I1014 09:48:23.350647 19577 net.cpp:150] Setting up conv6_1
I1014 09:48:23.350667 19577 net.cpp:157] Top shape: 4 512 18 18 (663552)
I1014 09:48:23.350670 19577 net.cpp:165] Memory required for data: 3341360240
I1014 09:48:23.350677 19577 layer_factory.hpp:76] Creating layer relu6_1
I1014 09:48:23.350685 19577 net.cpp:106] Creating Layer relu6_1
I1014 09:48:23.350689 19577 net.cpp:454] relu6_1 <- conv6_1
I1014 09:48:23.350694 19577 net.cpp:397] relu6_1 -> conv6_1 (in-place)
I1014 09:48:23.351125 19577 net.cpp:150] Setting up relu6_1
I1014 09:48:23.351137 19577 net.cpp:157] Top shape: 4 512 18 18 (663552)
I1014 09:48:23.351141 19577 net.cpp:165] Memory required for data: 3344014448
I1014 09:48:23.351145 19577 layer_factory.hpp:76] Creating layer conv6_1_relu6_1_0_split
I1014 09:48:23.351151 19577 net.cpp:106] Creating Layer conv6_1_relu6_1_0_split
I1014 09:48:23.351155 19577 net.cpp:454] conv6_1_relu6_1_0_split <- conv6_1
I1014 09:48:23.351162 19577 net.cpp:411] conv6_1_relu6_1_0_split -> conv6_1_relu6_1_0_split_0
I1014 09:48:23.351168 19577 net.cpp:411] conv6_1_relu6_1_0_split -> conv6_1_relu6_1_0_split_1
I1014 09:48:23.351174 19577 net.cpp:411] conv6_1_relu6_1_0_split -> conv6_1_relu6_1_0_split_2
I1014 09:48:23.351240 19577 net.cpp:150] Setting up conv6_1_relu6_1_0_split
I1014 09:48:23.351248 19577 net.cpp:157] Top shape: 4 512 18 18 (663552)
I1014 09:48:23.351251 19577 net.cpp:157] Top shape: 4 512 18 18 (663552)
I1014 09:48:23.351254 19577 net.cpp:157] Top shape: 4 512 18 18 (663552)
I1014 09:48:23.351258 19577 net.cpp:165] Memory required for data: 3351977072
I1014 09:48:23.351260 19577 layer_factory.hpp:76] Creating layer LFCN_3_3x5
I1014 09:48:23.351269 19577 net.cpp:106] Creating Layer LFCN_3_3x5
I1014 09:48:23.351271 19577 net.cpp:454] LFCN_3_3x5 <- conv6_1_relu6_1_0_split_0
I1014 09:48:23.351279 19577 net.cpp:411] LFCN_3_3x5 -> LFCN_3_3x5
I1014 09:48:23.354709 19577 net.cpp:150] Setting up LFCN_3_3x5
I1014 09:48:23.354724 19577 net.cpp:157] Top shape: 4 6 18 18 (7776)
I1014 09:48:23.354727 19577 net.cpp:165] Memory required for data: 3352008176
I1014 09:48:23.354737 19577 layer_factory.hpp:76] Creating layer LFCN_3_3x5_LFCN_3_3x5_0_split
I1014 09:48:23.354751 19577 net.cpp:106] Creating Layer LFCN_3_3x5_LFCN_3_3x5_0_split
I1014 09:48:23.354755 19577 net.cpp:454] LFCN_3_3x5_LFCN_3_3x5_0_split <- LFCN_3_3x5
I1014 09:48:23.354763 19577 net.cpp:411] LFCN_3_3x5_LFCN_3_3x5_0_split -> LFCN_3_3x5_LFCN_3_3x5_0_split_0
I1014 09:48:23.354769 19577 net.cpp:411] LFCN_3_3x5_LFCN_3_3x5_0_split -> LFCN_3_3x5_LFCN_3_3x5_0_split_1
I1014 09:48:23.354818 19577 net.cpp:150] Setting up LFCN_3_3x5_LFCN_3_3x5_0_split
I1014 09:48:23.354823 19577 net.cpp:157] Top shape: 4 6 18 18 (7776)
I1014 09:48:23.354826 19577 net.cpp:157] Top shape: 4 6 18 18 (7776)
I1014 09:48:23.354830 19577 net.cpp:165] Memory required for data: 3352070384
I1014 09:48:23.354832 19577 layer_factory.hpp:76] Creating layer detection_loss_3_3x5
I1014 09:48:23.354840 19577 net.cpp:106] Creating Layer detection_loss_3_3x5
I1014 09:48:23.354843 19577 net.cpp:454] detection_loss_3_3x5 <- LFCN_3_3x5_LFCN_3_3x5_0_split_0
I1014 09:48:23.354848 19577 net.cpp:454] detection_loss_3_3x5 <- label_3_3x5_data_5_split_0
I1014 09:48:23.354854 19577 net.cpp:411] detection_loss_3_3x5 -> loss_3_3x5
I1014 09:48:23.354861 19577 layer_factory.hpp:76] Creating layer detection_loss_3_3x5
I1014 09:48:23.355260 19577 net.cpp:150] Setting up detection_loss_3_3x5
I1014 09:48:23.355274 19577 net.cpp:157] Top shape: 1 1 1 2 (2)
I1014 09:48:23.355278 19577 net.cpp:160]     with loss weight 1
I1014 09:48:23.355284 19577 net.cpp:165] Memory required for data: 3352070392
I1014 09:48:23.355288 19577 layer_factory.hpp:76] Creating layer detection_accuracy_3_3x5
I1014 09:48:23.355294 19577 net.cpp:106] Creating Layer detection_accuracy_3_3x5
I1014 09:48:23.355298 19577 net.cpp:454] detection_accuracy_3_3x5 <- LFCN_3_3x5_LFCN_3_3x5_0_split_1
I1014 09:48:23.355304 19577 net.cpp:454] detection_accuracy_3_3x5 <- label_3_3x5_data_5_split_1
I1014 09:48:23.355309 19577 net.cpp:411] detection_accuracy_3_3x5 -> accuracy_3_3x5
I1014 09:48:23.355315 19577 net.cpp:411] detection_accuracy_3_3x5 -> boxiou_3_3x5
I1014 09:48:23.355362 19577 net.cpp:150] Setting up detection_accuracy_3_3x5
I1014 09:48:23.355367 19577 net.cpp:157] Top shape: 1 1 1 2 (2)
I1014 09:48:23.355371 19577 net.cpp:157] Top shape: 1 1 1 1 (1)
I1014 09:48:23.355373 19577 net.cpp:165] Memory required for data: 3352070404
I1014 09:48:23.355376 19577 layer_factory.hpp:76] Creating layer LFCN_3_5x7
I1014 09:48:23.355386 19577 net.cpp:106] Creating Layer LFCN_3_5x7
I1014 09:48:23.355389 19577 net.cpp:454] LFCN_3_5x7 <- conv6_1_relu6_1_0_split_1
I1014 09:48:23.355396 19577 net.cpp:411] LFCN_3_5x7 -> LFCN_3_5x7
I1014 09:48:23.360986 19577 net.cpp:150] Setting up LFCN_3_5x7
I1014 09:48:23.361001 19577 net.cpp:157] Top shape: 4 6 18 18 (7776)
I1014 09:48:23.361004 19577 net.cpp:165] Memory required for data: 3352101508
I1014 09:48:23.361013 19577 layer_factory.hpp:76] Creating layer LFCN_3_5x7_LFCN_3_5x7_0_split
I1014 09:48:23.361019 19577 net.cpp:106] Creating Layer LFCN_3_5x7_LFCN_3_5x7_0_split
I1014 09:48:23.361023 19577 net.cpp:454] LFCN_3_5x7_LFCN_3_5x7_0_split <- LFCN_3_5x7
I1014 09:48:23.361030 19577 net.cpp:411] LFCN_3_5x7_LFCN_3_5x7_0_split -> LFCN_3_5x7_LFCN_3_5x7_0_split_0
I1014 09:48:23.361038 19577 net.cpp:411] LFCN_3_5x7_LFCN_3_5x7_0_split -> LFCN_3_5x7_LFCN_3_5x7_0_split_1
I1014 09:48:23.361084 19577 net.cpp:150] Setting up LFCN_3_5x7_LFCN_3_5x7_0_split
I1014 09:48:23.361090 19577 net.cpp:157] Top shape: 4 6 18 18 (7776)
I1014 09:48:23.361093 19577 net.cpp:157] Top shape: 4 6 18 18 (7776)
I1014 09:48:23.361096 19577 net.cpp:165] Memory required for data: 3352163716
I1014 09:48:23.361099 19577 layer_factory.hpp:76] Creating layer detection_loss_3_5x7
I1014 09:48:23.361106 19577 net.cpp:106] Creating Layer detection_loss_3_5x7
I1014 09:48:23.361110 19577 net.cpp:454] detection_loss_3_5x7 <- LFCN_3_5x7_LFCN_3_5x7_0_split_0
I1014 09:48:23.361114 19577 net.cpp:454] detection_loss_3_5x7 <- label_3_5x7_data_6_split_0
I1014 09:48:23.361121 19577 net.cpp:411] detection_loss_3_5x7 -> loss_3_5x7
I1014 09:48:23.361129 19577 layer_factory.hpp:76] Creating layer detection_loss_3_5x7
I1014 09:48:23.361708 19577 net.cpp:150] Setting up detection_loss_3_5x7
I1014 09:48:23.361721 19577 net.cpp:157] Top shape: 1 1 1 2 (2)
I1014 09:48:23.361724 19577 net.cpp:160]     with loss weight 1
I1014 09:48:23.361730 19577 net.cpp:165] Memory required for data: 3352163724
I1014 09:48:23.361734 19577 layer_factory.hpp:76] Creating layer detection_accuracy_3_5x7
I1014 09:48:23.361742 19577 net.cpp:106] Creating Layer detection_accuracy_3_5x7
I1014 09:48:23.361747 19577 net.cpp:454] detection_accuracy_3_5x7 <- LFCN_3_5x7_LFCN_3_5x7_0_split_1
I1014 09:48:23.361752 19577 net.cpp:454] detection_accuracy_3_5x7 <- label_3_5x7_data_6_split_1
I1014 09:48:23.361758 19577 net.cpp:411] detection_accuracy_3_5x7 -> accuracy_3_5x7
I1014 09:48:23.361766 19577 net.cpp:411] detection_accuracy_3_5x7 -> boxiou_3_5x7
I1014 09:48:23.361812 19577 net.cpp:150] Setting up detection_accuracy_3_5x7
I1014 09:48:23.361819 19577 net.cpp:157] Top shape: 1 1 1 2 (2)
I1014 09:48:23.361821 19577 net.cpp:157] Top shape: 1 1 1 1 (1)
I1014 09:48:23.361824 19577 net.cpp:165] Memory required for data: 3352163736
I1014 09:48:23.361827 19577 layer_factory.hpp:76] Creating layer pool6
I1014 09:48:23.361835 19577 net.cpp:106] Creating Layer pool6
I1014 09:48:23.361838 19577 net.cpp:454] pool6 <- conv6_1_relu6_1_0_split_2
I1014 09:48:23.361843 19577 net.cpp:411] pool6 -> pool6
I1014 09:48:23.362071 19577 net.cpp:150] Setting up pool6
I1014 09:48:23.362083 19577 net.cpp:157] Top shape: 4 512 9 9 (165888)
I1014 09:48:23.362085 19577 net.cpp:165] Memory required for data: 3352827288
I1014 09:48:23.362089 19577 layer_factory.hpp:76] Creating layer LFCN_4_3x5
I1014 09:48:23.362099 19577 net.cpp:106] Creating Layer LFCN_4_3x5
I1014 09:48:23.362103 19577 net.cpp:454] LFCN_4_3x5 <- pool6
I1014 09:48:23.362109 19577 net.cpp:411] LFCN_4_3x5 -> LFCN_4_3x5
I1014 09:48:23.364943 19577 net.cpp:150] Setting up LFCN_4_3x5
I1014 09:48:23.364958 19577 net.cpp:157] Top shape: 4 6 9 9 (1944)
I1014 09:48:23.364961 19577 net.cpp:165] Memory required for data: 3352835064
I1014 09:48:23.364967 19577 layer_factory.hpp:76] Creating layer LFCN_4_3x5_LFCN_4_3x5_0_split
I1014 09:48:23.364975 19577 net.cpp:106] Creating Layer LFCN_4_3x5_LFCN_4_3x5_0_split
I1014 09:48:23.364979 19577 net.cpp:454] LFCN_4_3x5_LFCN_4_3x5_0_split <- LFCN_4_3x5
I1014 09:48:23.364985 19577 net.cpp:411] LFCN_4_3x5_LFCN_4_3x5_0_split -> LFCN_4_3x5_LFCN_4_3x5_0_split_0
I1014 09:48:23.364992 19577 net.cpp:411] LFCN_4_3x5_LFCN_4_3x5_0_split -> LFCN_4_3x5_LFCN_4_3x5_0_split_1
I1014 09:48:23.365043 19577 net.cpp:150] Setting up LFCN_4_3x5_LFCN_4_3x5_0_split
I1014 09:48:23.365048 19577 net.cpp:157] Top shape: 4 6 9 9 (1944)
I1014 09:48:23.365052 19577 net.cpp:157] Top shape: 4 6 9 9 (1944)
I1014 09:48:23.365056 19577 net.cpp:165] Memory required for data: 3352850616
I1014 09:48:23.365058 19577 layer_factory.hpp:76] Creating layer detection_loss_4_3x5
I1014 09:48:23.365066 19577 net.cpp:106] Creating Layer detection_loss_4_3x5
I1014 09:48:23.365069 19577 net.cpp:454] detection_loss_4_3x5 <- LFCN_4_3x5_LFCN_4_3x5_0_split_0
I1014 09:48:23.365073 19577 net.cpp:454] detection_loss_4_3x5 <- label_4_3x5_data_7_split_0
I1014 09:48:23.365078 19577 net.cpp:411] detection_loss_4_3x5 -> loss_4_3x5
I1014 09:48:23.365085 19577 layer_factory.hpp:76] Creating layer detection_loss_4_3x5
I1014 09:48:23.365663 19577 net.cpp:150] Setting up detection_loss_4_3x5
I1014 09:48:23.365675 19577 net.cpp:157] Top shape: 1 1 1 2 (2)
I1014 09:48:23.365679 19577 net.cpp:160]     with loss weight 1
I1014 09:48:23.365684 19577 net.cpp:165] Memory required for data: 3352850624
I1014 09:48:23.365687 19577 layer_factory.hpp:76] Creating layer detection_accuracy_4_3x5
I1014 09:48:23.365694 19577 net.cpp:106] Creating Layer detection_accuracy_4_3x5
I1014 09:48:23.365698 19577 net.cpp:454] detection_accuracy_4_3x5 <- LFCN_4_3x5_LFCN_4_3x5_0_split_1
I1014 09:48:23.365703 19577 net.cpp:454] detection_accuracy_4_3x5 <- label_4_3x5_data_7_split_1
I1014 09:48:23.365710 19577 net.cpp:411] detection_accuracy_4_3x5 -> accuracy_4_3x5
I1014 09:48:23.365718 19577 net.cpp:411] detection_accuracy_4_3x5 -> boxiou_4_3x5
I1014 09:48:23.365764 19577 net.cpp:150] Setting up detection_accuracy_4_3x5
I1014 09:48:23.365769 19577 net.cpp:157] Top shape: 1 1 1 2 (2)
I1014 09:48:23.365772 19577 net.cpp:157] Top shape: 1 1 1 1 (1)
I1014 09:48:23.365775 19577 net.cpp:165] Memory required for data: 3352850636
I1014 09:48:23.365778 19577 net.cpp:228] detection_accuracy_4_3x5 does not need backward computation.
I1014 09:48:23.365782 19577 net.cpp:226] detection_loss_4_3x5 needs backward computation.
I1014 09:48:23.365789 19577 net.cpp:226] LFCN_4_3x5_LFCN_4_3x5_0_split needs backward computation.
I1014 09:48:23.365792 19577 net.cpp:226] LFCN_4_3x5 needs backward computation.
…
I1014 09:48:23.624284 19577 image_gt_data_layer.cpp:234] output label size 1 : 2,6,72,72
I1014 09:48:23.624343 19577 image_gt_data_layer.cpp:234] output label size 2 : 2,6,36,36
I1014 09:48:23.624397 19577 image_gt_data_layer.cpp:234] output label size 3 : 2,6,36,36
I1014 09:48:23.624449 19577 image_gt_data_layer.cpp:234] output label size 4 : 2,6,18,18
I1014 09:48:23.624500 19577 image_gt_data_layer.cpp:234] output label size 5 : 2,6,18,18
I1014 09:48:23.624550 19577 image_gt_data_layer.cpp:234] output label size 6 : 2,6,9,9
I1014 09:48:23.640163 19577 net.cpp:150] Setting up data
I1014 09:48:23.640192 19577 net.cpp:157] Top shape: 2 3 576 576 (1990656)
I1014 09:48:23.640197 19577 net.cpp:157] Top shape: 2 6 72 72 (62208)
I1014 09:48:23.640199 19577 net.cpp:157] Top shape: 2 6 72 72 (62208)
I1014 09:48:23.640202 19577 net.cpp:157] Top shape: 2 6 36 36 (15552)
I1014 09:48:23.640205 19577 net.cpp:157] Top shape: 2 6 36 36 (15552)
I1014 09:48:23.640208 19577 net.cpp:157] Top shape: 2 6 18 18 (3888)
I1014 09:48:23.640211 19577 net.cpp:157] Top shape: 2 6 18 18 (3888)
I1014 09:48:23.640214 19577 net.cpp:157] Top shape: 2 6 9 9 (972)
I1014 09:48:23.640216 19577 net.cpp:165] Memory required for data: 8619696
I1014 09:48:23.640223 19577 layer_factory.hpp:76] Creating layer label_1_3x5_data_1_split
I1014 09:48:23.640236 19577 net.cpp:106] Creating Layer label_1_3x5_data_1_split
I1014 09:48:23.640240 19577 net.cpp:454] label_1_3x5_data_1_split <- label_1_3x5
I1014 09:48:23.640251 19577 net.cpp:411] label_1_3x5_data_1_split -> label_1_3x5_data_1_split_0
I1014 09:48:23.640261 19577 net.cpp:411] label_1_3x5_data_1_split -> label_1_3x5_data_1_split_1
I1014 09:48:23.640501 19577 net.cpp:150] Setting up label_1_3x5_data_1_split
I1014 09:48:23.640522 19577 net.cpp:157] Top shape: 2 6 72 72 (62208)
I1014 09:48:23.640525 19577 net.cpp:157] Top shape: 2 6 72 72 (62208)
I1014 09:48:23.640528 19577 net.cpp:165] Memory required for data: 9117360
I1014 09:48:23.640532 19577 layer_factory.hpp:76] Creating layer label_1_5x7_data_2_split
I1014 09:48:23.640540 19577 net.cpp:106] Creating Layer label_1_5x7_data_2_split
I1014 09:48:23.640544 19577 net.cpp:454] label_1_5x7_data_2_split <- label_1_5x7
I1014 09:48:23.640549 19577 net.cpp:411] label_1_5x7_data_2_split -> label_1_5x7_data_2_split_0
I1014 09:48:23.640557 19577 net.cpp:411] label_1_5x7_data_2_split -> label_1_5x7_data_2_split_1
I1014 09:48:23.643177 19577 net.cpp:150] Setting up label_1_5x7_data_2_split
I1014 09:48:23.643206 19577 net.cpp:157] Top shape: 2 6 72 72 (62208)
I1014 09:48:23.643216 19577 net.cpp:157] Top shape: 2 6 72 72 (62208)
I1014 09:48:23.643221 19577 net.cpp:165] Memory required for data: 9615024
I1014 09:48:23.643229 19577 layer_factory.hpp:76] Creating layer label_2_3x5_data_3_split
I1014 09:48:23.643239 19577 net.cpp:106] Creating Layer label_2_3x5_data_3_split
I1014 09:48:23.643254 19577 net.cpp:454] label_2_3x5_data_3_split <- label_2_3x5
I1014 09:48:23.643267 19577 net.cpp:411] label_2_3x5_data_3_split -> label_2_3x5_data_3_split_0
I1014 09:48:23.643286 19577 net.cpp:411] label_2_3x5_data_3_split -> label_2_3x5_data_3_split_1
I1014 09:48:23.643404 19577 net.cpp:150] Setting up label_2_3x5_data_3_split
I1014 09:48:23.643432 19577 net.cpp:157] Top shape: 2 6 36 36 (15552)
I1014 09:48:23.643455 19577 net.cpp:157] Top shape: 2 6 36 36 (15552)
I1014 09:48:23.643465 19577 net.cpp:165] Memory required for data: 9739440
I1014 09:48:23.643473 19577 layer_factory.hpp:76] Creating layer label_2_5x7_data_4_split
I1014 09:48:23.643486 19577 net.cpp:106] Creating Layer label_2_5x7_data_4_split
I1014 09:48:23.643501 19577 net.cpp:454] label_2_5x7_data_4_split <- label_2_5x7
I1014 09:48:23.643523 19577 net.cpp:411] label_2_5x7_data_4_split -> label_2_5x7_data_4_split_0
I1014 09:48:23.643544 19577 net.cpp:411] label_2_5x7_data_4_split -> label_2_5x7_data_4_split_1
I1014 09:48:23.643658 19577 net.cpp:150] Setting up label_2_5x7_data_4_split
I1014 09:48:23.643682 19577 net.cpp:157] Top shape: 2 6 36 36 (15552)
I1014 09:48:23.643694 19577 net.cpp:157] Top shape: 2 6 36 36 (15552)
I1014 09:48:23.643704 19577 net.cpp:165] Memory required for data: 9863856
I1014 09:48:23.643714 19577 layer_factory.hpp:76] Creating layer label_3_3x5_data_5_split
I1014 09:48:23.643728 19577 net.cpp:106] Creating Layer label_3_3x5_data_5_split
I1014 09:48:23.643748 19577 net.cpp:454] label_3_3x5_data_5_split <- label_3_3x5
I1014 09:48:23.643764 19577 net.cpp:411] label_3_3x5_data_5_split -> label_3_3x5_data_5_split_0
I1014 09:48:23.643782 19577 net.cpp:411] label_3_3x5_data_5_split -> label_3_3x5_data_5_split_1
I1014 09:48:23.643872 19577 net.cpp:150] Setting up label_3_3x5_data_5_split
I1014 09:48:23.643887 19577 net.cpp:157] Top shape: 2 6 18 18 (3888)
I1014 09:48:23.643896 19577 net.cpp:157] Top shape: 2 6 18 18 (3888)
I1014 09:48:23.643903 19577 net.cpp:165] Memory required for data: 9894960
I1014 09:48:23.643908 19577 layer_factory.hpp:76] Creating layer label_3_5x7_data_6_split
I1014 09:48:23.643919 19577 net.cpp:106] Creating Layer label_3_5x7_data_6_split
I1014 09:48:23.643925 19577 net.cpp:454] label_3_5x7_data_6_split <- label_3_5x7
I1014 09:48:23.643935 19577 net.cpp:411] label_3_5x7_data_6_split -> label_3_5x7_data_6_split_0
I1014 09:48:23.643946 19577 net.cpp:411] label_3_5x7_data_6_split -> label_3_5x7_data_6_split_1
I1014 09:48:23.644022 19577 net.cpp:150] Setting up label_3_5x7_data_6_split
I1014 09:48:23.644035 19577 net.cpp:157] Top shape: 2 6 18 18 (3888)
I1014 09:48:23.644042 19577 net.cpp:157] Top shape: 2 6 18 18 (3888)
I1014 09:48:23.644047 19577 net.cpp:165] Memory required for data: 9926064
I1014 09:48:23.644052 19577 layer_factory.hpp:76] Creating layer label_4_3x5_data_7_split
I1014 09:48:23.644060 19577 net.cpp:106] Creating Layer label_4_3x5_data_7_split
I1014 09:48:23.644067 19577 net.cpp:454] label_4_3x5_data_7_split <- label_4_3x5
I1014 09:48:23.644074 19577 net.cpp:411] label_4_3x5_data_7_split -> label_4_3x5_data_7_split_0
I1014 09:48:23.644084 19577 net.cpp:411] label_4_3x5_data_7_split -> label_4_3x5_data_7_split_1
I1014 09:48:23.644161 19577 net.cpp:150] Setting up label_4_3x5_data_7_split
I1014 09:48:23.644173 19577 net.cpp:157] Top shape: 2 6 9 9 (972)
I1014 09:48:23.644181 19577 net.cpp:157] Top shape: 2 6 9 9 (972)
I1014 09:48:23.644188 19577 net.cpp:165] Memory required for data: 9933840
I1014 09:48:23.644194 19577 layer_factory.hpp:76] Creating layer conv1_1
I1014 09:48:23.644212 19577 net.cpp:106] Creating Layer conv1_1
I1014 09:48:23.644218 19577 net.cpp:454] conv1_1 <- data
I1014 09:48:23.644228 19577 net.cpp:411] conv1_1 -> conv1_1
I1014 09:48:23.648151 19577 net.cpp:150] Setting up conv1_1
I1014 09:48:23.648180 19577 net.cpp:157] Top shape: 2 64 576 576 (42467328)
I1014 09:48:23.648186 19577 net.cpp:165] Memory required for data: 179803152
I1014 09:48:23.648207 19577 layer_factory.hpp:76] Creating layer relu1_1
I1014 09:48:23.648224 19577 net.cpp:106] Creating Layer relu1_1
I1014 09:48:23.648231 19577 net.cpp:454] relu1_1 <- conv1_1
I1014 09:48:23.648239 19577 net.cpp:397] relu1_1 -> conv1_1 (in-place)
I1014 09:48:23.648874 19577 net.cpp:150] Setting up relu1_1
I1014 09:48:23.648905 19577 net.cpp:157] Top shape: 2 64 576 576 (42467328)
I1014 09:48:23.648910 19577 net.cpp:165] Memory required for data: 349672464
I1014 09:48:23.648917 19577 layer_factory.hpp:76] Creating layer conv1_2
I1014 09:48:23.648933 19577 net.cpp:106] Creating Layer conv1_2
I1014 09:48:23.648941 19577 net.cpp:454] conv1_2 <- conv1_1
I1014 09:48:23.648950 19577 net.cpp:411] conv1_2 -> conv1_2
I1014 09:48:23.653051 19577 net.cpp:150] Setting up conv1_2
I1014 09:48:23.653079 19577 net.cpp:157] Top shape: 2 64 576 576 (42467328)
I1014 09:48:23.653085 19577 net.cpp:165] Memory required for data: 519541776
I1014 09:48:23.653107 19577 layer_factory.hpp:76] Creating layer relu1_2
I1014 09:48:23.653120 19577 net.cpp:106] Creating Layer relu1_2
I1014 09:48:23.653126 19577 net.cpp:454] relu1_2 <- conv1_2
I1014 09:48:23.653136 19577 net.cpp:397] relu1_2 -> conv1_2 (in-place)
I1014 09:48:23.653506 19577 net.cpp:150] Setting up relu1_2
I1014 09:48:23.653527 19577 net.cpp:157] Top shape: 2 64 576 576 (42467328)
I1014 09:48:23.653532 19577 net.cpp:165] Memory required for data: 689411088
I1014 09:48:23.653539 19577 layer_factory.hpp:76] Creating layer pool1
I1014 09:48:23.653551 19577 net.cpp:106] Creating Layer pool1
I1014 09:48:23.653558 19577 net.cpp:454] pool1 <- conv1_2
I1014 09:48:23.653570 19577 net.cpp:411] pool1 -> pool1
I1014 09:48:23.654280 19577 net.cpp:150] Setting up pool1
I1014 09:48:23.654304 19577 net.cpp:157] Top shape: 2 64 288 288 (10616832)
I1014 09:48:23.654309 19577 net.cpp:165] Memory required for data: 731878416
I1014 09:48:23.654316 19577 layer_factory.hpp:76] Creating layer conv2_1
I1014 09:48:23.654331 19577 net.cpp:106] Creating Layer conv2_1
I1014 09:48:23.654337 19577 net.cpp:454] conv2_1 <- pool1
I1014 09:48:23.654347 19577 net.cpp:411] conv2_1 -> conv2_1
I1014 09:48:23.656802 19577 net.cpp:150] Setting up conv2_1
I1014 09:48:23.656829 19577 net.cpp:157] Top shape: 2 128 288 288 (21233664)
I1014 09:48:23.656836 19577 net.cpp:165] Memory required for data: 816813072
I1014 09:48:23.656854 19577 layer_factory.hpp:76] Creating layer relu2_1
I1014 09:48:23.656868 19577 net.cpp:106] Creating Layer relu2_1
I1014 09:48:23.656875 19577 net.cpp:454] relu2_1 <- conv2_1
I1014 09:48:23.656885 19577 net.cpp:397] relu2_1 -> conv2_1 (in-place)
I1014 09:48:23.657251 19577 net.cpp:150] Setting up relu2_1
I1014 09:48:23.657269 19577 net.cpp:157] Top shape: 2 128 288 288 (21233664)
I1014 09:48:23.657274 19577 net.cpp:165] Memory required for data: 901747728
I1014 09:48:23.657280 19577 layer_factory.hpp:76] Creating layer conv2_2
I1014 09:48:23.657294 19577 net.cpp:106] Creating Layer conv2_2
I1014 09:48:23.657304 19577 net.cpp:454] conv2_2 <- conv2_1
I1014 09:48:23.657312 19577 net.cpp:411] conv2_2 -> conv2_2
I1014 09:48:23.660683 19577 net.cpp:150] Setting up conv2_2
I1014 09:48:23.660715 19577 net.cpp:157] Top shape: 2 128 288 288 (21233664)
I1014 09:48:23.660722 19577 net.cpp:165] Memory required for data: 986682384
I1014 09:48:23.660734 19577 layer_factory.hpp:76] Creating layer relu2_2
I1014 09:48:23.660751 19577 net.cpp:106] Creating Layer relu2_2
I1014 09:48:23.660758 19577 net.cpp:454] relu2_2 <- conv2_2
I1014 09:48:23.660766 19577 net.cpp:397] relu2_2 -> conv2_2 (in-place)
I1014 09:48:23.661360 19577 net.cpp:150] Setting up relu2_2
I1014 09:48:23.661381 19577 net.cpp:157] Top shape: 2 128 288 288 (21233664)
I1014 09:48:23.661391 19577 net.cpp:165] Memory required for data: 1071617040
I1014 09:48:23.661396 19577 layer_factory.hpp:76] Creating layer pool2
I1014 09:48:23.661413 19577 net.cpp:106] Creating Layer pool2
I1014 09:48:23.661420 19577 net.cpp:454] pool2 <- conv2_2
I1014 09:48:23.661430 19577 net.cpp:411] pool2 -> pool2
I1014 09:48:23.661839 19577 net.cpp:150] Setting up pool2
I1014 09:48:23.661857 19577 net.cpp:157] Top shape: 2 128 144 144 (5308416)
I1014 09:48:23.661862 19577 net.cpp:165] Memory required for data: 1092850704
I1014 09:48:23.661869 19577 layer_factory.hpp:76] Creating layer conv3_1
I1014 09:48:23.661881 19577 net.cpp:106] Creating Layer conv3_1
I1014 09:48:23.661887 19577 net.cpp:454] conv3_1 <- pool2
I1014 09:48:23.661896 19577 net.cpp:411] conv3_1 -> conv3_1
I1014 09:48:23.665325 19577 net.cpp:150] Setting up conv3_1
I1014 09:48:23.665350 19577 net.cpp:157] Top shape: 2 256 144 144 (10616832)
I1014 09:48:23.665356 19577 net.cpp:165] Memory required for data: 1135318032
I1014 09:48:23.665376 19577 layer_factory.hpp:76] Creating layer relu3_1
I1014 09:48:23.665387 19577 net.cpp:106] Creating Layer relu3_1
I1014 09:48:23.665393 19577 net.cpp:454] relu3_1 <- conv3_1
I1014 09:48:23.665403 19577 net.cpp:397] relu3_1 -> conv3_1 (in-place)
I1014 09:48:23.665747 19577 net.cpp:150] Setting up relu3_1
I1014 09:48:23.665763 19577 net.cpp:157] Top shape: 2 256 144 144 (10616832)
I1014 09:48:23.665769 19577 net.cpp:165] Memory required for data: 1177785360
I1014 09:48:23.665774 19577 layer_factory.hpp:76] Creating layer conv3_2
I1014 09:48:23.665788 19577 net.cpp:106] Creating Layer conv3_2
I1014 09:48:23.665794 19577 net.cpp:454] conv3_2 <- conv3_1
I1014 09:48:23.665805 19577 net.cpp:411] conv3_2 -> conv3_2
I1014 09:48:23.670045 19577 net.cpp:150] Setting up conv3_2
I1014 09:48:23.670070 19577 net.cpp:157] Top shape: 2 256 144 144 (10616832)
I1014 09:48:23.670076 19577 net.cpp:165] Memory required for data: 1220252688
I1014 09:48:23.670089 19577 layer_factory.hpp:76] Creating layer relu3_2
I1014 09:48:23.670107 19577 net.cpp:106] Creating Layer relu3_2
I1014 09:48:23.670114 19577 net.cpp:454] relu3_2 <- conv3_2
I1014 09:48:23.670122 19577 net.cpp:397] relu3_2 -> conv3_2 (in-place)
I1014 09:48:23.670729 19577 net.cpp:150] Setting up relu3_2
I1014 09:48:23.670752 19577 net.cpp:157] Top shape: 2 256 144 144 (10616832)
I1014 09:48:23.670758 19577 net.cpp:165] Memory required for data: 1262720016
I1014 09:48:23.670763 19577 layer_factory.hpp:76] Creating layer conv3_3
I1014 09:48:23.670778 19577 net.cpp:106] Creating Layer conv3_3
I1014 09:48:23.670784 19577 net.cpp:454] conv3_3 <- conv3_2
I1014 09:48:23.670796 19577 net.cpp:411] conv3_3 -> conv3_3
I1014 09:48:23.675812 19577 net.cpp:150] Setting up conv3_3
I1014 09:48:23.675837 19577 net.cpp:157] Top shape: 2 256 144 144 (10616832)
I1014 09:48:23.675842 19577 net.cpp:165] Memory required for data: 1305187344
I1014 09:48:23.675856 19577 layer_factory.hpp:76] Creating layer relu3_3
I1014 09:48:23.675868 19577 net.cpp:106] Creating Layer relu3_3
I1014 09:48:23.675873 19577 net.cpp:454] relu3_3 <- conv3_3
I1014 09:48:23.675890 19577 net.cpp:397] relu3_3 -> conv3_3 (in-place)
I1014 09:48:23.676223 19577 net.cpp:150] Setting up relu3_3
I1014 09:48:23.676240 19577 net.cpp:157] Top shape: 2 256 144 144 (10616832)
I1014 09:48:23.676245 19577 net.cpp:165] Memory required for data: 1347654672
I1014 09:48:23.676250 19577 layer_factory.hpp:76] Creating layer pool3
I1014 09:48:23.676266 19577 net.cpp:106] Creating Layer pool3
I1014 09:48:23.676271 19577 net.cpp:454] pool3 <- conv3_3
I1014 09:48:23.676280 19577 net.cpp:411] pool3 -> pool3
I1014 09:48:23.676913 19577 net.cpp:150] Setting up pool3
I1014 09:48:23.676934 19577 net.cpp:157] Top shape: 2 256 72 72 (2654208)
I1014 09:48:23.676939 19577 net.cpp:165] Memory required for data: 1358271504
I1014 09:48:23.676944 19577 layer_factory.hpp:76] Creating layer conv4_1
I1014 09:48:23.676965 19577 net.cpp:106] Creating Layer conv4_1
I1014 09:48:23.676971 19577 net.cpp:454] conv4_1 <- pool3
I1014 09:48:23.676982 19577 net.cpp:411] conv4_1 -> conv4_1
I1014 09:48:23.683974 19577 net.cpp:150] Setting up conv4_1
I1014 09:48:23.684002 19577 net.cpp:157] Top shape: 2 512 72 72 (5308416)
I1014 09:48:23.684008 19577 net.cpp:165] Memory required for data: 1379505168
I1014 09:48:23.684020 19577 layer_factory.hpp:76] Creating layer relu4_1
I1014 09:48:23.684029 19577 net.cpp:106] Creating Layer relu4_1
I1014 09:48:23.684036 19577 net.cpp:454] relu4_1 <- conv4_1
I1014 09:48:23.684051 19577 net.cpp:397] relu4_1 -> conv4_1 (in-place)
I1014 09:48:23.685017 19577 net.cpp:150] Setting up relu4_1
I1014 09:48:23.685036 19577 net.cpp:157] Top shape: 2 512 72 72 (5308416)
I1014 09:48:23.685041 19577 net.cpp:165] Memory required for data: 1400738832
I1014 09:48:23.685046 19577 layer_factory.hpp:76] Creating layer conv4_2
I1014 09:48:23.685063 19577 net.cpp:106] Creating Layer conv4_2
I1014 09:48:23.685070 19577 net.cpp:454] conv4_2 <- conv4_1
I1014 09:48:23.685082 19577 net.cpp:411] conv4_2 -> conv4_2
I1014 09:48:23.694577 19577 net.cpp:150] Setting up conv4_2
I1014 09:48:23.694602 19577 net.cpp:157] Top shape: 2 512 72 72 (5308416)
I1014 09:48:23.694607 19577 net.cpp:165] Memory required for data: 1421972496
I1014 09:48:23.694625 19577 layer_factory.hpp:76] Creating layer relu4_2
I1014 09:48:23.694635 19577 net.cpp:106] Creating Layer relu4_2
I1014 09:48:23.694641 19577 net.cpp:454] relu4_2 <- conv4_2
I1014 09:48:23.694653 19577 net.cpp:397] relu4_2 -> conv4_2 (in-place)
I1014 09:48:23.694998 19577 net.cpp:150] Setting up relu4_2
I1014 09:48:23.695016 19577 net.cpp:157] Top shape: 2 512 72 72 (5308416)
I1014 09:48:23.695021 19577 net.cpp:165] Memory required for data: 1443206160
I1014 09:48:23.695026 19577 layer_factory.hpp:76] Creating layer conv4_3
I1014 09:48:23.695036 19577 net.cpp:106] Creating Layer conv4_3
I1014 09:48:23.695041 19577 net.cpp:454] conv4_3 <- conv4_2
I1014 09:48:23.695050 19577 net.cpp:411] conv4_3 -> conv4_3
I1014 09:48:23.704277 19577 net.cpp:150] Setting up conv4_3
I1014 09:48:23.704303 19577 net.cpp:157] Top shape: 2 512 72 72 (5308416)
I1014 09:48:23.704308 19577 net.cpp:165] Memory required for data: 1464439824
I1014 09:48:23.704319 19577 layer_factory.hpp:76] Creating layer relu4_3
I1014 09:48:23.704331 19577 net.cpp:106] Creating Layer relu4_3
I1014 09:48:23.704339 19577 net.cpp:454] relu4_3 <- conv4_3
I1014 09:48:23.704349 19577 net.cpp:397] relu4_3 -> conv4_3 (in-place)
I1014 09:48:23.704872 19577 net.cpp:150] Setting up relu4_3
I1014 09:48:23.704895 19577 net.cpp:157] Top shape: 2 512 72 72 (5308416)
I1014 09:48:23.704900 19577 net.cpp:165] Memory required for data: 1485673488
I1014 09:48:23.704905 19577 layer_factory.hpp:76] Creating layer conv4_3_relu4_3_0_split
I1014 09:48:23.704916 19577 net.cpp:106] Creating Layer conv4_3_relu4_3_0_split
I1014 09:48:23.704921 19577 net.cpp:454] conv4_3_relu4_3_0_split <- conv4_3
I1014 09:48:23.704932 19577 net.cpp:411] conv4_3_relu4_3_0_split -> conv4_3_relu4_3_0_split_0
I1014 09:48:23.704942 19577 net.cpp:411] conv4_3_relu4_3_0_split -> conv4_3_relu4_3_0_split_1
I1014 09:48:23.705024 19577 net.cpp:150] Setting up conv4_3_relu4_3_0_split
I1014 09:48:23.705034 19577 net.cpp:157] Top shape: 2 512 72 72 (5308416)
I1014 09:48:23.705039 19577 net.cpp:157] Top shape: 2 512 72 72 (5308416)
I1014 09:48:23.705042 19577 net.cpp:165] Memory required for data: 1528140816
I1014 09:48:23.705047 19577 layer_factory.hpp:76] Creating layer loss1_conv1
I1014 09:48:23.705067 19577 net.cpp:106] Creating Layer loss1_conv1
I1014 09:48:23.705072 19577 net.cpp:454] loss1_conv1 <- conv4_3_relu4_3_0_split_0
I1014 09:48:23.705083 19577 net.cpp:411] loss1_conv1 -> loss1_conv1
I1014 09:48:23.807523 19577 net.cpp:150] Setting up loss1_conv1
I1014 09:48:23.807548 19577 net.cpp:157] Top shape: 2 512 72 72 (5308416)
I1014 09:48:23.807555 19577 net.cpp:165] Memory required for data: 1549374480
I1014 09:48:23.807565 19577 layer_factory.hpp:76] Creating layer loss_relu1
I1014 09:48:23.807575 19577 net.cpp:106] Creating Layer loss_relu1
I1014 09:48:23.807581 19577 net.cpp:454] loss_relu1 <- loss1_conv1
I1014 09:48:23.807590 19577 net.cpp:397] loss_relu1 -> loss1_conv1 (in-place)
I1014 09:48:23.807983 19577 net.cpp:150] Setting up loss_relu1
I1014 09:48:23.807996 19577 net.cpp:157] Top shape: 2 512 72 72 (5308416)
I1014 09:48:23.808001 19577 net.cpp:165] Memory required for data: 1570608144
I1014 09:48:23.808003 19577 layer_factory.hpp:76] Creating layer loss1_conv1_loss_relu1_0_split
I1014 09:48:23.808010 19577 net.cpp:106] Creating Layer loss1_conv1_loss_relu1_0_split
I1014 09:48:23.808013 19577 net.cpp:454] loss1_conv1_loss_relu1_0_split <- loss1_conv1
I1014 09:48:23.808020 19577 net.cpp:411] loss1_conv1_loss_relu1_0_split -> loss1_conv1_loss_relu1_0_split_0
I1014 09:48:23.808028 19577 net.cpp:411] loss1_conv1_loss_relu1_0_split -> loss1_conv1_loss_relu1_0_split_1
I1014 09:48:23.808086 19577 net.cpp:150] Setting up loss1_conv1_loss_relu1_0_split
I1014 09:48:23.808092 19577 net.cpp:157] Top shape: 2 512 72 72 (5308416)
I1014 09:48:23.808095 19577 net.cpp:157] Top shape: 2 512 72 72 (5308416)
I1014 09:48:23.808099 19577 net.cpp:165] Memory required for data: 1613075472
I1014 09:48:23.808101 19577 layer_factory.hpp:76] Creating layer LFCN_1_3x5
I1014 09:48:23.808112 19577 net.cpp:106] Creating Layer LFCN_1_3x5
I1014 09:48:23.808116 19577 net.cpp:454] LFCN_1_3x5 <- loss1_conv1_loss_relu1_0_split_0
I1014 09:48:23.808121 19577 net.cpp:411] LFCN_1_3x5 -> LFCN_1_3x5
I1014 09:48:23.811059 19577 net.cpp:150] Setting up LFCN_1_3x5
I1014 09:48:23.811074 19577 net.cpp:157] Top shape: 2 6 72 72 (62208)
I1014 09:48:23.811076 19577 net.cpp:165] Memory required for data: 1613324304
I1014 09:48:23.811084 19577 layer_factory.hpp:76] Creating layer LFCN_1_3x5_LFCN_1_3x5_0_split
I1014 09:48:23.811089 19577 net.cpp:106] Creating Layer LFCN_1_3x5_LFCN_1_3x5_0_split
I1014 09:48:23.811094 19577 net.cpp:454] LFCN_1_3x5_LFCN_1_3x5_0_split <- LFCN_1_3x5
I1014 09:48:23.811100 19577 net.cpp:411] LFCN_1_3x5_LFCN_1_3x5_0_split -> LFCN_1_3x5_LFCN_1_3x5_0_split_0
I1014 09:48:23.811107 19577 net.cpp:411] LFCN_1_3x5_LFCN_1_3x5_0_split -> LFCN_1_3x5_LFCN_1_3x5_0_split_1
I1014 09:48:23.811162 19577 net.cpp:150] Setting up LFCN_1_3x5_LFCN_1_3x5_0_split
I1014 09:48:23.811167 19577 net.cpp:157] Top shape: 2 6 72 72 (62208)
I1014 09:48:23.811172 19577 net.cpp:157] Top shape: 2 6 72 72 (62208)
I1014 09:48:23.811174 19577 net.cpp:165] Memory required for data: 1613821968
I1014 09:48:23.811177 19577 layer_factory.hpp:76] Creating layer detection_loss_1_3x5
I1014 09:48:23.811185 19577 net.cpp:106] Creating Layer detection_loss_1_3x5
I1014 09:48:23.811188 19577 net.cpp:454] detection_loss_1_3x5 <- LFCN_1_3x5_LFCN_1_3x5_0_split_0
I1014 09:48:23.811193 19577 net.cpp:454] detection_loss_1_3x5 <- label_1_3x5_data_1_split_0
I1014 09:48:23.811199 19577 net.cpp:411] detection_loss_1_3x5 -> loss_1_3x5
I1014 09:48:23.811208 19577 layer_factory.hpp:76] Creating layer detection_loss_1_3x5
I1014 09:48:23.811647 19577 net.cpp:150] Setting up detection_loss_1_3x5
I1014 09:48:23.811662 19577 net.cpp:157] Top shape: 1 1 1 2 (2)
I1014 09:48:23.811666 19577 net.cpp:160]     with loss weight 0.9
I1014 09:48:23.811679 19577 net.cpp:165] Memory required for data: 1613821976
I1014 09:48:23.811683 19577 layer_factory.hpp:76] Creating layer detection_accuracy_1_3x5
I1014 09:48:23.811691 19577 net.cpp:106] Creating Layer detection_accuracy_1_3x5
I1014 09:48:23.811694 19577 net.cpp:454] detection_accuracy_1_3x5 <- LFCN_1_3x5_LFCN_1_3x5_0_split_1
I1014 09:48:23.811698 19577 net.cpp:454] detection_accuracy_1_3x5 <- label_1_3x5_data_1_split_1
I1014 09:48:23.811703 19577 net.cpp:411] detection_accuracy_1_3x5 -> accuracy_1_3x5
I1014 09:48:23.811709 19577 net.cpp:411] detection_accuracy_1_3x5 -> boxiou_1_3x5
I1014 09:48:23.811764 19577 net.cpp:150] Setting up detection_accuracy_1_3x5
I1014 09:48:23.811769 19577 net.cpp:157] Top shape: 1 1 1 2 (2)
I1014 09:48:23.811772 19577 net.cpp:157] Top shape: 1 1 1 1 (1)
I1014 09:48:23.811775 19577 net.cpp:165] Memory required for data: 1613821988
I1014 09:48:23.811779 19577 layer_factory.hpp:76] Creating layer LFCN_1_5x7
I1014 09:48:23.811786 19577 net.cpp:106] Creating Layer LFCN_1_5x7
I1014 09:48:23.811790 19577 net.cpp:454] LFCN_1_5x7 <- loss1_conv1_loss_relu1_0_split_1
I1014 09:48:23.811796 19577 net.cpp:411] LFCN_1_5x7 -> LFCN_1_5x7
I1014 09:48:23.817412 19577 net.cpp:150] Setting up LFCN_1_5x7
I1014 09:48:23.817428 19577 net.cpp:157] Top shape: 2 6 72 72 (62208)
I1014 09:48:23.817431 19577 net.cpp:165] Memory required for data: 1614070820
I1014 09:48:23.817438 19577 layer_factory.hpp:76] Creating layer LFCN_1_5x7_LFCN_1_5x7_0_split
I1014 09:48:23.817446 19577 net.cpp:106] Creating Layer LFCN_1_5x7_LFCN_1_5x7_0_split
I1014 09:48:23.817451 19577 net.cpp:454] LFCN_1_5x7_LFCN_1_5x7_0_split <- LFCN_1_5x7
I1014 09:48:23.817456 19577 net.cpp:411] LFCN_1_5x7_LFCN_1_5x7_0_split -> LFCN_1_5x7_LFCN_1_5x7_0_split_0
I1014 09:48:23.817462 19577 net.cpp:411] LFCN_1_5x7_LFCN_1_5x7_0_split -> LFCN_1_5x7_LFCN_1_5x7_0_split_1
I1014 09:48:23.817518 19577 net.cpp:150] Setting up LFCN_1_5x7_LFCN_1_5x7_0_split
I1014 09:48:23.817538 19577 net.cpp:157] Top shape: 2 6 72 72 (62208)
I1014 09:48:23.817543 19577 net.cpp:157] Top shape: 2 6 72 72 (62208)
I1014 09:48:23.817545 19577 net.cpp:165] Memory required for data: 1614568484
I1014 09:48:23.817548 19577 layer_factory.hpp:76] Creating layer detection_loss_1_5x7
I1014 09:48:23.817556 19577 net.cpp:106] Creating Layer detection_loss_1_5x7
I1014 09:48:23.817560 19577 net.cpp:454] detection_loss_1_5x7 <- LFCN_1_5x7_LFCN_1_5x7_0_split_0
I1014 09:48:23.817565 19577 net.cpp:454] detection_loss_1_5x7 <- label_1_5x7_data_2_split_0
I1014 09:48:23.817570 19577 net.cpp:411] detection_loss_1_5x7 -> loss_1_5x7
I1014 09:48:23.817577 19577 layer_factory.hpp:76] Creating layer detection_loss_1_5x7
I1014 09:48:23.818208 19577 net.cpp:150] Setting up detection_loss_1_5x7
I1014 09:48:23.818222 19577 net.cpp:157] Top shape: 1 1 1 2 (2)
I1014 09:48:23.818224 19577 net.cpp:160]     with loss weight 0.9
I1014 09:48:23.818231 19577 net.cpp:165] Memory required for data: 1614568492
I1014 09:48:23.818234 19577 layer_factory.hpp:76] Creating layer detection_accuracy_1_5x7
I1014 09:48:23.818243 19577 net.cpp:106] Creating Layer detection_accuracy_1_5x7
I1014 09:48:23.818245 19577 net.cpp:454] detection_accuracy_1_5x7 <- LFCN_1_5x7_LFCN_1_5x7_0_split_1
I1014 09:48:23.818253 19577 net.cpp:454] detection_accuracy_1_5x7 <- label_1_5x7_data_2_split_1
I1014 09:48:23.818258 19577 net.cpp:411] detection_accuracy_1_5x7 -> accuracy_1_5x7
I1014 09:48:23.818265 19577 net.cpp:411] detection_accuracy_1_5x7 -> boxiou_1_5x7
I1014 09:48:23.818317 19577 net.cpp:150] Setting up detection_accuracy_1_5x7
I1014 09:48:23.818323 19577 net.cpp:157] Top shape: 1 1 1 2 (2)
I1014 09:48:23.818326 19577 net.cpp:157] Top shape: 1 1 1 1 (1)
I1014 09:48:23.818330 19577 net.cpp:165] Memory required for data: 1614568504
I1014 09:48:23.818332 19577 layer_factory.hpp:76] Creating layer pool4
I1014 09:48:23.818341 19577 net.cpp:106] Creating Layer pool4
I1014 09:48:23.818344 19577 net.cpp:454] pool4 <- conv4_3_relu4_3_0_split_1
I1014 09:48:23.818349 19577 net.cpp:411] pool4 -> pool4
I1014 09:48:23.818598 19577 net.cpp:150] Setting up pool4
I1014 09:48:23.818608 19577 net.cpp:157] Top shape: 2 512 36 36 (1327104)
I1014 09:48:23.818611 19577 net.cpp:165] Memory required for data: 1619876920
I1014 09:48:23.818614 19577 layer_factory.hpp:76] Creating layer conv5_1
I1014 09:48:23.818624 19577 net.cpp:106] Creating Layer conv5_1
I1014 09:48:23.818626 19577 net.cpp:454] conv5_1 <- pool4
I1014 09:48:23.818632 19577 net.cpp:411] conv5_1 -> conv5_1
I1014 09:48:23.825240 19577 net.cpp:150] Setting up conv5_1
I1014 09:48:23.825256 19577 net.cpp:157] Top shape: 2 512 36 36 (1327104)
I1014 09:48:23.825259 19577 net.cpp:165] Memory required for data: 1625185336
I1014 09:48:23.825266 19577 layer_factory.hpp:76] Creating layer relu5_1
I1014 09:48:23.825275 19577 net.cpp:106] Creating Layer relu5_1
I1014 09:48:23.825279 19577 net.cpp:454] relu5_1 <- conv5_1
I1014 09:48:23.825284 19577 net.cpp:397] relu5_1 -> conv5_1 (in-place)
I1014 09:48:23.825716 19577 net.cpp:150] Setting up relu5_1
I1014 09:48:23.825729 19577 net.cpp:157] Top shape: 2 512 36 36 (1327104)
I1014 09:48:23.825732 19577 net.cpp:165] Memory required for data: 1630493752
I1014 09:48:23.825736 19577 layer_factory.hpp:76] Creating layer conv5_2
I1014 09:48:23.825743 19577 net.cpp:106] Creating Layer conv5_2
I1014 09:48:23.825747 19577 net.cpp:454] conv5_2 <- conv5_1
I1014 09:48:23.825754 19577 net.cpp:411] conv5_2 -> conv5_2
I1014 09:48:23.832490 19577 net.cpp:150] Setting up conv5_2
I1014 09:48:23.832509 19577 net.cpp:157] Top shape: 2 512 36 36 (1327104)
I1014 09:48:23.832511 19577 net.cpp:165] Memory required for data: 1635802168
I1014 09:48:23.832518 19577 layer_factory.hpp:76] Creating layer relu5_2
I1014 09:48:23.832527 19577 net.cpp:106] Creating Layer relu5_2
I1014 09:48:23.832532 19577 net.cpp:454] relu5_2 <- conv5_2
I1014 09:48:23.832538 19577 net.cpp:397] relu5_2 -> conv5_2 (in-place)
I1014 09:48:23.832938 19577 net.cpp:150] Setting up relu5_2
I1014 09:48:23.832952 19577 net.cpp:157] Top shape: 2 512 36 36 (1327104)
I1014 09:48:23.832954 19577 net.cpp:165] Memory required for data: 1641110584
I1014 09:48:23.832957 19577 layer_factory.hpp:76] Creating layer conv5_3
I1014 09:48:23.832967 19577 net.cpp:106] Creating Layer conv5_3
I1014 09:48:23.832970 19577 net.cpp:454] conv5_3 <- conv5_2
I1014 09:48:23.832976 19577 net.cpp:411] conv5_3 -> conv5_3
I1014 09:48:23.839716 19577 net.cpp:150] Setting up conv5_3
I1014 09:48:23.839735 19577 net.cpp:157] Top shape: 2 512 36 36 (1327104)
I1014 09:48:23.839738 19577 net.cpp:165] Memory required for data: 1646419000
I1014 09:48:23.839745 19577 layer_factory.hpp:76] Creating layer relu5_3
I1014 09:48:23.839752 19577 net.cpp:106] Creating Layer relu5_3
I1014 09:48:23.839756 19577 net.cpp:454] relu5_3 <- conv5_3
I1014 09:48:23.839761 19577 net.cpp:397] relu5_3 -> conv5_3 (in-place)
I1014 09:48:23.839964 19577 net.cpp:150] Setting up relu5_3
I1014 09:48:23.839975 19577 net.cpp:157] Top shape: 2 512 36 36 (1327104)
I1014 09:48:23.839977 19577 net.cpp:165] Memory required for data: 1651727416
I1014 09:48:23.839982 19577 layer_factory.hpp:76] Creating layer conv5_3_relu5_3_0_split
I1014 09:48:23.839987 19577 net.cpp:106] Creating Layer conv5_3_relu5_3_0_split
I1014 09:48:23.839992 19577 net.cpp:454] conv5_3_relu5_3_0_split <- conv5_3
I1014 09:48:23.839998 19577 net.cpp:411] conv5_3_relu5_3_0_split -> conv5_3_relu5_3_0_split_0
I1014 09:48:23.840005 19577 net.cpp:411] conv5_3_relu5_3_0_split -> conv5_3_relu5_3_0_split_1
I1014 09:48:23.840010 19577 net.cpp:411] conv5_3_relu5_3_0_split -> conv5_3_relu5_3_0_split_2
I1014 09:48:23.840085 19577 net.cpp:150] Setting up conv5_3_relu5_3_0_split
I1014 09:48:23.840103 19577 net.cpp:157] Top shape: 2 512 36 36 (1327104)
I1014 09:48:23.840107 19577 net.cpp:157] Top shape: 2 512 36 36 (1327104)
I1014 09:48:23.840111 19577 net.cpp:157] Top shape: 2 512 36 36 (1327104)
I1014 09:48:23.840113 19577 net.cpp:165] Memory required for data: 1667652664
I1014 09:48:23.840116 19577 layer_factory.hpp:76] Creating layer LFCN_2_3x5
I1014 09:48:23.840127 19577 net.cpp:106] Creating Layer LFCN_2_3x5
I1014 09:48:23.840131 19577 net.cpp:454] LFCN_2_3x5 <- conv5_3_relu5_3_0_split_0
I1014 09:48:23.840137 19577 net.cpp:411] LFCN_2_3x5 -> LFCN_2_3x5
I1014 09:48:23.847856 19577 net.cpp:150] Setting up LFCN_2_3x5
I1014 09:48:23.847883 19577 net.cpp:157] Top shape: 2 6 36 36 (15552)
I1014 09:48:23.847887 19577 net.cpp:165] Memory required for data: 1667714872
I1014 09:48:23.847936 19577 layer_factory.hpp:76] Creating layer LFCN_2_3x5_LFCN_2_3x5_0_split
I1014 09:48:23.847972 19577 net.cpp:106] Creating Layer LFCN_2_3x5_LFCN_2_3x5_0_split
I1014 09:48:23.847997 19577 net.cpp:454] LFCN_2_3x5_LFCN_2_3x5_0_split <- LFCN_2_3x5
I1014 09:48:23.848009 19577 net.cpp:411] LFCN_2_3x5_LFCN_2_3x5_0_split -> LFCN_2_3x5_LFCN_2_3x5_0_split_0
I1014 09:48:23.848019 19577 net.cpp:411] LFCN_2_3x5_LFCN_2_3x5_0_split -> LFCN_2_3x5_LFCN_2_3x5_0_split_1
I1014 09:48:23.848081 19577 net.cpp:150] Setting up LFCN_2_3x5_LFCN_2_3x5_0_split
I1014 09:48:23.848090 19577 net.cpp:157] Top shape: 2 6 36 36 (15552)
I1014 09:48:23.848093 19577 net.cpp:157] Top shape: 2 6 36 36 (15552)
I1014 09:48:23.848096 19577 net.cpp:165] Memory required for data: 1667839288
I1014 09:48:23.848099 19577 layer_factory.hpp:76] Creating layer detection_loss_2_3x5
I1014 09:48:23.848119 19577 net.cpp:106] Creating Layer detection_loss_2_3x5
I1014 09:48:23.848121 19577 net.cpp:454] detection_loss_2_3x5 <- LFCN_2_3x5_LFCN_2_3x5_0_split_0
I1014 09:48:23.848132 19577 net.cpp:454] detection_loss_2_3x5 <- label_2_3x5_data_3_split_0
I1014 09:48:23.848143 19577 net.cpp:411] detection_loss_2_3x5 -> loss_2_3x5
I1014 09:48:23.848153 19577 layer_factory.hpp:76] Creating layer detection_loss_2_3x5
I1014 09:48:23.848804 19577 net.cpp:150] Setting up detection_loss_2_3x5
I1014 09:48:23.848816 19577 net.cpp:157] Top shape: 1 1 1 2 (2)
I1014 09:48:23.848819 19577 net.cpp:160]     with loss weight 1
I1014 09:48:23.848850 19577 net.cpp:165] Memory required for data: 1667839296
I1014 09:48:23.848852 19577 layer_factory.hpp:76] Creating layer detection_accuracy_2_3x5
I1014 09:48:23.848868 19577 net.cpp:106] Creating Layer detection_accuracy_2_3x5
I1014 09:48:23.848872 19577 net.cpp:454] detection_accuracy_2_3x5 <- LFCN_2_3x5_LFCN_2_3x5_0_split_1
I1014 09:48:23.848883 19577 net.cpp:454] detection_accuracy_2_3x5 <- label_2_3x5_data_3_split_1
I1014 09:48:23.848897 19577 net.cpp:411] detection_accuracy_2_3x5 -> accuracy_2_3x5
I1014 09:48:23.848907 19577 net.cpp:411] detection_accuracy_2_3x5 -> boxiou_2_3x5
I1014 09:48:23.849012 19577 net.cpp:150] Setting up detection_accuracy_2_3x5
I1014 09:48:23.849022 19577 net.cpp:157] Top shape: 1 1 1 2 (2)
I1014 09:48:23.849026 19577 net.cpp:157] Top shape: 1 1 1 1 (1)
I1014 09:48:23.849028 19577 net.cpp:165] Memory required for data: 1667839308
I1014 09:48:23.849031 19577 layer_factory.hpp:76] Creating layer LFCN_2_5x7
I1014 09:48:23.849041 19577 net.cpp:106] Creating Layer LFCN_2_5x7
I1014 09:48:23.849046 19577 net.cpp:454] LFCN_2_5x7 <- conv5_3_relu5_3_0_split_1
I1014 09:48:23.849053 19577 net.cpp:411] LFCN_2_5x7 -> LFCN_2_5x7
I1014 09:48:23.854576 19577 net.cpp:150] Setting up LFCN_2_5x7
I1014 09:48:23.854591 19577 net.cpp:157] Top shape: 2 6 36 36 (15552)
I1014 09:48:23.854595 19577 net.cpp:165] Memory required for data: 1667901516
I1014 09:48:23.854603 19577 layer_factory.hpp:76] Creating layer LFCN_2_5x7_LFCN_2_5x7_0_split
I1014 09:48:23.854607 19577 net.cpp:106] Creating Layer LFCN_2_5x7_LFCN_2_5x7_0_split
I1014 09:48:23.854611 19577 net.cpp:454] LFCN_2_5x7_LFCN_2_5x7_0_split <- LFCN_2_5x7
I1014 09:48:23.854626 19577 net.cpp:411] LFCN_2_5x7_LFCN_2_5x7_0_split -> LFCN_2_5x7_LFCN_2_5x7_0_split_0
I1014 09:48:23.854634 19577 net.cpp:411] LFCN_2_5x7_LFCN_2_5x7_0_split -> LFCN_2_5x7_LFCN_2_5x7_0_split_1
I1014 09:48:23.854694 19577 net.cpp:150] Setting up LFCN_2_5x7_LFCN_2_5x7_0_split
I1014 09:48:23.854702 19577 net.cpp:157] Top shape: 2 6 36 36 (15552)
I1014 09:48:23.854707 19577 net.cpp:157] Top shape: 2 6 36 36 (15552)
I1014 09:48:23.854709 19577 net.cpp:165] Memory required for data: 1668025932
I1014 09:48:23.854712 19577 layer_factory.hpp:76] Creating layer detection_loss_2_5x7
I1014 09:48:23.854724 19577 net.cpp:106] Creating Layer detection_loss_2_5x7
I1014 09:48:23.854727 19577 net.cpp:454] detection_loss_2_5x7 <- LFCN_2_5x7_LFCN_2_5x7_0_split_0
I1014 09:48:23.854735 19577 net.cpp:454] detection_loss_2_5x7 <- label_2_5x7_data_4_split_0
I1014 09:48:23.854743 19577 net.cpp:411] detection_loss_2_5x7 -> loss_2_5x7
I1014 09:48:23.854751 19577 layer_factory.hpp:76] Creating layer detection_loss_2_5x7
I1014 09:48:23.855417 19577 net.cpp:150] Setting up detection_loss_2_5x7
I1014 09:48:23.855432 19577 net.cpp:157] Top shape: 1 1 1 2 (2)
I1014 09:48:23.855434 19577 net.cpp:160]     with loss weight 1
I1014 09:48:23.855442 19577 net.cpp:165] Memory required for data: 1668025940
I1014 09:48:23.855444 19577 layer_factory.hpp:76] Creating layer detection_accuracy_2_5x7
I1014 09:48:23.855458 19577 net.cpp:106] Creating Layer detection_accuracy_2_5x7
I1014 09:48:23.855463 19577 net.cpp:454] detection_accuracy_2_5x7 <- LFCN_2_5x7_LFCN_2_5x7_0_split_1
I1014 09:48:23.855468 19577 net.cpp:454] detection_accuracy_2_5x7 <- label_2_5x7_data_4_split_1
I1014 09:48:23.855473 19577 net.cpp:411] detection_accuracy_2_5x7 -> accuracy_2_5x7
I1014 09:48:23.855481 19577 net.cpp:411] detection_accuracy_2_5x7 -> boxiou_2_5x7
I1014 09:48:23.855535 19577 net.cpp:150] Setting up detection_accuracy_2_5x7
I1014 09:48:23.855543 19577 net.cpp:157] Top shape: 1 1 1 2 (2)
I1014 09:48:23.855547 19577 net.cpp:157] Top shape: 1 1 1 1 (1)
I1014 09:48:23.855550 19577 net.cpp:165] Memory required for data: 1668025952
I1014 09:48:23.855552 19577 layer_factory.hpp:76] Creating layer pool5
I1014 09:48:23.855566 19577 net.cpp:106] Creating Layer pool5
I1014 09:48:23.855569 19577 net.cpp:454] pool5 <- conv5_3_relu5_3_0_split_2
I1014 09:48:23.855574 19577 net.cpp:411] pool5 -> pool5
I1014 09:48:23.855829 19577 net.cpp:150] Setting up pool5
I1014 09:48:23.855841 19577 net.cpp:157] Top shape: 2 512 18 18 (331776)
I1014 09:48:23.855844 19577 net.cpp:165] Memory required for data: 1669353056
I1014 09:48:23.855849 19577 layer_factory.hpp:76] Creating layer conv6_1
I1014 09:48:23.855857 19577 net.cpp:106] Creating Layer conv6_1
I1014 09:48:23.855861 19577 net.cpp:454] conv6_1 <- pool5
I1014 09:48:23.855866 19577 net.cpp:411] conv6_1 -> conv6_1
I1014 09:48:23.944113 19577 net.cpp:150] Setting up conv6_1
I1014 09:48:23.944128 19577 net.cpp:157] Top shape: 2 512 18 18 (331776)
I1014 09:48:23.944133 19577 net.cpp:165] Memory required for data: 1670680160
I1014 09:48:23.944139 19577 layer_factory.hpp:76] Creating layer relu6_1
I1014 09:48:23.944147 19577 net.cpp:106] Creating Layer relu6_1
I1014 09:48:23.944151 19577 net.cpp:454] relu6_1 <- conv6_1
I1014 09:48:23.944156 19577 net.cpp:397] relu6_1 -> conv6_1 (in-place)
I1014 09:48:23.944557 19577 net.cpp:150] Setting up relu6_1
I1014 09:48:23.944572 19577 net.cpp:157] Top shape: 2 512 18 18 (331776)
I1014 09:48:23.944576 19577 net.cpp:165] Memory required for data: 1672007264
I1014 09:48:23.944579 19577 layer_factory.hpp:76] Creating layer conv6_1_relu6_1_0_split
I1014 09:48:23.944591 19577 net.cpp:106] Creating Layer conv6_1_relu6_1_0_split
I1014 09:48:23.944596 19577 net.cpp:454] conv6_1_relu6_1_0_split <- conv6_1
I1014 09:48:23.944600 19577 net.cpp:411] conv6_1_relu6_1_0_split -> conv6_1_relu6_1_0_split_0
I1014 09:48:23.944607 19577 net.cpp:411] conv6_1_relu6_1_0_split -> conv6_1_relu6_1_0_split_1
I1014 09:48:23.944613 19577 net.cpp:411] conv6_1_relu6_1_0_split -> conv6_1_relu6_1_0_split_2
I1014 09:48:23.944692 19577 net.cpp:150] Setting up conv6_1_relu6_1_0_split
I1014 09:48:23.944701 19577 net.cpp:157] Top shape: 2 512 18 18 (331776)
I1014 09:48:23.944705 19577 net.cpp:157] Top shape: 2 512 18 18 (331776)
I1014 09:48:23.944710 19577 net.cpp:157] Top shape: 2 512 18 18 (331776)
I1014 09:48:23.944711 19577 net.cpp:165] Memory required for data: 1675988576
I1014 09:48:23.944715 19577 layer_factory.hpp:76] Creating layer LFCN_3_3x5
I1014 09:48:23.944722 19577 net.cpp:106] Creating Layer LFCN_3_3x5
I1014 09:48:23.944725 19577 net.cpp:454] LFCN_3_3x5 <- conv6_1_relu6_1_0_split_0
I1014 09:48:23.944733 19577 net.cpp:411] LFCN_3_3x5 -> LFCN_3_3x5
I1014 09:48:23.947572 19577 net.cpp:150] Setting up LFCN_3_3x5
I1014 09:48:23.947588 19577 net.cpp:157] Top shape: 2 6 18 18 (3888)
I1014 09:48:23.947592 19577 net.cpp:165] Memory required for data: 1676004128
I1014 09:48:23.947598 19577 layer_factory.hpp:76] Creating layer LFCN_3_3x5_LFCN_3_3x5_0_split
I1014 09:48:23.947624 19577 net.cpp:106] Creating Layer LFCN_3_3x5_LFCN_3_3x5_0_split
I1014 09:48:23.947629 19577 net.cpp:454] LFCN_3_3x5_LFCN_3_3x5_0_split <- LFCN_3_3x5
I1014 09:48:23.947634 19577 net.cpp:411] LFCN_3_3x5_LFCN_3_3x5_0_split -> LFCN_3_3x5_LFCN_3_3x5_0_split_0
I1014 09:48:23.947643 19577 net.cpp:411] LFCN_3_3x5_LFCN_3_3x5_0_split -> LFCN_3_3x5_LFCN_3_3x5_0_split_1
I1014 09:48:23.947703 19577 net.cpp:150] Setting up LFCN_3_3x5_LFCN_3_3x5_0_split
I1014 09:48:23.947711 19577 net.cpp:157] Top shape: 2 6 18 18 (3888)
I1014 09:48:23.947715 19577 net.cpp:157] Top shape: 2 6 18 18 (3888)
I1014 09:48:23.947718 19577 net.cpp:165] Memory required for data: 1676035232
I1014 09:48:23.947721 19577 layer_factory.hpp:76] Creating layer detection_loss_3_3x5
I1014 09:48:23.947728 19577 net.cpp:106] Creating Layer detection_loss_3_3x5
I1014 09:48:23.947731 19577 net.cpp:454] detection_loss_3_3x5 <- LFCN_3_3x5_LFCN_3_3x5_0_split_0
I1014 09:48:23.947737 19577 net.cpp:454] detection_loss_3_3x5 <- label_3_3x5_data_5_split_0
I1014 09:48:23.947742 19577 net.cpp:411] detection_loss_3_3x5 -> loss_3_3x5
I1014 09:48:23.947751 19577 layer_factory.hpp:76] Creating layer detection_loss_3_3x5
I1014 09:48:23.948396 19577 net.cpp:150] Setting up detection_loss_3_3x5
I1014 09:48:23.948410 19577 net.cpp:157] Top shape: 1 1 1 2 (2)
I1014 09:48:23.948412 19577 net.cpp:160]     with loss weight 1
I1014 09:48:23.948420 19577 net.cpp:165] Memory required for data: 1676035240
I1014 09:48:23.948423 19577 layer_factory.hpp:76] Creating layer detection_accuracy_3_3x5
I1014 09:48:23.948429 19577 net.cpp:106] Creating Layer detection_accuracy_3_3x5
I1014 09:48:23.948433 19577 net.cpp:454] detection_accuracy_3_3x5 <- LFCN_3_3x5_LFCN_3_3x5_0_split_1
I1014 09:48:23.948438 19577 net.cpp:454] detection_accuracy_3_3x5 <- label_3_3x5_data_5_split_1
I1014 09:48:23.948446 19577 net.cpp:411] detection_accuracy_3_3x5 -> accuracy_3_3x5
I1014 09:48:23.948453 19577 net.cpp:411] detection_accuracy_3_3x5 -> boxiou_3_3x5
I1014 09:48:23.948508 19577 net.cpp:150] Setting up detection_accuracy_3_3x5
I1014 09:48:23.948518 19577 net.cpp:157] Top shape: 1 1 1 2 (2)
I1014 09:48:23.948521 19577 net.cpp:157] Top shape: 1 1 1 1 (1)
I1014 09:48:23.948524 19577 net.cpp:165] Memory required for data: 1676035252
I1014 09:48:23.948528 19577 layer_factory.hpp:76] Creating layer LFCN_3_5x7
I1014 09:48:23.948534 19577 net.cpp:106] Creating Layer LFCN_3_5x7
I1014 09:48:23.948537 19577 net.cpp:454] LFCN_3_5x7 <- conv6_1_relu6_1_0_split_1
I1014 09:48:23.948545 19577 net.cpp:411] LFCN_3_5x7 -> LFCN_3_5x7
I1014 09:48:23.954567 19577 net.cpp:150] Setting up LFCN_3_5x7
I1014 09:48:23.954586 19577 net.cpp:157] Top shape: 2 6 18 18 (3888)
I1014 09:48:23.954588 19577 net.cpp:165] Memory required for data: 1676050804
I1014 09:48:23.954596 19577 layer_factory.hpp:76] Creating layer LFCN_3_5x7_LFCN_3_5x7_0_split
I1014 09:48:23.954602 19577 net.cpp:106] Creating Layer LFCN_3_5x7_LFCN_3_5x7_0_split
I1014 09:48:23.954607 19577 net.cpp:454] LFCN_3_5x7_LFCN_3_5x7_0_split <- LFCN_3_5x7
I1014 09:48:23.954612 19577 net.cpp:411] LFCN_3_5x7_LFCN_3_5x7_0_split -> LFCN_3_5x7_LFCN_3_5x7_0_split_0
I1014 09:48:23.954619 19577 net.cpp:411] LFCN_3_5x7_LFCN_3_5x7_0_split -> LFCN_3_5x7_LFCN_3_5x7_0_split_1
I1014 09:48:23.954679 19577 net.cpp:150] Setting up LFCN_3_5x7_LFCN_3_5x7_0_split
I1014 09:48:23.954684 19577 net.cpp:157] Top shape: 2 6 18 18 (3888)
I1014 09:48:23.954689 19577 net.cpp:157] Top shape: 2 6 18 18 (3888)
I1014 09:48:23.954690 19577 net.cpp:165] Memory required for data: 1676081908
I1014 09:48:23.954694 19577 layer_factory.hpp:76] Creating layer detection_loss_3_5x7
I1014 09:48:23.954700 19577 net.cpp:106] Creating Layer detection_loss_3_5x7
I1014 09:48:23.954704 19577 net.cpp:454] detection_loss_3_5x7 <- LFCN_3_5x7_LFCN_3_5x7_0_split_0
I1014 09:48:23.954708 19577 net.cpp:454] detection_loss_3_5x7 <- label_3_5x7_data_6_split_0
I1014 09:48:23.954713 19577 net.cpp:411] detection_loss_3_5x7 -> loss_3_5x7
I1014 09:48:23.954723 19577 layer_factory.hpp:76] Creating layer detection_loss_3_5x7
I1014 09:48:23.955183 19577 net.cpp:150] Setting up detection_loss_3_5x7
I1014 09:48:23.955196 19577 net.cpp:157] Top shape: 1 1 1 2 (2)
I1014 09:48:23.955199 19577 net.cpp:160]     with loss weight 1
I1014 09:48:23.955210 19577 net.cpp:165] Memory required for data: 1676081916
I1014 09:48:23.955214 19577 layer_factory.hpp:76] Creating layer detection_accuracy_3_5x7
I1014 09:48:23.955219 19577 net.cpp:106] Creating Layer detection_accuracy_3_5x7
I1014 09:48:23.955225 19577 net.cpp:454] detection_accuracy_3_5x7 <- LFCN_3_5x7_LFCN_3_5x7_0_split_1
I1014 09:48:23.955230 19577 net.cpp:454] detection_accuracy_3_5x7 <- label_3_5x7_data_6_split_1
I1014 09:48:23.955235 19577 net.cpp:411] detection_accuracy_3_5x7 -> accuracy_3_5x7
I1014 09:48:23.955242 19577 net.cpp:411] detection_accuracy_3_5x7 -> boxiou_3_5x7
I1014 09:48:23.955299 19577 net.cpp:150] Setting up detection_accuracy_3_5x7
I1014 09:48:23.955308 19577 net.cpp:157] Top shape: 1 1 1 2 (2)
I1014 09:48:23.955312 19577 net.cpp:157] Top shape: 1 1 1 1 (1)
I1014 09:48:23.955314 19577 net.cpp:165] Memory required for data: 1676081928
I1014 09:48:23.955317 19577 layer_factory.hpp:76] Creating layer pool6
I1014 09:48:23.955324 19577 net.cpp:106] Creating Layer pool6
I1014 09:48:23.955328 19577 net.cpp:454] pool6 <- conv6_1_relu6_1_0_split_2
I1014 09:48:23.955333 19577 net.cpp:411] pool6 -> pool6
I1014 09:48:23.955780 19577 net.cpp:150] Setting up pool6
I1014 09:48:23.955793 19577 net.cpp:157] Top shape: 2 512 9 9 (82944)
I1014 09:48:23.955796 19577 net.cpp:165] Memory required for data: 1676413704
I1014 09:48:23.955801 19577 layer_factory.hpp:76] Creating layer LFCN_4_3x5
I1014 09:48:23.955809 19577 net.cpp:106] Creating Layer LFCN_4_3x5
I1014 09:48:23.955813 19577 net.cpp:454] LFCN_4_3x5 <- pool6
I1014 09:48:23.955821 19577 net.cpp:411] LFCN_4_3x5 -> LFCN_4_3x5
I1014 09:48:23.959038 19577 net.cpp:150] Setting up LFCN_4_3x5
I1014 09:48:23.959051 19577 net.cpp:157] Top shape: 2 6 9 9 (972)
I1014 09:48:23.959055 19577 net.cpp:165] Memory required for data: 1676417592
I1014 09:48:23.959062 19577 layer_factory.hpp:76] Creating layer LFCN_4_3x5_LFCN_4_3x5_0_split
I1014 09:48:23.959067 19577 net.cpp:106] Creating Layer LFCN_4_3x5_LFCN_4_3x5_0_split
I1014 09:48:23.959071 19577 net.cpp:454] LFCN_4_3x5_LFCN_4_3x5_0_split <- LFCN_4_3x5
I1014 09:48:23.959080 19577 net.cpp:411] LFCN_4_3x5_LFCN_4_3x5_0_split -> LFCN_4_3x5_LFCN_4_3x5_0_split_0
I1014 09:48:23.959087 19577 net.cpp:411] LFCN_4_3x5_LFCN_4_3x5_0_split -> LFCN_4_3x5_LFCN_4_3x5_0_split_1
I1014 09:48:23.959197 19577 net.cpp:150] Setting up LFCN_4_3x5_LFCN_4_3x5_0_split
I1014 09:48:23.959206 19577 net.cpp:157] Top shape: 2 6 9 9 (972)
I1014 09:48:23.959210 19577 net.cpp:157] Top shape: 2 6 9 9 (972)
I1014 09:48:23.959213 19577 net.cpp:165] Memory required for data: 1676425368
I1014 09:48:23.959215 19577 layer_factory.hpp:76] Creating layer detection_loss_4_3x5
I1014 09:48:23.959223 19577 net.cpp:106] Creating Layer detection_loss_4_3x5
I1014 09:48:23.959226 19577 net.cpp:454] detection_loss_4_3x5 <- LFCN_4_3x5_LFCN_4_3x5_0_split_0
I1014 09:48:23.959231 19577 net.cpp:454] detection_loss_4_3x5 <- label_4_3x5_data_7_split_0
I1014 09:48:23.959236 19577 net.cpp:411] detection_loss_4_3x5 -> loss_4_3x5
I1014 09:48:23.959244 19577 layer_factory.hpp:76] Creating layer detection_loss_4_3x5
I1014 09:48:23.959717 19577 net.cpp:150] Setting up detection_loss_4_3x5
I1014 09:48:23.959727 19577 net.cpp:157] Top shape: 1 1 1 2 (2)
I1014 09:48:23.959729 19577 net.cpp:160]     with loss weight 1
I1014 09:48:23.959736 19577 net.cpp:165] Memory required for data: 1676425376
I1014 09:48:23.959739 19577 layer_factory.hpp:76] Creating layer detection_accuracy_4_3x5
I1014 09:48:23.959746 19577 net.cpp:106] Creating Layer detection_accuracy_4_3x5
I1014 09:48:23.959750 19577 net.cpp:454] detection_accuracy_4_3x5 <- LFCN_4_3x5_LFCN_4_3x5_0_split_1
I1014 09:48:23.959755 19577 net.cpp:454] detection_accuracy_4_3x5 <- label_4_3x5_data_7_split_1
I1014 09:48:23.959763 19577 net.cpp:411] detection_accuracy_4_3x5 -> accuracy_4_3x5
I1014 09:48:23.959769 19577 net.cpp:411] detection_accuracy_4_3x5 -> boxiou_4_3x5
I1014 09:48:23.959826 19577 net.cpp:150] Setting up detection_accuracy_4_3x5
I1014 09:48:23.959837 19577 net.cpp:157] Top shape: 1 1 1 2 (2)
I1014 09:48:23.959841 19577 net.cpp:157] Top shape: 1 1 1 1 (1)
I1014 09:48:23.959843 19577 net.cpp:165] Memory required for data: 1676425388
I1014 09:48:23.959846 19577 net.cpp:228] detection_accuracy_4_3x5 does not need backward computation.
I1014 09:48:23.959851 19577 net.cpp:226] detection_loss_4_3x5 needs backward computation.
I1014 09:48:23.959853 19577 net.cpp:226] LFCN_4_3x5_LFCN_4_3x5_0_split needs backward computation.
I1014 09:48:23.959856 19577 net.cpp:226] LFCN_4_3x5 needs backward computation.
…
