…
    downsample_rate: 32
    downsample_rate: 32
    downsample_rate: 64
    coord_num: 4
    field_h: 60
    field_h: 84
    field_h: 120
    field_h: 168
    field_h: 240
    field_h: 336
    field_h: 480
    field_w: 30
    field_w: 42
    field_w: 60
    field_w: 84
    field_w: 120
    field_w: 168
    field_w: 240
    fg_threshold: 0.5
    resize_width: 960
    resize_height: 720
    crop_width: 576
    crop_height: 576
    do_multiple_scale: true
    min_scale: 40
    max_scale: 340
    min_gt_height: 65
    shuffle: true
    output_gt_boxes: true
  }
}
layer {
  name: "conv1_1"
  type: "Convolution"
  bottom: "data"
  top: "conv1_1"
  param {
    lr_mult: 0
    decay_mult: 0
  }
  param {
    lr_mult: 0
    decay_mult: 0
  }
  convolution_param {
    num_output: 64
    pad: 1
    kernel_size: 3
  }
}
layer {
  name: "relu1_1"
  type: "ReLU"
  bottom: "conv1_1"
  top: "conv1_1"
}
layer {
  name: "conv1_2"
  type: "Convolution"
  bottom: "conv1_1"
  top: "conv1_2"
  param {
    lr_mult: 0
    decay_mult: 0
  }
  param {
    lr_mult: 0
    decay_mult: 0
  }
  convolution_param {
    num_output: 64
    pad: 1
    kernel_size: 3
  }
}
layer {
  name: "relu1_2"
  type: "ReLU"
  bottom: "conv1_2"
  top: "conv1_2"
}
layer {
  name: "pool1"
  type: "Pooling"
  bottom: "conv1_2"
  top: "pool1"
  pooling_param {
    pool: MAX
    kernel_size: 2
    stride: 2
  }
}
layer {
  name: "conv2_1"
  type: "Convolution"
  bottom: "pool1"
  top: "conv2_1"
  param {
    lr_mult: 0
    decay_mult: 0
  }
  param {
    lr_mult: 0
    decay_mult: 0
  }
  convolution_param {
    num_output: 128
    pad: 1
    kernel_size: 3
  }
}
layer {
  name: "relu2_1"
  type: "ReLU"
  bottom: "conv2_1"
  top: "conv2_1"
}
layer {
  name: "conv2_2"
  type: "Convolution"
  bottom: "conv2_1"
  top: "conv2_2"
  param {
    lr_mult: 0
    decay_mult: 0
  }
  param {
    lr_mult: 0
    decay_mult: 0
  }
  convolution_param {
    num_output: 128
    pad: 1
    kernel_size: 3
  }
}
layer {
  name: "relu2_2"
  type: "ReLU"
  bottom: "conv2_2"
  top: "conv2_2"
}
layer {
  name: "pool2"
  type: "Pooling"
  bottom: "conv2_2"
  top: "pool2"
  pooling_param {
    pool: MAX
    kernel_size: 2
    stride: 2
  }
}
layer {
  name: "conv3_1"
  type: "Convolution"
  bottom: "pool2"
  top: "conv3_1"
  convolution_param {
    num_output: 256
    pad: 1
    kernel_size: 3
  }
}
layer {
  name: "relu3_1"
  type: "ReLU"
  bottom: "conv3_1"
  top: "conv3_1"
}
layer {
  name: "conv3_2"
  type: "Convolution"
  bottom: "conv3_1"
  top: "conv3_2"
  convolution_param {
    num_output: 256
    pad: 1
    kernel_size: 3
  }
}
layer {
  name: "relu3_2"
  type: "ReLU"
  bottom: "conv3_2"
  top: "conv3_2"
}
layer {
  name: "conv3_3"
  type: "Convolution"
  bottom: "conv3_2"
  top: "conv3_3"
  convolution_param {
    num_output: 256
    pad: 1
    kernel_size: 3
  }
}
layer {
  name: "relu3_3"
  type: "ReLU"
  bottom: "conv3_3"
  top: "conv3_3"
}
layer {
  name: "pool3"
  type: "Pooling"
  bottom: "conv3_3"
  top: "pool3"
  pooling_param {
    pool: MAX
    kernel_size: 2
    stride: 2
  }
}
layer {
  name: "conv4_1"
  type: "Convolution"
  bottom: "pool3"
  top: "conv4_1"
  convolution_param {
    num_output: 512
    pad: 1
    kernel_size: 3
  }
}
layer {
  name: "relu4_1"
  type: "ReLU"
  bottom: "conv4_1"
  top: "conv4_1"
}
layer {
  name: "conv4_2"
  type: "Convolution"
  bottom: "conv4_1"
  top: "conv4_2"
  convolution_param {
    num_output: 512
    pad: 1
    kernel_size: 3
  }
}
layer {
  name: "relu4_2"
  type: "ReLU"
  bottom: "conv4_2"
  top: "conv4_2"
}
layer {
  name: "conv4_3"
  type: "Convolution"
  bottom: "conv4_2"
  top: "conv4_3"
  convolution_param {
    num_output: 512
    pad: 1
    kernel_size: 3
  }
}
layer {
  name: "relu4_3"
  type: "ReLU"
  bottom: "conv4_3"
  top: "conv4_3"
}
layer {
  name: "loss1_conv1"
  type: "Convolution"
  bottom: "conv4_3"
  top: "loss1_conv1"
  param {
    lr_mult: 1
    decay_mult: 1
  }
  param {
    lr_mult: 2
    decay_mult: 0
  }
  convolution_param {
    num_output: 512
    pad: 1
    kernel_size: 3
    weight_filler {
      type: "gaussian"
      std: 0.01
    }
    bias_filler {
      type: "constant"
    }
  }
}
layer {
  name: "loss_relu1"
  type: "ReLU"
  bottom: "loss1_conv1"
  top: "loss1_conv1"
}
layer {
  name: "LFCN_1_3x5"
  type: "Convolution"
  bottom: "loss1_conv1"
  top: "LFCN_1_3x5"
  param {
    lr_mult: 1
    decay_mult: 1
  }
  param {
    lr_mult: 2
    decay_mult: 0
  }
  convolution_param {
    num_output: 6
    weight_filler {
      type: "gaussian"
      std: 0.001
    }
    bias_filler {
      type: "constant"
    }
    pad_h: 2
    pad_w: 1
    kernel_h: 5
    kernel_w: 3
  }
}
layer {
  name: "detection_loss_1_3x5"
  type: "Detection"
  bottom: "LFCN_1_3x5"
  bottom: "label_1_3x5"
  top: "loss_1_3x5"
  loss_weight: 0.9
  detection_param {
    cls_num: 2
    coord_num: 4
    lambda: 1
    field_h: 60
    field_w: 30
    downsample_rate: 8
    bb_smooth: true
    field_whr: 2
    field_xyr: 2
    bg_threshold: 0.2
    bg_multiple: 2
    sample_mode: "bootstrap"
    pos_neg_weighted: true
  }
}
layer {
  name: "detection_accuracy_1_3x5"
  type: "DetectionAccuracy"
  bottom: "LFCN_1_3x5"
  bottom: "label_1_3x5"
  top: "accuracy_1_3x5"
  top: "boxiou_1_3x5"
  detection_accuracy_param {
    cls_num: 2
    coord_num: 4
    field_h: 60
    field_w: 30
    downsample_rate: 8
    field_whr: 2
    field_xyr: 2
  }
}
layer {
  name: "LFCN_1_5x7"
  type: "Convolution"
  bottom: "loss1_conv1"
  top: "LFCN_1_5x7"
  param {
    lr_mult: 1
    decay_mult: 1
  }
  param {
    lr_mult: 2
    decay_mult: 0
  }
  convolution_param {
    num_output: 6
    weight_filler {
      type: "gaussian"
      std: 0.001
    }
    bias_filler {
      type: "constant"
    }
    pad_h: 3
    pad_w: 2
    kernel_h: 7
    kernel_w: 5
  }
}
layer {
  name: "detection_loss_1_5x7"
  type: "Detection"
  bottom: "LFCN_1_5x7"
  bottom: "label_1_5x7"
  top: "loss_1_5x7"
  loss_weight: 0.9
  detection_param {
    cls_num: 2
    coord_num: 4
    lambda: 1
    field_h: 84
    field_w: 42
    downsample_rate: 8
    bb_smooth: true
    field_whr: 2
    field_xyr: 2
    bg_threshold: 0.2
    bg_multiple: 2
    sample_mode: "bootstrap"
    pos_neg_weighted: true
  }
}
layer {
  name: "detection_accuracy_1_5x7"
  type: "DetectionAccuracy"
  bottom: "LFCN_1_5x7"
  bottom: "label_1_5x7"
  top: "accuracy_1_5x7"
  top: "boxiou_1_5x7"
  detection_accuracy_param {
    cls_num: 2
    coord_num: 4
    field_h: 84
    field_w: 42
    downsample_rate: 8
    field_whr: 2
    field_xyr: 2
  }
}
layer {
  name: "pool4"
  type: "Pooling"
  bottom: "conv4_3"
  top: "pool4"
  pooling_param {
    pool: MAX
    kernel_size: 2
    stride: 2
  }
}
layer {
  name: "conv5_1"
  type: "Convolution"
  bottom: "pool4"
  top: "conv5_1"
  convolution_param {
    num_output: 512
    pad: 1
    kernel_size: 3
  }
}
layer {
  name: "relu5_1"
  type: "ReLU"
  bottom: "conv5_1"
  top: "conv5_1"
}
layer {
  name: "conv5_2"
  type: "Convolution"
  bottom: "conv5_1"
  top: "conv5_2"
  convolution_param {
    num_output: 512
    pad: 1
    kernel_size: 3
  }
}
layer {
  name: "relu5_2"
  type: "ReLU"
  bottom: "conv5_2"
  top: "conv5_2"
}
layer {
  name: "conv5_3"
  type: "Convolution"
  bottom: "conv5_2"
  top: "conv5_3"
  convolution_param {
    num_output: 512
    pad: 1
    kernel_size: 3
  }
}
layer {
  name: "relu5_3"
  type: "ReLU"
  bottom: "conv5_3"
  top: "conv5_3"
}
layer {
  name: "LFCN_2_3x5"
  type: "Convolution"
  bottom: "conv5_3"
  top: "LFCN_2_3x5"
  param {
    lr_mult: 1
    decay_mult: 1
  }
  param {
    lr_mult: 2
    decay_mult: 0
  }
  convolution_param {
    num_output: 6
    weight_filler {
      type: "gaussian"
      std: 0.001
    }
    bias_filler {
      type: "constant"
    }
    pad_h: 2
    pad_w: 1
    kernel_h: 5
    kernel_w: 3
  }
}
layer {
  name: "detection_loss_2_3x5"
  type: "Detection"
  bottom: "LFCN_2_3x5"
  bottom: "label_2_3x5"
  top: "loss_2_3x5"
  detection_param {
    cls_num: 2
    coord_num: 4
    lambda: 1
    field_h: 120
    field_w: 60
    downsample_rate: 16
    bb_smooth: true
    field_whr: 2
    field_xyr: 2
    bg_threshold: 0.2
    bg_multiple: 2
    sample_mode: "bootstrap"
    pos_neg_weighted: true
  }
}
layer {
  name: "detection_accuracy_2_3x5"
  type: "DetectionAccuracy"
  bottom: "LFCN_2_3x5"
  bottom: "label_2_3x5"
  top: "accuracy_2_3x5"
  top: "boxiou_2_3x5"
  detection_accuracy_param {
    cls_num: 2
    coord_num: 4
    field_h: 120
    field_w: 60
    downsample_rate: 16
    field_whr: 2
    field_xyr: 2
  }
}
layer {
  name: "LFCN_2_5x7"
  type: "Convolution"
  bottom: "conv5_3"
  top: "LFCN_2_5x7"
  param {
    lr_mult: 1
    decay_mult: 1
  }
  param {
    lr_mult: 2
    decay_mult: 0
  }
  convolution_param {
    num_output: 6
    weight_filler {
      type: "gaussian"
      std: 0.001
    }
    bias_filler {
      type: "constant"
    }
    pad_h: 3
    pad_w: 2
    kernel_h: 7
    kernel_w: 5
  }
}
layer {
  name: "detection_loss_2_5x7"
  type: "Detection"
  bottom: "LFCN_2_5x7"
  bottom: "label_2_5x7"
  top: "loss_2_5x7"
  detection_param {
    cls_num: 2
    coord_num: 4
    lambda: 1
    field_h: 168
    field_w: 84
    downsample_rate: 16
    bb_smooth: true
    field_whr: 2
    field_xyr: 2
    bg_threshold: 0.2
    bg_multiple: 2
    sample_mode: "bootstrap"
    pos_neg_weighted: true
  }
}
layer {
  name: "detection_accuracy_2_5x7"
  type: "DetectionAccuracy"
  bottom: "LFCN_2_5x7"
  bottom: "label_2_5x7"
  top: "accuracy_2_5x7"
  top: "boxiou_2_5x7"
  detection_accuracy_param {
    cls_num: 2
    coord_num: 4
    field_h: 168
    field_w: 84
    downsample_rate: 16
    field_whr: 2
    field_xyr: 2
  }
}
layer {
  name: "pool5"
  type: "Pooling"
  bottom: "conv5_3"
  top: "pool5"
  pooling_param {
    pool: MAX
    kernel_size: 2
    stride: 2
  }
}
layer {
  name: "conv6_1"
  type: "Convolution"
  bottom: "pool5"
  top: "conv6_1"
  param {
    lr_mult: 1
    decay_mult: 1
  }
  param {
    lr_mult: 2
    decay_mult: 0
  }
  convolution_param {
    num_output: 512
    pad: 1
    kernel_size: 3
    weight_filler {
      type: "gaussian"
      std: 0.01
    }
    bias_filler {
      type: "constant"
    }
  }
}
layer {
  name: "relu6_1"
  type: "ReLU"
  bottom: "conv6_1"
  top: "conv6_1"
}
layer {
  name: "LFCN_3_3x5"
  type: "Convolution"
  bottom: "conv6_1"
  top: "LFCN_3_3x5"
  param {
    lr_mult: 1
    decay_mult: 1
  }
  param {
    lr_mult: 2
    decay_mult: 0
  }
  convolution_param {
    num_output: 6
    weight_filler {
      type: "gaussian"
      std: 0.001
    }
    bias_filler {
      type: "constant"
    }
    pad_h: 2
    pad_w: 1
    kernel_h: 5
    kernel_w: 3
  }
}
layer {
  name: "detection_loss_3_3x5"
  type: "Detection"
  bottom: "LFCN_3_3x5"
  bottom: "label_3_3x5"
  top: "loss_3_3x5"
  detection_param {
    cls_num: 2
    coord_num: 4
    lambda: 1
    field_h: 240
    field_w: 120
    downsample_rate: 32
    bb_smooth: true
    field_whr: 2
    field_xyr: 2
    bg_threshold: 0.2
    bg_multiple: 2
    sample_mode: "bootstrap"
    pos_neg_weighted: true
  }
}
layer {
  name: "detection_accuracy_3_3x5"
  type: "DetectionAccuracy"
  bottom: "LFCN_3_3x5"
  bottom: "label_3_3x5"
  top: "accuracy_3_3x5"
  top: "boxiou_3_3x5"
  detection_accuracy_param {
    cls_num: 2
    coord_num: 4
    field_h: 240
    field_w: 120
    downsample_rate: 32
    field_whr: 2
    field_xyr: 2
  }
}
layer {
  name: "LFCN_3_5x7"
  type: "Convolution"
  bottom: "conv6_1"
  top: "LFCN_3_5x7"
  param {
    lr_mult: 1
    decay_mult: 1
  }
  param {
    lr_mult: 2
    decay_mult: 0
  }
  convolution_param {
    num_output: 6
    weight_filler {
      type: "gaussian"
      std: 0.001
    }
    bias_filler {
      type: "constant"
    }
    pad_h: 3
    pad_w: 2
    kernel_h: 7
    kernel_w: 5
  }
}
layer {
  name: "detection_loss_3_5x7"
  type: "Detection"
  bottom: "LFCN_3_5x7"
  bottom: "label_3_5x7"
  top: "loss_3_5x7"
  detection_param {
    cls_num: 2
    coord_num: 4
    lambda: 1
    field_h: 336
    field_w: 168
    downsample_rate: 32
    bb_smooth: true
    field_whr: 2
    field_xyr: 2
    bg_threshold: 0.2
    bg_multiple: 2
    sample_mode: "bootstrap"
    pos_neg_weighted: true
  }
}
layer {
  name: "detection_accuracy_3_5x7"
  type: "DetectionAccuracy"
  bottom: "LFCN_3_5x7"
  bottom: "label_3_5x7"
  top: "accuracy_3_5x7"
  top: "boxiou_3_5x7"
  detection_accuracy_param {
    cls_num: 2
    coord_num: 4
    field_h: 336
    field_w: 168
    downsample_rate: 32
    field_whr: 2
    field_xyr: 2
  }
}
layer {
  name: "pool6"
  type: "Pooling"
  bottom: "conv6_1"
  top: "pool6"
  pooling_param {
    pool: MAX
    kernel_size: 2
    stride: 2
  }
}
layer {
  name: "LFCN_4_3x5"
  type: "Convolution"
  bottom: "pool6"
  top: "LFCN_4_3x5"
  param {
    lr_mult: 1
    decay_mult: 1
  }
  param {
    lr_mult: 2
    decay_mult: 0
  }
  convolution_param {
    num_output: 6
    weight_filler {
      type: "gaussian"
      std: 0.001
    }
    bias_filler {
      type: "constant"
    }
    pad_h: 2
    pad_w: 1
    kernel_h: 5
    kernel_w: 3
  }
}
layer {
  name: "detection_loss_4_3x5"
  type: "Detection"
  bottom: "LFCN_4_3x5"
  bottom: "label_4_3x5"
  top: "loss_4_3x5"
  detection_param {
    cls_num: 2
    coord_num: 4
    lambda: 1
    field_h: 480
    field_w: 240
    downsample_rate: 64
    bb_smooth: true
    field_whr: 2
    field_xyr: 2
    bg_threshold: 0.2
    bg_multiple: 2
    sample_mode: "bootstrap"
    pos_neg_weighted: true
  }
}
layer {
  name: "detection_accuracy_4_3x5"
  type: "DetectionAccuracy"
  bottom: "LFCN_4_3x5"
  bottom: "label_4_3x5"
  top: "accuracy_4_3x5"
  top: "boxiou_4_3x5"
  detection_accuracy_param {
    cls_num: 2
    coord_num: 4
    field_h: 480
    field_w: 240
    downsample_rate: 64
    field_whr: 2
    field_xyr: 2
  }
}
layer {
  name: "proposals"
  type: "BoxOutput"
  bottom: "LFCN_1_3x5"
  bottom: "LFCN_1_5x7"
  bottom: "LFCN_2_3x5"
  bottom: "LFCN_2_5x7"
  bottom: "LFCN_3_3x5"
  bottom: "LFCN_3_5x7"
  bottom: "LFCN_4_3x5"
  top: "proposals"
  propagate_down: false
  propagate_down: false
  propagate_down: false
  propagate_down: false
  propagate_down: false
  propagate_down: false
  propagate_down: false
  box_output_param {
    fg_thr: -10
    iou_thr: 0.65
    nms_type: "IOU"
    field_h: 60
    field_h: 84
    field_h: 120
    field_h: 168
    field_h: 240
    field_h: 336
    field_h: 480
    field_w: 30
    field_w: 42
    field_w: 60
    field_w: 84
    field_w: 120
    field_w: 168
    field_w: 240
    downsample_rate: 8
    downsample_rate: 8
    downsample_rate: 16
    downsample_rate: 16
    downsample_rate: 32
    downsample_rate: 32
    downsample_rate: 64
    field_whr: 2
    field_xyr: 2
    max_nms_num: 3000
  }
}
layer {
  name: "proposal_info"
  type: "ProposalTarget"
  bottom: "proposals"
  bottom: "gt_boxes"
  top: "rois"
  top: "proposal_labels"
  top: "proposal_targets"
  top: "box_inside_weights"
  top: "box_outside_weights"
  top: "match_gt_boxes"
  include {
    phase: TRAIN
  }
  propagate_down: false
  propagate_down: false
  proposal_target_param {
    cls_num: 2
    batch_size: 128
    fg_fraction: 0.25
    num_img_per_batch: 4
    fg_thr: 0.45
    bg_thr_hg: 0.44
    bg_thr_lw: 0.05
    img_width: 576
    img_height: 576
    bbox_mean: 0
    bbox_mean: 0
    bbox_mean: 0
    bbox_mean: 0
    bbox_std: 0.1
    bbox_std: 0.1
    bbox_std: 0.2
    bbox_std: 0.2
  }
}
layer {
  name: "roi_pool_org"
  type: "ROIPooling"
  bottom: "conv4_3"
  bottom: "rois"
  top: "roi_pool_org"
  roi_pooling_param {
    pooled_h: 8
    pooled_w: 4
    spatial_scale: 0.125
    pad_ratio: 0
  }
}
layer {
  name: "roi_pool_ctx"
  type: "ROIPooling"
  bottom: "conv4_3"
  bottom: "rois"
  top: "roi_pool_ctx"
  roi_pooling_param {
    pooled_h: 8
    pooled_w: 4
    spatial_scale: 0.125
    pad_ratio: 0.25
  }
}
layer {
  name: "roi_pool"
  type: "Concat"
  bottom: "roi_pool_org"
  bottom: "roi_pool_ctx"
  top: "roi_pool"
}
layer {
  name: "roi_c1"
  type: "Convolution"
  bottom: "roi_pool"
  top: "roi_c1"
  param {
    lr_mult: 1
    decay_mult: 1
  }
  param {
    lr_mult: 2
    decay_mult: 0
  }
  convolution_param {
    num_output: 512
    pad: 1
    kernel_size: 3
    weight_filler {
      type: "gaussian"
      std: 0.01
    }
    bias_filler {
      type: "constant"
    }
  }
}
layer {
  name: "roi_c1_relu"
  type: "ReLU"
  bottom: "roi_c1"
  top: "roi_c1"
}
layer {
  name: "fc6"
  type: "InnerProduct"
  bottom: "roi_c1"
  top: "fc6"
  param {
    lr_mult: 1
  }
  param {
    lr_mult: 2
  }
  inner_product_param {
    num_output: 2048
    weight_filler {
      type: "gaussian"
      std: 0.001
    }
    bias_filler {
      type: "constant"
      value: 0
    }
  }
}
layer {
  name: "relu6"
  type: "ReLU"
  bottom: "fc6"
  top: "fc6"
}
layer {
  name: "drop6"
  type: "Dropout"
  bottom: "fc6"
  top: "fc6"
  dropout_param {
    dropout_ratio: 0.5
  }
}
layer {
  name: "cls_pred"
  type: "InnerProduct"
  bottom: "fc6"
  top: "cls_pred"
  param {
    lr_mult: 1
  }
  param {
    lr_mult: 2
  }
  inner_product_param {
    num_output: 2
    weight_filler {
      type: "gaussian"
      std: 0.01
    }
    bias_filler {
      type: "constant"
      value: 0
    }
  }
}
layer {
  name: "bbox_pred"
  type: "InnerProduct"
  bottom: "fc6"
  top: "bbox_pred"
  param {
    lr_mult: 1
  }
  param {
    lr_mult: 2
  }
  inner_product_param {
    num_output: 8
    weight_filler {
      type: "gaussian"
      std: 0.001
    }
    bias_filler {
      type: "constant"
      value: 0
    }
  }
}
layer {
  name: "loss_cls"
  type: "SoftmaxWithLoss"
  bottom: "cls_pred"
  bottom: "proposal_labels"
  top: "loss_cls"
  loss_weight: 1
  propagate_down: true
  propagate_down: false
}
layer {
  name: "cls_accuracy"
  type: "Accuracy"
  bottom: "cls_pred"
  bottom: "proposal_labels"
  top: "cls_accuracy"
}
layer {
  name: "loss_bbox"
  type: "SmoothL1Loss"
  bottom: "bbox_pred"
  bottom: "proposal_targets"
  bottom: "box_inside_weights"
  bottom: "box_outside_weights"
  top: "loss_bbox"
  loss_weight: 1
}
layer {
  name: "bbox_iou"
  type: "BboxAccuracy"
  bottom: "bbox_pred"
  bottom: "rois"
  bottom: "match_gt_boxes"
  top: "bbox_iou"
  top: "bbox_iou_pre"
  bbox_accuracy_param {
    bbox_mean: 0
    bbox_mean: 0
    bbox_mean: 0
    bbox_mean: 0
    bbox_std: 0.1
    bbox_std: 0.1
    bbox_std: 0.2
    bbox_std: 0.2
  }
}
I1014 18:07:39.888259 19582 layer_factory.hpp:76] Creating layer data
I1014 18:07:39.888304 19582 net.cpp:106] Creating Layer data
I1014 18:07:39.888320 19582 net.cpp:411] data -> data
…
I1014 18:07:40.189828 19582 image_gt_data_layer.cpp:234] output label size 2 : 4,6,36,36
I1014 18:07:40.189882 19582 image_gt_data_layer.cpp:234] output label size 3 : 4,6,36,36
I1014 18:07:40.189941 19582 image_gt_data_layer.cpp:234] output label size 4 : 4,6,18,18
I1014 18:07:40.189988 19582 image_gt_data_layer.cpp:234] output label size 5 : 4,6,18,18
I1014 18:07:40.190035 19582 image_gt_data_layer.cpp:234] output label size 6 : 4,6,9,9
I1014 18:07:40.190084 19582 image_gt_data_layer.cpp:249] output gt boxes size: 1,7,1,1
I1014 18:07:40.224221 19582 net.cpp:150] Setting up data
I1014 18:07:40.224256 19582 net.cpp:157] Top shape: 4 3 576 576 (3981312)
I1014 18:07:40.224261 19582 net.cpp:157] Top shape: 4 6 72 72 (124416)
I1014 18:07:40.224266 19582 net.cpp:157] Top shape: 4 6 72 72 (124416)
I1014 18:07:40.224269 19582 net.cpp:157] Top shape: 4 6 36 36 (31104)
I1014 18:07:40.224273 19582 net.cpp:157] Top shape: 4 6 36 36 (31104)
I1014 18:07:40.224277 19582 net.cpp:157] Top shape: 4 6 18 18 (7776)
I1014 18:07:40.224280 19582 net.cpp:157] Top shape: 4 6 18 18 (7776)
I1014 18:07:40.224284 19582 net.cpp:157] Top shape: 4 6 9 9 (1944)
I1014 18:07:40.224289 19582 net.cpp:157] Top shape: 1 7 1 1 (7)
I1014 18:07:40.224293 19582 net.cpp:165] Memory required for data: 17239420
I1014 18:07:40.224304 19582 layer_factory.hpp:76] Creating layer label_1_3x5_data_1_split
I1014 18:07:40.224328 19582 net.cpp:106] Creating Layer label_1_3x5_data_1_split
I1014 18:07:40.224334 19582 net.cpp:454] label_1_3x5_data_1_split <- label_1_3x5
I1014 18:07:40.224351 19582 net.cpp:411] label_1_3x5_data_1_split -> label_1_3x5_data_1_split_0
I1014 18:07:40.224361 19582 net.cpp:411] label_1_3x5_data_1_split -> label_1_3x5_data_1_split_1
I1014 18:07:40.224426 19582 net.cpp:150] Setting up label_1_3x5_data_1_split
I1014 18:07:40.224432 19582 net.cpp:157] Top shape: 4 6 72 72 (124416)
I1014 18:07:40.224436 19582 net.cpp:157] Top shape: 4 6 72 72 (124416)
I1014 18:07:40.224438 19582 net.cpp:165] Memory required for data: 18234748
I1014 18:07:40.224442 19582 layer_factory.hpp:76] Creating layer label_1_5x7_data_2_split
I1014 18:07:40.224449 19582 net.cpp:106] Creating Layer label_1_5x7_data_2_split
I1014 18:07:40.224453 19582 net.cpp:454] label_1_5x7_data_2_split <- label_1_5x7
I1014 18:07:40.224460 19582 net.cpp:411] label_1_5x7_data_2_split -> label_1_5x7_data_2_split_0
I1014 18:07:40.224470 19582 net.cpp:411] label_1_5x7_data_2_split -> label_1_5x7_data_2_split_1
I1014 18:07:40.224545 19582 net.cpp:150] Setting up label_1_5x7_data_2_split
I1014 18:07:40.224553 19582 net.cpp:157] Top shape: 4 6 72 72 (124416)
I1014 18:07:40.224557 19582 net.cpp:157] Top shape: 4 6 72 72 (124416)
I1014 18:07:40.224560 19582 net.cpp:165] Memory required for data: 19230076
I1014 18:07:40.224563 19582 layer_factory.hpp:76] Creating layer label_2_3x5_data_3_split
I1014 18:07:40.224568 19582 net.cpp:106] Creating Layer label_2_3x5_data_3_split
I1014 18:07:40.224571 19582 net.cpp:454] label_2_3x5_data_3_split <- label_2_3x5
I1014 18:07:40.224578 19582 net.cpp:411] label_2_3x5_data_3_split -> label_2_3x5_data_3_split_0
I1014 18:07:40.224583 19582 net.cpp:411] label_2_3x5_data_3_split -> label_2_3x5_data_3_split_1
I1014 18:07:40.224642 19582 net.cpp:150] Setting up label_2_3x5_data_3_split
I1014 18:07:40.224649 19582 net.cpp:157] Top shape: 4 6 36 36 (31104)
I1014 18:07:40.224653 19582 net.cpp:157] Top shape: 4 6 36 36 (31104)
I1014 18:07:40.224655 19582 net.cpp:165] Memory required for data: 19478908
I1014 18:07:40.224658 19582 layer_factory.hpp:76] Creating layer label_2_5x7_data_4_split
I1014 18:07:40.224666 19582 net.cpp:106] Creating Layer label_2_5x7_data_4_split
I1014 18:07:40.224669 19582 net.cpp:454] label_2_5x7_data_4_split <- label_2_5x7
I1014 18:07:40.224676 19582 net.cpp:411] label_2_5x7_data_4_split -> label_2_5x7_data_4_split_0
I1014 18:07:40.224683 19582 net.cpp:411] label_2_5x7_data_4_split -> label_2_5x7_data_4_split_1
I1014 18:07:40.224721 19582 net.cpp:150] Setting up label_2_5x7_data_4_split
I1014 18:07:40.224730 19582 net.cpp:157] Top shape: 4 6 36 36 (31104)
I1014 18:07:40.224733 19582 net.cpp:157] Top shape: 4 6 36 36 (31104)
I1014 18:07:40.224735 19582 net.cpp:165] Memory required for data: 19727740
I1014 18:07:40.224738 19582 layer_factory.hpp:76] Creating layer label_3_3x5_data_5_split
I1014 18:07:40.224743 19582 net.cpp:106] Creating Layer label_3_3x5_data_5_split
I1014 18:07:40.224746 19582 net.cpp:454] label_3_3x5_data_5_split <- label_3_3x5
I1014 18:07:40.224750 19582 net.cpp:411] label_3_3x5_data_5_split -> label_3_3x5_data_5_split_0
I1014 18:07:40.224756 19582 net.cpp:411] label_3_3x5_data_5_split -> label_3_3x5_data_5_split_1
I1014 18:07:40.224793 19582 net.cpp:150] Setting up label_3_3x5_data_5_split
I1014 18:07:40.224800 19582 net.cpp:157] Top shape: 4 6 18 18 (7776)
I1014 18:07:40.224803 19582 net.cpp:157] Top shape: 4 6 18 18 (7776)
I1014 18:07:40.224807 19582 net.cpp:165] Memory required for data: 19789948
I1014 18:07:40.224809 19582 layer_factory.hpp:76] Creating layer label_3_5x7_data_6_split
I1014 18:07:40.224815 19582 net.cpp:106] Creating Layer label_3_5x7_data_6_split
I1014 18:07:40.224818 19582 net.cpp:454] label_3_5x7_data_6_split <- label_3_5x7
I1014 18:07:40.224822 19582 net.cpp:411] label_3_5x7_data_6_split -> label_3_5x7_data_6_split_0
I1014 18:07:40.224828 19582 net.cpp:411] label_3_5x7_data_6_split -> label_3_5x7_data_6_split_1
I1014 18:07:40.224860 19582 net.cpp:150] Setting up label_3_5x7_data_6_split
I1014 18:07:40.224865 19582 net.cpp:157] Top shape: 4 6 18 18 (7776)
I1014 18:07:40.224869 19582 net.cpp:157] Top shape: 4 6 18 18 (7776)
I1014 18:07:40.224871 19582 net.cpp:165] Memory required for data: 19852156
I1014 18:07:40.224874 19582 layer_factory.hpp:76] Creating layer label_4_3x5_data_7_split
I1014 18:07:40.224879 19582 net.cpp:106] Creating Layer label_4_3x5_data_7_split
I1014 18:07:40.224882 19582 net.cpp:454] label_4_3x5_data_7_split <- label_4_3x5
I1014 18:07:40.224886 19582 net.cpp:411] label_4_3x5_data_7_split -> label_4_3x5_data_7_split_0
I1014 18:07:40.224890 19582 net.cpp:411] label_4_3x5_data_7_split -> label_4_3x5_data_7_split_1
I1014 18:07:40.224920 19582 net.cpp:150] Setting up label_4_3x5_data_7_split
I1014 18:07:40.224926 19582 net.cpp:157] Top shape: 4 6 9 9 (1944)
I1014 18:07:40.224931 19582 net.cpp:157] Top shape: 4 6 9 9 (1944)
I1014 18:07:40.224932 19582 net.cpp:165] Memory required for data: 19867708
I1014 18:07:40.224936 19582 layer_factory.hpp:76] Creating layer conv1_1
I1014 18:07:40.224946 19582 net.cpp:106] Creating Layer conv1_1
I1014 18:07:40.224949 19582 net.cpp:454] conv1_1 <- data
I1014 18:07:40.224954 19582 net.cpp:411] conv1_1 -> conv1_1
I1014 18:07:40.347462 19582 net.cpp:150] Setting up conv1_1
I1014 18:07:40.347491 19582 net.cpp:157] Top shape: 4 64 576 576 (84934656)
I1014 18:07:40.347494 19582 net.cpp:165] Memory required for data: 359606332
I1014 18:07:40.347514 19582 layer_factory.hpp:76] Creating layer relu1_1
I1014 18:07:40.347525 19582 net.cpp:106] Creating Layer relu1_1
I1014 18:07:40.347530 19582 net.cpp:454] relu1_1 <- conv1_1
I1014 18:07:40.347537 19582 net.cpp:397] relu1_1 -> conv1_1 (in-place)
I1014 18:07:40.347738 19582 net.cpp:150] Setting up relu1_1
I1014 18:07:40.347750 19582 net.cpp:157] Top shape: 4 64 576 576 (84934656)
I1014 18:07:40.347754 19582 net.cpp:165] Memory required for data: 699344956
I1014 18:07:40.347759 19582 layer_factory.hpp:76] Creating layer conv1_2
I1014 18:07:40.347767 19582 net.cpp:106] Creating Layer conv1_2
I1014 18:07:40.347770 19582 net.cpp:454] conv1_2 <- conv1_1
I1014 18:07:40.347776 19582 net.cpp:411] conv1_2 -> conv1_2
I1014 18:07:40.349951 19582 net.cpp:150] Setting up conv1_2
I1014 18:07:40.349966 19582 net.cpp:157] Top shape: 4 64 576 576 (84934656)
I1014 18:07:40.349969 19582 net.cpp:165] Memory required for data: 1039083580
I1014 18:07:40.349982 19582 layer_factory.hpp:76] Creating layer relu1_2
I1014 18:07:40.349992 19582 net.cpp:106] Creating Layer relu1_2
I1014 18:07:40.349997 19582 net.cpp:454] relu1_2 <- conv1_2
I1014 18:07:40.350002 19582 net.cpp:397] relu1_2 -> conv1_2 (in-place)
I1014 18:07:40.350378 19582 net.cpp:150] Setting up relu1_2
I1014 18:07:40.350390 19582 net.cpp:157] Top shape: 4 64 576 576 (84934656)
I1014 18:07:40.350394 19582 net.cpp:165] Memory required for data: 1378822204
I1014 18:07:40.350397 19582 layer_factory.hpp:76] Creating layer pool1
I1014 18:07:40.350406 19582 net.cpp:106] Creating Layer pool1
I1014 18:07:40.350409 19582 net.cpp:454] pool1 <- conv1_2
I1014 18:07:40.350419 19582 net.cpp:411] pool1 -> pool1
I1014 18:07:40.350664 19582 net.cpp:150] Setting up pool1
I1014 18:07:40.350677 19582 net.cpp:157] Top shape: 4 64 288 288 (21233664)
I1014 18:07:40.350679 19582 net.cpp:165] Memory required for data: 1463756860
I1014 18:07:40.350683 19582 layer_factory.hpp:76] Creating layer conv2_1
I1014 18:07:40.350692 19582 net.cpp:106] Creating Layer conv2_1
I1014 18:07:40.350697 19582 net.cpp:454] conv2_1 <- pool1
I1014 18:07:40.350703 19582 net.cpp:411] conv2_1 -> conv2_1
I1014 18:07:40.352569 19582 net.cpp:150] Setting up conv2_1
I1014 18:07:40.352586 19582 net.cpp:157] Top shape: 4 128 288 288 (42467328)
I1014 18:07:40.352589 19582 net.cpp:165] Memory required for data: 1633626172
I1014 18:07:40.352599 19582 layer_factory.hpp:76] Creating layer relu2_1
I1014 18:07:40.352605 19582 net.cpp:106] Creating Layer relu2_1
I1014 18:07:40.352609 19582 net.cpp:454] relu2_1 <- conv2_1
I1014 18:07:40.352614 19582 net.cpp:397] relu2_1 -> conv2_1 (in-place)
I1014 18:07:40.352982 19582 net.cpp:150] Setting up relu2_1
I1014 18:07:40.352996 19582 net.cpp:157] Top shape: 4 128 288 288 (42467328)
I1014 18:07:40.352999 19582 net.cpp:165] Memory required for data: 1803495484
I1014 18:07:40.353003 19582 layer_factory.hpp:76] Creating layer conv2_2
I1014 18:07:40.353011 19582 net.cpp:106] Creating Layer conv2_2
I1014 18:07:40.353015 19582 net.cpp:454] conv2_2 <- conv2_1
I1014 18:07:40.353021 19582 net.cpp:411] conv2_2 -> conv2_2
I1014 18:07:40.354761 19582 net.cpp:150] Setting up conv2_2
I1014 18:07:40.354776 19582 net.cpp:157] Top shape: 4 128 288 288 (42467328)
I1014 18:07:40.354779 19582 net.cpp:165] Memory required for data: 1973364796
I1014 18:07:40.354786 19582 layer_factory.hpp:76] Creating layer relu2_2
I1014 18:07:40.354796 19582 net.cpp:106] Creating Layer relu2_2
I1014 18:07:40.354800 19582 net.cpp:454] relu2_2 <- conv2_2
I1014 18:07:40.354805 19582 net.cpp:397] relu2_2 -> conv2_2 (in-place)
I1014 18:07:40.355171 19582 net.cpp:150] Setting up relu2_2
I1014 18:07:40.355185 19582 net.cpp:157] Top shape: 4 128 288 288 (42467328)
I1014 18:07:40.355188 19582 net.cpp:165] Memory required for data: 2143234108
I1014 18:07:40.355192 19582 layer_factory.hpp:76] Creating layer pool2
I1014 18:07:40.355201 19582 net.cpp:106] Creating Layer pool2
I1014 18:07:40.355203 19582 net.cpp:454] pool2 <- conv2_2
I1014 18:07:40.355211 19582 net.cpp:411] pool2 -> pool2
I1014 18:07:40.355419 19582 net.cpp:150] Setting up pool2
I1014 18:07:40.355430 19582 net.cpp:157] Top shape: 4 128 144 144 (10616832)
I1014 18:07:40.355433 19582 net.cpp:165] Memory required for data: 2185701436
I1014 18:07:40.355437 19582 layer_factory.hpp:76] Creating layer conv3_1
I1014 18:07:40.355448 19582 net.cpp:106] Creating Layer conv3_1
I1014 18:07:40.355451 19582 net.cpp:454] conv3_1 <- pool2
I1014 18:07:40.355458 19582 net.cpp:411] conv3_1 -> conv3_1
I1014 18:07:40.357483 19582 net.cpp:150] Setting up conv3_1
I1014 18:07:40.357498 19582 net.cpp:157] Top shape: 4 256 144 144 (21233664)
I1014 18:07:40.357502 19582 net.cpp:165] Memory required for data: 2270636092
I1014 18:07:40.357514 19582 layer_factory.hpp:76] Creating layer relu3_1
I1014 18:07:40.357520 19582 net.cpp:106] Creating Layer relu3_1
I1014 18:07:40.357524 19582 net.cpp:454] relu3_1 <- conv3_1
I1014 18:07:40.357529 19582 net.cpp:397] relu3_1 -> conv3_1 (in-place)
I1014 18:07:40.357880 19582 net.cpp:150] Setting up relu3_1
I1014 18:07:40.357895 19582 net.cpp:157] Top shape: 4 256 144 144 (21233664)
I1014 18:07:40.357898 19582 net.cpp:165] Memory required for data: 2355570748
I1014 18:07:40.357903 19582 layer_factory.hpp:76] Creating layer conv3_2
I1014 18:07:40.357908 19582 net.cpp:106] Creating Layer conv3_2
I1014 18:07:40.357913 19582 net.cpp:454] conv3_2 <- conv3_1
I1014 18:07:40.357921 19582 net.cpp:411] conv3_2 -> conv3_2
I1014 18:07:40.361388 19582 net.cpp:150] Setting up conv3_2
I1014 18:07:40.361405 19582 net.cpp:157] Top shape: 4 256 144 144 (21233664)
I1014 18:07:40.361409 19582 net.cpp:165] Memory required for data: 2440505404
I1014 18:07:40.361418 19582 layer_factory.hpp:76] Creating layer relu3_2
I1014 18:07:40.361423 19582 net.cpp:106] Creating Layer relu3_2
I1014 18:07:40.361426 19582 net.cpp:454] relu3_2 <- conv3_2
I1014 18:07:40.361433 19582 net.cpp:397] relu3_2 -> conv3_2 (in-place)
I1014 18:07:40.361621 19582 net.cpp:150] Setting up relu3_2
I1014 18:07:40.361629 19582 net.cpp:157] Top shape: 4 256 144 144 (21233664)
I1014 18:07:40.361632 19582 net.cpp:165] Memory required for data: 2525440060
I1014 18:07:40.361635 19582 layer_factory.hpp:76] Creating layer conv3_3
I1014 18:07:40.361644 19582 net.cpp:106] Creating Layer conv3_3
I1014 18:07:40.361647 19582 net.cpp:454] conv3_3 <- conv3_2
I1014 18:07:40.361652 19582 net.cpp:411] conv3_3 -> conv3_3
I1014 18:07:40.364296 19582 net.cpp:150] Setting up conv3_3
I1014 18:07:40.364311 19582 net.cpp:157] Top shape: 4 256 144 144 (21233664)
I1014 18:07:40.364315 19582 net.cpp:165] Memory required for data: 2610374716
I1014 18:07:40.364322 19582 layer_factory.hpp:76] Creating layer relu3_3
I1014 18:07:40.364328 19582 net.cpp:106] Creating Layer relu3_3
I1014 18:07:40.364332 19582 net.cpp:454] relu3_3 <- conv3_3
I1014 18:07:40.364339 19582 net.cpp:397] relu3_3 -> conv3_3 (in-place)
I1014 18:07:40.364523 19582 net.cpp:150] Setting up relu3_3
I1014 18:07:40.364534 19582 net.cpp:157] Top shape: 4 256 144 144 (21233664)
I1014 18:07:40.364537 19582 net.cpp:165] Memory required for data: 2695309372
I1014 18:07:40.364542 19582 layer_factory.hpp:76] Creating layer pool3
I1014 18:07:40.364547 19582 net.cpp:106] Creating Layer pool3
I1014 18:07:40.364549 19582 net.cpp:454] pool3 <- conv3_3
I1014 18:07:40.364554 19582 net.cpp:411] pool3 -> pool3
I1014 18:07:40.364948 19582 net.cpp:150] Setting up pool3
I1014 18:07:40.364962 19582 net.cpp:157] Top shape: 4 256 72 72 (5308416)
I1014 18:07:40.364965 19582 net.cpp:165] Memory required for data: 2716543036
I1014 18:07:40.364969 19582 layer_factory.hpp:76] Creating layer conv4_1
I1014 18:07:40.364977 19582 net.cpp:106] Creating Layer conv4_1
I1014 18:07:40.364981 19582 net.cpp:454] conv4_1 <- pool3
I1014 18:07:40.364989 19582 net.cpp:411] conv4_1 -> conv4_1
I1014 18:07:40.369487 19582 net.cpp:150] Setting up conv4_1
I1014 18:07:40.369503 19582 net.cpp:157] Top shape: 4 512 72 72 (10616832)
I1014 18:07:40.369505 19582 net.cpp:165] Memory required for data: 2759010364
I1014 18:07:40.369513 19582 layer_factory.hpp:76] Creating layer relu4_1
I1014 18:07:40.369519 19582 net.cpp:106] Creating Layer relu4_1
I1014 18:07:40.369524 19582 net.cpp:454] relu4_1 <- conv4_1
I1014 18:07:40.369529 19582 net.cpp:397] relu4_1 -> conv4_1 (in-place)
I1014 18:07:40.369705 19582 net.cpp:150] Setting up relu4_1
I1014 18:07:40.369719 19582 net.cpp:157] Top shape: 4 512 72 72 (10616832)
I1014 18:07:40.369721 19582 net.cpp:165] Memory required for data: 2801477692
I1014 18:07:40.369725 19582 layer_factory.hpp:76] Creating layer conv4_2
I1014 18:07:40.369731 19582 net.cpp:106] Creating Layer conv4_2
I1014 18:07:40.369735 19582 net.cpp:454] conv4_2 <- conv4_1
I1014 18:07:40.369741 19582 net.cpp:411] conv4_2 -> conv4_2
I1014 18:07:40.376382 19582 net.cpp:150] Setting up conv4_2
I1014 18:07:40.376400 19582 net.cpp:157] Top shape: 4 512 72 72 (10616832)
I1014 18:07:40.376405 19582 net.cpp:165] Memory required for data: 2843945020
I1014 18:07:40.376418 19582 layer_factory.hpp:76] Creating layer relu4_2
I1014 18:07:40.376427 19582 net.cpp:106] Creating Layer relu4_2
I1014 18:07:40.376431 19582 net.cpp:454] relu4_2 <- conv4_2
I1014 18:07:40.376436 19582 net.cpp:397] relu4_2 -> conv4_2 (in-place)
I1014 18:07:40.376794 19582 net.cpp:150] Setting up relu4_2
I1014 18:07:40.376808 19582 net.cpp:157] Top shape: 4 512 72 72 (10616832)
I1014 18:07:40.376811 19582 net.cpp:165] Memory required for data: 2886412348
I1014 18:07:40.376816 19582 layer_factory.hpp:76] Creating layer conv4_3
I1014 18:07:40.376824 19582 net.cpp:106] Creating Layer conv4_3
I1014 18:07:40.376827 19582 net.cpp:454] conv4_3 <- conv4_2
I1014 18:07:40.376833 19582 net.cpp:411] conv4_3 -> conv4_3
I1014 18:07:40.383159 19582 net.cpp:150] Setting up conv4_3
I1014 18:07:40.383178 19582 net.cpp:157] Top shape: 4 512 72 72 (10616832)
I1014 18:07:40.383182 19582 net.cpp:165] Memory required for data: 2928879676
I1014 18:07:40.383188 19582 layer_factory.hpp:76] Creating layer relu4_3
I1014 18:07:40.383195 19582 net.cpp:106] Creating Layer relu4_3
I1014 18:07:40.383199 19582 net.cpp:454] relu4_3 <- conv4_3
I1014 18:07:40.383205 19582 net.cpp:397] relu4_3 -> conv4_3 (in-place)
I1014 18:07:40.383569 19582 net.cpp:150] Setting up relu4_3
I1014 18:07:40.383582 19582 net.cpp:157] Top shape: 4 512 72 72 (10616832)
I1014 18:07:40.383585 19582 net.cpp:165] Memory required for data: 2971347004
I1014 18:07:40.383589 19582 layer_factory.hpp:76] Creating layer conv4_3_relu4_3_0_split
I1014 18:07:40.383595 19582 net.cpp:106] Creating Layer conv4_3_relu4_3_0_split
I1014 18:07:40.383599 19582 net.cpp:454] conv4_3_relu4_3_0_split <- conv4_3
I1014 18:07:40.383605 19582 net.cpp:411] conv4_3_relu4_3_0_split -> conv4_3_relu4_3_0_split_0
I1014 18:07:40.383613 19582 net.cpp:411] conv4_3_relu4_3_0_split -> conv4_3_relu4_3_0_split_1
I1014 18:07:40.383618 19582 net.cpp:411] conv4_3_relu4_3_0_split -> conv4_3_relu4_3_0_split_2
I1014 18:07:40.383623 19582 net.cpp:411] conv4_3_relu4_3_0_split -> conv4_3_relu4_3_0_split_3
I1014 18:07:40.383697 19582 net.cpp:150] Setting up conv4_3_relu4_3_0_split
I1014 18:07:40.383702 19582 net.cpp:157] Top shape: 4 512 72 72 (10616832)
I1014 18:07:40.383705 19582 net.cpp:157] Top shape: 4 512 72 72 (10616832)
I1014 18:07:40.383709 19582 net.cpp:157] Top shape: 4 512 72 72 (10616832)
I1014 18:07:40.383713 19582 net.cpp:157] Top shape: 4 512 72 72 (10616832)
I1014 18:07:40.383715 19582 net.cpp:165] Memory required for data: 3141216316
I1014 18:07:40.383718 19582 layer_factory.hpp:76] Creating layer loss1_conv1
I1014 18:07:40.383733 19582 net.cpp:106] Creating Layer loss1_conv1
I1014 18:07:40.383736 19582 net.cpp:454] loss1_conv1 <- conv4_3_relu4_3_0_split_0
I1014 18:07:40.383743 19582 net.cpp:411] loss1_conv1 -> loss1_conv1
I1014 18:07:40.472065 19582 net.cpp:150] Setting up loss1_conv1
I1014 18:07:40.472095 19582 net.cpp:157] Top shape: 4 512 72 72 (10616832)
I1014 18:07:40.472098 19582 net.cpp:165] Memory required for data: 3183683644
I1014 18:07:40.472107 19582 layer_factory.hpp:76] Creating layer loss_relu1
I1014 18:07:40.472116 19582 net.cpp:106] Creating Layer loss_relu1
I1014 18:07:40.472123 19582 net.cpp:454] loss_relu1 <- loss1_conv1
I1014 18:07:40.472129 19582 net.cpp:397] loss_relu1 -> loss1_conv1 (in-place)
I1014 18:07:40.472335 19582 net.cpp:150] Setting up loss_relu1
I1014 18:07:40.472354 19582 net.cpp:157] Top shape: 4 512 72 72 (10616832)
I1014 18:07:40.472357 19582 net.cpp:165] Memory required for data: 3226150972
I1014 18:07:40.472362 19582 layer_factory.hpp:76] Creating layer loss1_conv1_loss_relu1_0_split
I1014 18:07:40.472368 19582 net.cpp:106] Creating Layer loss1_conv1_loss_relu1_0_split
I1014 18:07:40.472370 19582 net.cpp:454] loss1_conv1_loss_relu1_0_split <- loss1_conv1
I1014 18:07:40.472376 19582 net.cpp:411] loss1_conv1_loss_relu1_0_split -> loss1_conv1_loss_relu1_0_split_0
I1014 18:07:40.472383 19582 net.cpp:411] loss1_conv1_loss_relu1_0_split -> loss1_conv1_loss_relu1_0_split_1
I1014 18:07:40.472436 19582 net.cpp:150] Setting up loss1_conv1_loss_relu1_0_split
I1014 18:07:40.472443 19582 net.cpp:157] Top shape: 4 512 72 72 (10616832)
I1014 18:07:40.472447 19582 net.cpp:157] Top shape: 4 512 72 72 (10616832)
I1014 18:07:40.472450 19582 net.cpp:165] Memory required for data: 3311085628
I1014 18:07:40.472452 19582 layer_factory.hpp:76] Creating layer LFCN_1_3x5
I1014 18:07:40.472461 19582 net.cpp:106] Creating Layer LFCN_1_3x5
I1014 18:07:40.472465 19582 net.cpp:454] LFCN_1_3x5 <- loss1_conv1_loss_relu1_0_split_0
I1014 18:07:40.472472 19582 net.cpp:411] LFCN_1_3x5 -> LFCN_1_3x5
I1014 18:07:40.475646 19582 net.cpp:150] Setting up LFCN_1_3x5
I1014 18:07:40.475661 19582 net.cpp:157] Top shape: 4 6 72 72 (124416)
I1014 18:07:40.475666 19582 net.cpp:165] Memory required for data: 3311583292
I1014 18:07:40.475672 19582 layer_factory.hpp:76] Creating layer LFCN_1_3x5_LFCN_1_3x5_0_split
I1014 18:07:40.475678 19582 net.cpp:106] Creating Layer LFCN_1_3x5_LFCN_1_3x5_0_split
I1014 18:07:40.475684 19582 net.cpp:454] LFCN_1_3x5_LFCN_1_3x5_0_split <- LFCN_1_3x5
I1014 18:07:40.475692 19582 net.cpp:411] LFCN_1_3x5_LFCN_1_3x5_0_split -> LFCN_1_3x5_LFCN_1_3x5_0_split_0
I1014 18:07:40.475700 19582 net.cpp:411] LFCN_1_3x5_LFCN_1_3x5_0_split -> LFCN_1_3x5_LFCN_1_3x5_0_split_1
I1014 18:07:40.475705 19582 net.cpp:411] LFCN_1_3x5_LFCN_1_3x5_0_split -> LFCN_1_3x5_LFCN_1_3x5_0_split_2
I1014 18:07:40.475775 19582 net.cpp:150] Setting up LFCN_1_3x5_LFCN_1_3x5_0_split
I1014 18:07:40.475781 19582 net.cpp:157] Top shape: 4 6 72 72 (124416)
I1014 18:07:40.475785 19582 net.cpp:157] Top shape: 4 6 72 72 (124416)
I1014 18:07:40.475788 19582 net.cpp:157] Top shape: 4 6 72 72 (124416)
I1014 18:07:40.475790 19582 net.cpp:165] Memory required for data: 3313076284
I1014 18:07:40.475795 19582 layer_factory.hpp:76] Creating layer detection_loss_1_3x5
I1014 18:07:40.475802 19582 net.cpp:106] Creating Layer detection_loss_1_3x5
I1014 18:07:40.475807 19582 net.cpp:454] detection_loss_1_3x5 <- LFCN_1_3x5_LFCN_1_3x5_0_split_0
I1014 18:07:40.475811 19582 net.cpp:454] detection_loss_1_3x5 <- label_1_3x5_data_1_split_0
I1014 18:07:40.475816 19582 net.cpp:411] detection_loss_1_3x5 -> loss_1_3x5
I1014 18:07:40.475829 19582 layer_factory.hpp:76] Creating layer detection_loss_1_3x5
I1014 18:07:40.476440 19582 net.cpp:150] Setting up detection_loss_1_3x5
I1014 18:07:40.476455 19582 net.cpp:157] Top shape: 1 1 1 2 (2)
I1014 18:07:40.476459 19582 net.cpp:160]     with loss weight 0.9
I1014 18:07:40.476478 19582 net.cpp:165] Memory required for data: 3313076292
I1014 18:07:40.476481 19582 layer_factory.hpp:76] Creating layer detection_accuracy_1_3x5
I1014 18:07:40.476490 19582 net.cpp:106] Creating Layer detection_accuracy_1_3x5
I1014 18:07:40.476495 19582 net.cpp:454] detection_accuracy_1_3x5 <- LFCN_1_3x5_LFCN_1_3x5_0_split_1
I1014 18:07:40.476500 19582 net.cpp:454] detection_accuracy_1_3x5 <- label_1_3x5_data_1_split_1
I1014 18:07:40.476505 19582 net.cpp:411] detection_accuracy_1_3x5 -> accuracy_1_3x5
I1014 18:07:40.476513 19582 net.cpp:411] detection_accuracy_1_3x5 -> boxiou_1_3x5
I1014 18:07:40.476558 19582 net.cpp:150] Setting up detection_accuracy_1_3x5
I1014 18:07:40.476564 19582 net.cpp:157] Top shape: 1 1 1 2 (2)
I1014 18:07:40.476568 19582 net.cpp:157] Top shape: 1 1 1 1 (1)
I1014 18:07:40.476570 19582 net.cpp:165] Memory required for data: 3313076304
I1014 18:07:40.476573 19582 layer_factory.hpp:76] Creating layer LFCN_1_5x7
I1014 18:07:40.476583 19582 net.cpp:106] Creating Layer LFCN_1_5x7
I1014 18:07:40.476585 19582 net.cpp:454] LFCN_1_5x7 <- loss1_conv1_loss_relu1_0_split_1
I1014 18:07:40.476593 19582 net.cpp:411] LFCN_1_5x7 -> LFCN_1_5x7
I1014 18:07:40.482126 19582 net.cpp:150] Setting up LFCN_1_5x7
I1014 18:07:40.482141 19582 net.cpp:157] Top shape: 4 6 72 72 (124416)
I1014 18:07:40.482146 19582 net.cpp:165] Memory required for data: 3313573968
I1014 18:07:40.482152 19582 layer_factory.hpp:76] Creating layer LFCN_1_5x7_LFCN_1_5x7_0_split
I1014 18:07:40.482158 19582 net.cpp:106] Creating Layer LFCN_1_5x7_LFCN_1_5x7_0_split
I1014 18:07:40.482162 19582 net.cpp:454] LFCN_1_5x7_LFCN_1_5x7_0_split <- LFCN_1_5x7
I1014 18:07:40.482169 19582 net.cpp:411] LFCN_1_5x7_LFCN_1_5x7_0_split -> LFCN_1_5x7_LFCN_1_5x7_0_split_0
I1014 18:07:40.482177 19582 net.cpp:411] LFCN_1_5x7_LFCN_1_5x7_0_split -> LFCN_1_5x7_LFCN_1_5x7_0_split_1
I1014 18:07:40.482182 19582 net.cpp:411] LFCN_1_5x7_LFCN_1_5x7_0_split -> LFCN_1_5x7_LFCN_1_5x7_0_split_2
I1014 18:07:40.482241 19582 net.cpp:150] Setting up LFCN_1_5x7_LFCN_1_5x7_0_split
I1014 18:07:40.482246 19582 net.cpp:157] Top shape: 4 6 72 72 (124416)
I1014 18:07:40.482250 19582 net.cpp:157] Top shape: 4 6 72 72 (124416)
I1014 18:07:40.482254 19582 net.cpp:157] Top shape: 4 6 72 72 (124416)
I1014 18:07:40.482256 19582 net.cpp:165] Memory required for data: 3315066960
I1014 18:07:40.482259 19582 layer_factory.hpp:76] Creating layer detection_loss_1_5x7
I1014 18:07:40.482267 19582 net.cpp:106] Creating Layer detection_loss_1_5x7
I1014 18:07:40.482270 19582 net.cpp:454] detection_loss_1_5x7 <- LFCN_1_5x7_LFCN_1_5x7_0_split_0
I1014 18:07:40.482275 19582 net.cpp:454] detection_loss_1_5x7 <- label_1_5x7_data_2_split_0
I1014 18:07:40.482281 19582 net.cpp:411] detection_loss_1_5x7 -> loss_1_5x7
I1014 18:07:40.482288 19582 layer_factory.hpp:76] Creating layer detection_loss_1_5x7
I1014 18:07:40.482859 19582 net.cpp:150] Setting up detection_loss_1_5x7
I1014 18:07:40.482873 19582 net.cpp:157] Top shape: 1 1 1 2 (2)
I1014 18:07:40.482877 19582 net.cpp:160]     with loss weight 0.9
I1014 18:07:40.482890 19582 net.cpp:165] Memory required for data: 3315066968
I1014 18:07:40.482894 19582 layer_factory.hpp:76] Creating layer detection_accuracy_1_5x7
I1014 18:07:40.482900 19582 net.cpp:106] Creating Layer detection_accuracy_1_5x7
I1014 18:07:40.482904 19582 net.cpp:454] detection_accuracy_1_5x7 <- LFCN_1_5x7_LFCN_1_5x7_0_split_1
I1014 18:07:40.482911 19582 net.cpp:454] detection_accuracy_1_5x7 <- label_1_5x7_data_2_split_1
I1014 18:07:40.482916 19582 net.cpp:411] detection_accuracy_1_5x7 -> accuracy_1_5x7
I1014 18:07:40.482923 19582 net.cpp:411] detection_accuracy_1_5x7 -> boxiou_1_5x7
I1014 18:07:40.482970 19582 net.cpp:150] Setting up detection_accuracy_1_5x7
I1014 18:07:40.482976 19582 net.cpp:157] Top shape: 1 1 1 2 (2)
I1014 18:07:40.482980 19582 net.cpp:157] Top shape: 1 1 1 1 (1)
I1014 18:07:40.482982 19582 net.cpp:165] Memory required for data: 3315066980
I1014 18:07:40.482985 19582 layer_factory.hpp:76] Creating layer pool4
I1014 18:07:40.482991 19582 net.cpp:106] Creating Layer pool4
I1014 18:07:40.482995 19582 net.cpp:454] pool4 <- conv4_3_relu4_3_0_split_1
I1014 18:07:40.483001 19582 net.cpp:411] pool4 -> pool4
I1014 18:07:40.483398 19582 net.cpp:150] Setting up pool4
I1014 18:07:40.483412 19582 net.cpp:157] Top shape: 4 512 36 36 (2654208)
I1014 18:07:40.483415 19582 net.cpp:165] Memory required for data: 3325683812
I1014 18:07:40.483418 19582 layer_factory.hpp:76] Creating layer conv5_1
I1014 18:07:40.483428 19582 net.cpp:106] Creating Layer conv5_1
I1014 18:07:40.483431 19582 net.cpp:454] conv5_1 <- pool4
I1014 18:07:40.483436 19582 net.cpp:411] conv5_1 -> conv5_1
I1014 18:07:40.489682 19582 net.cpp:150] Setting up conv5_1
I1014 18:07:40.489697 19582 net.cpp:157] Top shape: 4 512 36 36 (2654208)
I1014 18:07:40.489701 19582 net.cpp:165] Memory required for data: 3336300644
I1014 18:07:40.489708 19582 layer_factory.hpp:76] Creating layer relu5_1
I1014 18:07:40.489715 19582 net.cpp:106] Creating Layer relu5_1
I1014 18:07:40.489720 19582 net.cpp:454] relu5_1 <- conv5_1
I1014 18:07:40.489727 19582 net.cpp:397] relu5_1 -> conv5_1 (in-place)
I1014 18:07:40.490092 19582 net.cpp:150] Setting up relu5_1
I1014 18:07:40.490104 19582 net.cpp:157] Top shape: 4 512 36 36 (2654208)
I1014 18:07:40.490108 19582 net.cpp:165] Memory required for data: 3346917476
I1014 18:07:40.490111 19582 layer_factory.hpp:76] Creating layer conv5_2
I1014 18:07:40.490119 19582 net.cpp:106] Creating Layer conv5_2
I1014 18:07:40.490123 19582 net.cpp:454] conv5_2 <- conv5_1
I1014 18:07:40.490128 19582 net.cpp:411] conv5_2 -> conv5_2
I1014 18:07:40.496666 19582 net.cpp:150] Setting up conv5_2
I1014 18:07:40.496682 19582 net.cpp:157] Top shape: 4 512 36 36 (2654208)
I1014 18:07:40.496686 19582 net.cpp:165] Memory required for data: 3357534308
I1014 18:07:40.496693 19582 layer_factory.hpp:76] Creating layer relu5_2
I1014 18:07:40.496700 19582 net.cpp:106] Creating Layer relu5_2
I1014 18:07:40.496703 19582 net.cpp:454] relu5_2 <- conv5_2
I1014 18:07:40.496711 19582 net.cpp:397] relu5_2 -> conv5_2 (in-place)
I1014 18:07:40.496901 19582 net.cpp:150] Setting up relu5_2
I1014 18:07:40.496912 19582 net.cpp:157] Top shape: 4 512 36 36 (2654208)
I1014 18:07:40.496914 19582 net.cpp:165] Memory required for data: 3368151140
I1014 18:07:40.496917 19582 layer_factory.hpp:76] Creating layer conv5_3
I1014 18:07:40.496927 19582 net.cpp:106] Creating Layer conv5_3
I1014 18:07:40.496929 19582 net.cpp:454] conv5_3 <- conv5_2
I1014 18:07:40.496937 19582 net.cpp:411] conv5_3 -> conv5_3
I1014 18:07:40.503473 19582 net.cpp:150] Setting up conv5_3
I1014 18:07:40.503489 19582 net.cpp:157] Top shape: 4 512 36 36 (2654208)
I1014 18:07:40.503492 19582 net.cpp:165] Memory required for data: 3378767972
I1014 18:07:40.503499 19582 layer_factory.hpp:76] Creating layer relu5_3
I1014 18:07:40.503505 19582 net.cpp:106] Creating Layer relu5_3
I1014 18:07:40.503509 19582 net.cpp:454] relu5_3 <- conv5_3
I1014 18:07:40.503516 19582 net.cpp:397] relu5_3 -> conv5_3 (in-place)
I1014 18:07:40.503876 19582 net.cpp:150] Setting up relu5_3
I1014 18:07:40.503890 19582 net.cpp:157] Top shape: 4 512 36 36 (2654208)
I1014 18:07:40.503893 19582 net.cpp:165] Memory required for data: 3389384804
I1014 18:07:40.503896 19582 layer_factory.hpp:76] Creating layer conv5_3_relu5_3_0_split
I1014 18:07:40.503902 19582 net.cpp:106] Creating Layer conv5_3_relu5_3_0_split
I1014 18:07:40.503906 19582 net.cpp:454] conv5_3_relu5_3_0_split <- conv5_3
I1014 18:07:40.503913 19582 net.cpp:411] conv5_3_relu5_3_0_split -> conv5_3_relu5_3_0_split_0
I1014 18:07:40.503921 19582 net.cpp:411] conv5_3_relu5_3_0_split -> conv5_3_relu5_3_0_split_1
I1014 18:07:40.503926 19582 net.cpp:411] conv5_3_relu5_3_0_split -> conv5_3_relu5_3_0_split_2
I1014 18:07:40.503989 19582 net.cpp:150] Setting up conv5_3_relu5_3_0_split
I1014 18:07:40.503994 19582 net.cpp:157] Top shape: 4 512 36 36 (2654208)
I1014 18:07:40.503998 19582 net.cpp:157] Top shape: 4 512 36 36 (2654208)
I1014 18:07:40.504003 19582 net.cpp:157] Top shape: 4 512 36 36 (2654208)
I1014 18:07:40.504004 19582 net.cpp:165] Memory required for data: 3421235300
I1014 18:07:40.504007 19582 layer_factory.hpp:76] Creating layer LFCN_2_3x5
I1014 18:07:40.504016 19582 net.cpp:106] Creating Layer LFCN_2_3x5
I1014 18:07:40.504019 19582 net.cpp:454] LFCN_2_3x5 <- conv5_3_relu5_3_0_split_0
I1014 18:07:40.504026 19582 net.cpp:411] LFCN_2_3x5 -> LFCN_2_3x5
I1014 18:07:40.506681 19582 net.cpp:150] Setting up LFCN_2_3x5
I1014 18:07:40.506695 19582 net.cpp:157] Top shape: 4 6 36 36 (31104)
I1014 18:07:40.506698 19582 net.cpp:165] Memory required for data: 3421359716
I1014 18:07:40.506721 19582 layer_factory.hpp:76] Creating layer LFCN_2_3x5_LFCN_2_3x5_0_split
I1014 18:07:40.506731 19582 net.cpp:106] Creating Layer LFCN_2_3x5_LFCN_2_3x5_0_split
I1014 18:07:40.506736 19582 net.cpp:454] LFCN_2_3x5_LFCN_2_3x5_0_split <- LFCN_2_3x5
I1014 18:07:40.506741 19582 net.cpp:411] LFCN_2_3x5_LFCN_2_3x5_0_split -> LFCN_2_3x5_LFCN_2_3x5_0_split_0
I1014 18:07:40.506748 19582 net.cpp:411] LFCN_2_3x5_LFCN_2_3x5_0_split -> LFCN_2_3x5_LFCN_2_3x5_0_split_1
I1014 18:07:40.506753 19582 net.cpp:411] LFCN_2_3x5_LFCN_2_3x5_0_split -> LFCN_2_3x5_LFCN_2_3x5_0_split_2
I1014 18:07:40.506817 19582 net.cpp:150] Setting up LFCN_2_3x5_LFCN_2_3x5_0_split
I1014 18:07:40.506822 19582 net.cpp:157] Top shape: 4 6 36 36 (31104)
I1014 18:07:40.506826 19582 net.cpp:157] Top shape: 4 6 36 36 (31104)
I1014 18:07:40.506829 19582 net.cpp:157] Top shape: 4 6 36 36 (31104)
I1014 18:07:40.506832 19582 net.cpp:165] Memory required for data: 3421732964
I1014 18:07:40.506835 19582 layer_factory.hpp:76] Creating layer detection_loss_2_3x5
I1014 18:07:40.506844 19582 net.cpp:106] Creating Layer detection_loss_2_3x5
I1014 18:07:40.506847 19582 net.cpp:454] detection_loss_2_3x5 <- LFCN_2_3x5_LFCN_2_3x5_0_split_0
I1014 18:07:40.506851 19582 net.cpp:454] detection_loss_2_3x5 <- label_2_3x5_data_3_split_0
I1014 18:07:40.506857 19582 net.cpp:411] detection_loss_2_3x5 -> loss_2_3x5
I1014 18:07:40.506866 19582 layer_factory.hpp:76] Creating layer detection_loss_2_3x5
I1014 18:07:40.507449 19582 net.cpp:150] Setting up detection_loss_2_3x5
I1014 18:07:40.507463 19582 net.cpp:157] Top shape: 1 1 1 2 (2)
I1014 18:07:40.507467 19582 net.cpp:160]     with loss weight 1
I1014 18:07:40.507478 19582 net.cpp:165] Memory required for data: 3421732972
I1014 18:07:40.507482 19582 layer_factory.hpp:76] Creating layer detection_accuracy_2_3x5
I1014 18:07:40.507490 19582 net.cpp:106] Creating Layer detection_accuracy_2_3x5
I1014 18:07:40.507494 19582 net.cpp:454] detection_accuracy_2_3x5 <- LFCN_2_3x5_LFCN_2_3x5_0_split_1
I1014 18:07:40.507499 19582 net.cpp:454] detection_accuracy_2_3x5 <- label_2_3x5_data_3_split_1
I1014 18:07:40.507505 19582 net.cpp:411] detection_accuracy_2_3x5 -> accuracy_2_3x5
I1014 18:07:40.507513 19582 net.cpp:411] detection_accuracy_2_3x5 -> boxiou_2_3x5
I1014 18:07:40.507560 19582 net.cpp:150] Setting up detection_accuracy_2_3x5
I1014 18:07:40.507566 19582 net.cpp:157] Top shape: 1 1 1 2 (2)
I1014 18:07:40.507570 19582 net.cpp:157] Top shape: 1 1 1 1 (1)
I1014 18:07:40.507572 19582 net.cpp:165] Memory required for data: 3421732984
I1014 18:07:40.507575 19582 layer_factory.hpp:76] Creating layer LFCN_2_5x7
I1014 18:07:40.507583 19582 net.cpp:106] Creating Layer LFCN_2_5x7
I1014 18:07:40.507587 19582 net.cpp:454] LFCN_2_5x7 <- conv5_3_relu5_3_0_split_1
I1014 18:07:40.507594 19582 net.cpp:411] LFCN_2_5x7 -> LFCN_2_5x7
I1014 18:07:40.512593 19582 net.cpp:150] Setting up LFCN_2_5x7
I1014 18:07:40.512609 19582 net.cpp:157] Top shape: 4 6 36 36 (31104)
I1014 18:07:40.512611 19582 net.cpp:165] Memory required for data: 3421857400
I1014 18:07:40.512619 19582 layer_factory.hpp:76] Creating layer LFCN_2_5x7_LFCN_2_5x7_0_split
I1014 18:07:40.512627 19582 net.cpp:106] Creating Layer LFCN_2_5x7_LFCN_2_5x7_0_split
I1014 18:07:40.512631 19582 net.cpp:454] LFCN_2_5x7_LFCN_2_5x7_0_split <- LFCN_2_5x7
I1014 18:07:40.512639 19582 net.cpp:411] LFCN_2_5x7_LFCN_2_5x7_0_split -> LFCN_2_5x7_LFCN_2_5x7_0_split_0
I1014 18:07:40.512645 19582 net.cpp:411] LFCN_2_5x7_LFCN_2_5x7_0_split -> LFCN_2_5x7_LFCN_2_5x7_0_split_1
I1014 18:07:40.512651 19582 net.cpp:411] LFCN_2_5x7_LFCN_2_5x7_0_split -> LFCN_2_5x7_LFCN_2_5x7_0_split_2
I1014 18:07:40.512712 19582 net.cpp:150] Setting up LFCN_2_5x7_LFCN_2_5x7_0_split
I1014 18:07:40.512717 19582 net.cpp:157] Top shape: 4 6 36 36 (31104)
I1014 18:07:40.512720 19582 net.cpp:157] Top shape: 4 6 36 36 (31104)
I1014 18:07:40.512724 19582 net.cpp:157] Top shape: 4 6 36 36 (31104)
I1014 18:07:40.512727 19582 net.cpp:165] Memory required for data: 3422230648
I1014 18:07:40.512730 19582 layer_factory.hpp:76] Creating layer detection_loss_2_5x7
I1014 18:07:40.512737 19582 net.cpp:106] Creating Layer detection_loss_2_5x7
I1014 18:07:40.512740 19582 net.cpp:454] detection_loss_2_5x7 <- LFCN_2_5x7_LFCN_2_5x7_0_split_0
I1014 18:07:40.512745 19582 net.cpp:454] detection_loss_2_5x7 <- label_2_5x7_data_4_split_0
I1014 18:07:40.512751 19582 net.cpp:411] detection_loss_2_5x7 -> loss_2_5x7
I1014 18:07:40.512759 19582 layer_factory.hpp:76] Creating layer detection_loss_2_5x7
I1014 18:07:40.513144 19582 net.cpp:150] Setting up detection_loss_2_5x7
I1014 18:07:40.513156 19582 net.cpp:157] Top shape: 1 1 1 2 (2)
I1014 18:07:40.513159 19582 net.cpp:160]     with loss weight 1
I1014 18:07:40.513166 19582 net.cpp:165] Memory required for data: 3422230656
I1014 18:07:40.513170 19582 layer_factory.hpp:76] Creating layer detection_accuracy_2_5x7
I1014 18:07:40.513175 19582 net.cpp:106] Creating Layer detection_accuracy_2_5x7
I1014 18:07:40.513180 19582 net.cpp:454] detection_accuracy_2_5x7 <- LFCN_2_5x7_LFCN_2_5x7_0_split_1
I1014 18:07:40.513185 19582 net.cpp:454] detection_accuracy_2_5x7 <- label_2_5x7_data_4_split_1
I1014 18:07:40.513190 19582 net.cpp:411] detection_accuracy_2_5x7 -> accuracy_2_5x7
I1014 18:07:40.513196 19582 net.cpp:411] detection_accuracy_2_5x7 -> boxiou_2_5x7
I1014 18:07:40.513242 19582 net.cpp:150] Setting up detection_accuracy_2_5x7
I1014 18:07:40.513247 19582 net.cpp:157] Top shape: 1 1 1 2 (2)
I1014 18:07:40.513250 19582 net.cpp:157] Top shape: 1 1 1 1 (1)
I1014 18:07:40.513253 19582 net.cpp:165] Memory required for data: 3422230668
I1014 18:07:40.513257 19582 layer_factory.hpp:76] Creating layer pool5
I1014 18:07:40.513262 19582 net.cpp:106] Creating Layer pool5
I1014 18:07:40.513267 19582 net.cpp:454] pool5 <- conv5_3_relu5_3_0_split_2
I1014 18:07:40.513273 19582 net.cpp:411] pool5 -> pool5
I1014 18:07:40.513679 19582 net.cpp:150] Setting up pool5
I1014 18:07:40.513691 19582 net.cpp:157] Top shape: 4 512 18 18 (663552)
I1014 18:07:40.513695 19582 net.cpp:165] Memory required for data: 3424884876
I1014 18:07:40.513697 19582 layer_factory.hpp:76] Creating layer conv6_1
I1014 18:07:40.513708 19582 net.cpp:106] Creating Layer conv6_1
I1014 18:07:40.513711 19582 net.cpp:454] conv6_1 <- pool5
I1014 18:07:40.513720 19582 net.cpp:411] conv6_1 -> conv6_1
I1014 18:07:40.601711 19582 net.cpp:150] Setting up conv6_1
I1014 18:07:40.601728 19582 net.cpp:157] Top shape: 4 512 18 18 (663552)
I1014 18:07:40.601732 19582 net.cpp:165] Memory required for data: 3427539084
I1014 18:07:40.601739 19582 layer_factory.hpp:76] Creating layer relu6_1
I1014 18:07:40.601747 19582 net.cpp:106] Creating Layer relu6_1
I1014 18:07:40.601752 19582 net.cpp:454] relu6_1 <- conv6_1
I1014 18:07:40.601758 19582 net.cpp:397] relu6_1 -> conv6_1 (in-place)
I1014 18:07:40.602205 19582 net.cpp:150] Setting up relu6_1
I1014 18:07:40.602219 19582 net.cpp:157] Top shape: 4 512 18 18 (663552)
I1014 18:07:40.602222 19582 net.cpp:165] Memory required for data: 3430193292
I1014 18:07:40.602226 19582 layer_factory.hpp:76] Creating layer conv6_1_relu6_1_0_split
I1014 18:07:40.602232 19582 net.cpp:106] Creating Layer conv6_1_relu6_1_0_split
I1014 18:07:40.602236 19582 net.cpp:454] conv6_1_relu6_1_0_split <- conv6_1
I1014 18:07:40.602246 19582 net.cpp:411] conv6_1_relu6_1_0_split -> conv6_1_relu6_1_0_split_0
I1014 18:07:40.602255 19582 net.cpp:411] conv6_1_relu6_1_0_split -> conv6_1_relu6_1_0_split_1
I1014 18:07:40.602262 19582 net.cpp:411] conv6_1_relu6_1_0_split -> conv6_1_relu6_1_0_split_2
I1014 18:07:40.602334 19582 net.cpp:150] Setting up conv6_1_relu6_1_0_split
I1014 18:07:40.602342 19582 net.cpp:157] Top shape: 4 512 18 18 (663552)
I1014 18:07:40.602346 19582 net.cpp:157] Top shape: 4 512 18 18 (663552)
I1014 18:07:40.602349 19582 net.cpp:157] Top shape: 4 512 18 18 (663552)
I1014 18:07:40.602352 19582 net.cpp:165] Memory required for data: 3438155916
I1014 18:07:40.602355 19582 layer_factory.hpp:76] Creating layer LFCN_3_3x5
I1014 18:07:40.602365 19582 net.cpp:106] Creating Layer LFCN_3_3x5
I1014 18:07:40.602370 19582 net.cpp:454] LFCN_3_3x5 <- conv6_1_relu6_1_0_split_0
I1014 18:07:40.602375 19582 net.cpp:411] LFCN_3_3x5 -> LFCN_3_3x5
I1014 18:07:40.605942 19582 net.cpp:150] Setting up LFCN_3_3x5
I1014 18:07:40.605957 19582 net.cpp:157] Top shape: 4 6 18 18 (7776)
I1014 18:07:40.605960 19582 net.cpp:165] Memory required for data: 3438187020
I1014 18:07:40.605968 19582 layer_factory.hpp:76] Creating layer LFCN_3_3x5_LFCN_3_3x5_0_split
I1014 18:07:40.605988 19582 net.cpp:106] Creating Layer LFCN_3_3x5_LFCN_3_3x5_0_split
I1014 18:07:40.605991 19582 net.cpp:454] LFCN_3_3x5_LFCN_3_3x5_0_split <- LFCN_3_3x5
I1014 18:07:40.605999 19582 net.cpp:411] LFCN_3_3x5_LFCN_3_3x5_0_split -> LFCN_3_3x5_LFCN_3_3x5_0_split_0
I1014 18:07:40.606007 19582 net.cpp:411] LFCN_3_3x5_LFCN_3_3x5_0_split -> LFCN_3_3x5_LFCN_3_3x5_0_split_1
I1014 18:07:40.606014 19582 net.cpp:411] LFCN_3_3x5_LFCN_3_3x5_0_split -> LFCN_3_3x5_LFCN_3_3x5_0_split_2
I1014 18:07:40.606076 19582 net.cpp:150] Setting up LFCN_3_3x5_LFCN_3_3x5_0_split
I1014 18:07:40.606084 19582 net.cpp:157] Top shape: 4 6 18 18 (7776)
I1014 18:07:40.606088 19582 net.cpp:157] Top shape: 4 6 18 18 (7776)
I1014 18:07:40.606091 19582 net.cpp:157] Top shape: 4 6 18 18 (7776)
I1014 18:07:40.606094 19582 net.cpp:165] Memory required for data: 3438280332
I1014 18:07:40.606098 19582 layer_factory.hpp:76] Creating layer detection_loss_3_3x5
I1014 18:07:40.606106 19582 net.cpp:106] Creating Layer detection_loss_3_3x5
I1014 18:07:40.606109 19582 net.cpp:454] detection_loss_3_3x5 <- LFCN_3_3x5_LFCN_3_3x5_0_split_0
I1014 18:07:40.606114 19582 net.cpp:454] detection_loss_3_3x5 <- label_3_3x5_data_5_split_0
I1014 18:07:40.606122 19582 net.cpp:411] detection_loss_3_3x5 -> loss_3_3x5
I1014 18:07:40.606130 19582 layer_factory.hpp:76] Creating layer detection_loss_3_3x5
I1014 18:07:40.606523 19582 net.cpp:150] Setting up detection_loss_3_3x5
I1014 18:07:40.606534 19582 net.cpp:157] Top shape: 1 1 1 2 (2)
I1014 18:07:40.606539 19582 net.cpp:160]     with loss weight 1
I1014 18:07:40.606544 19582 net.cpp:165] Memory required for data: 3438280340
I1014 18:07:40.606549 19582 layer_factory.hpp:76] Creating layer detection_accuracy_3_3x5
I1014 18:07:40.606554 19582 net.cpp:106] Creating Layer detection_accuracy_3_3x5
I1014 18:07:40.606559 19582 net.cpp:454] detection_accuracy_3_3x5 <- LFCN_3_3x5_LFCN_3_3x5_0_split_1
I1014 18:07:40.606564 19582 net.cpp:454] detection_accuracy_3_3x5 <- label_3_3x5_data_5_split_1
I1014 18:07:40.606569 19582 net.cpp:411] detection_accuracy_3_3x5 -> accuracy_3_3x5
I1014 18:07:40.606577 19582 net.cpp:411] detection_accuracy_3_3x5 -> boxiou_3_3x5
I1014 18:07:40.606622 19582 net.cpp:150] Setting up detection_accuracy_3_3x5
I1014 18:07:40.606627 19582 net.cpp:157] Top shape: 1 1 1 2 (2)
I1014 18:07:40.606631 19582 net.cpp:157] Top shape: 1 1 1 1 (1)
I1014 18:07:40.606633 19582 net.cpp:165] Memory required for data: 3438280352
I1014 18:07:40.606637 19582 layer_factory.hpp:76] Creating layer LFCN_3_5x7
I1014 18:07:40.606645 19582 net.cpp:106] Creating Layer LFCN_3_5x7
I1014 18:07:40.606648 19582 net.cpp:454] LFCN_3_5x7 <- conv6_1_relu6_1_0_split_1
I1014 18:07:40.606655 19582 net.cpp:411] LFCN_3_5x7 -> LFCN_3_5x7
I1014 18:07:40.612275 19582 net.cpp:150] Setting up LFCN_3_5x7
I1014 18:07:40.612290 19582 net.cpp:157] Top shape: 4 6 18 18 (7776)
I1014 18:07:40.612293 19582 net.cpp:165] Memory required for data: 3438311456
I1014 18:07:40.612300 19582 layer_factory.hpp:76] Creating layer LFCN_3_5x7_LFCN_3_5x7_0_split
I1014 18:07:40.612308 19582 net.cpp:106] Creating Layer LFCN_3_5x7_LFCN_3_5x7_0_split
I1014 18:07:40.612313 19582 net.cpp:454] LFCN_3_5x7_LFCN_3_5x7_0_split <- LFCN_3_5x7
I1014 18:07:40.612319 19582 net.cpp:411] LFCN_3_5x7_LFCN_3_5x7_0_split -> LFCN_3_5x7_LFCN_3_5x7_0_split_0
I1014 18:07:40.612326 19582 net.cpp:411] LFCN_3_5x7_LFCN_3_5x7_0_split -> LFCN_3_5x7_LFCN_3_5x7_0_split_1
I1014 18:07:40.612331 19582 net.cpp:411] LFCN_3_5x7_LFCN_3_5x7_0_split -> LFCN_3_5x7_LFCN_3_5x7_0_split_2
I1014 18:07:40.612396 19582 net.cpp:150] Setting up LFCN_3_5x7_LFCN_3_5x7_0_split
I1014 18:07:40.612401 19582 net.cpp:157] Top shape: 4 6 18 18 (7776)
I1014 18:07:40.612404 19582 net.cpp:157] Top shape: 4 6 18 18 (7776)
I1014 18:07:40.612407 19582 net.cpp:157] Top shape: 4 6 18 18 (7776)
I1014 18:07:40.612411 19582 net.cpp:165] Memory required for data: 3438404768
I1014 18:07:40.612413 19582 layer_factory.hpp:76] Creating layer detection_loss_3_5x7
I1014 18:07:40.612421 19582 net.cpp:106] Creating Layer detection_loss_3_5x7
I1014 18:07:40.612424 19582 net.cpp:454] detection_loss_3_5x7 <- LFCN_3_5x7_LFCN_3_5x7_0_split_0
I1014 18:07:40.612429 19582 net.cpp:454] detection_loss_3_5x7 <- label_3_5x7_data_6_split_0
I1014 18:07:40.612433 19582 net.cpp:411] detection_loss_3_5x7 -> loss_3_5x7
I1014 18:07:40.612442 19582 layer_factory.hpp:76] Creating layer detection_loss_3_5x7
I1014 18:07:40.613016 19582 net.cpp:150] Setting up detection_loss_3_5x7
I1014 18:07:40.613030 19582 net.cpp:157] Top shape: 1 1 1 2 (2)
I1014 18:07:40.613034 19582 net.cpp:160]     with loss weight 1
I1014 18:07:40.613039 19582 net.cpp:165] Memory required for data: 3438404776
I1014 18:07:40.613042 19582 layer_factory.hpp:76] Creating layer detection_accuracy_3_5x7
I1014 18:07:40.613049 19582 net.cpp:106] Creating Layer detection_accuracy_3_5x7
I1014 18:07:40.613052 19582 net.cpp:454] detection_accuracy_3_5x7 <- LFCN_3_5x7_LFCN_3_5x7_0_split_1
I1014 18:07:40.613059 19582 net.cpp:454] detection_accuracy_3_5x7 <- label_3_5x7_data_6_split_1
I1014 18:07:40.613065 19582 net.cpp:411] detection_accuracy_3_5x7 -> accuracy_3_5x7
I1014 18:07:40.613073 19582 net.cpp:411] detection_accuracy_3_5x7 -> boxiou_3_5x7
I1014 18:07:40.613118 19582 net.cpp:150] Setting up detection_accuracy_3_5x7
I1014 18:07:40.613124 19582 net.cpp:157] Top shape: 1 1 1 2 (2)
I1014 18:07:40.613128 19582 net.cpp:157] Top shape: 1 1 1 1 (1)
I1014 18:07:40.613131 19582 net.cpp:165] Memory required for data: 3438404788
I1014 18:07:40.613133 19582 layer_factory.hpp:76] Creating layer pool6
I1014 18:07:40.613140 19582 net.cpp:106] Creating Layer pool6
I1014 18:07:40.613144 19582 net.cpp:454] pool6 <- conv6_1_relu6_1_0_split_2
I1014 18:07:40.613150 19582 net.cpp:411] pool6 -> pool6
I1014 18:07:40.613379 19582 net.cpp:150] Setting up pool6
I1014 18:07:40.613389 19582 net.cpp:157] Top shape: 4 512 9 9 (165888)
I1014 18:07:40.613392 19582 net.cpp:165] Memory required for data: 3439068340
I1014 18:07:40.613395 19582 layer_factory.hpp:76] Creating layer LFCN_4_3x5
I1014 18:07:40.613404 19582 net.cpp:106] Creating Layer LFCN_4_3x5
I1014 18:07:40.613407 19582 net.cpp:454] LFCN_4_3x5 <- pool6
I1014 18:07:40.613415 19582 net.cpp:411] LFCN_4_3x5 -> LFCN_4_3x5
I1014 18:07:40.616266 19582 net.cpp:150] Setting up LFCN_4_3x5
I1014 18:07:40.616281 19582 net.cpp:157] Top shape: 4 6 9 9 (1944)
I1014 18:07:40.616283 19582 net.cpp:165] Memory required for data: 3439076116
I1014 18:07:40.616291 19582 layer_factory.hpp:76] Creating layer LFCN_4_3x5_LFCN_4_3x5_0_split
I1014 18:07:40.616299 19582 net.cpp:106] Creating Layer LFCN_4_3x5_LFCN_4_3x5_0_split
I1014 18:07:40.616303 19582 net.cpp:454] LFCN_4_3x5_LFCN_4_3x5_0_split <- LFCN_4_3x5
I1014 18:07:40.616310 19582 net.cpp:411] LFCN_4_3x5_LFCN_4_3x5_0_split -> LFCN_4_3x5_LFCN_4_3x5_0_split_0
I1014 18:07:40.616317 19582 net.cpp:411] LFCN_4_3x5_LFCN_4_3x5_0_split -> LFCN_4_3x5_LFCN_4_3x5_0_split_1
I1014 18:07:40.616322 19582 net.cpp:411] LFCN_4_3x5_LFCN_4_3x5_0_split -> LFCN_4_3x5_LFCN_4_3x5_0_split_2
I1014 18:07:40.616389 19582 net.cpp:150] Setting up LFCN_4_3x5_LFCN_4_3x5_0_split
I1014 18:07:40.616394 19582 net.cpp:157] Top shape: 4 6 9 9 (1944)
I1014 18:07:40.616399 19582 net.cpp:157] Top shape: 4 6 9 9 (1944)
I1014 18:07:40.616401 19582 net.cpp:157] Top shape: 4 6 9 9 (1944)
I1014 18:07:40.616405 19582 net.cpp:165] Memory required for data: 3439099444
I1014 18:07:40.616407 19582 layer_factory.hpp:76] Creating layer detection_loss_4_3x5
I1014 18:07:40.616415 19582 net.cpp:106] Creating Layer detection_loss_4_3x5
I1014 18:07:40.616418 19582 net.cpp:454] detection_loss_4_3x5 <- LFCN_4_3x5_LFCN_4_3x5_0_split_0
I1014 18:07:40.616423 19582 net.cpp:454] detection_loss_4_3x5 <- label_4_3x5_data_7_split_0
I1014 18:07:40.616430 19582 net.cpp:411] detection_loss_4_3x5 -> loss_4_3x5
I1014 18:07:40.616437 19582 layer_factory.hpp:76] Creating layer detection_loss_4_3x5
I1014 18:07:40.617010 19582 net.cpp:150] Setting up detection_loss_4_3x5
I1014 18:07:40.617023 19582 net.cpp:157] Top shape: 1 1 1 2 (2)
I1014 18:07:40.617027 19582 net.cpp:160]     with loss weight 1
I1014 18:07:40.617033 19582 net.cpp:165] Memory required for data: 3439099452
I1014 18:07:40.617036 19582 layer_factory.hpp:76] Creating layer detection_accuracy_4_3x5
I1014 18:07:40.617044 19582 net.cpp:106] Creating Layer detection_accuracy_4_3x5
I1014 18:07:40.617049 19582 net.cpp:454] detection_accuracy_4_3x5 <- LFCN_4_3x5_LFCN_4_3x5_0_split_1
I1014 18:07:40.617054 19582 net.cpp:454] detection_accuracy_4_3x5 <- label_4_3x5_data_7_split_1
I1014 18:07:40.617059 19582 net.cpp:411] detection_accuracy_4_3x5 -> accuracy_4_3x5
I1014 18:07:40.617066 19582 net.cpp:411] detection_accuracy_4_3x5 -> boxiou_4_3x5
I1014 18:07:40.617117 19582 net.cpp:150] Setting up detection_accuracy_4_3x5
I1014 18:07:40.617123 19582 net.cpp:157] Top shape: 1 1 1 2 (2)
I1014 18:07:40.617126 19582 net.cpp:157] Top shape: 1 1 1 1 (1)
I1014 18:07:40.617130 19582 net.cpp:165] Memory required for data: 3439099464
I1014 18:07:40.617132 19582 layer_factory.hpp:76] Creating layer proposals
I1014 18:07:40.617141 19582 net.cpp:106] Creating Layer proposals
I1014 18:07:40.617146 19582 net.cpp:454] proposals <- LFCN_1_3x5_LFCN_1_3x5_0_split_2
I1014 18:07:40.617149 19582 net.cpp:454] proposals <- LFCN_1_5x7_LFCN_1_5x7_0_split_2
I1014 18:07:40.617153 19582 net.cpp:454] proposals <- LFCN_2_3x5_LFCN_2_3x5_0_split_2
I1014 18:07:40.617156 19582 net.cpp:454] proposals <- LFCN_2_5x7_LFCN_2_5x7_0_split_2
I1014 18:07:40.617159 19582 net.cpp:454] proposals <- LFCN_3_3x5_LFCN_3_3x5_0_split_2
I1014 18:07:40.617163 19582 net.cpp:454] proposals <- LFCN_3_5x7_LFCN_3_5x7_0_split_2
I1014 18:07:40.617166 19582 net.cpp:454] proposals <- LFCN_4_3x5_LFCN_4_3x5_0_split_2
I1014 18:07:40.617172 19582 net.cpp:411] proposals -> proposals
I1014 18:07:40.617203 19582 net.cpp:150] Setting up proposals
I1014 18:07:40.617208 19582 net.cpp:157] Top shape: 1 5 1 1 (5)
I1014 18:07:40.617211 19582 net.cpp:165] Memory required for data: 3439099484
I1014 18:07:40.617214 19582 layer_factory.hpp:76] Creating layer proposal_info
I1014 18:07:40.617223 19582 net.cpp:106] Creating Layer proposal_info
I1014 18:07:40.617225 19582 net.cpp:454] proposal_info <- proposals
I1014 18:07:40.617229 19582 net.cpp:454] proposal_info <- gt_boxes
I1014 18:07:40.617236 19582 net.cpp:411] proposal_info -> rois
I1014 18:07:40.617244 19582 net.cpp:411] proposal_info -> proposal_labels
I1014 18:07:40.617250 19582 net.cpp:411] proposal_info -> proposal_targets
I1014 18:07:40.617256 19582 net.cpp:411] proposal_info -> box_inside_weights
I1014 18:07:40.617262 19582 net.cpp:411] proposal_info -> box_outside_weights
I1014 18:07:40.617269 19582 net.cpp:411] proposal_info -> match_gt_boxes
I1014 18:07:40.617373 19582 net.cpp:150] Setting up proposal_info
I1014 18:07:40.617378 19582 net.cpp:157] Top shape: 128 5 1 1 (640)
I1014 18:07:40.617383 19582 net.cpp:157] Top shape: 128 1 1 1 (128)
I1014 18:07:40.617386 19582 net.cpp:157] Top shape: 128 8 1 1 (1024)
I1014 18:07:40.617389 19582 net.cpp:157] Top shape: 128 8 1 1 (1024)
I1014 18:07:40.617393 19582 net.cpp:157] Top shape: 128 8 1 1 (1024)
I1014 18:07:40.617396 19582 net.cpp:157] Top shape: 128 6 1 1 (768)
I1014 18:07:40.617399 19582 net.cpp:165] Memory required for data: 3439117916
I1014 18:07:40.617403 19582 layer_factory.hpp:76] Creating layer rois_proposal_info_0_split
I1014 18:07:40.617408 19582 net.cpp:106] Creating Layer rois_proposal_info_0_split
I1014 18:07:40.617410 19582 net.cpp:454] rois_proposal_info_0_split <- rois
I1014 18:07:40.617414 19582 net.cpp:411] rois_proposal_info_0_split -> rois_proposal_info_0_split_0
I1014 18:07:40.617420 19582 net.cpp:411] rois_proposal_info_0_split -> rois_proposal_info_0_split_1
I1014 18:07:40.617425 19582 net.cpp:411] rois_proposal_info_0_split -> rois_proposal_info_0_split_2
I1014 18:07:40.617477 19582 net.cpp:150] Setting up rois_proposal_info_0_split
I1014 18:07:40.617482 19582 net.cpp:157] Top shape: 128 5 1 1 (640)
I1014 18:07:40.617486 19582 net.cpp:157] Top shape: 128 5 1 1 (640)
I1014 18:07:40.617489 19582 net.cpp:157] Top shape: 128 5 1 1 (640)
I1014 18:07:40.617492 19582 net.cpp:165] Memory required for data: 3439125596
I1014 18:07:40.617494 19582 layer_factory.hpp:76] Creating layer proposal_labels_proposal_info_1_split
I1014 18:07:40.617499 19582 net.cpp:106] Creating Layer proposal_labels_proposal_info_1_split
I1014 18:07:40.617502 19582 net.cpp:454] proposal_labels_proposal_info_1_split <- proposal_labels
I1014 18:07:40.617507 19582 net.cpp:411] proposal_labels_proposal_info_1_split -> proposal_labels_proposal_info_1_split_0
I1014 18:07:40.617512 19582 net.cpp:411] proposal_labels_proposal_info_1_split -> proposal_labels_proposal_info_1_split_1
I1014 18:07:40.617549 19582 net.cpp:150] Setting up proposal_labels_proposal_info_1_split
I1014 18:07:40.617553 19582 net.cpp:157] Top shape: 128 1 1 1 (128)
I1014 18:07:40.617558 19582 net.cpp:157] Top shape: 128 1 1 1 (128)
I1014 18:07:40.617559 19582 net.cpp:165] Memory required for data: 3439126620
I1014 18:07:40.617563 19582 layer_factory.hpp:76] Creating layer roi_pool_org
I1014 18:07:40.617568 19582 net.cpp:106] Creating Layer roi_pool_org
I1014 18:07:40.617571 19582 net.cpp:454] roi_pool_org <- conv4_3_relu4_3_0_split_2
I1014 18:07:40.617575 19582 net.cpp:454] roi_pool_org <- rois_proposal_info_0_split_0
I1014 18:07:40.617580 19582 net.cpp:411] roi_pool_org -> roi_pool_org
I1014 18:07:40.617588 19582 roi_pooling_layer.cpp:35] Spatial scale: 0.125
I1014 18:07:40.617631 19582 net.cpp:150] Setting up roi_pool_org
I1014 18:07:40.617636 19582 net.cpp:157] Top shape: 128 512 8 4 (2097152)
I1014 18:07:40.617640 19582 net.cpp:165] Memory required for data: 3447515228
I1014 18:07:40.617642 19582 layer_factory.hpp:76] Creating layer roi_pool_ctx
I1014 18:07:40.617647 19582 net.cpp:106] Creating Layer roi_pool_ctx
I1014 18:07:40.617650 19582 net.cpp:454] roi_pool_ctx <- conv4_3_relu4_3_0_split_3
I1014 18:07:40.617655 19582 net.cpp:454] roi_pool_ctx <- rois_proposal_info_0_split_1
I1014 18:07:40.617660 19582 net.cpp:411] roi_pool_ctx -> roi_pool_ctx
I1014 18:07:40.617666 19582 roi_pooling_layer.cpp:35] Spatial scale: 0.125
I1014 18:07:40.617707 19582 net.cpp:150] Setting up roi_pool_ctx
I1014 18:07:40.617712 19582 net.cpp:157] Top shape: 128 512 8 4 (2097152)
I1014 18:07:40.617714 19582 net.cpp:165] Memory required for data: 3455903836
I1014 18:07:40.617717 19582 layer_factory.hpp:76] Creating layer roi_pool
I1014 18:07:40.617727 19582 net.cpp:106] Creating Layer roi_pool
I1014 18:07:40.617729 19582 net.cpp:454] roi_pool <- roi_pool_org
I1014 18:07:40.617733 19582 net.cpp:454] roi_pool <- roi_pool_ctx
I1014 18:07:40.617738 19582 net.cpp:411] roi_pool -> roi_pool
I1014 18:07:40.617764 19582 net.cpp:150] Setting up roi_pool
I1014 18:07:40.617769 19582 net.cpp:157] Top shape: 128 1024 8 4 (4194304)
I1014 18:07:40.617771 19582 net.cpp:165] Memory required for data: 3472681052
I1014 18:07:40.617774 19582 layer_factory.hpp:76] Creating layer roi_c1
I1014 18:07:40.617784 19582 net.cpp:106] Creating Layer roi_c1
I1014 18:07:40.617786 19582 net.cpp:454] roi_c1 <- roi_pool
I1014 18:07:40.617791 19582 net.cpp:411] roi_c1 -> roi_c1
I1014 18:07:40.792798 19582 net.cpp:150] Setting up roi_c1
I1014 18:07:40.792829 19582 net.cpp:157] Top shape: 128 512 8 4 (2097152)
I1014 18:07:40.792832 19582 net.cpp:165] Memory required for data: 3481069660
I1014 18:07:40.792841 19582 layer_factory.hpp:76] Creating layer roi_c1_relu
I1014 18:07:40.792850 19582 net.cpp:106] Creating Layer roi_c1_relu
I1014 18:07:40.792856 19582 net.cpp:454] roi_c1_relu <- roi_c1
I1014 18:07:40.792862 19582 net.cpp:397] roi_c1_relu -> roi_c1 (in-place)
I1014 18:07:40.793268 19582 net.cpp:150] Setting up roi_c1_relu
I1014 18:07:40.793287 19582 net.cpp:157] Top shape: 128 512 8 4 (2097152)
I1014 18:07:40.793292 19582 net.cpp:165] Memory required for data: 3489458268
I1014 18:07:40.793294 19582 layer_factory.hpp:76] Creating layer fc6
I1014 18:07:40.793303 19582 net.cpp:106] Creating Layer fc6
I1014 18:07:40.793308 19582 net.cpp:454] fc6 <- roi_c1
I1014 18:07:40.793316 19582 net.cpp:411] fc6 -> fc6
I1014 18:07:41.856379 19582 net.cpp:150] Setting up fc6
I1014 18:07:41.856425 19582 net.cpp:157] Top shape: 128 2048 (262144)
I1014 18:07:41.856427 19582 net.cpp:165] Memory required for data: 3490506844
I1014 18:07:41.856444 19582 layer_factory.hpp:76] Creating layer relu6
I1014 18:07:41.856459 19582 net.cpp:106] Creating Layer relu6
I1014 18:07:41.856487 19582 net.cpp:454] relu6 <- fc6
I1014 18:07:41.856492 19582 net.cpp:397] relu6 -> fc6 (in-place)
I1014 18:07:41.856963 19582 net.cpp:150] Setting up relu6
I1014 18:07:41.856977 19582 net.cpp:157] Top shape: 128 2048 (262144)
I1014 18:07:41.856981 19582 net.cpp:165] Memory required for data: 3491555420
I1014 18:07:41.856984 19582 layer_factory.hpp:76] Creating layer drop6
I1014 18:07:41.856992 19582 net.cpp:106] Creating Layer drop6
I1014 18:07:41.856995 19582 net.cpp:454] drop6 <- fc6
I1014 18:07:41.857000 19582 net.cpp:397] drop6 -> fc6 (in-place)
I1014 18:07:41.857038 19582 net.cpp:150] Setting up drop6
I1014 18:07:41.857043 19582 net.cpp:157] Top shape: 128 2048 (262144)
I1014 18:07:41.857048 19582 net.cpp:165] Memory required for data: 3492603996
I1014 18:07:41.857051 19582 layer_factory.hpp:76] Creating layer fc6_drop6_0_split
I1014 18:07:41.857059 19582 net.cpp:106] Creating Layer fc6_drop6_0_split
I1014 18:07:41.857061 19582 net.cpp:454] fc6_drop6_0_split <- fc6
I1014 18:07:41.857069 19582 net.cpp:411] fc6_drop6_0_split -> fc6_drop6_0_split_0
I1014 18:07:41.857076 19582 net.cpp:411] fc6_drop6_0_split -> fc6_drop6_0_split_1
I1014 18:07:41.857136 19582 net.cpp:150] Setting up fc6_drop6_0_split
I1014 18:07:41.857141 19582 net.cpp:157] Top shape: 128 2048 (262144)
I1014 18:07:41.857146 19582 net.cpp:157] Top shape: 128 2048 (262144)
I1014 18:07:41.857147 19582 net.cpp:165] Memory required for data: 3494701148
I1014 18:07:41.857151 19582 layer_factory.hpp:76] Creating layer cls_pred
I1014 18:07:41.857161 19582 net.cpp:106] Creating Layer cls_pred
I1014 18:07:41.857164 19582 net.cpp:454] cls_pred <- fc6_drop6_0_split_0
I1014 18:07:41.857174 19582 net.cpp:411] cls_pred -> cls_pred
I1014 18:07:41.857455 19582 net.cpp:150] Setting up cls_pred
I1014 18:07:41.857466 19582 net.cpp:157] Top shape: 128 2 (256)
I1014 18:07:41.857470 19582 net.cpp:165] Memory required for data: 3494702172
I1014 18:07:41.857475 19582 layer_factory.hpp:76] Creating layer cls_pred_cls_pred_0_split
I1014 18:07:41.857481 19582 net.cpp:106] Creating Layer cls_pred_cls_pred_0_split
I1014 18:07:41.857484 19582 net.cpp:454] cls_pred_cls_pred_0_split <- cls_pred
I1014 18:07:41.857488 19582 net.cpp:411] cls_pred_cls_pred_0_split -> cls_pred_cls_pred_0_split_0
I1014 18:07:41.857494 19582 net.cpp:411] cls_pred_cls_pred_0_split -> cls_pred_cls_pred_0_split_1
I1014 18:07:41.857535 19582 net.cpp:150] Setting up cls_pred_cls_pred_0_split
I1014 18:07:41.857542 19582 net.cpp:157] Top shape: 128 2 (256)
I1014 18:07:41.857544 19582 net.cpp:157] Top shape: 128 2 (256)
I1014 18:07:41.857547 19582 net.cpp:165] Memory required for data: 3494704220
I1014 18:07:41.857549 19582 layer_factory.hpp:76] Creating layer bbox_pred
I1014 18:07:41.857555 19582 net.cpp:106] Creating Layer bbox_pred
I1014 18:07:41.857558 19582 net.cpp:454] bbox_pred <- fc6_drop6_0_split_1
I1014 18:07:41.857568 19582 net.cpp:411] bbox_pred -> bbox_pred
I1014 18:07:41.858266 19582 net.cpp:150] Setting up bbox_pred
I1014 18:07:41.858276 19582 net.cpp:157] Top shape: 128 8 (1024)
I1014 18:07:41.858279 19582 net.cpp:165] Memory required for data: 3494708316
I1014 18:07:41.858284 19582 layer_factory.hpp:76] Creating layer bbox_pred_bbox_pred_0_split
I1014 18:07:41.858289 19582 net.cpp:106] Creating Layer bbox_pred_bbox_pred_0_split
I1014 18:07:41.858292 19582 net.cpp:454] bbox_pred_bbox_pred_0_split <- bbox_pred
I1014 18:07:41.858296 19582 net.cpp:411] bbox_pred_bbox_pred_0_split -> bbox_pred_bbox_pred_0_split_0
I1014 18:07:41.858352 19582 net.cpp:411] bbox_pred_bbox_pred_0_split -> bbox_pred_bbox_pred_0_split_1
I1014 18:07:41.858402 19582 net.cpp:150] Setting up bbox_pred_bbox_pred_0_split
I1014 18:07:41.858413 19582 net.cpp:157] Top shape: 128 8 (1024)
I1014 18:07:41.858417 19582 net.cpp:157] Top shape: 128 8 (1024)
I1014 18:07:41.858419 19582 net.cpp:165] Memory required for data: 3494716508
I1014 18:07:41.858422 19582 layer_factory.hpp:76] Creating layer loss_cls
I1014 18:07:41.858428 19582 net.cpp:106] Creating Layer loss_cls
I1014 18:07:41.858431 19582 net.cpp:454] loss_cls <- cls_pred_cls_pred_0_split_0
I1014 18:07:41.858436 19582 net.cpp:454] loss_cls <- proposal_labels_proposal_info_1_split_0
…
I1014 18:07:42.081599 19582 image_gt_data_layer.cpp:234] output label size 2 : 2,6,36,36
I1014 18:07:42.081665 19582 image_gt_data_layer.cpp:234] output label size 3 : 2,6,36,36
I1014 18:07:42.081732 19582 image_gt_data_layer.cpp:234] output label size 4 : 2,6,18,18
I1014 18:07:42.081796 19582 image_gt_data_layer.cpp:234] output label size 5 : 2,6,18,18
I1014 18:07:42.081871 19582 image_gt_data_layer.cpp:234] output label size 6 : 2,6,9,9
I1014 18:07:42.081934 19582 image_gt_data_layer.cpp:249] output gt boxes size: 1,7,1,1
I1014 18:07:42.099539 19582 net.cpp:150] Setting up data
I1014 18:07:42.099567 19582 net.cpp:157] Top shape: 2 3 576 576 (1990656)
I1014 18:07:42.099572 19582 net.cpp:157] Top shape: 2 6 72 72 (62208)
I1014 18:07:42.099577 19582 net.cpp:157] Top shape: 2 6 72 72 (62208)
I1014 18:07:42.099581 19582 net.cpp:157] Top shape: 2 6 36 36 (15552)
I1014 18:07:42.099586 19582 net.cpp:157] Top shape: 2 6 36 36 (15552)
I1014 18:07:42.099588 19582 net.cpp:157] Top shape: 2 6 18 18 (3888)
I1014 18:07:42.099592 19582 net.cpp:157] Top shape: 2 6 18 18 (3888)
I1014 18:07:42.099596 19582 net.cpp:157] Top shape: 2 6 9 9 (972)
I1014 18:07:42.099601 19582 net.cpp:157] Top shape: 1 7 1 1 (7)
I1014 18:07:42.099603 19582 net.cpp:165] Memory required for data: 8619724
I1014 18:07:42.099611 19582 layer_factory.hpp:76] Creating layer label_1_3x5_data_1_split
I1014 18:07:42.099625 19582 net.cpp:106] Creating Layer label_1_3x5_data_1_split
I1014 18:07:42.099629 19582 net.cpp:454] label_1_3x5_data_1_split <- label_1_3x5
I1014 18:07:42.099640 19582 net.cpp:411] label_1_3x5_data_1_split -> label_1_3x5_data_1_split_0
I1014 18:07:42.099649 19582 net.cpp:411] label_1_3x5_data_1_split -> label_1_3x5_data_1_split_1
I1014 18:07:42.099721 19582 net.cpp:150] Setting up label_1_3x5_data_1_split
I1014 18:07:42.099727 19582 net.cpp:157] Top shape: 2 6 72 72 (62208)
I1014 18:07:42.099731 19582 net.cpp:157] Top shape: 2 6 72 72 (62208)
I1014 18:07:42.099733 19582 net.cpp:165] Memory required for data: 9117388
I1014 18:07:42.099736 19582 layer_factory.hpp:76] Creating layer label_1_5x7_data_2_split
I1014 18:07:42.099745 19582 net.cpp:106] Creating Layer label_1_5x7_data_2_split
I1014 18:07:42.099747 19582 net.cpp:454] label_1_5x7_data_2_split <- label_1_5x7
I1014 18:07:42.099751 19582 net.cpp:411] label_1_5x7_data_2_split -> label_1_5x7_data_2_split_0
I1014 18:07:42.099756 19582 net.cpp:411] label_1_5x7_data_2_split -> label_1_5x7_data_2_split_1
I1014 18:07:42.100324 19582 net.cpp:150] Setting up label_1_5x7_data_2_split
I1014 18:07:42.100358 19582 net.cpp:157] Top shape: 2 6 72 72 (62208)
I1014 18:07:42.100373 19582 net.cpp:157] Top shape: 2 6 72 72 (62208)
I1014 18:07:42.100383 19582 net.cpp:165] Memory required for data: 9615052
I1014 18:07:42.100392 19582 layer_factory.hpp:76] Creating layer label_2_3x5_data_3_split
I1014 18:07:42.100406 19582 net.cpp:106] Creating Layer label_2_3x5_data_3_split
I1014 18:07:42.100416 19582 net.cpp:454] label_2_3x5_data_3_split <- label_2_3x5
I1014 18:07:42.100435 19582 net.cpp:411] label_2_3x5_data_3_split -> label_2_3x5_data_3_split_0
I1014 18:07:42.100453 19582 net.cpp:411] label_2_3x5_data_3_split -> label_2_3x5_data_3_split_1
I1014 18:07:42.100572 19582 net.cpp:150] Setting up label_2_3x5_data_3_split
I1014 18:07:42.100591 19582 net.cpp:157] Top shape: 2 6 36 36 (15552)
I1014 18:07:42.100603 19582 net.cpp:157] Top shape: 2 6 36 36 (15552)
I1014 18:07:42.100610 19582 net.cpp:165] Memory required for data: 9739468
I1014 18:07:42.100620 19582 layer_factory.hpp:76] Creating layer label_2_5x7_data_4_split
I1014 18:07:42.100641 19582 net.cpp:106] Creating Layer label_2_5x7_data_4_split
I1014 18:07:42.100649 19582 net.cpp:454] label_2_5x7_data_4_split <- label_2_5x7
I1014 18:07:42.100666 19582 net.cpp:411] label_2_5x7_data_4_split -> label_2_5x7_data_4_split_0
I1014 18:07:42.100680 19582 net.cpp:411] label_2_5x7_data_4_split -> label_2_5x7_data_4_split_1
I1014 18:07:42.100790 19582 net.cpp:150] Setting up label_2_5x7_data_4_split
I1014 18:07:42.100814 19582 net.cpp:157] Top shape: 2 6 36 36 (15552)
I1014 18:07:42.100826 19582 net.cpp:157] Top shape: 2 6 36 36 (15552)
I1014 18:07:42.100833 19582 net.cpp:165] Memory required for data: 9863884
I1014 18:07:42.100841 19582 layer_factory.hpp:76] Creating layer label_3_3x5_data_5_split
I1014 18:07:42.100854 19582 net.cpp:106] Creating Layer label_3_3x5_data_5_split
I1014 18:07:42.100863 19582 net.cpp:454] label_3_3x5_data_5_split <- label_3_3x5
I1014 18:07:42.100875 19582 net.cpp:411] label_3_3x5_data_5_split -> label_3_3x5_data_5_split_0
I1014 18:07:42.100889 19582 net.cpp:411] label_3_3x5_data_5_split -> label_3_3x5_data_5_split_1
I1014 18:07:42.100992 19582 net.cpp:150] Setting up label_3_3x5_data_5_split
I1014 18:07:42.101011 19582 net.cpp:157] Top shape: 2 6 18 18 (3888)
I1014 18:07:42.101022 19582 net.cpp:157] Top shape: 2 6 18 18 (3888)
I1014 18:07:42.101030 19582 net.cpp:165] Memory required for data: 9894988
I1014 18:07:42.101038 19582 layer_factory.hpp:76] Creating layer label_3_5x7_data_6_split
I1014 18:07:42.101050 19582 net.cpp:106] Creating Layer label_3_5x7_data_6_split
I1014 18:07:42.101059 19582 net.cpp:454] label_3_5x7_data_6_split <- label_3_5x7
I1014 18:07:42.101074 19582 net.cpp:411] label_3_5x7_data_6_split -> label_3_5x7_data_6_split_0
I1014 18:07:42.101089 19582 net.cpp:411] label_3_5x7_data_6_split -> label_3_5x7_data_6_split_1
I1014 18:07:42.101188 19582 net.cpp:150] Setting up label_3_5x7_data_6_split
I1014 18:07:42.101205 19582 net.cpp:157] Top shape: 2 6 18 18 (3888)
I1014 18:07:42.101217 19582 net.cpp:157] Top shape: 2 6 18 18 (3888)
I1014 18:07:42.101223 19582 net.cpp:165] Memory required for data: 9926092
I1014 18:07:42.101233 19582 layer_factory.hpp:76] Creating layer label_4_3x5_data_7_split
I1014 18:07:42.101243 19582 net.cpp:106] Creating Layer label_4_3x5_data_7_split
I1014 18:07:42.101251 19582 net.cpp:454] label_4_3x5_data_7_split <- label_4_3x5
I1014 18:07:42.101263 19582 net.cpp:411] label_4_3x5_data_7_split -> label_4_3x5_data_7_split_0
I1014 18:07:42.101276 19582 net.cpp:411] label_4_3x5_data_7_split -> label_4_3x5_data_7_split_1
I1014 18:07:42.101375 19582 net.cpp:150] Setting up label_4_3x5_data_7_split
I1014 18:07:42.101395 19582 net.cpp:157] Top shape: 2 6 9 9 (972)
I1014 18:07:42.101407 19582 net.cpp:157] Top shape: 2 6 9 9 (972)
I1014 18:07:42.101414 19582 net.cpp:165] Memory required for data: 9933868
I1014 18:07:42.101423 19582 layer_factory.hpp:76] Creating layer conv1_1
I1014 18:07:42.101446 19582 net.cpp:106] Creating Layer conv1_1
I1014 18:07:42.101455 19582 net.cpp:454] conv1_1 <- data
I1014 18:07:42.101475 19582 net.cpp:411] conv1_1 -> conv1_1
I1014 18:07:42.108454 19582 net.cpp:150] Setting up conv1_1
I1014 18:07:42.108490 19582 net.cpp:157] Top shape: 2 64 576 576 (42467328)
I1014 18:07:42.108501 19582 net.cpp:165] Memory required for data: 179803180
I1014 18:07:42.108530 19582 layer_factory.hpp:76] Creating layer relu1_1
I1014 18:07:42.108552 19582 net.cpp:106] Creating Layer relu1_1
I1014 18:07:42.108562 19582 net.cpp:454] relu1_1 <- conv1_1
I1014 18:07:42.108575 19582 net.cpp:397] relu1_1 -> conv1_1 (in-place)
I1014 18:07:42.109097 19582 net.cpp:150] Setting up relu1_1
I1014 18:07:42.109123 19582 net.cpp:157] Top shape: 2 64 576 576 (42467328)
I1014 18:07:42.109133 19582 net.cpp:165] Memory required for data: 349672492
I1014 18:07:42.109143 19582 layer_factory.hpp:76] Creating layer conv1_2
I1014 18:07:42.109167 19582 net.cpp:106] Creating Layer conv1_2
I1014 18:07:42.109176 19582 net.cpp:454] conv1_2 <- conv1_1
I1014 18:07:42.109191 19582 net.cpp:411] conv1_2 -> conv1_2
I1014 18:07:42.114248 19582 net.cpp:150] Setting up conv1_2
I1014 18:07:42.114282 19582 net.cpp:157] Top shape: 2 64 576 576 (42467328)
I1014 18:07:42.114294 19582 net.cpp:165] Memory required for data: 519541804
I1014 18:07:42.114318 19582 layer_factory.hpp:76] Creating layer relu1_2
I1014 18:07:42.114334 19582 net.cpp:106] Creating Layer relu1_2
I1014 18:07:42.114344 19582 net.cpp:454] relu1_2 <- conv1_2
I1014 18:07:42.114362 19582 net.cpp:397] relu1_2 -> conv1_2 (in-place)
I1014 18:07:42.115193 19582 net.cpp:150] Setting up relu1_2
I1014 18:07:42.115227 19582 net.cpp:157] Top shape: 2 64 576 576 (42467328)
I1014 18:07:42.115249 19582 net.cpp:165] Memory required for data: 689411116
I1014 18:07:42.115259 19582 layer_factory.hpp:76] Creating layer pool1
I1014 18:07:42.115275 19582 net.cpp:106] Creating Layer pool1
I1014 18:07:42.115284 19582 net.cpp:454] pool1 <- conv1_2
I1014 18:07:42.115306 19582 net.cpp:411] pool1 -> pool1
I1014 18:07:42.115857 19582 net.cpp:150] Setting up pool1
I1014 18:07:42.115882 19582 net.cpp:157] Top shape: 2 64 288 288 (10616832)
I1014 18:07:42.115891 19582 net.cpp:165] Memory required for data: 731878444
I1014 18:07:42.115900 19582 layer_factory.hpp:76] Creating layer conv2_1
I1014 18:07:42.115916 19582 net.cpp:106] Creating Layer conv2_1
I1014 18:07:42.115926 19582 net.cpp:454] conv2_1 <- pool1
I1014 18:07:42.115943 19582 net.cpp:411] conv2_1 -> conv2_1
I1014 18:07:42.119010 19582 net.cpp:150] Setting up conv2_1
I1014 18:07:42.119041 19582 net.cpp:157] Top shape: 2 128 288 288 (21233664)
I1014 18:07:42.119052 19582 net.cpp:165] Memory required for data: 816813100
I1014 18:07:42.119077 19582 layer_factory.hpp:76] Creating layer relu2_1
I1014 18:07:42.119096 19582 net.cpp:106] Creating Layer relu2_1
I1014 18:07:42.119107 19582 net.cpp:454] relu2_1 <- conv2_1
I1014 18:07:42.119119 19582 net.cpp:397] relu2_1 -> conv2_1 (in-place)
I1014 18:07:42.119875 19582 net.cpp:150] Setting up relu2_1
I1014 18:07:42.119904 19582 net.cpp:157] Top shape: 2 128 288 288 (21233664)
I1014 18:07:42.119915 19582 net.cpp:165] Memory required for data: 901747756
I1014 18:07:42.119925 19582 layer_factory.hpp:76] Creating layer conv2_2
I1014 18:07:42.119945 19582 net.cpp:106] Creating Layer conv2_2
I1014 18:07:42.119953 19582 net.cpp:454] conv2_2 <- conv2_1
I1014 18:07:42.119971 19582 net.cpp:411] conv2_2 -> conv2_2
I1014 18:07:42.123986 19582 net.cpp:150] Setting up conv2_2
I1014 18:07:42.124020 19582 net.cpp:157] Top shape: 2 128 288 288 (21233664)
I1014 18:07:42.124032 19582 net.cpp:165] Memory required for data: 986682412
I1014 18:07:42.124049 19582 layer_factory.hpp:76] Creating layer relu2_2
I1014 18:07:42.124073 19582 net.cpp:106] Creating Layer relu2_2
I1014 18:07:42.124083 19582 net.cpp:454] relu2_2 <- conv2_2
I1014 18:07:42.124096 19582 net.cpp:397] relu2_2 -> conv2_2 (in-place)
I1014 18:07:42.124934 19582 net.cpp:150] Setting up relu2_2
I1014 18:07:42.124961 19582 net.cpp:157] Top shape: 2 128 288 288 (21233664)
I1014 18:07:42.124971 19582 net.cpp:165] Memory required for data: 1071617068
I1014 18:07:42.124981 19582 layer_factory.hpp:76] Creating layer pool2
I1014 18:07:42.124996 19582 net.cpp:106] Creating Layer pool2
I1014 18:07:42.125006 19582 net.cpp:454] pool2 <- conv2_2
I1014 18:07:42.125020 19582 net.cpp:411] pool2 -> pool2
I1014 18:07:42.125562 19582 net.cpp:150] Setting up pool2
I1014 18:07:42.125584 19582 net.cpp:157] Top shape: 2 128 144 144 (5308416)
I1014 18:07:42.125593 19582 net.cpp:165] Memory required for data: 1092850732
I1014 18:07:42.125602 19582 layer_factory.hpp:76] Creating layer conv3_1
I1014 18:07:42.125623 19582 net.cpp:106] Creating Layer conv3_1
I1014 18:07:42.125633 19582 net.cpp:454] conv3_1 <- pool2
I1014 18:07:42.125646 19582 net.cpp:411] conv3_1 -> conv3_1
I1014 18:07:42.129901 19582 net.cpp:150] Setting up conv3_1
I1014 18:07:42.129930 19582 net.cpp:157] Top shape: 2 256 144 144 (10616832)
I1014 18:07:42.129938 19582 net.cpp:165] Memory required for data: 1135318060
I1014 18:07:42.129961 19582 layer_factory.hpp:76] Creating layer relu3_1
I1014 18:07:42.129974 19582 net.cpp:106] Creating Layer relu3_1
I1014 18:07:42.129983 19582 net.cpp:454] relu3_1 <- conv3_1
I1014 18:07:42.129998 19582 net.cpp:397] relu3_1 -> conv3_1 (in-place)
I1014 18:07:42.130707 19582 net.cpp:150] Setting up relu3_1
I1014 18:07:42.130731 19582 net.cpp:157] Top shape: 2 256 144 144 (10616832)
I1014 18:07:42.130739 19582 net.cpp:165] Memory required for data: 1177785388
I1014 18:07:42.130748 19582 layer_factory.hpp:76] Creating layer conv3_2
I1014 18:07:42.130765 19582 net.cpp:106] Creating Layer conv3_2
I1014 18:07:42.130774 19582 net.cpp:454] conv3_2 <- conv3_1
I1014 18:07:42.130789 19582 net.cpp:411] conv3_2 -> conv3_2
I1014 18:07:42.136307 19582 net.cpp:150] Setting up conv3_2
I1014 18:07:42.136337 19582 net.cpp:157] Top shape: 2 256 144 144 (10616832)
I1014 18:07:42.136346 19582 net.cpp:165] Memory required for data: 1220252716
I1014 18:07:42.136363 19582 layer_factory.hpp:76] Creating layer relu3_2
I1014 18:07:42.136378 19582 net.cpp:106] Creating Layer relu3_2
I1014 18:07:42.136389 19582 net.cpp:454] relu3_2 <- conv3_2
I1014 18:07:42.136402 19582 net.cpp:397] relu3_2 -> conv3_2 (in-place)
I1014 18:07:42.136838 19582 net.cpp:150] Setting up relu3_2
I1014 18:07:42.136862 19582 net.cpp:157] Top shape: 2 256 144 144 (10616832)
I1014 18:07:42.136869 19582 net.cpp:165] Memory required for data: 1262720044
I1014 18:07:42.136878 19582 layer_factory.hpp:76] Creating layer conv3_3
I1014 18:07:42.136894 19582 net.cpp:106] Creating Layer conv3_3
I1014 18:07:42.136904 19582 net.cpp:454] conv3_3 <- conv3_2
I1014 18:07:42.136920 19582 net.cpp:411] conv3_3 -> conv3_3
I1014 18:07:42.143340 19582 net.cpp:150] Setting up conv3_3
I1014 18:07:42.143378 19582 net.cpp:157] Top shape: 2 256 144 144 (10616832)
I1014 18:07:42.143389 19582 net.cpp:165] Memory required for data: 1305187372
I1014 18:07:42.143406 19582 layer_factory.hpp:76] Creating layer relu3_3
I1014 18:07:42.143419 19582 net.cpp:106] Creating Layer relu3_3
I1014 18:07:42.143429 19582 net.cpp:454] relu3_3 <- conv3_3
I1014 18:07:42.143440 19582 net.cpp:397] relu3_3 -> conv3_3 (in-place)
I1014 18:07:42.144196 19582 net.cpp:150] Setting up relu3_3
I1014 18:07:42.144219 19582 net.cpp:157] Top shape: 2 256 144 144 (10616832)
I1014 18:07:42.144228 19582 net.cpp:165] Memory required for data: 1347654700
I1014 18:07:42.144237 19582 layer_factory.hpp:76] Creating layer pool3
I1014 18:07:42.144250 19582 net.cpp:106] Creating Layer pool3
I1014 18:07:42.144258 19582 net.cpp:454] pool3 <- conv3_3
I1014 18:07:42.144273 19582 net.cpp:411] pool3 -> pool3
I1014 18:07:42.145036 19582 net.cpp:150] Setting up pool3
I1014 18:07:42.145061 19582 net.cpp:157] Top shape: 2 256 72 72 (2654208)
I1014 18:07:42.145071 19582 net.cpp:165] Memory required for data: 1358271532
I1014 18:07:42.145078 19582 layer_factory.hpp:76] Creating layer conv4_1
I1014 18:07:42.145095 19582 net.cpp:106] Creating Layer conv4_1
I1014 18:07:42.145104 19582 net.cpp:454] conv4_1 <- pool3
I1014 18:07:42.145120 19582 net.cpp:411] conv4_1 -> conv4_1
I1014 18:07:42.152950 19582 net.cpp:150] Setting up conv4_1
I1014 18:07:42.152976 19582 net.cpp:157] Top shape: 2 512 72 72 (5308416)
I1014 18:07:42.152984 19582 net.cpp:165] Memory required for data: 1379505196
I1014 18:07:42.152998 19582 layer_factory.hpp:76] Creating layer relu4_1
I1014 18:07:42.153013 19582 net.cpp:106] Creating Layer relu4_1
I1014 18:07:42.153022 19582 net.cpp:454] relu4_1 <- conv4_1
I1014 18:07:42.153033 19582 net.cpp:397] relu4_1 -> conv4_1 (in-place)
I1014 18:07:42.153408 19582 net.cpp:150] Setting up relu4_1
I1014 18:07:42.153426 19582 net.cpp:157] Top shape: 2 512 72 72 (5308416)
I1014 18:07:42.153434 19582 net.cpp:165] Memory required for data: 1400738860
I1014 18:07:42.153445 19582 layer_factory.hpp:76] Creating layer conv4_2
I1014 18:07:42.153457 19582 net.cpp:106] Creating Layer conv4_2
I1014 18:07:42.153465 19582 net.cpp:454] conv4_2 <- conv4_1
I1014 18:07:42.153481 19582 net.cpp:411] conv4_2 -> conv4_2
I1014 18:07:42.165719 19582 net.cpp:150] Setting up conv4_2
I1014 18:07:42.165761 19582 net.cpp:157] Top shape: 2 512 72 72 (5308416)
I1014 18:07:42.165769 19582 net.cpp:165] Memory required for data: 1421972524
I1014 18:07:42.165796 19582 layer_factory.hpp:76] Creating layer relu4_2
I1014 18:07:42.165812 19582 net.cpp:106] Creating Layer relu4_2
I1014 18:07:42.165822 19582 net.cpp:454] relu4_2 <- conv4_2
I1014 18:07:42.165833 19582 net.cpp:397] relu4_2 -> conv4_2 (in-place)
I1014 18:07:42.166465 19582 net.cpp:150] Setting up relu4_2
I1014 18:07:42.166489 19582 net.cpp:157] Top shape: 2 512 72 72 (5308416)
I1014 18:07:42.166496 19582 net.cpp:165] Memory required for data: 1443206188
I1014 18:07:42.166504 19582 layer_factory.hpp:76] Creating layer conv4_3
I1014 18:07:42.166518 19582 net.cpp:106] Creating Layer conv4_3
I1014 18:07:42.166527 19582 net.cpp:454] conv4_3 <- conv4_2
I1014 18:07:42.166540 19582 net.cpp:411] conv4_3 -> conv4_3
I1014 18:07:42.177523 19582 net.cpp:150] Setting up conv4_3
I1014 18:07:42.177553 19582 net.cpp:157] Top shape: 2 512 72 72 (5308416)
I1014 18:07:42.177561 19582 net.cpp:165] Memory required for data: 1464439852
I1014 18:07:42.177577 19582 layer_factory.hpp:76] Creating layer relu4_3
I1014 18:07:42.177589 19582 net.cpp:106] Creating Layer relu4_3
I1014 18:07:42.177597 19582 net.cpp:454] relu4_3 <- conv4_3
I1014 18:07:42.177608 19582 net.cpp:397] relu4_3 -> conv4_3 (in-place)
I1014 18:07:42.178202 19582 net.cpp:150] Setting up relu4_3
I1014 18:07:42.178226 19582 net.cpp:157] Top shape: 2 512 72 72 (5308416)
I1014 18:07:42.178233 19582 net.cpp:165] Memory required for data: 1485673516
I1014 18:07:42.178241 19582 layer_factory.hpp:76] Creating layer conv4_3_relu4_3_0_split
I1014 18:07:42.178253 19582 net.cpp:106] Creating Layer conv4_3_relu4_3_0_split
I1014 18:07:42.178261 19582 net.cpp:454] conv4_3_relu4_3_0_split <- conv4_3
I1014 18:07:42.178272 19582 net.cpp:411] conv4_3_relu4_3_0_split -> conv4_3_relu4_3_0_split_0
I1014 18:07:42.178284 19582 net.cpp:411] conv4_3_relu4_3_0_split -> conv4_3_relu4_3_0_split_1
I1014 18:07:42.178299 19582 net.cpp:411] conv4_3_relu4_3_0_split -> conv4_3_relu4_3_0_split_2
I1014 18:07:42.178309 19582 net.cpp:411] conv4_3_relu4_3_0_split -> conv4_3_relu4_3_0_split_3
I1014 18:07:42.178475 19582 net.cpp:150] Setting up conv4_3_relu4_3_0_split
I1014 18:07:42.178490 19582 net.cpp:157] Top shape: 2 512 72 72 (5308416)
I1014 18:07:42.178499 19582 net.cpp:157] Top shape: 2 512 72 72 (5308416)
I1014 18:07:42.178506 19582 net.cpp:157] Top shape: 2 512 72 72 (5308416)
I1014 18:07:42.178514 19582 net.cpp:157] Top shape: 2 512 72 72 (5308416)
I1014 18:07:42.178520 19582 net.cpp:165] Memory required for data: 1570608172
I1014 18:07:42.178526 19582 layer_factory.hpp:76] Creating layer loss1_conv1
I1014 18:07:42.178551 19582 net.cpp:106] Creating Layer loss1_conv1
I1014 18:07:42.178558 19582 net.cpp:454] loss1_conv1 <- conv4_3_relu4_3_0_split_0
I1014 18:07:42.178571 19582 net.cpp:411] loss1_conv1 -> loss1_conv1
I1014 18:07:42.287816 19582 net.cpp:150] Setting up loss1_conv1
I1014 18:07:42.287842 19582 net.cpp:157] Top shape: 2 512 72 72 (5308416)
I1014 18:07:42.287847 19582 net.cpp:165] Memory required for data: 1591841836
I1014 18:07:42.287855 19582 layer_factory.hpp:76] Creating layer loss_relu1
I1014 18:07:42.287865 19582 net.cpp:106] Creating Layer loss_relu1
I1014 18:07:42.287871 19582 net.cpp:454] loss_relu1 <- loss1_conv1
I1014 18:07:42.287879 19582 net.cpp:397] loss_relu1 -> loss1_conv1 (in-place)
I1014 18:07:42.288085 19582 net.cpp:150] Setting up loss_relu1
I1014 18:07:42.288099 19582 net.cpp:157] Top shape: 2 512 72 72 (5308416)
I1014 18:07:42.288101 19582 net.cpp:165] Memory required for data: 1613075500
I1014 18:07:42.288105 19582 layer_factory.hpp:76] Creating layer loss1_conv1_loss_relu1_0_split
I1014 18:07:42.288111 19582 net.cpp:106] Creating Layer loss1_conv1_loss_relu1_0_split
I1014 18:07:42.288115 19582 net.cpp:454] loss1_conv1_loss_relu1_0_split <- loss1_conv1
I1014 18:07:42.288120 19582 net.cpp:411] loss1_conv1_loss_relu1_0_split -> loss1_conv1_loss_relu1_0_split_0
I1014 18:07:42.288126 19582 net.cpp:411] loss1_conv1_loss_relu1_0_split -> loss1_conv1_loss_relu1_0_split_1
I1014 18:07:42.288184 19582 net.cpp:150] Setting up loss1_conv1_loss_relu1_0_split
I1014 18:07:42.288189 19582 net.cpp:157] Top shape: 2 512 72 72 (5308416)
I1014 18:07:42.288193 19582 net.cpp:157] Top shape: 2 512 72 72 (5308416)
I1014 18:07:42.288195 19582 net.cpp:165] Memory required for data: 1655542828
I1014 18:07:42.288198 19582 layer_factory.hpp:76] Creating layer LFCN_1_3x5
I1014 18:07:42.288208 19582 net.cpp:106] Creating Layer LFCN_1_3x5
I1014 18:07:42.288213 19582 net.cpp:454] LFCN_1_3x5 <- loss1_conv1_loss_relu1_0_split_0
I1014 18:07:42.288218 19582 net.cpp:411] LFCN_1_3x5 -> LFCN_1_3x5
I1014 18:07:42.291191 19582 net.cpp:150] Setting up LFCN_1_3x5
I1014 18:07:42.291205 19582 net.cpp:157] Top shape: 2 6 72 72 (62208)
I1014 18:07:42.291209 19582 net.cpp:165] Memory required for data: 1655791660
I1014 18:07:42.291215 19582 layer_factory.hpp:76] Creating layer LFCN_1_3x5_LFCN_1_3x5_0_split
I1014 18:07:42.291224 19582 net.cpp:106] Creating Layer LFCN_1_3x5_LFCN_1_3x5_0_split
I1014 18:07:42.291227 19582 net.cpp:454] LFCN_1_3x5_LFCN_1_3x5_0_split <- LFCN_1_3x5
I1014 18:07:42.291234 19582 net.cpp:411] LFCN_1_3x5_LFCN_1_3x5_0_split -> LFCN_1_3x5_LFCN_1_3x5_0_split_0
I1014 18:07:42.291241 19582 net.cpp:411] LFCN_1_3x5_LFCN_1_3x5_0_split -> LFCN_1_3x5_LFCN_1_3x5_0_split_1
I1014 18:07:42.291247 19582 net.cpp:411] LFCN_1_3x5_LFCN_1_3x5_0_split -> LFCN_1_3x5_LFCN_1_3x5_0_split_2
I1014 18:07:42.291321 19582 net.cpp:150] Setting up LFCN_1_3x5_LFCN_1_3x5_0_split
I1014 18:07:42.291326 19582 net.cpp:157] Top shape: 2 6 72 72 (62208)
I1014 18:07:42.291329 19582 net.cpp:157] Top shape: 2 6 72 72 (62208)
I1014 18:07:42.291332 19582 net.cpp:157] Top shape: 2 6 72 72 (62208)
I1014 18:07:42.291335 19582 net.cpp:165] Memory required for data: 1656538156
I1014 18:07:42.291338 19582 layer_factory.hpp:76] Creating layer detection_loss_1_3x5
I1014 18:07:42.291347 19582 net.cpp:106] Creating Layer detection_loss_1_3x5
I1014 18:07:42.291349 19582 net.cpp:454] detection_loss_1_3x5 <- LFCN_1_3x5_LFCN_1_3x5_0_split_0
I1014 18:07:42.291354 19582 net.cpp:454] detection_loss_1_3x5 <- label_1_3x5_data_1_split_0
I1014 18:07:42.291360 19582 net.cpp:411] detection_loss_1_3x5 -> loss_1_3x5
I1014 18:07:42.291369 19582 layer_factory.hpp:76] Creating layer detection_loss_1_3x5
I1014 18:07:42.292001 19582 net.cpp:150] Setting up detection_loss_1_3x5
I1014 18:07:42.292014 19582 net.cpp:157] Top shape: 1 1 1 2 (2)
I1014 18:07:42.292017 19582 net.cpp:160]     with loss weight 0.9
I1014 18:07:42.292031 19582 net.cpp:165] Memory required for data: 1656538164
I1014 18:07:42.292033 19582 layer_factory.hpp:76] Creating layer detection_accuracy_1_3x5
I1014 18:07:42.292042 19582 net.cpp:106] Creating Layer detection_accuracy_1_3x5
I1014 18:07:42.292044 19582 net.cpp:454] detection_accuracy_1_3x5 <- LFCN_1_3x5_LFCN_1_3x5_0_split_1
I1014 18:07:42.292049 19582 net.cpp:454] detection_accuracy_1_3x5 <- label_1_3x5_data_1_split_1
I1014 18:07:42.292057 19582 net.cpp:411] detection_accuracy_1_3x5 -> accuracy_1_3x5
I1014 18:07:42.292063 19582 net.cpp:411] detection_accuracy_1_3x5 -> boxiou_1_3x5
I1014 18:07:42.292116 19582 net.cpp:150] Setting up detection_accuracy_1_3x5
I1014 18:07:42.292122 19582 net.cpp:157] Top shape: 1 1 1 2 (2)
I1014 18:07:42.292125 19582 net.cpp:157] Top shape: 1 1 1 1 (1)
I1014 18:07:42.292129 19582 net.cpp:165] Memory required for data: 1656538176
I1014 18:07:42.292131 19582 layer_factory.hpp:76] Creating layer LFCN_1_5x7
I1014 18:07:42.292140 19582 net.cpp:106] Creating Layer LFCN_1_5x7
I1014 18:07:42.292145 19582 net.cpp:454] LFCN_1_5x7 <- loss1_conv1_loss_relu1_0_split_1
I1014 18:07:42.292150 19582 net.cpp:411] LFCN_1_5x7 -> LFCN_1_5x7
I1014 18:07:42.297603 19582 net.cpp:150] Setting up LFCN_1_5x7
I1014 18:07:42.297618 19582 net.cpp:157] Top shape: 2 6 72 72 (62208)
I1014 18:07:42.297622 19582 net.cpp:165] Memory required for data: 1656787008
I1014 18:07:42.297629 19582 layer_factory.hpp:76] Creating layer LFCN_1_5x7_LFCN_1_5x7_0_split
I1014 18:07:42.297636 19582 net.cpp:106] Creating Layer LFCN_1_5x7_LFCN_1_5x7_0_split
I1014 18:07:42.297639 19582 net.cpp:454] LFCN_1_5x7_LFCN_1_5x7_0_split <- LFCN_1_5x7
I1014 18:07:42.297646 19582 net.cpp:411] LFCN_1_5x7_LFCN_1_5x7_0_split -> LFCN_1_5x7_LFCN_1_5x7_0_split_0
I1014 18:07:42.297653 19582 net.cpp:411] LFCN_1_5x7_LFCN_1_5x7_0_split -> LFCN_1_5x7_LFCN_1_5x7_0_split_1
I1014 18:07:42.297659 19582 net.cpp:411] LFCN_1_5x7_LFCN_1_5x7_0_split -> LFCN_1_5x7_LFCN_1_5x7_0_split_2
I1014 18:07:42.297731 19582 net.cpp:150] Setting up LFCN_1_5x7_LFCN_1_5x7_0_split
I1014 18:07:42.297737 19582 net.cpp:157] Top shape: 2 6 72 72 (62208)
I1014 18:07:42.297740 19582 net.cpp:157] Top shape: 2 6 72 72 (62208)
I1014 18:07:42.297744 19582 net.cpp:157] Top shape: 2 6 72 72 (62208)
I1014 18:07:42.297746 19582 net.cpp:165] Memory required for data: 1657533504
I1014 18:07:42.297749 19582 layer_factory.hpp:76] Creating layer detection_loss_1_5x7
I1014 18:07:42.297757 19582 net.cpp:106] Creating Layer detection_loss_1_5x7
I1014 18:07:42.297760 19582 net.cpp:454] detection_loss_1_5x7 <- LFCN_1_5x7_LFCN_1_5x7_0_split_0
I1014 18:07:42.297765 19582 net.cpp:454] detection_loss_1_5x7 <- label_1_5x7_data_2_split_0
I1014 18:07:42.297770 19582 net.cpp:411] detection_loss_1_5x7 -> loss_1_5x7
I1014 18:07:42.297778 19582 layer_factory.hpp:76] Creating layer detection_loss_1_5x7
I1014 18:07:42.298409 19582 net.cpp:150] Setting up detection_loss_1_5x7
I1014 18:07:42.298424 19582 net.cpp:157] Top shape: 1 1 1 2 (2)
I1014 18:07:42.298426 19582 net.cpp:160]     with loss weight 0.9
I1014 18:07:42.298434 19582 net.cpp:165] Memory required for data: 1657533512
I1014 18:07:42.298436 19582 layer_factory.hpp:76] Creating layer detection_accuracy_1_5x7
I1014 18:07:42.298444 19582 net.cpp:106] Creating Layer detection_accuracy_1_5x7
I1014 18:07:42.298447 19582 net.cpp:454] detection_accuracy_1_5x7 <- LFCN_1_5x7_LFCN_1_5x7_0_split_1
I1014 18:07:42.298452 19582 net.cpp:454] detection_accuracy_1_5x7 <- label_1_5x7_data_2_split_1
I1014 18:07:42.298460 19582 net.cpp:411] detection_accuracy_1_5x7 -> accuracy_1_5x7
I1014 18:07:42.298466 19582 net.cpp:411] detection_accuracy_1_5x7 -> boxiou_1_5x7
I1014 18:07:42.298521 19582 net.cpp:150] Setting up detection_accuracy_1_5x7
I1014 18:07:42.298527 19582 net.cpp:157] Top shape: 1 1 1 2 (2)
I1014 18:07:42.298529 19582 net.cpp:157] Top shape: 1 1 1 1 (1)
I1014 18:07:42.298532 19582 net.cpp:165] Memory required for data: 1657533524
I1014 18:07:42.298535 19582 layer_factory.hpp:76] Creating layer pool4
I1014 18:07:42.298542 19582 net.cpp:106] Creating Layer pool4
I1014 18:07:42.298544 19582 net.cpp:454] pool4 <- conv4_3_relu4_3_0_split_1
I1014 18:07:42.298552 19582 net.cpp:411] pool4 -> pool4
I1014 18:07:42.299239 19582 net.cpp:150] Setting up pool4
I1014 18:07:42.299253 19582 net.cpp:157] Top shape: 2 512 36 36 (1327104)
I1014 18:07:42.299257 19582 net.cpp:165] Memory required for data: 1662841940
I1014 18:07:42.299260 19582 layer_factory.hpp:76] Creating layer conv5_1
I1014 18:07:42.299269 19582 net.cpp:106] Creating Layer conv5_1
I1014 18:07:42.299273 19582 net.cpp:454] conv5_1 <- pool4
I1014 18:07:42.299278 19582 net.cpp:411] conv5_1 -> conv5_1
I1014 18:07:42.305713 19582 net.cpp:150] Setting up conv5_1
I1014 18:07:42.305732 19582 net.cpp:157] Top shape: 2 512 36 36 (1327104)
I1014 18:07:42.305734 19582 net.cpp:165] Memory required for data: 1668150356
I1014 18:07:42.305742 19582 layer_factory.hpp:76] Creating layer relu5_1
I1014 18:07:42.305748 19582 net.cpp:106] Creating Layer relu5_1
I1014 18:07:42.305752 19582 net.cpp:454] relu5_1 <- conv5_1
I1014 18:07:42.305757 19582 net.cpp:397] relu5_1 -> conv5_1 (in-place)
I1014 18:07:42.306154 19582 net.cpp:150] Setting up relu5_1
I1014 18:07:42.306169 19582 net.cpp:157] Top shape: 2 512 36 36 (1327104)
I1014 18:07:42.306171 19582 net.cpp:165] Memory required for data: 1673458772
I1014 18:07:42.306174 19582 layer_factory.hpp:76] Creating layer conv5_2
I1014 18:07:42.306182 19582 net.cpp:106] Creating Layer conv5_2
I1014 18:07:42.306185 19582 net.cpp:454] conv5_2 <- conv5_1
I1014 18:07:42.306192 19582 net.cpp:411] conv5_2 -> conv5_2
I1014 18:07:42.312914 19582 net.cpp:150] Setting up conv5_2
I1014 18:07:42.312933 19582 net.cpp:157] Top shape: 2 512 36 36 (1327104)
I1014 18:07:42.312937 19582 net.cpp:165] Memory required for data: 1678767188
I1014 18:07:42.312944 19582 layer_factory.hpp:76] Creating layer relu5_2
I1014 18:07:42.312952 19582 net.cpp:106] Creating Layer relu5_2
I1014 18:07:42.312958 19582 net.cpp:454] relu5_2 <- conv5_2
I1014 18:07:42.312963 19582 net.cpp:397] relu5_2 -> conv5_2 (in-place)
I1014 18:07:42.313171 19582 net.cpp:150] Setting up relu5_2
I1014 18:07:42.313182 19582 net.cpp:157] Top shape: 2 512 36 36 (1327104)
I1014 18:07:42.313185 19582 net.cpp:165] Memory required for data: 1684075604
I1014 18:07:42.313189 19582 layer_factory.hpp:76] Creating layer conv5_3
I1014 18:07:42.313197 19582 net.cpp:106] Creating Layer conv5_3
I1014 18:07:42.313200 19582 net.cpp:454] conv5_3 <- conv5_2
I1014 18:07:42.313205 19582 net.cpp:411] conv5_3 -> conv5_3
I1014 18:07:42.319900 19582 net.cpp:150] Setting up conv5_3
I1014 18:07:42.319916 19582 net.cpp:157] Top shape: 2 512 36 36 (1327104)
I1014 18:07:42.319921 19582 net.cpp:165] Memory required for data: 1689384020
I1014 18:07:42.319927 19582 layer_factory.hpp:76] Creating layer relu5_3
I1014 18:07:42.319934 19582 net.cpp:106] Creating Layer relu5_3
I1014 18:07:42.319938 19582 net.cpp:454] relu5_3 <- conv5_3
I1014 18:07:42.319946 19582 net.cpp:397] relu5_3 -> conv5_3 (in-place)
I1014 18:07:42.320332 19582 net.cpp:150] Setting up relu5_3
I1014 18:07:42.320345 19582 net.cpp:157] Top shape: 2 512 36 36 (1327104)
I1014 18:07:42.320348 19582 net.cpp:165] Memory required for data: 1694692436
I1014 18:07:42.320353 19582 layer_factory.hpp:76] Creating layer conv5_3_relu5_3_0_split
I1014 18:07:42.320358 19582 net.cpp:106] Creating Layer conv5_3_relu5_3_0_split
I1014 18:07:42.320363 19582 net.cpp:454] conv5_3_relu5_3_0_split <- conv5_3
I1014 18:07:42.320369 19582 net.cpp:411] conv5_3_relu5_3_0_split -> conv5_3_relu5_3_0_split_0
I1014 18:07:42.320375 19582 net.cpp:411] conv5_3_relu5_3_0_split -> conv5_3_relu5_3_0_split_1
I1014 18:07:42.320381 19582 net.cpp:411] conv5_3_relu5_3_0_split -> conv5_3_relu5_3_0_split_2
I1014 18:07:42.320459 19582 net.cpp:150] Setting up conv5_3_relu5_3_0_split
I1014 18:07:42.320466 19582 net.cpp:157] Top shape: 2 512 36 36 (1327104)
I1014 18:07:42.320471 19582 net.cpp:157] Top shape: 2 512 36 36 (1327104)
I1014 18:07:42.320473 19582 net.cpp:157] Top shape: 2 512 36 36 (1327104)
I1014 18:07:42.320477 19582 net.cpp:165] Memory required for data: 1710617684
I1014 18:07:42.320479 19582 layer_factory.hpp:76] Creating layer LFCN_2_3x5
I1014 18:07:42.320487 19582 net.cpp:106] Creating Layer LFCN_2_3x5
I1014 18:07:42.320492 19582 net.cpp:454] LFCN_2_3x5 <- conv5_3_relu5_3_0_split_0
I1014 18:07:42.320497 19582 net.cpp:411] LFCN_2_3x5 -> LFCN_2_3x5
I1014 18:07:42.323400 19582 net.cpp:150] Setting up LFCN_2_3x5
I1014 18:07:42.323415 19582 net.cpp:157] Top shape: 2 6 36 36 (15552)
I1014 18:07:42.323420 19582 net.cpp:165] Memory required for data: 1710679892
I1014 18:07:42.323436 19582 layer_factory.hpp:76] Creating layer LFCN_2_3x5_LFCN_2_3x5_0_split
I1014 18:07:42.323444 19582 net.cpp:106] Creating Layer LFCN_2_3x5_LFCN_2_3x5_0_split
I1014 18:07:42.323448 19582 net.cpp:454] LFCN_2_3x5_LFCN_2_3x5_0_split <- LFCN_2_3x5
I1014 18:07:42.323456 19582 net.cpp:411] LFCN_2_3x5_LFCN_2_3x5_0_split -> LFCN_2_3x5_LFCN_2_3x5_0_split_0
I1014 18:07:42.323462 19582 net.cpp:411] LFCN_2_3x5_LFCN_2_3x5_0_split -> LFCN_2_3x5_LFCN_2_3x5_0_split_1
I1014 18:07:42.323468 19582 net.cpp:411] LFCN_2_3x5_LFCN_2_3x5_0_split -> LFCN_2_3x5_LFCN_2_3x5_0_split_2
I1014 18:07:42.323542 19582 net.cpp:150] Setting up LFCN_2_3x5_LFCN_2_3x5_0_split
I1014 18:07:42.323547 19582 net.cpp:157] Top shape: 2 6 36 36 (15552)
I1014 18:07:42.323551 19582 net.cpp:157] Top shape: 2 6 36 36 (15552)
I1014 18:07:42.323555 19582 net.cpp:157] Top shape: 2 6 36 36 (15552)
I1014 18:07:42.323557 19582 net.cpp:165] Memory required for data: 1710866516
I1014 18:07:42.323560 19582 layer_factory.hpp:76] Creating layer detection_loss_2_3x5
I1014 18:07:42.323568 19582 net.cpp:106] Creating Layer detection_loss_2_3x5
I1014 18:07:42.323572 19582 net.cpp:454] detection_loss_2_3x5 <- LFCN_2_3x5_LFCN_2_3x5_0_split_0
I1014 18:07:42.323577 19582 net.cpp:454] detection_loss_2_3x5 <- label_2_3x5_data_3_split_0
I1014 18:07:42.323583 19582 net.cpp:411] detection_loss_2_3x5 -> loss_2_3x5
I1014 18:07:42.323592 19582 layer_factory.hpp:76] Creating layer detection_loss_2_3x5
I1014 18:07:42.324237 19582 net.cpp:150] Setting up detection_loss_2_3x5
I1014 18:07:42.324251 19582 net.cpp:157] Top shape: 1 1 1 2 (2)
I1014 18:07:42.324254 19582 net.cpp:160]     with loss weight 1
I1014 18:07:42.324265 19582 net.cpp:165] Memory required for data: 1710866524
I1014 18:07:42.324270 19582 layer_factory.hpp:76] Creating layer detection_accuracy_2_3x5
I1014 18:07:42.324278 19582 net.cpp:106] Creating Layer detection_accuracy_2_3x5
I1014 18:07:42.324282 19582 net.cpp:454] detection_accuracy_2_3x5 <- LFCN_2_3x5_LFCN_2_3x5_0_split_1
I1014 18:07:42.324287 19582 net.cpp:454] detection_accuracy_2_3x5 <- label_2_3x5_data_3_split_1
I1014 18:07:42.324292 19582 net.cpp:411] detection_accuracy_2_3x5 -> accuracy_2_3x5
I1014 18:07:42.324301 19582 net.cpp:411] detection_accuracy_2_3x5 -> boxiou_2_3x5
I1014 18:07:42.324358 19582 net.cpp:150] Setting up detection_accuracy_2_3x5
I1014 18:07:42.324364 19582 net.cpp:157] Top shape: 1 1 1 2 (2)
I1014 18:07:42.324368 19582 net.cpp:157] Top shape: 1 1 1 1 (1)
I1014 18:07:42.324371 19582 net.cpp:165] Memory required for data: 1710866536
I1014 18:07:42.324374 19582 layer_factory.hpp:76] Creating layer LFCN_2_5x7
I1014 18:07:42.324383 19582 net.cpp:106] Creating Layer LFCN_2_5x7
I1014 18:07:42.324386 19582 net.cpp:454] LFCN_2_5x7 <- conv5_3_relu5_3_0_split_1
I1014 18:07:42.324393 19582 net.cpp:411] LFCN_2_5x7 -> LFCN_2_5x7
I1014 18:07:42.329773 19582 net.cpp:150] Setting up LFCN_2_5x7
I1014 18:07:42.329788 19582 net.cpp:157] Top shape: 2 6 36 36 (15552)
I1014 18:07:42.329792 19582 net.cpp:165] Memory required for data: 1710928744
I1014 18:07:42.329798 19582 layer_factory.hpp:76] Creating layer LFCN_2_5x7_LFCN_2_5x7_0_split
I1014 18:07:42.329807 19582 net.cpp:106] Creating Layer LFCN_2_5x7_LFCN_2_5x7_0_split
I1014 18:07:42.329810 19582 net.cpp:454] LFCN_2_5x7_LFCN_2_5x7_0_split <- LFCN_2_5x7
I1014 18:07:42.329816 19582 net.cpp:411] LFCN_2_5x7_LFCN_2_5x7_0_split -> LFCN_2_5x7_LFCN_2_5x7_0_split_0
I1014 18:07:42.329825 19582 net.cpp:411] LFCN_2_5x7_LFCN_2_5x7_0_split -> LFCN_2_5x7_LFCN_2_5x7_0_split_1
I1014 18:07:42.329830 19582 net.cpp:411] LFCN_2_5x7_LFCN_2_5x7_0_split -> LFCN_2_5x7_LFCN_2_5x7_0_split_2
I1014 18:07:42.329910 19582 net.cpp:150] Setting up LFCN_2_5x7_LFCN_2_5x7_0_split
I1014 18:07:42.329915 19582 net.cpp:157] Top shape: 2 6 36 36 (15552)
I1014 18:07:42.329918 19582 net.cpp:157] Top shape: 2 6 36 36 (15552)
I1014 18:07:42.329921 19582 net.cpp:157] Top shape: 2 6 36 36 (15552)
I1014 18:07:42.329924 19582 net.cpp:165] Memory required for data: 1711115368
I1014 18:07:42.329927 19582 layer_factory.hpp:76] Creating layer detection_loss_2_5x7
I1014 18:07:42.329936 19582 net.cpp:106] Creating Layer detection_loss_2_5x7
I1014 18:07:42.329938 19582 net.cpp:454] detection_loss_2_5x7 <- LFCN_2_5x7_LFCN_2_5x7_0_split_0
I1014 18:07:42.329943 19582 net.cpp:454] detection_loss_2_5x7 <- label_2_5x7_data_4_split_0
I1014 18:07:42.329951 19582 net.cpp:411] detection_loss_2_5x7 -> loss_2_5x7
I1014 18:07:42.329958 19582 layer_factory.hpp:76] Creating layer detection_loss_2_5x7
I1014 18:07:42.330420 19582 net.cpp:150] Setting up detection_loss_2_5x7
I1014 18:07:42.330433 19582 net.cpp:157] Top shape: 1 1 1 2 (2)
I1014 18:07:42.330436 19582 net.cpp:160]     with loss weight 1
I1014 18:07:42.330442 19582 net.cpp:165] Memory required for data: 1711115376
I1014 18:07:42.330446 19582 layer_factory.hpp:76] Creating layer detection_accuracy_2_5x7
I1014 18:07:42.330452 19582 net.cpp:106] Creating Layer detection_accuracy_2_5x7
I1014 18:07:42.330456 19582 net.cpp:454] detection_accuracy_2_5x7 <- LFCN_2_5x7_LFCN_2_5x7_0_split_1
I1014 18:07:42.330461 19582 net.cpp:454] detection_accuracy_2_5x7 <- label_2_5x7_data_4_split_1
I1014 18:07:42.330466 19582 net.cpp:411] detection_accuracy_2_5x7 -> accuracy_2_5x7
I1014 18:07:42.330472 19582 net.cpp:411] detection_accuracy_2_5x7 -> boxiou_2_5x7
I1014 18:07:42.330528 19582 net.cpp:150] Setting up detection_accuracy_2_5x7
I1014 18:07:42.330533 19582 net.cpp:157] Top shape: 1 1 1 2 (2)
I1014 18:07:42.330538 19582 net.cpp:157] Top shape: 1 1 1 1 (1)
I1014 18:07:42.330539 19582 net.cpp:165] Memory required for data: 1711115388
I1014 18:07:42.330543 19582 layer_factory.hpp:76] Creating layer pool5
I1014 18:07:42.330550 19582 net.cpp:106] Creating Layer pool5
I1014 18:07:42.330554 19582 net.cpp:454] pool5 <- conv5_3_relu5_3_0_split_2
I1014 18:07:42.330559 19582 net.cpp:411] pool5 -> pool5
I1014 18:07:42.331038 19582 net.cpp:150] Setting up pool5
I1014 18:07:42.331053 19582 net.cpp:157] Top shape: 2 512 18 18 (331776)
I1014 18:07:42.331055 19582 net.cpp:165] Memory required for data: 1712442492
I1014 18:07:42.331059 19582 layer_factory.hpp:76] Creating layer conv6_1
I1014 18:07:42.331070 19582 net.cpp:106] Creating Layer conv6_1
I1014 18:07:42.331074 19582 net.cpp:454] conv6_1 <- pool5
I1014 18:07:42.331080 19582 net.cpp:411] conv6_1 -> conv6_1
I1014 18:07:42.419538 19582 net.cpp:150] Setting up conv6_1
I1014 18:07:42.419558 19582 net.cpp:157] Top shape: 2 512 18 18 (331776)
I1014 18:07:42.419561 19582 net.cpp:165] Memory required for data: 1713769596
I1014 18:07:42.419569 19582 layer_factory.hpp:76] Creating layer relu6_1
I1014 18:07:42.419576 19582 net.cpp:106] Creating Layer relu6_1
I1014 18:07:42.419580 19582 net.cpp:454] relu6_1 <- conv6_1
I1014 18:07:42.419585 19582 net.cpp:397] relu6_1 -> conv6_1 (in-place)
I1014 18:07:42.420018 19582 net.cpp:150] Setting up relu6_1
I1014 18:07:42.420032 19582 net.cpp:157] Top shape: 2 512 18 18 (331776)
I1014 18:07:42.420035 19582 net.cpp:165] Memory required for data: 1715096700
I1014 18:07:42.420038 19582 layer_factory.hpp:76] Creating layer conv6_1_relu6_1_0_split
I1014 18:07:42.420044 19582 net.cpp:106] Creating Layer conv6_1_relu6_1_0_split
I1014 18:07:42.420048 19582 net.cpp:454] conv6_1_relu6_1_0_split <- conv6_1
I1014 18:07:42.420055 19582 net.cpp:411] conv6_1_relu6_1_0_split -> conv6_1_relu6_1_0_split_0
I1014 18:07:42.420063 19582 net.cpp:411] conv6_1_relu6_1_0_split -> conv6_1_relu6_1_0_split_1
I1014 18:07:42.420069 19582 net.cpp:411] conv6_1_relu6_1_0_split -> conv6_1_relu6_1_0_split_2
I1014 18:07:42.420151 19582 net.cpp:150] Setting up conv6_1_relu6_1_0_split
I1014 18:07:42.420159 19582 net.cpp:157] Top shape: 2 512 18 18 (331776)
I1014 18:07:42.420163 19582 net.cpp:157] Top shape: 2 512 18 18 (331776)
I1014 18:07:42.420166 19582 net.cpp:157] Top shape: 2 512 18 18 (331776)
I1014 18:07:42.420169 19582 net.cpp:165] Memory required for data: 1719078012
I1014 18:07:42.420172 19582 layer_factory.hpp:76] Creating layer LFCN_3_3x5
I1014 18:07:42.420179 19582 net.cpp:106] Creating Layer LFCN_3_3x5
I1014 18:07:42.420183 19582 net.cpp:454] LFCN_3_3x5 <- conv6_1_relu6_1_0_split_0
I1014 18:07:42.420191 19582 net.cpp:411] LFCN_3_3x5 -> LFCN_3_3x5
I1014 18:07:42.423223 19582 net.cpp:150] Setting up LFCN_3_3x5
I1014 18:07:42.423238 19582 net.cpp:157] Top shape: 2 6 18 18 (3888)
I1014 18:07:42.423243 19582 net.cpp:165] Memory required for data: 1719093564
I1014 18:07:42.423249 19582 layer_factory.hpp:76] Creating layer LFCN_3_3x5_LFCN_3_3x5_0_split
I1014 18:07:42.423266 19582 net.cpp:106] Creating Layer LFCN_3_3x5_LFCN_3_3x5_0_split
I1014 18:07:42.423270 19582 net.cpp:454] LFCN_3_3x5_LFCN_3_3x5_0_split <- LFCN_3_3x5
I1014 18:07:42.423276 19582 net.cpp:411] LFCN_3_3x5_LFCN_3_3x5_0_split -> LFCN_3_3x5_LFCN_3_3x5_0_split_0
I1014 18:07:42.423283 19582 net.cpp:411] LFCN_3_3x5_LFCN_3_3x5_0_split -> LFCN_3_3x5_LFCN_3_3x5_0_split_1
I1014 18:07:42.423290 19582 net.cpp:411] LFCN_3_3x5_LFCN_3_3x5_0_split -> LFCN_3_3x5_LFCN_3_3x5_0_split_2
I1014 18:07:42.423367 19582 net.cpp:150] Setting up LFCN_3_3x5_LFCN_3_3x5_0_split
I1014 18:07:42.423377 19582 net.cpp:157] Top shape: 2 6 18 18 (3888)
I1014 18:07:42.423379 19582 net.cpp:157] Top shape: 2 6 18 18 (3888)
I1014 18:07:42.423383 19582 net.cpp:157] Top shape: 2 6 18 18 (3888)
I1014 18:07:42.423387 19582 net.cpp:165] Memory required for data: 1719140220
I1014 18:07:42.423389 19582 layer_factory.hpp:76] Creating layer detection_loss_3_3x5
I1014 18:07:42.423396 19582 net.cpp:106] Creating Layer detection_loss_3_3x5
I1014 18:07:42.423400 19582 net.cpp:454] detection_loss_3_3x5 <- LFCN_3_3x5_LFCN_3_3x5_0_split_0
I1014 18:07:42.423405 19582 net.cpp:454] detection_loss_3_3x5 <- label_3_3x5_data_5_split_0
I1014 18:07:42.423413 19582 net.cpp:411] detection_loss_3_3x5 -> loss_3_3x5
I1014 18:07:42.423420 19582 layer_factory.hpp:76] Creating layer detection_loss_3_3x5
I1014 18:07:42.423872 19582 net.cpp:150] Setting up detection_loss_3_3x5
I1014 18:07:42.423884 19582 net.cpp:157] Top shape: 1 1 1 2 (2)
I1014 18:07:42.423887 19582 net.cpp:160]     with loss weight 1
I1014 18:07:42.423894 19582 net.cpp:165] Memory required for data: 1719140228
I1014 18:07:42.423897 19582 layer_factory.hpp:76] Creating layer detection_accuracy_3_3x5
I1014 18:07:42.423903 19582 net.cpp:106] Creating Layer detection_accuracy_3_3x5
I1014 18:07:42.423907 19582 net.cpp:454] detection_accuracy_3_3x5 <- LFCN_3_3x5_LFCN_3_3x5_0_split_1
I1014 18:07:42.423913 19582 net.cpp:454] detection_accuracy_3_3x5 <- label_3_3x5_data_5_split_1
I1014 18:07:42.423919 19582 net.cpp:411] detection_accuracy_3_3x5 -> accuracy_3_3x5
I1014 18:07:42.423928 19582 net.cpp:411] detection_accuracy_3_3x5 -> boxiou_3_3x5
I1014 18:07:42.423982 19582 net.cpp:150] Setting up detection_accuracy_3_3x5
I1014 18:07:42.423987 19582 net.cpp:157] Top shape: 1 1 1 2 (2)
I1014 18:07:42.423991 19582 net.cpp:157] Top shape: 1 1 1 1 (1)
I1014 18:07:42.423995 19582 net.cpp:165] Memory required for data: 1719140240
I1014 18:07:42.423997 19582 layer_factory.hpp:76] Creating layer LFCN_3_5x7
I1014 18:07:42.424005 19582 net.cpp:106] Creating Layer LFCN_3_5x7
I1014 18:07:42.424010 19582 net.cpp:454] LFCN_3_5x7 <- conv6_1_relu6_1_0_split_1
I1014 18:07:42.424015 19582 net.cpp:411] LFCN_3_5x7 -> LFCN_3_5x7
I1014 18:07:42.429769 19582 net.cpp:150] Setting up LFCN_3_5x7
I1014 18:07:42.429783 19582 net.cpp:157] Top shape: 2 6 18 18 (3888)
I1014 18:07:42.429787 19582 net.cpp:165] Memory required for data: 1719155792
I1014 18:07:42.429795 19582 layer_factory.hpp:76] Creating layer LFCN_3_5x7_LFCN_3_5x7_0_split
I1014 18:07:42.429800 19582 net.cpp:106] Creating Layer LFCN_3_5x7_LFCN_3_5x7_0_split
I1014 18:07:42.429805 19582 net.cpp:454] LFCN_3_5x7_LFCN_3_5x7_0_split <- LFCN_3_5x7
I1014 18:07:42.429812 19582 net.cpp:411] LFCN_3_5x7_LFCN_3_5x7_0_split -> LFCN_3_5x7_LFCN_3_5x7_0_split_0
I1014 18:07:42.429819 19582 net.cpp:411] LFCN_3_5x7_LFCN_3_5x7_0_split -> LFCN_3_5x7_LFCN_3_5x7_0_split_1
I1014 18:07:42.429824 19582 net.cpp:411] LFCN_3_5x7_LFCN_3_5x7_0_split -> LFCN_3_5x7_LFCN_3_5x7_0_split_2
I1014 18:07:42.429904 19582 net.cpp:150] Setting up LFCN_3_5x7_LFCN_3_5x7_0_split
I1014 18:07:42.429910 19582 net.cpp:157] Top shape: 2 6 18 18 (3888)
I1014 18:07:42.429913 19582 net.cpp:157] Top shape: 2 6 18 18 (3888)
I1014 18:07:42.429918 19582 net.cpp:157] Top shape: 2 6 18 18 (3888)
I1014 18:07:42.429919 19582 net.cpp:165] Memory required for data: 1719202448
I1014 18:07:42.429922 19582 layer_factory.hpp:76] Creating layer detection_loss_3_5x7
I1014 18:07:42.429929 19582 net.cpp:106] Creating Layer detection_loss_3_5x7
I1014 18:07:42.429931 19582 net.cpp:454] detection_loss_3_5x7 <- LFCN_3_5x7_LFCN_3_5x7_0_split_0
I1014 18:07:42.429936 19582 net.cpp:454] detection_loss_3_5x7 <- label_3_5x7_data_6_split_0
I1014 18:07:42.429942 19582 net.cpp:411] detection_loss_3_5x7 -> loss_3_5x7
I1014 18:07:42.429950 19582 layer_factory.hpp:76] Creating layer detection_loss_3_5x7
I1014 18:07:42.430598 19582 net.cpp:150] Setting up detection_loss_3_5x7
I1014 18:07:42.430613 19582 net.cpp:157] Top shape: 1 1 1 2 (2)
I1014 18:07:42.430616 19582 net.cpp:160]     with loss weight 1
I1014 18:07:42.430622 19582 net.cpp:165] Memory required for data: 1719202456
I1014 18:07:42.430625 19582 layer_factory.hpp:76] Creating layer detection_accuracy_3_5x7
I1014 18:07:42.430632 19582 net.cpp:106] Creating Layer detection_accuracy_3_5x7
I1014 18:07:42.430636 19582 net.cpp:454] detection_accuracy_3_5x7 <- LFCN_3_5x7_LFCN_3_5x7_0_split_1
I1014 18:07:42.430641 19582 net.cpp:454] detection_accuracy_3_5x7 <- label_3_5x7_data_6_split_1
I1014 18:07:42.430647 19582 net.cpp:411] detection_accuracy_3_5x7 -> accuracy_3_5x7
I1014 18:07:42.430656 19582 net.cpp:411] detection_accuracy_3_5x7 -> boxiou_3_5x7
I1014 18:07:42.430713 19582 net.cpp:150] Setting up detection_accuracy_3_5x7
I1014 18:07:42.430718 19582 net.cpp:157] Top shape: 1 1 1 2 (2)
I1014 18:07:42.430722 19582 net.cpp:157] Top shape: 1 1 1 1 (1)
I1014 18:07:42.430726 19582 net.cpp:165] Memory required for data: 1719202468
I1014 18:07:42.430728 19582 layer_factory.hpp:76] Creating layer pool6
I1014 18:07:42.430735 19582 net.cpp:106] Creating Layer pool6
I1014 18:07:42.430739 19582 net.cpp:454] pool6 <- conv6_1_relu6_1_0_split_2
I1014 18:07:42.430744 19582 net.cpp:411] pool6 -> pool6
I1014 18:07:42.431023 19582 net.cpp:150] Setting up pool6
I1014 18:07:42.431035 19582 net.cpp:157] Top shape: 2 512 9 9 (82944)
I1014 18:07:42.431040 19582 net.cpp:165] Memory required for data: 1719534244
I1014 18:07:42.431042 19582 layer_factory.hpp:76] Creating layer LFCN_4_3x5
I1014 18:07:42.431051 19582 net.cpp:106] Creating Layer LFCN_4_3x5
I1014 18:07:42.431056 19582 net.cpp:454] LFCN_4_3x5 <- pool6
I1014 18:07:42.431062 19582 net.cpp:411] LFCN_4_3x5 -> LFCN_4_3x5
I1014 18:07:42.434258 19582 net.cpp:150] Setting up LFCN_4_3x5
I1014 18:07:42.434273 19582 net.cpp:157] Top shape: 2 6 9 9 (972)
I1014 18:07:42.434275 19582 net.cpp:165] Memory required for data: 1719538132
I1014 18:07:42.434283 19582 layer_factory.hpp:76] Creating layer LFCN_4_3x5_LFCN_4_3x5_0_split
I1014 18:07:42.434289 19582 net.cpp:106] Creating Layer LFCN_4_3x5_LFCN_4_3x5_0_split
I1014 18:07:42.434293 19582 net.cpp:454] LFCN_4_3x5_LFCN_4_3x5_0_split <- LFCN_4_3x5
I1014 18:07:42.434298 19582 net.cpp:411] LFCN_4_3x5_LFCN_4_3x5_0_split -> LFCN_4_3x5_LFCN_4_3x5_0_split_0
I1014 18:07:42.434309 19582 net.cpp:411] LFCN_4_3x5_LFCN_4_3x5_0_split -> LFCN_4_3x5_LFCN_4_3x5_0_split_1
I1014 18:07:42.434314 19582 net.cpp:411] LFCN_4_3x5_LFCN_4_3x5_0_split -> LFCN_4_3x5_LFCN_4_3x5_0_split_2
I1014 18:07:42.434422 19582 net.cpp:150] Setting up LFCN_4_3x5_LFCN_4_3x5_0_split
I1014 18:07:42.434433 19582 net.cpp:157] Top shape: 2 6 9 9 (972)
I1014 18:07:42.434437 19582 net.cpp:157] Top shape: 2 6 9 9 (972)
I1014 18:07:42.434440 19582 net.cpp:157] Top shape: 2 6 9 9 (972)
I1014 18:07:42.434443 19582 net.cpp:165] Memory required for data: 1719549796
I1014 18:07:42.434447 19582 layer_factory.hpp:76] Creating layer detection_loss_4_3x5
I1014 18:07:42.434453 19582 net.cpp:106] Creating Layer detection_loss_4_3x5
I1014 18:07:42.434455 19582 net.cpp:454] detection_loss_4_3x5 <- LFCN_4_3x5_LFCN_4_3x5_0_split_0
I1014 18:07:42.434460 19582 net.cpp:454] detection_loss_4_3x5 <- label_4_3x5_data_7_split_0
I1014 18:07:42.434468 19582 net.cpp:411] detection_loss_4_3x5 -> loss_4_3x5
I1014 18:07:42.434474 19582 layer_factory.hpp:76] Creating layer detection_loss_4_3x5
I1014 18:07:42.435163 19582 net.cpp:150] Setting up detection_loss_4_3x5
I1014 18:07:42.435179 19582 net.cpp:157] Top shape: 1 1 1 2 (2)
I1014 18:07:42.435183 19582 net.cpp:160]     with loss weight 1
I1014 18:07:42.435189 19582 net.cpp:165] Memory required for data: 1719549804
I1014 18:07:42.435192 19582 layer_factory.hpp:76] Creating layer detection_accuracy_4_3x5
I1014 18:07:42.435199 19582 net.cpp:106] Creating Layer detection_accuracy_4_3x5
I1014 18:07:42.435202 19582 net.cpp:454] detection_accuracy_4_3x5 <- LFCN_4_3x5_LFCN_4_3x5_0_split_1
I1014 18:07:42.435207 19582 net.cpp:454] detection_accuracy_4_3x5 <- label_4_3x5_data_7_split_1
I1014 18:07:42.435212 19582 net.cpp:411] detection_accuracy_4_3x5 -> accuracy_4_3x5
I1014 18:07:42.435220 19582 net.cpp:411] detection_accuracy_4_3x5 -> boxiou_4_3x5
I1014 18:07:42.435277 19582 net.cpp:150] Setting up detection_accuracy_4_3x5
I1014 18:07:42.435283 19582 net.cpp:157] Top shape: 1 1 1 2 (2)
I1014 18:07:42.435287 19582 net.cpp:157] Top shape: 1 1 1 1 (1)
I1014 18:07:42.435289 19582 net.cpp:165] Memory required for data: 1719549816
I1014 18:07:42.435292 19582 layer_factory.hpp:76] Creating layer proposals
I1014 18:07:42.435302 19582 net.cpp:106] Creating Layer proposals
I1014 18:07:42.435305 19582 net.cpp:454] proposals <- LFCN_1_3x5_LFCN_1_3x5_0_split_2
I1014 18:07:42.435309 19582 net.cpp:454] proposals <- LFCN_1_5x7_LFCN_1_5x7_0_split_2
I1014 18:07:42.435313 19582 net.cpp:454] proposals <- LFCN_2_3x5_LFCN_2_3x5_0_split_2
I1014 18:07:42.435317 19582 net.cpp:454] proposals <- LFCN_2_5x7_LFCN_2_5x7_0_split_2
I1014 18:07:42.435320 19582 net.cpp:454] proposals <- LFCN_3_3x5_LFCN_3_3x5_0_split_2
I1014 18:07:42.435324 19582 net.cpp:454] proposals <- LFCN_3_5x7_LFCN_3_5x7_0_split_2
I1014 18:07:42.435328 19582 net.cpp:454] proposals <- LFCN_4_3x5_LFCN_4_3x5_0_split_2
I1014 18:07:42.435333 19582 net.cpp:411] proposals -> proposals
I1014 18:07:42.435366 19582 net.cpp:150] Setting up proposals
I1014 18:07:42.435371 19582 net.cpp:157] Top shape: 1 5 1 1 (5)
I1014 18:07:42.435374 19582 net.cpp:165] Memory required for data: 1719549836
I1014 18:07:42.435377 19582 layer_factory.hpp:76] Creating layer proposal_info
I1014 18:07:42.435386 19582 net.cpp:106] Creating Layer proposal_info
I1014 18:07:42.435389 19582 net.cpp:454] proposal_info <- proposals
I1014 18:07:42.435394 19582 net.cpp:454] proposal_info <- gt_boxes
I1014 18:07:42.435400 19582 net.cpp:411] proposal_info -> rois
I1014 18:07:42.435406 19582 net.cpp:411] proposal_info -> proposal_labels
I1014 18:07:42.435413 19582 net.cpp:411] proposal_info -> proposal_targets
I1014 18:07:42.435421 19582 net.cpp:411] proposal_info -> box_inside_weights
I1014 18:07:42.435426 19582 net.cpp:411] proposal_info -> box_outside_weights
I1014 18:07:42.435432 19582 net.cpp:411] proposal_info -> match_gt_boxes
I1014 18:07:42.435559 19582 net.cpp:150] Setting up proposal_info
I1014 18:07:42.435564 19582 net.cpp:157] Top shape: 64 5 1 1 (320)
I1014 18:07:42.435569 19582 net.cpp:157] Top shape: 64 1 1 1 (64)
I1014 18:07:42.435572 19582 net.cpp:157] Top shape: 64 8 1 1 (512)
I1014 18:07:42.435575 19582 net.cpp:157] Top shape: 64 8 1 1 (512)
I1014 18:07:42.435578 19582 net.cpp:157] Top shape: 64 8 1 1 (512)
I1014 18:07:42.435582 19582 net.cpp:157] Top shape: 64 6 1 1 (384)
I1014 18:07:42.435585 19582 net.cpp:165] Memory required for data: 1719559052
I1014 18:07:42.435587 19582 layer_factory.hpp:76] Creating layer rois_proposal_info_0_split
I1014 18:07:42.435592 19582 net.cpp:106] Creating Layer rois_proposal_info_0_split
I1014 18:07:42.435596 19582 net.cpp:454] rois_proposal_info_0_split <- rois
I1014 18:07:42.435602 19582 net.cpp:411] rois_proposal_info_0_split -> rois_proposal_info_0_split_0
I1014 18:07:42.435607 19582 net.cpp:411] rois_proposal_info_0_split -> rois_proposal_info_0_split_1
I1014 18:07:42.435612 19582 net.cpp:411] rois_proposal_info_0_split -> rois_proposal_info_0_split_2
I1014 18:07:42.435675 19582 net.cpp:150] Setting up rois_proposal_info_0_split
I1014 18:07:42.435680 19582 net.cpp:157] Top shape: 64 5 1 1 (320)
I1014 18:07:42.435683 19582 net.cpp:157] Top shape: 64 5 1 1 (320)
I1014 18:07:42.435686 19582 net.cpp:157] Top shape: 64 5 1 1 (320)
I1014 18:07:42.435689 19582 net.cpp:165] Memory required for data: 1719562892
I1014 18:07:42.435693 19582 layer_factory.hpp:76] Creating layer proposal_labels_proposal_info_1_split
I1014 18:07:42.435696 19582 net.cpp:106] Creating Layer proposal_labels_proposal_info_1_split
I1014 18:07:42.435700 19582 net.cpp:454] proposal_labels_proposal_info_1_split <- proposal_labels
I1014 18:07:42.435706 19582 net.cpp:411] proposal_labels_proposal_info_1_split -> proposal_labels_proposal_info_1_split_0
I1014 18:07:42.435711 19582 net.cpp:411] proposal_labels_proposal_info_1_split -> proposal_labels_proposal_info_1_split_1
I1014 18:07:42.435755 19582 net.cpp:150] Setting up proposal_labels_proposal_info_1_split
I1014 18:07:42.435760 19582 net.cpp:157] Top shape: 64 1 1 1 (64)
I1014 18:07:42.435762 19582 net.cpp:157] Top shape: 64 1 1 1 (64)
I1014 18:07:42.435765 19582 net.cpp:165] Memory required for data: 1719563404
I1014 18:07:42.435768 19582 layer_factory.hpp:76] Creating layer roi_pool_org
I1014 18:07:42.435775 19582 net.cpp:106] Creating Layer roi_pool_org
I1014 18:07:42.435778 19582 net.cpp:454] roi_pool_org <- conv4_3_relu4_3_0_split_2
I1014 18:07:42.435783 19582 net.cpp:454] roi_pool_org <- rois_proposal_info_0_split_0
I1014 18:07:42.435787 19582 net.cpp:411] roi_pool_org -> roi_pool_org
I1014 18:07:42.435794 19582 roi_pooling_layer.cpp:35] Spatial scale: 0.125
I1014 18:07:42.435845 19582 net.cpp:150] Setting up roi_pool_org
I1014 18:07:42.435850 19582 net.cpp:157] Top shape: 64 512 8 4 (1048576)
I1014 18:07:42.435853 19582 net.cpp:165] Memory required for data: 1723757708
I1014 18:07:42.435856 19582 layer_factory.hpp:76] Creating layer roi_pool_ctx
I1014 18:07:42.435863 19582 net.cpp:106] Creating Layer roi_pool_ctx
I1014 18:07:42.435865 19582 net.cpp:454] roi_pool_ctx <- conv4_3_relu4_3_0_split_3
I1014 18:07:42.435869 19582 net.cpp:454] roi_pool_ctx <- rois_proposal_info_0_split_1
I1014 18:07:42.435874 19582 net.cpp:411] roi_pool_ctx -> roi_pool_ctx
I1014 18:07:42.435879 19582 roi_pooling_layer.cpp:35] Spatial scale: 0.125
I1014 18:07:42.435930 19582 net.cpp:150] Setting up roi_pool_ctx
I1014 18:07:42.435935 19582 net.cpp:157] Top shape: 64 512 8 4 (1048576)
I1014 18:07:42.435936 19582 net.cpp:165] Memory required for data: 1727952012
I1014 18:07:42.435940 19582 layer_factory.hpp:76] Creating layer roi_pool
I1014 18:07:42.435945 19582 net.cpp:106] Creating Layer roi_pool
I1014 18:07:42.435947 19582 net.cpp:454] roi_pool <- roi_pool_org
I1014 18:07:42.435951 19582 net.cpp:454] roi_pool <- roi_pool_ctx
I1014 18:07:42.435956 19582 net.cpp:411] roi_pool -> roi_pool
I1014 18:07:42.435987 19582 net.cpp:150] Setting up roi_pool
I1014 18:07:42.435992 19582 net.cpp:157] Top shape: 64 1024 8 4 (2097152)
I1014 18:07:42.435994 19582 net.cpp:165] Memory required for data: 1736340620
I1014 18:07:42.435997 19582 layer_factory.hpp:76] Creating layer roi_c1
I1014 18:07:42.436004 19582 net.cpp:106] Creating Layer roi_c1
I1014 18:07:42.436007 19582 net.cpp:454] roi_c1 <- roi_pool
I1014 18:07:42.436013 19582 net.cpp:411] roi_c1 -> roi_c1
I1014 18:07:42.611819 19582 net.cpp:150] Setting up roi_c1
I1014 18:07:42.611852 19582 net.cpp:157] Top shape: 64 512 8 4 (1048576)
I1014 18:07:42.611856 19582 net.cpp:165] Memory required for data: 1740534924
I1014 18:07:42.611865 19582 layer_factory.hpp:76] Creating layer roi_c1_relu
I1014 18:07:42.611874 19582 net.cpp:106] Creating Layer roi_c1_relu
I1014 18:07:42.611881 19582 net.cpp:454] roi_c1_relu <- roi_c1
I1014 18:07:42.611887 19582 net.cpp:397] roi_c1_relu -> roi_c1 (in-place)
I1014 18:07:42.612299 19582 net.cpp:150] Setting up roi_c1_relu
I1014 18:07:42.612313 19582 net.cpp:157] Top shape: 64 512 8 4 (1048576)
I1014 18:07:42.612316 19582 net.cpp:165] Memory required for data: 1744729228
I1014 18:07:42.612320 19582 layer_factory.hpp:76] Creating layer fc6
I1014 18:07:42.612329 19582 net.cpp:106] Creating Layer fc6
I1014 18:07:42.612334 19582 net.cpp:454] fc6 <- roi_c1
I1014 18:07:42.612341 19582 net.cpp:411] fc6 -> fc6
I1014 18:07:43.699770 19582 net.cpp:150] Setting up fc6
I1014 18:07:43.699803 19582 net.cpp:157] Top shape: 64 2048 (131072)
I1014 18:07:43.699807 19582 net.cpp:165] Memory required for data: 1745253516
I1014 18:07:43.699823 19582 layer_factory.hpp:76] Creating layer relu6
I1014 18:07:43.699849 19582 net.cpp:106] Creating Layer relu6
I1014 18:07:43.699867 19582 net.cpp:454] relu6 <- fc6
I1014 18:07:43.699874 19582 net.cpp:397] relu6 -> fc6 (in-place)
I1014 18:07:43.700294 19582 net.cpp:150] Setting up relu6
I1014 18:07:43.700307 19582 net.cpp:157] Top shape: 64 2048 (131072)
I1014 18:07:43.700310 19582 net.cpp:165] Memory required for data: 1745777804
I1014 18:07:43.700314 19582 layer_factory.hpp:76] Creating layer drop6
I1014 18:07:43.700320 19582 net.cpp:106] Creating Layer drop6
I1014 18:07:43.700323 19582 net.cpp:454] drop6 <- fc6
I1014 18:07:43.700330 19582 net.cpp:397] drop6 -> fc6 (in-place)
I1014 18:07:43.700366 19582 net.cpp:150] Setting up drop6
I1014 18:07:43.700371 19582 net.cpp:157] Top shape: 64 2048 (131072)
I1014 18:07:43.700373 19582 net.cpp:165] Memory required for data: 1746302092
I1014 18:07:43.700376 19582 layer_factory.hpp:76] Creating layer fc6_drop6_0_split
I1014 18:07:43.700382 19582 net.cpp:106] Creating Layer fc6_drop6_0_split
I1014 18:07:43.700386 19582 net.cpp:454] fc6_drop6_0_split <- fc6
I1014 18:07:43.700389 19582 net.cpp:411] fc6_drop6_0_split -> fc6_drop6_0_split_0
I1014 18:07:43.700395 19582 net.cpp:411] fc6_drop6_0_split -> fc6_drop6_0_split_1
I1014 18:07:43.700466 19582 net.cpp:150] Setting up fc6_drop6_0_split
I1014 18:07:43.700471 19582 net.cpp:157] Top shape: 64 2048 (131072)
I1014 18:07:43.700474 19582 net.cpp:157] Top shape: 64 2048 (131072)
I1014 18:07:43.700477 19582 net.cpp:165] Memory required for data: 1747350668
I1014 18:07:43.700479 19582 layer_factory.hpp:76] Creating layer cls_pred
I1014 18:07:43.700491 19582 net.cpp:106] Creating Layer cls_pred
I1014 18:07:43.700495 19582 net.cpp:454] cls_pred <- fc6_drop6_0_split_0
I1014 18:07:43.700505 19582 net.cpp:411] cls_pred -> cls_pred
I1014 18:07:43.700788 19582 net.cpp:150] Setting up cls_pred
I1014 18:07:43.700795 19582 net.cpp:157] Top shape: 64 2 (128)
I1014 18:07:43.700798 19582 net.cpp:165] Memory required for data: 1747351180
I1014 18:07:43.700804 19582 layer_factory.hpp:76] Creating layer cls_pred_cls_pred_0_split
I1014 18:07:43.700809 19582 net.cpp:106] Creating Layer cls_pred_cls_pred_0_split
I1014 18:07:43.700811 19582 net.cpp:454] cls_pred_cls_pred_0_split <- cls_pred
I1014 18:07:43.700819 19582 net.cpp:411] cls_pred_cls_pred_0_split -> cls_pred_cls_pred_0_split_0
I1014 18:07:43.700824 19582 net.cpp:411] cls_pred_cls_pred_0_split -> cls_pred_cls_pred_0_split_1
I1014 18:07:43.700868 19582 net.cpp:150] Setting up cls_pred_cls_pred_0_split
I1014 18:07:43.700872 19582 net.cpp:157] Top shape: 64 2 (128)
I1014 18:07:43.700875 19582 net.cpp:157] Top shape: 64 2 (128)
I1014 18:07:43.700878 19582 net.cpp:165] Memory required for data: 1747352204
I1014 18:07:43.700881 19582 layer_factory.hpp:76] Creating layer bbox_pred
I1014 18:07:43.700889 19582 net.cpp:106] Creating Layer bbox_pred
I1014 18:07:43.700892 19582 net.cpp:454] bbox_pred <- fc6_drop6_0_split_1
I1014 18:07:43.700901 19582 net.cpp:411] bbox_pred -> bbox_pred
I1014 18:07:43.702287 19582 net.cpp:150] Setting up bbox_pred
I1014 18:07:43.702301 19582 net.cpp:157] Top shape: 64 8 (512)
I1014 18:07:43.702304 19582 net.cpp:165] Memory required for data: 1747354252
I1014 18:07:43.702311 19582 layer_factory.hpp:76] Creating layer bbox_pred_bbox_pred_0_split
I1014 18:07:43.702316 19582 net.cpp:106] Creating Layer bbox_pred_bbox_pred_0_split
I1014 18:07:43.702319 19582 net.cpp:454] bbox_pred_bbox_pred_0_split <- bbox_pred
I1014 18:07:43.702327 19582 net.cpp:411] bbox_pred_bbox_pred_0_split -> bbox_pred_bbox_pred_0_split_0
I1014 18:07:43.702389 19582 net.cpp:411] bbox_pred_bbox_pred_0_split -> bbox_pred_bbox_pred_0_split_1
I1014 18:07:43.702447 19582 net.cpp:150] Setting up bbox_pred_bbox_pred_0_split
I1014 18:07:43.702453 19582 net.cpp:157] Top shape: 64 8 (512)
I1014 18:07:43.702456 19582 net.cpp:157] Top shape: 64 8 (512)
I1014 18:07:43.702458 19582 net.cpp:165] Memory required for data: 1747358348
I1014 18:07:43.702461 19582 layer_factory.hpp:76] Creating layer loss_cls
I1014 18:07:43.702473 19582 net.cpp:106] Creating Layer loss_cls
I1014 18:07:43.702477 19582 net.cpp:454] loss_cls <- cls_pred_cls_pred_0_split_0
I1014 18:07:43.702482 19582 net.cpp:454] loss_cls <- proposal_labels_proposal_info_1_split_0
…
