…
    downsample_rate: 32
    downsample_rate: 32
    downsample_rate: 64
    coord_num: 4
    field_h: 60
    field_h: 84
    field_h: 120
    field_h: 168
    field_h: 240
    field_h: 336
    field_h: 480
    field_w: 30
    field_w: 42
    field_w: 60
    field_w: 84
    field_w: 120
    field_w: 168
    field_w: 240
    fg_threshold: 0.5
    resize_width: 960
    resize_height: 720
    crop_width: 576
    crop_height: 576
    do_multiple_scale: true
    min_scale: 40
    max_scale: 340
    min_gt_height: 65
    shuffle: true
    output_gt_boxes: true
  }
}
layer {
  name: "conv1_1"
  type: "Convolution"
  bottom: "data"
  top: "conv1_1"
  param {
    lr_mult: 0
    decay_mult: 0
  }
  param {
    lr_mult: 0
    decay_mult: 0
  }
  convolution_param {
    num_output: 64
    pad: 1
    kernel_size: 3
  }
}
layer {
  name: "relu1_1"
  type: "ReLU"
  bottom: "conv1_1"
  top: "conv1_1"
}
layer {
  name: "conv1_2"
  type: "Convolution"
  bottom: "conv1_1"
  top: "conv1_2"
  param {
    lr_mult: 0
    decay_mult: 0
  }
  param {
    lr_mult: 0
    decay_mult: 0
  }
  convolution_param {
    num_output: 64
    pad: 1
    kernel_size: 3
  }
}
layer {
  name: "relu1_2"
  type: "ReLU"
  bottom: "conv1_2"
  top: "conv1_2"
}
layer {
  name: "pool1"
  type: "Pooling"
  bottom: "conv1_2"
  top: "pool1"
  pooling_param {
    pool: MAX
    kernel_size: 2
    stride: 2
  }
}
layer {
  name: "conv2_1"
  type: "Convolution"
  bottom: "pool1"
  top: "conv2_1"
  param {
    lr_mult: 0
    decay_mult: 0
  }
  param {
    lr_mult: 0
    decay_mult: 0
  }
  convolution_param {
    num_output: 128
    pad: 1
    kernel_size: 3
  }
}
layer {
  name: "relu2_1"
  type: "ReLU"
  bottom: "conv2_1"
  top: "conv2_1"
}
layer {
  name: "conv2_2"
  type: "Convolution"
  bottom: "conv2_1"
  top: "conv2_2"
  param {
    lr_mult: 0
    decay_mult: 0
  }
  param {
    lr_mult: 0
    decay_mult: 0
  }
  convolution_param {
    num_output: 128
    pad: 1
    kernel_size: 3
  }
}
layer {
  name: "relu2_2"
  type: "ReLU"
  bottom: "conv2_2"
  top: "conv2_2"
}
layer {
  name: "pool2"
  type: "Pooling"
  bottom: "conv2_2"
  top: "pool2"
  pooling_param {
    pool: MAX
    kernel_size: 2
    stride: 2
  }
}
layer {
  name: "conv3_1"
  type: "Convolution"
  bottom: "pool2"
  top: "conv3_1"
  convolution_param {
    num_output: 256
    pad: 1
    kernel_size: 3
  }
}
layer {
  name: "relu3_1"
  type: "ReLU"
  bottom: "conv3_1"
  top: "conv3_1"
}
layer {
  name: "conv3_2"
  type: "Convolution"
  bottom: "conv3_1"
  top: "conv3_2"
  convolution_param {
    num_output: 256
    pad: 1
    kernel_size: 3
  }
}
layer {
  name: "relu3_2"
  type: "ReLU"
  bottom: "conv3_2"
  top: "conv3_2"
}
layer {
  name: "conv3_3"
  type: "Convolution"
  bottom: "conv3_2"
  top: "conv3_3"
  convolution_param {
    num_output: 256
    pad: 1
    kernel_size: 3
  }
}
layer {
  name: "relu3_3"
  type: "ReLU"
  bottom: "conv3_3"
  top: "conv3_3"
}
layer {
  name: "pool3"
  type: "Pooling"
  bottom: "conv3_3"
  top: "pool3"
  pooling_param {
    pool: MAX
    kernel_size: 2
    stride: 2
  }
}
layer {
  name: "conv4_1"
  type: "Convolution"
  bottom: "pool3"
  top: "conv4_1"
  convolution_param {
    num_output: 512
    pad: 1
    kernel_size: 3
  }
}
layer {
  name: "relu4_1"
  type: "ReLU"
  bottom: "conv4_1"
  top: "conv4_1"
}
layer {
  name: "conv4_2"
  type: "Convolution"
  bottom: "conv4_1"
  top: "conv4_2"
  convolution_param {
    num_output: 512
    pad: 1
    kernel_size: 3
  }
}
layer {
  name: "relu4_2"
  type: "ReLU"
  bottom: "conv4_2"
  top: "conv4_2"
}
layer {
  name: "conv4_3"
  type: "Convolution"
  bottom: "conv4_2"
  top: "conv4_3"
  convolution_param {
    num_output: 512
    pad: 1
    kernel_size: 3
  }
}
layer {
  name: "relu4_3"
  type: "ReLU"
  bottom: "conv4_3"
  top: "conv4_3"
}
layer {
  name: "loss1_conv1"
  type: "Convolution"
  bottom: "conv4_3"
  top: "loss1_conv1"
  param {
    lr_mult: 1
    decay_mult: 1
  }
  param {
    lr_mult: 2
    decay_mult: 0
  }
  convolution_param {
    num_output: 512
    pad: 1
    kernel_size: 3
    weight_filler {
      type: "gaussian"
      std: 0.01
    }
    bias_filler {
      type: "constant"
    }
  }
}
layer {
  name: "loss_relu1"
  type: "ReLU"
  bottom: "loss1_conv1"
  top: "loss1_conv1"
}
layer {
  name: "LFCN_1_3x5"
  type: "Convolution"
  bottom: "loss1_conv1"
  top: "LFCN_1_3x5"
  param {
    lr_mult: 1
    decay_mult: 1
  }
  param {
    lr_mult: 2
    decay_mult: 0
  }
  convolution_param {
    num_output: 6
    weight_filler {
      type: "gaussian"
      std: 0.001
    }
    bias_filler {
      type: "constant"
    }
    pad_h: 2
    pad_w: 1
    kernel_h: 5
    kernel_w: 3
  }
}
layer {
  name: "detection_loss_1_3x5"
  type: "Detection"
  bottom: "LFCN_1_3x5"
  bottom: "label_1_3x5"
  top: "loss_1_3x5"
  loss_weight: 0.9
  detection_param {
    cls_num: 2
    coord_num: 4
    lambda: 1
    field_h: 60
    field_w: 30
    downsample_rate: 8
    bb_smooth: true
    field_whr: 2
    field_xyr: 2
    bg_threshold: 0.2
    bg_multiple: 2
    sample_mode: "bootstrap"
    pos_neg_weighted: true
  }
}
layer {
  name: "detection_accuracy_1_3x5"
  type: "DetectionAccuracy"
  bottom: "LFCN_1_3x5"
  bottom: "label_1_3x5"
  top: "accuracy_1_3x5"
  top: "boxiou_1_3x5"
  detection_accuracy_param {
    cls_num: 2
    coord_num: 4
    field_h: 60
    field_w: 30
    downsample_rate: 8
    field_whr: 2
    field_xyr: 2
  }
}
layer {
  name: "LFCN_1_5x7"
  type: "Convolution"
  bottom: "loss1_conv1"
  top: "LFCN_1_5x7"
  param {
    lr_mult: 1
    decay_mult: 1
  }
  param {
    lr_mult: 2
    decay_mult: 0
  }
  convolution_param {
    num_output: 6
    weight_filler {
      type: "gaussian"
      std: 0.001
    }
    bias_filler {
      type: "constant"
    }
    pad_h: 3
    pad_w: 2
    kernel_h: 7
    kernel_w: 5
  }
}
layer {
  name: "detection_loss_1_5x7"
  type: "Detection"
  bottom: "LFCN_1_5x7"
  bottom: "label_1_5x7"
  top: "loss_1_5x7"
  loss_weight: 0.9
  detection_param {
    cls_num: 2
    coord_num: 4
    lambda: 1
    field_h: 84
    field_w: 42
    downsample_rate: 8
    bb_smooth: true
    field_whr: 2
    field_xyr: 2
    bg_threshold: 0.2
    bg_multiple: 2
    sample_mode: "bootstrap"
    pos_neg_weighted: true
  }
}
layer {
  name: "detection_accuracy_1_5x7"
  type: "DetectionAccuracy"
  bottom: "LFCN_1_5x7"
  bottom: "label_1_5x7"
  top: "accuracy_1_5x7"
  top: "boxiou_1_5x7"
  detection_accuracy_param {
    cls_num: 2
    coord_num: 4
    field_h: 84
    field_w: 42
    downsample_rate: 8
    field_whr: 2
    field_xyr: 2
  }
}
layer {
  name: "pool4"
  type: "Pooling"
  bottom: "conv4_3"
  top: "pool4"
  pooling_param {
    pool: MAX
    kernel_size: 2
    stride: 2
  }
}
layer {
  name: "conv5_1"
  type: "Convolution"
  bottom: "pool4"
  top: "conv5_1"
  convolution_param {
    num_output: 512
    pad: 1
    kernel_size: 3
  }
}
layer {
  name: "relu5_1"
  type: "ReLU"
  bottom: "conv5_1"
  top: "conv5_1"
}
layer {
  name: "conv5_2"
  type: "Convolution"
  bottom: "conv5_1"
  top: "conv5_2"
  convolution_param {
    num_output: 512
    pad: 1
    kernel_size: 3
  }
}
layer {
  name: "relu5_2"
  type: "ReLU"
  bottom: "conv5_2"
  top: "conv5_2"
}
layer {
  name: "conv5_3"
  type: "Convolution"
  bottom: "conv5_2"
  top: "conv5_3"
  convolution_param {
    num_output: 512
    pad: 1
    kernel_size: 3
  }
}
layer {
  name: "relu5_3"
  type: "ReLU"
  bottom: "conv5_3"
  top: "conv5_3"
}
layer {
  name: "LFCN_2_3x5"
  type: "Convolution"
  bottom: "conv5_3"
  top: "LFCN_2_3x5"
  param {
    lr_mult: 1
    decay_mult: 1
  }
  param {
    lr_mult: 2
    decay_mult: 0
  }
  convolution_param {
    num_output: 6
    weight_filler {
      type: "gaussian"
      std: 0.001
    }
    bias_filler {
      type: "constant"
    }
    pad_h: 2
    pad_w: 1
    kernel_h: 5
    kernel_w: 3
  }
}
layer {
  name: "detection_loss_2_3x5"
  type: "Detection"
  bottom: "LFCN_2_3x5"
  bottom: "label_2_3x5"
  top: "loss_2_3x5"
  detection_param {
    cls_num: 2
    coord_num: 4
    lambda: 1
    field_h: 120
    field_w: 60
    downsample_rate: 16
    bb_smooth: true
    field_whr: 2
    field_xyr: 2
    bg_threshold: 0.2
    bg_multiple: 2
    sample_mode: "bootstrap"
    pos_neg_weighted: true
  }
}
layer {
  name: "detection_accuracy_2_3x5"
  type: "DetectionAccuracy"
  bottom: "LFCN_2_3x5"
  bottom: "label_2_3x5"
  top: "accuracy_2_3x5"
  top: "boxiou_2_3x5"
  detection_accuracy_param {
    cls_num: 2
    coord_num: 4
    field_h: 120
    field_w: 60
    downsample_rate: 16
    field_whr: 2
    field_xyr: 2
  }
}
layer {
  name: "LFCN_2_5x7"
  type: "Convolution"
  bottom: "conv5_3"
  top: "LFCN_2_5x7"
  param {
    lr_mult: 1
    decay_mult: 1
  }
  param {
    lr_mult: 2
    decay_mult: 0
  }
  convolution_param {
    num_output: 6
    weight_filler {
      type: "gaussian"
      std: 0.001
    }
    bias_filler {
      type: "constant"
    }
    pad_h: 3
    pad_w: 2
    kernel_h: 7
    kernel_w: 5
  }
}
layer {
  name: "detection_loss_2_5x7"
  type: "Detection"
  bottom: "LFCN_2_5x7"
  bottom: "label_2_5x7"
  top: "loss_2_5x7"
  detection_param {
    cls_num: 2
    coord_num: 4
    lambda: 1
    field_h: 168
    field_w: 84
    downsample_rate: 16
    bb_smooth: true
    field_whr: 2
    field_xyr: 2
    bg_threshold: 0.2
    bg_multiple: 2
    sample_mode: "bootstrap"
    pos_neg_weighted: true
  }
}
layer {
  name: "detection_accuracy_2_5x7"
  type: "DetectionAccuracy"
  bottom: "LFCN_2_5x7"
  bottom: "label_2_5x7"
  top: "accuracy_2_5x7"
  top: "boxiou_2_5x7"
  detection_accuracy_param {
    cls_num: 2
    coord_num: 4
    field_h: 168
    field_w: 84
    downsample_rate: 16
    field_whr: 2
    field_xyr: 2
  }
}
layer {
  name: "pool5"
  type: "Pooling"
  bottom: "conv5_3"
  top: "pool5"
  pooling_param {
    pool: MAX
    kernel_size: 2
    stride: 2
  }
}
layer {
  name: "conv6_1"
  type: "Convolution"
  bottom: "pool5"
  top: "conv6_1"
  param {
    lr_mult: 1
    decay_mult: 1
  }
  param {
    lr_mult: 2
    decay_mult: 0
  }
  convolution_param {
    num_output: 512
    pad: 1
    kernel_size: 3
    weight_filler {
      type: "gaussian"
      std: 0.01
    }
    bias_filler {
      type: "constant"
    }
  }
}
layer {
  name: "relu6_1"
  type: "ReLU"
  bottom: "conv6_1"
  top: "conv6_1"
}
layer {
  name: "LFCN_3_3x5"
  type: "Convolution"
  bottom: "conv6_1"
  top: "LFCN_3_3x5"
  param {
    lr_mult: 1
    decay_mult: 1
  }
  param {
    lr_mult: 2
    decay_mult: 0
  }
  convolution_param {
    num_output: 6
    weight_filler {
      type: "gaussian"
      std: 0.001
    }
    bias_filler {
      type: "constant"
    }
    pad_h: 2
    pad_w: 1
    kernel_h: 5
    kernel_w: 3
  }
}
layer {
  name: "detection_loss_3_3x5"
  type: "Detection"
  bottom: "LFCN_3_3x5"
  bottom: "label_3_3x5"
  top: "loss_3_3x5"
  detection_param {
    cls_num: 2
    coord_num: 4
    lambda: 1
    field_h: 240
    field_w: 120
    downsample_rate: 32
    bb_smooth: true
    field_whr: 2
    field_xyr: 2
    bg_threshold: 0.2
    bg_multiple: 2
    sample_mode: "bootstrap"
    pos_neg_weighted: true
  }
}
layer {
  name: "detection_accuracy_3_3x5"
  type: "DetectionAccuracy"
  bottom: "LFCN_3_3x5"
  bottom: "label_3_3x5"
  top: "accuracy_3_3x5"
  top: "boxiou_3_3x5"
  detection_accuracy_param {
    cls_num: 2
    coord_num: 4
    field_h: 240
    field_w: 120
    downsample_rate: 32
    field_whr: 2
    field_xyr: 2
  }
}
layer {
  name: "LFCN_3_5x7"
  type: "Convolution"
  bottom: "conv6_1"
  top: "LFCN_3_5x7"
  param {
    lr_mult: 1
    decay_mult: 1
  }
  param {
    lr_mult: 2
    decay_mult: 0
  }
  convolution_param {
    num_output: 6
    weight_filler {
      type: "gaussian"
      std: 0.001
    }
    bias_filler {
      type: "constant"
    }
    pad_h: 3
    pad_w: 2
    kernel_h: 7
    kernel_w: 5
  }
}
layer {
  name: "detection_loss_3_5x7"
  type: "Detection"
  bottom: "LFCN_3_5x7"
  bottom: "label_3_5x7"
  top: "loss_3_5x7"
  detection_param {
    cls_num: 2
    coord_num: 4
    lambda: 1
    field_h: 336
    field_w: 168
    downsample_rate: 32
    bb_smooth: true
    field_whr: 2
    field_xyr: 2
    bg_threshold: 0.2
    bg_multiple: 2
    sample_mode: "bootstrap"
    pos_neg_weighted: true
  }
}
layer {
  name: "detection_accuracy_3_5x7"
  type: "DetectionAccuracy"
  bottom: "LFCN_3_5x7"
  bottom: "label_3_5x7"
  top: "accuracy_3_5x7"
  top: "boxiou_3_5x7"
  detection_accuracy_param {
    cls_num: 2
    coord_num: 4
    field_h: 336
    field_w: 168
    downsample_rate: 32
    field_whr: 2
    field_xyr: 2
  }
}
layer {
  name: "pool6"
  type: "Pooling"
  bottom: "conv6_1"
  top: "pool6"
  pooling_param {
    pool: MAX
    kernel_size: 2
    stride: 2
  }
}
layer {
  name: "LFCN_4_3x5"
  type: "Convolution"
  bottom: "pool6"
  top: "LFCN_4_3x5"
  param {
    lr_mult: 1
    decay_mult: 1
  }
  param {
    lr_mult: 2
    decay_mult: 0
  }
  convolution_param {
    num_output: 6
    weight_filler {
      type: "gaussian"
      std: 0.001
    }
    bias_filler {
      type: "constant"
    }
    pad_h: 2
    pad_w: 1
    kernel_h: 5
    kernel_w: 3
  }
}
layer {
  name: "detection_loss_4_3x5"
  type: "Detection"
  bottom: "LFCN_4_3x5"
  bottom: "label_4_3x5"
  top: "loss_4_3x5"
  detection_param {
    cls_num: 2
    coord_num: 4
    lambda: 1
    field_h: 480
    field_w: 240
    downsample_rate: 64
    bb_smooth: true
    field_whr: 2
    field_xyr: 2
    bg_threshold: 0.2
    bg_multiple: 2
    sample_mode: "bootstrap"
    pos_neg_weighted: true
  }
}
layer {
  name: "detection_accuracy_4_3x5"
  type: "DetectionAccuracy"
  bottom: "LFCN_4_3x5"
  bottom: "label_4_3x5"
  top: "accuracy_4_3x5"
  top: "boxiou_4_3x5"
  detection_accuracy_param {
    cls_num: 2
    coord_num: 4
    field_h: 480
    field_w: 240
    downsample_rate: 64
    field_whr: 2
    field_xyr: 2
  }
}
layer {
  name: "proposals"
  type: "BoxOutput"
  bottom: "LFCN_1_3x5"
  bottom: "LFCN_1_5x7"
  bottom: "LFCN_2_3x5"
  bottom: "LFCN_2_5x7"
  bottom: "LFCN_3_3x5"
  bottom: "LFCN_3_5x7"
  bottom: "LFCN_4_3x5"
  top: "proposals"
  propagate_down: false
  propagate_down: false
  propagate_down: false
  propagate_down: false
  propagate_down: false
  propagate_down: false
  propagate_down: false
  box_output_param {
    fg_thr: -10
    iou_thr: 0.65
    nms_type: "IOU"
    field_h: 60
    field_h: 84
    field_h: 120
    field_h: 168
    field_h: 240
    field_h: 336
    field_h: 480
    field_w: 30
    field_w: 42
    field_w: 60
    field_w: 84
    field_w: 120
    field_w: 168
    field_w: 240
    downsample_rate: 8
    downsample_rate: 8
    downsample_rate: 16
    downsample_rate: 16
    downsample_rate: 32
    downsample_rate: 32
    downsample_rate: 64
    field_whr: 2
    field_xyr: 2
    max_nms_num: 3000
  }
}
layer {
  name: "proposal_info"
  type: "ProposalTarget"
  bottom: "proposals"
  bottom: "gt_boxes"
  top: "rois"
  top: "proposal_labels"
  top: "proposal_targets"
  top: "box_inside_weights"
  top: "box_outside_weights"
  top: "match_gt_boxes"
  include {
    phase: TRAIN
  }
  propagate_down: false
  propagate_down: false
  proposal_target_param {
    cls_num: 2
    batch_size: 128
    fg_fraction: 0.25
    num_img_per_batch: 4
    fg_thr: 0.45
    bg_thr_hg: 0.44
    bg_thr_lw: 0.05
    img_width: 576
    img_height: 576
    bbox_mean: 0
    bbox_mean: 0
    bbox_mean: 0
    bbox_mean: 0
    bbox_std: 0.1
    bbox_std: 0.1
    bbox_std: 0.2
    bbox_std: 0.2
  }
}
layer {
  name: "roi_pool_org"
  type: "ROIPooling"
  bottom: "conv4_3"
  bottom: "rois"
  top: "roi_pool_org"
  roi_pooling_param {
    pooled_h: 8
    pooled_w: 4
    spatial_scale: 0.125
    pad_ratio: 0
  }
}
layer {
  name: "roi_pool_ctx"
  type: "ROIPooling"
  bottom: "conv4_3"
  bottom: "rois"
  top: "roi_pool_ctx"
  roi_pooling_param {
    pooled_h: 8
    pooled_w: 4
    spatial_scale: 0.125
    pad_ratio: 0.25
  }
}
layer {
  name: "roi_pool"
  type: "Concat"
  bottom: "roi_pool_org"
  bottom: "roi_pool_ctx"
  top: "roi_pool"
}
layer {
  name: "roi_c1"
  type: "Convolution"
  bottom: "roi_pool"
  top: "roi_c1"
  param {
    lr_mult: 1
    decay_mult: 1
  }
  param {
    lr_mult: 2
    decay_mult: 0
  }
  convolution_param {
    num_output: 512
    pad: 1
    kernel_size: 3
    weight_filler {
      type: "gaussian"
      std: 0.01
    }
    bias_filler {
      type: "constant"
    }
  }
}
layer {
  name: "roi_c1_relu"
  type: "ReLU"
  bottom: "roi_c1"
  top: "roi_c1"
}
layer {
  name: "fc6"
  type: "InnerProduct"
  bottom: "roi_c1"
  top: "fc6"
  param {
    lr_mult: 1
  }
  param {
    lr_mult: 2
  }
  inner_product_param {
    num_output: 2048
    weight_filler {
      type: "gaussian"
      std: 0.001
    }
    bias_filler {
      type: "constant"
      value: 0
    }
  }
}
layer {
  name: "relu6"
  type: "ReLU"
  bottom: "fc6"
  top: "fc6"
}
layer {
  name: "drop6"
  type: "Dropout"
  bottom: "fc6"
  top: "fc6"
  dropout_param {
    dropout_ratio: 0.5
  }
}
layer {
  name: "cls_pred"
  type: "InnerProduct"
  bottom: "fc6"
  top: "cls_pred"
  param {
    lr_mult: 1
  }
  param {
    lr_mult: 2
  }
  inner_product_param {
    num_output: 2
    weight_filler {
      type: "gaussian"
      std: 0.01
    }
    bias_filler {
      type: "constant"
      value: 0
    }
  }
}
layer {
  name: "bbox_pred"
  type: "InnerProduct"
  bottom: "fc6"
  top: "bbox_pred"
  param {
    lr_mult: 1
  }
  param {
    lr_mult: 2
  }
  inner_product_param {
    num_output: 8
    weight_filler {
      type: "gaussian"
      std: 0.001
    }
    bias_filler {
      type: "constant"
      value: 0
    }
  }
}
layer {
  name: "loss_cls"
  type: "SoftmaxWithLoss"
  bottom: "cls_pred"
  bottom: "proposal_labels"
  top: "loss_cls"
  loss_weight: 1
  propagate_down: true
  propagate_down: false
}
layer {
  name: "cls_accuracy"
  type: "Accuracy"
  bottom: "cls_pred"
  bottom: "proposal_labels"
  top: "cls_accuracy"
}
layer {
  name: "loss_bbox"
  type: "SmoothL1Loss"
  bottom: "bbox_pred"
  bottom: "proposal_targets"
  bottom: "box_inside_weights"
  bottom: "box_outside_weights"
  top: "loss_bbox"
  loss_weight: 1
}
layer {
  name: "bbox_iou"
  type: "BboxAccuracy"
  bottom: "bbox_pred"
  bottom: "rois"
  bottom: "match_gt_boxes"
  top: "bbox_iou"
  top: "bbox_iou_pre"
  bbox_accuracy_param {
    bbox_mean: 0
    bbox_mean: 0
    bbox_mean: 0
    bbox_mean: 0
    bbox_std: 0.1
    bbox_std: 0.1
    bbox_std: 0.2
    bbox_std: 0.2
  }
}
I1013 12:31:36.624830 19498 layer_factory.hpp:76] Creating layer data
I1013 12:31:36.624903 19498 net.cpp:106] Creating Layer data
I1013 12:31:36.624917 19498 net.cpp:411] data -> data
…
I1013 12:31:37.153163 19498 image_gt_data_layer.cpp:234] output label size 2 : 4,6,36,36
I1013 12:31:37.153213 19498 image_gt_data_layer.cpp:234] output label size 3 : 4,6,36,36
I1013 12:31:37.153259 19498 image_gt_data_layer.cpp:234] output label size 4 : 4,6,18,18
I1013 12:31:37.153301 19498 image_gt_data_layer.cpp:234] output label size 5 : 4,6,18,18
I1013 12:31:37.153339 19498 image_gt_data_layer.cpp:234] output label size 6 : 4,6,9,9
I1013 12:31:37.153379 19498 image_gt_data_layer.cpp:249] output gt boxes size: 1,7,1,1
I1013 12:31:37.188402 19498 net.cpp:150] Setting up data
I1013 12:31:37.188443 19498 net.cpp:157] Top shape: 4 3 576 576 (3981312)
I1013 12:31:37.188448 19498 net.cpp:157] Top shape: 4 6 72 72 (124416)
I1013 12:31:37.188452 19498 net.cpp:157] Top shape: 4 6 72 72 (124416)
I1013 12:31:37.188455 19498 net.cpp:157] Top shape: 4 6 36 36 (31104)
I1013 12:31:37.188459 19498 net.cpp:157] Top shape: 4 6 36 36 (31104)
I1013 12:31:37.188463 19498 net.cpp:157] Top shape: 4 6 18 18 (7776)
I1013 12:31:37.188467 19498 net.cpp:157] Top shape: 4 6 18 18 (7776)
I1013 12:31:37.188470 19498 net.cpp:157] Top shape: 4 6 9 9 (1944)
I1013 12:31:37.188477 19498 net.cpp:157] Top shape: 1 7 1 1 (7)
I1013 12:31:37.188479 19498 net.cpp:165] Memory required for data: 17239420
I1013 12:31:37.188486 19498 layer_factory.hpp:76] Creating layer label_1_3x5_data_1_split
I1013 12:31:37.188505 19498 net.cpp:106] Creating Layer label_1_3x5_data_1_split
I1013 12:31:37.188511 19498 net.cpp:454] label_1_3x5_data_1_split <- label_1_3x5
I1013 12:31:37.188526 19498 net.cpp:411] label_1_3x5_data_1_split -> label_1_3x5_data_1_split_0
I1013 12:31:37.188536 19498 net.cpp:411] label_1_3x5_data_1_split -> label_1_3x5_data_1_split_1
I1013 12:31:37.188705 19498 net.cpp:150] Setting up label_1_3x5_data_1_split
I1013 12:31:37.188715 19498 net.cpp:157] Top shape: 4 6 72 72 (124416)
I1013 12:31:37.188719 19498 net.cpp:157] Top shape: 4 6 72 72 (124416)
I1013 12:31:37.188721 19498 net.cpp:165] Memory required for data: 18234748
I1013 12:31:37.188724 19498 layer_factory.hpp:76] Creating layer label_1_5x7_data_2_split
I1013 12:31:37.188738 19498 net.cpp:106] Creating Layer label_1_5x7_data_2_split
I1013 12:31:37.188741 19498 net.cpp:454] label_1_5x7_data_2_split <- label_1_5x7
I1013 12:31:37.188750 19498 net.cpp:411] label_1_5x7_data_2_split -> label_1_5x7_data_2_split_0
I1013 12:31:37.188755 19498 net.cpp:411] label_1_5x7_data_2_split -> label_1_5x7_data_2_split_1
I1013 12:31:37.188792 19498 net.cpp:150] Setting up label_1_5x7_data_2_split
I1013 12:31:37.188797 19498 net.cpp:157] Top shape: 4 6 72 72 (124416)
I1013 12:31:37.188802 19498 net.cpp:157] Top shape: 4 6 72 72 (124416)
I1013 12:31:37.188804 19498 net.cpp:165] Memory required for data: 19230076
I1013 12:31:37.188807 19498 layer_factory.hpp:76] Creating layer label_2_3x5_data_3_split
I1013 12:31:37.188810 19498 net.cpp:106] Creating Layer label_2_3x5_data_3_split
I1013 12:31:37.188813 19498 net.cpp:454] label_2_3x5_data_3_split <- label_2_3x5
I1013 12:31:37.188818 19498 net.cpp:411] label_2_3x5_data_3_split -> label_2_3x5_data_3_split_0
I1013 12:31:37.188825 19498 net.cpp:411] label_2_3x5_data_3_split -> label_2_3x5_data_3_split_1
I1013 12:31:37.188859 19498 net.cpp:150] Setting up label_2_3x5_data_3_split
I1013 12:31:37.188864 19498 net.cpp:157] Top shape: 4 6 36 36 (31104)
I1013 12:31:37.188868 19498 net.cpp:157] Top shape: 4 6 36 36 (31104)
I1013 12:31:37.188870 19498 net.cpp:165] Memory required for data: 19478908
I1013 12:31:37.188872 19498 layer_factory.hpp:76] Creating layer label_2_5x7_data_4_split
I1013 12:31:37.188877 19498 net.cpp:106] Creating Layer label_2_5x7_data_4_split
I1013 12:31:37.188880 19498 net.cpp:454] label_2_5x7_data_4_split <- label_2_5x7
I1013 12:31:37.188886 19498 net.cpp:411] label_2_5x7_data_4_split -> label_2_5x7_data_4_split_0
I1013 12:31:37.188891 19498 net.cpp:411] label_2_5x7_data_4_split -> label_2_5x7_data_4_split_1
I1013 12:31:37.188920 19498 net.cpp:150] Setting up label_2_5x7_data_4_split
I1013 12:31:37.188925 19498 net.cpp:157] Top shape: 4 6 36 36 (31104)
I1013 12:31:37.188928 19498 net.cpp:157] Top shape: 4 6 36 36 (31104)
I1013 12:31:37.188931 19498 net.cpp:165] Memory required for data: 19727740
I1013 12:31:37.188933 19498 layer_factory.hpp:76] Creating layer label_3_3x5_data_5_split
I1013 12:31:37.188937 19498 net.cpp:106] Creating Layer label_3_3x5_data_5_split
I1013 12:31:37.188940 19498 net.cpp:454] label_3_3x5_data_5_split <- label_3_3x5
I1013 12:31:37.188946 19498 net.cpp:411] label_3_3x5_data_5_split -> label_3_3x5_data_5_split_0
I1013 12:31:37.188951 19498 net.cpp:411] label_3_3x5_data_5_split -> label_3_3x5_data_5_split_1
I1013 12:31:37.188987 19498 net.cpp:150] Setting up label_3_3x5_data_5_split
I1013 12:31:37.188993 19498 net.cpp:157] Top shape: 4 6 18 18 (7776)
I1013 12:31:37.188998 19498 net.cpp:157] Top shape: 4 6 18 18 (7776)
I1013 12:31:37.189002 19498 net.cpp:165] Memory required for data: 19789948
I1013 12:31:37.189003 19498 layer_factory.hpp:76] Creating layer label_3_5x7_data_6_split
I1013 12:31:37.189008 19498 net.cpp:106] Creating Layer label_3_5x7_data_6_split
I1013 12:31:37.189012 19498 net.cpp:454] label_3_5x7_data_6_split <- label_3_5x7
I1013 12:31:37.189015 19498 net.cpp:411] label_3_5x7_data_6_split -> label_3_5x7_data_6_split_0
I1013 12:31:37.189020 19498 net.cpp:411] label_3_5x7_data_6_split -> label_3_5x7_data_6_split_1
I1013 12:31:37.189049 19498 net.cpp:150] Setting up label_3_5x7_data_6_split
I1013 12:31:37.189054 19498 net.cpp:157] Top shape: 4 6 18 18 (7776)
I1013 12:31:37.189056 19498 net.cpp:157] Top shape: 4 6 18 18 (7776)
I1013 12:31:37.189059 19498 net.cpp:165] Memory required for data: 19852156
I1013 12:31:37.189060 19498 layer_factory.hpp:76] Creating layer label_4_3x5_data_7_split
I1013 12:31:37.189066 19498 net.cpp:106] Creating Layer label_4_3x5_data_7_split
I1013 12:31:37.189069 19498 net.cpp:454] label_4_3x5_data_7_split <- label_4_3x5
I1013 12:31:37.189072 19498 net.cpp:411] label_4_3x5_data_7_split -> label_4_3x5_data_7_split_0
I1013 12:31:37.189077 19498 net.cpp:411] label_4_3x5_data_7_split -> label_4_3x5_data_7_split_1
I1013 12:31:37.189101 19498 net.cpp:150] Setting up label_4_3x5_data_7_split
I1013 12:31:37.189105 19498 net.cpp:157] Top shape: 4 6 9 9 (1944)
I1013 12:31:37.189110 19498 net.cpp:157] Top shape: 4 6 9 9 (1944)
I1013 12:31:37.189111 19498 net.cpp:165] Memory required for data: 19867708
I1013 12:31:37.189113 19498 layer_factory.hpp:76] Creating layer conv1_1
I1013 12:31:37.189127 19498 net.cpp:106] Creating Layer conv1_1
I1013 12:31:37.189131 19498 net.cpp:454] conv1_1 <- data
I1013 12:31:37.189134 19498 net.cpp:411] conv1_1 -> conv1_1
I1013 12:31:37.306319 19498 net.cpp:150] Setting up conv1_1
I1013 12:31:37.306358 19498 net.cpp:157] Top shape: 4 64 576 576 (84934656)
I1013 12:31:37.306362 19498 net.cpp:165] Memory required for data: 359606332
I1013 12:31:37.306380 19498 layer_factory.hpp:76] Creating layer relu1_1
I1013 12:31:37.306391 19498 net.cpp:106] Creating Layer relu1_1
I1013 12:31:37.306394 19498 net.cpp:454] relu1_1 <- conv1_1
I1013 12:31:37.306401 19498 net.cpp:397] relu1_1 -> conv1_1 (in-place)
I1013 12:31:37.306609 19498 net.cpp:150] Setting up relu1_1
I1013 12:31:37.306622 19498 net.cpp:157] Top shape: 4 64 576 576 (84934656)
I1013 12:31:37.306625 19498 net.cpp:165] Memory required for data: 699344956
I1013 12:31:37.306628 19498 layer_factory.hpp:76] Creating layer conv1_2
I1013 12:31:37.306641 19498 net.cpp:106] Creating Layer conv1_2
I1013 12:31:37.306644 19498 net.cpp:454] conv1_2 <- conv1_1
I1013 12:31:37.306651 19498 net.cpp:411] conv1_2 -> conv1_2
I1013 12:31:37.308648 19498 net.cpp:150] Setting up conv1_2
I1013 12:31:37.308661 19498 net.cpp:157] Top shape: 4 64 576 576 (84934656)
I1013 12:31:37.308676 19498 net.cpp:165] Memory required for data: 1039083580
I1013 12:31:37.308686 19498 layer_factory.hpp:76] Creating layer relu1_2
I1013 12:31:37.308693 19498 net.cpp:106] Creating Layer relu1_2
I1013 12:31:37.308697 19498 net.cpp:454] relu1_2 <- conv1_2
I1013 12:31:37.308701 19498 net.cpp:397] relu1_2 -> conv1_2 (in-place)
I1013 12:31:37.309062 19498 net.cpp:150] Setting up relu1_2
I1013 12:31:37.309075 19498 net.cpp:157] Top shape: 4 64 576 576 (84934656)
I1013 12:31:37.309078 19498 net.cpp:165] Memory required for data: 1378822204
I1013 12:31:37.309082 19498 layer_factory.hpp:76] Creating layer pool1
I1013 12:31:37.309090 19498 net.cpp:106] Creating Layer pool1
I1013 12:31:37.309093 19498 net.cpp:454] pool1 <- conv1_2
I1013 12:31:37.309098 19498 net.cpp:411] pool1 -> pool1
I1013 12:31:37.309326 19498 net.cpp:150] Setting up pool1
I1013 12:31:37.309337 19498 net.cpp:157] Top shape: 4 64 288 288 (21233664)
I1013 12:31:37.309340 19498 net.cpp:165] Memory required for data: 1463756860
I1013 12:31:37.309343 19498 layer_factory.hpp:76] Creating layer conv2_1
I1013 12:31:37.309351 19498 net.cpp:106] Creating Layer conv2_1
I1013 12:31:37.309355 19498 net.cpp:454] conv2_1 <- pool1
I1013 12:31:37.309361 19498 net.cpp:411] conv2_1 -> conv2_1
I1013 12:31:37.311131 19498 net.cpp:150] Setting up conv2_1
I1013 12:31:37.311147 19498 net.cpp:157] Top shape: 4 128 288 288 (42467328)
I1013 12:31:37.311151 19498 net.cpp:165] Memory required for data: 1633626172
I1013 12:31:37.311161 19498 layer_factory.hpp:76] Creating layer relu2_1
I1013 12:31:37.311166 19498 net.cpp:106] Creating Layer relu2_1
I1013 12:31:37.311168 19498 net.cpp:454] relu2_1 <- conv2_1
I1013 12:31:37.311174 19498 net.cpp:397] relu2_1 -> conv2_1 (in-place)
I1013 12:31:37.311533 19498 net.cpp:150] Setting up relu2_1
I1013 12:31:37.311547 19498 net.cpp:157] Top shape: 4 128 288 288 (42467328)
I1013 12:31:37.311549 19498 net.cpp:165] Memory required for data: 1803495484
I1013 12:31:37.311553 19498 layer_factory.hpp:76] Creating layer conv2_2
I1013 12:31:37.311559 19498 net.cpp:106] Creating Layer conv2_2
I1013 12:31:37.311563 19498 net.cpp:454] conv2_2 <- conv2_1
I1013 12:31:37.311568 19498 net.cpp:411] conv2_2 -> conv2_2
I1013 12:31:37.313218 19498 net.cpp:150] Setting up conv2_2
I1013 12:31:37.313231 19498 net.cpp:157] Top shape: 4 128 288 288 (42467328)
I1013 12:31:37.313235 19498 net.cpp:165] Memory required for data: 1973364796
I1013 12:31:37.313241 19498 layer_factory.hpp:76] Creating layer relu2_2
I1013 12:31:37.313251 19498 net.cpp:106] Creating Layer relu2_2
I1013 12:31:37.313253 19498 net.cpp:454] relu2_2 <- conv2_2
I1013 12:31:37.313258 19498 net.cpp:397] relu2_2 -> conv2_2 (in-place)
I1013 12:31:37.313616 19498 net.cpp:150] Setting up relu2_2
I1013 12:31:37.313629 19498 net.cpp:157] Top shape: 4 128 288 288 (42467328)
I1013 12:31:37.313632 19498 net.cpp:165] Memory required for data: 2143234108
I1013 12:31:37.313637 19498 layer_factory.hpp:76] Creating layer pool2
I1013 12:31:37.313643 19498 net.cpp:106] Creating Layer pool2
I1013 12:31:37.313647 19498 net.cpp:454] pool2 <- conv2_2
I1013 12:31:37.313652 19498 net.cpp:411] pool2 -> pool2
I1013 12:31:37.313892 19498 net.cpp:150] Setting up pool2
I1013 12:31:37.313904 19498 net.cpp:157] Top shape: 4 128 144 144 (10616832)
I1013 12:31:37.313906 19498 net.cpp:165] Memory required for data: 2185701436
I1013 12:31:37.313910 19498 layer_factory.hpp:76] Creating layer conv3_1
I1013 12:31:37.313918 19498 net.cpp:106] Creating Layer conv3_1
I1013 12:31:37.313921 19498 net.cpp:454] conv3_1 <- pool2
I1013 12:31:37.313926 19498 net.cpp:411] conv3_1 -> conv3_1
I1013 12:31:37.315883 19498 net.cpp:150] Setting up conv3_1
I1013 12:31:37.315897 19498 net.cpp:157] Top shape: 4 256 144 144 (21233664)
I1013 12:31:37.315901 19498 net.cpp:165] Memory required for data: 2270636092
I1013 12:31:37.315912 19498 layer_factory.hpp:76] Creating layer relu3_1
I1013 12:31:37.315918 19498 net.cpp:106] Creating Layer relu3_1
I1013 12:31:37.315922 19498 net.cpp:454] relu3_1 <- conv3_1
I1013 12:31:37.315927 19498 net.cpp:397] relu3_1 -> conv3_1 (in-place)
I1013 12:31:37.316278 19498 net.cpp:150] Setting up relu3_1
I1013 12:31:37.316293 19498 net.cpp:157] Top shape: 4 256 144 144 (21233664)
I1013 12:31:37.316295 19498 net.cpp:165] Memory required for data: 2355570748
I1013 12:31:37.316299 19498 layer_factory.hpp:76] Creating layer conv3_2
I1013 12:31:37.316305 19498 net.cpp:106] Creating Layer conv3_2
I1013 12:31:37.316308 19498 net.cpp:454] conv3_2 <- conv3_1
I1013 12:31:37.316315 19498 net.cpp:411] conv3_2 -> conv3_2
I1013 12:31:37.319739 19498 net.cpp:150] Setting up conv3_2
I1013 12:31:37.319752 19498 net.cpp:157] Top shape: 4 256 144 144 (21233664)
I1013 12:31:37.319769 19498 net.cpp:165] Memory required for data: 2440505404
I1013 12:31:37.319777 19498 layer_factory.hpp:76] Creating layer relu3_2
I1013 12:31:37.319782 19498 net.cpp:106] Creating Layer relu3_2
I1013 12:31:37.319785 19498 net.cpp:454] relu3_2 <- conv3_2
I1013 12:31:37.319790 19498 net.cpp:397] relu3_2 -> conv3_2 (in-place)
I1013 12:31:37.320003 19498 net.cpp:150] Setting up relu3_2
I1013 12:31:37.320016 19498 net.cpp:157] Top shape: 4 256 144 144 (21233664)
I1013 12:31:37.320019 19498 net.cpp:165] Memory required for data: 2525440060
I1013 12:31:37.320022 19498 layer_factory.hpp:76] Creating layer conv3_3
I1013 12:31:37.320030 19498 net.cpp:106] Creating Layer conv3_3
I1013 12:31:37.320034 19498 net.cpp:454] conv3_3 <- conv3_2
I1013 12:31:37.320039 19498 net.cpp:411] conv3_3 -> conv3_3
I1013 12:31:37.322540 19498 net.cpp:150] Setting up conv3_3
I1013 12:31:37.322553 19498 net.cpp:157] Top shape: 4 256 144 144 (21233664)
I1013 12:31:37.322568 19498 net.cpp:165] Memory required for data: 2610374716
I1013 12:31:37.322574 19498 layer_factory.hpp:76] Creating layer relu3_3
I1013 12:31:37.322580 19498 net.cpp:106] Creating Layer relu3_3
I1013 12:31:37.322584 19498 net.cpp:454] relu3_3 <- conv3_3
I1013 12:31:37.322590 19498 net.cpp:397] relu3_3 -> conv3_3 (in-place)
I1013 12:31:37.322767 19498 net.cpp:150] Setting up relu3_3
I1013 12:31:37.322778 19498 net.cpp:157] Top shape: 4 256 144 144 (21233664)
I1013 12:31:37.322782 19498 net.cpp:165] Memory required for data: 2695309372
I1013 12:31:37.322784 19498 layer_factory.hpp:76] Creating layer pool3
I1013 12:31:37.322789 19498 net.cpp:106] Creating Layer pool3
I1013 12:31:37.322793 19498 net.cpp:454] pool3 <- conv3_3
I1013 12:31:37.322796 19498 net.cpp:411] pool3 -> pool3
I1013 12:31:37.323186 19498 net.cpp:150] Setting up pool3
I1013 12:31:37.323200 19498 net.cpp:157] Top shape: 4 256 72 72 (5308416)
I1013 12:31:37.323202 19498 net.cpp:165] Memory required for data: 2716543036
I1013 12:31:37.323206 19498 layer_factory.hpp:76] Creating layer conv4_1
I1013 12:31:37.323216 19498 net.cpp:106] Creating Layer conv4_1
I1013 12:31:37.323220 19498 net.cpp:454] conv4_1 <- pool3
I1013 12:31:37.323226 19498 net.cpp:411] conv4_1 -> conv4_1
I1013 12:31:37.327432 19498 net.cpp:150] Setting up conv4_1
I1013 12:31:37.327445 19498 net.cpp:157] Top shape: 4 512 72 72 (10616832)
I1013 12:31:37.327461 19498 net.cpp:165] Memory required for data: 2759010364
I1013 12:31:37.327467 19498 layer_factory.hpp:76] Creating layer relu4_1
I1013 12:31:37.327473 19498 net.cpp:106] Creating Layer relu4_1
I1013 12:31:37.327476 19498 net.cpp:454] relu4_1 <- conv4_1
I1013 12:31:37.327483 19498 net.cpp:397] relu4_1 -> conv4_1 (in-place)
I1013 12:31:37.327649 19498 net.cpp:150] Setting up relu4_1
I1013 12:31:37.327658 19498 net.cpp:157] Top shape: 4 512 72 72 (10616832)
I1013 12:31:37.327663 19498 net.cpp:165] Memory required for data: 2801477692
I1013 12:31:37.327666 19498 layer_factory.hpp:76] Creating layer conv4_2
I1013 12:31:37.327672 19498 net.cpp:106] Creating Layer conv4_2
I1013 12:31:37.327675 19498 net.cpp:454] conv4_2 <- conv4_1
I1013 12:31:37.327682 19498 net.cpp:411] conv4_2 -> conv4_2
I1013 12:31:37.334230 19498 net.cpp:150] Setting up conv4_2
I1013 12:31:37.334257 19498 net.cpp:157] Top shape: 4 512 72 72 (10616832)
I1013 12:31:37.334261 19498 net.cpp:165] Memory required for data: 2843945020
I1013 12:31:37.334278 19498 layer_factory.hpp:76] Creating layer relu4_2
I1013 12:31:37.334287 19498 net.cpp:106] Creating Layer relu4_2
I1013 12:31:37.334292 19498 net.cpp:454] relu4_2 <- conv4_2
I1013 12:31:37.334300 19498 net.cpp:397] relu4_2 -> conv4_2 (in-place)
I1013 12:31:37.334642 19498 net.cpp:150] Setting up relu4_2
I1013 12:31:37.334655 19498 net.cpp:157] Top shape: 4 512 72 72 (10616832)
I1013 12:31:37.334657 19498 net.cpp:165] Memory required for data: 2886412348
I1013 12:31:37.334661 19498 layer_factory.hpp:76] Creating layer conv4_3
I1013 12:31:37.334669 19498 net.cpp:106] Creating Layer conv4_3
I1013 12:31:37.334673 19498 net.cpp:454] conv4_3 <- conv4_2
I1013 12:31:37.334678 19498 net.cpp:411] conv4_3 -> conv4_3
I1013 12:31:37.340726 19498 net.cpp:150] Setting up conv4_3
I1013 12:31:37.340741 19498 net.cpp:157] Top shape: 4 512 72 72 (10616832)
I1013 12:31:37.340746 19498 net.cpp:165] Memory required for data: 2928879676
I1013 12:31:37.340754 19498 layer_factory.hpp:76] Creating layer relu4_3
I1013 12:31:37.340759 19498 net.cpp:106] Creating Layer relu4_3
I1013 12:31:37.340764 19498 net.cpp:454] relu4_3 <- conv4_3
I1013 12:31:37.340768 19498 net.cpp:397] relu4_3 -> conv4_3 (in-place)
I1013 12:31:37.341110 19498 net.cpp:150] Setting up relu4_3
I1013 12:31:37.341125 19498 net.cpp:157] Top shape: 4 512 72 72 (10616832)
I1013 12:31:37.341126 19498 net.cpp:165] Memory required for data: 2971347004
I1013 12:31:37.341130 19498 layer_factory.hpp:76] Creating layer conv4_3_relu4_3_0_split
I1013 12:31:37.341136 19498 net.cpp:106] Creating Layer conv4_3_relu4_3_0_split
I1013 12:31:37.341140 19498 net.cpp:454] conv4_3_relu4_3_0_split <- conv4_3
I1013 12:31:37.341145 19498 net.cpp:411] conv4_3_relu4_3_0_split -> conv4_3_relu4_3_0_split_0
I1013 12:31:37.341151 19498 net.cpp:411] conv4_3_relu4_3_0_split -> conv4_3_relu4_3_0_split_1
I1013 12:31:37.341158 19498 net.cpp:411] conv4_3_relu4_3_0_split -> conv4_3_relu4_3_0_split_2
I1013 12:31:37.341163 19498 net.cpp:411] conv4_3_relu4_3_0_split -> conv4_3_relu4_3_0_split_3
I1013 12:31:37.341231 19498 net.cpp:150] Setting up conv4_3_relu4_3_0_split
I1013 12:31:37.341238 19498 net.cpp:157] Top shape: 4 512 72 72 (10616832)
I1013 12:31:37.341240 19498 net.cpp:157] Top shape: 4 512 72 72 (10616832)
I1013 12:31:37.341243 19498 net.cpp:157] Top shape: 4 512 72 72 (10616832)
I1013 12:31:37.341246 19498 net.cpp:157] Top shape: 4 512 72 72 (10616832)
I1013 12:31:37.341249 19498 net.cpp:165] Memory required for data: 3141216316
I1013 12:31:37.341251 19498 layer_factory.hpp:76] Creating layer loss1_conv1
I1013 12:31:37.341266 19498 net.cpp:106] Creating Layer loss1_conv1
I1013 12:31:37.341269 19498 net.cpp:454] loss1_conv1 <- conv4_3_relu4_3_0_split_0
I1013 12:31:37.341275 19498 net.cpp:411] loss1_conv1 -> loss1_conv1
I1013 12:31:37.420917 19498 net.cpp:150] Setting up loss1_conv1
I1013 12:31:37.420951 19498 net.cpp:157] Top shape: 4 512 72 72 (10616832)
I1013 12:31:37.420955 19498 net.cpp:165] Memory required for data: 3183683644
I1013 12:31:37.420964 19498 layer_factory.hpp:76] Creating layer loss_relu1
I1013 12:31:37.420974 19498 net.cpp:106] Creating Layer loss_relu1
I1013 12:31:37.420979 19498 net.cpp:454] loss_relu1 <- loss1_conv1
I1013 12:31:37.420984 19498 net.cpp:397] loss_relu1 -> loss1_conv1 (in-place)
I1013 12:31:37.421191 19498 net.cpp:150] Setting up loss_relu1
I1013 12:31:37.421202 19498 net.cpp:157] Top shape: 4 512 72 72 (10616832)
I1013 12:31:37.421205 19498 net.cpp:165] Memory required for data: 3226150972
I1013 12:31:37.421208 19498 layer_factory.hpp:76] Creating layer loss1_conv1_loss_relu1_0_split
I1013 12:31:37.421213 19498 net.cpp:106] Creating Layer loss1_conv1_loss_relu1_0_split
I1013 12:31:37.421218 19498 net.cpp:454] loss1_conv1_loss_relu1_0_split <- loss1_conv1
I1013 12:31:37.421228 19498 net.cpp:411] loss1_conv1_loss_relu1_0_split -> loss1_conv1_loss_relu1_0_split_0
I1013 12:31:37.421238 19498 net.cpp:411] loss1_conv1_loss_relu1_0_split -> loss1_conv1_loss_relu1_0_split_1
I1013 12:31:37.421283 19498 net.cpp:150] Setting up loss1_conv1_loss_relu1_0_split
I1013 12:31:37.421288 19498 net.cpp:157] Top shape: 4 512 72 72 (10616832)
I1013 12:31:37.421293 19498 net.cpp:157] Top shape: 4 512 72 72 (10616832)
I1013 12:31:37.421295 19498 net.cpp:165] Memory required for data: 3311085628
I1013 12:31:37.421299 19498 layer_factory.hpp:76] Creating layer LFCN_1_3x5
I1013 12:31:37.421314 19498 net.cpp:106] Creating Layer LFCN_1_3x5
I1013 12:31:37.421317 19498 net.cpp:454] LFCN_1_3x5 <- loss1_conv1_loss_relu1_0_split_0
I1013 12:31:37.421322 19498 net.cpp:411] LFCN_1_3x5 -> LFCN_1_3x5
I1013 12:31:37.424240 19498 net.cpp:150] Setting up LFCN_1_3x5
I1013 12:31:37.424253 19498 net.cpp:157] Top shape: 4 6 72 72 (124416)
I1013 12:31:37.424257 19498 net.cpp:165] Memory required for data: 3311583292
I1013 12:31:37.424263 19498 layer_factory.hpp:76] Creating layer LFCN_1_3x5_LFCN_1_3x5_0_split
I1013 12:31:37.424268 19498 net.cpp:106] Creating Layer LFCN_1_3x5_LFCN_1_3x5_0_split
I1013 12:31:37.424283 19498 net.cpp:454] LFCN_1_3x5_LFCN_1_3x5_0_split <- LFCN_1_3x5
I1013 12:31:37.424293 19498 net.cpp:411] LFCN_1_3x5_LFCN_1_3x5_0_split -> LFCN_1_3x5_LFCN_1_3x5_0_split_0
I1013 12:31:37.424300 19498 net.cpp:411] LFCN_1_3x5_LFCN_1_3x5_0_split -> LFCN_1_3x5_LFCN_1_3x5_0_split_1
I1013 12:31:37.424305 19498 net.cpp:411] LFCN_1_3x5_LFCN_1_3x5_0_split -> LFCN_1_3x5_LFCN_1_3x5_0_split_2
I1013 12:31:37.424363 19498 net.cpp:150] Setting up LFCN_1_3x5_LFCN_1_3x5_0_split
I1013 12:31:37.424374 19498 net.cpp:157] Top shape: 4 6 72 72 (124416)
I1013 12:31:37.424378 19498 net.cpp:157] Top shape: 4 6 72 72 (124416)
I1013 12:31:37.424381 19498 net.cpp:157] Top shape: 4 6 72 72 (124416)
I1013 12:31:37.424384 19498 net.cpp:165] Memory required for data: 3313076284
I1013 12:31:37.424387 19498 layer_factory.hpp:76] Creating layer detection_loss_1_3x5
I1013 12:31:37.424393 19498 net.cpp:106] Creating Layer detection_loss_1_3x5
I1013 12:31:37.424396 19498 net.cpp:454] detection_loss_1_3x5 <- LFCN_1_3x5_LFCN_1_3x5_0_split_0
I1013 12:31:37.424401 19498 net.cpp:454] detection_loss_1_3x5 <- label_1_3x5_data_1_split_0
I1013 12:31:37.424408 19498 net.cpp:411] detection_loss_1_3x5 -> loss_1_3x5
I1013 12:31:37.424420 19498 layer_factory.hpp:76] Creating layer detection_loss_1_3x5
I1013 12:31:37.425009 19498 net.cpp:150] Setting up detection_loss_1_3x5
I1013 12:31:37.425022 19498 net.cpp:157] Top shape: 1 1 1 2 (2)
I1013 12:31:37.425025 19498 net.cpp:160]     with loss weight 0.9
I1013 12:31:37.425045 19498 net.cpp:165] Memory required for data: 3313076292
I1013 12:31:37.425053 19498 layer_factory.hpp:76] Creating layer detection_accuracy_1_3x5
I1013 12:31:37.425061 19498 net.cpp:106] Creating Layer detection_accuracy_1_3x5
I1013 12:31:37.425065 19498 net.cpp:454] detection_accuracy_1_3x5 <- LFCN_1_3x5_LFCN_1_3x5_0_split_1
I1013 12:31:37.425070 19498 net.cpp:454] detection_accuracy_1_3x5 <- label_1_3x5_data_1_split_1
I1013 12:31:37.425074 19498 net.cpp:411] detection_accuracy_1_3x5 -> accuracy_1_3x5
I1013 12:31:37.425082 19498 net.cpp:411] detection_accuracy_1_3x5 -> boxiou_1_3x5
I1013 12:31:37.425125 19498 net.cpp:150] Setting up detection_accuracy_1_3x5
I1013 12:31:37.425130 19498 net.cpp:157] Top shape: 1 1 1 2 (2)
I1013 12:31:37.425134 19498 net.cpp:157] Top shape: 1 1 1 1 (1)
I1013 12:31:37.425137 19498 net.cpp:165] Memory required for data: 3313076304
I1013 12:31:37.425139 19498 layer_factory.hpp:76] Creating layer LFCN_1_5x7
I1013 12:31:37.425149 19498 net.cpp:106] Creating Layer LFCN_1_5x7
I1013 12:31:37.425153 19498 net.cpp:454] LFCN_1_5x7 <- loss1_conv1_loss_relu1_0_split_1
I1013 12:31:37.425158 19498 net.cpp:411] LFCN_1_5x7 -> LFCN_1_5x7
I1013 12:31:37.430399 19498 net.cpp:150] Setting up LFCN_1_5x7
I1013 12:31:37.430413 19498 net.cpp:157] Top shape: 4 6 72 72 (124416)
I1013 12:31:37.430416 19498 net.cpp:165] Memory required for data: 3313573968
I1013 12:31:37.430424 19498 layer_factory.hpp:76] Creating layer LFCN_1_5x7_LFCN_1_5x7_0_split
I1013 12:31:37.430430 19498 net.cpp:106] Creating Layer LFCN_1_5x7_LFCN_1_5x7_0_split
I1013 12:31:37.430434 19498 net.cpp:454] LFCN_1_5x7_LFCN_1_5x7_0_split <- LFCN_1_5x7
I1013 12:31:37.430440 19498 net.cpp:411] LFCN_1_5x7_LFCN_1_5x7_0_split -> LFCN_1_5x7_LFCN_1_5x7_0_split_0
I1013 12:31:37.430447 19498 net.cpp:411] LFCN_1_5x7_LFCN_1_5x7_0_split -> LFCN_1_5x7_LFCN_1_5x7_0_split_1
I1013 12:31:37.430454 19498 net.cpp:411] LFCN_1_5x7_LFCN_1_5x7_0_split -> LFCN_1_5x7_LFCN_1_5x7_0_split_2
I1013 12:31:37.430510 19498 net.cpp:150] Setting up LFCN_1_5x7_LFCN_1_5x7_0_split
I1013 12:31:37.430516 19498 net.cpp:157] Top shape: 4 6 72 72 (124416)
I1013 12:31:37.430518 19498 net.cpp:157] Top shape: 4 6 72 72 (124416)
I1013 12:31:37.430521 19498 net.cpp:157] Top shape: 4 6 72 72 (124416)
I1013 12:31:37.430523 19498 net.cpp:165] Memory required for data: 3315066960
I1013 12:31:37.430526 19498 layer_factory.hpp:76] Creating layer detection_loss_1_5x7
I1013 12:31:37.430533 19498 net.cpp:106] Creating Layer detection_loss_1_5x7
I1013 12:31:37.430536 19498 net.cpp:454] detection_loss_1_5x7 <- LFCN_1_5x7_LFCN_1_5x7_0_split_0
I1013 12:31:37.430541 19498 net.cpp:454] detection_loss_1_5x7 <- label_1_5x7_data_2_split_0
I1013 12:31:37.430547 19498 net.cpp:411] detection_loss_1_5x7 -> loss_1_5x7
I1013 12:31:37.430554 19498 layer_factory.hpp:76] Creating layer detection_loss_1_5x7
I1013 12:31:37.431124 19498 net.cpp:150] Setting up detection_loss_1_5x7
I1013 12:31:37.431138 19498 net.cpp:157] Top shape: 1 1 1 2 (2)
I1013 12:31:37.431140 19498 net.cpp:160]     with loss weight 0.9
I1013 12:31:37.431146 19498 net.cpp:165] Memory required for data: 3315066968
I1013 12:31:37.431149 19498 layer_factory.hpp:76] Creating layer detection_accuracy_1_5x7
I1013 12:31:37.431155 19498 net.cpp:106] Creating Layer detection_accuracy_1_5x7
I1013 12:31:37.431159 19498 net.cpp:454] detection_accuracy_1_5x7 <- LFCN_1_5x7_LFCN_1_5x7_0_split_1
I1013 12:31:37.431164 19498 net.cpp:454] detection_accuracy_1_5x7 <- label_1_5x7_data_2_split_1
I1013 12:31:37.431170 19498 net.cpp:411] detection_accuracy_1_5x7 -> accuracy_1_5x7
I1013 12:31:37.431177 19498 net.cpp:411] detection_accuracy_1_5x7 -> boxiou_1_5x7
I1013 12:31:37.431218 19498 net.cpp:150] Setting up detection_accuracy_1_5x7
I1013 12:31:37.431223 19498 net.cpp:157] Top shape: 1 1 1 2 (2)
I1013 12:31:37.431227 19498 net.cpp:157] Top shape: 1 1 1 1 (1)
I1013 12:31:37.431229 19498 net.cpp:165] Memory required for data: 3315066980
I1013 12:31:37.431232 19498 layer_factory.hpp:76] Creating layer pool4
I1013 12:31:37.431238 19498 net.cpp:106] Creating Layer pool4
I1013 12:31:37.431241 19498 net.cpp:454] pool4 <- conv4_3_relu4_3_0_split_1
I1013 12:31:37.431247 19498 net.cpp:411] pool4 -> pool4
I1013 12:31:37.431630 19498 net.cpp:150] Setting up pool4
I1013 12:31:37.431643 19498 net.cpp:157] Top shape: 4 512 36 36 (2654208)
I1013 12:31:37.431644 19498 net.cpp:165] Memory required for data: 3325683812
I1013 12:31:37.431648 19498 layer_factory.hpp:76] Creating layer conv5_1
I1013 12:31:37.431655 19498 net.cpp:106] Creating Layer conv5_1
I1013 12:31:37.431658 19498 net.cpp:454] conv5_1 <- pool4
I1013 12:31:37.431664 19498 net.cpp:411] conv5_1 -> conv5_1
I1013 12:31:37.437573 19498 net.cpp:150] Setting up conv5_1
I1013 12:31:37.437587 19498 net.cpp:157] Top shape: 4 512 36 36 (2654208)
I1013 12:31:37.437602 19498 net.cpp:165] Memory required for data: 3336300644
I1013 12:31:37.437608 19498 layer_factory.hpp:76] Creating layer relu5_1
I1013 12:31:37.437614 19498 net.cpp:106] Creating Layer relu5_1
I1013 12:31:37.437618 19498 net.cpp:454] relu5_1 <- conv5_1
I1013 12:31:37.437625 19498 net.cpp:397] relu5_1 -> conv5_1 (in-place)
I1013 12:31:37.437968 19498 net.cpp:150] Setting up relu5_1
I1013 12:31:37.437980 19498 net.cpp:157] Top shape: 4 512 36 36 (2654208)
I1013 12:31:37.437983 19498 net.cpp:165] Memory required for data: 3346917476
I1013 12:31:37.437986 19498 layer_factory.hpp:76] Creating layer conv5_2
I1013 12:31:37.437994 19498 net.cpp:106] Creating Layer conv5_2
I1013 12:31:37.437997 19498 net.cpp:454] conv5_2 <- conv5_1
I1013 12:31:37.438002 19498 net.cpp:411] conv5_2 -> conv5_2
I1013 12:31:37.444197 19498 net.cpp:150] Setting up conv5_2
I1013 12:31:37.444213 19498 net.cpp:157] Top shape: 4 512 36 36 (2654208)
I1013 12:31:37.444227 19498 net.cpp:165] Memory required for data: 3357534308
I1013 12:31:37.444234 19498 layer_factory.hpp:76] Creating layer relu5_2
I1013 12:31:37.444242 19498 net.cpp:106] Creating Layer relu5_2
I1013 12:31:37.444244 19498 net.cpp:454] relu5_2 <- conv5_2
I1013 12:31:37.444249 19498 net.cpp:397] relu5_2 -> conv5_2 (in-place)
I1013 12:31:37.444423 19498 net.cpp:150] Setting up relu5_2
I1013 12:31:37.444432 19498 net.cpp:157] Top shape: 4 512 36 36 (2654208)
I1013 12:31:37.444435 19498 net.cpp:165] Memory required for data: 3368151140
I1013 12:31:37.444438 19498 layer_factory.hpp:76] Creating layer conv5_3
I1013 12:31:37.444447 19498 net.cpp:106] Creating Layer conv5_3
I1013 12:31:37.444450 19498 net.cpp:454] conv5_3 <- conv5_2
I1013 12:31:37.444454 19498 net.cpp:411] conv5_3 -> conv5_3
I1013 12:31:37.450633 19498 net.cpp:150] Setting up conv5_3
I1013 12:31:37.450649 19498 net.cpp:157] Top shape: 4 512 36 36 (2654208)
I1013 12:31:37.450651 19498 net.cpp:165] Memory required for data: 3378767972
I1013 12:31:37.450659 19498 layer_factory.hpp:76] Creating layer relu5_3
I1013 12:31:37.450664 19498 net.cpp:106] Creating Layer relu5_3
I1013 12:31:37.450669 19498 net.cpp:454] relu5_3 <- conv5_3
I1013 12:31:37.450675 19498 net.cpp:397] relu5_3 -> conv5_3 (in-place)
I1013 12:31:37.451037 19498 net.cpp:150] Setting up relu5_3
I1013 12:31:37.451050 19498 net.cpp:157] Top shape: 4 512 36 36 (2654208)
I1013 12:31:37.451053 19498 net.cpp:165] Memory required for data: 3389384804
I1013 12:31:37.451056 19498 layer_factory.hpp:76] Creating layer conv5_3_relu5_3_0_split
I1013 12:31:37.451062 19498 net.cpp:106] Creating Layer conv5_3_relu5_3_0_split
I1013 12:31:37.451066 19498 net.cpp:454] conv5_3_relu5_3_0_split <- conv5_3
I1013 12:31:37.451076 19498 net.cpp:411] conv5_3_relu5_3_0_split -> conv5_3_relu5_3_0_split_0
I1013 12:31:37.451082 19498 net.cpp:411] conv5_3_relu5_3_0_split -> conv5_3_relu5_3_0_split_1
I1013 12:31:37.451087 19498 net.cpp:411] conv5_3_relu5_3_0_split -> conv5_3_relu5_3_0_split_2
I1013 12:31:37.451153 19498 net.cpp:150] Setting up conv5_3_relu5_3_0_split
I1013 12:31:37.451158 19498 net.cpp:157] Top shape: 4 512 36 36 (2654208)
I1013 12:31:37.451161 19498 net.cpp:157] Top shape: 4 512 36 36 (2654208)
I1013 12:31:37.451164 19498 net.cpp:157] Top shape: 4 512 36 36 (2654208)
I1013 12:31:37.451166 19498 net.cpp:165] Memory required for data: 3421235300
I1013 12:31:37.451169 19498 layer_factory.hpp:76] Creating layer LFCN_2_3x5
I1013 12:31:37.451179 19498 net.cpp:106] Creating Layer LFCN_2_3x5
I1013 12:31:37.451181 19498 net.cpp:454] LFCN_2_3x5 <- conv5_3_relu5_3_0_split_0
I1013 12:31:37.451187 19498 net.cpp:411] LFCN_2_3x5 -> LFCN_2_3x5
I1013 12:31:37.453604 19498 net.cpp:150] Setting up LFCN_2_3x5
I1013 12:31:37.453618 19498 net.cpp:157] Top shape: 4 6 36 36 (31104)
I1013 12:31:37.453632 19498 net.cpp:165] Memory required for data: 3421359716
I1013 12:31:37.453649 19498 layer_factory.hpp:76] Creating layer LFCN_2_3x5_LFCN_2_3x5_0_split
I1013 12:31:37.453655 19498 net.cpp:106] Creating Layer LFCN_2_3x5_LFCN_2_3x5_0_split
I1013 12:31:37.453658 19498 net.cpp:454] LFCN_2_3x5_LFCN_2_3x5_0_split <- LFCN_2_3x5
I1013 12:31:37.453663 19498 net.cpp:411] LFCN_2_3x5_LFCN_2_3x5_0_split -> LFCN_2_3x5_LFCN_2_3x5_0_split_0
I1013 12:31:37.453670 19498 net.cpp:411] LFCN_2_3x5_LFCN_2_3x5_0_split -> LFCN_2_3x5_LFCN_2_3x5_0_split_1
I1013 12:31:37.453675 19498 net.cpp:411] LFCN_2_3x5_LFCN_2_3x5_0_split -> LFCN_2_3x5_LFCN_2_3x5_0_split_2
I1013 12:31:37.453733 19498 net.cpp:150] Setting up LFCN_2_3x5_LFCN_2_3x5_0_split
I1013 12:31:37.453738 19498 net.cpp:157] Top shape: 4 6 36 36 (31104)
I1013 12:31:37.453742 19498 net.cpp:157] Top shape: 4 6 36 36 (31104)
I1013 12:31:37.453744 19498 net.cpp:157] Top shape: 4 6 36 36 (31104)
I1013 12:31:37.453747 19498 net.cpp:165] Memory required for data: 3421732964
I1013 12:31:37.453749 19498 layer_factory.hpp:76] Creating layer detection_loss_2_3x5
I1013 12:31:37.453757 19498 net.cpp:106] Creating Layer detection_loss_2_3x5
I1013 12:31:37.453760 19498 net.cpp:454] detection_loss_2_3x5 <- LFCN_2_3x5_LFCN_2_3x5_0_split_0
I1013 12:31:37.453764 19498 net.cpp:454] detection_loss_2_3x5 <- label_2_3x5_data_3_split_0
I1013 12:31:37.453769 19498 net.cpp:411] detection_loss_2_3x5 -> loss_2_3x5
I1013 12:31:37.453778 19498 layer_factory.hpp:76] Creating layer detection_loss_2_3x5
I1013 12:31:37.454322 19498 net.cpp:150] Setting up detection_loss_2_3x5
I1013 12:31:37.454334 19498 net.cpp:157] Top shape: 1 1 1 2 (2)
I1013 12:31:37.454349 19498 net.cpp:160]     with loss weight 1
I1013 12:31:37.454371 19498 net.cpp:165] Memory required for data: 3421732972
I1013 12:31:37.454375 19498 layer_factory.hpp:76] Creating layer detection_accuracy_2_3x5
I1013 12:31:37.454382 19498 net.cpp:106] Creating Layer detection_accuracy_2_3x5
I1013 12:31:37.454385 19498 net.cpp:454] detection_accuracy_2_3x5 <- LFCN_2_3x5_LFCN_2_3x5_0_split_1
I1013 12:31:37.454391 19498 net.cpp:454] detection_accuracy_2_3x5 <- label_2_3x5_data_3_split_1
I1013 12:31:37.454397 19498 net.cpp:411] detection_accuracy_2_3x5 -> accuracy_2_3x5
I1013 12:31:37.454404 19498 net.cpp:411] detection_accuracy_2_3x5 -> boxiou_2_3x5
I1013 12:31:37.454448 19498 net.cpp:150] Setting up detection_accuracy_2_3x5
I1013 12:31:37.454453 19498 net.cpp:157] Top shape: 1 1 1 2 (2)
I1013 12:31:37.454457 19498 net.cpp:157] Top shape: 1 1 1 1 (1)
I1013 12:31:37.454459 19498 net.cpp:165] Memory required for data: 3421732984
I1013 12:31:37.454463 19498 layer_factory.hpp:76] Creating layer LFCN_2_5x7
I1013 12:31:37.454469 19498 net.cpp:106] Creating Layer LFCN_2_5x7
I1013 12:31:37.454473 19498 net.cpp:454] LFCN_2_5x7 <- conv5_3_relu5_3_0_split_1
I1013 12:31:37.454478 19498 net.cpp:411] LFCN_2_5x7 -> LFCN_2_5x7
I1013 12:31:37.459137 19498 net.cpp:150] Setting up LFCN_2_5x7
I1013 12:31:37.459151 19498 net.cpp:157] Top shape: 4 6 36 36 (31104)
I1013 12:31:37.459154 19498 net.cpp:165] Memory required for data: 3421857400
I1013 12:31:37.459161 19498 layer_factory.hpp:76] Creating layer LFCN_2_5x7_LFCN_2_5x7_0_split
I1013 12:31:37.459168 19498 net.cpp:106] Creating Layer LFCN_2_5x7_LFCN_2_5x7_0_split
I1013 12:31:37.459172 19498 net.cpp:454] LFCN_2_5x7_LFCN_2_5x7_0_split <- LFCN_2_5x7
I1013 12:31:37.459178 19498 net.cpp:411] LFCN_2_5x7_LFCN_2_5x7_0_split -> LFCN_2_5x7_LFCN_2_5x7_0_split_0
I1013 12:31:37.459187 19498 net.cpp:411] LFCN_2_5x7_LFCN_2_5x7_0_split -> LFCN_2_5x7_LFCN_2_5x7_0_split_1
I1013 12:31:37.459192 19498 net.cpp:411] LFCN_2_5x7_LFCN_2_5x7_0_split -> LFCN_2_5x7_LFCN_2_5x7_0_split_2
I1013 12:31:37.459249 19498 net.cpp:150] Setting up LFCN_2_5x7_LFCN_2_5x7_0_split
I1013 12:31:37.459254 19498 net.cpp:157] Top shape: 4 6 36 36 (31104)
I1013 12:31:37.459256 19498 net.cpp:157] Top shape: 4 6 36 36 (31104)
I1013 12:31:37.459259 19498 net.cpp:157] Top shape: 4 6 36 36 (31104)
I1013 12:31:37.459261 19498 net.cpp:165] Memory required for data: 3422230648
I1013 12:31:37.459264 19498 layer_factory.hpp:76] Creating layer detection_loss_2_5x7
I1013 12:31:37.459271 19498 net.cpp:106] Creating Layer detection_loss_2_5x7
I1013 12:31:37.459275 19498 net.cpp:454] detection_loss_2_5x7 <- LFCN_2_5x7_LFCN_2_5x7_0_split_0
I1013 12:31:37.459278 19498 net.cpp:454] detection_loss_2_5x7 <- label_2_5x7_data_4_split_0
I1013 12:31:37.459285 19498 net.cpp:411] detection_loss_2_5x7 -> loss_2_5x7
I1013 12:31:37.459291 19498 layer_factory.hpp:76] Creating layer detection_loss_2_5x7
I1013 12:31:37.459650 19498 net.cpp:150] Setting up detection_loss_2_5x7
I1013 12:31:37.459661 19498 net.cpp:157] Top shape: 1 1 1 2 (2)
I1013 12:31:37.459662 19498 net.cpp:160]     with loss weight 1
I1013 12:31:37.459668 19498 net.cpp:165] Memory required for data: 3422230656
I1013 12:31:37.459671 19498 layer_factory.hpp:76] Creating layer detection_accuracy_2_5x7
I1013 12:31:37.459679 19498 net.cpp:106] Creating Layer detection_accuracy_2_5x7
I1013 12:31:37.459682 19498 net.cpp:454] detection_accuracy_2_5x7 <- LFCN_2_5x7_LFCN_2_5x7_0_split_1
I1013 12:31:37.459687 19498 net.cpp:454] detection_accuracy_2_5x7 <- label_2_5x7_data_4_split_1
I1013 12:31:37.459692 19498 net.cpp:411] detection_accuracy_2_5x7 -> accuracy_2_5x7
I1013 12:31:37.459698 19498 net.cpp:411] detection_accuracy_2_5x7 -> boxiou_2_5x7
I1013 12:31:37.459740 19498 net.cpp:150] Setting up detection_accuracy_2_5x7
I1013 12:31:37.459745 19498 net.cpp:157] Top shape: 1 1 1 2 (2)
I1013 12:31:37.459749 19498 net.cpp:157] Top shape: 1 1 1 1 (1)
I1013 12:31:37.459751 19498 net.cpp:165] Memory required for data: 3422230668
I1013 12:31:37.459754 19498 layer_factory.hpp:76] Creating layer pool5
I1013 12:31:37.459759 19498 net.cpp:106] Creating Layer pool5
I1013 12:31:37.459763 19498 net.cpp:454] pool5 <- conv5_3_relu5_3_0_split_2
I1013 12:31:37.459769 19498 net.cpp:411] pool5 -> pool5
I1013 12:31:37.460158 19498 net.cpp:150] Setting up pool5
I1013 12:31:37.460170 19498 net.cpp:157] Top shape: 4 512 18 18 (663552)
I1013 12:31:37.460173 19498 net.cpp:165] Memory required for data: 3424884876
I1013 12:31:37.460176 19498 layer_factory.hpp:76] Creating layer conv6_1
I1013 12:31:37.460185 19498 net.cpp:106] Creating Layer conv6_1
I1013 12:31:37.460188 19498 net.cpp:454] conv6_1 <- pool5
I1013 12:31:37.460196 19498 net.cpp:411] conv6_1 -> conv6_1
I1013 12:31:37.539774 19498 net.cpp:150] Setting up conv6_1
I1013 12:31:37.539790 19498 net.cpp:157] Top shape: 4 512 18 18 (663552)
I1013 12:31:37.539804 19498 net.cpp:165] Memory required for data: 3427539084
I1013 12:31:37.539811 19498 layer_factory.hpp:76] Creating layer relu6_1
I1013 12:31:37.539819 19498 net.cpp:106] Creating Layer relu6_1
I1013 12:31:37.539824 19498 net.cpp:454] relu6_1 <- conv6_1
I1013 12:31:37.539829 19498 net.cpp:397] relu6_1 -> conv6_1 (in-place)
I1013 12:31:37.540249 19498 net.cpp:150] Setting up relu6_1
I1013 12:31:37.540264 19498 net.cpp:157] Top shape: 4 512 18 18 (663552)
I1013 12:31:37.540267 19498 net.cpp:165] Memory required for data: 3430193292
I1013 12:31:37.540271 19498 layer_factory.hpp:76] Creating layer conv6_1_relu6_1_0_split
I1013 12:31:37.540277 19498 net.cpp:106] Creating Layer conv6_1_relu6_1_0_split
I1013 12:31:37.540280 19498 net.cpp:454] conv6_1_relu6_1_0_split <- conv6_1
I1013 12:31:37.540287 19498 net.cpp:411] conv6_1_relu6_1_0_split -> conv6_1_relu6_1_0_split_0
I1013 12:31:37.540293 19498 net.cpp:411] conv6_1_relu6_1_0_split -> conv6_1_relu6_1_0_split_1
I1013 12:31:37.540298 19498 net.cpp:411] conv6_1_relu6_1_0_split -> conv6_1_relu6_1_0_split_2
I1013 12:31:37.540369 19498 net.cpp:150] Setting up conv6_1_relu6_1_0_split
I1013 12:31:37.540374 19498 net.cpp:157] Top shape: 4 512 18 18 (663552)
I1013 12:31:37.540379 19498 net.cpp:157] Top shape: 4 512 18 18 (663552)
I1013 12:31:37.540381 19498 net.cpp:157] Top shape: 4 512 18 18 (663552)
I1013 12:31:37.540383 19498 net.cpp:165] Memory required for data: 3438155916
I1013 12:31:37.540386 19498 layer_factory.hpp:76] Creating layer LFCN_3_3x5
I1013 12:31:37.540395 19498 net.cpp:106] Creating Layer LFCN_3_3x5
I1013 12:31:37.540398 19498 net.cpp:454] LFCN_3_3x5 <- conv6_1_relu6_1_0_split_0
I1013 12:31:37.540407 19498 net.cpp:411] LFCN_3_3x5 -> LFCN_3_3x5
I1013 12:31:37.543761 19498 net.cpp:150] Setting up LFCN_3_3x5
I1013 12:31:37.543773 19498 net.cpp:157] Top shape: 4 6 18 18 (7776)
I1013 12:31:37.543787 19498 net.cpp:165] Memory required for data: 3438187020
I1013 12:31:37.543794 19498 layer_factory.hpp:76] Creating layer LFCN_3_3x5_LFCN_3_3x5_0_split
I1013 12:31:37.543809 19498 net.cpp:106] Creating Layer LFCN_3_3x5_LFCN_3_3x5_0_split
I1013 12:31:37.543812 19498 net.cpp:454] LFCN_3_3x5_LFCN_3_3x5_0_split <- LFCN_3_3x5
I1013 12:31:37.543819 19498 net.cpp:411] LFCN_3_3x5_LFCN_3_3x5_0_split -> LFCN_3_3x5_LFCN_3_3x5_0_split_0
I1013 12:31:37.543826 19498 net.cpp:411] LFCN_3_3x5_LFCN_3_3x5_0_split -> LFCN_3_3x5_LFCN_3_3x5_0_split_1
I1013 12:31:37.543833 19498 net.cpp:411] LFCN_3_3x5_LFCN_3_3x5_0_split -> LFCN_3_3x5_LFCN_3_3x5_0_split_2
I1013 12:31:37.543896 19498 net.cpp:150] Setting up LFCN_3_3x5_LFCN_3_3x5_0_split
I1013 12:31:37.543902 19498 net.cpp:157] Top shape: 4 6 18 18 (7776)
I1013 12:31:37.543905 19498 net.cpp:157] Top shape: 4 6 18 18 (7776)
I1013 12:31:37.543908 19498 net.cpp:157] Top shape: 4 6 18 18 (7776)
I1013 12:31:37.543910 19498 net.cpp:165] Memory required for data: 3438280332
I1013 12:31:37.543915 19498 layer_factory.hpp:76] Creating layer detection_loss_3_3x5
I1013 12:31:37.543921 19498 net.cpp:106] Creating Layer detection_loss_3_3x5
I1013 12:31:37.543925 19498 net.cpp:454] detection_loss_3_3x5 <- LFCN_3_3x5_LFCN_3_3x5_0_split_0
I1013 12:31:37.543929 19498 net.cpp:454] detection_loss_3_3x5 <- label_3_3x5_data_5_split_0
I1013 12:31:37.543936 19498 net.cpp:411] detection_loss_3_3x5 -> loss_3_3x5
I1013 12:31:37.543943 19498 layer_factory.hpp:76] Creating layer detection_loss_3_3x5
I1013 12:31:37.544319 19498 net.cpp:150] Setting up detection_loss_3_3x5
I1013 12:31:37.544332 19498 net.cpp:157] Top shape: 1 1 1 2 (2)
I1013 12:31:37.544334 19498 net.cpp:160]     with loss weight 1
I1013 12:31:37.544340 19498 net.cpp:165] Memory required for data: 3438280340
I1013 12:31:37.544343 19498 layer_factory.hpp:76] Creating layer detection_accuracy_3_3x5
I1013 12:31:37.544349 19498 net.cpp:106] Creating Layer detection_accuracy_3_3x5
I1013 12:31:37.544353 19498 net.cpp:454] detection_accuracy_3_3x5 <- LFCN_3_3x5_LFCN_3_3x5_0_split_1
I1013 12:31:37.544358 19498 net.cpp:454] detection_accuracy_3_3x5 <- label_3_3x5_data_5_split_1
I1013 12:31:37.544363 19498 net.cpp:411] detection_accuracy_3_3x5 -> accuracy_3_3x5
I1013 12:31:37.544370 19498 net.cpp:411] detection_accuracy_3_3x5 -> boxiou_3_3x5
I1013 12:31:37.544414 19498 net.cpp:150] Setting up detection_accuracy_3_3x5
I1013 12:31:37.544419 19498 net.cpp:157] Top shape: 1 1 1 2 (2)
I1013 12:31:37.544421 19498 net.cpp:157] Top shape: 1 1 1 1 (1)
I1013 12:31:37.544425 19498 net.cpp:165] Memory required for data: 3438280352
I1013 12:31:37.544427 19498 layer_factory.hpp:76] Creating layer LFCN_3_5x7
I1013 12:31:37.544440 19498 net.cpp:106] Creating Layer LFCN_3_5x7
I1013 12:31:37.544443 19498 net.cpp:454] LFCN_3_5x7 <- conv6_1_relu6_1_0_split_1
I1013 12:31:37.544450 19498 net.cpp:411] LFCN_3_5x7 -> LFCN_3_5x7
I1013 12:31:37.549612 19498 net.cpp:150] Setting up LFCN_3_5x7
I1013 12:31:37.549626 19498 net.cpp:157] Top shape: 4 6 18 18 (7776)
I1013 12:31:37.549641 19498 net.cpp:165] Memory required for data: 3438311456
I1013 12:31:37.549648 19498 layer_factory.hpp:76] Creating layer LFCN_3_5x7_LFCN_3_5x7_0_split
I1013 12:31:37.549654 19498 net.cpp:106] Creating Layer LFCN_3_5x7_LFCN_3_5x7_0_split
I1013 12:31:37.549657 19498 net.cpp:454] LFCN_3_5x7_LFCN_3_5x7_0_split <- LFCN_3_5x7
I1013 12:31:37.549664 19498 net.cpp:411] LFCN_3_5x7_LFCN_3_5x7_0_split -> LFCN_3_5x7_LFCN_3_5x7_0_split_0
I1013 12:31:37.549671 19498 net.cpp:411] LFCN_3_5x7_LFCN_3_5x7_0_split -> LFCN_3_5x7_LFCN_3_5x7_0_split_1
I1013 12:31:37.549676 19498 net.cpp:411] LFCN_3_5x7_LFCN_3_5x7_0_split -> LFCN_3_5x7_LFCN_3_5x7_0_split_2
I1013 12:31:37.549737 19498 net.cpp:150] Setting up LFCN_3_5x7_LFCN_3_5x7_0_split
I1013 12:31:37.549742 19498 net.cpp:157] Top shape: 4 6 18 18 (7776)
I1013 12:31:37.549746 19498 net.cpp:157] Top shape: 4 6 18 18 (7776)
I1013 12:31:37.549749 19498 net.cpp:157] Top shape: 4 6 18 18 (7776)
I1013 12:31:37.549751 19498 net.cpp:165] Memory required for data: 3438404768
I1013 12:31:37.549754 19498 layer_factory.hpp:76] Creating layer detection_loss_3_5x7
I1013 12:31:37.549759 19498 net.cpp:106] Creating Layer detection_loss_3_5x7
I1013 12:31:37.549762 19498 net.cpp:454] detection_loss_3_5x7 <- LFCN_3_5x7_LFCN_3_5x7_0_split_0
I1013 12:31:37.549767 19498 net.cpp:454] detection_loss_3_5x7 <- label_3_5x7_data_6_split_0
I1013 12:31:37.549773 19498 net.cpp:411] detection_loss_3_5x7 -> loss_3_5x7
I1013 12:31:37.549780 19498 layer_factory.hpp:76] Creating layer detection_loss_3_5x7
I1013 12:31:37.550325 19498 net.cpp:150] Setting up detection_loss_3_5x7
I1013 12:31:37.550338 19498 net.cpp:157] Top shape: 1 1 1 2 (2)
I1013 12:31:37.550340 19498 net.cpp:160]     with loss weight 1
I1013 12:31:37.550346 19498 net.cpp:165] Memory required for data: 3438404776
I1013 12:31:37.550349 19498 layer_factory.hpp:76] Creating layer detection_accuracy_3_5x7
I1013 12:31:37.550355 19498 net.cpp:106] Creating Layer detection_accuracy_3_5x7
I1013 12:31:37.550359 19498 net.cpp:454] detection_accuracy_3_5x7 <- LFCN_3_5x7_LFCN_3_5x7_0_split_1
I1013 12:31:37.550364 19498 net.cpp:454] detection_accuracy_3_5x7 <- label_3_5x7_data_6_split_1
I1013 12:31:37.550370 19498 net.cpp:411] detection_accuracy_3_5x7 -> accuracy_3_5x7
I1013 12:31:37.550377 19498 net.cpp:411] detection_accuracy_3_5x7 -> boxiou_3_5x7
I1013 12:31:37.550420 19498 net.cpp:150] Setting up detection_accuracy_3_5x7
I1013 12:31:37.550426 19498 net.cpp:157] Top shape: 1 1 1 2 (2)
I1013 12:31:37.550429 19498 net.cpp:157] Top shape: 1 1 1 1 (1)
I1013 12:31:37.550431 19498 net.cpp:165] Memory required for data: 3438404788
I1013 12:31:37.550434 19498 layer_factory.hpp:76] Creating layer pool6
I1013 12:31:37.550441 19498 net.cpp:106] Creating Layer pool6
I1013 12:31:37.550444 19498 net.cpp:454] pool6 <- conv6_1_relu6_1_0_split_2
I1013 12:31:37.550449 19498 net.cpp:411] pool6 -> pool6
I1013 12:31:37.550665 19498 net.cpp:150] Setting up pool6
I1013 12:31:37.550675 19498 net.cpp:157] Top shape: 4 512 9 9 (165888)
I1013 12:31:37.550678 19498 net.cpp:165] Memory required for data: 3439068340
I1013 12:31:37.550681 19498 layer_factory.hpp:76] Creating layer LFCN_4_3x5
I1013 12:31:37.550689 19498 net.cpp:106] Creating Layer LFCN_4_3x5
I1013 12:31:37.550693 19498 net.cpp:454] LFCN_4_3x5 <- pool6
I1013 12:31:37.550699 19498 net.cpp:411] LFCN_4_3x5 -> LFCN_4_3x5
I1013 12:31:37.553313 19498 net.cpp:150] Setting up LFCN_4_3x5
I1013 12:31:37.553325 19498 net.cpp:157] Top shape: 4 6 9 9 (1944)
I1013 12:31:37.553340 19498 net.cpp:165] Memory required for data: 3439076116
I1013 12:31:37.553346 19498 layer_factory.hpp:76] Creating layer LFCN_4_3x5_LFCN_4_3x5_0_split
I1013 12:31:37.553355 19498 net.cpp:106] Creating Layer LFCN_4_3x5_LFCN_4_3x5_0_split
I1013 12:31:37.553359 19498 net.cpp:454] LFCN_4_3x5_LFCN_4_3x5_0_split <- LFCN_4_3x5
I1013 12:31:37.553364 19498 net.cpp:411] LFCN_4_3x5_LFCN_4_3x5_0_split -> LFCN_4_3x5_LFCN_4_3x5_0_split_0
I1013 12:31:37.553374 19498 net.cpp:411] LFCN_4_3x5_LFCN_4_3x5_0_split -> LFCN_4_3x5_LFCN_4_3x5_0_split_1
I1013 12:31:37.553378 19498 net.cpp:411] LFCN_4_3x5_LFCN_4_3x5_0_split -> LFCN_4_3x5_LFCN_4_3x5_0_split_2
I1013 12:31:37.553437 19498 net.cpp:150] Setting up LFCN_4_3x5_LFCN_4_3x5_0_split
I1013 12:31:37.553443 19498 net.cpp:157] Top shape: 4 6 9 9 (1944)
I1013 12:31:37.553447 19498 net.cpp:157] Top shape: 4 6 9 9 (1944)
I1013 12:31:37.553449 19498 net.cpp:157] Top shape: 4 6 9 9 (1944)
I1013 12:31:37.553452 19498 net.cpp:165] Memory required for data: 3439099444
I1013 12:31:37.553454 19498 layer_factory.hpp:76] Creating layer detection_loss_4_3x5
I1013 12:31:37.553462 19498 net.cpp:106] Creating Layer detection_loss_4_3x5
I1013 12:31:37.553465 19498 net.cpp:454] detection_loss_4_3x5 <- LFCN_4_3x5_LFCN_4_3x5_0_split_0
I1013 12:31:37.553469 19498 net.cpp:454] detection_loss_4_3x5 <- label_4_3x5_data_7_split_0
I1013 12:31:37.553475 19498 net.cpp:411] detection_loss_4_3x5 -> loss_4_3x5
I1013 12:31:37.553483 19498 layer_factory.hpp:76] Creating layer detection_loss_4_3x5
I1013 12:31:37.554026 19498 net.cpp:150] Setting up detection_loss_4_3x5
I1013 12:31:37.554039 19498 net.cpp:157] Top shape: 1 1 1 2 (2)
I1013 12:31:37.554052 19498 net.cpp:160]     with loss weight 1
I1013 12:31:37.554059 19498 net.cpp:165] Memory required for data: 3439099452
I1013 12:31:37.554061 19498 layer_factory.hpp:76] Creating layer detection_accuracy_4_3x5
I1013 12:31:37.554067 19498 net.cpp:106] Creating Layer detection_accuracy_4_3x5
I1013 12:31:37.554072 19498 net.cpp:454] detection_accuracy_4_3x5 <- LFCN_4_3x5_LFCN_4_3x5_0_split_1
I1013 12:31:37.554076 19498 net.cpp:454] detection_accuracy_4_3x5 <- label_4_3x5_data_7_split_1
I1013 12:31:37.554083 19498 net.cpp:411] detection_accuracy_4_3x5 -> accuracy_4_3x5
I1013 12:31:37.554090 19498 net.cpp:411] detection_accuracy_4_3x5 -> boxiou_4_3x5
I1013 12:31:37.554137 19498 net.cpp:150] Setting up detection_accuracy_4_3x5
I1013 12:31:37.554142 19498 net.cpp:157] Top shape: 1 1 1 2 (2)
I1013 12:31:37.554146 19498 net.cpp:157] Top shape: 1 1 1 1 (1)
I1013 12:31:37.554148 19498 net.cpp:165] Memory required for data: 3439099464
I1013 12:31:37.554152 19498 layer_factory.hpp:76] Creating layer proposals
I1013 12:31:37.554159 19498 net.cpp:106] Creating Layer proposals
I1013 12:31:37.554162 19498 net.cpp:454] proposals <- LFCN_1_3x5_LFCN_1_3x5_0_split_2
I1013 12:31:37.554167 19498 net.cpp:454] proposals <- LFCN_1_5x7_LFCN_1_5x7_0_split_2
I1013 12:31:37.554170 19498 net.cpp:454] proposals <- LFCN_2_3x5_LFCN_2_3x5_0_split_2
I1013 12:31:37.554173 19498 net.cpp:454] proposals <- LFCN_2_5x7_LFCN_2_5x7_0_split_2
I1013 12:31:37.554177 19498 net.cpp:454] proposals <- LFCN_3_3x5_LFCN_3_3x5_0_split_2
I1013 12:31:37.554180 19498 net.cpp:454] proposals <- LFCN_3_5x7_LFCN_3_5x7_0_split_2
I1013 12:31:37.554183 19498 net.cpp:454] proposals <- LFCN_4_3x5_LFCN_4_3x5_0_split_2
I1013 12:31:37.554188 19498 net.cpp:411] proposals -> proposals
I1013 12:31:37.554219 19498 net.cpp:150] Setting up proposals
I1013 12:31:37.554224 19498 net.cpp:157] Top shape: 1 5 1 1 (5)
I1013 12:31:37.554226 19498 net.cpp:165] Memory required for data: 3439099484
I1013 12:31:37.554229 19498 layer_factory.hpp:76] Creating layer proposal_info
I1013 12:31:37.554244 19498 net.cpp:106] Creating Layer proposal_info
I1013 12:31:37.554247 19498 net.cpp:454] proposal_info <- proposals
I1013 12:31:37.554251 19498 net.cpp:454] proposal_info <- gt_boxes
I1013 12:31:37.554257 19498 net.cpp:411] proposal_info -> rois
I1013 12:31:37.554267 19498 net.cpp:411] proposal_info -> proposal_labels
I1013 12:31:37.554278 19498 net.cpp:411] proposal_info -> proposal_targets
I1013 12:31:37.554287 19498 net.cpp:411] proposal_info -> box_inside_weights
I1013 12:31:37.554294 19498 net.cpp:411] proposal_info -> box_outside_weights
I1013 12:31:37.554301 19498 net.cpp:411] proposal_info -> match_gt_boxes
I1013 12:31:37.554401 19498 net.cpp:150] Setting up proposal_info
I1013 12:31:37.554407 19498 net.cpp:157] Top shape: 128 5 1 1 (640)
I1013 12:31:37.554411 19498 net.cpp:157] Top shape: 128 1 1 1 (128)
I1013 12:31:37.554414 19498 net.cpp:157] Top shape: 128 8 1 1 (1024)
I1013 12:31:37.554419 19498 net.cpp:157] Top shape: 128 8 1 1 (1024)
I1013 12:31:37.554421 19498 net.cpp:157] Top shape: 128 8 1 1 (1024)
I1013 12:31:37.554425 19498 net.cpp:157] Top shape: 128 6 1 1 (768)
I1013 12:31:37.554427 19498 net.cpp:165] Memory required for data: 3439117916
I1013 12:31:37.554430 19498 layer_factory.hpp:76] Creating layer rois_proposal_info_0_split
I1013 12:31:37.554435 19498 net.cpp:106] Creating Layer rois_proposal_info_0_split
I1013 12:31:37.554437 19498 net.cpp:454] rois_proposal_info_0_split <- rois
I1013 12:31:37.554442 19498 net.cpp:411] rois_proposal_info_0_split -> rois_proposal_info_0_split_0
I1013 12:31:37.554447 19498 net.cpp:411] rois_proposal_info_0_split -> rois_proposal_info_0_split_1
I1013 12:31:37.554451 19498 net.cpp:411] rois_proposal_info_0_split -> rois_proposal_info_0_split_2
I1013 12:31:37.554499 19498 net.cpp:150] Setting up rois_proposal_info_0_split
I1013 12:31:37.554504 19498 net.cpp:157] Top shape: 128 5 1 1 (640)
I1013 12:31:37.554507 19498 net.cpp:157] Top shape: 128 5 1 1 (640)
I1013 12:31:37.554510 19498 net.cpp:157] Top shape: 128 5 1 1 (640)
I1013 12:31:37.554513 19498 net.cpp:165] Memory required for data: 3439125596
I1013 12:31:37.554515 19498 layer_factory.hpp:76] Creating layer proposal_labels_proposal_info_1_split
I1013 12:31:37.554522 19498 net.cpp:106] Creating Layer proposal_labels_proposal_info_1_split
I1013 12:31:37.554524 19498 net.cpp:454] proposal_labels_proposal_info_1_split <- proposal_labels
I1013 12:31:37.554528 19498 net.cpp:411] proposal_labels_proposal_info_1_split -> proposal_labels_proposal_info_1_split_0
I1013 12:31:37.554533 19498 net.cpp:411] proposal_labels_proposal_info_1_split -> proposal_labels_proposal_info_1_split_1
I1013 12:31:37.554569 19498 net.cpp:150] Setting up proposal_labels_proposal_info_1_split
I1013 12:31:37.554572 19498 net.cpp:157] Top shape: 128 1 1 1 (128)
I1013 12:31:37.554575 19498 net.cpp:157] Top shape: 128 1 1 1 (128)
I1013 12:31:37.554579 19498 net.cpp:165] Memory required for data: 3439126620
I1013 12:31:37.554580 19498 layer_factory.hpp:76] Creating layer roi_pool_org
I1013 12:31:37.554586 19498 net.cpp:106] Creating Layer roi_pool_org
I1013 12:31:37.554589 19498 net.cpp:454] roi_pool_org <- conv4_3_relu4_3_0_split_2
I1013 12:31:37.554594 19498 net.cpp:454] roi_pool_org <- rois_proposal_info_0_split_0
I1013 12:31:37.554597 19498 net.cpp:411] roi_pool_org -> roi_pool_org
I1013 12:31:37.554605 19498 roi_pooling_layer.cpp:35] Spatial scale: 0.125
I1013 12:31:37.554644 19498 net.cpp:150] Setting up roi_pool_org
I1013 12:31:37.554649 19498 net.cpp:157] Top shape: 128 512 8 4 (2097152)
I1013 12:31:37.554652 19498 net.cpp:165] Memory required for data: 3447515228
I1013 12:31:37.554654 19498 layer_factory.hpp:76] Creating layer roi_pool_ctx
I1013 12:31:37.554659 19498 net.cpp:106] Creating Layer roi_pool_ctx
I1013 12:31:37.554662 19498 net.cpp:454] roi_pool_ctx <- conv4_3_relu4_3_0_split_3
I1013 12:31:37.554666 19498 net.cpp:454] roi_pool_ctx <- rois_proposal_info_0_split_1
I1013 12:31:37.554672 19498 net.cpp:411] roi_pool_ctx -> roi_pool_ctx
I1013 12:31:37.554677 19498 roi_pooling_layer.cpp:35] Spatial scale: 0.125
I1013 12:31:37.554714 19498 net.cpp:150] Setting up roi_pool_ctx
I1013 12:31:37.554718 19498 net.cpp:157] Top shape: 128 512 8 4 (2097152)
I1013 12:31:37.554720 19498 net.cpp:165] Memory required for data: 3455903836
I1013 12:31:37.554723 19498 layer_factory.hpp:76] Creating layer roi_pool
I1013 12:31:37.554729 19498 net.cpp:106] Creating Layer roi_pool
I1013 12:31:37.554733 19498 net.cpp:454] roi_pool <- roi_pool_org
I1013 12:31:37.554736 19498 net.cpp:454] roi_pool <- roi_pool_ctx
I1013 12:31:37.554740 19498 net.cpp:411] roi_pool -> roi_pool
I1013 12:31:37.554765 19498 net.cpp:150] Setting up roi_pool
I1013 12:31:37.554769 19498 net.cpp:157] Top shape: 128 1024 8 4 (4194304)
I1013 12:31:37.554772 19498 net.cpp:165] Memory required for data: 3472681052
I1013 12:31:37.554774 19498 layer_factory.hpp:76] Creating layer roi_c1
I1013 12:31:37.554782 19498 net.cpp:106] Creating Layer roi_c1
I1013 12:31:37.554785 19498 net.cpp:454] roi_c1 <- roi_pool
I1013 12:31:37.554790 19498 net.cpp:411] roi_c1 -> roi_c1
I1013 12:31:37.729182 19498 net.cpp:150] Setting up roi_c1
I1013 12:31:37.729218 19498 net.cpp:157] Top shape: 128 512 8 4 (2097152)
I1013 12:31:37.729221 19498 net.cpp:165] Memory required for data: 3481069660
I1013 12:31:37.729230 19498 layer_factory.hpp:76] Creating layer roi_c1_relu
I1013 12:31:37.729240 19498 net.cpp:106] Creating Layer roi_c1_relu
I1013 12:31:37.729246 19498 net.cpp:454] roi_c1_relu <- roi_c1
I1013 12:31:37.729252 19498 net.cpp:397] roi_c1_relu -> roi_c1 (in-place)
I1013 12:31:37.729612 19498 net.cpp:150] Setting up roi_c1_relu
I1013 12:31:37.729626 19498 net.cpp:157] Top shape: 128 512 8 4 (2097152)
I1013 12:31:37.729629 19498 net.cpp:165] Memory required for data: 3489458268
I1013 12:31:37.729632 19498 layer_factory.hpp:76] Creating layer fc6
I1013 12:31:37.729641 19498 net.cpp:106] Creating Layer fc6
I1013 12:31:37.729645 19498 net.cpp:454] fc6 <- roi_c1
I1013 12:31:37.729652 19498 net.cpp:411] fc6 -> fc6
I1013 12:31:38.839843 19498 net.cpp:150] Setting up fc6
I1013 12:31:38.839874 19498 net.cpp:157] Top shape: 128 2048 (262144)
I1013 12:31:38.839877 19498 net.cpp:165] Memory required for data: 3490506844
I1013 12:31:38.839893 19498 layer_factory.hpp:76] Creating layer relu6
I1013 12:31:38.839920 19498 net.cpp:106] Creating Layer relu6
I1013 12:31:38.839936 19498 net.cpp:454] relu6 <- fc6
I1013 12:31:38.839946 19498 net.cpp:397] relu6 -> fc6 (in-place)
I1013 12:31:38.840347 19498 net.cpp:150] Setting up relu6
I1013 12:31:38.840356 19498 net.cpp:157] Top shape: 128 2048 (262144)
I1013 12:31:38.840359 19498 net.cpp:165] Memory required for data: 3491555420
I1013 12:31:38.840363 19498 layer_factory.hpp:76] Creating layer drop6
I1013 12:31:38.840371 19498 net.cpp:106] Creating Layer drop6
I1013 12:31:38.840374 19498 net.cpp:454] drop6 <- fc6
I1013 12:31:38.840378 19498 net.cpp:397] drop6 -> fc6 (in-place)
I1013 12:31:38.840415 19498 net.cpp:150] Setting up drop6
I1013 12:31:38.840422 19498 net.cpp:157] Top shape: 128 2048 (262144)
I1013 12:31:38.840425 19498 net.cpp:165] Memory required for data: 3492603996
I1013 12:31:38.840427 19498 layer_factory.hpp:76] Creating layer fc6_drop6_0_split
I1013 12:31:38.840433 19498 net.cpp:106] Creating Layer fc6_drop6_0_split
I1013 12:31:38.840436 19498 net.cpp:454] fc6_drop6_0_split <- fc6
I1013 12:31:38.840440 19498 net.cpp:411] fc6_drop6_0_split -> fc6_drop6_0_split_0
I1013 12:31:38.840448 19498 net.cpp:411] fc6_drop6_0_split -> fc6_drop6_0_split_1
I1013 12:31:38.840504 19498 net.cpp:150] Setting up fc6_drop6_0_split
I1013 12:31:38.840512 19498 net.cpp:157] Top shape: 128 2048 (262144)
I1013 12:31:38.840514 19498 net.cpp:157] Top shape: 128 2048 (262144)
I1013 12:31:38.840517 19498 net.cpp:165] Memory required for data: 3494701148
I1013 12:31:38.840519 19498 layer_factory.hpp:76] Creating layer cls_pred
I1013 12:31:38.840530 19498 net.cpp:106] Creating Layer cls_pred
I1013 12:31:38.840533 19498 net.cpp:454] cls_pred <- fc6_drop6_0_split_0
I1013 12:31:38.840543 19498 net.cpp:411] cls_pred -> cls_pred
I1013 12:31:38.840800 19498 net.cpp:150] Setting up cls_pred
I1013 12:31:38.840807 19498 net.cpp:157] Top shape: 128 2 (256)
I1013 12:31:38.840809 19498 net.cpp:165] Memory required for data: 3494702172
I1013 12:31:38.840814 19498 layer_factory.hpp:76] Creating layer cls_pred_cls_pred_0_split
I1013 12:31:38.840821 19498 net.cpp:106] Creating Layer cls_pred_cls_pred_0_split
I1013 12:31:38.840824 19498 net.cpp:454] cls_pred_cls_pred_0_split <- cls_pred
I1013 12:31:38.840829 19498 net.cpp:411] cls_pred_cls_pred_0_split -> cls_pred_cls_pred_0_split_0
I1013 12:31:38.840834 19498 net.cpp:411] cls_pred_cls_pred_0_split -> cls_pred_cls_pred_0_split_1
I1013 12:31:38.840868 19498 net.cpp:150] Setting up cls_pred_cls_pred_0_split
I1013 12:31:38.840883 19498 net.cpp:157] Top shape: 128 2 (256)
I1013 12:31:38.840885 19498 net.cpp:157] Top shape: 128 2 (256)
I1013 12:31:38.840888 19498 net.cpp:165] Memory required for data: 3494704220
I1013 12:31:38.840890 19498 layer_factory.hpp:76] Creating layer bbox_pred
I1013 12:31:38.840898 19498 net.cpp:106] Creating Layer bbox_pred
I1013 12:31:38.840900 19498 net.cpp:454] bbox_pred <- fc6_drop6_0_split_1
I1013 12:31:38.840909 19498 net.cpp:411] bbox_pred -> bbox_pred
I1013 12:31:38.841581 19498 net.cpp:150] Setting up bbox_pred
I1013 12:31:38.841590 19498 net.cpp:157] Top shape: 128 8 (1024)
I1013 12:31:38.841593 19498 net.cpp:165] Memory required for data: 3494708316
I1013 12:31:38.841598 19498 layer_factory.hpp:76] Creating layer bbox_pred_bbox_pred_0_split
I1013 12:31:38.841604 19498 net.cpp:106] Creating Layer bbox_pred_bbox_pred_0_split
I1013 12:31:38.841608 19498 net.cpp:454] bbox_pred_bbox_pred_0_split <- bbox_pred
I1013 12:31:38.841612 19498 net.cpp:411] bbox_pred_bbox_pred_0_split -> bbox_pred_bbox_pred_0_split_0
I1013 12:31:38.841661 19498 net.cpp:411] bbox_pred_bbox_pred_0_split -> bbox_pred_bbox_pred_0_split_1
I1013 12:31:38.841701 19498 net.cpp:150] Setting up bbox_pred_bbox_pred_0_split
I1013 12:31:38.841709 19498 net.cpp:157] Top shape: 128 8 (1024)
I1013 12:31:38.841713 19498 net.cpp:157] Top shape: 128 8 (1024)
I1013 12:31:38.841717 19498 net.cpp:165] Memory required for data: 3494716508
I1013 12:31:38.841718 19498 layer_factory.hpp:76] Creating layer loss_cls
I1013 12:31:38.841725 19498 net.cpp:106] Creating Layer loss_cls
I1013 12:31:38.841728 19498 net.cpp:454] loss_cls <- cls_pred_cls_pred_0_split_0
I1013 12:31:38.841733 19498 net.cpp:454] loss_cls <- proposal_labels_proposal_info_1_split_0
…
I1013 12:31:39.183511 19498 image_gt_data_layer.cpp:234] output label size 2 : 2,6,36,36
I1013 12:31:39.183571 19498 image_gt_data_layer.cpp:234] output label size 3 : 2,6,36,36
I1013 12:31:39.183634 19498 image_gt_data_layer.cpp:234] output label size 4 : 2,6,18,18
I1013 12:31:39.183696 19498 image_gt_data_layer.cpp:234] output label size 5 : 2,6,18,18
I1013 12:31:39.183755 19498 image_gt_data_layer.cpp:234] output label size 6 : 2,6,9,9
I1013 12:31:39.183815 19498 image_gt_data_layer.cpp:249] output gt boxes size: 1,7,1,1
I1013 12:31:39.283006 19498 net.cpp:150] Setting up data
I1013 12:31:39.283035 19498 net.cpp:157] Top shape: 2 3 576 576 (1990656)
I1013 12:31:39.283042 19498 net.cpp:157] Top shape: 2 6 72 72 (62208)
I1013 12:31:39.283046 19498 net.cpp:157] Top shape: 2 6 72 72 (62208)
I1013 12:31:39.283049 19498 net.cpp:157] Top shape: 2 6 36 36 (15552)
I1013 12:31:39.283053 19498 net.cpp:157] Top shape: 2 6 36 36 (15552)
I1013 12:31:39.283056 19498 net.cpp:157] Top shape: 2 6 18 18 (3888)
I1013 12:31:39.283059 19498 net.cpp:157] Top shape: 2 6 18 18 (3888)
I1013 12:31:39.283063 19498 net.cpp:157] Top shape: 2 6 9 9 (972)
I1013 12:31:39.283067 19498 net.cpp:157] Top shape: 1 7 1 1 (7)
I1013 12:31:39.283069 19498 net.cpp:165] Memory required for data: 8619724
I1013 12:31:39.283076 19498 layer_factory.hpp:76] Creating layer label_1_3x5_data_1_split
I1013 12:31:39.283089 19498 net.cpp:106] Creating Layer label_1_3x5_data_1_split
I1013 12:31:39.283093 19498 net.cpp:454] label_1_3x5_data_1_split <- label_1_3x5
I1013 12:31:39.283102 19498 net.cpp:411] label_1_3x5_data_1_split -> label_1_3x5_data_1_split_0
I1013 12:31:39.283113 19498 net.cpp:411] label_1_3x5_data_1_split -> label_1_3x5_data_1_split_1
I1013 12:31:39.283680 19498 net.cpp:150] Setting up label_1_3x5_data_1_split
I1013 12:31:39.283695 19498 net.cpp:157] Top shape: 2 6 72 72 (62208)
I1013 12:31:39.283699 19498 net.cpp:157] Top shape: 2 6 72 72 (62208)
I1013 12:31:39.283702 19498 net.cpp:165] Memory required for data: 9117388
I1013 12:31:39.283705 19498 layer_factory.hpp:76] Creating layer label_1_5x7_data_2_split
I1013 12:31:39.283715 19498 net.cpp:106] Creating Layer label_1_5x7_data_2_split
I1013 12:31:39.283718 19498 net.cpp:454] label_1_5x7_data_2_split <- label_1_5x7
I1013 12:31:39.283723 19498 net.cpp:411] label_1_5x7_data_2_split -> label_1_5x7_data_2_split_0
I1013 12:31:39.283730 19498 net.cpp:411] label_1_5x7_data_2_split -> label_1_5x7_data_2_split_1
I1013 12:31:39.283804 19498 net.cpp:150] Setting up label_1_5x7_data_2_split
I1013 12:31:39.283816 19498 net.cpp:157] Top shape: 2 6 72 72 (62208)
I1013 12:31:39.283820 19498 net.cpp:157] Top shape: 2 6 72 72 (62208)
I1013 12:31:39.283823 19498 net.cpp:165] Memory required for data: 9615052
I1013 12:31:39.283826 19498 layer_factory.hpp:76] Creating layer label_2_3x5_data_3_split
I1013 12:31:39.283831 19498 net.cpp:106] Creating Layer label_2_3x5_data_3_split
I1013 12:31:39.283834 19498 net.cpp:454] label_2_3x5_data_3_split <- label_2_3x5
I1013 12:31:39.283841 19498 net.cpp:411] label_2_3x5_data_3_split -> label_2_3x5_data_3_split_0
I1013 12:31:39.283849 19498 net.cpp:411] label_2_3x5_data_3_split -> label_2_3x5_data_3_split_1
I1013 12:31:39.283915 19498 net.cpp:150] Setting up label_2_3x5_data_3_split
I1013 12:31:39.283926 19498 net.cpp:157] Top shape: 2 6 36 36 (15552)
I1013 12:31:39.283928 19498 net.cpp:157] Top shape: 2 6 36 36 (15552)
I1013 12:31:39.283931 19498 net.cpp:165] Memory required for data: 9739468
I1013 12:31:39.283933 19498 layer_factory.hpp:76] Creating layer label_2_5x7_data_4_split
I1013 12:31:39.283941 19498 net.cpp:106] Creating Layer label_2_5x7_data_4_split
I1013 12:31:39.283944 19498 net.cpp:454] label_2_5x7_data_4_split <- label_2_5x7
I1013 12:31:39.283952 19498 net.cpp:411] label_2_5x7_data_4_split -> label_2_5x7_data_4_split_0
I1013 12:31:39.283960 19498 net.cpp:411] label_2_5x7_data_4_split -> label_2_5x7_data_4_split_1
I1013 12:31:39.284008 19498 net.cpp:150] Setting up label_2_5x7_data_4_split
I1013 12:31:39.284019 19498 net.cpp:157] Top shape: 2 6 36 36 (15552)
I1013 12:31:39.284024 19498 net.cpp:157] Top shape: 2 6 36 36 (15552)
I1013 12:31:39.284026 19498 net.cpp:165] Memory required for data: 9863884
I1013 12:31:39.284029 19498 layer_factory.hpp:76] Creating layer label_3_3x5_data_5_split
I1013 12:31:39.284034 19498 net.cpp:106] Creating Layer label_3_3x5_data_5_split
I1013 12:31:39.284037 19498 net.cpp:454] label_3_3x5_data_5_split <- label_3_3x5
I1013 12:31:39.284044 19498 net.cpp:411] label_3_3x5_data_5_split -> label_3_3x5_data_5_split_0
I1013 12:31:39.284049 19498 net.cpp:411] label_3_3x5_data_5_split -> label_3_3x5_data_5_split_1
I1013 12:31:39.284087 19498 net.cpp:150] Setting up label_3_3x5_data_5_split
I1013 12:31:39.284096 19498 net.cpp:157] Top shape: 2 6 18 18 (3888)
I1013 12:31:39.284098 19498 net.cpp:157] Top shape: 2 6 18 18 (3888)
I1013 12:31:39.284101 19498 net.cpp:165] Memory required for data: 9894988
I1013 12:31:39.284103 19498 layer_factory.hpp:76] Creating layer label_3_5x7_data_6_split
I1013 12:31:39.284107 19498 net.cpp:106] Creating Layer label_3_5x7_data_6_split
I1013 12:31:39.284111 19498 net.cpp:454] label_3_5x7_data_6_split <- label_3_5x7
I1013 12:31:39.284116 19498 net.cpp:411] label_3_5x7_data_6_split -> label_3_5x7_data_6_split_0
I1013 12:31:39.284121 19498 net.cpp:411] label_3_5x7_data_6_split -> label_3_5x7_data_6_split_1
I1013 12:31:39.284167 19498 net.cpp:150] Setting up label_3_5x7_data_6_split
I1013 12:31:39.284174 19498 net.cpp:157] Top shape: 2 6 18 18 (3888)
I1013 12:31:39.284178 19498 net.cpp:157] Top shape: 2 6 18 18 (3888)
I1013 12:31:39.284180 19498 net.cpp:165] Memory required for data: 9926092
I1013 12:31:39.284183 19498 layer_factory.hpp:76] Creating layer label_4_3x5_data_7_split
I1013 12:31:39.284186 19498 net.cpp:106] Creating Layer label_4_3x5_data_7_split
I1013 12:31:39.284189 19498 net.cpp:454] label_4_3x5_data_7_split <- label_4_3x5
I1013 12:31:39.284193 19498 net.cpp:411] label_4_3x5_data_7_split -> label_4_3x5_data_7_split_0
I1013 12:31:39.284198 19498 net.cpp:411] label_4_3x5_data_7_split -> label_4_3x5_data_7_split_1
I1013 12:31:39.284235 19498 net.cpp:150] Setting up label_4_3x5_data_7_split
I1013 12:31:39.284240 19498 net.cpp:157] Top shape: 2 6 9 9 (972)
I1013 12:31:39.284243 19498 net.cpp:157] Top shape: 2 6 9 9 (972)
I1013 12:31:39.284246 19498 net.cpp:165] Memory required for data: 9933868
I1013 12:31:39.284248 19498 layer_factory.hpp:76] Creating layer conv1_1
I1013 12:31:39.284257 19498 net.cpp:106] Creating Layer conv1_1
I1013 12:31:39.284260 19498 net.cpp:454] conv1_1 <- data
I1013 12:31:39.284266 19498 net.cpp:411] conv1_1 -> conv1_1
I1013 12:31:39.287747 19498 net.cpp:150] Setting up conv1_1
I1013 12:31:39.287761 19498 net.cpp:157] Top shape: 2 64 576 576 (42467328)
I1013 12:31:39.287765 19498 net.cpp:165] Memory required for data: 179803180
I1013 12:31:39.287775 19498 layer_factory.hpp:76] Creating layer relu1_1
I1013 12:31:39.287784 19498 net.cpp:106] Creating Layer relu1_1
I1013 12:31:39.287787 19498 net.cpp:454] relu1_1 <- conv1_1
I1013 12:31:39.287792 19498 net.cpp:397] relu1_1 -> conv1_1 (in-place)
I1013 12:31:39.288044 19498 net.cpp:150] Setting up relu1_1
I1013 12:31:39.288058 19498 net.cpp:157] Top shape: 2 64 576 576 (42467328)
I1013 12:31:39.288060 19498 net.cpp:165] Memory required for data: 349672492
I1013 12:31:39.288064 19498 layer_factory.hpp:76] Creating layer conv1_2
I1013 12:31:39.288077 19498 net.cpp:106] Creating Layer conv1_2
I1013 12:31:39.288082 19498 net.cpp:454] conv1_2 <- conv1_1
I1013 12:31:39.288091 19498 net.cpp:411] conv1_2 -> conv1_2
I1013 12:31:39.290269 19498 net.cpp:150] Setting up conv1_2
I1013 12:31:39.290283 19498 net.cpp:157] Top shape: 2 64 576 576 (42467328)
I1013 12:31:39.290287 19498 net.cpp:165] Memory required for data: 519541804
I1013 12:31:39.290295 19498 layer_factory.hpp:76] Creating layer relu1_2
I1013 12:31:39.290302 19498 net.cpp:106] Creating Layer relu1_2
I1013 12:31:39.290304 19498 net.cpp:454] relu1_2 <- conv1_2
I1013 12:31:39.290312 19498 net.cpp:397] relu1_2 -> conv1_2 (in-place)
I1013 12:31:39.290690 19498 net.cpp:150] Setting up relu1_2
I1013 12:31:39.290702 19498 net.cpp:157] Top shape: 2 64 576 576 (42467328)
I1013 12:31:39.290705 19498 net.cpp:165] Memory required for data: 689411116
I1013 12:31:39.290709 19498 layer_factory.hpp:76] Creating layer pool1
I1013 12:31:39.290715 19498 net.cpp:106] Creating Layer pool1
I1013 12:31:39.290719 19498 net.cpp:454] pool1 <- conv1_2
I1013 12:31:39.290725 19498 net.cpp:411] pool1 -> pool1
I1013 12:31:39.291013 19498 net.cpp:150] Setting up pool1
I1013 12:31:39.291028 19498 net.cpp:157] Top shape: 2 64 288 288 (10616832)
I1013 12:31:39.291030 19498 net.cpp:165] Memory required for data: 731878444
I1013 12:31:39.291033 19498 layer_factory.hpp:76] Creating layer conv2_1
I1013 12:31:39.291039 19498 net.cpp:106] Creating Layer conv2_1
I1013 12:31:39.291043 19498 net.cpp:454] conv2_1 <- pool1
I1013 12:31:39.291049 19498 net.cpp:411] conv2_1 -> conv2_1
I1013 12:31:39.292394 19498 net.cpp:150] Setting up conv2_1
I1013 12:31:39.292408 19498 net.cpp:157] Top shape: 2 128 288 288 (21233664)
I1013 12:31:39.292412 19498 net.cpp:165] Memory required for data: 816813100
I1013 12:31:39.292420 19498 layer_factory.hpp:76] Creating layer relu2_1
I1013 12:31:39.292428 19498 net.cpp:106] Creating Layer relu2_1
I1013 12:31:39.292431 19498 net.cpp:454] relu2_1 <- conv2_1
I1013 12:31:39.292435 19498 net.cpp:397] relu2_1 -> conv2_1 (in-place)
I1013 12:31:39.292824 19498 net.cpp:150] Setting up relu2_1
I1013 12:31:39.292847 19498 net.cpp:157] Top shape: 2 128 288 288 (21233664)
I1013 12:31:39.292850 19498 net.cpp:165] Memory required for data: 901747756
I1013 12:31:39.292865 19498 layer_factory.hpp:76] Creating layer conv2_2
I1013 12:31:39.292881 19498 net.cpp:106] Creating Layer conv2_2
I1013 12:31:39.292883 19498 net.cpp:454] conv2_2 <- conv2_1
I1013 12:31:39.292891 19498 net.cpp:411] conv2_2 -> conv2_2
I1013 12:31:39.294651 19498 net.cpp:150] Setting up conv2_2
I1013 12:31:39.294664 19498 net.cpp:157] Top shape: 2 128 288 288 (21233664)
I1013 12:31:39.294668 19498 net.cpp:165] Memory required for data: 986682412
I1013 12:31:39.294685 19498 layer_factory.hpp:76] Creating layer relu2_2
I1013 12:31:39.294695 19498 net.cpp:106] Creating Layer relu2_2
I1013 12:31:39.294705 19498 net.cpp:454] relu2_2 <- conv2_2
I1013 12:31:39.294710 19498 net.cpp:397] relu2_2 -> conv2_2 (in-place)
I1013 12:31:39.295141 19498 net.cpp:150] Setting up relu2_2
I1013 12:31:39.295155 19498 net.cpp:157] Top shape: 2 128 288 288 (21233664)
I1013 12:31:39.295157 19498 net.cpp:165] Memory required for data: 1071617068
I1013 12:31:39.295161 19498 layer_factory.hpp:76] Creating layer pool2
I1013 12:31:39.295167 19498 net.cpp:106] Creating Layer pool2
I1013 12:31:39.295171 19498 net.cpp:454] pool2 <- conv2_2
I1013 12:31:39.295176 19498 net.cpp:411] pool2 -> pool2
I1013 12:31:39.295418 19498 net.cpp:150] Setting up pool2
I1013 12:31:39.295429 19498 net.cpp:157] Top shape: 2 128 144 144 (5308416)
I1013 12:31:39.295433 19498 net.cpp:165] Memory required for data: 1092850732
I1013 12:31:39.295436 19498 layer_factory.hpp:76] Creating layer conv3_1
I1013 12:31:39.295445 19498 net.cpp:106] Creating Layer conv3_1
I1013 12:31:39.295449 19498 net.cpp:454] conv3_1 <- pool2
I1013 12:31:39.295454 19498 net.cpp:411] conv3_1 -> conv3_1
I1013 12:31:39.297497 19498 net.cpp:150] Setting up conv3_1
I1013 12:31:39.297510 19498 net.cpp:157] Top shape: 2 256 144 144 (10616832)
I1013 12:31:39.297513 19498 net.cpp:165] Memory required for data: 1135318060
I1013 12:31:39.297523 19498 layer_factory.hpp:76] Creating layer relu3_1
I1013 12:31:39.297528 19498 net.cpp:106] Creating Layer relu3_1
I1013 12:31:39.297531 19498 net.cpp:454] relu3_1 <- conv3_1
I1013 12:31:39.297538 19498 net.cpp:397] relu3_1 -> conv3_1 (in-place)
I1013 12:31:39.297919 19498 net.cpp:150] Setting up relu3_1
I1013 12:31:39.297932 19498 net.cpp:157] Top shape: 2 256 144 144 (10616832)
I1013 12:31:39.297935 19498 net.cpp:165] Memory required for data: 1177785388
I1013 12:31:39.297940 19498 layer_factory.hpp:76] Creating layer conv3_2
I1013 12:31:39.297947 19498 net.cpp:106] Creating Layer conv3_2
I1013 12:31:39.297950 19498 net.cpp:454] conv3_2 <- conv3_1
I1013 12:31:39.297956 19498 net.cpp:411] conv3_2 -> conv3_2
I1013 12:31:39.300622 19498 net.cpp:150] Setting up conv3_2
I1013 12:31:39.300637 19498 net.cpp:157] Top shape: 2 256 144 144 (10616832)
I1013 12:31:39.300639 19498 net.cpp:165] Memory required for data: 1220252716
I1013 12:31:39.300657 19498 layer_factory.hpp:76] Creating layer relu3_2
I1013 12:31:39.300662 19498 net.cpp:106] Creating Layer relu3_2
I1013 12:31:39.300667 19498 net.cpp:454] relu3_2 <- conv3_2
I1013 12:31:39.300673 19498 net.cpp:397] relu3_2 -> conv3_2 (in-place)
I1013 12:31:39.300882 19498 net.cpp:150] Setting up relu3_2
I1013 12:31:39.300894 19498 net.cpp:157] Top shape: 2 256 144 144 (10616832)
I1013 12:31:39.300897 19498 net.cpp:165] Memory required for data: 1262720044
I1013 12:31:39.300900 19498 layer_factory.hpp:76] Creating layer conv3_3
I1013 12:31:39.300909 19498 net.cpp:106] Creating Layer conv3_3
I1013 12:31:39.300911 19498 net.cpp:454] conv3_3 <- conv3_2
I1013 12:31:39.300920 19498 net.cpp:411] conv3_3 -> conv3_3
I1013 12:31:39.304234 19498 net.cpp:150] Setting up conv3_3
I1013 12:31:39.304250 19498 net.cpp:157] Top shape: 2 256 144 144 (10616832)
I1013 12:31:39.304252 19498 net.cpp:165] Memory required for data: 1305187372
I1013 12:31:39.304270 19498 layer_factory.hpp:76] Creating layer relu3_3
I1013 12:31:39.304276 19498 net.cpp:106] Creating Layer relu3_3
I1013 12:31:39.304280 19498 net.cpp:454] relu3_3 <- conv3_3
I1013 12:31:39.304285 19498 net.cpp:397] relu3_3 -> conv3_3 (in-place)
I1013 12:31:39.304726 19498 net.cpp:150] Setting up relu3_3
I1013 12:31:39.304739 19498 net.cpp:157] Top shape: 2 256 144 144 (10616832)
I1013 12:31:39.304743 19498 net.cpp:165] Memory required for data: 1347654700
I1013 12:31:39.304745 19498 layer_factory.hpp:76] Creating layer pool3
I1013 12:31:39.304762 19498 net.cpp:106] Creating Layer pool3
I1013 12:31:39.304766 19498 net.cpp:454] pool3 <- conv3_3
I1013 12:31:39.304774 19498 net.cpp:411] pool3 -> pool3
I1013 12:31:39.305182 19498 net.cpp:150] Setting up pool3
I1013 12:31:39.305196 19498 net.cpp:157] Top shape: 2 256 72 72 (2654208)
I1013 12:31:39.305198 19498 net.cpp:165] Memory required for data: 1358271532
I1013 12:31:39.305202 19498 layer_factory.hpp:76] Creating layer conv4_1
I1013 12:31:39.305210 19498 net.cpp:106] Creating Layer conv4_1
I1013 12:31:39.305213 19498 net.cpp:454] conv4_1 <- pool3
I1013 12:31:39.305219 19498 net.cpp:411] conv4_1 -> conv4_1
I1013 12:31:39.309017 19498 net.cpp:150] Setting up conv4_1
I1013 12:31:39.309031 19498 net.cpp:157] Top shape: 2 512 72 72 (5308416)
I1013 12:31:39.309036 19498 net.cpp:165] Memory required for data: 1379505196
I1013 12:31:39.309041 19498 layer_factory.hpp:76] Creating layer relu4_1
I1013 12:31:39.309049 19498 net.cpp:106] Creating Layer relu4_1
I1013 12:31:39.309052 19498 net.cpp:454] relu4_1 <- conv4_1
I1013 12:31:39.309057 19498 net.cpp:397] relu4_1 -> conv4_1 (in-place)
I1013 12:31:39.309268 19498 net.cpp:150] Setting up relu4_1
I1013 12:31:39.309280 19498 net.cpp:157] Top shape: 2 512 72 72 (5308416)
I1013 12:31:39.309283 19498 net.cpp:165] Memory required for data: 1400738860
I1013 12:31:39.309286 19498 layer_factory.hpp:76] Creating layer conv4_2
I1013 12:31:39.309293 19498 net.cpp:106] Creating Layer conv4_2
I1013 12:31:39.309296 19498 net.cpp:454] conv4_2 <- conv4_1
I1013 12:31:39.309303 19498 net.cpp:411] conv4_2 -> conv4_2
I1013 12:31:39.315697 19498 net.cpp:150] Setting up conv4_2
I1013 12:31:39.315716 19498 net.cpp:157] Top shape: 2 512 72 72 (5308416)
I1013 12:31:39.315719 19498 net.cpp:165] Memory required for data: 1421972524
I1013 12:31:39.315732 19498 layer_factory.hpp:76] Creating layer relu4_2
I1013 12:31:39.315740 19498 net.cpp:106] Creating Layer relu4_2
I1013 12:31:39.315744 19498 net.cpp:454] relu4_2 <- conv4_2
I1013 12:31:39.315749 19498 net.cpp:397] relu4_2 -> conv4_2 (in-place)
I1013 12:31:39.316139 19498 net.cpp:150] Setting up relu4_2
I1013 12:31:39.316153 19498 net.cpp:157] Top shape: 2 512 72 72 (5308416)
I1013 12:31:39.316157 19498 net.cpp:165] Memory required for data: 1443206188
I1013 12:31:39.316160 19498 layer_factory.hpp:76] Creating layer conv4_3
I1013 12:31:39.316167 19498 net.cpp:106] Creating Layer conv4_3
I1013 12:31:39.316170 19498 net.cpp:454] conv4_3 <- conv4_2
I1013 12:31:39.316177 19498 net.cpp:411] conv4_3 -> conv4_3
I1013 12:31:39.323289 19498 net.cpp:150] Setting up conv4_3
I1013 12:31:39.323313 19498 net.cpp:157] Top shape: 2 512 72 72 (5308416)
I1013 12:31:39.323319 19498 net.cpp:165] Memory required for data: 1464439852
I1013 12:31:39.323328 19498 layer_factory.hpp:76] Creating layer relu4_3
I1013 12:31:39.323346 19498 net.cpp:106] Creating Layer relu4_3
I1013 12:31:39.323351 19498 net.cpp:454] relu4_3 <- conv4_3
I1013 12:31:39.323357 19498 net.cpp:397] relu4_3 -> conv4_3 (in-place)
I1013 12:31:39.323892 19498 net.cpp:150] Setting up relu4_3
I1013 12:31:39.323905 19498 net.cpp:157] Top shape: 2 512 72 72 (5308416)
I1013 12:31:39.323909 19498 net.cpp:165] Memory required for data: 1485673516
I1013 12:31:39.323923 19498 layer_factory.hpp:76] Creating layer conv4_3_relu4_3_0_split
I1013 12:31:39.323930 19498 net.cpp:106] Creating Layer conv4_3_relu4_3_0_split
I1013 12:31:39.323933 19498 net.cpp:454] conv4_3_relu4_3_0_split <- conv4_3
I1013 12:31:39.323938 19498 net.cpp:411] conv4_3_relu4_3_0_split -> conv4_3_relu4_3_0_split_0
I1013 12:31:39.323945 19498 net.cpp:411] conv4_3_relu4_3_0_split -> conv4_3_relu4_3_0_split_1
I1013 12:31:39.323952 19498 net.cpp:411] conv4_3_relu4_3_0_split -> conv4_3_relu4_3_0_split_2
I1013 12:31:39.323957 19498 net.cpp:411] conv4_3_relu4_3_0_split -> conv4_3_relu4_3_0_split_3
I1013 12:31:39.324065 19498 net.cpp:150] Setting up conv4_3_relu4_3_0_split
I1013 12:31:39.324075 19498 net.cpp:157] Top shape: 2 512 72 72 (5308416)
I1013 12:31:39.324079 19498 net.cpp:157] Top shape: 2 512 72 72 (5308416)
I1013 12:31:39.324082 19498 net.cpp:157] Top shape: 2 512 72 72 (5308416)
I1013 12:31:39.324085 19498 net.cpp:157] Top shape: 2 512 72 72 (5308416)
I1013 12:31:39.324089 19498 net.cpp:165] Memory required for data: 1570608172
I1013 12:31:39.324091 19498 layer_factory.hpp:76] Creating layer loss1_conv1
I1013 12:31:39.324107 19498 net.cpp:106] Creating Layer loss1_conv1
I1013 12:31:39.324111 19498 net.cpp:454] loss1_conv1 <- conv4_3_relu4_3_0_split_0
I1013 12:31:39.324118 19498 net.cpp:411] loss1_conv1 -> loss1_conv1
I1013 12:31:39.404306 19498 net.cpp:150] Setting up loss1_conv1
I1013 12:31:39.404330 19498 net.cpp:157] Top shape: 2 512 72 72 (5308416)
I1013 12:31:39.404335 19498 net.cpp:165] Memory required for data: 1591841836
I1013 12:31:39.404342 19498 layer_factory.hpp:76] Creating layer loss_relu1
I1013 12:31:39.404363 19498 net.cpp:106] Creating Layer loss_relu1
I1013 12:31:39.404368 19498 net.cpp:454] loss_relu1 <- loss1_conv1
I1013 12:31:39.404376 19498 net.cpp:397] loss_relu1 -> loss1_conv1 (in-place)
I1013 12:31:39.404600 19498 net.cpp:150] Setting up loss_relu1
I1013 12:31:39.404613 19498 net.cpp:157] Top shape: 2 512 72 72 (5308416)
I1013 12:31:39.404616 19498 net.cpp:165] Memory required for data: 1613075500
I1013 12:31:39.404620 19498 layer_factory.hpp:76] Creating layer loss1_conv1_loss_relu1_0_split
I1013 12:31:39.404625 19498 net.cpp:106] Creating Layer loss1_conv1_loss_relu1_0_split
I1013 12:31:39.404629 19498 net.cpp:454] loss1_conv1_loss_relu1_0_split <- loss1_conv1
I1013 12:31:39.404634 19498 net.cpp:411] loss1_conv1_loss_relu1_0_split -> loss1_conv1_loss_relu1_0_split_0
I1013 12:31:39.404640 19498 net.cpp:411] loss1_conv1_loss_relu1_0_split -> loss1_conv1_loss_relu1_0_split_1
I1013 12:31:39.404711 19498 net.cpp:150] Setting up loss1_conv1_loss_relu1_0_split
I1013 12:31:39.404723 19498 net.cpp:157] Top shape: 2 512 72 72 (5308416)
I1013 12:31:39.404728 19498 net.cpp:157] Top shape: 2 512 72 72 (5308416)
I1013 12:31:39.404731 19498 net.cpp:165] Memory required for data: 1655542828
I1013 12:31:39.404733 19498 layer_factory.hpp:76] Creating layer LFCN_1_3x5
I1013 12:31:39.404743 19498 net.cpp:106] Creating Layer LFCN_1_3x5
I1013 12:31:39.404747 19498 net.cpp:454] LFCN_1_3x5 <- loss1_conv1_loss_relu1_0_split_0
I1013 12:31:39.404762 19498 net.cpp:411] LFCN_1_3x5 -> LFCN_1_3x5
I1013 12:31:39.407555 19498 net.cpp:150] Setting up LFCN_1_3x5
I1013 12:31:39.407569 19498 net.cpp:157] Top shape: 2 6 72 72 (62208)
I1013 12:31:39.407572 19498 net.cpp:165] Memory required for data: 1655791660
I1013 12:31:39.407578 19498 layer_factory.hpp:76] Creating layer LFCN_1_3x5_LFCN_1_3x5_0_split
I1013 12:31:39.407585 19498 net.cpp:106] Creating Layer LFCN_1_3x5_LFCN_1_3x5_0_split
I1013 12:31:39.407589 19498 net.cpp:454] LFCN_1_3x5_LFCN_1_3x5_0_split <- LFCN_1_3x5
I1013 12:31:39.407594 19498 net.cpp:411] LFCN_1_3x5_LFCN_1_3x5_0_split -> LFCN_1_3x5_LFCN_1_3x5_0_split_0
I1013 12:31:39.407603 19498 net.cpp:411] LFCN_1_3x5_LFCN_1_3x5_0_split -> LFCN_1_3x5_LFCN_1_3x5_0_split_1
I1013 12:31:39.407608 19498 net.cpp:411] LFCN_1_3x5_LFCN_1_3x5_0_split -> LFCN_1_3x5_LFCN_1_3x5_0_split_2
I1013 12:31:39.407676 19498 net.cpp:150] Setting up LFCN_1_3x5_LFCN_1_3x5_0_split
I1013 12:31:39.407683 19498 net.cpp:157] Top shape: 2 6 72 72 (62208)
I1013 12:31:39.407687 19498 net.cpp:157] Top shape: 2 6 72 72 (62208)
I1013 12:31:39.407691 19498 net.cpp:157] Top shape: 2 6 72 72 (62208)
I1013 12:31:39.407692 19498 net.cpp:165] Memory required for data: 1656538156
I1013 12:31:39.407696 19498 layer_factory.hpp:76] Creating layer detection_loss_1_3x5
I1013 12:31:39.407702 19498 net.cpp:106] Creating Layer detection_loss_1_3x5
I1013 12:31:39.407706 19498 net.cpp:454] detection_loss_1_3x5 <- LFCN_1_3x5_LFCN_1_3x5_0_split_0
I1013 12:31:39.407711 19498 net.cpp:454] detection_loss_1_3x5 <- label_1_3x5_data_1_split_0
I1013 12:31:39.407716 19498 net.cpp:411] detection_loss_1_3x5 -> loss_1_3x5
I1013 12:31:39.407723 19498 layer_factory.hpp:76] Creating layer detection_loss_1_3x5
I1013 12:31:39.408318 19498 net.cpp:150] Setting up detection_loss_1_3x5
I1013 12:31:39.408330 19498 net.cpp:157] Top shape: 1 1 1 2 (2)
I1013 12:31:39.408334 19498 net.cpp:160]     with loss weight 0.9
I1013 12:31:39.408345 19498 net.cpp:165] Memory required for data: 1656538164
I1013 12:31:39.408349 19498 layer_factory.hpp:76] Creating layer detection_accuracy_1_3x5
I1013 12:31:39.408354 19498 net.cpp:106] Creating Layer detection_accuracy_1_3x5
I1013 12:31:39.408359 19498 net.cpp:454] detection_accuracy_1_3x5 <- LFCN_1_3x5_LFCN_1_3x5_0_split_1
I1013 12:31:39.408363 19498 net.cpp:454] detection_accuracy_1_3x5 <- label_1_3x5_data_1_split_1
I1013 12:31:39.408370 19498 net.cpp:411] detection_accuracy_1_3x5 -> accuracy_1_3x5
I1013 12:31:39.408376 19498 net.cpp:411] detection_accuracy_1_3x5 -> boxiou_1_3x5
I1013 12:31:39.408427 19498 net.cpp:150] Setting up detection_accuracy_1_3x5
I1013 12:31:39.408434 19498 net.cpp:157] Top shape: 1 1 1 2 (2)
I1013 12:31:39.408437 19498 net.cpp:157] Top shape: 1 1 1 1 (1)
I1013 12:31:39.408440 19498 net.cpp:165] Memory required for data: 1656538176
I1013 12:31:39.408442 19498 layer_factory.hpp:76] Creating layer LFCN_1_5x7
I1013 12:31:39.408452 19498 net.cpp:106] Creating Layer LFCN_1_5x7
I1013 12:31:39.408455 19498 net.cpp:454] LFCN_1_5x7 <- loss1_conv1_loss_relu1_0_split_1
I1013 12:31:39.408460 19498 net.cpp:411] LFCN_1_5x7 -> LFCN_1_5x7
I1013 12:31:39.413514 19498 net.cpp:150] Setting up LFCN_1_5x7
I1013 12:31:39.413529 19498 net.cpp:157] Top shape: 2 6 72 72 (62208)
I1013 12:31:39.413532 19498 net.cpp:165] Memory required for data: 1656787008
I1013 12:31:39.413539 19498 layer_factory.hpp:76] Creating layer LFCN_1_5x7_LFCN_1_5x7_0_split
I1013 12:31:39.413544 19498 net.cpp:106] Creating Layer LFCN_1_5x7_LFCN_1_5x7_0_split
I1013 12:31:39.413548 19498 net.cpp:454] LFCN_1_5x7_LFCN_1_5x7_0_split <- LFCN_1_5x7
I1013 12:31:39.413553 19498 net.cpp:411] LFCN_1_5x7_LFCN_1_5x7_0_split -> LFCN_1_5x7_LFCN_1_5x7_0_split_0
I1013 12:31:39.413560 19498 net.cpp:411] LFCN_1_5x7_LFCN_1_5x7_0_split -> LFCN_1_5x7_LFCN_1_5x7_0_split_1
I1013 12:31:39.413568 19498 net.cpp:411] LFCN_1_5x7_LFCN_1_5x7_0_split -> LFCN_1_5x7_LFCN_1_5x7_0_split_2
I1013 12:31:39.413635 19498 net.cpp:150] Setting up LFCN_1_5x7_LFCN_1_5x7_0_split
I1013 12:31:39.413642 19498 net.cpp:157] Top shape: 2 6 72 72 (62208)
I1013 12:31:39.413646 19498 net.cpp:157] Top shape: 2 6 72 72 (62208)
I1013 12:31:39.413650 19498 net.cpp:157] Top shape: 2 6 72 72 (62208)
I1013 12:31:39.413651 19498 net.cpp:165] Memory required for data: 1657533504
I1013 12:31:39.413655 19498 layer_factory.hpp:76] Creating layer detection_loss_1_5x7
I1013 12:31:39.413661 19498 net.cpp:106] Creating Layer detection_loss_1_5x7
I1013 12:31:39.413664 19498 net.cpp:454] detection_loss_1_5x7 <- LFCN_1_5x7_LFCN_1_5x7_0_split_0
I1013 12:31:39.413668 19498 net.cpp:454] detection_loss_1_5x7 <- label_1_5x7_data_2_split_0
I1013 12:31:39.413673 19498 net.cpp:411] detection_loss_1_5x7 -> loss_1_5x7
I1013 12:31:39.413681 19498 layer_factory.hpp:76] Creating layer detection_loss_1_5x7
I1013 12:31:39.414275 19498 net.cpp:150] Setting up detection_loss_1_5x7
I1013 12:31:39.414288 19498 net.cpp:157] Top shape: 1 1 1 2 (2)
I1013 12:31:39.414290 19498 net.cpp:160]     with loss weight 0.9
I1013 12:31:39.414296 19498 net.cpp:165] Memory required for data: 1657533512
I1013 12:31:39.414300 19498 layer_factory.hpp:76] Creating layer detection_accuracy_1_5x7
I1013 12:31:39.414306 19498 net.cpp:106] Creating Layer detection_accuracy_1_5x7
I1013 12:31:39.414310 19498 net.cpp:454] detection_accuracy_1_5x7 <- LFCN_1_5x7_LFCN_1_5x7_0_split_1
I1013 12:31:39.414315 19498 net.cpp:454] detection_accuracy_1_5x7 <- label_1_5x7_data_2_split_1
I1013 12:31:39.414321 19498 net.cpp:411] detection_accuracy_1_5x7 -> accuracy_1_5x7
I1013 12:31:39.414329 19498 net.cpp:411] detection_accuracy_1_5x7 -> boxiou_1_5x7
I1013 12:31:39.414379 19498 net.cpp:150] Setting up detection_accuracy_1_5x7
I1013 12:31:39.414387 19498 net.cpp:157] Top shape: 1 1 1 2 (2)
I1013 12:31:39.414391 19498 net.cpp:157] Top shape: 1 1 1 1 (1)
I1013 12:31:39.414393 19498 net.cpp:165] Memory required for data: 1657533524
I1013 12:31:39.414396 19498 layer_factory.hpp:76] Creating layer pool4
I1013 12:31:39.414402 19498 net.cpp:106] Creating Layer pool4
I1013 12:31:39.414405 19498 net.cpp:454] pool4 <- conv4_3_relu4_3_0_split_1
I1013 12:31:39.414409 19498 net.cpp:411] pool4 -> pool4
I1013 12:31:39.415047 19498 net.cpp:150] Setting up pool4
I1013 12:31:39.415060 19498 net.cpp:157] Top shape: 2 512 36 36 (1327104)
I1013 12:31:39.415063 19498 net.cpp:165] Memory required for data: 1662841940
I1013 12:31:39.415067 19498 layer_factory.hpp:76] Creating layer conv5_1
I1013 12:31:39.415074 19498 net.cpp:106] Creating Layer conv5_1
I1013 12:31:39.415078 19498 net.cpp:454] conv5_1 <- pool4
I1013 12:31:39.415083 19498 net.cpp:411] conv5_1 -> conv5_1
I1013 12:31:39.421160 19498 net.cpp:150] Setting up conv5_1
I1013 12:31:39.421177 19498 net.cpp:157] Top shape: 2 512 36 36 (1327104)
I1013 12:31:39.421180 19498 net.cpp:165] Memory required for data: 1668150356
I1013 12:31:39.421186 19498 layer_factory.hpp:76] Creating layer relu5_1
I1013 12:31:39.421193 19498 net.cpp:106] Creating Layer relu5_1
I1013 12:31:39.421196 19498 net.cpp:454] relu5_1 <- conv5_1
I1013 12:31:39.421201 19498 net.cpp:397] relu5_1 -> conv5_1 (in-place)
I1013 12:31:39.421572 19498 net.cpp:150] Setting up relu5_1
I1013 12:31:39.421588 19498 net.cpp:157] Top shape: 2 512 36 36 (1327104)
I1013 12:31:39.421591 19498 net.cpp:165] Memory required for data: 1673458772
I1013 12:31:39.421594 19498 layer_factory.hpp:76] Creating layer conv5_2
I1013 12:31:39.421602 19498 net.cpp:106] Creating Layer conv5_2
I1013 12:31:39.421604 19498 net.cpp:454] conv5_2 <- conv5_1
I1013 12:31:39.421612 19498 net.cpp:411] conv5_2 -> conv5_2
I1013 12:31:39.427825 19498 net.cpp:150] Setting up conv5_2
I1013 12:31:39.427840 19498 net.cpp:157] Top shape: 2 512 36 36 (1327104)
I1013 12:31:39.427844 19498 net.cpp:165] Memory required for data: 1678767188
I1013 12:31:39.427850 19498 layer_factory.hpp:76] Creating layer relu5_2
I1013 12:31:39.427858 19498 net.cpp:106] Creating Layer relu5_2
I1013 12:31:39.427861 19498 net.cpp:454] relu5_2 <- conv5_2
I1013 12:31:39.427878 19498 net.cpp:397] relu5_2 -> conv5_2 (in-place)
I1013 12:31:39.428069 19498 net.cpp:150] Setting up relu5_2
I1013 12:31:39.428078 19498 net.cpp:157] Top shape: 2 512 36 36 (1327104)
I1013 12:31:39.428081 19498 net.cpp:165] Memory required for data: 1684075604
I1013 12:31:39.428084 19498 layer_factory.hpp:76] Creating layer conv5_3
I1013 12:31:39.428091 19498 net.cpp:106] Creating Layer conv5_3
I1013 12:31:39.428093 19498 net.cpp:454] conv5_3 <- conv5_2
I1013 12:31:39.428099 19498 net.cpp:411] conv5_3 -> conv5_3
I1013 12:31:39.434345 19498 net.cpp:150] Setting up conv5_3
I1013 12:31:39.434360 19498 net.cpp:157] Top shape: 2 512 36 36 (1327104)
I1013 12:31:39.434362 19498 net.cpp:165] Memory required for data: 1689384020
I1013 12:31:39.434368 19498 layer_factory.hpp:76] Creating layer relu5_3
I1013 12:31:39.434376 19498 net.cpp:106] Creating Layer relu5_3
I1013 12:31:39.434378 19498 net.cpp:454] relu5_3 <- conv5_3
I1013 12:31:39.434397 19498 net.cpp:397] relu5_3 -> conv5_3 (in-place)
I1013 12:31:39.436134 19498 net.cpp:150] Setting up relu5_3
I1013 12:31:39.436146 19498 net.cpp:157] Top shape: 2 512 36 36 (1327104)
I1013 12:31:39.436149 19498 net.cpp:165] Memory required for data: 1694692436
I1013 12:31:39.436152 19498 layer_factory.hpp:76] Creating layer conv5_3_relu5_3_0_split
I1013 12:31:39.436170 19498 net.cpp:106] Creating Layer conv5_3_relu5_3_0_split
I1013 12:31:39.436173 19498 net.cpp:454] conv5_3_relu5_3_0_split <- conv5_3
I1013 12:31:39.436180 19498 net.cpp:411] conv5_3_relu5_3_0_split -> conv5_3_relu5_3_0_split_0
I1013 12:31:39.436187 19498 net.cpp:411] conv5_3_relu5_3_0_split -> conv5_3_relu5_3_0_split_1
I1013 12:31:39.436192 19498 net.cpp:411] conv5_3_relu5_3_0_split -> conv5_3_relu5_3_0_split_2
I1013 12:31:39.436277 19498 net.cpp:150] Setting up conv5_3_relu5_3_0_split
I1013 12:31:39.436285 19498 net.cpp:157] Top shape: 2 512 36 36 (1327104)
I1013 12:31:39.436290 19498 net.cpp:157] Top shape: 2 512 36 36 (1327104)
I1013 12:31:39.436292 19498 net.cpp:157] Top shape: 2 512 36 36 (1327104)
I1013 12:31:39.436295 19498 net.cpp:165] Memory required for data: 1710617684
I1013 12:31:39.436297 19498 layer_factory.hpp:76] Creating layer LFCN_2_3x5
I1013 12:31:39.436307 19498 net.cpp:106] Creating Layer LFCN_2_3x5
I1013 12:31:39.436311 19498 net.cpp:454] LFCN_2_3x5 <- conv5_3_relu5_3_0_split_0
I1013 12:31:39.436316 19498 net.cpp:411] LFCN_2_3x5 -> LFCN_2_3x5
I1013 12:31:39.438841 19498 net.cpp:150] Setting up LFCN_2_3x5
I1013 12:31:39.438854 19498 net.cpp:157] Top shape: 2 6 36 36 (15552)
I1013 12:31:39.438858 19498 net.cpp:165] Memory required for data: 1710679892
I1013 12:31:39.438871 19498 layer_factory.hpp:76] Creating layer LFCN_2_3x5_LFCN_2_3x5_0_split
I1013 12:31:39.438901 19498 net.cpp:106] Creating Layer LFCN_2_3x5_LFCN_2_3x5_0_split
I1013 12:31:39.438907 19498 net.cpp:454] LFCN_2_3x5_LFCN_2_3x5_0_split <- LFCN_2_3x5
I1013 12:31:39.438918 19498 net.cpp:411] LFCN_2_3x5_LFCN_2_3x5_0_split -> LFCN_2_3x5_LFCN_2_3x5_0_split_0
I1013 12:31:39.438928 19498 net.cpp:411] LFCN_2_3x5_LFCN_2_3x5_0_split -> LFCN_2_3x5_LFCN_2_3x5_0_split_1
I1013 12:31:39.438935 19498 net.cpp:411] LFCN_2_3x5_LFCN_2_3x5_0_split -> LFCN_2_3x5_LFCN_2_3x5_0_split_2
I1013 12:31:39.439007 19498 net.cpp:150] Setting up LFCN_2_3x5_LFCN_2_3x5_0_split
I1013 12:31:39.439014 19498 net.cpp:157] Top shape: 2 6 36 36 (15552)
I1013 12:31:39.439018 19498 net.cpp:157] Top shape: 2 6 36 36 (15552)
I1013 12:31:39.439021 19498 net.cpp:157] Top shape: 2 6 36 36 (15552)
I1013 12:31:39.439024 19498 net.cpp:165] Memory required for data: 1710866516
I1013 12:31:39.439026 19498 layer_factory.hpp:76] Creating layer detection_loss_2_3x5
I1013 12:31:39.439034 19498 net.cpp:106] Creating Layer detection_loss_2_3x5
I1013 12:31:39.439038 19498 net.cpp:454] detection_loss_2_3x5 <- LFCN_2_3x5_LFCN_2_3x5_0_split_0
I1013 12:31:39.439043 19498 net.cpp:454] detection_loss_2_3x5 <- label_2_3x5_data_3_split_0
I1013 12:31:39.439049 19498 net.cpp:411] detection_loss_2_3x5 -> loss_2_3x5
I1013 12:31:39.439057 19498 layer_factory.hpp:76] Creating layer detection_loss_2_3x5
I1013 12:31:39.439679 19498 net.cpp:150] Setting up detection_loss_2_3x5
I1013 12:31:39.439690 19498 net.cpp:157] Top shape: 1 1 1 2 (2)
I1013 12:31:39.439693 19498 net.cpp:160]     with loss weight 1
I1013 12:31:39.439716 19498 net.cpp:165] Memory required for data: 1710866524
I1013 12:31:39.439719 19498 layer_factory.hpp:76] Creating layer detection_accuracy_2_3x5
I1013 12:31:39.439728 19498 net.cpp:106] Creating Layer detection_accuracy_2_3x5
I1013 12:31:39.439736 19498 net.cpp:454] detection_accuracy_2_3x5 <- LFCN_2_3x5_LFCN_2_3x5_0_split_1
I1013 12:31:39.439741 19498 net.cpp:454] detection_accuracy_2_3x5 <- label_2_3x5_data_3_split_1
I1013 12:31:39.439746 19498 net.cpp:411] detection_accuracy_2_3x5 -> accuracy_2_3x5
I1013 12:31:39.439755 19498 net.cpp:411] detection_accuracy_2_3x5 -> boxiou_2_3x5
I1013 12:31:39.439808 19498 net.cpp:150] Setting up detection_accuracy_2_3x5
I1013 12:31:39.439816 19498 net.cpp:157] Top shape: 1 1 1 2 (2)
I1013 12:31:39.439821 19498 net.cpp:157] Top shape: 1 1 1 1 (1)
I1013 12:31:39.439822 19498 net.cpp:165] Memory required for data: 1710866536
I1013 12:31:39.439826 19498 layer_factory.hpp:76] Creating layer LFCN_2_5x7
I1013 12:31:39.439833 19498 net.cpp:106] Creating Layer LFCN_2_5x7
I1013 12:31:39.439836 19498 net.cpp:454] LFCN_2_5x7 <- conv5_3_relu5_3_0_split_1
I1013 12:31:39.439843 19498 net.cpp:411] LFCN_2_5x7 -> LFCN_2_5x7
I1013 12:31:39.444797 19498 net.cpp:150] Setting up LFCN_2_5x7
I1013 12:31:39.444810 19498 net.cpp:157] Top shape: 2 6 36 36 (15552)
I1013 12:31:39.444813 19498 net.cpp:165] Memory required for data: 1710928744
I1013 12:31:39.444831 19498 layer_factory.hpp:76] Creating layer LFCN_2_5x7_LFCN_2_5x7_0_split
I1013 12:31:39.444839 19498 net.cpp:106] Creating Layer LFCN_2_5x7_LFCN_2_5x7_0_split
I1013 12:31:39.444844 19498 net.cpp:454] LFCN_2_5x7_LFCN_2_5x7_0_split <- LFCN_2_5x7
I1013 12:31:39.444849 19498 net.cpp:411] LFCN_2_5x7_LFCN_2_5x7_0_split -> LFCN_2_5x7_LFCN_2_5x7_0_split_0
I1013 12:31:39.444856 19498 net.cpp:411] LFCN_2_5x7_LFCN_2_5x7_0_split -> LFCN_2_5x7_LFCN_2_5x7_0_split_1
I1013 12:31:39.444862 19498 net.cpp:411] LFCN_2_5x7_LFCN_2_5x7_0_split -> LFCN_2_5x7_LFCN_2_5x7_0_split_2
I1013 12:31:39.444936 19498 net.cpp:150] Setting up LFCN_2_5x7_LFCN_2_5x7_0_split
I1013 12:31:39.444944 19498 net.cpp:157] Top shape: 2 6 36 36 (15552)
I1013 12:31:39.444947 19498 net.cpp:157] Top shape: 2 6 36 36 (15552)
I1013 12:31:39.444950 19498 net.cpp:157] Top shape: 2 6 36 36 (15552)
I1013 12:31:39.444953 19498 net.cpp:165] Memory required for data: 1711115368
I1013 12:31:39.444957 19498 layer_factory.hpp:76] Creating layer detection_loss_2_5x7
I1013 12:31:39.444962 19498 net.cpp:106] Creating Layer detection_loss_2_5x7
I1013 12:31:39.444967 19498 net.cpp:454] detection_loss_2_5x7 <- LFCN_2_5x7_LFCN_2_5x7_0_split_0
I1013 12:31:39.444970 19498 net.cpp:454] detection_loss_2_5x7 <- label_2_5x7_data_4_split_0
I1013 12:31:39.444975 19498 net.cpp:411] detection_loss_2_5x7 -> loss_2_5x7
I1013 12:31:39.444984 19498 layer_factory.hpp:76] Creating layer detection_loss_2_5x7
I1013 12:31:39.445416 19498 net.cpp:150] Setting up detection_loss_2_5x7
I1013 12:31:39.445428 19498 net.cpp:157] Top shape: 1 1 1 2 (2)
I1013 12:31:39.445431 19498 net.cpp:160]     with loss weight 1
I1013 12:31:39.445437 19498 net.cpp:165] Memory required for data: 1711115376
I1013 12:31:39.445441 19498 layer_factory.hpp:76] Creating layer detection_accuracy_2_5x7
I1013 12:31:39.445446 19498 net.cpp:106] Creating Layer detection_accuracy_2_5x7
I1013 12:31:39.445449 19498 net.cpp:454] detection_accuracy_2_5x7 <- LFCN_2_5x7_LFCN_2_5x7_0_split_1
I1013 12:31:39.445453 19498 net.cpp:454] detection_accuracy_2_5x7 <- label_2_5x7_data_4_split_1
I1013 12:31:39.445458 19498 net.cpp:411] detection_accuracy_2_5x7 -> accuracy_2_5x7
I1013 12:31:39.445466 19498 net.cpp:411] detection_accuracy_2_5x7 -> boxiou_2_5x7
I1013 12:31:39.445518 19498 net.cpp:150] Setting up detection_accuracy_2_5x7
I1013 12:31:39.445525 19498 net.cpp:157] Top shape: 1 1 1 2 (2)
I1013 12:31:39.445529 19498 net.cpp:157] Top shape: 1 1 1 1 (1)
I1013 12:31:39.445531 19498 net.cpp:165] Memory required for data: 1711115388
I1013 12:31:39.445534 19498 layer_factory.hpp:76] Creating layer pool5
I1013 12:31:39.445541 19498 net.cpp:106] Creating Layer pool5
I1013 12:31:39.445544 19498 net.cpp:454] pool5 <- conv5_3_relu5_3_0_split_2
I1013 12:31:39.445549 19498 net.cpp:411] pool5 -> pool5
I1013 12:31:39.445986 19498 net.cpp:150] Setting up pool5
I1013 12:31:39.445998 19498 net.cpp:157] Top shape: 2 512 18 18 (331776)
I1013 12:31:39.446000 19498 net.cpp:165] Memory required for data: 1712442492
I1013 12:31:39.446003 19498 layer_factory.hpp:76] Creating layer conv6_1
I1013 12:31:39.446024 19498 net.cpp:106] Creating Layer conv6_1
I1013 12:31:39.446027 19498 net.cpp:454] conv6_1 <- pool5
I1013 12:31:39.446034 19498 net.cpp:411] conv6_1 -> conv6_1
I1013 12:31:39.523229 19498 net.cpp:150] Setting up conv6_1
I1013 12:31:39.523246 19498 net.cpp:157] Top shape: 2 512 18 18 (331776)
I1013 12:31:39.523250 19498 net.cpp:165] Memory required for data: 1713769596
I1013 12:31:39.523268 19498 layer_factory.hpp:76] Creating layer relu6_1
I1013 12:31:39.523274 19498 net.cpp:106] Creating Layer relu6_1
I1013 12:31:39.523278 19498 net.cpp:454] relu6_1 <- conv6_1
I1013 12:31:39.523283 19498 net.cpp:397] relu6_1 -> conv6_1 (in-place)
I1013 12:31:39.523710 19498 net.cpp:150] Setting up relu6_1
I1013 12:31:39.523722 19498 net.cpp:157] Top shape: 2 512 18 18 (331776)
I1013 12:31:39.523725 19498 net.cpp:165] Memory required for data: 1715096700
I1013 12:31:39.523728 19498 layer_factory.hpp:76] Creating layer conv6_1_relu6_1_0_split
I1013 12:31:39.523733 19498 net.cpp:106] Creating Layer conv6_1_relu6_1_0_split
I1013 12:31:39.523737 19498 net.cpp:454] conv6_1_relu6_1_0_split <- conv6_1
I1013 12:31:39.523742 19498 net.cpp:411] conv6_1_relu6_1_0_split -> conv6_1_relu6_1_0_split_0
I1013 12:31:39.523751 19498 net.cpp:411] conv6_1_relu6_1_0_split -> conv6_1_relu6_1_0_split_1
I1013 12:31:39.523756 19498 net.cpp:411] conv6_1_relu6_1_0_split -> conv6_1_relu6_1_0_split_2
I1013 12:31:39.523833 19498 net.cpp:150] Setting up conv6_1_relu6_1_0_split
I1013 12:31:39.523844 19498 net.cpp:157] Top shape: 2 512 18 18 (331776)
I1013 12:31:39.523846 19498 net.cpp:157] Top shape: 2 512 18 18 (331776)
I1013 12:31:39.523849 19498 net.cpp:157] Top shape: 2 512 18 18 (331776)
I1013 12:31:39.523852 19498 net.cpp:165] Memory required for data: 1719078012
I1013 12:31:39.523854 19498 layer_factory.hpp:76] Creating layer LFCN_3_3x5
I1013 12:31:39.523861 19498 net.cpp:106] Creating Layer LFCN_3_3x5
I1013 12:31:39.523864 19498 net.cpp:454] LFCN_3_3x5 <- conv6_1_relu6_1_0_split_0
I1013 12:31:39.523871 19498 net.cpp:411] LFCN_3_3x5 -> LFCN_3_3x5
I1013 12:31:39.526682 19498 net.cpp:150] Setting up LFCN_3_3x5
I1013 12:31:39.526695 19498 net.cpp:157] Top shape: 2 6 18 18 (3888)
I1013 12:31:39.526698 19498 net.cpp:165] Memory required for data: 1719093564
I1013 12:31:39.526705 19498 layer_factory.hpp:76] Creating layer LFCN_3_3x5_LFCN_3_3x5_0_split
I1013 12:31:39.526720 19498 net.cpp:106] Creating Layer LFCN_3_3x5_LFCN_3_3x5_0_split
I1013 12:31:39.526726 19498 net.cpp:454] LFCN_3_3x5_LFCN_3_3x5_0_split <- LFCN_3_3x5
I1013 12:31:39.526731 19498 net.cpp:411] LFCN_3_3x5_LFCN_3_3x5_0_split -> LFCN_3_3x5_LFCN_3_3x5_0_split_0
I1013 12:31:39.526738 19498 net.cpp:411] LFCN_3_3x5_LFCN_3_3x5_0_split -> LFCN_3_3x5_LFCN_3_3x5_0_split_1
I1013 12:31:39.526743 19498 net.cpp:411] LFCN_3_3x5_LFCN_3_3x5_0_split -> LFCN_3_3x5_LFCN_3_3x5_0_split_2
I1013 12:31:39.526818 19498 net.cpp:150] Setting up LFCN_3_3x5_LFCN_3_3x5_0_split
I1013 12:31:39.526825 19498 net.cpp:157] Top shape: 2 6 18 18 (3888)
I1013 12:31:39.526829 19498 net.cpp:157] Top shape: 2 6 18 18 (3888)
I1013 12:31:39.526831 19498 net.cpp:157] Top shape: 2 6 18 18 (3888)
I1013 12:31:39.526834 19498 net.cpp:165] Memory required for data: 1719140220
I1013 12:31:39.526837 19498 layer_factory.hpp:76] Creating layer detection_loss_3_3x5
I1013 12:31:39.526844 19498 net.cpp:106] Creating Layer detection_loss_3_3x5
I1013 12:31:39.526847 19498 net.cpp:454] detection_loss_3_3x5 <- LFCN_3_3x5_LFCN_3_3x5_0_split_0
I1013 12:31:39.526852 19498 net.cpp:454] detection_loss_3_3x5 <- label_3_3x5_data_5_split_0
I1013 12:31:39.526859 19498 net.cpp:411] detection_loss_3_3x5 -> loss_3_3x5
I1013 12:31:39.526866 19498 layer_factory.hpp:76] Creating layer detection_loss_3_3x5
I1013 12:31:39.527317 19498 net.cpp:150] Setting up detection_loss_3_3x5
I1013 12:31:39.527328 19498 net.cpp:157] Top shape: 1 1 1 2 (2)
I1013 12:31:39.527330 19498 net.cpp:160]     with loss weight 1
I1013 12:31:39.527338 19498 net.cpp:165] Memory required for data: 1719140228
I1013 12:31:39.527340 19498 layer_factory.hpp:76] Creating layer detection_accuracy_3_3x5
I1013 12:31:39.527346 19498 net.cpp:106] Creating Layer detection_accuracy_3_3x5
I1013 12:31:39.527349 19498 net.cpp:454] detection_accuracy_3_3x5 <- LFCN_3_3x5_LFCN_3_3x5_0_split_1
I1013 12:31:39.527354 19498 net.cpp:454] detection_accuracy_3_3x5 <- label_3_3x5_data_5_split_1
I1013 12:31:39.527359 19498 net.cpp:411] detection_accuracy_3_3x5 -> accuracy_3_3x5
I1013 12:31:39.527369 19498 net.cpp:411] detection_accuracy_3_3x5 -> boxiou_3_3x5
I1013 12:31:39.527422 19498 net.cpp:150] Setting up detection_accuracy_3_3x5
I1013 12:31:39.527431 19498 net.cpp:157] Top shape: 1 1 1 2 (2)
I1013 12:31:39.527433 19498 net.cpp:157] Top shape: 1 1 1 1 (1)
I1013 12:31:39.527436 19498 net.cpp:165] Memory required for data: 1719140240
I1013 12:31:39.527438 19498 layer_factory.hpp:76] Creating layer LFCN_3_5x7
I1013 12:31:39.527446 19498 net.cpp:106] Creating Layer LFCN_3_5x7
I1013 12:31:39.527449 19498 net.cpp:454] LFCN_3_5x7 <- conv6_1_relu6_1_0_split_1
I1013 12:31:39.527456 19498 net.cpp:411] LFCN_3_5x7 -> LFCN_3_5x7
I1013 12:31:39.532802 19498 net.cpp:150] Setting up LFCN_3_5x7
I1013 12:31:39.532816 19498 net.cpp:157] Top shape: 2 6 18 18 (3888)
I1013 12:31:39.532819 19498 net.cpp:165] Memory required for data: 1719155792
I1013 12:31:39.532825 19498 layer_factory.hpp:76] Creating layer LFCN_3_5x7_LFCN_3_5x7_0_split
I1013 12:31:39.532831 19498 net.cpp:106] Creating Layer LFCN_3_5x7_LFCN_3_5x7_0_split
I1013 12:31:39.532835 19498 net.cpp:454] LFCN_3_5x7_LFCN_3_5x7_0_split <- LFCN_3_5x7
I1013 12:31:39.532842 19498 net.cpp:411] LFCN_3_5x7_LFCN_3_5x7_0_split -> LFCN_3_5x7_LFCN_3_5x7_0_split_0
I1013 12:31:39.532850 19498 net.cpp:411] LFCN_3_5x7_LFCN_3_5x7_0_split -> LFCN_3_5x7_LFCN_3_5x7_0_split_1
I1013 12:31:39.532855 19498 net.cpp:411] LFCN_3_5x7_LFCN_3_5x7_0_split -> LFCN_3_5x7_LFCN_3_5x7_0_split_2
I1013 12:31:39.532929 19498 net.cpp:150] Setting up LFCN_3_5x7_LFCN_3_5x7_0_split
I1013 12:31:39.532937 19498 net.cpp:157] Top shape: 2 6 18 18 (3888)
I1013 12:31:39.532940 19498 net.cpp:157] Top shape: 2 6 18 18 (3888)
I1013 12:31:39.532943 19498 net.cpp:157] Top shape: 2 6 18 18 (3888)
I1013 12:31:39.532945 19498 net.cpp:165] Memory required for data: 1719202448
I1013 12:31:39.532948 19498 layer_factory.hpp:76] Creating layer detection_loss_3_5x7
I1013 12:31:39.532953 19498 net.cpp:106] Creating Layer detection_loss_3_5x7
I1013 12:31:39.532956 19498 net.cpp:454] detection_loss_3_5x7 <- LFCN_3_5x7_LFCN_3_5x7_0_split_0
I1013 12:31:39.532961 19498 net.cpp:454] detection_loss_3_5x7 <- label_3_5x7_data_6_split_0
I1013 12:31:39.532968 19498 net.cpp:411] detection_loss_3_5x7 -> loss_3_5x7
I1013 12:31:39.532974 19498 layer_factory.hpp:76] Creating layer detection_loss_3_5x7
I1013 12:31:39.533587 19498 net.cpp:150] Setting up detection_loss_3_5x7
I1013 12:31:39.533601 19498 net.cpp:157] Top shape: 1 1 1 2 (2)
I1013 12:31:39.533602 19498 net.cpp:160]     with loss weight 1
I1013 12:31:39.533608 19498 net.cpp:165] Memory required for data: 1719202456
I1013 12:31:39.533612 19498 layer_factory.hpp:76] Creating layer detection_accuracy_3_5x7
I1013 12:31:39.533617 19498 net.cpp:106] Creating Layer detection_accuracy_3_5x7
I1013 12:31:39.533620 19498 net.cpp:454] detection_accuracy_3_5x7 <- LFCN_3_5x7_LFCN_3_5x7_0_split_1
I1013 12:31:39.533625 19498 net.cpp:454] detection_accuracy_3_5x7 <- label_3_5x7_data_6_split_1
I1013 12:31:39.533630 19498 net.cpp:411] detection_accuracy_3_5x7 -> accuracy_3_5x7
I1013 12:31:39.533640 19498 net.cpp:411] detection_accuracy_3_5x7 -> boxiou_3_5x7
I1013 12:31:39.533695 19498 net.cpp:150] Setting up detection_accuracy_3_5x7
I1013 12:31:39.533704 19498 net.cpp:157] Top shape: 1 1 1 2 (2)
I1013 12:31:39.533706 19498 net.cpp:157] Top shape: 1 1 1 1 (1)
I1013 12:31:39.533709 19498 net.cpp:165] Memory required for data: 1719202468
I1013 12:31:39.533711 19498 layer_factory.hpp:76] Creating layer pool6
I1013 12:31:39.533718 19498 net.cpp:106] Creating Layer pool6
I1013 12:31:39.533722 19498 net.cpp:454] pool6 <- conv6_1_relu6_1_0_split_2
I1013 12:31:39.533726 19498 net.cpp:411] pool6 -> pool6
I1013 12:31:39.533963 19498 net.cpp:150] Setting up pool6
I1013 12:31:39.533973 19498 net.cpp:157] Top shape: 2 512 9 9 (82944)
I1013 12:31:39.533977 19498 net.cpp:165] Memory required for data: 1719534244
I1013 12:31:39.533979 19498 layer_factory.hpp:76] Creating layer LFCN_4_3x5
I1013 12:31:39.533987 19498 net.cpp:106] Creating Layer LFCN_4_3x5
I1013 12:31:39.533992 19498 net.cpp:454] LFCN_4_3x5 <- pool6
I1013 12:31:39.533998 19498 net.cpp:411] LFCN_4_3x5 -> LFCN_4_3x5
I1013 12:31:39.536998 19498 net.cpp:150] Setting up LFCN_4_3x5
I1013 12:31:39.537012 19498 net.cpp:157] Top shape: 2 6 9 9 (972)
I1013 12:31:39.537016 19498 net.cpp:165] Memory required for data: 1719538132
I1013 12:31:39.537022 19498 layer_factory.hpp:76] Creating layer LFCN_4_3x5_LFCN_4_3x5_0_split
I1013 12:31:39.537029 19498 net.cpp:106] Creating Layer LFCN_4_3x5_LFCN_4_3x5_0_split
I1013 12:31:39.537031 19498 net.cpp:454] LFCN_4_3x5_LFCN_4_3x5_0_split <- LFCN_4_3x5
I1013 12:31:39.537037 19498 net.cpp:411] LFCN_4_3x5_LFCN_4_3x5_0_split -> LFCN_4_3x5_LFCN_4_3x5_0_split_0
I1013 12:31:39.537046 19498 net.cpp:411] LFCN_4_3x5_LFCN_4_3x5_0_split -> LFCN_4_3x5_LFCN_4_3x5_0_split_1
I1013 12:31:39.537052 19498 net.cpp:411] LFCN_4_3x5_LFCN_4_3x5_0_split -> LFCN_4_3x5_LFCN_4_3x5_0_split_2
I1013 12:31:39.537144 19498 net.cpp:150] Setting up LFCN_4_3x5_LFCN_4_3x5_0_split
I1013 12:31:39.537153 19498 net.cpp:157] Top shape: 2 6 9 9 (972)
I1013 12:31:39.537158 19498 net.cpp:157] Top shape: 2 6 9 9 (972)
I1013 12:31:39.537161 19498 net.cpp:157] Top shape: 2 6 9 9 (972)
I1013 12:31:39.537163 19498 net.cpp:165] Memory required for data: 1719549796
I1013 12:31:39.537166 19498 layer_factory.hpp:76] Creating layer detection_loss_4_3x5
I1013 12:31:39.537171 19498 net.cpp:106] Creating Layer detection_loss_4_3x5
I1013 12:31:39.537174 19498 net.cpp:454] detection_loss_4_3x5 <- LFCN_4_3x5_LFCN_4_3x5_0_split_0
I1013 12:31:39.537179 19498 net.cpp:454] detection_loss_4_3x5 <- label_4_3x5_data_7_split_0
I1013 12:31:39.537184 19498 net.cpp:411] detection_loss_4_3x5 -> loss_4_3x5
I1013 12:31:39.537192 19498 layer_factory.hpp:76] Creating layer detection_loss_4_3x5
I1013 12:31:39.537814 19498 net.cpp:150] Setting up detection_loss_4_3x5
I1013 12:31:39.537827 19498 net.cpp:157] Top shape: 1 1 1 2 (2)
I1013 12:31:39.537829 19498 net.cpp:160]     with loss weight 1
I1013 12:31:39.537834 19498 net.cpp:165] Memory required for data: 1719549804
I1013 12:31:39.537837 19498 layer_factory.hpp:76] Creating layer detection_accuracy_4_3x5
I1013 12:31:39.537845 19498 net.cpp:106] Creating Layer detection_accuracy_4_3x5
I1013 12:31:39.537849 19498 net.cpp:454] detection_accuracy_4_3x5 <- LFCN_4_3x5_LFCN_4_3x5_0_split_1
I1013 12:31:39.537854 19498 net.cpp:454] detection_accuracy_4_3x5 <- label_4_3x5_data_7_split_1
I1013 12:31:39.537859 19498 net.cpp:411] detection_accuracy_4_3x5 -> accuracy_4_3x5
I1013 12:31:39.537866 19498 net.cpp:411] detection_accuracy_4_3x5 -> boxiou_4_3x5
I1013 12:31:39.537920 19498 net.cpp:150] Setting up detection_accuracy_4_3x5
I1013 12:31:39.537927 19498 net.cpp:157] Top shape: 1 1 1 2 (2)
I1013 12:31:39.537931 19498 net.cpp:157] Top shape: 1 1 1 1 (1)
I1013 12:31:39.537933 19498 net.cpp:165] Memory required for data: 1719549816
I1013 12:31:39.537936 19498 layer_factory.hpp:76] Creating layer proposals
I1013 12:31:39.537943 19498 net.cpp:106] Creating Layer proposals
I1013 12:31:39.537946 19498 net.cpp:454] proposals <- LFCN_1_3x5_LFCN_1_3x5_0_split_2
I1013 12:31:39.537952 19498 net.cpp:454] proposals <- LFCN_1_5x7_LFCN_1_5x7_0_split_2
I1013 12:31:39.537955 19498 net.cpp:454] proposals <- LFCN_2_3x5_LFCN_2_3x5_0_split_2
I1013 12:31:39.537959 19498 net.cpp:454] proposals <- LFCN_2_5x7_LFCN_2_5x7_0_split_2
I1013 12:31:39.537962 19498 net.cpp:454] proposals <- LFCN_3_3x5_LFCN_3_3x5_0_split_2
I1013 12:31:39.537966 19498 net.cpp:454] proposals <- LFCN_3_5x7_LFCN_3_5x7_0_split_2
I1013 12:31:39.537968 19498 net.cpp:454] proposals <- LFCN_4_3x5_LFCN_4_3x5_0_split_2
I1013 12:31:39.537973 19498 net.cpp:411] proposals -> proposals
I1013 12:31:39.538007 19498 net.cpp:150] Setting up proposals
I1013 12:31:39.538012 19498 net.cpp:157] Top shape: 1 5 1 1 (5)
I1013 12:31:39.538014 19498 net.cpp:165] Memory required for data: 1719549836
I1013 12:31:39.538017 19498 layer_factory.hpp:76] Creating layer proposal_info
I1013 12:31:39.538024 19498 net.cpp:106] Creating Layer proposal_info
I1013 12:31:39.538028 19498 net.cpp:454] proposal_info <- proposals
I1013 12:31:39.538031 19498 net.cpp:454] proposal_info <- gt_boxes
I1013 12:31:39.538038 19498 net.cpp:411] proposal_info -> rois
I1013 12:31:39.538044 19498 net.cpp:411] proposal_info -> proposal_labels
I1013 12:31:39.538050 19498 net.cpp:411] proposal_info -> proposal_targets
I1013 12:31:39.538058 19498 net.cpp:411] proposal_info -> box_inside_weights
I1013 12:31:39.538064 19498 net.cpp:411] proposal_info -> box_outside_weights
I1013 12:31:39.538069 19498 net.cpp:411] proposal_info -> match_gt_boxes
I1013 12:31:39.538187 19498 net.cpp:150] Setting up proposal_info
I1013 12:31:39.538195 19498 net.cpp:157] Top shape: 64 5 1 1 (320)
I1013 12:31:39.538198 19498 net.cpp:157] Top shape: 64 1 1 1 (64)
I1013 12:31:39.538202 19498 net.cpp:157] Top shape: 64 8 1 1 (512)
I1013 12:31:39.538204 19498 net.cpp:157] Top shape: 64 8 1 1 (512)
I1013 12:31:39.538208 19498 net.cpp:157] Top shape: 64 8 1 1 (512)
I1013 12:31:39.538211 19498 net.cpp:157] Top shape: 64 6 1 1 (384)
I1013 12:31:39.538213 19498 net.cpp:165] Memory required for data: 1719559052
I1013 12:31:39.538215 19498 layer_factory.hpp:76] Creating layer rois_proposal_info_0_split
I1013 12:31:39.538220 19498 net.cpp:106] Creating Layer rois_proposal_info_0_split
I1013 12:31:39.538223 19498 net.cpp:454] rois_proposal_info_0_split <- rois
I1013 12:31:39.538229 19498 net.cpp:411] rois_proposal_info_0_split -> rois_proposal_info_0_split_0
I1013 12:31:39.538234 19498 net.cpp:411] rois_proposal_info_0_split -> rois_proposal_info_0_split_1
I1013 12:31:39.538239 19498 net.cpp:411] rois_proposal_info_0_split -> rois_proposal_info_0_split_2
I1013 12:31:39.538300 19498 net.cpp:150] Setting up rois_proposal_info_0_split
I1013 12:31:39.538306 19498 net.cpp:157] Top shape: 64 5 1 1 (320)
I1013 12:31:39.538311 19498 net.cpp:157] Top shape: 64 5 1 1 (320)
I1013 12:31:39.538313 19498 net.cpp:157] Top shape: 64 5 1 1 (320)
I1013 12:31:39.538316 19498 net.cpp:165] Memory required for data: 1719562892
I1013 12:31:39.538318 19498 layer_factory.hpp:76] Creating layer proposal_labels_proposal_info_1_split
I1013 12:31:39.538321 19498 net.cpp:106] Creating Layer proposal_labels_proposal_info_1_split
I1013 12:31:39.538324 19498 net.cpp:454] proposal_labels_proposal_info_1_split <- proposal_labels
I1013 12:31:39.538331 19498 net.cpp:411] proposal_labels_proposal_info_1_split -> proposal_labels_proposal_info_1_split_0
I1013 12:31:39.538336 19498 net.cpp:411] proposal_labels_proposal_info_1_split -> proposal_labels_proposal_info_1_split_1
I1013 12:31:39.538378 19498 net.cpp:150] Setting up proposal_labels_proposal_info_1_split
I1013 12:31:39.538384 19498 net.cpp:157] Top shape: 64 1 1 1 (64)
I1013 12:31:39.538388 19498 net.cpp:157] Top shape: 64 1 1 1 (64)
I1013 12:31:39.538390 19498 net.cpp:165] Memory required for data: 1719563404
I1013 12:31:39.538393 19498 layer_factory.hpp:76] Creating layer roi_pool_org
I1013 12:31:39.538400 19498 net.cpp:106] Creating Layer roi_pool_org
I1013 12:31:39.538403 19498 net.cpp:454] roi_pool_org <- conv4_3_relu4_3_0_split_2
I1013 12:31:39.538408 19498 net.cpp:454] roi_pool_org <- rois_proposal_info_0_split_0
I1013 12:31:39.538413 19498 net.cpp:411] roi_pool_org -> roi_pool_org
I1013 12:31:39.538419 19498 roi_pooling_layer.cpp:35] Spatial scale: 0.125
I1013 12:31:39.538466 19498 net.cpp:150] Setting up roi_pool_org
I1013 12:31:39.538473 19498 net.cpp:157] Top shape: 64 512 8 4 (1048576)
I1013 12:31:39.538476 19498 net.cpp:165] Memory required for data: 1723757708
I1013 12:31:39.538478 19498 layer_factory.hpp:76] Creating layer roi_pool_ctx
I1013 12:31:39.538485 19498 net.cpp:106] Creating Layer roi_pool_ctx
I1013 12:31:39.538488 19498 net.cpp:454] roi_pool_ctx <- conv4_3_relu4_3_0_split_3
I1013 12:31:39.538492 19498 net.cpp:454] roi_pool_ctx <- rois_proposal_info_0_split_1
I1013 12:31:39.538496 19498 net.cpp:411] roi_pool_ctx -> roi_pool_ctx
I1013 12:31:39.538501 19498 roi_pooling_layer.cpp:35] Spatial scale: 0.125
I1013 12:31:39.538549 19498 net.cpp:150] Setting up roi_pool_ctx
I1013 12:31:39.538556 19498 net.cpp:157] Top shape: 64 512 8 4 (1048576)
I1013 12:31:39.538558 19498 net.cpp:165] Memory required for data: 1727952012
I1013 12:31:39.538561 19498 layer_factory.hpp:76] Creating layer roi_pool
I1013 12:31:39.538566 19498 net.cpp:106] Creating Layer roi_pool
I1013 12:31:39.538569 19498 net.cpp:454] roi_pool <- roi_pool_org
I1013 12:31:39.538573 19498 net.cpp:454] roi_pool <- roi_pool_ctx
I1013 12:31:39.538578 19498 net.cpp:411] roi_pool -> roi_pool
I1013 12:31:39.538607 19498 net.cpp:150] Setting up roi_pool
I1013 12:31:39.538614 19498 net.cpp:157] Top shape: 64 1024 8 4 (2097152)
I1013 12:31:39.538616 19498 net.cpp:165] Memory required for data: 1736340620
I1013 12:31:39.538619 19498 layer_factory.hpp:76] Creating layer roi_c1
I1013 12:31:39.538626 19498 net.cpp:106] Creating Layer roi_c1
I1013 12:31:39.538630 19498 net.cpp:454] roi_c1 <- roi_pool
I1013 12:31:39.538635 19498 net.cpp:411] roi_c1 -> roi_c1
I1013 12:31:39.698145 19498 net.cpp:150] Setting up roi_c1
I1013 12:31:39.698173 19498 net.cpp:157] Top shape: 64 512 8 4 (1048576)
I1013 12:31:39.698175 19498 net.cpp:165] Memory required for data: 1740534924
I1013 12:31:39.698184 19498 layer_factory.hpp:76] Creating layer roi_c1_relu
I1013 12:31:39.698204 19498 net.cpp:106] Creating Layer roi_c1_relu
I1013 12:31:39.698211 19498 net.cpp:454] roi_c1_relu <- roi_c1
I1013 12:31:39.698218 19498 net.cpp:397] roi_c1_relu -> roi_c1 (in-place)
I1013 12:31:39.698604 19498 net.cpp:150] Setting up roi_c1_relu
I1013 12:31:39.698616 19498 net.cpp:157] Top shape: 64 512 8 4 (1048576)
I1013 12:31:39.698618 19498 net.cpp:165] Memory required for data: 1744729228
I1013 12:31:39.698621 19498 layer_factory.hpp:76] Creating layer fc6
I1013 12:31:39.698631 19498 net.cpp:106] Creating Layer fc6
I1013 12:31:39.698634 19498 net.cpp:454] fc6 <- roi_c1
I1013 12:31:39.698642 19498 net.cpp:411] fc6 -> fc6
I1013 12:31:40.801020 19498 net.cpp:150] Setting up fc6
I1013 12:31:40.801054 19498 net.cpp:157] Top shape: 64 2048 (131072)
I1013 12:31:40.801057 19498 net.cpp:165] Memory required for data: 1745253516
I1013 12:31:40.801085 19498 layer_factory.hpp:76] Creating layer relu6
I1013 12:31:40.801100 19498 net.cpp:106] Creating Layer relu6
I1013 12:31:40.801116 19498 net.cpp:454] relu6 <- fc6
I1013 12:31:40.801123 19498 net.cpp:397] relu6 -> fc6 (in-place)
I1013 12:31:40.801548 19498 net.cpp:150] Setting up relu6
I1013 12:31:40.801558 19498 net.cpp:157] Top shape: 64 2048 (131072)
I1013 12:31:40.801561 19498 net.cpp:165] Memory required for data: 1745777804
I1013 12:31:40.801564 19498 layer_factory.hpp:76] Creating layer drop6
I1013 12:31:40.801575 19498 net.cpp:106] Creating Layer drop6
I1013 12:31:40.801579 19498 net.cpp:454] drop6 <- fc6
I1013 12:31:40.801585 19498 net.cpp:397] drop6 -> fc6 (in-place)
I1013 12:31:40.801622 19498 net.cpp:150] Setting up drop6
I1013 12:31:40.801630 19498 net.cpp:157] Top shape: 64 2048 (131072)
I1013 12:31:40.801632 19498 net.cpp:165] Memory required for data: 1746302092
I1013 12:31:40.801635 19498 layer_factory.hpp:76] Creating layer fc6_drop6_0_split
I1013 12:31:40.801642 19498 net.cpp:106] Creating Layer fc6_drop6_0_split
I1013 12:31:40.801645 19498 net.cpp:454] fc6_drop6_0_split <- fc6
I1013 12:31:40.801650 19498 net.cpp:411] fc6_drop6_0_split -> fc6_drop6_0_split_0
I1013 12:31:40.801656 19498 net.cpp:411] fc6_drop6_0_split -> fc6_drop6_0_split_1
I1013 12:31:40.801731 19498 net.cpp:150] Setting up fc6_drop6_0_split
I1013 12:31:40.801739 19498 net.cpp:157] Top shape: 64 2048 (131072)
I1013 12:31:40.801743 19498 net.cpp:157] Top shape: 64 2048 (131072)
I1013 12:31:40.801745 19498 net.cpp:165] Memory required for data: 1747350668
I1013 12:31:40.801748 19498 layer_factory.hpp:76] Creating layer cls_pred
I1013 12:31:40.801759 19498 net.cpp:106] Creating Layer cls_pred
I1013 12:31:40.801762 19498 net.cpp:454] cls_pred <- fc6_drop6_0_split_0
I1013 12:31:40.801771 19498 net.cpp:411] cls_pred -> cls_pred
I1013 12:31:40.802058 19498 net.cpp:150] Setting up cls_pred
I1013 12:31:40.802067 19498 net.cpp:157] Top shape: 64 2 (128)
I1013 12:31:40.802069 19498 net.cpp:165] Memory required for data: 1747351180
I1013 12:31:40.802075 19498 layer_factory.hpp:76] Creating layer cls_pred_cls_pred_0_split
I1013 12:31:40.802080 19498 net.cpp:106] Creating Layer cls_pred_cls_pred_0_split
I1013 12:31:40.802083 19498 net.cpp:454] cls_pred_cls_pred_0_split <- cls_pred
I1013 12:31:40.802090 19498 net.cpp:411] cls_pred_cls_pred_0_split -> cls_pred_cls_pred_0_split_0
I1013 12:31:40.802096 19498 net.cpp:411] cls_pred_cls_pred_0_split -> cls_pred_cls_pred_0_split_1
I1013 12:31:40.802142 19498 net.cpp:150] Setting up cls_pred_cls_pred_0_split
I1013 12:31:40.802150 19498 net.cpp:157] Top shape: 64 2 (128)
I1013 12:31:40.802153 19498 net.cpp:157] Top shape: 64 2 (128)
I1013 12:31:40.802155 19498 net.cpp:165] Memory required for data: 1747352204
I1013 12:31:40.802158 19498 layer_factory.hpp:76] Creating layer bbox_pred
I1013 12:31:40.802165 19498 net.cpp:106] Creating Layer bbox_pred
I1013 12:31:40.802170 19498 net.cpp:454] bbox_pred <- fc6_drop6_0_split_1
I1013 12:31:40.802176 19498 net.cpp:411] bbox_pred -> bbox_pred
I1013 12:31:40.803575 19498 net.cpp:150] Setting up bbox_pred
I1013 12:31:40.803587 19498 net.cpp:157] Top shape: 64 8 (512)
I1013 12:31:40.803591 19498 net.cpp:165] Memory required for data: 1747354252
I1013 12:31:40.803596 19498 layer_factory.hpp:76] Creating layer bbox_pred_bbox_pred_0_split
I1013 12:31:40.803602 19498 net.cpp:106] Creating Layer bbox_pred_bbox_pred_0_split
I1013 12:31:40.803606 19498 net.cpp:454] bbox_pred_bbox_pred_0_split <- bbox_pred
I1013 12:31:40.803612 19498 net.cpp:411] bbox_pred_bbox_pred_0_split -> bbox_pred_bbox_pred_0_split_0
I1013 12:31:40.803675 19498 net.cpp:411] bbox_pred_bbox_pred_0_split -> bbox_pred_bbox_pred_0_split_1
I1013 12:31:40.803728 19498 net.cpp:150] Setting up bbox_pred_bbox_pred_0_split
I1013 12:31:40.803736 19498 net.cpp:157] Top shape: 64 8 (512)
I1013 12:31:40.803740 19498 net.cpp:157] Top shape: 64 8 (512)
I1013 12:31:40.803742 19498 net.cpp:165] Memory required for data: 1747358348
I1013 12:31:40.803745 19498 layer_factory.hpp:76] Creating layer loss_cls
I1013 12:31:40.803760 19498 net.cpp:106] Creating Layer loss_cls
I1013 12:31:40.803762 19498 net.cpp:454] loss_cls <- cls_pred_cls_pred_0_split_0
I1013 12:31:40.803768 19498 net.cpp:454] loss_cls <- proposal_labels_proposal_info_1_split_0
…
