…
    downsample_rate: 16
    downsample_rate: 32
    downsample_rate: 32
    downsample_rate: 64
    coord_num: 4
    field_h: 60
    field_h: 84
    field_h: 120
    field_h: 168
    field_h: 240
    field_h: 336
    field_h: 480
    field_w: 30
    field_w: 42
    field_w: 60
    field_w: 84
    field_w: 120
    field_w: 168
    field_w: 240
    fg_threshold: 0.5
    resize_width: 960
    resize_height: 720
    crop_width: 576
    crop_height: 576
    do_multiple_scale: true
    min_scale: 40
    max_scale: 340
    min_gt_height: 65
    shuffle: true
  }
}
layer {
  name: "conv1_1"
  type: "Convolution"
  bottom: "data"
  top: "conv1_1"
  convolution_param {
    num_output: 64
    pad: 1
    kernel_size: 3
  }
}
layer {
  name: "relu1_1"
  type: "ReLU"
  bottom: "conv1_1"
  top: "conv1_1"
}
layer {
  name: "conv1_2"
  type: "Convolution"
  bottom: "conv1_1"
  top: "conv1_2"
  convolution_param {
    num_output: 64
    pad: 1
    kernel_size: 3
  }
}
layer {
  name: "relu1_2"
  type: "ReLU"
  bottom: "conv1_2"
  top: "conv1_2"
}
layer {
  name: "pool1"
  type: "Pooling"
  bottom: "conv1_2"
  top: "pool1"
  pooling_param {
    pool: MAX
    kernel_size: 2
    stride: 2
  }
}
layer {
  name: "conv2_1"
  type: "Convolution"
  bottom: "pool1"
  top: "conv2_1"
  convolution_param {
    num_output: 128
    pad: 1
    kernel_size: 3
  }
}
layer {
  name: "relu2_1"
  type: "ReLU"
  bottom: "conv2_1"
  top: "conv2_1"
}
layer {
  name: "conv2_2"
  type: "Convolution"
  bottom: "conv2_1"
  top: "conv2_2"
  convolution_param {
    num_output: 128
    pad: 1
    kernel_size: 3
  }
}
layer {
  name: "relu2_2"
  type: "ReLU"
  bottom: "conv2_2"
  top: "conv2_2"
}
layer {
  name: "pool2"
  type: "Pooling"
  bottom: "conv2_2"
  top: "pool2"
  pooling_param {
    pool: MAX
    kernel_size: 2
    stride: 2
  }
}
layer {
  name: "conv3_1"
  type: "Convolution"
  bottom: "pool2"
  top: "conv3_1"
  convolution_param {
    num_output: 256
    pad: 1
    kernel_size: 3
  }
}
layer {
  name: "relu3_1"
  type: "ReLU"
  bottom: "conv3_1"
  top: "conv3_1"
}
layer {
  name: "conv3_2"
  type: "Convolution"
  bottom: "conv3_1"
  top: "conv3_2"
  convolution_param {
    num_output: 256
    pad: 1
    kernel_size: 3
  }
}
layer {
  name: "relu3_2"
  type: "ReLU"
  bottom: "conv3_2"
  top: "conv3_2"
}
layer {
  name: "conv3_3"
  type: "Convolution"
  bottom: "conv3_2"
  top: "conv3_3"
  convolution_param {
    num_output: 256
    pad: 1
    kernel_size: 3
  }
}
layer {
  name: "relu3_3"
  type: "ReLU"
  bottom: "conv3_3"
  top: "conv3_3"
}
layer {
  name: "pool3"
  type: "Pooling"
  bottom: "conv3_3"
  top: "pool3"
  pooling_param {
    pool: MAX
    kernel_size: 2
    stride: 2
  }
}
layer {
  name: "conv4_1"
  type: "Convolution"
  bottom: "pool3"
  top: "conv4_1"
  convolution_param {
    num_output: 512
    pad: 1
    kernel_size: 3
  }
}
layer {
  name: "relu4_1"
  type: "ReLU"
  bottom: "conv4_1"
  top: "conv4_1"
}
layer {
  name: "conv4_2"
  type: "Convolution"
  bottom: "conv4_1"
  top: "conv4_2"
  convolution_param {
    num_output: 512
    pad: 1
    kernel_size: 3
  }
}
layer {
  name: "relu4_2"
  type: "ReLU"
  bottom: "conv4_2"
  top: "conv4_2"
}
layer {
  name: "conv4_3"
  type: "Convolution"
  bottom: "conv4_2"
  top: "conv4_3"
  convolution_param {
    num_output: 512
    pad: 1
    kernel_size: 3
  }
}
layer {
  name: "relu4_3"
  type: "ReLU"
  bottom: "conv4_3"
  top: "conv4_3"
}
layer {
  name: "loss1_conv1"
  type: "Convolution"
  bottom: "conv4_3"
  top: "loss1_conv1"
  param {
    lr_mult: 1
    decay_mult: 1
  }
  param {
    lr_mult: 2
    decay_mult: 0
  }
  convolution_param {
    num_output: 512
    pad: 1
    kernel_size: 3
    weight_filler {
      type: "gaussian"
      std: 0.01
    }
    bias_filler {
      type: "constant"
    }
  }
}
layer {
  name: "loss_relu1"
  type: "ReLU"
  bottom: "loss1_conv1"
  top: "loss1_conv1"
}
layer {
  name: "LFCN_1_3x5"
  type: "Convolution"
  bottom: "loss1_conv1"
  top: "LFCN_1_3x5"
  param {
    lr_mult: 1
    decay_mult: 1
  }
  param {
    lr_mult: 2
    decay_mult: 0
  }
  convolution_param {
    num_output: 6
    weight_filler {
      type: "gaussian"
      std: 0.001
    }
    bias_filler {
      type: "constant"
    }
    pad_h: 2
    pad_w: 1
    kernel_h: 5
    kernel_w: 3
  }
}
layer {
  name: "detection_loss_1_3x5"
  type: "Detection"
  bottom: "LFCN_1_3x5"
  bottom: "label_1_3x5"
  top: "loss_1_3x5"
  loss_weight: 0.9
  detection_param {
    cls_num: 2
    coord_num: 4
    lambda: 0.5
    field_h: 60
    field_w: 30
    downsample_rate: 8
    bb_smooth: true
    field_whr: 2
    field_xyr: 2
    bg_threshold: 0.2
    bg_multiple: 2
    sample_mode: "random"
    pos_neg_weighted: true
  }
}
layer {
  name: "detection_accuracy_1_3x5"
  type: "DetectionAccuracy"
  bottom: "LFCN_1_3x5"
  bottom: "label_1_3x5"
  top: "accuracy_1_3x5"
  top: "boxiou_1_3x5"
  detection_accuracy_param {
    cls_num: 2
    coord_num: 4
    field_h: 60
    field_w: 30
    downsample_rate: 8
    field_whr: 2
    field_xyr: 2
  }
}
layer {
  name: "LFCN_1_5x7"
  type: "Convolution"
  bottom: "loss1_conv1"
  top: "LFCN_1_5x7"
  param {
    lr_mult: 1
    decay_mult: 1
  }
  param {
    lr_mult: 2
    decay_mult: 0
  }
  convolution_param {
    num_output: 6
    weight_filler {
      type: "gaussian"
      std: 0.001
    }
    bias_filler {
      type: "constant"
    }
    pad_h: 3
    pad_w: 2
    kernel_h: 7
    kernel_w: 5
  }
}
layer {
  name: "detection_loss_1_5x7"
  type: "Detection"
  bottom: "LFCN_1_5x7"
  bottom: "label_1_5x7"
  top: "loss_1_5x7"
  loss_weight: 0.9
  detection_param {
    cls_num: 2
    coord_num: 4
    lambda: 0.5
    field_h: 84
    field_w: 42
    downsample_rate: 8
    bb_smooth: true
    field_whr: 2
    field_xyr: 2
    bg_threshold: 0.2
    bg_multiple: 2
    sample_mode: "random"
    pos_neg_weighted: true
  }
}
layer {
  name: "detection_accuracy_1_5x7"
  type: "DetectionAccuracy"
  bottom: "LFCN_1_5x7"
  bottom: "label_1_5x7"
  top: "accuracy_1_5x7"
  top: "boxiou_1_5x7"
  detection_accuracy_param {
    cls_num: 2
    coord_num: 4
    field_h: 84
    field_w: 42
    downsample_rate: 8
    field_whr: 2
    field_xyr: 2
  }
}
layer {
  name: "pool4"
  type: "Pooling"
  bottom: "conv4_3"
  top: "pool4"
  pooling_param {
    pool: MAX
    kernel_size: 2
    stride: 2
  }
}
layer {
  name: "conv5_1"
  type: "Convolution"
  bottom: "pool4"
  top: "conv5_1"
  convolution_param {
    num_output: 512
    pad: 1
    kernel_size: 3
  }
}
layer {
  name: "relu5_1"
  type: "ReLU"
  bottom: "conv5_1"
  top: "conv5_1"
}
layer {
  name: "conv5_2"
  type: "Convolution"
  bottom: "conv5_1"
  top: "conv5_2"
  convolution_param {
    num_output: 512
    pad: 1
    kernel_size: 3
  }
}
layer {
  name: "relu5_2"
  type: "ReLU"
  bottom: "conv5_2"
  top: "conv5_2"
}
layer {
  name: "conv5_3"
  type: "Convolution"
  bottom: "conv5_2"
  top: "conv5_3"
  convolution_param {
    num_output: 512
    pad: 1
    kernel_size: 3
  }
}
layer {
  name: "relu5_3"
  type: "ReLU"
  bottom: "conv5_3"
  top: "conv5_3"
}
layer {
  name: "LFCN_2_3x5"
  type: "Convolution"
  bottom: "conv5_3"
  top: "LFCN_2_3x5"
  param {
    lr_mult: 1
    decay_mult: 1
  }
  param {
    lr_mult: 2
    decay_mult: 0
  }
  convolution_param {
    num_output: 6
    weight_filler {
      type: "gaussian"
      std: 0.001
    }
    bias_filler {
      type: "constant"
    }
    pad_h: 2
    pad_w: 1
    kernel_h: 5
    kernel_w: 3
  }
}
layer {
  name: "detection_loss_2_3x5"
  type: "Detection"
  bottom: "LFCN_2_3x5"
  bottom: "label_2_3x5"
  top: "loss_2_3x5"
  detection_param {
    cls_num: 2
    coord_num: 4
    lambda: 0.5
    field_h: 120
    field_w: 60
    downsample_rate: 16
    bb_smooth: true
    field_whr: 2
    field_xyr: 2
    bg_threshold: 0.2
    bg_multiple: 2
    sample_mode: "random"
    pos_neg_weighted: true
  }
}
layer {
  name: "detection_accuracy_2_3x5"
  type: "DetectionAccuracy"
  bottom: "LFCN_2_3x5"
  bottom: "label_2_3x5"
  top: "accuracy_2_3x5"
  top: "boxiou_2_3x5"
  detection_accuracy_param {
    cls_num: 2
    coord_num: 4
    field_h: 120
    field_w: 60
    downsample_rate: 16
    field_whr: 2
    field_xyr: 2
  }
}
layer {
  name: "LFCN_2_5x7"
  type: "Convolution"
  bottom: "conv5_3"
  top: "LFCN_2_5x7"
  param {
    lr_mult: 1
    decay_mult: 1
  }
  param {
    lr_mult: 2
    decay_mult: 0
  }
  convolution_param {
    num_output: 6
    weight_filler {
      type: "gaussian"
      std: 0.001
    }
    bias_filler {
      type: "constant"
    }
    pad_h: 3
    pad_w: 2
    kernel_h: 7
    kernel_w: 5
  }
}
layer {
  name: "detection_loss_2_5x7"
  type: "Detection"
  bottom: "LFCN_2_5x7"
  bottom: "label_2_5x7"
  top: "loss_2_5x7"
  detection_param {
    cls_num: 2
    coord_num: 4
    lambda: 0.5
    field_h: 168
    field_w: 84
    downsample_rate: 16
    bb_smooth: true
    field_whr: 2
    field_xyr: 2
    bg_threshold: 0.2
    bg_multiple: 2
    sample_mode: "random"
    pos_neg_weighted: true
  }
}
layer {
  name: "detection_accuracy_2_5x7"
  type: "DetectionAccuracy"
  bottom: "LFCN_2_5x7"
  bottom: "label_2_5x7"
  top: "accuracy_2_5x7"
  top: "boxiou_2_5x7"
  detection_accuracy_param {
    cls_num: 2
    coord_num: 4
    field_h: 168
    field_w: 84
    downsample_rate: 16
    field_whr: 2
    field_xyr: 2
  }
}
layer {
  name: "pool5"
  type: "Pooling"
  bottom: "conv5_3"
  top: "pool5"
  pooling_param {
    pool: MAX
    kernel_size: 2
    stride: 2
  }
}
layer {
  name: "conv6_1"
  type: "Convolution"
  bottom: "pool5"
  top: "conv6_1"
  param {
    lr_mult: 1
    decay_mult: 1
  }
  param {
    lr_mult: 2
    decay_mult: 0
  }
  convolution_param {
    num_output: 512
    pad: 1
    kernel_size: 3
    weight_filler {
      type: "gaussian"
      std: 0.01
    }
    bias_filler {
      type: "constant"
    }
  }
}
layer {
  name: "relu6_1"
  type: "ReLU"
  bottom: "conv6_1"
  top: "conv6_1"
}
layer {
  name: "LFCN_3_3x5"
  type: "Convolution"
  bottom: "conv6_1"
  top: "LFCN_3_3x5"
  param {
    lr_mult: 1
    decay_mult: 1
  }
  param {
    lr_mult: 2
    decay_mult: 0
  }
  convolution_param {
    num_output: 6
    weight_filler {
      type: "gaussian"
      std: 0.001
    }
    bias_filler {
      type: "constant"
    }
    pad_h: 2
    pad_w: 1
    kernel_h: 5
    kernel_w: 3
  }
}
layer {
  name: "detection_loss_3_3x5"
  type: "Detection"
  bottom: "LFCN_3_3x5"
  bottom: "label_3_3x5"
  top: "loss_3_3x5"
  detection_param {
    cls_num: 2
    coord_num: 4
    lambda: 0.5
    field_h: 240
    field_w: 120
    downsample_rate: 32
    bb_smooth: true
    field_whr: 2
    field_xyr: 2
    bg_threshold: 0.2
    bg_multiple: 2
    sample_mode: "random"
    pos_neg_weighted: true
  }
}
layer {
  name: "detection_accuracy_3_3x5"
  type: "DetectionAccuracy"
  bottom: "LFCN_3_3x5"
  bottom: "label_3_3x5"
  top: "accuracy_3_3x5"
  top: "boxiou_3_3x5"
  detection_accuracy_param {
    cls_num: 2
    coord_num: 4
    field_h: 240
    field_w: 120
    downsample_rate: 32
    field_whr: 2
    field_xyr: 2
  }
}
layer {
  name: "LFCN_3_5x7"
  type: "Convolution"
  bottom: "conv6_1"
  top: "LFCN_3_5x7"
  param {
    lr_mult: 1
    decay_mult: 1
  }
  param {
    lr_mult: 2
    decay_mult: 0
  }
  convolution_param {
    num_output: 6
    weight_filler {
      type: "gaussian"
      std: 0.001
    }
    bias_filler {
      type: "constant"
    }
    pad_h: 3
    pad_w: 2
    kernel_h: 7
    kernel_w: 5
  }
}
layer {
  name: "detection_loss_3_5x7"
  type: "Detection"
  bottom: "LFCN_3_5x7"
  bottom: "label_3_5x7"
  top: "loss_3_5x7"
  detection_param {
    cls_num: 2
    coord_num: 4
    lambda: 0.5
    field_h: 336
    field_w: 168
    downsample_rate: 32
    bb_smooth: true
    field_whr: 2
    field_xyr: 2
    bg_threshold: 0.2
    bg_multiple: 2
    sample_mode: "random"
    pos_neg_weighted: true
  }
}
layer {
  name: "detection_accuracy_3_5x7"
  type: "DetectionAccuracy"
  bottom: "LFCN_3_5x7"
  bottom: "label_3_5x7"
  top: "accuracy_3_5x7"
  top: "boxiou_3_5x7"
  detection_accuracy_param {
    cls_num: 2
    coord_num: 4
    field_h: 336
    field_w: 168
    downsample_rate: 32
    field_whr: 2
    field_xyr: 2
  }
}
layer {
  name: "pool6"
  type: "Pooling"
  bottom: "conv6_1"
  top: "pool6"
  pooling_param {
    pool: MAX
    kernel_size: 2
    stride: 2
  }
}
layer {
  name: "LFCN_4_3x5"
  type: "Convolution"
  bottom: "pool6"
  top: "LFCN_4_3x5"
  param {
    lr_mult: 1
    decay_mult: 1
  }
  param {
    lr_mult: 2
    decay_mult: 0
  }
  convolution_param {
    num_output: 6
    weight_filler {
      type: "gaussian"
      std: 0.001
    }
    bias_filler {
      type: "constant"
    }
    pad_h: 2
    pad_w: 1
    kernel_h: 5
    kernel_w: 3
  }
}
layer {
  name: "detection_loss_4_3x5"
  type: "Detection"
  bottom: "LFCN_4_3x5"
  bottom: "label_4_3x5"
  top: "loss_4_3x5"
  detection_param {
    cls_num: 2
    coord_num: 4
    lambda: 0.5
    field_h: 480
    field_w: 240
    downsample_rate: 64
    bb_smooth: true
    field_whr: 2
    field_xyr: 2
    bg_threshold: 0.2
    bg_multiple: 2
    sample_mode: "random"
    pos_neg_weighted: true
  }
}
layer {
  name: "detection_accuracy_4_3x5"
  type: "DetectionAccuracy"
  bottom: "LFCN_4_3x5"
  bottom: "label_4_3x5"
  top: "accuracy_4_3x5"
  top: "boxiou_4_3x5"
  detection_accuracy_param {
    cls_num: 2
    coord_num: 4
    field_h: 480
    field_w: 240
    downsample_rate: 64
    field_whr: 2
    field_xyr: 2
  }
}
I1013 03:34:29.852541 19435 layer_factory.hpp:76] Creating layer data
I1013 03:34:29.852582 19435 net.cpp:106] Creating Layer data
I1013 03:34:29.852591 19435 net.cpp:411] data -> data
…
I1013 03:34:31.873245 19435 image_gt_data_layer.cpp:234] output label size 1 : 4,6,72,72
I1013 03:34:31.873291 19435 image_gt_data_layer.cpp:234] output label size 2 : 4,6,36,36
I1013 03:34:31.873332 19435 image_gt_data_layer.cpp:234] output label size 3 : 4,6,36,36
I1013 03:34:31.873374 19435 image_gt_data_layer.cpp:234] output label size 4 : 4,6,18,18
I1013 03:34:31.873414 19435 image_gt_data_layer.cpp:234] output label size 5 : 4,6,18,18
I1013 03:34:31.873458 19435 image_gt_data_layer.cpp:234] output label size 6 : 4,6,9,9
I1013 03:34:31.907289 19435 net.cpp:150] Setting up data
I1013 03:34:31.907320 19435 net.cpp:157] Top shape: 4 3 576 576 (3981312)
I1013 03:34:31.907325 19435 net.cpp:157] Top shape: 4 6 72 72 (124416)
I1013 03:34:31.907330 19435 net.cpp:157] Top shape: 4 6 72 72 (124416)
I1013 03:34:31.907335 19435 net.cpp:157] Top shape: 4 6 36 36 (31104)
I1013 03:34:31.907338 19435 net.cpp:157] Top shape: 4 6 36 36 (31104)
I1013 03:34:31.907341 19435 net.cpp:157] Top shape: 4 6 18 18 (7776)
I1013 03:34:31.907344 19435 net.cpp:157] Top shape: 4 6 18 18 (7776)
I1013 03:34:31.907348 19435 net.cpp:157] Top shape: 4 6 9 9 (1944)
I1013 03:34:31.907351 19435 net.cpp:165] Memory required for data: 17239392
I1013 03:34:31.907364 19435 layer_factory.hpp:76] Creating layer label_1_3x5_data_1_split
I1013 03:34:31.907392 19435 net.cpp:106] Creating Layer label_1_3x5_data_1_split
I1013 03:34:31.907397 19435 net.cpp:454] label_1_3x5_data_1_split <- label_1_3x5
I1013 03:34:31.907413 19435 net.cpp:411] label_1_3x5_data_1_split -> label_1_3x5_data_1_split_0
I1013 03:34:31.907430 19435 net.cpp:411] label_1_3x5_data_1_split -> label_1_3x5_data_1_split_1
I1013 03:34:31.907476 19435 net.cpp:150] Setting up label_1_3x5_data_1_split
I1013 03:34:31.907485 19435 net.cpp:157] Top shape: 4 6 72 72 (124416)
I1013 03:34:31.907490 19435 net.cpp:157] Top shape: 4 6 72 72 (124416)
I1013 03:34:31.907492 19435 net.cpp:165] Memory required for data: 18234720
I1013 03:34:31.907495 19435 layer_factory.hpp:76] Creating layer label_1_5x7_data_2_split
I1013 03:34:31.907500 19435 net.cpp:106] Creating Layer label_1_5x7_data_2_split
I1013 03:34:31.907503 19435 net.cpp:454] label_1_5x7_data_2_split <- label_1_5x7
I1013 03:34:31.907508 19435 net.cpp:411] label_1_5x7_data_2_split -> label_1_5x7_data_2_split_0
I1013 03:34:31.907513 19435 net.cpp:411] label_1_5x7_data_2_split -> label_1_5x7_data_2_split_1
I1013 03:34:31.907543 19435 net.cpp:150] Setting up label_1_5x7_data_2_split
I1013 03:34:31.907547 19435 net.cpp:157] Top shape: 4 6 72 72 (124416)
I1013 03:34:31.907552 19435 net.cpp:157] Top shape: 4 6 72 72 (124416)
I1013 03:34:31.907554 19435 net.cpp:165] Memory required for data: 19230048
I1013 03:34:31.907557 19435 layer_factory.hpp:76] Creating layer label_2_3x5_data_3_split
I1013 03:34:31.907560 19435 net.cpp:106] Creating Layer label_2_3x5_data_3_split
I1013 03:34:31.907563 19435 net.cpp:454] label_2_3x5_data_3_split <- label_2_3x5
I1013 03:34:31.907568 19435 net.cpp:411] label_2_3x5_data_3_split -> label_2_3x5_data_3_split_0
I1013 03:34:31.907573 19435 net.cpp:411] label_2_3x5_data_3_split -> label_2_3x5_data_3_split_1
I1013 03:34:31.907603 19435 net.cpp:150] Setting up label_2_3x5_data_3_split
I1013 03:34:31.907608 19435 net.cpp:157] Top shape: 4 6 36 36 (31104)
I1013 03:34:31.907611 19435 net.cpp:157] Top shape: 4 6 36 36 (31104)
I1013 03:34:31.907614 19435 net.cpp:165] Memory required for data: 19478880
I1013 03:34:31.907616 19435 layer_factory.hpp:76] Creating layer label_2_5x7_data_4_split
I1013 03:34:31.907621 19435 net.cpp:106] Creating Layer label_2_5x7_data_4_split
I1013 03:34:31.907624 19435 net.cpp:454] label_2_5x7_data_4_split <- label_2_5x7
I1013 03:34:31.907629 19435 net.cpp:411] label_2_5x7_data_4_split -> label_2_5x7_data_4_split_0
I1013 03:34:31.907634 19435 net.cpp:411] label_2_5x7_data_4_split -> label_2_5x7_data_4_split_1
I1013 03:34:31.907665 19435 net.cpp:150] Setting up label_2_5x7_data_4_split
I1013 03:34:31.907675 19435 net.cpp:157] Top shape: 4 6 36 36 (31104)
I1013 03:34:31.907678 19435 net.cpp:157] Top shape: 4 6 36 36 (31104)
I1013 03:34:31.907680 19435 net.cpp:165] Memory required for data: 19727712
I1013 03:34:31.907683 19435 layer_factory.hpp:76] Creating layer label_3_3x5_data_5_split
I1013 03:34:31.907687 19435 net.cpp:106] Creating Layer label_3_3x5_data_5_split
I1013 03:34:31.907691 19435 net.cpp:454] label_3_3x5_data_5_split <- label_3_3x5
I1013 03:34:31.907694 19435 net.cpp:411] label_3_3x5_data_5_split -> label_3_3x5_data_5_split_0
I1013 03:34:31.907702 19435 net.cpp:411] label_3_3x5_data_5_split -> label_3_3x5_data_5_split_1
I1013 03:34:31.907728 19435 net.cpp:150] Setting up label_3_3x5_data_5_split
I1013 03:34:31.907733 19435 net.cpp:157] Top shape: 4 6 18 18 (7776)
I1013 03:34:31.907737 19435 net.cpp:157] Top shape: 4 6 18 18 (7776)
I1013 03:34:31.907739 19435 net.cpp:165] Memory required for data: 19789920
I1013 03:34:31.907743 19435 layer_factory.hpp:76] Creating layer label_3_5x7_data_6_split
I1013 03:34:31.907748 19435 net.cpp:106] Creating Layer label_3_5x7_data_6_split
I1013 03:34:31.907752 19435 net.cpp:454] label_3_5x7_data_6_split <- label_3_5x7
I1013 03:34:31.907755 19435 net.cpp:411] label_3_5x7_data_6_split -> label_3_5x7_data_6_split_0
I1013 03:34:31.907760 19435 net.cpp:411] label_3_5x7_data_6_split -> label_3_5x7_data_6_split_1
I1013 03:34:31.907786 19435 net.cpp:150] Setting up label_3_5x7_data_6_split
I1013 03:34:31.907791 19435 net.cpp:157] Top shape: 4 6 18 18 (7776)
I1013 03:34:31.907794 19435 net.cpp:157] Top shape: 4 6 18 18 (7776)
I1013 03:34:31.907796 19435 net.cpp:165] Memory required for data: 19852128
I1013 03:34:31.907799 19435 layer_factory.hpp:76] Creating layer label_4_3x5_data_7_split
I1013 03:34:31.907804 19435 net.cpp:106] Creating Layer label_4_3x5_data_7_split
I1013 03:34:31.907807 19435 net.cpp:454] label_4_3x5_data_7_split <- label_4_3x5
I1013 03:34:31.907811 19435 net.cpp:411] label_4_3x5_data_7_split -> label_4_3x5_data_7_split_0
I1013 03:34:31.907815 19435 net.cpp:411] label_4_3x5_data_7_split -> label_4_3x5_data_7_split_1
I1013 03:34:31.907841 19435 net.cpp:150] Setting up label_4_3x5_data_7_split
I1013 03:34:31.907845 19435 net.cpp:157] Top shape: 4 6 9 9 (1944)
I1013 03:34:31.907850 19435 net.cpp:157] Top shape: 4 6 9 9 (1944)
I1013 03:34:31.907851 19435 net.cpp:165] Memory required for data: 19867680
I1013 03:34:31.907855 19435 layer_factory.hpp:76] Creating layer conv1_1
I1013 03:34:31.907866 19435 net.cpp:106] Creating Layer conv1_1
I1013 03:34:31.907868 19435 net.cpp:454] conv1_1 <- data
I1013 03:34:31.907873 19435 net.cpp:411] conv1_1 -> conv1_1
I1013 03:34:32.024559 19435 net.cpp:150] Setting up conv1_1
I1013 03:34:32.024586 19435 net.cpp:157] Top shape: 4 64 576 576 (84934656)
I1013 03:34:32.024590 19435 net.cpp:165] Memory required for data: 359606304
I1013 03:34:32.024608 19435 layer_factory.hpp:76] Creating layer relu1_1
I1013 03:34:32.024618 19435 net.cpp:106] Creating Layer relu1_1
I1013 03:34:32.024623 19435 net.cpp:454] relu1_1 <- conv1_1
I1013 03:34:32.024628 19435 net.cpp:397] relu1_1 -> conv1_1 (in-place)
I1013 03:34:32.024802 19435 net.cpp:150] Setting up relu1_1
I1013 03:34:32.024811 19435 net.cpp:157] Top shape: 4 64 576 576 (84934656)
I1013 03:34:32.024813 19435 net.cpp:165] Memory required for data: 699344928
I1013 03:34:32.024816 19435 layer_factory.hpp:76] Creating layer conv1_2
I1013 03:34:32.024824 19435 net.cpp:106] Creating Layer conv1_2
I1013 03:34:32.024827 19435 net.cpp:454] conv1_2 <- conv1_1
I1013 03:34:32.024832 19435 net.cpp:411] conv1_2 -> conv1_2
I1013 03:34:32.026736 19435 net.cpp:150] Setting up conv1_2
I1013 03:34:32.026751 19435 net.cpp:157] Top shape: 4 64 576 576 (84934656)
I1013 03:34:32.026754 19435 net.cpp:165] Memory required for data: 1039083552
I1013 03:34:32.026764 19435 layer_factory.hpp:76] Creating layer relu1_2
I1013 03:34:32.026770 19435 net.cpp:106] Creating Layer relu1_2
I1013 03:34:32.026774 19435 net.cpp:454] relu1_2 <- conv1_2
I1013 03:34:32.026779 19435 net.cpp:397] relu1_2 -> conv1_2 (in-place)
I1013 03:34:32.027112 19435 net.cpp:150] Setting up relu1_2
I1013 03:34:32.027127 19435 net.cpp:157] Top shape: 4 64 576 576 (84934656)
I1013 03:34:32.027129 19435 net.cpp:165] Memory required for data: 1378822176
I1013 03:34:32.027133 19435 layer_factory.hpp:76] Creating layer pool1
I1013 03:34:32.027143 19435 net.cpp:106] Creating Layer pool1
I1013 03:34:32.027146 19435 net.cpp:454] pool1 <- conv1_2
I1013 03:34:32.027153 19435 net.cpp:411] pool1 -> pool1
I1013 03:34:32.027350 19435 net.cpp:150] Setting up pool1
I1013 03:34:32.027360 19435 net.cpp:157] Top shape: 4 64 288 288 (21233664)
I1013 03:34:32.027364 19435 net.cpp:165] Memory required for data: 1463756832
I1013 03:34:32.027367 19435 layer_factory.hpp:76] Creating layer conv2_1
I1013 03:34:32.027374 19435 net.cpp:106] Creating Layer conv2_1
I1013 03:34:32.027377 19435 net.cpp:454] conv2_1 <- pool1
I1013 03:34:32.027382 19435 net.cpp:411] conv2_1 -> conv2_1
I1013 03:34:32.029083 19435 net.cpp:150] Setting up conv2_1
I1013 03:34:32.029099 19435 net.cpp:157] Top shape: 4 128 288 288 (42467328)
I1013 03:34:32.029103 19435 net.cpp:165] Memory required for data: 1633626144
I1013 03:34:32.029111 19435 layer_factory.hpp:76] Creating layer relu2_1
I1013 03:34:32.029117 19435 net.cpp:106] Creating Layer relu2_1
I1013 03:34:32.029120 19435 net.cpp:454] relu2_1 <- conv2_1
I1013 03:34:32.029126 19435 net.cpp:397] relu2_1 -> conv2_1 (in-place)
I1013 03:34:32.029464 19435 net.cpp:150] Setting up relu2_1
I1013 03:34:32.029475 19435 net.cpp:157] Top shape: 4 128 288 288 (42467328)
I1013 03:34:32.029479 19435 net.cpp:165] Memory required for data: 1803495456
I1013 03:34:32.029484 19435 layer_factory.hpp:76] Creating layer conv2_2
I1013 03:34:32.029494 19435 net.cpp:106] Creating Layer conv2_2
I1013 03:34:32.029496 19435 net.cpp:454] conv2_2 <- conv2_1
I1013 03:34:32.029501 19435 net.cpp:411] conv2_2 -> conv2_2
I1013 03:34:32.031139 19435 net.cpp:150] Setting up conv2_2
I1013 03:34:32.031153 19435 net.cpp:157] Top shape: 4 128 288 288 (42467328)
I1013 03:34:32.031157 19435 net.cpp:165] Memory required for data: 1973364768
I1013 03:34:32.031163 19435 layer_factory.hpp:76] Creating layer relu2_2
I1013 03:34:32.031172 19435 net.cpp:106] Creating Layer relu2_2
I1013 03:34:32.031175 19435 net.cpp:454] relu2_2 <- conv2_2
I1013 03:34:32.031180 19435 net.cpp:397] relu2_2 -> conv2_2 (in-place)
I1013 03:34:32.031532 19435 net.cpp:150] Setting up relu2_2
I1013 03:34:32.031544 19435 net.cpp:157] Top shape: 4 128 288 288 (42467328)
I1013 03:34:32.031548 19435 net.cpp:165] Memory required for data: 2143234080
I1013 03:34:32.031550 19435 layer_factory.hpp:76] Creating layer pool2
I1013 03:34:32.031558 19435 net.cpp:106] Creating Layer pool2
I1013 03:34:32.031561 19435 net.cpp:454] pool2 <- conv2_2
I1013 03:34:32.031566 19435 net.cpp:411] pool2 -> pool2
I1013 03:34:32.031777 19435 net.cpp:150] Setting up pool2
I1013 03:34:32.031790 19435 net.cpp:157] Top shape: 4 128 144 144 (10616832)
I1013 03:34:32.031793 19435 net.cpp:165] Memory required for data: 2185701408
I1013 03:34:32.031796 19435 layer_factory.hpp:76] Creating layer conv3_1
I1013 03:34:32.031806 19435 net.cpp:106] Creating Layer conv3_1
I1013 03:34:32.031810 19435 net.cpp:454] conv3_1 <- pool2
I1013 03:34:32.031816 19435 net.cpp:411] conv3_1 -> conv3_1
I1013 03:34:32.036272 19435 net.cpp:150] Setting up conv3_1
I1013 03:34:32.036291 19435 net.cpp:157] Top shape: 4 256 144 144 (21233664)
I1013 03:34:32.036294 19435 net.cpp:165] Memory required for data: 2270636064
I1013 03:34:32.036308 19435 layer_factory.hpp:76] Creating layer relu3_1
I1013 03:34:32.036315 19435 net.cpp:106] Creating Layer relu3_1
I1013 03:34:32.036319 19435 net.cpp:454] relu3_1 <- conv3_1
I1013 03:34:32.036325 19435 net.cpp:397] relu3_1 -> conv3_1 (in-place)
I1013 03:34:32.036859 19435 net.cpp:150] Setting up relu3_1
I1013 03:34:32.036872 19435 net.cpp:157] Top shape: 4 256 144 144 (21233664)
I1013 03:34:32.036875 19435 net.cpp:165] Memory required for data: 2355570720
I1013 03:34:32.036878 19435 layer_factory.hpp:76] Creating layer conv3_2
I1013 03:34:32.036885 19435 net.cpp:106] Creating Layer conv3_2
I1013 03:34:32.036888 19435 net.cpp:454] conv3_2 <- conv3_1
I1013 03:34:32.036895 19435 net.cpp:411] conv3_2 -> conv3_2
I1013 03:34:32.040364 19435 net.cpp:150] Setting up conv3_2
I1013 03:34:32.040380 19435 net.cpp:157] Top shape: 4 256 144 144 (21233664)
I1013 03:34:32.040383 19435 net.cpp:165] Memory required for data: 2440505376
I1013 03:34:32.040390 19435 layer_factory.hpp:76] Creating layer relu3_2
I1013 03:34:32.040395 19435 net.cpp:106] Creating Layer relu3_2
I1013 03:34:32.040398 19435 net.cpp:454] relu3_2 <- conv3_2
I1013 03:34:32.040405 19435 net.cpp:397] relu3_2 -> conv3_2 (in-place)
I1013 03:34:32.040618 19435 net.cpp:150] Setting up relu3_2
I1013 03:34:32.040629 19435 net.cpp:157] Top shape: 4 256 144 144 (21233664)
I1013 03:34:32.040632 19435 net.cpp:165] Memory required for data: 2525440032
I1013 03:34:32.040635 19435 layer_factory.hpp:76] Creating layer conv3_3
I1013 03:34:32.040652 19435 net.cpp:106] Creating Layer conv3_3
I1013 03:34:32.040657 19435 net.cpp:454] conv3_3 <- conv3_2
I1013 03:34:32.040663 19435 net.cpp:411] conv3_3 -> conv3_3
I1013 03:34:32.043233 19435 net.cpp:150] Setting up conv3_3
I1013 03:34:32.043248 19435 net.cpp:157] Top shape: 4 256 144 144 (21233664)
I1013 03:34:32.043251 19435 net.cpp:165] Memory required for data: 2610374688
I1013 03:34:32.043258 19435 layer_factory.hpp:76] Creating layer relu3_3
I1013 03:34:32.043264 19435 net.cpp:106] Creating Layer relu3_3
I1013 03:34:32.043268 19435 net.cpp:454] relu3_3 <- conv3_3
I1013 03:34:32.043274 19435 net.cpp:397] relu3_3 -> conv3_3 (in-place)
I1013 03:34:32.043444 19435 net.cpp:150] Setting up relu3_3
I1013 03:34:32.043455 19435 net.cpp:157] Top shape: 4 256 144 144 (21233664)
I1013 03:34:32.043458 19435 net.cpp:165] Memory required for data: 2695309344
I1013 03:34:32.043462 19435 layer_factory.hpp:76] Creating layer pool3
I1013 03:34:32.043467 19435 net.cpp:106] Creating Layer pool3
I1013 03:34:32.043469 19435 net.cpp:454] pool3 <- conv3_3
I1013 03:34:32.043474 19435 net.cpp:411] pool3 -> pool3
I1013 03:34:32.043853 19435 net.cpp:150] Setting up pool3
I1013 03:34:32.043866 19435 net.cpp:157] Top shape: 4 256 72 72 (5308416)
I1013 03:34:32.043869 19435 net.cpp:165] Memory required for data: 2716543008
I1013 03:34:32.043872 19435 layer_factory.hpp:76] Creating layer conv4_1
I1013 03:34:32.043879 19435 net.cpp:106] Creating Layer conv4_1
I1013 03:34:32.043881 19435 net.cpp:454] conv4_1 <- pool3
I1013 03:34:32.043889 19435 net.cpp:411] conv4_1 -> conv4_1
I1013 03:34:32.048200 19435 net.cpp:150] Setting up conv4_1
I1013 03:34:32.048218 19435 net.cpp:157] Top shape: 4 512 72 72 (10616832)
I1013 03:34:32.048220 19435 net.cpp:165] Memory required for data: 2759010336
I1013 03:34:32.048228 19435 layer_factory.hpp:76] Creating layer relu4_1
I1013 03:34:32.048234 19435 net.cpp:106] Creating Layer relu4_1
I1013 03:34:32.048238 19435 net.cpp:454] relu4_1 <- conv4_1
I1013 03:34:32.048244 19435 net.cpp:397] relu4_1 -> conv4_1 (in-place)
I1013 03:34:32.048421 19435 net.cpp:150] Setting up relu4_1
I1013 03:34:32.048434 19435 net.cpp:157] Top shape: 4 512 72 72 (10616832)
I1013 03:34:32.048436 19435 net.cpp:165] Memory required for data: 2801477664
I1013 03:34:32.048441 19435 layer_factory.hpp:76] Creating layer conv4_2
I1013 03:34:32.048449 19435 net.cpp:106] Creating Layer conv4_2
I1013 03:34:32.048451 19435 net.cpp:454] conv4_2 <- conv4_1
I1013 03:34:32.048457 19435 net.cpp:411] conv4_2 -> conv4_2
I1013 03:34:32.054493 19435 net.cpp:150] Setting up conv4_2
I1013 03:34:32.054509 19435 net.cpp:157] Top shape: 4 512 72 72 (10616832)
I1013 03:34:32.054512 19435 net.cpp:165] Memory required for data: 2843944992
I1013 03:34:32.054525 19435 layer_factory.hpp:76] Creating layer relu4_2
I1013 03:34:32.054533 19435 net.cpp:106] Creating Layer relu4_2
I1013 03:34:32.054538 19435 net.cpp:454] relu4_2 <- conv4_2
I1013 03:34:32.054543 19435 net.cpp:397] relu4_2 -> conv4_2 (in-place)
I1013 03:34:32.054893 19435 net.cpp:150] Setting up relu4_2
I1013 03:34:32.054909 19435 net.cpp:157] Top shape: 4 512 72 72 (10616832)
I1013 03:34:32.054914 19435 net.cpp:165] Memory required for data: 2886412320
I1013 03:34:32.054919 19435 layer_factory.hpp:76] Creating layer conv4_3
I1013 03:34:32.054932 19435 net.cpp:106] Creating Layer conv4_3
I1013 03:34:32.054939 19435 net.cpp:454] conv4_3 <- conv4_2
I1013 03:34:32.054945 19435 net.cpp:411] conv4_3 -> conv4_3
I1013 03:34:32.061074 19435 net.cpp:150] Setting up conv4_3
I1013 03:34:32.061096 19435 net.cpp:157] Top shape: 4 512 72 72 (10616832)
I1013 03:34:32.061100 19435 net.cpp:165] Memory required for data: 2928879648
I1013 03:34:32.061108 19435 layer_factory.hpp:76] Creating layer relu4_3
I1013 03:34:32.061115 19435 net.cpp:106] Creating Layer relu4_3
I1013 03:34:32.061120 19435 net.cpp:454] relu4_3 <- conv4_3
I1013 03:34:32.061125 19435 net.cpp:397] relu4_3 -> conv4_3 (in-place)
I1013 03:34:32.061463 19435 net.cpp:150] Setting up relu4_3
I1013 03:34:32.061477 19435 net.cpp:157] Top shape: 4 512 72 72 (10616832)
I1013 03:34:32.061480 19435 net.cpp:165] Memory required for data: 2971346976
I1013 03:34:32.061483 19435 layer_factory.hpp:76] Creating layer conv4_3_relu4_3_0_split
I1013 03:34:32.061489 19435 net.cpp:106] Creating Layer conv4_3_relu4_3_0_split
I1013 03:34:32.061492 19435 net.cpp:454] conv4_3_relu4_3_0_split <- conv4_3
I1013 03:34:32.061497 19435 net.cpp:411] conv4_3_relu4_3_0_split -> conv4_3_relu4_3_0_split_0
I1013 03:34:32.061504 19435 net.cpp:411] conv4_3_relu4_3_0_split -> conv4_3_relu4_3_0_split_1
I1013 03:34:32.061548 19435 net.cpp:150] Setting up conv4_3_relu4_3_0_split
I1013 03:34:32.061553 19435 net.cpp:157] Top shape: 4 512 72 72 (10616832)
I1013 03:34:32.061556 19435 net.cpp:157] Top shape: 4 512 72 72 (10616832)
I1013 03:34:32.061558 19435 net.cpp:165] Memory required for data: 3056281632
I1013 03:34:32.061561 19435 layer_factory.hpp:76] Creating layer loss1_conv1
I1013 03:34:32.061576 19435 net.cpp:106] Creating Layer loss1_conv1
I1013 03:34:32.061579 19435 net.cpp:454] loss1_conv1 <- conv4_3_relu4_3_0_split_0
I1013 03:34:32.061585 19435 net.cpp:411] loss1_conv1 -> loss1_conv1
I1013 03:34:32.144181 19435 net.cpp:150] Setting up loss1_conv1
I1013 03:34:32.144217 19435 net.cpp:157] Top shape: 4 512 72 72 (10616832)
I1013 03:34:32.144220 19435 net.cpp:165] Memory required for data: 3098748960
I1013 03:34:32.144227 19435 layer_factory.hpp:76] Creating layer loss_relu1
I1013 03:34:32.144238 19435 net.cpp:106] Creating Layer loss_relu1
I1013 03:34:32.144244 19435 net.cpp:454] loss_relu1 <- loss1_conv1
I1013 03:34:32.144251 19435 net.cpp:397] loss_relu1 -> loss1_conv1 (in-place)
I1013 03:34:32.144423 19435 net.cpp:150] Setting up loss_relu1
I1013 03:34:32.144433 19435 net.cpp:157] Top shape: 4 512 72 72 (10616832)
I1013 03:34:32.144438 19435 net.cpp:165] Memory required for data: 3141216288
I1013 03:34:32.144441 19435 layer_factory.hpp:76] Creating layer loss1_conv1_loss_relu1_0_split
I1013 03:34:32.144448 19435 net.cpp:106] Creating Layer loss1_conv1_loss_relu1_0_split
I1013 03:34:32.144450 19435 net.cpp:454] loss1_conv1_loss_relu1_0_split <- loss1_conv1
I1013 03:34:32.144455 19435 net.cpp:411] loss1_conv1_loss_relu1_0_split -> loss1_conv1_loss_relu1_0_split_0
I1013 03:34:32.144461 19435 net.cpp:411] loss1_conv1_loss_relu1_0_split -> loss1_conv1_loss_relu1_0_split_1
I1013 03:34:32.144505 19435 net.cpp:150] Setting up loss1_conv1_loss_relu1_0_split
I1013 03:34:32.144510 19435 net.cpp:157] Top shape: 4 512 72 72 (10616832)
I1013 03:34:32.144513 19435 net.cpp:157] Top shape: 4 512 72 72 (10616832)
I1013 03:34:32.144515 19435 net.cpp:165] Memory required for data: 3226150944
I1013 03:34:32.144518 19435 layer_factory.hpp:76] Creating layer LFCN_1_3x5
I1013 03:34:32.144527 19435 net.cpp:106] Creating Layer LFCN_1_3x5
I1013 03:34:32.144531 19435 net.cpp:454] LFCN_1_3x5 <- loss1_conv1_loss_relu1_0_split_0
I1013 03:34:32.144537 19435 net.cpp:411] LFCN_1_3x5 -> LFCN_1_3x5
I1013 03:34:32.147440 19435 net.cpp:150] Setting up LFCN_1_3x5
I1013 03:34:32.147456 19435 net.cpp:157] Top shape: 4 6 72 72 (124416)
I1013 03:34:32.147459 19435 net.cpp:165] Memory required for data: 3226648608
I1013 03:34:32.147465 19435 layer_factory.hpp:76] Creating layer LFCN_1_3x5_LFCN_1_3x5_0_split
I1013 03:34:32.147471 19435 net.cpp:106] Creating Layer LFCN_1_3x5_LFCN_1_3x5_0_split
I1013 03:34:32.147475 19435 net.cpp:454] LFCN_1_3x5_LFCN_1_3x5_0_split <- LFCN_1_3x5
I1013 03:34:32.147480 19435 net.cpp:411] LFCN_1_3x5_LFCN_1_3x5_0_split -> LFCN_1_3x5_LFCN_1_3x5_0_split_0
I1013 03:34:32.147486 19435 net.cpp:411] LFCN_1_3x5_LFCN_1_3x5_0_split -> LFCN_1_3x5_LFCN_1_3x5_0_split_1
I1013 03:34:32.147528 19435 net.cpp:150] Setting up LFCN_1_3x5_LFCN_1_3x5_0_split
I1013 03:34:32.147533 19435 net.cpp:157] Top shape: 4 6 72 72 (124416)
I1013 03:34:32.147536 19435 net.cpp:157] Top shape: 4 6 72 72 (124416)
I1013 03:34:32.147539 19435 net.cpp:165] Memory required for data: 3227643936
I1013 03:34:32.147541 19435 layer_factory.hpp:76] Creating layer detection_loss_1_3x5
I1013 03:34:32.147549 19435 net.cpp:106] Creating Layer detection_loss_1_3x5
I1013 03:34:32.147552 19435 net.cpp:454] detection_loss_1_3x5 <- LFCN_1_3x5_LFCN_1_3x5_0_split_0
I1013 03:34:32.147557 19435 net.cpp:454] detection_loss_1_3x5 <- label_1_3x5_data_1_split_0
I1013 03:34:32.147562 19435 net.cpp:411] detection_loss_1_3x5 -> loss_1_3x5
I1013 03:34:32.147572 19435 layer_factory.hpp:76] Creating layer detection_loss_1_3x5
I1013 03:34:32.148131 19435 net.cpp:150] Setting up detection_loss_1_3x5
I1013 03:34:32.148144 19435 net.cpp:157] Top shape: 1 1 1 2 (2)
I1013 03:34:32.148147 19435 net.cpp:160]     with loss weight 0.9
I1013 03:34:32.148169 19435 net.cpp:165] Memory required for data: 3227643944
I1013 03:34:32.148172 19435 layer_factory.hpp:76] Creating layer detection_accuracy_1_3x5
I1013 03:34:32.148180 19435 net.cpp:106] Creating Layer detection_accuracy_1_3x5
I1013 03:34:32.148183 19435 net.cpp:454] detection_accuracy_1_3x5 <- LFCN_1_3x5_LFCN_1_3x5_0_split_1
I1013 03:34:32.148187 19435 net.cpp:454] detection_accuracy_1_3x5 <- label_1_3x5_data_1_split_1
I1013 03:34:32.148195 19435 net.cpp:411] detection_accuracy_1_3x5 -> accuracy_1_3x5
I1013 03:34:32.148201 19435 net.cpp:411] detection_accuracy_1_3x5 -> boxiou_1_3x5
I1013 03:34:32.148241 19435 net.cpp:150] Setting up detection_accuracy_1_3x5
I1013 03:34:32.148247 19435 net.cpp:157] Top shape: 1 1 1 2 (2)
I1013 03:34:32.148250 19435 net.cpp:157] Top shape: 1 1 1 1 (1)
I1013 03:34:32.148252 19435 net.cpp:165] Memory required for data: 3227643956
I1013 03:34:32.148255 19435 layer_factory.hpp:76] Creating layer LFCN_1_5x7
I1013 03:34:32.148262 19435 net.cpp:106] Creating Layer LFCN_1_5x7
I1013 03:34:32.148267 19435 net.cpp:454] LFCN_1_5x7 <- loss1_conv1_loss_relu1_0_split_1
I1013 03:34:32.148272 19435 net.cpp:411] LFCN_1_5x7 -> LFCN_1_5x7
I1013 03:34:32.153513 19435 net.cpp:150] Setting up LFCN_1_5x7
I1013 03:34:32.153528 19435 net.cpp:157] Top shape: 4 6 72 72 (124416)
I1013 03:34:32.153532 19435 net.cpp:165] Memory required for data: 3228141620
I1013 03:34:32.153537 19435 layer_factory.hpp:76] Creating layer LFCN_1_5x7_LFCN_1_5x7_0_split
I1013 03:34:32.153543 19435 net.cpp:106] Creating Layer LFCN_1_5x7_LFCN_1_5x7_0_split
I1013 03:34:32.153548 19435 net.cpp:454] LFCN_1_5x7_LFCN_1_5x7_0_split <- LFCN_1_5x7
I1013 03:34:32.153553 19435 net.cpp:411] LFCN_1_5x7_LFCN_1_5x7_0_split -> LFCN_1_5x7_LFCN_1_5x7_0_split_0
I1013 03:34:32.153560 19435 net.cpp:411] LFCN_1_5x7_LFCN_1_5x7_0_split -> LFCN_1_5x7_LFCN_1_5x7_0_split_1
I1013 03:34:32.153604 19435 net.cpp:150] Setting up LFCN_1_5x7_LFCN_1_5x7_0_split
I1013 03:34:32.153609 19435 net.cpp:157] Top shape: 4 6 72 72 (124416)
I1013 03:34:32.153614 19435 net.cpp:157] Top shape: 4 6 72 72 (124416)
I1013 03:34:32.153615 19435 net.cpp:165] Memory required for data: 3229136948
I1013 03:34:32.153619 19435 layer_factory.hpp:76] Creating layer detection_loss_1_5x7
I1013 03:34:32.153625 19435 net.cpp:106] Creating Layer detection_loss_1_5x7
I1013 03:34:32.153628 19435 net.cpp:454] detection_loss_1_5x7 <- LFCN_1_5x7_LFCN_1_5x7_0_split_0
I1013 03:34:32.153632 19435 net.cpp:454] detection_loss_1_5x7 <- label_1_5x7_data_2_split_0
I1013 03:34:32.153637 19435 net.cpp:411] detection_loss_1_5x7 -> loss_1_5x7
I1013 03:34:32.153643 19435 layer_factory.hpp:76] Creating layer detection_loss_1_5x7
I1013 03:34:32.154184 19435 net.cpp:150] Setting up detection_loss_1_5x7
I1013 03:34:32.154196 19435 net.cpp:157] Top shape: 1 1 1 2 (2)
I1013 03:34:32.154199 19435 net.cpp:160]     with loss weight 0.9
I1013 03:34:32.154206 19435 net.cpp:165] Memory required for data: 3229136956
I1013 03:34:32.154211 19435 layer_factory.hpp:76] Creating layer detection_accuracy_1_5x7
I1013 03:34:32.154218 19435 net.cpp:106] Creating Layer detection_accuracy_1_5x7
I1013 03:34:32.154222 19435 net.cpp:454] detection_accuracy_1_5x7 <- LFCN_1_5x7_LFCN_1_5x7_0_split_1
I1013 03:34:32.154227 19435 net.cpp:454] detection_accuracy_1_5x7 <- label_1_5x7_data_2_split_1
I1013 03:34:32.154232 19435 net.cpp:411] detection_accuracy_1_5x7 -> accuracy_1_5x7
I1013 03:34:32.154239 19435 net.cpp:411] detection_accuracy_1_5x7 -> boxiou_1_5x7
I1013 03:34:32.154278 19435 net.cpp:150] Setting up detection_accuracy_1_5x7
I1013 03:34:32.154284 19435 net.cpp:157] Top shape: 1 1 1 2 (2)
I1013 03:34:32.154286 19435 net.cpp:157] Top shape: 1 1 1 1 (1)
I1013 03:34:32.154289 19435 net.cpp:165] Memory required for data: 3229136968
I1013 03:34:32.154292 19435 layer_factory.hpp:76] Creating layer pool4
I1013 03:34:32.154299 19435 net.cpp:106] Creating Layer pool4
I1013 03:34:32.154302 19435 net.cpp:454] pool4 <- conv4_3_relu4_3_0_split_1
I1013 03:34:32.154306 19435 net.cpp:411] pool4 -> pool4
I1013 03:34:32.154680 19435 net.cpp:150] Setting up pool4
I1013 03:34:32.154695 19435 net.cpp:157] Top shape: 4 512 36 36 (2654208)
I1013 03:34:32.154698 19435 net.cpp:165] Memory required for data: 3239753800
I1013 03:34:32.154701 19435 layer_factory.hpp:76] Creating layer conv5_1
I1013 03:34:32.154708 19435 net.cpp:106] Creating Layer conv5_1
I1013 03:34:32.154711 19435 net.cpp:454] conv5_1 <- pool4
I1013 03:34:32.154717 19435 net.cpp:411] conv5_1 -> conv5_1
I1013 03:34:32.160691 19435 net.cpp:150] Setting up conv5_1
I1013 03:34:32.160704 19435 net.cpp:157] Top shape: 4 512 36 36 (2654208)
I1013 03:34:32.160708 19435 net.cpp:165] Memory required for data: 3250370632
I1013 03:34:32.160714 19435 layer_factory.hpp:76] Creating layer relu5_1
I1013 03:34:32.160723 19435 net.cpp:106] Creating Layer relu5_1
I1013 03:34:32.160727 19435 net.cpp:454] relu5_1 <- conv5_1
I1013 03:34:32.160732 19435 net.cpp:397] relu5_1 -> conv5_1 (in-place)
I1013 03:34:32.161078 19435 net.cpp:150] Setting up relu5_1
I1013 03:34:32.161092 19435 net.cpp:157] Top shape: 4 512 36 36 (2654208)
I1013 03:34:32.161095 19435 net.cpp:165] Memory required for data: 3260987464
I1013 03:34:32.161100 19435 layer_factory.hpp:76] Creating layer conv5_2
I1013 03:34:32.161108 19435 net.cpp:106] Creating Layer conv5_2
I1013 03:34:32.161110 19435 net.cpp:454] conv5_2 <- conv5_1
I1013 03:34:32.161118 19435 net.cpp:411] conv5_2 -> conv5_2
I1013 03:34:32.167346 19435 net.cpp:150] Setting up conv5_2
I1013 03:34:32.167362 19435 net.cpp:157] Top shape: 4 512 36 36 (2654208)
I1013 03:34:32.167366 19435 net.cpp:165] Memory required for data: 3271604296
I1013 03:34:32.167372 19435 layer_factory.hpp:76] Creating layer relu5_2
I1013 03:34:32.167381 19435 net.cpp:106] Creating Layer relu5_2
I1013 03:34:32.167385 19435 net.cpp:454] relu5_2 <- conv5_2
I1013 03:34:32.167389 19435 net.cpp:397] relu5_2 -> conv5_2 (in-place)
I1013 03:34:32.167567 19435 net.cpp:150] Setting up relu5_2
I1013 03:34:32.167577 19435 net.cpp:157] Top shape: 4 512 36 36 (2654208)
I1013 03:34:32.167578 19435 net.cpp:165] Memory required for data: 3282221128
I1013 03:34:32.167582 19435 layer_factory.hpp:76] Creating layer conv5_3
I1013 03:34:32.167588 19435 net.cpp:106] Creating Layer conv5_3
I1013 03:34:32.167592 19435 net.cpp:454] conv5_3 <- conv5_2
I1013 03:34:32.167598 19435 net.cpp:411] conv5_3 -> conv5_3
I1013 03:34:32.173882 19435 net.cpp:150] Setting up conv5_3
I1013 03:34:32.173900 19435 net.cpp:157] Top shape: 4 512 36 36 (2654208)
I1013 03:34:32.173903 19435 net.cpp:165] Memory required for data: 3292837960
I1013 03:34:32.173913 19435 layer_factory.hpp:76] Creating layer relu5_3
I1013 03:34:32.173923 19435 net.cpp:106] Creating Layer relu5_3
I1013 03:34:32.173928 19435 net.cpp:454] relu5_3 <- conv5_3
I1013 03:34:32.173931 19435 net.cpp:397] relu5_3 -> conv5_3 (in-place)
I1013 03:34:32.174279 19435 net.cpp:150] Setting up relu5_3
I1013 03:34:32.174293 19435 net.cpp:157] Top shape: 4 512 36 36 (2654208)
I1013 03:34:32.174294 19435 net.cpp:165] Memory required for data: 3303454792
I1013 03:34:32.174299 19435 layer_factory.hpp:76] Creating layer conv5_3_relu5_3_0_split
I1013 03:34:32.174305 19435 net.cpp:106] Creating Layer conv5_3_relu5_3_0_split
I1013 03:34:32.174309 19435 net.cpp:454] conv5_3_relu5_3_0_split <- conv5_3
I1013 03:34:32.174314 19435 net.cpp:411] conv5_3_relu5_3_0_split -> conv5_3_relu5_3_0_split_0
I1013 03:34:32.174322 19435 net.cpp:411] conv5_3_relu5_3_0_split -> conv5_3_relu5_3_0_split_1
I1013 03:34:32.174327 19435 net.cpp:411] conv5_3_relu5_3_0_split -> conv5_3_relu5_3_0_split_2
I1013 03:34:32.174386 19435 net.cpp:150] Setting up conv5_3_relu5_3_0_split
I1013 03:34:32.174396 19435 net.cpp:157] Top shape: 4 512 36 36 (2654208)
I1013 03:34:32.174401 19435 net.cpp:157] Top shape: 4 512 36 36 (2654208)
I1013 03:34:32.174403 19435 net.cpp:157] Top shape: 4 512 36 36 (2654208)
I1013 03:34:32.174406 19435 net.cpp:165] Memory required for data: 3335305288
I1013 03:34:32.174408 19435 layer_factory.hpp:76] Creating layer LFCN_2_3x5
I1013 03:34:32.174417 19435 net.cpp:106] Creating Layer LFCN_2_3x5
I1013 03:34:32.174422 19435 net.cpp:454] LFCN_2_3x5 <- conv5_3_relu5_3_0_split_0
I1013 03:34:32.174428 19435 net.cpp:411] LFCN_2_3x5 -> LFCN_2_3x5
I1013 03:34:32.176964 19435 net.cpp:150] Setting up LFCN_2_3x5
I1013 03:34:32.176976 19435 net.cpp:157] Top shape: 4 6 36 36 (31104)
I1013 03:34:32.176980 19435 net.cpp:165] Memory required for data: 3335429704
I1013 03:34:32.176993 19435 layer_factory.hpp:76] Creating layer LFCN_2_3x5_LFCN_2_3x5_0_split
I1013 03:34:32.177000 19435 net.cpp:106] Creating Layer LFCN_2_3x5_LFCN_2_3x5_0_split
I1013 03:34:32.177004 19435 net.cpp:454] LFCN_2_3x5_LFCN_2_3x5_0_split <- LFCN_2_3x5
I1013 03:34:32.177009 19435 net.cpp:411] LFCN_2_3x5_LFCN_2_3x5_0_split -> LFCN_2_3x5_LFCN_2_3x5_0_split_0
I1013 03:34:32.177016 19435 net.cpp:411] LFCN_2_3x5_LFCN_2_3x5_0_split -> LFCN_2_3x5_LFCN_2_3x5_0_split_1
I1013 03:34:32.177058 19435 net.cpp:150] Setting up LFCN_2_3x5_LFCN_2_3x5_0_split
I1013 03:34:32.177067 19435 net.cpp:157] Top shape: 4 6 36 36 (31104)
I1013 03:34:32.177072 19435 net.cpp:157] Top shape: 4 6 36 36 (31104)
I1013 03:34:32.177073 19435 net.cpp:165] Memory required for data: 3335678536
I1013 03:34:32.177078 19435 layer_factory.hpp:76] Creating layer detection_loss_2_3x5
I1013 03:34:32.177083 19435 net.cpp:106] Creating Layer detection_loss_2_3x5
I1013 03:34:32.177088 19435 net.cpp:454] detection_loss_2_3x5 <- LFCN_2_3x5_LFCN_2_3x5_0_split_0
I1013 03:34:32.177091 19435 net.cpp:454] detection_loss_2_3x5 <- label_2_3x5_data_3_split_0
I1013 03:34:32.177098 19435 net.cpp:411] detection_loss_2_3x5 -> loss_2_3x5
I1013 03:34:32.177106 19435 layer_factory.hpp:76] Creating layer detection_loss_2_3x5
I1013 03:34:32.177651 19435 net.cpp:150] Setting up detection_loss_2_3x5
I1013 03:34:32.177664 19435 net.cpp:157] Top shape: 1 1 1 2 (2)
I1013 03:34:32.177666 19435 net.cpp:160]     with loss weight 1
I1013 03:34:32.177678 19435 net.cpp:165] Memory required for data: 3335678544
I1013 03:34:32.177681 19435 layer_factory.hpp:76] Creating layer detection_accuracy_2_3x5
I1013 03:34:32.177690 19435 net.cpp:106] Creating Layer detection_accuracy_2_3x5
I1013 03:34:32.177693 19435 net.cpp:454] detection_accuracy_2_3x5 <- LFCN_2_3x5_LFCN_2_3x5_0_split_1
I1013 03:34:32.177698 19435 net.cpp:454] detection_accuracy_2_3x5 <- label_2_3x5_data_3_split_1
I1013 03:34:32.177703 19435 net.cpp:411] detection_accuracy_2_3x5 -> accuracy_2_3x5
I1013 03:34:32.177709 19435 net.cpp:411] detection_accuracy_2_3x5 -> boxiou_2_3x5
I1013 03:34:32.177762 19435 net.cpp:150] Setting up detection_accuracy_2_3x5
I1013 03:34:32.177769 19435 net.cpp:157] Top shape: 1 1 1 2 (2)
I1013 03:34:32.177772 19435 net.cpp:157] Top shape: 1 1 1 1 (1)
I1013 03:34:32.177775 19435 net.cpp:165] Memory required for data: 3335678556
I1013 03:34:32.177778 19435 layer_factory.hpp:76] Creating layer LFCN_2_5x7
I1013 03:34:32.177786 19435 net.cpp:106] Creating Layer LFCN_2_5x7
I1013 03:34:32.177789 19435 net.cpp:454] LFCN_2_5x7 <- conv5_3_relu5_3_0_split_1
I1013 03:34:32.177796 19435 net.cpp:411] LFCN_2_5x7 -> LFCN_2_5x7
I1013 03:34:32.182564 19435 net.cpp:150] Setting up LFCN_2_5x7
I1013 03:34:32.182577 19435 net.cpp:157] Top shape: 4 6 36 36 (31104)
I1013 03:34:32.182581 19435 net.cpp:165] Memory required for data: 3335802972
I1013 03:34:32.182587 19435 layer_factory.hpp:76] Creating layer LFCN_2_5x7_LFCN_2_5x7_0_split
I1013 03:34:32.182592 19435 net.cpp:106] Creating Layer LFCN_2_5x7_LFCN_2_5x7_0_split
I1013 03:34:32.182596 19435 net.cpp:454] LFCN_2_5x7_LFCN_2_5x7_0_split <- LFCN_2_5x7
I1013 03:34:32.182605 19435 net.cpp:411] LFCN_2_5x7_LFCN_2_5x7_0_split -> LFCN_2_5x7_LFCN_2_5x7_0_split_0
I1013 03:34:32.182610 19435 net.cpp:411] LFCN_2_5x7_LFCN_2_5x7_0_split -> LFCN_2_5x7_LFCN_2_5x7_0_split_1
I1013 03:34:32.182652 19435 net.cpp:150] Setting up LFCN_2_5x7_LFCN_2_5x7_0_split
I1013 03:34:32.182663 19435 net.cpp:157] Top shape: 4 6 36 36 (31104)
I1013 03:34:32.182667 19435 net.cpp:157] Top shape: 4 6 36 36 (31104)
I1013 03:34:32.182669 19435 net.cpp:165] Memory required for data: 3336051804
I1013 03:34:32.182672 19435 layer_factory.hpp:76] Creating layer detection_loss_2_5x7
I1013 03:34:32.182680 19435 net.cpp:106] Creating Layer detection_loss_2_5x7
I1013 03:34:32.182685 19435 net.cpp:454] detection_loss_2_5x7 <- LFCN_2_5x7_LFCN_2_5x7_0_split_0
I1013 03:34:32.182689 19435 net.cpp:454] detection_loss_2_5x7 <- label_2_5x7_data_4_split_0
I1013 03:34:32.182694 19435 net.cpp:411] detection_loss_2_5x7 -> loss_2_5x7
I1013 03:34:32.182701 19435 layer_factory.hpp:76] Creating layer detection_loss_2_5x7
I1013 03:34:32.183076 19435 net.cpp:150] Setting up detection_loss_2_5x7
I1013 03:34:32.183087 19435 net.cpp:157] Top shape: 1 1 1 2 (2)
I1013 03:34:32.183090 19435 net.cpp:160]     with loss weight 1
I1013 03:34:32.183096 19435 net.cpp:165] Memory required for data: 3336051812
I1013 03:34:32.183099 19435 layer_factory.hpp:76] Creating layer detection_accuracy_2_5x7
I1013 03:34:32.183105 19435 net.cpp:106] Creating Layer detection_accuracy_2_5x7
I1013 03:34:32.183109 19435 net.cpp:454] detection_accuracy_2_5x7 <- LFCN_2_5x7_LFCN_2_5x7_0_split_1
I1013 03:34:32.183114 19435 net.cpp:454] detection_accuracy_2_5x7 <- label_2_5x7_data_4_split_1
I1013 03:34:32.183117 19435 net.cpp:411] detection_accuracy_2_5x7 -> accuracy_2_5x7
I1013 03:34:32.183125 19435 net.cpp:411] detection_accuracy_2_5x7 -> boxiou_2_5x7
I1013 03:34:32.183166 19435 net.cpp:150] Setting up detection_accuracy_2_5x7
I1013 03:34:32.183171 19435 net.cpp:157] Top shape: 1 1 1 2 (2)
I1013 03:34:32.183174 19435 net.cpp:157] Top shape: 1 1 1 1 (1)
I1013 03:34:32.183176 19435 net.cpp:165] Memory required for data: 3336051824
I1013 03:34:32.183179 19435 layer_factory.hpp:76] Creating layer pool5
I1013 03:34:32.183187 19435 net.cpp:106] Creating Layer pool5
I1013 03:34:32.183189 19435 net.cpp:454] pool5 <- conv5_3_relu5_3_0_split_2
I1013 03:34:32.183194 19435 net.cpp:411] pool5 -> pool5
I1013 03:34:32.183578 19435 net.cpp:150] Setting up pool5
I1013 03:34:32.183590 19435 net.cpp:157] Top shape: 4 512 18 18 (663552)
I1013 03:34:32.183593 19435 net.cpp:165] Memory required for data: 3338706032
I1013 03:34:32.183596 19435 layer_factory.hpp:76] Creating layer conv6_1
I1013 03:34:32.183609 19435 net.cpp:106] Creating Layer conv6_1
I1013 03:34:32.183611 19435 net.cpp:454] conv6_1 <- pool5
I1013 03:34:32.183617 19435 net.cpp:411] conv6_1 -> conv6_1
I1013 03:34:32.265120 19435 net.cpp:150] Setting up conv6_1
I1013 03:34:32.265137 19435 net.cpp:157] Top shape: 4 512 18 18 (663552)
I1013 03:34:32.265152 19435 net.cpp:165] Memory required for data: 3341360240
I1013 03:34:32.265158 19435 layer_factory.hpp:76] Creating layer relu6_1
I1013 03:34:32.265166 19435 net.cpp:106] Creating Layer relu6_1
I1013 03:34:32.265171 19435 net.cpp:454] relu6_1 <- conv6_1
I1013 03:34:32.265177 19435 net.cpp:397] relu6_1 -> conv6_1 (in-place)
I1013 03:34:32.265566 19435 net.cpp:150] Setting up relu6_1
I1013 03:34:32.265578 19435 net.cpp:157] Top shape: 4 512 18 18 (663552)
I1013 03:34:32.265581 19435 net.cpp:165] Memory required for data: 3344014448
I1013 03:34:32.265585 19435 layer_factory.hpp:76] Creating layer conv6_1_relu6_1_0_split
I1013 03:34:32.265593 19435 net.cpp:106] Creating Layer conv6_1_relu6_1_0_split
I1013 03:34:32.265596 19435 net.cpp:454] conv6_1_relu6_1_0_split <- conv6_1
I1013 03:34:32.265601 19435 net.cpp:411] conv6_1_relu6_1_0_split -> conv6_1_relu6_1_0_split_0
I1013 03:34:32.265607 19435 net.cpp:411] conv6_1_relu6_1_0_split -> conv6_1_relu6_1_0_split_1
I1013 03:34:32.265612 19435 net.cpp:411] conv6_1_relu6_1_0_split -> conv6_1_relu6_1_0_split_2
I1013 03:34:32.265673 19435 net.cpp:150] Setting up conv6_1_relu6_1_0_split
I1013 03:34:32.265678 19435 net.cpp:157] Top shape: 4 512 18 18 (663552)
I1013 03:34:32.265682 19435 net.cpp:157] Top shape: 4 512 18 18 (663552)
I1013 03:34:32.265686 19435 net.cpp:157] Top shape: 4 512 18 18 (663552)
I1013 03:34:32.265687 19435 net.cpp:165] Memory required for data: 3351977072
I1013 03:34:32.265691 19435 layer_factory.hpp:76] Creating layer LFCN_3_3x5
I1013 03:34:32.265698 19435 net.cpp:106] Creating Layer LFCN_3_3x5
I1013 03:34:32.265702 19435 net.cpp:454] LFCN_3_3x5 <- conv6_1_relu6_1_0_split_0
I1013 03:34:32.265708 19435 net.cpp:411] LFCN_3_3x5 -> LFCN_3_3x5
I1013 03:34:32.268975 19435 net.cpp:150] Setting up LFCN_3_3x5
I1013 03:34:32.268988 19435 net.cpp:157] Top shape: 4 6 18 18 (7776)
I1013 03:34:32.268992 19435 net.cpp:165] Memory required for data: 3352008176
I1013 03:34:32.268998 19435 layer_factory.hpp:76] Creating layer LFCN_3_3x5_LFCN_3_3x5_0_split
I1013 03:34:32.269014 19435 net.cpp:106] Creating Layer LFCN_3_3x5_LFCN_3_3x5_0_split
I1013 03:34:32.269018 19435 net.cpp:454] LFCN_3_3x5_LFCN_3_3x5_0_split <- LFCN_3_3x5
I1013 03:34:32.269024 19435 net.cpp:411] LFCN_3_3x5_LFCN_3_3x5_0_split -> LFCN_3_3x5_LFCN_3_3x5_0_split_0
I1013 03:34:32.269032 19435 net.cpp:411] LFCN_3_3x5_LFCN_3_3x5_0_split -> LFCN_3_3x5_LFCN_3_3x5_0_split_1
I1013 03:34:32.269075 19435 net.cpp:150] Setting up LFCN_3_3x5_LFCN_3_3x5_0_split
I1013 03:34:32.269081 19435 net.cpp:157] Top shape: 4 6 18 18 (7776)
I1013 03:34:32.269085 19435 net.cpp:157] Top shape: 4 6 18 18 (7776)
I1013 03:34:32.269088 19435 net.cpp:165] Memory required for data: 3352070384
I1013 03:34:32.269090 19435 layer_factory.hpp:76] Creating layer detection_loss_3_3x5
I1013 03:34:32.269098 19435 net.cpp:106] Creating Layer detection_loss_3_3x5
I1013 03:34:32.269100 19435 net.cpp:454] detection_loss_3_3x5 <- LFCN_3_3x5_LFCN_3_3x5_0_split_0
I1013 03:34:32.269105 19435 net.cpp:454] detection_loss_3_3x5 <- label_3_3x5_data_5_split_0
I1013 03:34:32.269111 19435 net.cpp:411] detection_loss_3_3x5 -> loss_3_3x5
I1013 03:34:32.269119 19435 layer_factory.hpp:76] Creating layer detection_loss_3_3x5
I1013 03:34:32.269475 19435 net.cpp:150] Setting up detection_loss_3_3x5
I1013 03:34:32.269485 19435 net.cpp:157] Top shape: 1 1 1 2 (2)
I1013 03:34:32.269489 19435 net.cpp:160]     with loss weight 1
I1013 03:34:32.269496 19435 net.cpp:165] Memory required for data: 3352070392
I1013 03:34:32.269500 19435 layer_factory.hpp:76] Creating layer detection_accuracy_3_3x5
I1013 03:34:32.269505 19435 net.cpp:106] Creating Layer detection_accuracy_3_3x5
I1013 03:34:32.269510 19435 net.cpp:454] detection_accuracy_3_3x5 <- LFCN_3_3x5_LFCN_3_3x5_0_split_1
I1013 03:34:32.269513 19435 net.cpp:454] detection_accuracy_3_3x5 <- label_3_3x5_data_5_split_1
I1013 03:34:32.269520 19435 net.cpp:411] detection_accuracy_3_3x5 -> accuracy_3_3x5
I1013 03:34:32.269527 19435 net.cpp:411] detection_accuracy_3_3x5 -> boxiou_3_3x5
I1013 03:34:32.269567 19435 net.cpp:150] Setting up detection_accuracy_3_3x5
I1013 03:34:32.269573 19435 net.cpp:157] Top shape: 1 1 1 2 (2)
I1013 03:34:32.269577 19435 net.cpp:157] Top shape: 1 1 1 1 (1)
I1013 03:34:32.269579 19435 net.cpp:165] Memory required for data: 3352070404
I1013 03:34:32.269582 19435 layer_factory.hpp:76] Creating layer LFCN_3_5x7
I1013 03:34:32.269588 19435 net.cpp:106] Creating Layer LFCN_3_5x7
I1013 03:34:32.269593 19435 net.cpp:454] LFCN_3_5x7 <- conv6_1_relu6_1_0_split_1
I1013 03:34:32.269598 19435 net.cpp:411] LFCN_3_5x7 -> LFCN_3_5x7
I1013 03:34:32.275002 19435 net.cpp:150] Setting up LFCN_3_5x7
I1013 03:34:32.275018 19435 net.cpp:157] Top shape: 4 6 18 18 (7776)
I1013 03:34:32.275022 19435 net.cpp:165] Memory required for data: 3352101508
I1013 03:34:32.275027 19435 layer_factory.hpp:76] Creating layer LFCN_3_5x7_LFCN_3_5x7_0_split
I1013 03:34:32.275033 19435 net.cpp:106] Creating Layer LFCN_3_5x7_LFCN_3_5x7_0_split
I1013 03:34:32.275037 19435 net.cpp:454] LFCN_3_5x7_LFCN_3_5x7_0_split <- LFCN_3_5x7
I1013 03:34:32.275043 19435 net.cpp:411] LFCN_3_5x7_LFCN_3_5x7_0_split -> LFCN_3_5x7_LFCN_3_5x7_0_split_0
I1013 03:34:32.275048 19435 net.cpp:411] LFCN_3_5x7_LFCN_3_5x7_0_split -> LFCN_3_5x7_LFCN_3_5x7_0_split_1
I1013 03:34:32.275094 19435 net.cpp:150] Setting up LFCN_3_5x7_LFCN_3_5x7_0_split
I1013 03:34:32.275101 19435 net.cpp:157] Top shape: 4 6 18 18 (7776)
I1013 03:34:32.275104 19435 net.cpp:157] Top shape: 4 6 18 18 (7776)
I1013 03:34:32.275107 19435 net.cpp:165] Memory required for data: 3352163716
I1013 03:34:32.275110 19435 layer_factory.hpp:76] Creating layer detection_loss_3_5x7
I1013 03:34:32.275118 19435 net.cpp:106] Creating Layer detection_loss_3_5x7
I1013 03:34:32.275121 19435 net.cpp:454] detection_loss_3_5x7 <- LFCN_3_5x7_LFCN_3_5x7_0_split_0
I1013 03:34:32.275125 19435 net.cpp:454] detection_loss_3_5x7 <- label_3_5x7_data_6_split_0
I1013 03:34:32.275130 19435 net.cpp:411] detection_loss_3_5x7 -> loss_3_5x7
I1013 03:34:32.275137 19435 layer_factory.hpp:76] Creating layer detection_loss_3_5x7
I1013 03:34:32.275681 19435 net.cpp:150] Setting up detection_loss_3_5x7
I1013 03:34:32.275693 19435 net.cpp:157] Top shape: 1 1 1 2 (2)
I1013 03:34:32.275696 19435 net.cpp:160]     with loss weight 1
I1013 03:34:32.275702 19435 net.cpp:165] Memory required for data: 3352163724
I1013 03:34:32.275705 19435 layer_factory.hpp:76] Creating layer detection_accuracy_3_5x7
I1013 03:34:32.275712 19435 net.cpp:106] Creating Layer detection_accuracy_3_5x7
I1013 03:34:32.275715 19435 net.cpp:454] detection_accuracy_3_5x7 <- LFCN_3_5x7_LFCN_3_5x7_0_split_1
I1013 03:34:32.275719 19435 net.cpp:454] detection_accuracy_3_5x7 <- label_3_5x7_data_6_split_1
I1013 03:34:32.275727 19435 net.cpp:411] detection_accuracy_3_5x7 -> accuracy_3_5x7
I1013 03:34:32.275733 19435 net.cpp:411] detection_accuracy_3_5x7 -> boxiou_3_5x7
I1013 03:34:32.275776 19435 net.cpp:150] Setting up detection_accuracy_3_5x7
I1013 03:34:32.275784 19435 net.cpp:157] Top shape: 1 1 1 2 (2)
I1013 03:34:32.275787 19435 net.cpp:157] Top shape: 1 1 1 1 (1)
I1013 03:34:32.275789 19435 net.cpp:165] Memory required for data: 3352163736
I1013 03:34:32.275792 19435 layer_factory.hpp:76] Creating layer pool6
I1013 03:34:32.275799 19435 net.cpp:106] Creating Layer pool6
I1013 03:34:32.275802 19435 net.cpp:454] pool6 <- conv6_1_relu6_1_0_split_2
I1013 03:34:32.275809 19435 net.cpp:411] pool6 -> pool6
I1013 03:34:32.276021 19435 net.cpp:150] Setting up pool6
I1013 03:34:32.276031 19435 net.cpp:157] Top shape: 4 512 9 9 (165888)
I1013 03:34:32.276033 19435 net.cpp:165] Memory required for data: 3352827288
I1013 03:34:32.276036 19435 layer_factory.hpp:76] Creating layer LFCN_4_3x5
I1013 03:34:32.276046 19435 net.cpp:106] Creating Layer LFCN_4_3x5
I1013 03:34:32.276049 19435 net.cpp:454] LFCN_4_3x5 <- pool6
I1013 03:34:32.276057 19435 net.cpp:411] LFCN_4_3x5 -> LFCN_4_3x5
I1013 03:34:32.278738 19435 net.cpp:150] Setting up LFCN_4_3x5
I1013 03:34:32.278753 19435 net.cpp:157] Top shape: 4 6 9 9 (1944)
I1013 03:34:32.278755 19435 net.cpp:165] Memory required for data: 3352835064
I1013 03:34:32.278761 19435 layer_factory.hpp:76] Creating layer LFCN_4_3x5_LFCN_4_3x5_0_split
I1013 03:34:32.278766 19435 net.cpp:106] Creating Layer LFCN_4_3x5_LFCN_4_3x5_0_split
I1013 03:34:32.278770 19435 net.cpp:454] LFCN_4_3x5_LFCN_4_3x5_0_split <- LFCN_4_3x5
I1013 03:34:32.278779 19435 net.cpp:411] LFCN_4_3x5_LFCN_4_3x5_0_split -> LFCN_4_3x5_LFCN_4_3x5_0_split_0
I1013 03:34:32.278785 19435 net.cpp:411] LFCN_4_3x5_LFCN_4_3x5_0_split -> LFCN_4_3x5_LFCN_4_3x5_0_split_1
I1013 03:34:32.278833 19435 net.cpp:150] Setting up LFCN_4_3x5_LFCN_4_3x5_0_split
I1013 03:34:32.278843 19435 net.cpp:157] Top shape: 4 6 9 9 (1944)
I1013 03:34:32.278847 19435 net.cpp:157] Top shape: 4 6 9 9 (1944)
I1013 03:34:32.278849 19435 net.cpp:165] Memory required for data: 3352850616
I1013 03:34:32.278852 19435 layer_factory.hpp:76] Creating layer detection_loss_4_3x5
I1013 03:34:32.278857 19435 net.cpp:106] Creating Layer detection_loss_4_3x5
I1013 03:34:32.278861 19435 net.cpp:454] detection_loss_4_3x5 <- LFCN_4_3x5_LFCN_4_3x5_0_split_0
I1013 03:34:32.278865 19435 net.cpp:454] detection_loss_4_3x5 <- label_4_3x5_data_7_split_0
I1013 03:34:32.278872 19435 net.cpp:411] detection_loss_4_3x5 -> loss_4_3x5
I1013 03:34:32.278878 19435 layer_factory.hpp:76] Creating layer detection_loss_4_3x5
I1013 03:34:32.279438 19435 net.cpp:150] Setting up detection_loss_4_3x5
I1013 03:34:32.279453 19435 net.cpp:157] Top shape: 1 1 1 2 (2)
I1013 03:34:32.279456 19435 net.cpp:160]     with loss weight 1
I1013 03:34:32.279462 19435 net.cpp:165] Memory required for data: 3352850624
I1013 03:34:32.279465 19435 layer_factory.hpp:76] Creating layer detection_accuracy_4_3x5
I1013 03:34:32.279471 19435 net.cpp:106] Creating Layer detection_accuracy_4_3x5
I1013 03:34:32.279475 19435 net.cpp:454] detection_accuracy_4_3x5 <- LFCN_4_3x5_LFCN_4_3x5_0_split_1
I1013 03:34:32.279479 19435 net.cpp:454] detection_accuracy_4_3x5 <- label_4_3x5_data_7_split_1
I1013 03:34:32.279484 19435 net.cpp:411] detection_accuracy_4_3x5 -> accuracy_4_3x5
I1013 03:34:32.279491 19435 net.cpp:411] detection_accuracy_4_3x5 -> boxiou_4_3x5
I1013 03:34:32.279536 19435 net.cpp:150] Setting up detection_accuracy_4_3x5
I1013 03:34:32.279541 19435 net.cpp:157] Top shape: 1 1 1 2 (2)
I1013 03:34:32.279543 19435 net.cpp:157] Top shape: 1 1 1 1 (1)
I1013 03:34:32.279546 19435 net.cpp:165] Memory required for data: 3352850636
I1013 03:34:32.279549 19435 net.cpp:228] detection_accuracy_4_3x5 does not need backward computation.
I1013 03:34:32.279552 19435 net.cpp:226] detection_loss_4_3x5 needs backward computation.
I1013 03:34:32.279556 19435 net.cpp:226] LFCN_4_3x5_LFCN_4_3x5_0_split needs backward computation.
I1013 03:34:32.279558 19435 net.cpp:226] LFCN_4_3x5 needs backward computation.
…
I1013 03:34:32.534196 19435 image_gt_data_layer.cpp:234] output label size 1 : 2,6,72,72
I1013 03:34:32.534272 19435 image_gt_data_layer.cpp:234] output label size 2 : 2,6,36,36
I1013 03:34:32.534363 19435 image_gt_data_layer.cpp:234] output label size 3 : 2,6,36,36
I1013 03:34:32.534453 19435 image_gt_data_layer.cpp:234] output label size 4 : 2,6,18,18
I1013 03:34:32.534538 19435 image_gt_data_layer.cpp:234] output label size 5 : 2,6,18,18
I1013 03:34:32.534611 19435 image_gt_data_layer.cpp:234] output label size 6 : 2,6,9,9
I1013 03:34:32.551128 19435 net.cpp:150] Setting up data
I1013 03:34:32.551158 19435 net.cpp:157] Top shape: 2 3 576 576 (1990656)
I1013 03:34:32.551167 19435 net.cpp:157] Top shape: 2 6 72 72 (62208)
I1013 03:34:32.551172 19435 net.cpp:157] Top shape: 2 6 72 72 (62208)
I1013 03:34:32.551178 19435 net.cpp:157] Top shape: 2 6 36 36 (15552)
I1013 03:34:32.551183 19435 net.cpp:157] Top shape: 2 6 36 36 (15552)
I1013 03:34:32.551188 19435 net.cpp:157] Top shape: 2 6 18 18 (3888)
I1013 03:34:32.551193 19435 net.cpp:157] Top shape: 2 6 18 18 (3888)
I1013 03:34:32.551198 19435 net.cpp:157] Top shape: 2 6 9 9 (972)
I1013 03:34:32.551203 19435 net.cpp:165] Memory required for data: 8619696
I1013 03:34:32.551211 19435 layer_factory.hpp:76] Creating layer label_1_3x5_data_1_split
I1013 03:34:32.551228 19435 net.cpp:106] Creating Layer label_1_3x5_data_1_split
I1013 03:34:32.551234 19435 net.cpp:454] label_1_3x5_data_1_split <- label_1_3x5
I1013 03:34:32.551250 19435 net.cpp:411] label_1_3x5_data_1_split -> label_1_3x5_data_1_split_0
I1013 03:34:32.551266 19435 net.cpp:411] label_1_3x5_data_1_split -> label_1_3x5_data_1_split_1
I1013 03:34:32.551403 19435 net.cpp:150] Setting up label_1_3x5_data_1_split
I1013 03:34:32.551415 19435 net.cpp:157] Top shape: 2 6 72 72 (62208)
I1013 03:34:32.551422 19435 net.cpp:157] Top shape: 2 6 72 72 (62208)
I1013 03:34:32.551426 19435 net.cpp:165] Memory required for data: 9117360
I1013 03:34:32.551431 19435 layer_factory.hpp:76] Creating layer label_1_5x7_data_2_split
I1013 03:34:32.551440 19435 net.cpp:106] Creating Layer label_1_5x7_data_2_split
I1013 03:34:32.551446 19435 net.cpp:454] label_1_5x7_data_2_split <- label_1_5x7
I1013 03:34:32.551458 19435 net.cpp:411] label_1_5x7_data_2_split -> label_1_5x7_data_2_split_0
I1013 03:34:32.551468 19435 net.cpp:411] label_1_5x7_data_2_split -> label_1_5x7_data_2_split_1
I1013 03:34:32.551539 19435 net.cpp:150] Setting up label_1_5x7_data_2_split
I1013 03:34:32.551550 19435 net.cpp:157] Top shape: 2 6 72 72 (62208)
I1013 03:34:32.551556 19435 net.cpp:157] Top shape: 2 6 72 72 (62208)
I1013 03:34:32.551560 19435 net.cpp:165] Memory required for data: 9615024
I1013 03:34:32.551564 19435 layer_factory.hpp:76] Creating layer label_2_3x5_data_3_split
I1013 03:34:32.551573 19435 net.cpp:106] Creating Layer label_2_3x5_data_3_split
I1013 03:34:32.551578 19435 net.cpp:454] label_2_3x5_data_3_split <- label_2_3x5
I1013 03:34:32.551585 19435 net.cpp:411] label_2_3x5_data_3_split -> label_2_3x5_data_3_split_0
I1013 03:34:32.551596 19435 net.cpp:411] label_2_3x5_data_3_split -> label_2_3x5_data_3_split_1
I1013 03:34:32.551707 19435 net.cpp:150] Setting up label_2_3x5_data_3_split
I1013 03:34:32.551720 19435 net.cpp:157] Top shape: 2 6 36 36 (15552)
I1013 03:34:32.551728 19435 net.cpp:157] Top shape: 2 6 36 36 (15552)
I1013 03:34:32.551731 19435 net.cpp:165] Memory required for data: 9739440
I1013 03:34:32.551736 19435 layer_factory.hpp:76] Creating layer label_2_5x7_data_4_split
I1013 03:34:32.551748 19435 net.cpp:106] Creating Layer label_2_5x7_data_4_split
I1013 03:34:32.551754 19435 net.cpp:454] label_2_5x7_data_4_split <- label_2_5x7
I1013 03:34:32.551764 19435 net.cpp:411] label_2_5x7_data_4_split -> label_2_5x7_data_4_split_0
I1013 03:34:32.551785 19435 net.cpp:411] label_2_5x7_data_4_split -> label_2_5x7_data_4_split_1
I1013 03:34:32.551875 19435 net.cpp:150] Setting up label_2_5x7_data_4_split
I1013 03:34:32.551887 19435 net.cpp:157] Top shape: 2 6 36 36 (15552)
I1013 03:34:32.551893 19435 net.cpp:157] Top shape: 2 6 36 36 (15552)
I1013 03:34:32.551898 19435 net.cpp:165] Memory required for data: 9863856
I1013 03:34:32.551903 19435 layer_factory.hpp:76] Creating layer label_3_3x5_data_5_split
I1013 03:34:32.551910 19435 net.cpp:106] Creating Layer label_3_3x5_data_5_split
I1013 03:34:32.551915 19435 net.cpp:454] label_3_3x5_data_5_split <- label_3_3x5
I1013 03:34:32.551925 19435 net.cpp:411] label_3_3x5_data_5_split -> label_3_3x5_data_5_split_0
I1013 03:34:32.551936 19435 net.cpp:411] label_3_3x5_data_5_split -> label_3_3x5_data_5_split_1
I1013 03:34:32.552004 19435 net.cpp:150] Setting up label_3_3x5_data_5_split
I1013 03:34:32.552016 19435 net.cpp:157] Top shape: 2 6 18 18 (3888)
I1013 03:34:32.552022 19435 net.cpp:157] Top shape: 2 6 18 18 (3888)
I1013 03:34:32.552026 19435 net.cpp:165] Memory required for data: 9894960
I1013 03:34:32.552031 19435 layer_factory.hpp:76] Creating layer label_3_5x7_data_6_split
I1013 03:34:32.552038 19435 net.cpp:106] Creating Layer label_3_5x7_data_6_split
I1013 03:34:32.552043 19435 net.cpp:454] label_3_5x7_data_6_split <- label_3_5x7
I1013 03:34:32.552053 19435 net.cpp:411] label_3_5x7_data_6_split -> label_3_5x7_data_6_split_0
I1013 03:34:32.552063 19435 net.cpp:411] label_3_5x7_data_6_split -> label_3_5x7_data_6_split_1
I1013 03:34:32.552127 19435 net.cpp:150] Setting up label_3_5x7_data_6_split
I1013 03:34:32.552137 19435 net.cpp:157] Top shape: 2 6 18 18 (3888)
I1013 03:34:32.552144 19435 net.cpp:157] Top shape: 2 6 18 18 (3888)
I1013 03:34:32.552147 19435 net.cpp:165] Memory required for data: 9926064
I1013 03:34:32.552152 19435 layer_factory.hpp:76] Creating layer label_4_3x5_data_7_split
I1013 03:34:32.552162 19435 net.cpp:106] Creating Layer label_4_3x5_data_7_split
I1013 03:34:32.552167 19435 net.cpp:454] label_4_3x5_data_7_split <- label_4_3x5
I1013 03:34:32.552175 19435 net.cpp:411] label_4_3x5_data_7_split -> label_4_3x5_data_7_split_0
I1013 03:34:32.552182 19435 net.cpp:411] label_4_3x5_data_7_split -> label_4_3x5_data_7_split_1
I1013 03:34:32.552248 19435 net.cpp:150] Setting up label_4_3x5_data_7_split
I1013 03:34:32.552256 19435 net.cpp:157] Top shape: 2 6 9 9 (972)
I1013 03:34:32.552263 19435 net.cpp:157] Top shape: 2 6 9 9 (972)
I1013 03:34:32.552266 19435 net.cpp:165] Memory required for data: 9933840
I1013 03:34:32.552271 19435 layer_factory.hpp:76] Creating layer conv1_1
I1013 03:34:32.552284 19435 net.cpp:106] Creating Layer conv1_1
I1013 03:34:32.552289 19435 net.cpp:454] conv1_1 <- data
I1013 03:34:32.552299 19435 net.cpp:411] conv1_1 -> conv1_1
I1013 03:34:32.554478 19435 net.cpp:150] Setting up conv1_1
I1013 03:34:32.554493 19435 net.cpp:157] Top shape: 2 64 576 576 (42467328)
I1013 03:34:32.554499 19435 net.cpp:165] Memory required for data: 179803152
I1013 03:34:32.554517 19435 layer_factory.hpp:76] Creating layer relu1_1
I1013 03:34:32.554527 19435 net.cpp:106] Creating Layer relu1_1
I1013 03:34:32.554532 19435 net.cpp:454] relu1_1 <- conv1_1
I1013 03:34:32.554541 19435 net.cpp:397] relu1_1 -> conv1_1 (in-place)
I1013 03:34:32.555766 19435 net.cpp:150] Setting up relu1_1
I1013 03:34:32.555783 19435 net.cpp:157] Top shape: 2 64 576 576 (42467328)
I1013 03:34:32.555788 19435 net.cpp:165] Memory required for data: 349672464
I1013 03:34:32.555794 19435 layer_factory.hpp:76] Creating layer conv1_2
I1013 03:34:32.555806 19435 net.cpp:106] Creating Layer conv1_2
I1013 03:34:32.555812 19435 net.cpp:454] conv1_2 <- conv1_1
I1013 03:34:32.555824 19435 net.cpp:411] conv1_2 -> conv1_2
I1013 03:34:32.558451 19435 net.cpp:150] Setting up conv1_2
I1013 03:34:32.558470 19435 net.cpp:157] Top shape: 2 64 576 576 (42467328)
I1013 03:34:32.558475 19435 net.cpp:165] Memory required for data: 519541776
I1013 03:34:32.558491 19435 layer_factory.hpp:76] Creating layer relu1_2
I1013 03:34:32.558502 19435 net.cpp:106] Creating Layer relu1_2
I1013 03:34:32.558508 19435 net.cpp:454] relu1_2 <- conv1_2
I1013 03:34:32.558518 19435 net.cpp:397] relu1_2 -> conv1_2 (in-place)
I1013 03:34:32.558746 19435 net.cpp:150] Setting up relu1_2
I1013 03:34:32.558760 19435 net.cpp:157] Top shape: 2 64 576 576 (42467328)
I1013 03:34:32.558765 19435 net.cpp:165] Memory required for data: 689411088
I1013 03:34:32.558771 19435 layer_factory.hpp:76] Creating layer pool1
I1013 03:34:32.558786 19435 net.cpp:106] Creating Layer pool1
I1013 03:34:32.558792 19435 net.cpp:454] pool1 <- conv1_2
I1013 03:34:32.558800 19435 net.cpp:411] pool1 -> pool1
I1013 03:34:32.559350 19435 net.cpp:150] Setting up pool1
I1013 03:34:32.559365 19435 net.cpp:157] Top shape: 2 64 288 288 (10616832)
I1013 03:34:32.559370 19435 net.cpp:165] Memory required for data: 731878416
I1013 03:34:32.559376 19435 layer_factory.hpp:76] Creating layer conv2_1
I1013 03:34:32.559387 19435 net.cpp:106] Creating Layer conv2_1
I1013 03:34:32.559393 19435 net.cpp:454] conv2_1 <- pool1
I1013 03:34:32.559404 19435 net.cpp:411] conv2_1 -> conv2_1
I1013 03:34:32.560799 19435 net.cpp:150] Setting up conv2_1
I1013 03:34:32.560816 19435 net.cpp:157] Top shape: 2 128 288 288 (21233664)
I1013 03:34:32.560822 19435 net.cpp:165] Memory required for data: 816813072
I1013 03:34:32.560835 19435 layer_factory.hpp:76] Creating layer relu2_1
I1013 03:34:32.560847 19435 net.cpp:106] Creating Layer relu2_1
I1013 03:34:32.560853 19435 net.cpp:454] relu2_1 <- conv2_1
I1013 03:34:32.560861 19435 net.cpp:397] relu2_1 -> conv2_1 (in-place)
I1013 03:34:32.561092 19435 net.cpp:150] Setting up relu2_1
I1013 03:34:32.561105 19435 net.cpp:157] Top shape: 2 128 288 288 (21233664)
I1013 03:34:32.561110 19435 net.cpp:165] Memory required for data: 901747728
I1013 03:34:32.561116 19435 layer_factory.hpp:76] Creating layer conv2_2
I1013 03:34:32.561128 19435 net.cpp:106] Creating Layer conv2_2
I1013 03:34:32.561134 19435 net.cpp:454] conv2_2 <- conv2_1
I1013 03:34:32.561142 19435 net.cpp:411] conv2_2 -> conv2_2
I1013 03:34:32.563136 19435 net.cpp:150] Setting up conv2_2
I1013 03:34:32.563158 19435 net.cpp:157] Top shape: 2 128 288 288 (21233664)
I1013 03:34:32.563166 19435 net.cpp:165] Memory required for data: 986682384
I1013 03:34:32.563177 19435 layer_factory.hpp:76] Creating layer relu2_2
I1013 03:34:32.563189 19435 net.cpp:106] Creating Layer relu2_2
I1013 03:34:32.563195 19435 net.cpp:454] relu2_2 <- conv2_2
I1013 03:34:32.563204 19435 net.cpp:397] relu2_2 -> conv2_2 (in-place)
I1013 03:34:32.563637 19435 net.cpp:150] Setting up relu2_2
I1013 03:34:32.563650 19435 net.cpp:157] Top shape: 2 128 288 288 (21233664)
I1013 03:34:32.563655 19435 net.cpp:165] Memory required for data: 1071617040
I1013 03:34:32.563662 19435 layer_factory.hpp:76] Creating layer pool2
I1013 03:34:32.563670 19435 net.cpp:106] Creating Layer pool2
I1013 03:34:32.563676 19435 net.cpp:454] pool2 <- conv2_2
I1013 03:34:32.563688 19435 net.cpp:411] pool2 -> pool2
I1013 03:34:32.563941 19435 net.cpp:150] Setting up pool2
I1013 03:34:32.563954 19435 net.cpp:157] Top shape: 2 128 144 144 (5308416)
I1013 03:34:32.563959 19435 net.cpp:165] Memory required for data: 1092850704
I1013 03:34:32.563964 19435 layer_factory.hpp:76] Creating layer conv3_1
I1013 03:34:32.563977 19435 net.cpp:106] Creating Layer conv3_1
I1013 03:34:32.563982 19435 net.cpp:454] conv3_1 <- pool2
I1013 03:34:32.563992 19435 net.cpp:411] conv3_1 -> conv3_1
I1013 03:34:32.566038 19435 net.cpp:150] Setting up conv3_1
I1013 03:34:32.566053 19435 net.cpp:157] Top shape: 2 256 144 144 (10616832)
I1013 03:34:32.566059 19435 net.cpp:165] Memory required for data: 1135318032
I1013 03:34:32.566073 19435 layer_factory.hpp:76] Creating layer relu3_1
I1013 03:34:32.566083 19435 net.cpp:106] Creating Layer relu3_1
I1013 03:34:32.566088 19435 net.cpp:454] relu3_1 <- conv3_1
I1013 03:34:32.566099 19435 net.cpp:397] relu3_1 -> conv3_1 (in-place)
I1013 03:34:32.566323 19435 net.cpp:150] Setting up relu3_1
I1013 03:34:32.566335 19435 net.cpp:157] Top shape: 2 256 144 144 (10616832)
I1013 03:34:32.566340 19435 net.cpp:165] Memory required for data: 1177785360
I1013 03:34:32.566345 19435 layer_factory.hpp:76] Creating layer conv3_2
I1013 03:34:32.566355 19435 net.cpp:106] Creating Layer conv3_2
I1013 03:34:32.566360 19435 net.cpp:454] conv3_2 <- conv3_1
I1013 03:34:32.566371 19435 net.cpp:411] conv3_2 -> conv3_2
I1013 03:34:32.569103 19435 net.cpp:150] Setting up conv3_2
I1013 03:34:32.569119 19435 net.cpp:157] Top shape: 2 256 144 144 (10616832)
I1013 03:34:32.569125 19435 net.cpp:165] Memory required for data: 1220252688
I1013 03:34:32.569135 19435 layer_factory.hpp:76] Creating layer relu3_2
I1013 03:34:32.569162 19435 net.cpp:106] Creating Layer relu3_2
I1013 03:34:32.569175 19435 net.cpp:454] relu3_2 <- conv3_2
I1013 03:34:32.569185 19435 net.cpp:397] relu3_2 -> conv3_2 (in-place)
I1013 03:34:32.569603 19435 net.cpp:150] Setting up relu3_2
I1013 03:34:32.569618 19435 net.cpp:157] Top shape: 2 256 144 144 (10616832)
I1013 03:34:32.569623 19435 net.cpp:165] Memory required for data: 1262720016
I1013 03:34:32.569628 19435 layer_factory.hpp:76] Creating layer conv3_3
I1013 03:34:32.569646 19435 net.cpp:106] Creating Layer conv3_3
I1013 03:34:32.569653 19435 net.cpp:454] conv3_3 <- conv3_2
I1013 03:34:32.569661 19435 net.cpp:411] conv3_3 -> conv3_3
I1013 03:34:32.572950 19435 net.cpp:150] Setting up conv3_3
I1013 03:34:32.572968 19435 net.cpp:157] Top shape: 2 256 144 144 (10616832)
I1013 03:34:32.572973 19435 net.cpp:165] Memory required for data: 1305187344
I1013 03:34:32.572984 19435 layer_factory.hpp:76] Creating layer relu3_3
I1013 03:34:32.572993 19435 net.cpp:106] Creating Layer relu3_3
I1013 03:34:32.572999 19435 net.cpp:454] relu3_3 <- conv3_3
I1013 03:34:32.573010 19435 net.cpp:397] relu3_3 -> conv3_3 (in-place)
I1013 03:34:32.573261 19435 net.cpp:150] Setting up relu3_3
I1013 03:34:32.573276 19435 net.cpp:157] Top shape: 2 256 144 144 (10616832)
I1013 03:34:32.573281 19435 net.cpp:165] Memory required for data: 1347654672
I1013 03:34:32.573287 19435 layer_factory.hpp:76] Creating layer pool3
I1013 03:34:32.573295 19435 net.cpp:106] Creating Layer pool3
I1013 03:34:32.573300 19435 net.cpp:454] pool3 <- conv3_3
I1013 03:34:32.573310 19435 net.cpp:411] pool3 -> pool3
I1013 03:34:32.573784 19435 net.cpp:150] Setting up pool3
I1013 03:34:32.573799 19435 net.cpp:157] Top shape: 2 256 72 72 (2654208)
I1013 03:34:32.573806 19435 net.cpp:165] Memory required for data: 1358271504
I1013 03:34:32.573810 19435 layer_factory.hpp:76] Creating layer conv4_1
I1013 03:34:32.573823 19435 net.cpp:106] Creating Layer conv4_1
I1013 03:34:32.573829 19435 net.cpp:454] conv4_1 <- pool3
I1013 03:34:32.573838 19435 net.cpp:411] conv4_1 -> conv4_1
I1013 03:34:32.577576 19435 net.cpp:150] Setting up conv4_1
I1013 03:34:32.577595 19435 net.cpp:157] Top shape: 2 512 72 72 (5308416)
I1013 03:34:32.577600 19435 net.cpp:165] Memory required for data: 1379505168
I1013 03:34:32.577610 19435 layer_factory.hpp:76] Creating layer relu4_1
I1013 03:34:32.577620 19435 net.cpp:106] Creating Layer relu4_1
I1013 03:34:32.577625 19435 net.cpp:454] relu4_1 <- conv4_1
I1013 03:34:32.577636 19435 net.cpp:397] relu4_1 -> conv4_1 (in-place)
I1013 03:34:32.578240 19435 net.cpp:150] Setting up relu4_1
I1013 03:34:32.578255 19435 net.cpp:157] Top shape: 2 512 72 72 (5308416)
I1013 03:34:32.578261 19435 net.cpp:165] Memory required for data: 1400738832
I1013 03:34:32.578266 19435 layer_factory.hpp:76] Creating layer conv4_2
I1013 03:34:32.578281 19435 net.cpp:106] Creating Layer conv4_2
I1013 03:34:32.578289 19435 net.cpp:454] conv4_2 <- conv4_1
I1013 03:34:32.578297 19435 net.cpp:411] conv4_2 -> conv4_2
I1013 03:34:32.584539 19435 net.cpp:150] Setting up conv4_2
I1013 03:34:32.584558 19435 net.cpp:157] Top shape: 2 512 72 72 (5308416)
I1013 03:34:32.584563 19435 net.cpp:165] Memory required for data: 1421972496
I1013 03:34:32.584583 19435 layer_factory.hpp:76] Creating layer relu4_2
I1013 03:34:32.584594 19435 net.cpp:106] Creating Layer relu4_2
I1013 03:34:32.584599 19435 net.cpp:454] relu4_2 <- conv4_2
I1013 03:34:32.584607 19435 net.cpp:397] relu4_2 -> conv4_2 (in-place)
I1013 03:34:32.584837 19435 net.cpp:150] Setting up relu4_2
I1013 03:34:32.584851 19435 net.cpp:157] Top shape: 2 512 72 72 (5308416)
I1013 03:34:32.584856 19435 net.cpp:165] Memory required for data: 1443206160
I1013 03:34:32.584861 19435 layer_factory.hpp:76] Creating layer conv4_3
I1013 03:34:32.584873 19435 net.cpp:106] Creating Layer conv4_3
I1013 03:34:32.584879 19435 net.cpp:454] conv4_3 <- conv4_2
I1013 03:34:32.584887 19435 net.cpp:411] conv4_3 -> conv4_3
I1013 03:34:32.592038 19435 net.cpp:150] Setting up conv4_3
I1013 03:34:32.592059 19435 net.cpp:157] Top shape: 2 512 72 72 (5308416)
I1013 03:34:32.592064 19435 net.cpp:165] Memory required for data: 1464439824
I1013 03:34:32.592075 19435 layer_factory.hpp:76] Creating layer relu4_3
I1013 03:34:32.592084 19435 net.cpp:106] Creating Layer relu4_3
I1013 03:34:32.592092 19435 net.cpp:454] relu4_3 <- conv4_3
I1013 03:34:32.592103 19435 net.cpp:397] relu4_3 -> conv4_3 (in-place)
I1013 03:34:32.592511 19435 net.cpp:150] Setting up relu4_3
I1013 03:34:32.592526 19435 net.cpp:157] Top shape: 2 512 72 72 (5308416)
I1013 03:34:32.592531 19435 net.cpp:165] Memory required for data: 1485673488
I1013 03:34:32.592537 19435 layer_factory.hpp:76] Creating layer conv4_3_relu4_3_0_split
I1013 03:34:32.592546 19435 net.cpp:106] Creating Layer conv4_3_relu4_3_0_split
I1013 03:34:32.592552 19435 net.cpp:454] conv4_3_relu4_3_0_split <- conv4_3
I1013 03:34:32.592563 19435 net.cpp:411] conv4_3_relu4_3_0_split -> conv4_3_relu4_3_0_split_0
I1013 03:34:32.592574 19435 net.cpp:411] conv4_3_relu4_3_0_split -> conv4_3_relu4_3_0_split_1
I1013 03:34:32.592661 19435 net.cpp:150] Setting up conv4_3_relu4_3_0_split
I1013 03:34:32.592672 19435 net.cpp:157] Top shape: 2 512 72 72 (5308416)
I1013 03:34:32.592679 19435 net.cpp:157] Top shape: 2 512 72 72 (5308416)
I1013 03:34:32.592684 19435 net.cpp:165] Memory required for data: 1528140816
I1013 03:34:32.592689 19435 layer_factory.hpp:76] Creating layer loss1_conv1
I1013 03:34:32.592710 19435 net.cpp:106] Creating Layer loss1_conv1
I1013 03:34:32.592715 19435 net.cpp:454] loss1_conv1 <- conv4_3_relu4_3_0_split_0
I1013 03:34:32.592727 19435 net.cpp:411] loss1_conv1 -> loss1_conv1
I1013 03:34:32.674334 19435 net.cpp:150] Setting up loss1_conv1
I1013 03:34:32.674365 19435 net.cpp:157] Top shape: 2 512 72 72 (5308416)
I1013 03:34:32.674370 19435 net.cpp:165] Memory required for data: 1549374480
I1013 03:34:32.674381 19435 layer_factory.hpp:76] Creating layer loss_relu1
I1013 03:34:32.674404 19435 net.cpp:106] Creating Layer loss_relu1
I1013 03:34:32.674412 19435 net.cpp:454] loss_relu1 <- loss1_conv1
I1013 03:34:32.674422 19435 net.cpp:397] loss_relu1 -> loss1_conv1 (in-place)
I1013 03:34:32.674826 19435 net.cpp:150] Setting up loss_relu1
I1013 03:34:32.674842 19435 net.cpp:157] Top shape: 2 512 72 72 (5308416)
I1013 03:34:32.674847 19435 net.cpp:165] Memory required for data: 1570608144
I1013 03:34:32.674854 19435 layer_factory.hpp:76] Creating layer loss1_conv1_loss_relu1_0_split
I1013 03:34:32.674862 19435 net.cpp:106] Creating Layer loss1_conv1_loss_relu1_0_split
I1013 03:34:32.674867 19435 net.cpp:454] loss1_conv1_loss_relu1_0_split <- loss1_conv1
I1013 03:34:32.674875 19435 net.cpp:411] loss1_conv1_loss_relu1_0_split -> loss1_conv1_loss_relu1_0_split_0
I1013 03:34:32.674896 19435 net.cpp:411] loss1_conv1_loss_relu1_0_split -> loss1_conv1_loss_relu1_0_split_1
I1013 03:34:32.674979 19435 net.cpp:150] Setting up loss1_conv1_loss_relu1_0_split
I1013 03:34:32.674990 19435 net.cpp:157] Top shape: 2 512 72 72 (5308416)
I1013 03:34:32.674996 19435 net.cpp:157] Top shape: 2 512 72 72 (5308416)
I1013 03:34:32.675001 19435 net.cpp:165] Memory required for data: 1613075472
I1013 03:34:32.675006 19435 layer_factory.hpp:76] Creating layer LFCN_1_3x5
I1013 03:34:32.675020 19435 net.cpp:106] Creating Layer LFCN_1_3x5
I1013 03:34:32.675026 19435 net.cpp:454] LFCN_1_3x5 <- loss1_conv1_loss_relu1_0_split_0
I1013 03:34:32.675038 19435 net.cpp:411] LFCN_1_3x5 -> LFCN_1_3x5
I1013 03:34:32.677829 19435 net.cpp:150] Setting up LFCN_1_3x5
I1013 03:34:32.677845 19435 net.cpp:157] Top shape: 2 6 72 72 (62208)
I1013 03:34:32.677850 19435 net.cpp:165] Memory required for data: 1613324304
I1013 03:34:32.677860 19435 layer_factory.hpp:76] Creating layer LFCN_1_3x5_LFCN_1_3x5_0_split
I1013 03:34:32.677871 19435 net.cpp:106] Creating Layer LFCN_1_3x5_LFCN_1_3x5_0_split
I1013 03:34:32.677878 19435 net.cpp:454] LFCN_1_3x5_LFCN_1_3x5_0_split <- LFCN_1_3x5
I1013 03:34:32.677886 19435 net.cpp:411] LFCN_1_3x5_LFCN_1_3x5_0_split -> LFCN_1_3x5_LFCN_1_3x5_0_split_0
I1013 03:34:32.677897 19435 net.cpp:411] LFCN_1_3x5_LFCN_1_3x5_0_split -> LFCN_1_3x5_LFCN_1_3x5_0_split_1
I1013 03:34:32.677973 19435 net.cpp:150] Setting up LFCN_1_3x5_LFCN_1_3x5_0_split
I1013 03:34:32.677983 19435 net.cpp:157] Top shape: 2 6 72 72 (62208)
I1013 03:34:32.677990 19435 net.cpp:157] Top shape: 2 6 72 72 (62208)
I1013 03:34:32.677994 19435 net.cpp:165] Memory required for data: 1613821968
I1013 03:34:32.677999 19435 layer_factory.hpp:76] Creating layer detection_loss_1_3x5
I1013 03:34:32.678009 19435 net.cpp:106] Creating Layer detection_loss_1_3x5
I1013 03:34:32.678014 19435 net.cpp:454] detection_loss_1_3x5 <- LFCN_1_3x5_LFCN_1_3x5_0_split_0
I1013 03:34:32.678022 19435 net.cpp:454] detection_loss_1_3x5 <- label_1_3x5_data_1_split_0
I1013 03:34:32.678031 19435 net.cpp:411] detection_loss_1_3x5 -> loss_1_3x5
I1013 03:34:32.678045 19435 layer_factory.hpp:76] Creating layer detection_loss_1_3x5
I1013 03:34:32.678495 19435 net.cpp:150] Setting up detection_loss_1_3x5
I1013 03:34:32.678509 19435 net.cpp:157] Top shape: 1 1 1 2 (2)
I1013 03:34:32.678514 19435 net.cpp:160]     with loss weight 0.9
I1013 03:34:32.678534 19435 net.cpp:165] Memory required for data: 1613821976
I1013 03:34:32.678539 19435 layer_factory.hpp:76] Creating layer detection_accuracy_1_3x5
I1013 03:34:32.678550 19435 net.cpp:106] Creating Layer detection_accuracy_1_3x5
I1013 03:34:32.678555 19435 net.cpp:454] detection_accuracy_1_3x5 <- LFCN_1_3x5_LFCN_1_3x5_0_split_1
I1013 03:34:32.678562 19435 net.cpp:454] detection_accuracy_1_3x5 <- label_1_3x5_data_1_split_1
I1013 03:34:32.678573 19435 net.cpp:411] detection_accuracy_1_3x5 -> accuracy_1_3x5
I1013 03:34:32.678584 19435 net.cpp:411] detection_accuracy_1_3x5 -> boxiou_1_3x5
I1013 03:34:32.678653 19435 net.cpp:150] Setting up detection_accuracy_1_3x5
I1013 03:34:32.678664 19435 net.cpp:157] Top shape: 1 1 1 2 (2)
I1013 03:34:32.678670 19435 net.cpp:157] Top shape: 1 1 1 1 (1)
I1013 03:34:32.678675 19435 net.cpp:165] Memory required for data: 1613821988
I1013 03:34:32.678680 19435 layer_factory.hpp:76] Creating layer LFCN_1_5x7
I1013 03:34:32.678690 19435 net.cpp:106] Creating Layer LFCN_1_5x7
I1013 03:34:32.678696 19435 net.cpp:454] LFCN_1_5x7 <- loss1_conv1_loss_relu1_0_split_1
I1013 03:34:32.678709 19435 net.cpp:411] LFCN_1_5x7 -> LFCN_1_5x7
I1013 03:34:32.683954 19435 net.cpp:150] Setting up LFCN_1_5x7
I1013 03:34:32.683971 19435 net.cpp:157] Top shape: 2 6 72 72 (62208)
I1013 03:34:32.683976 19435 net.cpp:165] Memory required for data: 1614070820
I1013 03:34:32.683986 19435 layer_factory.hpp:76] Creating layer LFCN_1_5x7_LFCN_1_5x7_0_split
I1013 03:34:32.683998 19435 net.cpp:106] Creating Layer LFCN_1_5x7_LFCN_1_5x7_0_split
I1013 03:34:32.684005 19435 net.cpp:454] LFCN_1_5x7_LFCN_1_5x7_0_split <- LFCN_1_5x7
I1013 03:34:32.684015 19435 net.cpp:411] LFCN_1_5x7_LFCN_1_5x7_0_split -> LFCN_1_5x7_LFCN_1_5x7_0_split_0
I1013 03:34:32.684026 19435 net.cpp:411] LFCN_1_5x7_LFCN_1_5x7_0_split -> LFCN_1_5x7_LFCN_1_5x7_0_split_1
I1013 03:34:32.684093 19435 net.cpp:150] Setting up LFCN_1_5x7_LFCN_1_5x7_0_split
I1013 03:34:32.684104 19435 net.cpp:157] Top shape: 2 6 72 72 (62208)
I1013 03:34:32.684113 19435 net.cpp:157] Top shape: 2 6 72 72 (62208)
I1013 03:34:32.684118 19435 net.cpp:165] Memory required for data: 1614568484
I1013 03:34:32.684123 19435 layer_factory.hpp:76] Creating layer detection_loss_1_5x7
I1013 03:34:32.684131 19435 net.cpp:106] Creating Layer detection_loss_1_5x7
I1013 03:34:32.684136 19435 net.cpp:454] detection_loss_1_5x7 <- LFCN_1_5x7_LFCN_1_5x7_0_split_0
I1013 03:34:32.684144 19435 net.cpp:454] detection_loss_1_5x7 <- label_1_5x7_data_2_split_0
I1013 03:34:32.684155 19435 net.cpp:411] detection_loss_1_5x7 -> loss_1_5x7
I1013 03:34:32.684167 19435 layer_factory.hpp:76] Creating layer detection_loss_1_5x7
I1013 03:34:32.684798 19435 net.cpp:150] Setting up detection_loss_1_5x7
I1013 03:34:32.684813 19435 net.cpp:157] Top shape: 1 1 1 2 (2)
I1013 03:34:32.684819 19435 net.cpp:160]     with loss weight 0.9
I1013 03:34:32.684828 19435 net.cpp:165] Memory required for data: 1614568492
I1013 03:34:32.684834 19435 layer_factory.hpp:76] Creating layer detection_accuracy_1_5x7
I1013 03:34:32.684842 19435 net.cpp:106] Creating Layer detection_accuracy_1_5x7
I1013 03:34:32.684851 19435 net.cpp:454] detection_accuracy_1_5x7 <- LFCN_1_5x7_LFCN_1_5x7_0_split_1
I1013 03:34:32.684859 19435 net.cpp:454] detection_accuracy_1_5x7 <- label_1_5x7_data_2_split_1
I1013 03:34:32.684867 19435 net.cpp:411] detection_accuracy_1_5x7 -> accuracy_1_5x7
I1013 03:34:32.684878 19435 net.cpp:411] detection_accuracy_1_5x7 -> boxiou_1_5x7
I1013 03:34:32.684948 19435 net.cpp:150] Setting up detection_accuracy_1_5x7
I1013 03:34:32.684959 19435 net.cpp:157] Top shape: 1 1 1 2 (2)
I1013 03:34:32.684965 19435 net.cpp:157] Top shape: 1 1 1 1 (1)
I1013 03:34:32.684970 19435 net.cpp:165] Memory required for data: 1614568504
I1013 03:34:32.684975 19435 layer_factory.hpp:76] Creating layer pool4
I1013 03:34:32.684984 19435 net.cpp:106] Creating Layer pool4
I1013 03:34:32.684990 19435 net.cpp:454] pool4 <- conv4_3_relu4_3_0_split_1
I1013 03:34:32.685000 19435 net.cpp:411] pool4 -> pool4
I1013 03:34:32.685259 19435 net.cpp:150] Setting up pool4
I1013 03:34:32.685273 19435 net.cpp:157] Top shape: 2 512 36 36 (1327104)
I1013 03:34:32.685277 19435 net.cpp:165] Memory required for data: 1619876920
I1013 03:34:32.685283 19435 layer_factory.hpp:76] Creating layer conv5_1
I1013 03:34:32.685294 19435 net.cpp:106] Creating Layer conv5_1
I1013 03:34:32.685300 19435 net.cpp:454] conv5_1 <- pool4
I1013 03:34:32.685312 19435 net.cpp:411] conv5_1 -> conv5_1
I1013 03:34:32.691576 19435 net.cpp:150] Setting up conv5_1
I1013 03:34:32.691594 19435 net.cpp:157] Top shape: 2 512 36 36 (1327104)
I1013 03:34:32.691601 19435 net.cpp:165] Memory required for data: 1625185336
I1013 03:34:32.691611 19435 layer_factory.hpp:76] Creating layer relu5_1
I1013 03:34:32.691622 19435 net.cpp:106] Creating Layer relu5_1
I1013 03:34:32.691629 19435 net.cpp:454] relu5_1 <- conv5_1
I1013 03:34:32.691639 19435 net.cpp:397] relu5_1 -> conv5_1 (in-place)
I1013 03:34:32.692066 19435 net.cpp:150] Setting up relu5_1
I1013 03:34:32.692081 19435 net.cpp:157] Top shape: 2 512 36 36 (1327104)
I1013 03:34:32.692086 19435 net.cpp:165] Memory required for data: 1630493752
I1013 03:34:32.692092 19435 layer_factory.hpp:76] Creating layer conv5_2
I1013 03:34:32.692107 19435 net.cpp:106] Creating Layer conv5_2
I1013 03:34:32.692113 19435 net.cpp:454] conv5_2 <- conv5_1
I1013 03:34:32.692122 19435 net.cpp:411] conv5_2 -> conv5_2
I1013 03:34:32.698400 19435 net.cpp:150] Setting up conv5_2
I1013 03:34:32.698418 19435 net.cpp:157] Top shape: 2 512 36 36 (1327104)
I1013 03:34:32.698423 19435 net.cpp:165] Memory required for data: 1635802168
I1013 03:34:32.698434 19435 layer_factory.hpp:76] Creating layer relu5_2
I1013 03:34:32.698443 19435 net.cpp:106] Creating Layer relu5_2
I1013 03:34:32.698449 19435 net.cpp:454] relu5_2 <- conv5_2
I1013 03:34:32.698460 19435 net.cpp:397] relu5_2 -> conv5_2 (in-place)
I1013 03:34:32.698854 19435 net.cpp:150] Setting up relu5_2
I1013 03:34:32.698868 19435 net.cpp:157] Top shape: 2 512 36 36 (1327104)
I1013 03:34:32.698873 19435 net.cpp:165] Memory required for data: 1641110584
I1013 03:34:32.698879 19435 layer_factory.hpp:76] Creating layer conv5_3
I1013 03:34:32.698897 19435 net.cpp:106] Creating Layer conv5_3
I1013 03:34:32.698904 19435 net.cpp:454] conv5_3 <- conv5_2
I1013 03:34:32.698916 19435 net.cpp:411] conv5_3 -> conv5_3
I1013 03:34:32.705215 19435 net.cpp:150] Setting up conv5_3
I1013 03:34:32.705235 19435 net.cpp:157] Top shape: 2 512 36 36 (1327104)
I1013 03:34:32.705240 19435 net.cpp:165] Memory required for data: 1646419000
I1013 03:34:32.705250 19435 layer_factory.hpp:76] Creating layer relu5_3
I1013 03:34:32.705258 19435 net.cpp:106] Creating Layer relu5_3
I1013 03:34:32.705265 19435 net.cpp:454] relu5_3 <- conv5_3
I1013 03:34:32.705276 19435 net.cpp:397] relu5_3 -> conv5_3 (in-place)
I1013 03:34:32.705487 19435 net.cpp:150] Setting up relu5_3
I1013 03:34:32.705500 19435 net.cpp:157] Top shape: 2 512 36 36 (1327104)
I1013 03:34:32.705505 19435 net.cpp:165] Memory required for data: 1651727416
I1013 03:34:32.705510 19435 layer_factory.hpp:76] Creating layer conv5_3_relu5_3_0_split
I1013 03:34:32.705521 19435 net.cpp:106] Creating Layer conv5_3_relu5_3_0_split
I1013 03:34:32.705528 19435 net.cpp:454] conv5_3_relu5_3_0_split <- conv5_3
I1013 03:34:32.705536 19435 net.cpp:411] conv5_3_relu5_3_0_split -> conv5_3_relu5_3_0_split_0
I1013 03:34:32.705546 19435 net.cpp:411] conv5_3_relu5_3_0_split -> conv5_3_relu5_3_0_split_1
I1013 03:34:32.705559 19435 net.cpp:411] conv5_3_relu5_3_0_split -> conv5_3_relu5_3_0_split_2
I1013 03:34:32.705644 19435 net.cpp:150] Setting up conv5_3_relu5_3_0_split
I1013 03:34:32.705656 19435 net.cpp:157] Top shape: 2 512 36 36 (1327104)
I1013 03:34:32.705662 19435 net.cpp:157] Top shape: 2 512 36 36 (1327104)
I1013 03:34:32.705668 19435 net.cpp:157] Top shape: 2 512 36 36 (1327104)
I1013 03:34:32.705672 19435 net.cpp:165] Memory required for data: 1667652664
I1013 03:34:32.705677 19435 layer_factory.hpp:76] Creating layer LFCN_2_3x5
I1013 03:34:32.705691 19435 net.cpp:106] Creating Layer LFCN_2_3x5
I1013 03:34:32.705698 19435 net.cpp:454] LFCN_2_3x5 <- conv5_3_relu5_3_0_split_0
I1013 03:34:32.705709 19435 net.cpp:411] LFCN_2_3x5 -> LFCN_2_3x5
I1013 03:34:32.708514 19435 net.cpp:150] Setting up LFCN_2_3x5
I1013 03:34:32.708530 19435 net.cpp:157] Top shape: 2 6 36 36 (15552)
I1013 03:34:32.708535 19435 net.cpp:165] Memory required for data: 1667714872
I1013 03:34:32.708559 19435 layer_factory.hpp:76] Creating layer LFCN_2_3x5_LFCN_2_3x5_0_split
I1013 03:34:32.708569 19435 net.cpp:106] Creating Layer LFCN_2_3x5_LFCN_2_3x5_0_split
I1013 03:34:32.708575 19435 net.cpp:454] LFCN_2_3x5_LFCN_2_3x5_0_split <- LFCN_2_3x5
I1013 03:34:32.708585 19435 net.cpp:411] LFCN_2_3x5_LFCN_2_3x5_0_split -> LFCN_2_3x5_LFCN_2_3x5_0_split_0
I1013 03:34:32.708596 19435 net.cpp:411] LFCN_2_3x5_LFCN_2_3x5_0_split -> LFCN_2_3x5_LFCN_2_3x5_0_split_1
I1013 03:34:32.708673 19435 net.cpp:150] Setting up LFCN_2_3x5_LFCN_2_3x5_0_split
I1013 03:34:32.708686 19435 net.cpp:157] Top shape: 2 6 36 36 (15552)
I1013 03:34:32.708693 19435 net.cpp:157] Top shape: 2 6 36 36 (15552)
I1013 03:34:32.708698 19435 net.cpp:165] Memory required for data: 1667839288
I1013 03:34:32.708703 19435 layer_factory.hpp:76] Creating layer detection_loss_2_3x5
I1013 03:34:32.708715 19435 net.cpp:106] Creating Layer detection_loss_2_3x5
I1013 03:34:32.708721 19435 net.cpp:454] detection_loss_2_3x5 <- LFCN_2_3x5_LFCN_2_3x5_0_split_0
I1013 03:34:32.708729 19435 net.cpp:454] detection_loss_2_3x5 <- label_2_3x5_data_3_split_0
I1013 03:34:32.708740 19435 net.cpp:411] detection_loss_2_3x5 -> loss_2_3x5
I1013 03:34:32.708753 19435 layer_factory.hpp:76] Creating layer detection_loss_2_3x5
I1013 03:34:32.709203 19435 net.cpp:150] Setting up detection_loss_2_3x5
I1013 03:34:32.709216 19435 net.cpp:157] Top shape: 1 1 1 2 (2)
I1013 03:34:32.709221 19435 net.cpp:160]     with loss weight 1
I1013 03:34:32.709239 19435 net.cpp:165] Memory required for data: 1667839296
I1013 03:34:32.709245 19435 layer_factory.hpp:76] Creating layer detection_accuracy_2_3x5
I1013 03:34:32.709255 19435 net.cpp:106] Creating Layer detection_accuracy_2_3x5
I1013 03:34:32.709261 19435 net.cpp:454] detection_accuracy_2_3x5 <- LFCN_2_3x5_LFCN_2_3x5_0_split_1
I1013 03:34:32.709269 19435 net.cpp:454] detection_accuracy_2_3x5 <- label_2_3x5_data_3_split_1
I1013 03:34:32.709280 19435 net.cpp:411] detection_accuracy_2_3x5 -> accuracy_2_3x5
I1013 03:34:32.709291 19435 net.cpp:411] detection_accuracy_2_3x5 -> boxiou_2_3x5
I1013 03:34:32.709372 19435 net.cpp:150] Setting up detection_accuracy_2_3x5
I1013 03:34:32.709384 19435 net.cpp:157] Top shape: 1 1 1 2 (2)
I1013 03:34:32.709393 19435 net.cpp:157] Top shape: 1 1 1 1 (1)
I1013 03:34:32.709398 19435 net.cpp:165] Memory required for data: 1667839308
I1013 03:34:32.709403 19435 layer_factory.hpp:76] Creating layer LFCN_2_5x7
I1013 03:34:32.709414 19435 net.cpp:106] Creating Layer LFCN_2_5x7
I1013 03:34:32.709419 19435 net.cpp:454] LFCN_2_5x7 <- conv5_3_relu5_3_0_split_1
I1013 03:34:32.709434 19435 net.cpp:411] LFCN_2_5x7 -> LFCN_2_5x7
I1013 03:34:32.714439 19435 net.cpp:150] Setting up LFCN_2_5x7
I1013 03:34:32.714455 19435 net.cpp:157] Top shape: 2 6 36 36 (15552)
I1013 03:34:32.714460 19435 net.cpp:165] Memory required for data: 1667901516
I1013 03:34:32.714474 19435 layer_factory.hpp:76] Creating layer LFCN_2_5x7_LFCN_2_5x7_0_split
I1013 03:34:32.714483 19435 net.cpp:106] Creating Layer LFCN_2_5x7_LFCN_2_5x7_0_split
I1013 03:34:32.714489 19435 net.cpp:454] LFCN_2_5x7_LFCN_2_5x7_0_split <- LFCN_2_5x7
I1013 03:34:32.714498 19435 net.cpp:411] LFCN_2_5x7_LFCN_2_5x7_0_split -> LFCN_2_5x7_LFCN_2_5x7_0_split_0
I1013 03:34:32.714509 19435 net.cpp:411] LFCN_2_5x7_LFCN_2_5x7_0_split -> LFCN_2_5x7_LFCN_2_5x7_0_split_1
I1013 03:34:32.714591 19435 net.cpp:150] Setting up LFCN_2_5x7_LFCN_2_5x7_0_split
I1013 03:34:32.714601 19435 net.cpp:157] Top shape: 2 6 36 36 (15552)
I1013 03:34:32.714607 19435 net.cpp:157] Top shape: 2 6 36 36 (15552)
I1013 03:34:32.714612 19435 net.cpp:165] Memory required for data: 1668025932
I1013 03:34:32.714617 19435 layer_factory.hpp:76] Creating layer detection_loss_2_5x7
I1013 03:34:32.714628 19435 net.cpp:106] Creating Layer detection_loss_2_5x7
I1013 03:34:32.714634 19435 net.cpp:454] detection_loss_2_5x7 <- LFCN_2_5x7_LFCN_2_5x7_0_split_0
I1013 03:34:32.714642 19435 net.cpp:454] detection_loss_2_5x7 <- label_2_5x7_data_4_split_0
I1013 03:34:32.714650 19435 net.cpp:411] detection_loss_2_5x7 -> loss_2_5x7
I1013 03:34:32.714663 19435 layer_factory.hpp:76] Creating layer detection_loss_2_5x7
I1013 03:34:32.715313 19435 net.cpp:150] Setting up detection_loss_2_5x7
I1013 03:34:32.715328 19435 net.cpp:157] Top shape: 1 1 1 2 (2)
I1013 03:34:32.715333 19435 net.cpp:160]     with loss weight 1
I1013 03:34:32.715343 19435 net.cpp:165] Memory required for data: 1668025940
I1013 03:34:32.715348 19435 layer_factory.hpp:76] Creating layer detection_accuracy_2_5x7
I1013 03:34:32.715358 19435 net.cpp:106] Creating Layer detection_accuracy_2_5x7
I1013 03:34:32.715363 19435 net.cpp:454] detection_accuracy_2_5x7 <- LFCN_2_5x7_LFCN_2_5x7_0_split_1
I1013 03:34:32.715371 19435 net.cpp:454] detection_accuracy_2_5x7 <- label_2_5x7_data_4_split_1
I1013 03:34:32.715384 19435 net.cpp:411] detection_accuracy_2_5x7 -> accuracy_2_5x7
I1013 03:34:32.715394 19435 net.cpp:411] detection_accuracy_2_5x7 -> boxiou_2_5x7
I1013 03:34:32.715468 19435 net.cpp:150] Setting up detection_accuracy_2_5x7
I1013 03:34:32.715481 19435 net.cpp:157] Top shape: 1 1 1 2 (2)
I1013 03:34:32.715487 19435 net.cpp:157] Top shape: 1 1 1 1 (1)
I1013 03:34:32.715490 19435 net.cpp:165] Memory required for data: 1668025952
I1013 03:34:32.715495 19435 layer_factory.hpp:76] Creating layer pool5
I1013 03:34:32.715507 19435 net.cpp:106] Creating Layer pool5
I1013 03:34:32.715513 19435 net.cpp:454] pool5 <- conv5_3_relu5_3_0_split_2
I1013 03:34:32.715524 19435 net.cpp:411] pool5 -> pool5
I1013 03:34:32.715775 19435 net.cpp:150] Setting up pool5
I1013 03:34:32.715787 19435 net.cpp:157] Top shape: 2 512 18 18 (331776)
I1013 03:34:32.715792 19435 net.cpp:165] Memory required for data: 1669353056
I1013 03:34:32.715797 19435 layer_factory.hpp:76] Creating layer conv6_1
I1013 03:34:32.715811 19435 net.cpp:106] Creating Layer conv6_1
I1013 03:34:32.715817 19435 net.cpp:454] conv6_1 <- pool5
I1013 03:34:32.715829 19435 net.cpp:411] conv6_1 -> conv6_1
I1013 03:34:32.795442 19435 net.cpp:150] Setting up conv6_1
I1013 03:34:32.795460 19435 net.cpp:157] Top shape: 2 512 18 18 (331776)
I1013 03:34:32.795465 19435 net.cpp:165] Memory required for data: 1670680160
I1013 03:34:32.795487 19435 layer_factory.hpp:76] Creating layer relu6_1
I1013 03:34:32.795500 19435 net.cpp:106] Creating Layer relu6_1
I1013 03:34:32.795506 19435 net.cpp:454] relu6_1 <- conv6_1
I1013 03:34:32.795516 19435 net.cpp:397] relu6_1 -> conv6_1 (in-place)
I1013 03:34:32.795944 19435 net.cpp:150] Setting up relu6_1
I1013 03:34:32.795959 19435 net.cpp:157] Top shape: 2 512 18 18 (331776)
I1013 03:34:32.795964 19435 net.cpp:165] Memory required for data: 1672007264
I1013 03:34:32.795969 19435 layer_factory.hpp:76] Creating layer conv6_1_relu6_1_0_split
I1013 03:34:32.795979 19435 net.cpp:106] Creating Layer conv6_1_relu6_1_0_split
I1013 03:34:32.795984 19435 net.cpp:454] conv6_1_relu6_1_0_split <- conv6_1
I1013 03:34:32.795995 19435 net.cpp:411] conv6_1_relu6_1_0_split -> conv6_1_relu6_1_0_split_0
I1013 03:34:32.796005 19435 net.cpp:411] conv6_1_relu6_1_0_split -> conv6_1_relu6_1_0_split_1
I1013 03:34:32.796015 19435 net.cpp:411] conv6_1_relu6_1_0_split -> conv6_1_relu6_1_0_split_2
I1013 03:34:32.796105 19435 net.cpp:150] Setting up conv6_1_relu6_1_0_split
I1013 03:34:32.796116 19435 net.cpp:157] Top shape: 2 512 18 18 (331776)
I1013 03:34:32.796123 19435 net.cpp:157] Top shape: 2 512 18 18 (331776)
I1013 03:34:32.796128 19435 net.cpp:157] Top shape: 2 512 18 18 (331776)
I1013 03:34:32.796133 19435 net.cpp:165] Memory required for data: 1675988576
I1013 03:34:32.796138 19435 layer_factory.hpp:76] Creating layer LFCN_3_3x5
I1013 03:34:32.796152 19435 net.cpp:106] Creating Layer LFCN_3_3x5
I1013 03:34:32.796159 19435 net.cpp:454] LFCN_3_3x5 <- conv6_1_relu6_1_0_split_0
I1013 03:34:32.796167 19435 net.cpp:411] LFCN_3_3x5 -> LFCN_3_3x5
I1013 03:34:32.798830 19435 net.cpp:150] Setting up LFCN_3_3x5
I1013 03:34:32.798846 19435 net.cpp:157] Top shape: 2 6 18 18 (3888)
I1013 03:34:32.798851 19435 net.cpp:165] Memory required for data: 1676004128
I1013 03:34:32.798861 19435 layer_factory.hpp:76] Creating layer LFCN_3_3x5_LFCN_3_3x5_0_split
I1013 03:34:32.798889 19435 net.cpp:106] Creating Layer LFCN_3_3x5_LFCN_3_3x5_0_split
I1013 03:34:32.798897 19435 net.cpp:454] LFCN_3_3x5_LFCN_3_3x5_0_split <- LFCN_3_3x5
I1013 03:34:32.798909 19435 net.cpp:411] LFCN_3_3x5_LFCN_3_3x5_0_split -> LFCN_3_3x5_LFCN_3_3x5_0_split_0
I1013 03:34:32.798923 19435 net.cpp:411] LFCN_3_3x5_LFCN_3_3x5_0_split -> LFCN_3_3x5_LFCN_3_3x5_0_split_1
I1013 03:34:32.798995 19435 net.cpp:150] Setting up LFCN_3_3x5_LFCN_3_3x5_0_split
I1013 03:34:32.799007 19435 net.cpp:157] Top shape: 2 6 18 18 (3888)
I1013 03:34:32.799013 19435 net.cpp:157] Top shape: 2 6 18 18 (3888)
I1013 03:34:32.799017 19435 net.cpp:165] Memory required for data: 1676035232
I1013 03:34:32.799023 19435 layer_factory.hpp:76] Creating layer detection_loss_3_3x5
I1013 03:34:32.799034 19435 net.cpp:106] Creating Layer detection_loss_3_3x5
I1013 03:34:32.799041 19435 net.cpp:454] detection_loss_3_3x5 <- LFCN_3_3x5_LFCN_3_3x5_0_split_0
I1013 03:34:32.799047 19435 net.cpp:454] detection_loss_3_3x5 <- label_3_3x5_data_5_split_0
I1013 03:34:32.799059 19435 net.cpp:411] detection_loss_3_3x5 -> loss_3_3x5
I1013 03:34:32.799072 19435 layer_factory.hpp:76] Creating layer detection_loss_3_3x5
I1013 03:34:32.799729 19435 net.cpp:150] Setting up detection_loss_3_3x5
I1013 03:34:32.799746 19435 net.cpp:157] Top shape: 1 1 1 2 (2)
I1013 03:34:32.799751 19435 net.cpp:160]     with loss weight 1
I1013 03:34:32.799759 19435 net.cpp:165] Memory required for data: 1676035240
I1013 03:34:32.799765 19435 layer_factory.hpp:76] Creating layer detection_accuracy_3_3x5
I1013 03:34:32.799775 19435 net.cpp:106] Creating Layer detection_accuracy_3_3x5
I1013 03:34:32.799782 19435 net.cpp:454] detection_accuracy_3_3x5 <- LFCN_3_3x5_LFCN_3_3x5_0_split_1
I1013 03:34:32.799792 19435 net.cpp:454] detection_accuracy_3_3x5 <- label_3_3x5_data_5_split_1
I1013 03:34:32.799801 19435 net.cpp:411] detection_accuracy_3_3x5 -> accuracy_3_3x5
I1013 03:34:32.799813 19435 net.cpp:411] detection_accuracy_3_3x5 -> boxiou_3_3x5
I1013 03:34:32.799886 19435 net.cpp:150] Setting up detection_accuracy_3_3x5
I1013 03:34:32.799898 19435 net.cpp:157] Top shape: 1 1 1 2 (2)
I1013 03:34:32.799904 19435 net.cpp:157] Top shape: 1 1 1 1 (1)
I1013 03:34:32.799908 19435 net.cpp:165] Memory required for data: 1676035252
I1013 03:34:32.799913 19435 layer_factory.hpp:76] Creating layer LFCN_3_5x7
I1013 03:34:32.799928 19435 net.cpp:106] Creating Layer LFCN_3_5x7
I1013 03:34:32.799934 19435 net.cpp:454] LFCN_3_5x7 <- conv6_1_relu6_1_0_split_1
I1013 03:34:32.799943 19435 net.cpp:411] LFCN_3_5x7 -> LFCN_3_5x7
I1013 03:34:32.805598 19435 net.cpp:150] Setting up LFCN_3_5x7
I1013 03:34:32.805614 19435 net.cpp:157] Top shape: 2 6 18 18 (3888)
I1013 03:34:32.805619 19435 net.cpp:165] Memory required for data: 1676050804
I1013 03:34:32.805630 19435 layer_factory.hpp:76] Creating layer LFCN_3_5x7_LFCN_3_5x7_0_split
I1013 03:34:32.805639 19435 net.cpp:106] Creating Layer LFCN_3_5x7_LFCN_3_5x7_0_split
I1013 03:34:32.805644 19435 net.cpp:454] LFCN_3_5x7_LFCN_3_5x7_0_split <- LFCN_3_5x7
I1013 03:34:32.805655 19435 net.cpp:411] LFCN_3_5x7_LFCN_3_5x7_0_split -> LFCN_3_5x7_LFCN_3_5x7_0_split_0
I1013 03:34:32.805666 19435 net.cpp:411] LFCN_3_5x7_LFCN_3_5x7_0_split -> LFCN_3_5x7_LFCN_3_5x7_0_split_1
I1013 03:34:32.805742 19435 net.cpp:150] Setting up LFCN_3_5x7_LFCN_3_5x7_0_split
I1013 03:34:32.805755 19435 net.cpp:157] Top shape: 2 6 18 18 (3888)
I1013 03:34:32.805761 19435 net.cpp:157] Top shape: 2 6 18 18 (3888)
I1013 03:34:32.805766 19435 net.cpp:165] Memory required for data: 1676081908
I1013 03:34:32.805771 19435 layer_factory.hpp:76] Creating layer detection_loss_3_5x7
I1013 03:34:32.805779 19435 net.cpp:106] Creating Layer detection_loss_3_5x7
I1013 03:34:32.805784 19435 net.cpp:454] detection_loss_3_5x7 <- LFCN_3_5x7_LFCN_3_5x7_0_split_0
I1013 03:34:32.805793 19435 net.cpp:454] detection_loss_3_5x7 <- label_3_5x7_data_6_split_0
I1013 03:34:32.805804 19435 net.cpp:411] detection_loss_3_5x7 -> loss_3_5x7
I1013 03:34:32.805815 19435 layer_factory.hpp:76] Creating layer detection_loss_3_5x7
I1013 03:34:32.806303 19435 net.cpp:150] Setting up detection_loss_3_5x7
I1013 03:34:32.806316 19435 net.cpp:157] Top shape: 1 1 1 2 (2)
I1013 03:34:32.806321 19435 net.cpp:160]     with loss weight 1
I1013 03:34:32.806330 19435 net.cpp:165] Memory required for data: 1676081916
I1013 03:34:32.806335 19435 layer_factory.hpp:76] Creating layer detection_accuracy_3_5x7
I1013 03:34:32.806345 19435 net.cpp:106] Creating Layer detection_accuracy_3_5x7
I1013 03:34:32.806350 19435 net.cpp:454] detection_accuracy_3_5x7 <- LFCN_3_5x7_LFCN_3_5x7_0_split_1
I1013 03:34:32.806358 19435 net.cpp:454] detection_accuracy_3_5x7 <- label_3_5x7_data_6_split_1
I1013 03:34:32.806370 19435 net.cpp:411] detection_accuracy_3_5x7 -> accuracy_3_5x7
I1013 03:34:32.806380 19435 net.cpp:411] detection_accuracy_3_5x7 -> boxiou_3_5x7
I1013 03:34:32.806455 19435 net.cpp:150] Setting up detection_accuracy_3_5x7
I1013 03:34:32.806468 19435 net.cpp:157] Top shape: 1 1 1 2 (2)
I1013 03:34:32.806474 19435 net.cpp:157] Top shape: 1 1 1 1 (1)
I1013 03:34:32.806478 19435 net.cpp:165] Memory required for data: 1676081928
I1013 03:34:32.806483 19435 layer_factory.hpp:76] Creating layer pool6
I1013 03:34:32.806493 19435 net.cpp:106] Creating Layer pool6
I1013 03:34:32.806499 19435 net.cpp:454] pool6 <- conv6_1_relu6_1_0_split_2
I1013 03:34:32.806506 19435 net.cpp:411] pool6 -> pool6
I1013 03:34:32.806967 19435 net.cpp:150] Setting up pool6
I1013 03:34:32.806982 19435 net.cpp:157] Top shape: 2 512 9 9 (82944)
I1013 03:34:32.806988 19435 net.cpp:165] Memory required for data: 1676413704
I1013 03:34:32.806993 19435 layer_factory.hpp:76] Creating layer LFCN_4_3x5
I1013 03:34:32.807006 19435 net.cpp:106] Creating Layer LFCN_4_3x5
I1013 03:34:32.807013 19435 net.cpp:454] LFCN_4_3x5 <- pool6
I1013 03:34:32.807024 19435 net.cpp:411] LFCN_4_3x5 -> LFCN_4_3x5
I1013 03:34:32.810060 19435 net.cpp:150] Setting up LFCN_4_3x5
I1013 03:34:32.810080 19435 net.cpp:157] Top shape: 2 6 9 9 (972)
I1013 03:34:32.810086 19435 net.cpp:165] Memory required for data: 1676417592
I1013 03:34:32.810096 19435 layer_factory.hpp:76] Creating layer LFCN_4_3x5_LFCN_4_3x5_0_split
I1013 03:34:32.810106 19435 net.cpp:106] Creating Layer LFCN_4_3x5_LFCN_4_3x5_0_split
I1013 03:34:32.810111 19435 net.cpp:454] LFCN_4_3x5_LFCN_4_3x5_0_split <- LFCN_4_3x5
I1013 03:34:32.810120 19435 net.cpp:411] LFCN_4_3x5_LFCN_4_3x5_0_split -> LFCN_4_3x5_LFCN_4_3x5_0_split_0
I1013 03:34:32.810130 19435 net.cpp:411] LFCN_4_3x5_LFCN_4_3x5_0_split -> LFCN_4_3x5_LFCN_4_3x5_0_split_1
I1013 03:34:32.810207 19435 net.cpp:150] Setting up LFCN_4_3x5_LFCN_4_3x5_0_split
I1013 03:34:32.810220 19435 net.cpp:157] Top shape: 2 6 9 9 (972)
I1013 03:34:32.810225 19435 net.cpp:157] Top shape: 2 6 9 9 (972)
I1013 03:34:32.810230 19435 net.cpp:165] Memory required for data: 1676425368
I1013 03:34:32.810235 19435 layer_factory.hpp:76] Creating layer detection_loss_4_3x5
I1013 03:34:32.810246 19435 net.cpp:106] Creating Layer detection_loss_4_3x5
I1013 03:34:32.810252 19435 net.cpp:454] detection_loss_4_3x5 <- LFCN_4_3x5_LFCN_4_3x5_0_split_0
I1013 03:34:32.810259 19435 net.cpp:454] detection_loss_4_3x5 <- label_4_3x5_data_7_split_0
I1013 03:34:32.810271 19435 net.cpp:411] detection_loss_4_3x5 -> loss_4_3x5
I1013 03:34:32.810282 19435 layer_factory.hpp:76] Creating layer detection_loss_4_3x5
I1013 03:34:32.810729 19435 net.cpp:150] Setting up detection_loss_4_3x5
I1013 03:34:32.810745 19435 net.cpp:157] Top shape: 1 1 1 2 (2)
I1013 03:34:32.810748 19435 net.cpp:160]     with loss weight 1
I1013 03:34:32.810757 19435 net.cpp:165] Memory required for data: 1676425376
I1013 03:34:32.810762 19435 layer_factory.hpp:76] Creating layer detection_accuracy_4_3x5
I1013 03:34:32.810772 19435 net.cpp:106] Creating Layer detection_accuracy_4_3x5
I1013 03:34:32.810777 19435 net.cpp:454] detection_accuracy_4_3x5 <- LFCN_4_3x5_LFCN_4_3x5_0_split_1
I1013 03:34:32.810784 19435 net.cpp:454] detection_accuracy_4_3x5 <- label_4_3x5_data_7_split_1
I1013 03:34:32.810793 19435 net.cpp:411] detection_accuracy_4_3x5 -> accuracy_4_3x5
I1013 03:34:32.810803 19435 net.cpp:411] detection_accuracy_4_3x5 -> boxiou_4_3x5
I1013 03:34:32.810881 19435 net.cpp:150] Setting up detection_accuracy_4_3x5
I1013 03:34:32.810899 19435 net.cpp:157] Top shape: 1 1 1 2 (2)
I1013 03:34:32.810906 19435 net.cpp:157] Top shape: 1 1 1 1 (1)
I1013 03:34:32.810910 19435 net.cpp:165] Memory required for data: 1676425388
I1013 03:34:32.810915 19435 net.cpp:228] detection_accuracy_4_3x5 does not need backward computation.
I1013 03:34:32.810921 19435 net.cpp:226] detection_loss_4_3x5 needs backward computation.
I1013 03:34:32.810927 19435 net.cpp:226] LFCN_4_3x5_LFCN_4_3x5_0_split needs backward computation.
I1013 03:34:32.810932 19435 net.cpp:226] LFCN_4_3x5 needs backward computation.
…
