…
    downsample_rate: 16
    downsample_rate: 32
    downsample_rate: 32
    downsample_rate: 64
    coord_num: 4
    field_h: 40
    field_h: 56
    field_h: 80
    field_h: 112
    field_h: 160
    field_h: 224
    field_h: 320
    field_w: 20
    field_w: 28
    field_w: 40
    field_w: 56
    field_w: 80
    field_w: 112
    field_w: 160
    fg_threshold: 0.5
    resize_width: 640
    resize_height: 480
    crop_width: 448
    crop_height: 448
    do_multiple_scale: true
    min_scale: 30
    max_scale: 240
    min_gt_height: 45
    shuffle: true
  }
}
layer {
  name: "conv1_1"
  type: "Convolution"
  bottom: "data"
  top: "conv1_1"
  convolution_param {
    num_output: 64
    pad: 1
    kernel_size: 3
  }
}
layer {
  name: "relu1_1"
  type: "ReLU"
  bottom: "conv1_1"
  top: "conv1_1"
}
layer {
  name: "conv1_2"
  type: "Convolution"
  bottom: "conv1_1"
  top: "conv1_2"
  convolution_param {
    num_output: 64
    pad: 1
    kernel_size: 3
  }
}
layer {
  name: "relu1_2"
  type: "ReLU"
  bottom: "conv1_2"
  top: "conv1_2"
}
layer {
  name: "pool1"
  type: "Pooling"
  bottom: "conv1_2"
  top: "pool1"
  pooling_param {
    pool: MAX
    kernel_size: 2
    stride: 2
  }
}
layer {
  name: "conv2_1"
  type: "Convolution"
  bottom: "pool1"
  top: "conv2_1"
  convolution_param {
    num_output: 128
    pad: 1
    kernel_size: 3
  }
}
layer {
  name: "relu2_1"
  type: "ReLU"
  bottom: "conv2_1"
  top: "conv2_1"
}
layer {
  name: "conv2_2"
  type: "Convolution"
  bottom: "conv2_1"
  top: "conv2_2"
  convolution_param {
    num_output: 128
    pad: 1
    kernel_size: 3
  }
}
layer {
  name: "relu2_2"
  type: "ReLU"
  bottom: "conv2_2"
  top: "conv2_2"
}
layer {
  name: "pool2"
  type: "Pooling"
  bottom: "conv2_2"
  top: "pool2"
  pooling_param {
    pool: MAX
    kernel_size: 2
    stride: 2
  }
}
layer {
  name: "conv3_1"
  type: "Convolution"
  bottom: "pool2"
  top: "conv3_1"
  convolution_param {
    num_output: 256
    pad: 1
    kernel_size: 3
  }
}
layer {
  name: "relu3_1"
  type: "ReLU"
  bottom: "conv3_1"
  top: "conv3_1"
}
layer {
  name: "conv3_2"
  type: "Convolution"
  bottom: "conv3_1"
  top: "conv3_2"
  convolution_param {
    num_output: 256
    pad: 1
    kernel_size: 3
  }
}
layer {
  name: "relu3_2"
  type: "ReLU"
  bottom: "conv3_2"
  top: "conv3_2"
}
layer {
  name: "conv3_3"
  type: "Convolution"
  bottom: "conv3_2"
  top: "conv3_3"
  convolution_param {
    num_output: 256
    pad: 1
    kernel_size: 3
  }
}
layer {
  name: "relu3_3"
  type: "ReLU"
  bottom: "conv3_3"
  top: "conv3_3"
}
layer {
  name: "pool3"
  type: "Pooling"
  bottom: "conv3_3"
  top: "pool3"
  pooling_param {
    pool: MAX
    kernel_size: 2
    stride: 2
  }
}
layer {
  name: "conv4_1"
  type: "Convolution"
  bottom: "pool3"
  top: "conv4_1"
  convolution_param {
    num_output: 512
    pad: 1
    kernel_size: 3
  }
}
layer {
  name: "relu4_1"
  type: "ReLU"
  bottom: "conv4_1"
  top: "conv4_1"
}
layer {
  name: "conv4_2"
  type: "Convolution"
  bottom: "conv4_1"
  top: "conv4_2"
  convolution_param {
    num_output: 512
    pad: 1
    kernel_size: 3
  }
}
layer {
  name: "relu4_2"
  type: "ReLU"
  bottom: "conv4_2"
  top: "conv4_2"
}
layer {
  name: "conv4_3"
  type: "Convolution"
  bottom: "conv4_2"
  top: "conv4_3"
  convolution_param {
    num_output: 512
    pad: 1
    kernel_size: 3
  }
}
layer {
  name: "relu4_3"
  type: "ReLU"
  bottom: "conv4_3"
  top: "conv4_3"
}
layer {
  name: "loss1_conv1"
  type: "Convolution"
  bottom: "conv4_3"
  top: "loss1_conv1"
  param {
    lr_mult: 1
    decay_mult: 1
  }
  param {
    lr_mult: 2
    decay_mult: 0
  }
  convolution_param {
    num_output: 512
    pad: 1
    kernel_size: 3
    weight_filler {
      type: "gaussian"
      std: 0.01
    }
    bias_filler {
      type: "constant"
    }
  }
}
layer {
  name: "loss_relu1"
  type: "ReLU"
  bottom: "loss1_conv1"
  top: "loss1_conv1"
}
layer {
  name: "LFCN_1_3x5"
  type: "Convolution"
  bottom: "loss1_conv1"
  top: "LFCN_1_3x5"
  param {
    lr_mult: 1
    decay_mult: 1
  }
  param {
    lr_mult: 2
    decay_mult: 0
  }
  convolution_param {
    num_output: 6
    weight_filler {
      type: "gaussian"
      std: 0.001
    }
    bias_filler {
      type: "constant"
    }
    pad_h: 2
    pad_w: 1
    kernel_h: 5
    kernel_w: 3
  }
}
layer {
  name: "detection_loss_1_3x5"
  type: "Detection"
  bottom: "LFCN_1_3x5"
  bottom: "label_1_3x5"
  top: "loss_1_3x5"
  loss_weight: 0.9
  detection_param {
    cls_num: 2
    coord_num: 4
    lambda: 0.5
    field_h: 40
    field_w: 20
    downsample_rate: 8
    bb_smooth: true
    field_whr: 2
    field_xyr: 2
    bg_threshold: 0.2
    bg_multiple: 2
    sample_mode: "random"
    pos_neg_weighted: true
  }
}
layer {
  name: "detection_accuracy_1_3x5"
  type: "DetectionAccuracy"
  bottom: "LFCN_1_3x5"
  bottom: "label_1_3x5"
  top: "accuracy_1_3x5"
  top: "boxiou_1_3x5"
  detection_accuracy_param {
    cls_num: 2
    coord_num: 4
    field_h: 40
    field_w: 20
    downsample_rate: 8
    field_whr: 2
    field_xyr: 2
  }
}
layer {
  name: "LFCN_1_5x7"
  type: "Convolution"
  bottom: "loss1_conv1"
  top: "LFCN_1_5x7"
  param {
    lr_mult: 1
    decay_mult: 1
  }
  param {
    lr_mult: 2
    decay_mult: 0
  }
  convolution_param {
    num_output: 6
    weight_filler {
      type: "gaussian"
      std: 0.001
    }
    bias_filler {
      type: "constant"
    }
    pad_h: 3
    pad_w: 2
    kernel_h: 7
    kernel_w: 5
  }
}
layer {
  name: "detection_loss_1_5x7"
  type: "Detection"
  bottom: "LFCN_1_5x7"
  bottom: "label_1_5x7"
  top: "loss_1_5x7"
  loss_weight: 0.9
  detection_param {
    cls_num: 2
    coord_num: 4
    lambda: 0.5
    field_h: 56
    field_w: 28
    downsample_rate: 8
    bb_smooth: true
    field_whr: 2
    field_xyr: 2
    bg_threshold: 0.2
    bg_multiple: 2
    sample_mode: "random"
    pos_neg_weighted: true
  }
}
layer {
  name: "detection_accuracy_1_5x7"
  type: "DetectionAccuracy"
  bottom: "LFCN_1_5x7"
  bottom: "label_1_5x7"
  top: "accuracy_1_5x7"
  top: "boxiou_1_5x7"
  detection_accuracy_param {
    cls_num: 2
    coord_num: 4
    field_h: 56
    field_w: 28
    downsample_rate: 8
    field_whr: 2
    field_xyr: 2
  }
}
layer {
  name: "pool4"
  type: "Pooling"
  bottom: "conv4_3"
  top: "pool4"
  pooling_param {
    pool: MAX
    kernel_size: 2
    stride: 2
  }
}
layer {
  name: "conv5_1"
  type: "Convolution"
  bottom: "pool4"
  top: "conv5_1"
  convolution_param {
    num_output: 512
    pad: 1
    kernel_size: 3
  }
}
layer {
  name: "relu5_1"
  type: "ReLU"
  bottom: "conv5_1"
  top: "conv5_1"
}
layer {
  name: "conv5_2"
  type: "Convolution"
  bottom: "conv5_1"
  top: "conv5_2"
  convolution_param {
    num_output: 512
    pad: 1
    kernel_size: 3
  }
}
layer {
  name: "relu5_2"
  type: "ReLU"
  bottom: "conv5_2"
  top: "conv5_2"
}
layer {
  name: "conv5_3"
  type: "Convolution"
  bottom: "conv5_2"
  top: "conv5_3"
  convolution_param {
    num_output: 512
    pad: 1
    kernel_size: 3
  }
}
layer {
  name: "relu5_3"
  type: "ReLU"
  bottom: "conv5_3"
  top: "conv5_3"
}
layer {
  name: "LFCN_2_3x5"
  type: "Convolution"
  bottom: "conv5_3"
  top: "LFCN_2_3x5"
  param {
    lr_mult: 1
    decay_mult: 1
  }
  param {
    lr_mult: 2
    decay_mult: 0
  }
  convolution_param {
    num_output: 6
    weight_filler {
      type: "gaussian"
      std: 0.001
    }
    bias_filler {
      type: "constant"
    }
    pad_h: 2
    pad_w: 1
    kernel_h: 5
    kernel_w: 3
  }
}
layer {
  name: "detection_loss_2_3x5"
  type: "Detection"
  bottom: "LFCN_2_3x5"
  bottom: "label_2_3x5"
  top: "loss_2_3x5"
  detection_param {
    cls_num: 2
    coord_num: 4
    lambda: 0.5
    field_h: 80
    field_w: 40
    downsample_rate: 16
    bb_smooth: true
    field_whr: 2
    field_xyr: 2
    bg_threshold: 0.2
    bg_multiple: 2
    sample_mode: "random"
    pos_neg_weighted: true
  }
}
layer {
  name: "detection_accuracy_2_3x5"
  type: "DetectionAccuracy"
  bottom: "LFCN_2_3x5"
  bottom: "label_2_3x5"
  top: "accuracy_2_3x5"
  top: "boxiou_2_3x5"
  detection_accuracy_param {
    cls_num: 2
    coord_num: 4
    field_h: 80
    field_w: 40
    downsample_rate: 16
    field_whr: 2
    field_xyr: 2
  }
}
layer {
  name: "LFCN_2_5x7"
  type: "Convolution"
  bottom: "conv5_3"
  top: "LFCN_2_5x7"
  param {
    lr_mult: 1
    decay_mult: 1
  }
  param {
    lr_mult: 2
    decay_mult: 0
  }
  convolution_param {
    num_output: 6
    weight_filler {
      type: "gaussian"
      std: 0.001
    }
    bias_filler {
      type: "constant"
    }
    pad_h: 3
    pad_w: 2
    kernel_h: 7
    kernel_w: 5
  }
}
layer {
  name: "detection_loss_2_5x7"
  type: "Detection"
  bottom: "LFCN_2_5x7"
  bottom: "label_2_5x7"
  top: "loss_2_5x7"
  detection_param {
    cls_num: 2
    coord_num: 4
    lambda: 0.5
    field_h: 112
    field_w: 56
    downsample_rate: 16
    bb_smooth: true
    field_whr: 2
    field_xyr: 2
    bg_threshold: 0.2
    bg_multiple: 2
    sample_mode: "random"
    pos_neg_weighted: true
  }
}
layer {
  name: "detection_accuracy_2_5x7"
  type: "DetectionAccuracy"
  bottom: "LFCN_2_5x7"
  bottom: "label_2_5x7"
  top: "accuracy_2_5x7"
  top: "boxiou_2_5x7"
  detection_accuracy_param {
    cls_num: 2
    coord_num: 4
    field_h: 112
    field_w: 56
    downsample_rate: 16
    field_whr: 2
    field_xyr: 2
  }
}
layer {
  name: "pool5"
  type: "Pooling"
  bottom: "conv5_3"
  top: "pool5"
  pooling_param {
    pool: MAX
    kernel_size: 2
    stride: 2
  }
}
layer {
  name: "conv6_1"
  type: "Convolution"
  bottom: "pool5"
  top: "conv6_1"
  param {
    lr_mult: 1
    decay_mult: 1
  }
  param {
    lr_mult: 2
    decay_mult: 0
  }
  convolution_param {
    num_output: 512
    pad: 1
    kernel_size: 3
    weight_filler {
      type: "gaussian"
      std: 0.01
    }
    bias_filler {
      type: "constant"
    }
  }
}
layer {
  name: "relu6_1"
  type: "ReLU"
  bottom: "conv6_1"
  top: "conv6_1"
}
layer {
  name: "LFCN_3_3x5"
  type: "Convolution"
  bottom: "conv6_1"
  top: "LFCN_3_3x5"
  param {
    lr_mult: 1
    decay_mult: 1
  }
  param {
    lr_mult: 2
    decay_mult: 0
  }
  convolution_param {
    num_output: 6
    weight_filler {
      type: "gaussian"
      std: 0.001
    }
    bias_filler {
      type: "constant"
    }
    pad_h: 2
    pad_w: 1
    kernel_h: 5
    kernel_w: 3
  }
}
layer {
  name: "detection_loss_3_3x5"
  type: "Detection"
  bottom: "LFCN_3_3x5"
  bottom: "label_3_3x5"
  top: "loss_3_3x5"
  detection_param {
    cls_num: 2
    coord_num: 4
    lambda: 0.5
    field_h: 160
    field_w: 80
    downsample_rate: 32
    bb_smooth: true
    field_whr: 2
    field_xyr: 2
    bg_threshold: 0.2
    bg_multiple: 2
    sample_mode: "random"
    pos_neg_weighted: true
  }
}
layer {
  name: "detection_accuracy_3_3x5"
  type: "DetectionAccuracy"
  bottom: "LFCN_3_3x5"
  bottom: "label_3_3x5"
  top: "accuracy_3_3x5"
  top: "boxiou_3_3x5"
  detection_accuracy_param {
    cls_num: 2
    coord_num: 4
    field_h: 160
    field_w: 80
    downsample_rate: 32
    field_whr: 2
    field_xyr: 2
  }
}
layer {
  name: "LFCN_3_5x7"
  type: "Convolution"
  bottom: "conv6_1"
  top: "LFCN_3_5x7"
  param {
    lr_mult: 1
    decay_mult: 1
  }
  param {
    lr_mult: 2
    decay_mult: 0
  }
  convolution_param {
    num_output: 6
    weight_filler {
      type: "gaussian"
      std: 0.001
    }
    bias_filler {
      type: "constant"
    }
    pad_h: 3
    pad_w: 2
    kernel_h: 7
    kernel_w: 5
  }
}
layer {
  name: "detection_loss_3_5x7"
  type: "Detection"
  bottom: "LFCN_3_5x7"
  bottom: "label_3_5x7"
  top: "loss_3_5x7"
  detection_param {
    cls_num: 2
    coord_num: 4
    lambda: 0.5
    field_h: 224
    field_w: 112
    downsample_rate: 32
    bb_smooth: true
    field_whr: 2
    field_xyr: 2
    bg_threshold: 0.2
    bg_multiple: 2
    sample_mode: "random"
    pos_neg_weighted: true
  }
}
layer {
  name: "detection_accuracy_3_5x7"
  type: "DetectionAccuracy"
  bottom: "LFCN_3_5x7"
  bottom: "label_3_5x7"
  top: "accuracy_3_5x7"
  top: "boxiou_3_5x7"
  detection_accuracy_param {
    cls_num: 2
    coord_num: 4
    field_h: 224
    field_w: 112
    downsample_rate: 32
    field_whr: 2
    field_xyr: 2
  }
}
layer {
  name: "pool6"
  type: "Pooling"
  bottom: "conv6_1"
  top: "pool6"
  pooling_param {
    pool: MAX
    kernel_size: 2
    stride: 2
  }
}
layer {
  name: "LFCN_4_3x5"
  type: "Convolution"
  bottom: "pool6"
  top: "LFCN_4_3x5"
  param {
    lr_mult: 1
    decay_mult: 1
  }
  param {
    lr_mult: 2
    decay_mult: 0
  }
  convolution_param {
    num_output: 6
    weight_filler {
      type: "gaussian"
      std: 0.001
    }
    bias_filler {
      type: "constant"
    }
    pad_h: 2
    pad_w: 1
    kernel_h: 5
    kernel_w: 3
  }
}
layer {
  name: "detection_loss_4_3x5"
  type: "Detection"
  bottom: "LFCN_4_3x5"
  bottom: "label_4_3x5"
  top: "loss_4_3x5"
  detection_param {
    cls_num: 2
    coord_num: 4
    lambda: 0.5
    field_h: 320
    field_w: 160
    downsample_rate: 64
    bb_smooth: true
    field_whr: 2
    field_xyr: 2
    bg_threshold: 0.2
    bg_multiple: 2
    sample_mode: "random"
    pos_neg_weighted: true
  }
}
layer {
  name: "detection_accuracy_4_3x5"
  type: "DetectionAccuracy"
  bottom: "LFCN_4_3x5"
  bottom: "label_4_3x5"
  top: "accuracy_4_3x5"
  top: "boxiou_4_3x5"
  detection_accuracy_param {
    cls_num: 2
    coord_num: 4
    field_h: 320
    field_w: 160
    downsample_rate: 64
    field_whr: 2
    field_xyr: 2
  }
}
I1007 03:35:04.668289 19090 layer_factory.hpp:76] Creating layer data
I1007 03:35:04.668339 19090 net.cpp:106] Creating Layer data
I1007 03:35:04.668349 19090 net.cpp:411] data -> data
…
I1007 03:35:04.920454 19090 image_gt_data_layer.cpp:234] output label size 1 : 4,6,56,56
I1007 03:35:04.920514 19090 image_gt_data_layer.cpp:234] output label size 2 : 4,6,28,28
I1007 03:35:04.920572 19090 image_gt_data_layer.cpp:234] output label size 3 : 4,6,28,28
I1007 03:35:04.920624 19090 image_gt_data_layer.cpp:234] output label size 4 : 4,6,14,14
I1007 03:35:04.920676 19090 image_gt_data_layer.cpp:234] output label size 5 : 4,6,14,14
I1007 03:35:04.920723 19090 image_gt_data_layer.cpp:234] output label size 6 : 4,6,7,7
I1007 03:35:04.957676 19090 net.cpp:150] Setting up data
I1007 03:35:04.957707 19090 net.cpp:157] Top shape: 4 3 448 448 (2408448)
I1007 03:35:04.957713 19090 net.cpp:157] Top shape: 4 6 56 56 (75264)
I1007 03:35:04.957717 19090 net.cpp:157] Top shape: 4 6 56 56 (75264)
I1007 03:35:04.957721 19090 net.cpp:157] Top shape: 4 6 28 28 (18816)
I1007 03:35:04.957725 19090 net.cpp:157] Top shape: 4 6 28 28 (18816)
I1007 03:35:04.957728 19090 net.cpp:157] Top shape: 4 6 14 14 (4704)
I1007 03:35:04.957732 19090 net.cpp:157] Top shape: 4 6 14 14 (4704)
I1007 03:35:04.957736 19090 net.cpp:157] Top shape: 4 6 7 7 (1176)
I1007 03:35:04.957739 19090 net.cpp:165] Memory required for data: 10428768
I1007 03:35:04.957748 19090 layer_factory.hpp:76] Creating layer label_1_3x5_data_1_split
I1007 03:35:04.957772 19090 net.cpp:106] Creating Layer label_1_3x5_data_1_split
I1007 03:35:04.957784 19090 net.cpp:454] label_1_3x5_data_1_split <- label_1_3x5
I1007 03:35:04.957803 19090 net.cpp:411] label_1_3x5_data_1_split -> label_1_3x5_data_1_split_0
I1007 03:35:04.957820 19090 net.cpp:411] label_1_3x5_data_1_split -> label_1_3x5_data_1_split_1
I1007 03:35:04.957921 19090 net.cpp:150] Setting up label_1_3x5_data_1_split
I1007 03:35:04.957933 19090 net.cpp:157] Top shape: 4 6 56 56 (75264)
I1007 03:35:04.957937 19090 net.cpp:157] Top shape: 4 6 56 56 (75264)
I1007 03:35:04.957940 19090 net.cpp:165] Memory required for data: 11030880
I1007 03:35:04.957943 19090 layer_factory.hpp:76] Creating layer label_1_5x7_data_2_split
I1007 03:35:04.957949 19090 net.cpp:106] Creating Layer label_1_5x7_data_2_split
I1007 03:35:04.957954 19090 net.cpp:454] label_1_5x7_data_2_split <- label_1_5x7
I1007 03:35:04.957960 19090 net.cpp:411] label_1_5x7_data_2_split -> label_1_5x7_data_2_split_0
I1007 03:35:04.957967 19090 net.cpp:411] label_1_5x7_data_2_split -> label_1_5x7_data_2_split_1
I1007 03:35:04.958034 19090 net.cpp:150] Setting up label_1_5x7_data_2_split
I1007 03:35:04.958042 19090 net.cpp:157] Top shape: 4 6 56 56 (75264)
I1007 03:35:04.958046 19090 net.cpp:157] Top shape: 4 6 56 56 (75264)
I1007 03:35:04.958048 19090 net.cpp:165] Memory required for data: 11632992
I1007 03:35:04.958052 19090 layer_factory.hpp:76] Creating layer label_2_3x5_data_3_split
I1007 03:35:04.958057 19090 net.cpp:106] Creating Layer label_2_3x5_data_3_split
I1007 03:35:04.958065 19090 net.cpp:454] label_2_3x5_data_3_split <- label_2_3x5
I1007 03:35:04.958077 19090 net.cpp:411] label_2_3x5_data_3_split -> label_2_3x5_data_3_split_0
I1007 03:35:04.958086 19090 net.cpp:411] label_2_3x5_data_3_split -> label_2_3x5_data_3_split_1
I1007 03:35:04.958132 19090 net.cpp:150] Setting up label_2_3x5_data_3_split
I1007 03:35:04.958140 19090 net.cpp:157] Top shape: 4 6 28 28 (18816)
I1007 03:35:04.958148 19090 net.cpp:157] Top shape: 4 6 28 28 (18816)
I1007 03:35:04.958151 19090 net.cpp:165] Memory required for data: 11783520
I1007 03:35:04.958155 19090 layer_factory.hpp:76] Creating layer label_2_5x7_data_4_split
I1007 03:35:04.958161 19090 net.cpp:106] Creating Layer label_2_5x7_data_4_split
I1007 03:35:04.958166 19090 net.cpp:454] label_2_5x7_data_4_split <- label_2_5x7
I1007 03:35:04.958178 19090 net.cpp:411] label_2_5x7_data_4_split -> label_2_5x7_data_4_split_0
I1007 03:35:04.958186 19090 net.cpp:411] label_2_5x7_data_4_split -> label_2_5x7_data_4_split_1
I1007 03:35:04.958232 19090 net.cpp:150] Setting up label_2_5x7_data_4_split
I1007 03:35:04.958242 19090 net.cpp:157] Top shape: 4 6 28 28 (18816)
I1007 03:35:04.958250 19090 net.cpp:157] Top shape: 4 6 28 28 (18816)
I1007 03:35:04.958253 19090 net.cpp:165] Memory required for data: 11934048
I1007 03:35:04.958258 19090 layer_factory.hpp:76] Creating layer label_3_3x5_data_5_split
I1007 03:35:04.958266 19090 net.cpp:106] Creating Layer label_3_3x5_data_5_split
I1007 03:35:04.958272 19090 net.cpp:454] label_3_3x5_data_5_split <- label_3_3x5
I1007 03:35:04.958282 19090 net.cpp:411] label_3_3x5_data_5_split -> label_3_3x5_data_5_split_0
I1007 03:35:04.958295 19090 net.cpp:411] label_3_3x5_data_5_split -> label_3_3x5_data_5_split_1
I1007 03:35:04.958351 19090 net.cpp:150] Setting up label_3_3x5_data_5_split
I1007 03:35:04.958366 19090 net.cpp:157] Top shape: 4 6 14 14 (4704)
I1007 03:35:04.958374 19090 net.cpp:157] Top shape: 4 6 14 14 (4704)
I1007 03:35:04.958379 19090 net.cpp:165] Memory required for data: 11971680
I1007 03:35:04.958384 19090 layer_factory.hpp:76] Creating layer label_3_5x7_data_6_split
I1007 03:35:04.958395 19090 net.cpp:106] Creating Layer label_3_5x7_data_6_split
I1007 03:35:04.958400 19090 net.cpp:454] label_3_5x7_data_6_split <- label_3_5x7
I1007 03:35:04.958408 19090 net.cpp:411] label_3_5x7_data_6_split -> label_3_5x7_data_6_split_0
I1007 03:35:04.958418 19090 net.cpp:411] label_3_5x7_data_6_split -> label_3_5x7_data_6_split_1
I1007 03:35:04.958458 19090 net.cpp:150] Setting up label_3_5x7_data_6_split
I1007 03:35:04.958467 19090 net.cpp:157] Top shape: 4 6 14 14 (4704)
I1007 03:35:04.958470 19090 net.cpp:157] Top shape: 4 6 14 14 (4704)
I1007 03:35:04.958473 19090 net.cpp:165] Memory required for data: 12009312
I1007 03:35:04.958478 19090 layer_factory.hpp:76] Creating layer label_4_3x5_data_7_split
I1007 03:35:04.958485 19090 net.cpp:106] Creating Layer label_4_3x5_data_7_split
I1007 03:35:04.958494 19090 net.cpp:454] label_4_3x5_data_7_split <- label_4_3x5
I1007 03:35:04.958503 19090 net.cpp:411] label_4_3x5_data_7_split -> label_4_3x5_data_7_split_0
I1007 03:35:04.958511 19090 net.cpp:411] label_4_3x5_data_7_split -> label_4_3x5_data_7_split_1
I1007 03:35:04.958555 19090 net.cpp:150] Setting up label_4_3x5_data_7_split
I1007 03:35:04.958565 19090 net.cpp:157] Top shape: 4 6 7 7 (1176)
I1007 03:35:04.958576 19090 net.cpp:157] Top shape: 4 6 7 7 (1176)
I1007 03:35:04.958580 19090 net.cpp:165] Memory required for data: 12018720
I1007 03:35:04.958585 19090 layer_factory.hpp:76] Creating layer conv1_1
I1007 03:35:04.958600 19090 net.cpp:106] Creating Layer conv1_1
I1007 03:35:04.958606 19090 net.cpp:454] conv1_1 <- data
I1007 03:35:04.958614 19090 net.cpp:411] conv1_1 -> conv1_1
I1007 03:35:05.094626 19090 net.cpp:150] Setting up conv1_1
I1007 03:35:05.094662 19090 net.cpp:157] Top shape: 4 64 448 448 (51380224)
I1007 03:35:05.094666 19090 net.cpp:165] Memory required for data: 217539616
I1007 03:35:05.094692 19090 layer_factory.hpp:76] Creating layer relu1_1
I1007 03:35:05.094722 19090 net.cpp:106] Creating Layer relu1_1
I1007 03:35:05.094727 19090 net.cpp:454] relu1_1 <- conv1_1
I1007 03:35:05.094733 19090 net.cpp:397] relu1_1 -> conv1_1 (in-place)
I1007 03:35:05.094962 19090 net.cpp:150] Setting up relu1_1
I1007 03:35:05.094974 19090 net.cpp:157] Top shape: 4 64 448 448 (51380224)
I1007 03:35:05.094979 19090 net.cpp:165] Memory required for data: 423060512
I1007 03:35:05.094981 19090 layer_factory.hpp:76] Creating layer conv1_2
I1007 03:35:05.094992 19090 net.cpp:106] Creating Layer conv1_2
I1007 03:35:05.094995 19090 net.cpp:454] conv1_2 <- conv1_1
I1007 03:35:05.095001 19090 net.cpp:411] conv1_2 -> conv1_2
I1007 03:35:05.097003 19090 net.cpp:150] Setting up conv1_2
I1007 03:35:05.097021 19090 net.cpp:157] Top shape: 4 64 448 448 (51380224)
I1007 03:35:05.097025 19090 net.cpp:165] Memory required for data: 628581408
I1007 03:35:05.097035 19090 layer_factory.hpp:76] Creating layer relu1_2
I1007 03:35:05.097043 19090 net.cpp:106] Creating Layer relu1_2
I1007 03:35:05.097046 19090 net.cpp:454] relu1_2 <- conv1_2
I1007 03:35:05.097051 19090 net.cpp:397] relu1_2 -> conv1_2 (in-place)
I1007 03:35:05.097426 19090 net.cpp:150] Setting up relu1_2
I1007 03:35:05.097440 19090 net.cpp:157] Top shape: 4 64 448 448 (51380224)
I1007 03:35:05.097443 19090 net.cpp:165] Memory required for data: 834102304
I1007 03:35:05.097446 19090 layer_factory.hpp:76] Creating layer pool1
I1007 03:35:05.097455 19090 net.cpp:106] Creating Layer pool1
I1007 03:35:05.097457 19090 net.cpp:454] pool1 <- conv1_2
I1007 03:35:05.097465 19090 net.cpp:411] pool1 -> pool1
I1007 03:35:05.097702 19090 net.cpp:150] Setting up pool1
I1007 03:35:05.097714 19090 net.cpp:157] Top shape: 4 64 224 224 (12845056)
I1007 03:35:05.097719 19090 net.cpp:165] Memory required for data: 885482528
I1007 03:35:05.097723 19090 layer_factory.hpp:76] Creating layer conv2_1
I1007 03:35:05.097733 19090 net.cpp:106] Creating Layer conv2_1
I1007 03:35:05.097739 19090 net.cpp:454] conv2_1 <- pool1
I1007 03:35:05.097749 19090 net.cpp:411] conv2_1 -> conv2_1
I1007 03:35:05.099614 19090 net.cpp:150] Setting up conv2_1
I1007 03:35:05.099637 19090 net.cpp:157] Top shape: 4 128 224 224 (25690112)
I1007 03:35:05.099640 19090 net.cpp:165] Memory required for data: 988242976
I1007 03:35:05.099652 19090 layer_factory.hpp:76] Creating layer relu2_1
I1007 03:35:05.099658 19090 net.cpp:106] Creating Layer relu2_1
I1007 03:35:05.099661 19090 net.cpp:454] relu2_1 <- conv2_1
I1007 03:35:05.099668 19090 net.cpp:397] relu2_1 -> conv2_1 (in-place)
I1007 03:35:05.100057 19090 net.cpp:150] Setting up relu2_1
I1007 03:35:05.100072 19090 net.cpp:157] Top shape: 4 128 224 224 (25690112)
I1007 03:35:05.100078 19090 net.cpp:165] Memory required for data: 1091003424
I1007 03:35:05.100083 19090 layer_factory.hpp:76] Creating layer conv2_2
I1007 03:35:05.100096 19090 net.cpp:106] Creating Layer conv2_2
I1007 03:35:05.100101 19090 net.cpp:454] conv2_2 <- conv2_1
I1007 03:35:05.100111 19090 net.cpp:411] conv2_2 -> conv2_2
I1007 03:35:05.101516 19090 net.cpp:150] Setting up conv2_2
I1007 03:35:05.101531 19090 net.cpp:157] Top shape: 4 128 224 224 (25690112)
I1007 03:35:05.101537 19090 net.cpp:165] Memory required for data: 1193763872
I1007 03:35:05.101547 19090 layer_factory.hpp:76] Creating layer relu2_2
I1007 03:35:05.101564 19090 net.cpp:106] Creating Layer relu2_2
I1007 03:35:05.101572 19090 net.cpp:454] relu2_2 <- conv2_2
I1007 03:35:05.101593 19090 net.cpp:397] relu2_2 -> conv2_2 (in-place)
I1007 03:35:05.102036 19090 net.cpp:150] Setting up relu2_2
I1007 03:35:05.102057 19090 net.cpp:157] Top shape: 4 128 224 224 (25690112)
I1007 03:35:05.102062 19090 net.cpp:165] Memory required for data: 1296524320
I1007 03:35:05.102067 19090 layer_factory.hpp:76] Creating layer pool2
I1007 03:35:05.102084 19090 net.cpp:106] Creating Layer pool2
I1007 03:35:05.102089 19090 net.cpp:454] pool2 <- conv2_2
I1007 03:35:05.102100 19090 net.cpp:411] pool2 -> pool2
I1007 03:35:05.102396 19090 net.cpp:150] Setting up pool2
I1007 03:35:05.102408 19090 net.cpp:157] Top shape: 4 128 112 112 (6422528)
I1007 03:35:05.102413 19090 net.cpp:165] Memory required for data: 1322214432
I1007 03:35:05.102417 19090 layer_factory.hpp:76] Creating layer conv3_1
I1007 03:35:05.102428 19090 net.cpp:106] Creating Layer conv3_1
I1007 03:35:05.102433 19090 net.cpp:454] conv3_1 <- pool2
I1007 03:35:05.102447 19090 net.cpp:411] conv3_1 -> conv3_1
I1007 03:35:05.104569 19090 net.cpp:150] Setting up conv3_1
I1007 03:35:05.104585 19090 net.cpp:157] Top shape: 4 256 112 112 (12845056)
I1007 03:35:05.104589 19090 net.cpp:165] Memory required for data: 1373594656
I1007 03:35:05.104600 19090 layer_factory.hpp:76] Creating layer relu3_1
I1007 03:35:05.104609 19090 net.cpp:106] Creating Layer relu3_1
I1007 03:35:05.104615 19090 net.cpp:454] relu3_1 <- conv3_1
I1007 03:35:05.104632 19090 net.cpp:397] relu3_1 -> conv3_1 (in-place)
I1007 03:35:05.105006 19090 net.cpp:150] Setting up relu3_1
I1007 03:35:05.105020 19090 net.cpp:157] Top shape: 4 256 112 112 (12845056)
I1007 03:35:05.105023 19090 net.cpp:165] Memory required for data: 1424974880
I1007 03:35:05.105027 19090 layer_factory.hpp:76] Creating layer conv3_2
I1007 03:35:05.105036 19090 net.cpp:106] Creating Layer conv3_2
I1007 03:35:05.105039 19090 net.cpp:454] conv3_2 <- conv3_1
I1007 03:35:05.105046 19090 net.cpp:411] conv3_2 -> conv3_2
I1007 03:35:05.107816 19090 net.cpp:150] Setting up conv3_2
I1007 03:35:05.107832 19090 net.cpp:157] Top shape: 4 256 112 112 (12845056)
I1007 03:35:05.107836 19090 net.cpp:165] Memory required for data: 1476355104
I1007 03:35:05.107842 19090 layer_factory.hpp:76] Creating layer relu3_2
I1007 03:35:05.107851 19090 net.cpp:106] Creating Layer relu3_2
I1007 03:35:05.107854 19090 net.cpp:454] relu3_2 <- conv3_2
I1007 03:35:05.107859 19090 net.cpp:397] relu3_2 -> conv3_2 (in-place)
I1007 03:35:05.108314 19090 net.cpp:150] Setting up relu3_2
I1007 03:35:05.108327 19090 net.cpp:157] Top shape: 4 256 112 112 (12845056)
I1007 03:35:05.108330 19090 net.cpp:165] Memory required for data: 1527735328
I1007 03:35:05.108337 19090 layer_factory.hpp:76] Creating layer conv3_3
I1007 03:35:05.108345 19090 net.cpp:106] Creating Layer conv3_3
I1007 03:35:05.108350 19090 net.cpp:454] conv3_3 <- conv3_2
I1007 03:35:05.108361 19090 net.cpp:411] conv3_3 -> conv3_3
I1007 03:35:05.111136 19090 net.cpp:150] Setting up conv3_3
I1007 03:35:05.111155 19090 net.cpp:157] Top shape: 4 256 112 112 (12845056)
I1007 03:35:05.111157 19090 net.cpp:165] Memory required for data: 1579115552
I1007 03:35:05.111165 19090 layer_factory.hpp:76] Creating layer relu3_3
I1007 03:35:05.111171 19090 net.cpp:106] Creating Layer relu3_3
I1007 03:35:05.111176 19090 net.cpp:454] relu3_3 <- conv3_3
I1007 03:35:05.111183 19090 net.cpp:397] relu3_3 -> conv3_3 (in-place)
I1007 03:35:05.111409 19090 net.cpp:150] Setting up relu3_3
I1007 03:35:05.111423 19090 net.cpp:157] Top shape: 4 256 112 112 (12845056)
I1007 03:35:05.111425 19090 net.cpp:165] Memory required for data: 1630495776
I1007 03:35:05.111428 19090 layer_factory.hpp:76] Creating layer pool3
I1007 03:35:05.111436 19090 net.cpp:106] Creating Layer pool3
I1007 03:35:05.111439 19090 net.cpp:454] pool3 <- conv3_3
I1007 03:35:05.111445 19090 net.cpp:411] pool3 -> pool3
I1007 03:35:05.111865 19090 net.cpp:150] Setting up pool3
I1007 03:35:05.111879 19090 net.cpp:157] Top shape: 4 256 56 56 (3211264)
I1007 03:35:05.111882 19090 net.cpp:165] Memory required for data: 1643340832
I1007 03:35:05.111891 19090 layer_factory.hpp:76] Creating layer conv4_1
I1007 03:35:05.111901 19090 net.cpp:106] Creating Layer conv4_1
I1007 03:35:05.111904 19090 net.cpp:454] conv4_1 <- pool3
I1007 03:35:05.111927 19090 net.cpp:411] conv4_1 -> conv4_1
I1007 03:35:05.116557 19090 net.cpp:150] Setting up conv4_1
I1007 03:35:05.116577 19090 net.cpp:157] Top shape: 4 512 56 56 (6422528)
I1007 03:35:05.116581 19090 net.cpp:165] Memory required for data: 1669030944
I1007 03:35:05.116591 19090 layer_factory.hpp:76] Creating layer relu4_1
I1007 03:35:05.116600 19090 net.cpp:106] Creating Layer relu4_1
I1007 03:35:05.116606 19090 net.cpp:454] relu4_1 <- conv4_1
I1007 03:35:05.116612 19090 net.cpp:397] relu4_1 -> conv4_1 (in-place)
I1007 03:35:05.116878 19090 net.cpp:150] Setting up relu4_1
I1007 03:35:05.116891 19090 net.cpp:157] Top shape: 4 512 56 56 (6422528)
I1007 03:35:05.116895 19090 net.cpp:165] Memory required for data: 1694721056
I1007 03:35:05.116900 19090 layer_factory.hpp:76] Creating layer conv4_2
I1007 03:35:05.116912 19090 net.cpp:106] Creating Layer conv4_2
I1007 03:35:05.116919 19090 net.cpp:454] conv4_2 <- conv4_1
I1007 03:35:05.116932 19090 net.cpp:411] conv4_2 -> conv4_2
I1007 03:35:05.123580 19090 net.cpp:150] Setting up conv4_2
I1007 03:35:05.123597 19090 net.cpp:157] Top shape: 4 512 56 56 (6422528)
I1007 03:35:05.123601 19090 net.cpp:165] Memory required for data: 1720411168
I1007 03:35:05.123613 19090 layer_factory.hpp:76] Creating layer relu4_2
I1007 03:35:05.123622 19090 net.cpp:106] Creating Layer relu4_2
I1007 03:35:05.123626 19090 net.cpp:454] relu4_2 <- conv4_2
I1007 03:35:05.123632 19090 net.cpp:397] relu4_2 -> conv4_2 (in-place)
I1007 03:35:05.124027 19090 net.cpp:150] Setting up relu4_2
I1007 03:35:05.124040 19090 net.cpp:157] Top shape: 4 512 56 56 (6422528)
I1007 03:35:05.124043 19090 net.cpp:165] Memory required for data: 1746101280
I1007 03:35:05.124047 19090 layer_factory.hpp:76] Creating layer conv4_3
I1007 03:35:05.124056 19090 net.cpp:106] Creating Layer conv4_3
I1007 03:35:05.124061 19090 net.cpp:454] conv4_3 <- conv4_2
I1007 03:35:05.124068 19090 net.cpp:411] conv4_3 -> conv4_3
I1007 03:35:05.130805 19090 net.cpp:150] Setting up conv4_3
I1007 03:35:05.130828 19090 net.cpp:157] Top shape: 4 512 56 56 (6422528)
I1007 03:35:05.130838 19090 net.cpp:165] Memory required for data: 1771791392
I1007 03:35:05.130846 19090 layer_factory.hpp:76] Creating layer relu4_3
I1007 03:35:05.130858 19090 net.cpp:106] Creating Layer relu4_3
I1007 03:35:05.130863 19090 net.cpp:454] relu4_3 <- conv4_3
I1007 03:35:05.130868 19090 net.cpp:397] relu4_3 -> conv4_3 (in-place)
I1007 03:35:05.131263 19090 net.cpp:150] Setting up relu4_3
I1007 03:35:05.131278 19090 net.cpp:157] Top shape: 4 512 56 56 (6422528)
I1007 03:35:05.131281 19090 net.cpp:165] Memory required for data: 1797481504
I1007 03:35:05.131284 19090 layer_factory.hpp:76] Creating layer conv4_3_relu4_3_0_split
I1007 03:35:05.131292 19090 net.cpp:106] Creating Layer conv4_3_relu4_3_0_split
I1007 03:35:05.131297 19090 net.cpp:454] conv4_3_relu4_3_0_split <- conv4_3
I1007 03:35:05.131304 19090 net.cpp:411] conv4_3_relu4_3_0_split -> conv4_3_relu4_3_0_split_0
I1007 03:35:05.131310 19090 net.cpp:411] conv4_3_relu4_3_0_split -> conv4_3_relu4_3_0_split_1
I1007 03:35:05.131371 19090 net.cpp:150] Setting up conv4_3_relu4_3_0_split
I1007 03:35:05.131381 19090 net.cpp:157] Top shape: 4 512 56 56 (6422528)
I1007 03:35:05.131388 19090 net.cpp:157] Top shape: 4 512 56 56 (6422528)
I1007 03:35:05.131393 19090 net.cpp:165] Memory required for data: 1848861728
I1007 03:35:05.131398 19090 layer_factory.hpp:76] Creating layer loss1_conv1
I1007 03:35:05.131419 19090 net.cpp:106] Creating Layer loss1_conv1
I1007 03:35:05.131425 19090 net.cpp:454] loss1_conv1 <- conv4_3_relu4_3_0_split_0
I1007 03:35:05.131438 19090 net.cpp:411] loss1_conv1 -> loss1_conv1
I1007 03:35:05.220036 19090 net.cpp:150] Setting up loss1_conv1
I1007 03:35:05.220073 19090 net.cpp:157] Top shape: 4 512 56 56 (6422528)
I1007 03:35:05.220077 19090 net.cpp:165] Memory required for data: 1874551840
I1007 03:35:05.220087 19090 layer_factory.hpp:76] Creating layer loss_relu1
I1007 03:35:05.220095 19090 net.cpp:106] Creating Layer loss_relu1
I1007 03:35:05.220101 19090 net.cpp:454] loss_relu1 <- loss1_conv1
I1007 03:35:05.220108 19090 net.cpp:397] loss_relu1 -> loss1_conv1 (in-place)
I1007 03:35:05.220322 19090 net.cpp:150] Setting up loss_relu1
I1007 03:35:05.220335 19090 net.cpp:157] Top shape: 4 512 56 56 (6422528)
I1007 03:35:05.220337 19090 net.cpp:165] Memory required for data: 1900241952
I1007 03:35:05.220340 19090 layer_factory.hpp:76] Creating layer loss1_conv1_loss_relu1_0_split
I1007 03:35:05.220347 19090 net.cpp:106] Creating Layer loss1_conv1_loss_relu1_0_split
I1007 03:35:05.220350 19090 net.cpp:454] loss1_conv1_loss_relu1_0_split <- loss1_conv1
I1007 03:35:05.220357 19090 net.cpp:411] loss1_conv1_loss_relu1_0_split -> loss1_conv1_loss_relu1_0_split_0
I1007 03:35:05.220366 19090 net.cpp:411] loss1_conv1_loss_relu1_0_split -> loss1_conv1_loss_relu1_0_split_1
I1007 03:35:05.220412 19090 net.cpp:150] Setting up loss1_conv1_loss_relu1_0_split
I1007 03:35:05.220420 19090 net.cpp:157] Top shape: 4 512 56 56 (6422528)
I1007 03:35:05.220427 19090 net.cpp:157] Top shape: 4 512 56 56 (6422528)
I1007 03:35:05.220432 19090 net.cpp:165] Memory required for data: 1951622176
I1007 03:35:05.220437 19090 layer_factory.hpp:76] Creating layer LFCN_1_3x5
I1007 03:35:05.220451 19090 net.cpp:106] Creating Layer LFCN_1_3x5
I1007 03:35:05.220458 19090 net.cpp:454] LFCN_1_3x5 <- loss1_conv1_loss_relu1_0_split_0
I1007 03:35:05.220466 19090 net.cpp:411] LFCN_1_3x5 -> LFCN_1_3x5
I1007 03:35:05.224006 19090 net.cpp:150] Setting up LFCN_1_3x5
I1007 03:35:05.224022 19090 net.cpp:157] Top shape: 4 6 56 56 (75264)
I1007 03:35:05.224026 19090 net.cpp:165] Memory required for data: 1951923232
I1007 03:35:05.224032 19090 layer_factory.hpp:76] Creating layer LFCN_1_3x5_LFCN_1_3x5_0_split
I1007 03:35:05.224038 19090 net.cpp:106] Creating Layer LFCN_1_3x5_LFCN_1_3x5_0_split
I1007 03:35:05.224043 19090 net.cpp:454] LFCN_1_3x5_LFCN_1_3x5_0_split <- LFCN_1_3x5
I1007 03:35:05.224056 19090 net.cpp:411] LFCN_1_3x5_LFCN_1_3x5_0_split -> LFCN_1_3x5_LFCN_1_3x5_0_split_0
I1007 03:35:05.224066 19090 net.cpp:411] LFCN_1_3x5_LFCN_1_3x5_0_split -> LFCN_1_3x5_LFCN_1_3x5_0_split_1
I1007 03:35:05.224128 19090 net.cpp:150] Setting up LFCN_1_3x5_LFCN_1_3x5_0_split
I1007 03:35:05.224141 19090 net.cpp:157] Top shape: 4 6 56 56 (75264)
I1007 03:35:05.224148 19090 net.cpp:157] Top shape: 4 6 56 56 (75264)
I1007 03:35:05.224153 19090 net.cpp:165] Memory required for data: 1952525344
I1007 03:35:05.224159 19090 layer_factory.hpp:76] Creating layer detection_loss_1_3x5
I1007 03:35:05.224169 19090 net.cpp:106] Creating Layer detection_loss_1_3x5
I1007 03:35:05.224174 19090 net.cpp:454] detection_loss_1_3x5 <- LFCN_1_3x5_LFCN_1_3x5_0_split_0
I1007 03:35:05.224182 19090 net.cpp:454] detection_loss_1_3x5 <- label_1_3x5_data_1_split_0
I1007 03:35:05.224195 19090 net.cpp:411] detection_loss_1_3x5 -> loss_1_3x5
I1007 03:35:05.224215 19090 layer_factory.hpp:76] Creating layer detection_loss_1_3x5
I1007 03:35:05.225040 19090 net.cpp:150] Setting up detection_loss_1_3x5
I1007 03:35:05.225055 19090 net.cpp:157] Top shape: 1 1 1 2 (2)
I1007 03:35:05.225059 19090 net.cpp:160]     with loss weight 0.9
I1007 03:35:05.225085 19090 net.cpp:165] Memory required for data: 1952525352
I1007 03:35:05.225091 19090 layer_factory.hpp:76] Creating layer detection_accuracy_1_3x5
I1007 03:35:05.225102 19090 net.cpp:106] Creating Layer detection_accuracy_1_3x5
I1007 03:35:05.225108 19090 net.cpp:454] detection_accuracy_1_3x5 <- LFCN_1_3x5_LFCN_1_3x5_0_split_1
I1007 03:35:05.225116 19090 net.cpp:454] detection_accuracy_1_3x5 <- label_1_3x5_data_1_split_1
I1007 03:35:05.225127 19090 net.cpp:411] detection_accuracy_1_3x5 -> accuracy_1_3x5
I1007 03:35:05.225139 19090 net.cpp:411] detection_accuracy_1_3x5 -> boxiou_1_3x5
I1007 03:35:05.225208 19090 net.cpp:150] Setting up detection_accuracy_1_3x5
I1007 03:35:05.225219 19090 net.cpp:157] Top shape: 1 1 1 2 (2)
I1007 03:35:05.225225 19090 net.cpp:157] Top shape: 1 1 1 1 (1)
I1007 03:35:05.225229 19090 net.cpp:165] Memory required for data: 1952525364
I1007 03:35:05.225232 19090 layer_factory.hpp:76] Creating layer LFCN_1_5x7
I1007 03:35:05.225245 19090 net.cpp:106] Creating Layer LFCN_1_5x7
I1007 03:35:05.225251 19090 net.cpp:454] LFCN_1_5x7 <- loss1_conv1_loss_relu1_0_split_1
I1007 03:35:05.225261 19090 net.cpp:411] LFCN_1_5x7 -> LFCN_1_5x7
I1007 03:35:05.230728 19090 net.cpp:150] Setting up LFCN_1_5x7
I1007 03:35:05.230744 19090 net.cpp:157] Top shape: 4 6 56 56 (75264)
I1007 03:35:05.230748 19090 net.cpp:165] Memory required for data: 1952826420
I1007 03:35:05.230754 19090 layer_factory.hpp:76] Creating layer LFCN_1_5x7_LFCN_1_5x7_0_split
I1007 03:35:05.230761 19090 net.cpp:106] Creating Layer LFCN_1_5x7_LFCN_1_5x7_0_split
I1007 03:35:05.230764 19090 net.cpp:454] LFCN_1_5x7_LFCN_1_5x7_0_split <- LFCN_1_5x7
I1007 03:35:05.230772 19090 net.cpp:411] LFCN_1_5x7_LFCN_1_5x7_0_split -> LFCN_1_5x7_LFCN_1_5x7_0_split_0
I1007 03:35:05.230779 19090 net.cpp:411] LFCN_1_5x7_LFCN_1_5x7_0_split -> LFCN_1_5x7_LFCN_1_5x7_0_split_1
I1007 03:35:05.230842 19090 net.cpp:150] Setting up LFCN_1_5x7_LFCN_1_5x7_0_split
I1007 03:35:05.230851 19090 net.cpp:157] Top shape: 4 6 56 56 (75264)
I1007 03:35:05.230855 19090 net.cpp:157] Top shape: 4 6 56 56 (75264)
I1007 03:35:05.230859 19090 net.cpp:165] Memory required for data: 1953428532
I1007 03:35:05.230861 19090 layer_factory.hpp:76] Creating layer detection_loss_1_5x7
I1007 03:35:05.230870 19090 net.cpp:106] Creating Layer detection_loss_1_5x7
I1007 03:35:05.230873 19090 net.cpp:454] detection_loss_1_5x7 <- LFCN_1_5x7_LFCN_1_5x7_0_split_0
I1007 03:35:05.230880 19090 net.cpp:454] detection_loss_1_5x7 <- label_1_5x7_data_2_split_0
I1007 03:35:05.230891 19090 net.cpp:411] detection_loss_1_5x7 -> loss_1_5x7
I1007 03:35:05.230901 19090 layer_factory.hpp:76] Creating layer detection_loss_1_5x7
I1007 03:35:05.231484 19090 net.cpp:150] Setting up detection_loss_1_5x7
I1007 03:35:05.231498 19090 net.cpp:157] Top shape: 1 1 1 2 (2)
I1007 03:35:05.231501 19090 net.cpp:160]     with loss weight 0.9
I1007 03:35:05.231515 19090 net.cpp:165] Memory required for data: 1953428540
I1007 03:35:05.231518 19090 layer_factory.hpp:76] Creating layer detection_accuracy_1_5x7
I1007 03:35:05.231524 19090 net.cpp:106] Creating Layer detection_accuracy_1_5x7
I1007 03:35:05.231528 19090 net.cpp:454] detection_accuracy_1_5x7 <- LFCN_1_5x7_LFCN_1_5x7_0_split_1
I1007 03:35:05.231536 19090 net.cpp:454] detection_accuracy_1_5x7 <- label_1_5x7_data_2_split_1
I1007 03:35:05.231541 19090 net.cpp:411] detection_accuracy_1_5x7 -> accuracy_1_5x7
I1007 03:35:05.231549 19090 net.cpp:411] detection_accuracy_1_5x7 -> boxiou_1_5x7
I1007 03:35:05.231614 19090 net.cpp:150] Setting up detection_accuracy_1_5x7
I1007 03:35:05.231626 19090 net.cpp:157] Top shape: 1 1 1 2 (2)
I1007 03:35:05.231633 19090 net.cpp:157] Top shape: 1 1 1 1 (1)
I1007 03:35:05.231637 19090 net.cpp:165] Memory required for data: 1953428552
I1007 03:35:05.231642 19090 layer_factory.hpp:76] Creating layer pool4
I1007 03:35:05.231652 19090 net.cpp:106] Creating Layer pool4
I1007 03:35:05.231657 19090 net.cpp:454] pool4 <- conv4_3_relu4_3_0_split_1
I1007 03:35:05.231667 19090 net.cpp:411] pool4 -> pool4
I1007 03:35:05.232092 19090 net.cpp:150] Setting up pool4
I1007 03:35:05.232106 19090 net.cpp:157] Top shape: 4 512 28 28 (1605632)
I1007 03:35:05.232110 19090 net.cpp:165] Memory required for data: 1959851080
I1007 03:35:05.232112 19090 layer_factory.hpp:76] Creating layer conv5_1
I1007 03:35:05.232122 19090 net.cpp:106] Creating Layer conv5_1
I1007 03:35:05.232126 19090 net.cpp:454] conv5_1 <- pool4
I1007 03:35:05.232131 19090 net.cpp:411] conv5_1 -> conv5_1
I1007 03:35:05.238551 19090 net.cpp:150] Setting up conv5_1
I1007 03:35:05.238567 19090 net.cpp:157] Top shape: 4 512 28 28 (1605632)
I1007 03:35:05.238570 19090 net.cpp:165] Memory required for data: 1966273608
I1007 03:35:05.238581 19090 layer_factory.hpp:76] Creating layer relu5_1
I1007 03:35:05.238590 19090 net.cpp:106] Creating Layer relu5_1
I1007 03:35:05.238595 19090 net.cpp:454] relu5_1 <- conv5_1
I1007 03:35:05.238600 19090 net.cpp:397] relu5_1 -> conv5_1 (in-place)
I1007 03:35:05.239007 19090 net.cpp:150] Setting up relu5_1
I1007 03:35:05.239022 19090 net.cpp:157] Top shape: 4 512 28 28 (1605632)
I1007 03:35:05.239025 19090 net.cpp:165] Memory required for data: 1972696136
I1007 03:35:05.239029 19090 layer_factory.hpp:76] Creating layer conv5_2
I1007 03:35:05.239038 19090 net.cpp:106] Creating Layer conv5_2
I1007 03:35:05.239042 19090 net.cpp:454] conv5_2 <- conv5_1
I1007 03:35:05.239049 19090 net.cpp:411] conv5_2 -> conv5_2
I1007 03:35:05.245708 19090 net.cpp:150] Setting up conv5_2
I1007 03:35:05.245730 19090 net.cpp:157] Top shape: 4 512 28 28 (1605632)
I1007 03:35:05.245733 19090 net.cpp:165] Memory required for data: 1979118664
I1007 03:35:05.245744 19090 layer_factory.hpp:76] Creating layer relu5_2
I1007 03:35:05.245754 19090 net.cpp:106] Creating Layer relu5_2
I1007 03:35:05.245759 19090 net.cpp:454] relu5_2 <- conv5_2
I1007 03:35:05.245764 19090 net.cpp:397] relu5_2 -> conv5_2 (in-place)
I1007 03:35:05.245986 19090 net.cpp:150] Setting up relu5_2
I1007 03:35:05.246000 19090 net.cpp:157] Top shape: 4 512 28 28 (1605632)
I1007 03:35:05.246002 19090 net.cpp:165] Memory required for data: 1985541192
I1007 03:35:05.246006 19090 layer_factory.hpp:76] Creating layer conv5_3
I1007 03:35:05.246014 19090 net.cpp:106] Creating Layer conv5_3
I1007 03:35:05.246018 19090 net.cpp:454] conv5_3 <- conv5_2
I1007 03:35:05.246026 19090 net.cpp:411] conv5_3 -> conv5_3
I1007 03:35:05.252696 19090 net.cpp:150] Setting up conv5_3
I1007 03:35:05.252714 19090 net.cpp:157] Top shape: 4 512 28 28 (1605632)
I1007 03:35:05.252717 19090 net.cpp:165] Memory required for data: 1991963720
I1007 03:35:05.252727 19090 layer_factory.hpp:76] Creating layer relu5_3
I1007 03:35:05.252734 19090 net.cpp:106] Creating Layer relu5_3
I1007 03:35:05.252738 19090 net.cpp:454] relu5_3 <- conv5_3
I1007 03:35:05.252745 19090 net.cpp:397] relu5_3 -> conv5_3 (in-place)
I1007 03:35:05.253147 19090 net.cpp:150] Setting up relu5_3
I1007 03:35:05.253161 19090 net.cpp:157] Top shape: 4 512 28 28 (1605632)
I1007 03:35:05.253165 19090 net.cpp:165] Memory required for data: 1998386248
I1007 03:35:05.253168 19090 layer_factory.hpp:76] Creating layer conv5_3_relu5_3_0_split
I1007 03:35:05.253176 19090 net.cpp:106] Creating Layer conv5_3_relu5_3_0_split
I1007 03:35:05.253181 19090 net.cpp:454] conv5_3_relu5_3_0_split <- conv5_3
I1007 03:35:05.253190 19090 net.cpp:411] conv5_3_relu5_3_0_split -> conv5_3_relu5_3_0_split_0
I1007 03:35:05.253201 19090 net.cpp:411] conv5_3_relu5_3_0_split -> conv5_3_relu5_3_0_split_1
I1007 03:35:05.253211 19090 net.cpp:411] conv5_3_relu5_3_0_split -> conv5_3_relu5_3_0_split_2
I1007 03:35:05.253311 19090 net.cpp:150] Setting up conv5_3_relu5_3_0_split
I1007 03:35:05.253324 19090 net.cpp:157] Top shape: 4 512 28 28 (1605632)
I1007 03:35:05.253327 19090 net.cpp:157] Top shape: 4 512 28 28 (1605632)
I1007 03:35:05.253330 19090 net.cpp:157] Top shape: 4 512 28 28 (1605632)
I1007 03:35:05.253332 19090 net.cpp:165] Memory required for data: 2017653832
I1007 03:35:05.253335 19090 layer_factory.hpp:76] Creating layer LFCN_2_3x5
I1007 03:35:05.253350 19090 net.cpp:106] Creating Layer LFCN_2_3x5
I1007 03:35:05.253358 19090 net.cpp:454] LFCN_2_3x5 <- conv5_3_relu5_3_0_split_0
I1007 03:35:05.253367 19090 net.cpp:411] LFCN_2_3x5 -> LFCN_2_3x5
I1007 03:35:05.256078 19090 net.cpp:150] Setting up LFCN_2_3x5
I1007 03:35:05.256093 19090 net.cpp:157] Top shape: 4 6 28 28 (18816)
I1007 03:35:05.256096 19090 net.cpp:165] Memory required for data: 2017729096
I1007 03:35:05.256114 19090 layer_factory.hpp:76] Creating layer LFCN_2_3x5_LFCN_2_3x5_0_split
I1007 03:35:05.256120 19090 net.cpp:106] Creating Layer LFCN_2_3x5_LFCN_2_3x5_0_split
I1007 03:35:05.256124 19090 net.cpp:454] LFCN_2_3x5_LFCN_2_3x5_0_split <- LFCN_2_3x5
I1007 03:35:05.256130 19090 net.cpp:411] LFCN_2_3x5_LFCN_2_3x5_0_split -> LFCN_2_3x5_LFCN_2_3x5_0_split_0
I1007 03:35:05.256137 19090 net.cpp:411] LFCN_2_3x5_LFCN_2_3x5_0_split -> LFCN_2_3x5_LFCN_2_3x5_0_split_1
I1007 03:35:05.256201 19090 net.cpp:150] Setting up LFCN_2_3x5_LFCN_2_3x5_0_split
I1007 03:35:05.256208 19090 net.cpp:157] Top shape: 4 6 28 28 (18816)
I1007 03:35:05.256212 19090 net.cpp:157] Top shape: 4 6 28 28 (18816)
I1007 03:35:05.256217 19090 net.cpp:165] Memory required for data: 2017879624
I1007 03:35:05.256222 19090 layer_factory.hpp:76] Creating layer detection_loss_2_3x5
I1007 03:35:05.256234 19090 net.cpp:106] Creating Layer detection_loss_2_3x5
I1007 03:35:05.256240 19090 net.cpp:454] detection_loss_2_3x5 <- LFCN_2_3x5_LFCN_2_3x5_0_split_0
I1007 03:35:05.256249 19090 net.cpp:454] detection_loss_2_3x5 <- label_2_3x5_data_3_split_0
I1007 03:35:05.256258 19090 net.cpp:411] detection_loss_2_3x5 -> loss_2_3x5
I1007 03:35:05.256274 19090 layer_factory.hpp:76] Creating layer detection_loss_2_3x5
I1007 03:35:05.256880 19090 net.cpp:150] Setting up detection_loss_2_3x5
I1007 03:35:05.256896 19090 net.cpp:157] Top shape: 1 1 1 2 (2)
I1007 03:35:05.256898 19090 net.cpp:160]     with loss weight 1
I1007 03:35:05.256911 19090 net.cpp:165] Memory required for data: 2017879632
I1007 03:35:05.256916 19090 layer_factory.hpp:76] Creating layer detection_accuracy_2_3x5
I1007 03:35:05.256924 19090 net.cpp:106] Creating Layer detection_accuracy_2_3x5
I1007 03:35:05.256930 19090 net.cpp:454] detection_accuracy_2_3x5 <- LFCN_2_3x5_LFCN_2_3x5_0_split_1
I1007 03:35:05.256938 19090 net.cpp:454] detection_accuracy_2_3x5 <- label_2_3x5_data_3_split_1
I1007 03:35:05.256950 19090 net.cpp:411] detection_accuracy_2_3x5 -> accuracy_2_3x5
I1007 03:35:05.256963 19090 net.cpp:411] detection_accuracy_2_3x5 -> boxiou_2_3x5
I1007 03:35:05.257038 19090 net.cpp:150] Setting up detection_accuracy_2_3x5
I1007 03:35:05.257046 19090 net.cpp:157] Top shape: 1 1 1 2 (2)
I1007 03:35:05.257052 19090 net.cpp:157] Top shape: 1 1 1 1 (1)
I1007 03:35:05.257055 19090 net.cpp:165] Memory required for data: 2017879644
I1007 03:35:05.257058 19090 layer_factory.hpp:76] Creating layer LFCN_2_5x7
I1007 03:35:05.257066 19090 net.cpp:106] Creating Layer LFCN_2_5x7
I1007 03:35:05.257069 19090 net.cpp:454] LFCN_2_5x7 <- conv5_3_relu5_3_0_split_1
I1007 03:35:05.257077 19090 net.cpp:411] LFCN_2_5x7 -> LFCN_2_5x7
I1007 03:35:05.262336 19090 net.cpp:150] Setting up LFCN_2_5x7
I1007 03:35:05.262351 19090 net.cpp:157] Top shape: 4 6 28 28 (18816)
I1007 03:35:05.262356 19090 net.cpp:165] Memory required for data: 2017954908
I1007 03:35:05.262364 19090 layer_factory.hpp:76] Creating layer LFCN_2_5x7_LFCN_2_5x7_0_split
I1007 03:35:05.262370 19090 net.cpp:106] Creating Layer LFCN_2_5x7_LFCN_2_5x7_0_split
I1007 03:35:05.262374 19090 net.cpp:454] LFCN_2_5x7_LFCN_2_5x7_0_split <- LFCN_2_5x7
I1007 03:35:05.262382 19090 net.cpp:411] LFCN_2_5x7_LFCN_2_5x7_0_split -> LFCN_2_5x7_LFCN_2_5x7_0_split_0
I1007 03:35:05.262389 19090 net.cpp:411] LFCN_2_5x7_LFCN_2_5x7_0_split -> LFCN_2_5x7_LFCN_2_5x7_0_split_1
I1007 03:35:05.262452 19090 net.cpp:150] Setting up LFCN_2_5x7_LFCN_2_5x7_0_split
I1007 03:35:05.262464 19090 net.cpp:157] Top shape: 4 6 28 28 (18816)
I1007 03:35:05.262470 19090 net.cpp:157] Top shape: 4 6 28 28 (18816)
I1007 03:35:05.262475 19090 net.cpp:165] Memory required for data: 2018105436
I1007 03:35:05.262480 19090 layer_factory.hpp:76] Creating layer detection_loss_2_5x7
I1007 03:35:05.262488 19090 net.cpp:106] Creating Layer detection_loss_2_5x7
I1007 03:35:05.262492 19090 net.cpp:454] detection_loss_2_5x7 <- LFCN_2_5x7_LFCN_2_5x7_0_split_0
I1007 03:35:05.262500 19090 net.cpp:454] detection_loss_2_5x7 <- label_2_5x7_data_4_split_0
I1007 03:35:05.262506 19090 net.cpp:411] detection_loss_2_5x7 -> loss_2_5x7
I1007 03:35:05.262514 19090 layer_factory.hpp:76] Creating layer detection_loss_2_5x7
I1007 03:35:05.262926 19090 net.cpp:150] Setting up detection_loss_2_5x7
I1007 03:35:05.262939 19090 net.cpp:157] Top shape: 1 1 1 2 (2)
I1007 03:35:05.262943 19090 net.cpp:160]     with loss weight 1
I1007 03:35:05.262953 19090 net.cpp:165] Memory required for data: 2018105444
I1007 03:35:05.262955 19090 layer_factory.hpp:76] Creating layer detection_accuracy_2_5x7
I1007 03:35:05.262962 19090 net.cpp:106] Creating Layer detection_accuracy_2_5x7
I1007 03:35:05.262965 19090 net.cpp:454] detection_accuracy_2_5x7 <- LFCN_2_5x7_LFCN_2_5x7_0_split_1
I1007 03:35:05.262971 19090 net.cpp:454] detection_accuracy_2_5x7 <- label_2_5x7_data_4_split_1
I1007 03:35:05.262979 19090 net.cpp:411] detection_accuracy_2_5x7 -> accuracy_2_5x7
I1007 03:35:05.262986 19090 net.cpp:411] detection_accuracy_2_5x7 -> boxiou_2_5x7
I1007 03:35:05.263041 19090 net.cpp:150] Setting up detection_accuracy_2_5x7
I1007 03:35:05.263053 19090 net.cpp:157] Top shape: 1 1 1 2 (2)
I1007 03:35:05.263061 19090 net.cpp:157] Top shape: 1 1 1 1 (1)
I1007 03:35:05.263064 19090 net.cpp:165] Memory required for data: 2018105456
I1007 03:35:05.263069 19090 layer_factory.hpp:76] Creating layer pool5
I1007 03:35:05.263075 19090 net.cpp:106] Creating Layer pool5
I1007 03:35:05.263079 19090 net.cpp:454] pool5 <- conv5_3_relu5_3_0_split_2
I1007 03:35:05.263084 19090 net.cpp:411] pool5 -> pool5
I1007 03:35:05.263733 19090 net.cpp:150] Setting up pool5
I1007 03:35:05.263747 19090 net.cpp:157] Top shape: 4 512 14 14 (401408)
I1007 03:35:05.263751 19090 net.cpp:165] Memory required for data: 2019711088
I1007 03:35:05.263754 19090 layer_factory.hpp:76] Creating layer conv6_1
I1007 03:35:05.263767 19090 net.cpp:106] Creating Layer conv6_1
I1007 03:35:05.263770 19090 net.cpp:454] conv6_1 <- pool5
I1007 03:35:05.263777 19090 net.cpp:411] conv6_1 -> conv6_1
I1007 03:35:05.352196 19090 net.cpp:150] Setting up conv6_1
I1007 03:35:05.352226 19090 net.cpp:157] Top shape: 4 512 14 14 (401408)
I1007 03:35:05.352231 19090 net.cpp:165] Memory required for data: 2021316720
I1007 03:35:05.352239 19090 layer_factory.hpp:76] Creating layer relu6_1
I1007 03:35:05.352253 19090 net.cpp:106] Creating Layer relu6_1
I1007 03:35:05.352260 19090 net.cpp:454] relu6_1 <- conv6_1
I1007 03:35:05.352267 19090 net.cpp:397] relu6_1 -> conv6_1 (in-place)
I1007 03:35:05.352494 19090 net.cpp:150] Setting up relu6_1
I1007 03:35:05.352507 19090 net.cpp:157] Top shape: 4 512 14 14 (401408)
I1007 03:35:05.352510 19090 net.cpp:165] Memory required for data: 2022922352
I1007 03:35:05.352514 19090 layer_factory.hpp:76] Creating layer conv6_1_relu6_1_0_split
I1007 03:35:05.352520 19090 net.cpp:106] Creating Layer conv6_1_relu6_1_0_split
I1007 03:35:05.352524 19090 net.cpp:454] conv6_1_relu6_1_0_split <- conv6_1
I1007 03:35:05.352530 19090 net.cpp:411] conv6_1_relu6_1_0_split -> conv6_1_relu6_1_0_split_0
I1007 03:35:05.352541 19090 net.cpp:411] conv6_1_relu6_1_0_split -> conv6_1_relu6_1_0_split_1
I1007 03:35:05.352548 19090 net.cpp:411] conv6_1_relu6_1_0_split -> conv6_1_relu6_1_0_split_2
I1007 03:35:05.352627 19090 net.cpp:150] Setting up conv6_1_relu6_1_0_split
I1007 03:35:05.352636 19090 net.cpp:157] Top shape: 4 512 14 14 (401408)
I1007 03:35:05.352643 19090 net.cpp:157] Top shape: 4 512 14 14 (401408)
I1007 03:35:05.352645 19090 net.cpp:157] Top shape: 4 512 14 14 (401408)
I1007 03:35:05.352648 19090 net.cpp:165] Memory required for data: 2027739248
I1007 03:35:05.352651 19090 layer_factory.hpp:76] Creating layer LFCN_3_3x5
I1007 03:35:05.352659 19090 net.cpp:106] Creating Layer LFCN_3_3x5
I1007 03:35:05.352665 19090 net.cpp:454] LFCN_3_3x5 <- conv6_1_relu6_1_0_split_0
I1007 03:35:05.352674 19090 net.cpp:411] LFCN_3_3x5 -> LFCN_3_3x5
I1007 03:35:05.355554 19090 net.cpp:150] Setting up LFCN_3_3x5
I1007 03:35:05.355569 19090 net.cpp:157] Top shape: 4 6 14 14 (4704)
I1007 03:35:05.355573 19090 net.cpp:165] Memory required for data: 2027758064
I1007 03:35:05.355581 19090 layer_factory.hpp:76] Creating layer LFCN_3_3x5_LFCN_3_3x5_0_split
I1007 03:35:05.355597 19090 net.cpp:106] Creating Layer LFCN_3_3x5_LFCN_3_3x5_0_split
I1007 03:35:05.355603 19090 net.cpp:454] LFCN_3_3x5_LFCN_3_3x5_0_split <- LFCN_3_3x5
I1007 03:35:05.355612 19090 net.cpp:411] LFCN_3_3x5_LFCN_3_3x5_0_split -> LFCN_3_3x5_LFCN_3_3x5_0_split_0
I1007 03:35:05.355618 19090 net.cpp:411] LFCN_3_3x5_LFCN_3_3x5_0_split -> LFCN_3_3x5_LFCN_3_3x5_0_split_1
I1007 03:35:05.355680 19090 net.cpp:150] Setting up LFCN_3_3x5_LFCN_3_3x5_0_split
I1007 03:35:05.355693 19090 net.cpp:157] Top shape: 4 6 14 14 (4704)
I1007 03:35:05.355697 19090 net.cpp:157] Top shape: 4 6 14 14 (4704)
I1007 03:35:05.355700 19090 net.cpp:165] Memory required for data: 2027795696
I1007 03:35:05.355703 19090 layer_factory.hpp:76] Creating layer detection_loss_3_3x5
I1007 03:35:05.355711 19090 net.cpp:106] Creating Layer detection_loss_3_3x5
I1007 03:35:05.355718 19090 net.cpp:454] detection_loss_3_3x5 <- LFCN_3_3x5_LFCN_3_3x5_0_split_0
I1007 03:35:05.355725 19090 net.cpp:454] detection_loss_3_3x5 <- label_3_3x5_data_5_split_0
I1007 03:35:05.355733 19090 net.cpp:411] detection_loss_3_3x5 -> loss_3_3x5
I1007 03:35:05.355747 19090 layer_factory.hpp:76] Creating layer detection_loss_3_3x5
I1007 03:35:05.356178 19090 net.cpp:150] Setting up detection_loss_3_3x5
I1007 03:35:05.356191 19090 net.cpp:157] Top shape: 1 1 1 2 (2)
I1007 03:35:05.356194 19090 net.cpp:160]     with loss weight 1
I1007 03:35:05.356209 19090 net.cpp:165] Memory required for data: 2027795704
I1007 03:35:05.356212 19090 layer_factory.hpp:76] Creating layer detection_accuracy_3_3x5
I1007 03:35:05.356222 19090 net.cpp:106] Creating Layer detection_accuracy_3_3x5
I1007 03:35:05.356232 19090 net.cpp:454] detection_accuracy_3_3x5 <- LFCN_3_3x5_LFCN_3_3x5_0_split_1
I1007 03:35:05.356240 19090 net.cpp:454] detection_accuracy_3_3x5 <- label_3_3x5_data_5_split_1
I1007 03:35:05.356252 19090 net.cpp:411] detection_accuracy_3_3x5 -> accuracy_3_3x5
I1007 03:35:05.356268 19090 net.cpp:411] detection_accuracy_3_3x5 -> boxiou_3_3x5
I1007 03:35:05.356331 19090 net.cpp:150] Setting up detection_accuracy_3_3x5
I1007 03:35:05.356341 19090 net.cpp:157] Top shape: 1 1 1 2 (2)
I1007 03:35:05.356345 19090 net.cpp:157] Top shape: 1 1 1 1 (1)
I1007 03:35:05.356348 19090 net.cpp:165] Memory required for data: 2027795716
I1007 03:35:05.356351 19090 layer_factory.hpp:76] Creating layer LFCN_3_5x7
I1007 03:35:05.356360 19090 net.cpp:106] Creating Layer LFCN_3_5x7
I1007 03:35:05.356366 19090 net.cpp:454] LFCN_3_5x7 <- conv6_1_relu6_1_0_split_1
I1007 03:35:05.356374 19090 net.cpp:411] LFCN_3_5x7 -> LFCN_3_5x7
I1007 03:35:05.362020 19090 net.cpp:150] Setting up LFCN_3_5x7
I1007 03:35:05.362036 19090 net.cpp:157] Top shape: 4 6 14 14 (4704)
I1007 03:35:05.362040 19090 net.cpp:165] Memory required for data: 2027814532
I1007 03:35:05.362046 19090 layer_factory.hpp:76] Creating layer LFCN_3_5x7_LFCN_3_5x7_0_split
I1007 03:35:05.362052 19090 net.cpp:106] Creating Layer LFCN_3_5x7_LFCN_3_5x7_0_split
I1007 03:35:05.362057 19090 net.cpp:454] LFCN_3_5x7_LFCN_3_5x7_0_split <- LFCN_3_5x7
I1007 03:35:05.362064 19090 net.cpp:411] LFCN_3_5x7_LFCN_3_5x7_0_split -> LFCN_3_5x7_LFCN_3_5x7_0_split_0
I1007 03:35:05.362072 19090 net.cpp:411] LFCN_3_5x7_LFCN_3_5x7_0_split -> LFCN_3_5x7_LFCN_3_5x7_0_split_1
I1007 03:35:05.362138 19090 net.cpp:150] Setting up LFCN_3_5x7_LFCN_3_5x7_0_split
I1007 03:35:05.362164 19090 net.cpp:157] Top shape: 4 6 14 14 (4704)
I1007 03:35:05.362170 19090 net.cpp:157] Top shape: 4 6 14 14 (4704)
I1007 03:35:05.362175 19090 net.cpp:165] Memory required for data: 2027852164
I1007 03:35:05.362179 19090 layer_factory.hpp:76] Creating layer detection_loss_3_5x7
I1007 03:35:05.362186 19090 net.cpp:106] Creating Layer detection_loss_3_5x7
I1007 03:35:05.362190 19090 net.cpp:454] detection_loss_3_5x7 <- LFCN_3_5x7_LFCN_3_5x7_0_split_0
I1007 03:35:05.362195 19090 net.cpp:454] detection_loss_3_5x7 <- label_3_5x7_data_6_split_0
I1007 03:35:05.362202 19090 net.cpp:411] detection_loss_3_5x7 -> loss_3_5x7
I1007 03:35:05.362211 19090 layer_factory.hpp:76] Creating layer detection_loss_3_5x7
I1007 03:35:05.362788 19090 net.cpp:150] Setting up detection_loss_3_5x7
I1007 03:35:05.362803 19090 net.cpp:157] Top shape: 1 1 1 2 (2)
I1007 03:35:05.362807 19090 net.cpp:160]     with loss weight 1
I1007 03:35:05.362818 19090 net.cpp:165] Memory required for data: 2027852172
I1007 03:35:05.362821 19090 layer_factory.hpp:76] Creating layer detection_accuracy_3_5x7
I1007 03:35:05.362828 19090 net.cpp:106] Creating Layer detection_accuracy_3_5x7
I1007 03:35:05.362833 19090 net.cpp:454] detection_accuracy_3_5x7 <- LFCN_3_5x7_LFCN_3_5x7_0_split_1
I1007 03:35:05.362836 19090 net.cpp:454] detection_accuracy_3_5x7 <- label_3_5x7_data_6_split_1
I1007 03:35:05.362843 19090 net.cpp:411] detection_accuracy_3_5x7 -> accuracy_3_5x7
I1007 03:35:05.362849 19090 net.cpp:411] detection_accuracy_3_5x7 -> boxiou_3_5x7
I1007 03:35:05.362905 19090 net.cpp:150] Setting up detection_accuracy_3_5x7
I1007 03:35:05.362915 19090 net.cpp:157] Top shape: 1 1 1 2 (2)
I1007 03:35:05.362922 19090 net.cpp:157] Top shape: 1 1 1 1 (1)
I1007 03:35:05.362926 19090 net.cpp:165] Memory required for data: 2027852184
I1007 03:35:05.362931 19090 layer_factory.hpp:76] Creating layer pool6
I1007 03:35:05.362939 19090 net.cpp:106] Creating Layer pool6
I1007 03:35:05.362946 19090 net.cpp:454] pool6 <- conv6_1_relu6_1_0_split_2
I1007 03:35:05.362957 19090 net.cpp:411] pool6 -> pool6
I1007 03:35:05.363221 19090 net.cpp:150] Setting up pool6
I1007 03:35:05.363234 19090 net.cpp:157] Top shape: 4 512 7 7 (100352)
I1007 03:35:05.363237 19090 net.cpp:165] Memory required for data: 2028253592
I1007 03:35:05.363240 19090 layer_factory.hpp:76] Creating layer LFCN_4_3x5
I1007 03:35:05.363251 19090 net.cpp:106] Creating Layer LFCN_4_3x5
I1007 03:35:05.363257 19090 net.cpp:454] LFCN_4_3x5 <- pool6
I1007 03:35:05.363267 19090 net.cpp:411] LFCN_4_3x5 -> LFCN_4_3x5
I1007 03:35:05.366386 19090 net.cpp:150] Setting up LFCN_4_3x5
I1007 03:35:05.366400 19090 net.cpp:157] Top shape: 4 6 7 7 (1176)
I1007 03:35:05.366405 19090 net.cpp:165] Memory required for data: 2028258296
I1007 03:35:05.366413 19090 layer_factory.hpp:76] Creating layer LFCN_4_3x5_LFCN_4_3x5_0_split
I1007 03:35:05.366420 19090 net.cpp:106] Creating Layer LFCN_4_3x5_LFCN_4_3x5_0_split
I1007 03:35:05.366423 19090 net.cpp:454] LFCN_4_3x5_LFCN_4_3x5_0_split <- LFCN_4_3x5
I1007 03:35:05.366436 19090 net.cpp:411] LFCN_4_3x5_LFCN_4_3x5_0_split -> LFCN_4_3x5_LFCN_4_3x5_0_split_0
I1007 03:35:05.366442 19090 net.cpp:411] LFCN_4_3x5_LFCN_4_3x5_0_split -> LFCN_4_3x5_LFCN_4_3x5_0_split_1
I1007 03:35:05.366493 19090 net.cpp:150] Setting up LFCN_4_3x5_LFCN_4_3x5_0_split
I1007 03:35:05.366498 19090 net.cpp:157] Top shape: 4 6 7 7 (1176)
I1007 03:35:05.366503 19090 net.cpp:157] Top shape: 4 6 7 7 (1176)
I1007 03:35:05.366505 19090 net.cpp:165] Memory required for data: 2028267704
I1007 03:35:05.366508 19090 layer_factory.hpp:76] Creating layer detection_loss_4_3x5
I1007 03:35:05.366513 19090 net.cpp:106] Creating Layer detection_loss_4_3x5
I1007 03:35:05.366516 19090 net.cpp:454] detection_loss_4_3x5 <- LFCN_4_3x5_LFCN_4_3x5_0_split_0
I1007 03:35:05.366521 19090 net.cpp:454] detection_loss_4_3x5 <- label_4_3x5_data_7_split_0
I1007 03:35:05.366531 19090 net.cpp:411] detection_loss_4_3x5 -> loss_4_3x5
I1007 03:35:05.366544 19090 layer_factory.hpp:76] Creating layer detection_loss_4_3x5
I1007 03:35:05.367146 19090 net.cpp:150] Setting up detection_loss_4_3x5
I1007 03:35:05.367161 19090 net.cpp:157] Top shape: 1 1 1 2 (2)
I1007 03:35:05.367163 19090 net.cpp:160]     with loss weight 1
I1007 03:35:05.367171 19090 net.cpp:165] Memory required for data: 2028267712
I1007 03:35:05.367173 19090 layer_factory.hpp:76] Creating layer detection_accuracy_4_3x5
I1007 03:35:05.367182 19090 net.cpp:106] Creating Layer detection_accuracy_4_3x5
I1007 03:35:05.367187 19090 net.cpp:454] detection_accuracy_4_3x5 <- LFCN_4_3x5_LFCN_4_3x5_0_split_1
I1007 03:35:05.367192 19090 net.cpp:454] detection_accuracy_4_3x5 <- label_4_3x5_data_7_split_1
I1007 03:35:05.367197 19090 net.cpp:411] detection_accuracy_4_3x5 -> accuracy_4_3x5
I1007 03:35:05.367204 19090 net.cpp:411] detection_accuracy_4_3x5 -> boxiou_4_3x5
I1007 03:35:05.367252 19090 net.cpp:150] Setting up detection_accuracy_4_3x5
I1007 03:35:05.367261 19090 net.cpp:157] Top shape: 1 1 1 2 (2)
I1007 03:35:05.367267 19090 net.cpp:157] Top shape: 1 1 1 1 (1)
I1007 03:35:05.367271 19090 net.cpp:165] Memory required for data: 2028267724
I1007 03:35:05.367276 19090 net.cpp:228] detection_accuracy_4_3x5 does not need backward computation.
I1007 03:35:05.367282 19090 net.cpp:226] detection_loss_4_3x5 needs backward computation.
I1007 03:35:05.367286 19090 net.cpp:226] LFCN_4_3x5_LFCN_4_3x5_0_split needs backward computation.
I1007 03:35:05.367290 19090 net.cpp:226] LFCN_4_3x5 needs backward computation.
…
I1007 03:35:05.375705 19090 image_gt_data_layer.cpp:234] output label size 1 : 2,6,56,56
I1007 03:35:05.375771 19090 image_gt_data_layer.cpp:234] output label size 2 : 2,6,28,28
I1007 03:35:05.375833 19090 image_gt_data_layer.cpp:234] output label size 3 : 2,6,28,28
I1007 03:35:05.375895 19090 image_gt_data_layer.cpp:234] output label size 4 : 2,6,14,14
I1007 03:35:05.375957 19090 image_gt_data_layer.cpp:234] output label size 5 : 2,6,14,14
I1007 03:35:05.376015 19090 image_gt_data_layer.cpp:234] output label size 6 : 2,6,7,7
I1007 03:35:05.387559 19090 net.cpp:150] Setting up data
I1007 03:35:05.387583 19090 net.cpp:157] Top shape: 2 3 448 448 (1204224)
I1007 03:35:05.387588 19090 net.cpp:157] Top shape: 2 6 56 56 (37632)
I1007 03:35:05.387591 19090 net.cpp:157] Top shape: 2 6 56 56 (37632)
I1007 03:35:05.387595 19090 net.cpp:157] Top shape: 2 6 28 28 (9408)
I1007 03:35:05.387598 19090 net.cpp:157] Top shape: 2 6 28 28 (9408)
I1007 03:35:05.387603 19090 net.cpp:157] Top shape: 2 6 14 14 (2352)
I1007 03:35:05.387605 19090 net.cpp:157] Top shape: 2 6 14 14 (2352)
I1007 03:35:05.387609 19090 net.cpp:157] Top shape: 2 6 7 7 (588)
I1007 03:35:05.387611 19090 net.cpp:165] Memory required for data: 5214384
I1007 03:35:05.387616 19090 layer_factory.hpp:76] Creating layer label_1_3x5_data_1_split
I1007 03:35:05.387634 19090 net.cpp:106] Creating Layer label_1_3x5_data_1_split
I1007 03:35:05.387637 19090 net.cpp:454] label_1_3x5_data_1_split <- label_1_3x5
I1007 03:35:05.387646 19090 net.cpp:411] label_1_3x5_data_1_split -> label_1_3x5_data_1_split_0
I1007 03:35:05.387658 19090 net.cpp:411] label_1_3x5_data_1_split -> label_1_3x5_data_1_split_1
I1007 03:35:05.387835 19090 net.cpp:150] Setting up label_1_3x5_data_1_split
I1007 03:35:05.387869 19090 net.cpp:157] Top shape: 2 6 56 56 (37632)
I1007 03:35:05.387882 19090 net.cpp:157] Top shape: 2 6 56 56 (37632)
I1007 03:35:05.387890 19090 net.cpp:165] Memory required for data: 5515440
I1007 03:35:05.387900 19090 layer_factory.hpp:76] Creating layer label_1_5x7_data_2_split
I1007 03:35:05.387923 19090 net.cpp:106] Creating Layer label_1_5x7_data_2_split
I1007 03:35:05.387933 19090 net.cpp:454] label_1_5x7_data_2_split <- label_1_5x7
I1007 03:35:05.387948 19090 net.cpp:411] label_1_5x7_data_2_split -> label_1_5x7_data_2_split_0
I1007 03:35:05.387969 19090 net.cpp:411] label_1_5x7_data_2_split -> label_1_5x7_data_2_split_1
I1007 03:35:05.388072 19090 net.cpp:150] Setting up label_1_5x7_data_2_split
I1007 03:35:05.388090 19090 net.cpp:157] Top shape: 2 6 56 56 (37632)
I1007 03:35:05.388101 19090 net.cpp:157] Top shape: 2 6 56 56 (37632)
I1007 03:35:05.388108 19090 net.cpp:165] Memory required for data: 5816496
I1007 03:35:05.388118 19090 layer_factory.hpp:76] Creating layer label_2_3x5_data_3_split
I1007 03:35:05.388131 19090 net.cpp:106] Creating Layer label_2_3x5_data_3_split
I1007 03:35:05.388139 19090 net.cpp:454] label_2_3x5_data_3_split <- label_2_3x5
I1007 03:35:05.388159 19090 net.cpp:411] label_2_3x5_data_3_split -> label_2_3x5_data_3_split_0
I1007 03:35:05.388175 19090 net.cpp:411] label_2_3x5_data_3_split -> label_2_3x5_data_3_split_1
I1007 03:35:05.388272 19090 net.cpp:150] Setting up label_2_3x5_data_3_split
I1007 03:35:05.388291 19090 net.cpp:157] Top shape: 2 6 28 28 (9408)
I1007 03:35:05.388303 19090 net.cpp:157] Top shape: 2 6 28 28 (9408)
I1007 03:35:05.388310 19090 net.cpp:165] Memory required for data: 5891760
I1007 03:35:05.388319 19090 layer_factory.hpp:76] Creating layer label_2_5x7_data_4_split
I1007 03:35:05.388334 19090 net.cpp:106] Creating Layer label_2_5x7_data_4_split
I1007 03:35:05.388342 19090 net.cpp:454] label_2_5x7_data_4_split <- label_2_5x7
I1007 03:35:05.388356 19090 net.cpp:411] label_2_5x7_data_4_split -> label_2_5x7_data_4_split_0
I1007 03:35:05.388371 19090 net.cpp:411] label_2_5x7_data_4_split -> label_2_5x7_data_4_split_1
I1007 03:35:05.388473 19090 net.cpp:150] Setting up label_2_5x7_data_4_split
I1007 03:35:05.388490 19090 net.cpp:157] Top shape: 2 6 28 28 (9408)
I1007 03:35:05.388501 19090 net.cpp:157] Top shape: 2 6 28 28 (9408)
I1007 03:35:05.388509 19090 net.cpp:165] Memory required for data: 5967024
I1007 03:35:05.388517 19090 layer_factory.hpp:76] Creating layer label_3_3x5_data_5_split
I1007 03:35:05.388530 19090 net.cpp:106] Creating Layer label_3_3x5_data_5_split
I1007 03:35:05.388538 19090 net.cpp:454] label_3_3x5_data_5_split <- label_3_3x5
I1007 03:35:05.388555 19090 net.cpp:411] label_3_3x5_data_5_split -> label_3_3x5_data_5_split_0
I1007 03:35:05.388574 19090 net.cpp:411] label_3_3x5_data_5_split -> label_3_3x5_data_5_split_1
I1007 03:35:05.388666 19090 net.cpp:150] Setting up label_3_3x5_data_5_split
I1007 03:35:05.388684 19090 net.cpp:157] Top shape: 2 6 14 14 (2352)
I1007 03:35:05.388695 19090 net.cpp:157] Top shape: 2 6 14 14 (2352)
I1007 03:35:05.388701 19090 net.cpp:165] Memory required for data: 5985840
I1007 03:35:05.388710 19090 layer_factory.hpp:76] Creating layer label_3_5x7_data_6_split
I1007 03:35:05.388721 19090 net.cpp:106] Creating Layer label_3_5x7_data_6_split
I1007 03:35:05.388733 19090 net.cpp:454] label_3_5x7_data_6_split <- label_3_5x7
I1007 03:35:05.388747 19090 net.cpp:411] label_3_5x7_data_6_split -> label_3_5x7_data_6_split_0
I1007 03:35:05.388761 19090 net.cpp:411] label_3_5x7_data_6_split -> label_3_5x7_data_6_split_1
I1007 03:35:05.388849 19090 net.cpp:150] Setting up label_3_5x7_data_6_split
I1007 03:35:05.388864 19090 net.cpp:157] Top shape: 2 6 14 14 (2352)
I1007 03:35:05.388875 19090 net.cpp:157] Top shape: 2 6 14 14 (2352)
I1007 03:35:05.388882 19090 net.cpp:165] Memory required for data: 6004656
I1007 03:35:05.388890 19090 layer_factory.hpp:76] Creating layer label_4_3x5_data_7_split
I1007 03:35:05.388902 19090 net.cpp:106] Creating Layer label_4_3x5_data_7_split
I1007 03:35:05.388911 19090 net.cpp:454] label_4_3x5_data_7_split <- label_4_3x5
I1007 03:35:05.388923 19090 net.cpp:411] label_4_3x5_data_7_split -> label_4_3x5_data_7_split_0
I1007 03:35:05.388942 19090 net.cpp:411] label_4_3x5_data_7_split -> label_4_3x5_data_7_split_1
I1007 03:35:05.389024 19090 net.cpp:150] Setting up label_4_3x5_data_7_split
I1007 03:35:05.389039 19090 net.cpp:157] Top shape: 2 6 7 7 (588)
I1007 03:35:05.389050 19090 net.cpp:157] Top shape: 2 6 7 7 (588)
I1007 03:35:05.389056 19090 net.cpp:165] Memory required for data: 6009360
I1007 03:35:05.389065 19090 layer_factory.hpp:76] Creating layer conv1_1
I1007 03:35:05.389088 19090 net.cpp:106] Creating Layer conv1_1
I1007 03:35:05.389097 19090 net.cpp:454] conv1_1 <- data
I1007 03:35:05.389111 19090 net.cpp:411] conv1_1 -> conv1_1
I1007 03:35:05.391898 19090 net.cpp:150] Setting up conv1_1
I1007 03:35:05.391927 19090 net.cpp:157] Top shape: 2 64 448 448 (25690112)
I1007 03:35:05.391937 19090 net.cpp:165] Memory required for data: 108769808
I1007 03:35:05.391963 19090 layer_factory.hpp:76] Creating layer relu1_1
I1007 03:35:05.391979 19090 net.cpp:106] Creating Layer relu1_1
I1007 03:35:05.391989 19090 net.cpp:454] relu1_1 <- conv1_1
I1007 03:35:05.392002 19090 net.cpp:397] relu1_1 -> conv1_1 (in-place)
I1007 03:35:05.392678 19090 net.cpp:150] Setting up relu1_1
I1007 03:35:05.392700 19090 net.cpp:157] Top shape: 2 64 448 448 (25690112)
I1007 03:35:05.392709 19090 net.cpp:165] Memory required for data: 211530256
I1007 03:35:05.392719 19090 layer_factory.hpp:76] Creating layer conv1_2
I1007 03:35:05.392738 19090 net.cpp:106] Creating Layer conv1_2
I1007 03:35:05.392747 19090 net.cpp:454] conv1_2 <- conv1_1
I1007 03:35:05.392762 19090 net.cpp:411] conv1_2 -> conv1_2
I1007 03:35:05.397878 19090 net.cpp:150] Setting up conv1_2
I1007 03:35:05.397907 19090 net.cpp:157] Top shape: 2 64 448 448 (25690112)
I1007 03:35:05.397915 19090 net.cpp:165] Memory required for data: 314290704
I1007 03:35:05.397945 19090 layer_factory.hpp:76] Creating layer relu1_2
I1007 03:35:05.397961 19090 net.cpp:106] Creating Layer relu1_2
I1007 03:35:05.397971 19090 net.cpp:454] relu1_2 <- conv1_2
I1007 03:35:05.397984 19090 net.cpp:397] relu1_2 -> conv1_2 (in-place)
I1007 03:35:05.398340 19090 net.cpp:150] Setting up relu1_2
I1007 03:35:05.398363 19090 net.cpp:157] Top shape: 2 64 448 448 (25690112)
I1007 03:35:05.398371 19090 net.cpp:165] Memory required for data: 417051152
I1007 03:35:05.398380 19090 layer_factory.hpp:76] Creating layer pool1
I1007 03:35:05.398396 19090 net.cpp:106] Creating Layer pool1
I1007 03:35:05.398406 19090 net.cpp:454] pool1 <- conv1_2
I1007 03:35:05.398422 19090 net.cpp:411] pool1 -> pool1
I1007 03:35:05.399075 19090 net.cpp:150] Setting up pool1
I1007 03:35:05.399099 19090 net.cpp:157] Top shape: 2 64 224 224 (6422528)
I1007 03:35:05.399108 19090 net.cpp:165] Memory required for data: 442741264
I1007 03:35:05.399117 19090 layer_factory.hpp:76] Creating layer conv2_1
I1007 03:35:05.399137 19090 net.cpp:106] Creating Layer conv2_1
I1007 03:35:05.399147 19090 net.cpp:454] conv2_1 <- pool1
I1007 03:35:05.399161 19090 net.cpp:411] conv2_1 -> conv2_1
I1007 03:35:05.401201 19090 net.cpp:150] Setting up conv2_1
I1007 03:35:05.401226 19090 net.cpp:157] Top shape: 2 128 224 224 (12845056)
I1007 03:35:05.401234 19090 net.cpp:165] Memory required for data: 494121488
I1007 03:35:05.401262 19090 layer_factory.hpp:76] Creating layer relu2_1
I1007 03:35:05.401278 19090 net.cpp:106] Creating Layer relu2_1
I1007 03:35:05.401288 19090 net.cpp:454] relu2_1 <- conv2_1
I1007 03:35:05.401302 19090 net.cpp:397] relu2_1 -> conv2_1 (in-place)
I1007 03:35:05.401638 19090 net.cpp:150] Setting up relu2_1
I1007 03:35:05.401664 19090 net.cpp:157] Top shape: 2 128 224 224 (12845056)
I1007 03:35:05.401674 19090 net.cpp:165] Memory required for data: 545501712
I1007 03:35:05.401681 19090 layer_factory.hpp:76] Creating layer conv2_2
I1007 03:35:05.401722 19090 net.cpp:106] Creating Layer conv2_2
I1007 03:35:05.401752 19090 net.cpp:454] conv2_2 <- conv2_1
I1007 03:35:05.401769 19090 net.cpp:411] conv2_2 -> conv2_2
I1007 03:35:05.404623 19090 net.cpp:150] Setting up conv2_2
I1007 03:35:05.404649 19090 net.cpp:157] Top shape: 2 128 224 224 (12845056)
I1007 03:35:05.404657 19090 net.cpp:165] Memory required for data: 596881936
I1007 03:35:05.404673 19090 layer_factory.hpp:76] Creating layer relu2_2
I1007 03:35:05.404695 19090 net.cpp:106] Creating Layer relu2_2
I1007 03:35:05.404706 19090 net.cpp:454] relu2_2 <- conv2_2
I1007 03:35:05.404718 19090 net.cpp:397] relu2_2 -> conv2_2 (in-place)
I1007 03:35:05.405258 19090 net.cpp:150] Setting up relu2_2
I1007 03:35:05.405282 19090 net.cpp:157] Top shape: 2 128 224 224 (12845056)
I1007 03:35:05.405289 19090 net.cpp:165] Memory required for data: 648262160
I1007 03:35:05.405298 19090 layer_factory.hpp:76] Creating layer pool2
I1007 03:35:05.405315 19090 net.cpp:106] Creating Layer pool2
I1007 03:35:05.405325 19090 net.cpp:454] pool2 <- conv2_2
I1007 03:35:05.405339 19090 net.cpp:411] pool2 -> pool2
I1007 03:35:05.405722 19090 net.cpp:150] Setting up pool2
I1007 03:35:05.405743 19090 net.cpp:157] Top shape: 2 128 112 112 (3211264)
I1007 03:35:05.405750 19090 net.cpp:165] Memory required for data: 661107216
I1007 03:35:05.405760 19090 layer_factory.hpp:76] Creating layer conv3_1
I1007 03:35:05.405777 19090 net.cpp:106] Creating Layer conv3_1
I1007 03:35:05.405787 19090 net.cpp:454] conv3_1 <- pool2
I1007 03:35:05.405800 19090 net.cpp:411] conv3_1 -> conv3_1
I1007 03:35:05.409483 19090 net.cpp:150] Setting up conv3_1
I1007 03:35:05.409508 19090 net.cpp:157] Top shape: 2 256 112 112 (6422528)
I1007 03:35:05.409517 19090 net.cpp:165] Memory required for data: 686797328
I1007 03:35:05.409543 19090 layer_factory.hpp:76] Creating layer relu3_1
I1007 03:35:05.409559 19090 net.cpp:106] Creating Layer relu3_1
I1007 03:35:05.409569 19090 net.cpp:454] relu3_1 <- conv3_1
I1007 03:35:05.409584 19090 net.cpp:397] relu3_1 -> conv3_1 (in-place)
I1007 03:35:05.410075 19090 net.cpp:150] Setting up relu3_1
I1007 03:35:05.410094 19090 net.cpp:157] Top shape: 2 256 112 112 (6422528)
I1007 03:35:05.410101 19090 net.cpp:165] Memory required for data: 712487440
I1007 03:35:05.410109 19090 layer_factory.hpp:76] Creating layer conv3_2
I1007 03:35:05.410136 19090 net.cpp:106] Creating Layer conv3_2
I1007 03:35:05.410148 19090 net.cpp:454] conv3_2 <- conv3_1
I1007 03:35:05.410171 19090 net.cpp:411] conv3_2 -> conv3_2
I1007 03:35:05.413997 19090 net.cpp:150] Setting up conv3_2
I1007 03:35:05.414023 19090 net.cpp:157] Top shape: 2 256 112 112 (6422528)
I1007 03:35:05.414031 19090 net.cpp:165] Memory required for data: 738177552
I1007 03:35:05.414047 19090 layer_factory.hpp:76] Creating layer relu3_2
I1007 03:35:05.414064 19090 net.cpp:106] Creating Layer relu3_2
I1007 03:35:05.414075 19090 net.cpp:454] relu3_2 <- conv3_2
I1007 03:35:05.414088 19090 net.cpp:397] relu3_2 -> conv3_2 (in-place)
I1007 03:35:05.414634 19090 net.cpp:150] Setting up relu3_2
I1007 03:35:05.414656 19090 net.cpp:157] Top shape: 2 256 112 112 (6422528)
I1007 03:35:05.414664 19090 net.cpp:165] Memory required for data: 763867664
I1007 03:35:05.414672 19090 layer_factory.hpp:76] Creating layer conv3_3
I1007 03:35:05.414691 19090 net.cpp:106] Creating Layer conv3_3
I1007 03:35:05.414701 19090 net.cpp:454] conv3_3 <- conv3_2
I1007 03:35:05.414717 19090 net.cpp:411] conv3_3 -> conv3_3
I1007 03:35:05.418383 19090 net.cpp:150] Setting up conv3_3
I1007 03:35:05.418406 19090 net.cpp:157] Top shape: 2 256 112 112 (6422528)
I1007 03:35:05.418414 19090 net.cpp:165] Memory required for data: 789557776
I1007 03:35:05.418433 19090 layer_factory.hpp:76] Creating layer relu3_3
I1007 03:35:05.418447 19090 net.cpp:106] Creating Layer relu3_3
I1007 03:35:05.418455 19090 net.cpp:454] relu3_3 <- conv3_3
I1007 03:35:05.418470 19090 net.cpp:397] relu3_3 -> conv3_3 (in-place)
I1007 03:35:05.418777 19090 net.cpp:150] Setting up relu3_3
I1007 03:35:05.418799 19090 net.cpp:157] Top shape: 2 256 112 112 (6422528)
I1007 03:35:05.418807 19090 net.cpp:165] Memory required for data: 815247888
I1007 03:35:05.418814 19090 layer_factory.hpp:76] Creating layer pool3
I1007 03:35:05.418828 19090 net.cpp:106] Creating Layer pool3
I1007 03:35:05.418835 19090 net.cpp:454] pool3 <- conv3_3
I1007 03:35:05.418848 19090 net.cpp:411] pool3 -> pool3
I1007 03:35:05.419445 19090 net.cpp:150] Setting up pool3
I1007 03:35:05.419467 19090 net.cpp:157] Top shape: 2 256 56 56 (1605632)
I1007 03:35:05.419474 19090 net.cpp:165] Memory required for data: 821670416
I1007 03:35:05.419482 19090 layer_factory.hpp:76] Creating layer conv4_1
I1007 03:35:05.419500 19090 net.cpp:106] Creating Layer conv4_1
I1007 03:35:05.419509 19090 net.cpp:454] conv4_1 <- pool3
I1007 03:35:05.419523 19090 net.cpp:411] conv4_1 -> conv4_1
I1007 03:35:05.425005 19090 net.cpp:150] Setting up conv4_1
I1007 03:35:05.425031 19090 net.cpp:157] Top shape: 2 512 56 56 (3211264)
I1007 03:35:05.425040 19090 net.cpp:165] Memory required for data: 834515472
I1007 03:35:05.425055 19090 layer_factory.hpp:76] Creating layer relu4_1
I1007 03:35:05.425067 19090 net.cpp:106] Creating Layer relu4_1
I1007 03:35:05.425076 19090 net.cpp:454] relu4_1 <- conv4_1
I1007 03:35:05.425093 19090 net.cpp:397] relu4_1 -> conv4_1 (in-place)
I1007 03:35:05.425863 19090 net.cpp:150] Setting up relu4_1
I1007 03:35:05.425884 19090 net.cpp:157] Top shape: 2 512 56 56 (3211264)
I1007 03:35:05.425890 19090 net.cpp:165] Memory required for data: 847360528
I1007 03:35:05.425899 19090 layer_factory.hpp:76] Creating layer conv4_2
I1007 03:35:05.425915 19090 net.cpp:106] Creating Layer conv4_2
I1007 03:35:05.425925 19090 net.cpp:454] conv4_2 <- conv4_1
I1007 03:35:05.425937 19090 net.cpp:411] conv4_2 -> conv4_2
I1007 03:35:05.434326 19090 net.cpp:150] Setting up conv4_2
I1007 03:35:05.434353 19090 net.cpp:157] Top shape: 2 512 56 56 (3211264)
I1007 03:35:05.434360 19090 net.cpp:165] Memory required for data: 860205584
I1007 03:35:05.434386 19090 layer_factory.hpp:76] Creating layer relu4_2
I1007 03:35:05.434404 19090 net.cpp:106] Creating Layer relu4_2
I1007 03:35:05.434413 19090 net.cpp:454] relu4_2 <- conv4_2
I1007 03:35:05.434427 19090 net.cpp:397] relu4_2 -> conv4_2 (in-place)
I1007 03:35:05.434728 19090 net.cpp:150] Setting up relu4_2
I1007 03:35:05.434746 19090 net.cpp:157] Top shape: 2 512 56 56 (3211264)
I1007 03:35:05.434753 19090 net.cpp:165] Memory required for data: 873050640
I1007 03:35:05.434762 19090 layer_factory.hpp:76] Creating layer conv4_3
I1007 03:35:05.434774 19090 net.cpp:106] Creating Layer conv4_3
I1007 03:35:05.434783 19090 net.cpp:454] conv4_3 <- conv4_2
I1007 03:35:05.434798 19090 net.cpp:411] conv4_3 -> conv4_3
I1007 03:35:05.442975 19090 net.cpp:150] Setting up conv4_3
I1007 03:35:05.443001 19090 net.cpp:157] Top shape: 2 512 56 56 (3211264)
I1007 03:35:05.443007 19090 net.cpp:165] Memory required for data: 885895696
I1007 03:35:05.443022 19090 layer_factory.hpp:76] Creating layer relu4_3
I1007 03:35:05.443037 19090 net.cpp:106] Creating Layer relu4_3
I1007 03:35:05.443045 19090 net.cpp:454] relu4_3 <- conv4_3
I1007 03:35:05.443056 19090 net.cpp:397] relu4_3 -> conv4_3 (in-place)
I1007 03:35:05.443553 19090 net.cpp:150] Setting up relu4_3
I1007 03:35:05.443572 19090 net.cpp:157] Top shape: 2 512 56 56 (3211264)
I1007 03:35:05.443579 19090 net.cpp:165] Memory required for data: 898740752
I1007 03:35:05.443586 19090 layer_factory.hpp:76] Creating layer conv4_3_relu4_3_0_split
I1007 03:35:05.443600 19090 net.cpp:106] Creating Layer conv4_3_relu4_3_0_split
I1007 03:35:05.443609 19090 net.cpp:454] conv4_3_relu4_3_0_split <- conv4_3
I1007 03:35:05.443624 19090 net.cpp:411] conv4_3_relu4_3_0_split -> conv4_3_relu4_3_0_split_0
I1007 03:35:05.443641 19090 net.cpp:411] conv4_3_relu4_3_0_split -> conv4_3_relu4_3_0_split_1
I1007 03:35:05.443737 19090 net.cpp:150] Setting up conv4_3_relu4_3_0_split
I1007 03:35:05.443750 19090 net.cpp:157] Top shape: 2 512 56 56 (3211264)
I1007 03:35:05.443759 19090 net.cpp:157] Top shape: 2 512 56 56 (3211264)
I1007 03:35:05.443765 19090 net.cpp:165] Memory required for data: 924430864
I1007 03:35:05.443773 19090 layer_factory.hpp:76] Creating layer loss1_conv1
I1007 03:35:05.443799 19090 net.cpp:106] Creating Layer loss1_conv1
I1007 03:35:05.443809 19090 net.cpp:454] loss1_conv1 <- conv4_3_relu4_3_0_split_0
I1007 03:35:05.443822 19090 net.cpp:411] loss1_conv1 -> loss1_conv1
I1007 03:35:05.539489 19090 net.cpp:150] Setting up loss1_conv1
I1007 03:35:05.539522 19090 net.cpp:157] Top shape: 2 512 56 56 (3211264)
I1007 03:35:05.539530 19090 net.cpp:165] Memory required for data: 937275920
I1007 03:35:05.539544 19090 layer_factory.hpp:76] Creating layer loss_relu1
I1007 03:35:05.539557 19090 net.cpp:106] Creating Layer loss_relu1
I1007 03:35:05.539564 19090 net.cpp:454] loss_relu1 <- loss1_conv1
I1007 03:35:05.539574 19090 net.cpp:397] loss_relu1 -> loss1_conv1 (in-place)
I1007 03:35:05.539999 19090 net.cpp:150] Setting up loss_relu1
I1007 03:35:05.540019 19090 net.cpp:157] Top shape: 2 512 56 56 (3211264)
I1007 03:35:05.540024 19090 net.cpp:165] Memory required for data: 950120976
I1007 03:35:05.540030 19090 layer_factory.hpp:76] Creating layer loss1_conv1_loss_relu1_0_split
I1007 03:35:05.540038 19090 net.cpp:106] Creating Layer loss1_conv1_loss_relu1_0_split
I1007 03:35:05.540045 19090 net.cpp:454] loss1_conv1_loss_relu1_0_split <- loss1_conv1
I1007 03:35:05.540055 19090 net.cpp:411] loss1_conv1_loss_relu1_0_split -> loss1_conv1_loss_relu1_0_split_0
I1007 03:35:05.540066 19090 net.cpp:411] loss1_conv1_loss_relu1_0_split -> loss1_conv1_loss_relu1_0_split_1
I1007 03:35:05.540145 19090 net.cpp:150] Setting up loss1_conv1_loss_relu1_0_split
I1007 03:35:05.540156 19090 net.cpp:157] Top shape: 2 512 56 56 (3211264)
I1007 03:35:05.540163 19090 net.cpp:157] Top shape: 2 512 56 56 (3211264)
I1007 03:35:05.540169 19090 net.cpp:165] Memory required for data: 975811088
I1007 03:35:05.540174 19090 layer_factory.hpp:76] Creating layer LFCN_1_3x5
I1007 03:35:05.540189 19090 net.cpp:106] Creating Layer LFCN_1_3x5
I1007 03:35:05.540195 19090 net.cpp:454] LFCN_1_3x5 <- loss1_conv1_loss_relu1_0_split_0
I1007 03:35:05.540208 19090 net.cpp:411] LFCN_1_3x5 -> LFCN_1_3x5
I1007 03:35:05.543171 19090 net.cpp:150] Setting up LFCN_1_3x5
I1007 03:35:05.543189 19090 net.cpp:157] Top shape: 2 6 56 56 (37632)
I1007 03:35:05.543195 19090 net.cpp:165] Memory required for data: 975961616
I1007 03:35:05.543205 19090 layer_factory.hpp:76] Creating layer LFCN_1_3x5_LFCN_1_3x5_0_split
I1007 03:35:05.543216 19090 net.cpp:106] Creating Layer LFCN_1_3x5_LFCN_1_3x5_0_split
I1007 03:35:05.543222 19090 net.cpp:454] LFCN_1_3x5_LFCN_1_3x5_0_split <- LFCN_1_3x5
I1007 03:35:05.543233 19090 net.cpp:411] LFCN_1_3x5_LFCN_1_3x5_0_split -> LFCN_1_3x5_LFCN_1_3x5_0_split_0
I1007 03:35:05.543246 19090 net.cpp:411] LFCN_1_3x5_LFCN_1_3x5_0_split -> LFCN_1_3x5_LFCN_1_3x5_0_split_1
I1007 03:35:05.543323 19090 net.cpp:150] Setting up LFCN_1_3x5_LFCN_1_3x5_0_split
I1007 03:35:05.543335 19090 net.cpp:157] Top shape: 2 6 56 56 (37632)
I1007 03:35:05.543345 19090 net.cpp:157] Top shape: 2 6 56 56 (37632)
I1007 03:35:05.543350 19090 net.cpp:165] Memory required for data: 976262672
I1007 03:35:05.543355 19090 layer_factory.hpp:76] Creating layer detection_loss_1_3x5
I1007 03:35:05.543365 19090 net.cpp:106] Creating Layer detection_loss_1_3x5
I1007 03:35:05.543371 19090 net.cpp:454] detection_loss_1_3x5 <- LFCN_1_3x5_LFCN_1_3x5_0_split_0
I1007 03:35:05.543380 19090 net.cpp:454] detection_loss_1_3x5 <- label_1_3x5_data_1_split_0
I1007 03:35:05.543391 19090 net.cpp:411] detection_loss_1_3x5 -> loss_1_3x5
I1007 03:35:05.543406 19090 layer_factory.hpp:76] Creating layer detection_loss_1_3x5
I1007 03:35:05.543870 19090 net.cpp:150] Setting up detection_loss_1_3x5
I1007 03:35:05.543884 19090 net.cpp:157] Top shape: 1 1 1 2 (2)
I1007 03:35:05.543890 19090 net.cpp:160]     with loss weight 0.9
I1007 03:35:05.543910 19090 net.cpp:165] Memory required for data: 976262680
I1007 03:35:05.543916 19090 layer_factory.hpp:76] Creating layer detection_accuracy_1_3x5
I1007 03:35:05.543931 19090 net.cpp:106] Creating Layer detection_accuracy_1_3x5
I1007 03:35:05.543938 19090 net.cpp:454] detection_accuracy_1_3x5 <- LFCN_1_3x5_LFCN_1_3x5_0_split_1
I1007 03:35:05.543946 19090 net.cpp:454] detection_accuracy_1_3x5 <- label_1_3x5_data_1_split_1
I1007 03:35:05.543956 19090 net.cpp:411] detection_accuracy_1_3x5 -> accuracy_1_3x5
I1007 03:35:05.543967 19090 net.cpp:411] detection_accuracy_1_3x5 -> boxiou_1_3x5
I1007 03:35:05.544039 19090 net.cpp:150] Setting up detection_accuracy_1_3x5
I1007 03:35:05.544050 19090 net.cpp:157] Top shape: 1 1 1 2 (2)
I1007 03:35:05.544057 19090 net.cpp:157] Top shape: 1 1 1 1 (1)
I1007 03:35:05.544062 19090 net.cpp:165] Memory required for data: 976262692
I1007 03:35:05.544067 19090 layer_factory.hpp:76] Creating layer LFCN_1_5x7
I1007 03:35:05.544085 19090 net.cpp:106] Creating Layer LFCN_1_5x7
I1007 03:35:05.544090 19090 net.cpp:454] LFCN_1_5x7 <- loss1_conv1_loss_relu1_0_split_1
I1007 03:35:05.544102 19090 net.cpp:411] LFCN_1_5x7 -> LFCN_1_5x7
I1007 03:35:05.549244 19090 net.cpp:150] Setting up LFCN_1_5x7
I1007 03:35:05.549262 19090 net.cpp:157] Top shape: 2 6 56 56 (37632)
I1007 03:35:05.549268 19090 net.cpp:165] Memory required for data: 976413220
I1007 03:35:05.549278 19090 layer_factory.hpp:76] Creating layer LFCN_1_5x7_LFCN_1_5x7_0_split
I1007 03:35:05.549289 19090 net.cpp:106] Creating Layer LFCN_1_5x7_LFCN_1_5x7_0_split
I1007 03:35:05.549298 19090 net.cpp:454] LFCN_1_5x7_LFCN_1_5x7_0_split <- LFCN_1_5x7
I1007 03:35:05.549306 19090 net.cpp:411] LFCN_1_5x7_LFCN_1_5x7_0_split -> LFCN_1_5x7_LFCN_1_5x7_0_split_0
I1007 03:35:05.549319 19090 net.cpp:411] LFCN_1_5x7_LFCN_1_5x7_0_split -> LFCN_1_5x7_LFCN_1_5x7_0_split_1
I1007 03:35:05.549394 19090 net.cpp:150] Setting up LFCN_1_5x7_LFCN_1_5x7_0_split
I1007 03:35:05.549407 19090 net.cpp:157] Top shape: 2 6 56 56 (37632)
I1007 03:35:05.549413 19090 net.cpp:157] Top shape: 2 6 56 56 (37632)
I1007 03:35:05.549417 19090 net.cpp:165] Memory required for data: 976714276
I1007 03:35:05.549423 19090 layer_factory.hpp:76] Creating layer detection_loss_1_5x7
I1007 03:35:05.549432 19090 net.cpp:106] Creating Layer detection_loss_1_5x7
I1007 03:35:05.549438 19090 net.cpp:454] detection_loss_1_5x7 <- LFCN_1_5x7_LFCN_1_5x7_0_split_0
I1007 03:35:05.549446 19090 net.cpp:454] detection_loss_1_5x7 <- label_1_5x7_data_2_split_0
I1007 03:35:05.549459 19090 net.cpp:411] detection_loss_1_5x7 -> loss_1_5x7
I1007 03:35:05.549473 19090 layer_factory.hpp:76] Creating layer detection_loss_1_5x7
I1007 03:35:05.550128 19090 net.cpp:150] Setting up detection_loss_1_5x7
I1007 03:35:05.550148 19090 net.cpp:157] Top shape: 1 1 1 2 (2)
I1007 03:35:05.550153 19090 net.cpp:160]     with loss weight 0.9
I1007 03:35:05.550163 19090 net.cpp:165] Memory required for data: 976714284
I1007 03:35:05.550168 19090 layer_factory.hpp:76] Creating layer detection_accuracy_1_5x7
I1007 03:35:05.550179 19090 net.cpp:106] Creating Layer detection_accuracy_1_5x7
I1007 03:35:05.550184 19090 net.cpp:454] detection_accuracy_1_5x7 <- LFCN_1_5x7_LFCN_1_5x7_0_split_1
I1007 03:35:05.550192 19090 net.cpp:454] detection_accuracy_1_5x7 <- label_1_5x7_data_2_split_1
I1007 03:35:05.550202 19090 net.cpp:411] detection_accuracy_1_5x7 -> accuracy_1_5x7
I1007 03:35:05.550214 19090 net.cpp:411] detection_accuracy_1_5x7 -> boxiou_1_5x7
I1007 03:35:05.550287 19090 net.cpp:150] Setting up detection_accuracy_1_5x7
I1007 03:35:05.550299 19090 net.cpp:157] Top shape: 1 1 1 2 (2)
I1007 03:35:05.550305 19090 net.cpp:157] Top shape: 1 1 1 1 (1)
I1007 03:35:05.550310 19090 net.cpp:165] Memory required for data: 976714296
I1007 03:35:05.550317 19090 layer_factory.hpp:76] Creating layer pool4
I1007 03:35:05.550329 19090 net.cpp:106] Creating Layer pool4
I1007 03:35:05.550336 19090 net.cpp:454] pool4 <- conv4_3_relu4_3_0_split_1
I1007 03:35:05.550346 19090 net.cpp:411] pool4 -> pool4
I1007 03:35:05.550614 19090 net.cpp:150] Setting up pool4
I1007 03:35:05.550628 19090 net.cpp:157] Top shape: 2 512 28 28 (802816)
I1007 03:35:05.550634 19090 net.cpp:165] Memory required for data: 979925560
I1007 03:35:05.550639 19090 layer_factory.hpp:76] Creating layer conv5_1
I1007 03:35:05.550649 19090 net.cpp:106] Creating Layer conv5_1
I1007 03:35:05.550655 19090 net.cpp:454] conv5_1 <- pool4
I1007 03:35:05.550668 19090 net.cpp:411] conv5_1 -> conv5_1
I1007 03:35:05.557399 19090 net.cpp:150] Setting up conv5_1
I1007 03:35:05.557418 19090 net.cpp:157] Top shape: 2 512 28 28 (802816)
I1007 03:35:05.557425 19090 net.cpp:165] Memory required for data: 983136824
I1007 03:35:05.557435 19090 layer_factory.hpp:76] Creating layer relu5_1
I1007 03:35:05.557446 19090 net.cpp:106] Creating Layer relu5_1
I1007 03:35:05.557453 19090 net.cpp:454] relu5_1 <- conv5_1
I1007 03:35:05.557464 19090 net.cpp:397] relu5_1 -> conv5_1 (in-place)
I1007 03:35:05.557695 19090 net.cpp:150] Setting up relu5_1
I1007 03:35:05.557710 19090 net.cpp:157] Top shape: 2 512 28 28 (802816)
I1007 03:35:05.557715 19090 net.cpp:165] Memory required for data: 986348088
I1007 03:35:05.557720 19090 layer_factory.hpp:76] Creating layer conv5_2
I1007 03:35:05.557731 19090 net.cpp:106] Creating Layer conv5_2
I1007 03:35:05.557737 19090 net.cpp:454] conv5_2 <- conv5_1
I1007 03:35:05.557749 19090 net.cpp:411] conv5_2 -> conv5_2
I1007 03:35:05.564625 19090 net.cpp:150] Setting up conv5_2
I1007 03:35:05.564646 19090 net.cpp:157] Top shape: 2 512 28 28 (802816)
I1007 03:35:05.564651 19090 net.cpp:165] Memory required for data: 989559352
I1007 03:35:05.564663 19090 layer_factory.hpp:76] Creating layer relu5_2
I1007 03:35:05.564682 19090 net.cpp:106] Creating Layer relu5_2
I1007 03:35:05.564688 19090 net.cpp:454] relu5_2 <- conv5_2
I1007 03:35:05.564697 19090 net.cpp:397] relu5_2 -> conv5_2 (in-place)
I1007 03:35:05.565124 19090 net.cpp:150] Setting up relu5_2
I1007 03:35:05.565140 19090 net.cpp:157] Top shape: 2 512 28 28 (802816)
I1007 03:35:05.565145 19090 net.cpp:165] Memory required for data: 992770616
I1007 03:35:05.565151 19090 layer_factory.hpp:76] Creating layer conv5_3
I1007 03:35:05.565171 19090 net.cpp:106] Creating Layer conv5_3
I1007 03:35:05.565177 19090 net.cpp:454] conv5_3 <- conv5_2
I1007 03:35:05.565196 19090 net.cpp:411] conv5_3 -> conv5_3
I1007 03:35:05.572206 19090 net.cpp:150] Setting up conv5_3
I1007 03:35:05.572227 19090 net.cpp:157] Top shape: 2 512 28 28 (802816)
I1007 03:35:05.572232 19090 net.cpp:165] Memory required for data: 995981880
I1007 03:35:05.572252 19090 layer_factory.hpp:76] Creating layer relu5_3
I1007 03:35:05.572264 19090 net.cpp:106] Creating Layer relu5_3
I1007 03:35:05.572271 19090 net.cpp:454] relu5_3 <- conv5_3
I1007 03:35:05.572286 19090 net.cpp:397] relu5_3 -> conv5_3 (in-place)
I1007 03:35:05.572530 19090 net.cpp:150] Setting up relu5_3
I1007 03:35:05.572547 19090 net.cpp:157] Top shape: 2 512 28 28 (802816)
I1007 03:35:05.572552 19090 net.cpp:165] Memory required for data: 999193144
I1007 03:35:05.572558 19090 layer_factory.hpp:76] Creating layer conv5_3_relu5_3_0_split
I1007 03:35:05.572568 19090 net.cpp:106] Creating Layer conv5_3_relu5_3_0_split
I1007 03:35:05.572574 19090 net.cpp:454] conv5_3_relu5_3_0_split <- conv5_3
I1007 03:35:05.572587 19090 net.cpp:411] conv5_3_relu5_3_0_split -> conv5_3_relu5_3_0_split_0
I1007 03:35:05.572598 19090 net.cpp:411] conv5_3_relu5_3_0_split -> conv5_3_relu5_3_0_split_1
I1007 03:35:05.572608 19090 net.cpp:411] conv5_3_relu5_3_0_split -> conv5_3_relu5_3_0_split_2
I1007 03:35:05.572711 19090 net.cpp:150] Setting up conv5_3_relu5_3_0_split
I1007 03:35:05.572723 19090 net.cpp:157] Top shape: 2 512 28 28 (802816)
I1007 03:35:05.572731 19090 net.cpp:157] Top shape: 2 512 28 28 (802816)
I1007 03:35:05.572736 19090 net.cpp:157] Top shape: 2 512 28 28 (802816)
I1007 03:35:05.572741 19090 net.cpp:165] Memory required for data: 1008826936
I1007 03:35:05.572747 19090 layer_factory.hpp:76] Creating layer LFCN_2_3x5
I1007 03:35:05.572764 19090 net.cpp:106] Creating Layer LFCN_2_3x5
I1007 03:35:05.572770 19090 net.cpp:454] LFCN_2_3x5 <- conv5_3_relu5_3_0_split_0
I1007 03:35:05.572780 19090 net.cpp:411] LFCN_2_3x5 -> LFCN_2_3x5
I1007 03:35:05.575785 19090 net.cpp:150] Setting up LFCN_2_3x5
I1007 03:35:05.575803 19090 net.cpp:157] Top shape: 2 6 28 28 (9408)
I1007 03:35:05.575808 19090 net.cpp:165] Memory required for data: 1008864568
I1007 03:35:05.575832 19090 layer_factory.hpp:76] Creating layer LFCN_2_3x5_LFCN_2_3x5_0_split
I1007 03:35:05.575842 19090 net.cpp:106] Creating Layer LFCN_2_3x5_LFCN_2_3x5_0_split
I1007 03:35:05.575850 19090 net.cpp:454] LFCN_2_3x5_LFCN_2_3x5_0_split <- LFCN_2_3x5
I1007 03:35:05.575861 19090 net.cpp:411] LFCN_2_3x5_LFCN_2_3x5_0_split -> LFCN_2_3x5_LFCN_2_3x5_0_split_0
I1007 03:35:05.575873 19090 net.cpp:411] LFCN_2_3x5_LFCN_2_3x5_0_split -> LFCN_2_3x5_LFCN_2_3x5_0_split_1
I1007 03:35:05.575947 19090 net.cpp:150] Setting up LFCN_2_3x5_LFCN_2_3x5_0_split
I1007 03:35:05.575958 19090 net.cpp:157] Top shape: 2 6 28 28 (9408)
I1007 03:35:05.575965 19090 net.cpp:157] Top shape: 2 6 28 28 (9408)
I1007 03:35:05.575969 19090 net.cpp:165] Memory required for data: 1008939832
I1007 03:35:05.575975 19090 layer_factory.hpp:76] Creating layer detection_loss_2_3x5
I1007 03:35:05.575989 19090 net.cpp:106] Creating Layer detection_loss_2_3x5
I1007 03:35:05.575994 19090 net.cpp:454] detection_loss_2_3x5 <- LFCN_2_3x5_LFCN_2_3x5_0_split_0
I1007 03:35:05.576002 19090 net.cpp:454] detection_loss_2_3x5 <- label_2_3x5_data_3_split_0
I1007 03:35:05.576014 19090 net.cpp:411] detection_loss_2_3x5 -> loss_2_3x5
I1007 03:35:05.576030 19090 layer_factory.hpp:76] Creating layer detection_loss_2_3x5
I1007 03:35:05.576503 19090 net.cpp:150] Setting up detection_loss_2_3x5
I1007 03:35:05.576516 19090 net.cpp:157] Top shape: 1 1 1 2 (2)
I1007 03:35:05.576521 19090 net.cpp:160]     with loss weight 1
I1007 03:35:05.576540 19090 net.cpp:165] Memory required for data: 1008939840
I1007 03:35:05.576546 19090 layer_factory.hpp:76] Creating layer detection_accuracy_2_3x5
I1007 03:35:05.576557 19090 net.cpp:106] Creating Layer detection_accuracy_2_3x5
I1007 03:35:05.576563 19090 net.cpp:454] detection_accuracy_2_3x5 <- LFCN_2_3x5_LFCN_2_3x5_0_split_1
I1007 03:35:05.576571 19090 net.cpp:454] detection_accuracy_2_3x5 <- label_2_3x5_data_3_split_1
I1007 03:35:05.576583 19090 net.cpp:411] detection_accuracy_2_3x5 -> accuracy_2_3x5
I1007 03:35:05.576596 19090 net.cpp:411] detection_accuracy_2_3x5 -> boxiou_2_3x5
I1007 03:35:05.576675 19090 net.cpp:150] Setting up detection_accuracy_2_3x5
I1007 03:35:05.576688 19090 net.cpp:157] Top shape: 1 1 1 2 (2)
I1007 03:35:05.576697 19090 net.cpp:157] Top shape: 1 1 1 1 (1)
I1007 03:35:05.576702 19090 net.cpp:165] Memory required for data: 1008939852
I1007 03:35:05.576707 19090 layer_factory.hpp:76] Creating layer LFCN_2_5x7
I1007 03:35:05.576719 19090 net.cpp:106] Creating Layer LFCN_2_5x7
I1007 03:35:05.576725 19090 net.cpp:454] LFCN_2_5x7 <- conv5_3_relu5_3_0_split_1
I1007 03:35:05.576737 19090 net.cpp:411] LFCN_2_5x7 -> LFCN_2_5x7
I1007 03:35:05.582479 19090 net.cpp:150] Setting up LFCN_2_5x7
I1007 03:35:05.582497 19090 net.cpp:157] Top shape: 2 6 28 28 (9408)
I1007 03:35:05.582504 19090 net.cpp:165] Memory required for data: 1008977484
I1007 03:35:05.582515 19090 layer_factory.hpp:76] Creating layer LFCN_2_5x7_LFCN_2_5x7_0_split
I1007 03:35:05.582526 19090 net.cpp:106] Creating Layer LFCN_2_5x7_LFCN_2_5x7_0_split
I1007 03:35:05.582533 19090 net.cpp:454] LFCN_2_5x7_LFCN_2_5x7_0_split <- LFCN_2_5x7
I1007 03:35:05.582542 19090 net.cpp:411] LFCN_2_5x7_LFCN_2_5x7_0_split -> LFCN_2_5x7_LFCN_2_5x7_0_split_0
I1007 03:35:05.582556 19090 net.cpp:411] LFCN_2_5x7_LFCN_2_5x7_0_split -> LFCN_2_5x7_LFCN_2_5x7_0_split_1
I1007 03:35:05.582634 19090 net.cpp:150] Setting up LFCN_2_5x7_LFCN_2_5x7_0_split
I1007 03:35:05.582645 19090 net.cpp:157] Top shape: 2 6 28 28 (9408)
I1007 03:35:05.582653 19090 net.cpp:157] Top shape: 2 6 28 28 (9408)
I1007 03:35:05.582657 19090 net.cpp:165] Memory required for data: 1009052748
I1007 03:35:05.582664 19090 layer_factory.hpp:76] Creating layer detection_loss_2_5x7
I1007 03:35:05.582675 19090 net.cpp:106] Creating Layer detection_loss_2_5x7
I1007 03:35:05.582681 19090 net.cpp:454] detection_loss_2_5x7 <- LFCN_2_5x7_LFCN_2_5x7_0_split_0
I1007 03:35:05.582690 19090 net.cpp:454] detection_loss_2_5x7 <- label_2_5x7_data_4_split_0
I1007 03:35:05.582700 19090 net.cpp:411] detection_loss_2_5x7 -> loss_2_5x7
I1007 03:35:05.582713 19090 layer_factory.hpp:76] Creating layer detection_loss_2_5x7
I1007 03:35:05.583384 19090 net.cpp:150] Setting up detection_loss_2_5x7
I1007 03:35:05.583400 19090 net.cpp:157] Top shape: 1 1 1 2 (2)
I1007 03:35:05.583405 19090 net.cpp:160]     with loss weight 1
I1007 03:35:05.583420 19090 net.cpp:165] Memory required for data: 1009052756
I1007 03:35:05.583425 19090 layer_factory.hpp:76] Creating layer detection_accuracy_2_5x7
I1007 03:35:05.583439 19090 net.cpp:106] Creating Layer detection_accuracy_2_5x7
I1007 03:35:05.583446 19090 net.cpp:454] detection_accuracy_2_5x7 <- LFCN_2_5x7_LFCN_2_5x7_0_split_1
I1007 03:35:05.583454 19090 net.cpp:454] detection_accuracy_2_5x7 <- label_2_5x7_data_4_split_1
I1007 03:35:05.583464 19090 net.cpp:411] detection_accuracy_2_5x7 -> accuracy_2_5x7
I1007 03:35:05.583477 19090 net.cpp:411] detection_accuracy_2_5x7 -> boxiou_2_5x7
I1007 03:35:05.583551 19090 net.cpp:150] Setting up detection_accuracy_2_5x7
I1007 03:35:05.583564 19090 net.cpp:157] Top shape: 1 1 1 2 (2)
I1007 03:35:05.583570 19090 net.cpp:157] Top shape: 1 1 1 1 (1)
I1007 03:35:05.583575 19090 net.cpp:165] Memory required for data: 1009052768
I1007 03:35:05.583580 19090 layer_factory.hpp:76] Creating layer pool5
I1007 03:35:05.583590 19090 net.cpp:106] Creating Layer pool5
I1007 03:35:05.583595 19090 net.cpp:454] pool5 <- conv5_3_relu5_3_0_split_2
I1007 03:35:05.583606 19090 net.cpp:411] pool5 -> pool5
I1007 03:35:05.583880 19090 net.cpp:150] Setting up pool5
I1007 03:35:05.583900 19090 net.cpp:157] Top shape: 2 512 14 14 (200704)
I1007 03:35:05.583905 19090 net.cpp:165] Memory required for data: 1009855584
I1007 03:35:05.583911 19090 layer_factory.hpp:76] Creating layer conv6_1
I1007 03:35:05.583923 19090 net.cpp:106] Creating Layer conv6_1
I1007 03:35:05.583930 19090 net.cpp:454] conv6_1 <- pool5
I1007 03:35:05.583942 19090 net.cpp:411] conv6_1 -> conv6_1
I1007 03:35:05.672516 19090 net.cpp:150] Setting up conv6_1
I1007 03:35:05.672550 19090 net.cpp:157] Top shape: 2 512 14 14 (200704)
I1007 03:35:05.672555 19090 net.cpp:165] Memory required for data: 1010658400
I1007 03:35:05.672569 19090 layer_factory.hpp:76] Creating layer relu6_1
I1007 03:35:05.672590 19090 net.cpp:106] Creating Layer relu6_1
I1007 03:35:05.672597 19090 net.cpp:454] relu6_1 <- conv6_1
I1007 03:35:05.672610 19090 net.cpp:397] relu6_1 -> conv6_1 (in-place)
I1007 03:35:05.673074 19090 net.cpp:150] Setting up relu6_1
I1007 03:35:05.673091 19090 net.cpp:157] Top shape: 2 512 14 14 (200704)
I1007 03:35:05.673104 19090 net.cpp:165] Memory required for data: 1011461216
I1007 03:35:05.673108 19090 layer_factory.hpp:76] Creating layer conv6_1_relu6_1_0_split
I1007 03:35:05.673125 19090 net.cpp:106] Creating Layer conv6_1_relu6_1_0_split
I1007 03:35:05.673131 19090 net.cpp:454] conv6_1_relu6_1_0_split <- conv6_1
I1007 03:35:05.673143 19090 net.cpp:411] conv6_1_relu6_1_0_split -> conv6_1_relu6_1_0_split_0
I1007 03:35:05.673156 19090 net.cpp:411] conv6_1_relu6_1_0_split -> conv6_1_relu6_1_0_split_1
I1007 03:35:05.673167 19090 net.cpp:411] conv6_1_relu6_1_0_split -> conv6_1_relu6_1_0_split_2
I1007 03:35:05.673290 19090 net.cpp:150] Setting up conv6_1_relu6_1_0_split
I1007 03:35:05.673303 19090 net.cpp:157] Top shape: 2 512 14 14 (200704)
I1007 03:35:05.673310 19090 net.cpp:157] Top shape: 2 512 14 14 (200704)
I1007 03:35:05.673316 19090 net.cpp:157] Top shape: 2 512 14 14 (200704)
I1007 03:35:05.673321 19090 net.cpp:165] Memory required for data: 1013869664
I1007 03:35:05.673326 19090 layer_factory.hpp:76] Creating layer LFCN_3_3x5
I1007 03:35:05.673346 19090 net.cpp:106] Creating Layer LFCN_3_3x5
I1007 03:35:05.673352 19090 net.cpp:454] LFCN_3_3x5 <- conv6_1_relu6_1_0_split_0
I1007 03:35:05.673363 19090 net.cpp:411] LFCN_3_3x5 -> LFCN_3_3x5
I1007 03:35:05.676838 19090 net.cpp:150] Setting up LFCN_3_3x5
I1007 03:35:05.676856 19090 net.cpp:157] Top shape: 2 6 14 14 (2352)
I1007 03:35:05.676862 19090 net.cpp:165] Memory required for data: 1013879072
I1007 03:35:05.676872 19090 layer_factory.hpp:76] Creating layer LFCN_3_3x5_LFCN_3_3x5_0_split
I1007 03:35:05.676897 19090 net.cpp:106] Creating Layer LFCN_3_3x5_LFCN_3_3x5_0_split
I1007 03:35:05.676903 19090 net.cpp:454] LFCN_3_3x5_LFCN_3_3x5_0_split <- LFCN_3_3x5
I1007 03:35:05.676914 19090 net.cpp:411] LFCN_3_3x5_LFCN_3_3x5_0_split -> LFCN_3_3x5_LFCN_3_3x5_0_split_0
I1007 03:35:05.676930 19090 net.cpp:411] LFCN_3_3x5_LFCN_3_3x5_0_split -> LFCN_3_3x5_LFCN_3_3x5_0_split_1
I1007 03:35:05.677011 19090 net.cpp:150] Setting up LFCN_3_3x5_LFCN_3_3x5_0_split
I1007 03:35:05.677023 19090 net.cpp:157] Top shape: 2 6 14 14 (2352)
I1007 03:35:05.677031 19090 net.cpp:157] Top shape: 2 6 14 14 (2352)
I1007 03:35:05.677036 19090 net.cpp:165] Memory required for data: 1013897888
I1007 03:35:05.677040 19090 layer_factory.hpp:76] Creating layer detection_loss_3_3x5
I1007 03:35:05.677053 19090 net.cpp:106] Creating Layer detection_loss_3_3x5
I1007 03:35:05.677059 19090 net.cpp:454] detection_loss_3_3x5 <- LFCN_3_3x5_LFCN_3_3x5_0_split_0
I1007 03:35:05.677067 19090 net.cpp:454] detection_loss_3_3x5 <- label_3_3x5_data_5_split_0
I1007 03:35:05.677078 19090 net.cpp:411] detection_loss_3_3x5 -> loss_3_3x5
I1007 03:35:05.677093 19090 layer_factory.hpp:76] Creating layer detection_loss_3_3x5
I1007 03:35:05.677760 19090 net.cpp:150] Setting up detection_loss_3_3x5
I1007 03:35:05.677783 19090 net.cpp:157] Top shape: 1 1 1 2 (2)
I1007 03:35:05.677789 19090 net.cpp:160]     with loss weight 1
I1007 03:35:05.677809 19090 net.cpp:165] Memory required for data: 1013897896
I1007 03:35:05.677815 19090 layer_factory.hpp:76] Creating layer detection_accuracy_3_3x5
I1007 03:35:05.677826 19090 net.cpp:106] Creating Layer detection_accuracy_3_3x5
I1007 03:35:05.677832 19090 net.cpp:454] detection_accuracy_3_3x5 <- LFCN_3_3x5_LFCN_3_3x5_0_split_1
I1007 03:35:05.677840 19090 net.cpp:454] detection_accuracy_3_3x5 <- label_3_3x5_data_5_split_1
I1007 03:35:05.677853 19090 net.cpp:411] detection_accuracy_3_3x5 -> accuracy_3_3x5
I1007 03:35:05.677867 19090 net.cpp:411] detection_accuracy_3_3x5 -> boxiou_3_3x5
I1007 03:35:05.677942 19090 net.cpp:150] Setting up detection_accuracy_3_3x5
I1007 03:35:05.677956 19090 net.cpp:157] Top shape: 1 1 1 2 (2)
I1007 03:35:05.677963 19090 net.cpp:157] Top shape: 1 1 1 1 (1)
I1007 03:35:05.677968 19090 net.cpp:165] Memory required for data: 1013897908
I1007 03:35:05.677973 19090 layer_factory.hpp:76] Creating layer LFCN_3_5x7
I1007 03:35:05.677985 19090 net.cpp:106] Creating Layer LFCN_3_5x7
I1007 03:35:05.677992 19090 net.cpp:454] LFCN_3_5x7 <- conv6_1_relu6_1_0_split_1
I1007 03:35:05.678005 19090 net.cpp:411] LFCN_3_5x7 -> LFCN_3_5x7
I1007 03:35:05.683218 19090 net.cpp:150] Setting up LFCN_3_5x7
I1007 03:35:05.683235 19090 net.cpp:157] Top shape: 2 6 14 14 (2352)
I1007 03:35:05.683241 19090 net.cpp:165] Memory required for data: 1013907316
I1007 03:35:05.683251 19090 layer_factory.hpp:76] Creating layer LFCN_3_5x7_LFCN_3_5x7_0_split
I1007 03:35:05.683261 19090 net.cpp:106] Creating Layer LFCN_3_5x7_LFCN_3_5x7_0_split
I1007 03:35:05.683269 19090 net.cpp:454] LFCN_3_5x7_LFCN_3_5x7_0_split <- LFCN_3_5x7
I1007 03:35:05.683280 19090 net.cpp:411] LFCN_3_5x7_LFCN_3_5x7_0_split -> LFCN_3_5x7_LFCN_3_5x7_0_split_0
I1007 03:35:05.683291 19090 net.cpp:411] LFCN_3_5x7_LFCN_3_5x7_0_split -> LFCN_3_5x7_LFCN_3_5x7_0_split_1
I1007 03:35:05.683375 19090 net.cpp:150] Setting up LFCN_3_5x7_LFCN_3_5x7_0_split
I1007 03:35:05.683387 19090 net.cpp:157] Top shape: 2 6 14 14 (2352)
I1007 03:35:05.683394 19090 net.cpp:157] Top shape: 2 6 14 14 (2352)
I1007 03:35:05.683399 19090 net.cpp:165] Memory required for data: 1013926132
I1007 03:35:05.683404 19090 layer_factory.hpp:76] Creating layer detection_loss_3_5x7
I1007 03:35:05.683416 19090 net.cpp:106] Creating Layer detection_loss_3_5x7
I1007 03:35:05.683423 19090 net.cpp:454] detection_loss_3_5x7 <- LFCN_3_5x7_LFCN_3_5x7_0_split_0
I1007 03:35:05.683431 19090 net.cpp:454] detection_loss_3_5x7 <- label_3_5x7_data_6_split_0
I1007 03:35:05.683444 19090 net.cpp:411] detection_loss_3_5x7 -> loss_3_5x7
I1007 03:35:05.683456 19090 layer_factory.hpp:76] Creating layer detection_loss_3_5x7
I1007 03:35:05.683933 19090 net.cpp:150] Setting up detection_loss_3_5x7
I1007 03:35:05.683948 19090 net.cpp:157] Top shape: 1 1 1 2 (2)
I1007 03:35:05.683954 19090 net.cpp:160]     with loss weight 1
I1007 03:35:05.683964 19090 net.cpp:165] Memory required for data: 1013926140
I1007 03:35:05.683969 19090 layer_factory.hpp:76] Creating layer detection_accuracy_3_5x7
I1007 03:35:05.683979 19090 net.cpp:106] Creating Layer detection_accuracy_3_5x7
I1007 03:35:05.683985 19090 net.cpp:454] detection_accuracy_3_5x7 <- LFCN_3_5x7_LFCN_3_5x7_0_split_1
I1007 03:35:05.683993 19090 net.cpp:454] detection_accuracy_3_5x7 <- label_3_5x7_data_6_split_1
I1007 03:35:05.684005 19090 net.cpp:411] detection_accuracy_3_5x7 -> accuracy_3_5x7
I1007 03:35:05.684017 19090 net.cpp:411] detection_accuracy_3_5x7 -> boxiou_3_5x7
I1007 03:35:05.684092 19090 net.cpp:150] Setting up detection_accuracy_3_5x7
I1007 03:35:05.684103 19090 net.cpp:157] Top shape: 1 1 1 2 (2)
I1007 03:35:05.684110 19090 net.cpp:157] Top shape: 1 1 1 1 (1)
I1007 03:35:05.684115 19090 net.cpp:165] Memory required for data: 1013926152
I1007 03:35:05.684120 19090 layer_factory.hpp:76] Creating layer pool6
I1007 03:35:05.684134 19090 net.cpp:106] Creating Layer pool6
I1007 03:35:05.684139 19090 net.cpp:454] pool6 <- conv6_1_relu6_1_0_split_2
I1007 03:35:05.684150 19090 net.cpp:411] pool6 -> pool6
I1007 03:35:05.684618 19090 net.cpp:150] Setting up pool6
I1007 03:35:05.684636 19090 net.cpp:157] Top shape: 2 512 7 7 (50176)
I1007 03:35:05.684643 19090 net.cpp:165] Memory required for data: 1014126856
I1007 03:35:05.684648 19090 layer_factory.hpp:76] Creating layer LFCN_4_3x5
I1007 03:35:05.684662 19090 net.cpp:106] Creating Layer LFCN_4_3x5
I1007 03:35:05.684669 19090 net.cpp:454] LFCN_4_3x5 <- pool6
I1007 03:35:05.684679 19090 net.cpp:411] LFCN_4_3x5 -> LFCN_4_3x5
I1007 03:35:05.687973 19090 net.cpp:150] Setting up LFCN_4_3x5
I1007 03:35:05.687989 19090 net.cpp:157] Top shape: 2 6 7 7 (588)
I1007 03:35:05.687994 19090 net.cpp:165] Memory required for data: 1014129208
I1007 03:35:05.688005 19090 layer_factory.hpp:76] Creating layer LFCN_4_3x5_LFCN_4_3x5_0_split
I1007 03:35:05.688021 19090 net.cpp:106] Creating Layer LFCN_4_3x5_LFCN_4_3x5_0_split
I1007 03:35:05.688029 19090 net.cpp:454] LFCN_4_3x5_LFCN_4_3x5_0_split <- LFCN_4_3x5
I1007 03:35:05.688038 19090 net.cpp:411] LFCN_4_3x5_LFCN_4_3x5_0_split -> LFCN_4_3x5_LFCN_4_3x5_0_split_0
I1007 03:35:05.688053 19090 net.cpp:411] LFCN_4_3x5_LFCN_4_3x5_0_split -> LFCN_4_3x5_LFCN_4_3x5_0_split_1
I1007 03:35:05.688136 19090 net.cpp:150] Setting up LFCN_4_3x5_LFCN_4_3x5_0_split
I1007 03:35:05.688149 19090 net.cpp:157] Top shape: 2 6 7 7 (588)
I1007 03:35:05.688156 19090 net.cpp:157] Top shape: 2 6 7 7 (588)
I1007 03:35:05.688160 19090 net.cpp:165] Memory required for data: 1014133912
I1007 03:35:05.688166 19090 layer_factory.hpp:76] Creating layer detection_loss_4_3x5
I1007 03:35:05.688179 19090 net.cpp:106] Creating Layer detection_loss_4_3x5
I1007 03:35:05.688185 19090 net.cpp:454] detection_loss_4_3x5 <- LFCN_4_3x5_LFCN_4_3x5_0_split_0
I1007 03:35:05.688194 19090 net.cpp:454] detection_loss_4_3x5 <- label_4_3x5_data_7_split_0
I1007 03:35:05.688204 19090 net.cpp:411] detection_loss_4_3x5 -> loss_4_3x5
I1007 03:35:05.688216 19090 layer_factory.hpp:76] Creating layer detection_loss_4_3x5
I1007 03:35:05.688701 19090 net.cpp:150] Setting up detection_loss_4_3x5
I1007 03:35:05.688716 19090 net.cpp:157] Top shape: 1 1 1 2 (2)
I1007 03:35:05.688721 19090 net.cpp:160]     with loss weight 1
I1007 03:35:05.688730 19090 net.cpp:165] Memory required for data: 1014133920
I1007 03:35:05.688736 19090 layer_factory.hpp:76] Creating layer detection_accuracy_4_3x5
I1007 03:35:05.688748 19090 net.cpp:106] Creating Layer detection_accuracy_4_3x5
I1007 03:35:05.688755 19090 net.cpp:454] detection_accuracy_4_3x5 <- LFCN_4_3x5_LFCN_4_3x5_0_split_1
I1007 03:35:05.688763 19090 net.cpp:454] detection_accuracy_4_3x5 <- label_4_3x5_data_7_split_1
I1007 03:35:05.688772 19090 net.cpp:411] detection_accuracy_4_3x5 -> accuracy_4_3x5
I1007 03:35:05.688788 19090 net.cpp:411] detection_accuracy_4_3x5 -> boxiou_4_3x5
I1007 03:35:05.688864 19090 net.cpp:150] Setting up detection_accuracy_4_3x5
I1007 03:35:05.688876 19090 net.cpp:157] Top shape: 1 1 1 2 (2)
I1007 03:35:05.688884 19090 net.cpp:157] Top shape: 1 1 1 1 (1)
I1007 03:35:05.688887 19090 net.cpp:165] Memory required for data: 1014133932
I1007 03:35:05.688894 19090 net.cpp:228] detection_accuracy_4_3x5 does not need backward computation.
I1007 03:35:05.688899 19090 net.cpp:226] detection_loss_4_3x5 needs backward computation.
I1007 03:35:05.688905 19090 net.cpp:226] LFCN_4_3x5_LFCN_4_3x5_0_split needs backward computation.
I1007 03:35:05.688910 19090 net.cpp:226] LFCN_4_3x5 needs backward computation.
…
