…
    downsample_rate: 16
    downsample_rate: 32
    downsample_rate: 32
    downsample_rate: 64
    coord_num: 4
    field_h: 40
    field_h: 56
    field_h: 80
    field_h: 112
    field_h: 160
    field_h: 224
    field_h: 320
    field_w: 20
    field_w: 28
    field_w: 40
    field_w: 56
    field_w: 80
    field_w: 112
    field_w: 160
    fg_threshold: 0.5
    resize_width: 640
    resize_height: 480
    crop_width: 448
    crop_height: 448
    do_multiple_scale: true
    min_scale: 30
    max_scale: 240
    min_gt_height: 45
    shuffle: true
  }
}
layer {
  name: "conv1_1"
  type: "Convolution"
  bottom: "data"
  top: "conv1_1"
  convolution_param {
    num_output: 64
    pad: 1
    kernel_size: 3
  }
}
layer {
  name: "relu1_1"
  type: "ReLU"
  bottom: "conv1_1"
  top: "conv1_1"
}
layer {
  name: "conv1_2"
  type: "Convolution"
  bottom: "conv1_1"
  top: "conv1_2"
  convolution_param {
    num_output: 64
    pad: 1
    kernel_size: 3
  }
}
layer {
  name: "relu1_2"
  type: "ReLU"
  bottom: "conv1_2"
  top: "conv1_2"
}
layer {
  name: "pool1"
  type: "Pooling"
  bottom: "conv1_2"
  top: "pool1"
  pooling_param {
    pool: MAX
    kernel_size: 2
    stride: 2
  }
}
layer {
  name: "conv2_1"
  type: "Convolution"
  bottom: "pool1"
  top: "conv2_1"
  convolution_param {
    num_output: 128
    pad: 1
    kernel_size: 3
  }
}
layer {
  name: "relu2_1"
  type: "ReLU"
  bottom: "conv2_1"
  top: "conv2_1"
}
layer {
  name: "conv2_2"
  type: "Convolution"
  bottom: "conv2_1"
  top: "conv2_2"
  convolution_param {
    num_output: 128
    pad: 1
    kernel_size: 3
  }
}
layer {
  name: "relu2_2"
  type: "ReLU"
  bottom: "conv2_2"
  top: "conv2_2"
}
layer {
  name: "pool2"
  type: "Pooling"
  bottom: "conv2_2"
  top: "pool2"
  pooling_param {
    pool: MAX
    kernel_size: 2
    stride: 2
  }
}
layer {
  name: "conv3_1"
  type: "Convolution"
  bottom: "pool2"
  top: "conv3_1"
  convolution_param {
    num_output: 256
    pad: 1
    kernel_size: 3
  }
}
layer {
  name: "relu3_1"
  type: "ReLU"
  bottom: "conv3_1"
  top: "conv3_1"
}
layer {
  name: "conv3_2"
  type: "Convolution"
  bottom: "conv3_1"
  top: "conv3_2"
  convolution_param {
    num_output: 256
    pad: 1
    kernel_size: 3
  }
}
layer {
  name: "relu3_2"
  type: "ReLU"
  bottom: "conv3_2"
  top: "conv3_2"
}
layer {
  name: "conv3_3"
  type: "Convolution"
  bottom: "conv3_2"
  top: "conv3_3"
  convolution_param {
    num_output: 256
    pad: 1
    kernel_size: 3
  }
}
layer {
  name: "relu3_3"
  type: "ReLU"
  bottom: "conv3_3"
  top: "conv3_3"
}
layer {
  name: "pool3"
  type: "Pooling"
  bottom: "conv3_3"
  top: "pool3"
  pooling_param {
    pool: MAX
    kernel_size: 2
    stride: 2
  }
}
layer {
  name: "conv4_1"
  type: "Convolution"
  bottom: "pool3"
  top: "conv4_1"
  convolution_param {
    num_output: 512
    pad: 1
    kernel_size: 3
  }
}
layer {
  name: "relu4_1"
  type: "ReLU"
  bottom: "conv4_1"
  top: "conv4_1"
}
layer {
  name: "conv4_2"
  type: "Convolution"
  bottom: "conv4_1"
  top: "conv4_2"
  convolution_param {
    num_output: 512
    pad: 1
    kernel_size: 3
  }
}
layer {
  name: "relu4_2"
  type: "ReLU"
  bottom: "conv4_2"
  top: "conv4_2"
}
layer {
  name: "conv4_3"
  type: "Convolution"
  bottom: "conv4_2"
  top: "conv4_3"
  convolution_param {
    num_output: 512
    pad: 1
    kernel_size: 3
  }
}
layer {
  name: "relu4_3"
  type: "ReLU"
  bottom: "conv4_3"
  top: "conv4_3"
}
layer {
  name: "loss1_conv1"
  type: "Convolution"
  bottom: "conv4_3"
  top: "loss1_conv1"
  param {
    lr_mult: 1
    decay_mult: 1
  }
  param {
    lr_mult: 2
    decay_mult: 0
  }
  convolution_param {
    num_output: 512
    pad: 1
    kernel_size: 3
    weight_filler {
      type: "gaussian"
      std: 0.01
    }
    bias_filler {
      type: "constant"
    }
  }
}
layer {
  name: "loss_relu1"
  type: "ReLU"
  bottom: "loss1_conv1"
  top: "loss1_conv1"
}
layer {
  name: "LFCN_1_3x5"
  type: "Convolution"
  bottom: "loss1_conv1"
  top: "LFCN_1_3x5"
  param {
    lr_mult: 1
    decay_mult: 1
  }
  param {
    lr_mult: 2
    decay_mult: 0
  }
  convolution_param {
    num_output: 6
    weight_filler {
      type: "gaussian"
      std: 0.001
    }
    bias_filler {
      type: "constant"
    }
    pad_h: 2
    pad_w: 1
    kernel_h: 5
    kernel_w: 3
  }
}
layer {
  name: "detection_loss_1_3x5"
  type: "Detection"
  bottom: "LFCN_1_3x5"
  bottom: "label_1_3x5"
  top: "loss_1_3x5"
  loss_weight: 0.9
  detection_param {
    cls_num: 2
    coord_num: 4
    lambda: 0.5
    field_h: 40
    field_w: 20
    downsample_rate: 8
    bb_smooth: true
    field_whr: 2
    field_xyr: 2
    bg_threshold: 0.2
    bg_multiple: 2
    sample_mode: "random"
    pos_neg_weighted: true
  }
}
layer {
  name: "detection_accuracy_1_3x5"
  type: "DetectionAccuracy"
  bottom: "LFCN_1_3x5"
  bottom: "label_1_3x5"
  top: "accuracy_1_3x5"
  top: "boxiou_1_3x5"
  detection_accuracy_param {
    cls_num: 2
    coord_num: 4
    field_h: 40
    field_w: 20
    downsample_rate: 8
    field_whr: 2
    field_xyr: 2
  }
}
layer {
  name: "LFCN_1_5x7"
  type: "Convolution"
  bottom: "loss1_conv1"
  top: "LFCN_1_5x7"
  param {
    lr_mult: 1
    decay_mult: 1
  }
  param {
    lr_mult: 2
    decay_mult: 0
  }
  convolution_param {
    num_output: 6
    weight_filler {
      type: "gaussian"
      std: 0.001
    }
    bias_filler {
      type: "constant"
    }
    pad_h: 3
    pad_w: 2
    kernel_h: 7
    kernel_w: 5
  }
}
layer {
  name: "detection_loss_1_5x7"
  type: "Detection"
  bottom: "LFCN_1_5x7"
  bottom: "label_1_5x7"
  top: "loss_1_5x7"
  loss_weight: 0.9
  detection_param {
    cls_num: 2
    coord_num: 4
    lambda: 0.5
    field_h: 56
    field_w: 28
    downsample_rate: 8
    bb_smooth: true
    field_whr: 2
    field_xyr: 2
    bg_threshold: 0.2
    bg_multiple: 2
    sample_mode: "random"
    pos_neg_weighted: true
  }
}
layer {
  name: "detection_accuracy_1_5x7"
  type: "DetectionAccuracy"
  bottom: "LFCN_1_5x7"
  bottom: "label_1_5x7"
  top: "accuracy_1_5x7"
  top: "boxiou_1_5x7"
  detection_accuracy_param {
    cls_num: 2
    coord_num: 4
    field_h: 56
    field_w: 28
    downsample_rate: 8
    field_whr: 2
    field_xyr: 2
  }
}
layer {
  name: "pool4"
  type: "Pooling"
  bottom: "conv4_3"
  top: "pool4"
  pooling_param {
    pool: MAX
    kernel_size: 2
    stride: 2
  }
}
layer {
  name: "conv5_1"
  type: "Convolution"
  bottom: "pool4"
  top: "conv5_1"
  convolution_param {
    num_output: 512
    pad: 1
    kernel_size: 3
  }
}
layer {
  name: "relu5_1"
  type: "ReLU"
  bottom: "conv5_1"
  top: "conv5_1"
}
layer {
  name: "conv5_2"
  type: "Convolution"
  bottom: "conv5_1"
  top: "conv5_2"
  convolution_param {
    num_output: 512
    pad: 1
    kernel_size: 3
  }
}
layer {
  name: "relu5_2"
  type: "ReLU"
  bottom: "conv5_2"
  top: "conv5_2"
}
layer {
  name: "conv5_3"
  type: "Convolution"
  bottom: "conv5_2"
  top: "conv5_3"
  convolution_param {
    num_output: 512
    pad: 1
    kernel_size: 3
  }
}
layer {
  name: "relu5_3"
  type: "ReLU"
  bottom: "conv5_3"
  top: "conv5_3"
}
layer {
  name: "LFCN_2_3x5"
  type: "Convolution"
  bottom: "conv5_3"
  top: "LFCN_2_3x5"
  param {
    lr_mult: 1
    decay_mult: 1
  }
  param {
    lr_mult: 2
    decay_mult: 0
  }
  convolution_param {
    num_output: 6
    weight_filler {
      type: "gaussian"
      std: 0.001
    }
    bias_filler {
      type: "constant"
    }
    pad_h: 2
    pad_w: 1
    kernel_h: 5
    kernel_w: 3
  }
}
layer {
  name: "detection_loss_2_3x5"
  type: "Detection"
  bottom: "LFCN_2_3x5"
  bottom: "label_2_3x5"
  top: "loss_2_3x5"
  detection_param {
    cls_num: 2
    coord_num: 4
    lambda: 0.5
    field_h: 80
    field_w: 40
    downsample_rate: 16
    bb_smooth: true
    field_whr: 2
    field_xyr: 2
    bg_threshold: 0.2
    bg_multiple: 2
    sample_mode: "random"
    pos_neg_weighted: true
  }
}
layer {
  name: "detection_accuracy_2_3x5"
  type: "DetectionAccuracy"
  bottom: "LFCN_2_3x5"
  bottom: "label_2_3x5"
  top: "accuracy_2_3x5"
  top: "boxiou_2_3x5"
  detection_accuracy_param {
    cls_num: 2
    coord_num: 4
    field_h: 80
    field_w: 40
    downsample_rate: 16
    field_whr: 2
    field_xyr: 2
  }
}
layer {
  name: "LFCN_2_5x7"
  type: "Convolution"
  bottom: "conv5_3"
  top: "LFCN_2_5x7"
  param {
    lr_mult: 1
    decay_mult: 1
  }
  param {
    lr_mult: 2
    decay_mult: 0
  }
  convolution_param {
    num_output: 6
    weight_filler {
      type: "gaussian"
      std: 0.001
    }
    bias_filler {
      type: "constant"
    }
    pad_h: 3
    pad_w: 2
    kernel_h: 7
    kernel_w: 5
  }
}
layer {
  name: "detection_loss_2_5x7"
  type: "Detection"
  bottom: "LFCN_2_5x7"
  bottom: "label_2_5x7"
  top: "loss_2_5x7"
  detection_param {
    cls_num: 2
    coord_num: 4
    lambda: 0.5
    field_h: 112
    field_w: 56
    downsample_rate: 16
    bb_smooth: true
    field_whr: 2
    field_xyr: 2
    bg_threshold: 0.2
    bg_multiple: 2
    sample_mode: "random"
    pos_neg_weighted: true
  }
}
layer {
  name: "detection_accuracy_2_5x7"
  type: "DetectionAccuracy"
  bottom: "LFCN_2_5x7"
  bottom: "label_2_5x7"
  top: "accuracy_2_5x7"
  top: "boxiou_2_5x7"
  detection_accuracy_param {
    cls_num: 2
    coord_num: 4
    field_h: 112
    field_w: 56
    downsample_rate: 16
    field_whr: 2
    field_xyr: 2
  }
}
layer {
  name: "pool5"
  type: "Pooling"
  bottom: "conv5_3"
  top: "pool5"
  pooling_param {
    pool: MAX
    kernel_size: 2
    stride: 2
  }
}
layer {
  name: "conv6_1"
  type: "Convolution"
  bottom: "pool5"
  top: "conv6_1"
  param {
    lr_mult: 1
    decay_mult: 1
  }
  param {
    lr_mult: 2
    decay_mult: 0
  }
  convolution_param {
    num_output: 512
    pad: 1
    kernel_size: 3
    weight_filler {
      type: "gaussian"
      std: 0.01
    }
    bias_filler {
      type: "constant"
    }
  }
}
layer {
  name: "relu6_1"
  type: "ReLU"
  bottom: "conv6_1"
  top: "conv6_1"
}
layer {
  name: "LFCN_3_3x5"
  type: "Convolution"
  bottom: "conv6_1"
  top: "LFCN_3_3x5"
  param {
    lr_mult: 1
    decay_mult: 1
  }
  param {
    lr_mult: 2
    decay_mult: 0
  }
  convolution_param {
    num_output: 6
    weight_filler {
      type: "gaussian"
      std: 0.001
    }
    bias_filler {
      type: "constant"
    }
    pad_h: 2
    pad_w: 1
    kernel_h: 5
    kernel_w: 3
  }
}
layer {
  name: "detection_loss_3_3x5"
  type: "Detection"
  bottom: "LFCN_3_3x5"
  bottom: "label_3_3x5"
  top: "loss_3_3x5"
  detection_param {
    cls_num: 2
    coord_num: 4
    lambda: 0.5
    field_h: 160
    field_w: 80
    downsample_rate: 32
    bb_smooth: true
    field_whr: 2
    field_xyr: 2
    bg_threshold: 0.2
    bg_multiple: 2
    sample_mode: "random"
    pos_neg_weighted: true
  }
}
layer {
  name: "detection_accuracy_3_3x5"
  type: "DetectionAccuracy"
  bottom: "LFCN_3_3x5"
  bottom: "label_3_3x5"
  top: "accuracy_3_3x5"
  top: "boxiou_3_3x5"
  detection_accuracy_param {
    cls_num: 2
    coord_num: 4
    field_h: 160
    field_w: 80
    downsample_rate: 32
    field_whr: 2
    field_xyr: 2
  }
}
layer {
  name: "LFCN_3_5x7"
  type: "Convolution"
  bottom: "conv6_1"
  top: "LFCN_3_5x7"
  param {
    lr_mult: 1
    decay_mult: 1
  }
  param {
    lr_mult: 2
    decay_mult: 0
  }
  convolution_param {
    num_output: 6
    weight_filler {
      type: "gaussian"
      std: 0.001
    }
    bias_filler {
      type: "constant"
    }
    pad_h: 3
    pad_w: 2
    kernel_h: 7
    kernel_w: 5
  }
}
layer {
  name: "detection_loss_3_5x7"
  type: "Detection"
  bottom: "LFCN_3_5x7"
  bottom: "label_3_5x7"
  top: "loss_3_5x7"
  detection_param {
    cls_num: 2
    coord_num: 4
    lambda: 0.5
    field_h: 224
    field_w: 112
    downsample_rate: 32
    bb_smooth: true
    field_whr: 2
    field_xyr: 2
    bg_threshold: 0.2
    bg_multiple: 2
    sample_mode: "random"
    pos_neg_weighted: true
  }
}
layer {
  name: "detection_accuracy_3_5x7"
  type: "DetectionAccuracy"
  bottom: "LFCN_3_5x7"
  bottom: "label_3_5x7"
  top: "accuracy_3_5x7"
  top: "boxiou_3_5x7"
  detection_accuracy_param {
    cls_num: 2
    coord_num: 4
    field_h: 224
    field_w: 112
    downsample_rate: 32
    field_whr: 2
    field_xyr: 2
  }
}
layer {
  name: "pool6"
  type: "Pooling"
  bottom: "conv6_1"
  top: "pool6"
  pooling_param {
    pool: MAX
    kernel_size: 2
    stride: 2
  }
}
layer {
  name: "LFCN_4_3x5"
  type: "Convolution"
  bottom: "pool6"
  top: "LFCN_4_3x5"
  param {
    lr_mult: 1
    decay_mult: 1
  }
  param {
    lr_mult: 2
    decay_mult: 0
  }
  convolution_param {
    num_output: 6
    weight_filler {
      type: "gaussian"
      std: 0.001
    }
    bias_filler {
      type: "constant"
    }
    pad_h: 2
    pad_w: 1
    kernel_h: 5
    kernel_w: 3
  }
}
layer {
  name: "detection_loss_4_3x5"
  type: "Detection"
  bottom: "LFCN_4_3x5"
  bottom: "label_4_3x5"
  top: "loss_4_3x5"
  detection_param {
    cls_num: 2
    coord_num: 4
    lambda: 0.5
    field_h: 320
    field_w: 160
    downsample_rate: 64
    bb_smooth: true
    field_whr: 2
    field_xyr: 2
    bg_threshold: 0.2
    bg_multiple: 2
    sample_mode: "random"
    pos_neg_weighted: true
  }
}
layer {
  name: "detection_accuracy_4_3x5"
  type: "DetectionAccuracy"
  bottom: "LFCN_4_3x5"
  bottom: "label_4_3x5"
  top: "accuracy_4_3x5"
  top: "boxiou_4_3x5"
  detection_accuracy_param {
    cls_num: 2
    coord_num: 4
    field_h: 320
    field_w: 160
    downsample_rate: 64
    field_whr: 2
    field_xyr: 2
  }
}
I1007 03:19:21.621958 18857 layer_factory.hpp:76] Creating layer data
I1007 03:19:21.622004 18857 net.cpp:106] Creating Layer data
I1007 03:19:21.622012 18857 net.cpp:411] data -> data
…
I1007 03:19:21.830127 18857 image_gt_data_layer.cpp:234] output label size 1 : 4,6,56,56
I1007 03:19:21.830186 18857 image_gt_data_layer.cpp:234] output label size 2 : 4,6,28,28
I1007 03:19:21.830236 18857 image_gt_data_layer.cpp:234] output label size 3 : 4,6,28,28
I1007 03:19:21.830286 18857 image_gt_data_layer.cpp:234] output label size 4 : 4,6,14,14
I1007 03:19:21.830343 18857 image_gt_data_layer.cpp:234] output label size 5 : 4,6,14,14
I1007 03:19:21.830390 18857 image_gt_data_layer.cpp:234] output label size 6 : 4,6,7,7
I1007 03:19:21.851145 18857 net.cpp:150] Setting up data
I1007 03:19:21.851173 18857 net.cpp:157] Top shape: 4 3 448 448 (2408448)
I1007 03:19:21.851178 18857 net.cpp:157] Top shape: 4 6 56 56 (75264)
I1007 03:19:21.851181 18857 net.cpp:157] Top shape: 4 6 56 56 (75264)
I1007 03:19:21.851186 18857 net.cpp:157] Top shape: 4 6 28 28 (18816)
I1007 03:19:21.851188 18857 net.cpp:157] Top shape: 4 6 28 28 (18816)
I1007 03:19:21.851191 18857 net.cpp:157] Top shape: 4 6 14 14 (4704)
I1007 03:19:21.851194 18857 net.cpp:157] Top shape: 4 6 14 14 (4704)
I1007 03:19:21.851198 18857 net.cpp:157] Top shape: 4 6 7 7 (1176)
I1007 03:19:21.851202 18857 net.cpp:165] Memory required for data: 10428768
I1007 03:19:21.851208 18857 layer_factory.hpp:76] Creating layer label_1_3x5_data_1_split
I1007 03:19:21.851249 18857 net.cpp:106] Creating Layer label_1_3x5_data_1_split
I1007 03:19:21.851266 18857 net.cpp:454] label_1_3x5_data_1_split <- label_1_3x5
I1007 03:19:21.851277 18857 net.cpp:411] label_1_3x5_data_1_split -> label_1_3x5_data_1_split_0
I1007 03:19:21.851289 18857 net.cpp:411] label_1_3x5_data_1_split -> label_1_3x5_data_1_split_1
I1007 03:19:21.851380 18857 net.cpp:150] Setting up label_1_3x5_data_1_split
I1007 03:19:21.851392 18857 net.cpp:157] Top shape: 4 6 56 56 (75264)
I1007 03:19:21.851395 18857 net.cpp:157] Top shape: 4 6 56 56 (75264)
I1007 03:19:21.851397 18857 net.cpp:165] Memory required for data: 11030880
I1007 03:19:21.851400 18857 layer_factory.hpp:76] Creating layer label_1_5x7_data_2_split
I1007 03:19:21.851409 18857 net.cpp:106] Creating Layer label_1_5x7_data_2_split
I1007 03:19:21.851413 18857 net.cpp:454] label_1_5x7_data_2_split <- label_1_5x7
I1007 03:19:21.851423 18857 net.cpp:411] label_1_5x7_data_2_split -> label_1_5x7_data_2_split_0
I1007 03:19:21.851428 18857 net.cpp:411] label_1_5x7_data_2_split -> label_1_5x7_data_2_split_1
I1007 03:19:21.851521 18857 net.cpp:150] Setting up label_1_5x7_data_2_split
I1007 03:19:21.851527 18857 net.cpp:157] Top shape: 4 6 56 56 (75264)
I1007 03:19:21.851533 18857 net.cpp:157] Top shape: 4 6 56 56 (75264)
I1007 03:19:21.851537 18857 net.cpp:165] Memory required for data: 11632992
I1007 03:19:21.851542 18857 layer_factory.hpp:76] Creating layer label_2_3x5_data_3_split
I1007 03:19:21.851549 18857 net.cpp:106] Creating Layer label_2_3x5_data_3_split
I1007 03:19:21.851552 18857 net.cpp:454] label_2_3x5_data_3_split <- label_2_3x5
I1007 03:19:21.851557 18857 net.cpp:411] label_2_3x5_data_3_split -> label_2_3x5_data_3_split_0
I1007 03:19:21.851563 18857 net.cpp:411] label_2_3x5_data_3_split -> label_2_3x5_data_3_split_1
I1007 03:19:21.851593 18857 net.cpp:150] Setting up label_2_3x5_data_3_split
I1007 03:19:21.851596 18857 net.cpp:157] Top shape: 4 6 28 28 (18816)
I1007 03:19:21.851600 18857 net.cpp:157] Top shape: 4 6 28 28 (18816)
I1007 03:19:21.851603 18857 net.cpp:165] Memory required for data: 11783520
I1007 03:19:21.851608 18857 layer_factory.hpp:76] Creating layer label_2_5x7_data_4_split
I1007 03:19:21.851616 18857 net.cpp:106] Creating Layer label_2_5x7_data_4_split
I1007 03:19:21.851619 18857 net.cpp:454] label_2_5x7_data_4_split <- label_2_5x7
I1007 03:19:21.851624 18857 net.cpp:411] label_2_5x7_data_4_split -> label_2_5x7_data_4_split_0
I1007 03:19:21.851629 18857 net.cpp:411] label_2_5x7_data_4_split -> label_2_5x7_data_4_split_1
I1007 03:19:21.851658 18857 net.cpp:150] Setting up label_2_5x7_data_4_split
I1007 03:19:21.851662 18857 net.cpp:157] Top shape: 4 6 28 28 (18816)
I1007 03:19:21.851665 18857 net.cpp:157] Top shape: 4 6 28 28 (18816)
I1007 03:19:21.851668 18857 net.cpp:165] Memory required for data: 11934048
I1007 03:19:21.851670 18857 layer_factory.hpp:76] Creating layer label_3_3x5_data_5_split
I1007 03:19:21.851676 18857 net.cpp:106] Creating Layer label_3_3x5_data_5_split
I1007 03:19:21.851680 18857 net.cpp:454] label_3_3x5_data_5_split <- label_3_3x5
I1007 03:19:21.851686 18857 net.cpp:411] label_3_3x5_data_5_split -> label_3_3x5_data_5_split_0
I1007 03:19:21.851696 18857 net.cpp:411] label_3_3x5_data_5_split -> label_3_3x5_data_5_split_1
I1007 03:19:21.851727 18857 net.cpp:150] Setting up label_3_3x5_data_5_split
I1007 03:19:21.851732 18857 net.cpp:157] Top shape: 4 6 14 14 (4704)
I1007 03:19:21.851734 18857 net.cpp:157] Top shape: 4 6 14 14 (4704)
I1007 03:19:21.851737 18857 net.cpp:165] Memory required for data: 11971680
I1007 03:19:21.851739 18857 layer_factory.hpp:76] Creating layer label_3_5x7_data_6_split
I1007 03:19:21.851745 18857 net.cpp:106] Creating Layer label_3_5x7_data_6_split
I1007 03:19:21.851747 18857 net.cpp:454] label_3_5x7_data_6_split <- label_3_5x7
I1007 03:19:21.851752 18857 net.cpp:411] label_3_5x7_data_6_split -> label_3_5x7_data_6_split_0
I1007 03:19:21.851759 18857 net.cpp:411] label_3_5x7_data_6_split -> label_3_5x7_data_6_split_1
I1007 03:19:21.851790 18857 net.cpp:150] Setting up label_3_5x7_data_6_split
I1007 03:19:21.851795 18857 net.cpp:157] Top shape: 4 6 14 14 (4704)
I1007 03:19:21.851799 18857 net.cpp:157] Top shape: 4 6 14 14 (4704)
I1007 03:19:21.851800 18857 net.cpp:165] Memory required for data: 12009312
I1007 03:19:21.851804 18857 layer_factory.hpp:76] Creating layer label_4_3x5_data_7_split
I1007 03:19:21.851809 18857 net.cpp:106] Creating Layer label_4_3x5_data_7_split
I1007 03:19:21.851811 18857 net.cpp:454] label_4_3x5_data_7_split <- label_4_3x5
I1007 03:19:21.851815 18857 net.cpp:411] label_4_3x5_data_7_split -> label_4_3x5_data_7_split_0
I1007 03:19:21.851820 18857 net.cpp:411] label_4_3x5_data_7_split -> label_4_3x5_data_7_split_1
I1007 03:19:21.851851 18857 net.cpp:150] Setting up label_4_3x5_data_7_split
I1007 03:19:21.851856 18857 net.cpp:157] Top shape: 4 6 7 7 (1176)
I1007 03:19:21.851860 18857 net.cpp:157] Top shape: 4 6 7 7 (1176)
I1007 03:19:21.851861 18857 net.cpp:165] Memory required for data: 12018720
I1007 03:19:21.851864 18857 layer_factory.hpp:76] Creating layer conv1_1
I1007 03:19:21.851876 18857 net.cpp:106] Creating Layer conv1_1
I1007 03:19:21.851877 18857 net.cpp:454] conv1_1 <- data
I1007 03:19:21.851882 18857 net.cpp:411] conv1_1 -> conv1_1
I1007 03:19:21.968127 18857 net.cpp:150] Setting up conv1_1
I1007 03:19:21.968153 18857 net.cpp:157] Top shape: 4 64 448 448 (51380224)
I1007 03:19:21.968158 18857 net.cpp:165] Memory required for data: 217539616
I1007 03:19:21.968176 18857 layer_factory.hpp:76] Creating layer relu1_1
I1007 03:19:21.968186 18857 net.cpp:106] Creating Layer relu1_1
I1007 03:19:21.968191 18857 net.cpp:454] relu1_1 <- conv1_1
I1007 03:19:21.968197 18857 net.cpp:397] relu1_1 -> conv1_1 (in-place)
I1007 03:19:21.968405 18857 net.cpp:150] Setting up relu1_1
I1007 03:19:21.968415 18857 net.cpp:157] Top shape: 4 64 448 448 (51380224)
I1007 03:19:21.968418 18857 net.cpp:165] Memory required for data: 423060512
I1007 03:19:21.968422 18857 layer_factory.hpp:76] Creating layer conv1_2
I1007 03:19:21.968430 18857 net.cpp:106] Creating Layer conv1_2
I1007 03:19:21.968435 18857 net.cpp:454] conv1_2 <- conv1_1
I1007 03:19:21.968439 18857 net.cpp:411] conv1_2 -> conv1_2
I1007 03:19:21.970250 18857 net.cpp:150] Setting up conv1_2
I1007 03:19:21.970266 18857 net.cpp:157] Top shape: 4 64 448 448 (51380224)
I1007 03:19:21.970271 18857 net.cpp:165] Memory required for data: 628581408
I1007 03:19:21.970280 18857 layer_factory.hpp:76] Creating layer relu1_2
I1007 03:19:21.970298 18857 net.cpp:106] Creating Layer relu1_2
I1007 03:19:21.970301 18857 net.cpp:454] relu1_2 <- conv1_2
I1007 03:19:21.970305 18857 net.cpp:397] relu1_2 -> conv1_2 (in-place)
I1007 03:19:21.970664 18857 net.cpp:150] Setting up relu1_2
I1007 03:19:21.970675 18857 net.cpp:157] Top shape: 4 64 448 448 (51380224)
I1007 03:19:21.970679 18857 net.cpp:165] Memory required for data: 834102304
I1007 03:19:21.970682 18857 layer_factory.hpp:76] Creating layer pool1
I1007 03:19:21.970690 18857 net.cpp:106] Creating Layer pool1
I1007 03:19:21.970693 18857 net.cpp:454] pool1 <- conv1_2
I1007 03:19:21.970700 18857 net.cpp:411] pool1 -> pool1
I1007 03:19:21.970916 18857 net.cpp:150] Setting up pool1
I1007 03:19:21.970927 18857 net.cpp:157] Top shape: 4 64 224 224 (12845056)
I1007 03:19:21.970929 18857 net.cpp:165] Memory required for data: 885482528
I1007 03:19:21.970932 18857 layer_factory.hpp:76] Creating layer conv2_1
I1007 03:19:21.970939 18857 net.cpp:106] Creating Layer conv2_1
I1007 03:19:21.970944 18857 net.cpp:454] conv2_1 <- pool1
I1007 03:19:21.970952 18857 net.cpp:411] conv2_1 -> conv2_1
I1007 03:19:21.972614 18857 net.cpp:150] Setting up conv2_1
I1007 03:19:21.972626 18857 net.cpp:157] Top shape: 4 128 224 224 (25690112)
I1007 03:19:21.972630 18857 net.cpp:165] Memory required for data: 988242976
I1007 03:19:21.972638 18857 layer_factory.hpp:76] Creating layer relu2_1
I1007 03:19:21.972645 18857 net.cpp:106] Creating Layer relu2_1
I1007 03:19:21.972647 18857 net.cpp:454] relu2_1 <- conv2_1
I1007 03:19:21.972651 18857 net.cpp:397] relu2_1 -> conv2_1 (in-place)
I1007 03:19:21.973004 18857 net.cpp:150] Setting up relu2_1
I1007 03:19:21.973016 18857 net.cpp:157] Top shape: 4 128 224 224 (25690112)
I1007 03:19:21.973021 18857 net.cpp:165] Memory required for data: 1091003424
I1007 03:19:21.973023 18857 layer_factory.hpp:76] Creating layer conv2_2
I1007 03:19:21.973031 18857 net.cpp:106] Creating Layer conv2_2
I1007 03:19:21.973034 18857 net.cpp:454] conv2_2 <- conv2_1
I1007 03:19:21.973039 18857 net.cpp:411] conv2_2 -> conv2_2
I1007 03:19:21.974057 18857 net.cpp:150] Setting up conv2_2
I1007 03:19:21.974071 18857 net.cpp:157] Top shape: 4 128 224 224 (25690112)
I1007 03:19:21.974073 18857 net.cpp:165] Memory required for data: 1193763872
I1007 03:19:21.974079 18857 layer_factory.hpp:76] Creating layer relu2_2
I1007 03:19:21.974086 18857 net.cpp:106] Creating Layer relu2_2
I1007 03:19:21.974102 18857 net.cpp:454] relu2_2 <- conv2_2
I1007 03:19:21.974105 18857 net.cpp:397] relu2_2 -> conv2_2 (in-place)
I1007 03:19:21.974439 18857 net.cpp:150] Setting up relu2_2
I1007 03:19:21.974452 18857 net.cpp:157] Top shape: 4 128 224 224 (25690112)
I1007 03:19:21.974454 18857 net.cpp:165] Memory required for data: 1296524320
I1007 03:19:21.974458 18857 layer_factory.hpp:76] Creating layer pool2
I1007 03:19:21.974464 18857 net.cpp:106] Creating Layer pool2
I1007 03:19:21.974467 18857 net.cpp:454] pool2 <- conv2_2
I1007 03:19:21.974473 18857 net.cpp:411] pool2 -> pool2
I1007 03:19:21.974658 18857 net.cpp:150] Setting up pool2
I1007 03:19:21.974668 18857 net.cpp:157] Top shape: 4 128 112 112 (6422528)
I1007 03:19:21.974670 18857 net.cpp:165] Memory required for data: 1322214432
I1007 03:19:21.974673 18857 layer_factory.hpp:76] Creating layer conv3_1
I1007 03:19:21.974679 18857 net.cpp:106] Creating Layer conv3_1
I1007 03:19:21.974684 18857 net.cpp:454] conv3_1 <- pool2
I1007 03:19:21.974689 18857 net.cpp:411] conv3_1 -> conv3_1
I1007 03:19:21.976402 18857 net.cpp:150] Setting up conv3_1
I1007 03:19:21.976414 18857 net.cpp:157] Top shape: 4 256 112 112 (12845056)
I1007 03:19:21.976418 18857 net.cpp:165] Memory required for data: 1373594656
I1007 03:19:21.976428 18857 layer_factory.hpp:76] Creating layer relu3_1
I1007 03:19:21.976443 18857 net.cpp:106] Creating Layer relu3_1
I1007 03:19:21.976446 18857 net.cpp:454] relu3_1 <- conv3_1
I1007 03:19:21.976451 18857 net.cpp:397] relu3_1 -> conv3_1 (in-place)
I1007 03:19:21.976799 18857 net.cpp:150] Setting up relu3_1
I1007 03:19:21.976810 18857 net.cpp:157] Top shape: 4 256 112 112 (12845056)
I1007 03:19:21.976814 18857 net.cpp:165] Memory required for data: 1424974880
I1007 03:19:21.976817 18857 layer_factory.hpp:76] Creating layer conv3_2
I1007 03:19:21.976824 18857 net.cpp:106] Creating Layer conv3_2
I1007 03:19:21.976827 18857 net.cpp:454] conv3_2 <- conv3_1
I1007 03:19:21.976832 18857 net.cpp:411] conv3_2 -> conv3_2
I1007 03:19:21.979204 18857 net.cpp:150] Setting up conv3_2
I1007 03:19:21.979219 18857 net.cpp:157] Top shape: 4 256 112 112 (12845056)
I1007 03:19:21.979223 18857 net.cpp:165] Memory required for data: 1476355104
I1007 03:19:21.979229 18857 layer_factory.hpp:76] Creating layer relu3_2
I1007 03:19:21.979235 18857 net.cpp:106] Creating Layer relu3_2
I1007 03:19:21.979238 18857 net.cpp:454] relu3_2 <- conv3_2
I1007 03:19:21.979243 18857 net.cpp:397] relu3_2 -> conv3_2 (in-place)
I1007 03:19:21.979630 18857 net.cpp:150] Setting up relu3_2
I1007 03:19:21.979642 18857 net.cpp:157] Top shape: 4 256 112 112 (12845056)
I1007 03:19:21.979645 18857 net.cpp:165] Memory required for data: 1527735328
I1007 03:19:21.979650 18857 layer_factory.hpp:76] Creating layer conv3_3
I1007 03:19:21.979655 18857 net.cpp:106] Creating Layer conv3_3
I1007 03:19:21.979660 18857 net.cpp:454] conv3_3 <- conv3_2
I1007 03:19:21.979674 18857 net.cpp:411] conv3_3 -> conv3_3
I1007 03:19:21.981984 18857 net.cpp:150] Setting up conv3_3
I1007 03:19:21.981997 18857 net.cpp:157] Top shape: 4 256 112 112 (12845056)
I1007 03:19:21.982000 18857 net.cpp:165] Memory required for data: 1579115552
I1007 03:19:21.982005 18857 layer_factory.hpp:76] Creating layer relu3_3
I1007 03:19:21.982022 18857 net.cpp:106] Creating Layer relu3_3
I1007 03:19:21.982024 18857 net.cpp:454] relu3_3 <- conv3_3
I1007 03:19:21.982028 18857 net.cpp:397] relu3_3 -> conv3_3 (in-place)
I1007 03:19:21.982215 18857 net.cpp:150] Setting up relu3_3
I1007 03:19:21.982224 18857 net.cpp:157] Top shape: 4 256 112 112 (12845056)
I1007 03:19:21.982228 18857 net.cpp:165] Memory required for data: 1630495776
I1007 03:19:21.982230 18857 layer_factory.hpp:76] Creating layer pool3
I1007 03:19:21.982236 18857 net.cpp:106] Creating Layer pool3
I1007 03:19:21.982239 18857 net.cpp:454] pool3 <- conv3_3
I1007 03:19:21.982244 18857 net.cpp:411] pool3 -> pool3
I1007 03:19:21.982601 18857 net.cpp:150] Setting up pool3
I1007 03:19:21.982614 18857 net.cpp:157] Top shape: 4 256 56 56 (3211264)
I1007 03:19:21.982616 18857 net.cpp:165] Memory required for data: 1643340832
I1007 03:19:21.982620 18857 layer_factory.hpp:76] Creating layer conv4_1
I1007 03:19:21.982627 18857 net.cpp:106] Creating Layer conv4_1
I1007 03:19:21.982630 18857 net.cpp:454] conv4_1 <- pool3
I1007 03:19:21.982636 18857 net.cpp:411] conv4_1 -> conv4_1
I1007 03:19:21.986754 18857 net.cpp:150] Setting up conv4_1
I1007 03:19:21.986769 18857 net.cpp:157] Top shape: 4 512 56 56 (6422528)
I1007 03:19:21.986773 18857 net.cpp:165] Memory required for data: 1669030944
I1007 03:19:21.986778 18857 layer_factory.hpp:76] Creating layer relu4_1
I1007 03:19:21.986785 18857 net.cpp:106] Creating Layer relu4_1
I1007 03:19:21.986788 18857 net.cpp:454] relu4_1 <- conv4_1
I1007 03:19:21.986793 18857 net.cpp:397] relu4_1 -> conv4_1 (in-place)
I1007 03:19:21.986990 18857 net.cpp:150] Setting up relu4_1
I1007 03:19:21.987001 18857 net.cpp:157] Top shape: 4 512 56 56 (6422528)
I1007 03:19:21.987004 18857 net.cpp:165] Memory required for data: 1694721056
I1007 03:19:21.987006 18857 layer_factory.hpp:76] Creating layer conv4_2
I1007 03:19:21.987015 18857 net.cpp:106] Creating Layer conv4_2
I1007 03:19:21.987018 18857 net.cpp:454] conv4_2 <- conv4_1
I1007 03:19:21.987023 18857 net.cpp:411] conv4_2 -> conv4_2
I1007 03:19:21.992935 18857 net.cpp:150] Setting up conv4_2
I1007 03:19:21.992952 18857 net.cpp:157] Top shape: 4 512 56 56 (6422528)
I1007 03:19:21.992955 18857 net.cpp:165] Memory required for data: 1720411168
I1007 03:19:21.992980 18857 layer_factory.hpp:76] Creating layer relu4_2
I1007 03:19:21.992986 18857 net.cpp:106] Creating Layer relu4_2
I1007 03:19:21.992990 18857 net.cpp:454] relu4_2 <- conv4_2
I1007 03:19:21.992995 18857 net.cpp:397] relu4_2 -> conv4_2 (in-place)
I1007 03:19:21.993376 18857 net.cpp:150] Setting up relu4_2
I1007 03:19:21.993392 18857 net.cpp:157] Top shape: 4 512 56 56 (6422528)
I1007 03:19:21.993396 18857 net.cpp:165] Memory required for data: 1746101280
I1007 03:19:21.993399 18857 layer_factory.hpp:76] Creating layer conv4_3
I1007 03:19:21.993407 18857 net.cpp:106] Creating Layer conv4_3
I1007 03:19:21.993410 18857 net.cpp:454] conv4_3 <- conv4_2
I1007 03:19:21.993417 18857 net.cpp:411] conv4_3 -> conv4_3
I1007 03:19:21.999341 18857 net.cpp:150] Setting up conv4_3
I1007 03:19:21.999356 18857 net.cpp:157] Top shape: 4 512 56 56 (6422528)
I1007 03:19:21.999359 18857 net.cpp:165] Memory required for data: 1771791392
I1007 03:19:21.999366 18857 layer_factory.hpp:76] Creating layer relu4_3
I1007 03:19:21.999382 18857 net.cpp:106] Creating Layer relu4_3
I1007 03:19:21.999387 18857 net.cpp:454] relu4_3 <- conv4_3
I1007 03:19:21.999392 18857 net.cpp:397] relu4_3 -> conv4_3 (in-place)
I1007 03:19:21.999755 18857 net.cpp:150] Setting up relu4_3
I1007 03:19:21.999778 18857 net.cpp:157] Top shape: 4 512 56 56 (6422528)
I1007 03:19:21.999780 18857 net.cpp:165] Memory required for data: 1797481504
I1007 03:19:21.999783 18857 layer_factory.hpp:76] Creating layer conv4_3_relu4_3_0_split
I1007 03:19:21.999789 18857 net.cpp:106] Creating Layer conv4_3_relu4_3_0_split
I1007 03:19:21.999794 18857 net.cpp:454] conv4_3_relu4_3_0_split <- conv4_3
I1007 03:19:21.999814 18857 net.cpp:411] conv4_3_relu4_3_0_split -> conv4_3_relu4_3_0_split_0
I1007 03:19:21.999819 18857 net.cpp:411] conv4_3_relu4_3_0_split -> conv4_3_relu4_3_0_split_1
I1007 03:19:21.999862 18857 net.cpp:150] Setting up conv4_3_relu4_3_0_split
I1007 03:19:21.999869 18857 net.cpp:157] Top shape: 4 512 56 56 (6422528)
I1007 03:19:21.999873 18857 net.cpp:157] Top shape: 4 512 56 56 (6422528)
I1007 03:19:21.999876 18857 net.cpp:165] Memory required for data: 1848861728
I1007 03:19:21.999878 18857 layer_factory.hpp:76] Creating layer loss1_conv1
I1007 03:19:21.999893 18857 net.cpp:106] Creating Layer loss1_conv1
I1007 03:19:21.999897 18857 net.cpp:454] loss1_conv1 <- conv4_3_relu4_3_0_split_0
I1007 03:19:21.999904 18857 net.cpp:411] loss1_conv1 -> loss1_conv1
I1007 03:19:22.074089 18857 net.cpp:150] Setting up loss1_conv1
I1007 03:19:22.074127 18857 net.cpp:157] Top shape: 4 512 56 56 (6422528)
I1007 03:19:22.074131 18857 net.cpp:165] Memory required for data: 1874551840
I1007 03:19:22.074138 18857 layer_factory.hpp:76] Creating layer loss_relu1
I1007 03:19:22.074149 18857 net.cpp:106] Creating Layer loss_relu1
I1007 03:19:22.074154 18857 net.cpp:454] loss_relu1 <- loss1_conv1
I1007 03:19:22.074159 18857 net.cpp:397] loss_relu1 -> loss1_conv1 (in-place)
I1007 03:19:22.074370 18857 net.cpp:150] Setting up loss_relu1
I1007 03:19:22.074381 18857 net.cpp:157] Top shape: 4 512 56 56 (6422528)
I1007 03:19:22.074384 18857 net.cpp:165] Memory required for data: 1900241952
I1007 03:19:22.074388 18857 layer_factory.hpp:76] Creating layer loss1_conv1_loss_relu1_0_split
I1007 03:19:22.074393 18857 net.cpp:106] Creating Layer loss1_conv1_loss_relu1_0_split
I1007 03:19:22.074396 18857 net.cpp:454] loss1_conv1_loss_relu1_0_split <- loss1_conv1
I1007 03:19:22.074404 18857 net.cpp:411] loss1_conv1_loss_relu1_0_split -> loss1_conv1_loss_relu1_0_split_0
I1007 03:19:22.074415 18857 net.cpp:411] loss1_conv1_loss_relu1_0_split -> loss1_conv1_loss_relu1_0_split_1
I1007 03:19:22.074461 18857 net.cpp:150] Setting up loss1_conv1_loss_relu1_0_split
I1007 03:19:22.074470 18857 net.cpp:157] Top shape: 4 512 56 56 (6422528)
I1007 03:19:22.074472 18857 net.cpp:157] Top shape: 4 512 56 56 (6422528)
I1007 03:19:22.074476 18857 net.cpp:165] Memory required for data: 1951622176
I1007 03:19:22.074478 18857 layer_factory.hpp:76] Creating layer LFCN_1_3x5
I1007 03:19:22.074494 18857 net.cpp:106] Creating Layer LFCN_1_3x5
I1007 03:19:22.074498 18857 net.cpp:454] LFCN_1_3x5 <- loss1_conv1_loss_relu1_0_split_0
I1007 03:19:22.074503 18857 net.cpp:411] LFCN_1_3x5 -> LFCN_1_3x5
I1007 03:19:22.077800 18857 net.cpp:150] Setting up LFCN_1_3x5
I1007 03:19:22.077826 18857 net.cpp:157] Top shape: 4 6 56 56 (75264)
I1007 03:19:22.077831 18857 net.cpp:165] Memory required for data: 1951923232
I1007 03:19:22.077838 18857 layer_factory.hpp:76] Creating layer LFCN_1_3x5_LFCN_1_3x5_0_split
I1007 03:19:22.077844 18857 net.cpp:106] Creating Layer LFCN_1_3x5_LFCN_1_3x5_0_split
I1007 03:19:22.077848 18857 net.cpp:454] LFCN_1_3x5_LFCN_1_3x5_0_split <- LFCN_1_3x5
I1007 03:19:22.077853 18857 net.cpp:411] LFCN_1_3x5_LFCN_1_3x5_0_split -> LFCN_1_3x5_LFCN_1_3x5_0_split_0
I1007 03:19:22.077862 18857 net.cpp:411] LFCN_1_3x5_LFCN_1_3x5_0_split -> LFCN_1_3x5_LFCN_1_3x5_0_split_1
I1007 03:19:22.077903 18857 net.cpp:150] Setting up LFCN_1_3x5_LFCN_1_3x5_0_split
I1007 03:19:22.077913 18857 net.cpp:157] Top shape: 4 6 56 56 (75264)
I1007 03:19:22.077916 18857 net.cpp:157] Top shape: 4 6 56 56 (75264)
I1007 03:19:22.077919 18857 net.cpp:165] Memory required for data: 1952525344
I1007 03:19:22.077922 18857 layer_factory.hpp:76] Creating layer detection_loss_1_3x5
I1007 03:19:22.077929 18857 net.cpp:106] Creating Layer detection_loss_1_3x5
I1007 03:19:22.077934 18857 net.cpp:454] detection_loss_1_3x5 <- LFCN_1_3x5_LFCN_1_3x5_0_split_0
I1007 03:19:22.077937 18857 net.cpp:454] detection_loss_1_3x5 <- label_1_3x5_data_1_split_0
I1007 03:19:22.077944 18857 net.cpp:411] detection_loss_1_3x5 -> loss_1_3x5
I1007 03:19:22.077956 18857 layer_factory.hpp:76] Creating layer detection_loss_1_3x5
I1007 03:19:22.078721 18857 net.cpp:150] Setting up detection_loss_1_3x5
I1007 03:19:22.078732 18857 net.cpp:157] Top shape: 1 1 1 2 (2)
I1007 03:19:22.078747 18857 net.cpp:160]     with loss weight 0.9
I1007 03:19:22.078766 18857 net.cpp:165] Memory required for data: 1952525352
I1007 03:19:22.078769 18857 layer_factory.hpp:76] Creating layer detection_accuracy_1_3x5
I1007 03:19:22.078776 18857 net.cpp:106] Creating Layer detection_accuracy_1_3x5
I1007 03:19:22.078791 18857 net.cpp:454] detection_accuracy_1_3x5 <- LFCN_1_3x5_LFCN_1_3x5_0_split_1
I1007 03:19:22.078796 18857 net.cpp:454] detection_accuracy_1_3x5 <- label_1_3x5_data_1_split_1
I1007 03:19:22.078804 18857 net.cpp:411] detection_accuracy_1_3x5 -> accuracy_1_3x5
I1007 03:19:22.078815 18857 net.cpp:411] detection_accuracy_1_3x5 -> boxiou_1_3x5
I1007 03:19:22.078858 18857 net.cpp:150] Setting up detection_accuracy_1_3x5
I1007 03:19:22.078867 18857 net.cpp:157] Top shape: 1 1 1 2 (2)
I1007 03:19:22.078871 18857 net.cpp:157] Top shape: 1 1 1 1 (1)
I1007 03:19:22.078873 18857 net.cpp:165] Memory required for data: 1952525364
I1007 03:19:22.078876 18857 layer_factory.hpp:76] Creating layer LFCN_1_5x7
I1007 03:19:22.078888 18857 net.cpp:106] Creating Layer LFCN_1_5x7
I1007 03:19:22.078892 18857 net.cpp:454] LFCN_1_5x7 <- loss1_conv1_loss_relu1_0_split_1
I1007 03:19:22.078902 18857 net.cpp:411] LFCN_1_5x7 -> LFCN_1_5x7
I1007 03:19:22.083859 18857 net.cpp:150] Setting up LFCN_1_5x7
I1007 03:19:22.083884 18857 net.cpp:157] Top shape: 4 6 56 56 (75264)
I1007 03:19:22.083887 18857 net.cpp:165] Memory required for data: 1952826420
I1007 03:19:22.083892 18857 layer_factory.hpp:76] Creating layer LFCN_1_5x7_LFCN_1_5x7_0_split
I1007 03:19:22.083900 18857 net.cpp:106] Creating Layer LFCN_1_5x7_LFCN_1_5x7_0_split
I1007 03:19:22.083904 18857 net.cpp:454] LFCN_1_5x7_LFCN_1_5x7_0_split <- LFCN_1_5x7
I1007 03:19:22.083910 18857 net.cpp:411] LFCN_1_5x7_LFCN_1_5x7_0_split -> LFCN_1_5x7_LFCN_1_5x7_0_split_0
I1007 03:19:22.083917 18857 net.cpp:411] LFCN_1_5x7_LFCN_1_5x7_0_split -> LFCN_1_5x7_LFCN_1_5x7_0_split_1
I1007 03:19:22.083967 18857 net.cpp:150] Setting up LFCN_1_5x7_LFCN_1_5x7_0_split
I1007 03:19:22.083972 18857 net.cpp:157] Top shape: 4 6 56 56 (75264)
I1007 03:19:22.083977 18857 net.cpp:157] Top shape: 4 6 56 56 (75264)
I1007 03:19:22.083979 18857 net.cpp:165] Memory required for data: 1953428532
I1007 03:19:22.083982 18857 layer_factory.hpp:76] Creating layer detection_loss_1_5x7
I1007 03:19:22.083987 18857 net.cpp:106] Creating Layer detection_loss_1_5x7
I1007 03:19:22.083991 18857 net.cpp:454] detection_loss_1_5x7 <- LFCN_1_5x7_LFCN_1_5x7_0_split_0
I1007 03:19:22.083995 18857 net.cpp:454] detection_loss_1_5x7 <- label_1_5x7_data_2_split_0
I1007 03:19:22.084002 18857 net.cpp:411] detection_loss_1_5x7 -> loss_1_5x7
I1007 03:19:22.084008 18857 layer_factory.hpp:76] Creating layer detection_loss_1_5x7
I1007 03:19:22.084548 18857 net.cpp:150] Setting up detection_loss_1_5x7
I1007 03:19:22.084560 18857 net.cpp:157] Top shape: 1 1 1 2 (2)
I1007 03:19:22.084574 18857 net.cpp:160]     with loss weight 0.9
I1007 03:19:22.084580 18857 net.cpp:165] Memory required for data: 1953428540
I1007 03:19:22.084583 18857 layer_factory.hpp:76] Creating layer detection_accuracy_1_5x7
I1007 03:19:22.084590 18857 net.cpp:106] Creating Layer detection_accuracy_1_5x7
I1007 03:19:22.084595 18857 net.cpp:454] detection_accuracy_1_5x7 <- LFCN_1_5x7_LFCN_1_5x7_0_split_1
I1007 03:19:22.084600 18857 net.cpp:454] detection_accuracy_1_5x7 <- label_1_5x7_data_2_split_1
I1007 03:19:22.084605 18857 net.cpp:411] detection_accuracy_1_5x7 -> accuracy_1_5x7
I1007 03:19:22.084611 18857 net.cpp:411] detection_accuracy_1_5x7 -> boxiou_1_5x7
I1007 03:19:22.084651 18857 net.cpp:150] Setting up detection_accuracy_1_5x7
I1007 03:19:22.084656 18857 net.cpp:157] Top shape: 1 1 1 2 (2)
I1007 03:19:22.084659 18857 net.cpp:157] Top shape: 1 1 1 1 (1)
I1007 03:19:22.084662 18857 net.cpp:165] Memory required for data: 1953428552
I1007 03:19:22.084666 18857 layer_factory.hpp:76] Creating layer pool4
I1007 03:19:22.084671 18857 net.cpp:106] Creating Layer pool4
I1007 03:19:22.084673 18857 net.cpp:454] pool4 <- conv4_3_relu4_3_0_split_1
I1007 03:19:22.084679 18857 net.cpp:411] pool4 -> pool4
I1007 03:19:22.085058 18857 net.cpp:150] Setting up pool4
I1007 03:19:22.085080 18857 net.cpp:157] Top shape: 4 512 28 28 (1605632)
I1007 03:19:22.085083 18857 net.cpp:165] Memory required for data: 1959851080
I1007 03:19:22.085086 18857 layer_factory.hpp:76] Creating layer conv5_1
I1007 03:19:22.085106 18857 net.cpp:106] Creating Layer conv5_1
I1007 03:19:22.085109 18857 net.cpp:454] conv5_1 <- pool4
I1007 03:19:22.085114 18857 net.cpp:411] conv5_1 -> conv5_1
I1007 03:19:22.090965 18857 net.cpp:150] Setting up conv5_1
I1007 03:19:22.090979 18857 net.cpp:157] Top shape: 4 512 28 28 (1605632)
I1007 03:19:22.090993 18857 net.cpp:165] Memory required for data: 1966273608
I1007 03:19:22.091001 18857 layer_factory.hpp:76] Creating layer relu5_1
I1007 03:19:22.091006 18857 net.cpp:106] Creating Layer relu5_1
I1007 03:19:22.091011 18857 net.cpp:454] relu5_1 <- conv5_1
I1007 03:19:22.091017 18857 net.cpp:397] relu5_1 -> conv5_1 (in-place)
I1007 03:19:22.091363 18857 net.cpp:150] Setting up relu5_1
I1007 03:19:22.091375 18857 net.cpp:157] Top shape: 4 512 28 28 (1605632)
I1007 03:19:22.091378 18857 net.cpp:165] Memory required for data: 1972696136
I1007 03:19:22.091382 18857 layer_factory.hpp:76] Creating layer conv5_2
I1007 03:19:22.091389 18857 net.cpp:106] Creating Layer conv5_2
I1007 03:19:22.091393 18857 net.cpp:454] conv5_2 <- conv5_1
I1007 03:19:22.091400 18857 net.cpp:411] conv5_2 -> conv5_2
I1007 03:19:22.097410 18857 net.cpp:150] Setting up conv5_2
I1007 03:19:22.097439 18857 net.cpp:157] Top shape: 4 512 28 28 (1605632)
I1007 03:19:22.097441 18857 net.cpp:165] Memory required for data: 1979118664
I1007 03:19:22.097448 18857 layer_factory.hpp:76] Creating layer relu5_2
I1007 03:19:22.097457 18857 net.cpp:106] Creating Layer relu5_2
I1007 03:19:22.097461 18857 net.cpp:454] relu5_2 <- conv5_2
I1007 03:19:22.097466 18857 net.cpp:397] relu5_2 -> conv5_2 (in-place)
I1007 03:19:22.097666 18857 net.cpp:150] Setting up relu5_2
I1007 03:19:22.097676 18857 net.cpp:157] Top shape: 4 512 28 28 (1605632)
I1007 03:19:22.097678 18857 net.cpp:165] Memory required for data: 1985541192
I1007 03:19:22.097681 18857 layer_factory.hpp:76] Creating layer conv5_3
I1007 03:19:22.097692 18857 net.cpp:106] Creating Layer conv5_3
I1007 03:19:22.097694 18857 net.cpp:454] conv5_3 <- conv5_2
I1007 03:19:22.097699 18857 net.cpp:411] conv5_3 -> conv5_3
I1007 03:19:22.103970 18857 net.cpp:150] Setting up conv5_3
I1007 03:19:22.103999 18857 net.cpp:157] Top shape: 4 512 28 28 (1605632)
I1007 03:19:22.104003 18857 net.cpp:165] Memory required for data: 1991963720
I1007 03:19:22.104009 18857 layer_factory.hpp:76] Creating layer relu5_3
I1007 03:19:22.104017 18857 net.cpp:106] Creating Layer relu5_3
I1007 03:19:22.104022 18857 net.cpp:454] relu5_3 <- conv5_3
I1007 03:19:22.104027 18857 net.cpp:397] relu5_3 -> conv5_3 (in-place)
I1007 03:19:22.104387 18857 net.cpp:150] Setting up relu5_3
I1007 03:19:22.104400 18857 net.cpp:157] Top shape: 4 512 28 28 (1605632)
I1007 03:19:22.104403 18857 net.cpp:165] Memory required for data: 1998386248
I1007 03:19:22.104405 18857 layer_factory.hpp:76] Creating layer conv5_3_relu5_3_0_split
I1007 03:19:22.104413 18857 net.cpp:106] Creating Layer conv5_3_relu5_3_0_split
I1007 03:19:22.104415 18857 net.cpp:454] conv5_3_relu5_3_0_split <- conv5_3
I1007 03:19:22.104425 18857 net.cpp:411] conv5_3_relu5_3_0_split -> conv5_3_relu5_3_0_split_0
I1007 03:19:22.104431 18857 net.cpp:411] conv5_3_relu5_3_0_split -> conv5_3_relu5_3_0_split_1
I1007 03:19:22.104436 18857 net.cpp:411] conv5_3_relu5_3_0_split -> conv5_3_relu5_3_0_split_2
I1007 03:19:22.104499 18857 net.cpp:150] Setting up conv5_3_relu5_3_0_split
I1007 03:19:22.104506 18857 net.cpp:157] Top shape: 4 512 28 28 (1605632)
I1007 03:19:22.104508 18857 net.cpp:157] Top shape: 4 512 28 28 (1605632)
I1007 03:19:22.104511 18857 net.cpp:157] Top shape: 4 512 28 28 (1605632)
I1007 03:19:22.104513 18857 net.cpp:165] Memory required for data: 2017653832
I1007 03:19:22.104516 18857 layer_factory.hpp:76] Creating layer LFCN_2_3x5
I1007 03:19:22.104526 18857 net.cpp:106] Creating Layer LFCN_2_3x5
I1007 03:19:22.104528 18857 net.cpp:454] LFCN_2_3x5 <- conv5_3_relu5_3_0_split_0
I1007 03:19:22.104534 18857 net.cpp:411] LFCN_2_3x5 -> LFCN_2_3x5
I1007 03:19:22.106901 18857 net.cpp:150] Setting up LFCN_2_3x5
I1007 03:19:22.106926 18857 net.cpp:157] Top shape: 4 6 28 28 (18816)
I1007 03:19:22.106930 18857 net.cpp:165] Memory required for data: 2017729096
I1007 03:19:22.106943 18857 layer_factory.hpp:76] Creating layer LFCN_2_3x5_LFCN_2_3x5_0_split
I1007 03:19:22.106950 18857 net.cpp:106] Creating Layer LFCN_2_3x5_LFCN_2_3x5_0_split
I1007 03:19:22.106955 18857 net.cpp:454] LFCN_2_3x5_LFCN_2_3x5_0_split <- LFCN_2_3x5
I1007 03:19:22.106959 18857 net.cpp:411] LFCN_2_3x5_LFCN_2_3x5_0_split -> LFCN_2_3x5_LFCN_2_3x5_0_split_0
I1007 03:19:22.106966 18857 net.cpp:411] LFCN_2_3x5_LFCN_2_3x5_0_split -> LFCN_2_3x5_LFCN_2_3x5_0_split_1
I1007 03:19:22.107010 18857 net.cpp:150] Setting up LFCN_2_3x5_LFCN_2_3x5_0_split
I1007 03:19:22.107015 18857 net.cpp:157] Top shape: 4 6 28 28 (18816)
I1007 03:19:22.107018 18857 net.cpp:157] Top shape: 4 6 28 28 (18816)
I1007 03:19:22.107020 18857 net.cpp:165] Memory required for data: 2017879624
I1007 03:19:22.107023 18857 layer_factory.hpp:76] Creating layer detection_loss_2_3x5
I1007 03:19:22.107030 18857 net.cpp:106] Creating Layer detection_loss_2_3x5
I1007 03:19:22.107033 18857 net.cpp:454] detection_loss_2_3x5 <- LFCN_2_3x5_LFCN_2_3x5_0_split_0
I1007 03:19:22.107038 18857 net.cpp:454] detection_loss_2_3x5 <- label_2_3x5_data_3_split_0
I1007 03:19:22.107043 18857 net.cpp:411] detection_loss_2_3x5 -> loss_2_3x5
I1007 03:19:22.107051 18857 layer_factory.hpp:76] Creating layer detection_loss_2_3x5
I1007 03:19:22.107595 18857 net.cpp:150] Setting up detection_loss_2_3x5
I1007 03:19:22.107607 18857 net.cpp:157] Top shape: 1 1 1 2 (2)
I1007 03:19:22.107621 18857 net.cpp:160]     with loss weight 1
I1007 03:19:22.107633 18857 net.cpp:165] Memory required for data: 2017879632
I1007 03:19:22.107637 18857 layer_factory.hpp:76] Creating layer detection_accuracy_2_3x5
I1007 03:19:22.107646 18857 net.cpp:106] Creating Layer detection_accuracy_2_3x5
I1007 03:19:22.107650 18857 net.cpp:454] detection_accuracy_2_3x5 <- LFCN_2_3x5_LFCN_2_3x5_0_split_1
I1007 03:19:22.107655 18857 net.cpp:454] detection_accuracy_2_3x5 <- label_2_3x5_data_3_split_1
I1007 03:19:22.107661 18857 net.cpp:411] detection_accuracy_2_3x5 -> accuracy_2_3x5
I1007 03:19:22.107667 18857 net.cpp:411] detection_accuracy_2_3x5 -> boxiou_2_3x5
I1007 03:19:22.107717 18857 net.cpp:150] Setting up detection_accuracy_2_3x5
I1007 03:19:22.107723 18857 net.cpp:157] Top shape: 1 1 1 2 (2)
I1007 03:19:22.107727 18857 net.cpp:157] Top shape: 1 1 1 1 (1)
I1007 03:19:22.107729 18857 net.cpp:165] Memory required for data: 2017879644
I1007 03:19:22.107733 18857 layer_factory.hpp:76] Creating layer LFCN_2_5x7
I1007 03:19:22.107740 18857 net.cpp:106] Creating Layer LFCN_2_5x7
I1007 03:19:22.107743 18857 net.cpp:454] LFCN_2_5x7 <- conv5_3_relu5_3_0_split_1
I1007 03:19:22.107749 18857 net.cpp:411] LFCN_2_5x7 -> LFCN_2_5x7
I1007 03:19:22.112519 18857 net.cpp:150] Setting up LFCN_2_5x7
I1007 03:19:22.112532 18857 net.cpp:157] Top shape: 4 6 28 28 (18816)
I1007 03:19:22.112547 18857 net.cpp:165] Memory required for data: 2017954908
I1007 03:19:22.112553 18857 layer_factory.hpp:76] Creating layer LFCN_2_5x7_LFCN_2_5x7_0_split
I1007 03:19:22.112560 18857 net.cpp:106] Creating Layer LFCN_2_5x7_LFCN_2_5x7_0_split
I1007 03:19:22.112565 18857 net.cpp:454] LFCN_2_5x7_LFCN_2_5x7_0_split <- LFCN_2_5x7
I1007 03:19:22.112572 18857 net.cpp:411] LFCN_2_5x7_LFCN_2_5x7_0_split -> LFCN_2_5x7_LFCN_2_5x7_0_split_0
I1007 03:19:22.112579 18857 net.cpp:411] LFCN_2_5x7_LFCN_2_5x7_0_split -> LFCN_2_5x7_LFCN_2_5x7_0_split_1
I1007 03:19:22.112624 18857 net.cpp:150] Setting up LFCN_2_5x7_LFCN_2_5x7_0_split
I1007 03:19:22.112628 18857 net.cpp:157] Top shape: 4 6 28 28 (18816)
I1007 03:19:22.112632 18857 net.cpp:157] Top shape: 4 6 28 28 (18816)
I1007 03:19:22.112634 18857 net.cpp:165] Memory required for data: 2018105436
I1007 03:19:22.112637 18857 layer_factory.hpp:76] Creating layer detection_loss_2_5x7
I1007 03:19:22.112645 18857 net.cpp:106] Creating Layer detection_loss_2_5x7
I1007 03:19:22.112650 18857 net.cpp:454] detection_loss_2_5x7 <- LFCN_2_5x7_LFCN_2_5x7_0_split_0
I1007 03:19:22.112655 18857 net.cpp:454] detection_loss_2_5x7 <- label_2_5x7_data_4_split_0
I1007 03:19:22.112660 18857 net.cpp:411] detection_loss_2_5x7 -> loss_2_5x7
I1007 03:19:22.112668 18857 layer_factory.hpp:76] Creating layer detection_loss_2_5x7
I1007 03:19:22.113029 18857 net.cpp:150] Setting up detection_loss_2_5x7
I1007 03:19:22.113039 18857 net.cpp:157] Top shape: 1 1 1 2 (2)
I1007 03:19:22.113042 18857 net.cpp:160]     with loss weight 1
I1007 03:19:22.113049 18857 net.cpp:165] Memory required for data: 2018105444
I1007 03:19:22.113051 18857 layer_factory.hpp:76] Creating layer detection_accuracy_2_5x7
I1007 03:19:22.113057 18857 net.cpp:106] Creating Layer detection_accuracy_2_5x7
I1007 03:19:22.113060 18857 net.cpp:454] detection_accuracy_2_5x7 <- LFCN_2_5x7_LFCN_2_5x7_0_split_1
I1007 03:19:22.113065 18857 net.cpp:454] detection_accuracy_2_5x7 <- label_2_5x7_data_4_split_1
I1007 03:19:22.113070 18857 net.cpp:411] detection_accuracy_2_5x7 -> accuracy_2_5x7
I1007 03:19:22.113077 18857 net.cpp:411] detection_accuracy_2_5x7 -> boxiou_2_5x7
I1007 03:19:22.113118 18857 net.cpp:150] Setting up detection_accuracy_2_5x7
I1007 03:19:22.113123 18857 net.cpp:157] Top shape: 1 1 1 2 (2)
I1007 03:19:22.113126 18857 net.cpp:157] Top shape: 1 1 1 1 (1)
I1007 03:19:22.113128 18857 net.cpp:165] Memory required for data: 2018105456
I1007 03:19:22.113131 18857 layer_factory.hpp:76] Creating layer pool5
I1007 03:19:22.113138 18857 net.cpp:106] Creating Layer pool5
I1007 03:19:22.113142 18857 net.cpp:454] pool5 <- conv5_3_relu5_3_0_split_2
I1007 03:19:22.113147 18857 net.cpp:411] pool5 -> pool5
I1007 03:19:22.113754 18857 net.cpp:150] Setting up pool5
I1007 03:19:22.113778 18857 net.cpp:157] Top shape: 4 512 14 14 (401408)
I1007 03:19:22.113781 18857 net.cpp:165] Memory required for data: 2019711088
I1007 03:19:22.113785 18857 layer_factory.hpp:76] Creating layer conv6_1
I1007 03:19:22.113792 18857 net.cpp:106] Creating Layer conv6_1
I1007 03:19:22.113796 18857 net.cpp:454] conv6_1 <- pool5
I1007 03:19:22.113804 18857 net.cpp:411] conv6_1 -> conv6_1
I1007 03:19:22.188740 18857 net.cpp:150] Setting up conv6_1
I1007 03:19:22.188777 18857 net.cpp:157] Top shape: 4 512 14 14 (401408)
I1007 03:19:22.188781 18857 net.cpp:165] Memory required for data: 2021316720
I1007 03:19:22.188788 18857 layer_factory.hpp:76] Creating layer relu6_1
I1007 03:19:22.188799 18857 net.cpp:106] Creating Layer relu6_1
I1007 03:19:22.188805 18857 net.cpp:454] relu6_1 <- conv6_1
I1007 03:19:22.188812 18857 net.cpp:397] relu6_1 -> conv6_1 (in-place)
I1007 03:19:22.189028 18857 net.cpp:150] Setting up relu6_1
I1007 03:19:22.189043 18857 net.cpp:157] Top shape: 4 512 14 14 (401408)
I1007 03:19:22.189046 18857 net.cpp:165] Memory required for data: 2022922352
I1007 03:19:22.189050 18857 layer_factory.hpp:76] Creating layer conv6_1_relu6_1_0_split
I1007 03:19:22.189059 18857 net.cpp:106] Creating Layer conv6_1_relu6_1_0_split
I1007 03:19:22.189062 18857 net.cpp:454] conv6_1_relu6_1_0_split <- conv6_1
I1007 03:19:22.189067 18857 net.cpp:411] conv6_1_relu6_1_0_split -> conv6_1_relu6_1_0_split_0
I1007 03:19:22.189075 18857 net.cpp:411] conv6_1_relu6_1_0_split -> conv6_1_relu6_1_0_split_1
I1007 03:19:22.189080 18857 net.cpp:411] conv6_1_relu6_1_0_split -> conv6_1_relu6_1_0_split_2
I1007 03:19:22.189152 18857 net.cpp:150] Setting up conv6_1_relu6_1_0_split
I1007 03:19:22.189172 18857 net.cpp:157] Top shape: 4 512 14 14 (401408)
I1007 03:19:22.189175 18857 net.cpp:157] Top shape: 4 512 14 14 (401408)
I1007 03:19:22.189180 18857 net.cpp:157] Top shape: 4 512 14 14 (401408)
I1007 03:19:22.189184 18857 net.cpp:165] Memory required for data: 2027739248
I1007 03:19:22.189188 18857 layer_factory.hpp:76] Creating layer LFCN_3_3x5
I1007 03:19:22.189200 18857 net.cpp:106] Creating Layer LFCN_3_3x5
I1007 03:19:22.189204 18857 net.cpp:454] LFCN_3_3x5 <- conv6_1_relu6_1_0_split_0
I1007 03:19:22.189211 18857 net.cpp:411] LFCN_3_3x5 -> LFCN_3_3x5
I1007 03:19:22.191823 18857 net.cpp:150] Setting up LFCN_3_3x5
I1007 03:19:22.191835 18857 net.cpp:157] Top shape: 4 6 14 14 (4704)
I1007 03:19:22.191849 18857 net.cpp:165] Memory required for data: 2027758064
I1007 03:19:22.191859 18857 layer_factory.hpp:76] Creating layer LFCN_3_3x5_LFCN_3_3x5_0_split
I1007 03:19:22.191874 18857 net.cpp:106] Creating Layer LFCN_3_3x5_LFCN_3_3x5_0_split
I1007 03:19:22.191877 18857 net.cpp:454] LFCN_3_3x5_LFCN_3_3x5_0_split <- LFCN_3_3x5
I1007 03:19:22.191882 18857 net.cpp:411] LFCN_3_3x5_LFCN_3_3x5_0_split -> LFCN_3_3x5_LFCN_3_3x5_0_split_0
I1007 03:19:22.191901 18857 net.cpp:411] LFCN_3_3x5_LFCN_3_3x5_0_split -> LFCN_3_3x5_LFCN_3_3x5_0_split_1
I1007 03:19:22.191962 18857 net.cpp:150] Setting up LFCN_3_3x5_LFCN_3_3x5_0_split
I1007 03:19:22.191968 18857 net.cpp:157] Top shape: 4 6 14 14 (4704)
I1007 03:19:22.191972 18857 net.cpp:157] Top shape: 4 6 14 14 (4704)
I1007 03:19:22.191974 18857 net.cpp:165] Memory required for data: 2027795696
I1007 03:19:22.191977 18857 layer_factory.hpp:76] Creating layer detection_loss_3_3x5
I1007 03:19:22.191985 18857 net.cpp:106] Creating Layer detection_loss_3_3x5
I1007 03:19:22.191988 18857 net.cpp:454] detection_loss_3_3x5 <- LFCN_3_3x5_LFCN_3_3x5_0_split_0
I1007 03:19:22.191993 18857 net.cpp:454] detection_loss_3_3x5 <- label_3_3x5_data_5_split_0
I1007 03:19:22.191999 18857 net.cpp:411] detection_loss_3_3x5 -> loss_3_3x5
I1007 03:19:22.192008 18857 layer_factory.hpp:76] Creating layer detection_loss_3_3x5
I1007 03:19:22.192399 18857 net.cpp:150] Setting up detection_loss_3_3x5
I1007 03:19:22.192436 18857 net.cpp:157] Top shape: 1 1 1 2 (2)
I1007 03:19:22.192440 18857 net.cpp:160]     with loss weight 1
I1007 03:19:22.192451 18857 net.cpp:165] Memory required for data: 2027795704
I1007 03:19:22.192466 18857 layer_factory.hpp:76] Creating layer detection_accuracy_3_3x5
I1007 03:19:22.192474 18857 net.cpp:106] Creating Layer detection_accuracy_3_3x5
I1007 03:19:22.192477 18857 net.cpp:454] detection_accuracy_3_3x5 <- LFCN_3_3x5_LFCN_3_3x5_0_split_1
I1007 03:19:22.192482 18857 net.cpp:454] detection_accuracy_3_3x5 <- label_3_3x5_data_5_split_1
I1007 03:19:22.192487 18857 net.cpp:411] detection_accuracy_3_3x5 -> accuracy_3_3x5
I1007 03:19:22.192493 18857 net.cpp:411] detection_accuracy_3_3x5 -> boxiou_3_3x5
I1007 03:19:22.192554 18857 net.cpp:150] Setting up detection_accuracy_3_3x5
I1007 03:19:22.192560 18857 net.cpp:157] Top shape: 1 1 1 2 (2)
I1007 03:19:22.192564 18857 net.cpp:157] Top shape: 1 1 1 1 (1)
I1007 03:19:22.192565 18857 net.cpp:165] Memory required for data: 2027795716
I1007 03:19:22.192569 18857 layer_factory.hpp:76] Creating layer LFCN_3_5x7
I1007 03:19:22.192576 18857 net.cpp:106] Creating Layer LFCN_3_5x7
I1007 03:19:22.192580 18857 net.cpp:454] LFCN_3_5x7 <- conv6_1_relu6_1_0_split_1
I1007 03:19:22.192587 18857 net.cpp:411] LFCN_3_5x7 -> LFCN_3_5x7
I1007 03:19:22.197674 18857 net.cpp:150] Setting up LFCN_3_5x7
I1007 03:19:22.197687 18857 net.cpp:157] Top shape: 4 6 14 14 (4704)
I1007 03:19:22.197702 18857 net.cpp:165] Memory required for data: 2027814532
I1007 03:19:22.197708 18857 layer_factory.hpp:76] Creating layer LFCN_3_5x7_LFCN_3_5x7_0_split
I1007 03:19:22.197713 18857 net.cpp:106] Creating Layer LFCN_3_5x7_LFCN_3_5x7_0_split
I1007 03:19:22.197717 18857 net.cpp:454] LFCN_3_5x7_LFCN_3_5x7_0_split <- LFCN_3_5x7
I1007 03:19:22.197722 18857 net.cpp:411] LFCN_3_5x7_LFCN_3_5x7_0_split -> LFCN_3_5x7_LFCN_3_5x7_0_split_0
I1007 03:19:22.197731 18857 net.cpp:411] LFCN_3_5x7_LFCN_3_5x7_0_split -> LFCN_3_5x7_LFCN_3_5x7_0_split_1
I1007 03:19:22.197787 18857 net.cpp:150] Setting up LFCN_3_5x7_LFCN_3_5x7_0_split
I1007 03:19:22.197790 18857 net.cpp:157] Top shape: 4 6 14 14 (4704)
I1007 03:19:22.197794 18857 net.cpp:157] Top shape: 4 6 14 14 (4704)
I1007 03:19:22.197796 18857 net.cpp:165] Memory required for data: 2027852164
I1007 03:19:22.197799 18857 layer_factory.hpp:76] Creating layer detection_loss_3_5x7
I1007 03:19:22.197806 18857 net.cpp:106] Creating Layer detection_loss_3_5x7
I1007 03:19:22.197809 18857 net.cpp:454] detection_loss_3_5x7 <- LFCN_3_5x7_LFCN_3_5x7_0_split_0
I1007 03:19:22.197813 18857 net.cpp:454] detection_loss_3_5x7 <- label_3_5x7_data_6_split_0
I1007 03:19:22.197819 18857 net.cpp:411] detection_loss_3_5x7 -> loss_3_5x7
I1007 03:19:22.197826 18857 layer_factory.hpp:76] Creating layer detection_loss_3_5x7
I1007 03:19:22.198375 18857 net.cpp:150] Setting up detection_loss_3_5x7
I1007 03:19:22.198387 18857 net.cpp:157] Top shape: 1 1 1 2 (2)
I1007 03:19:22.198401 18857 net.cpp:160]     with loss weight 1
I1007 03:19:22.198408 18857 net.cpp:165] Memory required for data: 2027852172
I1007 03:19:22.198411 18857 layer_factory.hpp:76] Creating layer detection_accuracy_3_5x7
I1007 03:19:22.198423 18857 net.cpp:106] Creating Layer detection_accuracy_3_5x7
I1007 03:19:22.198428 18857 net.cpp:454] detection_accuracy_3_5x7 <- LFCN_3_5x7_LFCN_3_5x7_0_split_1
I1007 03:19:22.198432 18857 net.cpp:454] detection_accuracy_3_5x7 <- label_3_5x7_data_6_split_1
I1007 03:19:22.198437 18857 net.cpp:411] detection_accuracy_3_5x7 -> accuracy_3_5x7
I1007 03:19:22.198444 18857 net.cpp:411] detection_accuracy_3_5x7 -> boxiou_3_5x7
I1007 03:19:22.198488 18857 net.cpp:150] Setting up detection_accuracy_3_5x7
I1007 03:19:22.198494 18857 net.cpp:157] Top shape: 1 1 1 2 (2)
I1007 03:19:22.198498 18857 net.cpp:157] Top shape: 1 1 1 1 (1)
I1007 03:19:22.198499 18857 net.cpp:165] Memory required for data: 2027852184
I1007 03:19:22.198503 18857 layer_factory.hpp:76] Creating layer pool6
I1007 03:19:22.198508 18857 net.cpp:106] Creating Layer pool6
I1007 03:19:22.198513 18857 net.cpp:454] pool6 <- conv6_1_relu6_1_0_split_2
I1007 03:19:22.198518 18857 net.cpp:411] pool6 -> pool6
I1007 03:19:22.198729 18857 net.cpp:150] Setting up pool6
I1007 03:19:22.198740 18857 net.cpp:157] Top shape: 4 512 7 7 (100352)
I1007 03:19:22.198742 18857 net.cpp:165] Memory required for data: 2028253592
I1007 03:19:22.198745 18857 layer_factory.hpp:76] Creating layer LFCN_4_3x5
I1007 03:19:22.198755 18857 net.cpp:106] Creating Layer LFCN_4_3x5
I1007 03:19:22.198758 18857 net.cpp:454] LFCN_4_3x5 <- pool6
I1007 03:19:22.198763 18857 net.cpp:411] LFCN_4_3x5 -> LFCN_4_3x5
I1007 03:19:22.201627 18857 net.cpp:150] Setting up LFCN_4_3x5
I1007 03:19:22.201639 18857 net.cpp:157] Top shape: 4 6 7 7 (1176)
I1007 03:19:22.201653 18857 net.cpp:165] Memory required for data: 2028258296
I1007 03:19:22.201660 18857 layer_factory.hpp:76] Creating layer LFCN_4_3x5_LFCN_4_3x5_0_split
I1007 03:19:22.201665 18857 net.cpp:106] Creating Layer LFCN_4_3x5_LFCN_4_3x5_0_split
I1007 03:19:22.201670 18857 net.cpp:454] LFCN_4_3x5_LFCN_4_3x5_0_split <- LFCN_4_3x5
I1007 03:19:22.201678 18857 net.cpp:411] LFCN_4_3x5_LFCN_4_3x5_0_split -> LFCN_4_3x5_LFCN_4_3x5_0_split_0
I1007 03:19:22.201684 18857 net.cpp:411] LFCN_4_3x5_LFCN_4_3x5_0_split -> LFCN_4_3x5_LFCN_4_3x5_0_split_1
I1007 03:19:22.201731 18857 net.cpp:150] Setting up LFCN_4_3x5_LFCN_4_3x5_0_split
I1007 03:19:22.201736 18857 net.cpp:157] Top shape: 4 6 7 7 (1176)
I1007 03:19:22.201740 18857 net.cpp:157] Top shape: 4 6 7 7 (1176)
I1007 03:19:22.201742 18857 net.cpp:165] Memory required for data: 2028267704
I1007 03:19:22.201745 18857 layer_factory.hpp:76] Creating layer detection_loss_4_3x5
I1007 03:19:22.201751 18857 net.cpp:106] Creating Layer detection_loss_4_3x5
I1007 03:19:22.201756 18857 net.cpp:454] detection_loss_4_3x5 <- LFCN_4_3x5_LFCN_4_3x5_0_split_0
I1007 03:19:22.201759 18857 net.cpp:454] detection_loss_4_3x5 <- label_4_3x5_data_7_split_0
I1007 03:19:22.201766 18857 net.cpp:411] detection_loss_4_3x5 -> loss_4_3x5
I1007 03:19:22.201772 18857 layer_factory.hpp:76] Creating layer detection_loss_4_3x5
I1007 03:19:22.202337 18857 net.cpp:150] Setting up detection_loss_4_3x5
I1007 03:19:22.202350 18857 net.cpp:157] Top shape: 1 1 1 2 (2)
I1007 03:19:22.202363 18857 net.cpp:160]     with loss weight 1
I1007 03:19:22.202369 18857 net.cpp:165] Memory required for data: 2028267712
I1007 03:19:22.202373 18857 layer_factory.hpp:76] Creating layer detection_accuracy_4_3x5
I1007 03:19:22.202378 18857 net.cpp:106] Creating Layer detection_accuracy_4_3x5
I1007 03:19:22.202383 18857 net.cpp:454] detection_accuracy_4_3x5 <- LFCN_4_3x5_LFCN_4_3x5_0_split_1
I1007 03:19:22.202388 18857 net.cpp:454] detection_accuracy_4_3x5 <- label_4_3x5_data_7_split_1
I1007 03:19:22.202394 18857 net.cpp:411] detection_accuracy_4_3x5 -> accuracy_4_3x5
I1007 03:19:22.202400 18857 net.cpp:411] detection_accuracy_4_3x5 -> boxiou_4_3x5
I1007 03:19:22.202445 18857 net.cpp:150] Setting up detection_accuracy_4_3x5
I1007 03:19:22.202450 18857 net.cpp:157] Top shape: 1 1 1 2 (2)
I1007 03:19:22.202455 18857 net.cpp:157] Top shape: 1 1 1 1 (1)
I1007 03:19:22.202456 18857 net.cpp:165] Memory required for data: 2028267724
I1007 03:19:22.202460 18857 net.cpp:228] detection_accuracy_4_3x5 does not need backward computation.
I1007 03:19:22.202462 18857 net.cpp:226] detection_loss_4_3x5 needs backward computation.
I1007 03:19:22.202466 18857 net.cpp:226] LFCN_4_3x5_LFCN_4_3x5_0_split needs backward computation.
I1007 03:19:22.202468 18857 net.cpp:226] LFCN_4_3x5 needs backward computation.
…
I1007 03:19:22.209708 18857 image_gt_data_layer.cpp:234] output label size 1 : 2,6,56,56
I1007 03:19:22.209767 18857 image_gt_data_layer.cpp:234] output label size 2 : 2,6,28,28
I1007 03:19:22.209826 18857 image_gt_data_layer.cpp:234] output label size 3 : 2,6,28,28
I1007 03:19:22.209884 18857 image_gt_data_layer.cpp:234] output label size 4 : 2,6,14,14
I1007 03:19:22.209949 18857 image_gt_data_layer.cpp:234] output label size 5 : 2,6,14,14
I1007 03:19:22.210036 18857 image_gt_data_layer.cpp:234] output label size 6 : 2,6,7,7
I1007 03:19:22.221204 18857 net.cpp:150] Setting up data
I1007 03:19:22.221235 18857 net.cpp:157] Top shape: 2 3 448 448 (1204224)
I1007 03:19:22.221240 18857 net.cpp:157] Top shape: 2 6 56 56 (37632)
I1007 03:19:22.221242 18857 net.cpp:157] Top shape: 2 6 56 56 (37632)
I1007 03:19:22.221246 18857 net.cpp:157] Top shape: 2 6 28 28 (9408)
I1007 03:19:22.221249 18857 net.cpp:157] Top shape: 2 6 28 28 (9408)
I1007 03:19:22.221253 18857 net.cpp:157] Top shape: 2 6 14 14 (2352)
I1007 03:19:22.221256 18857 net.cpp:157] Top shape: 2 6 14 14 (2352)
I1007 03:19:22.221259 18857 net.cpp:157] Top shape: 2 6 7 7 (588)
I1007 03:19:22.221262 18857 net.cpp:165] Memory required for data: 5214384
I1007 03:19:22.221268 18857 layer_factory.hpp:76] Creating layer label_1_3x5_data_1_split
I1007 03:19:22.221282 18857 net.cpp:106] Creating Layer label_1_3x5_data_1_split
I1007 03:19:22.221285 18857 net.cpp:454] label_1_3x5_data_1_split <- label_1_3x5
I1007 03:19:22.221292 18857 net.cpp:411] label_1_3x5_data_1_split -> label_1_3x5_data_1_split_0
I1007 03:19:22.221305 18857 net.cpp:411] label_1_3x5_data_1_split -> label_1_3x5_data_1_split_1
I1007 03:19:22.221482 18857 net.cpp:150] Setting up label_1_3x5_data_1_split
I1007 03:19:22.221488 18857 net.cpp:157] Top shape: 2 6 56 56 (37632)
I1007 03:19:22.221492 18857 net.cpp:157] Top shape: 2 6 56 56 (37632)
I1007 03:19:22.221493 18857 net.cpp:165] Memory required for data: 5515440
I1007 03:19:22.221496 18857 layer_factory.hpp:76] Creating layer label_1_5x7_data_2_split
I1007 03:19:22.221503 18857 net.cpp:106] Creating Layer label_1_5x7_data_2_split
I1007 03:19:22.221505 18857 net.cpp:454] label_1_5x7_data_2_split <- label_1_5x7
I1007 03:19:22.221510 18857 net.cpp:411] label_1_5x7_data_2_split -> label_1_5x7_data_2_split_0
I1007 03:19:22.221516 18857 net.cpp:411] label_1_5x7_data_2_split -> label_1_5x7_data_2_split_1
I1007 03:19:22.221592 18857 net.cpp:150] Setting up label_1_5x7_data_2_split
I1007 03:19:22.221597 18857 net.cpp:157] Top shape: 2 6 56 56 (37632)
I1007 03:19:22.221601 18857 net.cpp:157] Top shape: 2 6 56 56 (37632)
I1007 03:19:22.221603 18857 net.cpp:165] Memory required for data: 5816496
I1007 03:19:22.221606 18857 layer_factory.hpp:76] Creating layer label_2_3x5_data_3_split
I1007 03:19:22.221611 18857 net.cpp:106] Creating Layer label_2_3x5_data_3_split
I1007 03:19:22.221613 18857 net.cpp:454] label_2_3x5_data_3_split <- label_2_3x5
I1007 03:19:22.221622 18857 net.cpp:411] label_2_3x5_data_3_split -> label_2_3x5_data_3_split_0
I1007 03:19:22.221627 18857 net.cpp:411] label_2_3x5_data_3_split -> label_2_3x5_data_3_split_1
I1007 03:19:22.221704 18857 net.cpp:150] Setting up label_2_3x5_data_3_split
I1007 03:19:22.221709 18857 net.cpp:157] Top shape: 2 6 28 28 (9408)
I1007 03:19:22.221712 18857 net.cpp:157] Top shape: 2 6 28 28 (9408)
I1007 03:19:22.221715 18857 net.cpp:165] Memory required for data: 5891760
I1007 03:19:22.221717 18857 layer_factory.hpp:76] Creating layer label_2_5x7_data_4_split
I1007 03:19:22.221724 18857 net.cpp:106] Creating Layer label_2_5x7_data_4_split
I1007 03:19:22.221727 18857 net.cpp:454] label_2_5x7_data_4_split <- label_2_5x7
I1007 03:19:22.221731 18857 net.cpp:411] label_2_5x7_data_4_split -> label_2_5x7_data_4_split_0
I1007 03:19:22.221738 18857 net.cpp:411] label_2_5x7_data_4_split -> label_2_5x7_data_4_split_1
I1007 03:19:22.221776 18857 net.cpp:150] Setting up label_2_5x7_data_4_split
I1007 03:19:22.221781 18857 net.cpp:157] Top shape: 2 6 28 28 (9408)
I1007 03:19:22.221784 18857 net.cpp:157] Top shape: 2 6 28 28 (9408)
I1007 03:19:22.221786 18857 net.cpp:165] Memory required for data: 5967024
I1007 03:19:22.221788 18857 layer_factory.hpp:76] Creating layer label_3_3x5_data_5_split
I1007 03:19:22.221794 18857 net.cpp:106] Creating Layer label_3_3x5_data_5_split
I1007 03:19:22.221797 18857 net.cpp:454] label_3_3x5_data_5_split <- label_3_3x5
I1007 03:19:22.221801 18857 net.cpp:411] label_3_3x5_data_5_split -> label_3_3x5_data_5_split_0
I1007 03:19:22.221807 18857 net.cpp:411] label_3_3x5_data_5_split -> label_3_3x5_data_5_split_1
I1007 03:19:22.221843 18857 net.cpp:150] Setting up label_3_3x5_data_5_split
I1007 03:19:22.221848 18857 net.cpp:157] Top shape: 2 6 14 14 (2352)
I1007 03:19:22.221851 18857 net.cpp:157] Top shape: 2 6 14 14 (2352)
I1007 03:19:22.221853 18857 net.cpp:165] Memory required for data: 5985840
I1007 03:19:22.221856 18857 layer_factory.hpp:76] Creating layer label_3_5x7_data_6_split
I1007 03:19:22.221859 18857 net.cpp:106] Creating Layer label_3_5x7_data_6_split
I1007 03:19:22.221863 18857 net.cpp:454] label_3_5x7_data_6_split <- label_3_5x7
I1007 03:19:22.221868 18857 net.cpp:411] label_3_5x7_data_6_split -> label_3_5x7_data_6_split_0
I1007 03:19:22.221873 18857 net.cpp:411] label_3_5x7_data_6_split -> label_3_5x7_data_6_split_1
I1007 03:19:22.221905 18857 net.cpp:150] Setting up label_3_5x7_data_6_split
I1007 03:19:22.221909 18857 net.cpp:157] Top shape: 2 6 14 14 (2352)
I1007 03:19:22.221912 18857 net.cpp:157] Top shape: 2 6 14 14 (2352)
I1007 03:19:22.221915 18857 net.cpp:165] Memory required for data: 6004656
I1007 03:19:22.221917 18857 layer_factory.hpp:76] Creating layer label_4_3x5_data_7_split
I1007 03:19:22.221922 18857 net.cpp:106] Creating Layer label_4_3x5_data_7_split
I1007 03:19:22.221925 18857 net.cpp:454] label_4_3x5_data_7_split <- label_4_3x5
I1007 03:19:22.221930 18857 net.cpp:411] label_4_3x5_data_7_split -> label_4_3x5_data_7_split_0
I1007 03:19:22.221933 18857 net.cpp:411] label_4_3x5_data_7_split -> label_4_3x5_data_7_split_1
I1007 03:19:22.221967 18857 net.cpp:150] Setting up label_4_3x5_data_7_split
I1007 03:19:22.221971 18857 net.cpp:157] Top shape: 2 6 7 7 (588)
I1007 03:19:22.221976 18857 net.cpp:157] Top shape: 2 6 7 7 (588)
I1007 03:19:22.221977 18857 net.cpp:165] Memory required for data: 6009360
I1007 03:19:22.221979 18857 layer_factory.hpp:76] Creating layer conv1_1
I1007 03:19:22.221988 18857 net.cpp:106] Creating Layer conv1_1
I1007 03:19:22.221992 18857 net.cpp:454] conv1_1 <- data
I1007 03:19:22.221998 18857 net.cpp:411] conv1_1 -> conv1_1
I1007 03:19:22.223968 18857 net.cpp:150] Setting up conv1_1
I1007 03:19:22.223984 18857 net.cpp:157] Top shape: 2 64 448 448 (25690112)
I1007 03:19:22.223986 18857 net.cpp:165] Memory required for data: 108769808
I1007 03:19:22.223999 18857 layer_factory.hpp:76] Creating layer relu1_1
I1007 03:19:22.224007 18857 net.cpp:106] Creating Layer relu1_1
I1007 03:19:22.224010 18857 net.cpp:454] relu1_1 <- conv1_1
I1007 03:19:22.224015 18857 net.cpp:397] relu1_1 -> conv1_1 (in-place)
I1007 03:19:22.224944 18857 net.cpp:150] Setting up relu1_1
I1007 03:19:22.224957 18857 net.cpp:157] Top shape: 2 64 448 448 (25690112)
I1007 03:19:22.224961 18857 net.cpp:165] Memory required for data: 211530256
I1007 03:19:22.224963 18857 layer_factory.hpp:76] Creating layer conv1_2
I1007 03:19:22.224973 18857 net.cpp:106] Creating Layer conv1_2
I1007 03:19:22.224978 18857 net.cpp:454] conv1_2 <- conv1_1
I1007 03:19:22.224987 18857 net.cpp:411] conv1_2 -> conv1_2
I1007 03:19:22.228180 18857 net.cpp:150] Setting up conv1_2
I1007 03:19:22.228194 18857 net.cpp:157] Top shape: 2 64 448 448 (25690112)
I1007 03:19:22.228198 18857 net.cpp:165] Memory required for data: 314290704
I1007 03:19:22.228207 18857 layer_factory.hpp:76] Creating layer relu1_2
I1007 03:19:22.228215 18857 net.cpp:106] Creating Layer relu1_2
I1007 03:19:22.228219 18857 net.cpp:454] relu1_2 <- conv1_2
I1007 03:19:22.228224 18857 net.cpp:397] relu1_2 -> conv1_2 (in-place)
I1007 03:19:22.228426 18857 net.cpp:150] Setting up relu1_2
I1007 03:19:22.228438 18857 net.cpp:157] Top shape: 2 64 448 448 (25690112)
I1007 03:19:22.228441 18857 net.cpp:165] Memory required for data: 417051152
I1007 03:19:22.228444 18857 layer_factory.hpp:76] Creating layer pool1
I1007 03:19:22.228451 18857 net.cpp:106] Creating Layer pool1
I1007 03:19:22.228453 18857 net.cpp:454] pool1 <- conv1_2
I1007 03:19:22.228458 18857 net.cpp:411] pool1 -> pool1
I1007 03:19:22.228876 18857 net.cpp:150] Setting up pool1
I1007 03:19:22.228888 18857 net.cpp:157] Top shape: 2 64 224 224 (6422528)
I1007 03:19:22.228891 18857 net.cpp:165] Memory required for data: 442741264
I1007 03:19:22.228894 18857 layer_factory.hpp:76] Creating layer conv2_1
I1007 03:19:22.228901 18857 net.cpp:106] Creating Layer conv2_1
I1007 03:19:22.228904 18857 net.cpp:454] conv2_1 <- pool1
I1007 03:19:22.228910 18857 net.cpp:411] conv2_1 -> conv2_1
I1007 03:19:22.230159 18857 net.cpp:150] Setting up conv2_1
I1007 03:19:22.230175 18857 net.cpp:157] Top shape: 2 128 224 224 (12845056)
I1007 03:19:22.230180 18857 net.cpp:165] Memory required for data: 494121488
I1007 03:19:22.230188 18857 layer_factory.hpp:76] Creating layer relu2_1
I1007 03:19:22.230206 18857 net.cpp:106] Creating Layer relu2_1
I1007 03:19:22.230209 18857 net.cpp:454] relu2_1 <- conv2_1
I1007 03:19:22.230213 18857 net.cpp:397] relu2_1 -> conv2_1 (in-place)
I1007 03:19:22.230406 18857 net.cpp:150] Setting up relu2_1
I1007 03:19:22.230414 18857 net.cpp:157] Top shape: 2 128 224 224 (12845056)
I1007 03:19:22.230417 18857 net.cpp:165] Memory required for data: 545501712
I1007 03:19:22.230420 18857 layer_factory.hpp:76] Creating layer conv2_2
I1007 03:19:22.230428 18857 net.cpp:106] Creating Layer conv2_2
I1007 03:19:22.230432 18857 net.cpp:454] conv2_2 <- conv2_1
I1007 03:19:22.230438 18857 net.cpp:411] conv2_2 -> conv2_2
I1007 03:19:22.232409 18857 net.cpp:150] Setting up conv2_2
I1007 03:19:22.232422 18857 net.cpp:157] Top shape: 2 128 224 224 (12845056)
I1007 03:19:22.232425 18857 net.cpp:165] Memory required for data: 596881936
I1007 03:19:22.232431 18857 layer_factory.hpp:76] Creating layer relu2_2
I1007 03:19:22.232452 18857 net.cpp:106] Creating Layer relu2_2
I1007 03:19:22.232456 18857 net.cpp:454] relu2_2 <- conv2_2
I1007 03:19:22.232462 18857 net.cpp:397] relu2_2 -> conv2_2 (in-place)
I1007 03:19:22.232856 18857 net.cpp:150] Setting up relu2_2
I1007 03:19:22.232868 18857 net.cpp:157] Top shape: 2 128 224 224 (12845056)
I1007 03:19:22.232872 18857 net.cpp:165] Memory required for data: 648262160
I1007 03:19:22.232885 18857 layer_factory.hpp:76] Creating layer pool2
I1007 03:19:22.232905 18857 net.cpp:106] Creating Layer pool2
I1007 03:19:22.232908 18857 net.cpp:454] pool2 <- conv2_2
I1007 03:19:22.232924 18857 net.cpp:411] pool2 -> pool2
I1007 03:19:22.233187 18857 net.cpp:150] Setting up pool2
I1007 03:19:22.233198 18857 net.cpp:157] Top shape: 2 128 112 112 (3211264)
I1007 03:19:22.233201 18857 net.cpp:165] Memory required for data: 661107216
I1007 03:19:22.233204 18857 layer_factory.hpp:76] Creating layer conv3_1
I1007 03:19:22.233212 18857 net.cpp:106] Creating Layer conv3_1
I1007 03:19:22.233217 18857 net.cpp:454] conv3_1 <- pool2
I1007 03:19:22.233222 18857 net.cpp:411] conv3_1 -> conv3_1
I1007 03:19:22.235227 18857 net.cpp:150] Setting up conv3_1
I1007 03:19:22.235244 18857 net.cpp:157] Top shape: 2 256 112 112 (6422528)
I1007 03:19:22.235246 18857 net.cpp:165] Memory required for data: 686797328
I1007 03:19:22.235268 18857 layer_factory.hpp:76] Creating layer relu3_1
I1007 03:19:22.235285 18857 net.cpp:106] Creating Layer relu3_1
I1007 03:19:22.235288 18857 net.cpp:454] relu3_1 <- conv3_1
I1007 03:19:22.235293 18857 net.cpp:397] relu3_1 -> conv3_1 (in-place)
I1007 03:19:22.235498 18857 net.cpp:150] Setting up relu3_1
I1007 03:19:22.235510 18857 net.cpp:157] Top shape: 2 256 112 112 (6422528)
I1007 03:19:22.235513 18857 net.cpp:165] Memory required for data: 712487440
I1007 03:19:22.235518 18857 layer_factory.hpp:76] Creating layer conv3_2
I1007 03:19:22.235529 18857 net.cpp:106] Creating Layer conv3_2
I1007 03:19:22.235535 18857 net.cpp:454] conv3_2 <- conv3_1
I1007 03:19:22.235543 18857 net.cpp:411] conv3_2 -> conv3_2
I1007 03:19:22.238124 18857 net.cpp:150] Setting up conv3_2
I1007 03:19:22.238137 18857 net.cpp:157] Top shape: 2 256 112 112 (6422528)
I1007 03:19:22.238140 18857 net.cpp:165] Memory required for data: 738177552
I1007 03:19:22.238147 18857 layer_factory.hpp:76] Creating layer relu3_2
I1007 03:19:22.238162 18857 net.cpp:106] Creating Layer relu3_2
I1007 03:19:22.238165 18857 net.cpp:454] relu3_2 <- conv3_2
I1007 03:19:22.238180 18857 net.cpp:397] relu3_2 -> conv3_2 (in-place)
I1007 03:19:22.238612 18857 net.cpp:150] Setting up relu3_2
I1007 03:19:22.238636 18857 net.cpp:157] Top shape: 2 256 112 112 (6422528)
I1007 03:19:22.238651 18857 net.cpp:165] Memory required for data: 763867664
I1007 03:19:22.238653 18857 layer_factory.hpp:76] Creating layer conv3_3
I1007 03:19:22.238662 18857 net.cpp:106] Creating Layer conv3_3
I1007 03:19:22.238665 18857 net.cpp:454] conv3_3 <- conv3_2
I1007 03:19:22.238669 18857 net.cpp:411] conv3_3 -> conv3_3
I1007 03:19:22.241255 18857 net.cpp:150] Setting up conv3_3
I1007 03:19:22.241267 18857 net.cpp:157] Top shape: 2 256 112 112 (6422528)
I1007 03:19:22.241271 18857 net.cpp:165] Memory required for data: 789557776
I1007 03:19:22.241276 18857 layer_factory.hpp:76] Creating layer relu3_3
I1007 03:19:22.241283 18857 net.cpp:106] Creating Layer relu3_3
I1007 03:19:22.241297 18857 net.cpp:454] relu3_3 <- conv3_3
I1007 03:19:22.241303 18857 net.cpp:397] relu3_3 -> conv3_3 (in-place)
I1007 03:19:22.241539 18857 net.cpp:150] Setting up relu3_3
I1007 03:19:22.241551 18857 net.cpp:157] Top shape: 2 256 112 112 (6422528)
I1007 03:19:22.241554 18857 net.cpp:165] Memory required for data: 815247888
I1007 03:19:22.241557 18857 layer_factory.hpp:76] Creating layer pool3
I1007 03:19:22.241565 18857 net.cpp:106] Creating Layer pool3
I1007 03:19:22.241569 18857 net.cpp:454] pool3 <- conv3_3
I1007 03:19:22.241574 18857 net.cpp:411] pool3 -> pool3
I1007 03:19:22.241989 18857 net.cpp:150] Setting up pool3
I1007 03:19:22.242002 18857 net.cpp:157] Top shape: 2 256 56 56 (1605632)
I1007 03:19:22.242004 18857 net.cpp:165] Memory required for data: 821670416
I1007 03:19:22.242008 18857 layer_factory.hpp:76] Creating layer conv4_1
I1007 03:19:22.242015 18857 net.cpp:106] Creating Layer conv4_1
I1007 03:19:22.242019 18857 net.cpp:454] conv4_1 <- pool3
I1007 03:19:22.242027 18857 net.cpp:411] conv4_1 -> conv4_1
I1007 03:19:22.245676 18857 net.cpp:150] Setting up conv4_1
I1007 03:19:22.245689 18857 net.cpp:157] Top shape: 2 512 56 56 (3211264)
I1007 03:19:22.245692 18857 net.cpp:165] Memory required for data: 834515472
I1007 03:19:22.245698 18857 layer_factory.hpp:76] Creating layer relu4_1
I1007 03:19:22.245707 18857 net.cpp:106] Creating Layer relu4_1
I1007 03:19:22.245709 18857 net.cpp:454] relu4_1 <- conv4_1
I1007 03:19:22.245724 18857 net.cpp:397] relu4_1 -> conv4_1 (in-place)
I1007 03:19:22.246326 18857 net.cpp:150] Setting up relu4_1
I1007 03:19:22.246340 18857 net.cpp:157] Top shape: 2 512 56 56 (3211264)
I1007 03:19:22.246342 18857 net.cpp:165] Memory required for data: 847360528
I1007 03:19:22.246345 18857 layer_factory.hpp:76] Creating layer conv4_2
I1007 03:19:22.246351 18857 net.cpp:106] Creating Layer conv4_2
I1007 03:19:22.246356 18857 net.cpp:454] conv4_2 <- conv4_1
I1007 03:19:22.246364 18857 net.cpp:411] conv4_2 -> conv4_2
I1007 03:19:22.253077 18857 net.cpp:150] Setting up conv4_2
I1007 03:19:22.253098 18857 net.cpp:157] Top shape: 2 512 56 56 (3211264)
I1007 03:19:22.253101 18857 net.cpp:165] Memory required for data: 860205584
I1007 03:19:22.253115 18857 layer_factory.hpp:76] Creating layer relu4_2
I1007 03:19:22.253123 18857 net.cpp:106] Creating Layer relu4_2
I1007 03:19:22.253141 18857 net.cpp:454] relu4_2 <- conv4_2
I1007 03:19:22.253146 18857 net.cpp:397] relu4_2 -> conv4_2 (in-place)
I1007 03:19:22.253386 18857 net.cpp:150] Setting up relu4_2
I1007 03:19:22.253398 18857 net.cpp:157] Top shape: 2 512 56 56 (3211264)
I1007 03:19:22.253406 18857 net.cpp:165] Memory required for data: 873050640
I1007 03:19:22.253408 18857 layer_factory.hpp:76] Creating layer conv4_3
I1007 03:19:22.253417 18857 net.cpp:106] Creating Layer conv4_3
I1007 03:19:22.253422 18857 net.cpp:454] conv4_3 <- conv4_2
I1007 03:19:22.253427 18857 net.cpp:411] conv4_3 -> conv4_3
I1007 03:19:22.259656 18857 net.cpp:150] Setting up conv4_3
I1007 03:19:22.259670 18857 net.cpp:157] Top shape: 2 512 56 56 (3211264)
I1007 03:19:22.259673 18857 net.cpp:165] Memory required for data: 885895696
I1007 03:19:22.259680 18857 layer_factory.hpp:76] Creating layer relu4_3
I1007 03:19:22.259688 18857 net.cpp:106] Creating Layer relu4_3
I1007 03:19:22.259691 18857 net.cpp:454] relu4_3 <- conv4_3
I1007 03:19:22.259708 18857 net.cpp:397] relu4_3 -> conv4_3 (in-place)
I1007 03:19:22.260105 18857 net.cpp:150] Setting up relu4_3
I1007 03:19:22.260134 18857 net.cpp:157] Top shape: 2 512 56 56 (3211264)
I1007 03:19:22.260138 18857 net.cpp:165] Memory required for data: 898740752
I1007 03:19:22.260140 18857 layer_factory.hpp:76] Creating layer conv4_3_relu4_3_0_split
I1007 03:19:22.260159 18857 net.cpp:106] Creating Layer conv4_3_relu4_3_0_split
I1007 03:19:22.260164 18857 net.cpp:454] conv4_3_relu4_3_0_split <- conv4_3
I1007 03:19:22.260169 18857 net.cpp:411] conv4_3_relu4_3_0_split -> conv4_3_relu4_3_0_split_0
I1007 03:19:22.260186 18857 net.cpp:411] conv4_3_relu4_3_0_split -> conv4_3_relu4_3_0_split_1
I1007 03:19:22.260290 18857 net.cpp:150] Setting up conv4_3_relu4_3_0_split
I1007 03:19:22.260300 18857 net.cpp:157] Top shape: 2 512 56 56 (3211264)
I1007 03:19:22.260304 18857 net.cpp:157] Top shape: 2 512 56 56 (3211264)
I1007 03:19:22.260306 18857 net.cpp:165] Memory required for data: 924430864
I1007 03:19:22.260309 18857 layer_factory.hpp:76] Creating layer loss1_conv1
I1007 03:19:22.260327 18857 net.cpp:106] Creating Layer loss1_conv1
I1007 03:19:22.260334 18857 net.cpp:454] loss1_conv1 <- conv4_3_relu4_3_0_split_0
I1007 03:19:22.260349 18857 net.cpp:411] loss1_conv1 -> loss1_conv1
I1007 03:19:22.337477 18857 net.cpp:150] Setting up loss1_conv1
I1007 03:19:22.337517 18857 net.cpp:157] Top shape: 2 512 56 56 (3211264)
I1007 03:19:22.337519 18857 net.cpp:165] Memory required for data: 937275920
I1007 03:19:22.337527 18857 layer_factory.hpp:76] Creating layer loss_relu1
I1007 03:19:22.337538 18857 net.cpp:106] Creating Layer loss_relu1
I1007 03:19:22.337543 18857 net.cpp:454] loss_relu1 <- loss1_conv1
I1007 03:19:22.337550 18857 net.cpp:397] loss_relu1 -> loss1_conv1 (in-place)
I1007 03:19:22.337973 18857 net.cpp:150] Setting up loss_relu1
I1007 03:19:22.337986 18857 net.cpp:157] Top shape: 2 512 56 56 (3211264)
I1007 03:19:22.337990 18857 net.cpp:165] Memory required for data: 950120976
I1007 03:19:22.337992 18857 layer_factory.hpp:76] Creating layer loss1_conv1_loss_relu1_0_split
I1007 03:19:22.337998 18857 net.cpp:106] Creating Layer loss1_conv1_loss_relu1_0_split
I1007 03:19:22.338001 18857 net.cpp:454] loss1_conv1_loss_relu1_0_split <- loss1_conv1
I1007 03:19:22.338009 18857 net.cpp:411] loss1_conv1_loss_relu1_0_split -> loss1_conv1_loss_relu1_0_split_0
I1007 03:19:22.338016 18857 net.cpp:411] loss1_conv1_loss_relu1_0_split -> loss1_conv1_loss_relu1_0_split_1
I1007 03:19:22.338079 18857 net.cpp:150] Setting up loss1_conv1_loss_relu1_0_split
I1007 03:19:22.338088 18857 net.cpp:157] Top shape: 2 512 56 56 (3211264)
I1007 03:19:22.338091 18857 net.cpp:157] Top shape: 2 512 56 56 (3211264)
I1007 03:19:22.338093 18857 net.cpp:165] Memory required for data: 975811088
I1007 03:19:22.338096 18857 layer_factory.hpp:76] Creating layer LFCN_1_3x5
I1007 03:19:22.338106 18857 net.cpp:106] Creating Layer LFCN_1_3x5
I1007 03:19:22.338109 18857 net.cpp:454] LFCN_1_3x5 <- loss1_conv1_loss_relu1_0_split_0
I1007 03:19:22.338117 18857 net.cpp:411] LFCN_1_3x5 -> LFCN_1_3x5
I1007 03:19:22.340859 18857 net.cpp:150] Setting up LFCN_1_3x5
I1007 03:19:22.340886 18857 net.cpp:157] Top shape: 2 6 56 56 (37632)
I1007 03:19:22.340890 18857 net.cpp:165] Memory required for data: 975961616
I1007 03:19:22.340896 18857 layer_factory.hpp:76] Creating layer LFCN_1_3x5_LFCN_1_3x5_0_split
I1007 03:19:22.340904 18857 net.cpp:106] Creating Layer LFCN_1_3x5_LFCN_1_3x5_0_split
I1007 03:19:22.340908 18857 net.cpp:454] LFCN_1_3x5_LFCN_1_3x5_0_split <- LFCN_1_3x5
I1007 03:19:22.340912 18857 net.cpp:411] LFCN_1_3x5_LFCN_1_3x5_0_split -> LFCN_1_3x5_LFCN_1_3x5_0_split_0
I1007 03:19:22.340919 18857 net.cpp:411] LFCN_1_3x5_LFCN_1_3x5_0_split -> LFCN_1_3x5_LFCN_1_3x5_0_split_1
I1007 03:19:22.340989 18857 net.cpp:150] Setting up LFCN_1_3x5_LFCN_1_3x5_0_split
I1007 03:19:22.340996 18857 net.cpp:157] Top shape: 2 6 56 56 (37632)
I1007 03:19:22.340999 18857 net.cpp:157] Top shape: 2 6 56 56 (37632)
I1007 03:19:22.341002 18857 net.cpp:165] Memory required for data: 976262672
I1007 03:19:22.341004 18857 layer_factory.hpp:76] Creating layer detection_loss_1_3x5
I1007 03:19:22.341012 18857 net.cpp:106] Creating Layer detection_loss_1_3x5
I1007 03:19:22.341017 18857 net.cpp:454] detection_loss_1_3x5 <- LFCN_1_3x5_LFCN_1_3x5_0_split_0
I1007 03:19:22.341023 18857 net.cpp:454] detection_loss_1_3x5 <- label_1_3x5_data_1_split_0
I1007 03:19:22.341029 18857 net.cpp:411] detection_loss_1_3x5 -> loss_1_3x5
I1007 03:19:22.341037 18857 layer_factory.hpp:76] Creating layer detection_loss_1_3x5
I1007 03:19:22.341490 18857 net.cpp:150] Setting up detection_loss_1_3x5
I1007 03:19:22.341501 18857 net.cpp:157] Top shape: 1 1 1 2 (2)
I1007 03:19:22.341516 18857 net.cpp:160]     with loss weight 0.9
I1007 03:19:22.341537 18857 net.cpp:165] Memory required for data: 976262680
I1007 03:19:22.341541 18857 layer_factory.hpp:76] Creating layer detection_accuracy_1_3x5
I1007 03:19:22.341547 18857 net.cpp:106] Creating Layer detection_accuracy_1_3x5
I1007 03:19:22.341549 18857 net.cpp:454] detection_accuracy_1_3x5 <- LFCN_1_3x5_LFCN_1_3x5_0_split_1
I1007 03:19:22.341554 18857 net.cpp:454] detection_accuracy_1_3x5 <- label_1_3x5_data_1_split_1
I1007 03:19:22.341572 18857 net.cpp:411] detection_accuracy_1_3x5 -> accuracy_1_3x5
I1007 03:19:22.341578 18857 net.cpp:411] detection_accuracy_1_3x5 -> boxiou_1_3x5
I1007 03:19:22.341645 18857 net.cpp:150] Setting up detection_accuracy_1_3x5
I1007 03:19:22.341655 18857 net.cpp:157] Top shape: 1 1 1 2 (2)
I1007 03:19:22.341657 18857 net.cpp:157] Top shape: 1 1 1 1 (1)
I1007 03:19:22.341660 18857 net.cpp:165] Memory required for data: 976262692
I1007 03:19:22.341662 18857 layer_factory.hpp:76] Creating layer LFCN_1_5x7
I1007 03:19:22.341670 18857 net.cpp:106] Creating Layer LFCN_1_5x7
I1007 03:19:22.341672 18857 net.cpp:454] LFCN_1_5x7 <- loss1_conv1_loss_relu1_0_split_1
I1007 03:19:22.341680 18857 net.cpp:411] LFCN_1_5x7 -> LFCN_1_5x7
I1007 03:19:22.346161 18857 net.cpp:150] Setting up LFCN_1_5x7
I1007 03:19:22.346186 18857 net.cpp:157] Top shape: 2 6 56 56 (37632)
I1007 03:19:22.346189 18857 net.cpp:165] Memory required for data: 976413220
I1007 03:19:22.346195 18857 layer_factory.hpp:76] Creating layer LFCN_1_5x7_LFCN_1_5x7_0_split
I1007 03:19:22.346200 18857 net.cpp:106] Creating Layer LFCN_1_5x7_LFCN_1_5x7_0_split
I1007 03:19:22.346204 18857 net.cpp:454] LFCN_1_5x7_LFCN_1_5x7_0_split <- LFCN_1_5x7
I1007 03:19:22.346210 18857 net.cpp:411] LFCN_1_5x7_LFCN_1_5x7_0_split -> LFCN_1_5x7_LFCN_1_5x7_0_split_0
I1007 03:19:22.346217 18857 net.cpp:411] LFCN_1_5x7_LFCN_1_5x7_0_split -> LFCN_1_5x7_LFCN_1_5x7_0_split_1
I1007 03:19:22.346278 18857 net.cpp:150] Setting up LFCN_1_5x7_LFCN_1_5x7_0_split
I1007 03:19:22.346294 18857 net.cpp:157] Top shape: 2 6 56 56 (37632)
I1007 03:19:22.346298 18857 net.cpp:157] Top shape: 2 6 56 56 (37632)
I1007 03:19:22.346300 18857 net.cpp:165] Memory required for data: 976714276
I1007 03:19:22.346303 18857 layer_factory.hpp:76] Creating layer detection_loss_1_5x7
I1007 03:19:22.346310 18857 net.cpp:106] Creating Layer detection_loss_1_5x7
I1007 03:19:22.346313 18857 net.cpp:454] detection_loss_1_5x7 <- LFCN_1_5x7_LFCN_1_5x7_0_split_0
I1007 03:19:22.346318 18857 net.cpp:454] detection_loss_1_5x7 <- label_1_5x7_data_2_split_0
I1007 03:19:22.346325 18857 net.cpp:411] detection_loss_1_5x7 -> loss_1_5x7
I1007 03:19:22.346333 18857 layer_factory.hpp:76] Creating layer detection_loss_1_5x7
I1007 03:19:22.346966 18857 net.cpp:150] Setting up detection_loss_1_5x7
I1007 03:19:22.346978 18857 net.cpp:157] Top shape: 1 1 1 2 (2)
I1007 03:19:22.346992 18857 net.cpp:160]     with loss weight 0.9
I1007 03:19:22.346999 18857 net.cpp:165] Memory required for data: 976714284
I1007 03:19:22.347002 18857 layer_factory.hpp:76] Creating layer detection_accuracy_1_5x7
I1007 03:19:22.347008 18857 net.cpp:106] Creating Layer detection_accuracy_1_5x7
I1007 03:19:22.347012 18857 net.cpp:454] detection_accuracy_1_5x7 <- LFCN_1_5x7_LFCN_1_5x7_0_split_1
I1007 03:19:22.347017 18857 net.cpp:454] detection_accuracy_1_5x7 <- label_1_5x7_data_2_split_1
I1007 03:19:22.347023 18857 net.cpp:411] detection_accuracy_1_5x7 -> accuracy_1_5x7
I1007 03:19:22.347028 18857 net.cpp:411] detection_accuracy_1_5x7 -> boxiou_1_5x7
I1007 03:19:22.347090 18857 net.cpp:150] Setting up detection_accuracy_1_5x7
I1007 03:19:22.347095 18857 net.cpp:157] Top shape: 1 1 1 2 (2)
I1007 03:19:22.347098 18857 net.cpp:157] Top shape: 1 1 1 1 (1)
I1007 03:19:22.347100 18857 net.cpp:165] Memory required for data: 976714296
I1007 03:19:22.347102 18857 layer_factory.hpp:76] Creating layer pool4
I1007 03:19:22.347110 18857 net.cpp:106] Creating Layer pool4
I1007 03:19:22.347113 18857 net.cpp:454] pool4 <- conv4_3_relu4_3_0_split_1
I1007 03:19:22.347120 18857 net.cpp:411] pool4 -> pool4
I1007 03:19:22.347347 18857 net.cpp:150] Setting up pool4
I1007 03:19:22.347357 18857 net.cpp:157] Top shape: 2 512 28 28 (802816)
I1007 03:19:22.347359 18857 net.cpp:165] Memory required for data: 979925560
I1007 03:19:22.347362 18857 layer_factory.hpp:76] Creating layer conv5_1
I1007 03:19:22.347370 18857 net.cpp:106] Creating Layer conv5_1
I1007 03:19:22.347373 18857 net.cpp:454] conv5_1 <- pool4
I1007 03:19:22.347379 18857 net.cpp:411] conv5_1 -> conv5_1
I1007 03:19:22.353379 18857 net.cpp:150] Setting up conv5_1
I1007 03:19:22.353394 18857 net.cpp:157] Top shape: 2 512 28 28 (802816)
I1007 03:19:22.353407 18857 net.cpp:165] Memory required for data: 983136824
I1007 03:19:22.353413 18857 layer_factory.hpp:76] Creating layer relu5_1
I1007 03:19:22.353421 18857 net.cpp:106] Creating Layer relu5_1
I1007 03:19:22.353425 18857 net.cpp:454] relu5_1 <- conv5_1
I1007 03:19:22.353431 18857 net.cpp:397] relu5_1 -> conv5_1 (in-place)
I1007 03:19:22.353636 18857 net.cpp:150] Setting up relu5_1
I1007 03:19:22.353644 18857 net.cpp:157] Top shape: 2 512 28 28 (802816)
I1007 03:19:22.353647 18857 net.cpp:165] Memory required for data: 986348088
I1007 03:19:22.353651 18857 layer_factory.hpp:76] Creating layer conv5_2
I1007 03:19:22.353657 18857 net.cpp:106] Creating Layer conv5_2
I1007 03:19:22.353662 18857 net.cpp:454] conv5_2 <- conv5_1
I1007 03:19:22.353669 18857 net.cpp:411] conv5_2 -> conv5_2
I1007 03:19:22.359729 18857 net.cpp:150] Setting up conv5_2
I1007 03:19:22.359757 18857 net.cpp:157] Top shape: 2 512 28 28 (802816)
I1007 03:19:22.359760 18857 net.cpp:165] Memory required for data: 989559352
I1007 03:19:22.359766 18857 layer_factory.hpp:76] Creating layer relu5_2
I1007 03:19:22.359772 18857 net.cpp:106] Creating Layer relu5_2
I1007 03:19:22.359776 18857 net.cpp:454] relu5_2 <- conv5_2
I1007 03:19:22.359783 18857 net.cpp:397] relu5_2 -> conv5_2 (in-place)
I1007 03:19:22.360183 18857 net.cpp:150] Setting up relu5_2
I1007 03:19:22.360206 18857 net.cpp:157] Top shape: 2 512 28 28 (802816)
I1007 03:19:22.360220 18857 net.cpp:165] Memory required for data: 992770616
I1007 03:19:22.360224 18857 layer_factory.hpp:76] Creating layer conv5_3
I1007 03:19:22.360232 18857 net.cpp:106] Creating Layer conv5_3
I1007 03:19:22.360247 18857 net.cpp:454] conv5_3 <- conv5_2
I1007 03:19:22.360252 18857 net.cpp:411] conv5_3 -> conv5_3
I1007 03:19:22.366231 18857 net.cpp:150] Setting up conv5_3
I1007 03:19:22.366256 18857 net.cpp:157] Top shape: 2 512 28 28 (802816)
I1007 03:19:22.366260 18857 net.cpp:165] Memory required for data: 995981880
I1007 03:19:22.366266 18857 layer_factory.hpp:76] Creating layer relu5_3
I1007 03:19:22.366271 18857 net.cpp:106] Creating Layer relu5_3
I1007 03:19:22.366274 18857 net.cpp:454] relu5_3 <- conv5_3
I1007 03:19:22.366281 18857 net.cpp:397] relu5_3 -> conv5_3 (in-place)
I1007 03:19:22.366519 18857 net.cpp:150] Setting up relu5_3
I1007 03:19:22.366529 18857 net.cpp:157] Top shape: 2 512 28 28 (802816)
I1007 03:19:22.366533 18857 net.cpp:165] Memory required for data: 999193144
I1007 03:19:22.366539 18857 layer_factory.hpp:76] Creating layer conv5_3_relu5_3_0_split
I1007 03:19:22.366549 18857 net.cpp:106] Creating Layer conv5_3_relu5_3_0_split
I1007 03:19:22.366552 18857 net.cpp:454] conv5_3_relu5_3_0_split <- conv5_3
I1007 03:19:22.366557 18857 net.cpp:411] conv5_3_relu5_3_0_split -> conv5_3_relu5_3_0_split_0
I1007 03:19:22.366564 18857 net.cpp:411] conv5_3_relu5_3_0_split -> conv5_3_relu5_3_0_split_1
I1007 03:19:22.366569 18857 net.cpp:411] conv5_3_relu5_3_0_split -> conv5_3_relu5_3_0_split_2
I1007 03:19:22.366647 18857 net.cpp:150] Setting up conv5_3_relu5_3_0_split
I1007 03:19:22.366654 18857 net.cpp:157] Top shape: 2 512 28 28 (802816)
I1007 03:19:22.366657 18857 net.cpp:157] Top shape: 2 512 28 28 (802816)
I1007 03:19:22.366660 18857 net.cpp:157] Top shape: 2 512 28 28 (802816)
I1007 03:19:22.366663 18857 net.cpp:165] Memory required for data: 1008826936
I1007 03:19:22.366665 18857 layer_factory.hpp:76] Creating layer LFCN_2_3x5
I1007 03:19:22.366674 18857 net.cpp:106] Creating Layer LFCN_2_3x5
I1007 03:19:22.366677 18857 net.cpp:454] LFCN_2_3x5 <- conv5_3_relu5_3_0_split_0
I1007 03:19:22.366684 18857 net.cpp:411] LFCN_2_3x5 -> LFCN_2_3x5
I1007 03:19:22.369213 18857 net.cpp:150] Setting up LFCN_2_3x5
I1007 03:19:22.369238 18857 net.cpp:157] Top shape: 2 6 28 28 (9408)
I1007 03:19:22.369242 18857 net.cpp:165] Memory required for data: 1008864568
I1007 03:19:22.369253 18857 layer_factory.hpp:76] Creating layer LFCN_2_3x5_LFCN_2_3x5_0_split
I1007 03:19:22.369261 18857 net.cpp:106] Creating Layer LFCN_2_3x5_LFCN_2_3x5_0_split
I1007 03:19:22.369263 18857 net.cpp:454] LFCN_2_3x5_LFCN_2_3x5_0_split <- LFCN_2_3x5
I1007 03:19:22.369280 18857 net.cpp:411] LFCN_2_3x5_LFCN_2_3x5_0_split -> LFCN_2_3x5_LFCN_2_3x5_0_split_0
I1007 03:19:22.369287 18857 net.cpp:411] LFCN_2_3x5_LFCN_2_3x5_0_split -> LFCN_2_3x5_LFCN_2_3x5_0_split_1
I1007 03:19:22.369348 18857 net.cpp:150] Setting up LFCN_2_3x5_LFCN_2_3x5_0_split
I1007 03:19:22.369355 18857 net.cpp:157] Top shape: 2 6 28 28 (9408)
I1007 03:19:22.369359 18857 net.cpp:157] Top shape: 2 6 28 28 (9408)
I1007 03:19:22.369372 18857 net.cpp:165] Memory required for data: 1008939832
I1007 03:19:22.369374 18857 layer_factory.hpp:76] Creating layer detection_loss_2_3x5
I1007 03:19:22.369382 18857 net.cpp:106] Creating Layer detection_loss_2_3x5
I1007 03:19:22.369385 18857 net.cpp:454] detection_loss_2_3x5 <- LFCN_2_3x5_LFCN_2_3x5_0_split_0
I1007 03:19:22.369390 18857 net.cpp:454] detection_loss_2_3x5 <- label_2_3x5_data_3_split_0
I1007 03:19:22.369395 18857 net.cpp:411] detection_loss_2_3x5 -> loss_2_3x5
I1007 03:19:22.369411 18857 layer_factory.hpp:76] Creating layer detection_loss_2_3x5
I1007 03:19:22.369854 18857 net.cpp:150] Setting up detection_loss_2_3x5
I1007 03:19:22.369864 18857 net.cpp:157] Top shape: 1 1 1 2 (2)
I1007 03:19:22.369879 18857 net.cpp:160]     with loss weight 1
I1007 03:19:22.369902 18857 net.cpp:165] Memory required for data: 1008939840
I1007 03:19:22.369905 18857 layer_factory.hpp:76] Creating layer detection_accuracy_2_3x5
I1007 03:19:22.369913 18857 net.cpp:106] Creating Layer detection_accuracy_2_3x5
I1007 03:19:22.369916 18857 net.cpp:454] detection_accuracy_2_3x5 <- LFCN_2_3x5_LFCN_2_3x5_0_split_1
I1007 03:19:22.369921 18857 net.cpp:454] detection_accuracy_2_3x5 <- label_2_3x5_data_3_split_1
I1007 03:19:22.369926 18857 net.cpp:411] detection_accuracy_2_3x5 -> accuracy_2_3x5
I1007 03:19:22.369932 18857 net.cpp:411] detection_accuracy_2_3x5 -> boxiou_2_3x5
I1007 03:19:22.370002 18857 net.cpp:150] Setting up detection_accuracy_2_3x5
I1007 03:19:22.370007 18857 net.cpp:157] Top shape: 1 1 1 2 (2)
I1007 03:19:22.370012 18857 net.cpp:157] Top shape: 1 1 1 1 (1)
I1007 03:19:22.370013 18857 net.cpp:165] Memory required for data: 1008939852
I1007 03:19:22.370017 18857 layer_factory.hpp:76] Creating layer LFCN_2_5x7
I1007 03:19:22.370024 18857 net.cpp:106] Creating Layer LFCN_2_5x7
I1007 03:19:22.370028 18857 net.cpp:454] LFCN_2_5x7 <- conv5_3_relu5_3_0_split_1
I1007 03:19:22.370034 18857 net.cpp:411] LFCN_2_5x7 -> LFCN_2_5x7
I1007 03:19:22.375097 18857 net.cpp:150] Setting up LFCN_2_5x7
I1007 03:19:22.375123 18857 net.cpp:157] Top shape: 2 6 28 28 (9408)
I1007 03:19:22.375125 18857 net.cpp:165] Memory required for data: 1008977484
I1007 03:19:22.375131 18857 layer_factory.hpp:76] Creating layer LFCN_2_5x7_LFCN_2_5x7_0_split
I1007 03:19:22.375140 18857 net.cpp:106] Creating Layer LFCN_2_5x7_LFCN_2_5x7_0_split
I1007 03:19:22.375144 18857 net.cpp:454] LFCN_2_5x7_LFCN_2_5x7_0_split <- LFCN_2_5x7
I1007 03:19:22.375149 18857 net.cpp:411] LFCN_2_5x7_LFCN_2_5x7_0_split -> LFCN_2_5x7_LFCN_2_5x7_0_split_0
I1007 03:19:22.375156 18857 net.cpp:411] LFCN_2_5x7_LFCN_2_5x7_0_split -> LFCN_2_5x7_LFCN_2_5x7_0_split_1
I1007 03:19:22.375208 18857 net.cpp:150] Setting up LFCN_2_5x7_LFCN_2_5x7_0_split
I1007 03:19:22.375213 18857 net.cpp:157] Top shape: 2 6 28 28 (9408)
I1007 03:19:22.375216 18857 net.cpp:157] Top shape: 2 6 28 28 (9408)
I1007 03:19:22.375219 18857 net.cpp:165] Memory required for data: 1009052748
I1007 03:19:22.375221 18857 layer_factory.hpp:76] Creating layer detection_loss_2_5x7
I1007 03:19:22.375227 18857 net.cpp:106] Creating Layer detection_loss_2_5x7
I1007 03:19:22.375231 18857 net.cpp:454] detection_loss_2_5x7 <- LFCN_2_5x7_LFCN_2_5x7_0_split_0
I1007 03:19:22.375234 18857 net.cpp:454] detection_loss_2_5x7 <- label_2_5x7_data_4_split_0
I1007 03:19:22.375241 18857 net.cpp:411] detection_loss_2_5x7 -> loss_2_5x7
I1007 03:19:22.375248 18857 layer_factory.hpp:76] Creating layer detection_loss_2_5x7
I1007 03:19:22.375865 18857 net.cpp:150] Setting up detection_loss_2_5x7
I1007 03:19:22.375877 18857 net.cpp:157] Top shape: 1 1 1 2 (2)
I1007 03:19:22.375891 18857 net.cpp:160]     with loss weight 1
I1007 03:19:22.375900 18857 net.cpp:165] Memory required for data: 1009052756
I1007 03:19:22.375902 18857 layer_factory.hpp:76] Creating layer detection_accuracy_2_5x7
I1007 03:19:22.375908 18857 net.cpp:106] Creating Layer detection_accuracy_2_5x7
I1007 03:19:22.375911 18857 net.cpp:454] detection_accuracy_2_5x7 <- LFCN_2_5x7_LFCN_2_5x7_0_split_1
I1007 03:19:22.375916 18857 net.cpp:454] detection_accuracy_2_5x7 <- label_2_5x7_data_4_split_1
I1007 03:19:22.375921 18857 net.cpp:411] detection_accuracy_2_5x7 -> accuracy_2_5x7
I1007 03:19:22.375928 18857 net.cpp:411] detection_accuracy_2_5x7 -> boxiou_2_5x7
I1007 03:19:22.375993 18857 net.cpp:150] Setting up detection_accuracy_2_5x7
I1007 03:19:22.375998 18857 net.cpp:157] Top shape: 1 1 1 2 (2)
I1007 03:19:22.376001 18857 net.cpp:157] Top shape: 1 1 1 1 (1)
I1007 03:19:22.376003 18857 net.cpp:165] Memory required for data: 1009052768
I1007 03:19:22.376005 18857 layer_factory.hpp:76] Creating layer pool5
I1007 03:19:22.376013 18857 net.cpp:106] Creating Layer pool5
I1007 03:19:22.376027 18857 net.cpp:454] pool5 <- conv5_3_relu5_3_0_split_2
I1007 03:19:22.376032 18857 net.cpp:411] pool5 -> pool5
I1007 03:19:22.376266 18857 net.cpp:150] Setting up pool5
I1007 03:19:22.376276 18857 net.cpp:157] Top shape: 2 512 14 14 (200704)
I1007 03:19:22.376279 18857 net.cpp:165] Memory required for data: 1009855584
I1007 03:19:22.376282 18857 layer_factory.hpp:76] Creating layer conv6_1
I1007 03:19:22.376291 18857 net.cpp:106] Creating Layer conv6_1
I1007 03:19:22.376296 18857 net.cpp:454] conv6_1 <- pool5
I1007 03:19:22.376302 18857 net.cpp:411] conv6_1 -> conv6_1
I1007 03:19:22.449206 18857 net.cpp:150] Setting up conv6_1
I1007 03:19:22.449246 18857 net.cpp:157] Top shape: 2 512 14 14 (200704)
I1007 03:19:22.449249 18857 net.cpp:165] Memory required for data: 1010658400
I1007 03:19:22.449257 18857 layer_factory.hpp:76] Creating layer relu6_1
I1007 03:19:22.449270 18857 net.cpp:106] Creating Layer relu6_1
I1007 03:19:22.449276 18857 net.cpp:454] relu6_1 <- conv6_1
I1007 03:19:22.449295 18857 net.cpp:397] relu6_1 -> conv6_1 (in-place)
I1007 03:19:22.449726 18857 net.cpp:150] Setting up relu6_1
I1007 03:19:22.449740 18857 net.cpp:157] Top shape: 2 512 14 14 (200704)
I1007 03:19:22.449743 18857 net.cpp:165] Memory required for data: 1011461216
I1007 03:19:22.449748 18857 layer_factory.hpp:76] Creating layer conv6_1_relu6_1_0_split
I1007 03:19:22.449753 18857 net.cpp:106] Creating Layer conv6_1_relu6_1_0_split
I1007 03:19:22.449756 18857 net.cpp:454] conv6_1_relu6_1_0_split <- conv6_1
I1007 03:19:22.449762 18857 net.cpp:411] conv6_1_relu6_1_0_split -> conv6_1_relu6_1_0_split_0
I1007 03:19:22.449769 18857 net.cpp:411] conv6_1_relu6_1_0_split -> conv6_1_relu6_1_0_split_1
I1007 03:19:22.449776 18857 net.cpp:411] conv6_1_relu6_1_0_split -> conv6_1_relu6_1_0_split_2
I1007 03:19:22.449865 18857 net.cpp:150] Setting up conv6_1_relu6_1_0_split
I1007 03:19:22.449877 18857 net.cpp:157] Top shape: 2 512 14 14 (200704)
I1007 03:19:22.449880 18857 net.cpp:157] Top shape: 2 512 14 14 (200704)
I1007 03:19:22.449883 18857 net.cpp:157] Top shape: 2 512 14 14 (200704)
I1007 03:19:22.449885 18857 net.cpp:165] Memory required for data: 1013869664
I1007 03:19:22.449888 18857 layer_factory.hpp:76] Creating layer LFCN_3_3x5
I1007 03:19:22.449899 18857 net.cpp:106] Creating Layer LFCN_3_3x5
I1007 03:19:22.449903 18857 net.cpp:454] LFCN_3_3x5 <- conv6_1_relu6_1_0_split_0
I1007 03:19:22.449909 18857 net.cpp:411] LFCN_3_3x5 -> LFCN_3_3x5
I1007 03:19:22.453052 18857 net.cpp:150] Setting up LFCN_3_3x5
I1007 03:19:22.453066 18857 net.cpp:157] Top shape: 2 6 14 14 (2352)
I1007 03:19:22.453081 18857 net.cpp:165] Memory required for data: 1013879072
I1007 03:19:22.453090 18857 layer_factory.hpp:76] Creating layer LFCN_3_3x5_LFCN_3_3x5_0_split
I1007 03:19:22.453109 18857 net.cpp:106] Creating Layer LFCN_3_3x5_LFCN_3_3x5_0_split
I1007 03:19:22.453125 18857 net.cpp:454] LFCN_3_3x5_LFCN_3_3x5_0_split <- LFCN_3_3x5
I1007 03:19:22.453130 18857 net.cpp:411] LFCN_3_3x5_LFCN_3_3x5_0_split -> LFCN_3_3x5_LFCN_3_3x5_0_split_0
I1007 03:19:22.453137 18857 net.cpp:411] LFCN_3_3x5_LFCN_3_3x5_0_split -> LFCN_3_3x5_LFCN_3_3x5_0_split_1
I1007 03:19:22.453197 18857 net.cpp:150] Setting up LFCN_3_3x5_LFCN_3_3x5_0_split
I1007 03:19:22.453207 18857 net.cpp:157] Top shape: 2 6 14 14 (2352)
I1007 03:19:22.453212 18857 net.cpp:157] Top shape: 2 6 14 14 (2352)
I1007 03:19:22.453213 18857 net.cpp:165] Memory required for data: 1013897888
I1007 03:19:22.453217 18857 layer_factory.hpp:76] Creating layer detection_loss_3_3x5
I1007 03:19:22.453223 18857 net.cpp:106] Creating Layer detection_loss_3_3x5
I1007 03:19:22.453227 18857 net.cpp:454] detection_loss_3_3x5 <- LFCN_3_3x5_LFCN_3_3x5_0_split_0
I1007 03:19:22.453232 18857 net.cpp:454] detection_loss_3_3x5 <- label_3_3x5_data_5_split_0
I1007 03:19:22.453238 18857 net.cpp:411] detection_loss_3_3x5 -> loss_3_3x5
I1007 03:19:22.453246 18857 layer_factory.hpp:76] Creating layer detection_loss_3_3x5
I1007 03:19:22.453891 18857 net.cpp:150] Setting up detection_loss_3_3x5
I1007 03:19:22.453903 18857 net.cpp:157] Top shape: 1 1 1 2 (2)
I1007 03:19:22.453917 18857 net.cpp:160]     with loss weight 1
I1007 03:19:22.453929 18857 net.cpp:165] Memory required for data: 1013897896
I1007 03:19:22.453933 18857 layer_factory.hpp:76] Creating layer detection_accuracy_3_3x5
I1007 03:19:22.453941 18857 net.cpp:106] Creating Layer detection_accuracy_3_3x5
I1007 03:19:22.453944 18857 net.cpp:454] detection_accuracy_3_3x5 <- LFCN_3_3x5_LFCN_3_3x5_0_split_1
I1007 03:19:22.453949 18857 net.cpp:454] detection_accuracy_3_3x5 <- label_3_3x5_data_5_split_1
I1007 03:19:22.453954 18857 net.cpp:411] detection_accuracy_3_3x5 -> accuracy_3_3x5
I1007 03:19:22.453961 18857 net.cpp:411] detection_accuracy_3_3x5 -> boxiou_3_3x5
I1007 03:19:22.454030 18857 net.cpp:150] Setting up detection_accuracy_3_3x5
I1007 03:19:22.454037 18857 net.cpp:157] Top shape: 1 1 1 2 (2)
I1007 03:19:22.454041 18857 net.cpp:157] Top shape: 1 1 1 1 (1)
I1007 03:19:22.454043 18857 net.cpp:165] Memory required for data: 1013897908
I1007 03:19:22.454046 18857 layer_factory.hpp:76] Creating layer LFCN_3_5x7
I1007 03:19:22.454054 18857 net.cpp:106] Creating Layer LFCN_3_5x7
I1007 03:19:22.454058 18857 net.cpp:454] LFCN_3_5x7 <- conv6_1_relu6_1_0_split_1
I1007 03:19:22.454066 18857 net.cpp:411] LFCN_3_5x7 -> LFCN_3_5x7
I1007 03:19:22.458500 18857 net.cpp:150] Setting up LFCN_3_5x7
I1007 03:19:22.458513 18857 net.cpp:157] Top shape: 2 6 14 14 (2352)
I1007 03:19:22.458528 18857 net.cpp:165] Memory required for data: 1013907316
I1007 03:19:22.458534 18857 layer_factory.hpp:76] Creating layer LFCN_3_5x7_LFCN_3_5x7_0_split
I1007 03:19:22.458540 18857 net.cpp:106] Creating Layer LFCN_3_5x7_LFCN_3_5x7_0_split
I1007 03:19:22.458544 18857 net.cpp:454] LFCN_3_5x7_LFCN_3_5x7_0_split <- LFCN_3_5x7
I1007 03:19:22.458549 18857 net.cpp:411] LFCN_3_5x7_LFCN_3_5x7_0_split -> LFCN_3_5x7_LFCN_3_5x7_0_split_0
I1007 03:19:22.458555 18857 net.cpp:411] LFCN_3_5x7_LFCN_3_5x7_0_split -> LFCN_3_5x7_LFCN_3_5x7_0_split_1
I1007 03:19:22.458631 18857 net.cpp:150] Setting up LFCN_3_5x7_LFCN_3_5x7_0_split
I1007 03:19:22.458639 18857 net.cpp:157] Top shape: 2 6 14 14 (2352)
I1007 03:19:22.458643 18857 net.cpp:157] Top shape: 2 6 14 14 (2352)
I1007 03:19:22.458645 18857 net.cpp:165] Memory required for data: 1013926132
I1007 03:19:22.458648 18857 layer_factory.hpp:76] Creating layer detection_loss_3_5x7
I1007 03:19:22.458655 18857 net.cpp:106] Creating Layer detection_loss_3_5x7
I1007 03:19:22.458658 18857 net.cpp:454] detection_loss_3_5x7 <- LFCN_3_5x7_LFCN_3_5x7_0_split_0
I1007 03:19:22.458663 18857 net.cpp:454] detection_loss_3_5x7 <- label_3_5x7_data_6_split_0
I1007 03:19:22.458672 18857 net.cpp:411] detection_loss_3_5x7 -> loss_3_5x7
I1007 03:19:22.458683 18857 layer_factory.hpp:76] Creating layer detection_loss_3_5x7
I1007 03:19:22.459130 18857 net.cpp:150] Setting up detection_loss_3_5x7
I1007 03:19:22.459141 18857 net.cpp:157] Top shape: 1 1 1 2 (2)
I1007 03:19:22.459154 18857 net.cpp:160]     with loss weight 1
I1007 03:19:22.459161 18857 net.cpp:165] Memory required for data: 1013926140
I1007 03:19:22.459163 18857 layer_factory.hpp:76] Creating layer detection_accuracy_3_5x7
I1007 03:19:22.459172 18857 net.cpp:106] Creating Layer detection_accuracy_3_5x7
I1007 03:19:22.459175 18857 net.cpp:454] detection_accuracy_3_5x7 <- LFCN_3_5x7_LFCN_3_5x7_0_split_1
I1007 03:19:22.459179 18857 net.cpp:454] detection_accuracy_3_5x7 <- label_3_5x7_data_6_split_1
I1007 03:19:22.459184 18857 net.cpp:411] detection_accuracy_3_5x7 -> accuracy_3_5x7
I1007 03:19:22.459190 18857 net.cpp:411] detection_accuracy_3_5x7 -> boxiou_3_5x7
I1007 03:19:22.459254 18857 net.cpp:150] Setting up detection_accuracy_3_5x7
I1007 03:19:22.459259 18857 net.cpp:157] Top shape: 1 1 1 2 (2)
I1007 03:19:22.459262 18857 net.cpp:157] Top shape: 1 1 1 1 (1)
I1007 03:19:22.459264 18857 net.cpp:165] Memory required for data: 1013926152
I1007 03:19:22.459267 18857 layer_factory.hpp:76] Creating layer pool6
I1007 03:19:22.459275 18857 net.cpp:106] Creating Layer pool6
I1007 03:19:22.459277 18857 net.cpp:454] pool6 <- conv6_1_relu6_1_0_split_2
I1007 03:19:22.459282 18857 net.cpp:411] pool6 -> pool6
I1007 03:19:22.459720 18857 net.cpp:150] Setting up pool6
I1007 03:19:22.459733 18857 net.cpp:157] Top shape: 2 512 7 7 (50176)
I1007 03:19:22.459735 18857 net.cpp:165] Memory required for data: 1014126856
I1007 03:19:22.459738 18857 layer_factory.hpp:76] Creating layer LFCN_4_3x5
I1007 03:19:22.459748 18857 net.cpp:106] Creating Layer LFCN_4_3x5
I1007 03:19:22.459763 18857 net.cpp:454] LFCN_4_3x5 <- pool6
I1007 03:19:22.459769 18857 net.cpp:411] LFCN_4_3x5 -> LFCN_4_3x5
I1007 03:19:22.462642 18857 net.cpp:150] Setting up LFCN_4_3x5
I1007 03:19:22.462656 18857 net.cpp:157] Top shape: 2 6 7 7 (588)
I1007 03:19:22.462658 18857 net.cpp:165] Memory required for data: 1014129208
I1007 03:19:22.462664 18857 layer_factory.hpp:76] Creating layer LFCN_4_3x5_LFCN_4_3x5_0_split
I1007 03:19:22.462669 18857 net.cpp:106] Creating Layer LFCN_4_3x5_LFCN_4_3x5_0_split
I1007 03:19:22.462673 18857 net.cpp:454] LFCN_4_3x5_LFCN_4_3x5_0_split <- LFCN_4_3x5
I1007 03:19:22.462679 18857 net.cpp:411] LFCN_4_3x5_LFCN_4_3x5_0_split -> LFCN_4_3x5_LFCN_4_3x5_0_split_0
I1007 03:19:22.462697 18857 net.cpp:411] LFCN_4_3x5_LFCN_4_3x5_0_split -> LFCN_4_3x5_LFCN_4_3x5_0_split_1
I1007 03:19:22.462769 18857 net.cpp:150] Setting up LFCN_4_3x5_LFCN_4_3x5_0_split
I1007 03:19:22.462776 18857 net.cpp:157] Top shape: 2 6 7 7 (588)
I1007 03:19:22.462780 18857 net.cpp:157] Top shape: 2 6 7 7 (588)
I1007 03:19:22.462782 18857 net.cpp:165] Memory required for data: 1014133912
I1007 03:19:22.462785 18857 layer_factory.hpp:76] Creating layer detection_loss_4_3x5
I1007 03:19:22.462790 18857 net.cpp:106] Creating Layer detection_loss_4_3x5
I1007 03:19:22.462793 18857 net.cpp:454] detection_loss_4_3x5 <- LFCN_4_3x5_LFCN_4_3x5_0_split_0
I1007 03:19:22.462797 18857 net.cpp:454] detection_loss_4_3x5 <- label_4_3x5_data_7_split_0
I1007 03:19:22.462805 18857 net.cpp:411] detection_loss_4_3x5 -> loss_4_3x5
I1007 03:19:22.462811 18857 layer_factory.hpp:76] Creating layer detection_loss_4_3x5
I1007 03:19:22.463256 18857 net.cpp:150] Setting up detection_loss_4_3x5
I1007 03:19:22.463266 18857 net.cpp:157] Top shape: 1 1 1 2 (2)
I1007 03:19:22.463269 18857 net.cpp:160]     with loss weight 1
I1007 03:19:22.463274 18857 net.cpp:165] Memory required for data: 1014133920
I1007 03:19:22.463277 18857 layer_factory.hpp:76] Creating layer detection_accuracy_4_3x5
I1007 03:19:22.463284 18857 net.cpp:106] Creating Layer detection_accuracy_4_3x5
I1007 03:19:22.463286 18857 net.cpp:454] detection_accuracy_4_3x5 <- LFCN_4_3x5_LFCN_4_3x5_0_split_1
I1007 03:19:22.463304 18857 net.cpp:454] detection_accuracy_4_3x5 <- label_4_3x5_data_7_split_1
I1007 03:19:22.463310 18857 net.cpp:411] detection_accuracy_4_3x5 -> accuracy_4_3x5
I1007 03:19:22.463315 18857 net.cpp:411] detection_accuracy_4_3x5 -> boxiou_4_3x5
I1007 03:19:22.463377 18857 net.cpp:150] Setting up detection_accuracy_4_3x5
I1007 03:19:22.463385 18857 net.cpp:157] Top shape: 1 1 1 2 (2)
I1007 03:19:22.463389 18857 net.cpp:157] Top shape: 1 1 1 1 (1)
I1007 03:19:22.463392 18857 net.cpp:165] Memory required for data: 1014133932
I1007 03:19:22.463394 18857 net.cpp:228] detection_accuracy_4_3x5 does not need backward computation.
I1007 03:19:22.463397 18857 net.cpp:226] detection_loss_4_3x5 needs backward computation.
I1007 03:19:22.463400 18857 net.cpp:226] LFCN_4_3x5_LFCN_4_3x5_0_split needs backward computation.
I1007 03:19:22.463403 18857 net.cpp:226] LFCN_4_3x5 needs backward computation.
…
