…
    downsample_rate: 32
    downsample_rate: 32
    downsample_rate: 64
    coord_num: 4
    field_h: 40
    field_h: 56
    field_h: 80
    field_h: 112
    field_h: 160
    field_h: 224
    field_h: 320
    field_w: 20
    field_w: 28
    field_w: 40
    field_w: 56
    field_w: 80
    field_w: 112
    field_w: 160
    fg_threshold: 0.5
    resize_width: 640
    resize_height: 480
    crop_width: 448
    crop_height: 448
    do_multiple_scale: true
    min_scale: 30
    max_scale: 240
    min_gt_height: 45
    shuffle: true
    output_gt_boxes: true
  }
}
layer {
  name: "conv1_1"
  type: "Convolution"
  bottom: "data"
  top: "conv1_1"
  param {
    lr_mult: 0
    decay_mult: 0
  }
  param {
    lr_mult: 0
    decay_mult: 0
  }
  convolution_param {
    num_output: 64
    pad: 1
    kernel_size: 3
  }
}
layer {
  name: "relu1_1"
  type: "ReLU"
  bottom: "conv1_1"
  top: "conv1_1"
}
layer {
  name: "conv1_2"
  type: "Convolution"
  bottom: "conv1_1"
  top: "conv1_2"
  param {
    lr_mult: 0
    decay_mult: 0
  }
  param {
    lr_mult: 0
    decay_mult: 0
  }
  convolution_param {
    num_output: 64
    pad: 1
    kernel_size: 3
  }
}
layer {
  name: "relu1_2"
  type: "ReLU"
  bottom: "conv1_2"
  top: "conv1_2"
}
layer {
  name: "pool1"
  type: "Pooling"
  bottom: "conv1_2"
  top: "pool1"
  pooling_param {
    pool: MAX
    kernel_size: 2
    stride: 2
  }
}
layer {
  name: "conv2_1"
  type: "Convolution"
  bottom: "pool1"
  top: "conv2_1"
  param {
    lr_mult: 0
    decay_mult: 0
  }
  param {
    lr_mult: 0
    decay_mult: 0
  }
  convolution_param {
    num_output: 128
    pad: 1
    kernel_size: 3
  }
}
layer {
  name: "relu2_1"
  type: "ReLU"
  bottom: "conv2_1"
  top: "conv2_1"
}
layer {
  name: "conv2_2"
  type: "Convolution"
  bottom: "conv2_1"
  top: "conv2_2"
  param {
    lr_mult: 0
    decay_mult: 0
  }
  param {
    lr_mult: 0
    decay_mult: 0
  }
  convolution_param {
    num_output: 128
    pad: 1
    kernel_size: 3
  }
}
layer {
  name: "relu2_2"
  type: "ReLU"
  bottom: "conv2_2"
  top: "conv2_2"
}
layer {
  name: "pool2"
  type: "Pooling"
  bottom: "conv2_2"
  top: "pool2"
  pooling_param {
    pool: MAX
    kernel_size: 2
    stride: 2
  }
}
layer {
  name: "conv3_1"
  type: "Convolution"
  bottom: "pool2"
  top: "conv3_1"
  convolution_param {
    num_output: 256
    pad: 1
    kernel_size: 3
  }
}
layer {
  name: "relu3_1"
  type: "ReLU"
  bottom: "conv3_1"
  top: "conv3_1"
}
layer {
  name: "conv3_2"
  type: "Convolution"
  bottom: "conv3_1"
  top: "conv3_2"
  convolution_param {
    num_output: 256
    pad: 1
    kernel_size: 3
  }
}
layer {
  name: "relu3_2"
  type: "ReLU"
  bottom: "conv3_2"
  top: "conv3_2"
}
layer {
  name: "conv3_3"
  type: "Convolution"
  bottom: "conv3_2"
  top: "conv3_3"
  convolution_param {
    num_output: 256
    pad: 1
    kernel_size: 3
  }
}
layer {
  name: "relu3_3"
  type: "ReLU"
  bottom: "conv3_3"
  top: "conv3_3"
}
layer {
  name: "pool3"
  type: "Pooling"
  bottom: "conv3_3"
  top: "pool3"
  pooling_param {
    pool: MAX
    kernel_size: 2
    stride: 2
  }
}
layer {
  name: "conv4_1"
  type: "Convolution"
  bottom: "pool3"
  top: "conv4_1"
  convolution_param {
    num_output: 512
    pad: 1
    kernel_size: 3
  }
}
layer {
  name: "relu4_1"
  type: "ReLU"
  bottom: "conv4_1"
  top: "conv4_1"
}
layer {
  name: "conv4_2"
  type: "Convolution"
  bottom: "conv4_1"
  top: "conv4_2"
  convolution_param {
    num_output: 512
    pad: 1
    kernel_size: 3
  }
}
layer {
  name: "relu4_2"
  type: "ReLU"
  bottom: "conv4_2"
  top: "conv4_2"
}
layer {
  name: "conv4_3"
  type: "Convolution"
  bottom: "conv4_2"
  top: "conv4_3"
  convolution_param {
    num_output: 512
    pad: 1
    kernel_size: 3
  }
}
layer {
  name: "relu4_3"
  type: "ReLU"
  bottom: "conv4_3"
  top: "conv4_3"
}
layer {
  name: "loss1_conv1"
  type: "Convolution"
  bottom: "conv4_3"
  top: "loss1_conv1"
  param {
    lr_mult: 1
    decay_mult: 1
  }
  param {
    lr_mult: 2
    decay_mult: 0
  }
  convolution_param {
    num_output: 512
    pad: 1
    kernel_size: 3
    weight_filler {
      type: "gaussian"
      std: 0.01
    }
    bias_filler {
      type: "constant"
    }
  }
}
layer {
  name: "loss_relu1"
  type: "ReLU"
  bottom: "loss1_conv1"
  top: "loss1_conv1"
}
layer {
  name: "LFCN_1_3x5"
  type: "Convolution"
  bottom: "loss1_conv1"
  top: "LFCN_1_3x5"
  param {
    lr_mult: 1
    decay_mult: 1
  }
  param {
    lr_mult: 2
    decay_mult: 0
  }
  convolution_param {
    num_output: 6
    weight_filler {
      type: "gaussian"
      std: 0.001
    }
    bias_filler {
      type: "constant"
    }
    pad_h: 2
    pad_w: 1
    kernel_h: 5
    kernel_w: 3
  }
}
layer {
  name: "detection_loss_1_3x5"
  type: "Detection"
  bottom: "LFCN_1_3x5"
  bottom: "label_1_3x5"
  top: "loss_1_3x5"
  loss_weight: 0.9
  detection_param {
    cls_num: 2
    coord_num: 4
    lambda: 1
    field_h: 40
    field_w: 20
    downsample_rate: 8
    bb_smooth: true
    field_whr: 2
    field_xyr: 2
    bg_threshold: 0.2
    bg_multiple: 2
    sample_mode: "bootstrap"
    pos_neg_weighted: true
  }
}
layer {
  name: "detection_accuracy_1_3x5"
  type: "DetectionAccuracy"
  bottom: "LFCN_1_3x5"
  bottom: "label_1_3x5"
  top: "accuracy_1_3x5"
  top: "boxiou_1_3x5"
  detection_accuracy_param {
    cls_num: 2
    coord_num: 4
    field_h: 40
    field_w: 20
    downsample_rate: 8
    field_whr: 2
    field_xyr: 2
  }
}
layer {
  name: "LFCN_1_5x7"
  type: "Convolution"
  bottom: "loss1_conv1"
  top: "LFCN_1_5x7"
  param {
    lr_mult: 1
    decay_mult: 1
  }
  param {
    lr_mult: 2
    decay_mult: 0
  }
  convolution_param {
    num_output: 6
    weight_filler {
      type: "gaussian"
      std: 0.001
    }
    bias_filler {
      type: "constant"
    }
    pad_h: 3
    pad_w: 2
    kernel_h: 7
    kernel_w: 5
  }
}
layer {
  name: "detection_loss_1_5x7"
  type: "Detection"
  bottom: "LFCN_1_5x7"
  bottom: "label_1_5x7"
  top: "loss_1_5x7"
  loss_weight: 0.9
  detection_param {
    cls_num: 2
    coord_num: 4
    lambda: 1
    field_h: 56
    field_w: 28
    downsample_rate: 8
    bb_smooth: true
    field_whr: 2
    field_xyr: 2
    bg_threshold: 0.2
    bg_multiple: 2
    sample_mode: "bootstrap"
    pos_neg_weighted: true
  }
}
layer {
  name: "detection_accuracy_1_5x7"
  type: "DetectionAccuracy"
  bottom: "LFCN_1_5x7"
  bottom: "label_1_5x7"
  top: "accuracy_1_5x7"
  top: "boxiou_1_5x7"
  detection_accuracy_param {
    cls_num: 2
    coord_num: 4
    field_h: 56
    field_w: 28
    downsample_rate: 8
    field_whr: 2
    field_xyr: 2
  }
}
layer {
  name: "pool4"
  type: "Pooling"
  bottom: "conv4_3"
  top: "pool4"
  pooling_param {
    pool: MAX
    kernel_size: 2
    stride: 2
  }
}
layer {
  name: "conv5_1"
  type: "Convolution"
  bottom: "pool4"
  top: "conv5_1"
  convolution_param {
    num_output: 512
    pad: 1
    kernel_size: 3
  }
}
layer {
  name: "relu5_1"
  type: "ReLU"
  bottom: "conv5_1"
  top: "conv5_1"
}
layer {
  name: "conv5_2"
  type: "Convolution"
  bottom: "conv5_1"
  top: "conv5_2"
  convolution_param {
    num_output: 512
    pad: 1
    kernel_size: 3
  }
}
layer {
  name: "relu5_2"
  type: "ReLU"
  bottom: "conv5_2"
  top: "conv5_2"
}
layer {
  name: "conv5_3"
  type: "Convolution"
  bottom: "conv5_2"
  top: "conv5_3"
  convolution_param {
    num_output: 512
    pad: 1
    kernel_size: 3
  }
}
layer {
  name: "relu5_3"
  type: "ReLU"
  bottom: "conv5_3"
  top: "conv5_3"
}
layer {
  name: "LFCN_2_3x5"
  type: "Convolution"
  bottom: "conv5_3"
  top: "LFCN_2_3x5"
  param {
    lr_mult: 1
    decay_mult: 1
  }
  param {
    lr_mult: 2
    decay_mult: 0
  }
  convolution_param {
    num_output: 6
    weight_filler {
      type: "gaussian"
      std: 0.001
    }
    bias_filler {
      type: "constant"
    }
    pad_h: 2
    pad_w: 1
    kernel_h: 5
    kernel_w: 3
  }
}
layer {
  name: "detection_loss_2_3x5"
  type: "Detection"
  bottom: "LFCN_2_3x5"
  bottom: "label_2_3x5"
  top: "loss_2_3x5"
  detection_param {
    cls_num: 2
    coord_num: 4
    lambda: 1
    field_h: 80
    field_w: 40
    downsample_rate: 16
    bb_smooth: true
    field_whr: 2
    field_xyr: 2
    bg_threshold: 0.2
    bg_multiple: 2
    sample_mode: "bootstrap"
    pos_neg_weighted: true
  }
}
layer {
  name: "detection_accuracy_2_3x5"
  type: "DetectionAccuracy"
  bottom: "LFCN_2_3x5"
  bottom: "label_2_3x5"
  top: "accuracy_2_3x5"
  top: "boxiou_2_3x5"
  detection_accuracy_param {
    cls_num: 2
    coord_num: 4
    field_h: 80
    field_w: 40
    downsample_rate: 16
    field_whr: 2
    field_xyr: 2
  }
}
layer {
  name: "LFCN_2_5x7"
  type: "Convolution"
  bottom: "conv5_3"
  top: "LFCN_2_5x7"
  param {
    lr_mult: 1
    decay_mult: 1
  }
  param {
    lr_mult: 2
    decay_mult: 0
  }
  convolution_param {
    num_output: 6
    weight_filler {
      type: "gaussian"
      std: 0.001
    }
    bias_filler {
      type: "constant"
    }
    pad_h: 3
    pad_w: 2
    kernel_h: 7
    kernel_w: 5
  }
}
layer {
  name: "detection_loss_2_5x7"
  type: "Detection"
  bottom: "LFCN_2_5x7"
  bottom: "label_2_5x7"
  top: "loss_2_5x7"
  detection_param {
    cls_num: 2
    coord_num: 4
    lambda: 1
    field_h: 112
    field_w: 56
    downsample_rate: 16
    bb_smooth: true
    field_whr: 2
    field_xyr: 2
    bg_threshold: 0.2
    bg_multiple: 2
    sample_mode: "bootstrap"
    pos_neg_weighted: true
  }
}
layer {
  name: "detection_accuracy_2_5x7"
  type: "DetectionAccuracy"
  bottom: "LFCN_2_5x7"
  bottom: "label_2_5x7"
  top: "accuracy_2_5x7"
  top: "boxiou_2_5x7"
  detection_accuracy_param {
    cls_num: 2
    coord_num: 4
    field_h: 112
    field_w: 56
    downsample_rate: 16
    field_whr: 2
    field_xyr: 2
  }
}
layer {
  name: "pool5"
  type: "Pooling"
  bottom: "conv5_3"
  top: "pool5"
  pooling_param {
    pool: MAX
    kernel_size: 2
    stride: 2
  }
}
layer {
  name: "conv6_1"
  type: "Convolution"
  bottom: "pool5"
  top: "conv6_1"
  param {
    lr_mult: 1
    decay_mult: 1
  }
  param {
    lr_mult: 2
    decay_mult: 0
  }
  convolution_param {
    num_output: 512
    pad: 1
    kernel_size: 3
    weight_filler {
      type: "gaussian"
      std: 0.01
    }
    bias_filler {
      type: "constant"
    }
  }
}
layer {
  name: "relu6_1"
  type: "ReLU"
  bottom: "conv6_1"
  top: "conv6_1"
}
layer {
  name: "LFCN_3_3x5"
  type: "Convolution"
  bottom: "conv6_1"
  top: "LFCN_3_3x5"
  param {
    lr_mult: 1
    decay_mult: 1
  }
  param {
    lr_mult: 2
    decay_mult: 0
  }
  convolution_param {
    num_output: 6
    weight_filler {
      type: "gaussian"
      std: 0.001
    }
    bias_filler {
      type: "constant"
    }
    pad_h: 2
    pad_w: 1
    kernel_h: 5
    kernel_w: 3
  }
}
layer {
  name: "detection_loss_3_3x5"
  type: "Detection"
  bottom: "LFCN_3_3x5"
  bottom: "label_3_3x5"
  top: "loss_3_3x5"
  detection_param {
    cls_num: 2
    coord_num: 4
    lambda: 1
    field_h: 160
    field_w: 80
    downsample_rate: 32
    bb_smooth: true
    field_whr: 2
    field_xyr: 2
    bg_threshold: 0.2
    bg_multiple: 2
    sample_mode: "bootstrap"
    pos_neg_weighted: true
  }
}
layer {
  name: "detection_accuracy_3_3x5"
  type: "DetectionAccuracy"
  bottom: "LFCN_3_3x5"
  bottom: "label_3_3x5"
  top: "accuracy_3_3x5"
  top: "boxiou_3_3x5"
  detection_accuracy_param {
    cls_num: 2
    coord_num: 4
    field_h: 160
    field_w: 80
    downsample_rate: 32
    field_whr: 2
    field_xyr: 2
  }
}
layer {
  name: "LFCN_3_5x7"
  type: "Convolution"
  bottom: "conv6_1"
  top: "LFCN_3_5x7"
  param {
    lr_mult: 1
    decay_mult: 1
  }
  param {
    lr_mult: 2
    decay_mult: 0
  }
  convolution_param {
    num_output: 6
    weight_filler {
      type: "gaussian"
      std: 0.001
    }
    bias_filler {
      type: "constant"
    }
    pad_h: 3
    pad_w: 2
    kernel_h: 7
    kernel_w: 5
  }
}
layer {
  name: "detection_loss_3_5x7"
  type: "Detection"
  bottom: "LFCN_3_5x7"
  bottom: "label_3_5x7"
  top: "loss_3_5x7"
  detection_param {
    cls_num: 2
    coord_num: 4
    lambda: 1
    field_h: 224
    field_w: 112
    downsample_rate: 32
    bb_smooth: true
    field_whr: 2
    field_xyr: 2
    bg_threshold: 0.2
    bg_multiple: 2
    sample_mode: "bootstrap"
    pos_neg_weighted: true
  }
}
layer {
  name: "detection_accuracy_3_5x7"
  type: "DetectionAccuracy"
  bottom: "LFCN_3_5x7"
  bottom: "label_3_5x7"
  top: "accuracy_3_5x7"
  top: "boxiou_3_5x7"
  detection_accuracy_param {
    cls_num: 2
    coord_num: 4
    field_h: 224
    field_w: 112
    downsample_rate: 32
    field_whr: 2
    field_xyr: 2
  }
}
layer {
  name: "pool6"
  type: "Pooling"
  bottom: "conv6_1"
  top: "pool6"
  pooling_param {
    pool: MAX
    kernel_size: 2
    stride: 2
  }
}
layer {
  name: "LFCN_4_3x5"
  type: "Convolution"
  bottom: "pool6"
  top: "LFCN_4_3x5"
  param {
    lr_mult: 1
    decay_mult: 1
  }
  param {
    lr_mult: 2
    decay_mult: 0
  }
  convolution_param {
    num_output: 6
    weight_filler {
      type: "gaussian"
      std: 0.001
    }
    bias_filler {
      type: "constant"
    }
    pad_h: 2
    pad_w: 1
    kernel_h: 5
    kernel_w: 3
  }
}
layer {
  name: "detection_loss_4_3x5"
  type: "Detection"
  bottom: "LFCN_4_3x5"
  bottom: "label_4_3x5"
  top: "loss_4_3x5"
  detection_param {
    cls_num: 2
    coord_num: 4
    lambda: 1
    field_h: 320
    field_w: 160
    downsample_rate: 64
    bb_smooth: true
    field_whr: 2
    field_xyr: 2
    bg_threshold: 0.2
    bg_multiple: 2
    sample_mode: "bootstrap"
    pos_neg_weighted: true
  }
}
layer {
  name: "detection_accuracy_4_3x5"
  type: "DetectionAccuracy"
  bottom: "LFCN_4_3x5"
  bottom: "label_4_3x5"
  top: "accuracy_4_3x5"
  top: "boxiou_4_3x5"
  detection_accuracy_param {
    cls_num: 2
    coord_num: 4
    field_h: 320
    field_w: 160
    downsample_rate: 64
    field_whr: 2
    field_xyr: 2
  }
}
layer {
  name: "proposals"
  type: "BoxOutput"
  bottom: "LFCN_1_3x5"
  bottom: "LFCN_1_5x7"
  bottom: "LFCN_2_3x5"
  bottom: "LFCN_2_5x7"
  bottom: "LFCN_3_3x5"
  bottom: "LFCN_3_5x7"
  bottom: "LFCN_4_3x5"
  top: "proposals"
  propagate_down: false
  propagate_down: false
  propagate_down: false
  propagate_down: false
  propagate_down: false
  propagate_down: false
  propagate_down: false
  box_output_param {
    fg_thr: -10
    iou_thr: 0.65
    nms_type: "IOU"
    field_h: 40
    field_h: 56
    field_h: 80
    field_h: 112
    field_h: 160
    field_h: 224
    field_h: 320
    field_w: 20
    field_w: 28
    field_w: 40
    field_w: 56
    field_w: 80
    field_w: 112
    field_w: 160
    downsample_rate: 8
    downsample_rate: 8
    downsample_rate: 16
    downsample_rate: 16
    downsample_rate: 32
    downsample_rate: 32
    downsample_rate: 64
    field_whr: 2
    field_xyr: 2
    max_nms_num: 3000
  }
}
layer {
  name: "proposal_info"
  type: "ProposalTarget"
  bottom: "proposals"
  bottom: "gt_boxes"
  top: "rois"
  top: "proposal_labels"
  top: "proposal_targets"
  top: "box_inside_weights"
  top: "box_outside_weights"
  top: "match_gt_boxes"
  include {
    phase: TRAIN
  }
  propagate_down: false
  propagate_down: false
  proposal_target_param {
    cls_num: 2
    batch_size: 128
    fg_fraction: 0.25
    num_img_per_batch: 4
    fg_thr: 0.45
    bg_thr_hg: 0.44
    bg_thr_lw: 0.05
    img_width: 448
    img_height: 448
    bbox_mean: 0
    bbox_mean: 0
    bbox_mean: 0
    bbox_mean: 0
    bbox_std: 0.1
    bbox_std: 0.1
    bbox_std: 0.2
    bbox_std: 0.2
  }
}
layer {
  name: "conv4_3_2x"
  type: "Deconvolution"
  bottom: "conv4_3"
  top: "conv4_3_2x"
  param {
    lr_mult: 0
    decay_mult: 0
  }
  convolution_param {
    num_output: 512
    bias_term: false
    pad: 1
    kernel_size: 4
    group: 512
    stride: 2
    weight_filler {
      type: "bilinear"
    }
  }
}
layer {
  name: "roi_pool_org"
  type: "ROIPooling"
  bottom: "conv4_3_2x"
  bottom: "rois"
  top: "roi_pool_org"
  roi_pooling_param {
    pooled_h: 8
    pooled_w: 4
    spatial_scale: 0.25
    pad_ratio: 0
  }
}
layer {
  name: "roi_pool_ctx"
  type: "ROIPooling"
  bottom: "conv4_3_2x"
  bottom: "rois"
  top: "roi_pool_ctx"
  roi_pooling_param {
    pooled_h: 8
    pooled_w: 4
    spatial_scale: 0.25
    pad_ratio: 0.25
  }
}
layer {
  name: "roi_pool"
  type: "Concat"
  bottom: "roi_pool_org"
  bottom: "roi_pool_ctx"
  top: "roi_pool"
}
layer {
  name: "roi_c1"
  type: "Convolution"
  bottom: "roi_pool"
  top: "roi_c1"
  param {
    lr_mult: 1
    decay_mult: 1
  }
  param {
    lr_mult: 2
    decay_mult: 0
  }
  convolution_param {
    num_output: 512
    pad: 1
    kernel_size: 3
    weight_filler {
      type: "gaussian"
      std: 0.01
    }
    bias_filler {
      type: "constant"
    }
  }
}
layer {
  name: "roi_c1_relu"
  type: "ReLU"
  bottom: "roi_c1"
  top: "roi_c1"
}
layer {
  name: "fc6"
  type: "InnerProduct"
  bottom: "roi_c1"
  top: "fc6"
  param {
    lr_mult: 1
  }
  param {
    lr_mult: 2
  }
  inner_product_param {
    num_output: 2048
    weight_filler {
      type: "gaussian"
      std: 0.001
    }
    bias_filler {
      type: "constant"
      value: 0
    }
  }
}
layer {
  name: "relu6"
  type: "ReLU"
  bottom: "fc6"
  top: "fc6"
}
layer {
  name: "drop6"
  type: "Dropout"
  bottom: "fc6"
  top: "fc6"
  dropout_param {
    dropout_ratio: 0.5
  }
}
layer {
  name: "cls_pred"
  type: "InnerProduct"
  bottom: "fc6"
  top: "cls_pred"
  param {
    lr_mult: 1
  }
  param {
    lr_mult: 2
  }
  inner_product_param {
    num_output: 2
    weight_filler {
      type: "gaussian"
      std: 0.01
    }
    bias_filler {
      type: "constant"
      value: 0
    }
  }
}
layer {
  name: "bbox_pred"
  type: "InnerProduct"
  bottom: "fc6"
  top: "bbox_pred"
  param {
    lr_mult: 1
  }
  param {
    lr_mult: 2
  }
  inner_product_param {
    num_output: 8
    weight_filler {
      type: "gaussian"
      std: 0.001
    }
    bias_filler {
      type: "constant"
      value: 0
    }
  }
}
layer {
  name: "loss_cls"
  type: "SoftmaxWithLoss"
  bottom: "cls_pred"
  bottom: "proposal_labels"
  top: "loss_cls"
  loss_weight: 1
  propagate_down: true
  propagate_down: false
}
layer {
  name: "cls_accuracy"
  type: "Accuracy"
  bottom: "cls_pred"
  bottom: "proposal_labels"
  top: "cls_accuracy"
}
layer {
  name: "loss_bbox"
  type: "SmoothL1Loss"
  bottom: "bbox_pred"
  bottom: "proposal_targets"
  bottom: "box_inside_weights"
  bottom: "box_outside_weights"
  top: "loss_bbox"
  loss_weight: 1
}
layer {
  name: "bbox_iou"
  type: "BboxAccuracy"
  bottom: "bbox_pred"
  bottom: "rois"
  bottom: "match_gt_boxes"
  top: "bbox_iou"
  top: "bbox_iou_pre"
  bbox_accuracy_param {
    bbox_mean: 0
    bbox_mean: 0
    bbox_mean: 0
    bbox_mean: 0
    bbox_std: 0.1
    bbox_std: 0.1
    bbox_std: 0.2
    bbox_std: 0.2
  }
}
I1006 07:20:25.685838 18721 layer_factory.hpp:76] Creating layer data
I1006 07:20:25.685880 18721 net.cpp:106] Creating Layer data
I1006 07:20:25.685890 18721 net.cpp:411] data -> data
…
I1006 07:20:25.867830 18721 image_gt_data_layer.cpp:234] output label size 2 : 4,6,28,28
I1006 07:20:25.867882 18721 image_gt_data_layer.cpp:234] output label size 3 : 4,6,28,28
I1006 07:20:25.867929 18721 image_gt_data_layer.cpp:234] output label size 4 : 4,6,14,14
I1006 07:20:25.867991 18721 image_gt_data_layer.cpp:234] output label size 5 : 4,6,14,14
I1006 07:20:25.868046 18721 image_gt_data_layer.cpp:234] output label size 6 : 4,6,7,7
I1006 07:20:25.868105 18721 image_gt_data_layer.cpp:249] output gt boxes size: 1,7,1,1
I1006 07:20:25.890307 18721 net.cpp:150] Setting up data
I1006 07:20:25.890336 18721 net.cpp:157] Top shape: 4 3 448 448 (2408448)
I1006 07:20:25.890341 18721 net.cpp:157] Top shape: 4 6 56 56 (75264)
I1006 07:20:25.890346 18721 net.cpp:157] Top shape: 4 6 56 56 (75264)
I1006 07:20:25.890349 18721 net.cpp:157] Top shape: 4 6 28 28 (18816)
I1006 07:20:25.890353 18721 net.cpp:157] Top shape: 4 6 28 28 (18816)
I1006 07:20:25.890357 18721 net.cpp:157] Top shape: 4 6 14 14 (4704)
I1006 07:20:25.890362 18721 net.cpp:157] Top shape: 4 6 14 14 (4704)
I1006 07:20:25.890364 18721 net.cpp:157] Top shape: 4 6 7 7 (1176)
I1006 07:20:25.890370 18721 net.cpp:157] Top shape: 1 7 1 1 (7)
I1006 07:20:25.890372 18721 net.cpp:165] Memory required for data: 10428796
I1006 07:20:25.890379 18721 layer_factory.hpp:76] Creating layer label_1_3x5_data_1_split
I1006 07:20:25.890398 18721 net.cpp:106] Creating Layer label_1_3x5_data_1_split
I1006 07:20:25.890403 18721 net.cpp:454] label_1_3x5_data_1_split <- label_1_3x5
I1006 07:20:25.890415 18721 net.cpp:411] label_1_3x5_data_1_split -> label_1_3x5_data_1_split_0
I1006 07:20:25.890425 18721 net.cpp:411] label_1_3x5_data_1_split -> label_1_3x5_data_1_split_1
I1006 07:20:25.890489 18721 net.cpp:150] Setting up label_1_3x5_data_1_split
I1006 07:20:25.890501 18721 net.cpp:157] Top shape: 4 6 56 56 (75264)
I1006 07:20:25.890507 18721 net.cpp:157] Top shape: 4 6 56 56 (75264)
I1006 07:20:25.890511 18721 net.cpp:165] Memory required for data: 11030908
I1006 07:20:25.890516 18721 layer_factory.hpp:76] Creating layer label_1_5x7_data_2_split
I1006 07:20:25.890525 18721 net.cpp:106] Creating Layer label_1_5x7_data_2_split
I1006 07:20:25.890530 18721 net.cpp:454] label_1_5x7_data_2_split <- label_1_5x7
I1006 07:20:25.890538 18721 net.cpp:411] label_1_5x7_data_2_split -> label_1_5x7_data_2_split_0
I1006 07:20:25.890545 18721 net.cpp:411] label_1_5x7_data_2_split -> label_1_5x7_data_2_split_1
I1006 07:20:25.890683 18721 net.cpp:150] Setting up label_1_5x7_data_2_split
I1006 07:20:25.890693 18721 net.cpp:157] Top shape: 4 6 56 56 (75264)
I1006 07:20:25.890697 18721 net.cpp:157] Top shape: 4 6 56 56 (75264)
I1006 07:20:25.890700 18721 net.cpp:165] Memory required for data: 11633020
I1006 07:20:25.890703 18721 layer_factory.hpp:76] Creating layer label_2_3x5_data_3_split
I1006 07:20:25.890708 18721 net.cpp:106] Creating Layer label_2_3x5_data_3_split
I1006 07:20:25.890712 18721 net.cpp:454] label_2_3x5_data_3_split <- label_2_3x5
I1006 07:20:25.890719 18721 net.cpp:411] label_2_3x5_data_3_split -> label_2_3x5_data_3_split_0
I1006 07:20:25.890727 18721 net.cpp:411] label_2_3x5_data_3_split -> label_2_3x5_data_3_split_1
I1006 07:20:25.890759 18721 net.cpp:150] Setting up label_2_3x5_data_3_split
I1006 07:20:25.890770 18721 net.cpp:157] Top shape: 4 6 28 28 (18816)
I1006 07:20:25.890774 18721 net.cpp:157] Top shape: 4 6 28 28 (18816)
I1006 07:20:25.890777 18721 net.cpp:165] Memory required for data: 11783548
I1006 07:20:25.890779 18721 layer_factory.hpp:76] Creating layer label_2_5x7_data_4_split
I1006 07:20:25.890786 18721 net.cpp:106] Creating Layer label_2_5x7_data_4_split
I1006 07:20:25.890789 18721 net.cpp:454] label_2_5x7_data_4_split <- label_2_5x7
I1006 07:20:25.890795 18721 net.cpp:411] label_2_5x7_data_4_split -> label_2_5x7_data_4_split_0
I1006 07:20:25.890801 18721 net.cpp:411] label_2_5x7_data_4_split -> label_2_5x7_data_4_split_1
I1006 07:20:25.890841 18721 net.cpp:150] Setting up label_2_5x7_data_4_split
I1006 07:20:25.890853 18721 net.cpp:157] Top shape: 4 6 28 28 (18816)
I1006 07:20:25.890861 18721 net.cpp:157] Top shape: 4 6 28 28 (18816)
I1006 07:20:25.890866 18721 net.cpp:165] Memory required for data: 11934076
I1006 07:20:25.890871 18721 layer_factory.hpp:76] Creating layer label_3_3x5_data_5_split
I1006 07:20:25.890877 18721 net.cpp:106] Creating Layer label_3_3x5_data_5_split
I1006 07:20:25.890920 18721 net.cpp:454] label_3_3x5_data_5_split <- label_3_3x5
I1006 07:20:25.890926 18721 net.cpp:411] label_3_3x5_data_5_split -> label_3_3x5_data_5_split_0
I1006 07:20:25.890933 18721 net.cpp:411] label_3_3x5_data_5_split -> label_3_3x5_data_5_split_1
I1006 07:20:25.890986 18721 net.cpp:150] Setting up label_3_3x5_data_5_split
I1006 07:20:25.891000 18721 net.cpp:157] Top shape: 4 6 14 14 (4704)
I1006 07:20:25.891003 18721 net.cpp:157] Top shape: 4 6 14 14 (4704)
I1006 07:20:25.891005 18721 net.cpp:165] Memory required for data: 11971708
I1006 07:20:25.891008 18721 layer_factory.hpp:76] Creating layer label_3_5x7_data_6_split
I1006 07:20:25.891016 18721 net.cpp:106] Creating Layer label_3_5x7_data_6_split
I1006 07:20:25.891021 18721 net.cpp:454] label_3_5x7_data_6_split <- label_3_5x7
I1006 07:20:25.891031 18721 net.cpp:411] label_3_5x7_data_6_split -> label_3_5x7_data_6_split_0
I1006 07:20:25.891037 18721 net.cpp:411] label_3_5x7_data_6_split -> label_3_5x7_data_6_split_1
I1006 07:20:25.891069 18721 net.cpp:150] Setting up label_3_5x7_data_6_split
I1006 07:20:25.891080 18721 net.cpp:157] Top shape: 4 6 14 14 (4704)
I1006 07:20:25.891086 18721 net.cpp:157] Top shape: 4 6 14 14 (4704)
I1006 07:20:25.891091 18721 net.cpp:165] Memory required for data: 12009340
I1006 07:20:25.891095 18721 layer_factory.hpp:76] Creating layer label_4_3x5_data_7_split
I1006 07:20:25.891103 18721 net.cpp:106] Creating Layer label_4_3x5_data_7_split
I1006 07:20:25.891108 18721 net.cpp:454] label_4_3x5_data_7_split <- label_4_3x5
I1006 07:20:25.891119 18721 net.cpp:411] label_4_3x5_data_7_split -> label_4_3x5_data_7_split_0
I1006 07:20:25.891129 18721 net.cpp:411] label_4_3x5_data_7_split -> label_4_3x5_data_7_split_1
I1006 07:20:25.891165 18721 net.cpp:150] Setting up label_4_3x5_data_7_split
I1006 07:20:25.891171 18721 net.cpp:157] Top shape: 4 6 7 7 (1176)
I1006 07:20:25.891175 18721 net.cpp:157] Top shape: 4 6 7 7 (1176)
I1006 07:20:25.891178 18721 net.cpp:165] Memory required for data: 12018748
I1006 07:20:25.891182 18721 layer_factory.hpp:76] Creating layer conv1_1
I1006 07:20:25.891196 18721 net.cpp:106] Creating Layer conv1_1
I1006 07:20:25.891201 18721 net.cpp:454] conv1_1 <- data
I1006 07:20:25.891207 18721 net.cpp:411] conv1_1 -> conv1_1
I1006 07:20:26.018720 18721 net.cpp:150] Setting up conv1_1
I1006 07:20:26.018749 18721 net.cpp:157] Top shape: 4 64 448 448 (51380224)
I1006 07:20:26.018754 18721 net.cpp:165] Memory required for data: 217539644
I1006 07:20:26.018771 18721 layer_factory.hpp:76] Creating layer relu1_1
I1006 07:20:26.018781 18721 net.cpp:106] Creating Layer relu1_1
I1006 07:20:26.018786 18721 net.cpp:454] relu1_1 <- conv1_1
I1006 07:20:26.018792 18721 net.cpp:397] relu1_1 -> conv1_1 (in-place)
I1006 07:20:26.018993 18721 net.cpp:150] Setting up relu1_1
I1006 07:20:26.019007 18721 net.cpp:157] Top shape: 4 64 448 448 (51380224)
I1006 07:20:26.019012 18721 net.cpp:165] Memory required for data: 423060540
I1006 07:20:26.019017 18721 layer_factory.hpp:76] Creating layer conv1_2
I1006 07:20:26.019028 18721 net.cpp:106] Creating Layer conv1_2
I1006 07:20:26.019033 18721 net.cpp:454] conv1_2 <- conv1_1
I1006 07:20:26.019042 18721 net.cpp:411] conv1_2 -> conv1_2
I1006 07:20:26.020956 18721 net.cpp:150] Setting up conv1_2
I1006 07:20:26.020973 18721 net.cpp:157] Top shape: 4 64 448 448 (51380224)
I1006 07:20:26.020977 18721 net.cpp:165] Memory required for data: 628581436
I1006 07:20:26.020987 18721 layer_factory.hpp:76] Creating layer relu1_2
I1006 07:20:26.020993 18721 net.cpp:106] Creating Layer relu1_2
I1006 07:20:26.020998 18721 net.cpp:454] relu1_2 <- conv1_2
I1006 07:20:26.021003 18721 net.cpp:397] relu1_2 -> conv1_2 (in-place)
I1006 07:20:26.021373 18721 net.cpp:150] Setting up relu1_2
I1006 07:20:26.021390 18721 net.cpp:157] Top shape: 4 64 448 448 (51380224)
I1006 07:20:26.021394 18721 net.cpp:165] Memory required for data: 834102332
I1006 07:20:26.021399 18721 layer_factory.hpp:76] Creating layer pool1
I1006 07:20:26.021405 18721 net.cpp:106] Creating Layer pool1
I1006 07:20:26.021409 18721 net.cpp:454] pool1 <- conv1_2
I1006 07:20:26.021416 18721 net.cpp:411] pool1 -> pool1
I1006 07:20:26.021672 18721 net.cpp:150] Setting up pool1
I1006 07:20:26.021684 18721 net.cpp:157] Top shape: 4 64 224 224 (12845056)
I1006 07:20:26.021687 18721 net.cpp:165] Memory required for data: 885482556
I1006 07:20:26.021692 18721 layer_factory.hpp:76] Creating layer conv2_1
I1006 07:20:26.021699 18721 net.cpp:106] Creating Layer conv2_1
I1006 07:20:26.021703 18721 net.cpp:454] conv2_1 <- pool1
I1006 07:20:26.021710 18721 net.cpp:411] conv2_1 -> conv2_1
I1006 07:20:26.023571 18721 net.cpp:150] Setting up conv2_1
I1006 07:20:26.023587 18721 net.cpp:157] Top shape: 4 128 224 224 (25690112)
I1006 07:20:26.023591 18721 net.cpp:165] Memory required for data: 988243004
I1006 07:20:26.023600 18721 layer_factory.hpp:76] Creating layer relu2_1
I1006 07:20:26.023607 18721 net.cpp:106] Creating Layer relu2_1
I1006 07:20:26.023610 18721 net.cpp:454] relu2_1 <- conv2_1
I1006 07:20:26.023622 18721 net.cpp:397] relu2_1 -> conv2_1 (in-place)
I1006 07:20:26.023986 18721 net.cpp:150] Setting up relu2_1
I1006 07:20:26.024000 18721 net.cpp:157] Top shape: 4 128 224 224 (25690112)
I1006 07:20:26.024003 18721 net.cpp:165] Memory required for data: 1091003452
I1006 07:20:26.024008 18721 layer_factory.hpp:76] Creating layer conv2_2
I1006 07:20:26.024016 18721 net.cpp:106] Creating Layer conv2_2
I1006 07:20:26.024019 18721 net.cpp:454] conv2_2 <- conv2_1
I1006 07:20:26.024025 18721 net.cpp:411] conv2_2 -> conv2_2
I1006 07:20:26.025171 18721 net.cpp:150] Setting up conv2_2
I1006 07:20:26.025187 18721 net.cpp:157] Top shape: 4 128 224 224 (25690112)
I1006 07:20:26.025189 18721 net.cpp:165] Memory required for data: 1193763900
I1006 07:20:26.025197 18721 layer_factory.hpp:76] Creating layer relu2_2
I1006 07:20:26.025207 18721 net.cpp:106] Creating Layer relu2_2
I1006 07:20:26.025213 18721 net.cpp:454] relu2_2 <- conv2_2
I1006 07:20:26.025219 18721 net.cpp:397] relu2_2 -> conv2_2 (in-place)
I1006 07:20:26.025583 18721 net.cpp:150] Setting up relu2_2
I1006 07:20:26.025596 18721 net.cpp:157] Top shape: 4 128 224 224 (25690112)
I1006 07:20:26.025599 18721 net.cpp:165] Memory required for data: 1296524348
I1006 07:20:26.025604 18721 layer_factory.hpp:76] Creating layer pool2
I1006 07:20:26.025609 18721 net.cpp:106] Creating Layer pool2
I1006 07:20:26.025612 18721 net.cpp:454] pool2 <- conv2_2
I1006 07:20:26.025619 18721 net.cpp:411] pool2 -> pool2
I1006 07:20:26.025868 18721 net.cpp:150] Setting up pool2
I1006 07:20:26.025882 18721 net.cpp:157] Top shape: 4 128 112 112 (6422528)
I1006 07:20:26.025887 18721 net.cpp:165] Memory required for data: 1322214460
I1006 07:20:26.025889 18721 layer_factory.hpp:76] Creating layer conv3_1
I1006 07:20:26.025900 18721 net.cpp:106] Creating Layer conv3_1
I1006 07:20:26.025904 18721 net.cpp:454] conv3_1 <- pool2
I1006 07:20:26.025912 18721 net.cpp:411] conv3_1 -> conv3_1
I1006 07:20:26.027958 18721 net.cpp:150] Setting up conv3_1
I1006 07:20:26.027973 18721 net.cpp:157] Top shape: 4 256 112 112 (12845056)
I1006 07:20:26.027976 18721 net.cpp:165] Memory required for data: 1373594684
I1006 07:20:26.027990 18721 layer_factory.hpp:76] Creating layer relu3_1
I1006 07:20:26.027997 18721 net.cpp:106] Creating Layer relu3_1
I1006 07:20:26.028000 18721 net.cpp:454] relu3_1 <- conv3_1
I1006 07:20:26.028007 18721 net.cpp:397] relu3_1 -> conv3_1 (in-place)
I1006 07:20:26.028374 18721 net.cpp:150] Setting up relu3_1
I1006 07:20:26.028389 18721 net.cpp:157] Top shape: 4 256 112 112 (12845056)
I1006 07:20:26.028393 18721 net.cpp:165] Memory required for data: 1424974908
I1006 07:20:26.028395 18721 layer_factory.hpp:76] Creating layer conv3_2
I1006 07:20:26.028404 18721 net.cpp:106] Creating Layer conv3_2
I1006 07:20:26.028408 18721 net.cpp:454] conv3_2 <- conv3_1
I1006 07:20:26.028415 18721 net.cpp:411] conv3_2 -> conv3_2
I1006 07:20:26.031082 18721 net.cpp:150] Setting up conv3_2
I1006 07:20:26.031100 18721 net.cpp:157] Top shape: 4 256 112 112 (12845056)
I1006 07:20:26.031108 18721 net.cpp:165] Memory required for data: 1476355132
I1006 07:20:26.031116 18721 layer_factory.hpp:76] Creating layer relu3_2
I1006 07:20:26.031124 18721 net.cpp:106] Creating Layer relu3_2
I1006 07:20:26.031128 18721 net.cpp:454] relu3_2 <- conv3_2
I1006 07:20:26.031133 18721 net.cpp:397] relu3_2 -> conv3_2 (in-place)
I1006 07:20:26.031558 18721 net.cpp:150] Setting up relu3_2
I1006 07:20:26.031572 18721 net.cpp:157] Top shape: 4 256 112 112 (12845056)
I1006 07:20:26.031582 18721 net.cpp:165] Memory required for data: 1527735356
I1006 07:20:26.031585 18721 layer_factory.hpp:76] Creating layer conv3_3
I1006 07:20:26.031595 18721 net.cpp:106] Creating Layer conv3_3
I1006 07:20:26.031599 18721 net.cpp:454] conv3_3 <- conv3_2
I1006 07:20:26.031605 18721 net.cpp:411] conv3_3 -> conv3_3
I1006 07:20:26.034355 18721 net.cpp:150] Setting up conv3_3
I1006 07:20:26.034370 18721 net.cpp:157] Top shape: 4 256 112 112 (12845056)
I1006 07:20:26.034380 18721 net.cpp:165] Memory required for data: 1579115580
I1006 07:20:26.034387 18721 layer_factory.hpp:76] Creating layer relu3_3
I1006 07:20:26.034394 18721 net.cpp:106] Creating Layer relu3_3
I1006 07:20:26.034397 18721 net.cpp:454] relu3_3 <- conv3_3
I1006 07:20:26.034402 18721 net.cpp:397] relu3_3 -> conv3_3 (in-place)
I1006 07:20:26.034612 18721 net.cpp:150] Setting up relu3_3
I1006 07:20:26.034628 18721 net.cpp:157] Top shape: 4 256 112 112 (12845056)
I1006 07:20:26.034634 18721 net.cpp:165] Memory required for data: 1630495804
I1006 07:20:26.034639 18721 layer_factory.hpp:76] Creating layer pool3
I1006 07:20:26.034651 18721 net.cpp:106] Creating Layer pool3
I1006 07:20:26.034656 18721 net.cpp:454] pool3 <- conv3_3
I1006 07:20:26.034660 18721 net.cpp:411] pool3 -> pool3
I1006 07:20:26.035091 18721 net.cpp:150] Setting up pool3
I1006 07:20:26.035106 18721 net.cpp:157] Top shape: 4 256 56 56 (3211264)
I1006 07:20:26.035116 18721 net.cpp:165] Memory required for data: 1643340860
I1006 07:20:26.035120 18721 layer_factory.hpp:76] Creating layer conv4_1
I1006 07:20:26.035128 18721 net.cpp:106] Creating Layer conv4_1
I1006 07:20:26.035132 18721 net.cpp:454] conv4_1 <- pool3
I1006 07:20:26.035137 18721 net.cpp:411] conv4_1 -> conv4_1
I1006 07:20:26.039669 18721 net.cpp:150] Setting up conv4_1
I1006 07:20:26.039685 18721 net.cpp:157] Top shape: 4 512 56 56 (6422528)
I1006 07:20:26.039695 18721 net.cpp:165] Memory required for data: 1669030972
I1006 07:20:26.039701 18721 layer_factory.hpp:76] Creating layer relu4_1
I1006 07:20:26.039707 18721 net.cpp:106] Creating Layer relu4_1
I1006 07:20:26.039711 18721 net.cpp:454] relu4_1 <- conv4_1
I1006 07:20:26.039716 18721 net.cpp:397] relu4_1 -> conv4_1 (in-place)
I1006 07:20:26.039921 18721 net.cpp:150] Setting up relu4_1
I1006 07:20:26.039934 18721 net.cpp:157] Top shape: 4 512 56 56 (6422528)
I1006 07:20:26.039937 18721 net.cpp:165] Memory required for data: 1694721084
I1006 07:20:26.039942 18721 layer_factory.hpp:76] Creating layer conv4_2
I1006 07:20:26.039950 18721 net.cpp:106] Creating Layer conv4_2
I1006 07:20:26.039953 18721 net.cpp:454] conv4_2 <- conv4_1
I1006 07:20:26.039959 18721 net.cpp:411] conv4_2 -> conv4_2
I1006 07:20:26.046512 18721 net.cpp:150] Setting up conv4_2
I1006 07:20:26.046530 18721 net.cpp:157] Top shape: 4 512 56 56 (6422528)
I1006 07:20:26.046533 18721 net.cpp:165] Memory required for data: 1720411196
I1006 07:20:26.046546 18721 layer_factory.hpp:76] Creating layer relu4_2
I1006 07:20:26.046553 18721 net.cpp:106] Creating Layer relu4_2
I1006 07:20:26.046557 18721 net.cpp:454] relu4_2 <- conv4_2
I1006 07:20:26.046562 18721 net.cpp:397] relu4_2 -> conv4_2 (in-place)
I1006 07:20:26.046967 18721 net.cpp:150] Setting up relu4_2
I1006 07:20:26.046982 18721 net.cpp:157] Top shape: 4 512 56 56 (6422528)
I1006 07:20:26.046985 18721 net.cpp:165] Memory required for data: 1746101308
I1006 07:20:26.046989 18721 layer_factory.hpp:76] Creating layer conv4_3
I1006 07:20:26.046996 18721 net.cpp:106] Creating Layer conv4_3
I1006 07:20:26.046999 18721 net.cpp:454] conv4_3 <- conv4_2
I1006 07:20:26.047006 18721 net.cpp:411] conv4_3 -> conv4_3
I1006 07:20:26.053606 18721 net.cpp:150] Setting up conv4_3
I1006 07:20:26.053627 18721 net.cpp:157] Top shape: 4 512 56 56 (6422528)
I1006 07:20:26.053629 18721 net.cpp:165] Memory required for data: 1771791420
I1006 07:20:26.053637 18721 layer_factory.hpp:76] Creating layer relu4_3
I1006 07:20:26.053644 18721 net.cpp:106] Creating Layer relu4_3
I1006 07:20:26.053648 18721 net.cpp:454] relu4_3 <- conv4_3
I1006 07:20:26.053661 18721 net.cpp:397] relu4_3 -> conv4_3 (in-place)
I1006 07:20:26.054044 18721 net.cpp:150] Setting up relu4_3
I1006 07:20:26.054057 18721 net.cpp:157] Top shape: 4 512 56 56 (6422528)
I1006 07:20:26.054060 18721 net.cpp:165] Memory required for data: 1797481532
I1006 07:20:26.054064 18721 layer_factory.hpp:76] Creating layer conv4_3_relu4_3_0_split
I1006 07:20:26.054071 18721 net.cpp:106] Creating Layer conv4_3_relu4_3_0_split
I1006 07:20:26.054075 18721 net.cpp:454] conv4_3_relu4_3_0_split <- conv4_3
I1006 07:20:26.054081 18721 net.cpp:411] conv4_3_relu4_3_0_split -> conv4_3_relu4_3_0_split_0
I1006 07:20:26.054090 18721 net.cpp:411] conv4_3_relu4_3_0_split -> conv4_3_relu4_3_0_split_1
I1006 07:20:26.054095 18721 net.cpp:411] conv4_3_relu4_3_0_split -> conv4_3_relu4_3_0_split_2
I1006 07:20:26.054169 18721 net.cpp:150] Setting up conv4_3_relu4_3_0_split
I1006 07:20:26.054179 18721 net.cpp:157] Top shape: 4 512 56 56 (6422528)
I1006 07:20:26.054185 18721 net.cpp:157] Top shape: 4 512 56 56 (6422528)
I1006 07:20:26.054189 18721 net.cpp:157] Top shape: 4 512 56 56 (6422528)
I1006 07:20:26.054191 18721 net.cpp:165] Memory required for data: 1874551868
I1006 07:20:26.054195 18721 layer_factory.hpp:76] Creating layer loss1_conv1
I1006 07:20:26.054210 18721 net.cpp:106] Creating Layer loss1_conv1
I1006 07:20:26.054214 18721 net.cpp:454] loss1_conv1 <- conv4_3_relu4_3_0_split_0
I1006 07:20:26.054222 18721 net.cpp:411] loss1_conv1 -> loss1_conv1
I1006 07:20:26.142390 18721 net.cpp:150] Setting up loss1_conv1
I1006 07:20:26.142415 18721 net.cpp:157] Top shape: 4 512 56 56 (6422528)
I1006 07:20:26.142421 18721 net.cpp:165] Memory required for data: 1900241980
I1006 07:20:26.142428 18721 layer_factory.hpp:76] Creating layer loss_relu1
I1006 07:20:26.142436 18721 net.cpp:106] Creating Layer loss_relu1
I1006 07:20:26.142441 18721 net.cpp:454] loss_relu1 <- loss1_conv1
I1006 07:20:26.142447 18721 net.cpp:397] loss_relu1 -> loss1_conv1 (in-place)
I1006 07:20:26.142648 18721 net.cpp:150] Setting up loss_relu1
I1006 07:20:26.142659 18721 net.cpp:157] Top shape: 4 512 56 56 (6422528)
I1006 07:20:26.142663 18721 net.cpp:165] Memory required for data: 1925932092
I1006 07:20:26.142665 18721 layer_factory.hpp:76] Creating layer loss1_conv1_loss_relu1_0_split
I1006 07:20:26.142671 18721 net.cpp:106] Creating Layer loss1_conv1_loss_relu1_0_split
I1006 07:20:26.142674 18721 net.cpp:454] loss1_conv1_loss_relu1_0_split <- loss1_conv1
I1006 07:20:26.142680 18721 net.cpp:411] loss1_conv1_loss_relu1_0_split -> loss1_conv1_loss_relu1_0_split_0
I1006 07:20:26.142688 18721 net.cpp:411] loss1_conv1_loss_relu1_0_split -> loss1_conv1_loss_relu1_0_split_1
I1006 07:20:26.142740 18721 net.cpp:150] Setting up loss1_conv1_loss_relu1_0_split
I1006 07:20:26.142752 18721 net.cpp:157] Top shape: 4 512 56 56 (6422528)
I1006 07:20:26.142760 18721 net.cpp:157] Top shape: 4 512 56 56 (6422528)
I1006 07:20:26.142765 18721 net.cpp:165] Memory required for data: 1977312316
I1006 07:20:26.142770 18721 layer_factory.hpp:76] Creating layer LFCN_1_3x5
I1006 07:20:26.142779 18721 net.cpp:106] Creating Layer LFCN_1_3x5
I1006 07:20:26.142784 18721 net.cpp:454] LFCN_1_3x5 <- loss1_conv1_loss_relu1_0_split_0
I1006 07:20:26.142796 18721 net.cpp:411] LFCN_1_3x5 -> LFCN_1_3x5
I1006 07:20:26.146311 18721 net.cpp:150] Setting up LFCN_1_3x5
I1006 07:20:26.146328 18721 net.cpp:157] Top shape: 4 6 56 56 (75264)
I1006 07:20:26.146332 18721 net.cpp:165] Memory required for data: 1977613372
I1006 07:20:26.146339 18721 layer_factory.hpp:76] Creating layer LFCN_1_3x5_LFCN_1_3x5_0_split
I1006 07:20:26.146345 18721 net.cpp:106] Creating Layer LFCN_1_3x5_LFCN_1_3x5_0_split
I1006 07:20:26.146349 18721 net.cpp:454] LFCN_1_3x5_LFCN_1_3x5_0_split <- LFCN_1_3x5
I1006 07:20:26.146356 18721 net.cpp:411] LFCN_1_3x5_LFCN_1_3x5_0_split -> LFCN_1_3x5_LFCN_1_3x5_0_split_0
I1006 07:20:26.146370 18721 net.cpp:411] LFCN_1_3x5_LFCN_1_3x5_0_split -> LFCN_1_3x5_LFCN_1_3x5_0_split_1
I1006 07:20:26.146376 18721 net.cpp:411] LFCN_1_3x5_LFCN_1_3x5_0_split -> LFCN_1_3x5_LFCN_1_3x5_0_split_2
I1006 07:20:26.146432 18721 net.cpp:150] Setting up LFCN_1_3x5_LFCN_1_3x5_0_split
I1006 07:20:26.146437 18721 net.cpp:157] Top shape: 4 6 56 56 (75264)
I1006 07:20:26.146441 18721 net.cpp:157] Top shape: 4 6 56 56 (75264)
I1006 07:20:26.146445 18721 net.cpp:157] Top shape: 4 6 56 56 (75264)
I1006 07:20:26.146447 18721 net.cpp:165] Memory required for data: 1978516540
I1006 07:20:26.146450 18721 layer_factory.hpp:76] Creating layer detection_loss_1_3x5
I1006 07:20:26.146459 18721 net.cpp:106] Creating Layer detection_loss_1_3x5
I1006 07:20:26.146464 18721 net.cpp:454] detection_loss_1_3x5 <- LFCN_1_3x5_LFCN_1_3x5_0_split_0
I1006 07:20:26.146472 18721 net.cpp:454] detection_loss_1_3x5 <- label_1_3x5_data_1_split_0
I1006 07:20:26.146483 18721 net.cpp:411] detection_loss_1_3x5 -> loss_1_3x5
I1006 07:20:26.146502 18721 layer_factory.hpp:76] Creating layer detection_loss_1_3x5
I1006 07:20:26.147333 18721 net.cpp:150] Setting up detection_loss_1_3x5
I1006 07:20:26.147348 18721 net.cpp:157] Top shape: 1 1 1 2 (2)
I1006 07:20:26.147352 18721 net.cpp:160]     with loss weight 0.9
I1006 07:20:26.147373 18721 net.cpp:165] Memory required for data: 1978516548
I1006 07:20:26.147377 18721 layer_factory.hpp:76] Creating layer detection_accuracy_1_3x5
I1006 07:20:26.147384 18721 net.cpp:106] Creating Layer detection_accuracy_1_3x5
I1006 07:20:26.147388 18721 net.cpp:454] detection_accuracy_1_3x5 <- LFCN_1_3x5_LFCN_1_3x5_0_split_1
I1006 07:20:26.147393 18721 net.cpp:454] detection_accuracy_1_3x5 <- label_1_3x5_data_1_split_1
I1006 07:20:26.147402 18721 net.cpp:411] detection_accuracy_1_3x5 -> accuracy_1_3x5
I1006 07:20:26.147410 18721 net.cpp:411] detection_accuracy_1_3x5 -> boxiou_1_3x5
I1006 07:20:26.147454 18721 net.cpp:150] Setting up detection_accuracy_1_3x5
I1006 07:20:26.147460 18721 net.cpp:157] Top shape: 1 1 1 2 (2)
I1006 07:20:26.147464 18721 net.cpp:157] Top shape: 1 1 1 1 (1)
I1006 07:20:26.147466 18721 net.cpp:165] Memory required for data: 1978516560
I1006 07:20:26.147470 18721 layer_factory.hpp:76] Creating layer LFCN_1_5x7
I1006 07:20:26.147482 18721 net.cpp:106] Creating Layer LFCN_1_5x7
I1006 07:20:26.147488 18721 net.cpp:454] LFCN_1_5x7 <- loss1_conv1_loss_relu1_0_split_1
I1006 07:20:26.147497 18721 net.cpp:411] LFCN_1_5x7 -> LFCN_1_5x7
I1006 07:20:26.152962 18721 net.cpp:150] Setting up LFCN_1_5x7
I1006 07:20:26.152978 18721 net.cpp:157] Top shape: 4 6 56 56 (75264)
I1006 07:20:26.152981 18721 net.cpp:165] Memory required for data: 1978817616
I1006 07:20:26.152988 18721 layer_factory.hpp:76] Creating layer LFCN_1_5x7_LFCN_1_5x7_0_split
I1006 07:20:26.152994 18721 net.cpp:106] Creating Layer LFCN_1_5x7_LFCN_1_5x7_0_split
I1006 07:20:26.152998 18721 net.cpp:454] LFCN_1_5x7_LFCN_1_5x7_0_split <- LFCN_1_5x7
I1006 07:20:26.153007 18721 net.cpp:411] LFCN_1_5x7_LFCN_1_5x7_0_split -> LFCN_1_5x7_LFCN_1_5x7_0_split_0
I1006 07:20:26.153013 18721 net.cpp:411] LFCN_1_5x7_LFCN_1_5x7_0_split -> LFCN_1_5x7_LFCN_1_5x7_0_split_1
I1006 07:20:26.153019 18721 net.cpp:411] LFCN_1_5x7_LFCN_1_5x7_0_split -> LFCN_1_5x7_LFCN_1_5x7_0_split_2
I1006 07:20:26.153077 18721 net.cpp:150] Setting up LFCN_1_5x7_LFCN_1_5x7_0_split
I1006 07:20:26.153082 18721 net.cpp:157] Top shape: 4 6 56 56 (75264)
I1006 07:20:26.153086 18721 net.cpp:157] Top shape: 4 6 56 56 (75264)
I1006 07:20:26.153090 18721 net.cpp:157] Top shape: 4 6 56 56 (75264)
I1006 07:20:26.153092 18721 net.cpp:165] Memory required for data: 1979720784
I1006 07:20:26.153097 18721 layer_factory.hpp:76] Creating layer detection_loss_1_5x7
I1006 07:20:26.153108 18721 net.cpp:106] Creating Layer detection_loss_1_5x7
I1006 07:20:26.153115 18721 net.cpp:454] detection_loss_1_5x7 <- LFCN_1_5x7_LFCN_1_5x7_0_split_0
I1006 07:20:26.153122 18721 net.cpp:454] detection_loss_1_5x7 <- label_1_5x7_data_2_split_0
I1006 07:20:26.153134 18721 net.cpp:411] detection_loss_1_5x7 -> loss_1_5x7
I1006 07:20:26.153147 18721 layer_factory.hpp:76] Creating layer detection_loss_1_5x7
I1006 07:20:26.153754 18721 net.cpp:150] Setting up detection_loss_1_5x7
I1006 07:20:26.153769 18721 net.cpp:157] Top shape: 1 1 1 2 (2)
I1006 07:20:26.153771 18721 net.cpp:160]     with loss weight 0.9
I1006 07:20:26.153779 18721 net.cpp:165] Memory required for data: 1979720792
I1006 07:20:26.153782 18721 layer_factory.hpp:76] Creating layer detection_accuracy_1_5x7
I1006 07:20:26.153794 18721 net.cpp:106] Creating Layer detection_accuracy_1_5x7
I1006 07:20:26.153798 18721 net.cpp:454] detection_accuracy_1_5x7 <- LFCN_1_5x7_LFCN_1_5x7_0_split_1
I1006 07:20:26.153805 18721 net.cpp:454] detection_accuracy_1_5x7 <- label_1_5x7_data_2_split_1
I1006 07:20:26.153810 18721 net.cpp:411] detection_accuracy_1_5x7 -> accuracy_1_5x7
I1006 07:20:26.153816 18721 net.cpp:411] detection_accuracy_1_5x7 -> boxiou_1_5x7
I1006 07:20:26.153859 18721 net.cpp:150] Setting up detection_accuracy_1_5x7
I1006 07:20:26.153865 18721 net.cpp:157] Top shape: 1 1 1 2 (2)
I1006 07:20:26.153868 18721 net.cpp:157] Top shape: 1 1 1 1 (1)
I1006 07:20:26.153872 18721 net.cpp:165] Memory required for data: 1979720804
I1006 07:20:26.153874 18721 layer_factory.hpp:76] Creating layer pool4
I1006 07:20:26.153880 18721 net.cpp:106] Creating Layer pool4
I1006 07:20:26.153883 18721 net.cpp:454] pool4 <- conv4_3_relu4_3_0_split_1
I1006 07:20:26.153890 18721 net.cpp:411] pool4 -> pool4
I1006 07:20:26.154333 18721 net.cpp:150] Setting up pool4
I1006 07:20:26.154355 18721 net.cpp:157] Top shape: 4 512 28 28 (1605632)
I1006 07:20:26.154357 18721 net.cpp:165] Memory required for data: 1986143332
I1006 07:20:26.154361 18721 layer_factory.hpp:76] Creating layer conv5_1
I1006 07:20:26.154369 18721 net.cpp:106] Creating Layer conv5_1
I1006 07:20:26.154373 18721 net.cpp:454] conv5_1 <- pool4
I1006 07:20:26.154378 18721 net.cpp:411] conv5_1 -> conv5_1
I1006 07:20:26.160795 18721 net.cpp:150] Setting up conv5_1
I1006 07:20:26.160812 18721 net.cpp:157] Top shape: 4 512 28 28 (1605632)
I1006 07:20:26.160815 18721 net.cpp:165] Memory required for data: 1992565860
I1006 07:20:26.160822 18721 layer_factory.hpp:76] Creating layer relu5_1
I1006 07:20:26.160830 18721 net.cpp:106] Creating Layer relu5_1
I1006 07:20:26.160835 18721 net.cpp:454] relu5_1 <- conv5_1
I1006 07:20:26.160840 18721 net.cpp:397] relu5_1 -> conv5_1 (in-place)
I1006 07:20:26.161223 18721 net.cpp:150] Setting up relu5_1
I1006 07:20:26.161237 18721 net.cpp:157] Top shape: 4 512 28 28 (1605632)
I1006 07:20:26.161240 18721 net.cpp:165] Memory required for data: 1998988388
I1006 07:20:26.161244 18721 layer_factory.hpp:76] Creating layer conv5_2
I1006 07:20:26.161253 18721 net.cpp:106] Creating Layer conv5_2
I1006 07:20:26.161257 18721 net.cpp:454] conv5_2 <- conv5_1
I1006 07:20:26.161263 18721 net.cpp:411] conv5_2 -> conv5_2
I1006 07:20:26.167856 18721 net.cpp:150] Setting up conv5_2
I1006 07:20:26.167875 18721 net.cpp:157] Top shape: 4 512 28 28 (1605632)
I1006 07:20:26.167877 18721 net.cpp:165] Memory required for data: 2005410916
I1006 07:20:26.167884 18721 layer_factory.hpp:76] Creating layer relu5_2
I1006 07:20:26.167892 18721 net.cpp:106] Creating Layer relu5_2
I1006 07:20:26.167896 18721 net.cpp:454] relu5_2 <- conv5_2
I1006 07:20:26.167901 18721 net.cpp:397] relu5_2 -> conv5_2 (in-place)
I1006 07:20:26.168105 18721 net.cpp:150] Setting up relu5_2
I1006 07:20:26.168121 18721 net.cpp:157] Top shape: 4 512 28 28 (1605632)
I1006 07:20:26.168128 18721 net.cpp:165] Memory required for data: 2011833444
I1006 07:20:26.168133 18721 layer_factory.hpp:76] Creating layer conv5_3
I1006 07:20:26.168144 18721 net.cpp:106] Creating Layer conv5_3
I1006 07:20:26.168148 18721 net.cpp:454] conv5_3 <- conv5_2
I1006 07:20:26.168154 18721 net.cpp:411] conv5_3 -> conv5_3
I1006 07:20:26.174808 18721 net.cpp:150] Setting up conv5_3
I1006 07:20:26.174825 18721 net.cpp:157] Top shape: 4 512 28 28 (1605632)
I1006 07:20:26.174829 18721 net.cpp:165] Memory required for data: 2018255972
I1006 07:20:26.174835 18721 layer_factory.hpp:76] Creating layer relu5_3
I1006 07:20:26.174842 18721 net.cpp:106] Creating Layer relu5_3
I1006 07:20:26.174849 18721 net.cpp:454] relu5_3 <- conv5_3
I1006 07:20:26.174854 18721 net.cpp:397] relu5_3 -> conv5_3 (in-place)
I1006 07:20:26.175242 18721 net.cpp:150] Setting up relu5_3
I1006 07:20:26.175257 18721 net.cpp:157] Top shape: 4 512 28 28 (1605632)
I1006 07:20:26.175261 18721 net.cpp:165] Memory required for data: 2024678500
I1006 07:20:26.175263 18721 layer_factory.hpp:76] Creating layer conv5_3_relu5_3_0_split
I1006 07:20:26.175278 18721 net.cpp:106] Creating Layer conv5_3_relu5_3_0_split
I1006 07:20:26.175282 18721 net.cpp:454] conv5_3_relu5_3_0_split <- conv5_3
I1006 07:20:26.175287 18721 net.cpp:411] conv5_3_relu5_3_0_split -> conv5_3_relu5_3_0_split_0
I1006 07:20:26.175294 18721 net.cpp:411] conv5_3_relu5_3_0_split -> conv5_3_relu5_3_0_split_1
I1006 07:20:26.175300 18721 net.cpp:411] conv5_3_relu5_3_0_split -> conv5_3_relu5_3_0_split_2
I1006 07:20:26.175364 18721 net.cpp:150] Setting up conv5_3_relu5_3_0_split
I1006 07:20:26.175372 18721 net.cpp:157] Top shape: 4 512 28 28 (1605632)
I1006 07:20:26.175376 18721 net.cpp:157] Top shape: 4 512 28 28 (1605632)
I1006 07:20:26.175379 18721 net.cpp:157] Top shape: 4 512 28 28 (1605632)
I1006 07:20:26.175382 18721 net.cpp:165] Memory required for data: 2043946084
I1006 07:20:26.175385 18721 layer_factory.hpp:76] Creating layer LFCN_2_3x5
I1006 07:20:26.175396 18721 net.cpp:106] Creating Layer LFCN_2_3x5
I1006 07:20:26.175400 18721 net.cpp:454] LFCN_2_3x5 <- conv5_3_relu5_3_0_split_0
I1006 07:20:26.175408 18721 net.cpp:411] LFCN_2_3x5 -> LFCN_2_3x5
I1006 07:20:26.178094 18721 net.cpp:150] Setting up LFCN_2_3x5
I1006 07:20:26.178109 18721 net.cpp:157] Top shape: 4 6 28 28 (18816)
I1006 07:20:26.178113 18721 net.cpp:165] Memory required for data: 2044021348
I1006 07:20:26.178129 18721 layer_factory.hpp:76] Creating layer LFCN_2_3x5_LFCN_2_3x5_0_split
I1006 07:20:26.178136 18721 net.cpp:106] Creating Layer LFCN_2_3x5_LFCN_2_3x5_0_split
I1006 07:20:26.178140 18721 net.cpp:454] LFCN_2_3x5_LFCN_2_3x5_0_split <- LFCN_2_3x5
I1006 07:20:26.178146 18721 net.cpp:411] LFCN_2_3x5_LFCN_2_3x5_0_split -> LFCN_2_3x5_LFCN_2_3x5_0_split_0
I1006 07:20:26.178163 18721 net.cpp:411] LFCN_2_3x5_LFCN_2_3x5_0_split -> LFCN_2_3x5_LFCN_2_3x5_0_split_1
I1006 07:20:26.178170 18721 net.cpp:411] LFCN_2_3x5_LFCN_2_3x5_0_split -> LFCN_2_3x5_LFCN_2_3x5_0_split_2
I1006 07:20:26.178236 18721 net.cpp:150] Setting up LFCN_2_3x5_LFCN_2_3x5_0_split
I1006 07:20:26.178241 18721 net.cpp:157] Top shape: 4 6 28 28 (18816)
I1006 07:20:26.178246 18721 net.cpp:157] Top shape: 4 6 28 28 (18816)
I1006 07:20:26.178248 18721 net.cpp:157] Top shape: 4 6 28 28 (18816)
I1006 07:20:26.178251 18721 net.cpp:165] Memory required for data: 2044247140
I1006 07:20:26.178254 18721 layer_factory.hpp:76] Creating layer detection_loss_2_3x5
I1006 07:20:26.178262 18721 net.cpp:106] Creating Layer detection_loss_2_3x5
I1006 07:20:26.178266 18721 net.cpp:454] detection_loss_2_3x5 <- LFCN_2_3x5_LFCN_2_3x5_0_split_0
I1006 07:20:26.178270 18721 net.cpp:454] detection_loss_2_3x5 <- label_2_3x5_data_3_split_0
I1006 07:20:26.178277 18721 net.cpp:411] detection_loss_2_3x5 -> loss_2_3x5
I1006 07:20:26.178285 18721 layer_factory.hpp:76] Creating layer detection_loss_2_3x5
I1006 07:20:26.178869 18721 net.cpp:150] Setting up detection_loss_2_3x5
I1006 07:20:26.178882 18721 net.cpp:157] Top shape: 1 1 1 2 (2)
I1006 07:20:26.178900 18721 net.cpp:160]     with loss weight 1
I1006 07:20:26.178920 18721 net.cpp:165] Memory required for data: 2044247148
I1006 07:20:26.178922 18721 layer_factory.hpp:76] Creating layer detection_accuracy_2_3x5
I1006 07:20:26.178930 18721 net.cpp:106] Creating Layer detection_accuracy_2_3x5
I1006 07:20:26.178935 18721 net.cpp:454] detection_accuracy_2_3x5 <- LFCN_2_3x5_LFCN_2_3x5_0_split_1
I1006 07:20:26.178939 18721 net.cpp:454] detection_accuracy_2_3x5 <- label_2_3x5_data_3_split_1
I1006 07:20:26.178947 18721 net.cpp:411] detection_accuracy_2_3x5 -> accuracy_2_3x5
I1006 07:20:26.178956 18721 net.cpp:411] detection_accuracy_2_3x5 -> boxiou_2_3x5
I1006 07:20:26.179005 18721 net.cpp:150] Setting up detection_accuracy_2_3x5
I1006 07:20:26.179011 18721 net.cpp:157] Top shape: 1 1 1 2 (2)
I1006 07:20:26.179014 18721 net.cpp:157] Top shape: 1 1 1 1 (1)
I1006 07:20:26.179018 18721 net.cpp:165] Memory required for data: 2044247160
I1006 07:20:26.179020 18721 layer_factory.hpp:76] Creating layer LFCN_2_5x7
I1006 07:20:26.179031 18721 net.cpp:106] Creating Layer LFCN_2_5x7
I1006 07:20:26.179036 18721 net.cpp:454] LFCN_2_5x7 <- conv5_3_relu5_3_0_split_1
I1006 07:20:26.179041 18721 net.cpp:411] LFCN_2_5x7 -> LFCN_2_5x7
I1006 07:20:26.184309 18721 net.cpp:150] Setting up LFCN_2_5x7
I1006 07:20:26.184324 18721 net.cpp:157] Top shape: 4 6 28 28 (18816)
I1006 07:20:26.184329 18721 net.cpp:165] Memory required for data: 2044322424
I1006 07:20:26.184335 18721 layer_factory.hpp:76] Creating layer LFCN_2_5x7_LFCN_2_5x7_0_split
I1006 07:20:26.184343 18721 net.cpp:106] Creating Layer LFCN_2_5x7_LFCN_2_5x7_0_split
I1006 07:20:26.184347 18721 net.cpp:454] LFCN_2_5x7_LFCN_2_5x7_0_split <- LFCN_2_5x7
I1006 07:20:26.184353 18721 net.cpp:411] LFCN_2_5x7_LFCN_2_5x7_0_split -> LFCN_2_5x7_LFCN_2_5x7_0_split_0
I1006 07:20:26.184360 18721 net.cpp:411] LFCN_2_5x7_LFCN_2_5x7_0_split -> LFCN_2_5x7_LFCN_2_5x7_0_split_1
I1006 07:20:26.184366 18721 net.cpp:411] LFCN_2_5x7_LFCN_2_5x7_0_split -> LFCN_2_5x7_LFCN_2_5x7_0_split_2
I1006 07:20:26.184439 18721 net.cpp:150] Setting up LFCN_2_5x7_LFCN_2_5x7_0_split
I1006 07:20:26.184444 18721 net.cpp:157] Top shape: 4 6 28 28 (18816)
I1006 07:20:26.184448 18721 net.cpp:157] Top shape: 4 6 28 28 (18816)
I1006 07:20:26.184451 18721 net.cpp:157] Top shape: 4 6 28 28 (18816)
I1006 07:20:26.184454 18721 net.cpp:165] Memory required for data: 2044548216
I1006 07:20:26.184458 18721 layer_factory.hpp:76] Creating layer detection_loss_2_5x7
I1006 07:20:26.184468 18721 net.cpp:106] Creating Layer detection_loss_2_5x7
I1006 07:20:26.184470 18721 net.cpp:454] detection_loss_2_5x7 <- LFCN_2_5x7_LFCN_2_5x7_0_split_0
I1006 07:20:26.184475 18721 net.cpp:454] detection_loss_2_5x7 <- label_2_5x7_data_4_split_0
I1006 07:20:26.184480 18721 net.cpp:411] detection_loss_2_5x7 -> loss_2_5x7
I1006 07:20:26.184489 18721 layer_factory.hpp:76] Creating layer detection_loss_2_5x7
I1006 07:20:26.184948 18721 net.cpp:150] Setting up detection_loss_2_5x7
I1006 07:20:26.184962 18721 net.cpp:157] Top shape: 1 1 1 2 (2)
I1006 07:20:26.184965 18721 net.cpp:160]     with loss weight 1
I1006 07:20:26.184972 18721 net.cpp:165] Memory required for data: 2044548224
I1006 07:20:26.184974 18721 layer_factory.hpp:76] Creating layer detection_accuracy_2_5x7
I1006 07:20:26.184981 18721 net.cpp:106] Creating Layer detection_accuracy_2_5x7
I1006 07:20:26.184985 18721 net.cpp:454] detection_accuracy_2_5x7 <- LFCN_2_5x7_LFCN_2_5x7_0_split_1
I1006 07:20:26.184990 18721 net.cpp:454] detection_accuracy_2_5x7 <- label_2_5x7_data_4_split_1
I1006 07:20:26.184998 18721 net.cpp:411] detection_accuracy_2_5x7 -> accuracy_2_5x7
I1006 07:20:26.185009 18721 net.cpp:411] detection_accuracy_2_5x7 -> boxiou_2_5x7
I1006 07:20:26.185053 18721 net.cpp:150] Setting up detection_accuracy_2_5x7
I1006 07:20:26.185058 18721 net.cpp:157] Top shape: 1 1 1 2 (2)
I1006 07:20:26.185062 18721 net.cpp:157] Top shape: 1 1 1 1 (1)
I1006 07:20:26.185065 18721 net.cpp:165] Memory required for data: 2044548236
I1006 07:20:26.185067 18721 layer_factory.hpp:76] Creating layer pool5
I1006 07:20:26.185073 18721 net.cpp:106] Creating Layer pool5
I1006 07:20:26.185077 18721 net.cpp:454] pool5 <- conv5_3_relu5_3_0_split_2
I1006 07:20:26.185082 18721 net.cpp:411] pool5 -> pool5
I1006 07:20:26.185737 18721 net.cpp:150] Setting up pool5
I1006 07:20:26.185753 18721 net.cpp:157] Top shape: 4 512 14 14 (401408)
I1006 07:20:26.185757 18721 net.cpp:165] Memory required for data: 2046153868
I1006 07:20:26.185760 18721 layer_factory.hpp:76] Creating layer conv6_1
I1006 07:20:26.185770 18721 net.cpp:106] Creating Layer conv6_1
I1006 07:20:26.185773 18721 net.cpp:454] conv6_1 <- pool5
I1006 07:20:26.185780 18721 net.cpp:411] conv6_1 -> conv6_1
I1006 07:20:26.258291 18721 net.cpp:150] Setting up conv6_1
I1006 07:20:26.258304 18721 net.cpp:157] Top shape: 4 512 14 14 (401408)
I1006 07:20:26.258318 18721 net.cpp:165] Memory required for data: 2047759500
I1006 07:20:26.258324 18721 layer_factory.hpp:76] Creating layer relu6_1
I1006 07:20:26.258332 18721 net.cpp:106] Creating Layer relu6_1
I1006 07:20:26.258335 18721 net.cpp:454] relu6_1 <- conv6_1
I1006 07:20:26.258339 18721 net.cpp:397] relu6_1 -> conv6_1 (in-place)
I1006 07:20:26.258558 18721 net.cpp:150] Setting up relu6_1
I1006 07:20:26.258572 18721 net.cpp:157] Top shape: 4 512 14 14 (401408)
I1006 07:20:26.258577 18721 net.cpp:165] Memory required for data: 2049365132
I1006 07:20:26.258581 18721 layer_factory.hpp:76] Creating layer conv6_1_relu6_1_0_split
I1006 07:20:26.258589 18721 net.cpp:106] Creating Layer conv6_1_relu6_1_0_split
I1006 07:20:26.258594 18721 net.cpp:454] conv6_1_relu6_1_0_split <- conv6_1
I1006 07:20:26.258605 18721 net.cpp:411] conv6_1_relu6_1_0_split -> conv6_1_relu6_1_0_split_0
I1006 07:20:26.258611 18721 net.cpp:411] conv6_1_relu6_1_0_split -> conv6_1_relu6_1_0_split_1
I1006 07:20:26.258617 18721 net.cpp:411] conv6_1_relu6_1_0_split -> conv6_1_relu6_1_0_split_2
I1006 07:20:26.258683 18721 net.cpp:150] Setting up conv6_1_relu6_1_0_split
I1006 07:20:26.258692 18721 net.cpp:157] Top shape: 4 512 14 14 (401408)
I1006 07:20:26.258697 18721 net.cpp:157] Top shape: 4 512 14 14 (401408)
I1006 07:20:26.258702 18721 net.cpp:157] Top shape: 4 512 14 14 (401408)
I1006 07:20:26.258707 18721 net.cpp:165] Memory required for data: 2054182028
I1006 07:20:26.258711 18721 layer_factory.hpp:76] Creating layer LFCN_3_3x5
I1006 07:20:26.258721 18721 net.cpp:106] Creating Layer LFCN_3_3x5
I1006 07:20:26.258726 18721 net.cpp:454] LFCN_3_3x5 <- conv6_1_relu6_1_0_split_0
I1006 07:20:26.258738 18721 net.cpp:411] LFCN_3_3x5 -> LFCN_3_3x5
I1006 07:20:26.261368 18721 net.cpp:150] Setting up LFCN_3_3x5
I1006 07:20:26.261381 18721 net.cpp:157] Top shape: 4 6 14 14 (4704)
I1006 07:20:26.261385 18721 net.cpp:165] Memory required for data: 2054200844
I1006 07:20:26.261391 18721 layer_factory.hpp:76] Creating layer LFCN_3_3x5_LFCN_3_3x5_0_split
I1006 07:20:26.261418 18721 net.cpp:106] Creating Layer LFCN_3_3x5_LFCN_3_3x5_0_split
I1006 07:20:26.261422 18721 net.cpp:454] LFCN_3_3x5_LFCN_3_3x5_0_split <- LFCN_3_3x5
I1006 07:20:26.261427 18721 net.cpp:411] LFCN_3_3x5_LFCN_3_3x5_0_split -> LFCN_3_3x5_LFCN_3_3x5_0_split_0
I1006 07:20:26.261435 18721 net.cpp:411] LFCN_3_3x5_LFCN_3_3x5_0_split -> LFCN_3_3x5_LFCN_3_3x5_0_split_1
I1006 07:20:26.261440 18721 net.cpp:411] LFCN_3_3x5_LFCN_3_3x5_0_split -> LFCN_3_3x5_LFCN_3_3x5_0_split_2
I1006 07:20:26.261502 18721 net.cpp:150] Setting up LFCN_3_3x5_LFCN_3_3x5_0_split
I1006 07:20:26.261513 18721 net.cpp:157] Top shape: 4 6 14 14 (4704)
I1006 07:20:26.261519 18721 net.cpp:157] Top shape: 4 6 14 14 (4704)
I1006 07:20:26.261525 18721 net.cpp:157] Top shape: 4 6 14 14 (4704)
I1006 07:20:26.261529 18721 net.cpp:165] Memory required for data: 2054257292
I1006 07:20:26.261534 18721 layer_factory.hpp:76] Creating layer detection_loss_3_3x5
I1006 07:20:26.261546 18721 net.cpp:106] Creating Layer detection_loss_3_3x5
I1006 07:20:26.261553 18721 net.cpp:454] detection_loss_3_3x5 <- LFCN_3_3x5_LFCN_3_3x5_0_split_0
I1006 07:20:26.261559 18721 net.cpp:454] detection_loss_3_3x5 <- label_3_3x5_data_5_split_0
I1006 07:20:26.261564 18721 net.cpp:411] detection_loss_3_3x5 -> loss_3_3x5
I1006 07:20:26.261574 18721 layer_factory.hpp:76] Creating layer detection_loss_3_3x5
I1006 07:20:26.262001 18721 net.cpp:150] Setting up detection_loss_3_3x5
I1006 07:20:26.262014 18721 net.cpp:157] Top shape: 1 1 1 2 (2)
I1006 07:20:26.262017 18721 net.cpp:160]     with loss weight 1
I1006 07:20:26.262023 18721 net.cpp:165] Memory required for data: 2054257300
I1006 07:20:26.262027 18721 layer_factory.hpp:76] Creating layer detection_accuracy_3_3x5
I1006 07:20:26.262032 18721 net.cpp:106] Creating Layer detection_accuracy_3_3x5
I1006 07:20:26.262037 18721 net.cpp:454] detection_accuracy_3_3x5 <- LFCN_3_3x5_LFCN_3_3x5_0_split_1
I1006 07:20:26.262042 18721 net.cpp:454] detection_accuracy_3_3x5 <- label_3_3x5_data_5_split_1
I1006 07:20:26.262048 18721 net.cpp:411] detection_accuracy_3_3x5 -> accuracy_3_3x5
I1006 07:20:26.262055 18721 net.cpp:411] detection_accuracy_3_3x5 -> boxiou_3_3x5
I1006 07:20:26.262104 18721 net.cpp:150] Setting up detection_accuracy_3_3x5
I1006 07:20:26.262112 18721 net.cpp:157] Top shape: 1 1 1 2 (2)
I1006 07:20:26.262118 18721 net.cpp:157] Top shape: 1 1 1 1 (1)
I1006 07:20:26.262122 18721 net.cpp:165] Memory required for data: 2054257312
I1006 07:20:26.262126 18721 layer_factory.hpp:76] Creating layer LFCN_3_5x7
I1006 07:20:26.262135 18721 net.cpp:106] Creating Layer LFCN_3_5x7
I1006 07:20:26.262140 18721 net.cpp:454] LFCN_3_5x7 <- conv6_1_relu6_1_0_split_1
I1006 07:20:26.262151 18721 net.cpp:411] LFCN_3_5x7 -> LFCN_3_5x7
I1006 07:20:26.267354 18721 net.cpp:150] Setting up LFCN_3_5x7
I1006 07:20:26.267380 18721 net.cpp:157] Top shape: 4 6 14 14 (4704)
I1006 07:20:26.267384 18721 net.cpp:165] Memory required for data: 2054276128
I1006 07:20:26.267390 18721 layer_factory.hpp:76] Creating layer LFCN_3_5x7_LFCN_3_5x7_0_split
I1006 07:20:26.267395 18721 net.cpp:106] Creating Layer LFCN_3_5x7_LFCN_3_5x7_0_split
I1006 07:20:26.267398 18721 net.cpp:454] LFCN_3_5x7_LFCN_3_5x7_0_split <- LFCN_3_5x7
I1006 07:20:26.267405 18721 net.cpp:411] LFCN_3_5x7_LFCN_3_5x7_0_split -> LFCN_3_5x7_LFCN_3_5x7_0_split_0
I1006 07:20:26.267412 18721 net.cpp:411] LFCN_3_5x7_LFCN_3_5x7_0_split -> LFCN_3_5x7_LFCN_3_5x7_0_split_1
I1006 07:20:26.267417 18721 net.cpp:411] LFCN_3_5x7_LFCN_3_5x7_0_split -> LFCN_3_5x7_LFCN_3_5x7_0_split_2
I1006 07:20:26.267493 18721 net.cpp:150] Setting up LFCN_3_5x7_LFCN_3_5x7_0_split
I1006 07:20:26.267503 18721 net.cpp:157] Top shape: 4 6 14 14 (4704)
I1006 07:20:26.267508 18721 net.cpp:157] Top shape: 4 6 14 14 (4704)
I1006 07:20:26.267513 18721 net.cpp:157] Top shape: 4 6 14 14 (4704)
I1006 07:20:26.267518 18721 net.cpp:165] Memory required for data: 2054332576
I1006 07:20:26.267523 18721 layer_factory.hpp:76] Creating layer detection_loss_3_5x7
I1006 07:20:26.267530 18721 net.cpp:106] Creating Layer detection_loss_3_5x7
I1006 07:20:26.267534 18721 net.cpp:454] detection_loss_3_5x7 <- LFCN_3_5x7_LFCN_3_5x7_0_split_0
I1006 07:20:26.267539 18721 net.cpp:454] detection_loss_3_5x7 <- label_3_5x7_data_6_split_0
I1006 07:20:26.267546 18721 net.cpp:411] detection_loss_3_5x7 -> loss_3_5x7
I1006 07:20:26.267554 18721 layer_factory.hpp:76] Creating layer detection_loss_3_5x7
I1006 07:20:26.268173 18721 net.cpp:150] Setting up detection_loss_3_5x7
I1006 07:20:26.268198 18721 net.cpp:157] Top shape: 1 1 1 2 (2)
I1006 07:20:26.268200 18721 net.cpp:160]     with loss weight 1
I1006 07:20:26.268206 18721 net.cpp:165] Memory required for data: 2054332584
I1006 07:20:26.268209 18721 layer_factory.hpp:76] Creating layer detection_accuracy_3_5x7
I1006 07:20:26.268215 18721 net.cpp:106] Creating Layer detection_accuracy_3_5x7
I1006 07:20:26.268218 18721 net.cpp:454] detection_accuracy_3_5x7 <- LFCN_3_5x7_LFCN_3_5x7_0_split_1
I1006 07:20:26.268224 18721 net.cpp:454] detection_accuracy_3_5x7 <- label_3_5x7_data_6_split_1
I1006 07:20:26.268229 18721 net.cpp:411] detection_accuracy_3_5x7 -> accuracy_3_5x7
I1006 07:20:26.268236 18721 net.cpp:411] detection_accuracy_3_5x7 -> boxiou_3_5x7
I1006 07:20:26.268290 18721 net.cpp:150] Setting up detection_accuracy_3_5x7
I1006 07:20:26.268296 18721 net.cpp:157] Top shape: 1 1 1 2 (2)
I1006 07:20:26.268302 18721 net.cpp:157] Top shape: 1 1 1 1 (1)
I1006 07:20:26.268306 18721 net.cpp:165] Memory required for data: 2054332596
I1006 07:20:26.268311 18721 layer_factory.hpp:76] Creating layer pool6
I1006 07:20:26.268321 18721 net.cpp:106] Creating Layer pool6
I1006 07:20:26.268327 18721 net.cpp:454] pool6 <- conv6_1_relu6_1_0_split_2
I1006 07:20:26.268335 18721 net.cpp:411] pool6 -> pool6
I1006 07:20:26.268594 18721 net.cpp:150] Setting up pool6
I1006 07:20:26.268606 18721 net.cpp:157] Top shape: 4 512 7 7 (100352)
I1006 07:20:26.268610 18721 net.cpp:165] Memory required for data: 2054734004
I1006 07:20:26.268613 18721 layer_factory.hpp:76] Creating layer LFCN_4_3x5
I1006 07:20:26.268622 18721 net.cpp:106] Creating Layer LFCN_4_3x5
I1006 07:20:26.268625 18721 net.cpp:454] LFCN_4_3x5 <- pool6
I1006 07:20:26.268632 18721 net.cpp:411] LFCN_4_3x5 -> LFCN_4_3x5
I1006 07:20:26.271492 18721 net.cpp:150] Setting up LFCN_4_3x5
I1006 07:20:26.271504 18721 net.cpp:157] Top shape: 4 6 7 7 (1176)
I1006 07:20:26.271519 18721 net.cpp:165] Memory required for data: 2054738708
I1006 07:20:26.271528 18721 layer_factory.hpp:76] Creating layer LFCN_4_3x5_LFCN_4_3x5_0_split
I1006 07:20:26.271534 18721 net.cpp:106] Creating Layer LFCN_4_3x5_LFCN_4_3x5_0_split
I1006 07:20:26.271538 18721 net.cpp:454] LFCN_4_3x5_LFCN_4_3x5_0_split <- LFCN_4_3x5
I1006 07:20:26.271543 18721 net.cpp:411] LFCN_4_3x5_LFCN_4_3x5_0_split -> LFCN_4_3x5_LFCN_4_3x5_0_split_0
I1006 07:20:26.271550 18721 net.cpp:411] LFCN_4_3x5_LFCN_4_3x5_0_split -> LFCN_4_3x5_LFCN_4_3x5_0_split_1
I1006 07:20:26.271555 18721 net.cpp:411] LFCN_4_3x5_LFCN_4_3x5_0_split -> LFCN_4_3x5_LFCN_4_3x5_0_split_2
I1006 07:20:26.271632 18721 net.cpp:150] Setting up LFCN_4_3x5_LFCN_4_3x5_0_split
I1006 07:20:26.271638 18721 net.cpp:157] Top shape: 4 6 7 7 (1176)
I1006 07:20:26.271641 18721 net.cpp:157] Top shape: 4 6 7 7 (1176)
I1006 07:20:26.271644 18721 net.cpp:157] Top shape: 4 6 7 7 (1176)
I1006 07:20:26.271647 18721 net.cpp:165] Memory required for data: 2054752820
I1006 07:20:26.271649 18721 layer_factory.hpp:76] Creating layer detection_loss_4_3x5
I1006 07:20:26.271657 18721 net.cpp:106] Creating Layer detection_loss_4_3x5
I1006 07:20:26.271662 18721 net.cpp:454] detection_loss_4_3x5 <- LFCN_4_3x5_LFCN_4_3x5_0_split_0
I1006 07:20:26.271669 18721 net.cpp:454] detection_loss_4_3x5 <- label_4_3x5_data_7_split_0
I1006 07:20:26.271677 18721 net.cpp:411] detection_loss_4_3x5 -> loss_4_3x5
I1006 07:20:26.271688 18721 layer_factory.hpp:76] Creating layer detection_loss_4_3x5
I1006 07:20:26.273794 18721 net.cpp:150] Setting up detection_loss_4_3x5
I1006 07:20:26.273807 18721 net.cpp:157] Top shape: 1 1 1 2 (2)
I1006 07:20:26.273820 18721 net.cpp:160]     with loss weight 1
I1006 07:20:26.273826 18721 net.cpp:165] Memory required for data: 2054752828
I1006 07:20:26.273829 18721 layer_factory.hpp:76] Creating layer detection_accuracy_4_3x5
I1006 07:20:26.273838 18721 net.cpp:106] Creating Layer detection_accuracy_4_3x5
I1006 07:20:26.273841 18721 net.cpp:454] detection_accuracy_4_3x5 <- LFCN_4_3x5_LFCN_4_3x5_0_split_1
I1006 07:20:26.273845 18721 net.cpp:454] detection_accuracy_4_3x5 <- label_4_3x5_data_7_split_1
I1006 07:20:26.273852 18721 net.cpp:411] detection_accuracy_4_3x5 -> accuracy_4_3x5
I1006 07:20:26.273859 18721 net.cpp:411] detection_accuracy_4_3x5 -> boxiou_4_3x5
I1006 07:20:26.273912 18721 net.cpp:150] Setting up detection_accuracy_4_3x5
I1006 07:20:26.273918 18721 net.cpp:157] Top shape: 1 1 1 2 (2)
I1006 07:20:26.273921 18721 net.cpp:157] Top shape: 1 1 1 1 (1)
I1006 07:20:26.273923 18721 net.cpp:165] Memory required for data: 2054752840
I1006 07:20:26.273926 18721 layer_factory.hpp:76] Creating layer proposals
I1006 07:20:26.273946 18721 net.cpp:106] Creating Layer proposals
I1006 07:20:26.273952 18721 net.cpp:454] proposals <- LFCN_1_3x5_LFCN_1_3x5_0_split_2
I1006 07:20:26.273958 18721 net.cpp:454] proposals <- LFCN_1_5x7_LFCN_1_5x7_0_split_2
I1006 07:20:26.273964 18721 net.cpp:454] proposals <- LFCN_2_3x5_LFCN_2_3x5_0_split_2
I1006 07:20:26.273969 18721 net.cpp:454] proposals <- LFCN_2_5x7_LFCN_2_5x7_0_split_2
I1006 07:20:26.273972 18721 net.cpp:454] proposals <- LFCN_3_3x5_LFCN_3_3x5_0_split_2
I1006 07:20:26.273977 18721 net.cpp:454] proposals <- LFCN_3_5x7_LFCN_3_5x7_0_split_2
I1006 07:20:26.273979 18721 net.cpp:454] proposals <- LFCN_4_3x5_LFCN_4_3x5_0_split_2
I1006 07:20:26.273988 18721 net.cpp:411] proposals -> proposals
I1006 07:20:26.274042 18721 net.cpp:150] Setting up proposals
I1006 07:20:26.274052 18721 net.cpp:157] Top shape: 1 5 1 1 (5)
I1006 07:20:26.274057 18721 net.cpp:165] Memory required for data: 2054752860
I1006 07:20:26.274062 18721 layer_factory.hpp:76] Creating layer proposal_info
I1006 07:20:26.274076 18721 net.cpp:106] Creating Layer proposal_info
I1006 07:20:26.274082 18721 net.cpp:454] proposal_info <- proposals
I1006 07:20:26.274087 18721 net.cpp:454] proposal_info <- gt_boxes
I1006 07:20:26.274092 18721 net.cpp:411] proposal_info -> rois
I1006 07:20:26.274102 18721 net.cpp:411] proposal_info -> proposal_labels
I1006 07:20:26.274116 18721 net.cpp:411] proposal_info -> proposal_targets
I1006 07:20:26.274124 18721 net.cpp:411] proposal_info -> box_inside_weights
I1006 07:20:26.274129 18721 net.cpp:411] proposal_info -> box_outside_weights
I1006 07:20:26.274135 18721 net.cpp:411] proposal_info -> match_gt_boxes
I1006 07:20:26.274276 18721 net.cpp:150] Setting up proposal_info
I1006 07:20:26.274288 18721 net.cpp:157] Top shape: 128 5 1 1 (640)
I1006 07:20:26.274292 18721 net.cpp:157] Top shape: 128 1 1 1 (128)
I1006 07:20:26.274296 18721 net.cpp:157] Top shape: 128 8 1 1 (1024)
I1006 07:20:26.274299 18721 net.cpp:157] Top shape: 128 8 1 1 (1024)
I1006 07:20:26.274302 18721 net.cpp:157] Top shape: 128 8 1 1 (1024)
I1006 07:20:26.274305 18721 net.cpp:157] Top shape: 128 6 1 1 (768)
I1006 07:20:26.274308 18721 net.cpp:165] Memory required for data: 2054771292
I1006 07:20:26.274312 18721 layer_factory.hpp:76] Creating layer rois_proposal_info_0_split
I1006 07:20:26.274317 18721 net.cpp:106] Creating Layer rois_proposal_info_0_split
I1006 07:20:26.274319 18721 net.cpp:454] rois_proposal_info_0_split <- rois
I1006 07:20:26.274324 18721 net.cpp:411] rois_proposal_info_0_split -> rois_proposal_info_0_split_0
I1006 07:20:26.274330 18721 net.cpp:411] rois_proposal_info_0_split -> rois_proposal_info_0_split_1
I1006 07:20:26.274334 18721 net.cpp:411] rois_proposal_info_0_split -> rois_proposal_info_0_split_2
I1006 07:20:26.274410 18721 net.cpp:150] Setting up rois_proposal_info_0_split
I1006 07:20:26.274433 18721 net.cpp:157] Top shape: 128 5 1 1 (640)
I1006 07:20:26.274438 18721 net.cpp:157] Top shape: 128 5 1 1 (640)
I1006 07:20:26.274443 18721 net.cpp:157] Top shape: 128 5 1 1 (640)
I1006 07:20:26.274447 18721 net.cpp:165] Memory required for data: 2054778972
I1006 07:20:26.274452 18721 layer_factory.hpp:76] Creating layer proposal_labels_proposal_info_1_split
I1006 07:20:26.274461 18721 net.cpp:106] Creating Layer proposal_labels_proposal_info_1_split
I1006 07:20:26.274466 18721 net.cpp:454] proposal_labels_proposal_info_1_split <- proposal_labels
I1006 07:20:26.274472 18721 net.cpp:411] proposal_labels_proposal_info_1_split -> proposal_labels_proposal_info_1_split_0
I1006 07:20:26.274478 18721 net.cpp:411] proposal_labels_proposal_info_1_split -> proposal_labels_proposal_info_1_split_1
I1006 07:20:26.274524 18721 net.cpp:150] Setting up proposal_labels_proposal_info_1_split
I1006 07:20:26.274533 18721 net.cpp:157] Top shape: 128 1 1 1 (128)
I1006 07:20:26.274536 18721 net.cpp:157] Top shape: 128 1 1 1 (128)
I1006 07:20:26.274538 18721 net.cpp:165] Memory required for data: 2054779996
I1006 07:20:26.274541 18721 layer_factory.hpp:76] Creating layer conv4_3_2x
I1006 07:20:26.274550 18721 net.cpp:106] Creating Layer conv4_3_2x
I1006 07:20:26.274555 18721 net.cpp:454] conv4_3_2x <- conv4_3_relu4_3_0_split_2
I1006 07:20:26.274566 18721 net.cpp:411] conv4_3_2x -> conv4_3_2x
I1006 07:20:26.275097 18721 net.cpp:150] Setting up conv4_3_2x
I1006 07:20:26.275110 18721 net.cpp:157] Top shape: 4 512 112 112 (25690112)
I1006 07:20:26.275123 18721 net.cpp:165] Memory required for data: 2157540444
I1006 07:20:26.275128 18721 layer_factory.hpp:76] Creating layer conv4_3_2x_conv4_3_2x_0_split
I1006 07:20:26.275133 18721 net.cpp:106] Creating Layer conv4_3_2x_conv4_3_2x_0_split
I1006 07:20:26.275142 18721 net.cpp:454] conv4_3_2x_conv4_3_2x_0_split <- conv4_3_2x
I1006 07:20:26.275147 18721 net.cpp:411] conv4_3_2x_conv4_3_2x_0_split -> conv4_3_2x_conv4_3_2x_0_split_0
I1006 07:20:26.275153 18721 net.cpp:411] conv4_3_2x_conv4_3_2x_0_split -> conv4_3_2x_conv4_3_2x_0_split_1
I1006 07:20:26.275193 18721 net.cpp:150] Setting up conv4_3_2x_conv4_3_2x_0_split
I1006 07:20:26.275198 18721 net.cpp:157] Top shape: 4 512 112 112 (25690112)
I1006 07:20:26.275202 18721 net.cpp:157] Top shape: 4 512 112 112 (25690112)
I1006 07:20:26.275204 18721 net.cpp:165] Memory required for data: 2363061340
I1006 07:20:26.275207 18721 layer_factory.hpp:76] Creating layer roi_pool_org
I1006 07:20:26.275213 18721 net.cpp:106] Creating Layer roi_pool_org
I1006 07:20:26.275215 18721 net.cpp:454] roi_pool_org <- conv4_3_2x_conv4_3_2x_0_split_0
I1006 07:20:26.275219 18721 net.cpp:454] roi_pool_org <- rois_proposal_info_0_split_0
I1006 07:20:26.275226 18721 net.cpp:411] roi_pool_org -> roi_pool_org
I1006 07:20:26.275234 18721 roi_pooling_layer.cpp:35] Spatial scale: 0.25
I1006 07:20:26.275286 18721 net.cpp:150] Setting up roi_pool_org
I1006 07:20:26.275296 18721 net.cpp:157] Top shape: 128 512 8 4 (2097152)
I1006 07:20:26.275301 18721 net.cpp:165] Memory required for data: 2371449948
I1006 07:20:26.275306 18721 layer_factory.hpp:76] Creating layer roi_pool_ctx
I1006 07:20:26.275315 18721 net.cpp:106] Creating Layer roi_pool_ctx
I1006 07:20:26.275318 18721 net.cpp:454] roi_pool_ctx <- conv4_3_2x_conv4_3_2x_0_split_1
I1006 07:20:26.275322 18721 net.cpp:454] roi_pool_ctx <- rois_proposal_info_0_split_1
I1006 07:20:26.275327 18721 net.cpp:411] roi_pool_ctx -> roi_pool_ctx
I1006 07:20:26.275333 18721 roi_pooling_layer.cpp:35] Spatial scale: 0.25
I1006 07:20:26.275388 18721 net.cpp:150] Setting up roi_pool_ctx
I1006 07:20:26.275398 18721 net.cpp:157] Top shape: 128 512 8 4 (2097152)
I1006 07:20:26.275403 18721 net.cpp:165] Memory required for data: 2379838556
I1006 07:20:26.275408 18721 layer_factory.hpp:76] Creating layer roi_pool
I1006 07:20:26.275414 18721 net.cpp:106] Creating Layer roi_pool
I1006 07:20:26.275418 18721 net.cpp:454] roi_pool <- roi_pool_org
I1006 07:20:26.275424 18721 net.cpp:454] roi_pool <- roi_pool_ctx
I1006 07:20:26.275429 18721 net.cpp:411] roi_pool -> roi_pool
I1006 07:20:26.275461 18721 net.cpp:150] Setting up roi_pool
I1006 07:20:26.275470 18721 net.cpp:157] Top shape: 128 1024 8 4 (4194304)
I1006 07:20:26.275472 18721 net.cpp:165] Memory required for data: 2396615772
I1006 07:20:26.275475 18721 layer_factory.hpp:76] Creating layer roi_c1
I1006 07:20:26.275485 18721 net.cpp:106] Creating Layer roi_c1
I1006 07:20:26.275491 18721 net.cpp:454] roi_c1 <- roi_pool
I1006 07:20:26.275499 18721 net.cpp:411] roi_c1 -> roi_c1
I1006 07:20:26.427995 18721 net.cpp:150] Setting up roi_c1
I1006 07:20:26.428033 18721 net.cpp:157] Top shape: 128 512 8 4 (2097152)
I1006 07:20:26.428036 18721 net.cpp:165] Memory required for data: 2405004380
I1006 07:20:26.428045 18721 layer_factory.hpp:76] Creating layer roi_c1_relu
I1006 07:20:26.428056 18721 net.cpp:106] Creating Layer roi_c1_relu
I1006 07:20:26.428061 18721 net.cpp:454] roi_c1_relu <- roi_c1
I1006 07:20:26.428067 18721 net.cpp:397] roi_c1_relu -> roi_c1 (in-place)
I1006 07:20:26.428457 18721 net.cpp:150] Setting up roi_c1_relu
I1006 07:20:26.428470 18721 net.cpp:157] Top shape: 128 512 8 4 (2097152)
I1006 07:20:26.428474 18721 net.cpp:165] Memory required for data: 2413392988
I1006 07:20:26.428478 18721 layer_factory.hpp:76] Creating layer fc6
I1006 07:20:26.428485 18721 net.cpp:106] Creating Layer fc6
I1006 07:20:26.428489 18721 net.cpp:454] fc6 <- roi_c1
I1006 07:20:26.428498 18721 net.cpp:411] fc6 -> fc6
I1006 07:20:27.458132 18721 net.cpp:150] Setting up fc6
I1006 07:20:27.458176 18721 net.cpp:157] Top shape: 128 2048 (262144)
I1006 07:20:27.458179 18721 net.cpp:165] Memory required for data: 2414441564
I1006 07:20:27.458196 18721 layer_factory.hpp:76] Creating layer relu6
I1006 07:20:27.458210 18721 net.cpp:106] Creating Layer relu6
I1006 07:20:27.458235 18721 net.cpp:454] relu6 <- fc6
I1006 07:20:27.458242 18721 net.cpp:397] relu6 -> fc6 (in-place)
I1006 07:20:27.458673 18721 net.cpp:150] Setting up relu6
I1006 07:20:27.458684 18721 net.cpp:157] Top shape: 128 2048 (262144)
I1006 07:20:27.458688 18721 net.cpp:165] Memory required for data: 2415490140
I1006 07:20:27.458690 18721 layer_factory.hpp:76] Creating layer drop6
I1006 07:20:27.458698 18721 net.cpp:106] Creating Layer drop6
I1006 07:20:27.458700 18721 net.cpp:454] drop6 <- fc6
I1006 07:20:27.458708 18721 net.cpp:397] drop6 -> fc6 (in-place)
I1006 07:20:27.458744 18721 net.cpp:150] Setting up drop6
I1006 07:20:27.458748 18721 net.cpp:157] Top shape: 128 2048 (262144)
I1006 07:20:27.458750 18721 net.cpp:165] Memory required for data: 2416538716
I1006 07:20:27.458753 18721 layer_factory.hpp:76] Creating layer fc6_drop6_0_split
I1006 07:20:27.458757 18721 net.cpp:106] Creating Layer fc6_drop6_0_split
I1006 07:20:27.458760 18721 net.cpp:454] fc6_drop6_0_split <- fc6
I1006 07:20:27.458767 18721 net.cpp:411] fc6_drop6_0_split -> fc6_drop6_0_split_0
I1006 07:20:27.458773 18721 net.cpp:411] fc6_drop6_0_split -> fc6_drop6_0_split_1
I1006 07:20:27.458858 18721 net.cpp:150] Setting up fc6_drop6_0_split
I1006 07:20:27.458864 18721 net.cpp:157] Top shape: 128 2048 (262144)
I1006 07:20:27.458868 18721 net.cpp:157] Top shape: 128 2048 (262144)
I1006 07:20:27.458870 18721 net.cpp:165] Memory required for data: 2418635868
I1006 07:20:27.458873 18721 layer_factory.hpp:76] Creating layer cls_pred
I1006 07:20:27.458889 18721 net.cpp:106] Creating Layer cls_pred
I1006 07:20:27.458904 18721 net.cpp:454] cls_pred <- fc6_drop6_0_split_0
I1006 07:20:27.458916 18721 net.cpp:411] cls_pred -> cls_pred
I1006 07:20:27.459170 18721 net.cpp:150] Setting up cls_pred
I1006 07:20:27.459177 18721 net.cpp:157] Top shape: 128 2 (256)
I1006 07:20:27.459178 18721 net.cpp:165] Memory required for data: 2418636892
I1006 07:20:27.459184 18721 layer_factory.hpp:76] Creating layer cls_pred_cls_pred_0_split
I1006 07:20:27.459199 18721 net.cpp:106] Creating Layer cls_pred_cls_pred_0_split
I1006 07:20:27.459203 18721 net.cpp:454] cls_pred_cls_pred_0_split <- cls_pred
I1006 07:20:27.459208 18721 net.cpp:411] cls_pred_cls_pred_0_split -> cls_pred_cls_pred_0_split_0
I1006 07:20:27.459213 18721 net.cpp:411] cls_pred_cls_pred_0_split -> cls_pred_cls_pred_0_split_1
I1006 07:20:27.459296 18721 net.cpp:150] Setting up cls_pred_cls_pred_0_split
I1006 07:20:27.459301 18721 net.cpp:157] Top shape: 128 2 (256)
I1006 07:20:27.459305 18721 net.cpp:157] Top shape: 128 2 (256)
I1006 07:20:27.459307 18721 net.cpp:165] Memory required for data: 2418638940
I1006 07:20:27.459309 18721 layer_factory.hpp:76] Creating layer bbox_pred
I1006 07:20:27.459316 18721 net.cpp:106] Creating Layer bbox_pred
I1006 07:20:27.459319 18721 net.cpp:454] bbox_pred <- fc6_drop6_0_split_1
I1006 07:20:27.459326 18721 net.cpp:411] bbox_pred -> bbox_pred
I1006 07:20:27.460063 18721 net.cpp:150] Setting up bbox_pred
I1006 07:20:27.460080 18721 net.cpp:157] Top shape: 128 8 (1024)
I1006 07:20:27.460083 18721 net.cpp:165] Memory required for data: 2418643036
I1006 07:20:27.460089 18721 layer_factory.hpp:76] Creating layer bbox_pred_bbox_pred_0_split
I1006 07:20:27.460095 18721 net.cpp:106] Creating Layer bbox_pred_bbox_pred_0_split
I1006 07:20:27.460098 18721 net.cpp:454] bbox_pred_bbox_pred_0_split <- bbox_pred
I1006 07:20:27.460103 18721 net.cpp:411] bbox_pred_bbox_pred_0_split -> bbox_pred_bbox_pred_0_split_0
I1006 07:20:27.460113 18721 net.cpp:411] bbox_pred_bbox_pred_0_split -> bbox_pred_bbox_pred_0_split_1
I1006 07:20:27.460153 18721 net.cpp:150] Setting up bbox_pred_bbox_pred_0_split
I1006 07:20:27.460158 18721 net.cpp:157] Top shape: 128 8 (1024)
I1006 07:20:27.460161 18721 net.cpp:157] Top shape: 128 8 (1024)
I1006 07:20:27.460165 18721 net.cpp:165] Memory required for data: 2418651228
I1006 07:20:27.460167 18721 layer_factory.hpp:76] Creating layer loss_cls
I1006 07:20:27.460172 18721 net.cpp:106] Creating Layer loss_cls
I1006 07:20:27.460176 18721 net.cpp:454] loss_cls <- cls_pred_cls_pred_0_split_0
I1006 07:20:27.460182 18721 net.cpp:454] loss_cls <- proposal_labels_proposal_info_1_split_0
…
I1006 07:20:27.472172 18721 image_gt_data_layer.cpp:234] output label size 2 : 2,6,28,28
I1006 07:20:27.472277 18721 image_gt_data_layer.cpp:234] output label size 3 : 2,6,28,28
I1006 07:20:27.472385 18721 image_gt_data_layer.cpp:234] output label size 4 : 2,6,14,14
I1006 07:20:27.472494 18721 image_gt_data_layer.cpp:234] output label size 5 : 2,6,14,14
I1006 07:20:27.472594 18721 image_gt_data_layer.cpp:234] output label size 6 : 2,6,7,7
I1006 07:20:27.472661 18721 image_gt_data_layer.cpp:249] output gt boxes size: 1,7,1,1
I1006 07:20:27.484254 18721 net.cpp:150] Setting up data
I1006 07:20:27.484285 18721 net.cpp:157] Top shape: 2 3 448 448 (1204224)
I1006 07:20:27.484290 18721 net.cpp:157] Top shape: 2 6 56 56 (37632)
I1006 07:20:27.484293 18721 net.cpp:157] Top shape: 2 6 56 56 (37632)
I1006 07:20:27.484297 18721 net.cpp:157] Top shape: 2 6 28 28 (9408)
I1006 07:20:27.484300 18721 net.cpp:157] Top shape: 2 6 28 28 (9408)
I1006 07:20:27.484304 18721 net.cpp:157] Top shape: 2 6 14 14 (2352)
I1006 07:20:27.484308 18721 net.cpp:157] Top shape: 2 6 14 14 (2352)
I1006 07:20:27.484310 18721 net.cpp:157] Top shape: 2 6 7 7 (588)
I1006 07:20:27.484314 18721 net.cpp:157] Top shape: 1 7 1 1 (7)
I1006 07:20:27.484316 18721 net.cpp:165] Memory required for data: 5214412
I1006 07:20:27.484320 18721 layer_factory.hpp:76] Creating layer label_1_3x5_data_1_split
I1006 07:20:27.484333 18721 net.cpp:106] Creating Layer label_1_3x5_data_1_split
I1006 07:20:27.484338 18721 net.cpp:454] label_1_3x5_data_1_split <- label_1_3x5
I1006 07:20:27.484344 18721 net.cpp:411] label_1_3x5_data_1_split -> label_1_3x5_data_1_split_0
I1006 07:20:27.484352 18721 net.cpp:411] label_1_3x5_data_1_split -> label_1_3x5_data_1_split_1
I1006 07:20:27.484495 18721 net.cpp:150] Setting up label_1_3x5_data_1_split
I1006 07:20:27.484510 18721 net.cpp:157] Top shape: 2 6 56 56 (37632)
I1006 07:20:27.484518 18721 net.cpp:157] Top shape: 2 6 56 56 (37632)
I1006 07:20:27.484521 18721 net.cpp:165] Memory required for data: 5515468
I1006 07:20:27.484526 18721 layer_factory.hpp:76] Creating layer label_1_5x7_data_2_split
I1006 07:20:27.484535 18721 net.cpp:106] Creating Layer label_1_5x7_data_2_split
I1006 07:20:27.484540 18721 net.cpp:454] label_1_5x7_data_2_split <- label_1_5x7
I1006 07:20:27.484549 18721 net.cpp:411] label_1_5x7_data_2_split -> label_1_5x7_data_2_split_0
I1006 07:20:27.484555 18721 net.cpp:411] label_1_5x7_data_2_split -> label_1_5x7_data_2_split_1
I1006 07:20:27.484666 18721 net.cpp:150] Setting up label_1_5x7_data_2_split
I1006 07:20:27.484678 18721 net.cpp:157] Top shape: 2 6 56 56 (37632)
I1006 07:20:27.484681 18721 net.cpp:157] Top shape: 2 6 56 56 (37632)
I1006 07:20:27.484684 18721 net.cpp:165] Memory required for data: 5816524
I1006 07:20:27.484688 18721 layer_factory.hpp:76] Creating layer label_2_3x5_data_3_split
I1006 07:20:27.484694 18721 net.cpp:106] Creating Layer label_2_3x5_data_3_split
I1006 07:20:27.484697 18721 net.cpp:454] label_2_3x5_data_3_split <- label_2_3x5
I1006 07:20:27.484704 18721 net.cpp:411] label_2_3x5_data_3_split -> label_2_3x5_data_3_split_0
I1006 07:20:27.484709 18721 net.cpp:411] label_2_3x5_data_3_split -> label_2_3x5_data_3_split_1
I1006 07:20:27.484760 18721 net.cpp:150] Setting up label_2_3x5_data_3_split
I1006 07:20:27.484774 18721 net.cpp:157] Top shape: 2 6 28 28 (9408)
I1006 07:20:27.484781 18721 net.cpp:157] Top shape: 2 6 28 28 (9408)
I1006 07:20:27.484786 18721 net.cpp:165] Memory required for data: 5891788
I1006 07:20:27.484791 18721 layer_factory.hpp:76] Creating layer label_2_5x7_data_4_split
I1006 07:20:27.484798 18721 net.cpp:106] Creating Layer label_2_5x7_data_4_split
I1006 07:20:27.484802 18721 net.cpp:454] label_2_5x7_data_4_split <- label_2_5x7
I1006 07:20:27.484807 18721 net.cpp:411] label_2_5x7_data_4_split -> label_2_5x7_data_4_split_0
I1006 07:20:27.484815 18721 net.cpp:411] label_2_5x7_data_4_split -> label_2_5x7_data_4_split_1
I1006 07:20:27.484889 18721 net.cpp:150] Setting up label_2_5x7_data_4_split
I1006 07:20:27.484899 18721 net.cpp:157] Top shape: 2 6 28 28 (9408)
I1006 07:20:27.484905 18721 net.cpp:157] Top shape: 2 6 28 28 (9408)
I1006 07:20:27.484906 18721 net.cpp:165] Memory required for data: 5967052
I1006 07:20:27.484910 18721 layer_factory.hpp:76] Creating layer label_3_3x5_data_5_split
I1006 07:20:27.484915 18721 net.cpp:106] Creating Layer label_3_3x5_data_5_split
I1006 07:20:27.484917 18721 net.cpp:454] label_3_3x5_data_5_split <- label_3_3x5
I1006 07:20:27.484923 18721 net.cpp:411] label_3_3x5_data_5_split -> label_3_3x5_data_5_split_0
I1006 07:20:27.484928 18721 net.cpp:411] label_3_3x5_data_5_split -> label_3_3x5_data_5_split_1
I1006 07:20:27.484978 18721 net.cpp:150] Setting up label_3_3x5_data_5_split
I1006 07:20:27.484993 18721 net.cpp:157] Top shape: 2 6 14 14 (2352)
I1006 07:20:27.484999 18721 net.cpp:157] Top shape: 2 6 14 14 (2352)
I1006 07:20:27.485004 18721 net.cpp:165] Memory required for data: 5985868
I1006 07:20:27.485009 18721 layer_factory.hpp:76] Creating layer label_3_5x7_data_6_split
I1006 07:20:27.485015 18721 net.cpp:106] Creating Layer label_3_5x7_data_6_split
I1006 07:20:27.485019 18721 net.cpp:454] label_3_5x7_data_6_split <- label_3_5x7
I1006 07:20:27.485023 18721 net.cpp:411] label_3_5x7_data_6_split -> label_3_5x7_data_6_split_0
I1006 07:20:27.485028 18721 net.cpp:411] label_3_5x7_data_6_split -> label_3_5x7_data_6_split_1
I1006 07:20:27.485086 18721 net.cpp:150] Setting up label_3_5x7_data_6_split
I1006 07:20:27.485100 18721 net.cpp:157] Top shape: 2 6 14 14 (2352)
I1006 07:20:27.485106 18721 net.cpp:157] Top shape: 2 6 14 14 (2352)
I1006 07:20:27.485110 18721 net.cpp:165] Memory required for data: 6004684
I1006 07:20:27.485116 18721 layer_factory.hpp:76] Creating layer label_4_3x5_data_7_split
I1006 07:20:27.485121 18721 net.cpp:106] Creating Layer label_4_3x5_data_7_split
I1006 07:20:27.485123 18721 net.cpp:454] label_4_3x5_data_7_split <- label_4_3x5
I1006 07:20:27.485127 18721 net.cpp:411] label_4_3x5_data_7_split -> label_4_3x5_data_7_split_0
I1006 07:20:27.485132 18721 net.cpp:411] label_4_3x5_data_7_split -> label_4_3x5_data_7_split_1
I1006 07:20:27.485189 18721 net.cpp:150] Setting up label_4_3x5_data_7_split
I1006 07:20:27.485201 18721 net.cpp:157] Top shape: 2 6 7 7 (588)
I1006 07:20:27.485204 18721 net.cpp:157] Top shape: 2 6 7 7 (588)
I1006 07:20:27.485208 18721 net.cpp:165] Memory required for data: 6009388
I1006 07:20:27.485210 18721 layer_factory.hpp:76] Creating layer conv1_1
I1006 07:20:27.485220 18721 net.cpp:106] Creating Layer conv1_1
I1006 07:20:27.485225 18721 net.cpp:454] conv1_1 <- data
I1006 07:20:27.485234 18721 net.cpp:411] conv1_1 -> conv1_1
I1006 07:20:27.488147 18721 net.cpp:150] Setting up conv1_1
I1006 07:20:27.488162 18721 net.cpp:157] Top shape: 2 64 448 448 (25690112)
I1006 07:20:27.488165 18721 net.cpp:165] Memory required for data: 108769836
I1006 07:20:27.488175 18721 layer_factory.hpp:76] Creating layer relu1_1
I1006 07:20:27.488183 18721 net.cpp:106] Creating Layer relu1_1
I1006 07:20:27.488185 18721 net.cpp:454] relu1_1 <- conv1_1
I1006 07:20:27.488193 18721 net.cpp:397] relu1_1 -> conv1_1 (in-place)
I1006 07:20:27.488518 18721 net.cpp:150] Setting up relu1_1
I1006 07:20:27.488531 18721 net.cpp:157] Top shape: 2 64 448 448 (25690112)
I1006 07:20:27.488534 18721 net.cpp:165] Memory required for data: 211530284
I1006 07:20:27.488538 18721 layer_factory.hpp:76] Creating layer conv1_2
I1006 07:20:27.488546 18721 net.cpp:106] Creating Layer conv1_2
I1006 07:20:27.488549 18721 net.cpp:454] conv1_2 <- conv1_1
I1006 07:20:27.488556 18721 net.cpp:411] conv1_2 -> conv1_2
I1006 07:20:27.491108 18721 net.cpp:150] Setting up conv1_2
I1006 07:20:27.491124 18721 net.cpp:157] Top shape: 2 64 448 448 (25690112)
I1006 07:20:27.491127 18721 net.cpp:165] Memory required for data: 314290732
I1006 07:20:27.491137 18721 layer_factory.hpp:76] Creating layer relu1_2
I1006 07:20:27.491142 18721 net.cpp:106] Creating Layer relu1_2
I1006 07:20:27.491145 18721 net.cpp:454] relu1_2 <- conv1_2
I1006 07:20:27.491150 18721 net.cpp:397] relu1_2 -> conv1_2 (in-place)
I1006 07:20:27.491533 18721 net.cpp:150] Setting up relu1_2
I1006 07:20:27.491546 18721 net.cpp:157] Top shape: 2 64 448 448 (25690112)
I1006 07:20:27.491549 18721 net.cpp:165] Memory required for data: 417051180
I1006 07:20:27.491552 18721 layer_factory.hpp:76] Creating layer pool1
I1006 07:20:27.491559 18721 net.cpp:106] Creating Layer pool1
I1006 07:20:27.491562 18721 net.cpp:454] pool1 <- conv1_2
I1006 07:20:27.491569 18721 net.cpp:411] pool1 -> pool1
I1006 07:20:27.491852 18721 net.cpp:150] Setting up pool1
I1006 07:20:27.491864 18721 net.cpp:157] Top shape: 2 64 224 224 (6422528)
I1006 07:20:27.491868 18721 net.cpp:165] Memory required for data: 442741292
I1006 07:20:27.491871 18721 layer_factory.hpp:76] Creating layer conv2_1
I1006 07:20:27.491878 18721 net.cpp:106] Creating Layer conv2_1
I1006 07:20:27.491881 18721 net.cpp:454] conv2_1 <- pool1
I1006 07:20:27.491888 18721 net.cpp:411] conv2_1 -> conv2_1
I1006 07:20:27.493192 18721 net.cpp:150] Setting up conv2_1
I1006 07:20:27.493206 18721 net.cpp:157] Top shape: 2 128 224 224 (12845056)
I1006 07:20:27.493219 18721 net.cpp:165] Memory required for data: 494121516
I1006 07:20:27.493227 18721 layer_factory.hpp:76] Creating layer relu2_1
I1006 07:20:27.493238 18721 net.cpp:106] Creating Layer relu2_1
I1006 07:20:27.493242 18721 net.cpp:454] relu2_1 <- conv2_1
I1006 07:20:27.493247 18721 net.cpp:397] relu2_1 -> conv2_1 (in-place)
I1006 07:20:27.493634 18721 net.cpp:150] Setting up relu2_1
I1006 07:20:27.493657 18721 net.cpp:157] Top shape: 2 128 224 224 (12845056)
I1006 07:20:27.493660 18721 net.cpp:165] Memory required for data: 545501740
I1006 07:20:27.493674 18721 layer_factory.hpp:76] Creating layer conv2_2
I1006 07:20:27.493683 18721 net.cpp:106] Creating Layer conv2_2
I1006 07:20:27.493697 18721 net.cpp:454] conv2_2 <- conv2_1
I1006 07:20:27.493716 18721 net.cpp:411] conv2_2 -> conv2_2
I1006 07:20:27.495545 18721 net.cpp:150] Setting up conv2_2
I1006 07:20:27.495558 18721 net.cpp:157] Top shape: 2 128 224 224 (12845056)
I1006 07:20:27.495573 18721 net.cpp:165] Memory required for data: 596881964
I1006 07:20:27.495579 18721 layer_factory.hpp:76] Creating layer relu2_2
I1006 07:20:27.495586 18721 net.cpp:106] Creating Layer relu2_2
I1006 07:20:27.495590 18721 net.cpp:454] relu2_2 <- conv2_2
I1006 07:20:27.495596 18721 net.cpp:397] relu2_2 -> conv2_2 (in-place)
I1006 07:20:27.496047 18721 net.cpp:150] Setting up relu2_2
I1006 07:20:27.496059 18721 net.cpp:157] Top shape: 2 128 224 224 (12845056)
I1006 07:20:27.496074 18721 net.cpp:165] Memory required for data: 648262188
I1006 07:20:27.496090 18721 layer_factory.hpp:76] Creating layer pool2
I1006 07:20:27.496111 18721 net.cpp:106] Creating Layer pool2
I1006 07:20:27.496115 18721 net.cpp:454] pool2 <- conv2_2
I1006 07:20:27.496119 18721 net.cpp:411] pool2 -> pool2
I1006 07:20:27.496388 18721 net.cpp:150] Setting up pool2
I1006 07:20:27.496402 18721 net.cpp:157] Top shape: 2 128 112 112 (3211264)
I1006 07:20:27.496403 18721 net.cpp:165] Memory required for data: 661107244
I1006 07:20:27.496407 18721 layer_factory.hpp:76] Creating layer conv3_1
I1006 07:20:27.496414 18721 net.cpp:106] Creating Layer conv3_1
I1006 07:20:27.496418 18721 net.cpp:454] conv3_1 <- pool2
I1006 07:20:27.496424 18721 net.cpp:411] conv3_1 -> conv3_1
I1006 07:20:27.498325 18721 net.cpp:150] Setting up conv3_1
I1006 07:20:27.498337 18721 net.cpp:157] Top shape: 2 256 112 112 (6422528)
I1006 07:20:27.498353 18721 net.cpp:165] Memory required for data: 686797356
I1006 07:20:27.498361 18721 layer_factory.hpp:76] Creating layer relu3_1
I1006 07:20:27.498366 18721 net.cpp:106] Creating Layer relu3_1
I1006 07:20:27.498369 18721 net.cpp:454] relu3_1 <- conv3_1
I1006 07:20:27.498373 18721 net.cpp:397] relu3_1 -> conv3_1 (in-place)
I1006 07:20:27.498775 18721 net.cpp:150] Setting up relu3_1
I1006 07:20:27.498798 18721 net.cpp:157] Top shape: 2 256 112 112 (6422528)
I1006 07:20:27.498801 18721 net.cpp:165] Memory required for data: 712487468
I1006 07:20:27.498805 18721 layer_factory.hpp:76] Creating layer conv3_2
I1006 07:20:27.498822 18721 net.cpp:106] Creating Layer conv3_2
I1006 07:20:27.498836 18721 net.cpp:454] conv3_2 <- conv3_1
I1006 07:20:27.498843 18721 net.cpp:411] conv3_2 -> conv3_2
I1006 07:20:27.501358 18721 net.cpp:150] Setting up conv3_2
I1006 07:20:27.501370 18721 net.cpp:157] Top shape: 2 256 112 112 (6422528)
I1006 07:20:27.501384 18721 net.cpp:165] Memory required for data: 738177580
I1006 07:20:27.501390 18721 layer_factory.hpp:76] Creating layer relu3_2
I1006 07:20:27.501396 18721 net.cpp:106] Creating Layer relu3_2
I1006 07:20:27.501401 18721 net.cpp:454] relu3_2 <- conv3_2
I1006 07:20:27.501406 18721 net.cpp:397] relu3_2 -> conv3_2 (in-place)
I1006 07:20:27.501633 18721 net.cpp:150] Setting up relu3_2
I1006 07:20:27.501646 18721 net.cpp:157] Top shape: 2 256 112 112 (6422528)
I1006 07:20:27.501648 18721 net.cpp:165] Memory required for data: 763867692
I1006 07:20:27.501652 18721 layer_factory.hpp:76] Creating layer conv3_3
I1006 07:20:27.501660 18721 net.cpp:106] Creating Layer conv3_3
I1006 07:20:27.501663 18721 net.cpp:454] conv3_3 <- conv3_2
I1006 07:20:27.501670 18721 net.cpp:411] conv3_3 -> conv3_3
I1006 07:20:27.504256 18721 net.cpp:150] Setting up conv3_3
I1006 07:20:27.504268 18721 net.cpp:157] Top shape: 2 256 112 112 (6422528)
I1006 07:20:27.504283 18721 net.cpp:165] Memory required for data: 789557804
I1006 07:20:27.504288 18721 layer_factory.hpp:76] Creating layer relu3_3
I1006 07:20:27.504295 18721 net.cpp:106] Creating Layer relu3_3
I1006 07:20:27.504298 18721 net.cpp:454] relu3_3 <- conv3_3
I1006 07:20:27.504303 18721 net.cpp:397] relu3_3 -> conv3_3 (in-place)
I1006 07:20:27.504739 18721 net.cpp:150] Setting up relu3_3
I1006 07:20:27.504763 18721 net.cpp:157] Top shape: 2 256 112 112 (6422528)
I1006 07:20:27.504766 18721 net.cpp:165] Memory required for data: 815247916
I1006 07:20:27.504781 18721 layer_factory.hpp:76] Creating layer pool3
I1006 07:20:27.504789 18721 net.cpp:106] Creating Layer pool3
I1006 07:20:27.504804 18721 net.cpp:454] pool3 <- conv3_3
I1006 07:20:27.504812 18721 net.cpp:411] pool3 -> pool3
I1006 07:20:27.505283 18721 net.cpp:150] Setting up pool3
I1006 07:20:27.505308 18721 net.cpp:157] Top shape: 2 256 56 56 (1605632)
I1006 07:20:27.505311 18721 net.cpp:165] Memory required for data: 821670444
I1006 07:20:27.505314 18721 layer_factory.hpp:76] Creating layer conv4_1
I1006 07:20:27.505332 18721 net.cpp:106] Creating Layer conv4_1
I1006 07:20:27.505347 18721 net.cpp:454] conv4_1 <- pool3
I1006 07:20:27.505353 18721 net.cpp:411] conv4_1 -> conv4_1
I1006 07:20:27.509047 18721 net.cpp:150] Setting up conv4_1
I1006 07:20:27.509071 18721 net.cpp:157] Top shape: 2 512 56 56 (3211264)
I1006 07:20:27.509074 18721 net.cpp:165] Memory required for data: 834515500
I1006 07:20:27.509080 18721 layer_factory.hpp:76] Creating layer relu4_1
I1006 07:20:27.509088 18721 net.cpp:106] Creating Layer relu4_1
I1006 07:20:27.509093 18721 net.cpp:454] relu4_1 <- conv4_1
I1006 07:20:27.509096 18721 net.cpp:397] relu4_1 -> conv4_1 (in-place)
I1006 07:20:27.509320 18721 net.cpp:150] Setting up relu4_1
I1006 07:20:27.509332 18721 net.cpp:157] Top shape: 2 512 56 56 (3211264)
I1006 07:20:27.509336 18721 net.cpp:165] Memory required for data: 847360556
I1006 07:20:27.509340 18721 layer_factory.hpp:76] Creating layer conv4_2
I1006 07:20:27.509346 18721 net.cpp:106] Creating Layer conv4_2
I1006 07:20:27.509348 18721 net.cpp:454] conv4_2 <- conv4_1
I1006 07:20:27.509356 18721 net.cpp:411] conv4_2 -> conv4_2
I1006 07:20:27.515667 18721 net.cpp:150] Setting up conv4_2
I1006 07:20:27.515697 18721 net.cpp:157] Top shape: 2 512 56 56 (3211264)
I1006 07:20:27.515700 18721 net.cpp:165] Memory required for data: 860205612
I1006 07:20:27.515713 18721 layer_factory.hpp:76] Creating layer relu4_2
I1006 07:20:27.515722 18721 net.cpp:106] Creating Layer relu4_2
I1006 07:20:27.515728 18721 net.cpp:454] relu4_2 <- conv4_2
I1006 07:20:27.515733 18721 net.cpp:397] relu4_2 -> conv4_2 (in-place)
I1006 07:20:27.516149 18721 net.cpp:150] Setting up relu4_2
I1006 07:20:27.516162 18721 net.cpp:157] Top shape: 2 512 56 56 (3211264)
I1006 07:20:27.516165 18721 net.cpp:165] Memory required for data: 873050668
I1006 07:20:27.516168 18721 layer_factory.hpp:76] Creating layer conv4_3
I1006 07:20:27.516177 18721 net.cpp:106] Creating Layer conv4_3
I1006 07:20:27.516181 18721 net.cpp:454] conv4_3 <- conv4_2
I1006 07:20:27.516186 18721 net.cpp:411] conv4_3 -> conv4_3
I1006 07:20:27.521944 18721 net.cpp:150] Setting up conv4_3
I1006 07:20:27.521970 18721 net.cpp:157] Top shape: 2 512 56 56 (3211264)
I1006 07:20:27.521972 18721 net.cpp:165] Memory required for data: 885895724
I1006 07:20:27.521978 18721 layer_factory.hpp:76] Creating layer relu4_3
I1006 07:20:27.521986 18721 net.cpp:106] Creating Layer relu4_3
I1006 07:20:27.521989 18721 net.cpp:454] relu4_3 <- conv4_3
I1006 07:20:27.521993 18721 net.cpp:397] relu4_3 -> conv4_3 (in-place)
I1006 07:20:27.522405 18721 net.cpp:150] Setting up relu4_3
I1006 07:20:27.522418 18721 net.cpp:157] Top shape: 2 512 56 56 (3211264)
I1006 07:20:27.522421 18721 net.cpp:165] Memory required for data: 898740780
I1006 07:20:27.522425 18721 layer_factory.hpp:76] Creating layer conv4_3_relu4_3_0_split
I1006 07:20:27.522433 18721 net.cpp:106] Creating Layer conv4_3_relu4_3_0_split
I1006 07:20:27.522436 18721 net.cpp:454] conv4_3_relu4_3_0_split <- conv4_3
I1006 07:20:27.522442 18721 net.cpp:411] conv4_3_relu4_3_0_split -> conv4_3_relu4_3_0_split_0
I1006 07:20:27.522450 18721 net.cpp:411] conv4_3_relu4_3_0_split -> conv4_3_relu4_3_0_split_1
I1006 07:20:27.522455 18721 net.cpp:411] conv4_3_relu4_3_0_split -> conv4_3_relu4_3_0_split_2
I1006 07:20:27.522548 18721 net.cpp:150] Setting up conv4_3_relu4_3_0_split
I1006 07:20:27.522554 18721 net.cpp:157] Top shape: 2 512 56 56 (3211264)
I1006 07:20:27.522557 18721 net.cpp:157] Top shape: 2 512 56 56 (3211264)
I1006 07:20:27.522560 18721 net.cpp:157] Top shape: 2 512 56 56 (3211264)
I1006 07:20:27.522562 18721 net.cpp:165] Memory required for data: 937275948
I1006 07:20:27.522565 18721 layer_factory.hpp:76] Creating layer loss1_conv1
I1006 07:20:27.522580 18721 net.cpp:106] Creating Layer loss1_conv1
I1006 07:20:27.522583 18721 net.cpp:454] loss1_conv1 <- conv4_3_relu4_3_0_split_0
I1006 07:20:27.522591 18721 net.cpp:411] loss1_conv1 -> loss1_conv1
I1006 07:20:27.597368 18721 net.cpp:150] Setting up loss1_conv1
I1006 07:20:27.597401 18721 net.cpp:157] Top shape: 2 512 56 56 (3211264)
I1006 07:20:27.597404 18721 net.cpp:165] Memory required for data: 950121004
I1006 07:20:27.597411 18721 layer_factory.hpp:76] Creating layer loss_relu1
I1006 07:20:27.597419 18721 net.cpp:106] Creating Layer loss_relu1
I1006 07:20:27.597424 18721 net.cpp:454] loss_relu1 <- loss1_conv1
I1006 07:20:27.597430 18721 net.cpp:397] loss_relu1 -> loss1_conv1 (in-place)
I1006 07:20:27.597652 18721 net.cpp:150] Setting up loss_relu1
I1006 07:20:27.597666 18721 net.cpp:157] Top shape: 2 512 56 56 (3211264)
I1006 07:20:27.597671 18721 net.cpp:165] Memory required for data: 962966060
I1006 07:20:27.597676 18721 layer_factory.hpp:76] Creating layer loss1_conv1_loss_relu1_0_split
I1006 07:20:27.597686 18721 net.cpp:106] Creating Layer loss1_conv1_loss_relu1_0_split
I1006 07:20:27.597690 18721 net.cpp:454] loss1_conv1_loss_relu1_0_split <- loss1_conv1
I1006 07:20:27.597697 18721 net.cpp:411] loss1_conv1_loss_relu1_0_split -> loss1_conv1_loss_relu1_0_split_0
I1006 07:20:27.597707 18721 net.cpp:411] loss1_conv1_loss_relu1_0_split -> loss1_conv1_loss_relu1_0_split_1
I1006 07:20:27.597771 18721 net.cpp:150] Setting up loss1_conv1_loss_relu1_0_split
I1006 07:20:27.597784 18721 net.cpp:157] Top shape: 2 512 56 56 (3211264)
I1006 07:20:27.597791 18721 net.cpp:157] Top shape: 2 512 56 56 (3211264)
I1006 07:20:27.597795 18721 net.cpp:165] Memory required for data: 988656172
I1006 07:20:27.597800 18721 layer_factory.hpp:76] Creating layer LFCN_1_3x5
I1006 07:20:27.597816 18721 net.cpp:106] Creating Layer LFCN_1_3x5
I1006 07:20:27.597821 18721 net.cpp:454] LFCN_1_3x5 <- loss1_conv1_loss_relu1_0_split_0
I1006 07:20:27.597828 18721 net.cpp:411] LFCN_1_3x5 -> LFCN_1_3x5
I1006 07:20:27.600512 18721 net.cpp:150] Setting up LFCN_1_3x5
I1006 07:20:27.600538 18721 net.cpp:157] Top shape: 2 6 56 56 (37632)
I1006 07:20:27.600541 18721 net.cpp:165] Memory required for data: 988806700
I1006 07:20:27.600548 18721 layer_factory.hpp:76] Creating layer LFCN_1_3x5_LFCN_1_3x5_0_split
I1006 07:20:27.600553 18721 net.cpp:106] Creating Layer LFCN_1_3x5_LFCN_1_3x5_0_split
I1006 07:20:27.600558 18721 net.cpp:454] LFCN_1_3x5_LFCN_1_3x5_0_split <- LFCN_1_3x5
I1006 07:20:27.600564 18721 net.cpp:411] LFCN_1_3x5_LFCN_1_3x5_0_split -> LFCN_1_3x5_LFCN_1_3x5_0_split_0
I1006 07:20:27.600570 18721 net.cpp:411] LFCN_1_3x5_LFCN_1_3x5_0_split -> LFCN_1_3x5_LFCN_1_3x5_0_split_1
I1006 07:20:27.600575 18721 net.cpp:411] LFCN_1_3x5_LFCN_1_3x5_0_split -> LFCN_1_3x5_LFCN_1_3x5_0_split_2
I1006 07:20:27.600654 18721 net.cpp:150] Setting up LFCN_1_3x5_LFCN_1_3x5_0_split
I1006 07:20:27.600661 18721 net.cpp:157] Top shape: 2 6 56 56 (37632)
I1006 07:20:27.600664 18721 net.cpp:157] Top shape: 2 6 56 56 (37632)
I1006 07:20:27.600668 18721 net.cpp:157] Top shape: 2 6 56 56 (37632)
I1006 07:20:27.600670 18721 net.cpp:165] Memory required for data: 989258284
I1006 07:20:27.600674 18721 layer_factory.hpp:76] Creating layer detection_loss_1_3x5
I1006 07:20:27.600683 18721 net.cpp:106] Creating Layer detection_loss_1_3x5
I1006 07:20:27.600688 18721 net.cpp:454] detection_loss_1_3x5 <- LFCN_1_3x5_LFCN_1_3x5_0_split_0
I1006 07:20:27.600695 18721 net.cpp:454] detection_loss_1_3x5 <- label_1_3x5_data_1_split_0
I1006 07:20:27.600706 18721 net.cpp:411] detection_loss_1_3x5 -> loss_1_3x5
I1006 07:20:27.600719 18721 layer_factory.hpp:76] Creating layer detection_loss_1_3x5
I1006 07:20:27.601377 18721 net.cpp:150] Setting up detection_loss_1_3x5
I1006 07:20:27.601390 18721 net.cpp:157] Top shape: 1 1 1 2 (2)
I1006 07:20:27.601393 18721 net.cpp:160]     with loss weight 0.9
I1006 07:20:27.601405 18721 net.cpp:165] Memory required for data: 989258292
I1006 07:20:27.601408 18721 layer_factory.hpp:76] Creating layer detection_accuracy_1_3x5
I1006 07:20:27.601418 18721 net.cpp:106] Creating Layer detection_accuracy_1_3x5
I1006 07:20:27.601420 18721 net.cpp:454] detection_accuracy_1_3x5 <- LFCN_1_3x5_LFCN_1_3x5_0_split_1
I1006 07:20:27.601425 18721 net.cpp:454] detection_accuracy_1_3x5 <- label_1_3x5_data_1_split_1
I1006 07:20:27.601430 18721 net.cpp:411] detection_accuracy_1_3x5 -> accuracy_1_3x5
I1006 07:20:27.601436 18721 net.cpp:411] detection_accuracy_1_3x5 -> boxiou_1_3x5
I1006 07:20:27.601487 18721 net.cpp:150] Setting up detection_accuracy_1_3x5
I1006 07:20:27.601492 18721 net.cpp:157] Top shape: 1 1 1 2 (2)
I1006 07:20:27.601496 18721 net.cpp:157] Top shape: 1 1 1 1 (1)
I1006 07:20:27.601498 18721 net.cpp:165] Memory required for data: 989258304
I1006 07:20:27.601501 18721 layer_factory.hpp:76] Creating layer LFCN_1_5x7
I1006 07:20:27.601514 18721 net.cpp:106] Creating Layer LFCN_1_5x7
I1006 07:20:27.601519 18721 net.cpp:454] LFCN_1_5x7 <- loss1_conv1_loss_relu1_0_split_1
I1006 07:20:27.601531 18721 net.cpp:411] LFCN_1_5x7 -> LFCN_1_5x7
I1006 07:20:27.606133 18721 net.cpp:150] Setting up LFCN_1_5x7
I1006 07:20:27.606158 18721 net.cpp:157] Top shape: 2 6 56 56 (37632)
I1006 07:20:27.606163 18721 net.cpp:165] Memory required for data: 989408832
I1006 07:20:27.606168 18721 layer_factory.hpp:76] Creating layer LFCN_1_5x7_LFCN_1_5x7_0_split
I1006 07:20:27.606174 18721 net.cpp:106] Creating Layer LFCN_1_5x7_LFCN_1_5x7_0_split
I1006 07:20:27.606178 18721 net.cpp:454] LFCN_1_5x7_LFCN_1_5x7_0_split <- LFCN_1_5x7
I1006 07:20:27.606185 18721 net.cpp:411] LFCN_1_5x7_LFCN_1_5x7_0_split -> LFCN_1_5x7_LFCN_1_5x7_0_split_0
I1006 07:20:27.606191 18721 net.cpp:411] LFCN_1_5x7_LFCN_1_5x7_0_split -> LFCN_1_5x7_LFCN_1_5x7_0_split_1
I1006 07:20:27.606197 18721 net.cpp:411] LFCN_1_5x7_LFCN_1_5x7_0_split -> LFCN_1_5x7_LFCN_1_5x7_0_split_2
I1006 07:20:27.606264 18721 net.cpp:150] Setting up LFCN_1_5x7_LFCN_1_5x7_0_split
I1006 07:20:27.606271 18721 net.cpp:157] Top shape: 2 6 56 56 (37632)
I1006 07:20:27.606274 18721 net.cpp:157] Top shape: 2 6 56 56 (37632)
I1006 07:20:27.606277 18721 net.cpp:157] Top shape: 2 6 56 56 (37632)
I1006 07:20:27.606281 18721 net.cpp:165] Memory required for data: 989860416
I1006 07:20:27.606282 18721 layer_factory.hpp:76] Creating layer detection_loss_1_5x7
I1006 07:20:27.606288 18721 net.cpp:106] Creating Layer detection_loss_1_5x7
I1006 07:20:27.606292 18721 net.cpp:454] detection_loss_1_5x7 <- LFCN_1_5x7_LFCN_1_5x7_0_split_0
I1006 07:20:27.606295 18721 net.cpp:454] detection_loss_1_5x7 <- label_1_5x7_data_2_split_0
I1006 07:20:27.606304 18721 net.cpp:411] detection_loss_1_5x7 -> loss_1_5x7
I1006 07:20:27.606315 18721 layer_factory.hpp:76] Creating layer detection_loss_1_5x7
I1006 07:20:27.606997 18721 net.cpp:150] Setting up detection_loss_1_5x7
I1006 07:20:27.607009 18721 net.cpp:157] Top shape: 1 1 1 2 (2)
I1006 07:20:27.607013 18721 net.cpp:160]     with loss weight 0.9
I1006 07:20:27.607020 18721 net.cpp:165] Memory required for data: 989860424
I1006 07:20:27.607023 18721 layer_factory.hpp:76] Creating layer detection_accuracy_1_5x7
I1006 07:20:27.607031 18721 net.cpp:106] Creating Layer detection_accuracy_1_5x7
I1006 07:20:27.607035 18721 net.cpp:454] detection_accuracy_1_5x7 <- LFCN_1_5x7_LFCN_1_5x7_0_split_1
I1006 07:20:27.607040 18721 net.cpp:454] detection_accuracy_1_5x7 <- label_1_5x7_data_2_split_1
I1006 07:20:27.607044 18721 net.cpp:411] detection_accuracy_1_5x7 -> accuracy_1_5x7
I1006 07:20:27.607051 18721 net.cpp:411] detection_accuracy_1_5x7 -> boxiou_1_5x7
I1006 07:20:27.607102 18721 net.cpp:150] Setting up detection_accuracy_1_5x7
I1006 07:20:27.607108 18721 net.cpp:157] Top shape: 1 1 1 2 (2)
I1006 07:20:27.607111 18721 net.cpp:157] Top shape: 1 1 1 1 (1)
I1006 07:20:27.607115 18721 net.cpp:165] Memory required for data: 989860436
I1006 07:20:27.607116 18721 layer_factory.hpp:76] Creating layer pool4
I1006 07:20:27.607122 18721 net.cpp:106] Creating Layer pool4
I1006 07:20:27.607126 18721 net.cpp:454] pool4 <- conv4_3_relu4_3_0_split_1
I1006 07:20:27.607132 18721 net.cpp:411] pool4 -> pool4
I1006 07:20:27.607609 18721 net.cpp:150] Setting up pool4
I1006 07:20:27.607632 18721 net.cpp:157] Top shape: 2 512 28 28 (802816)
I1006 07:20:27.607635 18721 net.cpp:165] Memory required for data: 993071700
I1006 07:20:27.607650 18721 layer_factory.hpp:76] Creating layer conv5_1
I1006 07:20:27.607659 18721 net.cpp:106] Creating Layer conv5_1
I1006 07:20:27.607662 18721 net.cpp:454] conv5_1 <- pool4
I1006 07:20:27.607668 18721 net.cpp:411] conv5_1 -> conv5_1
I1006 07:20:27.613471 18721 net.cpp:150] Setting up conv5_1
I1006 07:20:27.613495 18721 net.cpp:157] Top shape: 2 512 28 28 (802816)
I1006 07:20:27.613498 18721 net.cpp:165] Memory required for data: 996282964
I1006 07:20:27.613503 18721 layer_factory.hpp:76] Creating layer relu5_1
I1006 07:20:27.613509 18721 net.cpp:106] Creating Layer relu5_1
I1006 07:20:27.613513 18721 net.cpp:454] relu5_1 <- conv5_1
I1006 07:20:27.613519 18721 net.cpp:397] relu5_1 -> conv5_1 (in-place)
I1006 07:20:27.613929 18721 net.cpp:150] Setting up relu5_1
I1006 07:20:27.613943 18721 net.cpp:157] Top shape: 2 512 28 28 (802816)
I1006 07:20:27.613946 18721 net.cpp:165] Memory required for data: 999494228
I1006 07:20:27.613950 18721 layer_factory.hpp:76] Creating layer conv5_2
I1006 07:20:27.613957 18721 net.cpp:106] Creating Layer conv5_2
I1006 07:20:27.613961 18721 net.cpp:454] conv5_2 <- conv5_1
I1006 07:20:27.613966 18721 net.cpp:411] conv5_2 -> conv5_2
I1006 07:20:27.620158 18721 net.cpp:150] Setting up conv5_2
I1006 07:20:27.620173 18721 net.cpp:157] Top shape: 2 512 28 28 (802816)
I1006 07:20:27.620187 18721 net.cpp:165] Memory required for data: 1002705492
I1006 07:20:27.620193 18721 layer_factory.hpp:76] Creating layer relu5_2
I1006 07:20:27.620199 18721 net.cpp:106] Creating Layer relu5_2
I1006 07:20:27.620203 18721 net.cpp:454] relu5_2 <- conv5_2
I1006 07:20:27.620208 18721 net.cpp:397] relu5_2 -> conv5_2 (in-place)
I1006 07:20:27.620445 18721 net.cpp:150] Setting up relu5_2
I1006 07:20:27.620456 18721 net.cpp:157] Top shape: 2 512 28 28 (802816)
I1006 07:20:27.620460 18721 net.cpp:165] Memory required for data: 1005916756
I1006 07:20:27.620462 18721 layer_factory.hpp:76] Creating layer conv5_3
I1006 07:20:27.620471 18721 net.cpp:106] Creating Layer conv5_3
I1006 07:20:27.620473 18721 net.cpp:454] conv5_3 <- conv5_2
I1006 07:20:27.620481 18721 net.cpp:411] conv5_3 -> conv5_3
I1006 07:20:27.626600 18721 net.cpp:150] Setting up conv5_3
I1006 07:20:27.626628 18721 net.cpp:157] Top shape: 2 512 28 28 (802816)
I1006 07:20:27.626631 18721 net.cpp:165] Memory required for data: 1009128020
I1006 07:20:27.626637 18721 layer_factory.hpp:76] Creating layer relu5_3
I1006 07:20:27.626643 18721 net.cpp:106] Creating Layer relu5_3
I1006 07:20:27.626646 18721 net.cpp:454] relu5_3 <- conv5_3
I1006 07:20:27.626655 18721 net.cpp:397] relu5_3 -> conv5_3 (in-place)
I1006 07:20:27.627059 18721 net.cpp:150] Setting up relu5_3
I1006 07:20:27.627074 18721 net.cpp:157] Top shape: 2 512 28 28 (802816)
I1006 07:20:27.627076 18721 net.cpp:165] Memory required for data: 1012339284
I1006 07:20:27.627079 18721 layer_factory.hpp:76] Creating layer conv5_3_relu5_3_0_split
I1006 07:20:27.627087 18721 net.cpp:106] Creating Layer conv5_3_relu5_3_0_split
I1006 07:20:27.627092 18721 net.cpp:454] conv5_3_relu5_3_0_split <- conv5_3
I1006 07:20:27.627097 18721 net.cpp:411] conv5_3_relu5_3_0_split -> conv5_3_relu5_3_0_split_0
I1006 07:20:27.627104 18721 net.cpp:411] conv5_3_relu5_3_0_split -> conv5_3_relu5_3_0_split_1
I1006 07:20:27.627110 18721 net.cpp:411] conv5_3_relu5_3_0_split -> conv5_3_relu5_3_0_split_2
I1006 07:20:27.627182 18721 net.cpp:150] Setting up conv5_3_relu5_3_0_split
I1006 07:20:27.627190 18721 net.cpp:157] Top shape: 2 512 28 28 (802816)
I1006 07:20:27.627193 18721 net.cpp:157] Top shape: 2 512 28 28 (802816)
I1006 07:20:27.627199 18721 net.cpp:157] Top shape: 2 512 28 28 (802816)
I1006 07:20:27.627203 18721 net.cpp:165] Memory required for data: 1021973076
I1006 07:20:27.627207 18721 layer_factory.hpp:76] Creating layer LFCN_2_3x5
I1006 07:20:27.627220 18721 net.cpp:106] Creating Layer LFCN_2_3x5
I1006 07:20:27.627226 18721 net.cpp:454] LFCN_2_3x5 <- conv5_3_relu5_3_0_split_0
I1006 07:20:27.627235 18721 net.cpp:411] LFCN_2_3x5 -> LFCN_2_3x5
I1006 07:20:27.629642 18721 net.cpp:150] Setting up LFCN_2_3x5
I1006 07:20:27.629654 18721 net.cpp:157] Top shape: 2 6 28 28 (9408)
I1006 07:20:27.629668 18721 net.cpp:165] Memory required for data: 1022010708
I1006 07:20:27.629684 18721 layer_factory.hpp:76] Creating layer LFCN_2_3x5_LFCN_2_3x5_0_split
I1006 07:20:27.629689 18721 net.cpp:106] Creating Layer LFCN_2_3x5_LFCN_2_3x5_0_split
I1006 07:20:27.629693 18721 net.cpp:454] LFCN_2_3x5_LFCN_2_3x5_0_split <- LFCN_2_3x5
I1006 07:20:27.629698 18721 net.cpp:411] LFCN_2_3x5_LFCN_2_3x5_0_split -> LFCN_2_3x5_LFCN_2_3x5_0_split_0
I1006 07:20:27.629724 18721 net.cpp:411] LFCN_2_3x5_LFCN_2_3x5_0_split -> LFCN_2_3x5_LFCN_2_3x5_0_split_1
I1006 07:20:27.629731 18721 net.cpp:411] LFCN_2_3x5_LFCN_2_3x5_0_split -> LFCN_2_3x5_LFCN_2_3x5_0_split_2
I1006 07:20:27.629820 18721 net.cpp:150] Setting up LFCN_2_3x5_LFCN_2_3x5_0_split
I1006 07:20:27.629838 18721 net.cpp:157] Top shape: 2 6 28 28 (9408)
I1006 07:20:27.629842 18721 net.cpp:157] Top shape: 2 6 28 28 (9408)
I1006 07:20:27.629848 18721 net.cpp:157] Top shape: 2 6 28 28 (9408)
I1006 07:20:27.629851 18721 net.cpp:165] Memory required for data: 1022123604
I1006 07:20:27.629855 18721 layer_factory.hpp:76] Creating layer detection_loss_2_3x5
I1006 07:20:27.629868 18721 net.cpp:106] Creating Layer detection_loss_2_3x5
I1006 07:20:27.629874 18721 net.cpp:454] detection_loss_2_3x5 <- LFCN_2_3x5_LFCN_2_3x5_0_split_0
I1006 07:20:27.629881 18721 net.cpp:454] detection_loss_2_3x5 <- label_2_3x5_data_3_split_0
I1006 07:20:27.629889 18721 net.cpp:411] detection_loss_2_3x5 -> loss_2_3x5
I1006 07:20:27.629900 18721 layer_factory.hpp:76] Creating layer detection_loss_2_3x5
I1006 07:20:27.630568 18721 net.cpp:150] Setting up detection_loss_2_3x5
I1006 07:20:27.630579 18721 net.cpp:157] Top shape: 1 1 1 2 (2)
I1006 07:20:27.630594 18721 net.cpp:160]     with loss weight 1
I1006 07:20:27.630606 18721 net.cpp:165] Memory required for data: 1022123612
I1006 07:20:27.630609 18721 layer_factory.hpp:76] Creating layer detection_accuracy_2_3x5
I1006 07:20:27.630615 18721 net.cpp:106] Creating Layer detection_accuracy_2_3x5
I1006 07:20:27.630619 18721 net.cpp:454] detection_accuracy_2_3x5 <- LFCN_2_3x5_LFCN_2_3x5_0_split_1
I1006 07:20:27.630623 18721 net.cpp:454] detection_accuracy_2_3x5 <- label_2_3x5_data_3_split_1
I1006 07:20:27.630642 18721 net.cpp:411] detection_accuracy_2_3x5 -> accuracy_2_3x5
I1006 07:20:27.630650 18721 net.cpp:411] detection_accuracy_2_3x5 -> boxiou_2_3x5
I1006 07:20:27.630725 18721 net.cpp:150] Setting up detection_accuracy_2_3x5
I1006 07:20:27.630748 18721 net.cpp:157] Top shape: 1 1 1 2 (2)
I1006 07:20:27.630751 18721 net.cpp:157] Top shape: 1 1 1 1 (1)
I1006 07:20:27.630753 18721 net.cpp:165] Memory required for data: 1022123624
I1006 07:20:27.630756 18721 layer_factory.hpp:76] Creating layer LFCN_2_5x7
I1006 07:20:27.630765 18721 net.cpp:106] Creating Layer LFCN_2_5x7
I1006 07:20:27.630769 18721 net.cpp:454] LFCN_2_5x7 <- conv5_3_relu5_3_0_split_1
I1006 07:20:27.630774 18721 net.cpp:411] LFCN_2_5x7 -> LFCN_2_5x7
I1006 07:20:27.635707 18721 net.cpp:150] Setting up LFCN_2_5x7
I1006 07:20:27.635732 18721 net.cpp:157] Top shape: 2 6 28 28 (9408)
I1006 07:20:27.635735 18721 net.cpp:165] Memory required for data: 1022161256
I1006 07:20:27.635741 18721 layer_factory.hpp:76] Creating layer LFCN_2_5x7_LFCN_2_5x7_0_split
I1006 07:20:27.635747 18721 net.cpp:106] Creating Layer LFCN_2_5x7_LFCN_2_5x7_0_split
I1006 07:20:27.635751 18721 net.cpp:454] LFCN_2_5x7_LFCN_2_5x7_0_split <- LFCN_2_5x7
I1006 07:20:27.635756 18721 net.cpp:411] LFCN_2_5x7_LFCN_2_5x7_0_split -> LFCN_2_5x7_LFCN_2_5x7_0_split_0
I1006 07:20:27.635761 18721 net.cpp:411] LFCN_2_5x7_LFCN_2_5x7_0_split -> LFCN_2_5x7_LFCN_2_5x7_0_split_1
I1006 07:20:27.635767 18721 net.cpp:411] LFCN_2_5x7_LFCN_2_5x7_0_split -> LFCN_2_5x7_LFCN_2_5x7_0_split_2
I1006 07:20:27.635844 18721 net.cpp:150] Setting up LFCN_2_5x7_LFCN_2_5x7_0_split
I1006 07:20:27.635861 18721 net.cpp:157] Top shape: 2 6 28 28 (9408)
I1006 07:20:27.635864 18721 net.cpp:157] Top shape: 2 6 28 28 (9408)
I1006 07:20:27.635867 18721 net.cpp:157] Top shape: 2 6 28 28 (9408)
I1006 07:20:27.635870 18721 net.cpp:165] Memory required for data: 1022274152
I1006 07:20:27.635872 18721 layer_factory.hpp:76] Creating layer detection_loss_2_5x7
I1006 07:20:27.635880 18721 net.cpp:106] Creating Layer detection_loss_2_5x7
I1006 07:20:27.635885 18721 net.cpp:454] detection_loss_2_5x7 <- LFCN_2_5x7_LFCN_2_5x7_0_split_0
I1006 07:20:27.635888 18721 net.cpp:454] detection_loss_2_5x7 <- label_2_5x7_data_4_split_0
I1006 07:20:27.635892 18721 net.cpp:411] detection_loss_2_5x7 -> loss_2_5x7
I1006 07:20:27.635900 18721 layer_factory.hpp:76] Creating layer detection_loss_2_5x7
I1006 07:20:27.636390 18721 net.cpp:150] Setting up detection_loss_2_5x7
I1006 07:20:27.636402 18721 net.cpp:157] Top shape: 1 1 1 2 (2)
I1006 07:20:27.636416 18721 net.cpp:160]     with loss weight 1
I1006 07:20:27.636422 18721 net.cpp:165] Memory required for data: 1022274160
I1006 07:20:27.636425 18721 layer_factory.hpp:76] Creating layer detection_accuracy_2_5x7
I1006 07:20:27.636432 18721 net.cpp:106] Creating Layer detection_accuracy_2_5x7
I1006 07:20:27.636436 18721 net.cpp:454] detection_accuracy_2_5x7 <- LFCN_2_5x7_LFCN_2_5x7_0_split_1
I1006 07:20:27.636441 18721 net.cpp:454] detection_accuracy_2_5x7 <- label_2_5x7_data_4_split_1
I1006 07:20:27.636445 18721 net.cpp:411] detection_accuracy_2_5x7 -> accuracy_2_5x7
I1006 07:20:27.636453 18721 net.cpp:411] detection_accuracy_2_5x7 -> boxiou_2_5x7
I1006 07:20:27.636524 18721 net.cpp:150] Setting up detection_accuracy_2_5x7
I1006 07:20:27.636529 18721 net.cpp:157] Top shape: 1 1 1 2 (2)
I1006 07:20:27.636533 18721 net.cpp:157] Top shape: 1 1 1 1 (1)
I1006 07:20:27.636535 18721 net.cpp:165] Memory required for data: 1022274172
I1006 07:20:27.636538 18721 layer_factory.hpp:76] Creating layer pool5
I1006 07:20:27.636548 18721 net.cpp:106] Creating Layer pool5
I1006 07:20:27.636553 18721 net.cpp:454] pool5 <- conv5_3_relu5_3_0_split_2
I1006 07:20:27.636565 18721 net.cpp:411] pool5 -> pool5
I1006 07:20:27.637048 18721 net.cpp:150] Setting up pool5
I1006 07:20:27.637073 18721 net.cpp:157] Top shape: 2 512 14 14 (200704)
I1006 07:20:27.637076 18721 net.cpp:165] Memory required for data: 1023076988
I1006 07:20:27.637079 18721 layer_factory.hpp:76] Creating layer conv6_1
I1006 07:20:27.637086 18721 net.cpp:106] Creating Layer conv6_1
I1006 07:20:27.637090 18721 net.cpp:454] conv6_1 <- pool5
I1006 07:20:27.637097 18721 net.cpp:411] conv6_1 -> conv6_1
I1006 07:20:27.706769 18721 net.cpp:150] Setting up conv6_1
I1006 07:20:27.706784 18721 net.cpp:157] Top shape: 2 512 14 14 (200704)
I1006 07:20:27.706799 18721 net.cpp:165] Memory required for data: 1023879804
I1006 07:20:27.706804 18721 layer_factory.hpp:76] Creating layer relu6_1
I1006 07:20:27.706811 18721 net.cpp:106] Creating Layer relu6_1
I1006 07:20:27.706815 18721 net.cpp:454] relu6_1 <- conv6_1
I1006 07:20:27.706820 18721 net.cpp:397] relu6_1 -> conv6_1 (in-place)
I1006 07:20:27.707056 18721 net.cpp:150] Setting up relu6_1
I1006 07:20:27.707074 18721 net.cpp:157] Top shape: 2 512 14 14 (200704)
I1006 07:20:27.707079 18721 net.cpp:165] Memory required for data: 1024682620
I1006 07:20:27.707085 18721 layer_factory.hpp:76] Creating layer conv6_1_relu6_1_0_split
I1006 07:20:27.707093 18721 net.cpp:106] Creating Layer conv6_1_relu6_1_0_split
I1006 07:20:27.707096 18721 net.cpp:454] conv6_1_relu6_1_0_split <- conv6_1
I1006 07:20:27.707103 18721 net.cpp:411] conv6_1_relu6_1_0_split -> conv6_1_relu6_1_0_split_0
I1006 07:20:27.707109 18721 net.cpp:411] conv6_1_relu6_1_0_split -> conv6_1_relu6_1_0_split_1
I1006 07:20:27.707115 18721 net.cpp:411] conv6_1_relu6_1_0_split -> conv6_1_relu6_1_0_split_2
I1006 07:20:27.707222 18721 net.cpp:150] Setting up conv6_1_relu6_1_0_split
I1006 07:20:27.707233 18721 net.cpp:157] Top shape: 2 512 14 14 (200704)
I1006 07:20:27.707237 18721 net.cpp:157] Top shape: 2 512 14 14 (200704)
I1006 07:20:27.707240 18721 net.cpp:157] Top shape: 2 512 14 14 (200704)
I1006 07:20:27.707250 18721 net.cpp:165] Memory required for data: 1027091068
I1006 07:20:27.707253 18721 layer_factory.hpp:76] Creating layer LFCN_3_3x5
I1006 07:20:27.707263 18721 net.cpp:106] Creating Layer LFCN_3_3x5
I1006 07:20:27.707267 18721 net.cpp:454] LFCN_3_3x5 <- conv6_1_relu6_1_0_split_0
I1006 07:20:27.707273 18721 net.cpp:411] LFCN_3_3x5 -> LFCN_3_3x5
I1006 07:20:27.710484 18721 net.cpp:150] Setting up LFCN_3_3x5
I1006 07:20:27.710497 18721 net.cpp:157] Top shape: 2 6 14 14 (2352)
I1006 07:20:27.710511 18721 net.cpp:165] Memory required for data: 1027100476
I1006 07:20:27.710518 18721 layer_factory.hpp:76] Creating layer LFCN_3_3x5_LFCN_3_3x5_0_split
I1006 07:20:27.710533 18721 net.cpp:106] Creating Layer LFCN_3_3x5_LFCN_3_3x5_0_split
I1006 07:20:27.710537 18721 net.cpp:454] LFCN_3_3x5_LFCN_3_3x5_0_split <- LFCN_3_3x5
I1006 07:20:27.710542 18721 net.cpp:411] LFCN_3_3x5_LFCN_3_3x5_0_split -> LFCN_3_3x5_LFCN_3_3x5_0_split_0
I1006 07:20:27.710551 18721 net.cpp:411] LFCN_3_3x5_LFCN_3_3x5_0_split -> LFCN_3_3x5_LFCN_3_3x5_0_split_1
I1006 07:20:27.710556 18721 net.cpp:411] LFCN_3_3x5_LFCN_3_3x5_0_split -> LFCN_3_3x5_LFCN_3_3x5_0_split_2
I1006 07:20:27.710642 18721 net.cpp:150] Setting up LFCN_3_3x5_LFCN_3_3x5_0_split
I1006 07:20:27.710649 18721 net.cpp:157] Top shape: 2 6 14 14 (2352)
I1006 07:20:27.710651 18721 net.cpp:157] Top shape: 2 6 14 14 (2352)
I1006 07:20:27.710654 18721 net.cpp:157] Top shape: 2 6 14 14 (2352)
I1006 07:20:27.710657 18721 net.cpp:165] Memory required for data: 1027128700
I1006 07:20:27.710660 18721 layer_factory.hpp:76] Creating layer detection_loss_3_3x5
I1006 07:20:27.710667 18721 net.cpp:106] Creating Layer detection_loss_3_3x5
I1006 07:20:27.710670 18721 net.cpp:454] detection_loss_3_3x5 <- LFCN_3_3x5_LFCN_3_3x5_0_split_0
I1006 07:20:27.710675 18721 net.cpp:454] detection_loss_3_3x5 <- label_3_3x5_data_5_split_0
I1006 07:20:27.710680 18721 net.cpp:411] detection_loss_3_3x5 -> loss_3_3x5
I1006 07:20:27.710687 18721 layer_factory.hpp:76] Creating layer detection_loss_3_3x5
I1006 07:20:27.711105 18721 net.cpp:150] Setting up detection_loss_3_3x5
I1006 07:20:27.711117 18721 net.cpp:157] Top shape: 1 1 1 2 (2)
I1006 07:20:27.711119 18721 net.cpp:160]     with loss weight 1
I1006 07:20:27.711127 18721 net.cpp:165] Memory required for data: 1027128708
I1006 07:20:27.711133 18721 layer_factory.hpp:76] Creating layer detection_accuracy_3_3x5
I1006 07:20:27.711151 18721 net.cpp:106] Creating Layer detection_accuracy_3_3x5
I1006 07:20:27.711155 18721 net.cpp:454] detection_accuracy_3_3x5 <- LFCN_3_3x5_LFCN_3_3x5_0_split_1
I1006 07:20:27.711160 18721 net.cpp:454] detection_accuracy_3_3x5 <- label_3_3x5_data_5_split_1
I1006 07:20:27.711165 18721 net.cpp:411] detection_accuracy_3_3x5 -> accuracy_3_3x5
I1006 07:20:27.711172 18721 net.cpp:411] detection_accuracy_3_3x5 -> boxiou_3_3x5
I1006 07:20:27.711230 18721 net.cpp:150] Setting up detection_accuracy_3_3x5
I1006 07:20:27.711236 18721 net.cpp:157] Top shape: 1 1 1 2 (2)
I1006 07:20:27.711239 18721 net.cpp:157] Top shape: 1 1 1 1 (1)
I1006 07:20:27.711242 18721 net.cpp:165] Memory required for data: 1027128720
I1006 07:20:27.711244 18721 layer_factory.hpp:76] Creating layer LFCN_3_5x7
I1006 07:20:27.711253 18721 net.cpp:106] Creating Layer LFCN_3_5x7
I1006 07:20:27.711256 18721 net.cpp:454] LFCN_3_5x7 <- conv6_1_relu6_1_0_split_1
I1006 07:20:27.711263 18721 net.cpp:411] LFCN_3_5x7 -> LFCN_3_5x7
I1006 07:20:27.715849 18721 net.cpp:150] Setting up LFCN_3_5x7
I1006 07:20:27.715862 18721 net.cpp:157] Top shape: 2 6 14 14 (2352)
I1006 07:20:27.715875 18721 net.cpp:165] Memory required for data: 1027138128
I1006 07:20:27.715881 18721 layer_factory.hpp:76] Creating layer LFCN_3_5x7_LFCN_3_5x7_0_split
I1006 07:20:27.715888 18721 net.cpp:106] Creating Layer LFCN_3_5x7_LFCN_3_5x7_0_split
I1006 07:20:27.715891 18721 net.cpp:454] LFCN_3_5x7_LFCN_3_5x7_0_split <- LFCN_3_5x7
I1006 07:20:27.715898 18721 net.cpp:411] LFCN_3_5x7_LFCN_3_5x7_0_split -> LFCN_3_5x7_LFCN_3_5x7_0_split_0
I1006 07:20:27.715904 18721 net.cpp:411] LFCN_3_5x7_LFCN_3_5x7_0_split -> LFCN_3_5x7_LFCN_3_5x7_0_split_1
I1006 07:20:27.715909 18721 net.cpp:411] LFCN_3_5x7_LFCN_3_5x7_0_split -> LFCN_3_5x7_LFCN_3_5x7_0_split_2
I1006 07:20:27.715996 18721 net.cpp:150] Setting up LFCN_3_5x7_LFCN_3_5x7_0_split
I1006 07:20:27.716001 18721 net.cpp:157] Top shape: 2 6 14 14 (2352)
I1006 07:20:27.716004 18721 net.cpp:157] Top shape: 2 6 14 14 (2352)
I1006 07:20:27.716007 18721 net.cpp:157] Top shape: 2 6 14 14 (2352)
I1006 07:20:27.716009 18721 net.cpp:165] Memory required for data: 1027166352
I1006 07:20:27.716012 18721 layer_factory.hpp:76] Creating layer detection_loss_3_5x7
I1006 07:20:27.716030 18721 net.cpp:106] Creating Layer detection_loss_3_5x7
I1006 07:20:27.716033 18721 net.cpp:454] detection_loss_3_5x7 <- LFCN_3_5x7_LFCN_3_5x7_0_split_0
I1006 07:20:27.716038 18721 net.cpp:454] detection_loss_3_5x7 <- label_3_5x7_data_6_split_0
I1006 07:20:27.716044 18721 net.cpp:411] detection_loss_3_5x7 -> loss_3_5x7
I1006 07:20:27.716051 18721 layer_factory.hpp:76] Creating layer detection_loss_3_5x7
I1006 07:20:27.716681 18721 net.cpp:150] Setting up detection_loss_3_5x7
I1006 07:20:27.716692 18721 net.cpp:157] Top shape: 1 1 1 2 (2)
I1006 07:20:27.716706 18721 net.cpp:160]     with loss weight 1
I1006 07:20:27.716712 18721 net.cpp:165] Memory required for data: 1027166360
I1006 07:20:27.716716 18721 layer_factory.hpp:76] Creating layer detection_accuracy_3_5x7
I1006 07:20:27.716722 18721 net.cpp:106] Creating Layer detection_accuracy_3_5x7
I1006 07:20:27.716727 18721 net.cpp:454] detection_accuracy_3_5x7 <- LFCN_3_5x7_LFCN_3_5x7_0_split_1
I1006 07:20:27.716730 18721 net.cpp:454] detection_accuracy_3_5x7 <- label_3_5x7_data_6_split_1
I1006 07:20:27.716735 18721 net.cpp:411] detection_accuracy_3_5x7 -> accuracy_3_5x7
I1006 07:20:27.716742 18721 net.cpp:411] detection_accuracy_3_5x7 -> boxiou_3_5x7
I1006 07:20:27.716819 18721 net.cpp:150] Setting up detection_accuracy_3_5x7
I1006 07:20:27.716823 18721 net.cpp:157] Top shape: 1 1 1 2 (2)
I1006 07:20:27.716827 18721 net.cpp:157] Top shape: 1 1 1 1 (1)
I1006 07:20:27.716830 18721 net.cpp:165] Memory required for data: 1027166372
I1006 07:20:27.716832 18721 layer_factory.hpp:76] Creating layer pool6
I1006 07:20:27.716840 18721 net.cpp:106] Creating Layer pool6
I1006 07:20:27.716842 18721 net.cpp:454] pool6 <- conv6_1_relu6_1_0_split_2
I1006 07:20:27.716847 18721 net.cpp:411] pool6 -> pool6
I1006 07:20:27.717082 18721 net.cpp:150] Setting up pool6
I1006 07:20:27.717092 18721 net.cpp:157] Top shape: 2 512 7 7 (50176)
I1006 07:20:27.717095 18721 net.cpp:165] Memory required for data: 1027367076
I1006 07:20:27.717097 18721 layer_factory.hpp:76] Creating layer LFCN_4_3x5
I1006 07:20:27.717108 18721 net.cpp:106] Creating Layer LFCN_4_3x5
I1006 07:20:27.717110 18721 net.cpp:454] LFCN_4_3x5 <- pool6
I1006 07:20:27.717116 18721 net.cpp:411] LFCN_4_3x5 -> LFCN_4_3x5
I1006 07:20:27.720252 18721 net.cpp:150] Setting up LFCN_4_3x5
I1006 07:20:27.720265 18721 net.cpp:157] Top shape: 2 6 7 7 (588)
I1006 07:20:27.720280 18721 net.cpp:165] Memory required for data: 1027369428
I1006 07:20:27.720288 18721 layer_factory.hpp:76] Creating layer LFCN_4_3x5_LFCN_4_3x5_0_split
I1006 07:20:27.720293 18721 net.cpp:106] Creating Layer LFCN_4_3x5_LFCN_4_3x5_0_split
I1006 07:20:27.720298 18721 net.cpp:454] LFCN_4_3x5_LFCN_4_3x5_0_split <- LFCN_4_3x5
I1006 07:20:27.720302 18721 net.cpp:411] LFCN_4_3x5_LFCN_4_3x5_0_split -> LFCN_4_3x5_LFCN_4_3x5_0_split_0
I1006 07:20:27.720309 18721 net.cpp:411] LFCN_4_3x5_LFCN_4_3x5_0_split -> LFCN_4_3x5_LFCN_4_3x5_0_split_1
I1006 07:20:27.720314 18721 net.cpp:411] LFCN_4_3x5_LFCN_4_3x5_0_split -> LFCN_4_3x5_LFCN_4_3x5_0_split_2
I1006 07:20:27.720401 18721 net.cpp:150] Setting up LFCN_4_3x5_LFCN_4_3x5_0_split
I1006 07:20:27.720407 18721 net.cpp:157] Top shape: 2 6 7 7 (588)
I1006 07:20:27.720409 18721 net.cpp:157] Top shape: 2 6 7 7 (588)
I1006 07:20:27.720412 18721 net.cpp:157] Top shape: 2 6 7 7 (588)
I1006 07:20:27.720415 18721 net.cpp:165] Memory required for data: 1027376484
I1006 07:20:27.720417 18721 layer_factory.hpp:76] Creating layer detection_loss_4_3x5
I1006 07:20:27.720429 18721 net.cpp:106] Creating Layer detection_loss_4_3x5
I1006 07:20:27.720433 18721 net.cpp:454] detection_loss_4_3x5 <- LFCN_4_3x5_LFCN_4_3x5_0_split_0
I1006 07:20:27.720438 18721 net.cpp:454] detection_loss_4_3x5 <- label_4_3x5_data_7_split_0
I1006 07:20:27.720443 18721 net.cpp:411] detection_loss_4_3x5 -> loss_4_3x5
I1006 07:20:27.720449 18721 layer_factory.hpp:76] Creating layer detection_loss_4_3x5
I1006 07:20:27.721086 18721 net.cpp:150] Setting up detection_loss_4_3x5
I1006 07:20:27.721098 18721 net.cpp:157] Top shape: 1 1 1 2 (2)
I1006 07:20:27.721113 18721 net.cpp:160]     with loss weight 1
I1006 07:20:27.721118 18721 net.cpp:165] Memory required for data: 1027376492
I1006 07:20:27.721122 18721 layer_factory.hpp:76] Creating layer detection_accuracy_4_3x5
I1006 07:20:27.721127 18721 net.cpp:106] Creating Layer detection_accuracy_4_3x5
I1006 07:20:27.721132 18721 net.cpp:454] detection_accuracy_4_3x5 <- LFCN_4_3x5_LFCN_4_3x5_0_split_1
I1006 07:20:27.721137 18721 net.cpp:454] detection_accuracy_4_3x5 <- label_4_3x5_data_7_split_1
I1006 07:20:27.721145 18721 net.cpp:411] detection_accuracy_4_3x5 -> accuracy_4_3x5
I1006 07:20:27.721153 18721 net.cpp:411] detection_accuracy_4_3x5 -> boxiou_4_3x5
I1006 07:20:27.721218 18721 net.cpp:150] Setting up detection_accuracy_4_3x5
I1006 07:20:27.721225 18721 net.cpp:157] Top shape: 1 1 1 2 (2)
I1006 07:20:27.721227 18721 net.cpp:157] Top shape: 1 1 1 1 (1)
I1006 07:20:27.721230 18721 net.cpp:165] Memory required for data: 1027376504
I1006 07:20:27.721232 18721 layer_factory.hpp:76] Creating layer proposals
I1006 07:20:27.721240 18721 net.cpp:106] Creating Layer proposals
I1006 07:20:27.721242 18721 net.cpp:454] proposals <- LFCN_1_3x5_LFCN_1_3x5_0_split_2
I1006 07:20:27.721246 18721 net.cpp:454] proposals <- LFCN_1_5x7_LFCN_1_5x7_0_split_2
I1006 07:20:27.721251 18721 net.cpp:454] proposals <- LFCN_2_3x5_LFCN_2_3x5_0_split_2
I1006 07:20:27.721253 18721 net.cpp:454] proposals <- LFCN_2_5x7_LFCN_2_5x7_0_split_2
I1006 07:20:27.721256 18721 net.cpp:454] proposals <- LFCN_3_3x5_LFCN_3_3x5_0_split_2
I1006 07:20:27.721259 18721 net.cpp:454] proposals <- LFCN_3_5x7_LFCN_3_5x7_0_split_2
I1006 07:20:27.721262 18721 net.cpp:454] proposals <- LFCN_4_3x5_LFCN_4_3x5_0_split_2
I1006 07:20:27.721268 18721 net.cpp:411] proposals -> proposals
I1006 07:20:27.721302 18721 net.cpp:150] Setting up proposals
I1006 07:20:27.721307 18721 net.cpp:157] Top shape: 1 5 1 1 (5)
I1006 07:20:27.721309 18721 net.cpp:165] Memory required for data: 1027376524
I1006 07:20:27.721312 18721 layer_factory.hpp:76] Creating layer proposal_info
I1006 07:20:27.721319 18721 net.cpp:106] Creating Layer proposal_info
I1006 07:20:27.721323 18721 net.cpp:454] proposal_info <- proposals
I1006 07:20:27.721326 18721 net.cpp:454] proposal_info <- gt_boxes
I1006 07:20:27.721333 18721 net.cpp:411] proposal_info -> rois
I1006 07:20:27.721339 18721 net.cpp:411] proposal_info -> proposal_labels
I1006 07:20:27.721346 18721 net.cpp:411] proposal_info -> proposal_targets
I1006 07:20:27.721352 18721 net.cpp:411] proposal_info -> box_inside_weights
I1006 07:20:27.721357 18721 net.cpp:411] proposal_info -> box_outside_weights
I1006 07:20:27.721364 18721 net.cpp:411] proposal_info -> match_gt_boxes
I1006 07:20:27.721482 18721 net.cpp:150] Setting up proposal_info
I1006 07:20:27.721489 18721 net.cpp:157] Top shape: 64 5 1 1 (320)
I1006 07:20:27.721493 18721 net.cpp:157] Top shape: 64 1 1 1 (64)
I1006 07:20:27.721496 18721 net.cpp:157] Top shape: 64 8 1 1 (512)
I1006 07:20:27.721499 18721 net.cpp:157] Top shape: 64 8 1 1 (512)
I1006 07:20:27.721503 18721 net.cpp:157] Top shape: 64 8 1 1 (512)
I1006 07:20:27.721505 18721 net.cpp:157] Top shape: 64 6 1 1 (384)
I1006 07:20:27.721508 18721 net.cpp:165] Memory required for data: 1027385740
I1006 07:20:27.721511 18721 layer_factory.hpp:76] Creating layer rois_proposal_info_0_split
I1006 07:20:27.721515 18721 net.cpp:106] Creating Layer rois_proposal_info_0_split
I1006 07:20:27.721518 18721 net.cpp:454] rois_proposal_info_0_split <- rois
I1006 07:20:27.721523 18721 net.cpp:411] rois_proposal_info_0_split -> rois_proposal_info_0_split_0
I1006 07:20:27.721529 18721 net.cpp:411] rois_proposal_info_0_split -> rois_proposal_info_0_split_1
I1006 07:20:27.721534 18721 net.cpp:411] rois_proposal_info_0_split -> rois_proposal_info_0_split_2
I1006 07:20:27.721593 18721 net.cpp:150] Setting up rois_proposal_info_0_split
I1006 07:20:27.721598 18721 net.cpp:157] Top shape: 64 5 1 1 (320)
I1006 07:20:27.721601 18721 net.cpp:157] Top shape: 64 5 1 1 (320)
I1006 07:20:27.721604 18721 net.cpp:157] Top shape: 64 5 1 1 (320)
I1006 07:20:27.721606 18721 net.cpp:165] Memory required for data: 1027389580
I1006 07:20:27.721609 18721 layer_factory.hpp:76] Creating layer proposal_labels_proposal_info_1_split
I1006 07:20:27.721613 18721 net.cpp:106] Creating Layer proposal_labels_proposal_info_1_split
I1006 07:20:27.721616 18721 net.cpp:454] proposal_labels_proposal_info_1_split <- proposal_labels
I1006 07:20:27.721621 18721 net.cpp:411] proposal_labels_proposal_info_1_split -> proposal_labels_proposal_info_1_split_0
I1006 07:20:27.721626 18721 net.cpp:411] proposal_labels_proposal_info_1_split -> proposal_labels_proposal_info_1_split_1
I1006 07:20:27.721680 18721 net.cpp:150] Setting up proposal_labels_proposal_info_1_split
I1006 07:20:27.721686 18721 net.cpp:157] Top shape: 64 1 1 1 (64)
I1006 07:20:27.721690 18721 net.cpp:157] Top shape: 64 1 1 1 (64)
I1006 07:20:27.721693 18721 net.cpp:165] Memory required for data: 1027390092
I1006 07:20:27.721694 18721 layer_factory.hpp:76] Creating layer conv4_3_2x
I1006 07:20:27.721704 18721 net.cpp:106] Creating Layer conv4_3_2x
I1006 07:20:27.721707 18721 net.cpp:454] conv4_3_2x <- conv4_3_relu4_3_0_split_2
I1006 07:20:27.721714 18721 net.cpp:411] conv4_3_2x -> conv4_3_2x
I1006 07:20:27.722215 18721 net.cpp:150] Setting up conv4_3_2x
I1006 07:20:27.722225 18721 net.cpp:157] Top shape: 2 512 112 112 (12845056)
I1006 07:20:27.722229 18721 net.cpp:165] Memory required for data: 1078770316
I1006 07:20:27.722232 18721 layer_factory.hpp:76] Creating layer conv4_3_2x_conv4_3_2x_0_split
I1006 07:20:27.722237 18721 net.cpp:106] Creating Layer conv4_3_2x_conv4_3_2x_0_split
I1006 07:20:27.722240 18721 net.cpp:454] conv4_3_2x_conv4_3_2x_0_split <- conv4_3_2x
I1006 07:20:27.722244 18721 net.cpp:411] conv4_3_2x_conv4_3_2x_0_split -> conv4_3_2x_conv4_3_2x_0_split_0
I1006 07:20:27.722250 18721 net.cpp:411] conv4_3_2x_conv4_3_2x_0_split -> conv4_3_2x_conv4_3_2x_0_split_1
I1006 07:20:27.722299 18721 net.cpp:150] Setting up conv4_3_2x_conv4_3_2x_0_split
I1006 07:20:27.722304 18721 net.cpp:157] Top shape: 2 512 112 112 (12845056)
I1006 07:20:27.722307 18721 net.cpp:157] Top shape: 2 512 112 112 (12845056)
I1006 07:20:27.722309 18721 net.cpp:165] Memory required for data: 1181530764
I1006 07:20:27.722312 18721 layer_factory.hpp:76] Creating layer roi_pool_org
I1006 07:20:27.722317 18721 net.cpp:106] Creating Layer roi_pool_org
I1006 07:20:27.722321 18721 net.cpp:454] roi_pool_org <- conv4_3_2x_conv4_3_2x_0_split_0
I1006 07:20:27.722324 18721 net.cpp:454] roi_pool_org <- rois_proposal_info_0_split_0
I1006 07:20:27.722331 18721 net.cpp:411] roi_pool_org -> roi_pool_org
I1006 07:20:27.722337 18721 roi_pooling_layer.cpp:35] Spatial scale: 0.25
I1006 07:20:27.722383 18721 net.cpp:150] Setting up roi_pool_org
I1006 07:20:27.722388 18721 net.cpp:157] Top shape: 64 512 8 4 (1048576)
I1006 07:20:27.722391 18721 net.cpp:165] Memory required for data: 1185725068
I1006 07:20:27.722393 18721 layer_factory.hpp:76] Creating layer roi_pool_ctx
I1006 07:20:27.722400 18721 net.cpp:106] Creating Layer roi_pool_ctx
I1006 07:20:27.722404 18721 net.cpp:454] roi_pool_ctx <- conv4_3_2x_conv4_3_2x_0_split_1
I1006 07:20:27.722407 18721 net.cpp:454] roi_pool_ctx <- rois_proposal_info_0_split_1
I1006 07:20:27.722412 18721 net.cpp:411] roi_pool_ctx -> roi_pool_ctx
I1006 07:20:27.722419 18721 roi_pooling_layer.cpp:35] Spatial scale: 0.25
I1006 07:20:27.722463 18721 net.cpp:150] Setting up roi_pool_ctx
I1006 07:20:27.722468 18721 net.cpp:157] Top shape: 64 512 8 4 (1048576)
I1006 07:20:27.722470 18721 net.cpp:165] Memory required for data: 1189919372
I1006 07:20:27.722473 18721 layer_factory.hpp:76] Creating layer roi_pool
I1006 07:20:27.722479 18721 net.cpp:106] Creating Layer roi_pool
I1006 07:20:27.722482 18721 net.cpp:454] roi_pool <- roi_pool_org
I1006 07:20:27.722486 18721 net.cpp:454] roi_pool <- roi_pool_ctx
I1006 07:20:27.722491 18721 net.cpp:411] roi_pool -> roi_pool
I1006 07:20:27.722519 18721 net.cpp:150] Setting up roi_pool
I1006 07:20:27.722523 18721 net.cpp:157] Top shape: 64 1024 8 4 (2097152)
I1006 07:20:27.722527 18721 net.cpp:165] Memory required for data: 1198307980
I1006 07:20:27.722528 18721 layer_factory.hpp:76] Creating layer roi_c1
I1006 07:20:27.722537 18721 net.cpp:106] Creating Layer roi_c1
I1006 07:20:27.722539 18721 net.cpp:454] roi_c1 <- roi_pool
I1006 07:20:27.722544 18721 net.cpp:411] roi_c1 -> roi_c1
I1006 07:20:27.877233 18721 net.cpp:150] Setting up roi_c1
I1006 07:20:27.877267 18721 net.cpp:157] Top shape: 64 512 8 4 (1048576)
I1006 07:20:27.877271 18721 net.cpp:165] Memory required for data: 1202502284
I1006 07:20:27.877279 18721 layer_factory.hpp:76] Creating layer roi_c1_relu
I1006 07:20:27.877290 18721 net.cpp:106] Creating Layer roi_c1_relu
I1006 07:20:27.877296 18721 net.cpp:454] roi_c1_relu <- roi_c1
I1006 07:20:27.877302 18721 net.cpp:397] roi_c1_relu -> roi_c1 (in-place)
I1006 07:20:27.877699 18721 net.cpp:150] Setting up roi_c1_relu
I1006 07:20:27.877712 18721 net.cpp:157] Top shape: 64 512 8 4 (1048576)
I1006 07:20:27.877714 18721 net.cpp:165] Memory required for data: 1206696588
I1006 07:20:27.877717 18721 layer_factory.hpp:76] Creating layer fc6
I1006 07:20:27.877728 18721 net.cpp:106] Creating Layer fc6
I1006 07:20:27.877732 18721 net.cpp:454] fc6 <- roi_c1
I1006 07:20:27.877737 18721 net.cpp:411] fc6 -> fc6
I1006 07:20:28.852555 18721 net.cpp:150] Setting up fc6
I1006 07:20:28.852589 18721 net.cpp:157] Top shape: 64 2048 (131072)
I1006 07:20:28.852592 18721 net.cpp:165] Memory required for data: 1207220876
I1006 07:20:28.852602 18721 layer_factory.hpp:76] Creating layer relu6
I1006 07:20:28.852610 18721 net.cpp:106] Creating Layer relu6
I1006 07:20:28.852615 18721 net.cpp:454] relu6 <- fc6
I1006 07:20:28.852622 18721 net.cpp:397] relu6 -> fc6 (in-place)
I1006 07:20:28.852922 18721 net.cpp:150] Setting up relu6
I1006 07:20:28.852932 18721 net.cpp:157] Top shape: 64 2048 (131072)
I1006 07:20:28.852936 18721 net.cpp:165] Memory required for data: 1207745164
I1006 07:20:28.852938 18721 layer_factory.hpp:76] Creating layer drop6
I1006 07:20:28.852946 18721 net.cpp:106] Creating Layer drop6
I1006 07:20:28.852949 18721 net.cpp:454] drop6 <- fc6
I1006 07:20:28.852953 18721 net.cpp:397] drop6 -> fc6 (in-place)
I1006 07:20:28.852991 18721 net.cpp:150] Setting up drop6
I1006 07:20:28.852996 18721 net.cpp:157] Top shape: 64 2048 (131072)
I1006 07:20:28.852999 18721 net.cpp:165] Memory required for data: 1208269452
I1006 07:20:28.853001 18721 layer_factory.hpp:76] Creating layer fc6_drop6_0_split
I1006 07:20:28.853006 18721 net.cpp:106] Creating Layer fc6_drop6_0_split
I1006 07:20:28.853008 18721 net.cpp:454] fc6_drop6_0_split <- fc6
I1006 07:20:28.853014 18721 net.cpp:411] fc6_drop6_0_split -> fc6_drop6_0_split_0
I1006 07:20:28.853020 18721 net.cpp:411] fc6_drop6_0_split -> fc6_drop6_0_split_1
I1006 07:20:28.853078 18721 net.cpp:150] Setting up fc6_drop6_0_split
I1006 07:20:28.853083 18721 net.cpp:157] Top shape: 64 2048 (131072)
I1006 07:20:28.853086 18721 net.cpp:157] Top shape: 64 2048 (131072)
I1006 07:20:28.853088 18721 net.cpp:165] Memory required for data: 1209318028
I1006 07:20:28.853091 18721 layer_factory.hpp:76] Creating layer cls_pred
I1006 07:20:28.853101 18721 net.cpp:106] Creating Layer cls_pred
I1006 07:20:28.853103 18721 net.cpp:454] cls_pred <- fc6_drop6_0_split_0
I1006 07:20:28.853111 18721 net.cpp:411] cls_pred -> cls_pred
I1006 07:20:28.853420 18721 net.cpp:150] Setting up cls_pred
I1006 07:20:28.853431 18721 net.cpp:157] Top shape: 64 2 (128)
I1006 07:20:28.853435 18721 net.cpp:165] Memory required for data: 1209318540
I1006 07:20:28.853440 18721 layer_factory.hpp:76] Creating layer cls_pred_cls_pred_0_split
I1006 07:20:28.853446 18721 net.cpp:106] Creating Layer cls_pred_cls_pred_0_split
I1006 07:20:28.853448 18721 net.cpp:454] cls_pred_cls_pred_0_split <- cls_pred
I1006 07:20:28.853453 18721 net.cpp:411] cls_pred_cls_pred_0_split -> cls_pred_cls_pred_0_split_0
I1006 07:20:28.853458 18721 net.cpp:411] cls_pred_cls_pred_0_split -> cls_pred_cls_pred_0_split_1
I1006 07:20:28.853524 18721 net.cpp:150] Setting up cls_pred_cls_pred_0_split
I1006 07:20:28.853529 18721 net.cpp:157] Top shape: 64 2 (128)
I1006 07:20:28.853533 18721 net.cpp:157] Top shape: 64 2 (128)
I1006 07:20:28.853536 18721 net.cpp:165] Memory required for data: 1209319564
I1006 07:20:28.853539 18721 layer_factory.hpp:76] Creating layer bbox_pred
I1006 07:20:28.853546 18721 net.cpp:106] Creating Layer bbox_pred
I1006 07:20:28.853552 18721 net.cpp:454] bbox_pred <- fc6_drop6_0_split_1
I1006 07:20:28.853560 18721 net.cpp:411] bbox_pred -> bbox_pred
I1006 07:20:28.854269 18721 net.cpp:150] Setting up bbox_pred
I1006 07:20:28.854279 18721 net.cpp:157] Top shape: 64 8 (512)
I1006 07:20:28.854281 18721 net.cpp:165] Memory required for data: 1209321612
I1006 07:20:28.854286 18721 layer_factory.hpp:76] Creating layer bbox_pred_bbox_pred_0_split
I1006 07:20:28.854291 18721 net.cpp:106] Creating Layer bbox_pred_bbox_pred_0_split
I1006 07:20:28.854295 18721 net.cpp:454] bbox_pred_bbox_pred_0_split <- bbox_pred
I1006 07:20:28.854311 18721 net.cpp:411] bbox_pred_bbox_pred_0_split -> bbox_pred_bbox_pred_0_split_0
I1006 07:20:28.854317 18721 net.cpp:411] bbox_pred_bbox_pred_0_split -> bbox_pred_bbox_pred_0_split_1
I1006 07:20:28.854377 18721 net.cpp:150] Setting up bbox_pred_bbox_pred_0_split
I1006 07:20:28.854382 18721 net.cpp:157] Top shape: 64 8 (512)
I1006 07:20:28.854384 18721 net.cpp:157] Top shape: 64 8 (512)
I1006 07:20:28.854387 18721 net.cpp:165] Memory required for data: 1209325708
I1006 07:20:28.854389 18721 layer_factory.hpp:76] Creating layer loss_cls
I1006 07:20:28.854395 18721 net.cpp:106] Creating Layer loss_cls
I1006 07:20:28.854398 18721 net.cpp:454] loss_cls <- cls_pred_cls_pred_0_split_0
I1006 07:20:28.854403 18721 net.cpp:454] loss_cls <- proposal_labels_proposal_info_1_split_0
…
