…
    downsample_rate: 32
    downsample_rate: 32
    downsample_rate: 64
    coord_num: 4
    field_h: 40
    field_h: 56
    field_h: 80
    field_h: 112
    field_h: 160
    field_h: 224
    field_h: 320
    field_w: 20
    field_w: 28
    field_w: 40
    field_w: 56
    field_w: 80
    field_w: 112
    field_w: 160
    fg_threshold: 0.5
    resize_width: 640
    resize_height: 480
    crop_width: 448
    crop_height: 448
    do_multiple_scale: true
    min_scale: 30
    max_scale: 240
    min_gt_height: 45
    shuffle: true
    output_gt_boxes: true
  }
}
layer {
  name: "conv1_1"
  type: "Convolution"
  bottom: "data"
  top: "conv1_1"
  param {
    lr_mult: 0
    decay_mult: 0
  }
  param {
    lr_mult: 0
    decay_mult: 0
  }
  convolution_param {
    num_output: 64
    pad: 1
    kernel_size: 3
  }
}
layer {
  name: "relu1_1"
  type: "ReLU"
  bottom: "conv1_1"
  top: "conv1_1"
}
layer {
  name: "conv1_2"
  type: "Convolution"
  bottom: "conv1_1"
  top: "conv1_2"
  param {
    lr_mult: 0
    decay_mult: 0
  }
  param {
    lr_mult: 0
    decay_mult: 0
  }
  convolution_param {
    num_output: 64
    pad: 1
    kernel_size: 3
  }
}
layer {
  name: "relu1_2"
  type: "ReLU"
  bottom: "conv1_2"
  top: "conv1_2"
}
layer {
  name: "pool1"
  type: "Pooling"
  bottom: "conv1_2"
  top: "pool1"
  pooling_param {
    pool: MAX
    kernel_size: 2
    stride: 2
  }
}
layer {
  name: "conv2_1"
  type: "Convolution"
  bottom: "pool1"
  top: "conv2_1"
  param {
    lr_mult: 0
    decay_mult: 0
  }
  param {
    lr_mult: 0
    decay_mult: 0
  }
  convolution_param {
    num_output: 128
    pad: 1
    kernel_size: 3
  }
}
layer {
  name: "relu2_1"
  type: "ReLU"
  bottom: "conv2_1"
  top: "conv2_1"
}
layer {
  name: "conv2_2"
  type: "Convolution"
  bottom: "conv2_1"
  top: "conv2_2"
  param {
    lr_mult: 0
    decay_mult: 0
  }
  param {
    lr_mult: 0
    decay_mult: 0
  }
  convolution_param {
    num_output: 128
    pad: 1
    kernel_size: 3
  }
}
layer {
  name: "relu2_2"
  type: "ReLU"
  bottom: "conv2_2"
  top: "conv2_2"
}
layer {
  name: "pool2"
  type: "Pooling"
  bottom: "conv2_2"
  top: "pool2"
  pooling_param {
    pool: MAX
    kernel_size: 2
    stride: 2
  }
}
layer {
  name: "conv3_1"
  type: "Convolution"
  bottom: "pool2"
  top: "conv3_1"
  convolution_param {
    num_output: 256
    pad: 1
    kernel_size: 3
  }
}
layer {
  name: "relu3_1"
  type: "ReLU"
  bottom: "conv3_1"
  top: "conv3_1"
}
layer {
  name: "conv3_2"
  type: "Convolution"
  bottom: "conv3_1"
  top: "conv3_2"
  convolution_param {
    num_output: 256
    pad: 1
    kernel_size: 3
  }
}
layer {
  name: "relu3_2"
  type: "ReLU"
  bottom: "conv3_2"
  top: "conv3_2"
}
layer {
  name: "conv3_3"
  type: "Convolution"
  bottom: "conv3_2"
  top: "conv3_3"
  convolution_param {
    num_output: 256
    pad: 1
    kernel_size: 3
  }
}
layer {
  name: "relu3_3"
  type: "ReLU"
  bottom: "conv3_3"
  top: "conv3_3"
}
layer {
  name: "pool3"
  type: "Pooling"
  bottom: "conv3_3"
  top: "pool3"
  pooling_param {
    pool: MAX
    kernel_size: 2
    stride: 2
  }
}
layer {
  name: "conv4_1"
  type: "Convolution"
  bottom: "pool3"
  top: "conv4_1"
  convolution_param {
    num_output: 512
    pad: 1
    kernel_size: 3
  }
}
layer {
  name: "relu4_1"
  type: "ReLU"
  bottom: "conv4_1"
  top: "conv4_1"
}
layer {
  name: "conv4_2"
  type: "Convolution"
  bottom: "conv4_1"
  top: "conv4_2"
  convolution_param {
    num_output: 512
    pad: 1
    kernel_size: 3
  }
}
layer {
  name: "relu4_2"
  type: "ReLU"
  bottom: "conv4_2"
  top: "conv4_2"
}
layer {
  name: "conv4_3"
  type: "Convolution"
  bottom: "conv4_2"
  top: "conv4_3"
  convolution_param {
    num_output: 512
    pad: 1
    kernel_size: 3
  }
}
layer {
  name: "relu4_3"
  type: "ReLU"
  bottom: "conv4_3"
  top: "conv4_3"
}
layer {
  name: "loss1_conv1"
  type: "Convolution"
  bottom: "conv4_3"
  top: "loss1_conv1"
  param {
    lr_mult: 1
    decay_mult: 1
  }
  param {
    lr_mult: 2
    decay_mult: 0
  }
  convolution_param {
    num_output: 512
    pad: 1
    kernel_size: 3
    weight_filler {
      type: "gaussian"
      std: 0.01
    }
    bias_filler {
      type: "constant"
    }
  }
}
layer {
  name: "loss_relu1"
  type: "ReLU"
  bottom: "loss1_conv1"
  top: "loss1_conv1"
}
layer {
  name: "LFCN_1_3x5"
  type: "Convolution"
  bottom: "loss1_conv1"
  top: "LFCN_1_3x5"
  param {
    lr_mult: 1
    decay_mult: 1
  }
  param {
    lr_mult: 2
    decay_mult: 0
  }
  convolution_param {
    num_output: 6
    weight_filler {
      type: "gaussian"
      std: 0.001
    }
    bias_filler {
      type: "constant"
    }
    pad_h: 2
    pad_w: 1
    kernel_h: 5
    kernel_w: 3
  }
}
layer {
  name: "detection_loss_1_3x5"
  type: "Detection"
  bottom: "LFCN_1_3x5"
  bottom: "label_1_3x5"
  top: "loss_1_3x5"
  loss_weight: 0.9
  detection_param {
    cls_num: 2
    coord_num: 4
    lambda: 1
    field_h: 40
    field_w: 20
    downsample_rate: 8
    bb_smooth: true
    field_whr: 2
    field_xyr: 2
    bg_threshold: 0.2
    bg_multiple: 2
    sample_mode: "bootstrap"
    pos_neg_weighted: true
  }
}
layer {
  name: "detection_accuracy_1_3x5"
  type: "DetectionAccuracy"
  bottom: "LFCN_1_3x5"
  bottom: "label_1_3x5"
  top: "accuracy_1_3x5"
  top: "boxiou_1_3x5"
  detection_accuracy_param {
    cls_num: 2
    coord_num: 4
    field_h: 40
    field_w: 20
    downsample_rate: 8
    field_whr: 2
    field_xyr: 2
  }
}
layer {
  name: "LFCN_1_5x7"
  type: "Convolution"
  bottom: "loss1_conv1"
  top: "LFCN_1_5x7"
  param {
    lr_mult: 1
    decay_mult: 1
  }
  param {
    lr_mult: 2
    decay_mult: 0
  }
  convolution_param {
    num_output: 6
    weight_filler {
      type: "gaussian"
      std: 0.001
    }
    bias_filler {
      type: "constant"
    }
    pad_h: 3
    pad_w: 2
    kernel_h: 7
    kernel_w: 5
  }
}
layer {
  name: "detection_loss_1_5x7"
  type: "Detection"
  bottom: "LFCN_1_5x7"
  bottom: "label_1_5x7"
  top: "loss_1_5x7"
  loss_weight: 0.9
  detection_param {
    cls_num: 2
    coord_num: 4
    lambda: 1
    field_h: 56
    field_w: 28
    downsample_rate: 8
    bb_smooth: true
    field_whr: 2
    field_xyr: 2
    bg_threshold: 0.2
    bg_multiple: 2
    sample_mode: "bootstrap"
    pos_neg_weighted: true
  }
}
layer {
  name: "detection_accuracy_1_5x7"
  type: "DetectionAccuracy"
  bottom: "LFCN_1_5x7"
  bottom: "label_1_5x7"
  top: "accuracy_1_5x7"
  top: "boxiou_1_5x7"
  detection_accuracy_param {
    cls_num: 2
    coord_num: 4
    field_h: 56
    field_w: 28
    downsample_rate: 8
    field_whr: 2
    field_xyr: 2
  }
}
layer {
  name: "pool4"
  type: "Pooling"
  bottom: "conv4_3"
  top: "pool4"
  pooling_param {
    pool: MAX
    kernel_size: 2
    stride: 2
  }
}
layer {
  name: "conv5_1"
  type: "Convolution"
  bottom: "pool4"
  top: "conv5_1"
  convolution_param {
    num_output: 512
    pad: 1
    kernel_size: 3
  }
}
layer {
  name: "relu5_1"
  type: "ReLU"
  bottom: "conv5_1"
  top: "conv5_1"
}
layer {
  name: "conv5_2"
  type: "Convolution"
  bottom: "conv5_1"
  top: "conv5_2"
  convolution_param {
    num_output: 512
    pad: 1
    kernel_size: 3
  }
}
layer {
  name: "relu5_2"
  type: "ReLU"
  bottom: "conv5_2"
  top: "conv5_2"
}
layer {
  name: "conv5_3"
  type: "Convolution"
  bottom: "conv5_2"
  top: "conv5_3"
  convolution_param {
    num_output: 512
    pad: 1
    kernel_size: 3
  }
}
layer {
  name: "relu5_3"
  type: "ReLU"
  bottom: "conv5_3"
  top: "conv5_3"
}
layer {
  name: "LFCN_2_3x5"
  type: "Convolution"
  bottom: "conv5_3"
  top: "LFCN_2_3x5"
  param {
    lr_mult: 1
    decay_mult: 1
  }
  param {
    lr_mult: 2
    decay_mult: 0
  }
  convolution_param {
    num_output: 6
    weight_filler {
      type: "gaussian"
      std: 0.001
    }
    bias_filler {
      type: "constant"
    }
    pad_h: 2
    pad_w: 1
    kernel_h: 5
    kernel_w: 3
  }
}
layer {
  name: "detection_loss_2_3x5"
  type: "Detection"
  bottom: "LFCN_2_3x5"
  bottom: "label_2_3x5"
  top: "loss_2_3x5"
  detection_param {
    cls_num: 2
    coord_num: 4
    lambda: 1
    field_h: 80
    field_w: 40
    downsample_rate: 16
    bb_smooth: true
    field_whr: 2
    field_xyr: 2
    bg_threshold: 0.2
    bg_multiple: 2
    sample_mode: "bootstrap"
    pos_neg_weighted: true
  }
}
layer {
  name: "detection_accuracy_2_3x5"
  type: "DetectionAccuracy"
  bottom: "LFCN_2_3x5"
  bottom: "label_2_3x5"
  top: "accuracy_2_3x5"
  top: "boxiou_2_3x5"
  detection_accuracy_param {
    cls_num: 2
    coord_num: 4
    field_h: 80
    field_w: 40
    downsample_rate: 16
    field_whr: 2
    field_xyr: 2
  }
}
layer {
  name: "LFCN_2_5x7"
  type: "Convolution"
  bottom: "conv5_3"
  top: "LFCN_2_5x7"
  param {
    lr_mult: 1
    decay_mult: 1
  }
  param {
    lr_mult: 2
    decay_mult: 0
  }
  convolution_param {
    num_output: 6
    weight_filler {
      type: "gaussian"
      std: 0.001
    }
    bias_filler {
      type: "constant"
    }
    pad_h: 3
    pad_w: 2
    kernel_h: 7
    kernel_w: 5
  }
}
layer {
  name: "detection_loss_2_5x7"
  type: "Detection"
  bottom: "LFCN_2_5x7"
  bottom: "label_2_5x7"
  top: "loss_2_5x7"
  detection_param {
    cls_num: 2
    coord_num: 4
    lambda: 1
    field_h: 112
    field_w: 56
    downsample_rate: 16
    bb_smooth: true
    field_whr: 2
    field_xyr: 2
    bg_threshold: 0.2
    bg_multiple: 2
    sample_mode: "bootstrap"
    pos_neg_weighted: true
  }
}
layer {
  name: "detection_accuracy_2_5x7"
  type: "DetectionAccuracy"
  bottom: "LFCN_2_5x7"
  bottom: "label_2_5x7"
  top: "accuracy_2_5x7"
  top: "boxiou_2_5x7"
  detection_accuracy_param {
    cls_num: 2
    coord_num: 4
    field_h: 112
    field_w: 56
    downsample_rate: 16
    field_whr: 2
    field_xyr: 2
  }
}
layer {
  name: "pool5"
  type: "Pooling"
  bottom: "conv5_3"
  top: "pool5"
  pooling_param {
    pool: MAX
    kernel_size: 2
    stride: 2
  }
}
layer {
  name: "conv6_1"
  type: "Convolution"
  bottom: "pool5"
  top: "conv6_1"
  param {
    lr_mult: 1
    decay_mult: 1
  }
  param {
    lr_mult: 2
    decay_mult: 0
  }
  convolution_param {
    num_output: 512
    pad: 1
    kernel_size: 3
    weight_filler {
      type: "gaussian"
      std: 0.01
    }
    bias_filler {
      type: "constant"
    }
  }
}
layer {
  name: "relu6_1"
  type: "ReLU"
  bottom: "conv6_1"
  top: "conv6_1"
}
layer {
  name: "LFCN_3_3x5"
  type: "Convolution"
  bottom: "conv6_1"
  top: "LFCN_3_3x5"
  param {
    lr_mult: 1
    decay_mult: 1
  }
  param {
    lr_mult: 2
    decay_mult: 0
  }
  convolution_param {
    num_output: 6
    weight_filler {
      type: "gaussian"
      std: 0.001
    }
    bias_filler {
      type: "constant"
    }
    pad_h: 2
    pad_w: 1
    kernel_h: 5
    kernel_w: 3
  }
}
layer {
  name: "detection_loss_3_3x5"
  type: "Detection"
  bottom: "LFCN_3_3x5"
  bottom: "label_3_3x5"
  top: "loss_3_3x5"
  detection_param {
    cls_num: 2
    coord_num: 4
    lambda: 1
    field_h: 160
    field_w: 80
    downsample_rate: 32
    bb_smooth: true
    field_whr: 2
    field_xyr: 2
    bg_threshold: 0.2
    bg_multiple: 2
    sample_mode: "bootstrap"
    pos_neg_weighted: true
  }
}
layer {
  name: "detection_accuracy_3_3x5"
  type: "DetectionAccuracy"
  bottom: "LFCN_3_3x5"
  bottom: "label_3_3x5"
  top: "accuracy_3_3x5"
  top: "boxiou_3_3x5"
  detection_accuracy_param {
    cls_num: 2
    coord_num: 4
    field_h: 160
    field_w: 80
    downsample_rate: 32
    field_whr: 2
    field_xyr: 2
  }
}
layer {
  name: "LFCN_3_5x7"
  type: "Convolution"
  bottom: "conv6_1"
  top: "LFCN_3_5x7"
  param {
    lr_mult: 1
    decay_mult: 1
  }
  param {
    lr_mult: 2
    decay_mult: 0
  }
  convolution_param {
    num_output: 6
    weight_filler {
      type: "gaussian"
      std: 0.001
    }
    bias_filler {
      type: "constant"
    }
    pad_h: 3
    pad_w: 2
    kernel_h: 7
    kernel_w: 5
  }
}
layer {
  name: "detection_loss_3_5x7"
  type: "Detection"
  bottom: "LFCN_3_5x7"
  bottom: "label_3_5x7"
  top: "loss_3_5x7"
  detection_param {
    cls_num: 2
    coord_num: 4
    lambda: 1
    field_h: 224
    field_w: 112
    downsample_rate: 32
    bb_smooth: true
    field_whr: 2
    field_xyr: 2
    bg_threshold: 0.2
    bg_multiple: 2
    sample_mode: "bootstrap"
    pos_neg_weighted: true
  }
}
layer {
  name: "detection_accuracy_3_5x7"
  type: "DetectionAccuracy"
  bottom: "LFCN_3_5x7"
  bottom: "label_3_5x7"
  top: "accuracy_3_5x7"
  top: "boxiou_3_5x7"
  detection_accuracy_param {
    cls_num: 2
    coord_num: 4
    field_h: 224
    field_w: 112
    downsample_rate: 32
    field_whr: 2
    field_xyr: 2
  }
}
layer {
  name: "pool6"
  type: "Pooling"
  bottom: "conv6_1"
  top: "pool6"
  pooling_param {
    pool: MAX
    kernel_size: 2
    stride: 2
  }
}
layer {
  name: "LFCN_4_3x5"
  type: "Convolution"
  bottom: "pool6"
  top: "LFCN_4_3x5"
  param {
    lr_mult: 1
    decay_mult: 1
  }
  param {
    lr_mult: 2
    decay_mult: 0
  }
  convolution_param {
    num_output: 6
    weight_filler {
      type: "gaussian"
      std: 0.001
    }
    bias_filler {
      type: "constant"
    }
    pad_h: 2
    pad_w: 1
    kernel_h: 5
    kernel_w: 3
  }
}
layer {
  name: "detection_loss_4_3x5"
  type: "Detection"
  bottom: "LFCN_4_3x5"
  bottom: "label_4_3x5"
  top: "loss_4_3x5"
  detection_param {
    cls_num: 2
    coord_num: 4
    lambda: 1
    field_h: 320
    field_w: 160
    downsample_rate: 64
    bb_smooth: true
    field_whr: 2
    field_xyr: 2
    bg_threshold: 0.2
    bg_multiple: 2
    sample_mode: "bootstrap"
    pos_neg_weighted: true
  }
}
layer {
  name: "detection_accuracy_4_3x5"
  type: "DetectionAccuracy"
  bottom: "LFCN_4_3x5"
  bottom: "label_4_3x5"
  top: "accuracy_4_3x5"
  top: "boxiou_4_3x5"
  detection_accuracy_param {
    cls_num: 2
    coord_num: 4
    field_h: 320
    field_w: 160
    downsample_rate: 64
    field_whr: 2
    field_xyr: 2
  }
}
layer {
  name: "proposals"
  type: "BoxOutput"
  bottom: "LFCN_1_3x5"
  bottom: "LFCN_1_5x7"
  bottom: "LFCN_2_3x5"
  bottom: "LFCN_2_5x7"
  bottom: "LFCN_3_3x5"
  bottom: "LFCN_3_5x7"
  bottom: "LFCN_4_3x5"
  top: "proposals"
  propagate_down: false
  propagate_down: false
  propagate_down: false
  propagate_down: false
  propagate_down: false
  propagate_down: false
  propagate_down: false
  box_output_param {
    fg_thr: -10
    iou_thr: 0.65
    nms_type: "IOU"
    field_h: 40
    field_h: 56
    field_h: 80
    field_h: 112
    field_h: 160
    field_h: 224
    field_h: 320
    field_w: 20
    field_w: 28
    field_w: 40
    field_w: 56
    field_w: 80
    field_w: 112
    field_w: 160
    downsample_rate: 8
    downsample_rate: 8
    downsample_rate: 16
    downsample_rate: 16
    downsample_rate: 32
    downsample_rate: 32
    downsample_rate: 64
    field_whr: 2
    field_xyr: 2
    max_nms_num: 3000
  }
}
layer {
  name: "proposal_info"
  type: "ProposalTarget"
  bottom: "proposals"
  bottom: "gt_boxes"
  top: "rois"
  top: "proposal_labels"
  top: "proposal_targets"
  top: "box_inside_weights"
  top: "box_outside_weights"
  top: "match_gt_boxes"
  include {
    phase: TRAIN
  }
  propagate_down: false
  propagate_down: false
  proposal_target_param {
    cls_num: 2
    batch_size: 128
    fg_fraction: 0.25
    num_img_per_batch: 4
    fg_thr: 0.45
    bg_thr_hg: 0.44
    bg_thr_lw: 0.05
    img_width: 448
    img_height: 448
    bbox_mean: 0
    bbox_mean: 0
    bbox_mean: 0
    bbox_mean: 0
    bbox_std: 0.1
    bbox_std: 0.1
    bbox_std: 0.2
    bbox_std: 0.2
  }
}
layer {
  name: "conv4_3_2x"
  type: "Deconvolution"
  bottom: "conv4_3"
  top: "conv4_3_2x"
  param {
    lr_mult: 0
    decay_mult: 0
  }
  convolution_param {
    num_output: 512
    bias_term: false
    pad: 1
    kernel_size: 4
    group: 512
    stride: 2
    weight_filler {
      type: "bilinear"
    }
  }
}
layer {
  name: "roi_pool_org"
  type: "ROIPooling"
  bottom: "conv4_3_2x"
  bottom: "rois"
  top: "roi_pool_org"
  roi_pooling_param {
    pooled_h: 8
    pooled_w: 4
    spatial_scale: 0.25
    pad_ratio: 0
  }
}
layer {
  name: "roi_pool_ctx"
  type: "ROIPooling"
  bottom: "conv4_3_2x"
  bottom: "rois"
  top: "roi_pool_ctx"
  roi_pooling_param {
    pooled_h: 8
    pooled_w: 4
    spatial_scale: 0.25
    pad_ratio: 0.25
  }
}
layer {
  name: "roi_pool"
  type: "Concat"
  bottom: "roi_pool_org"
  bottom: "roi_pool_ctx"
  top: "roi_pool"
}
layer {
  name: "roi_c1"
  type: "Convolution"
  bottom: "roi_pool"
  top: "roi_c1"
  param {
    lr_mult: 1
    decay_mult: 1
  }
  param {
    lr_mult: 2
    decay_mult: 0
  }
  convolution_param {
    num_output: 512
    pad: 1
    kernel_size: 3
    weight_filler {
      type: "gaussian"
      std: 0.01
    }
    bias_filler {
      type: "constant"
    }
  }
}
layer {
  name: "roi_c1_relu"
  type: "ReLU"
  bottom: "roi_c1"
  top: "roi_c1"
}
layer {
  name: "fc6"
  type: "InnerProduct"
  bottom: "roi_c1"
  top: "fc6"
  param {
    lr_mult: 1
  }
  param {
    lr_mult: 2
  }
  inner_product_param {
    num_output: 2048
    weight_filler {
      type: "gaussian"
      std: 0.001
    }
    bias_filler {
      type: "constant"
      value: 0
    }
  }
}
layer {
  name: "relu6"
  type: "ReLU"
  bottom: "fc6"
  top: "fc6"
}
layer {
  name: "drop6"
  type: "Dropout"
  bottom: "fc6"
  top: "fc6"
  dropout_param {
    dropout_ratio: 0.5
  }
}
layer {
  name: "cls_pred"
  type: "InnerProduct"
  bottom: "fc6"
  top: "cls_pred"
  param {
    lr_mult: 1
  }
  param {
    lr_mult: 2
  }
  inner_product_param {
    num_output: 2
    weight_filler {
      type: "gaussian"
      std: 0.01
    }
    bias_filler {
      type: "constant"
      value: 0
    }
  }
}
layer {
  name: "bbox_pred"
  type: "InnerProduct"
  bottom: "fc6"
  top: "bbox_pred"
  param {
    lr_mult: 1
  }
  param {
    lr_mult: 2
  }
  inner_product_param {
    num_output: 8
    weight_filler {
      type: "gaussian"
      std: 0.001
    }
    bias_filler {
      type: "constant"
      value: 0
    }
  }
}
layer {
  name: "loss_cls"
  type: "SoftmaxWithLoss"
  bottom: "cls_pred"
  bottom: "proposal_labels"
  top: "loss_cls"
  loss_weight: 1
  propagate_down: true
  propagate_down: false
}
layer {
  name: "cls_accuracy"
  type: "Accuracy"
  bottom: "cls_pred"
  bottom: "proposal_labels"
  top: "cls_accuracy"
}
layer {
  name: "loss_bbox"
  type: "SmoothL1Loss"
  bottom: "bbox_pred"
  bottom: "proposal_targets"
  bottom: "box_inside_weights"
  bottom: "box_outside_weights"
  top: "loss_bbox"
  loss_weight: 1
}
layer {
  name: "bbox_iou"
  type: "BboxAccuracy"
  bottom: "bbox_pred"
  bottom: "rois"
  bottom: "match_gt_boxes"
  top: "bbox_iou"
  top: "bbox_iou_pre"
  bbox_accuracy_param {
    bbox_mean: 0
    bbox_mean: 0
    bbox_mean: 0
    bbox_mean: 0
    bbox_std: 0.1
    bbox_std: 0.1
    bbox_std: 0.2
    bbox_std: 0.2
  }
}
I1007 08:14:30.836005 19100 layer_factory.hpp:76] Creating layer data
I1007 08:14:30.836081 19100 net.cpp:106] Creating Layer data
I1007 08:14:30.836096 19100 net.cpp:411] data -> data
…
I1007 08:14:31.054575 19100 image_gt_data_layer.cpp:234] output label size 2 : 4,6,28,28
I1007 08:14:31.054618 19100 image_gt_data_layer.cpp:234] output label size 3 : 4,6,28,28
I1007 08:14:31.054664 19100 image_gt_data_layer.cpp:234] output label size 4 : 4,6,14,14
I1007 08:14:31.054708 19100 image_gt_data_layer.cpp:234] output label size 5 : 4,6,14,14
I1007 08:14:31.054750 19100 image_gt_data_layer.cpp:234] output label size 6 : 4,6,7,7
I1007 08:14:31.054791 19100 image_gt_data_layer.cpp:249] output gt boxes size: 1,7,1,1
I1007 08:14:31.077646 19100 net.cpp:150] Setting up data
I1007 08:14:31.077675 19100 net.cpp:157] Top shape: 4 3 448 448 (2408448)
I1007 08:14:31.077680 19100 net.cpp:157] Top shape: 4 6 56 56 (75264)
I1007 08:14:31.077684 19100 net.cpp:157] Top shape: 4 6 56 56 (75264)
I1007 08:14:31.077688 19100 net.cpp:157] Top shape: 4 6 28 28 (18816)
I1007 08:14:31.077692 19100 net.cpp:157] Top shape: 4 6 28 28 (18816)
I1007 08:14:31.077695 19100 net.cpp:157] Top shape: 4 6 14 14 (4704)
I1007 08:14:31.077699 19100 net.cpp:157] Top shape: 4 6 14 14 (4704)
I1007 08:14:31.077702 19100 net.cpp:157] Top shape: 4 6 7 7 (1176)
I1007 08:14:31.077708 19100 net.cpp:157] Top shape: 1 7 1 1 (7)
I1007 08:14:31.077709 19100 net.cpp:165] Memory required for data: 10428796
I1007 08:14:31.077718 19100 layer_factory.hpp:76] Creating layer label_1_3x5_data_1_split
I1007 08:14:31.077739 19100 net.cpp:106] Creating Layer label_1_3x5_data_1_split
I1007 08:14:31.077745 19100 net.cpp:454] label_1_3x5_data_1_split <- label_1_3x5
I1007 08:14:31.077759 19100 net.cpp:411] label_1_3x5_data_1_split -> label_1_3x5_data_1_split_0
I1007 08:14:31.077767 19100 net.cpp:411] label_1_3x5_data_1_split -> label_1_3x5_data_1_split_1
I1007 08:14:31.077847 19100 net.cpp:150] Setting up label_1_3x5_data_1_split
I1007 08:14:31.077855 19100 net.cpp:157] Top shape: 4 6 56 56 (75264)
I1007 08:14:31.077859 19100 net.cpp:157] Top shape: 4 6 56 56 (75264)
I1007 08:14:31.077862 19100 net.cpp:165] Memory required for data: 11030908
I1007 08:14:31.077864 19100 layer_factory.hpp:76] Creating layer label_1_5x7_data_2_split
I1007 08:14:31.077872 19100 net.cpp:106] Creating Layer label_1_5x7_data_2_split
I1007 08:14:31.077875 19100 net.cpp:454] label_1_5x7_data_2_split <- label_1_5x7
I1007 08:14:31.077880 19100 net.cpp:411] label_1_5x7_data_2_split -> label_1_5x7_data_2_split_0
I1007 08:14:31.077886 19100 net.cpp:411] label_1_5x7_data_2_split -> label_1_5x7_data_2_split_1
I1007 08:14:31.077957 19100 net.cpp:150] Setting up label_1_5x7_data_2_split
I1007 08:14:31.077963 19100 net.cpp:157] Top shape: 4 6 56 56 (75264)
I1007 08:14:31.077967 19100 net.cpp:157] Top shape: 4 6 56 56 (75264)
I1007 08:14:31.077970 19100 net.cpp:165] Memory required for data: 11633020
I1007 08:14:31.077972 19100 layer_factory.hpp:76] Creating layer label_2_3x5_data_3_split
I1007 08:14:31.077978 19100 net.cpp:106] Creating Layer label_2_3x5_data_3_split
I1007 08:14:31.077982 19100 net.cpp:454] label_2_3x5_data_3_split <- label_2_3x5
I1007 08:14:31.077987 19100 net.cpp:411] label_2_3x5_data_3_split -> label_2_3x5_data_3_split_0
I1007 08:14:31.077992 19100 net.cpp:411] label_2_3x5_data_3_split -> label_2_3x5_data_3_split_1
I1007 08:14:31.078027 19100 net.cpp:150] Setting up label_2_3x5_data_3_split
I1007 08:14:31.078032 19100 net.cpp:157] Top shape: 4 6 28 28 (18816)
I1007 08:14:31.078035 19100 net.cpp:157] Top shape: 4 6 28 28 (18816)
I1007 08:14:31.078037 19100 net.cpp:165] Memory required for data: 11783548
I1007 08:14:31.078040 19100 layer_factory.hpp:76] Creating layer label_2_5x7_data_4_split
I1007 08:14:31.078047 19100 net.cpp:106] Creating Layer label_2_5x7_data_4_split
I1007 08:14:31.078050 19100 net.cpp:454] label_2_5x7_data_4_split <- label_2_5x7
I1007 08:14:31.078055 19100 net.cpp:411] label_2_5x7_data_4_split -> label_2_5x7_data_4_split_0
I1007 08:14:31.078060 19100 net.cpp:411] label_2_5x7_data_4_split -> label_2_5x7_data_4_split_1
I1007 08:14:31.078090 19100 net.cpp:150] Setting up label_2_5x7_data_4_split
I1007 08:14:31.078094 19100 net.cpp:157] Top shape: 4 6 28 28 (18816)
I1007 08:14:31.078099 19100 net.cpp:157] Top shape: 4 6 28 28 (18816)
I1007 08:14:31.078102 19100 net.cpp:165] Memory required for data: 11934076
I1007 08:14:31.078104 19100 layer_factory.hpp:76] Creating layer label_3_3x5_data_5_split
I1007 08:14:31.078109 19100 net.cpp:106] Creating Layer label_3_3x5_data_5_split
I1007 08:14:31.078111 19100 net.cpp:454] label_3_3x5_data_5_split <- label_3_3x5
I1007 08:14:31.078116 19100 net.cpp:411] label_3_3x5_data_5_split -> label_3_3x5_data_5_split_0
I1007 08:14:31.078120 19100 net.cpp:411] label_3_3x5_data_5_split -> label_3_3x5_data_5_split_1
I1007 08:14:31.078150 19100 net.cpp:150] Setting up label_3_3x5_data_5_split
I1007 08:14:31.078155 19100 net.cpp:157] Top shape: 4 6 14 14 (4704)
I1007 08:14:31.078158 19100 net.cpp:157] Top shape: 4 6 14 14 (4704)
I1007 08:14:31.078161 19100 net.cpp:165] Memory required for data: 11971708
I1007 08:14:31.078163 19100 layer_factory.hpp:76] Creating layer label_3_5x7_data_6_split
I1007 08:14:31.078168 19100 net.cpp:106] Creating Layer label_3_5x7_data_6_split
I1007 08:14:31.078171 19100 net.cpp:454] label_3_5x7_data_6_split <- label_3_5x7
I1007 08:14:31.078176 19100 net.cpp:411] label_3_5x7_data_6_split -> label_3_5x7_data_6_split_0
I1007 08:14:31.078181 19100 net.cpp:411] label_3_5x7_data_6_split -> label_3_5x7_data_6_split_1
I1007 08:14:31.078207 19100 net.cpp:150] Setting up label_3_5x7_data_6_split
I1007 08:14:31.078212 19100 net.cpp:157] Top shape: 4 6 14 14 (4704)
I1007 08:14:31.078214 19100 net.cpp:157] Top shape: 4 6 14 14 (4704)
I1007 08:14:31.078217 19100 net.cpp:165] Memory required for data: 12009340
I1007 08:14:31.078219 19100 layer_factory.hpp:76] Creating layer label_4_3x5_data_7_split
I1007 08:14:31.078225 19100 net.cpp:106] Creating Layer label_4_3x5_data_7_split
I1007 08:14:31.078228 19100 net.cpp:454] label_4_3x5_data_7_split <- label_4_3x5
I1007 08:14:31.078233 19100 net.cpp:411] label_4_3x5_data_7_split -> label_4_3x5_data_7_split_0
I1007 08:14:31.078238 19100 net.cpp:411] label_4_3x5_data_7_split -> label_4_3x5_data_7_split_1
I1007 08:14:31.078264 19100 net.cpp:150] Setting up label_4_3x5_data_7_split
I1007 08:14:31.078269 19100 net.cpp:157] Top shape: 4 6 7 7 (1176)
I1007 08:14:31.078272 19100 net.cpp:157] Top shape: 4 6 7 7 (1176)
I1007 08:14:31.078274 19100 net.cpp:165] Memory required for data: 12018748
I1007 08:14:31.078276 19100 layer_factory.hpp:76] Creating layer conv1_1
I1007 08:14:31.078286 19100 net.cpp:106] Creating Layer conv1_1
I1007 08:14:31.078289 19100 net.cpp:454] conv1_1 <- data
I1007 08:14:31.078294 19100 net.cpp:411] conv1_1 -> conv1_1
I1007 08:14:31.199534 19100 net.cpp:150] Setting up conv1_1
I1007 08:14:31.199560 19100 net.cpp:157] Top shape: 4 64 448 448 (51380224)
I1007 08:14:31.199564 19100 net.cpp:165] Memory required for data: 217539644
I1007 08:14:31.199581 19100 layer_factory.hpp:76] Creating layer relu1_1
I1007 08:14:31.199592 19100 net.cpp:106] Creating Layer relu1_1
I1007 08:14:31.199597 19100 net.cpp:454] relu1_1 <- conv1_1
I1007 08:14:31.199604 19100 net.cpp:397] relu1_1 -> conv1_1 (in-place)
I1007 08:14:31.199769 19100 net.cpp:150] Setting up relu1_1
I1007 08:14:31.199784 19100 net.cpp:157] Top shape: 4 64 448 448 (51380224)
I1007 08:14:31.199787 19100 net.cpp:165] Memory required for data: 423060540
I1007 08:14:31.199790 19100 layer_factory.hpp:76] Creating layer conv1_2
I1007 08:14:31.199800 19100 net.cpp:106] Creating Layer conv1_2
I1007 08:14:31.199802 19100 net.cpp:454] conv1_2 <- conv1_1
I1007 08:14:31.199807 19100 net.cpp:411] conv1_2 -> conv1_2
I1007 08:14:31.201539 19100 net.cpp:150] Setting up conv1_2
I1007 08:14:31.201553 19100 net.cpp:157] Top shape: 4 64 448 448 (51380224)
I1007 08:14:31.201556 19100 net.cpp:165] Memory required for data: 628581436
I1007 08:14:31.201565 19100 layer_factory.hpp:76] Creating layer relu1_2
I1007 08:14:31.201573 19100 net.cpp:106] Creating Layer relu1_2
I1007 08:14:31.201577 19100 net.cpp:454] relu1_2 <- conv1_2
I1007 08:14:31.201581 19100 net.cpp:397] relu1_2 -> conv1_2 (in-place)
I1007 08:14:31.201921 19100 net.cpp:150] Setting up relu1_2
I1007 08:14:31.201933 19100 net.cpp:157] Top shape: 4 64 448 448 (51380224)
I1007 08:14:31.201937 19100 net.cpp:165] Memory required for data: 834102332
I1007 08:14:31.201941 19100 layer_factory.hpp:76] Creating layer pool1
I1007 08:14:31.201948 19100 net.cpp:106] Creating Layer pool1
I1007 08:14:31.201952 19100 net.cpp:454] pool1 <- conv1_2
I1007 08:14:31.201958 19100 net.cpp:411] pool1 -> pool1
I1007 08:14:31.202164 19100 net.cpp:150] Setting up pool1
I1007 08:14:31.202174 19100 net.cpp:157] Top shape: 4 64 224 224 (12845056)
I1007 08:14:31.202178 19100 net.cpp:165] Memory required for data: 885482556
I1007 08:14:31.202180 19100 layer_factory.hpp:76] Creating layer conv2_1
I1007 08:14:31.202188 19100 net.cpp:106] Creating Layer conv2_1
I1007 08:14:31.202191 19100 net.cpp:454] conv2_1 <- pool1
I1007 08:14:31.202198 19100 net.cpp:411] conv2_1 -> conv2_1
I1007 08:14:31.203932 19100 net.cpp:150] Setting up conv2_1
I1007 08:14:31.203946 19100 net.cpp:157] Top shape: 4 128 224 224 (25690112)
I1007 08:14:31.203949 19100 net.cpp:165] Memory required for data: 988243004
I1007 08:14:31.203958 19100 layer_factory.hpp:76] Creating layer relu2_1
I1007 08:14:31.203963 19100 net.cpp:106] Creating Layer relu2_1
I1007 08:14:31.203968 19100 net.cpp:454] relu2_1 <- conv2_1
I1007 08:14:31.203974 19100 net.cpp:397] relu2_1 -> conv2_1 (in-place)
I1007 08:14:31.204311 19100 net.cpp:150] Setting up relu2_1
I1007 08:14:31.204324 19100 net.cpp:157] Top shape: 4 128 224 224 (25690112)
I1007 08:14:31.204326 19100 net.cpp:165] Memory required for data: 1091003452
I1007 08:14:31.204329 19100 layer_factory.hpp:76] Creating layer conv2_2
I1007 08:14:31.204339 19100 net.cpp:106] Creating Layer conv2_2
I1007 08:14:31.204341 19100 net.cpp:454] conv2_2 <- conv2_1
I1007 08:14:31.204349 19100 net.cpp:411] conv2_2 -> conv2_2
I1007 08:14:31.205420 19100 net.cpp:150] Setting up conv2_2
I1007 08:14:31.205435 19100 net.cpp:157] Top shape: 4 128 224 224 (25690112)
I1007 08:14:31.205437 19100 net.cpp:165] Memory required for data: 1193763900
I1007 08:14:31.205443 19100 layer_factory.hpp:76] Creating layer relu2_2
I1007 08:14:31.205452 19100 net.cpp:106] Creating Layer relu2_2
I1007 08:14:31.205456 19100 net.cpp:454] relu2_2 <- conv2_2
I1007 08:14:31.205461 19100 net.cpp:397] relu2_2 -> conv2_2 (in-place)
I1007 08:14:31.205806 19100 net.cpp:150] Setting up relu2_2
I1007 08:14:31.205818 19100 net.cpp:157] Top shape: 4 128 224 224 (25690112)
I1007 08:14:31.205821 19100 net.cpp:165] Memory required for data: 1296524348
I1007 08:14:31.205824 19100 layer_factory.hpp:76] Creating layer pool2
I1007 08:14:31.205832 19100 net.cpp:106] Creating Layer pool2
I1007 08:14:31.205834 19100 net.cpp:454] pool2 <- conv2_2
I1007 08:14:31.205842 19100 net.cpp:411] pool2 -> pool2
I1007 08:14:31.206043 19100 net.cpp:150] Setting up pool2
I1007 08:14:31.206053 19100 net.cpp:157] Top shape: 4 128 112 112 (6422528)
I1007 08:14:31.206058 19100 net.cpp:165] Memory required for data: 1322214460
I1007 08:14:31.206060 19100 layer_factory.hpp:76] Creating layer conv3_1
I1007 08:14:31.206066 19100 net.cpp:106] Creating Layer conv3_1
I1007 08:14:31.206069 19100 net.cpp:454] conv3_1 <- pool2
I1007 08:14:31.206075 19100 net.cpp:411] conv3_1 -> conv3_1
I1007 08:14:31.208044 19100 net.cpp:150] Setting up conv3_1
I1007 08:14:31.208058 19100 net.cpp:157] Top shape: 4 256 112 112 (12845056)
I1007 08:14:31.208062 19100 net.cpp:165] Memory required for data: 1373594684
I1007 08:14:31.208071 19100 layer_factory.hpp:76] Creating layer relu3_1
I1007 08:14:31.208077 19100 net.cpp:106] Creating Layer relu3_1
I1007 08:14:31.208081 19100 net.cpp:454] relu3_1 <- conv3_1
I1007 08:14:31.208087 19100 net.cpp:397] relu3_1 -> conv3_1 (in-place)
I1007 08:14:31.209975 19100 net.cpp:150] Setting up relu3_1
I1007 08:14:31.209987 19100 net.cpp:157] Top shape: 4 256 112 112 (12845056)
I1007 08:14:31.210001 19100 net.cpp:165] Memory required for data: 1424974908
I1007 08:14:31.210005 19100 layer_factory.hpp:76] Creating layer conv3_2
I1007 08:14:31.210013 19100 net.cpp:106] Creating Layer conv3_2
I1007 08:14:31.210016 19100 net.cpp:454] conv3_2 <- conv3_1
I1007 08:14:31.210022 19100 net.cpp:411] conv3_2 -> conv3_2
I1007 08:14:31.212510 19100 net.cpp:150] Setting up conv3_2
I1007 08:14:31.212525 19100 net.cpp:157] Top shape: 4 256 112 112 (12845056)
I1007 08:14:31.212540 19100 net.cpp:165] Memory required for data: 1476355132
I1007 08:14:31.212546 19100 layer_factory.hpp:76] Creating layer relu3_2
I1007 08:14:31.212553 19100 net.cpp:106] Creating Layer relu3_2
I1007 08:14:31.212555 19100 net.cpp:454] relu3_2 <- conv3_2
I1007 08:14:31.212560 19100 net.cpp:397] relu3_2 -> conv3_2 (in-place)
I1007 08:14:31.212941 19100 net.cpp:150] Setting up relu3_2
I1007 08:14:31.212954 19100 net.cpp:157] Top shape: 4 256 112 112 (12845056)
I1007 08:14:31.212956 19100 net.cpp:165] Memory required for data: 1527735356
I1007 08:14:31.212960 19100 layer_factory.hpp:76] Creating layer conv3_3
I1007 08:14:31.212967 19100 net.cpp:106] Creating Layer conv3_3
I1007 08:14:31.212970 19100 net.cpp:454] conv3_3 <- conv3_2
I1007 08:14:31.212975 19100 net.cpp:411] conv3_3 -> conv3_3
I1007 08:14:31.215507 19100 net.cpp:150] Setting up conv3_3
I1007 08:14:31.215520 19100 net.cpp:157] Top shape: 4 256 112 112 (12845056)
I1007 08:14:31.215536 19100 net.cpp:165] Memory required for data: 1579115580
I1007 08:14:31.215543 19100 layer_factory.hpp:76] Creating layer relu3_3
I1007 08:14:31.215549 19100 net.cpp:106] Creating Layer relu3_3
I1007 08:14:31.215553 19100 net.cpp:454] relu3_3 <- conv3_3
I1007 08:14:31.215559 19100 net.cpp:397] relu3_3 -> conv3_3 (in-place)
I1007 08:14:31.215725 19100 net.cpp:150] Setting up relu3_3
I1007 08:14:31.215735 19100 net.cpp:157] Top shape: 4 256 112 112 (12845056)
I1007 08:14:31.215739 19100 net.cpp:165] Memory required for data: 1630495804
I1007 08:14:31.215740 19100 layer_factory.hpp:76] Creating layer pool3
I1007 08:14:31.215747 19100 net.cpp:106] Creating Layer pool3
I1007 08:14:31.215750 19100 net.cpp:454] pool3 <- conv3_3
I1007 08:14:31.215755 19100 net.cpp:411] pool3 -> pool3
I1007 08:14:31.216120 19100 net.cpp:150] Setting up pool3
I1007 08:14:31.216132 19100 net.cpp:157] Top shape: 4 256 56 56 (3211264)
I1007 08:14:31.216135 19100 net.cpp:165] Memory required for data: 1643340860
I1007 08:14:31.216137 19100 layer_factory.hpp:76] Creating layer conv4_1
I1007 08:14:31.216146 19100 net.cpp:106] Creating Layer conv4_1
I1007 08:14:31.216150 19100 net.cpp:454] conv4_1 <- pool3
I1007 08:14:31.216155 19100 net.cpp:411] conv4_1 -> conv4_1
I1007 08:14:31.220402 19100 net.cpp:150] Setting up conv4_1
I1007 08:14:31.220417 19100 net.cpp:157] Top shape: 4 512 56 56 (6422528)
I1007 08:14:31.220432 19100 net.cpp:165] Memory required for data: 1669030972
I1007 08:14:31.220438 19100 layer_factory.hpp:76] Creating layer relu4_1
I1007 08:14:31.220445 19100 net.cpp:106] Creating Layer relu4_1
I1007 08:14:31.220449 19100 net.cpp:454] relu4_1 <- conv4_1
I1007 08:14:31.220455 19100 net.cpp:397] relu4_1 -> conv4_1 (in-place)
I1007 08:14:31.220624 19100 net.cpp:150] Setting up relu4_1
I1007 08:14:31.220640 19100 net.cpp:157] Top shape: 4 512 56 56 (6422528)
I1007 08:14:31.220643 19100 net.cpp:165] Memory required for data: 1694721084
I1007 08:14:31.220645 19100 layer_factory.hpp:76] Creating layer conv4_2
I1007 08:14:31.220654 19100 net.cpp:106] Creating Layer conv4_2
I1007 08:14:31.220657 19100 net.cpp:454] conv4_2 <- conv4_1
I1007 08:14:31.220664 19100 net.cpp:411] conv4_2 -> conv4_2
I1007 08:14:31.226872 19100 net.cpp:150] Setting up conv4_2
I1007 08:14:31.226896 19100 net.cpp:157] Top shape: 4 512 56 56 (6422528)
I1007 08:14:31.226898 19100 net.cpp:165] Memory required for data: 1720411196
I1007 08:14:31.226912 19100 layer_factory.hpp:76] Creating layer relu4_2
I1007 08:14:31.226918 19100 net.cpp:106] Creating Layer relu4_2
I1007 08:14:31.226922 19100 net.cpp:454] relu4_2 <- conv4_2
I1007 08:14:31.226927 19100 net.cpp:397] relu4_2 -> conv4_2 (in-place)
I1007 08:14:31.227272 19100 net.cpp:150] Setting up relu4_2
I1007 08:14:31.227285 19100 net.cpp:157] Top shape: 4 512 56 56 (6422528)
I1007 08:14:31.227288 19100 net.cpp:165] Memory required for data: 1746101308
I1007 08:14:31.227291 19100 layer_factory.hpp:76] Creating layer conv4_3
I1007 08:14:31.227298 19100 net.cpp:106] Creating Layer conv4_3
I1007 08:14:31.227301 19100 net.cpp:454] conv4_3 <- conv4_2
I1007 08:14:31.227309 19100 net.cpp:411] conv4_3 -> conv4_3
I1007 08:14:31.233404 19100 net.cpp:150] Setting up conv4_3
I1007 08:14:31.233422 19100 net.cpp:157] Top shape: 4 512 56 56 (6422528)
I1007 08:14:31.233436 19100 net.cpp:165] Memory required for data: 1771791420
I1007 08:14:31.233443 19100 layer_factory.hpp:76] Creating layer relu4_3
I1007 08:14:31.233450 19100 net.cpp:106] Creating Layer relu4_3
I1007 08:14:31.233456 19100 net.cpp:454] relu4_3 <- conv4_3
I1007 08:14:31.233463 19100 net.cpp:397] relu4_3 -> conv4_3 (in-place)
I1007 08:14:31.233804 19100 net.cpp:150] Setting up relu4_3
I1007 08:14:31.233816 19100 net.cpp:157] Top shape: 4 512 56 56 (6422528)
I1007 08:14:31.233819 19100 net.cpp:165] Memory required for data: 1797481532
I1007 08:14:31.233822 19100 layer_factory.hpp:76] Creating layer conv4_3_relu4_3_0_split
I1007 08:14:31.233830 19100 net.cpp:106] Creating Layer conv4_3_relu4_3_0_split
I1007 08:14:31.233834 19100 net.cpp:454] conv4_3_relu4_3_0_split <- conv4_3
I1007 08:14:31.233839 19100 net.cpp:411] conv4_3_relu4_3_0_split -> conv4_3_relu4_3_0_split_0
I1007 08:14:31.233845 19100 net.cpp:411] conv4_3_relu4_3_0_split -> conv4_3_relu4_3_0_split_1
I1007 08:14:31.233850 19100 net.cpp:411] conv4_3_relu4_3_0_split -> conv4_3_relu4_3_0_split_2
I1007 08:14:31.233912 19100 net.cpp:150] Setting up conv4_3_relu4_3_0_split
I1007 08:14:31.233918 19100 net.cpp:157] Top shape: 4 512 56 56 (6422528)
I1007 08:14:31.233922 19100 net.cpp:157] Top shape: 4 512 56 56 (6422528)
I1007 08:14:31.233924 19100 net.cpp:157] Top shape: 4 512 56 56 (6422528)
I1007 08:14:31.233927 19100 net.cpp:165] Memory required for data: 1874551868
I1007 08:14:31.233929 19100 layer_factory.hpp:76] Creating layer loss1_conv1
I1007 08:14:31.233955 19100 net.cpp:106] Creating Layer loss1_conv1
I1007 08:14:31.233959 19100 net.cpp:454] loss1_conv1 <- conv4_3_relu4_3_0_split_0
I1007 08:14:31.233969 19100 net.cpp:411] loss1_conv1 -> loss1_conv1
I1007 08:14:31.315469 19100 net.cpp:150] Setting up loss1_conv1
I1007 08:14:31.315486 19100 net.cpp:157] Top shape: 4 512 56 56 (6422528)
I1007 08:14:31.315490 19100 net.cpp:165] Memory required for data: 1900241980
I1007 08:14:31.315496 19100 layer_factory.hpp:76] Creating layer loss_relu1
I1007 08:14:31.315505 19100 net.cpp:106] Creating Layer loss_relu1
I1007 08:14:31.315510 19100 net.cpp:454] loss_relu1 <- loss1_conv1
I1007 08:14:31.315515 19100 net.cpp:397] loss_relu1 -> loss1_conv1 (in-place)
I1007 08:14:31.315687 19100 net.cpp:150] Setting up loss_relu1
I1007 08:14:31.315696 19100 net.cpp:157] Top shape: 4 512 56 56 (6422528)
I1007 08:14:31.315699 19100 net.cpp:165] Memory required for data: 1925932092
I1007 08:14:31.315702 19100 layer_factory.hpp:76] Creating layer loss1_conv1_loss_relu1_0_split
I1007 08:14:31.315707 19100 net.cpp:106] Creating Layer loss1_conv1_loss_relu1_0_split
I1007 08:14:31.315711 19100 net.cpp:454] loss1_conv1_loss_relu1_0_split <- loss1_conv1
I1007 08:14:31.315716 19100 net.cpp:411] loss1_conv1_loss_relu1_0_split -> loss1_conv1_loss_relu1_0_split_0
I1007 08:14:31.315722 19100 net.cpp:411] loss1_conv1_loss_relu1_0_split -> loss1_conv1_loss_relu1_0_split_1
I1007 08:14:31.315763 19100 net.cpp:150] Setting up loss1_conv1_loss_relu1_0_split
I1007 08:14:31.315768 19100 net.cpp:157] Top shape: 4 512 56 56 (6422528)
I1007 08:14:31.315773 19100 net.cpp:157] Top shape: 4 512 56 56 (6422528)
I1007 08:14:31.315774 19100 net.cpp:165] Memory required for data: 1977312316
I1007 08:14:31.315778 19100 layer_factory.hpp:76] Creating layer LFCN_1_3x5
I1007 08:14:31.315788 19100 net.cpp:106] Creating Layer LFCN_1_3x5
I1007 08:14:31.315791 19100 net.cpp:454] LFCN_1_3x5 <- loss1_conv1_loss_relu1_0_split_0
I1007 08:14:31.315796 19100 net.cpp:411] LFCN_1_3x5 -> LFCN_1_3x5
I1007 08:14:31.318994 19100 net.cpp:150] Setting up LFCN_1_3x5
I1007 08:14:31.319008 19100 net.cpp:157] Top shape: 4 6 56 56 (75264)
I1007 08:14:31.319011 19100 net.cpp:165] Memory required for data: 1977613372
I1007 08:14:31.319017 19100 layer_factory.hpp:76] Creating layer LFCN_1_3x5_LFCN_1_3x5_0_split
I1007 08:14:31.319023 19100 net.cpp:106] Creating Layer LFCN_1_3x5_LFCN_1_3x5_0_split
I1007 08:14:31.319027 19100 net.cpp:454] LFCN_1_3x5_LFCN_1_3x5_0_split <- LFCN_1_3x5
I1007 08:14:31.319032 19100 net.cpp:411] LFCN_1_3x5_LFCN_1_3x5_0_split -> LFCN_1_3x5_LFCN_1_3x5_0_split_0
I1007 08:14:31.319041 19100 net.cpp:411] LFCN_1_3x5_LFCN_1_3x5_0_split -> LFCN_1_3x5_LFCN_1_3x5_0_split_1
I1007 08:14:31.319046 19100 net.cpp:411] LFCN_1_3x5_LFCN_1_3x5_0_split -> LFCN_1_3x5_LFCN_1_3x5_0_split_2
I1007 08:14:31.319100 19100 net.cpp:150] Setting up LFCN_1_3x5_LFCN_1_3x5_0_split
I1007 08:14:31.319106 19100 net.cpp:157] Top shape: 4 6 56 56 (75264)
I1007 08:14:31.319110 19100 net.cpp:157] Top shape: 4 6 56 56 (75264)
I1007 08:14:31.319113 19100 net.cpp:157] Top shape: 4 6 56 56 (75264)
I1007 08:14:31.319115 19100 net.cpp:165] Memory required for data: 1978516540
I1007 08:14:31.319118 19100 layer_factory.hpp:76] Creating layer detection_loss_1_3x5
I1007 08:14:31.319125 19100 net.cpp:106] Creating Layer detection_loss_1_3x5
I1007 08:14:31.319128 19100 net.cpp:454] detection_loss_1_3x5 <- LFCN_1_3x5_LFCN_1_3x5_0_split_0
I1007 08:14:31.319133 19100 net.cpp:454] detection_loss_1_3x5 <- label_1_3x5_data_1_split_0
I1007 08:14:31.319139 19100 net.cpp:411] detection_loss_1_3x5 -> loss_1_3x5
I1007 08:14:31.319150 19100 layer_factory.hpp:76] Creating layer detection_loss_1_3x5
I1007 08:14:31.319881 19100 net.cpp:150] Setting up detection_loss_1_3x5
I1007 08:14:31.319895 19100 net.cpp:157] Top shape: 1 1 1 2 (2)
I1007 08:14:31.319897 19100 net.cpp:160]     with loss weight 0.9
I1007 08:14:31.319916 19100 net.cpp:165] Memory required for data: 1978516548
I1007 08:14:31.319918 19100 layer_factory.hpp:76] Creating layer detection_accuracy_1_3x5
I1007 08:14:31.319926 19100 net.cpp:106] Creating Layer detection_accuracy_1_3x5
I1007 08:14:31.319931 19100 net.cpp:454] detection_accuracy_1_3x5 <- LFCN_1_3x5_LFCN_1_3x5_0_split_1
I1007 08:14:31.319934 19100 net.cpp:454] detection_accuracy_1_3x5 <- label_1_3x5_data_1_split_1
I1007 08:14:31.319941 19100 net.cpp:411] detection_accuracy_1_3x5 -> accuracy_1_3x5
I1007 08:14:31.319949 19100 net.cpp:411] detection_accuracy_1_3x5 -> boxiou_1_3x5
I1007 08:14:31.319989 19100 net.cpp:150] Setting up detection_accuracy_1_3x5
I1007 08:14:31.319994 19100 net.cpp:157] Top shape: 1 1 1 2 (2)
I1007 08:14:31.319998 19100 net.cpp:157] Top shape: 1 1 1 1 (1)
I1007 08:14:31.320000 19100 net.cpp:165] Memory required for data: 1978516560
I1007 08:14:31.320003 19100 layer_factory.hpp:76] Creating layer LFCN_1_5x7
I1007 08:14:31.320015 19100 net.cpp:106] Creating Layer LFCN_1_5x7
I1007 08:14:31.320019 19100 net.cpp:454] LFCN_1_5x7 <- loss1_conv1_loss_relu1_0_split_1
I1007 08:14:31.320024 19100 net.cpp:411] LFCN_1_5x7 -> LFCN_1_5x7
I1007 08:14:31.325059 19100 net.cpp:150] Setting up LFCN_1_5x7
I1007 08:14:31.325074 19100 net.cpp:157] Top shape: 4 6 56 56 (75264)
I1007 08:14:31.325078 19100 net.cpp:165] Memory required for data: 1978817616
I1007 08:14:31.325083 19100 layer_factory.hpp:76] Creating layer LFCN_1_5x7_LFCN_1_5x7_0_split
I1007 08:14:31.325090 19100 net.cpp:106] Creating Layer LFCN_1_5x7_LFCN_1_5x7_0_split
I1007 08:14:31.325093 19100 net.cpp:454] LFCN_1_5x7_LFCN_1_5x7_0_split <- LFCN_1_5x7
I1007 08:14:31.325100 19100 net.cpp:411] LFCN_1_5x7_LFCN_1_5x7_0_split -> LFCN_1_5x7_LFCN_1_5x7_0_split_0
I1007 08:14:31.325108 19100 net.cpp:411] LFCN_1_5x7_LFCN_1_5x7_0_split -> LFCN_1_5x7_LFCN_1_5x7_0_split_1
I1007 08:14:31.325112 19100 net.cpp:411] LFCN_1_5x7_LFCN_1_5x7_0_split -> LFCN_1_5x7_LFCN_1_5x7_0_split_2
I1007 08:14:31.325166 19100 net.cpp:150] Setting up LFCN_1_5x7_LFCN_1_5x7_0_split
I1007 08:14:31.325176 19100 net.cpp:157] Top shape: 4 6 56 56 (75264)
I1007 08:14:31.325179 19100 net.cpp:157] Top shape: 4 6 56 56 (75264)
I1007 08:14:31.325183 19100 net.cpp:157] Top shape: 4 6 56 56 (75264)
I1007 08:14:31.325186 19100 net.cpp:165] Memory required for data: 1979720784
I1007 08:14:31.325188 19100 layer_factory.hpp:76] Creating layer detection_loss_1_5x7
I1007 08:14:31.325194 19100 net.cpp:106] Creating Layer detection_loss_1_5x7
I1007 08:14:31.325197 19100 net.cpp:454] detection_loss_1_5x7 <- LFCN_1_5x7_LFCN_1_5x7_0_split_0
I1007 08:14:31.325203 19100 net.cpp:454] detection_loss_1_5x7 <- label_1_5x7_data_2_split_0
I1007 08:14:31.325209 19100 net.cpp:411] detection_loss_1_5x7 -> loss_1_5x7
I1007 08:14:31.325217 19100 layer_factory.hpp:76] Creating layer detection_loss_1_5x7
I1007 08:14:31.325750 19100 net.cpp:150] Setting up detection_loss_1_5x7
I1007 08:14:31.325762 19100 net.cpp:157] Top shape: 1 1 1 2 (2)
I1007 08:14:31.325765 19100 net.cpp:160]     with loss weight 0.9
I1007 08:14:31.325770 19100 net.cpp:165] Memory required for data: 1979720792
I1007 08:14:31.325773 19100 layer_factory.hpp:76] Creating layer detection_accuracy_1_5x7
I1007 08:14:31.325793 19100 net.cpp:106] Creating Layer detection_accuracy_1_5x7
I1007 08:14:31.325796 19100 net.cpp:454] detection_accuracy_1_5x7 <- LFCN_1_5x7_LFCN_1_5x7_0_split_1
I1007 08:14:31.325801 19100 net.cpp:454] detection_accuracy_1_5x7 <- label_1_5x7_data_2_split_1
I1007 08:14:31.325806 19100 net.cpp:411] detection_accuracy_1_5x7 -> accuracy_1_5x7
I1007 08:14:31.325812 19100 net.cpp:411] detection_accuracy_1_5x7 -> boxiou_1_5x7
I1007 08:14:31.325852 19100 net.cpp:150] Setting up detection_accuracy_1_5x7
I1007 08:14:31.325857 19100 net.cpp:157] Top shape: 1 1 1 2 (2)
I1007 08:14:31.325860 19100 net.cpp:157] Top shape: 1 1 1 1 (1)
I1007 08:14:31.325863 19100 net.cpp:165] Memory required for data: 1979720804
I1007 08:14:31.325865 19100 layer_factory.hpp:76] Creating layer pool4
I1007 08:14:31.325871 19100 net.cpp:106] Creating Layer pool4
I1007 08:14:31.325875 19100 net.cpp:454] pool4 <- conv4_3_relu4_3_0_split_1
I1007 08:14:31.325881 19100 net.cpp:411] pool4 -> pool4
I1007 08:14:31.326262 19100 net.cpp:150] Setting up pool4
I1007 08:14:31.326274 19100 net.cpp:157] Top shape: 4 512 28 28 (1605632)
I1007 08:14:31.326277 19100 net.cpp:165] Memory required for data: 1986143332
I1007 08:14:31.326280 19100 layer_factory.hpp:76] Creating layer conv5_1
I1007 08:14:31.326289 19100 net.cpp:106] Creating Layer conv5_1
I1007 08:14:31.326292 19100 net.cpp:454] conv5_1 <- pool4
I1007 08:14:31.326299 19100 net.cpp:411] conv5_1 -> conv5_1
I1007 08:14:31.332857 19100 net.cpp:150] Setting up conv5_1
I1007 08:14:31.332885 19100 net.cpp:157] Top shape: 4 512 28 28 (1605632)
I1007 08:14:31.332888 19100 net.cpp:165] Memory required for data: 1992565860
I1007 08:14:31.332896 19100 layer_factory.hpp:76] Creating layer relu5_1
I1007 08:14:31.332917 19100 net.cpp:106] Creating Layer relu5_1
I1007 08:14:31.332923 19100 net.cpp:454] relu5_1 <- conv5_1
I1007 08:14:31.332931 19100 net.cpp:397] relu5_1 -> conv5_1 (in-place)
I1007 08:14:31.333297 19100 net.cpp:150] Setting up relu5_1
I1007 08:14:31.333310 19100 net.cpp:157] Top shape: 4 512 28 28 (1605632)
I1007 08:14:31.333313 19100 net.cpp:165] Memory required for data: 1998988388
I1007 08:14:31.333317 19100 layer_factory.hpp:76] Creating layer conv5_2
I1007 08:14:31.333325 19100 net.cpp:106] Creating Layer conv5_2
I1007 08:14:31.333329 19100 net.cpp:454] conv5_2 <- conv5_1
I1007 08:14:31.333338 19100 net.cpp:411] conv5_2 -> conv5_2
I1007 08:14:31.339354 19100 net.cpp:150] Setting up conv5_2
I1007 08:14:31.339370 19100 net.cpp:157] Top shape: 4 512 28 28 (1605632)
I1007 08:14:31.339383 19100 net.cpp:165] Memory required for data: 2005410916
I1007 08:14:31.339390 19100 layer_factory.hpp:76] Creating layer relu5_2
I1007 08:14:31.339398 19100 net.cpp:106] Creating Layer relu5_2
I1007 08:14:31.339401 19100 net.cpp:454] relu5_2 <- conv5_2
I1007 08:14:31.339406 19100 net.cpp:397] relu5_2 -> conv5_2 (in-place)
I1007 08:14:31.339603 19100 net.cpp:150] Setting up relu5_2
I1007 08:14:31.339613 19100 net.cpp:157] Top shape: 4 512 28 28 (1605632)
I1007 08:14:31.339617 19100 net.cpp:165] Memory required for data: 2011833444
I1007 08:14:31.339619 19100 layer_factory.hpp:76] Creating layer conv5_3
I1007 08:14:31.339628 19100 net.cpp:106] Creating Layer conv5_3
I1007 08:14:31.339632 19100 net.cpp:454] conv5_3 <- conv5_2
I1007 08:14:31.339637 19100 net.cpp:411] conv5_3 -> conv5_3
I1007 08:14:31.345566 19100 net.cpp:150] Setting up conv5_3
I1007 08:14:31.345582 19100 net.cpp:157] Top shape: 4 512 28 28 (1605632)
I1007 08:14:31.345595 19100 net.cpp:165] Memory required for data: 2018255972
I1007 08:14:31.345602 19100 layer_factory.hpp:76] Creating layer relu5_3
I1007 08:14:31.345608 19100 net.cpp:106] Creating Layer relu5_3
I1007 08:14:31.345613 19100 net.cpp:454] relu5_3 <- conv5_3
I1007 08:14:31.345618 19100 net.cpp:397] relu5_3 -> conv5_3 (in-place)
I1007 08:14:31.345983 19100 net.cpp:150] Setting up relu5_3
I1007 08:14:31.345996 19100 net.cpp:157] Top shape: 4 512 28 28 (1605632)
I1007 08:14:31.345999 19100 net.cpp:165] Memory required for data: 2024678500
I1007 08:14:31.346002 19100 layer_factory.hpp:76] Creating layer conv5_3_relu5_3_0_split
I1007 08:14:31.346009 19100 net.cpp:106] Creating Layer conv5_3_relu5_3_0_split
I1007 08:14:31.346011 19100 net.cpp:454] conv5_3_relu5_3_0_split <- conv5_3
I1007 08:14:31.346020 19100 net.cpp:411] conv5_3_relu5_3_0_split -> conv5_3_relu5_3_0_split_0
I1007 08:14:31.346027 19100 net.cpp:411] conv5_3_relu5_3_0_split -> conv5_3_relu5_3_0_split_1
I1007 08:14:31.346032 19100 net.cpp:411] conv5_3_relu5_3_0_split -> conv5_3_relu5_3_0_split_2
I1007 08:14:31.346093 19100 net.cpp:150] Setting up conv5_3_relu5_3_0_split
I1007 08:14:31.346098 19100 net.cpp:157] Top shape: 4 512 28 28 (1605632)
I1007 08:14:31.346101 19100 net.cpp:157] Top shape: 4 512 28 28 (1605632)
I1007 08:14:31.346104 19100 net.cpp:157] Top shape: 4 512 28 28 (1605632)
I1007 08:14:31.346107 19100 net.cpp:165] Memory required for data: 2043946084
I1007 08:14:31.346110 19100 layer_factory.hpp:76] Creating layer LFCN_2_3x5
I1007 08:14:31.346120 19100 net.cpp:106] Creating Layer LFCN_2_3x5
I1007 08:14:31.346124 19100 net.cpp:454] LFCN_2_3x5 <- conv5_3_relu5_3_0_split_0
I1007 08:14:31.346132 19100 net.cpp:411] LFCN_2_3x5 -> LFCN_2_3x5
I1007 08:14:31.348631 19100 net.cpp:150] Setting up LFCN_2_3x5
I1007 08:14:31.348646 19100 net.cpp:157] Top shape: 4 6 28 28 (18816)
I1007 08:14:31.348649 19100 net.cpp:165] Memory required for data: 2044021348
I1007 08:14:31.348664 19100 layer_factory.hpp:76] Creating layer LFCN_2_3x5_LFCN_2_3x5_0_split
I1007 08:14:31.348671 19100 net.cpp:106] Creating Layer LFCN_2_3x5_LFCN_2_3x5_0_split
I1007 08:14:31.348675 19100 net.cpp:454] LFCN_2_3x5_LFCN_2_3x5_0_split <- LFCN_2_3x5
I1007 08:14:31.348680 19100 net.cpp:411] LFCN_2_3x5_LFCN_2_3x5_0_split -> LFCN_2_3x5_LFCN_2_3x5_0_split_0
I1007 08:14:31.348695 19100 net.cpp:411] LFCN_2_3x5_LFCN_2_3x5_0_split -> LFCN_2_3x5_LFCN_2_3x5_0_split_1
I1007 08:14:31.348701 19100 net.cpp:411] LFCN_2_3x5_LFCN_2_3x5_0_split -> LFCN_2_3x5_LFCN_2_3x5_0_split_2
I1007 08:14:31.348759 19100 net.cpp:150] Setting up LFCN_2_3x5_LFCN_2_3x5_0_split
I1007 08:14:31.348775 19100 net.cpp:157] Top shape: 4 6 28 28 (18816)
I1007 08:14:31.348778 19100 net.cpp:157] Top shape: 4 6 28 28 (18816)
I1007 08:14:31.348783 19100 net.cpp:157] Top shape: 4 6 28 28 (18816)
I1007 08:14:31.348784 19100 net.cpp:165] Memory required for data: 2044247140
I1007 08:14:31.348788 19100 layer_factory.hpp:76] Creating layer detection_loss_2_3x5
I1007 08:14:31.348795 19100 net.cpp:106] Creating Layer detection_loss_2_3x5
I1007 08:14:31.348798 19100 net.cpp:454] detection_loss_2_3x5 <- LFCN_2_3x5_LFCN_2_3x5_0_split_0
I1007 08:14:31.348803 19100 net.cpp:454] detection_loss_2_3x5 <- label_2_3x5_data_3_split_0
I1007 08:14:31.348809 19100 net.cpp:411] detection_loss_2_3x5 -> loss_2_3x5
I1007 08:14:31.348817 19100 layer_factory.hpp:76] Creating layer detection_loss_2_3x5
I1007 08:14:31.349355 19100 net.cpp:150] Setting up detection_loss_2_3x5
I1007 08:14:31.349370 19100 net.cpp:157] Top shape: 1 1 1 2 (2)
I1007 08:14:31.349371 19100 net.cpp:160]     with loss weight 1
I1007 08:14:31.349383 19100 net.cpp:165] Memory required for data: 2044247148
I1007 08:14:31.349387 19100 layer_factory.hpp:76] Creating layer detection_accuracy_2_3x5
I1007 08:14:31.349395 19100 net.cpp:106] Creating Layer detection_accuracy_2_3x5
I1007 08:14:31.349397 19100 net.cpp:454] detection_accuracy_2_3x5 <- LFCN_2_3x5_LFCN_2_3x5_0_split_1
I1007 08:14:31.349402 19100 net.cpp:454] detection_accuracy_2_3x5 <- label_2_3x5_data_3_split_1
I1007 08:14:31.349409 19100 net.cpp:411] detection_accuracy_2_3x5 -> accuracy_2_3x5
I1007 08:14:31.349416 19100 net.cpp:411] detection_accuracy_2_3x5 -> boxiou_2_3x5
I1007 08:14:31.349457 19100 net.cpp:150] Setting up detection_accuracy_2_3x5
I1007 08:14:31.349464 19100 net.cpp:157] Top shape: 1 1 1 2 (2)
I1007 08:14:31.349467 19100 net.cpp:157] Top shape: 1 1 1 1 (1)
I1007 08:14:31.349470 19100 net.cpp:165] Memory required for data: 2044247160
I1007 08:14:31.349472 19100 layer_factory.hpp:76] Creating layer LFCN_2_5x7
I1007 08:14:31.349480 19100 net.cpp:106] Creating Layer LFCN_2_5x7
I1007 08:14:31.349483 19100 net.cpp:454] LFCN_2_5x7 <- conv5_3_relu5_3_0_split_1
I1007 08:14:31.349490 19100 net.cpp:411] LFCN_2_5x7 -> LFCN_2_5x7
I1007 08:14:31.354356 19100 net.cpp:150] Setting up LFCN_2_5x7
I1007 08:14:31.354369 19100 net.cpp:157] Top shape: 4 6 28 28 (18816)
I1007 08:14:31.354372 19100 net.cpp:165] Memory required for data: 2044322424
I1007 08:14:31.354382 19100 layer_factory.hpp:76] Creating layer LFCN_2_5x7_LFCN_2_5x7_0_split
I1007 08:14:31.354388 19100 net.cpp:106] Creating Layer LFCN_2_5x7_LFCN_2_5x7_0_split
I1007 08:14:31.354392 19100 net.cpp:454] LFCN_2_5x7_LFCN_2_5x7_0_split <- LFCN_2_5x7
I1007 08:14:31.354398 19100 net.cpp:411] LFCN_2_5x7_LFCN_2_5x7_0_split -> LFCN_2_5x7_LFCN_2_5x7_0_split_0
I1007 08:14:31.354404 19100 net.cpp:411] LFCN_2_5x7_LFCN_2_5x7_0_split -> LFCN_2_5x7_LFCN_2_5x7_0_split_1
I1007 08:14:31.354409 19100 net.cpp:411] LFCN_2_5x7_LFCN_2_5x7_0_split -> LFCN_2_5x7_LFCN_2_5x7_0_split_2
I1007 08:14:31.354470 19100 net.cpp:150] Setting up LFCN_2_5x7_LFCN_2_5x7_0_split
I1007 08:14:31.354475 19100 net.cpp:157] Top shape: 4 6 28 28 (18816)
I1007 08:14:31.354480 19100 net.cpp:157] Top shape: 4 6 28 28 (18816)
I1007 08:14:31.354482 19100 net.cpp:157] Top shape: 4 6 28 28 (18816)
I1007 08:14:31.354485 19100 net.cpp:165] Memory required for data: 2044548216
I1007 08:14:31.354487 19100 layer_factory.hpp:76] Creating layer detection_loss_2_5x7
I1007 08:14:31.354496 19100 net.cpp:106] Creating Layer detection_loss_2_5x7
I1007 08:14:31.354498 19100 net.cpp:454] detection_loss_2_5x7 <- LFCN_2_5x7_LFCN_2_5x7_0_split_0
I1007 08:14:31.354503 19100 net.cpp:454] detection_loss_2_5x7 <- label_2_5x7_data_4_split_0
I1007 08:14:31.354508 19100 net.cpp:411] detection_loss_2_5x7 -> loss_2_5x7
I1007 08:14:31.354516 19100 layer_factory.hpp:76] Creating layer detection_loss_2_5x7
I1007 08:14:31.354882 19100 net.cpp:150] Setting up detection_loss_2_5x7
I1007 08:14:31.354898 19100 net.cpp:157] Top shape: 1 1 1 2 (2)
I1007 08:14:31.354902 19100 net.cpp:160]     with loss weight 1
I1007 08:14:31.354907 19100 net.cpp:165] Memory required for data: 2044548224
I1007 08:14:31.354909 19100 layer_factory.hpp:76] Creating layer detection_accuracy_2_5x7
I1007 08:14:31.354917 19100 net.cpp:106] Creating Layer detection_accuracy_2_5x7
I1007 08:14:31.354919 19100 net.cpp:454] detection_accuracy_2_5x7 <- LFCN_2_5x7_LFCN_2_5x7_0_split_1
I1007 08:14:31.354924 19100 net.cpp:454] detection_accuracy_2_5x7 <- label_2_5x7_data_4_split_1
I1007 08:14:31.354933 19100 net.cpp:411] detection_accuracy_2_5x7 -> accuracy_2_5x7
I1007 08:14:31.354939 19100 net.cpp:411] detection_accuracy_2_5x7 -> boxiou_2_5x7
I1007 08:14:31.354981 19100 net.cpp:150] Setting up detection_accuracy_2_5x7
I1007 08:14:31.354986 19100 net.cpp:157] Top shape: 1 1 1 2 (2)
I1007 08:14:31.354990 19100 net.cpp:157] Top shape: 1 1 1 1 (1)
I1007 08:14:31.354993 19100 net.cpp:165] Memory required for data: 2044548236
I1007 08:14:31.354995 19100 layer_factory.hpp:76] Creating layer pool5
I1007 08:14:31.355003 19100 net.cpp:106] Creating Layer pool5
I1007 08:14:31.355006 19100 net.cpp:454] pool5 <- conv5_3_relu5_3_0_split_2
I1007 08:14:31.355012 19100 net.cpp:411] pool5 -> pool5
I1007 08:14:31.355612 19100 net.cpp:150] Setting up pool5
I1007 08:14:31.355624 19100 net.cpp:157] Top shape: 4 512 14 14 (401408)
I1007 08:14:31.355628 19100 net.cpp:165] Memory required for data: 2046153868
I1007 08:14:31.355630 19100 layer_factory.hpp:76] Creating layer conv6_1
I1007 08:14:31.355640 19100 net.cpp:106] Creating Layer conv6_1
I1007 08:14:31.355643 19100 net.cpp:454] conv6_1 <- pool5
I1007 08:14:31.355650 19100 net.cpp:411] conv6_1 -> conv6_1
I1007 08:14:31.435485 19100 net.cpp:150] Setting up conv6_1
I1007 08:14:31.435502 19100 net.cpp:157] Top shape: 4 512 14 14 (401408)
I1007 08:14:31.435516 19100 net.cpp:165] Memory required for data: 2047759500
I1007 08:14:31.435523 19100 layer_factory.hpp:76] Creating layer relu6_1
I1007 08:14:31.435530 19100 net.cpp:106] Creating Layer relu6_1
I1007 08:14:31.435535 19100 net.cpp:454] relu6_1 <- conv6_1
I1007 08:14:31.435539 19100 net.cpp:397] relu6_1 -> conv6_1 (in-place)
I1007 08:14:31.435726 19100 net.cpp:150] Setting up relu6_1
I1007 08:14:31.435736 19100 net.cpp:157] Top shape: 4 512 14 14 (401408)
I1007 08:14:31.435739 19100 net.cpp:165] Memory required for data: 2049365132
I1007 08:14:31.435742 19100 layer_factory.hpp:76] Creating layer conv6_1_relu6_1_0_split
I1007 08:14:31.435750 19100 net.cpp:106] Creating Layer conv6_1_relu6_1_0_split
I1007 08:14:31.435752 19100 net.cpp:454] conv6_1_relu6_1_0_split <- conv6_1
I1007 08:14:31.435760 19100 net.cpp:411] conv6_1_relu6_1_0_split -> conv6_1_relu6_1_0_split_0
I1007 08:14:31.435765 19100 net.cpp:411] conv6_1_relu6_1_0_split -> conv6_1_relu6_1_0_split_1
I1007 08:14:31.435770 19100 net.cpp:411] conv6_1_relu6_1_0_split -> conv6_1_relu6_1_0_split_2
I1007 08:14:31.435834 19100 net.cpp:150] Setting up conv6_1_relu6_1_0_split
I1007 08:14:31.435849 19100 net.cpp:157] Top shape: 4 512 14 14 (401408)
I1007 08:14:31.435853 19100 net.cpp:157] Top shape: 4 512 14 14 (401408)
I1007 08:14:31.435856 19100 net.cpp:157] Top shape: 4 512 14 14 (401408)
I1007 08:14:31.435859 19100 net.cpp:165] Memory required for data: 2054182028
I1007 08:14:31.435861 19100 layer_factory.hpp:76] Creating layer LFCN_3_3x5
I1007 08:14:31.435870 19100 net.cpp:106] Creating Layer LFCN_3_3x5
I1007 08:14:31.435875 19100 net.cpp:454] LFCN_3_3x5 <- conv6_1_relu6_1_0_split_0
I1007 08:14:31.435880 19100 net.cpp:411] LFCN_3_3x5 -> LFCN_3_3x5
I1007 08:14:31.438464 19100 net.cpp:150] Setting up LFCN_3_3x5
I1007 08:14:31.438477 19100 net.cpp:157] Top shape: 4 6 14 14 (4704)
I1007 08:14:31.438491 19100 net.cpp:165] Memory required for data: 2054200844
I1007 08:14:31.438498 19100 layer_factory.hpp:76] Creating layer LFCN_3_3x5_LFCN_3_3x5_0_split
I1007 08:14:31.438513 19100 net.cpp:106] Creating Layer LFCN_3_3x5_LFCN_3_3x5_0_split
I1007 08:14:31.438516 19100 net.cpp:454] LFCN_3_3x5_LFCN_3_3x5_0_split <- LFCN_3_3x5
I1007 08:14:31.438524 19100 net.cpp:411] LFCN_3_3x5_LFCN_3_3x5_0_split -> LFCN_3_3x5_LFCN_3_3x5_0_split_0
I1007 08:14:31.438530 19100 net.cpp:411] LFCN_3_3x5_LFCN_3_3x5_0_split -> LFCN_3_3x5_LFCN_3_3x5_0_split_1
I1007 08:14:31.438536 19100 net.cpp:411] LFCN_3_3x5_LFCN_3_3x5_0_split -> LFCN_3_3x5_LFCN_3_3x5_0_split_2
I1007 08:14:31.438592 19100 net.cpp:150] Setting up LFCN_3_3x5_LFCN_3_3x5_0_split
I1007 08:14:31.438598 19100 net.cpp:157] Top shape: 4 6 14 14 (4704)
I1007 08:14:31.438602 19100 net.cpp:157] Top shape: 4 6 14 14 (4704)
I1007 08:14:31.438606 19100 net.cpp:157] Top shape: 4 6 14 14 (4704)
I1007 08:14:31.438608 19100 net.cpp:165] Memory required for data: 2054257292
I1007 08:14:31.438611 19100 layer_factory.hpp:76] Creating layer detection_loss_3_3x5
I1007 08:14:31.438617 19100 net.cpp:106] Creating Layer detection_loss_3_3x5
I1007 08:14:31.438621 19100 net.cpp:454] detection_loss_3_3x5 <- LFCN_3_3x5_LFCN_3_3x5_0_split_0
I1007 08:14:31.438626 19100 net.cpp:454] detection_loss_3_3x5 <- label_3_3x5_data_5_split_0
I1007 08:14:31.438632 19100 net.cpp:411] detection_loss_3_3x5 -> loss_3_3x5
I1007 08:14:31.438638 19100 layer_factory.hpp:76] Creating layer detection_loss_3_3x5
I1007 08:14:31.439007 19100 net.cpp:150] Setting up detection_loss_3_3x5
I1007 08:14:31.439018 19100 net.cpp:157] Top shape: 1 1 1 2 (2)
I1007 08:14:31.439021 19100 net.cpp:160]     with loss weight 1
I1007 08:14:31.439028 19100 net.cpp:165] Memory required for data: 2054257300
I1007 08:14:31.439030 19100 layer_factory.hpp:76] Creating layer detection_accuracy_3_3x5
I1007 08:14:31.439038 19100 net.cpp:106] Creating Layer detection_accuracy_3_3x5
I1007 08:14:31.439043 19100 net.cpp:454] detection_accuracy_3_3x5 <- LFCN_3_3x5_LFCN_3_3x5_0_split_1
I1007 08:14:31.439049 19100 net.cpp:454] detection_accuracy_3_3x5 <- label_3_3x5_data_5_split_1
I1007 08:14:31.439054 19100 net.cpp:411] detection_accuracy_3_3x5 -> accuracy_3_3x5
I1007 08:14:31.439062 19100 net.cpp:411] detection_accuracy_3_3x5 -> boxiou_3_3x5
I1007 08:14:31.439102 19100 net.cpp:150] Setting up detection_accuracy_3_3x5
I1007 08:14:31.439107 19100 net.cpp:157] Top shape: 1 1 1 2 (2)
I1007 08:14:31.439111 19100 net.cpp:157] Top shape: 1 1 1 1 (1)
I1007 08:14:31.439113 19100 net.cpp:165] Memory required for data: 2054257312
I1007 08:14:31.439116 19100 layer_factory.hpp:76] Creating layer LFCN_3_5x7
I1007 08:14:31.439127 19100 net.cpp:106] Creating Layer LFCN_3_5x7
I1007 08:14:31.439131 19100 net.cpp:454] LFCN_3_5x7 <- conv6_1_relu6_1_0_split_1
I1007 08:14:31.439136 19100 net.cpp:411] LFCN_3_5x7 -> LFCN_3_5x7
I1007 08:14:31.444346 19100 net.cpp:150] Setting up LFCN_3_5x7
I1007 08:14:31.444360 19100 net.cpp:157] Top shape: 4 6 14 14 (4704)
I1007 08:14:31.444363 19100 net.cpp:165] Memory required for data: 2054276128
I1007 08:14:31.444370 19100 layer_factory.hpp:76] Creating layer LFCN_3_5x7_LFCN_3_5x7_0_split
I1007 08:14:31.444376 19100 net.cpp:106] Creating Layer LFCN_3_5x7_LFCN_3_5x7_0_split
I1007 08:14:31.444380 19100 net.cpp:454] LFCN_3_5x7_LFCN_3_5x7_0_split <- LFCN_3_5x7
I1007 08:14:31.444387 19100 net.cpp:411] LFCN_3_5x7_LFCN_3_5x7_0_split -> LFCN_3_5x7_LFCN_3_5x7_0_split_0
I1007 08:14:31.444394 19100 net.cpp:411] LFCN_3_5x7_LFCN_3_5x7_0_split -> LFCN_3_5x7_LFCN_3_5x7_0_split_1
I1007 08:14:31.444399 19100 net.cpp:411] LFCN_3_5x7_LFCN_3_5x7_0_split -> LFCN_3_5x7_LFCN_3_5x7_0_split_2
I1007 08:14:31.444458 19100 net.cpp:150] Setting up LFCN_3_5x7_LFCN_3_5x7_0_split
I1007 08:14:31.444463 19100 net.cpp:157] Top shape: 4 6 14 14 (4704)
I1007 08:14:31.444466 19100 net.cpp:157] Top shape: 4 6 14 14 (4704)
I1007 08:14:31.444469 19100 net.cpp:157] Top shape: 4 6 14 14 (4704)
I1007 08:14:31.444473 19100 net.cpp:165] Memory required for data: 2054332576
I1007 08:14:31.444475 19100 layer_factory.hpp:76] Creating layer detection_loss_3_5x7
I1007 08:14:31.444483 19100 net.cpp:106] Creating Layer detection_loss_3_5x7
I1007 08:14:31.444485 19100 net.cpp:454] detection_loss_3_5x7 <- LFCN_3_5x7_LFCN_3_5x7_0_split_0
I1007 08:14:31.444490 19100 net.cpp:454] detection_loss_3_5x7 <- label_3_5x7_data_6_split_0
I1007 08:14:31.444496 19100 net.cpp:411] detection_loss_3_5x7 -> loss_3_5x7
I1007 08:14:31.444504 19100 layer_factory.hpp:76] Creating layer detection_loss_3_5x7
I1007 08:14:31.445042 19100 net.cpp:150] Setting up detection_loss_3_5x7
I1007 08:14:31.445055 19100 net.cpp:157] Top shape: 1 1 1 2 (2)
I1007 08:14:31.445057 19100 net.cpp:160]     with loss weight 1
I1007 08:14:31.445063 19100 net.cpp:165] Memory required for data: 2054332584
I1007 08:14:31.445066 19100 layer_factory.hpp:76] Creating layer detection_accuracy_3_5x7
I1007 08:14:31.445075 19100 net.cpp:106] Creating Layer detection_accuracy_3_5x7
I1007 08:14:31.445078 19100 net.cpp:454] detection_accuracy_3_5x7 <- LFCN_3_5x7_LFCN_3_5x7_0_split_1
I1007 08:14:31.445083 19100 net.cpp:454] detection_accuracy_3_5x7 <- label_3_5x7_data_6_split_1
I1007 08:14:31.445089 19100 net.cpp:411] detection_accuracy_3_5x7 -> accuracy_3_5x7
I1007 08:14:31.445096 19100 net.cpp:411] detection_accuracy_3_5x7 -> boxiou_3_5x7
I1007 08:14:31.445139 19100 net.cpp:150] Setting up detection_accuracy_3_5x7
I1007 08:14:31.445144 19100 net.cpp:157] Top shape: 1 1 1 2 (2)
I1007 08:14:31.445147 19100 net.cpp:157] Top shape: 1 1 1 1 (1)
I1007 08:14:31.445150 19100 net.cpp:165] Memory required for data: 2054332596
I1007 08:14:31.445153 19100 layer_factory.hpp:76] Creating layer pool6
I1007 08:14:31.445163 19100 net.cpp:106] Creating Layer pool6
I1007 08:14:31.445166 19100 net.cpp:454] pool6 <- conv6_1_relu6_1_0_split_2
I1007 08:14:31.445170 19100 net.cpp:411] pool6 -> pool6
I1007 08:14:31.445382 19100 net.cpp:150] Setting up pool6
I1007 08:14:31.445394 19100 net.cpp:157] Top shape: 4 512 7 7 (100352)
I1007 08:14:31.445396 19100 net.cpp:165] Memory required for data: 2054734004
I1007 08:14:31.445399 19100 layer_factory.hpp:76] Creating layer LFCN_4_3x5
I1007 08:14:31.445408 19100 net.cpp:106] Creating Layer LFCN_4_3x5
I1007 08:14:31.445411 19100 net.cpp:454] LFCN_4_3x5 <- pool6
I1007 08:14:31.445416 19100 net.cpp:411] LFCN_4_3x5 -> LFCN_4_3x5
I1007 08:14:31.448287 19100 net.cpp:150] Setting up LFCN_4_3x5
I1007 08:14:31.448302 19100 net.cpp:157] Top shape: 4 6 7 7 (1176)
I1007 08:14:31.448305 19100 net.cpp:165] Memory required for data: 2054738708
I1007 08:14:31.448312 19100 layer_factory.hpp:76] Creating layer LFCN_4_3x5_LFCN_4_3x5_0_split
I1007 08:14:31.448318 19100 net.cpp:106] Creating Layer LFCN_4_3x5_LFCN_4_3x5_0_split
I1007 08:14:31.448321 19100 net.cpp:454] LFCN_4_3x5_LFCN_4_3x5_0_split <- LFCN_4_3x5
I1007 08:14:31.448329 19100 net.cpp:411] LFCN_4_3x5_LFCN_4_3x5_0_split -> LFCN_4_3x5_LFCN_4_3x5_0_split_0
I1007 08:14:31.448336 19100 net.cpp:411] LFCN_4_3x5_LFCN_4_3x5_0_split -> LFCN_4_3x5_LFCN_4_3x5_0_split_1
I1007 08:14:31.448341 19100 net.cpp:411] LFCN_4_3x5_LFCN_4_3x5_0_split -> LFCN_4_3x5_LFCN_4_3x5_0_split_2
I1007 08:14:31.448402 19100 net.cpp:150] Setting up LFCN_4_3x5_LFCN_4_3x5_0_split
I1007 08:14:31.448407 19100 net.cpp:157] Top shape: 4 6 7 7 (1176)
I1007 08:14:31.448411 19100 net.cpp:157] Top shape: 4 6 7 7 (1176)
I1007 08:14:31.448415 19100 net.cpp:157] Top shape: 4 6 7 7 (1176)
I1007 08:14:31.448417 19100 net.cpp:165] Memory required for data: 2054752820
I1007 08:14:31.448420 19100 layer_factory.hpp:76] Creating layer detection_loss_4_3x5
I1007 08:14:31.448426 19100 net.cpp:106] Creating Layer detection_loss_4_3x5
I1007 08:14:31.448428 19100 net.cpp:454] detection_loss_4_3x5 <- LFCN_4_3x5_LFCN_4_3x5_0_split_0
I1007 08:14:31.448434 19100 net.cpp:454] detection_loss_4_3x5 <- label_4_3x5_data_7_split_0
I1007 08:14:31.448439 19100 net.cpp:411] detection_loss_4_3x5 -> loss_4_3x5
I1007 08:14:31.448446 19100 layer_factory.hpp:76] Creating layer detection_loss_4_3x5
I1007 08:14:31.448988 19100 net.cpp:150] Setting up detection_loss_4_3x5
I1007 08:14:31.449002 19100 net.cpp:157] Top shape: 1 1 1 2 (2)
I1007 08:14:31.449005 19100 net.cpp:160]     with loss weight 1
I1007 08:14:31.449010 19100 net.cpp:165] Memory required for data: 2054752828
I1007 08:14:31.449013 19100 layer_factory.hpp:76] Creating layer detection_accuracy_4_3x5
I1007 08:14:31.449019 19100 net.cpp:106] Creating Layer detection_accuracy_4_3x5
I1007 08:14:31.449023 19100 net.cpp:454] detection_accuracy_4_3x5 <- LFCN_4_3x5_LFCN_4_3x5_0_split_1
I1007 08:14:31.449028 19100 net.cpp:454] detection_accuracy_4_3x5 <- label_4_3x5_data_7_split_1
I1007 08:14:31.449033 19100 net.cpp:411] detection_accuracy_4_3x5 -> accuracy_4_3x5
I1007 08:14:31.449039 19100 net.cpp:411] detection_accuracy_4_3x5 -> boxiou_4_3x5
I1007 08:14:31.449087 19100 net.cpp:150] Setting up detection_accuracy_4_3x5
I1007 08:14:31.449093 19100 net.cpp:157] Top shape: 1 1 1 2 (2)
I1007 08:14:31.449096 19100 net.cpp:157] Top shape: 1 1 1 1 (1)
I1007 08:14:31.449100 19100 net.cpp:165] Memory required for data: 2054752840
I1007 08:14:31.449101 19100 layer_factory.hpp:76] Creating layer proposals
I1007 08:14:31.449111 19100 net.cpp:106] Creating Layer proposals
I1007 08:14:31.449115 19100 net.cpp:454] proposals <- LFCN_1_3x5_LFCN_1_3x5_0_split_2
I1007 08:14:31.449120 19100 net.cpp:454] proposals <- LFCN_1_5x7_LFCN_1_5x7_0_split_2
I1007 08:14:31.449122 19100 net.cpp:454] proposals <- LFCN_2_3x5_LFCN_2_3x5_0_split_2
I1007 08:14:31.449126 19100 net.cpp:454] proposals <- LFCN_2_5x7_LFCN_2_5x7_0_split_2
I1007 08:14:31.449128 19100 net.cpp:454] proposals <- LFCN_3_3x5_LFCN_3_3x5_0_split_2
I1007 08:14:31.449132 19100 net.cpp:454] proposals <- LFCN_3_5x7_LFCN_3_5x7_0_split_2
I1007 08:14:31.449134 19100 net.cpp:454] proposals <- LFCN_4_3x5_LFCN_4_3x5_0_split_2
I1007 08:14:31.449139 19100 net.cpp:411] proposals -> proposals
I1007 08:14:31.449168 19100 net.cpp:150] Setting up proposals
I1007 08:14:31.449172 19100 net.cpp:157] Top shape: 1 5 1 1 (5)
I1007 08:14:31.449175 19100 net.cpp:165] Memory required for data: 2054752860
I1007 08:14:31.449177 19100 layer_factory.hpp:76] Creating layer proposal_info
I1007 08:14:31.449193 19100 net.cpp:106] Creating Layer proposal_info
I1007 08:14:31.449196 19100 net.cpp:454] proposal_info <- proposals
I1007 08:14:31.449200 19100 net.cpp:454] proposal_info <- gt_boxes
I1007 08:14:31.449208 19100 net.cpp:411] proposal_info -> rois
I1007 08:14:31.449215 19100 net.cpp:411] proposal_info -> proposal_labels
I1007 08:14:31.449223 19100 net.cpp:411] proposal_info -> proposal_targets
I1007 08:14:31.449229 19100 net.cpp:411] proposal_info -> box_inside_weights
I1007 08:14:31.449234 19100 net.cpp:411] proposal_info -> box_outside_weights
I1007 08:14:31.449239 19100 net.cpp:411] proposal_info -> match_gt_boxes
I1007 08:14:31.449334 19100 net.cpp:150] Setting up proposal_info
I1007 08:14:31.449339 19100 net.cpp:157] Top shape: 128 5 1 1 (640)
I1007 08:14:31.449343 19100 net.cpp:157] Top shape: 128 1 1 1 (128)
I1007 08:14:31.449347 19100 net.cpp:157] Top shape: 128 8 1 1 (1024)
I1007 08:14:31.449350 19100 net.cpp:157] Top shape: 128 8 1 1 (1024)
I1007 08:14:31.449353 19100 net.cpp:157] Top shape: 128 8 1 1 (1024)
I1007 08:14:31.449357 19100 net.cpp:157] Top shape: 128 6 1 1 (768)
I1007 08:14:31.449359 19100 net.cpp:165] Memory required for data: 2054771292
I1007 08:14:31.449362 19100 layer_factory.hpp:76] Creating layer rois_proposal_info_0_split
I1007 08:14:31.449368 19100 net.cpp:106] Creating Layer rois_proposal_info_0_split
I1007 08:14:31.449371 19100 net.cpp:454] rois_proposal_info_0_split <- rois
I1007 08:14:31.449375 19100 net.cpp:411] rois_proposal_info_0_split -> rois_proposal_info_0_split_0
I1007 08:14:31.449380 19100 net.cpp:411] rois_proposal_info_0_split -> rois_proposal_info_0_split_1
I1007 08:14:31.449385 19100 net.cpp:411] rois_proposal_info_0_split -> rois_proposal_info_0_split_2
I1007 08:14:31.449432 19100 net.cpp:150] Setting up rois_proposal_info_0_split
I1007 08:14:31.449436 19100 net.cpp:157] Top shape: 128 5 1 1 (640)
I1007 08:14:31.449440 19100 net.cpp:157] Top shape: 128 5 1 1 (640)
I1007 08:14:31.449443 19100 net.cpp:157] Top shape: 128 5 1 1 (640)
I1007 08:14:31.449446 19100 net.cpp:165] Memory required for data: 2054778972
I1007 08:14:31.449448 19100 layer_factory.hpp:76] Creating layer proposal_labels_proposal_info_1_split
I1007 08:14:31.449452 19100 net.cpp:106] Creating Layer proposal_labels_proposal_info_1_split
I1007 08:14:31.449456 19100 net.cpp:454] proposal_labels_proposal_info_1_split <- proposal_labels
I1007 08:14:31.449461 19100 net.cpp:411] proposal_labels_proposal_info_1_split -> proposal_labels_proposal_info_1_split_0
I1007 08:14:31.449466 19100 net.cpp:411] proposal_labels_proposal_info_1_split -> proposal_labels_proposal_info_1_split_1
I1007 08:14:31.449498 19100 net.cpp:150] Setting up proposal_labels_proposal_info_1_split
I1007 08:14:31.449502 19100 net.cpp:157] Top shape: 128 1 1 1 (128)
I1007 08:14:31.449506 19100 net.cpp:157] Top shape: 128 1 1 1 (128)
I1007 08:14:31.449508 19100 net.cpp:165] Memory required for data: 2054779996
I1007 08:14:31.449512 19100 layer_factory.hpp:76] Creating layer conv4_3_2x
I1007 08:14:31.449519 19100 net.cpp:106] Creating Layer conv4_3_2x
I1007 08:14:31.449523 19100 net.cpp:454] conv4_3_2x <- conv4_3_relu4_3_0_split_2
I1007 08:14:31.449528 19100 net.cpp:411] conv4_3_2x -> conv4_3_2x
I1007 08:14:31.449967 19100 net.cpp:150] Setting up conv4_3_2x
I1007 08:14:31.449976 19100 net.cpp:157] Top shape: 4 512 112 112 (25690112)
I1007 08:14:31.449980 19100 net.cpp:165] Memory required for data: 2157540444
I1007 08:14:31.449983 19100 layer_factory.hpp:76] Creating layer conv4_3_2x_conv4_3_2x_0_split
I1007 08:14:31.449988 19100 net.cpp:106] Creating Layer conv4_3_2x_conv4_3_2x_0_split
I1007 08:14:31.449991 19100 net.cpp:454] conv4_3_2x_conv4_3_2x_0_split <- conv4_3_2x
I1007 08:14:31.449997 19100 net.cpp:411] conv4_3_2x_conv4_3_2x_0_split -> conv4_3_2x_conv4_3_2x_0_split_0
I1007 08:14:31.450002 19100 net.cpp:411] conv4_3_2x_conv4_3_2x_0_split -> conv4_3_2x_conv4_3_2x_0_split_1
I1007 08:14:31.450038 19100 net.cpp:150] Setting up conv4_3_2x_conv4_3_2x_0_split
I1007 08:14:31.450043 19100 net.cpp:157] Top shape: 4 512 112 112 (25690112)
I1007 08:14:31.450047 19100 net.cpp:157] Top shape: 4 512 112 112 (25690112)
I1007 08:14:31.450048 19100 net.cpp:165] Memory required for data: 2363061340
I1007 08:14:31.450052 19100 layer_factory.hpp:76] Creating layer roi_pool_org
I1007 08:14:31.450059 19100 net.cpp:106] Creating Layer roi_pool_org
I1007 08:14:31.450062 19100 net.cpp:454] roi_pool_org <- conv4_3_2x_conv4_3_2x_0_split_0
I1007 08:14:31.450067 19100 net.cpp:454] roi_pool_org <- rois_proposal_info_0_split_0
I1007 08:14:31.450070 19100 net.cpp:411] roi_pool_org -> roi_pool_org
I1007 08:14:31.450078 19100 roi_pooling_layer.cpp:35] Spatial scale: 0.25
I1007 08:14:31.450119 19100 net.cpp:150] Setting up roi_pool_org
I1007 08:14:31.450124 19100 net.cpp:157] Top shape: 128 512 8 4 (2097152)
I1007 08:14:31.450126 19100 net.cpp:165] Memory required for data: 2371449948
I1007 08:14:31.450129 19100 layer_factory.hpp:76] Creating layer roi_pool_ctx
I1007 08:14:31.450135 19100 net.cpp:106] Creating Layer roi_pool_ctx
I1007 08:14:31.450139 19100 net.cpp:454] roi_pool_ctx <- conv4_3_2x_conv4_3_2x_0_split_1
I1007 08:14:31.450142 19100 net.cpp:454] roi_pool_ctx <- rois_proposal_info_0_split_1
I1007 08:14:31.450146 19100 net.cpp:411] roi_pool_ctx -> roi_pool_ctx
I1007 08:14:31.450150 19100 roi_pooling_layer.cpp:35] Spatial scale: 0.25
I1007 08:14:31.450188 19100 net.cpp:150] Setting up roi_pool_ctx
I1007 08:14:31.450192 19100 net.cpp:157] Top shape: 128 512 8 4 (2097152)
I1007 08:14:31.450196 19100 net.cpp:165] Memory required for data: 2379838556
I1007 08:14:31.450198 19100 layer_factory.hpp:76] Creating layer roi_pool
I1007 08:14:31.450203 19100 net.cpp:106] Creating Layer roi_pool
I1007 08:14:31.450206 19100 net.cpp:454] roi_pool <- roi_pool_org
I1007 08:14:31.450209 19100 net.cpp:454] roi_pool <- roi_pool_ctx
I1007 08:14:31.450213 19100 net.cpp:411] roi_pool -> roi_pool
I1007 08:14:31.450238 19100 net.cpp:150] Setting up roi_pool
I1007 08:14:31.450244 19100 net.cpp:157] Top shape: 128 1024 8 4 (4194304)
I1007 08:14:31.450247 19100 net.cpp:165] Memory required for data: 2396615772
I1007 08:14:31.450249 19100 layer_factory.hpp:76] Creating layer roi_c1
I1007 08:14:31.450256 19100 net.cpp:106] Creating Layer roi_c1
I1007 08:14:31.450259 19100 net.cpp:454] roi_c1 <- roi_pool
I1007 08:14:31.450265 19100 net.cpp:411] roi_c1 -> roi_c1
I1007 08:14:31.608403 19100 net.cpp:150] Setting up roi_c1
I1007 08:14:31.608440 19100 net.cpp:157] Top shape: 128 512 8 4 (2097152)
I1007 08:14:31.608444 19100 net.cpp:165] Memory required for data: 2405004380
I1007 08:14:31.608453 19100 layer_factory.hpp:76] Creating layer roi_c1_relu
I1007 08:14:31.608464 19100 net.cpp:106] Creating Layer roi_c1_relu
I1007 08:14:31.608469 19100 net.cpp:454] roi_c1_relu <- roi_c1
I1007 08:14:31.608475 19100 net.cpp:397] roi_c1_relu -> roi_c1 (in-place)
I1007 08:14:31.608839 19100 net.cpp:150] Setting up roi_c1_relu
I1007 08:14:31.608855 19100 net.cpp:157] Top shape: 128 512 8 4 (2097152)
I1007 08:14:31.608857 19100 net.cpp:165] Memory required for data: 2413392988
I1007 08:14:31.608860 19100 layer_factory.hpp:76] Creating layer fc6
I1007 08:14:31.608870 19100 net.cpp:106] Creating Layer fc6
I1007 08:14:31.608872 19100 net.cpp:454] fc6 <- roi_c1
I1007 08:14:31.608880 19100 net.cpp:411] fc6 -> fc6
I1007 08:14:32.663175 19100 net.cpp:150] Setting up fc6
I1007 08:14:32.663236 19100 net.cpp:157] Top shape: 128 2048 (262144)
I1007 08:14:32.663239 19100 net.cpp:165] Memory required for data: 2414441564
I1007 08:14:32.663265 19100 layer_factory.hpp:76] Creating layer relu6
I1007 08:14:32.663295 19100 net.cpp:106] Creating Layer relu6
I1007 08:14:32.663349 19100 net.cpp:454] relu6 <- fc6
I1007 08:14:32.663358 19100 net.cpp:397] relu6 -> fc6 (in-place)
I1007 08:14:32.663831 19100 net.cpp:150] Setting up relu6
I1007 08:14:32.663841 19100 net.cpp:157] Top shape: 128 2048 (262144)
I1007 08:14:32.663843 19100 net.cpp:165] Memory required for data: 2415490140
I1007 08:14:32.663858 19100 layer_factory.hpp:76] Creating layer drop6
I1007 08:14:32.663867 19100 net.cpp:106] Creating Layer drop6
I1007 08:14:32.663872 19100 net.cpp:454] drop6 <- fc6
I1007 08:14:32.663882 19100 net.cpp:397] drop6 -> fc6 (in-place)
I1007 08:14:32.663929 19100 net.cpp:150] Setting up drop6
I1007 08:14:32.663933 19100 net.cpp:157] Top shape: 128 2048 (262144)
I1007 08:14:32.663936 19100 net.cpp:165] Memory required for data: 2416538716
I1007 08:14:32.663938 19100 layer_factory.hpp:76] Creating layer fc6_drop6_0_split
I1007 08:14:32.663954 19100 net.cpp:106] Creating Layer fc6_drop6_0_split
I1007 08:14:32.663956 19100 net.cpp:454] fc6_drop6_0_split <- fc6
I1007 08:14:32.663962 19100 net.cpp:411] fc6_drop6_0_split -> fc6_drop6_0_split_0
I1007 08:14:32.663969 19100 net.cpp:411] fc6_drop6_0_split -> fc6_drop6_0_split_1
I1007 08:14:32.664031 19100 net.cpp:150] Setting up fc6_drop6_0_split
I1007 08:14:32.664036 19100 net.cpp:157] Top shape: 128 2048 (262144)
I1007 08:14:32.664038 19100 net.cpp:157] Top shape: 128 2048 (262144)
I1007 08:14:32.664041 19100 net.cpp:165] Memory required for data: 2418635868
I1007 08:14:32.664043 19100 layer_factory.hpp:76] Creating layer cls_pred
I1007 08:14:32.664057 19100 net.cpp:106] Creating Layer cls_pred
I1007 08:14:32.664059 19100 net.cpp:454] cls_pred <- fc6_drop6_0_split_0
I1007 08:14:32.664083 19100 net.cpp:411] cls_pred -> cls_pred
I1007 08:14:32.664338 19100 net.cpp:150] Setting up cls_pred
I1007 08:14:32.664346 19100 net.cpp:157] Top shape: 128 2 (256)
I1007 08:14:32.664350 19100 net.cpp:165] Memory required for data: 2418636892
I1007 08:14:32.664355 19100 layer_factory.hpp:76] Creating layer cls_pred_cls_pred_0_split
I1007 08:14:32.664361 19100 net.cpp:106] Creating Layer cls_pred_cls_pred_0_split
I1007 08:14:32.664364 19100 net.cpp:454] cls_pred_cls_pred_0_split <- cls_pred
I1007 08:14:32.664368 19100 net.cpp:411] cls_pred_cls_pred_0_split -> cls_pred_cls_pred_0_split_0
I1007 08:14:32.664376 19100 net.cpp:411] cls_pred_cls_pred_0_split -> cls_pred_cls_pred_0_split_1
I1007 08:14:32.664508 19100 net.cpp:150] Setting up cls_pred_cls_pred_0_split
I1007 08:14:32.664517 19100 net.cpp:157] Top shape: 128 2 (256)
I1007 08:14:32.664525 19100 net.cpp:157] Top shape: 128 2 (256)
I1007 08:14:32.664526 19100 net.cpp:165] Memory required for data: 2418638940
I1007 08:14:32.664530 19100 layer_factory.hpp:76] Creating layer bbox_pred
I1007 08:14:32.664535 19100 net.cpp:106] Creating Layer bbox_pred
I1007 08:14:32.664538 19100 net.cpp:454] bbox_pred <- fc6_drop6_0_split_1
I1007 08:14:32.664543 19100 net.cpp:411] bbox_pred -> bbox_pred
I1007 08:14:32.665236 19100 net.cpp:150] Setting up bbox_pred
I1007 08:14:32.665246 19100 net.cpp:157] Top shape: 128 8 (1024)
I1007 08:14:32.665248 19100 net.cpp:165] Memory required for data: 2418643036
I1007 08:14:32.665253 19100 layer_factory.hpp:76] Creating layer bbox_pred_bbox_pred_0_split
I1007 08:14:32.665258 19100 net.cpp:106] Creating Layer bbox_pred_bbox_pred_0_split
I1007 08:14:32.665261 19100 net.cpp:454] bbox_pred_bbox_pred_0_split <- bbox_pred
I1007 08:14:32.665266 19100 net.cpp:411] bbox_pred_bbox_pred_0_split -> bbox_pred_bbox_pred_0_split_0
I1007 08:14:32.665271 19100 net.cpp:411] bbox_pred_bbox_pred_0_split -> bbox_pred_bbox_pred_0_split_1
I1007 08:14:32.665305 19100 net.cpp:150] Setting up bbox_pred_bbox_pred_0_split
I1007 08:14:32.665310 19100 net.cpp:157] Top shape: 128 8 (1024)
I1007 08:14:32.665313 19100 net.cpp:157] Top shape: 128 8 (1024)
I1007 08:14:32.665316 19100 net.cpp:165] Memory required for data: 2418651228
I1007 08:14:32.665318 19100 layer_factory.hpp:76] Creating layer loss_cls
I1007 08:14:32.665328 19100 net.cpp:106] Creating Layer loss_cls
I1007 08:14:32.665331 19100 net.cpp:454] loss_cls <- cls_pred_cls_pred_0_split_0
I1007 08:14:32.665338 19100 net.cpp:454] loss_cls <- proposal_labels_proposal_info_1_split_0
…
I1007 08:14:32.674602 19100 image_gt_data_layer.cpp:234] output label size 2 : 2,6,28,28
I1007 08:14:32.674664 19100 image_gt_data_layer.cpp:234] output label size 3 : 2,6,28,28
I1007 08:14:32.674728 19100 image_gt_data_layer.cpp:234] output label size 4 : 2,6,14,14
I1007 08:14:32.674789 19100 image_gt_data_layer.cpp:234] output label size 5 : 2,6,14,14
I1007 08:14:32.674847 19100 image_gt_data_layer.cpp:234] output label size 6 : 2,6,7,7
I1007 08:14:32.674914 19100 image_gt_data_layer.cpp:249] output gt boxes size: 1,7,1,1
I1007 08:14:32.686894 19100 net.cpp:150] Setting up data
I1007 08:14:32.686913 19100 net.cpp:157] Top shape: 2 3 448 448 (1204224)
I1007 08:14:32.686918 19100 net.cpp:157] Top shape: 2 6 56 56 (37632)
I1007 08:14:32.686923 19100 net.cpp:157] Top shape: 2 6 56 56 (37632)
I1007 08:14:32.686925 19100 net.cpp:157] Top shape: 2 6 28 28 (9408)
I1007 08:14:32.686929 19100 net.cpp:157] Top shape: 2 6 28 28 (9408)
I1007 08:14:32.686933 19100 net.cpp:157] Top shape: 2 6 14 14 (2352)
I1007 08:14:32.686935 19100 net.cpp:157] Top shape: 2 6 14 14 (2352)
I1007 08:14:32.686939 19100 net.cpp:157] Top shape: 2 6 7 7 (588)
I1007 08:14:32.686942 19100 net.cpp:157] Top shape: 1 7 1 1 (7)
I1007 08:14:32.686945 19100 net.cpp:165] Memory required for data: 5214412
I1007 08:14:32.686949 19100 layer_factory.hpp:76] Creating layer label_1_3x5_data_1_split
I1007 08:14:32.686959 19100 net.cpp:106] Creating Layer label_1_3x5_data_1_split
I1007 08:14:32.686969 19100 net.cpp:454] label_1_3x5_data_1_split <- label_1_3x5
I1007 08:14:32.686975 19100 net.cpp:411] label_1_3x5_data_1_split -> label_1_3x5_data_1_split_0
I1007 08:14:32.686983 19100 net.cpp:411] label_1_3x5_data_1_split -> label_1_3x5_data_1_split_1
I1007 08:14:32.687075 19100 net.cpp:150] Setting up label_1_3x5_data_1_split
I1007 08:14:32.687083 19100 net.cpp:157] Top shape: 2 6 56 56 (37632)
I1007 08:14:32.687088 19100 net.cpp:157] Top shape: 2 6 56 56 (37632)
I1007 08:14:32.687089 19100 net.cpp:165] Memory required for data: 5515468
I1007 08:14:32.687093 19100 layer_factory.hpp:76] Creating layer label_1_5x7_data_2_split
I1007 08:14:32.687098 19100 net.cpp:106] Creating Layer label_1_5x7_data_2_split
I1007 08:14:32.687101 19100 net.cpp:454] label_1_5x7_data_2_split <- label_1_5x7
I1007 08:14:32.687108 19100 net.cpp:411] label_1_5x7_data_2_split -> label_1_5x7_data_2_split_0
I1007 08:14:32.687114 19100 net.cpp:411] label_1_5x7_data_2_split -> label_1_5x7_data_2_split_1
I1007 08:14:32.687155 19100 net.cpp:150] Setting up label_1_5x7_data_2_split
I1007 08:14:32.687163 19100 net.cpp:157] Top shape: 2 6 56 56 (37632)
I1007 08:14:32.687167 19100 net.cpp:157] Top shape: 2 6 56 56 (37632)
I1007 08:14:32.687170 19100 net.cpp:165] Memory required for data: 5816524
I1007 08:14:32.687172 19100 layer_factory.hpp:76] Creating layer label_2_3x5_data_3_split
I1007 08:14:32.687176 19100 net.cpp:106] Creating Layer label_2_3x5_data_3_split
I1007 08:14:32.687180 19100 net.cpp:454] label_2_3x5_data_3_split <- label_2_3x5
I1007 08:14:32.687183 19100 net.cpp:411] label_2_3x5_data_3_split -> label_2_3x5_data_3_split_0
I1007 08:14:32.687188 19100 net.cpp:411] label_2_3x5_data_3_split -> label_2_3x5_data_3_split_1
I1007 08:14:32.687227 19100 net.cpp:150] Setting up label_2_3x5_data_3_split
I1007 08:14:32.687233 19100 net.cpp:157] Top shape: 2 6 28 28 (9408)
I1007 08:14:32.687237 19100 net.cpp:157] Top shape: 2 6 28 28 (9408)
I1007 08:14:32.687239 19100 net.cpp:165] Memory required for data: 5891788
I1007 08:14:32.687242 19100 layer_factory.hpp:76] Creating layer label_2_5x7_data_4_split
I1007 08:14:32.687248 19100 net.cpp:106] Creating Layer label_2_5x7_data_4_split
I1007 08:14:32.687252 19100 net.cpp:454] label_2_5x7_data_4_split <- label_2_5x7
I1007 08:14:32.687255 19100 net.cpp:411] label_2_5x7_data_4_split -> label_2_5x7_data_4_split_0
I1007 08:14:32.687260 19100 net.cpp:411] label_2_5x7_data_4_split -> label_2_5x7_data_4_split_1
I1007 08:14:32.687300 19100 net.cpp:150] Setting up label_2_5x7_data_4_split
I1007 08:14:32.687306 19100 net.cpp:157] Top shape: 2 6 28 28 (9408)
I1007 08:14:32.687312 19100 net.cpp:157] Top shape: 2 6 28 28 (9408)
I1007 08:14:32.687314 19100 net.cpp:165] Memory required for data: 5967052
I1007 08:14:32.687317 19100 layer_factory.hpp:76] Creating layer label_3_3x5_data_5_split
I1007 08:14:32.687321 19100 net.cpp:106] Creating Layer label_3_3x5_data_5_split
I1007 08:14:32.687325 19100 net.cpp:454] label_3_3x5_data_5_split <- label_3_3x5
I1007 08:14:32.687328 19100 net.cpp:411] label_3_3x5_data_5_split -> label_3_3x5_data_5_split_0
I1007 08:14:32.687332 19100 net.cpp:411] label_3_3x5_data_5_split -> label_3_3x5_data_5_split_1
I1007 08:14:32.687371 19100 net.cpp:150] Setting up label_3_3x5_data_5_split
I1007 08:14:32.687376 19100 net.cpp:157] Top shape: 2 6 14 14 (2352)
I1007 08:14:32.687381 19100 net.cpp:157] Top shape: 2 6 14 14 (2352)
I1007 08:14:32.687382 19100 net.cpp:165] Memory required for data: 5985868
I1007 08:14:32.687386 19100 layer_factory.hpp:76] Creating layer label_3_5x7_data_6_split
I1007 08:14:32.687388 19100 net.cpp:106] Creating Layer label_3_5x7_data_6_split
I1007 08:14:32.687391 19100 net.cpp:454] label_3_5x7_data_6_split <- label_3_5x7
I1007 08:14:32.687397 19100 net.cpp:411] label_3_5x7_data_6_split -> label_3_5x7_data_6_split_0
I1007 08:14:32.687402 19100 net.cpp:411] label_3_5x7_data_6_split -> label_3_5x7_data_6_split_1
I1007 08:14:32.687435 19100 net.cpp:150] Setting up label_3_5x7_data_6_split
I1007 08:14:32.687441 19100 net.cpp:157] Top shape: 2 6 14 14 (2352)
I1007 08:14:32.687444 19100 net.cpp:157] Top shape: 2 6 14 14 (2352)
I1007 08:14:32.687446 19100 net.cpp:165] Memory required for data: 6004684
I1007 08:14:32.687450 19100 layer_factory.hpp:76] Creating layer label_4_3x5_data_7_split
I1007 08:14:32.687455 19100 net.cpp:106] Creating Layer label_4_3x5_data_7_split
I1007 08:14:32.687458 19100 net.cpp:454] label_4_3x5_data_7_split <- label_4_3x5
I1007 08:14:32.687463 19100 net.cpp:411] label_4_3x5_data_7_split -> label_4_3x5_data_7_split_0
I1007 08:14:32.687466 19100 net.cpp:411] label_4_3x5_data_7_split -> label_4_3x5_data_7_split_1
I1007 08:14:32.687502 19100 net.cpp:150] Setting up label_4_3x5_data_7_split
I1007 08:14:32.687510 19100 net.cpp:157] Top shape: 2 6 7 7 (588)
I1007 08:14:32.687512 19100 net.cpp:157] Top shape: 2 6 7 7 (588)
I1007 08:14:32.687515 19100 net.cpp:165] Memory required for data: 6009388
I1007 08:14:32.687517 19100 layer_factory.hpp:76] Creating layer conv1_1
I1007 08:14:32.687526 19100 net.cpp:106] Creating Layer conv1_1
I1007 08:14:32.687528 19100 net.cpp:454] conv1_1 <- data
I1007 08:14:32.687535 19100 net.cpp:411] conv1_1 -> conv1_1
I1007 08:14:32.690321 19100 net.cpp:150] Setting up conv1_1
I1007 08:14:32.690335 19100 net.cpp:157] Top shape: 2 64 448 448 (25690112)
I1007 08:14:32.690337 19100 net.cpp:165] Memory required for data: 108769836
I1007 08:14:32.690349 19100 layer_factory.hpp:76] Creating layer relu1_1
I1007 08:14:32.690361 19100 net.cpp:106] Creating Layer relu1_1
I1007 08:14:32.690363 19100 net.cpp:454] relu1_1 <- conv1_1
I1007 08:14:32.690371 19100 net.cpp:397] relu1_1 -> conv1_1 (in-place)
I1007 08:14:32.690580 19100 net.cpp:150] Setting up relu1_1
I1007 08:14:32.690590 19100 net.cpp:157] Top shape: 2 64 448 448 (25690112)
I1007 08:14:32.690593 19100 net.cpp:165] Memory required for data: 211530284
I1007 08:14:32.690596 19100 layer_factory.hpp:76] Creating layer conv1_2
I1007 08:14:32.690604 19100 net.cpp:106] Creating Layer conv1_2
I1007 08:14:32.690608 19100 net.cpp:454] conv1_2 <- conv1_1
I1007 08:14:32.690614 19100 net.cpp:411] conv1_2 -> conv1_2
I1007 08:14:32.693058 19100 net.cpp:150] Setting up conv1_2
I1007 08:14:32.693071 19100 net.cpp:157] Top shape: 2 64 448 448 (25690112)
I1007 08:14:32.693086 19100 net.cpp:165] Memory required for data: 314290732
I1007 08:14:32.693094 19100 layer_factory.hpp:76] Creating layer relu1_2
I1007 08:14:32.693102 19100 net.cpp:106] Creating Layer relu1_2
I1007 08:14:32.693105 19100 net.cpp:454] relu1_2 <- conv1_2
I1007 08:14:32.693110 19100 net.cpp:397] relu1_2 -> conv1_2 (in-place)
I1007 08:14:32.693485 19100 net.cpp:150] Setting up relu1_2
I1007 08:14:32.693496 19100 net.cpp:157] Top shape: 2 64 448 448 (25690112)
I1007 08:14:32.693500 19100 net.cpp:165] Memory required for data: 417051180
I1007 08:14:32.693502 19100 layer_factory.hpp:76] Creating layer pool1
I1007 08:14:32.693511 19100 net.cpp:106] Creating Layer pool1
I1007 08:14:32.693514 19100 net.cpp:454] pool1 <- conv1_2
I1007 08:14:32.693521 19100 net.cpp:411] pool1 -> pool1
I1007 08:14:32.693742 19100 net.cpp:150] Setting up pool1
I1007 08:14:32.693752 19100 net.cpp:157] Top shape: 2 64 224 224 (6422528)
I1007 08:14:32.693753 19100 net.cpp:165] Memory required for data: 442741292
I1007 08:14:32.693756 19100 layer_factory.hpp:76] Creating layer conv2_1
I1007 08:14:32.693764 19100 net.cpp:106] Creating Layer conv2_1
I1007 08:14:32.693768 19100 net.cpp:454] conv2_1 <- pool1
I1007 08:14:32.693774 19100 net.cpp:411] conv2_1 -> conv2_1
I1007 08:14:32.695050 19100 net.cpp:150] Setting up conv2_1
I1007 08:14:32.695066 19100 net.cpp:157] Top shape: 2 128 224 224 (12845056)
I1007 08:14:32.695070 19100 net.cpp:165] Memory required for data: 494121516
I1007 08:14:32.695089 19100 layer_factory.hpp:76] Creating layer relu2_1
I1007 08:14:32.695097 19100 net.cpp:106] Creating Layer relu2_1
I1007 08:14:32.695101 19100 net.cpp:454] relu2_1 <- conv2_1
I1007 08:14:32.695107 19100 net.cpp:397] relu2_1 -> conv2_1 (in-place)
I1007 08:14:32.695467 19100 net.cpp:150] Setting up relu2_1
I1007 08:14:32.695479 19100 net.cpp:157] Top shape: 2 128 224 224 (12845056)
I1007 08:14:32.695482 19100 net.cpp:165] Memory required for data: 545501740
I1007 08:14:32.695485 19100 layer_factory.hpp:76] Creating layer conv2_2
I1007 08:14:32.695494 19100 net.cpp:106] Creating Layer conv2_2
I1007 08:14:32.695497 19100 net.cpp:454] conv2_2 <- conv2_1
I1007 08:14:32.695505 19100 net.cpp:411] conv2_2 -> conv2_2
I1007 08:14:32.697190 19100 net.cpp:150] Setting up conv2_2
I1007 08:14:32.697203 19100 net.cpp:157] Top shape: 2 128 224 224 (12845056)
I1007 08:14:32.697218 19100 net.cpp:165] Memory required for data: 596881964
I1007 08:14:32.697224 19100 layer_factory.hpp:76] Creating layer relu2_2
I1007 08:14:32.697232 19100 net.cpp:106] Creating Layer relu2_2
I1007 08:14:32.697234 19100 net.cpp:454] relu2_2 <- conv2_2
I1007 08:14:32.697239 19100 net.cpp:397] relu2_2 -> conv2_2 (in-place)
I1007 08:14:32.697669 19100 net.cpp:150] Setting up relu2_2
I1007 08:14:32.697692 19100 net.cpp:157] Top shape: 2 128 224 224 (12845056)
I1007 08:14:32.697695 19100 net.cpp:165] Memory required for data: 648262188
I1007 08:14:32.697711 19100 layer_factory.hpp:76] Creating layer pool2
I1007 08:14:32.697729 19100 net.cpp:106] Creating Layer pool2
I1007 08:14:32.697732 19100 net.cpp:454] pool2 <- conv2_2
I1007 08:14:32.697737 19100 net.cpp:411] pool2 -> pool2
I1007 08:14:32.697962 19100 net.cpp:150] Setting up pool2
I1007 08:14:32.697973 19100 net.cpp:157] Top shape: 2 128 112 112 (3211264)
I1007 08:14:32.697978 19100 net.cpp:165] Memory required for data: 661107244
I1007 08:14:32.697980 19100 layer_factory.hpp:76] Creating layer conv3_1
I1007 08:14:32.697986 19100 net.cpp:106] Creating Layer conv3_1
I1007 08:14:32.697989 19100 net.cpp:454] conv3_1 <- pool2
I1007 08:14:32.697995 19100 net.cpp:411] conv3_1 -> conv3_1
I1007 08:14:32.699955 19100 net.cpp:150] Setting up conv3_1
I1007 08:14:32.699968 19100 net.cpp:157] Top shape: 2 256 112 112 (6422528)
I1007 08:14:32.699983 19100 net.cpp:165] Memory required for data: 686797356
I1007 08:14:32.699992 19100 layer_factory.hpp:76] Creating layer relu3_1
I1007 08:14:32.700000 19100 net.cpp:106] Creating Layer relu3_1
I1007 08:14:32.700002 19100 net.cpp:454] relu3_1 <- conv3_1
I1007 08:14:32.700006 19100 net.cpp:397] relu3_1 -> conv3_1 (in-place)
I1007 08:14:32.700397 19100 net.cpp:150] Setting up relu3_1
I1007 08:14:32.700408 19100 net.cpp:157] Top shape: 2 256 112 112 (6422528)
I1007 08:14:32.700412 19100 net.cpp:165] Memory required for data: 712487468
I1007 08:14:32.700414 19100 layer_factory.hpp:76] Creating layer conv3_2
I1007 08:14:32.700424 19100 net.cpp:106] Creating Layer conv3_2
I1007 08:14:32.700428 19100 net.cpp:454] conv3_2 <- conv3_1
I1007 08:14:32.700433 19100 net.cpp:411] conv3_2 -> conv3_2
I1007 08:14:32.703729 19100 net.cpp:150] Setting up conv3_2
I1007 08:14:32.703745 19100 net.cpp:157] Top shape: 2 256 112 112 (6422528)
I1007 08:14:32.703760 19100 net.cpp:165] Memory required for data: 738177580
I1007 08:14:32.703766 19100 layer_factory.hpp:76] Creating layer relu3_2
I1007 08:14:32.703771 19100 net.cpp:106] Creating Layer relu3_2
I1007 08:14:32.703774 19100 net.cpp:454] relu3_2 <- conv3_2
I1007 08:14:32.703779 19100 net.cpp:397] relu3_2 -> conv3_2 (in-place)
I1007 08:14:32.704138 19100 net.cpp:150] Setting up relu3_2
I1007 08:14:32.704149 19100 net.cpp:157] Top shape: 2 256 112 112 (6422528)
I1007 08:14:32.704151 19100 net.cpp:165] Memory required for data: 763867692
I1007 08:14:32.704154 19100 layer_factory.hpp:76] Creating layer conv3_3
I1007 08:14:32.704161 19100 net.cpp:106] Creating Layer conv3_3
I1007 08:14:32.704166 19100 net.cpp:454] conv3_3 <- conv3_2
I1007 08:14:32.704171 19100 net.cpp:411] conv3_3 -> conv3_3
I1007 08:14:32.706697 19100 net.cpp:150] Setting up conv3_3
I1007 08:14:32.706710 19100 net.cpp:157] Top shape: 2 256 112 112 (6422528)
I1007 08:14:32.706724 19100 net.cpp:165] Memory required for data: 789557804
I1007 08:14:32.706730 19100 layer_factory.hpp:76] Creating layer relu3_3
I1007 08:14:32.706738 19100 net.cpp:106] Creating Layer relu3_3
I1007 08:14:32.706742 19100 net.cpp:454] relu3_3 <- conv3_3
I1007 08:14:32.706745 19100 net.cpp:397] relu3_3 -> conv3_3 (in-place)
I1007 08:14:32.707180 19100 net.cpp:150] Setting up relu3_3
I1007 08:14:32.707206 19100 net.cpp:157] Top shape: 2 256 112 112 (6422528)
I1007 08:14:32.707209 19100 net.cpp:165] Memory required for data: 815247916
I1007 08:14:32.707212 19100 layer_factory.hpp:76] Creating layer pool3
I1007 08:14:32.707231 19100 net.cpp:106] Creating Layer pool3
I1007 08:14:32.707233 19100 net.cpp:454] pool3 <- conv3_3
I1007 08:14:32.707257 19100 net.cpp:411] pool3 -> pool3
I1007 08:14:32.707691 19100 net.cpp:150] Setting up pool3
I1007 08:14:32.707715 19100 net.cpp:157] Top shape: 2 256 56 56 (1605632)
I1007 08:14:32.707729 19100 net.cpp:165] Memory required for data: 821670444
I1007 08:14:32.707732 19100 layer_factory.hpp:76] Creating layer conv4_1
I1007 08:14:32.707739 19100 net.cpp:106] Creating Layer conv4_1
I1007 08:14:32.707743 19100 net.cpp:454] conv4_1 <- pool3
I1007 08:14:32.707749 19100 net.cpp:411] conv4_1 -> conv4_1
I1007 08:14:32.711464 19100 net.cpp:150] Setting up conv4_1
I1007 08:14:32.711477 19100 net.cpp:157] Top shape: 2 512 56 56 (3211264)
I1007 08:14:32.711493 19100 net.cpp:165] Memory required for data: 834515500
I1007 08:14:32.711498 19100 layer_factory.hpp:76] Creating layer relu4_1
I1007 08:14:32.711505 19100 net.cpp:106] Creating Layer relu4_1
I1007 08:14:32.711508 19100 net.cpp:454] relu4_1 <- conv4_1
I1007 08:14:32.711513 19100 net.cpp:397] relu4_1 -> conv4_1 (in-place)
I1007 08:14:32.711724 19100 net.cpp:150] Setting up relu4_1
I1007 08:14:32.711733 19100 net.cpp:157] Top shape: 2 512 56 56 (3211264)
I1007 08:14:32.711736 19100 net.cpp:165] Memory required for data: 847360556
I1007 08:14:32.711740 19100 layer_factory.hpp:76] Creating layer conv4_2
I1007 08:14:32.711747 19100 net.cpp:106] Creating Layer conv4_2
I1007 08:14:32.711751 19100 net.cpp:454] conv4_2 <- conv4_1
I1007 08:14:32.711755 19100 net.cpp:411] conv4_2 -> conv4_2
I1007 08:14:32.718046 19100 net.cpp:150] Setting up conv4_2
I1007 08:14:32.718078 19100 net.cpp:157] Top shape: 2 512 56 56 (3211264)
I1007 08:14:32.718081 19100 net.cpp:165] Memory required for data: 860205612
I1007 08:14:32.718096 19100 layer_factory.hpp:76] Creating layer relu4_2
I1007 08:14:32.718103 19100 net.cpp:106] Creating Layer relu4_2
I1007 08:14:32.718107 19100 net.cpp:454] relu4_2 <- conv4_2
I1007 08:14:32.718125 19100 net.cpp:397] relu4_2 -> conv4_2 (in-place)
I1007 08:14:32.718494 19100 net.cpp:150] Setting up relu4_2
I1007 08:14:32.718507 19100 net.cpp:157] Top shape: 2 512 56 56 (3211264)
I1007 08:14:32.718509 19100 net.cpp:165] Memory required for data: 873050668
I1007 08:14:32.718513 19100 layer_factory.hpp:76] Creating layer conv4_3
I1007 08:14:32.718521 19100 net.cpp:106] Creating Layer conv4_3
I1007 08:14:32.718525 19100 net.cpp:454] conv4_3 <- conv4_2
I1007 08:14:32.718530 19100 net.cpp:411] conv4_3 -> conv4_3
I1007 08:14:32.724411 19100 net.cpp:150] Setting up conv4_3
I1007 08:14:32.724439 19100 net.cpp:157] Top shape: 2 512 56 56 (3211264)
I1007 08:14:32.724442 19100 net.cpp:165] Memory required for data: 885895724
I1007 08:14:32.724448 19100 layer_factory.hpp:76] Creating layer relu4_3
I1007 08:14:32.724454 19100 net.cpp:106] Creating Layer relu4_3
I1007 08:14:32.724457 19100 net.cpp:454] relu4_3 <- conv4_3
I1007 08:14:32.724462 19100 net.cpp:397] relu4_3 -> conv4_3 (in-place)
I1007 08:14:32.724848 19100 net.cpp:150] Setting up relu4_3
I1007 08:14:32.724860 19100 net.cpp:157] Top shape: 2 512 56 56 (3211264)
I1007 08:14:32.724864 19100 net.cpp:165] Memory required for data: 898740780
I1007 08:14:32.724866 19100 layer_factory.hpp:76] Creating layer conv4_3_relu4_3_0_split
I1007 08:14:32.724872 19100 net.cpp:106] Creating Layer conv4_3_relu4_3_0_split
I1007 08:14:32.724875 19100 net.cpp:454] conv4_3_relu4_3_0_split <- conv4_3
I1007 08:14:32.724880 19100 net.cpp:411] conv4_3_relu4_3_0_split -> conv4_3_relu4_3_0_split_0
I1007 08:14:32.724889 19100 net.cpp:411] conv4_3_relu4_3_0_split -> conv4_3_relu4_3_0_split_1
I1007 08:14:32.724895 19100 net.cpp:411] conv4_3_relu4_3_0_split -> conv4_3_relu4_3_0_split_2
I1007 08:14:32.724964 19100 net.cpp:150] Setting up conv4_3_relu4_3_0_split
I1007 08:14:32.724972 19100 net.cpp:157] Top shape: 2 512 56 56 (3211264)
I1007 08:14:32.724977 19100 net.cpp:157] Top shape: 2 512 56 56 (3211264)
I1007 08:14:32.724979 19100 net.cpp:157] Top shape: 2 512 56 56 (3211264)
I1007 08:14:32.724982 19100 net.cpp:165] Memory required for data: 937275948
I1007 08:14:32.724984 19100 layer_factory.hpp:76] Creating layer loss1_conv1
I1007 08:14:32.724999 19100 net.cpp:106] Creating Layer loss1_conv1
I1007 08:14:32.725003 19100 net.cpp:454] loss1_conv1 <- conv4_3_relu4_3_0_split_0
I1007 08:14:32.725009 19100 net.cpp:411] loss1_conv1 -> loss1_conv1
I1007 08:14:32.797595 19100 net.cpp:150] Setting up loss1_conv1
I1007 08:14:32.797624 19100 net.cpp:157] Top shape: 2 512 56 56 (3211264)
I1007 08:14:32.797627 19100 net.cpp:165] Memory required for data: 950121004
I1007 08:14:32.797633 19100 layer_factory.hpp:76] Creating layer loss_relu1
I1007 08:14:32.797642 19100 net.cpp:106] Creating Layer loss_relu1
I1007 08:14:32.797646 19100 net.cpp:454] loss_relu1 <- loss1_conv1
I1007 08:14:32.797650 19100 net.cpp:397] loss_relu1 -> loss1_conv1 (in-place)
I1007 08:14:32.797871 19100 net.cpp:150] Setting up loss_relu1
I1007 08:14:32.797880 19100 net.cpp:157] Top shape: 2 512 56 56 (3211264)
I1007 08:14:32.797883 19100 net.cpp:165] Memory required for data: 962966060
I1007 08:14:32.797886 19100 layer_factory.hpp:76] Creating layer loss1_conv1_loss_relu1_0_split
I1007 08:14:32.797891 19100 net.cpp:106] Creating Layer loss1_conv1_loss_relu1_0_split
I1007 08:14:32.797895 19100 net.cpp:454] loss1_conv1_loss_relu1_0_split <- loss1_conv1
I1007 08:14:32.797901 19100 net.cpp:411] loss1_conv1_loss_relu1_0_split -> loss1_conv1_loss_relu1_0_split_0
I1007 08:14:32.797907 19100 net.cpp:411] loss1_conv1_loss_relu1_0_split -> loss1_conv1_loss_relu1_0_split_1
I1007 08:14:32.797960 19100 net.cpp:150] Setting up loss1_conv1_loss_relu1_0_split
I1007 08:14:32.797967 19100 net.cpp:157] Top shape: 2 512 56 56 (3211264)
I1007 08:14:32.797971 19100 net.cpp:157] Top shape: 2 512 56 56 (3211264)
I1007 08:14:32.797973 19100 net.cpp:165] Memory required for data: 988656172
I1007 08:14:32.797976 19100 layer_factory.hpp:76] Creating layer LFCN_1_3x5
I1007 08:14:32.797986 19100 net.cpp:106] Creating Layer LFCN_1_3x5
I1007 08:14:32.797989 19100 net.cpp:454] LFCN_1_3x5 <- loss1_conv1_loss_relu1_0_split_0
I1007 08:14:32.797994 19100 net.cpp:411] LFCN_1_3x5 -> LFCN_1_3x5
I1007 08:14:32.800709 19100 net.cpp:150] Setting up LFCN_1_3x5
I1007 08:14:32.800721 19100 net.cpp:157] Top shape: 2 6 56 56 (37632)
I1007 08:14:32.800736 19100 net.cpp:165] Memory required for data: 988806700
I1007 08:14:32.800742 19100 layer_factory.hpp:76] Creating layer LFCN_1_3x5_LFCN_1_3x5_0_split
I1007 08:14:32.800748 19100 net.cpp:106] Creating Layer LFCN_1_3x5_LFCN_1_3x5_0_split
I1007 08:14:32.800751 19100 net.cpp:454] LFCN_1_3x5_LFCN_1_3x5_0_split <- LFCN_1_3x5
I1007 08:14:32.800758 19100 net.cpp:411] LFCN_1_3x5_LFCN_1_3x5_0_split -> LFCN_1_3x5_LFCN_1_3x5_0_split_0
I1007 08:14:32.800765 19100 net.cpp:411] LFCN_1_3x5_LFCN_1_3x5_0_split -> LFCN_1_3x5_LFCN_1_3x5_0_split_1
I1007 08:14:32.800770 19100 net.cpp:411] LFCN_1_3x5_LFCN_1_3x5_0_split -> LFCN_1_3x5_LFCN_1_3x5_0_split_2
I1007 08:14:32.800837 19100 net.cpp:150] Setting up LFCN_1_3x5_LFCN_1_3x5_0_split
I1007 08:14:32.800844 19100 net.cpp:157] Top shape: 2 6 56 56 (37632)
I1007 08:14:32.800848 19100 net.cpp:157] Top shape: 2 6 56 56 (37632)
I1007 08:14:32.800851 19100 net.cpp:157] Top shape: 2 6 56 56 (37632)
I1007 08:14:32.800853 19100 net.cpp:165] Memory required for data: 989258284
I1007 08:14:32.800856 19100 layer_factory.hpp:76] Creating layer detection_loss_1_3x5
I1007 08:14:32.800864 19100 net.cpp:106] Creating Layer detection_loss_1_3x5
I1007 08:14:32.800868 19100 net.cpp:454] detection_loss_1_3x5 <- LFCN_1_3x5_LFCN_1_3x5_0_split_0
I1007 08:14:32.800873 19100 net.cpp:454] detection_loss_1_3x5 <- label_1_3x5_data_1_split_0
I1007 08:14:32.800879 19100 net.cpp:411] detection_loss_1_3x5 -> loss_1_3x5
I1007 08:14:32.800886 19100 layer_factory.hpp:76] Creating layer detection_loss_1_3x5
I1007 08:14:32.801482 19100 net.cpp:150] Setting up detection_loss_1_3x5
I1007 08:14:32.801496 19100 net.cpp:157] Top shape: 1 1 1 2 (2)
I1007 08:14:32.801498 19100 net.cpp:160]     with loss weight 0.9
I1007 08:14:32.801509 19100 net.cpp:165] Memory required for data: 989258292
I1007 08:14:32.801512 19100 layer_factory.hpp:76] Creating layer detection_accuracy_1_3x5
I1007 08:14:32.801519 19100 net.cpp:106] Creating Layer detection_accuracy_1_3x5
I1007 08:14:32.801522 19100 net.cpp:454] detection_accuracy_1_3x5 <- LFCN_1_3x5_LFCN_1_3x5_0_split_1
I1007 08:14:32.801527 19100 net.cpp:454] detection_accuracy_1_3x5 <- label_1_3x5_data_1_split_1
I1007 08:14:32.801533 19100 net.cpp:411] detection_accuracy_1_3x5 -> accuracy_1_3x5
I1007 08:14:32.801540 19100 net.cpp:411] detection_accuracy_1_3x5 -> boxiou_1_3x5
I1007 08:14:32.801590 19100 net.cpp:150] Setting up detection_accuracy_1_3x5
I1007 08:14:32.801599 19100 net.cpp:157] Top shape: 1 1 1 2 (2)
I1007 08:14:32.801602 19100 net.cpp:157] Top shape: 1 1 1 1 (1)
I1007 08:14:32.801604 19100 net.cpp:165] Memory required for data: 989258304
I1007 08:14:32.801607 19100 layer_factory.hpp:76] Creating layer LFCN_1_5x7
I1007 08:14:32.801615 19100 net.cpp:106] Creating Layer LFCN_1_5x7
I1007 08:14:32.801618 19100 net.cpp:454] LFCN_1_5x7 <- loss1_conv1_loss_relu1_0_split_1
I1007 08:14:32.801623 19100 net.cpp:411] LFCN_1_5x7 -> LFCN_1_5x7
I1007 08:14:32.806164 19100 net.cpp:150] Setting up LFCN_1_5x7
I1007 08:14:32.806176 19100 net.cpp:157] Top shape: 2 6 56 56 (37632)
I1007 08:14:32.806180 19100 net.cpp:165] Memory required for data: 989408832
I1007 08:14:32.806185 19100 layer_factory.hpp:76] Creating layer LFCN_1_5x7_LFCN_1_5x7_0_split
I1007 08:14:32.806205 19100 net.cpp:106] Creating Layer LFCN_1_5x7_LFCN_1_5x7_0_split
I1007 08:14:32.806208 19100 net.cpp:454] LFCN_1_5x7_LFCN_1_5x7_0_split <- LFCN_1_5x7
I1007 08:14:32.806216 19100 net.cpp:411] LFCN_1_5x7_LFCN_1_5x7_0_split -> LFCN_1_5x7_LFCN_1_5x7_0_split_0
I1007 08:14:32.806222 19100 net.cpp:411] LFCN_1_5x7_LFCN_1_5x7_0_split -> LFCN_1_5x7_LFCN_1_5x7_0_split_1
I1007 08:14:32.806227 19100 net.cpp:411] LFCN_1_5x7_LFCN_1_5x7_0_split -> LFCN_1_5x7_LFCN_1_5x7_0_split_2
I1007 08:14:32.806293 19100 net.cpp:150] Setting up LFCN_1_5x7_LFCN_1_5x7_0_split
I1007 08:14:32.806300 19100 net.cpp:157] Top shape: 2 6 56 56 (37632)
I1007 08:14:32.806303 19100 net.cpp:157] Top shape: 2 6 56 56 (37632)
I1007 08:14:32.806308 19100 net.cpp:157] Top shape: 2 6 56 56 (37632)
I1007 08:14:32.806309 19100 net.cpp:165] Memory required for data: 989860416
I1007 08:14:32.806313 19100 layer_factory.hpp:76] Creating layer detection_loss_1_5x7
I1007 08:14:32.806319 19100 net.cpp:106] Creating Layer detection_loss_1_5x7
I1007 08:14:32.806323 19100 net.cpp:454] detection_loss_1_5x7 <- LFCN_1_5x7_LFCN_1_5x7_0_split_0
I1007 08:14:32.806327 19100 net.cpp:454] detection_loss_1_5x7 <- label_1_5x7_data_2_split_0
I1007 08:14:32.806334 19100 net.cpp:411] detection_loss_1_5x7 -> loss_1_5x7
I1007 08:14:32.806341 19100 layer_factory.hpp:76] Creating layer detection_loss_1_5x7
I1007 08:14:32.806955 19100 net.cpp:150] Setting up detection_loss_1_5x7
I1007 08:14:32.806967 19100 net.cpp:157] Top shape: 1 1 1 2 (2)
I1007 08:14:32.806970 19100 net.cpp:160]     with loss weight 0.9
I1007 08:14:32.806977 19100 net.cpp:165] Memory required for data: 989860424
I1007 08:14:32.806979 19100 layer_factory.hpp:76] Creating layer detection_accuracy_1_5x7
I1007 08:14:32.806985 19100 net.cpp:106] Creating Layer detection_accuracy_1_5x7
I1007 08:14:32.806989 19100 net.cpp:454] detection_accuracy_1_5x7 <- LFCN_1_5x7_LFCN_1_5x7_0_split_1
I1007 08:14:32.806994 19100 net.cpp:454] detection_accuracy_1_5x7 <- label_1_5x7_data_2_split_1
I1007 08:14:32.807000 19100 net.cpp:411] detection_accuracy_1_5x7 -> accuracy_1_5x7
I1007 08:14:32.807008 19100 net.cpp:411] detection_accuracy_1_5x7 -> boxiou_1_5x7
I1007 08:14:32.807059 19100 net.cpp:150] Setting up detection_accuracy_1_5x7
I1007 08:14:32.807066 19100 net.cpp:157] Top shape: 1 1 1 2 (2)
I1007 08:14:32.807070 19100 net.cpp:157] Top shape: 1 1 1 1 (1)
I1007 08:14:32.807072 19100 net.cpp:165] Memory required for data: 989860436
I1007 08:14:32.807075 19100 layer_factory.hpp:76] Creating layer pool4
I1007 08:14:32.807080 19100 net.cpp:106] Creating Layer pool4
I1007 08:14:32.807085 19100 net.cpp:454] pool4 <- conv4_3_relu4_3_0_split_1
I1007 08:14:32.807093 19100 net.cpp:411] pool4 -> pool4
I1007 08:14:32.807524 19100 net.cpp:150] Setting up pool4
I1007 08:14:32.807535 19100 net.cpp:157] Top shape: 2 512 28 28 (802816)
I1007 08:14:32.807538 19100 net.cpp:165] Memory required for data: 993071700
I1007 08:14:32.807541 19100 layer_factory.hpp:76] Creating layer conv5_1
I1007 08:14:32.807561 19100 net.cpp:106] Creating Layer conv5_1
I1007 08:14:32.807564 19100 net.cpp:454] conv5_1 <- pool4
I1007 08:14:32.807569 19100 net.cpp:411] conv5_1 -> conv5_1
I1007 08:14:32.813500 19100 net.cpp:150] Setting up conv5_1
I1007 08:14:32.813514 19100 net.cpp:157] Top shape: 2 512 28 28 (802816)
I1007 08:14:32.813518 19100 net.cpp:165] Memory required for data: 996282964
I1007 08:14:32.813524 19100 layer_factory.hpp:76] Creating layer relu5_1
I1007 08:14:32.813544 19100 net.cpp:106] Creating Layer relu5_1
I1007 08:14:32.813546 19100 net.cpp:454] relu5_1 <- conv5_1
I1007 08:14:32.813554 19100 net.cpp:397] relu5_1 -> conv5_1 (in-place)
I1007 08:14:32.813936 19100 net.cpp:150] Setting up relu5_1
I1007 08:14:32.813959 19100 net.cpp:157] Top shape: 2 512 28 28 (802816)
I1007 08:14:32.813972 19100 net.cpp:165] Memory required for data: 999494228
I1007 08:14:32.813977 19100 layer_factory.hpp:76] Creating layer conv5_2
I1007 08:14:32.813983 19100 net.cpp:106] Creating Layer conv5_2
I1007 08:14:32.813987 19100 net.cpp:454] conv5_2 <- conv5_1
I1007 08:14:32.814003 19100 net.cpp:411] conv5_2 -> conv5_2
I1007 08:14:32.820183 19100 net.cpp:150] Setting up conv5_2
I1007 08:14:32.820197 19100 net.cpp:157] Top shape: 2 512 28 28 (802816)
I1007 08:14:32.820212 19100 net.cpp:165] Memory required for data: 1002705492
I1007 08:14:32.820217 19100 layer_factory.hpp:76] Creating layer relu5_2
I1007 08:14:32.820224 19100 net.cpp:106] Creating Layer relu5_2
I1007 08:14:32.820227 19100 net.cpp:454] relu5_2 <- conv5_2
I1007 08:14:32.820231 19100 net.cpp:397] relu5_2 -> conv5_2 (in-place)
I1007 08:14:32.820456 19100 net.cpp:150] Setting up relu5_2
I1007 08:14:32.820466 19100 net.cpp:157] Top shape: 2 512 28 28 (802816)
I1007 08:14:32.820468 19100 net.cpp:165] Memory required for data: 1005916756
I1007 08:14:32.820472 19100 layer_factory.hpp:76] Creating layer conv5_3
I1007 08:14:32.820479 19100 net.cpp:106] Creating Layer conv5_3
I1007 08:14:32.820482 19100 net.cpp:454] conv5_3 <- conv5_2
I1007 08:14:32.820487 19100 net.cpp:411] conv5_3 -> conv5_3
I1007 08:14:32.826522 19100 net.cpp:150] Setting up conv5_3
I1007 08:14:32.826537 19100 net.cpp:157] Top shape: 2 512 28 28 (802816)
I1007 08:14:32.826552 19100 net.cpp:165] Memory required for data: 1009128020
I1007 08:14:32.826558 19100 layer_factory.hpp:76] Creating layer relu5_3
I1007 08:14:32.826565 19100 net.cpp:106] Creating Layer relu5_3
I1007 08:14:32.826567 19100 net.cpp:454] relu5_3 <- conv5_3
I1007 08:14:32.826573 19100 net.cpp:397] relu5_3 -> conv5_3 (in-place)
I1007 08:14:32.826973 19100 net.cpp:150] Setting up relu5_3
I1007 08:14:32.826997 19100 net.cpp:157] Top shape: 2 512 28 28 (802816)
I1007 08:14:32.826999 19100 net.cpp:165] Memory required for data: 1012339284
I1007 08:14:32.827003 19100 layer_factory.hpp:76] Creating layer conv5_3_relu5_3_0_split
I1007 08:14:32.827020 19100 net.cpp:106] Creating Layer conv5_3_relu5_3_0_split
I1007 08:14:32.827023 19100 net.cpp:454] conv5_3_relu5_3_0_split <- conv5_3
I1007 08:14:32.827030 19100 net.cpp:411] conv5_3_relu5_3_0_split -> conv5_3_relu5_3_0_split_0
I1007 08:14:32.827038 19100 net.cpp:411] conv5_3_relu5_3_0_split -> conv5_3_relu5_3_0_split_1
I1007 08:14:32.827042 19100 net.cpp:411] conv5_3_relu5_3_0_split -> conv5_3_relu5_3_0_split_2
I1007 08:14:32.827114 19100 net.cpp:150] Setting up conv5_3_relu5_3_0_split
I1007 08:14:32.827121 19100 net.cpp:157] Top shape: 2 512 28 28 (802816)
I1007 08:14:32.827126 19100 net.cpp:157] Top shape: 2 512 28 28 (802816)
I1007 08:14:32.827128 19100 net.cpp:157] Top shape: 2 512 28 28 (802816)
I1007 08:14:32.827131 19100 net.cpp:165] Memory required for data: 1021973076
I1007 08:14:32.827133 19100 layer_factory.hpp:76] Creating layer LFCN_2_3x5
I1007 08:14:32.827142 19100 net.cpp:106] Creating Layer LFCN_2_3x5
I1007 08:14:32.827145 19100 net.cpp:454] LFCN_2_3x5 <- conv5_3_relu5_3_0_split_0
I1007 08:14:32.827152 19100 net.cpp:411] LFCN_2_3x5 -> LFCN_2_3x5
I1007 08:14:32.829607 19100 net.cpp:150] Setting up LFCN_2_3x5
I1007 08:14:32.829619 19100 net.cpp:157] Top shape: 2 6 28 28 (9408)
I1007 08:14:32.829622 19100 net.cpp:165] Memory required for data: 1022010708
I1007 08:14:32.829648 19100 layer_factory.hpp:76] Creating layer LFCN_2_3x5_LFCN_2_3x5_0_split
I1007 08:14:32.829656 19100 net.cpp:106] Creating Layer LFCN_2_3x5_LFCN_2_3x5_0_split
I1007 08:14:32.829660 19100 net.cpp:454] LFCN_2_3x5_LFCN_2_3x5_0_split <- LFCN_2_3x5
I1007 08:14:32.829665 19100 net.cpp:411] LFCN_2_3x5_LFCN_2_3x5_0_split -> LFCN_2_3x5_LFCN_2_3x5_0_split_0
I1007 08:14:32.829691 19100 net.cpp:411] LFCN_2_3x5_LFCN_2_3x5_0_split -> LFCN_2_3x5_LFCN_2_3x5_0_split_1
I1007 08:14:32.829699 19100 net.cpp:411] LFCN_2_3x5_LFCN_2_3x5_0_split -> LFCN_2_3x5_LFCN_2_3x5_0_split_2
I1007 08:14:32.829767 19100 net.cpp:150] Setting up LFCN_2_3x5_LFCN_2_3x5_0_split
I1007 08:14:32.829776 19100 net.cpp:157] Top shape: 2 6 28 28 (9408)
I1007 08:14:32.829778 19100 net.cpp:157] Top shape: 2 6 28 28 (9408)
I1007 08:14:32.829782 19100 net.cpp:157] Top shape: 2 6 28 28 (9408)
I1007 08:14:32.829784 19100 net.cpp:165] Memory required for data: 1022123604
I1007 08:14:32.829787 19100 layer_factory.hpp:76] Creating layer detection_loss_2_3x5
I1007 08:14:32.829794 19100 net.cpp:106] Creating Layer detection_loss_2_3x5
I1007 08:14:32.829798 19100 net.cpp:454] detection_loss_2_3x5 <- LFCN_2_3x5_LFCN_2_3x5_0_split_0
I1007 08:14:32.829802 19100 net.cpp:454] detection_loss_2_3x5 <- label_2_3x5_data_3_split_0
I1007 08:14:32.829807 19100 net.cpp:411] detection_loss_2_3x5 -> loss_2_3x5
I1007 08:14:32.829815 19100 layer_factory.hpp:76] Creating layer detection_loss_2_3x5
I1007 08:14:32.830435 19100 net.cpp:150] Setting up detection_loss_2_3x5
I1007 08:14:32.830446 19100 net.cpp:157] Top shape: 1 1 1 2 (2)
I1007 08:14:32.830448 19100 net.cpp:160]     with loss weight 1
I1007 08:14:32.830473 19100 net.cpp:165] Memory required for data: 1022123612
I1007 08:14:32.830476 19100 layer_factory.hpp:76] Creating layer detection_accuracy_2_3x5
I1007 08:14:32.830483 19100 net.cpp:106] Creating Layer detection_accuracy_2_3x5
I1007 08:14:32.830487 19100 net.cpp:454] detection_accuracy_2_3x5 <- LFCN_2_3x5_LFCN_2_3x5_0_split_1
I1007 08:14:32.830492 19100 net.cpp:454] detection_accuracy_2_3x5 <- label_2_3x5_data_3_split_1
I1007 08:14:32.830498 19100 net.cpp:411] detection_accuracy_2_3x5 -> accuracy_2_3x5
I1007 08:14:32.830505 19100 net.cpp:411] detection_accuracy_2_3x5 -> boxiou_2_3x5
I1007 08:14:32.830567 19100 net.cpp:150] Setting up detection_accuracy_2_3x5
I1007 08:14:32.830574 19100 net.cpp:157] Top shape: 1 1 1 2 (2)
I1007 08:14:32.830579 19100 net.cpp:157] Top shape: 1 1 1 1 (1)
I1007 08:14:32.830580 19100 net.cpp:165] Memory required for data: 1022123624
I1007 08:14:32.830584 19100 layer_factory.hpp:76] Creating layer LFCN_2_5x7
I1007 08:14:32.830595 19100 net.cpp:106] Creating Layer LFCN_2_5x7
I1007 08:14:32.830597 19100 net.cpp:454] LFCN_2_5x7 <- conv5_3_relu5_3_0_split_1
I1007 08:14:32.830603 19100 net.cpp:411] LFCN_2_5x7 -> LFCN_2_5x7
I1007 08:14:32.835691 19100 net.cpp:150] Setting up LFCN_2_5x7
I1007 08:14:32.835705 19100 net.cpp:157] Top shape: 2 6 28 28 (9408)
I1007 08:14:32.835707 19100 net.cpp:165] Memory required for data: 1022161256
I1007 08:14:32.835713 19100 layer_factory.hpp:76] Creating layer LFCN_2_5x7_LFCN_2_5x7_0_split
I1007 08:14:32.835732 19100 net.cpp:106] Creating Layer LFCN_2_5x7_LFCN_2_5x7_0_split
I1007 08:14:32.835736 19100 net.cpp:454] LFCN_2_5x7_LFCN_2_5x7_0_split <- LFCN_2_5x7
I1007 08:14:32.835741 19100 net.cpp:411] LFCN_2_5x7_LFCN_2_5x7_0_split -> LFCN_2_5x7_LFCN_2_5x7_0_split_0
I1007 08:14:32.835747 19100 net.cpp:411] LFCN_2_5x7_LFCN_2_5x7_0_split -> LFCN_2_5x7_LFCN_2_5x7_0_split_1
I1007 08:14:32.835754 19100 net.cpp:411] LFCN_2_5x7_LFCN_2_5x7_0_split -> LFCN_2_5x7_LFCN_2_5x7_0_split_2
I1007 08:14:32.835834 19100 net.cpp:150] Setting up LFCN_2_5x7_LFCN_2_5x7_0_split
I1007 08:14:32.835841 19100 net.cpp:157] Top shape: 2 6 28 28 (9408)
I1007 08:14:32.835845 19100 net.cpp:157] Top shape: 2 6 28 28 (9408)
I1007 08:14:32.835849 19100 net.cpp:157] Top shape: 2 6 28 28 (9408)
I1007 08:14:32.835850 19100 net.cpp:165] Memory required for data: 1022274152
I1007 08:14:32.835853 19100 layer_factory.hpp:76] Creating layer detection_loss_2_5x7
I1007 08:14:32.835860 19100 net.cpp:106] Creating Layer detection_loss_2_5x7
I1007 08:14:32.835863 19100 net.cpp:454] detection_loss_2_5x7 <- LFCN_2_5x7_LFCN_2_5x7_0_split_0
I1007 08:14:32.835868 19100 net.cpp:454] detection_loss_2_5x7 <- label_2_5x7_data_4_split_0
I1007 08:14:32.835873 19100 net.cpp:411] detection_loss_2_5x7 -> loss_2_5x7
I1007 08:14:32.835880 19100 layer_factory.hpp:76] Creating layer detection_loss_2_5x7
I1007 08:14:32.836294 19100 net.cpp:150] Setting up detection_loss_2_5x7
I1007 08:14:32.836307 19100 net.cpp:157] Top shape: 1 1 1 2 (2)
I1007 08:14:32.836308 19100 net.cpp:160]     with loss weight 1
I1007 08:14:32.836314 19100 net.cpp:165] Memory required for data: 1022274160
I1007 08:14:32.836318 19100 layer_factory.hpp:76] Creating layer detection_accuracy_2_5x7
I1007 08:14:32.836323 19100 net.cpp:106] Creating Layer detection_accuracy_2_5x7
I1007 08:14:32.836326 19100 net.cpp:454] detection_accuracy_2_5x7 <- LFCN_2_5x7_LFCN_2_5x7_0_split_1
I1007 08:14:32.836343 19100 net.cpp:454] detection_accuracy_2_5x7 <- label_2_5x7_data_4_split_1
I1007 08:14:32.836347 19100 net.cpp:411] detection_accuracy_2_5x7 -> accuracy_2_5x7
I1007 08:14:32.836354 19100 net.cpp:411] detection_accuracy_2_5x7 -> boxiou_2_5x7
I1007 08:14:32.836416 19100 net.cpp:150] Setting up detection_accuracy_2_5x7
I1007 08:14:32.836423 19100 net.cpp:157] Top shape: 1 1 1 2 (2)
I1007 08:14:32.836426 19100 net.cpp:157] Top shape: 1 1 1 1 (1)
I1007 08:14:32.836428 19100 net.cpp:165] Memory required for data: 1022274172
I1007 08:14:32.836431 19100 layer_factory.hpp:76] Creating layer pool5
I1007 08:14:32.836437 19100 net.cpp:106] Creating Layer pool5
I1007 08:14:32.836441 19100 net.cpp:454] pool5 <- conv5_3_relu5_3_0_split_2
I1007 08:14:32.836447 19100 net.cpp:411] pool5 -> pool5
I1007 08:14:32.836889 19100 net.cpp:150] Setting up pool5
I1007 08:14:32.836899 19100 net.cpp:157] Top shape: 2 512 14 14 (200704)
I1007 08:14:32.836902 19100 net.cpp:165] Memory required for data: 1023076988
I1007 08:14:32.836905 19100 layer_factory.hpp:76] Creating layer conv6_1
I1007 08:14:32.836925 19100 net.cpp:106] Creating Layer conv6_1
I1007 08:14:32.836928 19100 net.cpp:454] conv6_1 <- pool5
I1007 08:14:32.836936 19100 net.cpp:411] conv6_1 -> conv6_1
I1007 08:14:32.911489 19100 net.cpp:150] Setting up conv6_1
I1007 08:14:32.911504 19100 net.cpp:157] Top shape: 2 512 14 14 (200704)
I1007 08:14:32.911520 19100 net.cpp:165] Memory required for data: 1023879804
I1007 08:14:32.911525 19100 layer_factory.hpp:76] Creating layer relu6_1
I1007 08:14:32.911532 19100 net.cpp:106] Creating Layer relu6_1
I1007 08:14:32.911536 19100 net.cpp:454] relu6_1 <- conv6_1
I1007 08:14:32.911541 19100 net.cpp:397] relu6_1 -> conv6_1 (in-place)
I1007 08:14:32.911756 19100 net.cpp:150] Setting up relu6_1
I1007 08:14:32.911767 19100 net.cpp:157] Top shape: 2 512 14 14 (200704)
I1007 08:14:32.911769 19100 net.cpp:165] Memory required for data: 1024682620
I1007 08:14:32.911772 19100 layer_factory.hpp:76] Creating layer conv6_1_relu6_1_0_split
I1007 08:14:32.911777 19100 net.cpp:106] Creating Layer conv6_1_relu6_1_0_split
I1007 08:14:32.911780 19100 net.cpp:454] conv6_1_relu6_1_0_split <- conv6_1
I1007 08:14:32.911785 19100 net.cpp:411] conv6_1_relu6_1_0_split -> conv6_1_relu6_1_0_split_0
I1007 08:14:32.911792 19100 net.cpp:411] conv6_1_relu6_1_0_split -> conv6_1_relu6_1_0_split_1
I1007 08:14:32.911798 19100 net.cpp:411] conv6_1_relu6_1_0_split -> conv6_1_relu6_1_0_split_2
I1007 08:14:32.911903 19100 net.cpp:150] Setting up conv6_1_relu6_1_0_split
I1007 08:14:32.911911 19100 net.cpp:157] Top shape: 2 512 14 14 (200704)
I1007 08:14:32.911916 19100 net.cpp:157] Top shape: 2 512 14 14 (200704)
I1007 08:14:32.911919 19100 net.cpp:157] Top shape: 2 512 14 14 (200704)
I1007 08:14:32.911922 19100 net.cpp:165] Memory required for data: 1027091068
I1007 08:14:32.911924 19100 layer_factory.hpp:76] Creating layer LFCN_3_3x5
I1007 08:14:32.911931 19100 net.cpp:106] Creating Layer LFCN_3_3x5
I1007 08:14:32.911934 19100 net.cpp:454] LFCN_3_3x5 <- conv6_1_relu6_1_0_split_0
I1007 08:14:32.911942 19100 net.cpp:411] LFCN_3_3x5 -> LFCN_3_3x5
I1007 08:14:32.915206 19100 net.cpp:150] Setting up LFCN_3_3x5
I1007 08:14:32.915232 19100 net.cpp:157] Top shape: 2 6 14 14 (2352)
I1007 08:14:32.915235 19100 net.cpp:165] Memory required for data: 1027100476
I1007 08:14:32.915241 19100 layer_factory.hpp:76] Creating layer LFCN_3_3x5_LFCN_3_3x5_0_split
I1007 08:14:32.915271 19100 net.cpp:106] Creating Layer LFCN_3_3x5_LFCN_3_3x5_0_split
I1007 08:14:32.915277 19100 net.cpp:454] LFCN_3_3x5_LFCN_3_3x5_0_split <- LFCN_3_3x5
I1007 08:14:32.915282 19100 net.cpp:411] LFCN_3_3x5_LFCN_3_3x5_0_split -> LFCN_3_3x5_LFCN_3_3x5_0_split_0
I1007 08:14:32.915289 19100 net.cpp:411] LFCN_3_3x5_LFCN_3_3x5_0_split -> LFCN_3_3x5_LFCN_3_3x5_0_split_1
I1007 08:14:32.915295 19100 net.cpp:411] LFCN_3_3x5_LFCN_3_3x5_0_split -> LFCN_3_3x5_LFCN_3_3x5_0_split_2
I1007 08:14:32.915369 19100 net.cpp:150] Setting up LFCN_3_3x5_LFCN_3_3x5_0_split
I1007 08:14:32.915377 19100 net.cpp:157] Top shape: 2 6 14 14 (2352)
I1007 08:14:32.915380 19100 net.cpp:157] Top shape: 2 6 14 14 (2352)
I1007 08:14:32.915385 19100 net.cpp:157] Top shape: 2 6 14 14 (2352)
I1007 08:14:32.915386 19100 net.cpp:165] Memory required for data: 1027128700
I1007 08:14:32.915390 19100 layer_factory.hpp:76] Creating layer detection_loss_3_3x5
I1007 08:14:32.915396 19100 net.cpp:106] Creating Layer detection_loss_3_3x5
I1007 08:14:32.915400 19100 net.cpp:454] detection_loss_3_3x5 <- LFCN_3_3x5_LFCN_3_3x5_0_split_0
I1007 08:14:32.915405 19100 net.cpp:454] detection_loss_3_3x5 <- label_3_3x5_data_5_split_0
I1007 08:14:32.915410 19100 net.cpp:411] detection_loss_3_3x5 -> loss_3_3x5
I1007 08:14:32.915416 19100 layer_factory.hpp:76] Creating layer detection_loss_3_3x5
I1007 08:14:32.915827 19100 net.cpp:150] Setting up detection_loss_3_3x5
I1007 08:14:32.915838 19100 net.cpp:157] Top shape: 1 1 1 2 (2)
I1007 08:14:32.915839 19100 net.cpp:160]     with loss weight 1
I1007 08:14:32.915846 19100 net.cpp:165] Memory required for data: 1027128708
I1007 08:14:32.915849 19100 layer_factory.hpp:76] Creating layer detection_accuracy_3_3x5
I1007 08:14:32.915856 19100 net.cpp:106] Creating Layer detection_accuracy_3_3x5
I1007 08:14:32.915859 19100 net.cpp:454] detection_accuracy_3_3x5 <- LFCN_3_3x5_LFCN_3_3x5_0_split_1
I1007 08:14:32.915864 19100 net.cpp:454] detection_accuracy_3_3x5 <- label_3_3x5_data_5_split_1
I1007 08:14:32.915870 19100 net.cpp:411] detection_accuracy_3_3x5 -> accuracy_3_3x5
I1007 08:14:32.915877 19100 net.cpp:411] detection_accuracy_3_3x5 -> boxiou_3_3x5
I1007 08:14:32.915927 19100 net.cpp:150] Setting up detection_accuracy_3_3x5
I1007 08:14:32.915935 19100 net.cpp:157] Top shape: 1 1 1 2 (2)
I1007 08:14:32.915938 19100 net.cpp:157] Top shape: 1 1 1 1 (1)
I1007 08:14:32.915941 19100 net.cpp:165] Memory required for data: 1027128720
I1007 08:14:32.915943 19100 layer_factory.hpp:76] Creating layer LFCN_3_5x7
I1007 08:14:32.915953 19100 net.cpp:106] Creating Layer LFCN_3_5x7
I1007 08:14:32.915956 19100 net.cpp:454] LFCN_3_5x7 <- conv6_1_relu6_1_0_split_1
I1007 08:14:32.915961 19100 net.cpp:411] LFCN_3_5x7 -> LFCN_3_5x7
I1007 08:14:32.920704 19100 net.cpp:150] Setting up LFCN_3_5x7
I1007 08:14:32.920718 19100 net.cpp:157] Top shape: 2 6 14 14 (2352)
I1007 08:14:32.920722 19100 net.cpp:165] Memory required for data: 1027138128
I1007 08:14:32.920727 19100 layer_factory.hpp:76] Creating layer LFCN_3_5x7_LFCN_3_5x7_0_split
I1007 08:14:32.920733 19100 net.cpp:106] Creating Layer LFCN_3_5x7_LFCN_3_5x7_0_split
I1007 08:14:32.920737 19100 net.cpp:454] LFCN_3_5x7_LFCN_3_5x7_0_split <- LFCN_3_5x7
I1007 08:14:32.920753 19100 net.cpp:411] LFCN_3_5x7_LFCN_3_5x7_0_split -> LFCN_3_5x7_LFCN_3_5x7_0_split_0
I1007 08:14:32.920763 19100 net.cpp:411] LFCN_3_5x7_LFCN_3_5x7_0_split -> LFCN_3_5x7_LFCN_3_5x7_0_split_1
I1007 08:14:32.920768 19100 net.cpp:411] LFCN_3_5x7_LFCN_3_5x7_0_split -> LFCN_3_5x7_LFCN_3_5x7_0_split_2
I1007 08:14:32.920837 19100 net.cpp:150] Setting up LFCN_3_5x7_LFCN_3_5x7_0_split
I1007 08:14:32.920845 19100 net.cpp:157] Top shape: 2 6 14 14 (2352)
I1007 08:14:32.920850 19100 net.cpp:157] Top shape: 2 6 14 14 (2352)
I1007 08:14:32.920852 19100 net.cpp:157] Top shape: 2 6 14 14 (2352)
I1007 08:14:32.920855 19100 net.cpp:165] Memory required for data: 1027166352
I1007 08:14:32.920857 19100 layer_factory.hpp:76] Creating layer detection_loss_3_5x7
I1007 08:14:32.920864 19100 net.cpp:106] Creating Layer detection_loss_3_5x7
I1007 08:14:32.920867 19100 net.cpp:454] detection_loss_3_5x7 <- LFCN_3_5x7_LFCN_3_5x7_0_split_0
I1007 08:14:32.920871 19100 net.cpp:454] detection_loss_3_5x7 <- label_3_5x7_data_6_split_0
I1007 08:14:32.920876 19100 net.cpp:411] detection_loss_3_5x7 -> loss_3_5x7
I1007 08:14:32.920884 19100 layer_factory.hpp:76] Creating layer detection_loss_3_5x7
I1007 08:14:32.921489 19100 net.cpp:150] Setting up detection_loss_3_5x7
I1007 08:14:32.921500 19100 net.cpp:157] Top shape: 1 1 1 2 (2)
I1007 08:14:32.921504 19100 net.cpp:160]     with loss weight 1
I1007 08:14:32.921509 19100 net.cpp:165] Memory required for data: 1027166360
I1007 08:14:32.921511 19100 layer_factory.hpp:76] Creating layer detection_accuracy_3_5x7
I1007 08:14:32.921531 19100 net.cpp:106] Creating Layer detection_accuracy_3_5x7
I1007 08:14:32.921535 19100 net.cpp:454] detection_accuracy_3_5x7 <- LFCN_3_5x7_LFCN_3_5x7_0_split_1
I1007 08:14:32.921540 19100 net.cpp:454] detection_accuracy_3_5x7 <- label_3_5x7_data_6_split_1
I1007 08:14:32.921545 19100 net.cpp:411] detection_accuracy_3_5x7 -> accuracy_3_5x7
I1007 08:14:32.921552 19100 net.cpp:411] detection_accuracy_3_5x7 -> boxiou_3_5x7
I1007 08:14:32.921604 19100 net.cpp:150] Setting up detection_accuracy_3_5x7
I1007 08:14:32.921612 19100 net.cpp:157] Top shape: 1 1 1 2 (2)
I1007 08:14:32.921615 19100 net.cpp:157] Top shape: 1 1 1 1 (1)
I1007 08:14:32.921618 19100 net.cpp:165] Memory required for data: 1027166372
I1007 08:14:32.921620 19100 layer_factory.hpp:76] Creating layer pool6
I1007 08:14:32.921625 19100 net.cpp:106] Creating Layer pool6
I1007 08:14:32.921629 19100 net.cpp:454] pool6 <- conv6_1_relu6_1_0_split_2
I1007 08:14:32.921635 19100 net.cpp:411] pool6 -> pool6
I1007 08:14:32.921869 19100 net.cpp:150] Setting up pool6
I1007 08:14:32.921881 19100 net.cpp:157] Top shape: 2 512 7 7 (50176)
I1007 08:14:32.921885 19100 net.cpp:165] Memory required for data: 1027367076
I1007 08:14:32.921887 19100 layer_factory.hpp:76] Creating layer LFCN_4_3x5
I1007 08:14:32.921895 19100 net.cpp:106] Creating Layer LFCN_4_3x5
I1007 08:14:32.921897 19100 net.cpp:454] LFCN_4_3x5 <- pool6
I1007 08:14:32.921905 19100 net.cpp:411] LFCN_4_3x5 -> LFCN_4_3x5
I1007 08:14:32.925012 19100 net.cpp:150] Setting up LFCN_4_3x5
I1007 08:14:32.925025 19100 net.cpp:157] Top shape: 2 6 7 7 (588)
I1007 08:14:32.925029 19100 net.cpp:165] Memory required for data: 1027369428
I1007 08:14:32.925034 19100 layer_factory.hpp:76] Creating layer LFCN_4_3x5_LFCN_4_3x5_0_split
I1007 08:14:32.925056 19100 net.cpp:106] Creating Layer LFCN_4_3x5_LFCN_4_3x5_0_split
I1007 08:14:32.925062 19100 net.cpp:454] LFCN_4_3x5_LFCN_4_3x5_0_split <- LFCN_4_3x5
I1007 08:14:32.925068 19100 net.cpp:411] LFCN_4_3x5_LFCN_4_3x5_0_split -> LFCN_4_3x5_LFCN_4_3x5_0_split_0
I1007 08:14:32.925074 19100 net.cpp:411] LFCN_4_3x5_LFCN_4_3x5_0_split -> LFCN_4_3x5_LFCN_4_3x5_0_split_1
I1007 08:14:32.925079 19100 net.cpp:411] LFCN_4_3x5_LFCN_4_3x5_0_split -> LFCN_4_3x5_LFCN_4_3x5_0_split_2
I1007 08:14:32.925170 19100 net.cpp:150] Setting up LFCN_4_3x5_LFCN_4_3x5_0_split
I1007 08:14:32.925179 19100 net.cpp:157] Top shape: 2 6 7 7 (588)
I1007 08:14:32.925181 19100 net.cpp:157] Top shape: 2 6 7 7 (588)
I1007 08:14:32.925185 19100 net.cpp:157] Top shape: 2 6 7 7 (588)
I1007 08:14:32.925189 19100 net.cpp:165] Memory required for data: 1027376484
I1007 08:14:32.925191 19100 layer_factory.hpp:76] Creating layer detection_loss_4_3x5
I1007 08:14:32.925196 19100 net.cpp:106] Creating Layer detection_loss_4_3x5
I1007 08:14:32.925199 19100 net.cpp:454] detection_loss_4_3x5 <- LFCN_4_3x5_LFCN_4_3x5_0_split_0
I1007 08:14:32.925206 19100 net.cpp:454] detection_loss_4_3x5 <- label_4_3x5_data_7_split_0
I1007 08:14:32.925211 19100 net.cpp:411] detection_loss_4_3x5 -> loss_4_3x5
I1007 08:14:32.925218 19100 layer_factory.hpp:76] Creating layer detection_loss_4_3x5
I1007 08:14:32.925851 19100 net.cpp:150] Setting up detection_loss_4_3x5
I1007 08:14:32.925863 19100 net.cpp:157] Top shape: 1 1 1 2 (2)
I1007 08:14:32.925878 19100 net.cpp:160]     with loss weight 1
I1007 08:14:32.925882 19100 net.cpp:165] Memory required for data: 1027376492
I1007 08:14:32.925885 19100 layer_factory.hpp:76] Creating layer detection_accuracy_4_3x5
I1007 08:14:32.925891 19100 net.cpp:106] Creating Layer detection_accuracy_4_3x5
I1007 08:14:32.925894 19100 net.cpp:454] detection_accuracy_4_3x5 <- LFCN_4_3x5_LFCN_4_3x5_0_split_1
I1007 08:14:32.925899 19100 net.cpp:454] detection_accuracy_4_3x5 <- label_4_3x5_data_7_split_1
I1007 08:14:32.925904 19100 net.cpp:411] detection_accuracy_4_3x5 -> accuracy_4_3x5
I1007 08:14:32.925923 19100 net.cpp:411] detection_accuracy_4_3x5 -> boxiou_4_3x5
I1007 08:14:32.925986 19100 net.cpp:150] Setting up detection_accuracy_4_3x5
I1007 08:14:32.925992 19100 net.cpp:157] Top shape: 1 1 1 2 (2)
I1007 08:14:32.925997 19100 net.cpp:157] Top shape: 1 1 1 1 (1)
I1007 08:14:32.925998 19100 net.cpp:165] Memory required for data: 1027376504
I1007 08:14:32.926000 19100 layer_factory.hpp:76] Creating layer proposals
I1007 08:14:32.926009 19100 net.cpp:106] Creating Layer proposals
I1007 08:14:32.926012 19100 net.cpp:454] proposals <- LFCN_1_3x5_LFCN_1_3x5_0_split_2
I1007 08:14:32.926017 19100 net.cpp:454] proposals <- LFCN_1_5x7_LFCN_1_5x7_0_split_2
I1007 08:14:32.926020 19100 net.cpp:454] proposals <- LFCN_2_3x5_LFCN_2_3x5_0_split_2
I1007 08:14:32.926023 19100 net.cpp:454] proposals <- LFCN_2_5x7_LFCN_2_5x7_0_split_2
I1007 08:14:32.926026 19100 net.cpp:454] proposals <- LFCN_3_3x5_LFCN_3_3x5_0_split_2
I1007 08:14:32.926029 19100 net.cpp:454] proposals <- LFCN_3_5x7_LFCN_3_5x7_0_split_2
I1007 08:14:32.926033 19100 net.cpp:454] proposals <- LFCN_4_3x5_LFCN_4_3x5_0_split_2
I1007 08:14:32.926038 19100 net.cpp:411] proposals -> proposals
I1007 08:14:32.926069 19100 net.cpp:150] Setting up proposals
I1007 08:14:32.926074 19100 net.cpp:157] Top shape: 1 5 1 1 (5)
I1007 08:14:32.926076 19100 net.cpp:165] Memory required for data: 1027376524
I1007 08:14:32.926079 19100 layer_factory.hpp:76] Creating layer proposal_info
I1007 08:14:32.926089 19100 net.cpp:106] Creating Layer proposal_info
I1007 08:14:32.926091 19100 net.cpp:454] proposal_info <- proposals
I1007 08:14:32.926095 19100 net.cpp:454] proposal_info <- gt_boxes
I1007 08:14:32.926102 19100 net.cpp:411] proposal_info -> rois
I1007 08:14:32.926108 19100 net.cpp:411] proposal_info -> proposal_labels
I1007 08:14:32.926115 19100 net.cpp:411] proposal_info -> proposal_targets
I1007 08:14:32.926120 19100 net.cpp:411] proposal_info -> box_inside_weights
I1007 08:14:32.926126 19100 net.cpp:411] proposal_info -> box_outside_weights
I1007 08:14:32.926131 19100 net.cpp:411] proposal_info -> match_gt_boxes
I1007 08:14:32.926246 19100 net.cpp:150] Setting up proposal_info
I1007 08:14:32.926254 19100 net.cpp:157] Top shape: 64 5 1 1 (320)
I1007 08:14:32.926257 19100 net.cpp:157] Top shape: 64 1 1 1 (64)
I1007 08:14:32.926261 19100 net.cpp:157] Top shape: 64 8 1 1 (512)
I1007 08:14:32.926265 19100 net.cpp:157] Top shape: 64 8 1 1 (512)
I1007 08:14:32.926267 19100 net.cpp:157] Top shape: 64 8 1 1 (512)
I1007 08:14:32.926270 19100 net.cpp:157] Top shape: 64 6 1 1 (384)
I1007 08:14:32.926273 19100 net.cpp:165] Memory required for data: 1027385740
I1007 08:14:32.926275 19100 layer_factory.hpp:76] Creating layer rois_proposal_info_0_split
I1007 08:14:32.926281 19100 net.cpp:106] Creating Layer rois_proposal_info_0_split
I1007 08:14:32.926285 19100 net.cpp:454] rois_proposal_info_0_split <- rois
I1007 08:14:32.926290 19100 net.cpp:411] rois_proposal_info_0_split -> rois_proposal_info_0_split_0
I1007 08:14:32.926295 19100 net.cpp:411] rois_proposal_info_0_split -> rois_proposal_info_0_split_1
I1007 08:14:32.926300 19100 net.cpp:411] rois_proposal_info_0_split -> rois_proposal_info_0_split_2
I1007 08:14:32.926358 19100 net.cpp:150] Setting up rois_proposal_info_0_split
I1007 08:14:32.926365 19100 net.cpp:157] Top shape: 64 5 1 1 (320)
I1007 08:14:32.926368 19100 net.cpp:157] Top shape: 64 5 1 1 (320)
I1007 08:14:32.926372 19100 net.cpp:157] Top shape: 64 5 1 1 (320)
I1007 08:14:32.926374 19100 net.cpp:165] Memory required for data: 1027389580
I1007 08:14:32.926376 19100 layer_factory.hpp:76] Creating layer proposal_labels_proposal_info_1_split
I1007 08:14:32.926383 19100 net.cpp:106] Creating Layer proposal_labels_proposal_info_1_split
I1007 08:14:32.926385 19100 net.cpp:454] proposal_labels_proposal_info_1_split <- proposal_labels
I1007 08:14:32.926389 19100 net.cpp:411] proposal_labels_proposal_info_1_split -> proposal_labels_proposal_info_1_split_0
I1007 08:14:32.926394 19100 net.cpp:411] proposal_labels_proposal_info_1_split -> proposal_labels_proposal_info_1_split_1
I1007 08:14:32.926437 19100 net.cpp:150] Setting up proposal_labels_proposal_info_1_split
I1007 08:14:32.926445 19100 net.cpp:157] Top shape: 64 1 1 1 (64)
I1007 08:14:32.926447 19100 net.cpp:157] Top shape: 64 1 1 1 (64)
I1007 08:14:32.926450 19100 net.cpp:165] Memory required for data: 1027390092
I1007 08:14:32.926453 19100 layer_factory.hpp:76] Creating layer conv4_3_2x
I1007 08:14:32.926460 19100 net.cpp:106] Creating Layer conv4_3_2x
I1007 08:14:32.926463 19100 net.cpp:454] conv4_3_2x <- conv4_3_relu4_3_0_split_2
I1007 08:14:32.926468 19100 net.cpp:411] conv4_3_2x -> conv4_3_2x
I1007 08:14:32.926949 19100 net.cpp:150] Setting up conv4_3_2x
I1007 08:14:32.926965 19100 net.cpp:157] Top shape: 2 512 112 112 (12845056)
I1007 08:14:32.926967 19100 net.cpp:165] Memory required for data: 1078770316
I1007 08:14:32.926972 19100 layer_factory.hpp:76] Creating layer conv4_3_2x_conv4_3_2x_0_split
I1007 08:14:32.926978 19100 net.cpp:106] Creating Layer conv4_3_2x_conv4_3_2x_0_split
I1007 08:14:32.926981 19100 net.cpp:454] conv4_3_2x_conv4_3_2x_0_split <- conv4_3_2x
I1007 08:14:32.926986 19100 net.cpp:411] conv4_3_2x_conv4_3_2x_0_split -> conv4_3_2x_conv4_3_2x_0_split_0
I1007 08:14:32.926991 19100 net.cpp:411] conv4_3_2x_conv4_3_2x_0_split -> conv4_3_2x_conv4_3_2x_0_split_1
I1007 08:14:32.927037 19100 net.cpp:150] Setting up conv4_3_2x_conv4_3_2x_0_split
I1007 08:14:32.927045 19100 net.cpp:157] Top shape: 2 512 112 112 (12845056)
I1007 08:14:32.927048 19100 net.cpp:157] Top shape: 2 512 112 112 (12845056)
I1007 08:14:32.927052 19100 net.cpp:165] Memory required for data: 1181530764
I1007 08:14:32.927053 19100 layer_factory.hpp:76] Creating layer roi_pool_org
I1007 08:14:32.927059 19100 net.cpp:106] Creating Layer roi_pool_org
I1007 08:14:32.927062 19100 net.cpp:454] roi_pool_org <- conv4_3_2x_conv4_3_2x_0_split_0
I1007 08:14:32.927067 19100 net.cpp:454] roi_pool_org <- rois_proposal_info_0_split_0
I1007 08:14:32.927070 19100 net.cpp:411] roi_pool_org -> roi_pool_org
I1007 08:14:32.927076 19100 roi_pooling_layer.cpp:35] Spatial scale: 0.25
I1007 08:14:32.927127 19100 net.cpp:150] Setting up roi_pool_org
I1007 08:14:32.927136 19100 net.cpp:157] Top shape: 64 512 8 4 (1048576)
I1007 08:14:32.927139 19100 net.cpp:165] Memory required for data: 1185725068
I1007 08:14:32.927141 19100 layer_factory.hpp:76] Creating layer roi_pool_ctx
I1007 08:14:32.927146 19100 net.cpp:106] Creating Layer roi_pool_ctx
I1007 08:14:32.927150 19100 net.cpp:454] roi_pool_ctx <- conv4_3_2x_conv4_3_2x_0_split_1
I1007 08:14:32.927153 19100 net.cpp:454] roi_pool_ctx <- rois_proposal_info_0_split_1
I1007 08:14:32.927157 19100 net.cpp:411] roi_pool_ctx -> roi_pool_ctx
I1007 08:14:32.927162 19100 roi_pooling_layer.cpp:35] Spatial scale: 0.25
I1007 08:14:32.927215 19100 net.cpp:150] Setting up roi_pool_ctx
I1007 08:14:32.927222 19100 net.cpp:157] Top shape: 64 512 8 4 (1048576)
I1007 08:14:32.927225 19100 net.cpp:165] Memory required for data: 1189919372
I1007 08:14:32.927227 19100 layer_factory.hpp:76] Creating layer roi_pool
I1007 08:14:32.927232 19100 net.cpp:106] Creating Layer roi_pool
I1007 08:14:32.927235 19100 net.cpp:454] roi_pool <- roi_pool_org
I1007 08:14:32.927239 19100 net.cpp:454] roi_pool <- roi_pool_ctx
I1007 08:14:32.927245 19100 net.cpp:411] roi_pool -> roi_pool
I1007 08:14:32.927276 19100 net.cpp:150] Setting up roi_pool
I1007 08:14:32.927284 19100 net.cpp:157] Top shape: 64 1024 8 4 (2097152)
I1007 08:14:32.927285 19100 net.cpp:165] Memory required for data: 1198307980
I1007 08:14:32.927289 19100 layer_factory.hpp:76] Creating layer roi_c1
I1007 08:14:32.927296 19100 net.cpp:106] Creating Layer roi_c1
I1007 08:14:32.927300 19100 net.cpp:454] roi_c1 <- roi_pool
I1007 08:14:32.927306 19100 net.cpp:411] roi_c1 -> roi_c1
I1007 08:14:33.088778 19100 net.cpp:150] Setting up roi_c1
I1007 08:14:33.088800 19100 net.cpp:157] Top shape: 64 512 8 4 (1048576)
I1007 08:14:33.088804 19100 net.cpp:165] Memory required for data: 1202502284
I1007 08:14:33.088810 19100 layer_factory.hpp:76] Creating layer roi_c1_relu
I1007 08:14:33.088830 19100 net.cpp:106] Creating Layer roi_c1_relu
I1007 08:14:33.088835 19100 net.cpp:454] roi_c1_relu <- roi_c1
I1007 08:14:33.088842 19100 net.cpp:397] roi_c1_relu -> roi_c1 (in-place)
I1007 08:14:33.089236 19100 net.cpp:150] Setting up roi_c1_relu
I1007 08:14:33.089248 19100 net.cpp:157] Top shape: 64 512 8 4 (1048576)
I1007 08:14:33.089251 19100 net.cpp:165] Memory required for data: 1206696588
I1007 08:14:33.089254 19100 layer_factory.hpp:76] Creating layer fc6
I1007 08:14:33.089264 19100 net.cpp:106] Creating Layer fc6
I1007 08:14:33.089268 19100 net.cpp:454] fc6 <- roi_c1
I1007 08:14:33.089277 19100 net.cpp:411] fc6 -> fc6
I1007 08:14:34.142966 19100 net.cpp:150] Setting up fc6
I1007 08:14:34.143014 19100 net.cpp:157] Top shape: 64 2048 (131072)
I1007 08:14:34.143018 19100 net.cpp:165] Memory required for data: 1207220876
I1007 08:14:34.143035 19100 layer_factory.hpp:76] Creating layer relu6
I1007 08:14:34.143050 19100 net.cpp:106] Creating Layer relu6
I1007 08:14:34.143069 19100 net.cpp:454] relu6 <- fc6
I1007 08:14:34.143075 19100 net.cpp:397] relu6 -> fc6 (in-place)
I1007 08:14:34.143476 19100 net.cpp:150] Setting up relu6
I1007 08:14:34.143486 19100 net.cpp:157] Top shape: 64 2048 (131072)
I1007 08:14:34.143489 19100 net.cpp:165] Memory required for data: 1207745164
I1007 08:14:34.143492 19100 layer_factory.hpp:76] Creating layer drop6
I1007 08:14:34.143501 19100 net.cpp:106] Creating Layer drop6
I1007 08:14:34.143506 19100 net.cpp:454] drop6 <- fc6
I1007 08:14:34.143510 19100 net.cpp:397] drop6 -> fc6 (in-place)
I1007 08:14:34.143549 19100 net.cpp:150] Setting up drop6
I1007 08:14:34.143555 19100 net.cpp:157] Top shape: 64 2048 (131072)
I1007 08:14:34.143558 19100 net.cpp:165] Memory required for data: 1208269452
I1007 08:14:34.143560 19100 layer_factory.hpp:76] Creating layer fc6_drop6_0_split
I1007 08:14:34.143564 19100 net.cpp:106] Creating Layer fc6_drop6_0_split
I1007 08:14:34.143568 19100 net.cpp:454] fc6_drop6_0_split <- fc6
I1007 08:14:34.143574 19100 net.cpp:411] fc6_drop6_0_split -> fc6_drop6_0_split_0
I1007 08:14:34.143580 19100 net.cpp:411] fc6_drop6_0_split -> fc6_drop6_0_split_1
I1007 08:14:34.143654 19100 net.cpp:150] Setting up fc6_drop6_0_split
I1007 08:14:34.143663 19100 net.cpp:157] Top shape: 64 2048 (131072)
I1007 08:14:34.143666 19100 net.cpp:157] Top shape: 64 2048 (131072)
I1007 08:14:34.143669 19100 net.cpp:165] Memory required for data: 1209318028
I1007 08:14:34.143672 19100 layer_factory.hpp:76] Creating layer cls_pred
I1007 08:14:34.143681 19100 net.cpp:106] Creating Layer cls_pred
I1007 08:14:34.143684 19100 net.cpp:454] cls_pred <- fc6_drop6_0_split_0
I1007 08:14:34.143694 19100 net.cpp:411] cls_pred -> cls_pred
I1007 08:14:34.143980 19100 net.cpp:150] Setting up cls_pred
I1007 08:14:34.143987 19100 net.cpp:157] Top shape: 64 2 (128)
I1007 08:14:34.143990 19100 net.cpp:165] Memory required for data: 1209318540
I1007 08:14:34.143996 19100 layer_factory.hpp:76] Creating layer cls_pred_cls_pred_0_split
I1007 08:14:34.144002 19100 net.cpp:106] Creating Layer cls_pred_cls_pred_0_split
I1007 08:14:34.144006 19100 net.cpp:454] cls_pred_cls_pred_0_split <- cls_pred
I1007 08:14:34.144011 19100 net.cpp:411] cls_pred_cls_pred_0_split -> cls_pred_cls_pred_0_split_0
I1007 08:14:34.144016 19100 net.cpp:411] cls_pred_cls_pred_0_split -> cls_pred_cls_pred_0_split_1
I1007 08:14:34.144124 19100 net.cpp:150] Setting up cls_pred_cls_pred_0_split
I1007 08:14:34.144130 19100 net.cpp:157] Top shape: 64 2 (128)
I1007 08:14:34.144137 19100 net.cpp:157] Top shape: 64 2 (128)
I1007 08:14:34.144140 19100 net.cpp:165] Memory required for data: 1209319564
I1007 08:14:34.144142 19100 layer_factory.hpp:76] Creating layer bbox_pred
I1007 08:14:34.144150 19100 net.cpp:106] Creating Layer bbox_pred
I1007 08:14:34.144152 19100 net.cpp:454] bbox_pred <- fc6_drop6_0_split_1
I1007 08:14:34.144158 19100 net.cpp:411] bbox_pred -> bbox_pred
I1007 08:14:34.144870 19100 net.cpp:150] Setting up bbox_pred
I1007 08:14:34.144879 19100 net.cpp:157] Top shape: 64 8 (512)
I1007 08:14:34.144882 19100 net.cpp:165] Memory required for data: 1209321612
I1007 08:14:34.144887 19100 layer_factory.hpp:76] Creating layer bbox_pred_bbox_pred_0_split
I1007 08:14:34.144891 19100 net.cpp:106] Creating Layer bbox_pred_bbox_pred_0_split
I1007 08:14:34.144896 19100 net.cpp:454] bbox_pred_bbox_pred_0_split <- bbox_pred
I1007 08:14:34.144899 19100 net.cpp:411] bbox_pred_bbox_pred_0_split -> bbox_pred_bbox_pred_0_split_0
I1007 08:14:34.144906 19100 net.cpp:411] bbox_pred_bbox_pred_0_split -> bbox_pred_bbox_pred_0_split_1
I1007 08:14:34.144956 19100 net.cpp:150] Setting up bbox_pred_bbox_pred_0_split
I1007 08:14:34.144961 19100 net.cpp:157] Top shape: 64 8 (512)
I1007 08:14:34.144964 19100 net.cpp:157] Top shape: 64 8 (512)
I1007 08:14:34.144966 19100 net.cpp:165] Memory required for data: 1209325708
I1007 08:14:34.144969 19100 layer_factory.hpp:76] Creating layer loss_cls
I1007 08:14:34.144976 19100 net.cpp:106] Creating Layer loss_cls
I1007 08:14:34.144980 19100 net.cpp:454] loss_cls <- cls_pred_cls_pred_0_split_0
I1007 08:14:34.144985 19100 net.cpp:454] loss_cls <- proposal_labels_proposal_info_1_split_0
…
